Ni_prediction/savemodel/bst_mod_625.pth (torch_old, 533443 bytes, 44 tensors)

price_encoder.attention.weight f4 [1, 121]
00000000: 4ecd 1841 225e 1941 42f7 1741 d85b 19c1
00000010: 7be0 16c1 d1d0 1641 ceb8 1841 6b2c 15c1
00000020: ba65 1841 469f 1741 99d2 1741 8b09 1941
00000030: 1706 17c1 fc07 18c1 7e2a 18c1 e24f 1741
00000040: 10e1 1641 115f 17c1 5f2a 1541 f810 1841
00000050: e46b 1541 df26 1841 ecf4 1841 e3b6 18c1
00000060: 43be 18c1 74d4 1741 9e08 17c1 f5f6 18c1
00000070: 5a9f 18c1 2971 17c1 463e 1841 a8ca 17c1
00000080: ee0a 1841 9c75 1941 e0f5 1641 50df 1741
00000090: 55bf 18c1 a8f2 1841 d851 1841 f7ae 18c1
000000a0: b315 1841 3881 1941 b156 1741 bbe1 1841
000000b0: 68fe 1641 e6ef 1841 68e8 1841 2ee6 1841
000000c0: 1770 1941 38e0 1741 aa3f 1741 5e9f 1741
000000d0: ba6b 1841 ce83 1741 5081 1641 dc3b 1841
000000e0: 0c9a 1841 6853 19c1 8c3a 18c1 92a1 1941
000000f0: 3a2e 1741 2019 19c1 5a8a 18c1 5f64 16c1
00000100: 2554 19c1 ac1b 1941 c621 1841 0282 1741
00000110: a51a 1741 56fd 17c1 8dca 17c1 fa3a 1841
00000120: 8580 1841 c71c 1741 ca38 17c1 75d0 1641
00000130: 1e37 17c1 e626 0741 6524 1941 9594 1841
00000140: bb03 17c1 9e27 17c1 2b43 1841 30b1 1741
00000150: 9a4b 1941 0970 19c1 6abe 16c1 4c80 19c1
00000160: 5bf8 1841 98f4 1841 d67b 1941 3860 1941
00000170: b8a7 1741 341f 1941 166e 17c1 4b88 19c1
00000180: cb71 17c1 3884 1841 c1ca 18c1 6e7d 1641
00000190: e784 1741 31ba 1741 aa2e 1841 5341 1941
000001a0: 81e0 1841 165f 1741 ffdb 1641 04ec 1841
000001b0: 1606 1941 302b 1841 60d2 1641 503d 1841
000001c0: e0b7 1641 8a8c 1841 1252 1941 bed7 1641
000001d0: 7fb6 1741 f898 1741 5f12 1941 7e6f 1841
000001e0: 06ee 1841
9.550123 9.585482 9.497866 -9.584923 -9.429805 9.425981 9.545118 -9.323344
9.524836 9.476385 9.488915 9.56483 -9.438987 -9.501949 -9.510374 9.457003
9.429947 -9.46071 9.3228445 9.504143 9.3388405 9.50949 9.559795 -9.54465
-9.546451 9.489368 -9.439604 -9.560292 -9.538904 -9.465127 9.515203 -9.486977
9.502668 9.591213 9.435028 9.49202 -9.546712 9.559242 9.519981 -9.542716
9.505298 9.594048 9.458665 9.55511 9.437111 9.558569 9.55674 9.556196
9.589866 9.492241 9.453043 9.476408 9.5263 9.469679 9.40657 9.514614
9.537609 -9.582863 -9.514294 9.601946 9.448786 -9.568634 -9.533777 -9.399505
-9.583043 9.569256 9.508245 9.46924 9.444005 -9.49935 -9.486951 9.514399
9.531377 9.444526 -9.4513645 9.425893 -9.450956 8.446997 9.571385 9.536275
-9.438411 -9.447172 9.516398 9.480759 9.580957 -9.589852 -9.421488 -9.5938225
9.560634 9.559715 9.592733 9.585991 9.478447 9.570118 -9.464376 -9.595775
-9.4652815 9.53228 -9.5495 9.4056225 9.469947 9.482957 9.511393 9.578448
9.554811 9.460714 9.42871 9.557621 9.563986 9.510544 9.426361 9.514969
9.419891 9.534311 9.582537 9.427671 9.482055 9.474846 9.566985 9.52722
9.558111

price_encoder.encoder.weight_ih_l0 f4 [180, 45]
00000000: 1c78 cebd 3286 f1bd 1832 033d 2005 a93d
00000010: e67b 63bd a2b0 d53d 8009 a13d 0aef f9bd
00000020: b740 d4bd 4015 43bc 73f8 e1bd ceef 6cbd
00000030: bcda d9bc d840 fb3c beb2 f7bd 70ab 763c
00000040: fc9a 503d 0840 aabd 6861 b93d e6b1 eb3d
00000050: 61de e13d 367c 8c3d d25c dabd 0671 16c1
00000060: d778 14be a5f2 17be 6b3d f9bd 5ba3 033e
00000070: 534b 083e 389a 143d 0b55 07be e0f9 fcbb
00000080: b6f8 ef3d 0412 1341 e36c 1741 08b4 1741
00000090: d4f7 1741 990a 1841 b2dc 27bf 2832 1741
000000a0: 4e8a 1a41 2666 1941 9528 1741 88ba c63c
000000b0: d6bd febd 159d ffbd 9b53 8f3d e85b e23d
000000c0: f149 383d f629 bc3d f564 003e 5717 8dbd
000000d0: cb1e b13d aba2 7d3d 706e 003d 88ee bb3d
000000e0: 50f7 a8bc fafc 8a3d 1fb8 043e 60dc 453c
000000f0: a325 11be c737 09be 60f9 9e3b 288a 06bd
00000100: 9e3f df3d 9165 6d40 2a37 a13d 041e c0ba
00000110: c3ec 1541 77e7 f6bd cb93 13be 7a37 f73d
00000120: 3eaf 3abd 428e 11be 403b 4cbb 8aa9 32bd
00000130: 5754 0e3e 21bb c0bd 2fce 1641 0e27 1641
00000140: e8c5 1741 e507 1741 154c 1a41 035a 07be
00000150: 8831 1741 29a7 1641 cbe1 1641 a374 1941
00000160: 103a 243d 707b 343d 047b d83d c454 ddbb
00000170: ba74 f0bd 9b32 e0bd 2898 e73c ce97 513d
00000180: 64c2 853d cfb6 883d cc28 dcbc 8e92 abbd
00000190: c61e 06be 302e a13c 9e79 4bbd a006 cfbd
000001a0: 60f5 ba3b 58c1 883c 421f c23d 84a8 c7bd
000001b0: 1061 6c3c f4d8 9abd e5a8 5040 d784 b63c
000001c0: 1124 cfbc a07d 1741 2495 5cbd 00d2 263d
000001d0: 7e00 35bd 0672 403c 84d6 cebd 336e 103e
000001e0: 424c dfbd df28 103e bc1f 0ebe 64e0 1941
000001f0: 7e22 1641 a4b5 1741 bdc2 1841 4e98 1941
00000200: 6ade 15c1 b580 1741 0268 1941 1439 1641
00000210: 7156 1741 94d1 6f3d 1dbc 80bd c24b c73d
00000220: 46b9 5ebd 8e17 05be 6205 afbc 3076 20bd
00000230: 8e55 ed3d fa74 f73d abe7 c13d 91f3 8ebb
00000240: 18b5 a13d 02a1 e63d b6fa ec3d f0ba c93d
00000250: 4208 16c1 5cea 113d 4c36 7c3d b6da 15bd
00000260: a05c 17bc f0ea 7a40 c669 313d ef8c e3be
00000270: 8299 98bc 231b 613d 111d 18c1 8cda 463d
00000280: 0de6 143e 40b8 83bd 3230 b6bd 4a8e 18c1
00000290: 7823 af3d aa78 c73d e46f fec0 3432 b9bd
000002a0: c77b 19c1 aa6e 19c1 93c2 16c1 0005 17c1
000002b0: f554 19c1 7ae8 c6bd be20 17c1 fd39 18c1
000002c0: adc3 16c1 37e5 16c1 f22d a13d e86d 173d
000002d0: eb4b b0bd b862 acbc 6659 ac3d 210c 0d3e
000002e0: 3c14 b13d ab11 133e 9e4c 0dbe acfe 12be
000002f0: 4098 b4bd 6497 55bd 98df 593d 23d6 14be
00000300: 329c d8bd cff1 a6bd 805a edbb 6684 b23d
00000310: 24b1 08bd fcdc b8bd 6832 1d3d b8c1 b3bd
00000320: a041 66be 5668 ac3d cb81 1f3d 83bb 17c1
00000330: b249 cd3d 81c7 103e 6cf5 993d 50da df3c
00000340: 7d28 033e ca30 fa3d 4842 5d3d 0028 8cbc
00000350: 7bd8 d6bd 5d99 15c1 c3c2 19c1 8844 1ac1
00000360: 193f 17c1 6e48 18c1 e049 b1bb 38e5 17c1
00000370: db6b 16c1 d2d7 15c1 2d3d 19c1 2427 a3bd
00000380: 70ee 3abc 07ae 8abc 7c26 863d d0b9 743c
00000390: f8c4 1cbd 59b5 013e 6f38 163e 6340 cbba
000003a0: df5d 183e 7ced 813d beaf e73d 70b8 06be
000003b0: 60d3 bb3d 731d bbbd f4d7 1641 705b 0f3c
000003c0: 00ab f83a 7459 1f3d e81f d23c fab1 d3bd
000003d0: e8cc 9e3d eae2 13be d38b 9fbd 0cce 93ba
000003e0: bc98 1ac1 6029 de3c 952b babd 967b f23d
000003f0: d66e 1fbd 6c4b 1841 c56b 833d a1a5 0a3e
-0.10081503 -0.11793174 0.032030195 0.08252931 -0.05553808 0.10434081 0.0786314 -0.12203796
-0.10363906 -0.011906922 -0.11033716 -0.057845883 -0.026593558 0.030670568 -0.12094639 0.015055522
0.050929055 -0.08312994 0.09051782 0.11508541 0.110287435 0.06859629 -0.10662235 -9.402594
-0.14499222 -0.14838655 -0.12169918 0.12855284 0.13309984 0.036279887 -0.13216035 -0.007720217
0.1171736 9.191898 9.464084 9.481453 9.498005 9.502587 -0.6557113 9.449745
9.658766 9.587439 9.447408 0.024258867 -0.12438552 -0.12481133 0.06998368 0.11052686
0.04499239 0.09187691 0.12538512 -0.06889217 0.086484514 0.06192271 0.03135532 0.091763556
-0.02062574 0.06786533 0.12960862 0.012076467 -0.14174514 -0.13400184 0.004851505 -0.0328466
0.10900806 3.7093241 0.0787185 -0.0014657383 9.370303 -0.12055867 -0.14411847 0.12071128
-0.04557728 -0.14214423 -0.0031163245 -0.043618716 0.1389936 -0.09410692 9.425338 9.384535
9.485817 9.439427 9.643575 -0.1321793 9.449593 9.415811 9.430125 9.590976
0.040094435 0.04406303 0.10570338 -0.0067544896 -0.11741014 -0.10947152 0.028270796 0.051170163
0.06531218 0.06675493 -0.026874922 -0.083775625 -0.13097677 0.019675344 -0.04967653 -0.101086855
0.0057055205 0.016693756 0.09478618 -0.09748939 0.014427438 -0.07560912 3.2603085 0.02228014
-0.025285752 9.46817 -0.05385317 0.040727615 -0.044189923 0.011745935 -0.10099509 0.14104538
-0.10903217 0.14078091 -0.13879293 9.617283 9.383421 9.481846 9.547544 9.599684
-9.3668 9.468923 9.587893 9.388935 9.458604 0.05854948 -0.0628588 0.097312465
-0.05437591 -0.12997267 -0.021364871 -0.039175212 0.11588584 0.120828584 0.09468015 -0.0043625315
0.07895869 0.112611786 0.11571257 0.098501086 -9.377016 0.035623893 0.06157522 -0.036585532
-0.009238392 3.9205894 0.043313764 -0.4444346 -0.018627886 0.05495752 -9.507096 0.048548266
0.14540882 -0.06431627 -0.08895911 -9.534739 0.08551687 0.09739812 -7.9511585 -0.090427786
-9.592719 -9.589518 -9.422503 -9.438721 -9.583241 -0.0971231 -9.445494 -9.514157
-9.422772 -9.430961 0.078700915 0.03697005 -0.0860823 -0.021043167 0.08415489 0.13774158
0.086464375 0.14362209 -0.13798758 -0.14354962 -0.08818102 -0.05214633 0.05319175 -0.14534812
-0.10576667 -0.0815159 -0.0072434545 0.08716659 -0.03337206 -0.090265244 0.03837815 -0.08777183
-0.22485971 0.08418338 0.03894214 -9.483279 0.10023822 0.14138605 0.07517514 0.02732578
0.12808414 0.12216337 0.05401829 -0.017108917 -0.10490509 -9.349942 -9.610049 -9.641731
-9.452905 -9.517683 -0.005410418 -9.493462 -9.401332 -9.3651905 -9.5774355 -0.0796645
-0.011409387 -0.016928686 0.06550309 0.014936879 -0.03827378 0.12666835 0.14669965 -0.001550686
0.14879559 0.06344125 0.11312817 -0.13156295 0.09171176 -0.09136476 9.427723 0.008749828
0.001897186 0.03890367 0.02564998 -0.10336681 0.077539265 -0.1444203 -0.07790341 -0.0011276617
-9.662289 0.027119339 -0.09090344 0.118399784 -0.03892406 9.518414 0.0641704 0.13539745

price_encoder.encoder.weight_hh_l0 f4 [180, 45]
00000000: e108 1a41 bf97 1841 bd65 1641 4c6a 16c1
00000010: 0113 1841 4a30 1741 1ce7 1741 b215 1ac1
00000020: 2cf3 17c1 3411 17c1 d7a6 19c1 db42 1941
00000030: ef3a 17c1 573b 18c1 eff1 1641 4757 1ac1
00000040: 9cba 1641 5abe 18c1 4ef8 1541 9335 1ac1
00000050: e302 1641 c8e0 1741 5b44 1641 58e0 1641
00000060: 9ec2 17c1 c8de 15c1 0e6c 16c1 904a 1741
00000070: a0f6 15c1 b451 17c1 ddab 1641 b767 18c1
00000080: e1eb 1741 3362 1841 54f8 1741 a3ed 15c1
00000090: 9b83 17c1 2cd6 1841 b8e2 1641 a598 1a41
000000a0: f2c4 1941 2a2c 1741 90dd 18c1 4b4d 1a41
000000b0: b6b2 19c1 1c16 1ac1 001c 19c1 4d30 18c1
000000c0: 4df5 1841 a0ce 16c1 20aa 19c1 2f7d 16c1
000000d0: 367b 19c1 8b58 1741 de31 19c1 43f3 1641
000000e0: a583 1ac1 9e1f 1641 7144 1741 545c 18c1
000000f0: f71a 1a41 dc5f 17c1 e311 1641 65d3 16c1
00000100: 2335 1841 56bd 1641 e896 19c1 22bb 16c1
00000110: c387 18c1 2e2d 1a41 c944 1941 88d6 1641
00000120: 047d 17c1 47f7 1541 6fe6 1841 704c 1ac1
00000130: 990d 1941 957d 18c1 4c0d 19c1 f8b0 16c1
00000140: 434c 1641 06e5 1741 729c 19c1 6c4f 16c1
00000150: 0176 19c1 7737 18c1 1998 17c1 6716 1941
00000160: 22cd 16c1 88e7 1641 7526 17c1 0d31 19c1
00000170: 4338 1ac1 d67c 1841 5960 16c1 2582 18c1
00000180: b00e 16c1 2572 17c1 52bc 1841 f5b4 17c1
00000190: c06f 1a41 938f 17c1 ce10 1a41 f50c 1941
000001a0: 4882 16c1 5d46 1641 dd90 19c1 9f02 1a41
000001b0: 7583 1ac1 e902 19c1 50a2 1641 6a36 17c1
000001c0: c13e 19c1 15c9 18c1 3c4a 1741 805a 1841
000001d0: fd89 1741 c2d9 19c1 b667 1641 f17c 1a41
000001e0: 473d 17c1 b1e4 1641 4d27 16c1 60b9 18c1
000001f0: 0a36 19c1 cf5a 1941 a4b6 1641 d8f3 15c1
00000200: 47ae 16c1 9179 16c1 4310 16c1 d6ca 17c1
00000210: 9922 1841 5e95 17c1 2cdf 1841 bec6 1941
00000220: d690 1741 124f 1941 a4c1 18c1 1ff6 1841
00000230: f575 1641 070e 1741 028c 1641 9862 17c1
00000240: 5080 1941 65c2 16c1 5ba3 1641 a8e4 1841
00000250: f263 17c1 2378 1941 3a56 18c1 bb7b 1641
00000260: 0c3f 18c1 70a5 1841 20d6 1841 011a 18c1
00000270: c21c 1741 89b0 1941 d8a8 1841 800c 16c1
00000280: a29a 17c1 75d3 1741 adc4 1641 ec4e 1ac1
00000290: f42b 1ac1 3772 1941 3663 17c1 fbf5 1641
000002a0: c552 1a41 8788 1a41 d4f4 19c1 b5c5 16c1
000002b0: e77e 1841 6616 1741 5d2d 1741 f788 1941
000002c0: 6178 1641 076a 1ac1 5ba7 1641 0138 18c1
000002d0: 921b 1641 cb22 1741 9241 1a41 d059 19c1
000002e0: 56ef 1541 34ee 1641 d28f 1a41 d9f0 1941
000002f0: bdcf 19c1 0a5a 1941 c5b0 18c1 4227 1841
00000300: 2abb 18c1 e4b0 16c1 ab40 1641 4c8b 16c1
00000310: b2c0 1741 0a67 16c1 8f7e 1641 8f8f 1941
00000320: f61c 16c1 9b13 1641 44b3 1741 7f56 1a41
00000330: 57d9 17c1 4253 17c1 56d5 1841 9a36 1941
00000340: a49d 17c1 f820 16c1 27de 1641 b90a 1ac1
00000350: d287 1841 3b83 1a41 f5e9 1941 2ba3 16c1
00000360: 7edf 17c1 8e84 1641 5694 1941 f4ed 1841
00000370: 4066 1741 b53d 1941 58d9 17c1 c46e 1641
00000380: 6f42 16c1 7b6a 1741 fad6 1841 9a8a 1941
00000390: 4124 1ac1 b8ac 1941 174f 1641 2e47 1741
000003a0: 5210 1a41 f678 17c1 a686 1a41 4bb3 17c1
000003b0: cd9c 1641 5c03 16c1 23a5 17c1 a268 1741
000003c0: 91e1 18c1 3c12 1a41 dbe8 19c1 cca3 1841
000003d0: 3b21 1a41 dfac 16c1 1f70 1741 c825 1641
000003e0: 6701 1641 6958 18c1 f2a0 18c1 e4d8 1541
000003f0: 9d0d 1a41 bdf9 16c1 6a44 1ac1 4ff0 1741
9.627168 9.537047 9.399838 -9.400951 9.50464 9.449289 9.493923 -9.630297
-9.496868 -9.4417 -9.603232 9.578822 -9.451888 -9.514487 9.434066 -9.646308
9.420559 -9.546473 9.373121 -9.63808 9.375705 9.492378 9.391688 9.429771
-9.485014 -9.36689 -9.401381 9.455704 -9.372711 -9.457447 9.416959 -9.525321
9.495088 9.523974 9.498127 -9.370517 -9.46963 9.552288 9.430351 9.662267
9.610582 9.448282 -9.554092 9.64387 -9.606131 -9.630398 -9.569336 -9.511792
9.559888 -9.425446 -9.604034 -9.405562 -9.592581 9.459117 -9.574675 9.43439
-9.65714 9.382719 9.454209 -9.522541 9.631583 -9.460903 9.379367 -9.42661
9.512973 9.421225 -9.599342 -9.420687 -9.533145 9.63603 9.579293 9.427376
-9.468021 9.37287 9.556258 -9.6436615 9.56582 -9.53066 -9.565746 -9.418205
9.393619 9.493414 -9.600695 -9.39439 -9.59131 -9.513541 -9.474633 9.567969
-9.425081 9.431526 -9.446889 -9.574475 -9.638736 9.530478 -9.398522 -9.531774
-9.378586 -9.465367 9.545977 -9.481679 9.652283 -9.472552 9.629103 9.565663
-9.406807 9.392179 -9.597867 9.62564 -9.657094 -9.5632105 9.414627 -9.450785
-9.577821 -9.549092 9.455624 9.522095 9.471189 -9.615664 9.40032 9.655503
-9.45246 9.430833 -9.384595 -9.545258 -9.575693 9.58467 9.41959 -9.372032
-9.417548 -9.404679 -9.37897 -9.4870205 9.508447 -9.473967 9.554485 9.611021
9.47286 9.581804 -9.547276 9.560088 9.403798 9.440925 9.409182 -9.461571
9.593826 -9.42246 9.414882 9.555824 -9.461901 9.59183 -9.521051 9.405208
-9.515392 9.54039 9.552277 -9.506349 9.444521 9.605599 9.541222 -9.378052
-9.475252 9.489125 9.423017 -9.644268 -9.635731 9.5903845 -9.461721 9.435054
9.645207 9.658332 -9.6222725 -9.423268 9.530982 9.442968 9.448575 9.595939
9.404389 -9.650886 9.415858 -9.513673 9.381731 9.445994 9.641008 -9.584427
9.370932 9.433155 9.660112 9.621301 -9.613217 9.584482 -9.543157 9.509584
-9.545694 -9.418186 9.390788 -9.409008 9.484545 -9.400156 9.405898 9.5975485
-9.382071 9.3797865 9.481266 9.646117 -9.4905615 -9.457827 9.552084 9.57583
-9.4759865 -9.383049 9.429236 -9.627618 9.533159 9.657039 9.619618 -9.414836
-9.4920635 9.407362 9.598715 9.558094 9.462463 9.577565 -9.490562 9.402042
-9.391219 9.463496 9.5524845 9.596338 -9.633851 9.604668 9.394309 9.454878
9.628984 -9.4670315 9.657873 -9.481273 9.413281 -9.37582 -9.477817 9.463045
-9.55507 9.629452 -9.6193495 9.539989 9.633113 -9.417205 9.464873 9.384224
9.375342 -9.5215845 -9.539293 9.365452 9.628324 -9.435971 -9.641703 9.496169

price_encoder.encoder.bias_ih_l0 f4 [180]
00000000: 8717 19c1 e532 1a41 7b9a 1741 7c05 17c1
00000010: 71ed 19c1 8c7c 17c1 6f8d 1941 41ba 17c1
00000020: 7bc2 1941 ae56 19c1 803b 17c1 1799 18c1
00000030: b95b 1ac1 b45c 1841 9c0c 1741 933b 1a41
00000040: 8253 19c1 d1b5 1641 8495 19c1 767c 1ac1
00000050: 1dc3 18c1 05e7 15c1 b74e 18c1 c2c3 1741
00000060: 895e 19c1 a164 18c1 6faa 16c1 62cb 1741
00000070: 91f8 18c1 6cae 1741 87b1 1641 0f6d 1ac1
00000080: 731d 1a41 0f59 19c1 3ee9 16c1 cd91 1741
00000090: 6a7f 17c1 ad9c 1ac1 970e 16c1 800e 1941
000000a0: 28d0 1641 0c0d 1541 ab1a 1ac1 198c 1741
000000b0: 19d3 1741 3674 16c1 2656 1a41 199d 1741
000000c0: b58b 19c1 ff1e 17c1 8b2b 1ac1 cee2 1941
000000d0: 2475 18c1 bab6 1841 59a7 1641 4912 1ac1
000000e0: c2b7 16c1 4f37 17c1 9291 1841 361d 1741
000000f0: ba12 1841 9136 18c1 627b 1941 99f3 1741
00000100: 11aa 19c1 d6f1 18c1 580e 18c1 2d80 16c1
00000110: 590c 1741 012d 19c1 ddf6 15c1 f130 16c1
00000120: 609a 1841 33a8 19c1 62c2 1741 ce03 1641
00000130: 2b7c 18c1 bfac 1641 2d80 18c1 d23a 19c1
00000140: e182 1741 35bd 19c1 b383 19c1 8f41 17c1
00000150: d729 1941 64a5 1841 b6d0 17c1 1971 17c1
00000160: 33ae 1841 48a2 1841 1dfd 1541 63a5 19c1
00000170: 7510 17c1 9d96 1ac1 0918 1641 cf78 1841
00000180: e418 19c1 96db 1741 4415 1741 d071 16c1
00000190: d2ed 15c1 38d4 1841 c6dd 1741 f8ea 1641
000001a0: 9839 19c1 e0df 1641 f238 1941 cb00 1a41
000001b0: f120 1741 458c 1941 d40b 1ac1 54a0 1641
000001c0: 2fc9 1841 3794 16c1 3204 16c1 3246 17c1
000001d0: 5c8b 1a41 11ea 15c1 7558 16c1 a3a7 1941
000001e0: d40e 18c1 4238 19c1 cc77 19c1 a031 1741
000001f0: eadd 1941 819b 1741 b7ec 19c1 0ceb 1841
00000200: d16d 1741 3fd5 17c1 7b45 19c1 c5f2 1941
00000210: 5028 18c1 2735 18c1 8165 1941 10d3 16c1
00000220: e48c 1841 af2e 1641 bb5b 19c1 dd6c 1ac1
00000230: e369 1ac1 b766 1641 e108 18c1 eb23 1a41
00000240: 8d93 16c1 6a77 1ac1 8055 16c1 b9d1 17c1
00000250: 738a 1941 c0e8 1841 da77 1641 8517 16c1
00000260: 233c 1a41 b667 19c1 b068 19c1 65a6 19c1
00000270: 8ffb 16c1 ebe7 19c1 3c62 1741 7ff9 18c1
00000280: d296 17c1 c1a7 16c1 75e2 1741 ce34 16c1
00000290: e09e 1641 867d 1741 5b1a 18c1 786e 1641
000002a0: e100 16c1 382d 16c1 dd25 1a41 55a1 19c1
000002b0: b5c4 16c1 6e43 18c1 9b0d 1741 d6eb 1641
000002c0: 5976 19c1 c1a0 18c1 6ae2 1741 d583 1a41
-9.568244 9.637425 9.475215 -9.438839 -9.620469 -9.467907 9.59703 -9.482972
9.609981 -9.583662 -9.452026 -9.537375 -9.647393 9.522633 9.440578 9.6395445
-9.582888 9.419389 -9.599003 -9.655386 -9.547635 -9.368901 -9.5192175 9.485292
-9.58558 -9.524568 -9.41661 9.487154 -9.560685 9.480083 9.418342 -9.651626
9.63219 -9.584243 -9.431944 9.473096 -9.468607 -9.663251 -9.378562 9.56604
9.425819 9.315685 -9.631511 9.471704 9.4890375 -9.403372 9.646032 9.475854
-9.596608 -9.445067 -9.635631 9.617872 -9.528599 9.544611 9.415856 -9.629464
-9.419863 -9.451003 9.53554 9.444632 9.504572 -9.513322 9.592623 9.496972
-9.60402 -9.559042 -9.503502 -9.406293 9.440515 -9.573487 -9.372769 -9.386949
9.537689 -9.603564 9.484957 9.375929 -9.530314 9.417174 -9.531293 -9.57686
9.469453 -9.608693 -9.594653 -9.4535055 9.572715 9.540379 -9.488455 -9.465112
9.542529 9.539619 9.374295 -9.602878 -9.441518 -9.661771 9.380868 9.529494
-9.568577 9.49111 9.442692 -9.402786 -9.370562 9.551811 9.491644 9.432365
-9.576561 9.429657 9.576403 9.625194 9.445542 9.5967455 -9.627888 9.414143
9.549117 -9.411185 -9.376024 -9.454638 9.659023 -9.369645 -9.396596 9.603427
-9.50362 -9.576235 -9.591747 9.4496155 9.616678 9.475465 -9.620292 9.5573845
9.464311 -9.489562 -9.579463 9.62177 -9.509842 -9.512977 9.587281 -9.426529
9.534397 9.386397 -9.584895 -9.651578 -9.650851 9.400077 -9.502168 9.633769
-9.411023 -9.654154 -9.395874 -9.488702 9.596301 9.556824 9.404261 -9.380742
9.639682 -9.58782 -9.588058 -9.603124 -9.436416 -9.619121 9.461483 -9.560912
-9.474321 -9.415956 9.492787 -9.387892 9.413788 9.468145 -9.506434 9.40197
-9.375215 -9.38604 9.634244 -9.601888 -9.423024 -9.516462 9.440822 9.432577
-9.591393 -9.539247 9.492777 9.657186

price_encoder.encoder.bias_hh_l0 f4 [180]
00000000: dbbe 16c1 8d7f 1a41 e117 1a41 0741 16c1
00000010: 7d5e 19c1 58e0 17c1 9a0b 1641 942f 1ac1
00000020: 00c2 1741 fc30 17c1 ec76 17c1 5f59 16c1
00000030: 8db5 17c1 9666 1741 6c80 1941 c966 1641
00000040: 68cd 19c1 db05 1741 e023 19c1 c735 16c1
00000050: 0ea3 19c1 dbb2 18c1 e8c4 17c1 ecf4 1741
00000060: 51dc 18c1 c97c 18c1 8427 18c1 ac20 1641
00000070: d5cf 17c1 879d 1841 e615 1741 0a2b 1ac1
00000080: 55f0 1941 2709 18c1 5296 19c1 d68e 1841
00000090: bedd 15c1 3bea 17c1 0551 17c1 9434 1941
000000a0: 617f 1641 59c7 1541 b7ab 18c1 9727 1641
000000b0: 0cf3 1541 477e 19c1 f9ea 1541 c12c 1641
000000c0: 7d67 18c1 c7e1 18c1 c289 18c1 5bb6 1841
000000d0: f4bc 17c1 5776 1741 3c71 1641 6f38 18c1
000000e0: bcc1 18c1 1980 18c1 1d7f 1841 4ae8 1941
000000f0: c6b8 1641 e7a6 17c1 af26 1841 76b4 1941
00000100: 20bf 17c1 bd1d 1ac1 6a07 19c1 a5c2 18c1
00000110: 8708 1741 f0e8 18c1 350a 17c1 c28c 1ac1
00000120: 73fc 1541 e3f0 16c1 0bdf 1841 33a6 1941
00000130: a5d2 17c1 634a 1641 5492 17c1 b114 16c1
00000140: 477a 1641 b46a 19c1 5791 18c1 9deb 17c1
00000150: ee2b 1a41 fa1b 1941 7081 19c1 b684 19c1
00000160: de67 1741 c6e3 1941 09ae 1841 1226 1ac1
00000170: 9667 19c1 c75f 16c1 6ea2 1841 111d 1a41
00000180: 2be7 17c1 5407 1941 f061 1941 d573 19c1
00000190: b8ab 19c1 4bb0 1641 97ec 1741 d17c 1841
000001a0: 35ff 17c1 9084 1641 d378 1641 b2d0 1941
000001b0: 14f1 1541 e9e2 1841 bac3 17c1 5216 1841
000001c0: 5b37 1741 fe14 17c1 727d 19c1 18ee 16c1
000001d0: 726c 1641 44b6 18c1 0f03 18c1 ef58 1941
000001e0: 5962 16c1 5228 16c1 1a92 17c1 fc39 1741
000001f0: 609f 1641 0258 1841 cf68 18c1 d333 1641
00000200: 060d 1641 2199 18c1 d3a2 17c1 3e73 1941
00000210: 205c 18c1 d4e2 19c1 2887 1941 076c 1ac1
00000220: f67e 1941 db06 1a41 977f 1ac1 4b0c 17c1
00000230: 8d28 17c1 49dc 1641 9331 16c1 8b7a 1941
00000240: fb67 1ac1 00d6 18c1 bd6e 17c1 ae42 1ac1
00000250: a02b 1641 2dd6 1741 f65e 1641 8ac5 17c1
00000260: b7f6 1641 09f1 18c1 db5f 16c1 5d46 16c1
00000270: 8363 16c1 677f 17c1 e364 1a41 bd2a 16c1
00000280: 329b 19c1 5e91 17c1 c6e2 1741 47bd 19c1
00000290: d33b 1741 8ec3 1741 7bea 19c1 0842 1841
000002a0: fb5c 19c1 102b 1ac1 9b6b 1741 509c 16c1
000002b0: 894f 1ac1 f647 1ac1 c630 1941 7401 1741
000002c0: 71f6 18c1 d17b 19c1 026b 1941 f277 1841
-9.421596 9.65614 9.63083 -9.390876 -9.585568 -9.492271 9.377832 -9.636616
9.484863 -9.449459 -9.466534 -9.396819 -9.481824 9.462545 9.593853 9.400094
-9.612648 9.43893 -9.571259 -9.388129 -9.602308 -9.543666 -9.485573 9.497295
-9.553788 -9.530465 -9.509647 9.382977 -9.48824 9.538459 9.442846 -9.635508
9.621175 -9.502234 -9.599199 9.534872 -9.366636 -9.494685 -9.45728 9.575336
9.406098 9.361169 -9.541923 9.3846655 9.371838 -9.593329 9.369866 9.385926
-9.525266 -9.555121 -9.533632 9.54452 -9.483631 9.466392 9.402645 -9.513778
-9.547298 -9.531274 9.5310335 9.619211 9.420111 -9.478248 9.509444 9.606558
-9.484161 -9.63226 -9.56431 -9.547521 9.439582 -9.5568695 -9.439992 -9.659365
9.374133 -9.43381 9.554454 9.603076 -9.488927 9.393161 -9.473225 -9.380052
9.404853 -9.588551 -9.535483 -9.495023 9.635725 9.56933 -9.594101 -9.5949
9.462858 9.618109 9.542489 -9.6342945 -9.58779 -9.398383 9.539656 9.632096
-9.4939375 9.564289 9.5864105 -9.590779 -9.6044235 9.41804 9.495261 9.530473
-9.499806 9.407364 9.404498 9.613451 9.371357 9.555398 -9.485285 9.505449
9.4510145 -9.442625 -9.593126 -9.433128 9.401476 -9.544498 -9.500747 9.584212
-9.399011 -9.384844 -9.473169 9.451656 9.41391 9.521486 -9.525588 9.387652
9.37818 -9.537385 -9.477252 9.590635 -9.522491 -9.617878 9.595497 -9.651374
9.593496 9.626674 -9.65615 -9.440501 -9.4474 9.428781 -9.387103 9.592418
-9.650386 -9.552246 -9.464536 -9.641279 9.385651 9.489789 9.398184 -9.485727
9.435233 -9.558846 -9.398402 -9.392179 -9.399295 -9.468604 9.649631 -9.385434
-9.6003895 -9.47299 9.492865 -9.60871 9.4521055 9.485243 -9.619746 9.516121
-9.5852 -9.635513 9.463771 -9.413162 -9.644418 -9.642569 9.574408 9.437855
-9.560166 -9.592729 9.588625 9.529284

atten_layer.0.weight f4 [45, 135]
00000000: c052 bcbb 40cb d33b 10c0 bfbc 5849 8dbc
00000010: 6717 ab3d 3622 4b3d d9b8 42bd 3d6c 05bd
00000020: f650 523d 2b99 a33d 5ccd c83c 1d5d 973d
00000030: 3ca7 90bc 4e36 5b3d 80fe 68ba 8dca 01bd
00000040: 14e6 bfbc c45c dd3c 8e32 373d c081 323b
00000050: 58d2 8dbc fa02 fcbc 8087 31bb 39f2 af3d
00000060: f800 dc3c ca41 a9bd f04b 9fbc 801b 053d
00000070: 0782 a8bd 12a7 633d 647b 6abd 89eb 90bd
00000080: 6c25 2fbd 20a2 403b de57 81bd d087 d5bb
00000090: b81c 79bd 50e5 3fbc 30cc a8bd 237b 07bd
000000a0: 6033 80bb 19d4 a53d b146 afbd 6066 03bc
000000b0: 00c0 77b8 2339 9cbd 1f54 3bbd de2a 283d
000000c0: a243 6a3d 770b 853d 0bb3 9d3d bdf9 a33d
000000d0: f054 96bc 864a 8abd 39e6 97bd eaf6 2cbd
000000e0: e049 4fbd 2c1a e93c 590e 35bd 6f67 883d
000000f0: 9b5c 38bd 7bd2 8c3d 12c1 513d ef27 963d
00000100: 3f0c 94bd a935 a53d 4089 c3ba eb93 973d
00000110: 325d 423d 8806 81bd eae3 91bd 0b99 ae3d
00000120: 78ae b2bc a0fc 7bbc 809d eaba 3135 7ebd
00000130: 2055 65bc fed8 283d e0a0 6cbb 4642 a3bd
00000140: 0885 1e3d 6981 843d ff6e 0dbd 6b21 90bd
00000150: 6f9a 9b3d f279 343d 791f 9a3d 00b4 103b
00000160: 1d00 32bd 5d1f 9b3d 3716 19c1 6d5d 1ec1
00000170: f9cb 24c1 af2c 19c1 ae47 1841 8816 19c1
00000180: 61a0 19c1 71f1 2441 0518 1841 ed89 1741
00000190: 0c28 18c1 c66f 16c1 1caa 17c1 dc24 1941
000001a0: aaa3 18c1 4bc7 16c1 a3b7 17c1 cd35 1841
000001b0: dfb1 1841 7610 0ec1 0e2e 21c1 b18a 2541
000001c0: 2f42 2341 f2a0 0e41 c5b5 19c1 2890 0b41
000001d0: 89db 1f41 ea29 1841 68a0 24c1 2bca 2441
000001e0: d926 1841 873b 19c1 8886 1741 57ac 18c1
000001f0: 27f1 16c1 790b 17c1 3dd8 1741 d3d2 17c1
00000200: 85c6 1941 f700 1841 e72e 0ec1 70b7 2041
00000210: a5d1 26c1 6561 1ac1 f50a 2341 cac1 8abd
00000220: c594 993d f8e9 51bd b92b 8ebd 4c7a ee3c
00000230: c08e 3e3b 0e6a 353d 80f2 513c 4c23 c9bc
00000240: 7a9d 043d eacb a2bd d335 12bd 7e44 713d
00000250: 16db 3f3d fb86 2bbd 1de2 a83d 62f4 5f3d
00000260: 8e12 2b3d 3815 7cbd 81a6 51bd faf9 92bd
00000270: a0f9 4dbd 1e36 013d 99b2 873d fd37 943d
00000280: 6026 42bb f0bb 113c aed4 f3bc e8f6 82bd
00000290: 6041 f83c 58aa ccbc ccdb 18bd 48b0 f5bc
000002a0: 44ae 8abd 1c96 54bd 1eb9 05bd 508c afbc
000002b0: 9cb1 a7bc 1f3c a33d 2859 abbc 7aeb 2f3d
000002c0: 6cd8 87bc 7785 9f3d e0bf bbbc e679 543d
000002d0: eaed 7b3d 5039 c6bc 245c f13c a424 45bd
000002e0: b2de 12bd 9e89 473d ea1f 3b3d b48a 913c
000002f0: c125 933d 797c 42bd a8c9 4e3c 7513 8dbd
00000300: 52da adbd 10d1 5bbd 3f69 af3d 4e3f 513d
00000310: 6968 803d 3a40 7a3d 10c7 33bc 200d 793c
00000320: ea2c c5bc 375f 49bd a2c8 10bd 431c 4dbd
00000330: ce6e 273d f015 24bd bcd8 9ebc 3502 a93d
00000340: 9aa9 143d f80e 7c3c dc5c 84bc 0d30 873d
00000350: 3052 af3b 605a 3f3b 60fe 3abd e99e 8fbd
00000360: 42aa 7e3d f392 43bd a98c 9bbd 92cc 9fbd
00000370: 2cd2 9e3c d83d aabd 2618 91bd 107c ae3c
00000380: dae3 263d 1079 1cc1 817f 1f41 7314 2241
00000390: ab77 17c1 4757 1741 94e2 1741 f31e 1741
000003a0: 354a 1bc1 3f80 1a41 9b2b 1941 4caa 17c1
000003b0: ded0 14c1 75e7 18c1 0621 1741 d01a 19c1
000003c0: 6c03 15c1 7b65 1841 320f 1841 c0ac 1741
000003d0: e111 1ec1 878c 1c41 e789 1bc1 9559 20c1
000003e0: ccda 1f41 3633 18c1 fa92 1e41 2bdb 1bc1
000003f0: 806c 1941 76e2 1e41 5e93 1cc1 f45e 1841
-0.0057471693 0.0064634383 -0.023407012 -0.017246887 0.08354073 0.049593173 -0.047539566 -0.032573927
0.05134674 0.07988199 0.024511985 0.07390807 -0.017657869 0.053518586 -0.0008888021 -0.031687308
-0.02342514 0.027021773 0.044725947 0.0027237982 -0.017312214 -0.030763138 -0.002708882 0.08591122
0.02685593 -0.082645014 -0.01944539 0.03249693 -0.08227926 0.055579253 -0.05724658 -0.07076175
-0.042760298 0.002939351 -0.063155875 -0.0065164343 -0.060818404 -0.011712387 -0.08242071 -0.033076417
-0.0039123744 0.08097095 -0.08558405 -0.008020014 -5.9068203e-05 -0.076280855 -0.04573452 0.041056506
0.057193406 0.06496327 0.07700165 0.08006618 -0.018351048 -0.067524955 -0.07416958 -0.042227663
-0.050607562 0.028454863 -0.044203136 0.066603534 -0.04501019 0.068760835 0.051209517 0.073318355
-0.07228898 0.080668755 -0.0014918223 0.0740126 0.04745216 -0.06300074 -0.07123549 0.085252844
-0.021811709 -0.015380055 -0.0017899722 -0.062062446 -0.013997346 0.041222565 -0.003610663 -0.07971625
0.038701087 0.064699955 -0.034529682 -0.07037624 0.07597815 0.04406161 0.07525534 0.0022079945
-0.04345714 0.075743414 -9.567924 -9.897809 -10.299798 -9.573409 9.5175 -9.568001
-9.601655 10.308946 9.505864 9.471173 -9.509777 -9.402288 -9.479031 9.571499
-9.539957 -9.4236555 -9.482333 9.513135 9.543426 -8.879019 -10.073744 10.34636
10.203658 8.914293 -9.606877 8.722694 9.991097 9.510233 -10.289162 10.299357
9.509484 -9.577033 9.470345 -9.542075 -9.433875 -9.440301 9.490293 -9.488971
9.610967 9.500236 -8.886451 10.044785 -10.426183 -9.648778 10.190175 -0.067752436
0.07499079 -0.05124852 -0.06941933 0.02911105 0.0029076785 0.044290595 0.012814164 -0.024552964
0.032376744 -0.0794905 -0.035695862 0.05890321 0.046839796 -0.041876774 0.08246253 0.05467642
0.041765742 -0.061543673 -0.05118418 -0.071765855 -0.05028689 0.03154575 0.06625862 0.072372414
-0.0029624924 0.008894905 -0.0297645 -0.0639475 0.03030461 -0.02498357 -0.03731899 -0.029991284
-0.0677152 -0.051900968 -0.032647245 -0.02142921 -0.020470433 0.079704516 -0.020916536 0.042949177
-0.01658269 0.07789128 -0.022918642 0.051874064 0.06150619 -0.02419725 0.029462881 -0.048130646
-0.03585691 0.048715226 0.045684732 0.017766334 0.07184935 -0.047481988 0.012621321 -0.06888477
-0.08488907 -0.053666174 0.08564996 0.051085763 0.06269915 0.061096407 -0.010972753 0.015200883
-0.024069268 -0.04916307 -0.03534759 -0.05007578 0.040877156 -0.040059984 -0.019390456 0.08252374
0.036294557 0.015384428 -0.01615756 0.06600962 0.0053503737 0.0029198155 -0.045652747 -0.070127316
0.06217409 -0.047747564 -0.07595188 -0.078026906 0.019387327 -0.08312577 -0.07084684 0.021299392
0.04074464 -9.779556 9.968629 10.1299925 -9.466716 9.458808 9.492817 9.445056
-9.705617 9.65631 9.573146 -9.479076 -9.300993 -9.556508 9.445562 -9.569046
-9.313335 9.5247755 9.50371 9.479675 -9.879365 9.784308 -9.721168 -10.021871
9.990917 -9.512503 9.910883 -9.741008 9.588989 9.930288 -9.785978 9.523182

atten_layer.0.bias f4 [45]
00000000: c8f9 1241 e471 1941 66a9 1541 4225 18c1
00000010: 2768 17c1 f5c2 18c1 f1e7 19c1 e878 1741
00000020: 4a6e 18c1 8bf0 1741 cc68 16c1 4d0e 19c1
00000030: 1fc5 1841 2de0 16c1 08a7 15c1 2235 1941
00000040: 6f98 16c1 6266 19c1 95e2 15c1 0ab7 16c1
00000050: 62ce 18c1 0e2b 1a41 bd0d 1741 10d5 1841
00000060: 6920 1ac1 ba00 19c1 ee2c 18c1 da43 18c1
00000070: dd63 16c1 d685 1ac1 292d 1741 14a2 1841
00000080: ac9d 1841 56aa 1841 1f45 17c1 6cc5 19c1
00000090: f60a 1941 9c43 1741 2b35 1ac1 4c47 1741
000000a0: 17f9 15c1 72b9 18c1 7db4 1841 29fa 1841
000000b0: a717 16c1
9.185982 9.590305 9.353857 -9.509096 -9.462928 -9.547597 -9.619126 9.467018
-9.526926 9.496226 -9.400585 -9.565991 9.548125 -9.42973 -9.353279 9.575472
-9.412215 -9.587496 -9.367818 -9.419687 -9.550386 9.635511 9.440854 9.552017
-9.632913 -9.562677 -9.510969 -9.516565 -9.399381 -9.657675 9.448525 9.53957
9.538494 9.541586 -9.454375 -9.610699 9.565176 9.454006 -9.63798 9.454906
-9.373313 -9.545275 9.5440645 9.561074 -9.3807745

atten_layer.2.weight f4 [1, 45]
00000000: ed3d f640 979d 37c1 5255 0d41 2833 fdc0
00000010: a3ae 04c1 f8ee fbc0 b410 0ac1 ada1 25c1
00000020: d062 01c1 b8d6 0241 09b6 e8c0 4a84 2441
00000030: 9919 29c1 cdeb 03c1 2602 4341 3a43 0c41
00000040: 57e3 3241 02de 2841 7972 f3c0 53cf f6c0
00000050: a571 2141 a571 1741 b890 1541 46a7 1541
00000060: ee86 1d41 528f 2f41 935b 12c1 0269 0cc1
00000070: f2ec 3a41 7cb0 1c41 2ba7 1441 244c 2dc1
00000080: 11ce 0b41 2d74 1bc1 0ff7 2a41 4bed 0ec1
00000090: 507f 21c1 b27a 25c1 9f47 2441 8218 2ec1
000000a0: 68fc f8c0 be7b 1e41 1006 31c1 c3e4 1741
000000b0: c7d6 f7c0
7.6950593 -11.475974 8.83333 -7.9124947 -8.292636 -7.872921 -8.629078 -10.351972
-8.086624 8.177422 -7.272221 10.282297 -10.568749 -8.245069 12.1880245 8.766413
11.180503 10.554201 -7.6077237 -7.712808 10.090245 9.465245 9.347832 9.353338
9.845442 10.97249 -9.147357 -8.775637 11.682848 9.793087 9.2908125 -10.831089
8.737809 -9.715863 10.685317 -8.932933 -10.093582 -10.342455 10.267486 -10.880983
-7.7808113 9.9052105 -11.06398 9.49335 -7.744968

lstm.weight_ih_l0 f4 [180, 45]
00000000: de08 1441 1b4e 1ac1 05fd 1ac1 3d24 1841
00000010: 7b56 1ac1 1d37 1841 da35 1641 4f7c 1a41
00000020: 9864 15c1 90a3 1a41 582e 1741 9269 1941
00000030: 3440 1841 4ce4 1741 88d4 18c1 01b5 1a41
00000040: 2c2b 17c1 19d1 1ac1 c7e7 17c1 5c8b 1b41
00000050: acd0 1bc1 b882 1e41 1e37 1b41 f46b 18c1
00000060: ef3d 0e41 7e2c 1cc1 36b1 1b41 e376 18c1
00000070: 64d5 1cc1 0157 1a41 e6cf 17c1 d02b 1ac1
00000080: b8ab 17c1 fc98 1941 ab35 1a41 c644 1ac1
00000090: 5180 18c1 c2bf 1741 683c 1841 58f9 19c1
000000a0: 6394 18c1 709f 1b41 a309 1cc1 9bf2 19c1
000000b0: b475 1c41 03ae 1a41 1474 1dc1 e6bd 1ac1
000000c0: 5738 1a41 ea54 1941 e50d 1941 ee1e 1941
000000d0: 6554 1941 8048 17c1 9495 1741 c572 1741
000000e0: 06d1 16c1 cd83 1841 e488 16c1 4a49 17c1
000000f0: 0e91 1641 9684 18c1 fd5e 16c1 0404 17c1
00000100: d883 1b41 85f3 1bc1 350d 1941 33b4 1d41
00000110: e124 1ac1 7e30 ffc0 3949 1bc1 0e3d 1b41
00000120: d42d 16c1 2664 1cc1 72ac 1a41 90c9 17c1
00000130: 9afb 19c1 6cbc 1ac1 8cac 1741 a8f9 1641
00000140: cd7b 18c1 8f95 18c1 d007 1941 92b7 1941
00000150: 6e11 16c1 619c 18c1 2761 1b41 fcc0 18c1
00000160: 03fc 13c1 49f4 1b41 5ea1 16c1 ce1d 1cc1
00000170: c706 1cc1 662d 1741 04a5 18c1 6707 1841
00000180: 8f97 18c1 a5e2 1b41 e466 1ac1 9589 19c1
00000190: 3de9 1741 a619 03c1 1d5d 19c1 0cca 1941
000001a0: 4ce2 1641 b9a7 1641 2c78 1941 86f9 1641
000001b0: 7e45 17c1 f3a3 1b41 135d 1bc1 047c 1941
000001c0: 73f2 1841 31eb 19c1 fb94 e0c0 235d 19c1
000001d0: 3487 1d41 bf04 18c1 0b82 1bc1 6af2 1a41
000001e0: 188e 1a41 795b 1641 3cbd 18c1 7184 1a41
000001f0: f08e 1741 8eef 1841 ec93 1a41 a016 1a41
00000200: ec29 16c1 e9db 18c1 6af1 1741 c671 1a41
00000210: e752 1cc1 0f90 1741 0e23 1941 6b13 1b41
00000220: 8de6 1cc1 8afb 1bc1 7122 1a41 6264 17c1
00000230: cece 1641 4b9e 1a41 876a 1d41 d71e 17c1
00000240: 0416 17c1 f65e 1a41 622d 15c1 ea07 1641
00000250: 0784 1941 fdb6 1941 8472 1941 8647 1841
00000260: cd46 16c1 7379 18c1 45ed 1e41 44ac 1ac1
00000270: 6def 1941 b94e 1d41 bd90 1ec1 dfdc ff40
00000280: 6b6c 1cc1 5340 1c41 2305 17c1 0467 1ec1
00000290: dac9 1c41 1233 17c1 0af1 1a41 08d5 16c1
000002a0: 71c1 1641 2a1f 1941 d082 19c1 bd77 16c1
000002b0: 09e5 1541 7423 17c1 3f5d 17c1 2b2c 1941
000002c0: 55c8 1a41 1134 1ac1 8891 1741 0ca3 1a41
000002d0: 11e3 1741 ee5f 1cc1 97b1 1fc1 9921 1741
000002e0: e65d 1541 0e79 1941 2b37 1841 4da8 1b41
000002f0: a16e 1ac1 a059 1ac1 d98d 1741 0ae4 18c1
00000300: 82a9 1641 be47 14c1 bdf7 1a41 49c0 1941
00000310: 9303 1841 7e8c 17c1 9b2d 16c1 57fa 1d41
00000320: f80d 1fc1 1782 1a41 9d44 1c41 8375 1ec1
00000330: 8bd0 1141 8b1a 1fc1 1b68 1d41 020b 17c1
00000340: 6711 1bc1 e90d 1c41 5d37 18c1 9f50 1841
00000350: b0db 18c1 26f9 1941 e923 1a41 841b 17c1
00000360: 2bf7 16c1 6d73 1941 22e0 15c1 7e4d 19c1
00000370: aa27 1ac1 14eb 1d41 b29e 1bc1 7783 1a41
00000380: 2f29 1b41 f34e 1a41 7051 1bc1 86a2 1dc1
00000390: 5b5d 1741 cf0f 1ac1 75f5 1741 e32e 1641
000003a0: 548e 1a41 8d57 19c1 f4c2 1ac1 6c2f 1841
000003b0: 30ac 0dc1 bb02 1841 e760 1841 28e4 1841
000003c0: 3c33 1941 4341 1741 d102 1ac1 643d 19c1
000003d0: 5032 1a41 64b8 1bc1 573e 1941 4c15 1a41
000003e0: 2b48 1cc1 0f36 f5c0 16da 1cc1 905a 1941
000003f0: bb51 1ac1 8d51 1cc1 d7a9 1d41 0ffb 18c1
9.252165 -9.644069 -9.686772 9.508847 -9.646113 9.513455 9.388147 9.655349
-9.337059 9.664932 9.448814 9.588274 9.515675 9.493237 -9.5518875 9.66919
-9.44804 -9.676049 -9.494086 9.721523 -9.738445 9.906914 9.700956 -9.526356
8.8901205 -9.760862 9.730764 -9.529025 -9.802097 9.646241 -9.488256 -9.635696
-9.4794235 9.59985 9.638103 -9.64179 -9.531327 9.484316 9.514748 -9.623375
-9.536227 9.726425 -9.752353 -9.62173 9.778736 9.667483 -9.840839 -9.671362
9.638755 9.583231 9.565892 9.570051 9.583104 -9.4552 9.474018 9.46552
-9.426031 9.532178 -9.408421 -9.455393 9.410414 -9.53237 -9.3981905 -9.43848
9.719688 -9.746953 9.565724 9.856494 -9.634004 -7.9746695 -9.705377 9.702406
-9.3861885 -9.77445 9.667101 -9.48671 -9.623926 -9.671001 9.479626 9.435951
-9.530225 -9.536513 9.564407 9.607317 -9.379255 -9.538178 9.711219 -9.547115
-9.249026 9.74714 -9.414396 -9.757277 -9.751655 9.448584 -9.540287 9.501807
-9.537002 9.742833 -9.65012 -9.596089 9.494443 -8.193762 -9.585233 9.611828
9.430248 9.415948 9.591839 9.435919 -9.454466 9.727527 -9.710223 9.592777
9.559192 -9.61992 -7.018186 -9.585238 9.845509 -9.501159 -9.719249 9.684183
9.659691 9.397332 -9.5462 9.657334 9.472397 9.558485 9.661114 9.630524
-9.385235 -9.553689 9.496439 9.652777 -9.77024 9.472671 9.571058 9.692241
-9.806287 -9.748911 9.633409 -9.4620075 9.425489 9.663646 9.838508 -9.445029
-9.442875 9.648184 -9.32358 9.376932 9.594733 9.607175 9.590458 9.517462
-9.392285 -9.529651 9.932927 -9.667057 9.620954 9.831719 -9.9103365 7.995712
-9.776469 9.765704 -9.438754 -9.90015 9.79928 -9.449968 9.683847 -9.42701
9.422227 9.570108 -9.594437 -9.404233 9.368417 -9.446156 -9.460265 9.573283
9.673909 -9.637712 9.47303 9.664806 9.492936 -9.77342 -9.980857 9.445703
9.335424 9.592054 9.513469 9.728589 -9.652009 -9.646881 9.472131 -9.555674
9.416384 -9.267515 9.685483 9.609445 9.500873 -9.4718 -9.386134 9.873618
-9.94091 9.65676 9.766751 -9.903689 9.113414 -9.94398 9.837916 -9.440187
-9.691749 9.753396 -9.513516 9.519683 -9.553635 9.623327 9.633767 -9.444218
-9.435344 9.59068 -9.36722 -9.581419 -9.634684 9.869892 -9.726244 9.657096
9.697555 9.644275 -9.707382 -9.852179 9.460292 -9.6288595 9.497426 9.386447
9.659748 -9.583875 -9.672596 9.511578 -8.854538 9.500667 9.523658 9.555702
9.575008 9.453433 -9.625688 -9.577488 9.637283 -9.732517 9.57772 9.630199
-9.767619 -7.662849 -9.803244 9.58461 -9.644954 -9.76991 9.853965 -9.561294

lstm.weight_hh_l0 f4 [180, 45]
00000000: 1096 73bc 4b1e 103e 37b5 15be e0ef 823b
00000010: 84f7 14be 31a0 b9bd 08e3 1d3d 222c cc3d
00000020: 40ef c2bc 95e2 073e 0e7f 8a3d aaec 09be
00000030: 3024 18bd e058 b9bc 188d c2bc cc5f 803d
00000040: 6ac5 fb3d 46ea cfbd 5a5f a9bd 94f1 b5bd
00000050: 7883 e33c 6c35 753d e284 c8bd 1828 a53d
00000060: 2a7d 863d 02a6 34bd a43a 38bd e1a7 0ebe
00000070: 86e5 c2bd ccb7 2e3d 6007 6f3d a991 063e
00000080: 4657 0dbd 149d ce3d 1c78 a9bd 49f9 f3bd
00000090: 2eaa 02be 2451 c93d 385b c0bc c2cd f63d
000000a0: fcf2 5ebd 6d13 183e 801e 813d dd4f 8dbd
000000b0: 7282 a53d 9029 17bd acba cb3d e8e5 b5bc
000000c0: 0158 173e eed3 e33d 021b 0cbe 6060 0a3d
000000d0: d0ea 46bc 70f1 61bd 6435 9c3d 48dd ddbc
000000e0: a027 5fbd 1827 ccbd 36c3 f0bd 6a07 b73d
000000f0: 8685 c33d 18ea 9fbc fc42 bf3d ea87 82bd
00000100: 56c5 f83d 9e92 0dbd 26cd 8b3d c013 bd3c
00000110: cf51 113e f8df 93bc ea8e f3bd 76ea c5bd
00000120: c033 bebb a80c 0dbd 0cda c2bd d619 debd
00000130: f1b8 09be a4c3 1dbd d6de c63d 2824 b23c
00000140: 009b 4d3b 4d57 17be c033 f23b 2cfd 10be
00000150: 82b6 cabd 5469 92bd ff04 07be c001 86bc
00000160: c6a7 9e3d b2a5 d1bd 67bd 16be 22b4 e8bd
00000170: 1027 5a3c 8d6b 173e dac4 f13d c55a 0c3e
00000180: 40d8 543b fc75 5d3d 8082 2bbd 88ef eebd
00000190: a837 153d 8491 993d 4e29 e93d e084 b1bd
000001a0: 48bb c53c feba f4bd 2278 08be 16fd 8abd
000001b0: 74ef d8bd e5a5 e7bd d02c 39bc 95f7 01be
000001c0: e04d f0bd d256 d3bd d3fe babd b08a 1f3c
000001d0: 28e1 8ebc 2a1d 803d 582f c0bc 6cb4 713d
000001e0: baaa 0ebd b6b6 993d b058 843d 1a78 f53d
000001f0: a87c e63c 2af8 e8bd 64d1 4a3d 80db 433c
00000200: 68cb bcbd 0ed8 823d 9c51 0f3d 7857 b3bc
00000210: c62f ddbd da40 21bd aec6 afbd a807 983c
00000220: ea49 8bbd 8080 e6bb d64c 03bd d86c 303d
00000230: 8026 8c3d f863 eebc 14a5 b53d 082f 04be
00000240: 0b97 113e 8368 113e d1bc 023e 8aa2 afbd
00000250: 6699 1fbd 50db 123d b4d0 fbbd faf1 dc3d
00000260: 80b7 c83b fdac 003e e6fd ffbd 1692 25bd
00000270: f22f 08be 48fb 5dbd 1821 cd3c 0076 64bb
00000280: 684f 7a3d 2c09 47bd 3031 34bd 3969 e8bd
00000290: eaaa 13be 1575 013e 816b d3bd f9db f8bd
000002a0: 88f4 0ebd 0032 5abc 8847 ea3c 2e43 dbbd
000002b0: 1d07 e1bd ef07 02be 7e02 a13d 94b8 8d3d
000002c0: 407c 88bd 0088 153b b060 e4bc 54db 153d
000002d0: 8ca6 c0bd cd37 9ebd 00e4 f4bc 6248 17bd
000002e0: aa52 a4bd 94d9 e3bd 08f1 9cbc fad5 f1bd
000002f0: 543c fabc 2957 013e 4087 3a3d 707e 593c
00000300: 608c 1cbd 0e09 913d 5093 543d 4eef a63d
00000310: c431 9e3d d856 8a3c 4079 bdbc 7689 fdbd
00000320: 1e2c dfbd 46a0 af3d 781e e8bc f085 073c
00000330: ecdd 06be 18c8 cbbd fb6c a8bd ce30 de3d
00000340: ba23 e63d ee8a 2dbd c7bd 8abd 5a0f d63d
00000350: 9ce7 b03d 6a6b b0bd ee35 e93d cccb 6e3d
00000360: b004 643c 9e79 8bbd bc48 c73d c7e8 aebd
00000370: c023 edbb 5130 d9bd 89e0 14be bfb2 8ebd
00000380: f602 59bd 80a6 763d b8df b53d cbb6 01be
00000390: ae31 ae3d 0e8e dbbd af97 0e3e 7fd9 c1bd
000003a0: c417 0b3d b0d2 3f3d 9e9d 07bd 7d93 a8bd
000003b0: 0de5 0d3e f148 173e 51c9 043e a2c7 58bd
000003c0: 805d 503c f21b b8bd 00c3 0fba af37 ecbd
000003d0: b8bf 48bd 18d3 653d 2846 bcbd 165e b3bd
000003e0: 1a8b e03d b0f3 57bd 14c3 8ebd f6a7 8f3d
000003f0: 4aee e3bd 0ae6 04bd 80d1 023b 9a9d f43d
-0.014867321 0.14074056 -0.14619909 0.0039958805 -0.14547545 -0.09063757 0.038546592 0.09969355
-0.023795724 0.13270028 0.06762515 -0.13469186 -0.037143886 -0.022625387 -0.02374892 0.06268272
0.12293513 -0.10152106 -0.0827014 -0.08883968 0.02777265 0.0598654 -0.097909704 0.08064288
0.06566842 -0.04410363 -0.0449778 -0.13931228 -0.09516434 0.04265575 0.058356643 0.13141502
-0.03450706 0.10088554 -0.08274862 -0.11912782 -0.12760231 0.098299295 -0.023480996 0.12050964
-0.054430947 0.1485116 0.063046455 -0.06899998 0.08081521 -0.03690487 0.09947714 -0.022204354
0.14779665 0.11124407 -0.13682178 0.033783317 -0.012140945 -0.055161893 0.07627371 -0.027083054
-0.05448115 -0.09968394 -0.117559835 0.08936961 0.09546952 -0.019520804 0.09338948 -0.0637358
0.12147014 -0.034563653 0.06826238 0.023080707 0.14191364 -0.018051133 -0.11892493 -0.096638605
-0.005804509 -0.034435898 -0.095142454 -0.108447716 -0.13449456 -0.038516656 0.09710471 0.021745756
0.0031372905 -0.14779396 0.007391423 -0.14159077 -0.09898092 -0.07148996 -0.131855 -0.016358256
0.07746844 -0.10236682 -0.14720689 -0.113624826 0.013314977 0.14787121 0.118051246 0.13706501
0.0032477528 0.054067597 -0.0418725 -0.11666781 0.03643003 0.07498458 0.11384831 -0.08667922
0.024137154 -0.119497284 -0.13327077 -0.067865536 -0.10592547 -0.11310939 -0.011302188 -0.12692101
-0.117336035 -0.10319294 -0.09130635 0.0097376555 -0.017441347 0.062555626 -0.023460075 0.059009954
-0.034830786 0.075055525 0.06462228 0.11985798 0.028135613 -0.113754585 0.049516097 0.011954188
-0.09218484 0.063888654 0.03498994 -0.021892294 -0.10800128 -0.039368488 -0.08582817 0.018558338
-0.06801207 -0.0070343614 -0.0320557 0.04307255 0.06843281 -0.029100403 0.08869377 -0.12908566
0.14217775 0.14200024 0.1276734 -0.08575924 -0.03896465 0.035853684 -0.12295666 0.10788341
0.0061253905 0.1256599 -0.12499599 -0.04042252 -0.1329954 -0.05419472 0.025040194 -0.0034860373
0.061110884 -0.04859273 -0.04399222 -0.11348195 -0.14420667 0.1264232 -0.10323239 -0.121513315
-0.034901172 -0.013317585 0.028598562 -0.10706173 -0.10987685 -0.12698339 0.078618035 0.06919971
-0.06664324 0.0022816658 -0.027878135 0.03658612 -0.09406766 -0.07725487 -0.029893875 -0.036934264
-0.080235794 -0.11125484 -0.019157901 -0.11808391 -0.030546345 0.12630905 0.04553914 0.013274774
-0.03821981 0.07081805 0.0518983 0.081511125 0.07724336 0.016887113 -0.023129106 -0.12379734
-0.108970866 0.085754916 -0.028334841 0.008271679 -0.13170594 -0.09950274 -0.082239114 0.108491525
0.11237283 -0.04236882 -0.067744784 0.10452147 0.08637926 -0.086142376 0.113872394 0.058299825
0.013917133 -0.06810306 0.0973067 -0.085404925 -0.0072369277 -0.10604919 -0.14538778 -0.06967687
-0.05298134 0.06021738 0.088805616 -0.12667386 0.085055694 -0.10720454 0.1392505 -0.09465312
0.03395821 0.046831787 -0.0331093 -0.08231256 0.13856907 0.14773919 0.12967421 -0.05292476
0.012717605 -0.08989705 -0.00054840744 -0.11534058 -0.049010962 0.056109518 -0.09193069 -0.0875818
0.109640315 -0.052722633 -0.06970802 0.07014458 -0.111294344 -0.032445945 0.0019961298 0.119441226

lstm.bias_ih_l0 f4 [180]
00000000: 4e9e 2341 b365 2441 5f11 2341 1825 2441
00000010: 3cd7 2441 c3d9 2241 1c3b 2541 b8fe 2441
00000020: 328b 2241 0892 2441 a1bc 2341 a163 2441
00000030: 320d 2441 2620 2541 e839 2541 e9be 2041
00000040: 7be4 2141 8518 2541 46c0 2641 41a5 2341
00000050: f888 2441 e72a 2541 c4de 2341 90c6 2341
00000060: 7ca1 2241 c64f 2341 b2d7 2341 f8bc 2241
00000070: 8e11 2441 7bc9 2641 9897 2641 aaa3 2441
00000080: e504 2441 6f83 2341 af2a 2841 dc6a 2341
00000090: 778a 2541 d023 2241 3d38 2641 f1d3 2741
000000a0: 6ec0 2441 6f55 2641 4c91 2841 20d7 2441
000000b0: 593f 2641 8c08 9ebd 001a de3b a0bd efbb
000000c0: 8cae 0d3d 7809 1dbd 18b0 be3d a23b cf3d
000000d0: c424 b63d 12a1 25bd d601 14bd 86e2 e53d
000000e0: 1652 d63d b821 2f3d 32b4 6cbd d4c3 f0bd
000000f0: 2045 adbb 20d5 97bb 302d c0bd 8ca9 913d
00000100: 34c6 ae3d 9c77 893d 509e bcbc ae25 b3bd
00000110: 8485 0ebe 5e0a b6bd 0062 aebd 3785 a7bd
00000120: 619f d2bd 127a 93bd 7773 143e 6431 a3bd
00000130: 98f6 623d 3ed0 c1bd 9640 c33d 4723 0abe
00000140: 4cb7 343d a709 153e a2b3 9ebd 781e 9c3c
00000150: 04c8 12be 867a 78bd ca2c e53d 84e3 c03d
00000160: 64ef 513d 76ee a83d 818f 2ac1 80e2 25c1
00000170: 4445 2641 006c 29c1 b620 2ac1 0dd6 23c1
00000180: 972a 2ac1 c4ed 24c1 c950 2441 d873 2241
00000190: 6c63 21c1 b76d 2f41 020c 2ec1 0d64 27c1
000001a0: 1be5 2941 65ba 2341 8755 20c1 e9a2 2141
000001b0: b24a 2d41 dcbe 2841 c3a0 2141 5162 22c1
000001c0: c798 29c1 72f2 2141 67e7 2641 bea2 24c1
000001d0: 1735 26c1 bb1c 2941 b7af 2541 1730 2241
000001e0: ffc9 21c1 c0dc 25c1 98b4 2741 8430 2341
000001f0: 156d 21c1 f314 2541 ba9b 2041 df98 2641
00000200: c125 29c1 4a3f 2741 23a4 2541 b5a7 26c1
00000210: 6e0e 2cc1 c68e 23c1 eaa7 24c1 a9c5 2541
00000220: 6ca8 2441 0bcf 2641 7e3e 2441 6301 2441
00000230: fea3 2441 331c 2441 71e5 2441 530d 2641
00000240: 7929 2841 8e2b 2641 2861 2841 a248 2641
00000250: aa3a 2541 9f91 2741 3dcf 2541 26ee 2441
00000260: 7176 2541 2b07 2841 e8ac 2541 59cc 2441
00000270: a686 2741 57a6 2541 87bf 2541 e424 2441
00000280: fb01 2741 c590 2541 f5e2 2141 8b9c 2141
00000290: a47b 2841 96f3 2641 74c3 2341 7495 2341
000002a0: e6b4 2441 7a78 2841 334d 2441 eab0 2541
000002b0: 4eb8 2541 c091 2641 cab3 2541 84f0 2341
000002c0: a580 2641 5514 2941 2f85 2241 d062 2341
10.226149 10.274829 10.191741 10.259056 10.302547 10.1781645 10.326931 10.312187
10.158983 10.285652 10.233552 10.274323 10.2532215 10.320349 10.326637 10.046609
10.118281 10.318486 10.421942 10.227845 10.28344 10.322974 10.241886 10.235977
10.164425 10.206976 10.24016 10.171135 10.254286 10.42419 10.41201 10.289957
10.251195 10.219588 10.510421 10.213589 10.346305 10.133743 10.38873 10.4892435
10.29698 10.395858 10.535473 10.302521 10.390466 -0.07716474 0.006778002 -0.0073163062
0.03459029 -0.03833911 0.09310931 0.10118796 0.08893731 -0.04043681 -0.036134563 0.112248465
0.104648754 0.042756766 -0.057789035 -0.11756101 -0.0052877814 -0.004633561 -0.09383619 0.071124166
0.08533898 0.06712267 -0.023024708 -0.08747421 -0.1391812 -0.08888696 -0.08514786 -0.081797056
-0.10284305 -0.072010174 0.14497171 -0.07968405 0.05541095 -0.09463547 0.09533803 -0.1349002
0.044120118 0.14554463 -0.07749106 0.019057497 -0.14334112 -0.060663722 0.111901835 0.09418395
0.05125369 0.08248608 -10.660035 -10.367798 10.391911 -10.588867 -10.632986 -10.2397585
-10.635398 -10.308048 10.269723 10.153282 -10.086773 10.964286 -10.877932 -10.461926
10.618434 10.2330065 -10.020881 10.102273 10.830736 10.546597 10.101748 -10.149003
-10.599799 10.121691 10.431495 -10.289732 -10.387961 10.569514 10.355399 10.136741
-10.111815 -10.366394 10.48159 10.199345 -10.089131 10.317615 10.038019 10.412322
-10.571717 10.452951 10.352572 -10.415944 -10.753523 -10.222357 -10.290995 10.360757
10.291119 10.425548 10.265257 10.250339 10.290037 10.256885 10.306016 10.378253
10.510125 10.385633 10.52372 10.392733 10.326822 10.473052 10.363095 10.308142
10.341416 10.50175 10.354713 10.29989 10.470373 10.35311 10.35926 10.2590065
10.4379835 10.347844 10.117909 10.1007185 10.530186 10.434469 10.235218 10.223988
10.294165 10.529413 10.268847 10.355692 10.357496 10.4105835 10.356394 10.24622
10.406407 10.567464 10.157516 10.211624
