Ni_prediction/savemodel/bst_mod_114.pth (torch_old, 533442 bytes, 44 tensors)

price_encoder.attention.weight f4 [1, 121]
1.4084129 1.4402816 1.354909 -1.4497492 -1.2848043 1.2907038 1.4027214 -1.3441713
1.3874748 1.3629603 1.3459973 1.4195728 -1.3072748 -1.366725 -1.370657 1.3146541
1.2854297 -1.317698 1.273292 1.3954425 1.2690227 1.3665957 1.417341 -1.4094255
-1.4093308 1.347103 -1.310312 -1.4165635 -1.3961475 -1.3258042 1.4172025 -1.3448362
1.3577831 1.4493101 1.2979205 1.3567939 -1.4127162 1.4140894 1.3753569 -1.4166298
1.370229 1.4512117 1.3312049 1.4105098 1.3751211 1.4115822 1.4113572 1.4137428
1.4471841 1.3452272 1.3090208 1.3367424 1.4224825 1.3499115 1.2825572 1.3717697
1.3921857 -1.4376602 -1.3696005 1.456846 1.3094866 -1.4259031 -1.3909514 -1.2876925
-1.44663 1.4342089 1.3629849 1.3264763 1.3112595 -1.3574189 -1.3400903 1.3795061
1.3890204 1.3017974 -1.3063331 1.2882221 -1.3062797 0.5966145 1.4286325 1.3964243
-1.2931666 -1.3049374 1.3712499 1.3337954 1.4340343 -1.4481163 -1.2870102 -1.4518218
1.4254091 1.414484 1.4454631 1.4387478 1.3313103 1.422914 -1.3173409 -1.4485912
-1.3180432 1.3860271 -1.4023652 1.2586616 1.3227571 1.3358312 1.3642774 1.4312881
1.4075893 1.31354 1.2815522 1.4103599 1.416791 1.3633986 1.2791893 1.3677807
1.2727244 1.3872449 1.4354079 1.2805083 1.3348796 1.327647 1.4197726 1.3801637
1.4108186
00000000: e046 b43f 265b b83f a86d ad3f 6291 b9bf
00000010: 7874 a4bf c835 a53f 608c b33f ce0d acbf
00000020: c698 b13f 7c75 ae3f a449 ac3f 90b4 b53f
00000030: c854 a7bf d8f0 aebf b071 afbf 9646 a83f
00000040: f688 a43f 54aa a8bf 3bfb a23f dc9d b23f
00000050: 566f a23f 9cec ae3f 6e6b b53f 0e68 b4bf
00000060: f464 b4bf df6d ac3f 4eb8 a7bf f451 b5bf
00000070: f6b4 b2bf f4b3 a9bf e466 b53f 9823 acbf
00000080: d6cb ad3f fe82 b93f 4222 a63f 6cab ad3f
00000090: e2d3 b4bf e200 b53f b20b b03f 2054 b5bf
000000a0: aa63 af3f 4ec1 b93f ec64 aa3f 968b b43f
000000b0: f803 b03f baae b43f 5aa7 b43f 86f5 b43f
000000c0: 543d b93f 6830 ac3f fe8d a73f 601a ab3f
000000d0: e813 b63f e6c9 ac3f d62a a43f 2696 af3f
000000e0: 2433 b23f 4005 b8bf 124f afbf ee79 ba3f
000000f0: 429d a73f fe83 b6bf b20a b2bf 1cd3 a4bf
00000100: 2c2b b9bf 2894 b73f 4a76 ae3f fac9 a93f
00000110: 5ad7 a73f e7bf adbf 1488 abbf a893 b03f
00000120: 6ccb b13f 4ca1 a63f ec35 a7bf 76e4 a43f
00000130: 2c34 a7bf babb 183f 6edd b63f 08be b23f
00000140: 7c86 a5bf 3008 a7bf 1e85 af3f cfb9 aa3f
00000150: 708e b73f e05b b9bf c0bc a4bf 4cd5 b9bf
00000160: ce73 b63f d00d b53f ef04 b93f e328 b83f
00000170: 6068 aa3f 0c22 b63f a09e a8bf 706b b9bf
00000180: a4b5 a8bf 5669 b13f b480 b3bf d31b a13f
00000190: 1b50 a93f 84fc aa3f a4a0 ae3f 7334 b73f
000001a0: e32b b43f 1422 a83f e709 a43f ac86 b43f
000001b0: 6859 b53f d883 ae3f 7abc a33f 7013 af3f
000001c0: a2e8 a23f 3e91 b13f 72bb b73f b2e7 a33f
000001d0: 56dd aa3f 56f0 a93f 1cbb b53f 34a9 b03f
000001e0: b495 b43f

price_encoder.encoder.weight_ih_l0 f4 [180, 45]
-0.10081503 -0.11793174 0.032030195 0.08252931 -0.05553808 0.10434081 0.0786314 -0.12203796
-0.10363906 -0.011906922 -0.11033716 -0.057845883 -0.026593558 0.030670568 -0.12094639 0.015055522
0.050929055 -0.08312994 0.09051782 0.11508541 0.10373202 0.068535365 -0.1067442 -1.257271
-0.14499222 -0.14838655 -0.12169918 0.12855284 0.13309984 0.036279887 -0.13216035 -0.007720217
0.1171736 1.2672806 1.3169069 1.3342817 1.3508883 1.3553734 -0.12788418 1.3025756
1.5114572 1.4401999 1.3003201 0.024258867 -0.12438552 -0.12538967 0.06992276 0.11034409
0.044535466 0.09187691 0.1225216 -0.06919424 0.08575539 0.06016167 0.03135532 0.091763556
-0.02062574 0.06786533 0.12960862 0.012076467 -0.14174514 -0.13400184 0.004851505 -0.0328466
0.09511333 0.4691955 0.0014952692 -0.11344973 1.2232506 -0.12055867 -0.14411847 0.12071128
-0.04557728 -0.14238793 -0.0031163245 -0.043618716 0.1389936 -0.09410692 1.2825022 1.2374547
1.3386302 1.2923114 1.4963717 -0.1321793 1.3024032 1.2686586 1.2829447 1.4437683
0.040094435 0.04406303 0.105277196 -0.006818252 -0.117531985 -0.10983634 0.028270796 0.049015295
0.06508253 0.06620704 -0.028207205 -0.083775625 -0.13097677 0.019675344 -0.04967653 -0.101086855
0.0057055205 0.016693756 0.09478618 -0.09748939 0.014427438 -0.08619578 0.5365968 -0.0365909
-0.11074256 1.3210478 -0.05385317 0.040727615 -0.044189923 0.01173832 -0.10117705 0.14104538
-0.10903217 0.14078091 -0.13879293 1.4747827 1.2362417 1.3346939 1.4004004 1.452461
-1.3768494 1.3217986 1.4407008 1.2418454 1.31143 0.05854948 -0.0628588 0.097312465
-0.05437591 -0.12997267 -0.021335285 -0.039175212 0.116007686 0.120828584 0.094741076 -0.0042751124
0.07895869 0.112611786 0.11571257 0.098501086 -1.2300398 0.035623893 0.06157522 -0.036585532
-0.009238392 0.5178594 0.044042006 -0.17346081 -0.014566174 0.06087087 -1.3600209 0.048548266
0.14540882 -0.06431627 -0.08895911 -1.3875778 0.08551687 0.09739812 -1.0462533 -0.090427786
-1.5034895 -1.4422437 -1.2753475 -1.2915267 -1.4360301 -0.0971231 -1.2983592 -1.3670075
-1.275599 -1.2837387 0.078700915 0.03697005 -0.086021446 -0.021043167 0.08415489 0.13774158
0.086464375 0.14374393 -0.13798758 -0.14354962 -0.08805917 -0.05214633 0.05319175 -0.14534812
-0.10576667 -0.0815159 -0.0072434545 0.08716659 -0.03337206 -0.090265244 0.03837815 -0.08692588
0.083380036 0.08879963 0.045702595 -1.3360626 0.10023822 0.14138605 0.07517514 0.02732578
0.12808414 0.12216337 0.05401829 -0.017108917 -0.10490509 -1.2541919 -1.4628217 -1.4945164
-1.3057415 -1.3705263 -0.005410418 -1.3463454 -1.2541441 -1.2180469 -1.4302261 -0.0796645
-0.011409387 -0.016913455 0.06550309 0.014936879 -0.03827378 0.12666835 0.14669965 -0.0015459263
0.14879559 0.06344125 0.11312817 -0.13156295 0.09171176 -0.09136476 1.2805984 0.008749828
0.001897186 0.03890367 0.02564998 -0.10336681 0.07778296 -0.052846644 -0.07656671 0.00082656805
-1.5150762 0.027119339 -0.09090344 0.118399784 -0.03892406 1.3711941 0.0639907 0.13539745
00000000: 1c78 cebd 3286 f1bd 1832 033d 2005 a93d
00000010: e67b 63bd a2b0 d53d 8009 a13d 0aef f9bd
00000020: b740 d4bd 4015 43bc 73f8 e1bd ceef 6cbd
00000030: bcda d9bc d840 fb3c beb2 f7bd 70ab 763c
00000040: fc9a 503d 0840 aabd 6861 b93d e6b1 eb3d
00000050: 7471 d43d 455c 8c3d b49c dabd 42ee a0bf
00000060: d778 14be a5f2 17be 6b3d f9bd 5ba3 033e
00000070: 534b 083e 389a 143d 0b55 07be e0f9 fcbb
00000080: b6f8 ef3d 4036 a23f 6890 a83f bec9 aa3f
00000090: e8e9 ac3f e07c ad3f 12f4 02be ccba a63f
000000a0: 6e77 c13f 7858 b83f e470 a63f 88ba c63c
000000b0: d6bd febd 2666 00be aa33 8f3d 15fc e13d
000000c0: d26a 363d f629 bc3d 9bec fa3d b6b5 8dbd
000000d0: 86a0 af3d 156c 763d 706e 003d 88ee bb3d
000000e0: 50f7 a8bc fafc 8a3d 1fb8 043e 60dc 453c
000000f0: a325 11be c737 09be 60f9 9e3b 288a 06bd
00000100: c7ca c23d 643a f03e e9fc c33a 5558 e8bd
00000110: 7a93 9c3f 77e7 f6bd cb93 13be 7a37 f73d
00000120: 3eaf 3abd 24ce 11be 403b 4cbb 8aa9 32bd
00000130: 5754 0e3e 21bb c0bd 0829 a43f ea64 9e3f
00000140: 3c58 ab3f 766a a53f 1c89 bf3f 035a 07be
00000150: 26b5 a63f 6863 a23f 8837 a43f 66cd b83f
00000160: 103a 243d 707b 343d 929b d73d a56b dfbb
00000170: 9cb4 f0bd e0f1 e0bd 2898 e73c 43c4 483d
00000180: fd49 853d 8e97 873d cc12 e7bc 8e92 abbd
00000190: c61e 06be 302e a13c 9e79 4bbd a006 cfbd
000001a0: 60f5 ba3b 58c1 883c 421f c23d 84a8 c7bd
000001b0: 1061 6c3c 6a87 b0bd 685e 093f 57e0 15bd
000001c0: ffcc e2bd 1818 a93f 2495 5cbd 00d2 263d
000001d0: 7e00 35bd 1552 403c ea35 cfbd 336e 103e
000001e0: 424c dfbd df28 103e bc1f 0ebe aec5 bc3f
000001f0: 2b3d 9e3f 40d7 aa3f 5240 b33f 3eea b93f
00000200: 9a3c b0bf b230 a93f e268 b83f caf4 9e3f
00000210: f0dc a73f 94d1 6f3d 1dbc 80bd c24b c73d
00000220: 46b9 5ebd 8e17 05be 56c7 aebc 3076 20bd
00000230: 7095 ed3d fa74 f73d 9c07 c23d 3e16 8cbb
00000240: 18b5 a13d 02a1 e63d b6fa ec3d f0ba c93d
00000250: f271 9dbf 5cea 113d 4c36 7c3d b6da 15bd
00000260: a05c 17bc 6f92 043f 6465 343d b69f 31be
00000270: f6a6 6ebc bc53 793d 2a15 aebf 8cda 463d
00000280: 0de6 143e 40b8 83bd 3230 b6bd 269c b1bf
00000290: 7823 af3d aa78 c73d a1eb 85bf 3432 b9bd
000002a0: 5872 c0bf 719b b8bf 963e a3bf bf50 a5bf
000002b0: d6cf b7bf 7ae8 c6bd a230 a6bf 1afa aebf
000002c0: d446 a3bf 8d51 a4bf f22d a13d e86d 173d
000002d0: 032c b0bd b862 acbc 6659 ac3d 210c 0d3e
000002e0: 3c14 b13d 9c31 133e 9e4c 0dbe acfe 12be
000002f0: 5e58 b4bd 6497 55bd 98df 593d 23d6 14be
00000300: 329c d8bd cff1 a6bd 805a edbb 6684 b23d
00000310: 24b1 08bd fcdc b8bd 6832 1d3d 3206 b2bd
00000320: 27c3 aa3d 95dc b53d a532 3b3d 1904 abbf
00000330: b249 cd3d 81c7 103e 6cf5 993d 50da df3c
00000340: 7d28 033e ca30 fa3d 4842 5d3d 0028 8cbc
00000350: 7bd8 d6bd 5c89 a0bf be3d bbbf 504c bfbf
00000360: 8a22 a7bf 686d afbf e049 b1bb 0c55 acbf
00000370: cb87 a0bf f6e8 9bbf a611 b7bf 2427 a3bd
00000380: 70ee 3abc 168e 8abc 7c26 863d d0b9 743c
00000390: f8c4 1cbd 59b5 013e 6f38 163e aea0 caba
000003a0: df5d 183e 7ced 813d beaf e73d 70b8 06be
000003b0: 60d3 bb3d 731d bbbd a6ea a33f 705b 0f3c
000003c0: 00ab f83a 7459 1f3d e81f d23c fab1 d3bd
000003d0: ac4c 9f3d b975 58bd 02cf 9cbd 0bae 583a
000003e0: 04ee c1bf 6029 de3c 952b babd 967b f23d
000003f0: d66e 1fbd 4a83 af3f 8e0d 833d a1a5 0a3e

price_encoder.encoder.weight_hh_l0 f4 [180, 45]
1.479928 1.3898919 1.2526511 -1.2538626 1.3574067 1.3021898 1.3467607 -1.4830787
-1.3496053 -1.2944936 -1.4560039 1.4315382 -1.3047898 -1.3672843 1.2869098 -1.4990251
1.2734101 -1.3992256 1.2260258 -1.4908583 1.228605 1.3452642 1.2446437 1.2826152
-1.3377948 -1.219779 -1.2542365 1.3085914 -1.2255759 -1.3102337 1.2697809 -1.3781283
1.347839 1.3767284 1.3510067 -1.2233758 -1.3224611 1.4050941 1.2833004 1.5150452
1.4633205 1.3011405 -1.4069381 1.4966521 -1.4588244 -1.4830675 -1.4220697 -1.3646643
1.4127171 -1.2782617 -1.4567534 -1.2584157 -1.4453409 1.3119528 -1.4274583 1.2871922
-1.509898 1.2355541 1.3070571 -1.3753986 1.4843948 -1.3137965 1.2321628 -1.2794077
1.3657062 1.2740206 -1.4520689 -1.2735407 -1.3859468 1.4887469 1.4320481 1.2802131
-1.3208447 1.225796 1.4090724 -1.4963682 1.4185829 -1.3835056 -1.4185882 -1.2710619
1.2464107 1.346167 -1.4534292 -1.2471836 -1.4440684 -1.3664024 -1.3274127 1.420689
-1.2778693 1.2843931 -1.2997799 -1.427244 -1.4914157 1.3832664 -1.2513785 -1.3846238
-1.231523 -1.3181765 1.3987434 -1.3345482 1.5050528 -1.3254428 1.4818155 1.4184158
-1.2596341 1.244986 -1.4506118 1.4784265 -1.5098784 -1.4159154 1.267499 -1.3036525
-1.4306097 -1.40189 1.3085028 1.3749166 1.3240829 -1.468391 1.2531648 1.5082784
-1.3053617 1.2836626 -1.2374635 -1.3980999 -1.4284925 1.4375451 1.2724655 -1.2249572
-1.2704382 -1.2576106 -1.2318568 -1.339807 1.3611988 -1.3268583 1.4072485 1.4637359
1.3256762 1.4346251 -1.4000864 1.4129434 1.2567182 1.2938147 1.262028 -1.3143703
1.4465282 -1.275295 1.2677746 1.4086528 -1.3148146 1.4446287 -1.3738099 1.2581091
-1.3681853 1.3932056 1.4050922 -1.3591017 1.2974184 1.458395 1.3940566 -1.2309442
-1.3281536 1.3419886 1.2758296 -1.4969795 -1.4885631 1.443181 -1.3145912 1.2878584
1.4979992 1.5111022 -1.4750202 -1.2761557 1.3837609 1.29586 1.3013633 1.4486864
1.2573204 -1.5035757 1.2688081 -1.3664232 1.2346296 1.298846 1.493788 -1.4371525
1.2237847 1.2860098 1.5128357 1.4741061 -1.4660072 1.4372971 -1.3959389 1.3623171
-1.3984699 -1.2710776 1.2436953 -1.2618434 1.3373897 -1.2530797 1.2588212 1.4502392
-1.234926 1.2326307 1.3341544 1.498843 -1.3433257 -1.3106611 1.404876 1.4285482
-1.3288519 -1.2358745 1.2821245 -1.4804094 1.385902 1.5098495 1.4724324 -1.2677186
-1.3449237 1.2602086 1.4514467 1.4109688 1.3152919 1.4303122 -1.3434079 1.2548871
-1.2440786 1.3163583 1.4052342 1.4491191 -1.4866581 1.4575193 1.247205 1.3077118
1.4817281 -1.3198193 1.5106332 -1.3341174 1.2661302 -1.2285981 -1.3307202 1.3158655
-1.4078705 1.4822159 -1.4720694 1.3928089 1.4858708 -1.2700703 1.3176768 1.2371194
1.2281959 -1.3744061 -1.3921654 1.218339 1.4811163 -1.2888834 -1.4944541 1.3489501
00000000: 486e bd3f fae7 b13f df56 a03f 927e a0bf
00000010: 81bf ad3f 28ae a63f a862 ac3f 86d5 bdbf
00000020: debf acbf f7b1 a5bf 565e babf a53c b73f
00000030: 5a03 a7bf 2c03 afbf 76b9 a43f 0ee0 bfbf
00000040: 1aff a23f d319 b3bf 6aee 9c3f 72d4 bebf
00000050: ee42 9d3f 9e31 ac3f 7c50 9f3f bc2c a43f
00000060: dc3c abbf b821 9cbf d28a a0bf ec7f a73f
00000070: acdf 9cbf bdb5 a7bf 2e88 a23f 8266 b0bf
00000080: fd85 ac3f a338 b03f caed ac3f 9497 9cbf
00000090: 6846 a9bf 20da b33f 3043 a43f 00ed c13f
000000a0: 164e bb3f c68b a63f 8c16 b4bf 4c92 bf3f
000000b0: c2ba babf 28d5 bdbf 6106 b6bf 52ad aebf
000000c0: ead3 b43f 149e a3bf e576 babf c413 a1bf
000000d0: ee00 b9bf 12ee a73f f4b6 b6bf b7c2 a43f
000000e0: 5644 c1bf a326 9e3f a64d a73f 100d b0bf
000000f0: a600 be3f 7c2a a8bf 83b7 9d3f a2c3 a3bf
00000100: 76cf ae3f 1b13 a33f 65dd b9bf 6203 a3bf
00000110: b466 b1bf 428f be3f 5a4d b73f 06de a33f
00000120: 7011 a9bf e2e6 9c3f 7c5c b43f fe88 bfbf
00000130: 2094 b53f b616 b1bf 4c94 b5bf 28b2 a2bf
00000140: 638a 9f3f 334f ac3f f809 babf b6a3 9fbf
00000150: 3cd7 b8bf 46e6 aebf a9e8 a9bf 23d9 b53f
00000160: 3991 a3bf fe66 a43f 305f a6bf eeaf b6bf
00000170: b6e6 bebf e00e b13f 2c2d a0bf 5a3b b1bf
00000180: 8ca2 9dbf 02ba a8bf 060a b33f 7ad2 aabf
00000190: 92a5 c03f 1ca8 a9bf 21ac bd3f a68e b53f
000001a0: b13b a1bf b45b 9f3f a6ad b9bf 143d bd3f
000001b0: b243 c1bf b73c b5bf 683d a23f 16de a6bf
000001c0: 381e b7bf 2271 b3bf 057d a73f 44fd af3f
000001d0: 8c7b a93f 3cf4 bbbf b467 a03f 440f c13f
000001e0: 1816 a7bf 0e4f a43f 3465 9ebf f0f4 b2bf
000001f0: d8d8 b6bf 7a01 b83f 26e0 a23f 66cb 9cbf
00000200: b89d a2bf 62f9 a0bf 7cad 9dbf cc7e abbf
00000210: c33b ae3f 7ed6 a9bf b820 b43f b35b bb3f
00000220: c2af a93f cca1 b73f 0836 b3bf 54db b43f
00000230: 24dc a03f b89b a53f 228a a13f 493d a8bf
00000240: d627 b93f de3c a3bf 7046 a23f bc4e b43f
00000250: d84b a8bf 98e9 b83f 01d9 afbf b809 a13f
00000260: b220 afbf 9054 b23f 10da b33f 0bf7 adbf
00000270: ce11 a63f b0ac ba3f 7270 b23f 948f 9dbf
00000280: f000 aabf 48c6 ab3f 624e a33f 069d bfbf
00000290: 3c89 bebf 28ba b83f 8644 a8bf 8bd8 a43f
000002a0: 70be bf3f cc6b c13f 76cd bcbf 1259 a3bf
000002b0: 141f b13f bede a53f 1393 a63f 8e6e b93f
000002c0: e0ef a03f 2b75 c0bf 4e68 a23f f5e6 aebf
000002d0: 5808 9e3f 9640 a63f 7234 bf3f 9df4 b7bf
000002e0: faa4 9c3f f89b a43f 9aa4 c13f 82af bc3f
000002f0: 20a6 bbbf 5af9 b73f 20ae b2bf 6860 ae3f
00000300: 1001 b3bf acb2 a2bf 6831 9f3f 1684 a1bf
00000310: 962f ab3f ea64 a0bf 0e21 a13f 70a1 b93f
00000320: 0e12 9ebf d8c6 9d3f 92c5 aa3f 16da bf3f
00000330: 19f2 abbf bec3 a7bf fad2 b33f abda b63f
00000340: d217 aabf 2331 9ebf a81c a43f 0e7e bdbf
00000350: 3d65 b13f c042 c13f aa78 bc3f 9a44 a2bf
00000360: 7626 acbf 844e a13f 01c9 b93f a09a b43f
00000370: 7c5b a83f 7814 b73f caf4 abbf 24a0 a03f
00000380: f83d 9fbf 6e7e a83f b7de b33f bc7c b93f
00000390: d04a bebf fe8f ba3f 6aa4 9f3f 1a63 a73f
000003a0: 44a9 bd3f d7ef a8bf 6e5c c13f 5cc4 aabf
000003b0: 8e10 a23f b442 9dbf 0a55 aabf 486e a83f
000003c0: 1a35 b4bf 40b9 bd3f c56c bcbf 9047 b23f
000003d0: 0431 be3f aa91 a2bf a2a9 a83f ee59 9e3f
000003e0: 8635 9d3f 8aec afbf 7a32 b2bf 88f2 9b3f
000003f0: 3895 bd3f 22fa a4bf 464a bfbf 66aa ac3f

price_encoder.encoder.bias_ih_l0 f4 [180]
-1.4210064 1.4901617 1.3280234 -1.2916996 -1.473217 -1.3207397 1.4498575 -1.3357192
1.4626794 -1.4364333 -1.3049088 -1.390095 -1.5001352 1.3754866 1.293426 1.4923613
-1.4356711 1.2723172 -1.4518344 -1.508068 -1.4004717 -1.2217396 -1.3720155 1.3381622
-1.4384 -1.3773737 -1.2695022 1.3399596 -1.4135342 1.3329751 1.2711537 -1.5043473
1.4848877 -1.4370885 -1.2847819 1.3259175 -1.321413 -1.5160198 -1.2314303 1.4188654
1.2787676 1.1775112 -1.484271 1.3244809 1.3419106 -1.2561944 1.4988208 1.3286593
-1.4493473 -1.2979238 -1.488347 1.4705818 -1.3813387 1.3973906 1.2687778 -1.4822717
-1.2727301 -1.3038499 1.3883817 1.2974608 1.3574417 -1.3661556 1.4453647 1.3498077
-1.4568102 -1.4119146 -1.3563182 -1.2591403 1.293355 -1.426223 -1.22573 -1.2398343
1.3905537 -1.4563427 1.3377898 1.2288182 -1.3830931 1.2700589 -1.3841743 -1.4296365
1.3223093 -1.461474 -1.4474194 -1.3063626 1.4254727 1.3931887 -1.3413048 -1.3180368
1.3953018 1.3923453 1.2271016 -1.455653 -1.2943532 -1.5144597 1.2337346 1.3822899
-1.4213163 1.34391 1.2955029 -1.2556887 -1.2234552 1.404543 1.344521 1.2852027
-1.4294257 1.282505 1.4291978 1.4780076 1.2983333 1.4495356 -1.4806628 1.2670856
1.4018955 -1.2641201 -1.2289026 -1.3075252 1.5117817 -1.2225733 -1.2494131 1.4562168
-1.356421 -1.4290178 -1.4444569 1.3024888 1.4694071 1.3282702 -1.4730682 1.4101813
1.3172038 -1.3424399 -1.4322369 1.4744903 -1.362642 -1.3658447 1.4400623 -1.2794409
1.3871602 1.2392812 -1.4376497 -1.5042654 -1.5042064 1.253017 -1.35493 1.4865208
-1.2638719 -1.5069163 -1.2487347 -1.3415263 1.4491313 1.4096172 1.2571285 -1.233603
1.4924655 -1.4406357 -1.4407966 -1.4559255 -1.2892313 -1.4718403 1.3143413 -1.4136622
-1.3271515 -1.2688458 1.3456385 -1.2407608 1.2666302 1.3210583 -1.3592403 1.2547994
-1.2281592 -1.2389512 1.4870427 -1.454615 -1.2758634 -1.3692567 1.2936795 1.2854357
-1.4442363 -1.392046 1.3456235 1.5099435
00000000: 8ae3 b5bf 9ebd be3f acfc a93f 6a56 a5bf
00000010: 6092 bcbf 000e a9bf ee94 b93f d9f8 aabf
00000020: 1439 bb3f 0cdd b7bf 4007 a7bf a2ee b1bf
00000030: 6e04 c0bf f20f b03f fc8e a53f b205 bf3f
00000040: 12c4 b7bf 4adb a23f b6d5 b9bf 5f08 c1bf
00000050: a842 b3bf f761 9cbf 349e afbf e648 ab3f
00000060: 7e1d b8bf c84d b0bf 0c7f a2bf cc83 ab3f
00000070: b0ee b4bf ee9e aa3f 2ab5 a23f 748e c0bf
00000080: cd10 be3f 84f2 b7bf bc73 a4bf aab7 a93f
00000090: 1024 a9bf f00c c2bf 829f 9dbf 629d b53f
000000a0: a8ae a33f b0b8 963f 98fc bdbf 9788 a93f
000000b0: bac3 ab3f faca a0bf 5cd9 bf3f 8211 aa3f
000000c0: 3684 b9bf 5e22 a6bf 2882 bebf 063c bc3f
000000d0: b5cf b0bf b2dd b23f 5067 a23f 14bb bdbf
000000e0: d2e8 a2bf 8ee4 a6bf 7eb6 b13f 3213 a63f
000000f0: a6c0 ad3f 30de aebf b601 b93f 80c6 ac3f
00000100: c278 babf 9eb9 b4bf d69b adbf 822b a1bf
00000110: a88c a53f 7a8e b6bf b8e4 9cbf e4b2 9ebf
00000120: aafd b13f 7069 babf b23c ab3f ea49 9d3f
00000130: 3209 b1bf 4a91 a23f a02c b1bf 54fe b6bf
00000140: 6e41 a93f 9411 bbbf 0a45 b9bf e436 a7bf
00000150: e475 b63f 0254 b23f e0af abbf 6eb5 a8bf
00000160: 4099 b23f 5f38 b23f aa11 9d3f d652 babf
00000170: 5ead a5bf d1d9 c1bf 04eb 9d3f e0ee b03f
00000180: b1ed b5bf 3e05 ac3f 0ad3 a53f 68ba a0bf
00000190: 2e9a 9cbf 11c8 b33f 4419 ac3f 8681 a43f
000001a0: 6cf7 b6bf 2029 a43f f4ef b63f 5a2f bd3f
000001b0: c92f a63f 628a b93f 5c86 bdbf dc2f a23f
000001c0: 5071 b33f b0ce a1bf ae4c 9dbf fc5c a7bf
000001d0: 1082 c13f 487d 9cbf c5ec 9fbf 5065 ba3f
000001e0: 349f adbf 0eea b6bf f7e3 b8bf f4b7 a63f
000001f0: 8815 bc3f c204 aa3f 808d bcbf d280 b43f
00000200: 229a a83f 12d5 abbf 8a53 b7bf 19bc bc3f
00000210: 0e6b aebf 00d4 aebf f653 b83f b8c4 a3bf
00000220: 778e b13f c4a0 9e3f e804 b8bf c58b c0bf
00000230: d689 c0bf dc62 a03f 596e adbf 5046 be3f
00000240: 8ec6 a1bf a2e2 c0bf 8ad6 9fbf 22b7 abbf
00000250: 227d b93f 566e b43f 96e9 a03f b4e6 9dbf
00000260: 1c09 bf3f c066 b8bf 066c b8bf c45b babf
00000270: 8805 a5bf 4365 bcbf 563c a83f e2f2 b4bf
00000280: 1ae0 a9bf 8a69 a2bf e23d ac3f 40d1 9ebf
00000290: f020 a23f 7018 a93f 96fb adbf 449d a03f
000002a0: 5234 9dbf f495 9ebf 6a57 be3f d330 babf
000002b0: 7e4f a3bf ce43 afbf 4a97 a53f 2889 a43f
000002c0: bcdc b8bf 902e b2bf 643d ac3f d445 c13f

price_encoder.encoder.bias_hh_l0 f4 [180]
-1.2744288 1.508862 1.4835598 -1.2437587 -1.4383376 -1.345094 1.2307656 -1.4892861
1.3376219 -1.3022947 -1.3194098 -1.249604 -1.3346558 1.3154294 1.4466274 1.2530355
-1.4654162 1.2918475 -1.4241052 -1.2409464 -1.4551182 -1.3964216 -1.3383851 1.3501596
-1.4066234 -1.3832686 -1.362494 1.2358317 -1.3411245 1.3913219 1.2956464 -1.4882398
1.4738816 -1.3551183 -1.451956 1.3876638 -1.2194917 -1.3475509 -1.3101118 1.4281571
1.2590563 1.2229729 -1.3947327 1.2374841 1.224767 -1.4460623 1.2227998 1.2387741
-1.3780391 -1.4079263 -1.3864028 1.3972652 -1.336392 1.3192091 1.2555735 -1.3666482
-1.400105 -1.3840837 1.3838778 1.4719543 1.2730188 -1.3310971 1.3622262 1.459342
-1.3370085 -1.4850867 -1.4170971 -1.4003003 1.2924223 -1.4096115 -1.2929211 -1.5121057
1.227076 -1.2866685 1.4072547 1.4558592 -1.3417246 1.2460563 -1.326134 -1.2329223
1.257741 -1.4413426 -1.388279 -1.3478589 1.4884474 1.422126 -1.4469011 -1.4477613
1.3156686 1.4707972 1.395217 -1.4870486 -1.4405551 -1.2512077 1.3924458 1.4848373
-1.3467115 1.4170539 1.4391532 -1.4435928 -1.4572053 1.2708353 1.3481362 1.3832648
-1.3527079 1.2602236 1.2573755 1.4662731 1.2241822 1.4082074 -1.338134 1.3583488
1.3038383 -1.2955434 -1.4459014 -1.2860262 1.2543705 -1.3973427 -1.3535155 1.4370115
-1.2518623 -1.2377174 -1.3259372 1.304528 1.2667363 1.374269 -1.3784142 1.2405288
1.2311144 -1.3902395 -1.3300757 1.4433733 -1.3752842 -1.4706903 1.4482751 -1.5041659
1.4462291 1.4794376 -1.5088587 -1.2932972 -1.3008678 1.2817075 -1.2399205 1.4451969
-1.5031109 -1.4050701 -1.317364 -1.4940224 1.2385817 1.3426137 1.2510548 -1.3385367
1.2881253 -1.4116743 -1.2512307 -1.245081 -1.2521281 -1.3213962 1.502388 -1.238267
-1.4531593 -1.3258531 1.345716 -1.461474 1.3049293 1.3381469 -1.4724948 1.3688967
-1.4380455 -1.4882963 1.3166604 -1.2659785 -1.4971435 -1.4952943 1.4272017 1.2907104
-1.4130247 -1.4455023 1.4414275 1.3821158
00000000: 7c20 a3bf 6422 c13f 4ae5 bd3f 7c33 9fbf
00000010: 721b b8bf 0a2c acbf ba89 9d3f eda0 bebf
00000020: 3237 ab3f 98b1 a6bf 6ce2 a8bf 06f3 9fbf
00000030: 00d6 aabf fe5f a83f 162b b93f 7863 a03f
00000040: c292 bbbf 425b a53f 1449 b6bf 55d7 9ebf
00000050: 5041 babf f1bd b2bf 3450 abbf 08d2 ac3f
00000060: 3c0c b4bf f20e b1bf 3466 aebf bc2f 9e3f
00000070: f8a9 abbf d616 b23f bed7 a53f a47e bebf
00000080: 27a8 bc3f 8474 adbf b2d9 b9bf f89e b13f
00000090: 4e18 9cbf 8c7c acbf beb1 a7bf dacd b63f
000000a0: c228 a13f 608a 9c3f 9a86 b2bf e165 9e3f
000000b0: 2ac5 9c3f 9218 b9bf b484 9c3f 2690 9e3f
000000c0: 9663 b0bf ee36 b4bf a675 b1bf 96d9 b23f
000000d0: e50e abbf d8db a83f a2b6 a03f 54ee aebf
000000e0: a436 b3bf a829 b1bf e822 b13f 0069 bc3f
000000f0: 48f2 a23f 6461 aabf 6e5d ae3f b8cb ba3f
00000100: 1823 abbf 5217 bebf 7063 b5bf 0a3d b3bf
00000110: 186e a53f 266e b4bf 707e a5bf ae8c c1bf
00000120: d410 9d3f 8eb1 a4bf ec20 b43f 9859 ba3f
00000130: a2bd abbf c67e 9f3f c2be a9bf 66d0 9dbf
00000140: a8fd a03f ea7d b8bf 20b3 b1bf a486 acbf
00000150: 7285 be3f 3a08 b63f 0e34 b9bf 3e50 b9bf
00000160: d467 a83f 1543 bc3f 7896 b23f 9c57 bebf
00000170: 1c64 b8bf 9327 a0bf aa3b b23f 260f be3f
00000180: 0b61 acbf 0662 b53f 2c36 b83f a6c7 b8bf
00000190: b485 babf bbaa a23f ba8f ac3f d20e b13f
000001a0: 8825 adbf 024f a13f aef1 a03f d6ae bb3f
000001b0: 01b2 9c3f 2440 b43f fa47 abbf 60de ad3f
000001c0: 2ce4 a63f 5ed4 a5bf 4c13 b9bf 829c a4bf
000001d0: 368f a03f 20dc b2bf ff3f adbf feef b73f
000001e0: 063d a0bf 866d 9ebf 4fb8 a9bf c6fa a63f
000001f0: 6a24 a23f 0ce8 af3f e06f b0bf a6c9 9e3f
00000200: 2895 9d3f 5ef3 b1bf ec3f aabf 75c0 b83f
00000210: 5009 b0bf 943f bcbf 1461 b93f 8288 c0bf
00000220: 091e b93f 365e bd3f 4822 c1bf c38a a5bf
00000230: d682 a6bf fe0e a43f b7b5 9ebf 36fc b83f
00000240: f065 c0bf 56d9 b3bf 629f a8bf 203c bfbf
00000250: d889 9e3f c4da ab3f 9022 a03f 2c55 abbf
00000260: 4ae1 a43f beb1 b4bf 5428 a0bf d05e 9fbf
00000270: bc45 a0bf 8323 a9bf 404e c03f 887f 9ebf
00000280: 2001 babf 8eb5 a9bf 6c40 ac3f 9411 bbbf
00000290: ec07 a73f 6648 ab3f b67a bcbf 0238 af3f
000002a0: e011 b8bf 7e80 bebf 5488 a83f 950b a2bf
000002b0: 66a2 bfbf ce65 bfbf 8cae b63f 0036 a53f
000002c0: fedd b4bf 3806 b9bf b280 b83f 2ce9 b03f

atten_layer.0.weight f4 [45, 135]
-0.0057471693 0.0064634383 -0.023407012 -0.017246887 0.08354073 0.049593173 -0.047539566 -0.032573927
0.05134674 0.07988199 0.024511985 0.07390807 -0.017657869 0.053518586 -0.0008888021 -0.031687308
-0.02342514 0.027021773 0.044725947 0.0027237982 -0.017312214 -0.030763138 -0.002708882 0.08591122
0.02685593 -0.082645014 -0.01944539 0.03249693 -0.08227926 0.055579253 -0.05724658 -0.07076175
-0.042760298 0.002939351 -0.063155875 -0.0065164343 -0.060818404 -0.011712387 -0.08242071 -0.033076417
-0.0039123744 0.08097095 -0.08558405 -0.008020014 -5.9068203e-05 -0.076280855 -0.04573452 0.041056506
0.057193406 0.06496327 0.07700165 0.08006618 -0.018351048 -0.067524955 -0.07416958 -0.042227663
-0.050607562 0.028454863 -0.044203136 0.066603534 -0.04501019 0.068760835 0.051209517 0.073318355
-0.07228898 0.080668755 -0.0014918223 0.0740126 0.04745216 -0.06300074 -0.07123549 0.085252844
-0.021811709 -0.015380055 -0.0017899722 -0.062062446 -0.013997346 0.041222565 -0.003610663 -0.07971625
0.038701087 0.064699955 -0.034529682 -0.07037624 0.07597815 0.04406161 0.07525534 0.0022079945
-0.04345714 0.075743414 -1.4186785 -1.7557429 -2.1539469 -1.4264948 1.3703805 -1.4210806
-1.4542602 2.1623845 1.358877 1.3238881 -1.3627422 -1.2551671 -1.3318458 1.4240481
-1.390782 -1.2764661 -1.3350374 1.3658614 1.3962271 -0.73205304 -1.9276116 2.200971
2.05653 0.767053 -1.4562597 0.5758151 1.8475916 1.3630238 -2.1436505 2.1532652
1.3621902 -1.4280708 1.32337 -1.3947663 -1.2867124 -1.2932348 1.3430424 -1.3417413
1.4636455 1.3530264 -0.805272 1.8984251 -2.278613 -1.5016866 2.0430024 -0.067752436
0.07499079 -0.05124852 -0.06941933 0.02911105 0.0029076785 0.044290595 0.012814164 -0.024552964
0.032376744 -0.0794905 -0.035695862 0.05890321 0.046839796 -0.041876774 0.08246253 0.05467642
0.041765742 -0.061543673 -0.05118418 -0.071765855 -0.05028689 0.03154575 0.06625862 0.072372414
-0.0029624924 0.008894905 -0.0297645 -0.0639475 0.03030461 -0.02498357 -0.03731899 -0.029991284
-0.0677152 -0.051900968 -0.032647245 -0.02142921 -0.020470433 0.079704516 -0.020916536 0.042949177
-0.01658269 0.07789128 -0.022918642 0.051874064 0.06150619 -0.02419725 0.029462881 -0.048130646
-0.03585691 0.048715226 0.045684732 0.017766334 0.07184935 -0.047481988 0.012621321 -0.06888477
-0.08488907 -0.053666174 0.08564996 0.051085763 0.06269915 0.061096407 -0.010972753 0.015200883
-0.024069268 -0.04916307 -0.03534759 -0.05007578 0.040877156 -0.040059984 -0.019390456 0.08252374
0.036294557 0.015384428 -0.01615756 0.06600962 0.0053503737 0.0029198155 -0.045652747 -0.070127316
0.06217409 -0.047747564 -0.07595188 -0.078026906 0.019387327 -0.08312577 -0.07084684 0.021299392
0.04074464 -1.6322839 1.8231013 1.9821999 -1.319757 1.3116561 1.3457327 1.2979698
-1.5602279 1.5090058 1.4258573 -1.3320167 -1.1537876 -1.4092569 1.2983024 -1.4268287
-1.1662462 1.3774245 1.3564546 1.3325493 -1.7319093 1.6367929 -1.5735571 -1.8740206
1.8438759 -1.364457 1.7633829 -1.5934165 1.4417101 1.7825515 -1.6383834 1.3759441
00000000: c052 bcbb 40cb d33b 10c0 bfbc 5849 8dbc
00000010: 6717 ab3d 3622 4b3d d9b8 42bd 3d6c 05bd
00000020: f650 523d 2b99 a33d 5ccd c83c 1d5d 973d
00000030: 3ca7 90bc 4e36 5b3d 80fe 68ba 8dca 01bd
00000040: 14e6 bfbc c45c dd3c 8e32 373d c081 323b
00000050: 58d2 8dbc fa02 fcbc 8087 31bb 39f2 af3d
00000060: f800 dc3c ca41 a9bd f04b 9fbc 801b 053d
00000070: 0782 a8bd 12a7 633d 647b 6abd 89eb 90bd
00000080: 6c25 2fbd 20a2 403b de57 81bd d087 d5bb
00000090: b81c 79bd 50e5 3fbc 30cc a8bd 237b 07bd
000000a0: 6033 80bb 19d4 a53d b146 afbd 6066 03bc
000000b0: 00c0 77b8 2339 9cbd 1f54 3bbd de2a 283d
000000c0: a243 6a3d 770b 853d 0bb3 9d3d bdf9 a33d
000000d0: f054 96bc 864a 8abd 39e6 97bd eaf6 2cbd
000000e0: e049 4fbd 2c1a e93c 590e 35bd 6f67 883d
000000f0: 9b5c 38bd 7bd2 8c3d 12c1 513d ef27 963d
00000100: 3f0c 94bd a935 a53d 4089 c3ba eb93 973d
00000110: 325d 423d 8806 81bd eae3 91bd 0b99 ae3d
00000120: 78ae b2bc a0fc 7bbc 809d eaba 3135 7ebd
00000130: 2055 65bc fed8 283d e0a0 6cbb 4642 a3bd
00000140: 0885 1e3d 6981 843d ff6e 0dbd 6b21 90bd
00000150: 6f9a 9b3d f279 343d 791f 9a3d 00b4 103b
00000160: 1d00 32bd 5d1f 9b3d 4297 b5bf 2fbc e0bf
00000170: 44da 09c0 6297 b6bf a168 af3f f8e5 b5bf
00000180: 3325 babf 8264 0a40 aeef ad3f 2a75 a93f
00000190: 566e aebf 51a9 a0bf ec79 aabf 3547 b63f
000001a0: 2505 b2bf 3e63 a3bf 81e2 aabf 8cd4 ae3f
000001b0: 92b7 b23f d467 3bbf fabb f6bf b5dc 0c40
000001c0: 309e 0340 965d 443f b866 babf 9e68 133f
000001d0: e27d ec3f 9077 ae3f 9231 09c0 19cf 0940
000001e0: 405c ae3f 06cb b6bf 3064 a93f b487 b2bf
000001f0: feb2 a4bf b888 a5bf d0e8 ab3f 2ebe abbf
00000200: bc58 bb3f f82f ad3f 4e26 4ebf 98ff f23f
00000210: ccd4 11c0 4437 c0bf 8dc0 0240 cac1 8abd
00000220: c594 993d f8e9 51bd b92b 8ebd 4c7a ee3c
00000230: c08e 3e3b 0e6a 353d 80f2 513c 4c23 c9bc
00000240: 7a9d 043d eacb a2bd d335 12bd 7e44 713d
00000250: 16db 3f3d fb86 2bbd 1de2 a83d 62f4 5f3d
00000260: 8e12 2b3d 3815 7cbd 81a6 51bd faf9 92bd
00000270: a0f9 4dbd 1e36 013d 99b2 873d fd37 943d
00000280: 6026 42bb f0bb 113c aed4 f3bc e8f6 82bd
00000290: 6041 f83c 58aa ccbc ccdb 18bd 48b0 f5bc
000002a0: 44ae 8abd 1c96 54bd 1eb9 05bd 508c afbc
000002b0: 9cb1 a7bc 1f3c a33d 2859 abbc 7aeb 2f3d
000002c0: 6cd8 87bc 7785 9f3d e0bf bbbc e679 543d
000002d0: eaed 7b3d 5039 c6bc 245c f13c a424 45bd
000002e0: b2de 12bd 9e89 473d ea1f 3b3d b48a 913c
000002f0: c125 933d 797c 42bd a8c9 4e3c 7513 8dbd
00000300: 52da adbd 10d1 5bbd 3f69 af3d 4e3f 513d
00000310: 6968 803d 3a40 7a3d 10c7 33bc 200d 793c
00000320: ea2c c5bc 375f 49bd a2c8 10bd 431c 4dbd
00000330: ce6e 273d f015 24bd bcd8 9ebc 3502 a93d
00000340: 9aa9 143d f80e 7c3c dc5c 84bc 0d30 873d
00000350: 3052 af3b 605a 3f3b 60fe 3abd e99e 8fbd
00000360: 42aa 7e3d f392 43bd a98c 9bbd 92cc 9fbd
00000370: 2cd2 9e3c d83d aabd 2618 91bd 107c ae3c
00000380: dae3 263d aeee d0bf 625b e93f bab8 fd3f
00000390: cced a8bf 59e4 a73f f840 ac3f e023 a63f
000003a0: 8cb5 c7bf 1a27 c13f 7e82 b63f 867f aabf
000003b0: 50af 93bf 8862 b4bf c62e a63f 53a2 b6bf
000003c0: 8e47 95bf 724f b03f 4ea0 ad3f fa90 aa3f
000003d0: 34af ddbf 6e82 d13f 526a c9bf e8df efbf
000003e0: 2004 ec3f 87a6 aebf 88b6 e13f 12f5 cbbf
000003f0: f589 b83f a62a e43f 8cb6 d1bf f01e b03f

atten_layer.0.bias f4 [45]
1.0381029 1.4423642 1.2058835 -1.3610499 -1.3149936 -1.3996682 -1.4659467 1.3192179
-1.3784083 1.3482003 -1.2526877 -1.4181528 1.4003029 -1.2816248 -1.2055881 1.4273098
-1.26447 -1.4396095 -1.2198858 -1.2718055 -1.4025959 1.4869139 1.2927693 1.4040194
-1.4852304 -1.4147806 -1.362652 -1.3685398 -1.2516108 -1.5165755 1.3002471 1.391691
1.3878428 1.3943759 -1.3065883 -1.4625899 1.4174266 1.3063784 -1.490151 1.3071249
-1.2254589 -1.3976505 1.3961511 1.4100367 -1.2325752
00000000: 8ee0 843f 649f b83f 645a 9a3f e236 aebf
00000010: b651 a8bf 5428 b3bf 24a4 bbbf 22dc a83f
00000020: af6f b0bf d491 ac3f 1258 a0bf 0886 b5bf
00000030: 203d b33f 480c a4bf b650 9abf 16b2 b63f
00000040: 27da a1bf 2045 b8bf 3825 9cbf 86ca a2bf
00000050: 4388 b3bf 3253 be3f 7779 a53f e8b6 b33f
00000060: 081c bebf 8817 b5bf 616b aebf 502c afbf
00000070: c834 a0bf 251f c2bf 7f6e a63f ee22 b23f
00000080: d5a4 b13f e97a b23f 493e a7bf 2536 bbbf
00000090: 3c6e b53f 6837 a73f 45bd bebf de4f a73f
000000a0: d6db 9cbf 36e6 b2bf 14b5 b23f 157c b43f
000000b0: 06c5 9dbf

atten_layer.2.weight f4 [1, 45]
-0.45219743 -3.3269053 0.6853193 0.23462167 -0.14522326 0.27393514 -0.5251038 -2.203479
0.05839221 0.030060489 0.87505615 2.1338568 -2.4201026 -0.097659834 4.038611 0.6188332
3.031614 2.405619 0.53947115 0.43448788 1.9418609 1.317238 1.1997204 1.2051568
1.6972358 2.8236456 -0.999536 -0.6280246 3.5336137 1.644362 1.1429236 -2.6823182
0.59198 -1.5676372 2.5365841 -0.7852099 -1.9452322 -2.1939662 2.1190407 -2.7322395
0.3664081 1.7568746 -2.9150867 1.3454763 0.40236902
00000000: 6c86 e7be 04ec 54c0 1671 2f3f aa40 703e
00000010: 68b5 14be 3a41 8c3e 346d 06bf cd05 0dc0
00000020: ac2c 6f3d 6a41 f63c ae03 603f 1c91 0840
00000030: f6e2 1ac0 e101 c8bd 4d3c 8140 da6b 1e3f
00000040: f705 4240 a9f5 1940 c81a 0a3f 3275 de3e
00000050: e68e f83f 419b a83f 7090 993f 9442 9a3f
00000060: 063f d93f 9cb6 3440 97e1 7fbf 38c6 20bf
00000070: ba26 6240 747a d23f 524b 923f 1aab 2bc0
00000080: 008c 173f 56a8 c8bf 6557 2240 8403 49bf
00000090: 5efd f8bf f169 0cc0 5d9e 0740 03dd 2ec0
000000a0: d899 bb3e 44e1 e03f c890 3ac0 9138 ac3f
000000b0: 5003 ce3e

lstm.weight_ih_l0 f4 [180, 45]
1.1225448 -1.4937379 -1.5365982 1.3616126 -1.49874 1.3661499 1.2410345 1.5047859
-1.189872 1.517601 1.3016169 1.4166617 1.3684518 1.3406607 -1.4028633 1.5196781
-1.3008158 -1.5286908 -1.3468926 1.5711949 -1.5879102 1.756446 1.5506092 -1.3760656
1.1520934 -1.6103286 1.5804684 -1.3818457 -1.651779 1.4958665 -1.3411076 -1.4868946
-1.3321333 1.452636 1.4907146 -1.4944649 -1.3841298 1.3371732 1.3675723 -1.4761784
-1.3889766 1.5759549 -1.6016078 -1.4743552 1.628346 1.531829 -1.6897489 -1.520302
1.4913812 1.4375241 1.4185369 1.4228132 1.4319482 -1.3080835 1.3268573 1.320698
-1.3389335 1.384923 -1.3717171 -1.2539575 1.2451653 -1.3852038 -1.2510624 -1.2913651
1.5686113 -1.5956666 1.4143876 1.7051901 -1.4829127 0.31950212 -1.5541356 1.5510845
-1.2390339 -1.6231357 1.5157864 -1.3395565 -1.4220788 -1.5236089 1.3323493 1.2886875
-1.3830278 -1.3893421 1.4170847 1.4600023 -1.2320938 -1.3909099 1.5599576 -1.3956788
-1.1041348 1.5958505 -1.2476139 -1.606485 -1.6006167 1.3014176 -1.3929822 1.3546009
-1.3897617 1.5918927 -1.5027843 -1.4488242 1.3472116 -1.1517739 -1.4380274 1.4563503
1.287228 1.2617376 1.4444969 1.2888086 -1.3073943 1.576661 -1.5592209 1.4416733
1.4081814 -1.4691192 0.98960054 -1.4342852 1.6944501 -1.3539282 -1.5681558 1.5331374
1.5124497 1.253108 -1.3989112 1.5100057 1.3251405 1.4112651 1.5138868 1.4832675
-1.2380371 -1.4064775 1.3491676 1.5018474 -1.619051 1.3254889 1.4200141 1.5548043
-1.6562748 -1.5988456 1.4860497 -1.3148563 1.2783079 1.5163844 1.6882113 -1.2977829
-1.2956445 1.5008647 -1.2200493 1.2298207 1.4395468 1.466817 1.4396768 1.3702047
-1.2451878 -1.382399 1.7828054 -1.5167804 1.470396 1.6812904 -1.7603123 1.201346
-1.6262094 1.61539 -1.2916026 -1.7497609 1.6489493 -1.3027525 1.5410283 -1.2797716
1.2750518 1.4228151 -1.4472313 -1.2571163 1.2213532 -1.2989392 -1.3130758 1.425906
1.5236051 -1.4870393 1.3257678 1.5142639 1.3488648 -1.6240253 -1.8312263 1.2984078
1.1923299 1.4448295 1.3663111 1.5786319 -1.504734 -1.4995087 1.3257098 -1.4526343
1.269254 -1.1473051 1.5484776 1.4589279 1.3535755 -1.3246756 -1.2390327 1.7239957
-1.7908161 1.5062581 1.6167367 -1.7542429 1.3019717 -1.7939696 1.6877135 -1.2930179
-1.5418911 1.6033648 -1.3662612 1.3778071 -1.406332 1.4759915 1.4863837 -1.2970119
-1.2882257 1.4434915 -1.2200036 -1.4342439 -1.4874818 1.7197464 -1.5755754 1.5097387
1.547224 1.515499 -1.556705 -1.701289 1.3131175 -1.4815325 1.3502455 1.2393444
1.5088024 -1.4365928 -1.5251863 1.3643324 -1.1941435 1.3534853 1.3576355 1.435089
1.4206717 1.306129 -1.4784136 -1.4302654 1.4866025 -1.5815408 1.4266618 1.4792094
-1.6169094 0.5660763 -1.6522248 1.4336917 -1.4977305 -1.6188991 1.7029979 -1.4141238
00000000: 8caf 8f3f ce32 bfbf 40af c4bf 5249 ae3f
00000010: b6d6 bfbf 00de ae3f 38da 9e3f d39c c03f
00000020: ba4d 98bf c040 c23f 629b a63f 2c55 b53f
00000030: 6e29 af3f c59a ab3f 0691 b3bf d084 c23f
00000040: 2281 a6bf 24ac c3bf fa66 acbf ea1c c93f
00000050: a440 cbbf 39d3 e03f 5d7a c63f eb22 b0bf
00000060: cc77 933f 3f1f cebf ca4c ca3f 52e0 b0bf
00000070: 7f6d d3bf 8e78 bf3f 6aa9 abbf 9052 bebf
00000080: 5883 aabf faef b93f bccf be3f a04a bfbf
00000090: 2a2b b1bf 7e28 ab3f 9c0c af3f 6af3 bcbf
000000a0: fcc9 b1bf e4b8 c93f 7c01 cdbf acb7 bcbf
000000b0: a46d d03f f912 c43f b149 d8bf 4299 c2bf
000000c0: 94e5 be3f ca00 b83f 9e92 b53f be1e b63f
000000d0: 144a b73f 486f a7bf 76d6 a93f a20c a93f
000000e0: 2c62 abbf 2845 b13f 6d94 afbf ae81 a0bf
000000f0: 9461 9f3f 5c4e b1bf d022 a0bf 744b a5bf
00000100: 41c8 c83f ce3e ccbf a70a b53f ab43 da3f
00000110: 15d0 bdbf c895 a33e eaed c6bf f089 c63f
00000120: aa98 9ebf e9c2 cfbf 4a05 c23f 9676 abbf
00000130: ae06 b6bf 9e05 c3bf 6c8a aa3f b6f3 a43f
00000140: 0e07 b1bf f6d5 b1bf 0863 b53f 5be1 ba3f
00000150: 40b5 9dbf 5609 b2bf b1ac c73f 9aa5 b2bf
00000160: 4a54 8dbf d444 cc3f d0b1 9fbf 4da1 cdbf
00000170: 02e1 ccbf da94 a63f 3e4d b2bf 9063 ad3f
00000180: b6e3 b1bf 24c3 cb3f 3c5b c0bf 1273 b9bf
00000190: 6e71 ac3f 546d 93bf 4811 b8bf b069 ba3f
000001a0: e3c3 a43f 9e80 a13f 46e5 b83f aef7 a43f
000001b0: b258 a7bf 07d0 c93f 8d94 c7bf c088 b83f
000001c0: 4a3f b43f 190c bcbf 7656 7d3f a896 b7bf
000001d0: bee3 d83f 854d adbf 54b9 c8bf d93d c43f
000001e0: f497 c13f d865 a03f 860f b3bf de47 c13f
000001f0: 349e a93f 56a4 b43f 0bc7 c13f b6db bd3f
00000200: 0078 9ebf 7407 b4bf 86b1 ac3f 893c c03f
00000210: 103d cfbf 9fa9 a93f 06c3 b53f d403 c73f
00000220: d000 d4bf f9a6 ccbf e036 be3f 364d a8bf
00000230: 989f a33f e218 c23f 4f17 d83f c01d a6bf
00000240: aed7 a5bf 561c c03f 932a 9cbf c46a 9d3f
00000250: 1243 b83f a9c0 bb3f 5447 b83f de62 af3f
00000260: 5062 9fbf 73f2 b0bf f832 e43f dc25 c2bf
00000270: f035 bc3f 8634 d73f ea51 e1bf b5c5 993f
00000280: a127 d0bf 19c5 ce3f 3c53 a5bf 2af8 dfbf
00000290: c510 d33f 98c0 a6bf 6a40 c53f 8ecf a3bf
000002a0: e634 a33f ce1e b63f e03e b9bf 30e9 a0bf
000002b0: 4d55 9c3f a443 a6bf de12 a8bf 1684 b63f
000002c0: 7e05 c33f 4e57 bebf c2b2 a93f 66d3 c13f
000002d0: 9aa7 ac3f 10e0 cfbf a065 eabf 3a32 a63f
000002e0: 449e 983f 2cf0 b83f 48e3 ae3f 9c10 ca3f
000002f0: 209b c0bf e7ef bfbf dcb0 a93f ecef b9bf
00000300: ea76 a23f e5da 92bf 8434 c63f 26be ba3f
00000310: f641 ad3f f88e a9bf a098 9ebf e4ab dc3f
00000320: 7639 e5bf 11cd c03f 3af1 ce3f 088b e0bf
00000330: 02a7 a63f cca0 e5bf ff06 d83f 9c81 a5bf
00000340: b05c c5bf 0f3b cd3f a6e1 aebf fc5b b03f
00000350: b002 b4bf 4aed bc3f d241 be3f 7c04 a6bf
00000360: 94e4 a4bf 54c4 b83f 1429 9cbf 4e95 b7bf
00000370: ce65 bebf a620 dc3f 74ac c9bf 1e3f c13f
00000380: 700b c63f dffb c13f 1c42 c7bf d7c3 d9bf
00000390: 3c14 a83f dba2 bdbf d8d4 ac3f d6a2 9e3f
000003a0: 7020 c13f 46e2 b7bf 4e39 c3bf 72a2 ae3f
000003b0: b2d9 98bf 023f ad3f 00c7 ad3f ffb0 b73f
000003c0: 92d8 b53f 3c2f a73f a83c bdbf f012 b7bf
000003d0: fe48 be3f ee6f cabf db9c b63f bc56 bd3f
000003e0: e3f6 cebf 60ea 103f 1a7c d3bf 3683 b73f
000003f0: a2b5 bfbf 1638 cfbf d6fb d93f 0202 b5bf

lstm.weight_hh_l0 f4 [180, 45]
-0.014867321 0.14074056 -0.14619909 0.0039958805 -0.14547545 -0.09063757 0.038546592 0.09969355
-0.023795724 0.13270028 0.06762515 -0.13469186 -0.037143886 -0.022625387 -0.02374892 0.06268272
0.12293513 -0.10152106 -0.0827014 -0.08883968 0.02777265 0.0598654 -0.097909704 0.08064288
0.06566842 -0.04410363 -0.0449778 -0.13931228 -0.09516434 0.04265575 0.058356643 0.13141502
-0.03450706 0.10088554 -0.08274862 -0.11912782 -0.12760231 0.098299295 -0.023480996 0.12050964
-0.054430947 0.1485116 0.063046455 -0.06899998 0.08081521 -0.03690487 0.09947714 -0.022204354
0.14779665 0.11124407 -0.13682178 0.033783317 -0.012140945 -0.055161893 0.07627371 -0.027083054
-0.05448115 -0.09968394 -0.117559835 0.08936961 0.09546952 -0.019520804 0.09338948 -0.0637358
0.12147014 -0.034563653 0.06826238 0.023080707 0.14191364 -0.018051133 -0.11892493 -0.096638605
-0.005804509 -0.034435898 -0.095142454 -0.108447716 -0.13449456 -0.038516656 0.09710471 0.021745756
0.0031372905 -0.14779396 0.007391423 -0.14159077 -0.09898092 -0.07148996 -0.131855 -0.016358256
0.07746844 -0.10236682 -0.14720689 -0.113624826 0.013314977 0.14787121 0.118051246 0.13706501
0.0032477528 0.054067597 -0.0418725 -0.11666781 0.03643003 0.07498458 0.11384831 -0.08667922
0.024137154 -0.119497284 -0.13327077 -0.067865536 -0.10592547 -0.11310939 -0.011302188 -0.12692101
-0.117336035 -0.10319294 -0.09130635 0.0097376555 -0.017441347 0.062555626 -0.023460075 0.059009954
-0.034830786 0.075055525 0.06462228 0.11985798 0.028135613 -0.113754585 0.049516097 0.011954188
-0.09218484 0.063888654 0.03498994 -0.021892294 -0.10800128 -0.039368488 -0.08582817 0.018558338
-0.06801207 -0.0070343614 -0.0320557 0.04307255 0.06843281 -0.029100403 0.08869377 -0.12908566
0.14217775 0.14200024 0.1276734 -0.08575924 -0.03896465 0.035853684 -0.12295666 0.10788341
0.0061253905 0.1256599 -0.12499599 -0.04042252 -0.1329954 -0.05419472 0.025040194 -0.0034860373
0.061110884 -0.04859273 -0.04399222 -0.11348195 -0.14420667 0.1264232 -0.10323239 -0.121513315
-0.034901172 -0.013317585 0.028598562 -0.10706173 -0.10987685 -0.12698339 0.078618035 0.06919971
-0.06664324 0.0022816658 -0.027878135 0.03658612 -0.09406766 -0.07725487 -0.029893875 -0.036934264
-0.080235794 -0.11125484 -0.019157901 -0.11808391 -0.030546345 0.12630905 0.04553914 0.013274774
-0.03821981 0.07081805 0.0518983 0.081511125 0.07724336 0.016887113 -0.023129106 -0.12379734
-0.108970866 0.085754916 -0.028334841 0.008271679 -0.13170594 -0.09950274 -0.082239114 0.108491525
0.11237283 -0.04236882 -0.067744784 0.10452147 0.08637926 -0.086142376 0.113872394 0.058299825
0.013917133 -0.06810306 0.0973067 -0.085404925 -0.0072369277 -0.10604919 -0.14538778 -0.06967687
-0.05298134 0.06021738 0.088805616 -0.12667386 0.085055694 -0.10720454 0.1392505 -0.09465312
0.03395821 0.046831787 -0.0331093 -0.08231256 0.13856907 0.14773919 0.12967421 -0.05292476
0.012717605 -0.08989705 -0.00054840744 -0.11534058 -0.049010962 0.056109518 -0.09193069 -0.0875818
0.109640315 -0.052722633 -0.06970802 0.07014458 -0.111294344 -0.032445945 0.0019961298 0.119441226
00000000: 1096 73bc 4b1e 103e 37b5 15be e0ef 823b
00000010: 84f7 14be 31a0 b9bd 08e3 1d3d 222c cc3d
00000020: 40ef c2bc 95e2 073e 0e7f 8a3d aaec 09be
00000030: 3024 18bd e058 b9bc 188d c2bc cc5f 803d
00000040: 6ac5 fb3d 46ea cfbd 5a5f a9bd 94f1 b5bd
00000050: 7883 e33c 6c35 753d e284 c8bd 1828 a53d
00000060: 2a7d 863d 02a6 34bd a43a 38bd e1a7 0ebe
00000070: 86e5 c2bd ccb7 2e3d 6007 6f3d a991 063e
00000080: 4657 0dbd 149d ce3d 1c78 a9bd 49f9 f3bd
00000090: 2eaa 02be 2451 c93d 385b c0bc c2cd f63d
000000a0: fcf2 5ebd 6d13 183e 801e 813d dd4f 8dbd
000000b0: 7282 a53d 9029 17bd acba cb3d e8e5 b5bc
000000c0: 0158 173e eed3 e33d 021b 0cbe 6060 0a3d
000000d0: d0ea 46bc 70f1 61bd 6435 9c3d 48dd ddbc
000000e0: a027 5fbd 1827 ccbd 36c3 f0bd 6a07 b73d
000000f0: 8685 c33d 18ea 9fbc fc42 bf3d ea87 82bd
00000100: 56c5 f83d 9e92 0dbd 26cd 8b3d c013 bd3c
00000110: cf51 113e f8df 93bc ea8e f3bd 76ea c5bd
00000120: c033 bebb a80c 0dbd 0cda c2bd d619 debd
00000130: f1b8 09be a4c3 1dbd d6de c63d 2824 b23c
00000140: 009b 4d3b 4d57 17be c033 f23b 2cfd 10be
00000150: 82b6 cabd 5469 92bd ff04 07be c001 86bc
00000160: c6a7 9e3d b2a5 d1bd 67bd 16be 22b4 e8bd
00000170: 1027 5a3c 8d6b 173e dac4 f13d c55a 0c3e
00000180: 40d8 543b fc75 5d3d 8082 2bbd 88ef eebd
00000190: a837 153d 8491 993d 4e29 e93d e084 b1bd
000001a0: 48bb c53c feba f4bd 2278 08be 16fd 8abd
000001b0: 74ef d8bd e5a5 e7bd d02c 39bc 95f7 01be
000001c0: e04d f0bd d256 d3bd d3fe babd b08a 1f3c
000001d0: 28e1 8ebc 2a1d 803d 582f c0bc 6cb4 713d
000001e0: baaa 0ebd b6b6 993d b058 843d 1a78 f53d
000001f0: a87c e63c 2af8 e8bd 64d1 4a3d 80db 433c
00000200: 68cb bcbd 0ed8 823d 9c51 0f3d 7857 b3bc
00000210: c62f ddbd da40 21bd aec6 afbd a807 983c
00000220: ea49 8bbd 8080 e6bb d64c 03bd d86c 303d
00000230: 8026 8c3d f863 eebc 14a5 b53d 082f 04be
00000240: 0b97 113e 8368 113e d1bc 023e 8aa2 afbd
00000250: 6699 1fbd 50db 123d b4d0 fbbd faf1 dc3d
00000260: 80b7 c83b fdac 003e e6fd ffbd 1692 25bd
00000270: f22f 08be 48fb 5dbd 1821 cd3c 0076 64bb
00000280: 684f 7a3d 2c09 47bd 3031 34bd 3969 e8bd
00000290: eaaa 13be 1575 013e 816b d3bd f9db f8bd
000002a0: 88f4 0ebd 0032 5abc 8847 ea3c 2e43 dbbd
000002b0: 1d07 e1bd ef07 02be 7e02 a13d 94b8 8d3d
000002c0: 407c 88bd 0088 153b b060 e4bc 54db 153d
000002d0: 8ca6 c0bd cd37 9ebd 00e4 f4bc 6248 17bd
000002e0: aa52 a4bd 94d9 e3bd 08f1 9cbc fad5 f1bd
000002f0: 543c fabc 2957 013e 4087 3a3d 707e 593c
00000300: 608c 1cbd 0e09 913d 5093 543d 4eef a63d
00000310: c431 9e3d d856 8a3c 4079 bdbc 7689 fdbd
00000320: 1e2c dfbd 46a0 af3d 781e e8bc f085 073c
00000330: ecdd 06be 18c8 cbbd fb6c a8bd ce30 de3d
00000340: ba23 e63d ee8a 2dbd c7bd 8abd 5a0f d63d
00000350: 9ce7 b03d 6a6b b0bd ee35 e93d cccb 6e3d
00000360: b004 643c 9e79 8bbd bc48 c73d c7e8 aebd
00000370: c023 edbb 5130 d9bd 89e0 14be bfb2 8ebd
00000380: f602 59bd 80a6 763d b8df b53d cbb6 01be
00000390: ae31 ae3d 0e8e dbbd af97 0e3e 7fd9 c1bd
000003a0: c417 0b3d b0d2 3f3d 9e9d 07bd 7d93 a8bd
000003b0: 0de5 0d3e f148 173e 51c9 043e a2c7 58bd
000003c0: 805d 503c f21b b8bd 00c3 0fba af37 ecbd
000003d0: b8bf 48bd 18d3 653d 2846 bcbd 165e b3bd
000003e0: 1a8b e03d b0f3 57bd 14c3 8ebd f6a7 8f3d
000003f0: 4aee e3bd 0ae6 04bd 80d1 023b 9a9d f43d

lstm.bias_ih_l0 f4 [180]
1.9697075 1.9857017 1.9143701 1.9924705 2.0463467 1.8943782 2.0563426 2.023044
1.8732777 2.0007918 1.9505603 2.025783 1.9928701 2.0542505 2.0713844 1.7480874
1.7781636 2.0249171 2.179118 1.9710786 1.9882213 2.0228953 1.9624624 1.9489863
1.8964165 1.9161836 1.9566505 1.8856714 1.9755967 2.133016 2.1185813 2.0139942
1.9728521 1.9360399 2.216517 1.9325868 2.053986 1.8604169 2.1321187 2.2326264
2.0266538 2.1166863 2.2917602 1.9708581 2.1057591 -0.07716474 0.006778002 -0.0073163062
0.03459029 -0.03833911 0.09310931 0.10118796 0.08893731 -0.04043681 -0.036134563 0.112248465
0.104648754 0.042756766 -0.057789035 -0.11756101 -0.0052877814 -0.004633561 -0.09383619 0.071124166
0.08533898 0.06712267 -0.023024708 -0.08747421 -0.1391812 -0.08888696 -0.08514786 -0.081797056
-0.10284305 -0.072010174 0.14497171 -0.07968405 0.05541095 -0.09463547 0.09533803 -0.1349002
0.044120118 0.14554463 -0.07749106 0.019057497 -0.14334112 -0.060663722 0.111901835 0.09418395
0.05125369 0.08248608 -2.4875631 -2.1850638 2.213159 -2.4143848 -2.461412 -2.0595837
-2.4594235 -2.1250815 2.0893054 1.9714826 -1.9063303 2.7977436 -2.7061157 -2.2870798
2.4464722 2.0477996 -1.8144159 1.9165612 2.6632614 2.3737211 1.9148374 -1.9598963
-2.4206588 1.9389007 2.256719 -2.106256 -2.2077012 2.3894796 2.176623 1.950753
-1.9242086 -2.188552 2.3028522 2.0186229 -1.903067 2.1383464 1.852532 2.2357569
-2.3998342 2.280048 2.176294 -2.236148 -2.584279 -2.0193303 -2.109775 2.0950885
1.9870987 2.134956 1.9865822 1.982935 1.9948378 1.9735005 2.0016682 2.0798182
2.2136455 2.0912814 2.2681122 2.1209402 2.0479898 2.2080314 2.0514863 1.9523067
2.0336547 2.252067 2.0871584 1.9901314 2.1567116 2.0588026 2.058828 1.9768491
2.1347244 2.0511093 1.8142447 1.8075483 2.2262368 2.1266494 1.9452829 1.9332557
1.9961255 2.222314 1.9754539 2.0494318 2.073578 2.1450734 2.0865233 1.9633789
2.1123028 2.3152013 1.8078709 1.9122279
00000000: 601f fc3f 792b fe3f 140a f53f 4609 ff3f
00000010: 58f7 0240 fc7a f23f 1e9b 0340 8e79 0140
00000020: 90c7 ef3f f90c 0040 f6ab f93f 6ea6 0140
00000030: 5e16 ff3f d778 0340 9091 0440 54c1 df3f
00000040: dd9a e33f 3e98 0140 ab76 0b40 4e4c fc3f
00000050: 097e fe3f 1e77 0140 f831 fb3f 6278 f93f
00000060: c7bd f23f 8145 f53f 8673 fa3f ae5d f13f
00000070: 5ae0 fc3f 5683 0840 d696 0740 48e5 0040
00000080: 6b86 fc3f 28d0 f73f 6adb 0d40 015f f73f
00000090: 8274 0340 2422 ee3f a274 0840 5ae3 0e40
000000a0: b2b4 0140 ca77 0740 33ac 1240 1445 fc3f
000000b0: c2c4 0640 8c08 9ebd 001a de3b a0bd efbb
000000c0: 8cae 0d3d 7809 1dbd 18b0 be3d a23b cf3d
000000d0: c424 b63d 12a1 25bd d601 14bd 86e2 e53d
000000e0: 1652 d63d b821 2f3d 32b4 6cbd d4c3 f0bd
000000f0: 2045 adbb 20d5 97bb 302d c0bd 8ca9 913d
00000100: 34c6 ae3d 9c77 893d 509e bcbc ae25 b3bd
00000110: 8485 0ebe 5e0a b6bd 0062 aebd 3785 a7bd
00000120: 619f d2bd 127a 93bd 7773 143e 6431 a3bd
00000130: 98f6 623d 3ed0 c1bd 9640 c33d 4723 0abe
00000140: 4cb7 343d a709 153e a2b3 9ebd 781e 9c3c
00000150: 04c8 12be 867a 78bd ca2c e53d 84e3 c03d
00000160: 64ef 513d 76ee a83d 3c34 1fc0 16d8 0bc0
00000170: 66a4 0d40 4885 1ac0 c687 1dc0 38d0 03c0
00000180: 3267 1dc0 5601 08c0 2eb7 0540 8b59 fc3f
00000190: a202 f4bf 3b0e 3340 0031 2dc0 845f 12c0
000001a0: 0093 1c40 260f 0340 c83e e8bf e151 f53f
000001b0: e072 2a40 0ceb 1740 6419 f53f e2dd fabf
000001c0: 13ec 1ac0 e62d f83f 166e 1040 e6cc 06c0
000001d0: fa4a 0dc0 3ced 1840 cb4d 0b40 46b2 f93f
000001e0: 784c f6bf 3c11 0cc0 ee61 1340 1e31 0140
000001f0: b397 f3bf abda 0840 c51f ed3f a416 0f40
00000200: e296 19c0 4eec 1140 6748 0b40 0d1d 0fc0
00000210: d464 25c0 b53c 01c0 8e06 07c0 ee15 0640
00000220: 4059 fe3f 1ea3 0840 5348 fe3f d0d0 fd3f
00000230: d856 ff3f aa9b fc3f 551b 0040 be1b 0540
00000240: 5eac 0d40 8ed7 0540 c028 1140 7cbd 0740
00000250: 4412 0340 6350 0d40 8d4b 0340 30e5 f93f
00000260: 6627 0240 de21 1040 0194 0540 a0bc fe3f
00000270: 9007 0a40 6cc3 0340 d7c3 0340 6409 fd3f
00000280: 539f 0840 6045 0340 2c39 e83f be5d e73f
00000290: aa7a 0e40 061b 0840 08ff f83f ec74 f73f
000002a0: 0a81 ff3f 643a 0e40 acdb fc3f e429 0340
000002b0: 80b5 0440 e248 0940 9989 0540 0050 fb3f
000002c0: f82f 0740 422c 1440 5068 e73f e2c3 f43f
