Ni_prediction/savemodel/bst_mod_490.pth (torch_old, 533443 bytes, 44 tensors)

price_encoder.attention.weight f4 [1, 121]
000000 9c 85 ec 40 09 a5 ed 40 84 d9 ea 40 8f b3 ed c0
       7.3913097 7.426396 7.339052 -7.428169
000010 1e a9 e8 c0 82 9d e8 40 9c 5c ec 40 36 a6 e6 c0
       -7.270644 7.269227 7.386305 -7.2077894
000020 dd c4 eb 40 68 6a ea 40 32 90 ea 40 c5 fb ec 40
       7.367781 7.325489 7.330102 7.4057336
000030 db 0a e9 c0 d8 0b eb c0 82 42 eb c0 c3 8a e9 40
       -7.282575 -7.345196 -7.3518686 7.2981887
000040 49 aa e8 40 22 a9 e9 c0 3e 0a e6 40 f8 52 eb 40
       7.270787 -7.301896 7.1887503 7.353878
000050 cf 5d e6 40 be 38 eb 40 d7 d4 ec 40 a6 69 ec c0
       7.1989512 7.3506765 7.4009814 -7.3878965
000060 05 76 ec c0 e8 93 ea 40 2f 1b e9 c0 95 d6 ec c0
       -7.3894067 7.330555 -7.2845683 -7.401194
000070 b4 29 ec c0 07 d0 e9 c0 52 ca eb 40 50 80 ea c0
       -7.3800907 -7.306644 7.3684473 -7.328163
000080 4d fe ea 40 38 d6 ed 40 ce e4 e8 40 80 ba ea 40
       7.3435426 7.4323997 7.2779303 7.335266
000090 8a 7a ec c0 f8 cd ec 40 33 8c eb 40 ae 6a ec c0
       -7.3899584 7.4001427 7.360864 -7.3880224
0000a0 46 27 eb 40 70 ed ed 40 22 ba e9 40 1b ac ec 40
       7.348544 7.435234 7.3039713 7.396009
0000b0 52 93 e9 40 46 bc ec 40 77 b9 ec 40 5b b7 ec 40
       7.2992334 7.3979826 7.3976398 7.3973823
0000c0 2e cb ed 40 2c 9d ea 40 94 67 e9 40 64 2c ea 40
       7.431052 7.331686 7.293894 7.317919
0000d0 d4 16 ec 40 91 22 ea 40 4e 12 e8 40 b8 62 eb 40
       7.3777866 7.3167195 7.2522345 7.3558006
0000e0 ab 1c ec 40 91 8f ed c0 93 5d eb c0 f7 2b ee 40
       7.3784995 -7.423775 -7.3551726 7.442867
0000f0 3b 4a e9 40 40 1d ed c0 b3 ff eb c0 3e f7 e7 c0
       7.2903113 -7.4098206 -7.3749633 -7.248931
000100 ee a1 ed c0 38 33 ed 40 01 2c eb 40 04 ef e9 40
       -7.426017 7.4125023 7.3491216 7.3104267
000110 2a 31 e9 40 ad e5 ea c0 da 71 ea c0 d4 71 eb 40
       7.2872515 -7.3405366 -7.326398 7.357645
000120 0a ec eb 40 8e 24 e9 40 d1 59 e9 c0 ef 99 e8 40
       7.3725634 7.2857122 -7.292214 7.2687907
000130 79 56 e9 c0 b3 b2 ca 40 ca 33 ed 40 97 16 ec 40
       -7.2918057 6.334314 7.412572 7.3777575
000140 a7 ef e8 c0 3d 3a e9 c0 d5 6e eb 40 25 3f ea 40
       -7.2792544 -7.288359 7.3572793 7.320208
000150 95 73 ed 40 12 cb ed c0 b4 78 e8 c0 99 eb ed c0
       7.420359 -7.431039 -7.2647343 -7.4350095
000160 96 ec ec 40 da d1 ec 40 02 d4 ed 40 cc 9c ed 40
       7.40388 7.4006166 7.43213 7.4253902
000170 39 2c ea 40 d7 1a ed 40 03 b9 e9 c0 e8 ec ed c0
       7.3178983 7.4095263 -7.3038344 -7.435169
000180 6e c0 e9 c0 03 e5 eb 40 05 72 ec c0 ec d7 e7 40
       -7.30474 7.3717055 -7.3889184 7.2451077
000190 9e e6 e9 40 26 51 ea 40 fc 39 eb 40 0a 5f ed 40
       7.3094015 7.322406 7.350828 7.4178514
0001a0 7f 9d ec 40 07 9b e9 40 f8 94 e8 40 82 b4 ec 40
       7.3942256 7.300174 7.2681847 7.3970346
0001b0 9f e8 ec 40 09 33 eb 40 bd 81 e8 40 45 57 eb 40
       7.403396 7.34998 7.265837 7.354403
0001c0 c3 4c e8 40 a5 f5 eb 40 86 80 ed 40 77 8c e8 40
       7.2593703 7.373736 7.421939 7.2671466
0001d0 c3 49 ea 40 bb 0e ea 40 2d 01 ed 40 95 bb eb 40
       7.321504 7.314298 7.4063935 7.366648
0001e0 84 b8 ec 40
       7.397524

price_encoder.encoder.weight_ih_l0 f4 [180, 45]
000000 1c 78 ce bd 32 86 f1 bd 18 32 03 3d 20 05 a9 3d
       -0.10081503 -0.11793174 0.032030195 0.08252931
000010 e6 7b 63 bd a2 b0 d5 3d 80 09 a1 3d 0a ef f9 bd
       -0.05553808 0.10434081 0.0786314 -0.12203796
000020 b7 40 d4 bd 40 15 43 bc 73 f8 e1 bd ce ef 6c bd
       -0.10363906 -0.011906922 -0.11033716 -0.057845883
000030 bc da d9 bc d8 40 fb 3c be b2 f7 bd 70 ab 76 3c
       -0.026593558 0.030670568 -0.12094639 0.015055522
000040 fc 9a 50 3d 08 40 aa bd 68 61 b9 3d e6 b1 eb 3d
       0.050929055 -0.08312994 0.09051782 0.11508541
000050 21 4f de 3d c6 73 8c 3d b2 6d da bd 18 ca e7 c0
       0.108549364 0.068580195 -0.10665454 -7.2434196
000060 d7 78 14 be a5 f2 17 be 6b 3d f9 bd 5b a3 03 3e
       -0.14499222 -0.14838655 -0.12169918 0.12855284
000070 53 4b 08 3e 38 9a 14 3d 0b 55 07 be e0 f9 fc bb
       0.13309984 0.036279887 -0.13216035 -0.007720217
000080 b6 f8 ef 3d 87 e7 e2 40 9c b6 e9 40 d6 44 ea 40
       0.1171736 7.0907626 7.303541 7.320903
000090 5d cc ea 40 e2 f1 ea 40 b2 00 04 bf 36 41 e9 40
       7.3374467 7.3420267 -0.5156356 7.2892103
0000a0 af f0 ef 40 a9 a8 ed 40 11 2e e9 40 88 ba c6 3c
       7.4981303 7.4268384 7.2868733 0.024258867
0000b0 d6 bd fe bd 05 e9 ff bd 2b 4b 8f 3d 98 42 e2 3d
       -0.12438552 -0.12495617 0.06996759 0.11047858
0000c0 61 cb 37 3d f6 29 bc 3d 24 39 ff 3d 87 41 8d bd
       0.04487169 0.09187691 0.124620706 -0.06897264
0000d0 8b b9 b0 3d 4b b9 7b 3d 70 6e 00 3d 88 ee bb 3d
       0.086291395 0.061456006 0.03135532 0.091763556
0000e0 50 f7 a8 bc fa fc 8a 3d 1f b8 04 3e 60 dc 45 3c
       -0.02062574 0.06786533 0.12960862 0.012076467
0000f0 a3 25 11 be c7 37 09 be 60 f9 9e 3b 28 8a 06 bd
       -0.14174514 -0.13400184 0.004851505 -0.0328466
000100 6e b3 d7 3d 61 63 36 40 b3 82 6e 3d b4 71 ff bc
       0.1053227 2.8498156 0.058230113 -0.031182148
000110 bb b6 e6 40 77 e7 f6 bd cb 93 13 be 7a 37 f7 3d
       7.209806 -0.12055867 -0.14411847 0.12071128
000120 3e af 3a bd 22 9f 11 be 40 3b 4c bb 8a a9 32 bd
       -0.04557728 -0.1422086 -0.0031163245 -0.043618716
000130 57 54 0e 3e 21 bb c0 bd 5e 87 e8 40 44 2b e7 40
       0.1389936 -0.09410692 7.2665243 7.2240314
000140 92 68 ea 40 b9 ec e8 40 4d 74 ef 40 03 5a 07 be
       7.325265 7.278897 7.482947 -0.1321793
000150 f4 3f e9 40 58 2b e8 40 8e a0 e8 40 9e c5 ed 40
       7.289057 7.255291 7.269599 7.430373
000160 10 3a 24 3d 70 7b 34 3d f4 3f d8 3d 34 e4 dd bb
       0.040094435 0.04406303 0.10559073 -0.0067715887
000170 9a 85 f0 bd 3b 65 e0 bd 28 98 e7 3c be 40 4f 3d
       -0.117442325 -0.10956808 0.028270796 0.050598852
000180 a4 a0 85 3d df 6a 88 3d 4c 0f df bc 8e 92 ab bd
       0.065247804 0.06661009 -0.027228974 -0.083775625
000190 c6 1e 06 be 30 2e a1 3c 9e 79 4b bd a0 06 cf bd
       -0.13097677 0.019675344 -0.04967653 -0.101086855
0001a0 60 f5 ba 3b 58 c1 88 3c 42 1f c2 3d 84 a8 c7 bd
       0.0057055205 0.016693756 0.09478618 -0.09748939
0001b0 10 61 6c 3c 84 9d a0 bd 15 6b 22 40 1f 28 da 3b
       0.014427438 -0.07842544 2.5377858 0.006657615
0001c0 06 74 44 bd 14 d8 e9 40 24 95 5c bd 00 d2 26 3d
       -0.04796221 7.3076267 -0.05385317 0.040727615
0001d0 7e 00 35 bd 96 69 40 3c d4 ef ce bd 33 6e 10 3e
       -0.044189923 0.011743924 -0.10104337 0.14104538
0001e0 42 4c df bd df 28 10 3e bc 1f 0e be c8 ab ee 40
       -0.10903217 0.14078091 -0.13879293 7.4584694
0001f0 24 22 e7 40 0d 48 ea 40 fe 61 ec 40 ed 0c ee 40
       7.2229176 7.3212953 7.386962 7.439078
000200 59 f6 e7 c0 3c de e9 40 61 ac ed 40 49 4f e7 40
       -7.2488217 7.308378 7.4272923 7.2284284
000210 be 89 e9 40 94 d1 6f 3d 1d bc 80 bd c2 4b c7 3d
       7.298064 0.05854948 -0.0628588 0.097312465
000220 46 b9 5e bd 8e 17 05 be 82 f4 ae bc 30 76 20 bd
       -0.05437591 -0.12997267 -0.021356825 -0.039175212
000230 6e 66 ed 3d fa 74 f7 3d 1b f0 c1 3d 81 31 8e bb
       0.115918025 0.120828584 0.094696246 -0.0043393974
000240 18 b5 a1 3d 02 a1 e6 3d b6 fa ec 3d f0 ba c9 3d
       0.07895869 0.112611786 0.11571257 0.098501086
000250 b2 ed e6 c0 5c ea 11 3d 4c 36 7c 3d b6 da 15 bd
       -7.2165155 0.035623893 0.06157522 -0.036585532
000260 a0 5c 17 bc 00 24 41 40 46 34 32 3d 3f bc be be
       -0.009238392 3.0178223 0.043506883 -0.37252995
000270 42 c4 8f bc 73 88 67 3d ce 16 eb c0 8c da 46 3d
       -0.017549638 0.056526612 -7.346534 0.048548266
000280 0d e6 14 3e 40 b8 83 bd 32 30 b6 bd 23 f9 eb c0
       0.14540882 -0.06431627 -0.08895911 -7.374162
000290 78 23 af 3d aa 78 c7 3d 04 d6 c3 c0 34 32 b9 bd
       0.08551687 0.09739812 -6.119875 -0.090427786
0002a0 84 56 ee c0 ad b9 ed c0 26 62 e8 c0 f0 e6 e8 c0
       -7.448061 -7.4289155 -7.261981 -7.2781906
0002b0 49 86 ed c0 7a e8 c6 bd 66 1e e9 c0 9e 50 eb c0
       -7.422642 -0.0971231 -7.2849607 -7.353591
0002c0 5a 64 e8 c0 66 a7 e8 c0 f2 2d a1 3d e8 6d 17 3d
       -7.26225 -7.2704344 0.078700915 0.03697005
0002d0 7b 43 b0 bd b8 62 ac bc 66 59 ac 3d 21 0c 0d 3e
       -0.08606621 -0.021043167 0.08415489 0.13774158
0002e0 3c 14 b1 3d 1b 1a 13 3e 9e 4c 0d be ac fe 12 be
       0.086464375 0.14365427 -0.13798758 -0.14354962
0002f0 60 87 b4 bd 64 97 55 bd 98 df 59 3d 23 d6 14 be
       -0.08814883 -0.05214633 0.05319175 -0.14534812
000300 32 9c d8 bd cf f1 a6 bd 80 5a ed bb 66 84 b2 3d
       -0.10576667 -0.0815159 -0.0072434545 0.08716659
000310 24 b1 08 bd fc dc b8 bd 68 32 1d 3d 98 4b b3 bd
       -0.03337206 -0.090265244 0.03837815 -0.08754653
000320 f0 81 12 be 96 e9 ae 3d 5b db 26 3d cc 53 ea c0
       -0.1430738 0.08540647 0.040736537 -7.322729
000330 b2 49 cd 3d 81 c7 10 3e 6c f5 99 3d 50 da df 3c
       0.10023822 0.14138605 0.07517514 0.02732578
000340 7d 28 03 3e ca 30 fa 3d 48 42 5d 3d 00 28 8c bc
       0.12808414 0.12216337 0.05401829 -0.017108917
000350 7b d8 d6 bd fa 82 e6 c0 ca 61 ee c0 35 65 ef c0
       -0.10490509 -7.2034883 -7.449437 -7.4811044
000360 13 5b e9 c0 7d 6d eb c0 e0 49 b1 bb 29 a7 ea c0
       -7.2923675 -7.3571153 -0.005410418 -7.3329053
000370 cc b4 e7 c0 de 8c e6 c0 c0 56 ed c0 24 27 a3 bd
       -7.24082 -7.2046957 -7.4168396 -0.0796645
000380 70 ee 3a bc 97 a5 8a bc 7c 26 86 3d d0 b9 74 3c
       -0.011409387 -0.016924663 0.06550309 0.014936879
000390 f8 c4 1c bd 59 b5 01 3e 6f 38 16 3e 33 16 cb ba
       -0.03827378 0.12666835 0.14669965 -0.0015494287
0003a0 df 5d 18 3e 7c ed 81 3d be af e7 3d 70 b8 06 be
       0.14879559 0.06344125 0.11312817 -0.13156295
0003b0 60 d3 bb 3d 73 1d bb bd e3 8c e8 40 70 5b 0f 3c
       0.09171176 -0.09136476 7.267198 0.008749828
0003c0 00 ab f8 3a 74 59 1f 3d e8 1f d2 3c fa b1 d3 bd
       0.001897186 0.03890367 0.02564998 -0.10336681
0003d0 a8 ee 9e 3d 34 01 f6 bd 33 d2 9e bd de a9 1f ba
       0.07760364 -0.12011948 -0.07754936 -0.0006090681
0003e0 89 0d f0 c0 60 29 de 3c 95 2b ba bd 96 7b f2 3d
       -7.5016522 0.027119339 -0.09090344 0.118399784
0003f0 d6 6e 1f bd 79 73 eb 40 75 52 83 3d a1 a5 0a 3e
       -0.03892406 7.357846 0.06412212 0.13539745

price_encoder.encoder.weight_hh_l0 f4 [180, 45]
000000 f7 ed ee 40 0e 0c ec 40 91 a8 e7 40 ad b1 e7 c0
       7.4665484 7.3764715 7.239327 -7.240439
000010 af 02 eb 40 7b 3d e9 40 f1 aa ea 40 97 07 ef c0
       7.3440776 7.288755 7.333367 -7.4696765
000020 0d c3 ea c0 55 ff e8 c0 fc 29 ee c0 1a 62 ed 40
       -7.33631 -7.2811685 -7.442625 7.4182253
000030 c0 52 e9 c0 52 53 eb c0 d3 c0 e8 40 af 8a ef c0
       -7.2913513 -7.353921 7.273538 -7.485679
000040 3a 52 e8 40 3a 59 ec c0 cd cd e6 40 4e 47 ef c0
       7.2600374 -7.385892 7.212622 -7.477454
000050 f4 e2 e6 40 4c 9e ea 40 d5 65 e7 40 a9 9d e8 40
       7.2152042 7.3318233 7.2311807 7.2692456
000060 fe 61 ea c0 c7 9a e6 c0 31 b5 e7 c0 fe 71 e9 40
       -7.324462 -7.2063937 -7.240868 7.295165
000070 72 ca e6 c0 45 80 e9 c0 c1 34 e8 40 0a ac eb c0
       -7.2122126 -7.296908 7.2564397 -7.364751
000080 7b b4 ea 40 00 a1 eb 40 5c cd ea 40 7b b8 e6 c0
       7.3345313 7.3634033 7.3375683 -7.2100196
000090 07 e4 e9 c0 d9 88 ec 40 68 a2 e8 40 5a 0d f0 40
       -7.3090854 7.391705 7.269825 7.50163
0000a0 29 66 ee 40 3b 35 e9 40 9d 97 ec c0 b8 76 ef 40
       7.4499707 7.287748 -7.3935075 7.483242
0000b0 b4 41 ee c0 6b 08 ef c0 6d 14 ed c0 40 3d eb c0
       -7.4455204 -7.4697776 -7.4087434 -7.351227
0000c0 10 c7 ec 40 3f 7a e8 c0 8b 30 ee c0 72 d7 e7 c0
       7.3992996 -7.2649226 -7.4434257 -7.2450495
0000d0 c2 d2 ed c0 f4 8d e9 40 23 40 ed c0 7c c3 e8 40
       -7.4319773 7.2985783 -7.414079 7.273863
0000e0 62 e3 ef c0 64 1c e7 40 c2 65 e9 40 45 95 eb c0
       -7.4965067 7.2222157 7.2936716 -7.3619714
0000f0 1e 12 ef 40 92 9c e9 c0 f1 00 e7 40 c5 83 e8 c0
       7.4709616 -7.3003626 7.218865 -7.266085
000100 eb 46 eb 40 ae 57 e8 40 20 0a ee c0 46 53 e8 c0
       7.352407 7.260703 -7.438736 -7.260165
000110 18 ec eb c0 87 36 ef 40 f7 65 ed 40 0c 8a e8 40
       -7.37257 7.475406 7.418697 7.2668514
000120 dd d6 e9 c0 c0 cb e6 40 59 a9 ec 40 03 75 ef c0
       -7.3074784 7.212372 7.3956723 -7.4830337
000130 a2 f7 ec 40 be d7 eb c0 09 f7 ec c0 f5 3e e8 c0
       7.4052286 -7.3700857 -7.4051557 -7.257685
000140 a3 75 e7 40 c6 a6 ea 40 32 15 ee c0 f5 7b e7 c0
       7.23311 7.332858 -7.4400873 -7.2338815
000150 59 c8 ed c0 95 4b eb c0 fe 0c ea c0 3d 09 ed 40
       -7.4307065 -7.3529763 -7.314086 7.4073777
000160 42 77 e8 c0 07 ac e8 40 d2 29 e9 c0 83 3e ed c0
       -7.264558 7.2709994 -7.286355 -7.413881
000170 af 4c ef c0 41 d6 eb 40 ca 9d e7 c0 dc e0 eb c0
       -7.478111 7.369904 -7.2380114 -7.3711987
000180 8c fa e6 c0 21 c1 e9 c0 29 55 ec 40 b0 46 ea c0
       -7.2180843 -7.3048253 7.3853955 -7.321129
000190 9b bb ef 40 f4 fb e9 c0 ce fd ee 40 5c f6 ec 40
       7.491651 -7.312006 7.468482 7.405073
0001a0 a0 e1 e7 c0 da 69 e7 40 0b fe ed c0 73 e1 ee 40
       -7.246292 7.2316713 -7.437261 7.4650207
0001b0 01 e3 ef c0 46 e2 ec c0 a8 21 e8 40 b7 49 e9 c0
       -7.4964604 -7.4026213 7.2541084 -7.2902484
0001c0 e7 59 ed c0 ac 6e ec c0 59 71 e9 40 9c 91 eb 40
       -7.4172244 -7.3885098 7.2950864 7.3615246
0001d0 ca f0 e9 40 c2 8f ee c0 82 ac e7 40 f9 d5 ef 40
       7.310643 -7.4550486 7.239808 7.4948697
0001e0 72 57 e9 c0 5a a6 e8 40 bf 2b e7 c0 46 4f ec c0
       -7.2919245 7.2703066 -7.22409 -7.384677
0001f0 7d 48 ed c0 fc 91 ed 40 4a 4a e8 40 e2 c4 e6 c0
       -7.4150987 7.4240704 7.2590685 -7.2115335
000200 94 39 e8 c0 35 d0 e7 c0 b2 fd e6 c0 6c 72 ea c0
       -7.2570286 -7.244166 -7.2184687 -7.3264675
000210 dd 21 eb 40 89 07 ea c0 d5 9a ec 40 c1 69 ee 40
       7.3478837 -7.31342 7.3939004 7.4504094
000220 7b fe e9 40 85 7a ed 40 cb 5f ec c0 b6 c8 ec 40
       7.3123145 7.421206 -7.3866935 7.399501
000230 fe c8 e7 40 fc f8 e8 40 11 f5 e7 40 09 a2 e9 c0
       7.243285 7.2803936 7.2486653 -7.3010297
000240 f6 dc ed 40 cc 61 e8 c0 bd 23 e8 40 ca a5 ec 40
       7.433223 -7.261938 7.2543626 7.395238
000250 be a4 e9 c0 9c cc ed 40 11 89 eb c0 87 d4 e7 40
       -7.30136 7.4312267 -7.3604817 7.2446933
000260 bb 5a eb c0 6c 27 ec 40 be 88 ec 40 ae 10 eb c0
       -7.3548255 7.3798122 7.391692 -7.345786
000270 6f 16 e9 40 5c 3d ee 40 3a 2e ec 40 2d f6 e6 c0
       7.2839885 7.44499 7.380643 -7.2175508
000280 0f 12 ea c0 a9 83 ea 40 5b 66 e8 40 fb 79 ef c0
       -7.3147044 7.328572 7.2624946 -7.48364
000290 15 34 ef c0 c8 c0 ed 40 46 a3 e9 c0 ea c8 e8 40
       -7.4751077 7.429783 -7.301181 7.2745256
0002a0 ab 81 ef 40 23 ed ef 40 e0 c5 ee c0 6a 68 e8 c0
       7.4845786 7.4976974 -7.4616547 -7.262746
0002b0 63 da eb 40 b8 09 e9 40 a0 37 e9 40 40 ee ed 40
       7.3704085 7.2824364 7.28804 7.4353333
0002c0 d5 cd e7 40 2c b0 ef c0 be 2b e8 40 a7 4c eb c0
       7.243876 -7.4902554 7.2553396 -7.353107
0002d0 4c 14 e7 40 7e 22 e9 40 4b 5f ef 40 ff 8f ed c0
       7.2212276 7.2854605 7.4803824 -7.4238276
0002e0 e1 bb e6 40 5d b9 e8 40 b6 fb ef 40 ed bd ee 40
       7.2104344 7.2726274 7.4994764 7.4606843
0002f0 bc 7b ee c0 73 90 ed 40 13 3e ec c0 2e 2b eb 40
       -7.4526043 7.423883 -7.3825774 7.349021
000300 d9 52 ec c0 cc 3e e8 c0 75 5e e7 40 a6 f3 e7 c0
       -7.3851132 -7.2576656 7.2302804 -7.2484922
000310 27 5e ea 40 2a ab e7 c0 2e da e7 40 70 fb ed 40
       7.323993 -7.239644 7.2453833 7.436943
000320 15 17 e7 c0 62 04 e7 40 4e 43 ea 40 1f 89 ef 40
       -7.2215676 7.219285 7.320716 7.4854884
000330 6b 8f ea c0 61 83 e9 c0 2b 87 ec 40 9d 49 ed 40
       -7.330007 -7.2972875 7.3915 7.415236
000340 13 18 ea c0 18 1f e7 c0 4a 99 e8 40 a7 f1 ee c0
       -7.3154387 -7.2225456 7.268712 -7.4669986
000350 35 ec eb 40 8b e2 ef 40 25 b0 ee 40 5d 23 e8 c0
       7.372584 7.496404 7.459002 -7.254317
000360 b8 9b ea c0 2b e6 e7 40 fd 04 ee 40 62 b8 ec 40
       -7.3315086 7.2468467 7.438109 7.3975077
000370 59 a9 e9 40 d0 57 ed 40 6c 8f ea c0 9e ba e7 40
       7.3019223 7.4169693 -7.3300076 7.2415304
000380 fd 61 e7 c0 ce b1 e9 40 73 8a ec 40 87 f1 ed 40
       -7.2307115 7.3029547 7.3919005 7.4357333
000390 af 24 ef c0 ba 35 ee 40 4b 7b e7 40 3d 6b e9 40
       -7.473228 7.4440584 7.2338004 7.2943406
0003a0 d6 fc ee 40 c1 ce e9 c0 60 e9 ef 40 5b 43 ea c0
       7.468364 -7.3064885 7.497238 -7.320722
0003b0 a4 16 e8 40 e6 e3 e6 c0 0f 27 ea c0 1b ae e9 40
       7.2527637 -7.2153196 -7.317268 7.302503
0003c0 9f 9f ec c0 aa 00 ef 40 f2 ad ee c0 23 24 ec 40
       -7.394485 7.468831 -7.4587336 7.379411
0003d0 a4 1e ef 40 c6 36 e8 c0 14 bd e9 40 b8 28 e7 40
       7.4724903 -7.256686 7.304331 7.2237206
0003e0 fd df e6 40 70 8d eb c0 70 1e ec c0 01 8f e6 40
       7.2148423 -7.3610153 -7.3787155 7.2049565
0003f0 6c f7 ee 40 6d d0 e8 c0 f9 64 ef c0 54 bd ea 40
       7.467703 -7.2754426 -7.481076 7.3356113

price_encoder.encoder.bias_ih_l0 f4 [180]
000000 7c 0b ed c0 f4 41 ef 40 c1 11 ea 40 e8 e7 e8 c0
       -7.407652 7.476801 7.314667 -7.278309
000010 1c b7 ee c0 eb d5 e9 c0 2f f7 ed 40 48 51 ea c0
       -7.459852 -7.307363 7.436424 -7.322422
000020 3a 61 ee 40 bb 89 ed c0 e3 53 e9 c0 be 0e ec c0
       7.4493685 -7.423063 -7.29149 -7.3767996
000030 92 93 ef c0 03 96 eb 40 27 f6 e8 40 50 53 ef 40
       -7.486764 7.362062 7.280048 7.47892
000040 63 83 ed c0 a6 48 e8 40 57 07 ee c0 04 d5 ef c0
       -7.4222884 7.258868 -7.438396 -7.494753
000050 bd 62 ec c0 42 ab e6 c0 10 7a eb c0 45 64 ea 40
       -7.387053 -7.2084055 -7.35865 7.32474
000060 71 99 ed c0 dd a5 eb c0 e6 31 e8 c0 84 73 ea 40
       -7.4249806 -7.363997 -7.256091 7.326601
000070 98 cd ec c0 a0 39 ea 40 13 40 e8 40 3c b6 ef c0
       -7.400097 7.3195343 7.2578216 -7.4909954
000080 16 17 ef 40 7e 8e ed c0 74 af e8 c0 68 00 ea 40
       7.471568 -7.423644 -7.2714176 7.3125496
000090 a5 db e9 c0 6a 15 f0 c0 5a fa e6 c0 71 f9 ec 40
       -7.308062 -7.502614 -7.2180605 7.4054494
0000a0 4c 7d e8 40 83 f7 e4 40 86 11 ef c0 00 f5 e9 40
       7.265295 7.155214 -7.470889 7.311157
0000b0 ef 82 ea 40 80 c5 e7 c0 6d 88 ef 40 fe 16 ea 40
       7.328483 -7.242859 7.4854035 7.3153067
0000c0 bc f3 ed c0 e7 1a e9 c0 42 33 ef c0 d9 a1 ee 40
       -7.4360027 -7.284534 -7.475007 7.457257
0000d0 de c6 eb c0 fb 49 ec 40 b8 2b e8 40 c4 00 ef c0
       -7.368026 7.384031 7.2553368 -7.4688435
0000e0 88 4c e8 c0 81 4b e9 c0 b3 ff eb 40 55 17 e9 40
       -7.259342 -7.290467 7.3749633 7.284098
0000f0 25 02 eb 40 c9 49 eb c0 1a d3 ed 40 e8 c3 ea 40
       7.344012 -7.352757 7.432019 7.3364143
000100 6c 30 ee c0 24 c0 ec c0 60 f9 ea c0 6b dd e7 c0
       -7.443411 -7.3984547 -7.3429413 -7.2457786
000110 a2 f5 e8 40 6e 36 ed c0 eb ca e6 c0 08 3f e7 c0
       7.2799845 -7.4128942 -7.2122703 -7.2264442
000120 4c 11 ec 40 b2 2c ee c0 85 61 ea 40 cb e4 e6 40
       7.3771114 -7.442956 7.3244042 7.215429
000130 eb d4 eb c0 84 36 e8 40 ef dc eb c0 0a 52 ed c0
       -7.369741 7.2566547 -7.3707194 -7.4162645
000140 94 e2 e9 40 b1 56 ee c0 b9 e3 ed c0 01 60 e9 c0
       7.3089085 -7.4480824 -7.434048 -7.292969
000150 17 30 ed 40 55 27 ec 40 2b 7e ea c0 07 bf e9 c0
       7.4121203 7.3798013 -7.3279014 -7.304569
000160 ef 38 ec 40 1b 21 ec 40 6c d7 e6 40 11 27 ee c0
       7.38195 7.379041 7.2137966 -7.442269
000170 d7 fd e8 c0 4c 09 f0 c0 3c 0d e7 40 34 ce eb 40
       -7.2809863 -7.501135 7.2203655 7.3689213
000180 36 0e ed c0 e9 93 ea 40 74 07 e9 40 b3 c0 e7 c0
       -7.4079847 7.3305554 7.28216 -7.242273
000190 d9 b8 e6 c0 f1 84 ec 40 49 98 ea 40 e6 b2 e8 40
       -7.2100644 7.391228 7.3310895 7.271838
0001a0 96 4f ed c0 b8 9c e8 40 4b 4e ed 40 cc dd ee 40
       -7.415965 7.2691307 7.4158072 7.464575
0001b0 cb 1e e9 40 db f4 ed 40 db f3 ee c0 b1 1d e8 40
       7.285009 7.4361396 -7.4672675 7.2536244
0001c0 e1 6e ec 40 7c 05 e8 c0 93 e5 e6 c0 44 69 e9 c0
       7.388535 -7.2506695 -7.215524 -7.2941
0001d0 cd f2 ef 40 57 b1 e6 c0 03 8e e7 c0 92 2b ee 40
       7.498389 -7.209148 -7.2360854 7.4428186
0001e0 57 fa ea c0 eb 4c ed c0 ef cb ed c0 27 40 e9 40
       -7.343059 -7.4156394 -7.431144 7.289081
0001f0 12 98 ee 40 cd 13 ea 40 a9 b5 ee c0 93 b2 ec 40
       7.4560633 7.314917 -7.4596753 7.3967986
000200 79 b8 e9 40 3b 87 ea c0 59 67 ed c0 c3 c1 ee 40
       7.3037686 -7.3290076 -7.4188657 7.4611526
000210 4a 2d eb c0 f4 46 eb c0 5e a7 ed 40 1c 83 e8 c0
       -7.3492785 -7.3524113 7.4266806 -7.2660046
000220 5b f6 eb 40 84 3a e7 40 d6 93 ed c0 d7 b5 ef c0
       7.3738227 7.225893 -7.4242964 -7.4909472
000230 e2 af ef c0 85 aa e7 40 72 ee ea c0 02 24 ef 40
       -7.49022 7.2395654 -7.341607 7.4731455
000240 26 04 e8 c0 ed ca ef c0 1b 88 e7 c0 31 80 ea c0
       -7.2505064 -7.493521 -7.2353644 -7.3281484
000250 39 f1 ed 40 fb ad ec 40 c7 cc e7 40 36 0c e7 c0
       7.435696 7.396238 7.243747 -7.2202406
000260 6d 54 ef 40 c9 ab ed c0 ba ad ed c0 16 29 ee c0
       7.479056 -7.42722 -7.427457 -7.4425154
000270 11 d4 e8 c0 11 ac ee c0 53 a1 e9 40 73 cf ec c0
       -7.275887 -7.458504 7.300943 -7.4003234
000280 73 0a ea c0 8a 2c e8 c0 a3 a1 ea 40 bf 46 e7 c0
       -7.3137755 -7.255437 7.332231 -7.227386
000290 c9 1a e8 40 e1 d7 e9 40 64 11 eb c0 04 ba e7 40
       7.2532697 7.3076024 -7.345873 7.241457
0002a0 f3 de e6 c0 95 37 e7 c0 e7 27 ef 40 f8 1e ee c0
       -7.2147155 -7.225535 7.473621 -7.4412804
0002b0 6a 66 e8 c0 81 63 eb c0 25 f8 e8 40 a3 b4 e8 40
       -7.2625017 -7.3558965 7.280291 7.2720504
0002c0 09 c9 ed c0 0e 1e ec c0 8e a1 ea 40 c0 e3 ef 40
       -7.4307904 -7.378669 7.332221 7.4965515

price_encoder.encoder.bias_hh_l0 f4 [180]
000000 b8 5a e8 c0 30 db ef 40 f1 0b ef 40 2d 5f e7 c0
       -7.261074 7.4955063 7.4702077 -7.230368
000010 58 99 ed c0 6d 9d ea c0 63 f4 e6 40 52 3b ef c0
       -7.4249687 -7.331717 7.2173324 -7.4759912
000020 c2 60 ea 40 dd 3e e9 c0 ad ca e9 c0 d7 8f e7 c0
       7.3243113 -7.2889237 -7.3059907 -7.2363086
000030 e0 47 ea c0 07 aa e9 40 2d dd ed 40 a8 aa e7 40
       -7.321274 7.3020053 7.433249 7.239582
000040 13 77 ee c0 a5 e8 e8 40 2b 24 ed c0 b0 48 e7 c0
       -7.4520354 7.278399 -7.410665 -7.227623
000050 69 22 ee c0 3c 42 ec c0 91 66 ea c0 8e c6 ea 40
       -7.4417005 -7.3830853 -7.3250203 7.3367376
000060 20 95 ec c0 27 d6 eb c0 b0 2b eb c0 80 1e e7 40
       -7.3932037 -7.3698916 -7.349083 7.222473
000070 6a 7c ea c0 9a 17 ec 40 b8 08 e9 40 40 32 ef c0
       -7.3276873 7.377881 7.2823143 -7.474884
000080 e6 bc ee 40 fe ee ea c0 f4 08 ee c0 3b fa eb 40
       7.460559 -7.341674 -7.438593 7.3742957
000090 b4 98 e6 c0 2e b1 ea c0 e8 7e e9 c0 90 45 ed 40
       -7.2061405 -7.3341284 -7.2967415 7.4147415
0000a0 d2 db e7 40 ef 6b e6 40 f8 33 ec c0 54 2c e7 40
       7.2455835 7.2006755 -7.381344 7.224161
0000b0 4d c3 e6 40 e4 d8 ed c0 27 b3 e6 40 a8 36 e7 40
       7.2113404 -7.432726 7.209369 7.225422
0000c0 95 ab eb c0 0b a0 ec c0 17 f0 eb c0 3d 49 ec 40
       -7.364695 -7.3945365 -7.373058 7.38394
0000d0 ab 56 ea c0 83 c9 e9 40 8c bf e7 40 82 4d eb c0
       -7.3230796 7.3058486 7.242132 -7.3532114
0000e0 fc 5f ec c0 c8 dc eb c0 cd da eb 40 cf ac ee 40
       -7.386717 -7.370701 7.370459 7.458595
0000f0 8e 4e e8 40 96 2a ea c0 08 2a eb 40 37 45 ee 40
       7.259589 -7.3176985 7.348881 7.445949
000100 02 5b ea c0 a9 17 ef c0 46 eb ec c0 cd 61 ec c0
       -7.3236094 -7.471638 -7.40372 -7.3869386
000110 fe ed e8 40 59 ae ec c0 59 f1 e8 c0 98 f5 ef c0
       7.279052 -7.3962827 -7.2794614 -7.4987297
000120 16 d6 e6 40 bc be e8 c0 93 9a ec 40 b3 28 ee 40
       7.2136335 -7.273283 7.393869 7.442468
000130 07 82 ea c0 e4 71 e7 40 77 01 ea c0 8e 06 e7 c0
       -7.3283725 7.2326527 -7.312679 -7.21955
000140 a2 d1 e7 40 c4 b1 ed c0 3d ff eb c0 f1 b3 ea c0
       7.24434 -7.42795 -7.374907 -7.3344655
000150 07 34 ef 40 63 14 ed 40 36 df ed c0 c0 e5 ed c0
       7.475101 7.4087386 -7.4334974 -7.4342957
000160 94 ac e9 40 c9 a3 ee 40 9a 38 ec 40 51 28 ef c0
       7.3023167 7.4574933 7.3819094 -7.4736714
000170 89 ab ed c0 a6 9c e7 c0 66 21 ec 40 50 16 ef 40
       -7.4271894 -7.237872 7.379077 7.4714737
000180 0e ab ea c0 1a eb ec 40 3c a0 ed 40 01 c4 ed c0
       -7.3333807 7.403699 7.42581 -7.4301763
000190 bb 33 ee c0 9b 3d e8 40 e7 b5 ea 40 38 d6 eb 40
       -7.4438148 7.25752 7.334705 7.3698997
0001a0 1c db ea c0 31 e6 e7 40 ba ce e7 40 a6 7d ee 40
       -7.3392467 7.2468495 7.243985 7.452838
0001b0 5b bf e6 40 4d a2 ec 40 36 64 ea c0 51 09 eb 40
       7.210859 7.394812 -7.324733 7.3448873
0001c0 99 4b e9 40 e8 06 e9 c0 39 d7 ed c0 26 b9 e8 c0
       7.290478 -7.282093 -7.4325223 -7.272601
0001d0 fb b5 e7 40 0e 49 ec c0 cf e2 ea c0 3e 8e ed 40
       7.2409644 -7.383918 -7.3401866 7.4236135
0001e0 cb a1 e7 c0 c9 2d e7 c0 03 01 ea c0 db 50 e9 40
       -7.2385 -7.224339 -7.3126235 7.29112
0001f0 ca 1b e8 40 a1 8c eb 40 38 ae eb c0 c9 44 e7 40
       7.253392 7.3609166 -7.365017 7.2271466
000200 3b f7 e6 40 cf 0e ec c0 71 22 ea c0 d5 c2 ed 40
       7.2176795 -7.3768077 -7.3167043 7.430033
000210 dc 94 eb c0 e7 a1 ee c0 a4 ea ed 40 2c b4 ef c0
       -7.3619213 -7.4572635 7.4348927 -7.4907436
000220 41 da ed 40 ec e9 ee 40 44 db ef c0 85 f5 e8 c0
       7.4328923 7.466055 -7.495516 -7.2799706
000230 04 2e e9 c0 8d 95 e8 40 4a 40 e7 c0 6d d1 ed 40
       -7.286867 7.2682557 -7.226598 7.4318147
000240 12 ac ef c0 7f 88 ec c0 51 ba e9 c0 83 61 ef c0
       -7.4897547 -7.391662 -7.3039937 -7.4806533
000250 65 34 e7 40 16 89 ea 40 05 9b e7 40 d5 67 ea c0
       7.225146 7.329234 7.2376733 -7.325175
000260 63 ca e8 40 89 be ec c0 ce 9c e7 c0 d8 69 e7 c0
       7.2747054 -7.3982587 -7.237891 -7.2316704
000270 1f a4 e7 c0 9f db e9 c0 e4 a5 ef 40 9f 32 e7 c0
       -7.2387843 -7.308059 7.4890003 -7.2249293
000280 b5 12 ee c0 8b ff e9 c0 45 a2 ea 40 d5 56 ee c0
       -7.4397836 -7.312444 7.3323083 -7.4480996
000290 89 54 e9 40 dd 63 ea 40 32 b1 ee c0 b4 60 eb 40
       7.291569 7.3246903 -7.4591303 7.3555546
0002a0 56 96 ed c0 4c 32 ef c0 0d b4 e9 40 aa 15 e8 c0
       -7.4246016 -7.4748898 7.303229 -7.2526445
0002b0 36 7b ef c0 12 6c ef c0 f5 3d ed 40 d9 df e8 40
       -7.4837904 -7.481942 7.413813 7.277325
0002c0 59 c9 ec c0 f8 d3 ed c0 61 b2 ed 40 7a cc eb 40
       -7.3995786 -7.432125 7.428025 7.3687105

atten_layer.0.weight f4 [45, 135]
000000 c0 52 bc bb 40 cb d3 3b 10 c0 bf bc 58 49 8d bc
       -0.0057471693 0.0064634383 -0.023407012 -0.017246887
000010 67 17 ab 3d 36 22 4b 3d d9 b8 42 bd 3d 6c 05 bd
       0.08354073 0.049593173 -0.047539566 -0.032573927
000020 f6 50 52 3d 2b 99 a3 3d 5c cd c8 3c 1d 5d 97 3d
       0.05134674 0.07988199 0.024511985 0.07390807
000030 3c a7 90 bc 4e 36 5b 3d 80 fe 68 ba 8d ca 01 bd
       -0.017657869 0.053518586 -0.0008888021 -0.031687308
000040 14 e6 bf bc c4 5c dd 3c 8e 32 37 3d c0 81 32 3b
       -0.02342514 0.027021773 0.044725947 0.0027237982
000050 58 d2 8d bc fa 02 fc bc 80 87 31 bb 39 f2 af 3d
       -0.017312214 -0.030763138 -0.002708882 0.08591122
000060 f8 00 dc 3c ca 41 a9 bd f0 4b 9f bc 80 1b 05 3d
       0.02685593 -0.082645014 -0.01944539 0.03249693
000070 07 82 a8 bd 12 a7 63 3d 64 7b 6a bd 89 eb 90 bd
       -0.08227926 0.055579253 -0.05724658 -0.07076175
000080 6c 25 2f bd 20 a2 40 3b de 57 81 bd d0 87 d5 bb
       -0.042760298 0.002939351 -0.063155875 -0.0065164343
000090 b8 1c 79 bd 50 e5 3f bc 30 cc a8 bd 23 7b 07 bd
       -0.060818404 -0.011712387 -0.08242071 -0.033076417
0000a0 60 33 80 bb 19 d4 a5 3d b1 46 af bd 60 66 03 bc
       -0.0039123744 0.08097095 -0.08558405 -0.008020014
0000b0 00 c0 77 b8 23 39 9c bd 1f 54 3b bd de 2a 28 3d
       -5.9068203e-05 -0.076280855 -0.04573452 0.041056506
0000c0 a2 43 6a 3d 77 0b 85 3d 0b b3 9d 3d bd f9 a3 3d
       0.057193406 0.06496327 0.07700165 0.08006618
0000d0 f0 54 96 bc 86 4a 8a bd 39 e6 97 bd ea f6 2c bd
       -0.018351048 -0.067524955 -0.07416958 -0.042227663
0000e0 e0 49 4f bd 2c 1a e9 3c 59 0e 35 bd 6f 67 88 3d
       -0.050607562 0.028454863 -0.044203136 0.066603534
0000f0 9b 5c 38 bd 7b d2 8c 3d 12 c1 51 3d ef 27 96 3d
       -0.04501019 0.068760835 0.051209517 0.073318355
000100 3f 0c 94 bd a9 35 a5 3d 40 89 c3 ba eb 93 97 3d
       -0.07228898 0.080668755 -0.0014918223 0.0740126
000110 32 5d 42 3d 88 06 81 bd ea e3 91 bd 0b 99 ae 3d
       0.04745216 -0.06300074 -0.07123549 0.085252844
000120 78 ae b2 bc a0 fc 7b bc 80 9d ea ba 31 35 7e bd
       -0.021811709 -0.015380055 -0.0017899722 -0.062062446
000130 20 55 65 bc fe d8 28 3d e0 a0 6c bb 46 42 a3 bd
       -0.013997346 0.041222565 -0.003610663 -0.07971625
000140 08 85 1e 3d 69 81 84 3d ff 6e 0d bd 6b 21 90 bd
       0.038701087 0.064699955 -0.034529682 -0.07037624
000150 6f 9a 9b 3d f2 79 34 3d 79 1f 9a 3d 00 b4 10 3b
       0.07597815 0.04406161 0.07525534 0.0022079945
000160 1d 00 32 bd 5d 1f 9b 3d dd 08 ed c0 ff 95 f7 c0
       -0.04345714 0.075743414 -7.407332 -7.73706
000170 09 39 02 c1 c8 35 ed c0 fe 6b eb 40 7f 09 ed c0
       -8.138925 -7.412815 7.3569326 -7.407409
000180 0f 1d ee c0 81 5e 02 41 b8 0c eb 40 aa f0 e9 40
       -7.441047 8.148072 7.3453026 7.310628
000190 c1 2c eb c0 a1 bc e7 c0 ff 30 ea c0 24 26 ed 40
       -7.349213 -7.241776 -7.318481 7.410906
0001a0 e1 23 ec c0 95 6b e8 c0 0a 4c ea c0 41 48 eb 40
       -7.3793797 -7.2631326 -7.321782 7.35257
0001b0 48 40 ec 40 0d 00 d7 c0 92 36 fd c0 c1 f7 02 41
       7.382847 -6.718756 -7.9129114 8.185487
0001c0 3f af 00 41 e0 20 d8 40 d2 47 ee c0 0b 00 d2 40
       8.042785 6.754013 -7.446267 6.5625052
0001d0 da 91 fa 40 7d 30 eb 40 78 0d 02 c1 3b 37 02 41
       7.830304 7.349669 -8.128288 8.138484
0001e0 5c 2a eb 40 74 53 ed c0 e1 e9 e9 40 36 35 ec c0
       7.348921 -7.416437 7.3097997 -7.3814955
0001f0 43 bf e8 c0 e1 f3 e8 c0 37 8d ea 40 64 82 ea c0
       -7.2733474 -7.2797704 7.329738 -7.328417
000200 4e 69 ee 40 a1 de ea 40 e5 3c d7 c0 75 49 fc 40
       7.4503546 7.3396764 -6.7261834 7.883967
000210 b5 3e 04 c1 e7 9e ef c0 05 78 00 41 ca c1 8a bd
       -8.265309 -7.4881473 8.029302 -0.067752436
000220 c5 94 99 3d f8 e9 51 bd b9 2b 8e bd 4c 7a ee 3c
       0.07499079 -0.05124852 -0.06941933 0.02911105
000230 c0 8e 3e 3b 0e 6a 35 3d 80 f2 51 3c 4c 23 c9 bc
       0.0029076785 0.044290595 0.012814164 -0.024552964
000240 7a 9d 04 3d ea cb a2 bd d3 35 12 bd 7e 44 71 3d
       0.032376744 -0.0794905 -0.035695862 0.05890321
000250 16 db 3f 3d fb 86 2b bd 1d e2 a8 3d 62 f4 5f 3d
       0.046839796 -0.041876774 0.08246253 0.05467642
000260 8e 12 2b 3d 38 15 7c bd 81 a6 51 bd fa f9 92 bd
       0.041765742 -0.061543673 -0.05118418 -0.071765855
000270 a0 f9 4d bd 1e 36 01 3d 99 b2 87 3d fd 37 94 3d
       -0.05028689 0.03154575 0.06625862 0.072372414
000280 60 26 42 bb f0 bb 11 3c ae d4 f3 bc e8 f6 82 bd
       -0.0029624924 0.008894905 -0.0297645 -0.0639475
000290 60 41 f8 3c 58 aa cc bc cc db 18 bd 48 b0 f5 bc
       0.03030461 -0.02498357 -0.03731899 -0.029991284
0002a0 44 ae 8a bd 1c 96 54 bd 1e b9 05 bd 50 8c af bc
       -0.0677152 -0.051900968 -0.032647245 -0.02142921
0002b0 9c b1 a7 bc 1f 3c a3 3d 28 59 ab bc 7a eb 2f 3d
       -0.020470433 0.079704516 -0.020916536 0.042949177
0002c0 6c d8 87 bc 77 85 9f 3d e0 bf bb bc e6 79 54 3d
       -0.01658269 0.07789128 -0.022918642 0.051874064
0002d0 ea ed 7b 3d 50 39 c6 bc 24 5c f1 3c a4 24 45 bd
       0.06150619 -0.02419725 0.029462881 -0.048130646
0002e0 b2 de 12 bd 9e 89 47 3d ea 1f 3b 3d b4 8a 91 3c
       -0.03585691 0.048715226 0.045684732 0.017766334
0002f0 c1 25 93 3d 79 7c 42 bd a8 c9 4e 3c 75 13 8d bd
       0.07184935 -0.047481988 0.012621321 -0.06888477
000300 52 da ad bd 10 d1 5b bd 3f 69 af 3d 4e 3f 51 3d
       -0.08488907 -0.053666174 0.08564996 0.051085763
000310 69 68 80 3d 3a 40 7a 3d 10 c7 33 bc 20 0d 79 3c
       0.06269915 0.061096407 -0.010972753 0.015200883
000320 ea 2c c5 bc 37 5f 49 bd a2 c8 10 bd 43 1c 4d bd
       -0.024069268 -0.04916307 -0.03534759 -0.05007578
000330 ce 6e 27 3d f0 15 24 bd bc d8 9e bc 35 02 a9 3d
       0.040877156 -0.040059984 -0.019390456 0.08252374
000340 9a a9 14 3d f8 0e 7c 3c dc 5c 84 bc 0d 30 87 3d
       0.036294557 0.015384428 -0.01615756 0.06600962
000350 30 52 af 3b 60 5a 3f 3b 60 fe 3a bd e9 9e 8f bd
       0.0053503737 0.0029198155 -0.045652747 -0.070127316
000360 42 aa 7e 3d f3 92 43 bd a9 8c 9b bd 92 cc 9f bd
       0.06217409 -0.047747564 -0.07595188 -0.078026906
000370 2c d2 9e 3c d8 3d aa bd 26 18 91 bd 10 7c ae 3c
       0.019387327 -0.08312577 -0.07084684 0.021299392
000380 da e3 26 3d bb cd f3 c0 e0 d9 f9 40 24 03 ff 40
       0.04074464 -7.6188636 7.807846 7.9691334
000390 2a cc e9 c0 69 8b e9 40 e2 a1 ea 40 d0 1a e9 40
       -7.3061724 7.298268 7.332261 7.284523
0003a0 4f 70 f1 c0 96 dc ef 40 a0 33 ed 40 61 31 ea c0
       -7.5449595 7.495677 7.412552 -7.3185277
0003b0 35 7f e4 c0 65 ab ec c0 f5 1e e9 40 0f 12 ed c0
       -7.140528 -7.395922 7.285029 -7.4084544
0003c0 45 e4 e4 c0 92 a7 eb 40 15 fb ea 40 49 36 ea 40
       -7.152865 7.3642054 7.3431497 7.3191266
0003d0 f9 fe f6 c0 a5 f4 f3 40 a4 ef f1 c0 d4 8d fb c0
       -7.7186246 7.623614 -7.560503 -7.861063
0003e0 5f 90 fa 40 13 43 eb c0 0c 01 f8 40 1a 92 f2 c0
       7.8301234 -7.351938 7.750128 -7.5803347
0003f0 5a b5 ed 40 f1 9f f8 40 52 02 f4 c0 83 9a eb 40
       7.4283876 7.769524 -7.6252832 7.3626113

atten_layer.0.bias f4 [45]
000000 7f d1 e0 40 21 c0 ed 40 10 30 e6 40 2e 27 eb c0
       7.0255733 7.429703 7.193367 -7.3485327
000010 25 ad e9 c0 6e 62 ec c0 1d ac ee c0 a5 ce e9 40
       -7.302386 -7.3870153 -7.45851 7.306475
000020 2d b9 eb c0 cc bd ea 40 ae ae e7 c0 0b f9 ec c0
       -7.3663545 7.3356686 -7.240073 -7.4054008
000030 c2 66 ec 40 52 9d e8 c0 57 2b e6 c0 ad 46 ed 40
       7.3875437 -7.269204 -7.1927905 7.4148774
000040 e8 0d e8 c0 21 a9 ed c0 62 a2 e6 c0 16 4b e8 c0
       -7.2516975 -7.4268956 -7.207322 -7.259166
000050 45 79 ec c0 48 32 ef 40 69 f8 e8 40 a0 86 ec 40
       -7.3898034 7.474888 7.2803235 7.3914337
000060 02 1d ef c0 e8 dd ec c0 84 36 eb c0 57 64 eb c0
       -7.472291 -7.402088 -7.3504047 -7.3559985
000070 d1 a4 e7 c0 c1 e7 ef c0 39 37 e9 40 b4 20 ec 40
       -7.238869 -7.4970403 7.287991 7.378992
000080 e4 17 ec 40 36 31 ec 40 1e 67 e9 c0 1b 67 ee c0
       7.3779163 7.381007 -7.2938375 -7.450086
000090 5d f2 ec 40 18 64 e9 40 80 46 ef c0 78 6b e9 40
       7.4045854 7.2934685 -7.477356 7.2943687
0000a0 60 cf e6 c0 6b 4f ec c0 80 45 ec 40 c8 d0 ec 40
       -7.2128143 -7.3846946 7.383484 7.400486
0000b0 79 0c e7 c0
       -7.2202725

atten_layer.2.weight f4 [1, 45]
000000 7d 20 b1 40 a7 0a 15 c1 f2 89 d5 40 b8 15 b8 c0
       5.535216 -9.315101 6.673089 -5.752651
000010 b0 3e c4 c0 88 d1 b6 c0 82 01 cf c0 bd 0e 03 c1
       -6.1326523 -5.7130775 -6.468934 -8.191098
000020 d7 a7 bd c0 4f 8f c0 40 99 98 a3 c0 5a f1 01 41
       -5.9267383 6.0174937 -5.1123776 8.121424
000030 a9 86 06 c1 34 b9 c2 c0 36 6f 20 41 04 66 d3 40
       -8.407876 -6.085108 10.027151 6.606203
000040 67 50 10 41 12 4b 06 41 09 55 ae c0 e3 b1 b1 c0
       9.0196295 8.393328 -5.4478803 -5.5529647
000050 af bd fd 40 22 c0 e9 40 ba fe e5 40 d1 2b e6 40
       7.9294047 7.3047037 7.1873446 7.1928487
000060 36 e9 f5 40 62 fc 0c 41 39 95 df c0 8b b1 d3 c0
       7.684718 8.811617 -6.9869657 -6.6154227
000070 02 5a 18 41 86 3c f4 40 db 2b e4 40 34 b9 0a c1
       9.521975 7.632388 7.1303535 -8.670216
000080 ce 7b d2 40 34 c4 f1 c0 1f 64 08 41 80 b9 d8 c0
       6.577613 -7.5552006 8.524444 -6.772644
000090 01 d9 fd c0 c2 e7 02 c1 af b4 01 41 92 85 0b c1
       -7.9327397 -8.1815815 8.106612 -8.72011
0000a0 f8 de b3 c0 9a d2 f7 40 20 73 0e c1 3f a6 ea 40
       -5.620968 7.744458 -8.903107 7.3327937
0000b0 57 b9 b2 c0
       -5.5851245

lstm.weight_ih_l0 f4 [180, 45]
000000 69 ef e2 40 59 78 ef c0 02 d6 f0 c0 24 25 eb 40
       7.091725 -7.483441 -7.526124 7.348284
000010 16 89 ef c0 e0 4a eb 40 d7 48 e7 40 b5 d4 ef 40
       -7.485484 7.35289 7.2276416 7.494715
000020 85 a6 e5 c0 2d 23 f0 40 96 39 e9 40 80 af ed 40
       -7.176577 7.504294 7.2882795 7.4276733
000030 0a 5d eb 40 52 a5 ea 40 91 85 ec c0 0b 46 f0 40
       7.3551073 7.3326807 -7.3913045 7.50855
000040 3e 33 e9 c0 34 7e f0 c0 48 ac ea c0 8d f2 f1 40
       -7.287505 -7.5154057 -7.3335304 7.5608582
000050 1d 7d f2 c0 8b e0 f7 40 25 4a f1 40 81 b4 eb c0
       -7.5777726 7.74616 7.540301 -7.365784
000060 f3 5a d7 40 ab 34 f3 c0 39 3e f2 40 5c ca eb c0
       6.729852 -7.600179 7.5700955 -7.368452
000070 4d 86 f4 c0 22 8a ef 40 8b 7c ea c0 cb 33 ef c0
       -7.641394 7.485612 -7.327703 -7.4750724
000080 37 34 ea c0 47 0e ee 40 7e 47 ef 40 b0 65 ef c0
       -7.318874 7.439243 7.477477 -7.481163
000090 36 dd eb c0 47 5c ea 40 75 55 eb 40 e7 ce ee c0
       -7.3707533 7.3237643 7.354182 -7.4627566
0000a0 56 05 ec c0 b2 1a f2 40 fc ee f2 c0 6e c1 ee c0
       -7.3756514 7.5657587 -7.591673 -7.461112
0000b0 03 c7 f3 40 12 38 f0 40 85 c3 f5 c0 d5 57 f0 c0
       7.6180434 7.5068445 -7.680117 -7.5107217
0000c0 d7 4c ef 40 34 86 ed 40 3c f8 ec 40 49 1a ed 40
       7.47813 7.422632 7.405302 7.4094586
0000d0 29 85 ed 40 e0 6d e9 c0 f7 07 ea 40 60 c2 e9 40
       7.422505 -7.2946625 7.3134723 7.3049774
0000e0 0b 7f e8 c0 2d e4 eb 40 d9 ee e7 c0 73 6f e9 c0
       -7.265508 7.3716035 -7.247906 -7.2948546
0000f0 29 ff e7 40 be e5 eb c0 12 9b e7 c0 fb e4 e8 c0
       7.2498975 -7.3717947 -7.2376795 -7.2779517
000100 89 e3 f1 40 c5 c2 f2 c0 dc f6 ec 40 b4 43 f6 40
       7.5590253 -7.5862756 7.405134 7.6957645
000110 ef 25 ef c0 0e 13 ba c0 5a 6e f1 c0 06 56 f1 40
       -7.4733806 -5.814826 -7.5447206 7.541751
000120 cd 38 e7 c0 ee a3 f3 c0 f0 34 f0 40 df 6f ea c0
       -7.2256837 -7.613761 7.506462 -7.326156
000130 6c d3 ee c0 e0 54 f0 c0 e1 35 ea 40 43 d0 e8 40
       -7.4633083 -7.5103607 7.319077 7.2754226
000140 2e d4 eb c0 ad 07 ec c0 15 ec ec 40 6b 4b ee 40
       -7.369651 -7.375937 7.4038186 7.4467063
000150 07 00 e7 c0 4e 15 ec c0 30 9e f1 40 7b 5e ec c0
       -7.2187533 -7.3776007 7.55056 -7.3865333
000160 b5 d5 e2 c0 50 c4 f2 40 c6 1f e8 c0 4d 17 f3 c0
       -7.0885873 7.586464 -7.2538786 -7.5965943
000170 46 e9 f2 c0 b3 37 e9 40 93 26 ec c0 7e eb ea 40
       -7.5909758 7.288049 -7.379709 7.3412466
000180 ab 0b ec c0 0a a1 f2 40 e5 a9 ef c0 7d ef ed c0
       -7.3764243 7.582158 -7.489489 -7.4354844
000190 32 af ea 40 18 15 c1 c0 98 96 ed c0 5d 70 ee 40
       7.333886 -6.033825 -7.424633 7.451216
0001a0 90 a1 e8 40 7a 2c e8 40 ae cc ed 40 fe cf e8 40
       7.269722 7.2554293 7.4312353 7.2753897
0001b0 dd 67 e9 c0 b5 23 f2 40 08 96 f1 c0 5e d4 ed 40
       -7.2939286 7.566859 -7.5495644 7.4321737
0001c0 5e c1 ec 40 9e b2 ee c0 8b 77 9b c0 a6 96 ed c0
       7.3986044 -7.459304 -4.8583426 -7.4246397
0001d0 c2 e9 f5 40 31 e6 ea c0 ee df f1 c0 d1 c0 f0 40
       7.684785 -7.3405995 -7.558585 7.523537
0001e0 45 f8 ef 40 0b 94 e7 40 fc 56 ec c0 fa e4 ef 40
       7.4990563 7.2368217 -7.385618 7.4967012
0001f0 ae fa e9 40 97 bb ec 40 ea 03 f0 40 73 09 ef 40
       7.3118505 7.397899 7.500478 7.4699035
000200 fe 30 e7 c0 4e 94 ec c0 8a bf ea 40 a5 bf ef 40
       -7.2247305 -7.3931036 7.335881 7.492144
000210 73 81 f3 c0 ec fc e9 40 87 22 ed 40 c9 02 f1 40
       -7.609552 7.3121243 7.410465 7.53159
000220 9a a8 f4 c0 ce d2 f2 c0 10 21 ef 40 9c a5 e9 c0
       -7.6455812 -7.588233 7.472786 -7.301466
000230 99 7a e8 40 a6 18 f0 40 6f b0 f5 40 98 1a e9 c0
       7.2649655 7.503009 7.6777873 -7.2844963
000240 f5 08 e9 c0 0c 9a ef 40 29 38 e5 c0 01 ed e6 40
       -7.2823434 7.4875546 -7.1631055 7.216431
000250 61 e4 ed 40 41 4a ee 40 61 c1 ed 40 ad 6b eb 40
       7.4341283 7.446564 7.429856 7.356894
000260 b8 6a e7 c0 7a cf eb c0 8d b5 f8 40 94 34 f0 c0
       -7.231777 -7.3690767 7.772162 -7.506418
000270 16 bb ee 40 d9 78 f5 40 93 fc f7 c0 6f bf ba 40
       7.4603376 7.671002 -7.749582 5.8358684
000280 75 b4 f3 c0 52 5c f3 40 36 e7 e8 c0 2c a9 f7 c0
       -7.6157784 7.6050196 -7.278224 -7.739401
000290 3c 6f f4 40 0b 43 e9 c0 0f be f0 40 0b 87 e8 c0
       7.6385784 -7.289434 7.5232005 -7.2664847
0002a0 e2 5f e8 40 c3 1a ed 40 f5 e1 ed c0 8e cc e7 c0
       7.2617044 7.409517 -7.4338326 -7.24372
0002b0 4a a7 e6 40 d1 23 e9 c0 59 97 e9 c0 c1 34 ed 40
       7.207921 -7.285622 -7.299725 7.4126897
0002c0 b0 6c f0 40 4a 44 ef c0 dd ff e9 40 27 22 f0 40
       7.5132675 -7.477086 7.3124833 7.504169
0002d0 db a2 ea 40 7f 9b f3 c0 ff 3d fa c0 1a 20 e9 40
       7.33238 -7.6127315 -7.820068 7.2851686
0002e0 24 99 e5 40 72 ce ed 40 fd 4a eb 40 6a 2c f2 40
       7.174944 7.431451 7.352904 7.5679216
0002f0 5c b9 ef c0 60 8f ef c0 81 f8 e9 40 8f a4 ec c0
       -7.491377 -7.486252 7.311585 -7.3950877
000300 0b 30 e8 40 16 6d e3 c0 74 cb f0 40 d9 5c ee 40
       7.2558646 -7.107066 7.5248356 7.448834
000310 da e3 ea 40 cb f5 e9 c0 5b 38 e7 c0 eb cf f6 40
       7.340314 -7.311254 -7.2256293 7.7128806
000320 e9 f6 f8 c0 44 e0 ef 40 e2 64 f3 40 25 c6 f7 c0
       -7.7801404 7.496126 7.606065 -7.7429376
000330 4c 7f de 40 0e 10 f9 c0 96 ab f5 40 f3 f2 e8 c0
       6.953039 -7.78321 7.6771955 -7.279657
000340 c0 fe f0 c0 87 f7 f2 40 5f 4b eb c0 dc 7d eb 40
       -7.5310974 7.5927157 -7.3529506 7.3591137
000350 dd 93 ec c0 85 ce ee 40 fe 23 ef 40 f5 13 e9 c0
       -7.3930497 7.46271 7.4731436 -7.283686
000360 49 cb e8 c0 34 c3 ed 40 7c 9d e6 c0 5e 77 ed c0
       -7.274815 7.4300785 -7.206724 -7.420821
000370 7f 2b ef c0 6a b1 f6 40 36 19 f2 c0 03 e3 ef 40
       -7.4740596 7.709157 -7.5655775 7.4964614
000380 4b 2e f1 40 0a 7a ef 40 c4 7e f1 c0 60 20 f6 c0
       7.536901 7.4836473 -7.5467243 -7.691452
000390 90 97 e9 40 d0 fb ee c0 a0 c7 ea 40 eb 3a e7 40
       7.2997513 -7.468239 7.3368683 7.225942
0003a0 bc f8 ef 40 78 8b ed c0 f0 61 f0 c0 7f 3b eb 40
       7.499113 -7.423275 -7.5119553 7.3510127
0003b0 98 37 d6 c0 29 e2 ea 40 69 9e eb 40 ca a4 ec 40
       -6.6942863 7.3401074 7.363087 7.395116
0003c0 e0 42 ed 40 67 5f e9 40 d7 e1 ee c0 2d 57 ed c0
       7.4144135 7.292896 -7.4650683 -7.4168916
0003d0 ca 40 ef 40 93 4c f2 c0 12 59 ed 40 cb 06 ef 40
       7.476659 -7.5718474 7.417123 7.469579
0003e0 fe 6b f3 c0 9f 18 b0 c0 b1 8f f4 c0 7f 91 ed 40
       -7.6069326 -5.5030055 -7.6425405 7.4240108
0003f0 99 7f ef c0 be 7e f3 c0 fe 2e f6 40 96 d2 ec c0
       -7.484326 -7.6092215 7.6932364 -7.4007063

lstm.weight_hh_l0 f4 [180, 45]
000000 10 96 73 bc 4b 1e 10 3e 37 b5 15 be e0 ef 82 3b
       -0.014867321 0.14074056 -0.14619909 0.0039958805
000010 84 f7 14 be 31 a0 b9 bd 08 e3 1d 3d 22 2c cc 3d
       -0.14547545 -0.09063757 0.038546592 0.09969355
000020 40 ef c2 bc 95 e2 07 3e 0e 7f 8a 3d aa ec 09 be
       -0.023795724 0.13270028 0.06762515 -0.13469186
000030 30 24 18 bd e0 58 b9 bc 18 8d c2 bc cc 5f 80 3d
       -0.037143886 -0.022625387 -0.02374892 0.06268272
000040 6a c5 fb 3d 46 ea cf bd 5a 5f a9 bd 94 f1 b5 bd
       0.12293513 -0.10152106 -0.0827014 -0.08883968
000050 78 83 e3 3c 6c 35 75 3d e2 84 c8 bd 18 28 a5 3d
       0.02777265 0.0598654 -0.097909704 0.08064288
000060 2a 7d 86 3d 02 a6 34 bd a4 3a 38 bd e1 a7 0e be
       0.06566842 -0.04410363 -0.0449778 -0.13931228
000070 86 e5 c2 bd cc b7 2e 3d 60 07 6f 3d a9 91 06 3e
       -0.09516434 0.04265575 0.058356643 0.13141502
000080 46 57 0d bd 14 9d ce 3d 1c 78 a9 bd 49 f9 f3 bd
       -0.03450706 0.10088554 -0.08274862 -0.11912782
000090 2e aa 02 be 24 51 c9 3d 38 5b c0 bc c2 cd f6 3d
       -0.12760231 0.098299295 -0.023480996 0.12050964
0000a0 fc f2 5e bd 6d 13 18 3e 80 1e 81 3d dd 4f 8d bd
       -0.054430947 0.1485116 0.063046455 -0.06899998
0000b0 72 82 a5 3d 90 29 17 bd ac ba cb 3d e8 e5 b5 bc
       0.08081521 -0.03690487 0.09947714 -0.022204354
0000c0 01 58 17 3e ee d3 e3 3d 02 1b 0c be 60 60 0a 3d
       0.14779665 0.11124407 -0.13682178 0.033783317
0000d0 d0 ea 46 bc 70 f1 61 bd 64 35 9c 3d 48 dd dd bc
       -0.012140945 -0.055161893 0.07627371 -0.027083054
0000e0 a0 27 5f bd 18 27 cc bd 36 c3 f0 bd 6a 07 b7 3d
       -0.05448115 -0.09968394 -0.117559835 0.08936961
0000f0 86 85 c3 3d 18 ea 9f bc fc 42 bf 3d ea 87 82 bd
       0.09546952 -0.019520804 0.09338948 -0.0637358
000100 56 c5 f8 3d 9e 92 0d bd 26 cd 8b 3d c0 13 bd 3c
       0.12147014 -0.034563653 0.06826238 0.023080707
000110 cf 51 11 3e f8 df 93 bc ea 8e f3 bd 76 ea c5 bd
       0.14191364 -0.018051133 -0.11892493 -0.096638605
000120 c0 33 be bb a8 0c 0d bd 0c da c2 bd d6 19 de bd
       -0.005804509 -0.034435898 -0.095142454 -0.108447716
000130 f1 b8 09 be a4 c3 1d bd d6 de c6 3d 28 24 b2 3c
       -0.13449456 -0.038516656 0.09710471 0.021745756
000140 00 9b 4d 3b 4d 57 17 be c0 33 f2 3b 2c fd 10 be
       0.0031372905 -0.14779396 0.007391423 -0.14159077
000150 82 b6 ca bd 54 69 92 bd ff 04 07 be c0 01 86 bc
       -0.09898092 -0.07148996 -0.131855 -0.016358256
000160 c6 a7 9e 3d b2 a5 d1 bd 67 bd 16 be 22 b4 e8 bd
       0.07746844 -0.10236682 -0.14720689 -0.113624826
000170 10 27 5a 3c 8d 6b 17 3e da c4 f1 3d c5 5a 0c 3e
       0.013314977 0.14787121 0.118051246 0.13706501
000180 40 d8 54 3b fc 75 5d 3d 80 82 2b bd 88 ef ee bd
       0.0032477528 0.054067597 -0.0418725 -0.11666781
000190 a8 37 15 3d 84 91 99 3d 4e 29 e9 3d e0 84 b1 bd
       0.03643003 0.07498458 0.11384831 -0.08667922
0001a0 48 bb c5 3c fe ba f4 bd 22 78 08 be 16 fd 8a bd
       0.024137154 -0.119497284 -0.13327077 -0.067865536
0001b0 74 ef d8 bd e5 a5 e7 bd d0 2c 39 bc 95 f7 01 be
       -0.10592547 -0.11310939 -0.011302188 -0.12692101
0001c0 e0 4d f0 bd d2 56 d3 bd d3 fe ba bd b0 8a 1f 3c
       -0.117336035 -0.10319294 -0.09130635 0.0097376555
0001d0 28 e1 8e bc 2a 1d 80 3d 58 2f c0 bc 6c b4 71 3d
       -0.017441347 0.062555626 -0.023460075 0.059009954
0001e0 ba aa 0e bd b6 b6 99 3d b0 58 84 3d 1a 78 f5 3d
       -0.034830786 0.075055525 0.06462228 0.11985798
0001f0 a8 7c e6 3c 2a f8 e8 bd 64 d1 4a 3d 80 db 43 3c
       0.028135613 -0.113754585 0.049516097 0.011954188
000200 68 cb bc bd 0e d8 82 3d 9c 51 0f 3d 78 57 b3 bc
       -0.09218484 0.063888654 0.03498994 -0.021892294
000210 c6 2f dd bd da 40 21 bd ae c6 af bd a8 07 98 3c
       -0.10800128 -0.039368488 -0.08582817 0.018558338
000220 ea 49 8b bd 80 80 e6 bb d6 4c 03 bd d8 6c 30 3d
       -0.06801207 -0.0070343614 -0.0320557 0.04307255
000230 80 26 8c 3d f8 63 ee bc 14 a5 b5 3d 08 2f 04 be
       0.06843281 -0.029100403 0.08869377 -0.12908566
000240 0b 97 11 3e 83 68 11 3e d1 bc 02 3e 8a a2 af bd
       0.14217775 0.14200024 0.1276734 -0.08575924
000250 66 99 1f bd 50 db 12 3d b4 d0 fb bd fa f1 dc 3d
       -0.03896465 0.035853684 -0.12295666 0.10788341
000260 80 b7 c8 3b fd ac 00 3e e6 fd ff bd 16 92 25 bd
       0.0061253905 0.1256599 -0.12499599 -0.04042252
000270 f2 2f 08 be 48 fb 5d bd 18 21 cd 3c 00 76 64 bb
       -0.1329954 -0.05419472 0.025040194 -0.0034860373
000280 68 4f 7a 3d 2c 09 47 bd 30 31 34 bd 39 69 e8 bd
       0.061110884 -0.04859273 -0.04399222 -0.11348195
000290 ea aa 13 be 15 75 01 3e 81 6b d3 bd f9 db f8 bd
       -0.14420667 0.1264232 -0.10323239 -0.121513315
0002a0 88 f4 0e bd 00 32 5a bc 88 47 ea 3c 2e 43 db bd
       -0.034901172 -0.013317585 0.028598562 -0.10706173
0002b0 1d 07 e1 bd ef 07 02 be 7e 02 a1 3d 94 b8 8d 3d
       -0.10987685 -0.12698339 0.078618035 0.06919971
0002c0 40 7c 88 bd 00 88 15 3b b0 60 e4 bc 54 db 15 3d
       -0.06664324 0.0022816658 -0.027878135 0.03658612
0002d0 8c a6 c0 bd cd 37 9e bd 00 e4 f4 bc 62 48 17 bd
       -0.09406766 -0.07725487 -0.029893875 -0.036934264
0002e0 aa 52 a4 bd 94 d9 e3 bd 08 f1 9c bc fa d5 f1 bd
       -0.080235794 -0.11125484 -0.019157901 -0.11808391
0002f0 54 3c fa bc 29 57 01 3e 40 87 3a 3d 70 7e 59 3c
       -0.030546345 0.12630905 0.04553914 0.013274774
000300 60 8c 1c bd 0e 09 91 3d 50 93 54 3d 4e ef a6 3d
       -0.03821981 0.07081805 0.0518983 0.081511125
000310 c4 31 9e 3d d8 56 8a 3c 40 79 bd bc 76 89 fd bd
       0.07724336 0.016887113 -0.023129106 -0.12379734
000320 1e 2c df bd 46 a0 af 3d 78 1e e8 bc f0 85 07 3c
       -0.108970866 0.085754916 -0.028334841 0.008271679
000330 ec dd 06 be 18 c8 cb bd fb 6c a8 bd ce 30 de 3d
       -0.13170594 -0.09950274 -0.082239114 0.108491525
000340 ba 23 e6 3d ee 8a 2d bd c7 bd 8a bd 5a 0f d6 3d
       0.11237283 -0.04236882 -0.067744784 0.10452147
000350 9c e7 b0 3d 6a 6b b0 bd ee 35 e9 3d cc cb 6e 3d
       0.08637926 -0.086142376 0.113872394 0.058299825
000360 b0 04 64 3c 9e 79 8b bd bc 48 c7 3d c7 e8 ae bd
       0.013917133 -0.06810306 0.0973067 -0.085404925
000370 c0 23 ed bb 51 30 d9 bd 89 e0 14 be bf b2 8e bd
       -0.0072369277 -0.10604919 -0.14538778 -0.06967687
000380 f6 02 59 bd 80 a6 76 3d b8 df b5 3d cb b6 01 be
       -0.05298134 0.06021738 0.088805616 -0.12667386
000390 ae 31 ae 3d 0e 8e db bd af 97 0e 3e 7f d9 c1 bd
       0.085055694 -0.10720454 0.1392505 -0.09465312
0003a0 c4 17 0b 3d b0 d2 3f 3d 9e 9d 07 bd 7d 93 a8 bd
       0.03395821 0.046831787 -0.0331093 -0.08231256
0003b0 0d e5 0d 3e f1 48 17 3e 51 c9 04 3e a2 c7 58 bd
       0.13856907 0.14773919 0.12967421 -0.05292476
0003c0 80 5d 50 3c f2 1b b8 bd 00 c3 0f ba af 37 ec bd
       0.012717605 -0.08989705 -0.00054840744 -0.11534058
0003d0 b8 bf 48 bd 18 d3 65 3d 28 46 bc bd 16 5e b3 bd
       -0.049010962 0.056109518 -0.09193069 -0.0875818
0003e0 1a 8b e0 3d b0 f3 57 bd 14 c3 8e bd f6 a7 8f 3d
       0.109640315 -0.052722633 -0.06970802 0.07014458
0003f0 4a ee e3 bd 0a e6 04 bd 80 d1 02 3b 9a 9d f4 3d
       -0.111294344 -0.032445945 0.0019961298 0.119441226
