Ni_prediction/savemodel/bst_mod_276.pth (torch_old, 533443 bytes, 44 tensors)

price_encoder.attention.weight f4 [1, 121]
000000 46 ff 7d 40 65 10 80 40 82 a0 7a 40 0f 45 80 c0
       3.9687057 4.0020013 3.9160466 -4.00843
000010 0f 2b 76 c0 6e 5d 76 40 e7 a8 7d 40 73 9f 76 c0
       -3.846378 3.8494525 3.963434 -3.853482
000020 95 96 7c 40 a4 87 7a 40 f8 0d 7a 40 ff cd 7e 40
       3.9466908 3.9145288 3.9071026 3.981323
000030 68 54 77 c0 84 3a 7b c0 72 8d 7b c0 84 05 78 40
       -3.8645267 -3.9254465 -3.9305081 3.8753366
000040 ac 31 76 40 69 3f 78 c0 26 84 73 40 20 84 7c 40
       3.8467817 -3.8788702 3.8049407 3.9455643
000050 a3 a4 73 40 20 5f 7b 40 0a 99 7e 40 1e f6 7d c0
       3.8069236 3.927681 3.9780908 -3.9681468
000060 7c fa 7d c0 51 18 7a 40 4b 7b 77 c0 a6 94 7e c0
       -3.9684134 3.9077342 -3.8669002 -3.9778228
000070 86 41 7d c0 eb a9 78 c0 f7 b0 7d 40 d1 f1 79 c0
       -3.9571242 -3.885371 3.963926 -3.9053843
000080 be d5 7a 40 88 4f 80 40 ab d8 76 40 d0 97 7a 40
       3.9192958 4.0097084 3.8569744 3.915516
000090 f6 1d 7e c0 e8 72 7e 40 f7 f3 7b 40 27 35 7e c0
       -3.9705787 3.9757633 3.9367654 -3.9719942
0000a0 e7 71 7b 40 5b 64 80 40 78 cc 78 40 e7 33 7e 40
       3.928827 4.0122504 3.8874798 3.9719179
0000b0 02 46 7a 40 9e 4d 7e 40 b9 48 7e 40 15 5e 7e 40
       3.910523 3.9734874 3.9731886 3.9744923
0000c0 63 42 80 40 3f 0f 7a 40 b4 b2 77 40 5a 61 79 40
       4.008104 3.9071805 3.8702822 3.8965669
0000d0 93 27 7e 40 ae bb 79 40 6b 98 75 40 3a b3 7b 40
       3.9711654 3.90208 3.8374279 3.9328141
0000e0 f9 0e 7d 40 cc f5 7f c0 22 96 7b c0 a2 97 80 40
       3.9540389 -3.9993773 -3.9310384 4.01851
0000f0 cc 9d 77 40 ba 28 7f c0 45 ed 7c c0 f4 b1 75 c0
       3.8690062 -3.9868608 -3.9519818 -3.8389864
000100 cb 2c 80 c0 e4 89 7f 40 c5 2e 7b 40 22 cc 78 40
       -4.005468 3.9927912 3.9247296 3.8874593
000110 ab 9a 77 40 e9 bd 7a c0 63 b9 79 c0 91 07 7c 40
       3.8688152 -3.9178412 -3.90194 3.9379618
000120 fe c7 7c 40 57 37 77 40 00 8c 77 c0 2c 3f 76 40
       3.9497066 3.8627527 -3.86792 3.8476057
000130 62 88 77 c0 3f 11 3f 40 b9 55 7f 40 39 35 7d 40
       -3.8676991 2.9854276 3.989607 3.9563735
000140 70 b6 76 c0 1c 65 77 c0 ea b4 7b 40 62 53 79 40
       -3.854885 -3.8655462 3.932917 3.8957143
000150 ad bc 7f 40 c0 44 80 c0 4a 15 76 c0 62 64 80 c0
       3.9958909 -4.0083923 -3.8450494 -4.0122538
000160 fe fb 7e 40 47 7a 7e 40 f3 3d 80 40 cb 06 80 40
       3.9841304 3.9762132 4.007562 4.000829
000170 a6 2c 79 40 a2 09 7f 40 4e 46 78 c0 04 57 80 c0
       3.8933501 3.984963 -3.879291 -4.010622
000180 a4 54 78 c0 80 9e 7c 40 30 b8 7d c0 17 84 74 40
       -3.880166 3.947174 -3.964367 3.8205621
000190 38 a1 78 40 9a 76 79 40 5c 48 7b 40 86 92 7f 40
       3.88484 3.8978639 3.9262915 3.993318
0001a0 06 0f 7e 40 fa 09 78 40 fe fd 75 40 e0 3c 7e 40
       3.969667 3.875609 3.8436275 3.9724655
0001b0 60 a5 7e 40 64 3a 7b 40 6e d7 75 40 9c 82 7b 40
       3.9788437 3.925439 3.8412738 3.9298468
0001c0 66 6d 75 40 b8 bf 7c 40 f6 d4 7f 40 ec ec 75 40
       3.8348022 3.9492016 3.997373 3.8425856
0001d0 7a 67 79 40 5e f1 78 40 58 d6 7e 40 71 4b 7c 40
       3.8969407 3.889732 3.9818325 3.9421046
0001e0 ca 44 7e 40
       3.9729486

price_encoder.encoder.weight_ih_l0 f4 [180, 45]
000000 1c 78 ce bd 32 86 f1 bd 18 32 03 3d 20 05 a9 3d
       -0.10081503 -0.11793174 0.032030195 0.08252931
000010 e6 7b 63 bd a2 b0 d5 3d 80 09 a1 3d 0a ef f9 bd
       -0.05553808 0.10434081 0.0786314 -0.12203796
000020 b7 40 d4 bd 40 15 43 bc 73 f8 e1 bd ce ef 6c bd
       -0.10363906 -0.011906922 -0.11033716 -0.057845883
000030 bc da d9 bc d8 40 fb 3c be b2 f7 bd 70 ab 76 3c
       -0.026593558 0.030670568 -0.12094639 0.015055522
000040 fc 9a 50 3d 08 40 aa bd 68 61 b9 3d e6 b1 eb 3d
       0.050929055 -0.08312994 0.09051782 0.11508541
000050 35 aa d8 3d 65 66 8c 3d 74 88 da bd d1 6a 74 c0
       0.105793394 0.06855468 -0.106705576 -3.8190196
000060 d7 78 14 be a5 f2 17 be 6b 3d f9 bd 5b a3 03 3e
       -0.14499222 -0.14838655 -0.12169918 0.12855284
000070 53 4b 08 3e 38 9a 14 3d 0b 55 07 be e0 f9 fc bb
       0.13309984 0.036279887 -0.13216035 -0.007720217
000080 b6 f8 ef 3d 55 99 70 40 3b 41 78 40 bd 5d 79 40
       0.1171736 3.7593586 3.8789814 3.8963463
000090 10 6d 7a 40 b4 b7 7a 40 a5 4f 96 be 6e 56 77 40
       3.9129066 3.9174623 -0.2935764 3.8646502
0000a0 a2 5a 82 40 a9 12 80 40 7e 30 77 40 88 ba c6 3c
       4.0735636 4.002278 3.8623347 0.024258867
0000b0 d6 bd fe bd 20 36 00 be ca 3d 8f 3d 75 1a e2 3d
       -0.12438552 -0.12520647 0.06994207 0.110402025
0000c0 b2 02 37 3d f6 29 bc 3d 55 c4 fc 3d 6c 84 8d bd
       0.044680305 0.09187691 0.12342135 -0.06910023
0000d0 ff 18 b0 3d 51 b1 78 3d 70 6e 00 3d 88 ee bb 3d
       0.085985176 0.060715977 0.03135532 0.091763556
0000e0 50 f7 a8 bc fa fc 8a 3d 1f b8 04 3e 60 dc 45 3c
       -0.02062574 0.06786533 0.12960862 0.012076467
0000f0 a3 25 11 be c7 37 09 be 60 f9 9e 3b 28 8a 06 bd
       -0.14174514 -0.13400184 0.004851505 -0.0328466
000100 a9 bb cb 3d 85 57 be 3f 66 d6 d2 3c dd 59 a0 bd
       0.09947903 1.4870459 0.025736999 -0.0782964
000110 cc 41 72 40 77 e7 f6 bd cb 93 13 be 7a 37 f7 3d
       3.785266 -0.12055867 -0.14411847 0.12071128
000120 3e af 3a bd e4 b9 11 be 40 3b 4c bb 8a a9 32 bd
       -0.04557728 -0.14231068 -0.0031163245 -0.043618716
000130 57 54 0e 3e 21 bb c0 bd 8a fc 75 40 cc 2a 73 40
       0.1389936 -0.09410692 3.8435388 3.799487
000140 27 a5 79 40 ac ad 76 40 76 de 81 40 03 5a 07 be
       3.900705 3.85435 4.058406 -0.1321793
000150 d6 53 77 40 b5 2a 75 40 0e 15 76 40 af 2f 80 40
       3.864492 3.8307316 3.845035 4.0058208
000160 10 3a 24 3d 70 7b 34 3d 4d e2 d7 3d a5 c7 de bb
       0.040094435 0.04406303 0.1054121 -0.006798702
000170 5c a0 f0 bd 81 b5 e0 bd 28 98 e7 3c d7 8a 4b 3d
       -0.11749336 -0.10972119 0.028270796 0.049692955
000180 20 6b 85 3d 76 f2 87 3d a4 a8 e3 bc 8e 92 ab bd
       0.06514573 0.06638043 -0.027790375 -0.083775625
000190 c6 1e 06 be 30 2e a1 3c 9e 79 4b bd a0 06 cf bd
       -0.13097677 0.019675344 -0.04967653 -0.101086855
0001a0 60 f5 ba 3b 58 c1 88 3c 42 1f c2 3d 84 a8 c7 bd
       0.0057055205 0.016693756 0.09478618 -0.09748939
0001b0 10 61 6c 3c 4e ba a9 bd 94 32 b2 3f 9c 5d 94 bc
       0.014427438 -0.08287488 1.3921685 -0.018111043
0001c0 0f dc ab bd 67 84 78 40 24 95 5c bd 00 d2 26 3d
       -0.08391582 3.8830812 -0.05385317 0.040727615
0001d0 7e 00 35 bd 35 5c 40 3c f7 17 cf bd 33 6e 10 3e
       -0.044189923 0.011740734 -0.10111993 0.14104538
0001e0 42 4c df bd df 28 10 3e bc 1f 0e be 5e 23 81 40
       -0.10903217 0.14078091 -0.13879293 4.0355673
0001f0 20 18 73 40 40 64 79 40 4a 98 7d 40 f8 76 80 40
       3.7983475 3.8967438 3.96242 4.0145226
000200 be f0 78 c0 c4 90 78 40 79 16 80 40 d0 72 73 40
       -3.8896937 3.8838358 4.0027432 3.8038826
000210 82 e7 77 40 94 d1 6f 3d 1d bc 80 bd c2 4b c7 3d
       3.873505 0.05854948 -0.0628588 0.097312465
000220 46 b9 5e bd 8e 17 05 be c0 d9 ae bc 30 76 20 bd
       -0.05437591 -0.12997267 -0.021344066 -0.039175212
000230 30 81 ed 3d fa 74 f7 3d 7c fd c1 3d ca fd 8c bb
       0.11596906 0.120828584 0.094721764 -0.004302715
000240 18 b5 a1 3d 02 a1 e6 3d b6 fa ec 3d f0 ba c9 3d
       0.07895869 0.112611786 0.11571257 0.098501086
000250 39 b0 72 c0 5c ea 11 3d 4c 36 7c 3d b6 da 15 bd
       -3.7920058 0.035623893 0.06157522 -0.036585532
000260 a0 5c 17 bc e4 18 cb 3f 5e 75 33 3d 10 5d 84 be
       -0.009238392 1.5866971 0.043813102 -0.2585225
000270 b6 c2 81 bc 56 b9 71 3d 39 02 7b c0 8c da 46 3d
       -0.015839916 0.05901464 -3.9220107 0.048548266
000280 0d e6 14 3e 40 b8 83 bd 32 30 b6 bd 88 c6 7c c0
       0.14540882 -0.06431627 -0.08895911 -3.9496174
000290 78 23 af 3d aa 78 c7 3d 69 e2 4d c0 34 32 b9 bd
       0.08551687 0.09739812 -3.216944 -0.090427786
0002a0 b4 85 81 c0 9c 23 80 c0 52 98 75 c0 c8 a1 76 c0
       -4.047571 -4.004347 -3.837422 -3.8536243
0002b0 ae e0 7f c0 7a e8 c6 bd f6 10 77 c0 7e 75 7b c0
       -3.9980884 -0.0971231 -3.8604102 -3.9290462
0002c0 a4 9c 75 c0 92 22 76 c0 f2 2d a1 3d e8 6d 17 3d
       -3.8376856 -3.84586 0.078700915 0.03697005
0002d0 1a 36 b0 bd b8 62 ac bc 66 59 ac 3d 21 0c 0d 3e
       -0.08604069 -0.021043167 0.08415489 0.13774158
0002e0 3c 14 b1 3d 7c 27 13 3e 9e 4c 0d be ac fe 12 be
       0.086464375 0.14370531 -0.13798758 -0.14354962
0002f0 9e 6c b4 bd 64 97 55 bd 98 df 59 3d 23 d6 14 be
       -0.088097796 -0.05214633 0.05319175 -0.14534812
000300 32 9c d8 bd cf f1 a6 bd 80 5a ed bb 66 84 b2 3d
       -0.10576667 -0.0815159 -0.0072434545 0.08716659
000310 24 b1 08 bd fc dc b8 bd 68 32 1d 3d 4a 90 b2 bd
       -0.03337206 -0.090265244 0.03837815 -0.08718927
000320 5e 53 5b bc 62 e2 b2 3d da 82 32 3d 7a 7b 79 c0
       -0.0133865755 0.08734585 0.04358182 -3.8981614
000330 b2 49 cd 3d 81 c7 10 3e 6c f5 99 3d 50 da df 3c
       0.10023822 0.14138605 0.07517514 0.02732578
000340 7d 28 03 3e ca 30 fa 3d 48 42 5d 3d 00 28 8c bc
       0.12808414 0.12216337 0.05401829 -0.017108917
000350 7b d8 d6 bd a8 36 73 c0 d8 cb 80 c0 58 cf 81 c0
       -0.10490509 -3.800211 -4.0248833 -4.0565605
000360 34 8a 77 c0 32 af 7b c0 e0 49 b1 bb a4 22 7a c0
       -3.8678102 -3.932568 -0.005410418 -3.9083643
000370 70 3d 74 c0 b4 ed 71 c0 9a 81 7f c0 24 27 a3 bd
       -3.8162498 -3.7801332 -3.9922853 -0.0796645
000380 70 ee 3a bc 36 98 8a bc 7c 26 86 3d d0 b9 74 3c
       -0.011409387 -0.016918283 0.06550309 0.014936879
000390 f8 c4 1c bd 59 b5 01 3e 6f 38 16 3e 4e d3 ca ba
       -0.03827378 0.12666835 0.14669965 -0.0015474351
0003a0 df 5d 18 3e 7c ed 81 3d be af e7 3d 70 b8 06 be
       0.14879559 0.06344125 0.11312817 -0.13156295
0003b0 60 d3 bb 3d 73 1d bb bd f5 ed 75 40 70 5b 0f 3c
       0.09171176 -0.09136476 3.8426487 0.008749828
0003c0 00 ab f8 3a 74 59 1f 3d e8 1f d2 3c fa b1 d3 bd
       0.001897186 0.03890367 0.02564998 -0.10336681
0003d0 2c 24 9f 3d 25 19 a7 bd dd ab 9d bd d1 7d 5f 39
       0.07770571 -0.08159093 -0.07698796 0.00021313808
0003e0 b3 77 82 c0 60 29 de 3c 95 2b ba bd 96 7b f2 3d
       -4.0771117 0.027119339 -0.09090344 0.118399784
0003f0 d6 6e 1f bd d7 ba 7b 40 52 2a 83 3d a1 a5 0a 3e
       -0.03892406 3.9332788 0.06404556 0.13539745

price_encoder.encoder.weight_hh_l0 f4 [180, 45]
000000 03 58 81 40 58 ec 7c 40 fa 24 74 40 a4 37 74 c0
       4.0419936 3.9519253 3.8147569 -3.815896
000010 3c d9 7a 40 42 4f 77 40 04 2a 7a 40 b0 71 81 c0
       3.919509 3.8642125 3.9088144 -4.045128
000020 d2 59 7a c0 81 d2 76 c0 05 94 80 c0 01 98 7f 40
       -3.9117322 -3.8565981 -4.018069 3.9936526
000030 ce 79 77 c0 a5 7a 7b c0 b0 55 76 40 ae f4 81 c0
       -3.8668094 -3.9293606 3.84898 -4.061118
000040 7f 78 75 40 57 86 7d c0 c6 6f 72 40 6a b1 81 c0
       3.8354795 -3.9613245 3.788072 -4.052907
000050 12 9a 72 40 fe 10 7a 40 28 a0 73 40 5a 0f 76 40
       3.7906537 3.9072871 3.8066502 3.844687
000060 dd 97 79 c0 a6 09 72 c0 6a 3e 74 c0 48 b8 77 40
       -3.899894 -3.781839 -3.8163095 3.8706226
000070 eb 68 72 c0 64 d4 77 c0 6c 3d 75 40 25 2c 7c c0
       -3.7876537 -3.8723383 3.831874 -3.9401944
000080 c0 3c 7a 40 da 15 7c 40 0a 6f 7a 40 ee 44 72 c0
       3.909958 3.9388337 3.9130273 -3.7854571
000090 1b 9c 78 c0 d0 e5 7d 40 5d 19 76 40 80 77 82 40
       -3.884528 3.9671516 3.845298 4.0770874
0000a0 21 d0 80 40 97 3e 77 40 84 03 7e c0 d8 e0 81 40
       4.0254064 3.8631952 -3.9689646 4.0586967
0000b0 96 ab 80 c0 44 72 81 c0 b6 fc 7e c0 ef 4e 7b c0
       -4.0209455 -4.0451984 -3.9841743 -3.9266927
0000c0 5c 62 7e 40 66 c8 75 c0 79 9a 80 c0 e8 82 74 c0
       3.9747534 -3.8403563 -4.0188565 -3.82049
0000d0 c4 3c 80 c0 f4 ef 77 40 60 54 7f c0 d8 5a 76 40
       -4.0074177 3.8740206 -3.9895248 3.8492947
0000e0 78 4d 82 c0 b0 0c 73 40 a0 9f 77 40 d1 fe 7b c0
       -4.0719566 3.7976494 3.8691177 -3.9374278
0000f0 52 7c 81 40 6e 0d 78 c0 9a d5 72 40 56 db 75 c0
       4.046426 -3.8758197 3.7942872 -3.8415122
000100 95 61 7b 40 2c 83 75 40 11 74 80 c0 99 7a 75 c0
       3.927831 3.836131 -4.0141683 -3.8356078
000110 40 ac 7c c0 7f a0 81 40 e2 9f 7f 40 1c e8 75 40
       -3.9480133 4.050842 3.9941335 3.8422918
000120 c0 81 78 c0 c4 6b 72 40 e3 26 7e 40 f8 de 81 c0
       -3.8829193 3.7878275 3.9711235 -4.058468
000130 3a c3 7e 40 b8 83 7c c0 5a c2 7e c0 00 52 75 c0
       3.9806657 -3.9455395 -3.9806123 -3.83313
000140 08 bf 73 40 53 21 7a 40 28 7f 80 c0 ac cb 73 c0
       3.8085346 3.908284 -4.015522 -3.8093061
000150 58 32 80 c0 70 6b 7b c0 d6 ed 78 c0 44 e6 7e 40
       -4.0061455 -3.9284325 -3.8895164 3.9828043
000160 50 c2 75 c0 31 2c 76 40 f4 27 77 c0 09 51 7f c0
       -3.839985 3.8464472 -3.8618135 -3.989321
000170 90 b6 81 c0 82 80 7c 40 9a 0f 74 c0 fc 95 7c c0
       -4.0535355 3.9453435 -3.8134522 -3.9466543
000180 66 c9 72 c0 38 56 78 c0 40 7e 7d 40 9d 61 79 c0
       -3.7935424 -3.8802624 3.9608307 -3.8965828
000190 b8 25 82 40 36 cc 78 c0 c2 67 81 40 a2 c0 7e 40
       4.0671043 -3.887464 4.0439157 3.9805074
0001a0 32 97 74 c0 7e a7 73 40 04 68 80 c0 90 4b 81 40
       -3.8217282 3.807098 -4.012697 4.040474
0001b0 26 4d 82 c0 49 98 7e c0 72 17 75 40 9a 67 77 c0
       -4.0719175 -3.9780447 3.829556 -3.8656983
0001c0 e6 87 7f c0 6a b1 7d c0 1c b7 77 40 57 f7 7b 40
       -3.9926696 -3.9639535 3.870551 3.9369714
0001d0 ee b5 78 40 b8 f9 80 c0 fc 2c 74 40 1c 40 82 40
       3.886104 -4.0304832 3.8152456 4.070326
0001e0 33 83 77 c0 ac 20 76 40 8a 2b 73 c0 ce 72 7d c0
       -3.8673828 3.8457441 -3.7995324 -3.9601321
0001f0 24 65 7f c0 82 f8 7f 40 b9 68 75 40 0a 5e 72 c0
       -3.9905481 3.9995427 3.8345168 -3.7869897
000200 5b 47 75 c0 c0 74 74 c0 80 cf 72 c0 bf b8 79 c0
       -3.8324802 -3.8196259 -3.7939148 -3.901901
000210 88 17 7b 40 62 e3 78 c0 9a 09 7e 40 af d3 80 40
       3.9233112 -3.8888783 3.969336 4.0258403
000220 f4 d0 78 40 46 c9 7f 40 b7 93 7d c0 cf 65 7e 40
       3.8877535 3.9966598 -3.9621408 3.974964
000230 46 66 74 40 3a c6 76 40 22 be 74 40 fc 17 78 c0
       3.8187423 3.8558488 3.8241048 -3.876464
000240 d9 46 80 40 90 97 75 c0 ae 1b 75 40 cc 1f 7e 40
       4.0086484 -3.8373756 3.8298144 3.9706907
000250 f0 1d 78 c0 b1 36 80 40 fe e5 7b c0 46 7d 74 40
       -3.8768272 4.006676 -3.9359126 3.820146
000260 72 89 7b c0 fc 22 7d 40 a8 e5 7d 40 2c f5 7a c0
       -3.930264 3.9552603 3.967142 -3.921214
000270 26 01 77 40 75 a7 80 40 aa 30 7d 40 7c c0 72 c0
       3.859445 4.0204415 3.9560952 -3.7929983
000280 7e f8 78 c0 8f db 79 40 9a a0 75 40 f2 e3 81 c0
       -3.8901668 3.9040258 3.8379273 -4.0590754
000290 55 9e 81 c0 e1 2a 80 40 be 1a 78 c0 b4 65 76 40
       -4.0505776 4.0052342 -3.8766322 3.8499575
0002a0 d5 eb 81 40 42 57 82 40 e4 2f 81 c0 05 a5 75 c0
       4.060038 4.0731516 -4.037096 -3.838197
0002b0 bf 88 7c 40 bf e7 76 40 16 43 77 40 3e 58 80 40
       3.9458463 3.8578947 3.8634696 4.0107718
0002c0 0c 70 74 40 1b 1a 82 c0 fe 2b 75 40 1f 6d 7b c0
       3.8193388 -4.0656867 3.83081 -3.9285352
0002d0 c3 fc 72 40 15 19 77 40 68 c9 81 40 d6 f3 7f c0
       3.7966774 3.860906 4.0558357 -3.9992576
0002e0 b4 4b 72 40 d2 46 76 40 be 65 82 40 0f 28 81 40
       3.7858706 3.8480725 4.0749197 4.03614
0002f0 da e5 80 c0 22 f5 7f 40 24 50 7d c0 17 2a 7b 40
       -4.028058 3.9993367 -3.9580164 3.924444
000300 aa 79 7d c0 ca 51 75 c0 22 91 73 40 40 bb 74 c0
       -3.9605508 -3.833117 3.8057332 -3.8239288
000310 76 90 79 40 a0 2a 74 c0 aa 88 74 40 4f 65 80 40
       3.8994422 -3.8151016 3.8208413 4.012367
000320 2a 02 73 c0 b1 dc 72 40 ec 5a 79 40 20 f3 81 40
       -3.797007 3.79472 3.8961744 4.0609283
000330 a8 f2 79 c0 da da 77 c0 6c e2 7d 40 07 67 7f 40
       -3.9054356 -3.8727326 3.9669447 3.9906633
000340 66 04 79 c0 0e 12 73 c0 ca 06 76 40 c6 5b 81 c0
       -3.8908935 -3.797977 3.8441644 -4.042453
000350 3a ac 7c 40 ce 4c 82 40 4c 1a 81 40 e3 1a 75 c0
       3.9480119 4.0718756 4.03446 -3.829766
000360 b2 0b 7a c0 53 a0 74 40 f0 6e 80 40 41 45 7e 40
       -3.9069638 3.8222854 4.013542 3.972977
000370 bc 26 78 40 8f 83 7f 40 00 f3 79 c0 36 49 74 40
       3.8773642 3.9924047 -3.9054565 3.8169684
000380 07 98 73 c0 c8 37 78 40 c8 e8 7d 40 93 5b 80 40
       -3.806154 3.8784046 3.9673328 4.0111785
000390 d8 8e 81 c0 f8 9f 80 40 c1 ca 73 40 81 aa 77 40
       -4.048687 4.0195274 3.80925 3.8697817
0003a0 dc 66 81 40 62 71 78 c0 78 53 82 40 d8 5a 79 c0
       4.043806 -3.8819203 4.072689 -3.8961697
0003b0 4c 01 75 40 6a 9b 72 c0 8f 22 79 c0 36 30 78 40
       3.8282042 -3.7907357 -3.8927343 3.8779426
0003c0 56 13 7e c0 b9 6a 81 40 e6 17 81 c0 6e 1c 7d 40
       -3.9699302 4.0442777 -4.0341673 3.9548602
0003d0 b1 88 81 40 a2 41 75 c0 16 4e 78 40 98 25 73 40
       4.047936 -3.832131 3.879766 3.7991695
0003e0 f0 93 72 40 fe ee 7b c0 43 11 7d c0 23 f2 71 40
       3.7902794 -3.936462 -3.9541786 3.7804039
0003f0 8c 61 81 40 2f 75 76 c0 0a cf 81 c0 90 4e 7a 40
       4.0431576 -3.8509023 -4.0565233 3.911045

price_encoder.encoder.bias_ih_l0 f4 [180]
000000 ee ea 7e c0 f8 ab 81 40 7f f7 78 40 f0 a3 76 c0
       -3.983089 4.0522423 3.890106 -3.853756
000010 1f 21 81 c0 ec 7f 78 c0 43 61 80 40 4f 76 79 c0
       -4.035293 -3.8828077 4.011873 -3.897846
000020 1b cb 80 40 7e e7 7f c0 01 7c 77 c0 38 f1 7c c0
       4.024793 -3.9985042 -3.8669436 -3.9522228
000030 a0 fd 81 c0 4b 00 7c 40 62 c0 76 40 82 bd 81 40
       -4.06221 3.937518 3.855492 4.0543833
000040 dc da 7f c0 a6 65 75 40 80 71 80 c0 f0 3e 82 c0
       -3.997733 3.8343291 -4.013855 -4.070183
000050 b8 99 7d c0 68 2a 72 c0 27 c8 7b c0 ca 9c 79 40
       -3.9625072 -3.7838383 -3.9340913 3.9001946
000060 90 03 80 c0 d0 1f 7c c0 fe 37 75 c0 02 bb 79 40
       -4.000435 -3.9394417 -3.8315425 3.902039
000070 7f 6f 7e c0 95 47 79 40 07 54 75 40 3b 20 82 c0
       -3.9755552 3.894994 3.8332536 -4.0664344
000080 01 81 81 40 58 f1 7f c0 ec 32 76 c0 d7 d4 78 40
       4.0469975 -3.9991055 -3.846858 3.8879907
000090 3c 8b 78 c0 8a 7f 82 c0 c6 c8 72 c0 1e c7 7e 40
       -3.8834982 -4.0780687 -3.7935042 3.9809031
0000a0 22 cf 75 40 41 c4 6e 40 94 7b 81 c0 d6 bd 78 40
       3.8407674 3.7307284 -4.046335 3.8865867
0000b0 3f da 79 40 e1 5e 74 c0 91 f2 81 40 f4 01 79 40
       3.9039457 -3.818291 4.06086 3.8907442
0000c0 b3 5d 80 c0 ec 09 77 c0 3a 9d 81 c0 c6 0b 81 40
       -4.011438 -3.8599806 -4.0504427 4.032687
0000d0 88 61 7c c0 f3 67 7d 40 c4 2b 75 40 eb 6a 81 c0
       -3.9434528 3.9594696 3.8307962 -4.0443015
0000e0 2c 6d 75 c0 5c 6b 77 c0 a2 d3 7c 40 a8 02 77 40
       -3.8347883 -3.8659277 3.950417 3.8595371
0000f0 94 d8 7a 40 c0 67 7b c0 10 3d 80 40 f2 5b 7a 40
       3.9194689 -3.9282074 4.007454 3.911862
000100 82 9a 80 c0 bf 54 7e c0 d3 c6 7a c0 d4 8e 74 c0
       -4.018861 -3.9739225 -3.9183853 -3.8212175
000110 56 bf 76 40 b4 40 7f c0 46 6a 72 c0 36 52 73 c0
       3.8554282 -3.9883242 -3.7877364 -3.8018928
000120 f5 f6 7c 40 c0 96 80 c0 22 97 79 40 ae 9d 72 40
       3.952573 -4.018402 3.8998494 3.790874
000130 ca 7d 7c c0 34 41 75 40 4c 8e 7c c0 0e 78 7f c0
       -3.9451776 3.8321047 -3.946185 -3.9917026
000140 52 99 78 40 c1 c0 80 c0 bd 4d 80 c0 22 94 77 c0
       3.884358 -4.0235295 -4.0094895 -3.8684163
000150 25 34 7f 40 c4 22 7d 40 82 d0 79 c0 8e 52 78 c0
       3.9875576 3.955247 -3.9033513 -3.8800387
000160 d2 45 7d 40 fa 15 7d 40 97 82 72 40 20 91 80 c0
       3.9573865 3.9544663 3.7892206 -4.0177155
000170 bc cf 76 c0 40 73 82 c0 88 ee 72 40 70 70 7c 40
       -3.856429 -4.0765686 3.7958088 3.9443626
000180 50 f0 7e c0 c8 fb 79 40 d2 e2 76 40 9e 55 74 c0
       -3.9834175 3.9059925 3.857594 -3.8177257
000190 d0 45 72 c0 b0 dd 7d 40 d8 04 7a 40 ce 39 76 40
       -3.785511 3.9666557 3.9065456 3.847278
0001a0 9d 73 7f c0 7e 0d 76 40 b4 70 7f 40 04 48 81 40
       -3.9914315 3.8445735 3.9912539 4.040041
0001b0 6e 11 77 40 ed 5e 80 40 f0 5d 81 c0 d3 0f 75 40
       3.8604388 4.0115876 -4.042717 3.8290908
0001c0 c1 b1 7d 40 5b df 74 c0 37 9f 72 c0 d4 a6 77 c0
       3.9639742 -3.8261325 -3.7909677 -3.8695574
0001d0 e4 5c 82 40 fe 36 72 c0 e2 ef 73 c0 a6 95 80 40
       4.073839 -3.7846065 -3.8115163 4.0182676
0001e0 b4 c8 7a c0 f2 6d 7f c0 d5 35 80 c0 7c 54 77 40
       -3.9185 -3.9910855 -4.0065713 3.8645315
0001f0 08 02 81 40 90 fb 78 40 bc 1f 81 c0 3b 39 7e 40
       4.031498 3.8903542 -4.035124 3.972243
000200 51 45 78 40 f8 e2 79 c0 ba a2 7f c0 ba 2b 81 40
       3.8792307 -3.904478 -3.994307 4.0365877
000210 98 2e 7b c0 4c 62 7b c0 67 11 80 40 84 da 75 c0
       -3.9247189 -3.9278746 4.0021243 -3.8414621
000220 9d c0 7c 40 30 49 73 40 a6 fb 7f c0 c5 1f 82 c0
       3.9492562 3.801342 -3.9997344 -4.066378
000230 ad 1e 82 c0 7a 29 74 40 b7 b0 7a c0 12 8e 81 40
       -4.0662446 3.8150315 -3.9170358 4.0485926
000240 4e dc 74 c0 04 35 82 c0 40 e4 73 c0 71 d4 79 c0
       -3.8259463 -4.0689716 -3.8108063 -3.9035914
000250 63 5b 80 40 08 30 7e 40 a2 6d 74 40 69 ec 72 c0
       4.0111556 3.9716816 3.8191915 -3.7956793
000260 8c be 81 40 ed 15 80 c0 ae 17 80 c0 31 93 80 c0
       4.05451 -4.0026765 -4.0028906 -4.0179677
000270 18 7c 76 c0 05 16 81 c0 ce 16 78 40 cd 72 7e c0
       -3.851324 -4.033938 3.876392 -3.975757
000280 00 e9 78 c0 46 2d 75 c0 7a 17 7a 40 96 61 73 c0
       -3.8892212 -3.8308883 3.907683 -3.8028312
000290 90 09 75 40 39 84 78 40 ce f6 7a c0 f6 47 74 40
       3.8287086 3.8830702 -3.9213138 3.8168921
0002a0 3d 92 72 c0 6a 43 73 c0 0c 92 81 40 ea 88 80 c0
       -3.7901757 -3.8009896 4.049078 -4.016713
0002b0 d2 a0 75 c0 ff 9a 7b c0 66 c4 76 40 5e 3d 76 40
       -3.8379407 -3.9313352 3.8557372 3.8474956
0002c0 3e 33 80 c0 2c 10 7d c0 47 17 7a 40 df 4d 82 40
       -4.006255 -3.954112 3.9076707 4.0720057

price_encoder.encoder.bias_hh_l0 f4 [180]
000000 66 89 75 c0 34 45 82 40 f0 75 81 40 7a 92 73 c0
       -3.8365111 4.0709476 4.0456467 -3.8058152
000010 5c 03 80 c0 f0 0e 7a c0 ed bc 72 40 32 a5 81 c0
       -4.00041 -3.9071617 3.792781 -4.0514154
000020 45 95 79 40 c4 51 77 c0 95 69 78 c0 6a f3 73 c0
       3.8997357 -3.8643656 -3.8814442 -3.8117318
000030 db 63 79 c0 51 28 78 40 38 47 80 40 b2 29 74 40
       -3.8967197 3.8774607 4.0086937 3.8150449
000040 1e e1 80 c0 a4 a5 76 40 a6 1c 7f c0 38 65 73 c0
       -4.02748 3.85386 -3.9861236 -3.803053
000050 88 8c 80 c0 64 58 7d c0 27 a1 79 c0 5c 61 7a 40
       -4.0171547 -3.95852 -3.900461 3.9121923
000060 7e fe 7d c0 64 80 7c c0 92 2b 7b c0 f8 10 73 40
       -3.968658 -3.9453363 -3.9245343 3.7979107
000070 25 cd 79 c0 89 03 7d 40 51 e5 76 40 3f 9c 81 c0
       -3.903146 3.9533408 3.8577464 -4.050323
000080 d2 26 81 40 58 b2 7a c0 f5 72 80 c0 7f c8 7c 40
       4.035989 -3.9171352 -4.014033 3.9497373
000090 5a 05 72 c0 9e 36 7a c0 e2 d1 77 c0 5c 5f 7f 40
       -3.7815766 -3.9095836 -3.8721852 3.9901953
0000a0 2e 8c 74 40 1b ad 71 40 0d 3c 7d c0 7e 2c 73 40
       3.821056 3.7761905 -3.9567902 3.7995906
0000b0 fb 5a 72 40 d5 42 80 c0 96 3a 72 40 46 41 73 40
       3.786803 -4.008158 3.7848258 3.800859
0000c0 19 2b 7c c0 34 14 7e c0 1e b4 7c c0 55 66 7d 40
       -3.9401305 -3.969983 -3.9484935 3.9593709
0000d0 22 81 79 c0 03 67 78 40 6c 53 74 40 53 6f 7b c0
       -3.8985066 3.8812873 3.8175917 -3.9286697
0000e0 16 94 7d c0 ea 8d 7c c0 d6 89 7c 40 ce 16 81 40
       -3.9621634 -3.9461617 3.9459128 4.034034
0000f0 66 71 75 40 5a 29 79 c0 fc 27 7b 40 48 af 80 40
       3.8350463 -3.893149 3.9243155 4.0213966
000100 30 8a 79 c0 e4 81 81 c0 9f aa 7e c0 98 97 7d c0
       -3.8990593 -4.047106 -3.979164 -3.9623775
000110 0e b0 76 40 8a 30 7e c0 22 b7 76 c0 ab 5f 82 c0
       3.8544955 -3.9717126 -3.8549275 -4.074178
000120 87 80 72 40 91 51 76 c0 40 09 7e 40 bf 92 80 40
       3.7890947 -3.8487284 3.9693146 4.0179133
000130 02 d8 79 c0 f2 b7 73 40 5c d7 78 c0 16 e1 72 c0
       -3.903809 3.8081021 -3.8881445 -3.7949882
000140 6e 77 74 40 d4 1b 80 c0 84 d2 7c c0 02 3c 7a c0
       3.8197894 -4.003397 -3.9503489 -3.9099126
000150 02 9e 81 40 e0 fc 7e 40 4c 49 80 c0 00 50 80 c0
       4.050538 3.9841843 -4.0089474 -4.0097656
000160 1c 2d 78 40 ab 0d 81 40 fb 44 7d 40 60 92 81 c0
       3.8777533 4.0329185 3.9573352 -4.049118
000170 8f 15 80 c0 34 0d 74 c0 da 16 7d 40 54 80 81 40
       -4.0026317 -3.8133059 3.9545197 4.046915
000180 fe 29 7a c0 2a aa 7e 40 32 0a 80 40 1e 2e 80 c0
       -3.908813 3.979136 4.0012445 -4.0056295
000190 ca 9d 80 c0 04 4f 75 40 14 40 7a 40 74 80 7c 40
       -4.0192614 3.8329477 3.910161 3.9453402
0001a0 ab 8a 7a c0 70 a0 74 40 92 71 74 40 de e7 80 40
       -3.9147136 3.8222923 3.8194318 4.028304
0001b0 8a 52 72 40 be 18 7e 40 96 9c 79 c0 15 e7 7a 40
       3.7862878 3.9702601 -3.9001822 3.9203541
0001c0 2f 6b 77 40 31 e2 76 c0 42 41 80 c0 98 46 76 c0
       3.865917 -3.8575556 -4.007966 -3.8480587
0001d0 22 40 74 40 6c 66 7d c0 7a 99 7a c0 a2 f0 7f 40
       3.8164144 -3.9593763 -3.9156175 3.999062
0001e0 9c 17 74 c0 ae 2f 73 c0 d4 d5 78 c0 e6 75 77 40
       -3.813941 -3.7997851 -3.888051 3.866571
0001f0 80 0b 75 40 36 ed 7b 40 96 30 7c c0 a7 5d 73 40
       3.828827 3.9363532 -3.9404655 3.802591
000200 d5 c2 72 40 20 f2 7c c0 ec 18 79 c0 cc 2c 80 40
       3.7931416 -3.9522781 -3.892146 4.0054684
000210 ba fd 7b c0 19 0c 81 c0 ae 54 80 40 52 1e 82 c0
       -3.9373612 -4.032727 4.010337 -4.066201
000220 34 44 80 40 ff 53 81 40 40 45 82 c0 e6 be 76 c0
       4.0083256 4.0415034 -4.0709534 -3.8554015
000230 a0 39 77 c0 8a ff 75 40 69 54 73 c0 7d 3b 80 40
       -3.8628922 3.8437219 -3.802027 4.0072618
000240 14 16 82 c0 2f e5 7d c0 aa 48 78 c0 8b cb 81 c0
       -4.065195 -3.9671133 -3.879435 -4.0560966
000250 1e 3d 73 40 3e e6 79 40 1e 0a 74 40 a7 a3 79 c0
       3.8006053 3.9046779 3.8131175 -3.9006135
000260 04 69 76 40 5a 51 7e c0 84 0d 74 c0 e7 a7 73 c0
       3.8501596 -3.9737153 -3.813325 -3.807123
000270 32 1c 74 c0 26 8b 78 c0 f8 0f 82 40 21 39 73 c0
       -3.814221 -3.883493 4.0644493 -3.8003619
000280 c2 7c 80 c0 48 d3 78 c0 be 18 7a 40 e1 c0 80 c0
       -4.015229 -3.8878956 3.9077601 -4.023545
000290 0e 7d 77 40 35 9c 79 40 36 1b 81 c0 56 95 7b 40
       3.8670077 3.9001591 -4.0345716 3.9309897
0002a0 82 00 80 c0 6c 9c 81 c0 61 3c 78 40 35 ff 74 c0
       -4.000062 -4.0503445 3.8786852 -3.8280766
0002b0 35 e5 81 c0 10 d6 81 c0 06 50 7f 40 c8 93 76 40
       -4.0592294 -4.0573807 3.9892592 3.8527699
0002c0 1c 67 7e c0 00 3e 80 c0 76 1c 80 40 33 6d 7c 40
       -3.9750433 -4.0075684 4.003474 3.944165

atten_layer.0.weight f4 [45, 135]
000000 c0 52 bc bb 40 cb d3 3b 10 c0 bf bc 58 49 8d bc
       -0.0057471693 0.0064634383 -0.023407012 -0.017246887
000010 67 17 ab 3d 36 22 4b 3d d9 b8 42 bd 3d 6c 05 bd
       0.08354073 0.049593173 -0.047539566 -0.032573927
000020 f6 50 52 3d 2b 99 a3 3d 5c cd c8 3c 1d 5d 97 3d
       0.05134674 0.07988199 0.024511985 0.07390807
000030 3c a7 90 bc 4e 36 5b 3d 80 fe 68 ba 8d ca 01 bd
       -0.017657869 0.053518586 -0.0008888021 -0.031687308
000040 14 e6 bf bc c4 5c dd 3c 8e 32 37 3d c0 81 32 3b
       -0.02342514 0.027021773 0.044725947 0.0027237982
000050 58 d2 8d bc fa 02 fc bc 80 87 31 bb 39 f2 af 3d
       -0.017312214 -0.030763138 -0.002708882 0.08591122
000060 f8 00 dc 3c ca 41 a9 bd f0 4b 9f bc 80 1b 05 3d
       0.02685593 -0.082645014 -0.01944539 0.03249693
000070 07 82 a8 bd 12 a7 63 3d 64 7b 6a bd 89 eb 90 bd
       -0.08227926 0.055579253 -0.05724658 -0.07076175
000080 6c 25 2f bd 20 a2 40 3b de 57 81 bd d0 87 d5 bb
       -0.042760298 0.002939351 -0.063155875 -0.0065164343
000090 b8 1c 79 bd 50 e5 3f bc 30 cc a8 bd 23 7b 07 bd
       -0.060818404 -0.011712387 -0.08242071 -0.033076417
0000a0 60 33 80 bb 19 d4 a5 3d b1 46 af bd 60 66 03 bc
       -0.0039123744 0.08097095 -0.08558405 -0.008020014
0000b0 00 c0 77 b8 23 39 9c bd 1f 54 3b bd de 2a 28 3d
       -5.9068203e-05 -0.076280855 -0.04573452 0.041056506
0000c0 a2 43 6a 3d 77 0b 85 3d 0b b3 9d 3d bd f9 a3 3d
       0.057193406 0.06496327 0.07700165 0.08006618
0000d0 f0 54 96 bc 86 4a 8a bd 39 e6 97 bd ea f6 2c bd
       -0.018351048 -0.067524955 -0.07416958 -0.042227663
0000e0 e0 49 4f bd 2c 1a e9 3c 59 0e 35 bd 6f 67 88 3d
       -0.050607562 0.028454863 -0.044203136 0.066603534
0000f0 9b 5c 38 bd 7b d2 8c 3d 12 c1 51 3d ef 27 96 3d
       -0.04501019 0.068760835 0.051209517 0.073318355
000100 3f 0c 94 bd a9 35 a5 3d 40 89 c3 ba eb 93 97 3d
       -0.07228898 0.080668755 -0.0014918223 0.0740126
000110 32 5d 42 3d 88 06 81 bd ea e3 91 bd 0b 99 ae 3d
       0.04745216 -0.06300074 -0.07123549 0.085252844
000120 78 ae b2 bc a0 fc 7b bc 80 9d ea ba 31 35 7e bd
       -0.021811709 -0.015380055 -0.0017899722 -0.062062446
000130 20 55 65 bc fe d8 28 3d e0 a0 6c bb 46 42 a3 bd
       -0.013997346 0.041222565 -0.003610663 -0.07971625
000140 08 85 1e 3d 69 81 84 3d ff 6e 0d bd 6b 21 90 bd
       0.038701087 0.064699955 -0.034529682 -0.07037624
000150 6f 9a 9b 3d f2 79 34 3d 79 1f 9a 3d 00 b4 10 3b
       0.07597815 0.04406161 0.07525534 0.0022079945
000160 1d 00 32 bd 5d 1f 9b 3d 70 e5 7e c0 11 00 8a c0
       -0.04345714 0.075743414 -3.9827538 -4.312508
000170 ba db 96 c0 ee 3f 7f c0 0b ac 7b 40 2f e7 7e c0
       -4.714322 -3.988277 3.9323757 -3.9828603
000180 30 87 80 c0 8b 26 97 40 ee ed 7a 40 2f b5 78 40
       -4.0165024 4.723455 3.920772 3.8860586
000190 f7 2d 7b c0 70 4d 74 c0 47 36 79 c0 07 20 7f 40
       -3.9246805 -3.8172264 -3.8939378 3.9863298
0001a0 da 1b 7d c0 0a ab 75 c0 fe 6b 79 c0 80 64 7b 40
       -3.954825 -3.8385644 -3.8972163 3.928009
0001b0 a6 54 7d 40 a6 d4 52 c0 c0 a0 8f c0 0b 59 98 40
       3.9582915 -3.294229 -4.488373 4.7608695
0001c0 5d c8 93 40 ee 15 55 40 e7 b1 80 c0 6a d4 48 40
       4.6182084 3.3294635 -4.0217166 3.1379647
0001d0 0e fc 8c 40 f0 34 7b 40 6e 84 96 c0 fa d7 96 40
       4.4057684 3.925106 -4.7036657 4.7138643
0001e0 9a 28 7b 40 ea 7a 7f c0 e4 a7 78 40 56 3e 7d c0
       3.9243531 -3.991877 3.8852472 -3.9569297
0001f0 d0 52 76 c0 c5 bb 76 c0 3d ee 79 40 e8 d8 79 c0
       -3.8488045 -3.8552105 3.905166 -3.903864
000200 50 d3 80 40 34 91 7a 40 18 54 53 c0 92 b3 8e 40
       4.025795 3.9151125 -3.3020077 4.45942
000210 60 e6 9a c0 d0 08 82 c0 fa 59 93 40 ca c1 8a bd
       -4.840622 -4.0635757 4.6047335 -0.067752436
000220 c5 94 99 3d f8 e9 51 bd b9 2b 8e bd 4c 7a ee 3c
       0.07499079 -0.05124852 -0.06941933 0.02911105
000230 c0 8e 3e 3b 0e 6a 35 3d 80 f2 51 3c 4c 23 c9 bc
       0.0029076785 0.044290595 0.012814164 -0.024552964
000240 7a 9d 04 3d ea cb a2 bd d3 35 12 bd 7e 44 71 3d
       0.032376744 -0.0794905 -0.035695862 0.05890321
000250 16 db 3f 3d fb 86 2b bd 1d e2 a8 3d 62 f4 5f 3d
       0.046839796 -0.041876774 0.08246253 0.05467642
000260 8e 12 2b 3d 38 15 7c bd 81 a6 51 bd fa f9 92 bd
       0.041765742 -0.061543673 -0.05118418 -0.071765855
000270 a0 f9 4d bd 1e 36 01 3d 99 b2 87 3d fd 37 94 3d
       -0.05028689 0.03154575 0.06625862 0.072372414
000280 60 26 42 bb f0 bb 11 3c ae d4 f3 bc e8 f6 82 bd
       -0.0029624924 0.008894905 -0.0297645 -0.0639475
000290 60 41 f8 3c 58 aa cc bc cc db 18 bd 48 b0 f5 bc
       0.03030461 -0.02498357 -0.03731899 -0.029991284
0002a0 44 ae 8a bd 1c 96 54 bd 1e b9 05 bd 50 8c af bc
       -0.0677152 -0.051900968 -0.032647245 -0.02142921
0002b0 9c b1 a7 bc 1f 3c a3 3d 28 59 ab bc 7a eb 2f 3d
       -0.020470433 0.079704516 -0.020916536 0.042949177
0002c0 6c d8 87 bc 77 85 9f 3d e0 bf bb bc e6 79 54 3d
       -0.01658269 0.07789128 -0.022918642 0.051874064
0002d0 ea ed 7b 3d 50 39 c6 bc 24 5c f1 3c a4 24 45 bd
       0.06150619 -0.02419725 0.029462881 -0.048130646
0002e0 b2 de 12 bd 9e 89 47 3d ea 1f 3b 3d b4 8a 91 3c
       -0.03585691 0.048715226 0.045684732 0.017766334
0002f0 c1 25 93 3d 79 7c 42 bd a8 c9 4e 3c 75 13 8d bd
       0.07184935 -0.047481988 0.012621321 -0.06888477
000300 52 da ad bd 10 d1 5b bd 3f 69 af 3d 4e 3f 51 3d
       -0.08488907 -0.053666174 0.08564996 0.051085763
000310 69 68 80 3d 3a 40 7a 3d 10 c7 33 bc 20 0d 79 3c
       0.06269915 0.061096407 -0.010972753 0.015200883
000320 ea 2c c5 bc 37 5f 49 bd a2 c8 10 bd 43 1c 4d bd
       -0.024069268 -0.04916307 -0.03534759 -0.05007578
000330 ce 6e 27 3d f0 15 24 bd bc d8 9e bc 35 02 a9 3d
       0.040877156 -0.040059984 -0.019390456 0.08252374
000340 9a a9 14 3d f8 0e 7c 3c dc 5c 84 bc 0d 30 87 3d
       0.036294557 0.015384428 -0.01615756 0.06600962
000350 30 52 af 3b 60 5a 3f 3b 60 fe 3a bd e9 9e 8f bd
       0.0053503737 0.0029198155 -0.045652747 -0.070127316
000360 42 aa 7e 3d f3 92 43 bd a9 8c 9b bd 92 cc 9f bd
       0.06217409 -0.047747564 -0.07595188 -0.078026906
000370 2c d2 9e 3c d8 3d aa bd 26 18 91 bd 10 7c ae 3c
       0.019387327 -0.08312577 -0.07084684 0.021299392
000380 da e3 26 3d 00 38 86 c0 13 44 8c 40 2c 6d 91 40
       0.04074464 -4.194336 4.38331 4.5445766
000390 53 6c 78 c0 f5 ea 77 40 46 18 7a 40 f2 09 77 40
       -3.8816116 3.8737156 3.9077315 3.859982
0003a0 6b da 83 c0 8d 46 82 40 4c 3b 7f 40 f0 36 79 c0
       -4.1204123 4.071112 3.9879942 -3.893978
0003b0 08 d2 6d c0 ef 2a 7e c0 d3 11 77 40 a4 f8 7e c0
       -3.7159443 -3.9713705 3.860463 -3.9839258
0003c0 e2 9c 6e c0 02 23 7c 40 34 ca 7a 40 e3 40 79 40
       -3.7283254 3.9396367 3.9185915 3.8945854
0003d0 04 69 89 c0 a0 5e 86 40 ac 59 84 c0 b2 f7 8d c0
       -4.2940693 4.199051 -4.1359463 -4.4364862
0003e0 82 fa 8c 40 e8 59 7b c0 10 6b 8a 40 0a fc 84 c0
       4.4055796 -3.9273624 4.325569 -4.1557665
0003f0 45 1f 80 40 e0 09 8b 40 4d 6c 86 c0 2e 09 7c 40
       4.003817 4.3449554 -4.2007203 3.9380603

atten_layer.0.bias f4 [45]
000000 32 76 66 40 14 2a 80 40 22 34 71 40 3c 22 7b c0
       3.600964 4.0051365 3.768807 -3.9239645
000010 92 2e 78 c0 ee 98 7d c0 f3 15 81 c0 f6 70 78 40
       -3.8778424 -3.962459 -4.0339293 3.8818946
000020 1c 46 7c c0 82 4f 7a 40 7a 31 74 c0 f9 c5 7e c0
       -3.9417791 3.9111028 -3.8155198 -3.9808333
000030 94 a1 7d 40 6f 0e 76 c0 f6 2a 71 c0 19 61 7f 40
       3.962987 -3.844631 -3.7682471 3.9903014
000040 05 f0 74 c0 16 13 80 c0 b0 18 72 c0 70 6a 75 c0
       -3.8271496 -4.00233 -3.7827568 -3.8346214
000050 4c c6 7d c0 3f 9c 81 40 d2 c4 76 40 53 e1 7d 40
       -3.965228 4.050323 3.855763 3.9668777
000060 fa 86 81 c0 bf 8f 7e c0 00 41 7b c0 f2 9c 7b c0
       -4.0477266 -3.9775236 -3.9258423 -3.9314542
000070 ae 1d 74 c0 fc 51 82 c0 96 42 77 40 4a 15 7d 40
       -3.8143115 -4.072508 3.863439 3.9544244
000080 b4 03 7d 40 a4 36 7d 40 26 a2 77 c0 38 d1 80 c0
       3.953351 3.95646 -3.8692718 -4.0255394
000090 c6 b8 7e 40 a0 9c 77 40 7c b0 81 c0 f2 aa 77 40
       3.9800277 3.8689346 -4.0527935 3.8698087
0000a0 0b 73 72 c0 d9 72 7d c0 d4 5e 7d 40 26 75 7e 40
       -3.7882717 -3.9601347 3.9589128 3.9759002
0000b0 b4 ec 72 c0
       -3.7956972

atten_layer.2.weight f4 [1, 45]
000000 1d 15 07 40 2e 7a bc c0 67 e8 4f 40 dc ff 14 c0
       2.1106637 -5.8899145 3.2485597 -2.3281164
000010 82 51 2d c0 c9 77 12 c0 eb da 42 c0 d8 86 98 c0
       -2.7080998 -2.288561 -3.0446117 -4.7664604
000020 c8 24 20 c0 b6 f2 25 40 ab 0a d8 bf 4e 4c 96 40
       -2.502245 2.592939 -1.6878256 4.6968145
000030 a4 75 9f c0 a9 46 2a c0 86 40 d3 40 80 a0 4b 40
       -4.9831104 -2.6605628 6.6016264 3.1816711
000040 e4 06 b3 40 a4 fe 9e 40 9c 7e 01 c0 cd 37 08 c0
       5.594591 4.968584 -2.0233526 -2.1284058
000050 af 27 90 40 46 54 78 40 46 d1 70 40 4e 2b 71 40
       4.504844 3.8801436 3.762773 3.768268
000060 52 53 88 40 7e 5f ac 40 e0 fd 63 c0 6e 37 4c c0
       4.260171 5.3866568 -3.5623703 -3.1908832
000070 eb 17 c3 40 82 a6 86 40 75 2b 6d 40 b6 d9 a7 c0
       6.0966697 4.2078257 3.7057774 -5.245326
000080 8a cc 49 40 32 2e 84 c0 13 30 a3 40 2e 47 56 c0
       3.153109 -4.130639 5.0996184 -3.3480945
000090 14 43 90 c0 de 38 98 c0 0e d3 95 40 64 72 a9 c0
       -4.5081882 -4.756942 4.6820135 -5.2952137
0000a0 5b 92 0c c0 80 3c 8a 40 9e 4c af c0 4a 20 7a 40
       -2.1964328 4.3198853 -5.4781027 3.9082208
0000b0 ce 46 0a c0
       -2.1605716

lstm.weight_ih_l0 f4 [180, 45]
000000 7a b4 6a 40 62 e2 81 c0 e6 3f 83 c0 65 1e 7b 40
       3.6672654 -4.0588846 -4.10155 3.9237301
000010 fa f2 81 c0 94 69 7b 40 e7 65 73 40 9e 3e 82 40
       -4.06091 3.928319 3.8030946 4.0701437
000020 00 21 70 c0 4a 8d 82 40 4c 47 77 40 67 18 80 40
       -3.7520142 4.079747 3.8637266 4.002979
000030 27 8e 7b 40 9c 1e 7a 40 39 df 7d c0 ed af 82 40
       3.9305513 3.9081182 -3.9667494 4.0839753
000040 9f 3a 77 c0 2d e8 82 c0 90 2c 7a c0 76 5c 84 40
       -3.862953 -4.090842 -3.9089699 4.1362867
000050 ee e6 84 c0 7e 4a 8a 40 1e b4 83 40 d8 3c 7c c0
       -4.1531897 4.3215933 4.115737 -3.9412136
000060 1c d0 53 40 b0 9e 85 c0 10 a8 84 40 da 68 7c c0
       3.309577 -4.175621 4.1455154 -3.9438996
000070 26 f0 86 c0 24 f4 81 40 68 cd 79 c0 eb 9d 81 c0
       -4.216815 4.0610523 -3.903162 -4.050527
000080 3f 3c 79 c0 83 78 80 40 5c b1 81 40 a0 cf 81 c0
       -3.8943021 4.014711 4.0529003 -4.056595
000090 95 8e 7c c0 80 8c 79 40 7c 7f 7b 40 0a 39 81 c0
       -3.9462025 3.8992004 3.929656 -4.038213
0000a0 d3 de 7c c0 a8 84 84 40 e2 58 85 c0 53 2b 81 c0
       -3.9511 4.1411934 -4.1671 -4.0365386
0000b0 10 31 86 40 5e a2 82 40 84 2d 88 c0 b8 c1 82 c0
       4.193489 4.08232 -4.255556 -4.0861473
0000c0 c4 b6 81 40 b7 e0 7f 40 42 c4 7e 40 9f 08 7f 40
       4.0535603 3.9980905 3.9807286 3.9849012
0000d0 64 de 7f 40 c6 af 77 c0 16 e4 78 40 28 59 78 40
       3.9979486 -3.8701034 3.8889213 3.8804417
0000e0 51 d8 75 c0 4b 9c 7c 40 cb bd 74 c0 c4 af 77 c0
       -3.841328 3.9470394 -3.824084 -3.870103
0000f0 72 d0 74 40 ee 9f 7c c0 58 0a 74 c0 2e 9e 76 c0
       3.8252225 -3.9472613 -3.8131313 -3.8534045
000100 8c 4d 84 40 ba 2c 85 c0 7f c1 7e 40 a6 ad 88 40
       4.134466 -4.16171 3.98056 4.2711973
000110 c3 8f 81 c0 a8 f0 18 c0 5a d8 83 c0 d2 bf 83 40
       -4.048799 -2.3896885 -4.12016 4.1171656
000120 8c 45 73 c0 c6 0d 86 c0 b6 9e 82 40 03 b4 79 c0
       -3.8011198 -4.1891813 4.081874 -3.901612
000130 db 3b 81 c0 d0 be 82 c0 b4 3f 79 40 6a 74 76 40
       -4.0385566 -4.0857925 3.8945131 3.8508554
000140 80 7c 7c c0 9e e3 7c c0 ec ab 7e 40 60 b5 80 40
       -3.9450989 -3.9513927 3.9792433 4.0221405
000150 f6 d3 72 c0 87 fe 7c c0 26 08 84 40 88 90 7d c0
       -3.794187 -3.953035 4.1259947 -3.9619465
000160 09 7f 6a c0 48 2e 85 40 25 11 75 c0 39 81 85 c0
       -3.6640036 4.1618996 -3.8291714 -4.1720243
000170 18 53 85 c0 b4 43 77 40 0c 21 7d c0 48 ab 7a 40
       -4.1663933 3.8635073 -3.955142 3.9167042
000180 52 eb 7c c0 0c 0b 85 40 e4 13 82 c0 a6 59 80 c0
       -3.9518628 4.1575985 -4.064928 -4.0109434
000190 81 32 7a 40 52 28 29 c0 a1 00 80 c0 f1 d9 80 40
       3.9093325 -2.643086 -4.000077 4.026604
0001a0 1f 17 76 40 d6 2c 75 40 b0 36 80 40 21 74 76 40
       3.8451612 3.8308616 4.0066757 3.850838
0001b0 31 a4 77 c0 b4 8d 84 40 fd ff 83 c0 42 3e 80 40
       -3.8693964 4.1422977 -4.1249986 4.0076
0001c0 7b 56 7e 40 5b 1c 81 c0 b0 a4 b7 bf 73 00 80 c0
       3.9740283 -4.0347114 -1.4347134 -4.000055
0001d0 b8 53 88 40 3f a0 7a c0 cd 49 84 c0 a6 2a 83 40
       4.2602196 -3.9160306 -4.134009 4.098956
0001e0 57 62 82 40 3c fc 73 40 fa 81 7d c0 08 4f 82 40
       4.0745044 3.8122702 -3.9610581 4.0721474
0001f0 56 c9 78 40 44 4b 7e 40 14 6e 82 40 76 73 81 40
       3.8872886 3.9733438 4.0759373 4.0453444
000200 28 36 73 c0 a8 fc 7d c0 24 53 7a 40 b2 29 82 40
       -3.8001804 -3.968546 3.9113245 4.0675898
000210 73 eb 85 c0 4c ce 78 40 03 19 7f 40 2f 6d 83 40
       -4.1849914 3.8875914 3.9859016 4.107078
000220 5b 12 87 c0 d6 3c 85 c0 fc 8a 81 40 84 1f 78 c0
       -4.2209907 -4.1636763 4.048216 -3.8769236
000230 5e c9 75 40 c1 82 82 40 6f 1a 88 40 fa 08 77 c0
       3.8404155 4.078461 4.2532268 -3.859923
000240 1a e6 76 c0 14 04 82 40 86 48 6f c0 4a ae 72 40
       -3.8577943 4.062998 -3.7388015 3.7918878
000250 0b 4e 80 40 5e b4 80 40 69 2b 80 40 a2 ab 7b 40
       4.0095267 4.0220175 4.005299 3.9323506
000260 e2 a9 73 c0 c9 72 7c c0 8a 1f 8b 40 9c 9e 82 c0
       -3.8072438 -3.944506 4.3476 -4.0818615
000270 f0 24 81 40 c6 e2 87 40 5e 66 8a c0 bb 20 1e 40
       4.035759 4.2464323 -4.324996 2.4707477
000280 80 1e 86 c0 48 c6 85 40 89 a2 76 c0 12 13 8a c0
       -4.191223 4.1804543 -3.8536704 -4.314828
000290 44 d9 86 40 09 5a 77 c0 47 28 83 40 08 e2 75 c0
       4.2140217 -3.8648703 4.0986667 -3.8419209
0002a0 08 94 75 40 8c 09 7f 40 15 4c 80 c0 5b 6d 74 c0
       3.83716 3.9849577 -4.0092874 -3.8191745
0002b0 fc 22 72 40 e0 1b 77 c0 a6 02 78 c0 76 3d 7f 40
       3.7833853 -3.8610764 -3.8751616 3.9881263
0002c0 ac d6 82 40 58 ae 81 c0 ac d3 78 40 20 8c 82 40
       4.088705 -4.052532 3.8879194 4.079605
0002d0 e7 19 7a 40 82 05 86 c0 ec a7 8c c0 eb 13 77 40
       3.907831 -4.1881723 -4.3954983 3.8605907
0002e0 c0 06 70 40 9a 38 80 40 42 6a 7b 40 58 96 84 40
       3.750412 4.0069094 3.9283605 4.1433525
0002f0 6c 23 82 c0 70 f9 81 c0 f4 c4 78 40 3d 21 7e c0
       -4.066824 -4.061699 3.887021 -3.9707787
000300 4f 34 75 40 84 b0 6b c0 d0 35 83 40 ae c6 80 40
       3.8313177 -3.6826487 4.100319 4.024253
000310 e6 9b 7a 40 22 c0 78 c0 e4 44 73 c0 e9 39 89 40
       3.9157653 -3.8867269 -3.8010798 4.288319
000320 dd 60 8b c0 22 4a 82 40 f1 ce 85 40 2c 30 8a c0
       -4.355574 4.0715494 4.1815114 -4.3183804
000330 6c 06 62 40 0f 7a 8b c0 74 15 88 40 e1 b9 76 c0
       3.531642 -4.3586497 4.252619 -3.8550951
000340 ca 68 83 c0 77 61 85 40 a6 6a 7b c0 5f d0 7b 40
       -4.1065416 4.1681476 -3.9283843 3.934593
000350 a2 fb 7d c0 80 38 81 40 e4 8d 81 40 dc fb 76 c0
       -3.9684834 4.038147 4.0485706 -3.8591223
000360 de 6a 76 c0 49 2d 80 40 1e 0f 72 c0 fe c2 7f c0
       -3.8502727 4.005528 -3.7821727 -3.9962764
000370 78 95 81 c0 34 1b 89 40 20 83 84 c0 0f 4d 82 40
       -4.0494957 4.2845707 -4.1410065 4.0719066
000380 3e 98 83 40 10 e5 81 40 bc e8 83 c0 28 8a 88 c0
       4.1123343 4.0592117 -4.12216 -4.266865
000390 71 03 78 40 c8 65 81 c0 b6 63 7a 40 18 4a 73 40
       3.87521 -4.0436745 3.9123359 3.8013973
0003a0 97 62 82 40 00 eb 7f c0 ee cb 82 c0 10 4b 7b 40
       4.074535 -3.9987183 -4.0873938 3.9264565
0003b0 82 a1 51 c0 82 98 7a 40 3e 0f 7c 40 40 20 7e 40
       -3.2754827 3.9155583 3.9384303 3.9707184
0003c0 28 59 7f 40 ce 92 77 40 e2 4b 81 c0 66 82 7f c0
       3.9898167 3.8683352 -4.040513 -3.992334
0003d0 d2 aa 81 40 86 b6 84 c0 ee 85 7f 40 95 70 81 40
       4.052102 -4.1472807 3.9925494 4.044993
0003e0 fc d5 85 c0 b2 00 05 c0 8e f9 86 c0 aa f6 7f 40
       -4.182371 -2.0781674 -4.217963 3.9994302
0003f0 b6 e9 81 c0 96 e8 85 c0 0a 99 88 40 b1 79 7e c0
       -4.059779 -4.184642 4.2686815 -3.9761775

lstm.weight_hh_l0 f4 [180, 45]
000000 10 96 73 bc 4b 1e 10 3e 37 b5 15 be e0 ef 82 3b
       -0.014867321 0.14074056 -0.14619909 0.0039958805
000010 84 f7 14 be 31 a0 b9 bd 08 e3 1d 3d 22 2c cc 3d
       -0.14547545 -0.09063757 0.038546592 0.09969355
000020 40 ef c2 bc 95 e2 07 3e 0e 7f 8a 3d aa ec 09 be
       -0.023795724 0.13270028 0.06762515 -0.13469186
000030 30 24 18 bd e0 58 b9 bc 18 8d c2 bc cc 5f 80 3d
       -0.037143886 -0.022625387 -0.02374892 0.06268272
000040 6a c5 fb 3d 46 ea cf bd 5a 5f a9 bd 94 f1 b5 bd
       0.12293513 -0.10152106 -0.0827014 -0.08883968
000050 78 83 e3 3c 6c 35 75 3d e2 84 c8 bd 18 28 a5 3d
       0.02777265 0.0598654 -0.097909704 0.08064288
000060 2a 7d 86 3d 02 a6 34 bd a4 3a 38 bd e1 a7 0e be
       0.06566842 -0.04410363 -0.0449778 -0.13931228
000070 86 e5 c2 bd cc b7 2e 3d 60 07 6f 3d a9 91 06 3e
       -0.09516434 0.04265575 0.058356643 0.13141502
000080 46 57 0d bd 14 9d ce 3d 1c 78 a9 bd 49 f9 f3 bd
       -0.03450706 0.10088554 -0.08274862 -0.11912782
000090 2e aa 02 be 24 51 c9 3d 38 5b c0 bc c2 cd f6 3d
       -0.12760231 0.098299295 -0.023480996 0.12050964
0000a0 fc f2 5e bd 6d 13 18 3e 80 1e 81 3d dd 4f 8d bd
       -0.054430947 0.1485116 0.063046455 -0.06899998
0000b0 72 82 a5 3d 90 29 17 bd ac ba cb 3d e8 e5 b5 bc
       0.08081521 -0.03690487 0.09947714 -0.022204354
0000c0 01 58 17 3e ee d3 e3 3d 02 1b 0c be 60 60 0a 3d
       0.14779665 0.11124407 -0.13682178 0.033783317
0000d0 d0 ea 46 bc 70 f1 61 bd 64 35 9c 3d 48 dd dd bc
       -0.012140945 -0.055161893 0.07627371 -0.027083054
0000e0 a0 27 5f bd 18 27 cc bd 36 c3 f0 bd 6a 07 b7 3d
       -0.05448115 -0.09968394 -0.117559835 0.08936961
0000f0 86 85 c3 3d 18 ea 9f bc fc 42 bf 3d ea 87 82 bd
       0.09546952 -0.019520804 0.09338948 -0.0637358
000100 56 c5 f8 3d 9e 92 0d bd 26 cd 8b 3d c0 13 bd 3c
       0.12147014 -0.034563653 0.06826238 0.023080707
000110 cf 51 11 3e f8 df 93 bc ea 8e f3 bd 76 ea c5 bd
       0.14191364 -0.018051133 -0.11892493 -0.096638605
000120 c0 33 be bb a8 0c 0d bd 0c da c2 bd d6 19 de bd
       -0.005804509 -0.034435898 -0.095142454 -0.108447716
000130 f1 b8 09 be a4 c3 1d bd d6 de c6 3d 28 24 b2 3c
       -0.13449456 -0.038516656 0.09710471 0.021745756
000140 00 9b 4d 3b 4d 57 17 be c0 33 f2 3b 2c fd 10 be
       0.0031372905 -0.14779396 0.007391423 -0.14159077
000150 82 b6 ca bd 54 69 92 bd ff 04 07 be c0 01 86 bc
       -0.09898092 -0.07148996 -0.131855 -0.016358256
000160 c6 a7 9e 3d b2 a5 d1 bd 67 bd 16 be 22 b4 e8 bd
       0.07746844 -0.10236682 -0.14720689 -0.113624826
000170 10 27 5a 3c 8d 6b 17 3e da c4 f1 3d c5 5a 0c 3e
       0.013314977 0.14787121 0.118051246 0.13706501
000180 40 d8 54 3b fc 75 5d 3d 80 82 2b bd 88 ef ee bd
       0.0032477528 0.054067597 -0.0418725 -0.11666781
000190 a8 37 15 3d 84 91 99 3d 4e 29 e9 3d e0 84 b1 bd
       0.03643003 0.07498458 0.11384831 -0.08667922
0001a0 48 bb c5 3c fe ba f4 bd 22 78 08 be 16 fd 8a bd
       0.024137154 -0.119497284 -0.13327077 -0.067865536
0001b0 74 ef d8 bd e5 a5 e7 bd d0 2c 39 bc 95 f7 01 be
       -0.10592547 -0.11310939 -0.011302188 -0.12692101
0001c0 e0 4d f0 bd d2 56 d3 bd d3 fe ba bd b0 8a 1f 3c
       -0.117336035 -0.10319294 -0.09130635 0.0097376555
0001d0 28 e1 8e bc 2a 1d 80 3d 58 2f c0 bc 6c b4 71 3d
       -0.017441347 0.062555626 -0.023460075 0.059009954
0001e0 ba aa 0e bd b6 b6 99 3d b0 58 84 3d 1a 78 f5 3d
       -0.034830786 0.075055525 0.06462228 0.11985798
0001f0 a8 7c e6 3c 2a f8 e8 bd 64 d1 4a 3d 80 db 43 3c
       0.028135613 -0.113754585 0.049516097 0.011954188
000200 68 cb bc bd 0e d8 82 3d 9c 51 0f 3d 78 57 b3 bc
       -0.09218484 0.063888654 0.03498994 -0.021892294
000210 c6 2f dd bd da 40 21 bd ae c6 af bd a8 07 98 3c
       -0.10800128 -0.039368488 -0.08582817 0.018558338
000220 ea 49 8b bd 80 80 e6 bb d6 4c 03 bd d8 6c 30 3d
       -0.06801207 -0.0070343614 -0.0320557 0.04307255
000230 80 26 8c 3d f8 63 ee bc 14 a5 b5 3d 08 2f 04 be
       0.06843281 -0.029100403 0.08869377 -0.12908566
000240 0b 97 11 3e 83 68 11 3e d1 bc 02 3e 8a a2 af bd
       0.14217775 0.14200024 0.1276734 -0.08575924
000250 66 99 1f bd 50 db 12 3d b4 d0 fb bd fa f1 dc 3d
       -0.03896465 0.035853684 -0.12295666 0.10788341
000260 80 b7 c8 3b fd ac 00 3e e6 fd ff bd 16 92 25 bd
       0.0061253905 0.1256599 -0.12499599 -0.04042252
000270 f2 2f 08 be 48 fb 5d bd 18 21 cd 3c 00 76 64 bb
       -0.1329954 -0.05419472 0.025040194 -0.0034860373
000280 68 4f 7a 3d 2c 09 47 bd 30 31 34 bd 39 69 e8 bd
       0.061110884 -0.04859273 -0.04399222 -0.11348195
000290 ea aa 13 be 15 75 01 3e 81 6b d3 bd f9 db f8 bd
       -0.14420667 0.1264232 -0.10323239 -0.121513315
0002a0 88 f4 0e bd 00 32 5a bc 88 47 ea 3c 2e 43 db bd
       -0.034901172 -0.013317585 0.028598562 -0.10706173
0002b0 1d 07 e1 bd ef 07 02 be 7e 02 a1 3d 94 b8 8d 3d
       -0.10987685 -0.12698339 0.078618035 0.06919971
0002c0 40 7c 88 bd 00 88 15 3b b0 60 e4 bc 54 db 15 3d
       -0.06664324 0.0022816658 -0.027878135 0.03658612
0002d0 8c a6 c0 bd cd 37 9e bd 00 e4 f4 bc 62 48 17 bd
       -0.09406766 -0.07725487 -0.029893875 -0.036934264
0002e0 aa 52 a4 bd 94 d9 e3 bd 08 f1 9c bc fa d5 f1 bd
       -0.080235794 -0.11125484 -0.019157901 -0.11808391
0002f0 54 3c fa bc 29 57 01 3e 40 87 3a 3d 70 7e 59 3c
       -0.030546345 0.12630905 0.04553914 0.013274774
000300 60 8c 1c bd 0e 09 91 3d 50 93 54 3d 4e ef a6 3d
       -0.03821981 0.07081805 0.0518983 0.081511125
000310 c4 31 9e 3d d8 56 8a 3c 40 79 bd bc 76 89 fd bd
       0.07724336 0.016887113 -0.023129106 -0.12379734
000320 1e 2c df bd 46 a0 af 3d 78 1e e8 bc f0 85 07 3c
       -0.108970866 0.085754916 -0.028334841 0.008271679
000330 ec dd 06 be 18 c8 cb bd fb 6c a8 bd ce 30 de 3d
       -0.13170594 -0.09950274 -0.082239114 0.108491525
000340 ba 23 e6 3d ee 8a 2d bd c7 bd 8a bd 5a 0f d6 3d
       0.11237283 -0.04236882 -0.067744784 0.10452147
000350 9c e7 b0 3d 6a 6b b0 bd ee 35 e9 3d cc cb 6e 3d
       0.08637926 -0.086142376 0.113872394 0.058299825
000360 b0 04 64 3c 9e 79 8b bd bc 48 c7 3d c7 e8 ae bd
       0.013917133 -0.06810306 0.0973067 -0.085404925
000370 c0 23 ed bb 51 30 d9 bd 89 e0 14 be bf b2 8e bd
       -0.0072369277 -0.10604919 -0.14538778 -0.06967687
000380 f6 02 59 bd 80 a6 76 3d b8 df b5 3d cb b6 01 be
       -0.05298134 0.06021738 0.088805616 -0.12667386
000390 ae 31 ae 3d 0e 8e db bd af 97 0e 3e 7f d9 c1 bd
       0.085055694 -0.10720454 0.1392505 -0.09465312
0003a0 c4 17 0b 3d b0 d2 3f 3d 9e 9d 07 bd 7d 93 a8 bd
       0.03395821 0.046831787 -0.0331093 -0.08231256
0003b0 0d e5 0d 3e f1 48 17 3e 51 c9 04 3e a2 c7 58 bd
       0.13856907 0.14773919 0.12967421 -0.05292476
0003c0 80 5d 50 3c f2 1b b8 bd 00 c3 0f ba af 37 ec bd
       0.012717605 -0.08989705 -0.00054840744 -0.11534058
0003d0 b8 bf 48 bd 18 d3 65 3d 28 46 bc bd 16 5e b3 bd
       -0.049010962 0.056109518 -0.09193069 -0.0875818
0003e0 1a 8b e0 3d b0 f3 57 bd 14 c3 8e bd f6 a7 8f 3d
       0.109640315 -0.052722633 -0.06970802 0.07014458
0003f0 4a ee e3 bd 0a e6 04 bd 80 d1 02 3b 9a 9d f4 3d
       -0.111294344 -0.032445945 0.0019961298 0.119441226
