Ni_prediction/savemodel/bst_mod_218.pth (torch_old, 533442 bytes, 44 tensors)

price_encoder.attention.weight f4 [1, 121]
000000 62 de 42 40 7e f7 44 40 a8 7a 3f 40 be 72 45 c0
       3.0448232 3.0776057 2.9918613 -3.0851283
000010 a6 02 3b c0 b4 45 3b 40 9b 85 42 40 50 ab 3c c0
       -2.9220366 2.9261293 3.0394046 -2.947956
000020 12 7c 41 40 48 9a 3f 40 51 e8 3e 40 88 a4 43 40
       3.0231977 2.9937916 2.9829295 3.0569172
000030 88 45 3c c0 e7 22 40 c0 2d 6f 40 c0 64 e2 3c 40
       -2.9417439 -3.0021303 -3.0067856 2.9513178
000040 9c 0a 3b 40 54 19 3d c0 34 0c 39 40 37 9f 41 40
       2.9225225 -2.954671 2.8913698 3.0253427
000050 a5 07 39 40 93 39 40 40 87 75 43 40 81 de 42 c0
       2.8910916 3.003514 3.0540483 -3.0448306
000060 c4 e0 42 c0 75 f5 3e 40 4b 70 3c c0 13 6e 43 c0
       -3.0449686 2.9837315 -2.9443538 -3.0535934
000070 9b 1c 42 c0 6a 8d 3d c0 26 e0 42 40 6e cf 3e c0
       -3.032996 -2.9617562 3.044931 -2.9814105
000080 b0 ad 3f 40 96 7d 45 40 20 bf 3b 40 33 80 3f 40
       2.994976 3.0857902 2.9335403 2.9921997
000090 58 0b 43 c0 e2 49 43 40 90 cc 40 40 5e 31 43 c0
       -3.0475674 3.0513844 3.0124855 -3.0498881
0000a0 06 5b 40 40 6b a3 45 40 4f c3 3d 40 80 0c 43 40
       3.0055556 3.0880992 2.9650457 3.047638
0000b0 ea b7 3f 40 2c 23 43 40 c8 1e 43 40 91 3a 43 40
       2.9956002 3.0490217 3.0487537 3.0504496
0000c0 39 60 45 40 a5 e4 3e 40 27 8c 3c 40 42 43 3e 40
       3.083998 2.9827054 2.9460542 2.972855
0000d0 2c 4b 43 40 34 be 3e 40 87 97 3a 40 e0 8d 40 40
       3.0514631 2.980359 2.9154985 3.0086594
0000e0 e4 e4 41 40 91 cc 44 c0 8e 6e 40 c0 5c 06 46 40
       3.0295954 -3.0749857 -3.0067477 3.0941381
0000f0 b2 80 3c 40 ee 03 44 c0 06 c8 41 c0 26 c6 3a c0
       2.945355 -3.0627398 -3.0278335 -2.918344
000100 56 41 45 c0 24 73 44 40 54 05 40 40 33 a7 3d 40
       -3.0821128 3.0695276 3.0003252 2.96333
000110 f0 89 3c 40 46 9c 3f c0 4e 8f 3e c0 79 f1 40 40
       2.945919 -2.9939132 -2.9774966 3.0147383
000120 d5 a4 41 40 90 12 3c 40 82 63 3c c0 9b 23 3b 40
       3.0256855 2.938633 -2.9435735 2.9240482
000130 ec 60 3c c0 f8 75 05 40 d6 30 44 40 60 16 42 40
       -2.9434156 2.0853252 3.0654807 3.0326157
000140 28 8d 3b c0 58 42 3c c0 f0 8b 40 40 ee 28 3e 40
       -2.9304905 -2.9415493 3.008541 2.9712481
000150 94 92 44 40 60 68 45 c0 54 ff 3a c0 fc a6 45 c0
       3.0714464 -3.0844955 -2.921834 -3.088317
000160 61 e4 43 40 f5 50 43 40 68 50 45 40 3a e2 44 40
       3.0608141 3.0518162 3.0830326 3.0763078
000170 75 01 3e 40 3e de 43 40 4c 1b 3d c0 ed 82 45 c0
       2.968839 3.0604396 -2.954791 -3.086116
000180 01 29 3d c0 f8 73 41 40 04 8d 42 c0 00 59 39 40
       -2.9556277 3.0227032 -3.039857 2.8960571
000190 d2 75 3d 40 90 4b 3e 40 6e 1d 40 40 8e 67 44 40
       2.9603162 2.973362 3.0017962 3.0688205
0001a0 b2 e3 42 40 8d de 3c 40 ac d2 3a 40 5c 11 43 40
       3.0451474 2.9510834 2.9191084 3.0479345
0001b0 2b 7a 43 40 4b 0f 40 40 01 ac 3a 40 55 57 40 40
       3.0543315 3.0009334 2.9167483 3.0053303
0001c0 e4 41 3a 40 d5 94 41 40 8a a9 44 40 8e c1 3a 40
       2.9102716 3.024709 3.0728478 2.9180636
0001d0 10 3c 3e 40 e6 c5 3d 40 fc aa 43 40 6e 20 41 40
       2.972416 2.9652038 3.057311 3.0176044
0001e0 1f 19 43 40
       3.0484083

price_encoder.encoder.weight_ih_l0 f4 [180, 45]
000000 1c 78 ce bd 32 86 f1 bd 18 32 03 3d 20 05 a9 3d
       -0.10081503 -0.11793174 0.032030195 0.08252931
000010 e6 7b 63 bd a2 b0 d5 3d 80 09 a1 3d 0a ef f9 bd
       -0.05553808 0.10434081 0.0786314 -0.12203796
000020 b7 40 d4 bd 40 15 43 bc 73 f8 e1 bd ce ef 6c bd
       -0.10363906 -0.011906922 -0.11033716 -0.057845883
000030 bc da d9 bc d8 40 fb 3c be b2 f7 bd 70 ab 76 3c
       -0.026593558 0.030670568 -0.12094639 0.015055522
000040 fc 9a 50 3d 08 40 aa bd 68 61 b9 3d e6 b1 eb 3d
       0.050929055 -0.08312994 0.09051782 0.11508541
000050 8d 23 d7 3d c7 62 8c 3d b0 8f da bd 5e 41 39 c0
       0.10504828 0.06854778 -0.106719375 -2.8946147
000060 d7 78 14 be a5 f2 17 be 6b 3d f9 bd 5b a3 03 3e
       -0.14499222 -0.14838655 -0.12169918 0.12855284
000070 53 4b 08 3e 38 9a 14 3d 0b 55 07 be e0 f9 fc bb
       0.13309984 0.036279887 -0.13216035 -0.007720217
000080 b6 f8 ef 3d ca 0a 37 40 e3 15 3d 40 75 32 3e 40
       0.1171736 2.8600335 2.9544609 2.9718297
000090 12 42 3f 40 45 8c 3f 40 9f 40 6f be 15 2b 3c 40
       2.9884076 2.9929364 -0.23364495 2.9401295
0000a0 9c 89 49 40 f4 f9 44 40 86 05 3c 40 88 ba c6 3c
       3.149024 3.077756 2.9378371 0.024258867
0000b0 d6 bd fe bd 36 48 00 be 2c 3a 8f 3d 9b 0f e2 3d
       -0.12438552 -0.12527546 0.06993517 0.11038133
0000c0 70 cc 36 3d f6 29 bc 3d 53 1a fc 3d 82 96 8d bd
       0.04462856 0.09187691 0.123097084 -0.06913473
0000d0 97 ed af 3d 85 df 77 3d 70 6e 00 3d 88 ee bb 3d
       0.085902385 0.0605159 0.03135532 0.091763556
0000e0 50 f7 a8 bc fa fc 8a 3d 1f b8 04 3e 60 dc 45 3c
       -0.02062574 0.06786533 0.12960862 0.012076467
0000f0 a3 25 11 be c7 37 09 be 60 f9 9e 3b 28 8a 06 bd
       -0.14174514 -0.13400184 0.004851505 -0.0328466
000100 66 7f c8 3d cc 41 8f 3f 74 ff 8a 3c 0c 65 ba bd
       0.09789924 1.1191955 0.016967513 -0.091013044
000110 d4 16 37 40 77 e7 f6 bd cb 93 13 be 7a 37 f7 3d
       2.8607683 -0.12055867 -0.14411847 0.12071128
000120 3e af 3a bd 20 c1 11 be 40 3b 4c bb 8a a9 32 bd
       -0.04557728 -0.14233828 -0.0031163245 -0.043618716
000130 57 54 0e 3e 21 bb c0 bd 48 d7 3a 40 ba ff 37 40
       0.1389936 -0.09410692 2.9193897 2.8749833
000140 cd 79 3e 40 8d 82 3b 40 b6 91 48 40 03 5a 07 be
       2.9761841 2.9298432 3.1338935 -0.1321793
000150 67 28 3c 40 5e ff 39 40 9b e9 3a 40 2b 34 45 40
       2.939966 2.9062114 2.9205081 3.081309
000160 10 3a 24 3d 70 7b 34 3d fb c8 d7 3d 87 03 df bb
       0.040094435 0.04406303 0.10536381 -0.0068058404
000170 98 a7 f0 bd 35 cb e0 bd 28 98 e7 3c 05 8a 4a 3d
       -0.11750716 -0.10976259 0.028270796 0.049448032
000180 83 5d 85 3d e8 d1 87 3d c4 e4 e4 bc 8e 92 ab bd
       0.065119766 0.06631833 -0.027941115 -0.083775625
000190 c6 1e 06 be 30 2e a1 3c 9e 79 4b bd a0 06 cf bd
       -0.13097677 0.019675344 -0.04967653 -0.101086855
0001a0 60 f5 ba 3b 58 c1 88 3c 42 1f c2 3d 84 a8 c7 bd
       0.0057055205 0.016693756 0.09478618 -0.09748939
0001b0 10 61 6c 3c b2 2f ac bd 0f 9d 8a 3f 6d 21 cb bc
       0.014427438 -0.08407535 1.082918 -0.024796212
0001c0 11 bc bf bd 53 59 3d 40 24 95 5c bd 00 d2 26 3d
       -0.09362043 2.958577 -0.05385317 0.040727615
0001d0 7e 00 35 bd 97 58 40 3c d1 22 cf bd 33 6e 10 3e
       -0.044189923 0.011739871 -0.101140626 0.14104538
0001e0 42 4c df bd df 28 10 3e bc 1f 0e be ee 22 47 40
       -0.10903217 0.14078091 -0.13879293 3.111507
0001f0 94 ec 37 40 11 39 3e 40 4a 6d 42 40 a9 c2 45 40
       2.8738146 2.972233 3.0379205 3.090006
000200 c3 e7 3e c0 a9 65 3d 40 ce 01 45 40 b5 47 38 40
       -2.9828956 2.9593298 3.0782351 2.8793766
000210 29 bc 3c 40 94 d1 6f 3d 1d bc 80 bd c2 4b c7 3d
       2.9489844 0.05854948 -0.0628588 0.097312465
000220 46 b9 5e bd 8e 17 05 be 84 d2 ae bc 30 76 20 bd
       -0.05437591 -0.12997267 -0.021340616 -0.039175212
000230 6c 88 ed 3d fa 74 f7 3d 1a 01 c2 3d 98 aa 8c bb
       0.11598286 0.120828584 0.09472866 -0.0042927973
000240 18 b5 a1 3d 02 a1 e6 3d b6 fa ec 3d f0 ba c9 3d
       0.07895869 0.112611786 0.11571257 0.098501086
000250 90 85 37 c0 5c ea 11 3d 4c 36 7c 3d b6 da 15 bd
       -2.867527 0.035623893 0.06157522 -0.036585532
000260 a0 5c 17 bc 0c a8 99 3f 2e cc 33 3d 1f 38 69 be
       -0.009238392 1.2004409 0.043895893 -0.22775315
000270 79 f9 7b bc bf 79 74 3d 6a d7 3f c0 8c da 46 3d
       -0.015379303 0.05968642 -2.9975228 0.048548266
000280 0d e6 14 3e 40 b8 83 bd 32 30 b6 bd 75 9b 41 c0
       0.14540882 -0.06431627 -0.08895911 -3.0251133
000290 78 23 af 3d aa 78 c7 3d 03 bc 1b c0 34 32 b9 bd
       0.08551687 0.09739812 -2.4333503 -0.090427786
0002a0 23 4a 48 c0 b2 1b 45 c0 fa 6c 3a c0 4a 76 3b c0
       -3.129525 -3.0798154 -2.9129014 -2.9290948
0002b0 73 b5 44 c0 7a e8 c6 bd c5 e5 3b c0 5f 4a 40 c0
       -3.0735748 -0.0971231 -2.935899 -3.0045393
0002c0 35 71 3a c0 ed f6 3a c0 f2 2d a1 3d e8 6d 17 3d
       -2.9131596 -2.9213212 0.078700915 0.03697005
0002d0 7c 32 b0 bd b8 62 ac bc 66 59 ac 3d 21 0c 0d 3e
       -0.08603379 -0.021043167 0.08415489 0.13774158
0002e0 3c 14 b1 3d 1a 2b 13 3e 9e 4c 0d be ac fe 12 be
       0.086464375 0.1437191 -0.13798758 -0.14354962
0002f0 62 65 b4 bd 64 97 55 bd 98 df 59 3d 23 d6 14 be
       -0.088084 -0.05214633 0.05319175 -0.14534812
000300 32 9c d8 bd cf f1 a6 bd 80 5a ed bb 66 84 b2 3d
       -0.10576667 -0.0815159 -0.0072434545 0.08716659
000310 24 b1 08 bd fc dc b8 bd 68 32 1d 3d a6 5d b2 bd
       -0.03337206 -0.090265244 0.03837815 -0.08709268
000320 db 14 b1 3c 4a f5 b3 3d 48 a7 35 3d f8 4f 3e c0
       0.02161639 0.087870196 0.044348985 -2.973631
000330 b2 49 cd 3d 81 c7 10 3e 6c f5 99 3d 50 da df 3c
       0.10023822 0.14138605 0.07517514 0.02732578
000340 7d 28 03 3e ca 30 fa 3d 48 42 5d 3d 00 28 8c bc
       0.12808414 0.12216337 0.05401829 -0.017108917
000350 7b d8 d6 bd 02 6a 38 c0 69 6c 46 c0 6d 73 48 c0
       -0.10490509 -2.8814702 -3.1003668 -3.132045
000360 e5 5e 3c c0 0e 84 40 c0 e0 49 b1 bb a6 f7 3e c0
       -2.943292 -3.00806 -0.005410418 -2.9838653
000370 e2 11 39 c0 45 c2 36 c0 59 56 44 c0 24 27 a3 bd
       -2.8917165 -2.8556073 -3.0677702 -0.0796645
000380 70 ee 3a bc 98 94 8a bc 7c 26 86 3d d0 b9 74 3c
       -0.011409387 -0.016916558 0.06550309 0.014936879
000390 f8 c4 1c bd 59 b5 01 3e 6f 38 16 3e 38 c1 ca ba
       -0.03827378 0.12666835 0.14669965 -0.0015468961
0003a0 df 5d 18 3e 7c ed 81 3d be af e7 3d 70 b8 06 be
       0.14879559 0.06344125 0.11312817 -0.13156295
0003b0 60 d3 bb 3d 73 1d bb bd ce c2 3a 40 70 5b 0f 3c
       0.09171176 -0.09136476 2.91814 0.008749828
0003c0 00 ab f8 3a 74 59 1f 3d e8 1f d2 3c fa b1 d3 bd
       0.001897186 0.03890367 0.02564998 -0.10336681
0003d0 a4 32 9f 3d 6b cd 91 bd 49 5c 9d bd c3 17 e4 39
       0.07773331 -0.071192585 -0.076836176 0.00043505253
0003e0 20 c4 49 c0 60 29 de 3c 95 2b ba bd 96 7b f2 3d
       -3.1525955 0.027119339 -0.09090344 0.118399784
0003f0 d6 6e 1f bd 50 8f 40 40 78 1f 83 3d a1 a5 0a 3e
       -0.03892406 3.008747 0.064024866 0.13539745

price_encoder.encoder.weight_hh_l0 f4 [180, 45]
000000 af 84 47 40 43 c1 41 40 6e f9 38 40 8f 0c 39 c0
       3.1174734 3.0274208 2.890224 -2.8913915
000010 b6 ad 3f 40 3c 24 3c 40 cd fe 3e 40 1c b8 47 c0
       2.9949775 2.9397116 2.9843018 -3.1206121
000020 1a 2e 3f c0 f8 a6 3b c0 c3 fc 45 c0 67 6c 44 40
       -2.9871888 -2.932066 -3.0935524 3.0691164
000030 ce 4e 3c c0 49 4f 40 c0 5e 2a 3b 40 cf bd 48 c0
       -2.9423099 -3.0048392 2.924461 -3.136585
000040 2f 4d 3a 40 da 5a 42 c0 9e 44 37 40 8d 37 48 c0
       2.910961 -3.0367951 2.863563 -3.1283906
000050 e3 6e 37 40 00 e6 3e 40 44 75 38 40 06 e4 3a 40
       2.866143 2.982788 2.8821573 2.9201674
000060 5a 6c 3e c0 65 de 36 c0 14 13 39 c0 36 8d 3c 40
       -2.9753633 -2.857324 -2.8917894 2.9461188
000070 8c 3d 37 c0 da a8 3c c0 f2 11 3a 40 db 00 41 c0
       -2.8631315 -2.947806 2.9073453 -3.0156772
000080 1d 11 3f 40 4e ea 40 40 08 44 3f 40 88 19 37 c0
       2.9854195 3.0143008 2.9885273 -2.8609333
000090 d3 70 3d c0 95 ba 42 40 81 ee 3a 40 b2 c3 49 40
       -2.9600112 3.042638 2.9208071 3.1525693
0000a0 d5 74 46 40 61 13 3c 40 7a d8 42 c0 6b 96 48 40
       3.1008809 2.9386828 -3.0444627 3.1341808
0000b0 89 2b 46 c0 c5 b8 47 c0 2e d1 43 c0 f4 23 40 c0
       -3.0964072 -3.1206524 -3.0596423 -3.0021944
0000c0 45 37 43 40 e8 9c 3a c0 6a 09 46 c0 91 57 39 c0
       3.0502484 -2.9158268 -3.0943246 -2.8959696
0000d0 2d 4e 45 c0 a7 c4 3c 40 17 29 44 c0 54 2f 3b 40
       -3.0828965 2.9495027 -3.065008 2.9247637
0000e0 8e 6f 49 c0 38 e1 37 40 5b 74 3c 40 c4 d3 40 c0
       -3.1474338 2.8731213 2.9446018 -3.0129251
0000f0 80 cd 47 40 66 e2 3c c0 ef a9 37 40 b3 af 3a c0
       3.1219177 -2.9513183 2.869747 -2.9169738
000100 ed 35 40 40 9a 57 3a 40 a2 bc 45 c0 4f 4f 3a c0
       3.0032914 2.9115968 -3.0896382 -2.9110906
000110 f5 80 41 c0 79 15 48 40 75 74 44 40 ba bc 3a 40
       -3.023496 3.1263106 3.069608 2.917769
000120 67 56 3d c0 b2 40 37 40 b3 fb 42 40 5e 92 48 c0
       -2.9583986 2.8633237 3.0466125 -3.1339335
000130 d3 97 43 40 a3 58 41 c0 52 97 43 c0 b3 26 3a c0
       3.0561416 -3.021035 -3.0561109 -2.908612
000140 5d 93 38 40 b5 f5 3e 40 da d2 45 c0 07 a0 38 c0
       2.8839943 2.9837468 -3.0909944 -2.8847673
000150 56 39 45 c0 62 40 40 c0 4c c2 3d c0 a9 ba 43 40
       -3.0816245 -3.0039296 -2.964984 3.0582678
000160 b5 96 3a c0 fb 00 3b 40 df fc 3b c0 ae 25 44 c0
       -2.9154484 2.9219348 -2.937309 -3.0647998
000170 67 41 48 c0 26 55 41 40 44 e4 38 c0 ee 6a 41 c0
       -3.1289918 3.020822 -2.8889322 -3.0221515
000180 66 9e 37 c0 cb 2a 3d c0 d1 52 42 40 85 36 3e c0
       -2.8690429 -2.9557369 3.0363047 -2.9720776
000190 1d 20 49 40 34 a1 3d c0 fe a3 47 40 2a 95 43 40
       3.142585 -2.962964 3.1193843 3.0559793
0001a0 b8 6b 39 c0 db 7b 38 40 9d a4 45 c0 e2 6b 47 40
       -2.8971996 2.8825595 -3.0881722 3.1159596
0001b0 04 6f 49 c0 96 6c 43 c0 38 ec 39 40 70 3c 3c c0
       -3.1474009 -3.0535026 2.9050426 -2.9411888
0001c0 a5 5c 44 c0 23 86 42 c0 18 8c 3c 40 1f cc 40 40
       -3.0681546 -3.039437 2.9460506 3.0124586
0001d0 ec 8a 3d 40 fa c7 46 c0 96 01 39 40 e9 54 49 40
       2.961604 -3.1059556 2.8907218 3.1458075
0001e0 30 58 3c c0 46 f5 3a 40 3b 00 38 c0 bc 47 42 c0
       -2.9428825 2.9212203 -2.875014 -3.0356283
0001f0 ed 39 44 c0 a5 cd 44 40 87 3d 3a 40 f8 32 37 c0
       -3.0660355 3.0750515 2.9100053 -2.862486
000200 36 1c 3a c0 c8 49 39 c0 43 a4 37 c0 46 8d 3e c0
       -2.9079719 -2.8951283 -2.8694007 -2.9773726
000210 f2 eb 3f 40 60 b8 3d c0 2b de 42 40 d6 7b 46 40
       2.998776 -2.9643784 3.04481 3.1013083
000220 98 a5 3d 40 2f 9e 44 40 81 68 42 c0 d2 3a 43 40
       2.963232 3.0721548 -3.0376284 3.050465
000230 3e 3b 39 40 23 9b 3b 40 c6 92 39 40 84 ec 3c c0
       2.8942409 2.9313438 2.8995833 -2.9519358
000240 0b 62 45 40 2a 6c 3a c0 8d f0 39 40 ad f4 42 40
       3.084109 -2.9128518 2.905307 3.0461838
000250 00 f3 3c c0 37 42 45 40 78 ba 40 c0 2d 52 39 40
       -2.9523315 3.0821664 -3.0113811 2.8956406
000260 10 5e 40 c0 c5 f7 41 40 79 ba 42 40 93 c9 3f c0
       -3.0057411 3.0307477 3.0426314 -2.996678
000270 1a d6 3b 40 ba 23 46 40 8d 05 42 40 45 95 37 c0
       2.9349427 3.0959306 3.0315888 -2.8684857
000280 88 cd 3d c0 71 b0 3e 40 1c 75 3a 40 57 9c 48 c0
       -2.9656696 2.9795191 2.9133978 -3.1345422
000290 95 11 48 c0 8d 2a 45 40 9c ef 3c c0 34 3a 3b 40
       -3.1260731 3.080722 -2.9521246 2.9254274
0002a0 6a ac 48 40 31 83 49 40 66 34 47 c0 e2 79 3a c0
       3.1355233 3.1486323 -3.1125731 -2.9136891
0002b0 53 5d 41 40 a7 bc 3b 40 88 17 3c 40 11 85 45 40
       3.021321 2.9333894 2.9389362 3.0862467
0002c0 10 45 39 40 8f 08 49 c0 1f 01 3a 40 85 41 40 c0
       2.8948402 -3.1411474 2.9063184 -3.003999
0002d0 96 d1 37 40 d5 ed 3b 40 8b 67 48 40 4a c8 44 c0
       2.872167 2.936391 3.1313198 -3.0747247
0002e0 49 20 37 40 8d 1b 3b 40 f5 9f 49 40 f8 24 47 40
       2.8613455 2.9235566 3.150388 3.1116314
0002f0 7a a0 46 c0 03 ca 44 40 c8 24 42 c0 6b fe 3f 40
       -3.1035447 3.0748298 -3.033495 2.9999034
000300 44 4e 42 c0 ab 26 3a c0 05 66 38 40 d3 8f 39 c0
       -3.036027 -2.90861 2.8812268 -2.8994033
000310 43 65 3e 40 9a ff 38 c0 aa 5d 39 40 f1 9e 45 40
       2.9749305 -2.8906007 2.8963418 3.087826
000320 c4 d6 37 c0 41 b1 37 40 ea 2f 3e 40 c2 ba 48 40
       -2.8724833 2.8701937 2.9716744 3.1363988
000330 16 c7 3e c0 84 af 3c c0 1d b7 42 40 6b 3b 44 40
       -2.9809012 -2.9482126 3.0424263 3.0661266
000340 44 d9 3d c0 8c e6 37 c0 ab db 3a 40 53 8c 47 c0
       -2.9663858 -2.8734465 2.9196575 -3.1179397
000350 a6 80 41 40 71 6e 49 40 7a 09 47 40 b6 ef 39 c0
       3.023477 3.1473658 3.1099534 -2.9052558
000360 90 e0 3e c0 f8 74 39 40 68 b2 45 40 5a 1a 43 40
       -2.9824562 2.8977642 3.089014 3.0484834
000370 68 fb 3c 40 1a 58 44 40 d3 c7 3e c0 d0 1d 39 40
       2.9528446 3.0678773 -2.9809463 2.8924446
000380 ad 6c 38 c0 9e 0c 3d 40 4a bd 42 40 e7 8b 45 40
       -2.881633 2.953895 3.0428033 3.086664
000390 88 f2 47 c0 fb 14 46 40 98 9f 38 40 2e 7f 3c 40
       -3.124178 3.0950305 2.8847408 2.9452624
0003a0 50 a2 47 40 de 45 3d c0 90 7b 49 40 a5 2f 3e c0
       3.1192818 -2.9573894 3.1481667 -2.971658
0003b0 f4 d5 39 40 ab 6f 37 c0 9c f7 3d c0 dc 04 3d 40
       2.9036837 -2.8661907 -2.9682379 2.9534216
0003c0 15 e8 42 c0 1f aa 47 40 50 04 47 c0 3d f1 41 40
       -3.0454152 3.1197584 -3.1096382 3.030349
0003d0 09 e6 47 40 5f 16 3a c0 a7 22 3d 40 6b fa 37 40
       3.1234152 -2.9076154 2.95524 2.8746593
0003e0 87 68 37 40 c7 c3 40 c0 4e e6 41 c0 db c6 36 40
       2.8657548 -3.0119493 -3.0296817 2.8558872
0003f0 e3 97 47 40 30 4a 3b c0 af 72 48 c0 12 23 3f 40
       3.1186454 -2.926403 -3.1319997 2.9865155

price_encoder.encoder.bias_ih_l0 f4 [180]
000000 86 bf 43 c0 7c 2c 48 40 17 cc 3d 40 b6 78 3b c0
       -3.0585647 3.127715 2.9655817 -2.9292426
000010 dc 16 47 c0 9f 54 3d c0 5c 97 45 40 a3 4a 3e c0
       -3.1107702 -2.9582899 3.0873632 -2.9733055
000020 8b 6a 46 40 2c bc 44 c0 eb 50 3c c0 8b c5 41 c0
       3.1002529 -3.073985 -2.9424388 -3.027682
000030 cf cf 48 c0 3a d5 40 40 19 95 3b 40 e2 4f 48 40
       -3.1376836 3.0130143 2.9309752 3.1298757
000040 99 af 44 c0 b0 3a 3a 40 fc b7 45 c0 30 52 49 c0
       -3.0732176 2.909832 -3.0893545 -3.1456413
000050 a1 6e 42 c0 ea fe 36 c0 cb 9c 40 c0 b7 71 3e 40
       -3.0380023 -2.8593087 -3.00957 2.9756906
000060 07 dc 44 c0 83 f4 40 c0 dc 0c 3a c0 9e 8f 3e 40
       -3.0759294 -3.0149238 -2.9070349 2.9775157
000070 7c 44 43 c0 96 1c 3e 40 81 28 3a 40 f2 14 49 c0
       -3.051055 2.9704947 2.9087222 -3.1419034
000080 68 d6 47 40 5c c6 44 c0 91 07 3b c0 80 a9 3d 40
       3.1224613 -3.074607 -2.9223368 2.9634705
000090 d1 5f 3d c0 be d3 49 c0 6f 9d 37 c0 01 9c 43 40
       -2.9589732 -3.1535487 -2.868984 3.0563967
0000a0 45 a4 3a 40 81 9d 33 40 d0 cb 47 c0 48 92 3d 40
       2.9162762 2.8064883 -3.1218147 2.9620533
0000b0 38 af 3e 40 5a 33 39 c0 e4 b9 48 40 89 d6 3d 40
       2.9794445 -2.8937593 3.1363459 2.9662192
0000c0 f4 8f 45 c0 b2 de 3b c0 ed 0e 48 c0 fe eb 46 40
       -3.0869112 -2.9354672 -3.125911 3.1081538
0000d0 ef 35 41 c0 92 3c 42 40 c6 00 3a 40 ae aa 47 c0
       -3.0189168 3.034947 2.9062972 -3.1197925
0000e0 ef 41 3a c0 58 40 3c c0 8b a8 41 40 4c d7 3b 40
       -2.9102743 -2.9414272 3.025912 2.9350157
0000f0 88 ad 3f 40 8d 3c 40 c0 b1 4e 45 40 bd 30 3f 40
       2.9949665 -3.0036957 3.082928 2.9873497
000100 d3 09 46 c0 d6 29 43 c0 89 9b 3f c0 78 63 39 c0
       -3.0943496 -3.0494285 -2.993868 -2.896696
000110 00 94 3b 40 22 15 44 c0 5c 3f 37 c0 f9 26 38 c0
       2.9309082 -3.0637898 -2.8632421 -2.8773787
000120 f8 cb 41 40 41 02 46 c0 e1 6b 3e 40 71 72 37 40
       3.0280743 -3.0938876 2.9753344 2.86636
000130 5f 52 41 c0 0a 16 3a 40 5c 63 41 c0 af 4c 44 c0
       -3.0206525 2.9075952 -3.0216894 -3.0671804
000140 25 6e 3d 40 45 56 46 c0 27 70 45 c0 eb 68 3c c0
       2.9598477 -3.0990155 -3.0849702 -2.9439037
000150 b9 08 44 40 87 f7 41 40 56 a5 3e c0 ad 27 3d c0
       3.0630324 3.0307329 -2.9788413 -2.9555466
000160 67 1a 42 40 4f ea 41 40 f9 56 37 40 fb f6 45 c0
       3.0328615 3.029926 2.8646834 -3.0931995
000170 61 a4 3b c0 d8 ba 49 c0 30 c3 37 40 1a 45 41 40
       -2.931908 -3.152029 2.8712883 3.0198426
000180 ce c4 43 c0 62 d0 3e 40 5e b7 3b 40 85 2a 39 c0
       -3.058887 2.9814687 2.9330668 -2.8932202
000190 97 1a 37 c0 1a b2 42 40 ce d9 3e 40 75 0e 3b 40
       -2.860998 3.0421205 2.9820437 2.9227574
0001a0 b6 48 44 c0 2f e2 3a 40 7b 45 44 40 ee 64 47 40
       -3.066938 2.9200552 3.0667408 3.1155353
0001b0 e2 e5 3b 40 a7 92 45 40 99 90 47 c0 ec e4 39 40
       2.935906 3.087076 -3.1182005 2.9045973
0001c0 60 86 42 40 68 b4 39 c0 ef 73 37 c0 c1 7b 3c c0
       3.0394516 -2.9016361 -2.866451 -2.9450533
0001d0 66 8e 49 40 e9 0b 37 c0 5e c4 38 c0 1b 00 46 40
       3.1493163 -2.860102 -2.8869853 3.0937564
0001e0 52 9d 3f c0 a5 42 44 c0 11 40 45 c0 56 29 3c 40
       -2.993977 -3.0665677 -3.0820353 2.940023
0001f0 9f d8 46 40 24 d0 3d 40 31 14 47 c0 f7 0d 43 40
       3.1069715 2.965829 -3.1106074 3.0477273
000200 4c 1a 3d 40 0a b8 3e c0 68 77 44 c0 f4 2b 47 40
       2.95473 -2.9799829 -3.069788 3.1120577
000210 3c 03 40 c0 4a 37 40 c0 8b f7 44 40 82 af 3a c0
       -3.0001974 -3.0033746 3.0776088 -2.9169621
000220 24 95 41 40 ed 1d 38 40 3b d0 44 c0 e2 13 49 c0
       3.0247278 2.8768265 -3.0752094 -3.1418386
000230 18 12 49 c0 84 fe 38 40 2a 85 3f c0 bf f0 47 40
       -3.1417294 2.8905344 -2.9925027 3.124069
000240 f6 b0 39 c0 ac 3e 49 c0 ee b8 38 c0 27 a9 3e c0
       -2.9014258 -3.1444502 -2.8862872 -2.9790742
000250 bc 8b 45 40 c1 04 43 40 5d 42 39 40 0e c1 37 c0
       3.0866537 3.0471652 2.8946755 -2.8711581
000260 d5 51 48 40 b8 00 45 c0 e2 03 45 c0 3c fb 45 c0
       3.1299946 -3.0781689 -3.078362 -3.0934591
000270 a0 50 3b c0 8e 00 47 c0 9f eb 3c 40 52 47 43 c0
       -2.926796 -3.1094089 2.9518812 -3.051228
000280 af bd 3d c0 20 02 3a c0 52 ec 3e 40 45 36 38 c0
       -2.9647024 -2.9063797 2.9831738 -2.8783123
000290 30 de 39 40 4e 59 3d 40 76 cb 3f c0 80 1c 39 40
       2.9041862 2.9585757 -2.9967933 2.8923645
0002a0 42 67 37 c0 4d 18 38 c0 e6 f8 47 40 58 e6 45 c0
       -2.8656774 -2.8764832 3.1245666 -3.092184
0002b0 76 75 3a c0 9e 6f 40 c0 2b 99 3b 40 1f 12 3b 40
       -2.9134192 -3.0068126 2.9312236 2.922981
0002c0 81 3b 45 c0 e3 e4 41 c0 1c ec 3e 40 57 70 49 40
       -3.0817568 -3.0295951 2.983161 3.1474817

price_encoder.encoder.bias_hh_l0 f4 [180]
000000 fe 5d 3a c0 e2 5e 49 40 65 c0 47 40 40 67 38 c0
       -2.9119868 3.1464162 3.1211178 -2.8813019
000010 64 db 44 c0 a3 e3 3e c0 c2 91 37 40 ad 1e 48 c0
       -3.0758905 -2.9826438 2.8682714 -3.1268723
000020 99 69 3e 40 72 26 3c c0 7f 3e 3d c0 bd c7 38 c0
       2.9751952 -2.9398465 -2.9569395 -2.887191
000030 95 38 3e c0 40 fd 3c 40 27 63 45 40 c2 fe 38 40
       -2.9722035 2.9529572 3.0841768 2.8905492
000040 f1 96 46 c0 ae 7a 3b 40 a8 f1 43 c0 aa 39 38 c0
       -3.1029627 2.9293628 -3.0616245 -2.8785195
000050 f3 ed 45 c0 e6 2c 42 c0 cb 75 3e c0 49 36 3f 40
       -3.0926483 -3.0339904 -2.9759395 2.9876883
000060 65 d3 42 c0 17 55 41 c0 70 00 40 c0 94 e5 37 40
       -3.0441525 -3.0208185 -3.0000267 2.8733873
000070 22 a2 3e c0 8a d8 41 40 cb b9 3b 40 0a 0d 48 c0
       -2.9786458 3.0288415 2.933215 -3.1257958
000080 16 22 47 40 5c 87 3f c0 8f ba 45 c0 28 9d 41 40
       3.1114554 -2.9926367 -3.0895116 3.025217
000090 ef d9 36 c0 8a 0b 3f c0 8b a6 3c c0 3f 34 44 40
       -2.8570516 -2.9850793 -2.947665 3.0656888
0000a0 51 61 39 40 5b 86 36 40 d2 10 42 c0 f0 00 38 40
       2.8965647 2.8519504 -3.0322766 2.8750572
0000b0 f4 2f 37 40 24 5a 45 c0 8c 0f 37 40 db 15 38 40
       2.8623018 -3.0836267 2.860324 2.876334
0000c0 a6 ff 40 c0 fa e8 42 c0 ab 88 41 c0 c6 3a 42 40
       -3.0156035 -3.0454698 -3.0239666 3.0348372
0000d0 89 55 3e c0 a2 3b 3d 40 6e 28 39 40 50 44 40 c0
       -2.9739707 2.9567647 2.8930926 -3.0041695
0000e0 d9 68 42 c0 e6 62 41 c0 bf 5e 41 40 38 02 47 40
       -3.0376494 -3.0216613 3.0214078 3.1095104
0000f0 5a 46 3a 40 27 fe 3d c0 8d fc 3f 40 57 33 46 40
       2.910544 -2.9686372 2.9997895 3.0968835
000100 ff 5e 3e c0 b0 d8 47 c0 55 7f 43 c0 3c 6c 42 c0
       -2.974548 -3.1226006 -3.0546467 -3.037856
000110 b8 84 3b 40 f8 04 43 c0 38 8c 3b c0 df 93 49 c0
       2.9299755 -3.0471783 -2.9304333 -3.1496503
000120 8a 55 37 40 51 26 3b c0 ff dd 42 40 43 fa 45 40
       2.864596 -2.9242136 3.0447996 3.0933998
000130 97 ac 3e c0 c8 8c 38 40 6c ac 3d c0 b7 b5 37 c0
       -2.979284 2.8835926 -2.9636488 -2.870466
000140 41 4c 39 40 71 0c 45 c0 31 a7 41 c0 cb 10 3f c0
       2.8952792 -3.0788844 -3.0258296 -2.9854
000150 81 10 48 40 a3 d1 43 40 6c 67 45 c0 13 75 45 c0
       3.1260073 3.0596702 -3.0844374 -3.0852706
000160 b1 01 3d 40 ab ef 46 40 5d 19 42 40 5f f9 47 c0
       2.9532282 3.1083782 3.032798 -3.1245954
000170 c3 ff 44 c0 b6 e1 38 c0 82 eb 41 40 3e d5 47 40
       -3.0781105 -2.8887763 3.0299993 3.1223903
000180 7c fe 3e c0 c4 7e 43 40 f0 e8 44 40 23 31 45 c0
       -2.9842825 3.0546122 3.0767174 -3.081124
000190 59 10 46 c0 6e 23 3a 40 0a 15 3f 40 1b 55 41 40
       -3.0947478 2.9084125 2.9856591 3.0208194
0001a0 c4 5f 3f c0 21 75 39 40 59 46 39 40 ac a4 46 40
       -2.99022 2.897774 2.8949187 3.1038008
0001b0 fe 26 37 40 8b ed 42 40 69 71 3e c0 2e bc 3f 40
       2.861755 3.0457485 -2.975672 2.9958606
0001c0 ce 3f 3c 40 3e b7 3b c0 3d 57 45 c0 85 1b 3b c0
       2.9413943 -2.9330592 -3.0834496 -2.9235547
0001d0 fa 14 39 40 57 3b 42 c0 f6 6d 3f c0 73 c5 44 40
       2.8919053 -3.0348718 -2.9910865 3.0745513
0001e0 3a ec 38 c0 61 04 38 c0 3b aa 3d c0 c0 4a 3c 40
       -2.8894181 -2.8752673 -2.963515 2.9420624
0001f0 0d e0 39 40 ca c1 40 40 61 05 41 c0 63 32 38 40
       2.9043 3.011828 -3.0159533 2.8780754
000200 d0 97 37 40 32 c7 41 c0 9a ed 3d c0 20 2e 45 40
       2.868641 -3.027783 -2.967627 3.0809402
000210 5e d2 40 c0 16 ed 46 c0 19 7e 45 40 68 11 49 c0
       -3.0128398 -3.1082206 3.0858214 -3.1416874
000220 f0 5c 45 40 a5 7c 47 40 eb 5e 49 c0 5e 93 3b c0
       3.0837975 3.1169827 -3.1464183 -2.9308696
000230 98 0e 3c c0 94 d4 3a 40 dc 28 38 c0 af 4b 45 40
       -2.9383907 2.9192247 -2.8774939 3.0827444
000240 a6 00 49 c0 08 ba 42 c0 58 1d 3d c0 a9 6b 48 c0
       -3.1406646 -3.0426044 -2.954916 -3.131571
000250 18 12 38 40 f7 ba 3e 40 d9 de 38 40 4c 78 3e c0
       2.8761044 2.9801614 2.8886015 -2.9760923
000260 ed 3d 3b 40 38 26 43 c0 0a e2 38 c0 c4 7c 38 c0
       2.9256546 -3.0492077 -2.8887963 -2.882615
000270 ba f0 38 c0 ac 5f 3d c0 93 f4 48 40 a6 0d 38 c0
       -2.8896928 -2.9589643 3.1399276 -2.875833
000280 33 ce 45 c0 22 a8 3d c0 96 ed 3e 40 6f 56 46 c0
       -3.0907104 -2.963387 2.983251 -3.0990255
000290 ae 51 3c 40 4a 71 3e 40 0a 0b 47 c0 e0 69 40 40
       2.9424853 2.9756646 -3.1100488 3.006462
0002a0 0a d6 44 c0 93 0d 48 c0 58 11 3d 40 b8 d3 39 c0
       -3.075564 -3.1258285 2.9541836 -2.9035473
0002b0 ec 9e 48 c0 a0 80 48 c0 cb 24 44 40 89 68 3b 40
       -3.1346998 -3.1328506 3.0647457 2.9282553
0002c0 23 3c 43 c0 b7 50 45 c0 c2 0d 45 40 05 42 41 40
       -3.0505455 -3.0830514 3.0789647 3.0196545

atten_layer.0.weight f4 [45, 135]
000000 c0 52 bc bb 40 cb d3 3b 10 c0 bf bc 58 49 8d bc
       -0.0057471693 0.0064634383 -0.023407012 -0.017246887
000010 67 17 ab 3d 36 22 4b 3d d9 b8 42 bd 3d 6c 05 bd
       0.08354073 0.049593173 -0.047539566 -0.032573927
000020 f6 50 52 3d 2b 99 a3 3d 5c cd c8 3c 1d 5d 97 3d
       0.05134674 0.07988199 0.024511985 0.07390807
000030 3c a7 90 bc 4e 36 5b 3d 80 fe 68 ba 8d ca 01 bd
       -0.017657869 0.053518586 -0.0008888021 -0.031687308
000040 14 e6 bf bc c4 5c dd 3c 8e 32 37 3d c0 81 32 3b
       -0.02342514 0.027021773 0.044725947 0.0027237982
000050 58 d2 8d bc fa 02 fc bc 80 87 31 bb 39 f2 af 3d
       -0.017312214 -0.030763138 -0.002708882 0.08591122
000060 f8 00 dc 3c ca 41 a9 bd f0 4b 9f bc 80 1b 05 3d
       0.02685593 -0.082645014 -0.01944539 0.03249693
000070 07 82 a8 bd 12 a7 63 3d 64 7b 6a bd 89 eb 90 bd
       -0.08227926 0.055579253 -0.05724658 -0.07076175
000080 6c 25 2f bd 20 a2 40 3b de 57 81 bd d0 87 d5 bb
       -0.042760298 0.002939351 -0.063155875 -0.0065164343
000090 b8 1c 79 bd 50 e5 3f bc 30 cc a8 bd 23 7b 07 bd
       -0.060818404 -0.011712387 -0.08242071 -0.033076417
0000a0 60 33 80 bb 19 d4 a5 3d b1 46 af bd 60 66 03 bc
       -0.0039123744 0.08097095 -0.08558405 -0.008020014
0000b0 00 c0 77 b8 23 39 9c bd 1f 54 3b bd de 2a 28 3d
       -5.9068203e-05 -0.076280855 -0.04573452 0.041056506
0000c0 a2 43 6a 3d 77 0b 85 3d 0b b3 9d 3d bd f9 a3 3d
       0.057193406 0.06496327 0.07700165 0.08006618
0000d0 f0 54 96 bc 86 4a 8a bd 39 e6 97 bd ea f6 2c bd
       -0.018351048 -0.067524955 -0.07416958 -0.042227663
0000e0 e0 49 4f bd 2c 1a e9 3c 59 0e 35 bd 6f 67 88 3d
       -0.050607562 0.028454863 -0.044203136 0.066603534
0000f0 9b 5c 38 bd 7b d2 8c 3d 12 c1 51 3d ef 27 96 3d
       -0.04501019 0.068760835 0.051209517 0.073318355
000100 3f 0c 94 bd a9 35 a5 3d 40 89 c3 ba eb 93 97 3d
       -0.07228898 0.080668755 -0.0014918223 0.0740126
000110 32 5d 42 3d 88 06 81 bd ea e3 91 bd 0b 99 ae 3d
       0.04745216 -0.06300074 -0.07123549 0.085252844
000120 78 ae b2 bc a0 fc 7b bc 80 9d ea ba 31 35 7e bd
       -0.021811709 -0.015380055 -0.0017899722 -0.062062446
000130 20 55 65 bc fe d8 28 3d e0 a0 6c bb 46 42 a3 bd
       -0.013997346 0.041222565 -0.003610663 -0.07971625
000140 08 85 1e 3d 69 81 84 3d ff 6e 0d bd 6b 21 90 bd
       0.038701087 0.064699955 -0.034529682 -0.07037624
000150 6f 9a 9b 3d f2 79 34 3d 79 1f 9a 3d 00 b4 10 3b
       0.07597815 0.04406161 0.07525534 0.0022079945
000160 1d 00 32 bd 5d 1f 9b 3d e5 b8 43 c0 40 d7 58 c0
       -0.04345714 0.075743414 -3.05816 -3.3881378
000170 26 8d 72 c0 15 15 44 c0 c7 80 40 40 10 bc 43 c0
       -3.789865 -3.0637867 3.00786 -3.0583534
000180 35 e3 45 c0 40 22 73 40 17 c3 3f 40 a3 89 3d 40
       -3.0919926 3.7989655 2.9962823 2.9615257
000190 14 03 40 c0 45 22 39 c0 33 0b 3e c0 42 f4 43 40
       -3.0001879 -2.8927166 -2.9694335 3.0617833
0001a0 bc ef 41 c0 80 7f 3a c0 7c 40 3e c0 19 39 40 40
       -3.0302572 -2.914032 -2.9726858 3.003485
0001b0 5f 29 42 40 67 a9 17 c0 06 17 64 c0 22 88 75 40
       3.033775 -2.3697145 -3.5639052 3.836434
0001c0 91 65 6c 40 3c ea 19 40 24 37 46 c0 f4 a8 0d 40
       3.6936991 2.4049215 -3.0971155 2.213437
0001d0 d7 ce 5e 40 8b 09 40 40 37 de 71 c0 32 85 72 40
       3.4813745 3.0005825 -3.779188 3.7893796
0001e0 0e fd 3f 40 c4 4e 44 c0 c0 7c 3d 40 d8 12 42 c0
       2.9998202 -3.0673075 2.9607391 -3.0324001
0001f0 bf 27 3b c0 79 90 3b c0 aa c2 3e 40 a7 ad 3e c0
       -2.924301 -2.930693 2.9806314 -2.979349
000200 3d 7b 46 40 c7 65 3f 40 dc 4c 18 c0 51 3c 62 40
       3.1012719 2.990587 -2.3796911 3.5349314
000210 51 a1 7a c0 08 e6 48 c0 cc 88 6b 40 ca c1 8a bd
       -3.916096 -3.13904 3.6802244 -0.067752436
000220 c5 94 99 3d f8 e9 51 bd b9 2b 8e bd 4c 7a ee 3c
       0.07499079 -0.05124852 -0.06941933 0.02911105
000230 c0 8e 3e 3b 0e 6a 35 3d 80 f2 51 3c 4c 23 c9 bc
       0.0029076785 0.044290595 0.012814164 -0.024552964
000240 7a 9d 04 3d ea cb a2 bd d3 35 12 bd 7e 44 71 3d
       0.032376744 -0.0794905 -0.035695862 0.05890321
000250 16 db 3f 3d fb 86 2b bd 1d e2 a8 3d 62 f4 5f 3d
       0.046839796 -0.041876774 0.08246253 0.05467642
000260 8e 12 2b 3d 38 15 7c bd 81 a6 51 bd fa f9 92 bd
       0.041765742 -0.061543673 -0.05118418 -0.071765855
000270 a0 f9 4d bd 1e 36 01 3d 99 b2 87 3d fd 37 94 3d
       -0.05028689 0.03154575 0.06625862 0.072372414
000280 60 26 42 bb f0 bb 11 3c ae d4 f3 bc e8 f6 82 bd
       -0.0029624924 0.008894905 -0.0297645 -0.0639475
000290 60 41 f8 3c 58 aa cc bc cc db 18 bd 48 b0 f5 bc
       0.03030461 -0.02498357 -0.03731899 -0.029991284
0002a0 44 ae 8a bd 1c 96 54 bd 1e b9 05 bd 50 8c af bc
       -0.0677152 -0.051900968 -0.032647245 -0.02142921
0002b0 9c b1 a7 bc 1f 3c a3 3d 28 59 ab bc 7a eb 2f 3d
       -0.020470433 0.079704516 -0.020916536 0.042949177
0002c0 6c d8 87 bc 77 85 9f 3d e0 bf bb bc e6 79 54 3d
       -0.01658269 0.07789128 -0.022918642 0.051874064
0002d0 ea ed 7b 3d 50 39 c6 bc 24 5c f1 3c a4 24 45 bd
       0.06150619 -0.02419725 0.029462881 -0.048130646
0002e0 b2 de 12 bd 9e 89 47 3d ea 1f 3b 3d b4 8a 91 3c
       -0.03585691 0.048715226 0.045684732 0.017766334
0002f0 c1 25 93 3d 79 7c 42 bd a8 c9 4e 3c 75 13 8d bd
       0.07184935 -0.047481988 0.012621321 -0.06888477
000300 52 da ad bd 10 d1 5b bd 3f 69 af 3d 4e 3f 51 3d
       -0.08488907 -0.053666174 0.08564996 0.051085763
000310 69 68 80 3d 3a 40 7a 3d 10 c7 33 bc 20 0d 79 3c
       0.06269915 0.061096407 -0.010972753 0.015200883
000320 ea 2c c5 bc 37 5f 49 bd a2 c8 10 bd 43 1c 4d bd
       -0.024069268 -0.04916307 -0.03534759 -0.05007578
000330 ce 6e 27 3d f0 15 24 bd bc d8 9e bc 35 02 a9 3d
       0.040877156 -0.040059984 -0.019390456 0.08252374
000340 9a a9 14 3d f8 0e 7c 3c dc 5c 84 bc 0d 30 87 3d
       0.036294557 0.015384428 -0.01615756 0.06600962
000350 30 52 af 3b 60 5a 3f 3b 60 fe 3a bd e9 9e 8f bd
       0.0053503737 0.0029198155 -0.045652747 -0.070127316
000360 42 aa 7e 3d f3 92 43 bd a9 8c 9b bd 92 cc 9f bd
       0.06217409 -0.047747564 -0.07595188 -0.078026906
000370 2c d2 9e 3c d8 3d aa bd 26 18 91 bd 10 7c ae 3c
       0.019387327 -0.08312577 -0.07084684 0.021299392
000380 da e3 26 3d 0a 45 51 c0 ca 5d 5d 40 cf ae 67 40
       0.04074464 -3.2698388 3.4588494 3.6200445
000390 11 41 3d c0 c1 bf 3c 40 6a ed 3e 40 f6 de 3b 40
       -2.9570963 2.9492037 2.9832406 2.9354835
0003a0 3a 8a 4c c0 7c 61 49 40 f4 0f 44 40 c9 0b 3e c0
       -3.1959367 3.146575 3.0634737 -2.9694693
0003b0 88 a6 32 c0 b7 ff 42 c0 54 e6 3b 40 fa cf 43 c0
       -2.7914143 -3.0468576 2.935933 -3.059569
0003c0 ea 71 33 c0 73 f7 40 40 d8 9e 3f 40 c9 15 3e 40
       -2.8038278 3.015103 2.99407 2.9700797
0003d0 ac a6 57 c0 b2 91 51 40 9f 87 4d c0 6e c3 60 c0
       -3.3695478 3.2745175 -3.2114027 -3.511928
0003e0 db c9 5e 40 e8 2d 40 c0 ac aa 59 40 33 cc 4e c0
       3.4810703 -3.002802 3.401042 -3.2312133
0003f0 fe 12 45 40 07 e8 5a 40 08 ad 51 c0 f7 dd 40 40
       3.0792842 3.4204118 -3.276186 3.0135477

atten_layer.0.bias f4 [45]
000000 4b 4a 2b 40 64 28 45 40 6f 08 36 40 58 f6 3f c0
       2.6764095 3.0805902 2.8442647 -2.9994106
000010 2a 03 3d c0 56 6d 42 c0 99 fd 46 c0 fd 44 3d 40
       -2.953318 -3.0379233 -3.1092284 2.9573357
000020 ed 19 41 c0 b1 23 3f 40 e6 05 39 c0 35 9a 43 c0
       -3.0172074 2.9865534 -2.890985 -3.056287
000030 02 76 42 40 74 e2 3a c0 a8 ff 35 c0 0c 35 44 40
       3.0384526 -2.9200716 -2.843729 3.0657377
000040 9b c4 39 c0 6d fa 44 c0 e9 ec 36 c0 09 3f 3a c0
       -2.9026248 -3.0777848 -2.8582098 -2.9100974
000050 6c 9a 42 c0 6d 0c 48 40 0d 99 3b 40 ab b5 42 40
       -3.0406752 3.1257584 2.9312165 3.0423381
000060 47 e2 47 c0 03 64 43 c0 14 15 40 c0 7a 71 40 c0
       -3.1231859 -3.0529792 -3.0012865 -3.006926
000070 14 f2 38 c0 cb 7b 49 c0 df 16 3c 40 87 e9 41 40
       -2.8897753 -3.1481807 2.938896 3.0298784
000080 c4 d6 41 40 84 0b 42 40 6b 76 3c c0 ed 76 46 c0
       3.0287333 3.0319529 -2.9447277 -3.1010087
000090 38 8d 43 40 7c 71 3c 40 3e 35 48 c0 58 7f 3c 40
       3.0554943 2.9444265 -3.1282496 2.9452724
0000a0 aa 47 37 c0 4f 47 42 c0 f5 32 42 40 b2 47 43 40
       -2.863749 -3.0356023 3.0343602 3.051251
0000b0 a6 c0 37 c0
       -2.8711333

atten_layer.2.weight f4 [1, 45]
000000 62 d2 97 3f 1f e4 9e c0 a0 bc 14 40 61 a8 b3 bf
       1.1861079 -4.965347 2.3240128 -1.403576
000010 38 4b e4 bf c4 98 ae bf 02 c6 07 c0 1b e2 75 c0
       -1.7835455 -1.364037 -2.1214604 -3.8419254
000020 01 f5 c9 bf 9c 8d d5 3f 7f 65 43 bf eb 6c 71 40
       -1.5777894 1.6683841 -0.76326746 3.7722728
000030 99 df 81 c0 b1 35 de bf 98 aa b5 40 e1 74 10 40
       -4.0585446 -1.7360135 5.6770744 2.2571337
000040 06 71 95 40 b9 68 81 40 06 a6 8c bf 83 17 9a bf
       4.670047 4.0440335 -1.0988166 -1.2038425
000050 85 23 65 40 97 28 3d 40 68 a5 35 40 43 ff 35 40
       3.580293 2.9556024 2.8382206 2.843705
000060 0f 7b 55 40 6f c9 8e 40 2c d2 28 c0 b7 0b 11 c0
       3.335636 4.462089 -2.6378279 -2.26634
000070 ce 81 a5 40 ce 20 52 40 c8 ff 31 40 ac 43 8a c0
       5.1720953 3.2832522 2.7812366 -4.3207607
000080 e6 a1 0e 40 45 30 4d c0 01 9a 85 40 48 1b 1b c0
       2.2286315 -3.2060711 4.1750493 -2.42354
000090 82 5a 65 c0 0e 46 75 c0 8b 7a 70 40 86 dc 8b c0
       -3.5836492 -3.8324008 3.7574794 -4.3706694
0000a0 52 cd a2 bf f6 4c 59 40 8d b6 91 c0 63 f4 3e 40
       -1.2718909 3.3953223 -4.553534 2.9836662
0000b0 a9 35 9e bf
       -1.2360126

lstm.weight_ih_l0 f4 [180, 45]
000000 0d 92 2f 40 11 98 48 c0 bd 52 4b c0 23 f3 3f 40
       2.7432892 -3.1342814 -3.176925 2.999215
000010 39 ba 48 c0 fc 3d 40 40 c8 3a 38 40 3a 50 49 40
       -3.1363661 3.0037832 2.8785877 3.1455216
000020 aa f5 34 c0 14 ef 49 40 0f 1c 3c 40 c2 f9 44 40
       -2.8274941 3.1552172 2.9392126 3.077744
000030 da 62 40 40 db f0 3e 40 25 b3 42 c0 1a 33 4a 40
       3.0060334 2.9834507 -3.042184 3.159369
000040 61 0f 3c c0 a8 a4 4a c0 34 01 3f c0 b8 8b 4d 40
       -2.9384387 -3.1662998 -2.9844484 3.2116528
000050 61 a0 4e c0 16 68 59 40 36 3b 4c 40 f4 0f 41 c0
       -3.2285388 3.396978 3.191114 -3.0165987
000060 7a 15 1a 40 71 10 50 c0 d8 22 4e 40 a3 3d 41 c0
       2.4075608 -3.2510035 3.2208767 -3.019387
000070 2e b3 52 c0 84 bb 48 40 66 a2 3e c0 f0 0f 48 c0
       -3.2921863 3.136445 -2.978662 -3.1259727
000080 a7 10 3e c0 0e c6 45 40 f3 36 48 40 a6 73 48 c0
       -2.9697664 3.0902133 3.1283538 -3.1320586
000090 61 63 41 c0 1b 61 3e 40 9c 54 40 40 ea 46 47 c0
       -3.0216906 2.9746768 3.0051641 -3.1137033
0000a0 9b b3 41 c0 1d dc 4d 40 6c 84 4f c0 05 2b 47 c0
       -3.0265872 3.2165596 -3.2424574 -3.1120007
0000b0 4e 35 51 40 27 1f 4a 40 f4 2d 55 c0 1b 56 4a c0
       3.2688785 3.1581514 -3.3309298 -3.1615055
0000c0 e7 41 48 40 4a b6 44 40 9c 98 43 40 4c dd 43 40
       3.1290224 3.073626 3.0561895 3.060382
0000d0 65 b1 44 40 75 84 3c c0 e5 b8 3d 40 2f 2f 3d 40
       3.0733273 -2.9455845 2.96441 2.9560049
0000e0 0a ce 3a c0 da 70 41 40 a7 d3 39 c0 78 6b 3c c0
       -2.9188256 3.022513 -2.9035432 -2.9440594
0000f0 84 9c 39 40 fe 74 41 c0 34 df 38 c0 0f 73 3b c0
       2.900178 -3.0227656 -2.8886232 -2.9288976
000100 c0 6d 4d 40 e8 2b 4f c0 20 94 43 40 10 2e 56 40
       3.2098236 -3.2370548 3.0559158 3.3465614
000110 1e f2 47 c0 8f 13 bb bf 5c 83 4c c0 f0 51 4c 40
       -3.1241527 -1.4615344 -3.1955175 3.192501
000120 1f 1a 38 c0 e0 ed 50 c0 d1 0f 4a 40 f1 88 3e c0
       -2.8765943 -3.2645187 3.1572154 -2.9771082
000130 47 33 47 c0 e2 51 4a c0 36 14 3e 40 e4 48 3b 40
       -3.1125047 -3.1612477 2.9699836 2.926324
000140 4a 51 41 c0 8d b8 41 c0 43 80 43 40 40 3f 46 40
       -3.0205865 -3.026889 3.0547035 3.0976105
000150 7e a8 37 c0 0a d3 41 c0 d6 e2 4c 40 e6 62 42 c0
       -2.869659 -3.0285058 3.201345 -3.0372863
000160 aa 54 2f c0 0c 2f 4f 40 44 dc 39 c0 2a d5 4f c0
       -2.7395425 3.2372465 -2.904069 -3.2473855
000170 7e 78 4f c0 a7 18 3c 40 88 f5 41 c0 2e 80 3f 40
       -3.2417293 2.9390047 -3.030611 2.9921985
000180 e7 bf 41 c0 d6 e8 4e 40 3f fc 48 c0 3f 88 45 c0
       -3.0273378 3.2329612 -3.1403959 -3.0864408
000190 41 07 3f 40 e4 ff ed bf fb d5 44 c0 2a 84 46 40
       2.9848177 -1.8593717 -3.0755603 3.1018167
0001a0 af ed 3a 40 4c fe 39 40 fe 41 45 40 ed 48 3b 40
       2.920757 2.906146 3.0821528 2.926326
0001b0 4f 79 3c c0 29 ee 4d 40 ad d2 4c c0 3e 4f 45 40
       -2.944904 3.2176611 -3.2003586 3.0829616
0001c0 34 29 43 40 44 0b 47 c0 69 e9 03 bf 84 d3 44 c0
       3.0493898 -3.1100626 -0.5152803 -3.07541
0001d0 5f 7a 55 40 ba 74 3f c0 0e 66 4d c0 d4 27 4b 40
       3.335594 -2.9914994 -3.209354 3.174306
0001e0 33 99 49 40 5e d2 38 40 93 56 42 c0 97 72 49 40
       3.1499755 2.8878398 -3.036534 3.147619
0001f0 ec 9d 3d 40 ff 1f 43 40 e4 b0 49 40 82 bb 47 40
       2.9627638 3.048828 3.1514215 3.1208196
000200 f3 0a 38 c0 5b d1 42 c0 d2 27 3f 40 76 26 49 40
       -2.8756683 -3.044028 2.9868054 3.1429725
000210 98 a9 50 c0 5c a3 3d 40 f0 eb 43 40 20 b4 4b 40
       -3.2603512 2.9630957 3.0612755 3.182869
000220 90 f7 52 c0 e2 4c 4f c0 5d ea 47 40 77 f4 3c c0
       -3.29636 -3.2390676 3.1236794 -2.952421
000230 2b 9e 3a 40 20 da 49 40 22 08 55 40 59 dd 3b c0
       2.9159038 3.1539383 3.3286214 -2.935385
000240 e7 ba 3b c0 ac dc 48 40 93 34 34 c0 35 83 37 40
       -2.9332826 3.1384687 -2.8157089 2.8673832
000250 a8 6c 45 40 89 40 46 40 ff 29 45 40 89 80 40 40
       3.0847569 3.097689 3.0806882 3.0078452
000260 ee 7e 38 c0 3c 47 41 c0 6c 12 5b 40 6e 10 4a c0
       -2.8827472 -3.0199728 3.4229994 -3.1572528
000270 c0 1c 47 40 a0 98 54 40 c2 9f 59 c0 51 63 e1 3f
       3.1111298 3.3218155 -3.4003758 1.7608434
000280 42 10 51 c0 8f 5f 50 40 3b 77 3b c0 2c f9 58 c0
       -3.2666173 3.2558324 -2.9291523 -3.3902082
000290 d4 85 52 40 9d 2e 3c c0 72 27 4b 40 90 b6 3a c0
       3.2894182 -2.940345 3.1742826 -2.9173927
0002a0 e3 68 3a 40 2f de 43 40 13 6d 45 c0 3f 42 39 c0
       2.9126518 3.060436 -3.0847824 -2.8946683
0002b0 00 f8 36 40 bf f0 3b c0 39 d7 3c c0 f5 11 44 40
       2.8588867 -2.936569 -2.9506361 3.063596
0002c0 73 80 4a 40 e8 2f 48 c0 3a a8 3d 40 4b eb 49 40
       3.16409 -3.127924 2.9633927 3.1549861
0002d0 12 f0 3e 40 a2 de 50 c0 2a 23 5e c0 2d e8 3b 40
       2.9834027 -3.2635884 -3.4708962 2.936046
0002e0 96 dd 34 40 2b 46 45 40 35 3f 40 40 a4 ff 4d 40
       2.8260245 3.0824077 3.0038579 3.218728
0002f0 6f 1b 49 c0 70 c7 48 c0 db 99 3d 40 72 0d 43 c0
       -3.1422994 -3.1371727 2.9625156 -3.0476956
000300 30 09 3a 40 02 93 30 c0 9c 45 4b 40 34 60 46 40
       2.9068108 -2.7589726 3.1761236 3.0996218
000310 b5 70 3f 40 44 95 3d c0 b8 19 38 c0 69 47 57 40
       2.991254 -2.9622355 -2.8765697 3.3637335
000320 14 95 5b c0 2c 67 49 40 3f 71 50 40 14 34 59 c0
       -3.430974 3.146922 3.256912 -3.3938036
000330 2f ec 27 40 87 c7 5b c0 f7 fd 54 40 84 8e 3b c0
       2.6237905 -3.4340532 3.3280008 -2.9305735
000340 e9 a4 4b c0 f2 95 4f 40 22 3f 40 c0 ed a7 40 40
       -3.1819403 3.243527 -3.0038533 3.0102494
000350 26 d0 42 c0 86 45 47 40 1d f0 47 40 6f d0 3b c0
       -3.0439544 3.1136184 3.1240304 -2.9345968
000360 d4 3f 3b c0 5d 2f 45 40 e3 e3 36 c0 ea 97 44 c0
       -2.9257708 3.0810158 -2.857659 -3.071772
000370 77 ff 47 c0 63 09 57 40 ea d8 4d c0 9c 6e 49 40
       -3.1249673 3.359948 -3.2163644 3.147376
000380 76 03 4c 40 ab a8 48 40 45 a4 4c c0 e8 e6 55 c0
       3.1877112 3.1352947 -3.1975262 -3.3422184
000390 63 d8 3c 40 04 a0 47 c0 bc 38 3f 40 03 1f 38 40
       2.9507072 -3.1191416 2.9878378 2.8768928
0003a0 e4 97 49 40 ae bf 44 c0 34 6c 4a c0 c5 1f 40 40
       3.1498957 -3.0741992 -3.1628542 3.001939
0003b0 be 5d 18 c0 5b 6d 3f 40 f6 da 40 40 e4 02 43 40
       -2.3807216 2.9910495 3.0133643 3.0470514
0003c0 20 2a 44 40 64 67 3c 40 6d 6c 47 c0 17 57 44 c0
       3.065071 2.9438105 -3.1159928 -3.0678155
0003d0 c6 28 48 40 9c 3f 4e c0 b0 58 44 40 c0 b3 47 40
       3.1274886 -3.2226324 3.067913 3.120346
0003e0 da 7e 50 c0 03 61 93 bf b9 c5 52 c0 5b c9 44 40
       -3.2577424 -1.1513981 -3.293318 3.0747898
0003f0 21 a8 48 c0 9a a3 50 c0 32 05 56 40 ca 4e 43 c0
       -3.1352618 -3.2599854 3.344067 -3.051684

lstm.weight_hh_l0 f4 [180, 45]
000000 10 96 73 bc 4b 1e 10 3e 37 b5 15 be e0 ef 82 3b
       -0.014867321 0.14074056 -0.14619909 0.0039958805
000010 84 f7 14 be 31 a0 b9 bd 08 e3 1d 3d 22 2c cc 3d
       -0.14547545 -0.09063757 0.038546592 0.09969355
000020 40 ef c2 bc 95 e2 07 3e 0e 7f 8a 3d aa ec 09 be
       -0.023795724 0.13270028 0.06762515 -0.13469186
000030 30 24 18 bd e0 58 b9 bc 18 8d c2 bc cc 5f 80 3d
       -0.037143886 -0.022625387 -0.02374892 0.06268272
000040 6a c5 fb 3d 46 ea cf bd 5a 5f a9 bd 94 f1 b5 bd
       0.12293513 -0.10152106 -0.0827014 -0.08883968
000050 78 83 e3 3c 6c 35 75 3d e2 84 c8 bd 18 28 a5 3d
       0.02777265 0.0598654 -0.097909704 0.08064288
000060 2a 7d 86 3d 02 a6 34 bd a4 3a 38 bd e1 a7 0e be
       0.06566842 -0.04410363 -0.0449778 -0.13931228
000070 86 e5 c2 bd cc b7 2e 3d 60 07 6f 3d a9 91 06 3e
       -0.09516434 0.04265575 0.058356643 0.13141502
000080 46 57 0d bd 14 9d ce 3d 1c 78 a9 bd 49 f9 f3 bd
       -0.03450706 0.10088554 -0.08274862 -0.11912782
000090 2e aa 02 be 24 51 c9 3d 38 5b c0 bc c2 cd f6 3d
       -0.12760231 0.098299295 -0.023480996 0.12050964
0000a0 fc f2 5e bd 6d 13 18 3e 80 1e 81 3d dd 4f 8d bd
       -0.054430947 0.1485116 0.063046455 -0.06899998
0000b0 72 82 a5 3d 90 29 17 bd ac ba cb 3d e8 e5 b5 bc
       0.08081521 -0.03690487 0.09947714 -0.022204354
0000c0 01 58 17 3e ee d3 e3 3d 02 1b 0c be 60 60 0a 3d
       0.14779665 0.11124407 -0.13682178 0.033783317
0000d0 d0 ea 46 bc 70 f1 61 bd 64 35 9c 3d 48 dd dd bc
       -0.012140945 -0.055161893 0.07627371 -0.027083054
0000e0 a0 27 5f bd 18 27 cc bd 36 c3 f0 bd 6a 07 b7 3d
       -0.05448115 -0.09968394 -0.117559835 0.08936961
0000f0 86 85 c3 3d 18 ea 9f bc fc 42 bf 3d ea 87 82 bd
       0.09546952 -0.019520804 0.09338948 -0.0637358
000100 56 c5 f8 3d 9e 92 0d bd 26 cd 8b 3d c0 13 bd 3c
       0.12147014 -0.034563653 0.06826238 0.023080707
000110 cf 51 11 3e f8 df 93 bc ea 8e f3 bd 76 ea c5 bd
       0.14191364 -0.018051133 -0.11892493 -0.096638605
000120 c0 33 be bb a8 0c 0d bd 0c da c2 bd d6 19 de bd
       -0.005804509 -0.034435898 -0.095142454 -0.108447716
000130 f1 b8 09 be a4 c3 1d bd d6 de c6 3d 28 24 b2 3c
       -0.13449456 -0.038516656 0.09710471 0.021745756
000140 00 9b 4d 3b 4d 57 17 be c0 33 f2 3b 2c fd 10 be
       0.0031372905 -0.14779396 0.007391423 -0.14159077
000150 82 b6 ca bd 54 69 92 bd ff 04 07 be c0 01 86 bc
       -0.09898092 -0.07148996 -0.131855 -0.016358256
000160 c6 a7 9e 3d b2 a5 d1 bd 67 bd 16 be 22 b4 e8 bd
       0.07746844 -0.10236682 -0.14720689 -0.113624826
000170 10 27 5a 3c 8d 6b 17 3e da c4 f1 3d c5 5a 0c 3e
       0.013314977 0.14787121 0.118051246 0.13706501
000180 40 d8 54 3b fc 75 5d 3d 80 82 2b bd 88 ef ee bd
       0.0032477528 0.054067597 -0.0418725 -0.11666781
000190 a8 37 15 3d 84 91 99 3d 4e 29 e9 3d e0 84 b1 bd
       0.03643003 0.07498458 0.11384831 -0.08667922
0001a0 48 bb c5 3c fe ba f4 bd 22 78 08 be 16 fd 8a bd
       0.024137154 -0.119497284 -0.13327077 -0.067865536
0001b0 74 ef d8 bd e5 a5 e7 bd d0 2c 39 bc 95 f7 01 be
       -0.10592547 -0.11310939 -0.011302188 -0.12692101
0001c0 e0 4d f0 bd d2 56 d3 bd d3 fe ba bd b0 8a 1f 3c
       -0.117336035 -0.10319294 -0.09130635 0.0097376555
0001d0 28 e1 8e bc 2a 1d 80 3d 58 2f c0 bc 6c b4 71 3d
       -0.017441347 0.062555626 -0.023460075 0.059009954
0001e0 ba aa 0e bd b6 b6 99 3d b0 58 84 3d 1a 78 f5 3d
       -0.034830786 0.075055525 0.06462228 0.11985798
0001f0 a8 7c e6 3c 2a f8 e8 bd 64 d1 4a 3d 80 db 43 3c
       0.028135613 -0.113754585 0.049516097 0.011954188
000200 68 cb bc bd 0e d8 82 3d 9c 51 0f 3d 78 57 b3 bc
       -0.09218484 0.063888654 0.03498994 -0.021892294
000210 c6 2f dd bd da 40 21 bd ae c6 af bd a8 07 98 3c
       -0.10800128 -0.039368488 -0.08582817 0.018558338
000220 ea 49 8b bd 80 80 e6 bb d6 4c 03 bd d8 6c 30 3d
       -0.06801207 -0.0070343614 -0.0320557 0.04307255
000230 80 26 8c 3d f8 63 ee bc 14 a5 b5 3d 08 2f 04 be
       0.06843281 -0.029100403 0.08869377 -0.12908566
000240 0b 97 11 3e 83 68 11 3e d1 bc 02 3e 8a a2 af bd
       0.14217775 0.14200024 0.1276734 -0.08575924
000250 66 99 1f bd 50 db 12 3d b4 d0 fb bd fa f1 dc 3d
       -0.03896465 0.035853684 -0.12295666 0.10788341
000260 80 b7 c8 3b fd ac 00 3e e6 fd ff bd 16 92 25 bd
       0.0061253905 0.1256599 -0.12499599 -0.04042252
000270 f2 2f 08 be 48 fb 5d bd 18 21 cd 3c 00 76 64 bb
       -0.1329954 -0.05419472 0.025040194 -0.0034860373
000280 68 4f 7a 3d 2c 09 47 bd 30 31 34 bd 39 69 e8 bd
       0.061110884 -0.04859273 -0.04399222 -0.11348195
000290 ea aa 13 be 15 75 01 3e 81 6b d3 bd f9 db f8 bd
       -0.14420667 0.1264232 -0.10323239 -0.121513315
0002a0 88 f4 0e bd 00 32 5a bc 88 47 ea 3c 2e 43 db bd
       -0.034901172 -0.013317585 0.028598562 -0.10706173
0002b0 1d 07 e1 bd ef 07 02 be 7e 02 a1 3d 94 b8 8d 3d
       -0.10987685 -0.12698339 0.078618035 0.06919971
0002c0 40 7c 88 bd 00 88 15 3b b0 60 e4 bc 54 db 15 3d
       -0.06664324 0.0022816658 -0.027878135 0.03658612
0002d0 8c a6 c0 bd cd 37 9e bd 00 e4 f4 bc 62 48 17 bd
       -0.09406766 -0.07725487 -0.029893875 -0.036934264
0002e0 aa 52 a4 bd 94 d9 e3 bd 08 f1 9c bc fa d5 f1 bd
       -0.080235794 -0.11125484 -0.019157901 -0.11808391
0002f0 54 3c fa bc 29 57 01 3e 40 87 3a 3d 70 7e 59 3c
       -0.030546345 0.12630905 0.04553914 0.013274774
000300 60 8c 1c bd 0e 09 91 3d 50 93 54 3d 4e ef a6 3d
       -0.03821981 0.07081805 0.0518983 0.081511125
000310 c4 31 9e 3d d8 56 8a 3c 40 79 bd bc 76 89 fd bd
       0.07724336 0.016887113 -0.023129106 -0.12379734
000320 1e 2c df bd 46 a0 af 3d 78 1e e8 bc f0 85 07 3c
       -0.108970866 0.085754916 -0.028334841 0.008271679
000330 ec dd 06 be 18 c8 cb bd fb 6c a8 bd ce 30 de 3d
       -0.13170594 -0.09950274 -0.082239114 0.108491525
000340 ba 23 e6 3d ee 8a 2d bd c7 bd 8a bd 5a 0f d6 3d
       0.11237283 -0.04236882 -0.067744784 0.10452147
000350 9c e7 b0 3d 6a 6b b0 bd ee 35 e9 3d cc cb 6e 3d
       0.08637926 -0.086142376 0.113872394 0.058299825
000360 b0 04 64 3c 9e 79 8b bd bc 48 c7 3d c7 e8 ae bd
       0.013917133 -0.06810306 0.0973067 -0.085404925
000370 c0 23 ed bb 51 30 d9 bd 89 e0 14 be bf b2 8e bd
       -0.0072369277 -0.10604919 -0.14538778 -0.06967687
000380 f6 02 59 bd 80 a6 76 3d b8 df b5 3d cb b6 01 be
       -0.05298134 0.06021738 0.088805616 -0.12667386
000390 ae 31 ae 3d 0e 8e db bd af 97 0e 3e 7f d9 c1 bd
       0.085055694 -0.10720454 0.1392505 -0.09465312
0003a0 c4 17 0b 3d b0 d2 3f 3d 9e 9d 07 bd 7d 93 a8 bd
       0.03395821 0.046831787 -0.0331093 -0.08231256
0003b0 0d e5 0d 3e f1 48 17 3e 51 c9 04 3e a2 c7 58 bd
       0.13856907 0.14773919 0.12967421 -0.05292476
0003c0 80 5d 50 3c f2 1b b8 bd 00 c3 0f ba af 37 ec bd
       0.012717605 -0.08989705 -0.00054840744 -0.11534058
0003d0 b8 bf 48 bd 18 d3 65 3d 28 46 bc bd 16 5e b3 bd
       -0.049010962 0.056109518 -0.09193069 -0.0875818
0003e0 1a 8b e0 3d b0 f3 57 bd 14 c3 8e bd f6 a7 8f 3d
       0.109640315 -0.052722633 -0.06970802 0.07014458
0003f0 4a ee e3 bd 0a e6 04 bd 80 d1 02 3b 9a 9d f4 3d
       -0.111294344 -0.032445945 0.0019961298 0.119441226
