Ni_prediction/savemodel/bst_mod_115.pth (torch_old, 533442 bytes, 44 tensors)

price_encoder.attention.weight f4 [1, 121]
0	0x3fb658d8	1.4245863
1	0x3fba6d6d	1.4564644
2	0x3faf7fd0	1.371088
3	0xbfbba304	-1.4659123
4	0xbfa686b6	-1.300986
5	0x3fa74770	1.3068676
6	0x3fb59e71	1.4188977
7	0xbfae151a	-1.360019
8	0x3fb3aa88	1.4036417
9	0x3fb085a3	1.3790783
10	0x3fae5bca	1.3621762
11	0x3fb7c6d8	1.4357557
12	0xbfa96621	-1.3234292
13	0xbfb1027c	-1.3828883
14	0xbfb18392	-1.3868277
15	0x3faa58a5	1.3308302
16	0x3fa69b29	1.3016101
17	0xbfaabc7c	-1.3338771
18	0x3fa50736	1.2892826
19	0x3fb4adb4	1.411551
20	0x3fa47c98	1.2850523
21	0x3fb0febf	1.3827742
22	0x3fb77d81	1.4335176
23	0xbfb679b2	-1.4255888
24	0xbfb676ac	-1.4254966
25	0x3fae7feb	1.3632787
26	0xbfa9c981	-1.3264619
27	0xbfb76420	-1.4327431
28	0xbfb4c714	-1.4123254
29	0xbfabc5c7	-1.3419732
30	0x3fb77606	1.4332893
31	0xbfae35a0	-1.3610115
32	0x3fafde11	1.3739644
33	0x3fbb94fd	1.4654843
34	0x3fa833fa	1.3140862
35	0x3fafbd10	1.3729572
36	0xbfb6e556	-1.4288738
37	0x3fb71325	1.4302717
38	0x3fb21de7	1.3915375
39	0xbfb76510	-1.4327717
40	0x3fb1754a	1.3863919
41	0x3fbbd36f	1.46739
42	0x3fac760f	1.3473529
43	0x3fb69dcb	1.4266905
44	0x3fb210bb	1.3911356
45	0x3fb6c106	1.4277656
46	0x3fb6b9a6	1.4275405
47	0x3fb70797	1.4299191
48	0x3fbb4f70	1.4633617
49	0x3fae42bb	1.3614115
50	0x3fa9a02b	1.3252004
51	0x3fad2c42	1.3529131
52	0x3fb82373	1.4385818
53	0x3faed820	1.3659706
54	0x3fa63bac	1.298696
55	0x3fb1a847	1.3879479
56	0x3fb44572	1.4083693
57	0xbfba1788	-1.4538431
58	0xbfb1614a	-1.3857815
59	0x3fbc8c31	1.4730283
60	0x3fa9aef0	1.3256512
61	0xbfb8961c	-1.442081
62	0xbfb41cd3	-1.4071296
63	0xbfa6e334	-1.3038087
64	0xbfbb3cd9	-1.4627944
65	0x3fb9a5c8	1.4503717
66	0x3fb08892	1.3791678
67	0x3fabdc18	1.3426542
68	0x3fa9e8c1	1.3274156
69	0xbfafd1e8	-1.3735933
70	0xbfad9a60	-1.3562737
71	0x3fb2a53c	1.3956676
72	0x3fb3dd7b	1.4051965
73	0x3fa8b36a	1.3179753
74	0xbfa9482a	-1.3225148
75	0x3fa6f63c	1.3043895
76	0xbfa94662	-1.3224604
77	0x3f1bf089	0.609139
78	0x3fb8ef8c	1.4448104
79	0x3fb4cff0	1.4125957
80	0xbfa798c3	-1.3093494
81	0xbfa91a3a	-1.3211129
82	0x3fb19761	1.3874322
83	0x3faccc1f	1.3499793
84	0x3fb9a0be	1.450218
85	0xbfbb6dc8	-1.4642878
86	0xbfa6cddc	-1.3031573
87	0xbfbbe748	-1.4679956
88	0x3fb88572	1.4415724
89	0x3fb72018	1.4306669
90	0x3fbb174a	1.4616482
91	0x3fba3b3e	1.4549329
92	0x3fac7ab5	1.3474947
93	0x3fb8345a	1.4390976
94	0xbfaab0e0	-1.3335228
95	0xbfbb7dc5	-1.4647757
96	0xbfaac7ff	-1.3342284
97	0x3fb37ab9	1.4021827
98	0xbfb592fe	-1.4185483
99	0x3fa32e01	1.2748414
100	0x3fab6276	1.3389423
101	0x3fad0edc	1.352016
102	0x3fb0b2fb	1.380462
103	0x3fb946ce	1.4474733
104	0x3fb63e3e	1.4237745
105	0x3faa3467	1.3297242
106	0x3fa61c42	1.2977374
107	0x3fb69907	1.426545
108	0x3fb76bc0	1.4329758
109	0x3fb09630	1.3795834
110	0x3fa5ced4	1.2953744
111	0x3fb125ca	1.3839657
112	0x3fa4faf5	1.2889086
113	0x3fb3a386	1.4034278
114	0x3fb9cda7	1.4515885
115	0x3fa5fa0c	1.2966933
116	0x3facefa8	1.3510637
117	0x3fac02ad	1.3438317
118	0x3fb7cd6f	1.4359568
119	0x3fb2bb72	1.3963454
120	0x3fb6a811	1.427004

price_encoder.encoder.weight_ih_l0 f4 [180, 45]
0	0xbdce781c	-0.10081503
1	0xbdf18632	-0.11793174
2	0x3d033218	0.032030195
3	0x3da90520	0.08252931
4	0xbd637be6	-0.05553808
5	0x3dd5b0a2	0.10434081
6	0x3da10980	0.0786314
7	0xbdf9ef0a	-0.12203796
8	0xbdd440b7	-0.10363906
9	0xbc431540	-0.011906922
10	0xbde1f873	-0.11033716
11	0xbd6cefce	-0.057845883
12	0xbcd9dabc	-0.026593558
13	0x3cfb40d8	0.030670568
14	0xbdf7b2be	-0.12094639
15	0x3c76ab70	0.015055522
16	0x3d509afc	0.050929055
17	0xbdaa4008	-0.08312994
18	0x3db96168	0.09051782
19	0x3debb1e6	0.11508541
20	0x3dd4783a	0.10374494
21	0x3d8c5c56	0.06853549
22	0xbdda9c92	-0.10674395
23	0xbfa3008c	-1.2734542
24	0xbe1478d7	-0.14499222
25	0xbe17f2a5	-0.14838655
26	0xbdf93d6b	-0.12169918
27	0x3e03a35b	0.12855284
28	0x3e084b53	0.13309984
29	0x3d149a38	0.036279887
30	0xbe07550b	-0.13216035
31	0xbbfcf9e0	-0.007720217
32	0x3deff8b6	0.1171736
33	0x3fa439f0	1.2830181
34	0x3faaa2c2	1.333092
35	0x3facdc16	1.3504665
36	0x3faefc3f	1.3670729
37	0x3faf8f3a	1.3715584
38	0xbe040374	-0.12891942
39	0x3fa8cd26	1.3187606
40	0x3fc389c8	1.5276423
41	0x3fba6ad2	1.4563849
42	0x3fa8833b	1.3165048
43	0x3cc6ba88	0.024258867
44	0xbdfebdd6	-0.12438552
45	0xbe0065e2	-0.12538865
46	0x3d8f33bb	0.06992289
47	0x3de1fc48	0.11034447
48	0x3d366bd1	0.044536415
49	0x3dbc29f6	0.09187691
50	0x3dfaef87	0.122527175
51	0xbd8db572	-0.069193736
52	0x3dafa141	0.085756786
53	0x3d766fbc	0.060165152
54	0x3d006e70	0.03135532
55	0x3dbbee88	0.091763556
56	0xbca8f750	-0.02062574
57	0x3d8afcfa	0.06786533
58	0x3e04b81f	0.12960862
59	0x3c45dc60	0.012076467
60	0xbe1125a3	-0.14174514
61	0xbe0937c7	-0.13400184
62	0x3b9ef960	0.004851505
63	0xbd068a28	-0.0328466
64	0x3dc2d90e	0.09514056
65	0x3ef37f34	0.47557986
66	0x3ad7d3dc	0.0016466337
67	0xbde7e53f	-0.11323022
68	0x3f9ea5cf	1.2394351
69	0xbdf6e777	-0.12055867
70	0xbe1393cb	-0.14411847
71	0x3df7377a	0.12071128
72	0xbd3aaf3e	-0.04557728
73	0xbe11ce02	-0.14238742
74	0xbb4c3b40	-0.0031163245
75	0xbd32a98a	-0.043618716
76	0x3e0e5457	0.1389936
77	0xbdc0bb21	-0.09410692
78	0x3fa63b29	1.2986804
79	0x3fa07741	1.2536393
80	0x3fad6a96	1.3548152
81	0x3fa77ccd	1.3084961
82	0x3fc19b73	1.5125564
83	0xbe075a03	-0.1321793
84	0x3fa8c780	1.3185883
85	0x3fa475c2	1.2848437
86	0x3fa649e2	1.2991297
87	0x3fbadfbe	1.4599531
88	0x3d243a10	0.040094435
89	0x3d347b70	0.04406303
90	0x3dd79bf8	0.105277956
91	0xbbdf6a97	-0.0068181264
92	0xbdf0b47a	-0.11753173
93	0xbde0f18b	-0.10983571
94	0x3ce79828	0.028270796
95	0x3d48c8b6	0.049019538
96	0x3d854a30	0.06508291
97	0x3d879816	0.06620805
98	0xbce70d5a	-0.028204609
99	0xbdab928e	-0.083775625
100	0xbe061ec6	-0.13097677
101	0x3ca12e30	0.019675344
102	0xbd4b799e	-0.04967653
103	0xbdcf06a0	-0.101086855
104	0x3bbaf560	0.0057055205
105	0x3c88c158	0.016693756
106	0x3dc21f42	0.09478618
107	0xbdc7a884	-0.09748939
108	0x3c6c6110	0.014427438
109	0xbdb07c86	-0.08617501
110	0x3f0abdd8	0.5419593
111	0xbd15675a	-0.036475517
112	0xbde2752d	-0.11057506
113	0x3fab2a6f	1.3372325
114	0xbd5c9524	-0.05385317
115	0x3d26d200	0.040727615
116	0xbd35007e	-0.044189923
117	0x3c405226	0.011738336
118	0xbdcf35c8	-0.1011768
119	0x3e106e33	0.14104538
120	0xbddf4c42	-0.10903217
121	0x3e1028df	0.14078091
122	0xbe0e1fbc	-0.13879293
123	0x3fbed7c2	1.4909594
124	0x3fa04f86	1.2524269
125	0x3face998	1.3508787
126	0x3fb552a9	1.4165851
127	0x3fbbfc96	1.4686458
128	0xbfb244a7	-1.3927201
129	0x3fab4309	1.3379833
130	0x3fba7b39	1.4568855
131	0x3fa10721	1.25803
132	0x3fa9ef4a	1.327615
133	0x3d6fd194	0.05854948
134	0xbd80bc1d	-0.0628588
135	0x3dc74bc2	0.097312465
136	0xbd5eb946	-0.05437591
137	0xbe05178e	-0.12997267
138	0xbcaec767	-0.021335317
139	0xbd207630	-0.039175212
140	0x3ded954e	0.11600743
141	0x3df774fa	0.120828584
142	0x3dc2078b	0.09474095
143	0xbb8c17b4	-0.0042752866
144	0x3da1b518	0.07895869
145	0x3de6a102	0.112611786
146	0x3decfab6	0.11571257
147	0x3dc9baf0	0.098501086
148	0xbf9f8447	-1.2462243
149	0x3d11ea5c	0.035623893
150	0x3d7c364c	0.06157522
151	0xbd15dab6	-0.036585532
152	0xbc175ca0	-0.009238392
153	0x3f0649e8	0.5245652
154	0x3d3463ee	0.044040613
155	0xbe322afd	-0.17399211
156	0xbc6ec853	-0.014574128
157	0x3d794795	0.06085928
158	0xbfb0277f	-1.3762053
159	0x3d46da8c	0.048548266
160	0x3e14e60d	0.14540882
161	0xbd83b840	-0.06431627
162	0xbdb63032	-0.08895911
163	0xbfb3ae80	-1.4037628
164	0x3daf2378	0.08551687
165	0x3dc778aa	0.09739812
166	0xbf87ac27	-1.0599412
167	0xbdb93234	-0.090427786
168	0xbfc280ec	-1.5195594
169	0xbfbaadcc	-1.4584289
170	0xbfa550f0	-1.2915325
171	0xbfa7631a	-1.3077118
172	0xbfb9e22e	-1.452215
173	0xbdc6e87a	-0.0971231
174	0xbfa842fa	-1.314544
175	0xbfb10c71	-1.3831922
176	0xbfa5592e	-1.291784
177	0xbfa663e8	-1.2999239
178	0x3da12df2	0.078700915
179	0x3d176de8	0.03697005
180	0xbdb02c0b	-0.086021505
181	0xbcac62b8	-0.021043167
182	0x3dac5966	0.08415489
183	0x3e0d0c21	0.13774158
184	0x3db1143c	0.086464375
185	0x3e13318b	0.14374368
186	0xbe0d4c9e	-0.13798758
187	0xbe12feac	-0.14354962
188	0xbdb45880	-0.088059425
189	0xbd559764	-0.05214633
190	0x3d59df98	0.05319175
191	0xbe14d623	-0.14534812
192	0xbdd89c32	-0.10576667
193	0xbda6f1cf	-0.0815159
194	0xbbed5a80	-0.0072434545
195	0x3db28466	0.08716659
196	0xbd08b124	-0.03337206
197	0xbdb8dcfc	-0.090265244
198	0x3d1d3268	0.03837815
199	0xbdb2070f	-0.086927526
200	0x3da98645	0.08277563
201	0x3db5d7cd	0.08879051
202	0x3d3b24c4	0.04568936
203	0xbfad1674	-1.3522477
204	0x3dcd49b2	0.10023822
205	0x3e10c781	0.14138605
206	0x3d99f56c	0.07517514
207	0x3cdfda50	0.02732578
208	0x3e03287d	0.12808414
209	0x3dfa30ca	0.12216337
210	0x3d5d4248	0.05401829
211	0xbc8c2800	-0.017108917
212	0xbdd6d87b	-0.10490509
213	0xbfa29858	-1.2702742
214	0xbfbd5016	-1.4790065
215	0xbfc15ea7	-1.5107011
216	0xbfa934e2	-1.3219264
217	0xbfb17fbf	-1.386711
218	0xbbb149e0	-0.005410418
219	0xbfae6763	-1.3625301
220	0xbfa29a26	-1.2703292
221	0xbf9dfb50	-1.234232
222	0xbfb923fe	-1.4464109
223	0xbda32724	-0.0796645
224	0xbc3aee70	-0.011409387
225	0xbc8a8e27	-0.016913487
226	0x3d86267c	0.06550309
227	0x3c74b9d0	0.014936879
228	0xbd1cc4f8	-0.03827378
229	0x3e01b559	0.12666835
230	0x3e16386f	0.14669965
231	0xbacaa103	-0.0015459362
232	0x3e185ddf	0.14879559
233	0x3d81ed7c	0.06344125
234	0x3de7afbe	0.11312817
235	0xbe06b870	-0.13156295
236	0x3dbbd360	0.09171176
237	0xbdbb1d73	-0.09136476
238	0x3fa5fd00	1.2967834
239	0x3c0f5b70	0.008749828
240	0x3af8ab00	0.001897186
241	0x3d1f5974	0.03890367
242	0x3cd21fe8	0.02564998
243	0xbdd3b1fa	-0.10336681
244	0x3d9f4c68	0.07778245
245	0xbd5931ed	-0.05302613
246	0xbd9cd067	-0.07656937
247	0x3a57ad06	0.00082273816
248	0xbfc40059	-1.5312606
249	0x3cde2960	0.027119339
250	0xbdba2b95	-0.09090344
251	0x3df27b96	0.118399784
252	0xbd1f6ed6	-0.03892406
253	0x3fb195a2	1.3873789
254	0x3d830db0	0.06399095
255	0x3e0aa5a1	0.13539745

price_encoder.encoder.weight_hh_l0 f4 [180, 45]
0	0x3fbf80a0	1.4961128
1	0x3fb3fa51	1.4060766
2	0x3fa2693a	1.2688363
3	0xbfa290e9	-1.2700473
4	0x3fafd1dc	1.3735919
5	0x3fa8c07f	1.3183745
6	0x3fae7500	1.3629456
7	0xbfbfe7dd	-1.4992634
8	0xbfaed238	-1.3657904
9	0xbfa7c452	-1.3106787
10	0xbfbc70ae	-1.4721887
11	0x3fb94f00	1.4477234
12	0xbfa915b1	-1.3209745
13	0xbfb11586	-1.3834693
14	0x3fa6cbd0	1.3030949
15	0xbfc1f268	-1.5152102
16	0x3fa51174	1.2895951
17	0xbfb52c2e	-1.4154108
18	0x3f9f00c1	1.2422105
19	0xbfc0e6c9	-1.507043
20	0x3f9f5546	1.2447898
21	0x3fae43f6	1.361449
22	0x3fa162d3	1.2608284
23	0x3fa63f16	1.2988002
24	0xbfad4f36	-1.3539798
25	0xbf9e3410	-1.2359638
26	0xbfa29d2c	-1.2704215
27	0x3fa99243	1.324776
28	0xbf9ef206	-1.241761
29	0xbfa9c818	-1.3264189
30	0x3fa49a88	1.2859659
31	0xbfb278da	-1.3943131
32	0x3fae9858	1.3640242
33	0x3fb24afe	1.3929136
34	0x3faf0021	1.3671914
35	0xbf9ea9ee	-1.2395608
36	0xbfab58c0	-1.3386459
37	0x3fb5ec78	1.421279
38	0x3fa65585	1.2994848
39	0x3fc3ff57	1.5312299
40	0x3fbd6070	1.4795055
41	0x3fa89e1e	1.3173254
42	0xbfb628e3	-1.4231228
43	0x3fc1a4a3	1.5128368
44	0xbfbccd1c	-1.4750094
45	0xbfbfe782	-1.4992526
46	0xbfb818bc	-1.4382548
47	0xbfb0bfac	-1.3808494
48	0x3fb6e641	1.4289018
49	0xbfa5b06e	-1.2944467
50	0xbfbc8940	-1.4729385
51	0xbfa3261e	-1.2746007
52	0xbfbb1348	-1.4615259
53	0x3faa006a	1.3281376
54	0xbfb8c94c	-1.4436431
55	0x3fa6d512	1.3033774
56	0xbfc356ad	-1.5260826
57	0x3fa038fe	1.2517393
58	0x3fa95ffe	1.323242
59	0xbfb21f67	-1.3915833
60	0x3fc012fe	1.5005796
61	0xbfaa3cd3	-1.3299812
62	0x3f9fc9de	1.248348
63	0xbfa5d5f9	-1.2955924
64	0x3fb0e1d0	1.3818913
65	0x3fa52576	1.2902057
66	0xbfbbefc0	-1.4682541
67	0xbfa515ba	-1.2897255
68	0xbfb3790c	-1.4021316
69	0x3fc0a19c	1.5049319
70	0x3fb95fb4	1.4482331
71	0x3fa5f060	1.2963982
72	0xbfab23ca	-1.3370297
73	0x3f9ef939	1.2419807
74	0x3fb66ed4	1.4252572
75	0xbfc19b58	-1.5125532
76	0x3fb7a67a	1.434768
77	0xbfb3290d	-1.3996903
78	0xbfb7a6a3	-1.4347728
79	0xbfa4c480	-1.2872467
80	0x3fa19cbe	1.2625959
81	0x3fae618e	1.3623521
82	0xbfbc1c52	-1.4696143
83	0xbfa1b610	-1.2633686
84	0xbfbae996	-1.4602535
85	0xbfb0f89d	-1.3825871
86	0xbfabfb04	-1.3435979
87	0x3fb7eb7e	1.4368742
88	0xbfa5a394	-1.2940545
89	0x3fa67956	1.3005779
90	0xbfa87187	-1.3159646
91	0xbfb8c248	-1.443429
92	0xbfc0f90e	-1.5076005
93	0x3fb3213a	1.3994515
94	0xbfa23f86	-1.2675636
95	0xbfb34db1	-1.4008085
96	0xbf9fb4e3	-1.2477077
97	0xbfaacc5c	-1.3343616
98	0x3fb51c60	1.4149284
99	0xbface4d1	-1.3507329
100	0x3fc2b7e9	1.5212375
101	0xbfabba73	-1.3416275
102	0x3fbfbe7c	1.4980006
103	0x3fb7a100	1.4346008
104	0xbfa34e0c	-1.2758193
105	0x3fa16e0e	1.2611711
106	0xbfbbc000	-1.4667969
107	0x3fbf4f6b	1.4946111
108	0xbfc35609	-1.5260631
109	0xbfb74f12	-1.4321005
110	0x3fa44fc0	1.2836838
111	0xbfa8f06d	-1.3198372
112	0xbfb93090	-1.4467945
113	0xbfb5837a	-1.4180748
114	0x3fa98f60	1.324688
115	0x3fb20f9c	1.3911014
116	0x3fab8de3	1.3402675
117	0xbfbe0696	-1.484576
118	0x3fa27a0e	1.2693498
119	0x3fc3219b	1.524463
120	0xbfa9286f	-1.3215464
121	0x3fa66168	1.2998476
122	0xbfa0778c	-1.2536483
123	0xbfb50747	-1.4142846
124	0xbfb8eb30	-1.4446774
125	0x3fba13cf	1.4537295
126	0x3fa4f27e	1.2886503
127	0xbf9eddbd	-1.2411419
128	0xbfa4b00f	-1.2866229
129	0xbfa30bb7	-1.273795
130	0xbf9fbfd4	-1.2480416
131	0xbfad9126	-1.3559921
132	0x3fb04e1e	1.377384
133	0xbfabe8d5	-1.343043
134	0x3fb63312	1.4234335
135	0x3fbd6e0e	1.4799211
136	0x3fabc21c	1.3418612
137	0x3fb9b423	1.4508098
138	0xbfb54860	-1.4162712
139	0x3fb6edab	1.429128
140	0x3fa2ee7b	1.2729028
141	0x3fa7ae0f	1.3099993
142	0x3fa39c7c	1.278213
143	0xbfaa4fa4	-1.3305554
144	0x3fbb3a30	1.4627132
145	0xbfa54f38	-1.2914801
146	0x3fa458c7	1.2839593
147	0x3fb66113	1.4248375
148	0xbfaa5e2f	-1.3309993
149	0x3fbafbef	1.4608134
150	0xbfb1eb5c	-1.3899951
151	0x3fa31c0f	1.2742938
152	0xbfb1330c	-1.3843703
153	0x3fb466e8	1.4093904
154	0x3fb5ec68	1.421277
155	0xbfb00966	-1.3752868
156	0x3fa82425	1.313603
157	0x3fbcbf07	1.4745797
158	0x3fb482c9	1.4102412
159	0xbf9fa1ec	-1.247129
160	0xbfac1347	-1.3443383
161	0x3fadd89f	1.3581733
162	0x3fa560bc	1.2920146
163	0xbfc1af60	-1.5131645
164	0xbfc09b91	-1.5047475
165	0x3fbacc80	1.4593658
166	0xbfaa56dd	-1.3307759
167	0x3fa6eae6	1.3040435
168	0x3fc1d0c7	1.5141839
169	0x3fc37e23	1.5272869
170	0xbfbedfd0	-1.4912052
171	0xbfa56b69	-1.2923404
172	0x3fb3316e	1.399946
173	0x3fa7f115	1.3120447
174	0x3fa8a56e	1.3175485
175	0x3fbb80e8	1.4648714
176	0x3fa30237	1.2735051
177	0xbfc28786	-1.5197608
178	0x3fa47aa5	1.2849928
179	0xbfb0f950	-1.3826084
180	0x3fa01aaf	1.2508143
181	0x3fa852ee	1.3150308
182	0x3fc146c9	1.5099727
183	0xbfba06f8	-1.4533377
184	0x3f9eb754	1.2399697
185	0x3fa6ae50	1.3021946
186	0x3fc3b6f4	1.5290208
187	0x3fbec1d9	1.4902908
188	0xbfbdb878	-1.482192
189	0x3fba0bb1	1.4534818
190	0xbfb4c07a	-1.4121239
191	0x3fb072c2	1.3785021
192	0xbfb5136a	-1.414655
193	0xbfa4c503	-1.2872623
194	0x3fa143bf	1.25988
195	0xbfa39670	-1.2780285
196	0x3fad41ee	1.3535745
197	0xbfa27741	-1.2692643
198	0x3fa33365	1.2750059
199	0x3fbbb3ca	1.4664242
200	0xbfa02468	-1.251111
201	0x3f9fd932	1.2488158
202	0x3facd7e9	1.350339
203	0x3fc1ec70	1.515028
204	0xbfae0474	-1.3595109
205	0xbfa9d618	-1.3268461
206	0x3fb5e552	1.4210608
207	0x3fb8ed06	1.4447334
208	0xbfac2a29	-1.3450366
209	0xbfa0437e	-1.2520597
210	0x3fa62eff	1.2983092
211	0xbfbf9065	-1.4965941
212	0x3fb37798	1.4020872
213	0x3fc35517	1.5260342
214	0x3fbe8b01	1.4886171
215	0xbfa456f1	-1.2839032
216	0xbfae38cd	-1.3611084
217	0x3fa360de	1.2763937
218	0x3fbbdb5c	1.4676318
219	0x3fb6acf7	1.4271535
220	0x3faa6dd6	1.3314769
221	0x3fb926d2	1.4464972
222	0xbfae0722	-1.3595927
223	0x3fa2b27e	1.2710721
224	0xbfa15052	-1.2602637
225	0x3faa90c5	1.332543
226	0x3fb5f112	1.4214194
227	0x3fbb8f14	1.4653039
228	0xbfc05d27	-1.5028428
229	0x3fbca255	1.473704
230	0x3fa1b6c1	1.2633897
231	0x3fa97574	1.3238969
232	0x3fbfbb9e	1.4979131
233	0xbfab0232	-1.3360045
234	0x3fc36ec5	1.5268179
235	0xbfacd6b4	-1.3503022
236	0x3fa422e8	1.2823153
237	0xbf9f550f	-1.2447833
238	0xbfac6761	-1.3469049
239	0x3faa80a2	1.3320506
240	0xbfb64772	-1.4240553
241	0x3fbfcb98	1.4984007
242	0xbfbe7f20	-1.4882545
243	0x3fb459e8	1.4089937
244	0x3fc0435c	1.5020556
245	0xbfa4a402	-1.2862551
246	0x3faabbfc	1.3338618
247	0x3fa06c46	1.2533042
248	0x3f9f47e0	1.244381
249	0xbfb1fee2	-1.3905909
250	0xbfb444d1	-1.4083501
251	0x3f9e04e0	1.2345238
252	0x3fbfa78f	1.497301
253	0xbfa70c79	-1.3050681
254	0xbfc15c9e	-1.510639
255	0x3faebcc0	1.3651352

price_encoder.encoder.bias_ih_l0 f4 [180]
0	0xbfb7f5e4	-1.4371915
1	0x3fc0cff8	1.5063467
2	0x3fac0f06	1.3442085
3	0xbfa768c2	-1.3078845
4	0xbfbea4ba	-1.489402
5	0xbfab2058	-1.3369246
6	0x3fbba73c	1.4660411
7	0xbfad0b34	-1.3519044
8	0x3fbd4b6c	1.4788642
9	0xbfb9ef66	-1.4526184
10	0xbfa91997	-1.3210934
11	0xbfb400fc	-1.40628
12	0xbfc216c6	-1.51632
13	0x3fb22249	1.3916713
14	0x3fa7a154	1.3096108
15	0x3fc11807	1.5085458
16	0xbfb9d66a	-1.4518559
17	0x3fa4ed9f	1.2885016
18	0xbfbbe80d	-1.4680191
19	0xbfc31aba	-1.5242531
20	0xbfb554ff	-1.4166564
21	0xbf9e7452	-1.2379248
22	0xbfb1b08e	-1.3882005
23	0x3fad5b3d	1.3543469
24	0xbfba2fd5	-1.4545847
25	0xbfb26020	-1.3935585
26	0xbfa49163	-1.2856869
27	0x3fad9626	1.3561447
28	0xbfb70107	-1.4297189
29	0x3facb145	1.3491598
30	0x3fa4c784	1.2873387
31	0xbfc2a0ce	-1.5205324
32	0x3fc02328	1.5010729
33	0xbfba04db	-1.4532732
34	0xbfa68616	-1.300967
35	0x3fabca04	1.3421025
36	0xbfab366a	-1.3375981
37	0xbfc41f47	-1.5322045
38	0xbf9fb1dc	-1.2476153
39	0x3fb7afb9	1.4350501
40	0x3fa5c0ff	1.2949523
41	0x3f98c17d	1.1934048
42	0xbfc00ef0	-1.5004559
43	0x3fab9af2	1.340666
44	0x3fadd614	1.3580956
45	0xbfa2dd52	-1.2723792
46	0x3fc1ebb3	1.5150055
47	0x3fac23dc	1.3448443
48	0xbfbb9690	-1.4655323
49	0xbfa834b6	-1.3141086
50	0xbfc09482	-1.5045321
51	0x3fbe4e60	1.4867668
52	0xbfb2e210	-1.3975239
53	0x3fb4f00c	1.4135756
54	0x3fa479a7	1.2849625
55	0xbfbfcd6b	-1.4984564
56	0xbfa4fb2a	-1.2889149
57	0xbfa8f6f4	-1.3200364
58	0x3fb3c8d5	1.4045664
59	0x3fa8258c	1.3136458
60	0x3fafd2fd	1.3736264
61	0xbfb0f088	-1.3823404
62	0x3fbb1410	1.4615498
63	0x3faed8d8	1.3659925
64	0xbfbc8b1a	-1.472995
65	0xbfb6cbf5	-1.4280993
66	0xbfafae2e	-1.372503
67	0xbfa33ddc	-1.2753253
68	0x3fa79f02	1.30954
69	0xbfb8a0d2	-1.4424078
70	0xbf9ef70d	-1.2419144
71	0xbfa0c53c	-1.2560191
72	0x3fb41001	1.4067384
73	0xbfbc7bc8	-1.4725275
74	0x3fad4f0a	1.3539746
75	0x3f9f5c41	1.2450029
76	0xbfb31b8c	-1.3992782
77	0x3fa4a3a1	1.2862436
78	0xbfb33ef7	-1.400359
79	0xbfb910ac	-1.4458213
80	0x3fab53c6	1.3384941
81	0xbfbd23ec	-1.4776587
82	0xbfbb5764	-1.4636045
83	0xbfa9493c	-1.3225474
84	0x3fb8883e	1.4416578
85	0x3fb4665a	1.4093735
86	0xbfadc237	-1.3574895
87	0xbfaac7c3	-1.3342212
88	0x3fb4ab9a	1.4114869
89	0x3fb44aba	1.4085305
90	0x3f9f2404	1.2432866
91	0xbfbc652e	-1.4718378
92	0xbfa7bfb8	-1.3105383
93	0xbfc3ec2c	-1.5306449
94	0x3f9ffd5e	1.2499197
95	0x3fb3013a	1.3984749
96	0xbfb8000c	-1.4375014
97	0x3fae1798	1.360095
98	0x3fa7e564	1.311688
99	0xbfa2ccbf	-1.2718734
100	0xbf9eac86	-1.23964
101	0x3fb5da6c	1.4207282
102	0x3fae2b9b	1.3607057
103	0x3fa693e0	1.3013878
104	0xbfb909c1	-1.4456102
105	0x3fa63b78	1.2986898
106	0x3fb9024c	1.4453826
107	0x3fbf41b4	1.4941926
108	0x3fa84224	1.3145185
109	0x3fbb9cba	1.4657204
110	0xbfbf98b4	-1.4968476
111	0x3fa44231	1.28327
112	0x3fb583aa	1.4180806
113	0xbfa3e105	-1.2803046
114	0xbf9f5f06	-1.2450874
115	0xbfa96f53	-1.3237098
116	0x3fc39467	1.5279664
117	0xbf9e8f9f	-1.238758
118	0xbfa1ff20	-1.2655983
119	0x3fbc77a8	1.4724016
120	0xbfafb18e	-1.372606
121	0xbfb8fc66	-1.4452026
122	0xbfbaf652	-1.4606421
123	0x3fa8ca4b	1.3186735
124	0x3fbe27e2	1.4855921
125	0x3fac171c	1.3444552
126	0xbfbe9fd7	-1.4892529
127	0x3fb6932a	1.4263661
128	0x3faaac7a	1.3333886
129	0xbfade76c	-1.3586249
130	0xbfb965e4	-1.448422
131	0x3fbece74	1.4906754
132	0xbfb07d68	-1.3788271
133	0xbfb0e65a	-1.3820298
134	0x3fba664e	1.4562471
135	0xbfa5d70f	-1.2956256
136	0x3fb3a0d2	1.4033453
137	0x3fa0b31c	1.255466
138	0xbfba1742	-1.4538348
139	0xbfc29e20	-1.5204506
140	0xbfc29c2d	-1.5203911
141	0x3fa27533	1.2692016
142	0xbfaf80b4	-1.3711152
143	0x3fc058a8	1.5027056
144	0xbfa3d8e8	-1.280057
145	0xbfc2f4f9	-1.523101
146	0xbfa1e8e4	-1.2649198
147	0xbfadc97a	-1.3577111
148	0x3fbb8f79	1.4653159
149	0x3fb680ae	1.425802
150	0x3fa2fbee	1.2733133
151	0xbf9ff90e	-1.249788
152	0x3fc11b73	1.5086502
153	0xbfba7917	-1.4568204
154	0xbfba7e60	-1.4569817
155	0xbfbc6e1b	-1.4721102
156	0xbfa717e2	-1.3054163
157	0xbfbe779e	-1.4880254
158	0x3faa4eae	1.3305261
159	0xbfb7053c	-1.4298472
160	0xbfabf274	-1.3433366
161	0xbfa47be1	-1.2850305
162	0x3fae5039	1.3618232
163	0xbfa0e39a	-1.2569458
164	0x3fa4334a	1.2828152
165	0x3fab2ac7	1.337243
166	0xbfb00df0	-1.3754253
167	0x3fa2af9e	1.2709844
168	0xbf9f46a9	-1.2443439
169	0xbfa0a84b	-1.2551359
170	0x3fc069c1	1.5032274
171	0xbfbc432e	-1.4708002
172	0xbfa561d8	-1.2920485
173	0xbfb15628	-1.3854418
174	0x3fa7a9a2	1.3098643
175	0x3fa69b80	1.3016205
176	0xbfbaef13	-1.460421
177	0xbfb440e8	-1.4082308
178	0x3fae4fbb	1.3618082
179	0x3fc3582b	1.5261282

price_encoder.encoder.bias_hh_l0 f4 [180]
0	0xbfa532d6	-1.2906139
1	0x3fc334be	1.5250471
2	0x3fbff7a4	1.4997449
3	0xbfa145d4	-1.2599435
4	0xbfba2dcc	-1.4545226
5	0xbfae3e62	-1.3612788
6	0x3f9f9c08	1.2469492
7	0xbfc0b348	-1.5054712
8	0x3fad498a	1.3538067
9	0xbfa8c3f2	-1.3184798
10	0xbfaaf4c3	-1.3355945
11	0xbfa20560	-1.265789
12	0xbface858	-1.3508406
13	0x3faa7255	1.3316141
14	0x3fbb3d6e	1.4628122
15	0x3fa275cd	1.26922
16	0xbfbda51a	-1.481601
17	0x3fa76d97	1.3080319
18	0xbfb85b6b	-1.4402899
19	0xbfa0e9b0	-1.2571316
20	0xbfbc53a7	-1.4713029
21	0xbfb4d04c	-1.4126067
22	0xbfad628e	-1.3545702
23	0x3faee45f	1.3663443
24	0xbfb61e93	-1.422808
25	0xbfb3214a	-1.3994534
26	0xbfb0788b	-1.3786787
27	0x3fa04216	1.2520168
28	0xbfadbc4f	-1.3573092
29	0x3fb4292d	1.4075066
30	0x3fa7ea18	1.3118315
31	0xbfc090fe	-1.5044248
32	0x3fbeba82	1.4900668
33	0xbfaf86db	-1.371303
34	0xbfbbec0c	-1.4681411
35	0x3fb3b152	1.4038489
36	0xbf9e2aa8	-1.2356768
37	0xbfae8ee3	-1.3637356
38	0xbfa9c418	-1.3262968
39	0x3fb8e031	1.4443418
40	0x3fa33b19	1.275241
41	0x3f9e932d	1.2388664
42	0xbfb498f2	-1.4109175
43	0x3fa0783c	1.2536693
44	0x3f9ed784	1.240952
45	0xbfbb2aea	-1.4622471
46	0x3f9e970b	1.2389845
47	0x3fa0a280	1.2549591
48	0xbfb275f0	-1.3942242
49	0xbfb64946	-1.4241111
50	0xbfb38800	-1.4025879
51	0x3fb4ebf0	1.4134502
52	0xbfad2140	-1.3525772
53	0x3faaee32	1.3353941
54	0x3fa2c8f9	1.2717582
55	0xbfb100ab	-1.3828329
56	0xbfb548fc	-1.4162898
57	0xbfb33c0e	-1.4002702
58	0x3fb3353f	1.4000624
59	0x3fbe7b5a	1.4881394
60	0x3fa5049f	1.2892035
61	0xbfac73bc	-1.3472819
62	0x3fb06fc8	1.3784113
63	0x3fbcde10	1.4755268
64	0xbfad3570	-1.3531933
65	0xbfc029a9	-1.5012714
66	0xbfb775c8	-1.4332819
67	0xbfb54f64	-1.4164853
68	0x3fa78072	1.3086073
69	0xbfb6807e	-1.4257963
70	0xbfa790c5	-1.3091055
71	0xbfc39f06	-1.5282905
72	0x3f9f232b	1.2432607
73	0xbfa6c3e6	-1.3028533
74	0x3fb63344	1.4234395
75	0x3fbc6bef	1.4720439
76	0xbfadcffc	-1.3579097
77	0x3fa1911d	1.262241
78	0xbfabd119	-1.3423187
79	0xbf9fe2be	-1.2491071
80	0x3fa31000	1.2739258
81	0xbfba9042	-1.4575274
82	0xbfb3c57a	-1.404464
83	0xbfae98fc	-1.3640437
84	0x3fc097cc	1.5046325
85	0x3fb81a92	1.4383109
86	0xbfbb4665	-1.4630858
87	0xbfbb6293	-1.4639457
88	0x3faa7a2e	1.3318536
89	0x3fbe5570	1.4869823
90	0x3fb4a8d2	1.411402
91	0xbfc069f4	-1.5032334
92	0xbfba7676	-1.4567401
93	0xbfa239ee	-1.2673929
94	0x3fb44e04	1.4086308
95	0x3fc02180	1.5010223
96	0xbfae7366	-1.3628967
97	0x3fb77460	1.433239
98	0x3fba4886	1.4553382
99	0xbfbad9fd	-1.4597775
100	0xbfbc980c	-1.4733901
101	0x3fa4bd16	1.2870204
102	0x3faea211	1.3643209
103	0x3fb3212c	1.3994498
104	0xbfaf37dd	-1.3688923
105	0x3fa3615a	1.2764084
106	0x3fa30406	1.2735603
107	0x3fbdc130	1.4824581
108	0x3f9ec45c	1.2403674
109	0x3fb6527c	1.4243922
110	0xbfad5a52	-1.3543189
111	0x3faff0b5	1.3745333
112	0x3fa8f686	1.3200233
113	0xbfa7e6b3	-1.3117279
114	0xbfbb25a4	-1.4620862
115	0xbfa6aed9	-1.3022109
116	0x3fa2a18d	1.2705551
117	0xbfb4ee77	-1.4135274
118	0xbfaf525a	-1.3697007
119	0x3fba0256	1.4531963
120	0xbfa24f60	-1.2680473
121	0xbfa07fde	-1.2539022
122	0xbfabcaaa	-1.3421223
123	0x3fa90d1d	1.3207127
124	0x3fa436c4	1.2829213
125	0x3fb1fa66	1.390454
126	0xbfb28237	-1.3945988
127	0x3fa0dbfe	1.2567136
128	0x3f9fa780	1.2472992
129	0xbfb405b8	-1.4064245
130	0xbfac5246	-1.3462608
131	0x3fbad2d0	1.4595585
132	0xbfb21baa	-1.3914692
133	0xbfbe51ee	-1.4868753
134	0x3fbb736c	1.4644599
135	0xbfc29ad9	-1.5203506
136	0x3fbb3064	1.4624143
137	0x3fbf708e	1.4956224
138	0xbfc334a2	-1.5250437
139	0xbfa79d1e	-1.3094823
140	0xbfa8952d	-1.3170525
141	0x3fa62155	1.2978922
142	0xbfa0c812	-1.2561057
143	0x3fbb0e8e	1.4613817
144	0xbfc2784a	-1.5192959
145	0xbfb5ebad	-1.4212548
146	0xbfaab1bc	-1.333549
147	0xbfc14e78	-1.5102072
148	0x3fa09c2f	1.2547663
149	0x3faded1c	1.3587985
150	0x3fa234e8	1.2672396
151	0xbfad6786	-1.3547218
152	0x3fa6f3a1	1.30431
153	0xbfb6c415	-1.427859
154	0xbfa23aae	-1.2674158
155	0xbfa17127	-1.2612656
156	0xbfa25816	-1.2683132
157	0xbfab35de	-1.3375814
158	0x3fc26098	1.5185728
159	0xbfa091e2	-1.254452
160	0xbfbc137a	-1.4693444
161	0xbfabc7e5	-1.3420378
162	0x3fae52c3	1.3619007
163	0xbfbd23ee	-1.477659
164	0x3fa91a46	1.3211143
165	0x3fad5abd	1.3543316
166	0xbfbe8d10	-1.4886799
167	0x3fb14a5c	1.3850818
168	0xbfba2437	-1.4542302
169	0xbfc092d5	-1.504481
170	0x3faa9aab	1.3328451
171	0xbfa41df0	-1.2821636
172	0xbfc1b4c0	-1.5133286
173	0xbfc17828	-1.5114794
174	0x3fb8c0e4	1.4433866
175	0x3fa74858	1.3068953
176	0xbfb6f055	-1.4292094
177	0xbfbb1890	-1.4616871
178	0x3fba9309	1.4576122
179	0x3fb2fb83	1.3983005

atten_layer.0.weight f4 [45, 135]
0	0xbbbc52c0	-0.0057471693
1	0x3bd3cb40	0.0064634383
2	0xbcbfc010	-0.023407012
3	0xbc8d4958	-0.017246887
4	0x3dab1767	0.08354073
5	0x3d4b2236	0.049593173
6	0xbd42b8d9	-0.047539566
7	0xbd056c3d	-0.032573927
8	0x3d5250f6	0.05134674
9	0x3da3992b	0.07988199
10	0x3cc8cd5c	0.024511985
11	0x3d975d1d	0.07390807
12	0xbc90a73c	-0.017657869
13	0x3d5b364e	0.053518586
14	0xba68fe80	-0.0008888021
15	0xbd01ca8d	-0.031687308
16	0xbcbfe614	-0.02342514
17	0x3cdd5cc4	0.027021773
18	0x3d37328e	0.044725947
19	0x3b3281c0	0.0027237982
20	0xbc8dd258	-0.017312214
21	0xbcfc02fa	-0.030763138
22	0xbb318780	-0.002708882
23	0x3daff239	0.08591122
24	0x3cdc00f8	0.02685593
25	0xbda941ca	-0.082645014
26	0xbc9f4bf0	-0.01944539
27	0x3d051b80	0.03249693
28	0xbda88207	-0.08227926
29	0x3d63a712	0.055579253
30	0xbd6a7b64	-0.05724658
31	0xbd90eb89	-0.07076175
32	0xbd2f256c	-0.042760298
33	0x3b40a220	0.002939351
34	0xbd8157de	-0.063155875
35	0xbbd587d0	-0.0065164343
36	0xbd791cb8	-0.060818404
37	0xbc3fe550	-0.011712387
38	0xbda8cc30	-0.08242071
39	0xbd077b23	-0.033076417
40	0xbb803360	-0.0039123744
41	0x3da5d419	0.08097095
42	0xbdaf46b1	-0.08558405
43	0xbc036660	-0.008020014
44	0xb877c000	-5.9068203e-05
45	0xbd9c3923	-0.076280855
46	0xbd3b541f	-0.04573452
47	0x3d282ade	0.041056506
48	0x3d6a43a2	0.057193406
49	0x3d850b77	0.06496327
50	0x3d9db30b	0.07700165
51	0x3da3f9bd	0.08006618
52	0xbc9654f0	-0.018351048
53	0xbd8a4a86	-0.067524955
54	0xbd97e639	-0.07416958
55	0xbd2cf6ea	-0.042227663
56	0xbd4f49e0	-0.050607562
57	0x3ce91a2c	0.028454863
58	0xbd350e59	-0.044203136
59	0x3d88676f	0.066603534
60	0xbd385c9b	-0.04501019
61	0x3d8cd27b	0.068760835
62	0x3d51c112	0.051209517
63	0x3d9627ef	0.073318355
64	0xbd940c3f	-0.07228898
65	0x3da535a9	0.080668755
66	0xbac38940	-0.0014918223
67	0x3d9793eb	0.0740126
68	0x3d425d32	0.04745216
69	0xbd810688	-0.06300074
70	0xbd91e3ea	-0.07123549
71	0x3dae990b	0.085252844
72	0xbcb2ae78	-0.021811709
73	0xbc7bfca0	-0.015380055
74	0xbaea9d80	-0.0017899722
75	0xbd7e3531	-0.062062446
76	0xbc655520	-0.013997346
77	0x3d28d8fe	0.041222565
78	0xbb6ca0e0	-0.003610663
79	0xbda34246	-0.07971625
80	0x3d1e8508	0.038701087
81	0x3d848169	0.064699955
82	0xbd0d6eff	-0.034529682
83	0xbd90216b	-0.07037624
84	0x3d9b9a6f	0.07597815
85	0x3d3479f2	0.04406161
86	0x3d9a1f79	0.07525534
87	0x3b10b400	0.0022079945
88	0xbd32001d	-0.04345714
89	0x3d9b1f5d	0.075743414
90	0xbfb7abc6	-1.4349296
91	0xbfe2c8be	-1.7717512
92	0xc00ae288	-2.1700764
93	0xbfb8a978	-1.4426718
94	0x3fb17ae6	1.3865631
95	0xbfb7f802	-1.4372561
96	0xbfbc37c6	-1.4704521
97	0x400b6d22	2.178536
98	0x3fb001e6	1.3750579
99	0x3fab8798	1.3400755
100	0xbfb08099	-1.3789245
101	0xbfa2bbac	-1.2713523
102	0xbfac8c56	-1.3480327
103	0x3fb859bd	1.4402386
104	0xbfb419b0	-1.4070339
105	0xbfa57596	-1.2926509
106	0xbfacf4f2	-1.3512251
107	0x3fb0e6fa	1.3820488
108	0x3fb4c9ea	1.4124119
109	0xbf3f8ccb	-0.7482421
110	0xbff8ccec	-1.9437537
111	0x400de4b8	2.217085
112	0x4004a726	2.072702
113	0x3f4882f5	0.78324825
114	0xbfbc7cda	-1.4725602
115	0x3f178d75	0.5920022
116	0x3fee8c01	1.8636476
117	0x3fb089ea	1.3792088
118	0xc00a3999	-2.1597655
119	0x400ad775	2.1694005
120	0x3fb06eac	1.3783774
121	0xbfb8df48	-1.444314
122	0x3fab7656	1.3395488
123	0xbfb49a22	-1.4109538
124	0xbfa6c568	-1.3028994
125	0xbfa79af6	-1.3094165
126	0x3fadfb30	1.3592281
127	0xbfadd09a	-1.3579285
128	0x3fbd6b2a	1.4798329
129	0x3faf4252	1.3692114
130	0xbf51c90e	-0.8194741
131	0x3ff510c2	1.9145739
132	0xc012ddee	-2.2947955
133	0xbfc2495e	-1.517864
134	0x4003c98b	2.0591762
135	0xbd8ac1ca	-0.067752436
136	0x3d9994c5	0.07499079
137	0xbd51e9f8	-0.05124852
138	0xbd8e2bb9	-0.06941933
139	0x3cee7a4c	0.02911105
140	0x3b3e8ec0	0.0029076785
141	0x3d356a0e	0.044290595
142	0x3c51f280	0.012814164
143	0xbcc9234c	-0.024552964
144	0x3d049d7a	0.032376744
145	0xbda2cbea	-0.0794905
146	0xbd1235d3	-0.035695862
147	0x3d71447e	0.05890321
148	0x3d3fdb16	0.046839796
149	0xbd2b86fb	-0.041876774
150	0x3da8e21d	0.08246253
151	0x3d5ff462	0.05467642
152	0x3d2b128e	0.041765742
153	0xbd7c1538	-0.061543673
154	0xbd51a681	-0.05118418
155	0xbd92f9fa	-0.071765855
156	0xbd4df9a0	-0.05028689
157	0x3d01361e	0.03154575
158	0x3d87b299	0.06625862
159	0x3d9437fd	0.072372414
160	0xbb422660	-0.0029624924
161	0x3c11bbf0	0.008894905
162	0xbcf3d4ae	-0.0297645
163	0xbd82f6e8	-0.0639475
164	0x3cf84160	0.03030461
165	0xbcccaa58	-0.02498357
166	0xbd18dbcc	-0.03731899
167	0xbcf5b048	-0.029991284
168	0xbd8aae44	-0.0677152
169	0xbd54961c	-0.051900968
170	0xbd05b91e	-0.032647245
171	0xbcaf8c50	-0.02142921
172	0xbca7b19c	-0.020470433
173	0x3da33c1f	0.079704516
174	0xbcab5928	-0.020916536
175	0x3d2feb7a	0.042949177
176	0xbc87d86c	-0.01658269
177	0x3d9f8577	0.07789128
178	0xbcbbbfe0	-0.022918642
179	0x3d5479e6	0.051874064
180	0x3d7bedea	0.06150619
181	0xbcc63950	-0.02419725
182	0x3cf15c24	0.029462881
183	0xbd4524a4	-0.048130646
184	0xbd12deb2	-0.03585691
185	0x3d47899e	0.048715226
186	0x3d3b1fea	0.045684732
187	0x3c918ab4	0.017766334
188	0x3d9325c1	0.07184935
189	0xbd427c79	-0.047481988
190	0x3c4ec9a8	0.012621321
191	0xbd8d1375	-0.06888477
192	0xbdadda52	-0.08488907
193	0xbd5bd110	-0.053666174
194	0x3daf693f	0.08564996
195	0x3d513f4e	0.051085763
196	0x3d806869	0.06269915
197	0x3d7a403a	0.061096407
198	0xbc33c710	-0.010972753
199	0x3c790d20	0.015200883
200	0xbcc52cea	-0.024069268
201	0xbd495f37	-0.04916307
202	0xbd10c8a2	-0.03534759
203	0xbd4d1c43	-0.05007578
204	0x3d276ece	0.040877156
205	0xbd2415f0	-0.040059984
206	0xbc9ed8bc	-0.019390456
207	0x3da90235	0.08252374
208	0x3d14a99a	0.036294557
209	0x3c7c0ef8	0.015384428
210	0xbc845cdc	-0.01615756
211	0x3d87300d	0.06600962
212	0x3baf5230	0.0053503737
213	0x3b3f5a60	0.0029198155
214	0xbd3afe60	-0.045652747
215	0xbd8f9ee9	-0.070127316
216	0x3d7eaa42	0.06217409
217	0xbd4392f3	-0.047747564
218	0xbd9b8ca9	-0.07595188
219	0xbd9fcc92	-0.078026906
220	0x3c9ed22c	0.019387327
221	0xbdaa3dd8	-0.08312577
222	0xbd911826	-0.07084684
223	0x3cae7c10	0.021299392
224	0x3d26e3da	0.04074464
225	0xbfd30109	-1.6484691
226	0x3feb6bb6	1.8392246
227	0x3fffcb6a	1.9983952
228	0xbfaaffe6	-1.3359344
229	0x3fa9f6b4	1.3278413
230	0x3fae534d	1.3619171
231	0x3fa83635	1.3141543
232	0xbfc9c5d4	-1.5763497
233	0x3fc33974	1.5251908
234	0x3fb894ea	1.4420445
235	0xbfac91c6	-1.3481987
236	0xbf95c1bc	-1.1699748
237	0xbfb674f2	-1.4254439
238	0x3fa84134	1.3144898
239	0xbfb8af4b	-1.4428495
240	0xbf9759f8	-1.1824331
241	0x3fb261eb	1.3936132
242	0x3fafb2ba	1.3726418
243	0x3faca351	1.348734
244	0xbfdfc1a7	-1.7480973
245	0x3fd394f8	1.6529837
246	0xbfcb7d02	-1.5897524
247	0xbff1f2a0	-1.8902168
248	0x3fee1615	1.8600489
249	0xbfb0b9c2	-1.3806689
250	0x3fe3c8ff	1.7795714
251	0xbfce07ad	-1.6096092
252	0x3fba9c50	1.4578953
253	0x3fe63d56	1.7987468
254	0xbfd3c92c	-1.6545768
255	0x3fb2315c	1.3921313

atten_layer.0.bias f4 [45]
0	0x3f86f3bc	1.0543132
1	0x3fbab27d	1.458572
2	0x3f9c6dae	1.2220972
3	0xbfb04a23	-1.3772625
4	0xbfaa64f5	-1.331206
5	0xbfb53b7c	-1.4158778
6	0xbfbdbd04	-1.4823308
7	0x3faaef18	1.3354216
8	0xbfb2836e	-1.3946359
9	0x3faea512	1.3644125
10	0xbfa26b45	-1.2688986
11	0xbfb79906	-1.4343574
12	0x3fb55029	1.4165088
13	0xbfa61fa1	-1.2978402
14	0xbf9c63c2	-1.2217944
15	0x3fb8c566	1.4435241
16	0xbfa3ed34	-1.2806764
17	0xbfba582c	-1.4558158
18	0xbf9e386f	-1.2360972
19	0xbfa4ddbd	-1.2880169
20	0xbfb59b2f	-1.4187983
21	0x3fc066fe	1.5031431
22	0x3fa78cd4	1.3089852
23	0x3fb5ca20	1.4202309
24	0xbfc02ed5	-1.5014292
25	0xbfb72a9c	-1.4309878
26	0xbfb07ef2	-1.3788741
27	0xbfb13fa0	-1.3847542
28	0xbfa247d4	-1.267817
29	0xbfc42af3	-1.5325607
30	0x3fa8821c	1.3164706
31	0x3fb435fb	1.4078974
32	0x3fb3baf4	1.4041429
33	0x3fb48d4f	1.4105624
34	0xbfa9514b	-1.3227934
35	0xbfbd4980	-1.4788055
36	0x3fb7812b	1.4336294
37	0x3fa94a5b	1.3225816
38	0xbfc0d03c	-1.5063548
39	0x3fa962e4	1.3233304
40	0xbf9eef0d	-1.2416703
41	0xbfb4f904	-1.4138494
42	0x3fb4c826	1.412358
43	0x3fb69288	1.4263468
44	0xbf9fd87d	-1.2487942

atten_layer.2.weight f4 [1, 45]
0	0xbedf39b4	-0.43598711
1	0xc055f5b0	-3.3431206
2	0x3f339862	0.7015439
3	0x3e5fa80a	0.21841446
4	0xbe254f05	-0.16143425
5	0x3e83f5f0	0.25773573
6	0xbf0a3a5a	-0.5399529
7	0xc00e0f7d	-2.2196953
8	0x3d2d1226	0.042253636
9	0x3d3d8735	0.04627152
10	0x3f5bdd49	0.8588453
11	0x40099ac8	2.150072
12	0xc01beca2	-2.436318
13	0xbde935d5	-0.11387221
14	0x4081c127	4.054828
15	0x3f229240	0.6350441
16	0x40430fa7	3.0478303
17	0x401aff54	2.421834
18	0x3f05f465	0.5232604
19	0x3ed62867	0.418277
20	0x3ffaa23f	1.9580764
21	0x3faaae84	1.3334508
22	0x3f9ba3d9	1.2159377
23	0x3f9c5607	1.2213753
24	0x3fdb525a	1.7134507
25	0x4035c048	2.839861
26	0xbf8203fa	-1.0157464
27	0xbf24eca3	-0.6442358
28	0x4063306a	3.54983
29	0x3fd48e4f	1.6605929
30	0x3f945e89	1.159135
31	0xc02cb4c6	-2.6985335
32	0x3f1baeb6	0.6081346
33	0xbfcabbaf	-1.5838526
34	0x40236115	2.5528004
35	0xbf4d29ef	-0.8014211
36	0xbffb10b6	-1.9614475
37	0xc00d73a1	-2.2101824
38	0x4008a80d	2.135257
39	0xc02fe6b3	-2.7484558
40	0x3eb34d0d	0.35019723
41	0x3fe2f49d	1.77309
42	0xc03b9a74	-2.931302
43	0x3fae4b9e	1.3616827
44	0x3ec5b641	0.3861561

lstm.weight_ih_l0 f4 [180, 45]
0	0x3f91af9b	1.1381716
1	0xbfc14891	-1.510027
2	0xbfc6c4bb	-1.5528787
3	0x3fb05bbc	1.3777995
4	0xbfc1e91f	-1.5149268
5	0x3fb0f06c	1.3823371
6	0x3fa0ec96	1.25722
7	0x3fc2b2c9	1.5210811
8	0xbf9a6028	-1.2060595
9	0x3fc4532e	1.5337884
10	0x3fa8adcb	1.3178037
11	0x3fb782bc	1.4336772
12	0x3fb13bd0	1.3846378
13	0x3fadb309	1.3570262
14	0xbfb5a55f	-1.4191092
15	0x3fc4998c	1.5359359
16	0xbfa89392	-1.3170035
17	0xbfc5be8a	-1.5448773
18	0xbfae7954	-1.3630776
19	0x3fcb328d	1.5874802
20	0xbfcd5675	-1.604201
21	0x3fe2e8f4	1.7727342
22	0x3fc89011	1.5668966
23	0xbfb238a6	-1.3923538
24	0x3f947e47	1.1601037
25	0xbfd03528	-1.6266222
26	0x3fcc625c	1.5967517
27	0xbfb2f2aa	-1.3980305
28	0xbfd58311	-1.6680623
29	0x3fc18e5b	1.5121568
30	0xbfadbbca	-1.3572934
31	0xbfc066a5	-1.5031325
32	0xbfac95c4	-1.3483205
33	0x3fbc0264	1.468823
34	0x3fc0e228	1.5069017
35	0xbfc15d02	-1.5106509
36	0xbfb33d8a	-1.4003155
37	0x3fad3ac8	1.3533564
38	0x3fb11f0c	1.38376
39	0xbfbf05c1	-1.4923631
40	0xbfb3dc68	-1.4051638
41	0x3fcbceb4	1.5922456
42	0xbfcf1792	-1.6179068
43	0xbfbeca1a	-1.4905427
44	0x3fd28363	1.6446346
45	0x3fc618fd	1.5476376
46	0xbfda602d	-1.70606
47	0xbfc4afbf	-1.5366133
48	0x3fc0f802	1.5075686
49	0x3fba1183	1.4536594
50	0x3fb7a50e	1.4347246
51	0x3fb8311e	1.4389989
52	0x3fb960cd	1.4482666
53	0xbfa98192	-1.3242667
54	0x3fabe8d3	1.3430427
55	0x3fab1c79	1.3368064
56	0xbfad396d	-1.353315
57	0x3fb3578a	1.401109
58	0xbfb14144	-1.3848042
59	0xbfa2d3af	-1.2720851
60	0x3fa187f4	1.2619615
61	0xbfb360c1	-1.4013902
62	0xbfa23530	-1.2672482
63	0xbfa75dcb	-1.3075498
64	0x3fcadec6	1.5849235
65	0xbfce5585	-1.6119848
66	0x3fb72184	1.4307103
67	0x3fdc5a5c	1.7215075
68	0xbfbfe69a	-1.4992249
69	0x3e98299e	0.2971925
70	0xbfc904a2	-1.5704539
71	0x3fc8a0a8	1.5674028
72	0xbfa0ab04	-1.255219
73	0xbfd1d998	-1.6394529
74	0x3fc41c04	1.532105
75	0xbfad88f4	-1.355742
76	0xbfb8591a	-1.4402192
77	0xbfc5180c	-1.5397964
78	0x3fac9cda	1.3485367
79	0x3fa70624	1.3048749
80	0xbfb3196c	-1.3992133
81	0xbfb3e853	-1.4055275
82	0x3fb7756d	1.433271
83	0x3fbcf3c1	1.4761888
84	0xbf9fc79a	-1.2482789
85	0xbfb41bb8	-1.4070959
86	0x3fc9c368	1.5762758
87	0xbfb4bc8a	-1.4120038
88	0xbf8f6435	-1.1202456
89	0x3fce5b8e	1.612169
90	0xbfa1d9d9	-1.2644607
91	0xbfcfb774	-1.622786
92	0xbfcef75f	-1.6169242
93	0x3fa8a744	1.3176045
94	0xbfb45faa	-1.4091694
95	0x3faf75fc	1.3707881
96	0xbfb3f614	-1.4059472
97	0x3fcdd97e	1.6081998
98	0xbfc26da6	-1.5189712
99	0xbfbb8583	-1.465012
100	0x3fae83da	1.3633988
101	0xbf93d7cc	-1.1550231
102	0xbfba239d	-1.4542118
103	0x3fbc84f4	1.4728074
104	0x3fa6d1c0	1.3032761
105	0x3fa39aba	1.2781594
106	0x3fbaf7bd	1.4606854
107	0x3fa709fe	1.3049924
108	0xbfa96b07	-1.3235787
109	0x3fcbe650	1.5929661
110	0xbfc9aafb	-1.5755304
111	0x3fba9f56	1.4579875
112	0x3fb655c8	1.4244928
113	0xbfbe2243	-1.4854206
114	0x3f7a37ba	0.9774128
115	0xbfb9ad0b	-1.4505934
116	0x3fdafa2d	1.7107598
117	0xbfaf5fe0	-1.3701134
118	0xbfcacfd0	-1.5844669
119	0x3fc65449	1.5494472
120	0x3fc3aa46	1.5286338
121	0x3fa2750c	1.269197
122	0xbfb521f4	-1.4150987
123	0x3fc35a4a	1.5261929
124	0x3fabb0a2	1.3413279
125	0x3fb6b6b4	1.4274507
126	0x3fc3d966	1.530072
127	0x3fbfee0e	1.4994524
128	0xbfa08a71	-1.2542249
129	0xbfb619ce	-1.4226625
130	0x3faec3f7	1.3653554
131	0x3fc252f7	1.5181569
132	0xbfd153ae	-1.6353662
133	0x3fabbc10	1.3416767
134	0x3fb7d997	1.4363278
135	0x3fc90bbc	1.5706706
136	0xbfd61600	-1.6725464
137	0xbfcebc5d	-1.6151234
138	0x3fc0494c	1.5022368
139	0xbfaa5f98	-1.3310423
140	0x3fa5b201	1.2944947
141	0x3fc42b40	1.5325699
142	0x3fda2ce8	1.7044954
143	0xbfa83022	-1.3139689
144	0xbfa7ea25	-1.311833
145	0x3fc22ebf	1.5170516
146	0xbf9e10fc	-1.2348933
147	0x3f9f7d26	1.2460067
148	0x3fba5e0f	1.4559954
149	0x3fbdcba0	1.4827766
150	0x3fba5d94	1.4559808
151	0x3fb17557	1.3863934
152	0xbfa174b2	-1.2613738
153	0xbfb304ce	-1.3985841
154	0x3fe64851	1.7990819
155	0xbfc43b88	-1.5330667
156	0x3fbe4be0	1.4866905
157	0x3fd94a3e	1.6975782
158	0xbfe36716	-1.7765834
159	0x3f9a166c	1.2038093
160	0xbfd23d3a	-1.6424935
161	0x3fd0dabb	1.6316751
162	0xbfa76596	-1.3077877
163	0xbfe20dc9	-1.7660457
164	0x3fd52671	1.6652356
165	0xbfa8d2fa	-1.3189385
166	0x3fc74e01	1.557068
167	0xbfa5e1fa	-1.2959588
168	0x3fa54752	1.291239
169	0x3fb8313c	1.4390025
170	0xbfbb513e	-1.4634168
171	0xbfa2fb8e	-1.2733018
172	0x3f9e67a8	1.2375383
173	0xbfa85618	-1.3151274
174	0xbfaa2538	-1.3292608
175	0x3fb89695	1.4420954
176	0x3fc51b2c	1.5398917
177	0xbfc06d75	-1.5033404
178	0x3fabc530	1.3419552
179	0x3fc3e95a	1.5305588
180	0x3faeb696	1.3649471
181	0xbfd1f4b5	-1.6402804
182	0xbfec7a60	-1.8474846
183	0x3fa844a4	1.3145947
184	0x3f9aac4c	1.2083831
185	0x3fbb0292	1.4610159
186	0x3fb0f5a5	1.3824965
187	0x3fcc25d7	1.5949048
188	0xbfc2ad80	-1.5209198
189	0xbfc20264	-1.515698
190	0x3fabc258	1.3418684
191	0xbfbbd5bc	-1.4674602
192	0x3fa4894a	1.2854397
193	0xbf94d16e	-1.1626413
194	0x3fc83bf8	1.5643301
195	0x3fbcd402	1.47522
196	0x3faf5478	1.3697653
197	0xbfaba15a	-1.3408616
198	0xbfa0aaf7	-1.2552174
199	0x3fdec0ba	1.7402565
200	0xbfe74ec5	-1.8070914
201	0x3fc2e2ee	1.5225503
202	0x3fd10691	1.6330129
203	0xbfe29fad	-1.7704979
204	0x3fa7cc8e	1.31093
205	0xbfe7b607	-1.8102425
206	0x3fda1c6f	1.7039927
207	0xbfa793f6	-1.3092029
208	0xbfc771e4	-1.5581632
209	0x3fcf505e	1.6196401
210	0xbfb0f406	-1.382447
211	0x3fb268b1	1.3938199
212	0xbfb6151c	-1.4225192
213	0x3fbeffb8	1.4921789
214	0x3fc05440	1.5025711
215	0xbfa816dc	-1.3131976
216	0xbfa6f6f1	-1.304411
217	0x3fbad6a7	1.4596757
218	0xbf9e3b8e	-1.2361925
219	0xbfb9a7a5	-1.4504286
220	0xbfc07811	-1.5036641
221	0x3fde35f9	1.7360221
222	0xbfcbc279	-1.5918723
223	0x3fc3518f	1.5259265
224	0x3fc8211e	1.5635107
225	0x3fc3faf4	1.531096
226	0xbfc9582d	-1.5730034
227	0xbfdbd9fe	-1.7175901
228	0x3faa26a8	1.3293047
229	0xbfbfb541	-1.4977189
230	0x3faee744	1.3664327
231	0x3fa0b533	1.2555298
232	0x3fc336ca	1.5251095
233	0xbfb9f4af	-1.4527797
234	0xbfc54bc7	-1.541375
235	0x3fb0b4dc	1.3805194
236	0xbf99c3ec	-1.2012916
237	0x3faf5162	1.3696711
238	0x3fafee3d	1.374458
239	0x3fb9a7e2	1.4504359
240	0x3fb7f2a0	1.4370918
241	0x3fa941ba	1.3223183
242	0xbfbf4f0a	-1.4945996
243	0xbfb9254a	-1.4464505
244	0x3fc05f25	1.5029036
245	0xbfcc864b	-1.5978483
246	0x3fb8b368	1.442975
247	0x3fbf6d22	1.495518
248	0xbfd10cf9	-1.6332084
249	0x3f0c05e7	0.54696506
250	0xbfd59274	-1.6685319
251	0x3fb99991	1.449999
252	0xbfc1c7f9	-1.5139152
253	0xbfd14e70	-1.6352062
254	0x3fdc1233	1.7193054
255	0xbfb71464	-1.4303098

lstm.weight_hh_l0 f4 [180, 45]
0	0xbc739610	-0.014867321
1	0x3e101e4b	0.14074056
2	0xbe15b537	-0.14619909
3	0x3b82efe0	0.0039958805
4	0xbe14f784	-0.14547545
5	0xbdb9a031	-0.09063757
6	0x3d1de308	0.038546592
7	0x3dcc2c22	0.09969355
8	0xbcc2ef40	-0.023795724
9	0x3e07e295	0.13270028
10	0x3d8a7f0e	0.06762515
11	0xbe09ecaa	-0.13469186
12	0xbd182430	-0.037143886
13	0xbcb958e0	-0.022625387
14	0xbcc28d18	-0.02374892
15	0x3d805fcc	0.06268272
16	0x3dfbc56a	0.12293513
17	0xbdcfea46	-0.10152106
18	0xbda95f5a	-0.0827014
19	0xbdb5f194	-0.08883968
20	0x3ce38378	0.02777265
21	0x3d75356c	0.0598654
22	0xbdc884e2	-0.097909704
23	0x3da52818	0.08064288
24	0x3d867d2a	0.06566842
25	0xbd34a602	-0.04410363
26	0xbd383aa4	-0.0449778
27	0xbe0ea7e1	-0.13931228
28	0xbdc2e586	-0.09516434
29	0x3d2eb7cc	0.04265575
30	0x3d6f0760	0.058356643
31	0x3e0691a9	0.13141502
32	0xbd0d5746	-0.03450706
33	0x3dce9d14	0.10088554
34	0xbda9781c	-0.08274862
35	0xbdf3f949	-0.11912782
36	0xbe02aa2e	-0.12760231
37	0x3dc95124	0.098299295
38	0xbcc05b38	-0.023480996
39	0x3df6cdc2	0.12050964
40	0xbd5ef2fc	-0.054430947
41	0x3e18136d	0.1485116
42	0x3d811e80	0.063046455
43	0xbd8d4fdd	-0.06899998
44	0x3da58272	0.08081521
45	0xbd172990	-0.03690487
46	0x3dcbbaac	0.09947714
47	0xbcb5e5e8	-0.022204354
48	0x3e175801	0.14779665
49	0x3de3d3ee	0.11124407
50	0xbe0c1b02	-0.13682178
51	0x3d0a6060	0.033783317
52	0xbc46ead0	-0.012140945
53	0xbd61f170	-0.055161893
54	0x3d9c3564	0.07627371
55	0xbcdddd48	-0.027083054
56	0xbd5f27a0	-0.05448115
57	0xbdcc2718	-0.09968394
58	0xbdf0c336	-0.117559835
59	0x3db7076a	0.08936961
60	0x3dc38586	0.09546952
61	0xbc9fea18	-0.019520804
62	0x3dbf42fc	0.09338948
63	0xbd8287ea	-0.0637358
64	0x3df8c556	0.12147014
65	0xbd0d929e	-0.034563653
66	0x3d8bcd26	0.06826238
67	0x3cbd13c0	0.023080707
68	0x3e1151cf	0.14191364
69	0xbc93dff8	-0.018051133
70	0xbdf38eea	-0.11892493
71	0xbdc5ea76	-0.096638605
72	0xbbbe33c0	-0.005804509
73	0xbd0d0ca8	-0.034435898
74	0xbdc2da0c	-0.095142454
75	0xbdde19d6	-0.108447716
76	0xbe09b8f1	-0.13449456
77	0xbd1dc3a4	-0.038516656
78	0x3dc6ded6	0.09710471
79	0x3cb22428	0.021745756
80	0x3b4d9b00	0.0031372905
81	0xbe17574d	-0.14779396
82	0x3bf233c0	0.007391423
83	0xbe10fd2c	-0.14159077
84	0xbdcab682	-0.09898092
85	0xbd926954	-0.07148996
86	0xbe0704ff	-0.131855
87	0xbc8601c0	-0.016358256
88	0x3d9ea7c6	0.07746844
89	0xbdd1a5b2	-0.10236682
90	0xbe16bd67	-0.14720689
91	0xbde8b422	-0.113624826
92	0x3c5a2710	0.013314977
93	0x3e176b8d	0.14787121
94	0x3df1c4da	0.118051246
95	0x3e0c5ac5	0.13706501
96	0x3b54d840	0.0032477528
97	0x3d5d75fc	0.054067597
98	0xbd2b8280	-0.0418725
99	0xbdeeef88	-0.11666781
100	0x3d1537a8	0.03643003
101	0x3d999184	0.07498458
102	0x3de9294e	0.11384831
103	0xbdb184e0	-0.08667922
104	0x3cc5bb48	0.024137154
105	0xbdf4bafe	-0.119497284
106	0xbe087822	-0.13327077
107	0xbd8afd16	-0.067865536
108	0xbdd8ef74	-0.10592547
109	0xbde7a5e5	-0.11310939
110	0xbc392cd0	-0.011302188
111	0xbe01f795	-0.12692101
112	0xbdf04de0	-0.117336035
113	0xbdd356d2	-0.10319294
114	0xbdbafed3	-0.09130635
115	0x3c1f8ab0	0.0097376555
116	0xbc8ee128	-0.017441347
117	0x3d801d2a	0.062555626
118	0xbcc02f58	-0.023460075
119	0x3d71b46c	0.059009954
120	0xbd0eaaba	-0.034830786
121	0x3d99b6b6	0.075055525
122	0x3d8458b0	0.06462228
123	0x3df5781a	0.11985798
124	0x3ce67ca8	0.028135613
125	0xbde8f82a	-0.113754585
126	0x3d4ad164	0.049516097
127	0x3c43db80	0.011954188
128	0xbdbccb68	-0.09218484
129	0x3d82d80e	0.063888654
130	0x3d0f519c	0.03498994
131	0xbcb35778	-0.021892294
132	0xbddd2fc6	-0.10800128
133	0xbd2140da	-0.039368488
134	0xbdafc6ae	-0.08582817
135	0x3c9807a8	0.018558338
136	0xbd8b49ea	-0.06801207
137	0xbbe68080	-0.0070343614
138	0xbd034cd6	-0.0320557
139	0x3d306cd8	0.04307255
140	0x3d8c2680	0.06843281
141	0xbcee63f8	-0.029100403
142	0x3db5a514	0.08869377
143	0xbe042f08	-0.12908566
144	0x3e11970b	0.14217775
145	0x3e116883	0.14200024
146	0x3e02bcd1	0.1276734
147	0xbdafa28a	-0.08575924
148	0xbd1f9966	-0.03896465
149	0x3d12db50	0.035853684
150	0xbdfbd0b4	-0.12295666
151	0x3ddcf1fa	0.10788341
152	0x3bc8b780	0.0061253905
153	0x3e00acfd	0.1256599
154	0xbdfffde6	-0.12499599
155	0xbd259216	-0.04042252
156	0xbe082ff2	-0.1329954
157	0xbd5dfb48	-0.05419472
158	0x3ccd2118	0.025040194
159	0xbb647600	-0.0034860373
160	0x3d7a4f68	0.061110884
161	0xbd47092c	-0.04859273
162	0xbd343130	-0.04399222
163	0xbde86939	-0.11348195
164	0xbe13aaea	-0.14420667
165	0x3e017515	0.1264232
166	0xbdd36b81	-0.10323239
167	0xbdf8dbf9	-0.121513315
168	0xbd0ef488	-0.034901172
169	0xbc5a3200	-0.013317585
170	0x3cea4788	0.028598562
171	0xbddb432e	-0.10706173
172	0xbde1071d	-0.10987685
173	0xbe0207ef	-0.12698339
174	0x3da1027e	0.078618035
175	0x3d8db894	0.06919971
176	0xbd887c40	-0.06664324
177	0x3b158800	0.0022816658
178	0xbce460b0	-0.027878135
179	0x3d15db54	0.03658612
180	0xbdc0a68c	-0.09406766
181	0xbd9e37cd	-0.07725487
182	0xbcf4e400	-0.029893875
183	0xbd174862	-0.036934264
184	0xbda452aa	-0.080235794
185	0xbde3d994	-0.11125484
186	0xbc9cf108	-0.019157901
187	0xbdf1d5fa	-0.11808391
188	0xbcfa3c54	-0.030546345
189	0x3e015729	0.12630905
190	0x3d3a8740	0.04553914
191	0x3c597e70	0.013274774
192	0xbd1c8c60	-0.03821981
193	0x3d91090e	0.07081805
194	0x3d549350	0.0518983
195	0x3da6ef4e	0.081511125
196	0x3d9e31c4	0.07724336
197	0x3c8a56d8	0.016887113
198	0xbcbd7940	-0.023129106
199	0xbdfd8976	-0.12379734
200	0xbddf2c1e	-0.108970866
201	0x3dafa046	0.085754916
202	0xbce81e78	-0.028334841
203	0x3c0785f0	0.008271679
204	0xbe06ddec	-0.13170594
205	0xbdcbc818	-0.09950274
206	0xbda86cfb	-0.082239114
207	0x3dde30ce	0.108491525
208	0x3de623ba	0.11237283
209	0xbd2d8aee	-0.04236882
210	0xbd8abdc7	-0.067744784
211	0x3dd60f5a	0.10452147
212	0x3db0e79c	0.08637926
213	0xbdb06b6a	-0.086142376
214	0x3de935ee	0.113872394
215	0x3d6ecbcc	0.058299825
216	0x3c6404b0	0.013917133
217	0xbd8b799e	-0.06810306
218	0x3dc748bc	0.0973067
219	0xbdaee8c7	-0.085404925
220	0xbbed23c0	-0.0072369277
221	0xbdd93051	-0.10604919
222	0xbe14e089	-0.14538778
223	0xbd8eb2bf	-0.06967687
224	0xbd5902f6	-0.05298134
225	0x3d76a680	0.06021738
226	0x3db5dfb8	0.088805616
227	0xbe01b6cb	-0.12667386
228	0x3dae31ae	0.085055694
229	0xbddb8e0e	-0.10720454
230	0x3e0e97af	0.1392505
231	0xbdc1d97f	-0.09465312
232	0x3d0b17c4	0.03395821
233	0x3d3fd2b0	0.046831787
234	0xbd079d9e	-0.0331093
235	0xbda8937d	-0.08231256
236	0x3e0de50d	0.13856907
237	0x3e1748f1	0.14773919
238	0x3e04c951	0.12967421
239	0xbd58c7a2	-0.05292476
240	0x3c505d80	0.012717605
241	0xbdb81bf2	-0.08989705
242	0xba0fc300	-0.00054840744
243	0xbdec37af	-0.11534058
244	0xbd48bfb8	-0.049010962
245	0x3d65d318	0.056109518
246	0xbdbc4628	-0.09193069
247	0xbdb35e16	-0.0875818
248	0x3de08b1a	0.109640315
249	0xbd57f3b0	-0.052722633
250	0xbd8ec314	-0.06970802
251	0x3d8fa7f6	0.07014458
252	0xbde3ee4a	-0.111294344
253	0xbd04e60a	-0.032445945
254	0x3b02d180	0.0019961298
255	0x3df49d9a	0.119441226
