Ni_prediction/savemodel/bst_mod_172.pth (torch_old, 533442 bytes, 44 tensors)

price_encoder.attention.weight f4 [1, 121]
0	0x4014088b	2.3130214
1	0x40161b03	2.3453987
2	0x4010a0e4	2.25982
3	0xc016a479	-2.3537886
4	0xc00c26d4	-2.1898699
5	0x400c771e	2.1947703
6	0x4013adcf	2.3074834
7	0xc00ec3d4	-2.2307024
8	0x4012ab50	2.291706
9	0x4010ed3b	2.2644794
10	0x40100eb6	2.250898
11	0x4014c7e5	2.3247006
12	0xc00d7df0	-2.2108116
13	0xc0115470	-2.2707787
14	0xc0119b6e	-2.2751117
15	0x400e0ac3	2.2194068
16	0x400c2fd0	2.1904182
17	0xc00e3f66	-2.2226195
18	0x400abc50	2.1677437
19	0x4012f8f4	2.296445
20	0x400a9a74	2.165677
21	0x4011600c	2.2714872
22	0x40149d8c	2.322116
23	0xc014100a	-2.313479
24	0xc0141099	-2.313513
25	0x40101e12	2.2518353
26	0xc00dabc9	-2.21361
27	0xc01493bc	-2.321517
28	0xc0134394	-2.3009996
29	0xc00ebafa	-2.2301621
30	0x401449c1	2.3170016
31	0xc00ff86d	-2.2495377
32	0x4010d229	2.2628272
33	0x4016a743	2.3539588
34	0x400cef17	2.202093
35	0x4010b1bc	2.260848
36	0xc01440d6	-2.3164573
37	0x40146d9c	2.31919
38	0x4011f180	2.280365
39	0xc0147295	-2.3194935
40	0x40118d23	2.2742393
41	0x4016ca1a	2.3560853
42	0x400f004c	2.2343931
43	0x40143170	2.3155174
44	0x4011567c	2.2709036
45	0x401445c1	2.3167574
46	0x401441c5	2.3165143
47	0x40146296	2.3185172
48	0x40168779	2.3520186
49	0x4010070f	2.2504308
50	0x400db1d2	2.2139783
51	0x400f6fa4	2.241189
52	0x4014aba2	2.3229756
53	0x4010082a	2.2504983
54	0x400bdb10	2.1852455
55	0x4011b486	2.2766433
56	0x401307c9	2.2973502
57	0xc015f01d	-2.3427804
58	0xc011935e	-2.2746196
59	0x40172a1a	2.3619447
60	0x400dae12	2.2137494
61	0xc0152b00	-2.3307495
62	0xc012eec2	-2.2958226
63	0xc00c1a6a	-2.1891122
64	0xc0167254	-2.350728
65	0x4015a556	2.3382163
66	0x401128bb	2.268111
67	0x400ece28	2.2313328
68	0x400dc0ef	2.2149007
69	0xc010c5d8	-2.2620754
70	0xc00fb235	-2.245252
71	0x40122430	2.2834587
72	0x4012cd2d	2.293773
73	0x400d39a2	2.2066426
74	0xc00d87a3	-2.2114036
75	0x400c5205	2.192506
76	0xc00d85d0	-2.2112923
77	0x3fb159cd	1.385553
78	0x401557d5	2.3334858
79	0x4013422e	2.3009143
80	0xc00cb0ad	-2.1982834
81	0xc00d6b0b	-2.2096584
82	0x4011afb0	2.276348
83	0x400f4b7d	2.2389824
84	0x4015b574	2.3392
85	0xc016926b	-2.3526866
86	0xc00c32d7	-2.190603
87	0xc016d072	-2.3564725
88	0x401515ea	2.3294625
89	0x40147472	2.3196073
90	0x40167221	2.3507159
91	0x4016040a	2.3439965
92	0x400f236c	2.236537
93	0x40150017	2.3281305
94	0xc00e3d7f	-2.2225034
95	0xc016a4ee	-2.3538165
96	0xc00e4a9e	-2.2233043
97	0x401297d2	2.2905164
98	0xc013af11	-2.3075602
99	0x400a7b40	2.1637726
100	0x400e97a2	2.228005
101	0x400f6d98	2.241064
102	0x40113f8d	2.2695038
103	0x401589a4	2.336526
104	0x40140586	2.3128371
105	0x400e005a	2.2187715
106	0x400bf480	2.186798
107	0x4014330f	2.3156164
108	0x40149c19	2.3220274
109	0x4011314a	2.2686334
110	0x400bcdc8	2.184435
111	0x40117934	2.2730227
112	0x400b63a6	2.177957
113	0x4012b713	2.292424
114	0x4015cb86	2.340547
115	0x400be360	2.1857529
116	0x400f5de5	2.2401059
117	0x400ee7a8	2.2328892
118	0x4014ccd5	2.325002
119	0x401242a5	2.2853177
120	0x40143ab6	2.3160834

price_encoder.encoder.weight_ih_l0 f4 [180, 45]
0	0xbdce781c	-0.10081503
1	0xbdf18632	-0.11793174
2	0x3d033218	0.032030195
3	0x3da90520	0.08252931
4	0xbd637be6	-0.05553808
5	0x3dd5b0a2	0.10434081
6	0x3da10980	0.0786314
7	0xbdf9ef0a	-0.12203796
8	0xbdd440b7	-0.10363906
9	0xbc431540	-0.011906922
10	0xbde1f873	-0.11033716
11	0xbd6cefce	-0.057845883
12	0xbcd9dabc	-0.026593558
13	0x3cfb40d8	0.030670568
14	0xbdf7b2be	-0.12094639
15	0x3c76ab70	0.015055522
16	0x3d509afc	0.050929055
17	0xbdaa4008	-0.08312994
18	0x3db96168	0.09051782
19	0x3debb1e6	0.11508541
20	0x3dd5edf7	0.10445779
21	0x3d8c5fe6	0.06854229
22	0xbdda9572	-0.10673036
23	0xc00a64c1	-2.1623995
24	0xbe1478d7	-0.14499222
25	0xbe17f2a5	-0.14838655
26	0xbdf93d6b	-0.12169918
27	0x3e03a35b	0.12855284
28	0x3e084b53	0.13309984
29	0x3d149a38	0.036279887
30	0xbe07550b	-0.13216035
31	0xbbfcf9e0	-0.007720217
32	0x3deff8b6	0.1171736
33	0x400973e5	2.1476986
34	0x400e37b6	2.2221503
35	0x400f5455	2.2395222
36	0x4010642a	2.2561135
37	0x4010ae07	2.2606218
38	0xbe3eaf72	-0.18621615
39	0x400d4ce8	2.207819
40	0x401aab55	2.4167073
41	0x40161bc6	2.3454452
42	0x400d279f	2.2055433
43	0x3cc6ba88	0.024258867
44	0xbdfebdd6	-0.12438552
45	0xbe00569b	-0.12533037
46	0x3d8f374b	0.06992968
47	0x3de206f8	0.110364854
48	0x3d36a141	0.044587377
49	0x3dbc29f6	0.09187691
50	0x3dfb9304	0.122839004
51	0xbd8da4e7	-0.06916218
52	0x3dafcb0b	0.08583649
53	0x3d77388f	0.060356673
54	0x3d006e70	0.03135532
55	0x3dbbee88	0.091763556
56	0xbca8f750	-0.02062574
57	0x3d8afcfa	0.06786533
58	0x3e04b81f	0.12960862
59	0x3c45dc60	0.012076467
60	0xbe1125a3	-0.14174514
61	0xbe0937c7	-0.13400184
62	0x3b9ef960	0.004851505
63	0xbd068a28	-0.0328466
64	0x3dc5f05a	0.09664984
65	0x3f53f72d	0.82799035
66	0x3c244b8b	0.0100277765
67	0xbdcf0121	-0.10107637
68	0x400838ee	2.1284747
69	0xbdf6e777	-0.12055867
70	0xbe1393cb	-0.14411847
71	0x3df7377a	0.12071128
72	0xbd3aaf3e	-0.04557728
73	0xbe11c6e2	-0.14236024
74	0xbb4c3b40	-0.0031163245
75	0xbd32a98a	-0.043618716
76	0x3e0e5457	0.1389936
77	0xbdc0bb21	-0.09410692
78	0x400bfdfc	2.187377
79	0x400921be	2.1426845
80	0x400f9ba0	2.2438736
81	0x400ca48c	2.1975431
82	0x4019b3ca	2.4015985
83	0xbe075a03	-0.1321793
84	0x400d4a29	2.2076514
85	0x400b2134	2.1739016
86	0x400c0b5b	2.188193
87	0x40165619	2.349005
88	0x3d243a10	0.040094435
89	0x3d347b70	0.04406303
90	0x3dd7b4d4	0.10532537
91	0xbbdf3197	-0.0068113315
92	0xbdf0ad5a	-0.11751814
93	0xbde0dc7b	-0.10979553
94	0x3ce79828	0.028270796
95	0x3d49be58	0.04925379
96	0x3d8554e0	0.06510329
97	0x3d87b7ff	0.06626891
98	0xbce5df24	-0.028060503
99	0xbdab928e	-0.083775625
100	0xbe061ec6	-0.13097677
101	0x3ca12e30	0.019675344
102	0xbd4b799e	-0.04967653
103	0xbdcf06a0	-0.101086855
104	0x3bbaf560	0.0057055205
105	0x3c88c158	0.016693756
106	0x3dc21f42	0.09478618
107	0xbdc7a884	-0.09748939
108	0x3c6c6110	0.014427438
109	0xbdae2262	-0.08502652
110	0x3f568ec4	0.83811593
111	0xbcf677f3	-0.030086493
112	0xbdcf767b	-0.1013002
113	0x400e7b56	2.2262778
114	0xbd5c9524	-0.05385317
115	0x3d26d200	0.040727615
116	0xbd35007e	-0.044189923
117	0x3c4055b6	0.011739185
118	0xbdcf2b74	-0.1011571
119	0x3e106e33	0.14104538
120	0xbddf4c42	-0.10903217
121	0x3e1028df	0.14078091
122	0xbe0e1fbc	-0.13879293
123	0x40184ad1	2.3795664
124	0x40090e47	2.1414964
125	0x400f5b01	2.2399294
126	0x40138f62	2.3056264
127	0x4016e48f	2.3577
128	0xc010efd3	-2.2646377
129	0x400e87a8	2.2270298
130	0x401623cc	2.3459349
131	0x400969b4	2.1470766
132	0x400dddfc	2.2166739
133	0x3d6fd194	0.05854948
134	0xbd80bc1d	-0.0628588
135	0x3dc74bc2	0.097312465
136	0xbd5eb946	-0.05437591
137	0xbe05178e	-0.12997267
138	0xbcaeccc2	-0.02133787
139	0xbd207630	-0.039175212
140	0x3ded8e2e	0.11599384
141	0x3df774fa	0.120828584
142	0x3dc203fb	0.094734155
143	0xbb8c6861	-0.004284904
144	0x3da1b518	0.07895869
145	0x3de6a102	0.112611786
146	0x3decfab6	0.11571257
147	0x3dc9baf0	0.098501086
148	0xc008a7eb	-2.135249
149	0x3d11ea5c	0.035623893
150	0x3d7c364c	0.06157522
151	0xbd15dab6	-0.036585532
152	0xbc175ca0	-0.009238392
153	0x3f650845	0.89465743
154	0x3d341146	0.043961786
155	0xbe5048ee	-0.2034032
156	0xbc75ffc0	-0.015014589
157	0x3d76a6dc	0.060217723
158	0xc010f9a8	-2.2652378
159	0x3d46da8c	0.048548266
160	0x3e14e60d	0.14540882
161	0xbd83b840	-0.06431627
162	0xbdb63032	-0.08895911
163	0xc012bd76	-2.2928138
164	0x3daf2378	0.08551687
165	0x3dc778aa	0.09739812
166	0xbfe80886	-1.8127601
167	0xbdb93234	-0.090427786
168	0xc019c020	-2.4023514
169	0xc0163d65	-2.3474972
170	0xc00b8ece	-2.180591
171	0xc00c9803	-2.196778
172	0xc015d75d	-2.3412697
173	0xbdc6e87a	-0.0971231
174	0xc00d07b5	-2.2035954
175	0xc0116c5e	-2.2722392
176	0xc00b92fc	-2.1808462
177	0xc00c188a	-2.1889977
178	0x3da12df2	0.078700915
179	0x3d176de8	0.03697005
180	0xbdb02f9b	-0.0860283
181	0xbcac62b8	-0.021043167
182	0x3dac5966	0.08415489
183	0x3e0d0c21	0.13774158
184	0x3db1143c	0.086464375
185	0x3e132dfb	0.14373009
186	0xbe0d4c9e	-0.13798758
187	0xbe12feac	-0.14354962
188	0xbdb45fa0	-0.088073015
189	0xbd559764	-0.05214633
190	0x3d59df98	0.05319175
191	0xbe14d623	-0.14534812
192	0xbdd89c32	-0.10576667
193	0xbda6f1cf	-0.0815159
194	0xbbed5a80	-0.0072434545
195	0x3db28466	0.08716659
196	0xbd08b124	-0.03337206
197	0xbdb8dcfc	-0.090265244
198	0x3d1d3268	0.03837815
199	0xbdb2355f	-0.08701586
200	0x3d4a0060	0.049316764
201	0x3db4d008	0.08828741
202	0x3d3823f6	0.04495617
203	0xc00f71b1	-2.2413142
204	0x3dcd49b2	0.10023822
205	0x3e10c781	0.14138605
206	0x3d99f56c	0.07517514
207	0x3cdfda50	0.02732578
208	0x3e03287d	0.12808414
209	0x3dfa30ca	0.12216337
210	0x3d5d4248	0.05401829
211	0xbc8c2800	-0.017108917
212	0xbdd6d87b	-0.10490509
213	0xc009d6ec	-2.1537428
214	0xc0178e51	-2.3680613
215	0xc0199570	-2.399746
216	0xc00d80c0	-2.2109833
217	0xc011a60c	-2.2757597
218	0xbbb149e0	-0.005410418
219	0xc01019be	-2.2515712
220	0xc00a3395	-2.1593983
221	0xc007e40c	-2.1232939
222	0xc0157843	-2.3354652
223	0xbda32724	-0.0796645
224	0xbc3aee70	-0.011409387
225	0xbc8a91b7	-0.016915185
226	0x3d86267c	0.06550309
227	0x3c74b9d0	0.014936879
228	0xbd1cc4f8	-0.03827378
229	0x3e01b559	0.12666835
230	0x3e16386f	0.14669965
231	0xbacab2d3	-0.0015464671
232	0x3e185ddf	0.14879559
233	0x3d81ed7c	0.06344125
234	0x3de7afbe	0.11312817
235	0xbe06b870	-0.13156295
236	0x3dbbd360	0.09171176
237	0xbdbb1d73	-0.09136476
238	0x400be4c5	2.185838
239	0x3c0f5b70	0.008749828
240	0x3af8ab00	0.001897186
241	0x3d1f5974	0.03890367
242	0x3cd21fe8	0.02564998
243	0xbdd3b1fa	-0.10336681
244	0x3d9f3e28	0.07775527
245	0xbd80f33e	-0.06296395
246	0xbd9d1cf3	-0.07671537
247	0x3a2014e6	0.000610663
248	0xc01ae638	-2.4203014
249	0x3cde2960	0.027119339
250	0xbdba2b95	-0.09090344
251	0x3df27b96	0.118399784
252	0xbd1f6ed6	-0.03892406
253	0x4011b112	2.2764325
254	0x3d8316d5	0.06400839
255	0x3e0aa5a1	0.13539745

price_encoder.encoder.weight_hh_l0 f4 [180, 45]
0	0x4018a697	2.3851678
1	0x4012e346	2.2951217
2	0x400a1b21	2.1579058
3	0xc00a2e92	-2.1590924
4	0x4010cf6b	2.2626598
5	0x400d464e	2.207416
6	0x401020bb	2.2519977
7	0xc018da1a	-2.3883119
8	0xc0104fac	-2.2548628
9	0xc00cc8ab	-2.1997478
10	0xc0171ea3	-2.361245
11	0x40158e10	2.3367958
12	0xc00d70e6	-2.2100158
13	0xc011711c	-2.2725286
14	0x400c4c38	2.192152
15	0xc019df98	-2.404272
16	0x400b6f0a	2.1786523
17	0xc0137c93	-2.3044784
18	0x40086694	2.1312609
19	0xc019598c	-2.3960905
20	0x400890d6	2.13384
21	0x40100816	2.2504935
22	0x40099769	2.1498663
23	0x400c05de	2.187858
24	0xc00f8e0f	-2.2430456
25	0xc008004d	-2.1250184
26	0xc00a34ea	-2.1594796
27	0x400daf3c	2.2138205
28	0xc0085f5e	-2.1308208
29	0xc00dca8d	-2.2154877
30	0x400b33af	2.1750295
31	0xc01222b8	-2.283369
32	0x401032ba	2.253096
33	0x40120c01	2.2819827
34	0x40106620	2.2562332
35	0xc0083b58	-2.128622
36	0xc00e92ae	-2.2277026
37	0x4013dc7f	2.310333
38	0x400c10b7	2.1885202
39	0x401ae5c4	2.4202738
40	0x4017969e	2.368568
41	0x400d354d	2.2063782
42	0xc013fa8a	-2.3121667
43	0x4019b86e	2.4018817
44	0xc0174d26	-2.3640838
45	0xc018da52	-2.3883252
46	0xc014f2e1	-2.3273242
47	0xc011460a	-2.2698998
48	0x40145944	2.3179483
49	0xc00bbea3	-2.1835105
50	0xc0172b1d	-2.3620064
51	0xc00a7964	-2.163659
52	0xc0167000	-2.350586
53	0x400de682	2.217194
54	0xc0154af2	-2.3326993
55	0x400c5109	2.192446
56	0xc01a9188	-2.4151325
57	0x400902f5	2.1408055
58	0x400d9643	2.2122962
59	0xc011f5ca	-2.2806268
60	0x4018ef98	2.3896236
61	0xc00e0478	-2.2190228
62	0x4008cb8a	2.137423
63	0xc00bd159	-2.1846526
64	0x40115788	2.2709675
65	0x400b7945	2.1792767
66	0xc016de5b	-2.3573215
67	0xc00b712a	-2.178782
68	0xc012a2d2	-2.2911878
69	0x4019373b	2.393996
70	0x4015963e	2.337295
71	0x400bde8c	2.1854582
72	0xc00e783a	-2.226088
73	0x400862b8	2.1310253
74	0x40141da3	2.314309
75	0xc019b41b	-2.4016178
76	0x4014b99e	2.3238292
77	0xc0127aa6	-2.2887359
78	0xc014b964	-2.3238153
79	0xc00b488e	-2.1763034
80	0x4009b4f6	2.15167
81	0x4010175a	2.2514253
82	0xc016f497	-2.3586786
83	0xc009c1a2	-2.1524434
84	0xc0165b28	-2.3493137
85	0xc0116268	-2.2716312
86	0xc00ee3ff	-2.2326658
87	0x4014dc50	2.3259468
88	0xc00bb85e	-2.1831279
89	0x400c22e9	2.1896307
90	0xc00d1ee2	-2.20501
91	0xc0154780	-2.332489
92	0xc0196302	-2.396668
93	0x401276f8	2.2885113
94	0xc00a0618	-2.156622
95	0xc0128cf4	-2.289853
96	0xc008c07e	-2.1367488
97	0xc00e4c92	-2.2234235
98	0x40137498	2.3039913
99	0xc00f5886	-2.239778
100	0x401a421c	2.410285
101	0xc00ec348	-2.230669
102	0x4018c5b7	2.3870676
103	0x4014b6e9	2.323664
104	0xc00a8d75	-2.1648839
105	0x40099d80	2.150238
106	0xc016c666	-2.3558593
107	0x40188de0	2.3836594
108	0xc01a9116	-2.4151053
109	0xc0148e2a	-2.321177
110	0x400b0e23	2.1727378
111	0xc00d5e6a	-2.2088876
112	0xc0157e8d	-2.335849
113	0xc013a805	-2.30713
114	0x400dae17	2.2137506
115	0x4011ee0b	2.280154
116	0x400ead02	2.2293096
117	0xc017e9b9	-2.3736403
118	0x400a2366	2.1584105
119	0x401a76ec	2.4135084
120	0xc00d7a46	-2.210588
121	0x400c1714	2.1889086
122	0xc0092216	-2.1427054
123	0xc01369c2	-2.30333
124	0xc0155bd9	-2.333731
125	0x4015efdb	2.3427646
126	0x400b5f77	2.1777017
127	0xc00854fe	-2.1301875
128	0xc00b3e34	-2.1756716
129	0xc00a6be2	-2.1628346
130	0xc008c62d	-2.1370957
131	0xc00faf03	-2.2450569
132	0x40110d9b	2.2664554
133	0xc00eda78	-2.2320843
134	0x4013fff2	2.3124967
135	0x40179d89	2.3689902
136	0x400ec76a	2.2309213
137	0x4015c032	2.3398557
138	0xc0138a6d	-2.3053238
139	0x40145cea	2.318171
140	0x400a5d50	2.1619453
141	0x400cbd26	2.1990447
142	0x400ab498	2.1672726
143	0xc00e0e41	-2.21962
144	0x401683a6	2.3517852
145	0xc00b8dfa	-2.1805406
146	0x400b128c	2.173007
147	0x401416ac	2.3138838
148	0xc00e151f	-2.2200391
149	0x4016642a	2.3498635
150	0xc011dc2d	-2.2790635
151	0x400a742c	2.1633406
152	0xc0117fe2	-2.2734303
153	0x401319b1	2.298443
154	0x4013dc69	2.3103278
155	0xc010eb3b	-2.2643573
156	0x400cf828	2.2026463
157	0x401745b4	2.3636293
158	0x4013278c	2.2992887
159	0xc008b733	-2.1361816
160	0xc00eefa5	-2.2333767
161	0x400fd270	2.247219
162	0x400b96d3	2.1810806
163	0xc019be1b	-2.402228
164	0xc01933c1	-2.3937838
165	0x40164c7b	2.348418
166	0xc00e119a	-2.2198243
167	0x400c5bed	2.1931107
168	0x4019ce7a	2.4032273
169	0x401aa534	2.4163332
170	0xc018563c	-2.3802633
171	0xc00b9be0	-2.1813889
172	0x40127f1c	2.2890081
173	0x400cdeaa	2.2010903
174	0x400d3939	2.2066176
175	0x4016a6da	2.3539338
176	0x400a6728	2.1625462
177	0xc01a2a43	-2.4088295
178	0x400b234b	2.174029
179	0xc011632d	-2.2716782
180	0x4008f38a	2.1398644
181	0x400d0fbd	2.2040856
182	0x4019898a	2.3990197
183	0xc015e9fd	-2.3424065
184	0x40084210	2.1290321
185	0x400c3d71	2.19125
186	0x401ac1ce	2.418079
187	0x40184704	2.3793344
188	0xc017c270	-2.3712425
189	0x4015ec02	2.3425298
190	0xc013469a	-2.3011842
191	0x40112002	2.2675786
192	0xc0137014	-2.3037157
193	0xc00b48aa	-2.17631
194	0x40098804	2.1489267
195	0xc00ab19c	-2.1670904
196	0x400f8731	2.2426264
197	0xc00a21b0	-2.1583061
198	0x400a7fc0	2.1640472
199	0x4016c088	2.3555012
200	0xc008f894	-2.140172
201	0x4008d303	2.1378791
202	0x400f5202	2.2393804
203	0x4019dc94	2.404088
204	0xc00fe8c3	-2.2485816
205	0xc00dd15c	-2.2159033
206	0x4013d8f8	2.3101177
207	0x40155d12	2.3338056
208	0xc00efb42	-2.2340856
209	0xc0090841	-2.1411288
210	0x400bfdaa	2.1873574
211	0xc018ae52	-2.3856397
212	0x4012a253	2.2911575
213	0x401a9097	2.415075
214	0x40182b90	2.3776588
215	0xc00b11aa	-2.1729531
216	0xc010028e	-2.250156
217	0x400a96ca	2.1654534
218	0x4016d423	2.3566978
219	0x40143c7f	2.3161924
220	0x400e1d3e	2.2205348
221	0x401579d7	2.3355615
222	0xc00fe9c5	-2.2486432
223	0x400a3fa0	2.1601334
224	0xc0098e80	-2.1493225
225	0x400e2e94	2.221593
226	0x4013df03	2.3104866
227	0x4016adcf	2.3543584
228	0xc01914a0	-2.3918839
229	0x40173725	2.3627408
230	0x4009c192	2.1524396
231	0x400da108	2.2129536
232	0x4018c424	2.3869715
233	0xc00e6793	-2.2250717
234	0x401a9d8e	2.4158664
235	0xc00f5193	-2.239354
236	0x400af7c8	2.1713734
237	0xc0089138	-2.1338634
238	0xc00f19b9	-2.235945
239	0x400e26ae	2.2211108
240	0xc01409fd	-2.3131096
241	0x4018cc0b	2.3874538
242	0xc0182609	-2.3773215
243	0x4013132d	2.2980454
244	0x401907f3	2.3911102
245	0xc00b3847	-2.17531
246	0x400e4467	2.222925
247	0x40091c5b	2.1423557
248	0x40088a52	2.1334424
249	0xc011e5b3	-2.2796447
250	0xc013086b	-2.2973888
251	0x4007e8bb	2.1235797
252	0x4018b9e6	2.3863463
253	0xc00c6c48	-2.194109
254	0xc0199497	-2.3996942
255	0x401044cd	2.2541993

price_encoder.encoder.bias_ih_l0 f4 [180]
0	0xc014e152	-2.3262525
1	0x40194e50	2.3954048
2	0x400eede4	2.2332697
3	0xc00c9aa1	-2.1969378
4	0xc01838b2	-2.3784604
5	0xc00e767a	-2.2259812
6	0x4016b95e	2.355064
7	0xc00f6c3a	-2.2409806
8	0x40178c26	2.367929
9	0xc015de04	-2.3416758
10	0xc00d72ec	-2.2101393
11	0xc012e720	-2.2953568
12	0xc019f1af	-2.4053762
13	0x4011f740	2.280716
14	0x400cb6f6	2.198667
15	0x40197203	2.3975837
16	0xc015d17d	-2.3409111
17	0x400b5ccd	2.177539
18	0xc016da14	-2.3570604
19	0xc01a73e3	-2.4133232
20	0xc01390a2	-2.3057027
21	0xc00820a3	-2.126992
22	0xc011be9e	-2.2772593
23	0x400f93ba	2.2433915
24	0xc015fe08	-2.3436298
25	0xc012165e	-2.2826152
26	0xc00b2eda	-2.1747346
27	0x400fb170	2.245205
28	0xc0146692	-2.3187604
29	0x400f3eae	2.2382007
30	0x400b4a35	2.1764042
31	0xc01a36c4	-2.4095926
32	0x4018f817	2.3901422
33	0xc015e876	-2.3423133
34	0xc00c2964	-2.1900263
35	0x400ecb54	2.2311602
36	0xc00e819a	-2.2266603
37	0xc01af5c2	-2.4212499
38	0xc008bf42	-2.1366735
39	0x4014be00	2.3240967
40	0x400bc677	2.1839883
41	0x4004d14a	2.075274
42	0xc018edbb	-2.38951
43	0x400eb3fb	2.2297351
44	0x400fd142	2.247147
45	0xc00a550d	-2.161441
46	0x4019dbf2	2.4040494
47	0x400ef852	2.2339063
48	0xc016b1b3	-2.354596
49	0xc00d009d	-2.2031624
50	0xc01930af	-2.3935964
51	0x40180daf	2.3758352
52	0xc0125798	-2.2865963
53	0x40135e64	2.3026361
54	0x400b22de	2.1740031
55	0xc018ccc4	-2.387498
56	0xc00b63d9	-2.1779692
57	0xc00d6250	-2.2091255
58	0x4012ca8c	2.2936125
59	0x400cf91e	2.202705
60	0x4010cf96	2.26267
61	0xc0115e7d	-2.271392
62	0x40167071	2.3506129
63	0x401052a9	2.2550452
64	0xc0172bc3	-2.362046
65	0xc0144bfb	-2.3171375
66	0xc010bd64	-2.2615595
67	0xc00a854a	-2.1643853
68	0x400cb5d4	2.198598
69	0xc01536d3	-2.3314712
70	0xc0086181	-2.1309512
71	0xc00948e3	-2.1450737
72	0x4012ee10	2.2957802
73	0xc0172429	-2.361582
74	0x400f8dc9	2.2430289
75	0x4008945b	2.134055
76	0xc012742a	-2.28834
77	0x400b3802	2.1752934
78	0xc012857d	-2.2893975
79	0xc0156e99	-2.3348753
80	0x400e9018	2.2275448
81	0xc0177831	-2.366711
82	0xc0169202	-2.3526616
83	0xc00d8ad9	-2.2115996
84	0x40152a82	2.3307195
85	0x40131971	2.2984278
86	0xc00fc74e	-2.2465396
87	0xc00e49d9	-2.2232573
88	0x40133c30	2.3005486
89	0x40130bea	2.2976022
90	0x4008789c	2.1323614
91	0xc01718df	-2.360893
92	0xc00cc634	-2.1995974
93	0xc01adc91	-2.4197123
94	0x4008e504	2.138978
95	0x401266f0	2.2875328
96	0xc014e683	-2.3265693
97	0x400ff22e	2.2491565
98	0x400cd91d	2.2007515
99	0xc00a4c84	-2.1609201
100	0xc0083c83	-2.1286933
101	0x4013d3c5	2.3098004
102	0x400ffbe0	2.2497482
103	0x400c3048	2.1904469
104	0xc0156adb	-2.334647
105	0x400c040a	2.1877465
106	0x40156767	2.3344362
107	0x40188704	2.3832407
108	0x400d0795	2.2035878
109	0x4016b495	2.3547719
110	0xc018b28c	-2.3858976
111	0x400b0711	2.1723063
112	0x4013a832	2.3071408
113	0xc00ad685	-2.1693432
114	0xc00895cd	-2.134143
115	0xc00d9dc4	-2.2127542
116	0x401ab064	2.417016
117	0xc0082dec	-2.1278028
118	0xc009e611	-2.1546671
119	0x4017220b	2.3614528
120	0xc010bf24	-2.2616663
121	0xc0156480	-2.334259
122	0xc01661ba	-2.3497148
123	0x400d4b54	2.2077227
124	0x4017fa5f	2.3746564
125	0x400ef1f0	2.2335167
126	0xc018361f	-2.3783033
127	0x40142fdb	2.3154209
128	0x400e3c5e	2.2224345
129	0xc00fda12	-2.247685
130	0xc0159940	-2.3374786
131	0x40184daf	2.3797414
132	0xc011250e	-2.2678866
133	0xc011595a	-2.2710786
134	0x4016196f	2.3453023
135	0xc00bd196	-2.184667
136	0x4012b6dd	2.292411
137	0x40093fd5	2.144521
138	0xc015f204	-2.3428965
139	0xc01a3595	-2.4095204
140	0xc01a342a	-2.4094338
141	0x400a20a1	2.1582415
142	0xc010a6db	-2.260184
143	0x401912a4	2.3917627
144	0xc00ad2ca	-2.1691155
145	0xc01a60aa	-2.41215
146	0xc009dac6	-2.1539779
147	0xc00fcb07	-2.2467668
148	0x4016add0	2.3543587
149	0x401426a1	2.3148577
150	0x400a6441	2.162369
151	0xc008e2e0	-2.1388474
152	0x401973d8	2.3976955
153	0xc01622b6	-2.3458686
154	0xc016259f	-2.3460462
155	0xc0171d3a	-2.3611588
156	0xc00c725d	-2.1944802
157	0xc0182247	-2.3770921
158	0x400e0d8f	2.2195776
159	0xc014690d	-2.3189118
160	0xc00edf88	-2.2323933
161	0xc00b241e	-2.1740794
162	0x40100e4e	2.250873
163	0xc009581e	-2.1460032
164	0x400b0002	2.1718755
165	0x400e7b6f	2.2262838
166	0xc010ed4a	-2.264483
167	0x400a3e3d	2.1600487
168	0xc008895c	-2.1333838
169	0xc0093a4c	-2.1441832
170	0x40191af8	2.392271
171	0xc0170811	-2.3598673
172	0xc00b9748	-2.1811085
173	0xc0119170	-2.2745018
174	0x400cbb15	2.1989186
175	0x400c3407	2.1906755
176	0xc0165d9c	-2.3494635
177	0xc01306c0	-2.297287
178	0x40100e12	2.2508588
179	0x401a9249	2.4151785

price_encoder.encoder.bias_hh_l0 f4 [180]
0	0xc00b7fca	-2.1796746
1	0x401a80b6	2.414106
2	0x4018e232	2.3888059
3	0xc009892b	-2.148997
4	0xc015fd3a	-2.3435807
5	0xc010057e	-2.2503352
6	0x4008b3c4	2.135972
7	0xc0194044	-2.3945475
8	0x400f8b34	2.2428713
9	0xc00d484a	-2.2075372
10	0xc00e6080	-2.22464
11	0xc009e952	-2.1548657
12	0xc00f5a75	-2.239896
13	0x400e1f46	2.2206588
14	0x40168504	2.3518686
15	0x400a20e3	2.1582572
16	0xc017b8d5	-2.3706563
17	0x400c9ccb	2.19707
18	0xc01513c0	-2.3293304
19	0xc0095b5d	-2.1462014
20	0xc0170ff4	-2.3603487
21	0xc0134e9f	-2.3016737
22	0xc00f979e	-2.243629
23	0x4010584c	2.2553892
24	0xc013f566	-2.311853
25	0xc01276f2	-2.2885098
26	0xc011226e	-2.2677264
27	0x40090766	2.1410766
28	0xc00fc438	-2.2463512
29	0x4012faa2	2.2965474
30	0x400cdb7f	2.200897
31	0xc0192edc	-2.393485
32	0x401843c5	2.3791363
33	0xc010a976	-2.260343
34	0xc016dc62	-2.357201
35	0x4012befc	2.2929068
36	0xc007fbb8	-2.1247387
37	0xc0102d8e	-2.2527804
38	0xc00dc85e	-2.2153544
39	0x4015563e	2.3333888
40	0x400a8383	2.1642768
41	0x4007ba24	2.1207361
42	0xc01332bd	-2.2999718
43	0x400922a3	2.142739
44	0x400851fe	2.1300044
45	0xc0167bd7	-2.3513086
46	0x4008319a	2.1280274
47	0x400937a4	2.144021
48	0xc0122165	-2.2832882
49	0xc0140ae5	-2.313165
50	0xc012aa6d	-2.291652
51	0x40135c77	2.3025186
52	0xc00f7732	-2.24165
53	0x400e5d74	2.224454
54	0x400a4a86	2.1607985
55	0xc0116666	-2.271875
56	0xc0138ac3	-2.3053443
57	0xc01284de	-2.2893596
58	0x401280c0	2.2891083
59	0x4018240a	2.3771996
60	0x400b6868	2.1782475
61	0xc00f2017	-2.2363336
62	0x40111e4d	2.2674744
63	0x40175543	2.364579
64	0xc00f80ef	-2.2422445
65	0xc018fad5	-2.3903096
66	0xc014a130	-2.322338
67	0xc0138e0e	-2.3055453
68	0x400ca68c	2.1976652
69	0xc01426a9	-2.3148596
70	0xc00cae5d	-2.1981423
71	0xc01ab5c9	-2.4173453
72	0x400877a2	2.1323018
73	0xc00c4839	-2.1919081
74	0x4013ffe7	2.312494
75	0x40171c2d	2.3610947
76	0xc00fce62	-2.2469716
77	0x4009aec0	2.151291
78	0xc00ece8d	-2.2313569
79	0xc008d7a1	-2.138161
80	0x400a6e34	2.1629763
81	0xc0162e5d	-2.3465798
82	0xc012c90c	-2.293521
83	0xc01032b9	-2.2530959
84	0x4019324a	2.3936944
85	0x4014f38d	2.3273652
86	0xc0168964	-2.3521357
87	0xc016973f	-2.3529813
88	0x400e237a	2.2209153
89	0x40181146	2.3760543
90	0x40133b00	2.300476
91	0xc0191b43	-2.392289
92	0xc0162196	-2.3458
93	0xc00a036f	-2.1564596
94	0x40130d56	2.297689
95	0x4018f714	2.3900805
96	0xc0102031	-2.2519648
97	0x4014a090	2.3223
98	0x40160aaf	2.344402
99	0xc0165322	-2.348824
100	0xc0173245	-2.3624432
101	0x400b4519	2.1760924
102	0x4010371c	2.2533636
103	0x401276ee	2.288509
104	0xc01081e9	-2.257929
105	0x400a96fc	2.1654654
106	0x400a6845	2.162614
107	0x4017c6c2	2.3715062
108	0x400848b1	2.1294367
109	0x40140f79	2.3134444
110	0xc00f935c	-2.243369
111	0x4010de53	2.2635696
112	0x400d61a0	2.2090836
113	0xc00cd95b	-2.2007663
114	0xc016791b	-2.3511417
115	0xc00c3d88	-2.1912556
116	0x400a36f8	2.159605
117	0xc0135d5a	-2.3025727
118	0xc0108fa9	-2.2587683
119	0x4015e763	2.3422477
120	0xc00a0e0c	-2.1571074
121	0xc009263c	-2.1429586
122	0xc00ecbe4	-2.2311945
123	0x400d6cbe	2.209762
124	0x400b01cd	2.171985
125	0x4011e396	2.2795157
126	0xc012274f	-2.2836492
127	0x40095447	2.145769
128	0x4008b9e2	2.1363454
129	0xc012e93a	-2.295485
130	0xc00f0f72	-2.2353177
131	0x40164fdb	2.348624
132	0xc011f430	-2.280529
133	0xc0180f26	-2.3759246
134	0x40169ffd	2.353515
135	0xc01a337c	-2.4093924
136	0x40167ea9	2.3514807
137	0x40189e8d	2.3846772
138	0xc01a80b4	-2.4141054
139	0xc00cb511	-2.1985514
140	0xc00d30aa	-2.2060952
141	0x400bf6b1	2.1869318
142	0xc0094a8d	-2.1451752
143	0x40166d94	2.350438
144	0xc01a227a	-2.4083543
145	0xc013dc06	-2.3103042
146	0xc00e3f30	-2.2226067
147	0xc0198d89	-2.3992636
148	0x4009342c	2.1438093
149	0x400fdcd7	2.247854
150	0x400a00bd	2.156295
151	0xc00f9a1e	-2.2437816
152	0x400c5ff0	2.1933556
153	0xc0144836	-2.3169074
154	0xc00a03c7	-2.1564806
155	0xc0099ec2	-2.1503148
156	0xc00a1277	-2.157377
157	0xc00e8165	-2.2266476
158	0x401a1683	2.407624
159	0xc0092f61	-2.1435168
160	0xc016f00c	-2.3584013
161	0xc00eca20	-2.2310867
162	0x40100f92	2.2509503
163	0xc0177848	-2.3667164
164	0x400d7380	2.2101746
165	0x400f936b	2.2433727
166	0xc0182cde	-2.3777385
167	0x40118b9d	2.2741463
168	0xc015f824	-2.3432703
169	0xc0192f92	-2.3935285
170	0x400e336a	2.221888
171	0xc00af571	-2.1712306
172	0xc019c0be	-2.402389
173	0xc019a272	-2.4005399
174	0x401546b5	2.3324406
175	0x400c8a71	2.1959498
176	0xc0145e3e	-2.318252
177	0xc0167294	-2.3507433
178	0x40162fb8	2.3466625
179	0x401263f7	2.2873514

atten_layer.0.weight f4 [45, 135]
0	0xbbbc52c0	-0.0057471693
1	0x3bd3cb40	0.0064634383
2	0xbcbfc010	-0.023407012
3	0xbc8d4958	-0.017246887
4	0x3dab1767	0.08354073
5	0x3d4b2236	0.049593173
6	0xbd42b8d9	-0.047539566
7	0xbd056c3d	-0.032573927
8	0x3d5250f6	0.05134674
9	0x3da3992b	0.07988199
10	0x3cc8cd5c	0.024511985
11	0x3d975d1d	0.07390807
12	0xbc90a73c	-0.017657869
13	0x3d5b364e	0.053518586
14	0xba68fe80	-0.0008888021
15	0xbd01ca8d	-0.031687308
16	0xbcbfe614	-0.02342514
17	0x3cdd5cc4	0.027021773
18	0x3d37328e	0.044725947
19	0x3b3281c0	0.0027237982
20	0xbc8dd258	-0.017312214
21	0xbcfc02fa	-0.030763138
22	0xbb318780	-0.002708882
23	0x3daff239	0.08591122
24	0x3cdc00f8	0.02685593
25	0xbda941ca	-0.082645014
26	0xbc9f4bf0	-0.01944539
27	0x3d051b80	0.03249693
28	0xbda88207	-0.08227926
29	0x3d63a712	0.055579253
30	0xbd6a7b64	-0.05724658
31	0xbd90eb89	-0.07076175
32	0xbd2f256c	-0.042760298
33	0x3b40a220	0.002939351
34	0xbd8157de	-0.063155875
35	0xbbd587d0	-0.0065164343
36	0xbd791cb8	-0.060818404
37	0xbc3fe550	-0.011712387
38	0xbda8cc30	-0.08242071
39	0xbd077b23	-0.033076417
40	0xbb803360	-0.0039123744
41	0x3da5d419	0.08097095
42	0xbdaf46b1	-0.08558405
43	0xbc036660	-0.008020014
44	0xb877c000	-5.9068203e-05
45	0xbd9c3923	-0.076280855
46	0xbd3b541f	-0.04573452
47	0x3d282ade	0.041056506
48	0x3d6a43a2	0.057193406
49	0x3d850b77	0.06496327
50	0x3d9db30b	0.07700165
51	0x3da3f9bd	0.08006618
52	0xbc9654f0	-0.018351048
53	0xbd8a4a86	-0.067524955
54	0xbd97e639	-0.07416958
55	0xbd2cf6ea	-0.042227663
56	0xbd4f49e0	-0.050607562
57	0x3ce91a2c	0.028454863
58	0xbd350e59	-0.044203136
59	0x3d88676f	0.066603534
60	0xbd385c9b	-0.04501019
61	0x3d8cd27b	0.068760835
62	0x3d51c112	0.051209517
63	0x3d9627ef	0.073318355
64	0xbd940c3f	-0.07228898
65	0x3da535a9	0.080668755
66	0xbac38940	-0.0014918223
67	0x3d9793eb	0.0740126
68	0x3d425d32	0.04745216
69	0xbd810688	-0.06300074
70	0xbd91e3ea	-0.07123549
71	0x3dae990b	0.085252844
72	0xbcb2ae78	-0.021811709
73	0xbc7bfca0	-0.015380055
74	0xbaea9d80	-0.0017899722
75	0xbd7e3531	-0.062062446
76	0xbc655520	-0.013997346
77	0x3d28d8fe	0.041222565
78	0xbb6ca0e0	-0.003610663
79	0xbda34246	-0.07971625
80	0x3d1e8508	0.038701087
81	0x3d848169	0.064699955
82	0xbd0d6eff	-0.034529682
83	0xbd90216b	-0.07037624
84	0x3d9b9a6f	0.07597815
85	0x3d3479f2	0.04406161
86	0x3d9a1f79	0.07525534
87	0x3b10b400	0.0022079945
88	0xbd32001d	-0.04345714
89	0x3d9b1f5d	0.075743414
90	0xc014d6af	-2.3256032
91	0xc02a03b6	-2.6564765
92	0xc043b280	-3.0577698
93	0xc01537a7	-2.3315217
94	0x4011a2c9	2.2755606
95	0xc014de89	-2.3260825
96	0xc01704d3	-2.3596694
97	0x40444626	3.0667815
98	0x4010e577	2.2640054
99	0x400eab35	2.2291996
100	0xc011255d	-2.2679055
101	0xc00a4433	-2.1604125
102	0xc00f2d20	-2.2371292
103	0x40151589	2.3294394
104	0xc0130dc6	-2.2977157
105	0xc00ba133	-2.1817138
106	0xc00f6210	-2.2403603
107	0x40115ac8	2.2711658
108	0x40134b3f	2.3014677
109	0xbfd19630	-1.6373959
110	0xc0353b9e	-2.8317637
111	0x4046ae75	3.104398
112	0x403d8837	2.961439
113	0x3fd616a1	1.6725656
114	0xc017526e	-2.364406
115	0x3fbd9532	1.4811156
116	0x402ff892	2.7495465
117	0x40112b56	2.26827
118	0xc0430418	-3.0471249
119	0x4043aa02	3.0572515
120	0x40111ea5	2.2674954
121	0xc0156d36	-2.3347907
122	0x400e9f05	2.2284558
123	0xc0133475	-2.3000767
124	0xc00c49ac	-2.1919966
125	0xc00cb280	-2.1983948
126	0x400fe44e	2.2483096
127	0xc00fcf73	-2.2470367
128	0x40179cec	2.3689528
129	0x40108790	2.258274
130	0xbfd3f885	-1.6560217
131	0x4033605d	2.8027565
132	0xc04bc349	-3.1837943
133	0xc01a0826	-2.4067473
134	0x403cab5c	2.947959
135	0xbd8ac1ca	-0.067752436
136	0x3d9994c5	0.07499079
137	0xbd51e9f8	-0.05124852
138	0xbd8e2bb9	-0.06941933
139	0x3cee7a4c	0.02911105
140	0x3b3e8ec0	0.0029076785
141	0x3d356a0e	0.044290595
142	0x3c51f280	0.012814164
143	0xbcc9234c	-0.024552964
144	0x3d049d7a	0.032376744
145	0xbda2cbea	-0.0794905
146	0xbd1235d3	-0.035695862
147	0x3d71447e	0.05890321
148	0x3d3fdb16	0.046839796
149	0xbd2b86fb	-0.041876774
150	0x3da8e21d	0.08246253
151	0x3d5ff462	0.05467642
152	0x3d2b128e	0.041765742
153	0xbd7c1538	-0.061543673
154	0xbd51a681	-0.05118418
155	0xbd92f9fa	-0.071765855
156	0xbd4df9a0	-0.05028689
157	0x3d01361e	0.03154575
158	0x3d87b299	0.06625862
159	0x3d9437fd	0.072372414
160	0xbb422660	-0.0029624924
161	0x3c11bbf0	0.008894905
162	0xbcf3d4ae	-0.0297645
163	0xbd82f6e8	-0.0639475
164	0x3cf84160	0.03030461
165	0xbcccaa58	-0.02498357
166	0xbd18dbcc	-0.03731899
167	0xbcf5b048	-0.029991284
168	0xbd8aae44	-0.0677152
169	0xbd54961c	-0.051900968
170	0xbd05b91e	-0.032647245
171	0xbcaf8c50	-0.02142921
172	0xbca7b19c	-0.020470433
173	0x3da33c1f	0.079704516
174	0xbcab5928	-0.020916536
175	0x3d2feb7a	0.042949177
176	0xbc87d86c	-0.01658269
177	0x3d9f8577	0.07789128
178	0xbcbbbfe0	-0.022918642
179	0x3d5479e6	0.051874064
180	0x3d7bedea	0.06150619
181	0xbcc63950	-0.02419725
182	0x3cf15c24	0.029462881
183	0xbd4524a4	-0.048130646
184	0xbd12deb2	-0.03585691
185	0x3d47899e	0.048715226
186	0x3d3b1fea	0.045684732
187	0x3c918ab4	0.017766334
188	0x3d9325c1	0.07184935
189	0xbd427c79	-0.047481988
190	0x3c4ec9a8	0.012621321
191	0xbd8d1375	-0.06888477
192	0xbdadda52	-0.08488907
193	0xbd5bd110	-0.053666174
194	0x3daf693f	0.08564996
195	0x3d513f4e	0.051085763
196	0x3d806869	0.06269915
197	0x3d7a403a	0.061096407
198	0xbc33c710	-0.010972753
199	0x3c790d20	0.015200883
200	0xbcc52cea	-0.024069268
201	0xbd495f37	-0.04916307
202	0xbd10c8a2	-0.03534759
203	0xbd4d1c43	-0.05007578
204	0x3d276ece	0.040877156
205	0xbd2415f0	-0.040059984
206	0xbc9ed8bc	-0.019390456
207	0x3da90235	0.08252374
208	0x3d14a99a	0.036294557
209	0x3c7c0ef8	0.015384428
210	0xbc845cdc	-0.01615756
211	0x3d87300d	0.06600962
212	0x3baf5230	0.0053503737
213	0x3b3f5a60	0.0029198155
214	0xbd3afe60	-0.045652747
215	0xbd8f9ee9	-0.070127316
216	0x3d7eaa42	0.06217409
217	0xbd4392f3	-0.047747564
218	0xbd9b8ca9	-0.07595188
219	0xbd9fcc92	-0.078026906
220	0x3c9ed22c	0.019387327
221	0xbdaa3dd8	-0.08312577
222	0xbd911826	-0.07084684
223	0x3cae7c10	0.021299392
224	0x3d26e3da	0.04074464
225	0xc02266fc	-2.5375357
226	0x402e837d	2.7267754
227	0x4038d014	2.8877
228	0xc00e6351	-2.2248118
229	0x400de1ad	2.2168992
230	0x40100f9b	2.2509525
231	0x400d010f	2.2031896
232	0xc01dafea	-2.463862
233	0x401a8339	2.4142592
234	0x401531ae	2.3311572
235	0xc00f2dec	-2.2371778
236	0xc003c825	-2.0590909
237	0xc0142187	-2.3145463
238	0x400d07f1	2.2036097
239	0xc014fbee	-2.3278766
240	0xc00493e6	-2.071527
241	0x401218ee	2.2827716
242	0x4010c092	2.2617536
243	0x400f37c8	2.2377796
244	0xc028c862	-2.6372304
245	0x4022b322	2.5421834
246	0xc01ea8e6	-2.4790587
247	0xc031e45e	-2.7795634
248	0x402fec85	2.748811
249	0xc0114dfc	-2.2703848
250	0x402acc4a	2.6687188
251	0xc01fed71	-2.4988673
252	0x401634af	2.3469656
253	0x402c0927	2.6880586
254	0xc022ce53	-2.543843
255	0x4011ffc7	2.2812364

atten_layer.0.bias f4 [45]
0	0x3ff8d4fb	1.9439996
1	0x401648cc	2.3481932
2	0x4007289d	2.1118538
3	0xc0111675	-2.2669957
4	0xc00e239b	-2.2209232
5	0xc0138dcc	-2.3055296
6	0xc01813c1	-2.3762057
7	0x400e657c	2.224944
8	0xc0123920	-2.2847366
9	0x401043da	2.2541413
10	0xc00a2647	-2.1585863
11	0xc014bac6	-2.3238997
12	0x401396aa	2.3060708
13	0xc00c025e	-2.1876445
14	0xc0072078	-2.1113567
15	0x401554f4	2.3333101
16	0xc00ae556	-2.1702476
17	0xc0161af0	-2.3453941
18	0xc0080d25	-2.1258023
19	0xc00b5f89	-2.177706
20	0xc013bb08	-2.3082905
21	0x40192b9e	2.3932872
22	0x400cb912	2.1987958
23	0x4013d5fd	2.3099358
24	0xc0190342	-2.3908238
25	0xc014847e	-2.3205867
26	0xc01134b2	-2.2688413
27	0xc01191c2	-2.2745214
28	0xc00a12b0	-2.1573906
29	0xc01aaa2b	-2.4166362
30	0x400d3694	2.2064562
31	0x40130a01	2.2974856
32	0x4012f1da	2.2960114
33	0x40132d6c	2.2996473
34	0xc00d9702	-2.2123418
35	0xc0179729	-2.368601
36	0x4014ae05	2.3231213
37	0x400d928a	2.212069
38	0xc01955f2	-2.3958707
39	0x400d9ffc	2.2128897
40	0xc008682f	-2.1313589
41	0xc0136856	-2.3032432
42	0x40135356	2.3019614
43	0x401461e3	2.3184745
44	0xc008e050	-2.138691

atten_layer.2.weight f4 [1, 45]
0	0x3ee84b00	0.4536972
1	0xc0877416	-4.2329206
2	0x3fcbb86c	1.5915656
3	0xbf2bd2ea	-0.67118704
4	0xbf868b8f	-1.051134
5	0xbf21b58b	-0.6316764
6	0xbfb282c2	-1.3946154
7	0xc0470244	-3.1095133
8	0xbf587d7b	-0.8456647
9	0x3f6f9bf5	0.93597347
10	0xbcfcc077	-0.030853493
11	0x40428d1d	3.0398629
12	0xc054df2c	-3.3261213
13	0xbf80760b	-1.0036024
14	0x409e3aa2	4.9446573
15	0x3fc32a7c	1.524734
16	0x407c0243	3.937638
17	0x4053f1a3	3.3116233
18	0xbebb9b9a	-0.36642152
19	0xbef15ea4	-0.47142518
20	0x40364394	2.8478746
21	0x400e48cc	2.2231932
22	0x4006c54a	2.1057916
23	0x40071ef4	2.1112642
24	0x40269b51	2.6032298
25	0x406eb2d0	3.7296638
26	0xbff3e4fc	-1.9054255
27	0xbfc457fa	-1.5339348
28	0x408e11b5	4.4396615
29	0x40233fd8	2.5507717
30	0x4003201b	2.0488346
31	0xc065a754	-3.588338
32	0x3fbf8ba5	1.4964491
33	0xc01e5050	-2.473652
34	0x405c53ed	3.4426224
35	0xbfd876e0	-1.6911278
36	0xc0367aaf	-2.851238
37	0xc0466633	-3.0999877
38	0x40419abd	3.0250695
39	0xc068d943	-3.6382606
40	0xbf0a1c16	-0.53949106
41	0x402a6ce0	2.6628952
42	0xc0748d06	-3.8211074
43	0x401014c8	2.2512684
44	0xbf00eb69	-0.5035921

lstm.weight_ih_l0 f4 [180, 45]
0	0x4000d76e	2.0131488
1	0xc019b3f2	-2.401608
2	0xc01c6ed8	-2.4442654
3	0x401114ef	2.2669027
4	0xc019dbc1	-2.4040377
5	0x40115f8b	2.2714565
6	0x40095cbf	2.1462858
7	0x401a6b94	2.412816
8	0xc0061764	-2.0951777
9	0x401b10de	2.4229045
10	0x400d3ddf	2.2069013
11	0x4015ec7f	2.3425596
12	0x401184ab	2.2737224
13	0x4010082b	2.2504985
14	0xc013d177	-2.3096597
15	0x401b507c	2.4267874
16	0xc00d3126	-2.2061248
17	0xc01bc658	-2.433981
18	0xc0102306	-2.2521377
19	0x401ea796	2.4789786
20	0xc01fbbca	-2.4958367
21	0x402a83dc	2.664298
22	0x401d5714	2.4584398
23	0xc0122bb2	-2.283917
24	0x3fe051ae	1.7524927
25	0xc0212c0a	-2.518313
26	0x401f3ec4	2.488206
27	0xc0125f91	-2.287083
28	0xc023cf16	-2.5595145
29	0x4019d74e	2.4037662
30	0xc00fc469	-2.246363
31	0xc0192ed7	-2.3934839
32	0xc00f3235	-2.2374394
33	0x4016e819	2.357916
34	0x4019586a	2.3960214
35	0xc0199554	-2.3997393
36	0xc012854a	-2.2893853
37	0x400f8300	2.2423706
38	0x401176a6	2.2728667
39	0xc01868f8	-2.3814068
40	0xc012d567	-2.294275
41	0x401ef7be	2.483871
42	0xc0209f83	-2.5097358
43	0xc0184c84	-2.3796701
44	0x40225130	2.5362053
45	0x401b5864	2.42727
46	0xc0264879	-2.5981734
47	0xc01b707b	-2.4287403
48	0x40196378	2.396696
49	0x4015db38	2.341505
50	0x4014ba18	2.3238583
51	0x4014ff20	2.3280716
52	0x4015cb96	2.340551
53	0xc00da664	-2.2132807
54	0x400edad1	2.2321055
55	0x400e55c6	2.2239852
56	0xc00c70ca	-2.194384
57	0x40129291	2.2901957
58	0xc00bf114	-2.1865892
59	0xc00d2829	-2.2055762
60	0x400a9b32	2.1657224
61	0xc0129709	-2.2904685
62	0xc00a0124	-2.1563196
63	0xc00c950e	-2.1965976
64	0x401e883b	2.4770648
65	0xc02045f7	-2.5042703
66	0x4014add9	2.3231108
67	0x4027482b	2.6137798
68	0xc0190c51	-2.3913767
69	0xbf36dcbf	-0.7143058
70	0xc01d9d83	-2.4627388
71	0x401d6bc2	2.459702
72	0xc0093be8	-2.1442814
73	0xc02207d2	-2.5317273
74	0x401b2996	2.4244132
75	0xc00faaef	-2.244808
76	0xc017ef5d	-2.3739846
77	0xc01b7377	-2.4289224
78	0x400f35d3	2.2376602
79	0x400c6a79	2.1939986
80	0xc0127332	-2.288281
81	0xc012da8c	-2.294589
82	0x4014a1cd	2.3223755
83	0x401760e8	2.3652897
84	0xc008ca3b	-2.1373432
85	0xc012f4ba	-2.296187
86	0x401dfce9	2.4685614
87	0xc0137c52	-2.304463
88	0xc0007ad5	-2.007497
89	0x4020491e	2.5044627
90	0xc00ad7fb	-2.1694324
91	0xc020f032	-2.5146604
92	0xc02092f6	-2.5089698
93	0x400d3a98	2.2067013
94	0xc0131723	-2.2982872
95	0x4010a211	2.2598917
96	0xc012e1a3	-2.2950218
97	0x4020039a	2.5002198
98	0xc01a1df6	-2.4080787
99	0xc016aa23	-2.3541343
100	0x4010290d	2.2525055
101	0xbfb71035	-1.4301821
102	0xc015f7e5	-2.3432553
103	0x401795b2	2.3685117
104	0x400c17c4	2.1889505
105	0x400b1250	2.1729927
106	0x4016639e	2.3498302
107	0x400c6ae8	2.194025
108	0xc00d9b79	-2.2126143
109	0x401f0914	2.484929
110	0xc01ded46	-2.467607
111	0x4016696d	2.3501847
112	0x4014438e	2.3166232
113	0xc01825f8	-2.3773174
114	0x3e4a36ca	0.19747463
115	0xc015edec	-2.3426466
116	0x402694f8	2.6028423
117	0xc010966d	-2.2591813
118	0xc01e806d	-2.4765885
119	0x401c4235	2.441541
120	0x401abb22	2.4176717
121	0x4009fa06	2.1558852
122	0xc0137842	-2.304215
123	0x401a945e	2.4153056
124	0x400ebf9a	2.2304444
125	0x401441d8	2.3165188
126	0x401ad2f6	2.419126
127	0x4018dd58	2.3885098
128	0xc0092cb8	-2.1433544
129	0xc013f336	-2.3117194
130	0x40104982	2.2544866
131	0x401a4132	2.4102292
132	0xc021c3e2	-2.5275807
133	0x400ec54e	2.2307925
134	0x4015064b	2.328509
135	0x401ce9c9	2.451769
136	0xc0241404	-2.5637217
137	0xc0206962	-2.506432
138	0x40190bef	2.3913534
139	0xc00e1673	-2.2201202
140	0x400bc003	2.1835945
141	0x401afc15	2.4216359
142	0x40262435	2.59596
143	0xc00cfef0	-2.2030602
144	0xc00cdcac	-2.2009687
145	0x4019fe6d	2.406154
146	0xc005b223	-2.0889976
147	0x4008a52b	2.135081
148	0x40167ec8	2.351488
149	0x40177042	2.3662267
150	0x401644e6	2.3479552
151	0x4011a25c	2.2755346
152	0xc009a0f7	-2.1504495
153	0xc01268ed	-2.2876542
154	0x402c2eec	2.690364
155	0xc01b2c68	-2.4245853
156	0x401837fc	2.378417
157	0x4025b466	2.5891356
158	0xc02abc4b	-2.6677425
159	0x3fb4df9f	1.4130744
160	0xc0222c66	-2.5339599
161	0x40217b84	2.5231638
162	0xc00c9919	-2.1968443
163	0xc02a150a	-2.6575341
164	0x4023a1d2	2.5567517
165	0xc00d5057	-2.2080286
166	0x401c5252	2.4425244
167	0xc00bd836	-2.1850715
168	0x400b8abf	2.1803434
169	0x4014ffe4	2.3281183
170	0xc0168f0f	-2.3524816
171	0xc00a643b	-2.1623676
172	0x40081a12	2.1265912
173	0xc00d1292	-2.2042584
174	0xc00df902	-2.2183232
175	0x40153375	2.3312657
176	0x401b9c5c	2.4314184
177	0xc0194b1c	-2.3952093
178	0x400ec9e0	2.2310715
179	0x401b06bc	2.422286
180	0x4010181c	2.2514715
181	0xc021fc73	-2.5310333
182	0xc02f40ab	-2.738322
183	0x400d09a4	2.2037134
184	0x4006078a	2.0942101
185	0x40166822	2.3501058
186	0x40116136	2.2715583
187	0x401f1c45	2.4861004
188	0xc01a3d4c	-2.4099913
189	0xc019e91e	-2.4048533
190	0x400ebd29	2.2302954
191	0xc0148c49	-2.3210623
192	0x400b2b25	2.1745083
193	0xc001ec2c	-2.0300398
194	0x401c7c28	2.445078
195	0x40177b7c	2.366912
196	0x40109268	2.258936
197	0xc00eb758	-2.2299404
198	0xc0093bae	-2.1442676
199	0x402864dd	2.6311562
200	0xc02cb1a3	-2.698342
201	0x401a8296	2.4142203
202	0x40218ddf	2.5242841
203	0xc02a51ea	-2.6612496
204	0x3ff9b1a7	1.950734
205	0xc02ce444	-2.7014322
206	0x40261a22	2.595345
207	0xc00cb056	-2.1982627
208	0xc01cc1cb	-2.4493282
209	0x4020b273	2.5108917
210	0xc01160d0	-2.271534
211	0x4011d48e	2.2785983
212	0xc013f1c8	-2.3116322
213	0x4018672e	2.3812976
214	0x4019119c	2.3916998
215	0xc00cf229	-2.2022803
216	0xc00c61da	-2.1934724
217	0x40165154	2.3487139
218	0xc0080599	-2.1253417
219	0xc015b9f0	-2.3394737
220	0xc0192162	-2.3926625
221	0x402825a3	2.6272972
222	0xc01ef424	-2.4836512
223	0x401a9052	2.4150586
224	0x401d1f56	2.4550376
225	0x4019f04c	2.4052916
226	0xc01dbf7a	-2.4648118
227	0xc02701ae	-2.6094775
228	0x400dfa50	2.2184029
229	0xc018c1ae	-2.3868213
230	0x40105ab2	2.2555356
231	0x40094101	2.1445925
232	0x401ab26c	2.41714
233	0xc015e16e	-2.3418841
234	0xc01b8dc8	-2.4305286
235	0x4011418a	2.2696252
236	0xbfdf8db3	-1.7465118
237	0x40108f46	2.2587447
238	0x4011d844	2.2788248
239	0x40145b9a	2.318091
240	0x40153ddf	2.3319013
241	0x400d88f8	2.211485
242	0xc0188e43	-2.383683
243	0xc01578f2	-2.335507
244	0x401943ee	2.394771
245	0xc01f5a3f	-2.4898832
246	0x401572f5	2.3351414
247	0x4018ce20	2.3875809
248	0xc0219a10	-2.5250282
249	0xbed1de61	-0.40989974
250	0xc023e044	-2.560563
251	0x4015e3de	2.342033
252	0xc019ca20	-2.4029617
253	0xc021be22	-2.5272298
254	0x40272006	2.6113296
255	0xc01470db	-2.3193882

lstm.weight_hh_l0 f4 [180, 45]
0	0xbc739610	-0.014867321
1	0x3e101e4b	0.14074056
2	0xbe15b537	-0.14619909
3	0x3b82efe0	0.0039958805
4	0xbe14f784	-0.14547545
5	0xbdb9a031	-0.09063757
6	0x3d1de308	0.038546592
7	0x3dcc2c22	0.09969355
8	0xbcc2ef40	-0.023795724
9	0x3e07e295	0.13270028
10	0x3d8a7f0e	0.06762515
11	0xbe09ecaa	-0.13469186
12	0xbd182430	-0.037143886
13	0xbcb958e0	-0.022625387
14	0xbcc28d18	-0.02374892
15	0x3d805fcc	0.06268272
16	0x3dfbc56a	0.12293513
17	0xbdcfea46	-0.10152106
18	0xbda95f5a	-0.0827014
19	0xbdb5f194	-0.08883968
20	0x3ce38378	0.02777265
21	0x3d75356c	0.0598654
22	0xbdc884e2	-0.097909704
23	0x3da52818	0.08064288
24	0x3d867d2a	0.06566842
25	0xbd34a602	-0.04410363
26	0xbd383aa4	-0.0449778
27	0xbe0ea7e1	-0.13931228
28	0xbdc2e586	-0.09516434
29	0x3d2eb7cc	0.04265575
30	0x3d6f0760	0.058356643
31	0x3e0691a9	0.13141502
32	0xbd0d5746	-0.03450706
33	0x3dce9d14	0.10088554
34	0xbda9781c	-0.08274862
35	0xbdf3f949	-0.11912782
36	0xbe02aa2e	-0.12760231
37	0x3dc95124	0.098299295
38	0xbcc05b38	-0.023480996
39	0x3df6cdc2	0.12050964
40	0xbd5ef2fc	-0.054430947
41	0x3e18136d	0.1485116
42	0x3d811e80	0.063046455
43	0xbd8d4fdd	-0.06899998
44	0x3da58272	0.08081521
45	0xbd172990	-0.03690487
46	0x3dcbbaac	0.09947714
47	0xbcb5e5e8	-0.022204354
48	0x3e175801	0.14779665
49	0x3de3d3ee	0.11124407
50	0xbe0c1b02	-0.13682178
51	0x3d0a6060	0.033783317
52	0xbc46ead0	-0.012140945
53	0xbd61f170	-0.055161893
54	0x3d9c3564	0.07627371
55	0xbcdddd48	-0.027083054
56	0xbd5f27a0	-0.05448115
57	0xbdcc2718	-0.09968394
58	0xbdf0c336	-0.117559835
59	0x3db7076a	0.08936961
60	0x3dc38586	0.09546952
61	0xbc9fea18	-0.019520804
62	0x3dbf42fc	0.09338948
63	0xbd8287ea	-0.0637358
64	0x3df8c556	0.12147014
65	0xbd0d929e	-0.034563653
66	0x3d8bcd26	0.06826238
67	0x3cbd13c0	0.023080707
68	0x3e1151cf	0.14191364
69	0xbc93dff8	-0.018051133
70	0xbdf38eea	-0.11892493
71	0xbdc5ea76	-0.096638605
72	0xbbbe33c0	-0.005804509
73	0xbd0d0ca8	-0.034435898
74	0xbdc2da0c	-0.095142454
75	0xbdde19d6	-0.108447716
76	0xbe09b8f1	-0.13449456
77	0xbd1dc3a4	-0.038516656
78	0x3dc6ded6	0.09710471
79	0x3cb22428	0.021745756
80	0x3b4d9b00	0.0031372905
81	0xbe17574d	-0.14779396
82	0x3bf233c0	0.007391423
83	0xbe10fd2c	-0.14159077
84	0xbdcab682	-0.09898092
85	0xbd926954	-0.07148996
86	0xbe0704ff	-0.131855
87	0xbc8601c0	-0.016358256
88	0x3d9ea7c6	0.07746844
89	0xbdd1a5b2	-0.10236682
90	0xbe16bd67	-0.14720689
91	0xbde8b422	-0.113624826
92	0x3c5a2710	0.013314977
93	0x3e176b8d	0.14787121
94	0x3df1c4da	0.118051246
95	0x3e0c5ac5	0.13706501
96	0x3b54d840	0.0032477528
97	0x3d5d75fc	0.054067597
98	0xbd2b8280	-0.0418725
99	0xbdeeef88	-0.11666781
100	0x3d1537a8	0.03643003
101	0x3d999184	0.07498458
102	0x3de9294e	0.11384831
103	0xbdb184e0	-0.08667922
104	0x3cc5bb48	0.024137154
105	0xbdf4bafe	-0.119497284
106	0xbe087822	-0.13327077
107	0xbd8afd16	-0.067865536
108	0xbdd8ef74	-0.10592547
109	0xbde7a5e5	-0.11310939
110	0xbc392cd0	-0.011302188
111	0xbe01f795	-0.12692101
112	0xbdf04de0	-0.117336035
113	0xbdd356d2	-0.10319294
114	0xbdbafed3	-0.09130635
115	0x3c1f8ab0	0.0097376555
116	0xbc8ee128	-0.017441347
117	0x3d801d2a	0.062555626
118	0xbcc02f58	-0.023460075
119	0x3d71b46c	0.059009954
120	0xbd0eaaba	-0.034830786
121	0x3d99b6b6	0.075055525
122	0x3d8458b0	0.06462228
123	0x3df5781a	0.11985798
124	0x3ce67ca8	0.028135613
125	0xbde8f82a	-0.113754585
126	0x3d4ad164	0.049516097
127	0x3c43db80	0.011954188
128	0xbdbccb68	-0.09218484
129	0x3d82d80e	0.063888654
130	0x3d0f519c	0.03498994
131	0xbcb35778	-0.021892294
132	0xbddd2fc6	-0.10800128
133	0xbd2140da	-0.039368488
134	0xbdafc6ae	-0.08582817
135	0x3c9807a8	0.018558338
136	0xbd8b49ea	-0.06801207
137	0xbbe68080	-0.0070343614
138	0xbd034cd6	-0.0320557
139	0x3d306cd8	0.04307255
140	0x3d8c2680	0.06843281
141	0xbcee63f8	-0.029100403
142	0x3db5a514	0.08869377
143	0xbe042f08	-0.12908566
144	0x3e11970b	0.14217775
145	0x3e116883	0.14200024
146	0x3e02bcd1	0.1276734
147	0xbdafa28a	-0.08575924
148	0xbd1f9966	-0.03896465
149	0x3d12db50	0.035853684
150	0xbdfbd0b4	-0.12295666
151	0x3ddcf1fa	0.10788341
152	0x3bc8b780	0.0061253905
153	0x3e00acfd	0.1256599
154	0xbdfffde6	-0.12499599
155	0xbd259216	-0.04042252
156	0xbe082ff2	-0.1329954
157	0xbd5dfb48	-0.05419472
158	0x3ccd2118	0.025040194
159	0xbb647600	-0.0034860373
160	0x3d7a4f68	0.061110884
161	0xbd47092c	-0.04859273
162	0xbd343130	-0.04399222
163	0xbde86939	-0.11348195
164	0xbe13aaea	-0.14420667
165	0x3e017515	0.1264232
166	0xbdd36b81	-0.10323239
167	0xbdf8dbf9	-0.121513315
168	0xbd0ef488	-0.034901172
169	0xbc5a3200	-0.013317585
170	0x3cea4788	0.028598562
171	0xbddb432e	-0.10706173
172	0xbde1071d	-0.10987685
173	0xbe0207ef	-0.12698339
174	0x3da1027e	0.078618035
175	0x3d8db894	0.06919971
176	0xbd887c40	-0.06664324
177	0x3b158800	0.0022816658
178	0xbce460b0	-0.027878135
179	0x3d15db54	0.03658612
180	0xbdc0a68c	-0.09406766
181	0xbd9e37cd	-0.07725487
182	0xbcf4e400	-0.029893875
183	0xbd174862	-0.036934264
184	0xbda452aa	-0.080235794
185	0xbde3d994	-0.11125484
186	0xbc9cf108	-0.019157901
187	0xbdf1d5fa	-0.11808391
188	0xbcfa3c54	-0.030546345
189	0x3e015729	0.12630905
190	0x3d3a8740	0.04553914
191	0x3c597e70	0.013274774
192	0xbd1c8c60	-0.03821981
193	0x3d91090e	0.07081805
194	0x3d549350	0.0518983
195	0x3da6ef4e	0.081511125
196	0x3d9e31c4	0.07724336
197	0x3c8a56d8	0.016887113
198	0xbcbd7940	-0.023129106
199	0xbdfd8976	-0.12379734
200	0xbddf2c1e	-0.108970866
201	0x3dafa046	0.085754916
202	0xbce81e78	-0.028334841
203	0x3c0785f0	0.008271679
204	0xbe06ddec	-0.13170594
205	0xbdcbc818	-0.09950274
206	0xbda86cfb	-0.082239114
207	0x3dde30ce	0.108491525
208	0x3de623ba	0.11237283
209	0xbd2d8aee	-0.04236882
210	0xbd8abdc7	-0.067744784
211	0x3dd60f5a	0.10452147
212	0x3db0e79c	0.08637926
213	0xbdb06b6a	-0.086142376
214	0x3de935ee	0.113872394
215	0x3d6ecbcc	0.058299825
216	0x3c6404b0	0.013917133
217	0xbd8b799e	-0.06810306
218	0x3dc748bc	0.0973067
219	0xbdaee8c7	-0.085404925
220	0xbbed23c0	-0.0072369277
221	0xbdd93051	-0.10604919
222	0xbe14e089	-0.14538778
223	0xbd8eb2bf	-0.06967687
224	0xbd5902f6	-0.05298134
225	0x3d76a680	0.06021738
226	0x3db5dfb8	0.088805616
227	0xbe01b6cb	-0.12667386
228	0x3dae31ae	0.085055694
229	0xbddb8e0e	-0.10720454
230	0x3e0e97af	0.1392505
231	0xbdc1d97f	-0.09465312
232	0x3d0b17c4	0.03395821
233	0x3d3fd2b0	0.046831787
234	0xbd079d9e	-0.0331093
235	0xbda8937d	-0.08231256
236	0x3e0de50d	0.13856907
237	0x3e1748f1	0.14773919
238	0x3e04c951	0.12967421
239	0xbd58c7a2	-0.05292476
240	0x3c505d80	0.012717605
241	0xbdb81bf2	-0.08989705
242	0xba0fc300	-0.00054840744
243	0xbdec37af	-0.11534058
244	0xbd48bfb8	-0.049010962
245	0x3d65d318	0.056109518
246	0xbdbc4628	-0.09193069
247	0xbdb35e16	-0.0875818
248	0x3de08b1a	0.109640315
249	0xbd57f3b0	-0.052722633
250	0xbd8ec314	-0.06970802
251	0x3d8fa7f6	0.07014458
252	0xbde3ee4a	-0.111294344
253	0xbd04e60a	-0.032445945
254	0x3b02d180	0.0019961298
255	0x3df49d9a	0.119441226
