Ni_prediction/savemodel/bst_mod_599.pth (torch_old, 533443 bytes, 44 tensors)

price_encoder.attention.weight f4 [1, 121]
000000 66 2a 12 41 3a bb 12 41 5a 54 11 41 8f ba 12 c1
       9.135351 9.17071 9.083094 -9.170547
000010 93 3d 10 c1 88 2f 10 41 e6 15 12 41 8e ab 0e c1
       -9.015033 9.011604 9.130346 -8.916883
000020 71 c4 11 41 da 02 11 41 b1 2f 11 41 a3 66 12 41
       9.110459 9.063196 9.074143 9.150058
000030 ce 64 10 c1 b3 66 11 c1 96 87 11 c1 fa ac 10 41
       -9.0246105 -9.087573 -9.095602 9.042231
000040 28 3e 10 41 29 bc 10 c1 eb 9a 0e 41 8c 74 11 41
       9.015175 -9.045938 8.912822 9.090954
000050 93 d7 0e 41 f7 83 11 41 04 52 12 41 9a 15 12 c1
       8.92763 9.094718 9.145023 -9.130274
000060 fa 1c 12 c1 8c 31 11 41 f4 68 10 c1 0d 54 12 c1
       -9.132074 9.074596 -9.025623 -9.14552
000070 72 fc 11 c1 41 ce 10 c1 18 a5 11 41 c0 27 11 c1
       -9.124132 -9.050355 9.102806 -9.072205
000080 06 68 11 41 b4 d2 12 41 97 54 10 41 07 3e 11 41
       9.087896 9.176441 9.020652 9.077643
000090 0c 1e 12 c1 c0 4f 12 41 f0 ae 11 41 4d 0f 12 c1
       -9.132336 9.14447 9.105209 -9.128736
0000a0 6a 74 11 41 50 de 12 41 07 b7 10 41 d3 3e 12 41
       9.090921 9.1792755 9.044684 9.140338
0000b0 b6 6b 10 41 5f 4b 12 41 80 45 12 41 46 43 12 41
       9.026297 9.143401 9.141968 9.141424
0000c0 2f cd 12 41 b1 3b 11 41 c2 9c 10 41 76 fc 10 41
       9.175094 9.077073 9.038271 9.061636
0000d0 ed d0 11 41 c3 e5 10 41 a6 e1 0f 41 f4 98 11 41
       9.113507 9.056094 8.99259 9.099842
0000e0 24 f7 11 41 80 b0 12 c1 a4 97 11 c1 aa fe 12 41
       9.122837 -9.168091 -9.099522 9.187174
0000f0 52 8b 10 41 38 76 12 c1 72 e7 11 c1 f3 c7 0f c1
       9.034014 -9.153862 -9.119005 -8.986316
000100 dc b2 12 c1 63 7a 12 41 de 7e 11 41 1a df 10 41
       -9.168667 9.15488 9.093473 9.054468
000110 5c 79 10 41 6e 5a 11 c1 06 26 11 c1 b1 99 11 41
       9.029629 -9.084578 -9.071783 9.100022
000120 9d dd 11 41 df 79 10 41 e2 95 10 c1 2c 2f 10 41
       9.116605 9.029754 -9.0365925 9.011517
000130 36 94 10 c1 a8 a7 00 41 7d 81 12 41 ad f1 11 41
       -9.036184 8.040932 9.156613 9.121503
000140 d3 60 10 c1 b6 84 10 c1 43 a0 11 41 a9 0c 11 41
       -9.023639 -9.0324 9.101626 9.065591
000150 13 a7 12 41 21 cd 12 c1 21 1d 10 c1 64 dd 12 c1
       9.16579 -9.17508 -9.007112 -9.17905
000160 12 57 12 41 b0 51 12 41 4f d7 12 41 b1 bb 12 41
       9.146257 9.144943 9.177566 9.170823
000170 31 03 11 41 ad 7a 12 41 8f c9 10 c1 c4 e3 12 c1
       9.063279 9.15495 -9.049209 -9.180607
000180 44 cd 10 c1 b1 df 11 41 3a 26 12 c1 e7 d8 0f 41
       -9.050114 9.117112 -9.134333 8.990455
000190 60 e0 10 41 aa 15 11 41 23 8a 11 41 cc 9c 12 41
       9.054779 9.067789 9.096225 9.1632805
0001a0 fa 3b 12 41 8f ba 10 41 78 37 10 41 7d 47 12 41
       9.139643 9.045547 9.013542 9.142453
0001b0 8f 61 12 41 a9 86 11 41 d9 2d 10 41 c9 98 11 41
       9.148818 9.095376 9.011193 9.099801
0001c0 59 13 10 41 03 e8 11 41 8b ad 12 41 37 33 10 41
       9.004724 9.1191435 9.167369 9.012504
0001d0 f8 11 11 41 71 f4 10 41 d8 6d 12 41 f7 ca 11 41
       9.066887 9.059678 9.151817 9.112052
0001e0 7f 49 12 41
       9.142943

price_encoder.encoder.weight_ih_l0 f4 [180, 45]
000000 1c 78 ce bd 32 86 f1 bd 18 32 03 3d 20 05 a9 3d
       -0.10081503 -0.11793174 0.032030195 0.08252931
000010 e6 7b 63 bd a2 b0 d5 3d 80 09 a1 3d 0a ef f9 bd
       -0.05553808 0.10434081 0.0786314 -0.12203796
000020 b7 40 d4 bd 40 15 43 bc 73 f8 e1 bd ce ef 6c bd
       -0.10363906 -0.011906922 -0.11033716 -0.057845883
000030 bc da d9 bc d8 40 fb 3c be b2 f7 bd 70 ab 76 3c
       -0.026593558 0.030670568 -0.12094639 0.015055522
000040 fc 9a 50 3d 08 40 aa bd 68 61 b9 3d e6 b1 eb 3d
       0.050929055 -0.08312994 0.09051782 0.11508541
000050 4d 2f e1 3d 97 7a 8c 3d 10 60 da bd 1e ce 0f c1
       0.1099535 0.0685932 -0.10662854 -8.987822
000060 d7 78 14 be a5 f2 17 be 6b 3d f9 bd 5b a3 03 3e
       -0.14499222 -0.14838655 -0.12169918 0.12855284
000070 53 4b 08 3e 38 9a 14 3d 0b 55 07 be e0 f9 fc bb
       0.13309984 0.036279887 -0.13216035 -0.007720217
000080 b6 f8 ef 3d 80 9c 0c 41 5c c8 10 41 81 0f 11 41
       0.1171736 8.788208 9.048916 9.066285
000090 4d 53 11 41 12 66 11 41 f2 f8 20 bf a1 8d 10 41
       9.082837 9.0874195 -0.6287986 9.034577
0000a0 c7 e5 13 41 9f c1 12 41 0e 84 10 41 88 ba c6 3c
       9.243598 9.172271 9.03224 0.024258867
0000b0 d6 bd fe bd ac ab ff bd fc 51 8f 3d 0b 57 e2 3d
       -0.12438552 -0.12483916 0.06998059 0.110517584
0000c0 a0 31 38 3d f6 29 bc 3d 0d 3e 00 3e 72 1f 8d bd
       0.0449692 0.09187691 0.1252367 -0.06890763
0000d0 57 0b b1 3d a5 44 7d 3d 70 6e 00 3d 88 ee bb 3d
       0.08644741 0.061833043 0.03135532 0.091763556
0000e0 50 f7 a8 bc fa fc 8a 3d 1f b8 04 3e 60 dc 45 3c
       -0.02062574 0.06786533 0.12960862 0.012076467
0000f0 a3 25 11 be c7 37 09 be 60 f9 9e 3b 28 8a 06 bd
       -0.14174514 -0.13400184 0.004851505 -0.0328466
000100 63 cc dd 3d f6 d3 62 40 83 27 99 3d b8 1e eb bb
       0.10829999 3.544187 0.074782394 -0.007175293
000110 3c 48 0f 41 77 e7 f6 bd cb 93 13 be 7a 37 f7 3d
       8.955135 -0.12055867 -0.14411847 0.12071128
000120 3e af 3a bd 80 91 11 be 40 3b 4c bb 8a a9 32 bd
       -0.04557728 -0.1421566 -0.0031163245 -0.043618716
000130 57 54 0e 3e 21 bb c0 bd 47 2b 10 41 87 82 0f 41
       0.1389936 -0.09410692 9.010566 8.969367
000140 61 21 11 41 5e 63 10 41 8e a7 13 41 03 5a 07 be
       9.070649 9.02426 9.228407 -0.1321793
000150 01 8d 10 41 a2 02 10 41 44 3d 10 41 1c d0 12 41
       9.034425 9.000643 9.014957 9.175808
000160 10 3a 24 3d 70 7b 34 3d ab 6f d8 3d 53 70 dd bb
       0.040094435 0.04406303 0.10568174 -0.006757775
000170 f8 77 f0 bd 55 3c e0 bd 28 98 e7 3c b5 24 51 3d
       -0.11741632 -0.109490074 0.028270796 0.051060397
000180 e8 bb 85 3d 38 a8 88 3d 74 b7 dc bc 8e 92 ab bd
       0.06529981 0.0667271 -0.026942946 -0.083775625
000190 c6 1e 06 be 30 2e a1 3c 9e 79 4b bd a0 06 cf bd
       -0.13097677 0.019675344 -0.04967653 -0.101086855
0001a0 60 f5 ba 3b 58 c1 88 3c 42 1f c2 3d 84 a8 c7 bd
       0.0057055205 0.016693756 0.09478618 -0.09748939
0001b0 10 61 6c 3c a5 f4 9b bd 80 c6 47 40 22 ee 9d 3c
       0.014427438 -0.076150216 3.1214905 0.01927859
0001c0 2c d6 f2 bc 19 d9 10 41 24 95 5c bd 00 d2 26 3d
       -0.02964314 9.053002 -0.05385317 0.040727615
0001d0 7e 00 35 bd 67 70 40 3c 61 db ce bd 33 6e 10 3e
       -0.044189923 0.011745549 -0.10100437 0.14104538
0001e0 42 4c df bd df 28 10 3e bc 1f 0e be 7c 3d 13 41
       -0.10903217 0.14078091 -0.13879293 9.202511
0001f0 f7 7d 0f 41 1d 11 11 41 36 1e 12 41 c7 f3 12 41
       8.968253 9.066678 9.132376 9.184516
000200 ee 5b 0f c1 2e dc 10 41 7b c3 12 41 8d 94 0f 41
       -8.959944 9.053755 9.172725 8.973767
000210 ea b1 10 41 94 d1 6f 3d 1d bc 80 bd c2 4b c7 3d
       9.043436 0.05854948 -0.0628588 0.097312465
000220 46 b9 5e bd 8e 17 05 be 24 02 af bc 30 76 20 bd
       -0.05437591 -0.12997267 -0.021363325 -0.039175212
000230 cc 58 ed 3d fa 74 f7 3d 4a e9 c1 3d 48 ce 8e bb
       0.11589202 0.120828584 0.094683245 -0.0043580867
000240 18 b5 a1 3d 02 a1 e6 3d b6 fa ec 3d f0 ba c9 3d
       0.07895869 0.112611786 0.11571257 0.098501086
000250 bb 63 0f c1 5c ea 11 3d 4c 36 7c 3d b6 da 15 bd
       -8.961848 0.035623893 0.06157522 -0.036585532
000260 a0 5c 17 bc 29 d1 6f 40 ae 90 31 3d 2c 7a dc be
       -0.009238392 3.7471411 0.043350868 -0.4306196
000270 0e e7 96 bc 40 57 62 3d 8a 78 11 c1 8c da 46 3d
       -0.018420722 0.05525899 -9.0919285 0.048548266
000280 0d e6 14 3e 40 b8 83 bd 32 30 b6 bd c3 e9 11 c1
       0.14540882 -0.06431627 -0.08895911 -9.119571
000290 78 23 af 3d aa 78 c7 3d 96 2d f3 c0 34 32 b9 bd
       0.08551687 0.09739812 -7.5993147 -0.090427786
0002a0 38 e4 12 c1 23 ca 12 c1 0c 1e 10 c1 79 60 10 c1
       -9.180717 -9.17435 -9.007336 -9.023553
0002b0 6e b0 12 c1 7a e8 c6 bd 37 7c 10 c1 76 95 11 c1
       -9.168074 -0.0971231 -9.030326 -9.0989895
0002c0 26 1f 10 c1 b0 40 10 c1 f2 2d a1 3d e8 6d 17 3d
       -9.007605 -9.015793 0.078700915 0.03697005
0002d0 4c 4a b0 bd b8 62 ac bc 66 59 ac 3d 21 0c 0d 3e
       -0.08607921 -0.021043167 0.08415489 0.13774158
0002e0 3c 14 b1 3d 4a 13 13 3e 9e 4c 0d be ac fe 12 be
       0.086464375 0.14362827 -0.13798758 -0.14354962
0002f0 02 95 b4 bd 64 97 55 bd 98 df 59 3d 23 d6 14 be
       -0.088174835 -0.05214633 0.05319175 -0.14534812
000300 32 9c d8 bd cf f1 a6 bd 80 5a ed bb 66 84 b2 3d
       -0.10576667 -0.0815159 -0.0072434545 0.08716659
000310 24 b1 08 bd fc dc b8 bd 68 32 1d 3d 06 ab b3 bd
       -0.03337206 -0.090265244 0.03837815 -0.087728545
000320 6d 2a 56 be 8a e3 ac 3d 4c eb 20 3d fc 16 11 c1
       -0.20914622 0.08441837 0.039286897 -9.068111
000330 b2 49 cd 3d 81 c7 10 3e 6c f5 99 3d 50 da df 3c
       0.10023822 0.14138605 0.07517514 0.02732578
000340 7d 28 03 3e ca 30 fa 3d 48 42 5d 3d 00 28 8c bc
       0.12808414 0.12216337 0.05401829 -0.017108917
000350 7b d8 d6 bd 2f 00 0f c1 3c 1e 13 c1 01 a0 13 c1
       -0.10490509 -8.937545 -9.194881 -9.226563
000360 92 9a 10 c1 e7 a3 11 c1 e0 49 b1 bb b1 40 11 c1
       -9.037737 -9.102515 -0.005410418 -9.078294
000370 54 c7 0f c1 4b 33 0f c1 a6 98 12 c1 24 27 a3 bd
       -8.986164 -8.950023 -9.162268 -0.0796645
000380 70 ee 3a bc 68 ac 8a bc 7c 26 86 3d d0 b9 74 3c
       -0.011409387 -0.016927913 0.06550309 0.014936879
000390 f8 c4 1c bd 59 b5 01 3e 6f 38 16 3e 48 38 cb ba
       -0.03827378 0.12666835 0.14669965 -0.0015504444
0003a0 df 5d 18 3e 7c ed 81 3d be af e7 3d 70 b8 06 be
       0.14879559 0.06344125 0.11312817 -0.13156295
0003b0 60 d3 bb 3d 73 1d bb bd 6d 33 10 41 70 5b 0f 3c
       0.09171176 -0.09136476 9.012555 0.008749828
0003c0 00 ab f8 3a 74 59 1f 3d e8 1f d2 3c fa b1 d3 bd
       0.001897186 0.03890367 0.02564998 -0.10336681
0003d0 64 d3 9e 3d fd 1a 0f be 29 68 9f bd 5a bf 86 ba
       0.07755163 -0.13975139 -0.07783539 -0.0010280416
0003e0 35 f4 13 c1 60 29 de 3c 95 2b ba bd 96 7b f2 3d
       -9.247121 0.027119339 -0.09090344 0.118399784
0003f0 d6 6e 1f bd e5 a6 11 41 e8 66 83 3d a1 a5 0a 3e
       -0.03892406 9.103246 0.06416112 0.13539745

price_encoder.encoder.weight_hh_l0 f4 [180, 45]
000000 5a 64 13 41 38 f3 11 41 36 c1 0f 41 c5 c5 0f c1
       9.212 9.12188 8.984671 -8.985784
000010 7a 6e 11 41 c3 8b 10 41 95 42 11 41 2b 71 13 c1
       9.089472 9.0341215 9.078755 -9.215129
000020 a5 4e 11 c1 ad 6c 10 c1 50 02 13 c1 54 9e 12 41
       -9.0817 -9.026532 -9.188065 9.163654
000030 68 96 10 c1 d0 96 11 c1 68 4d 10 41 c0 b2 13 c1
       -9.03672 -9.099319 9.018898 -9.23114
000040 15 16 10 41 d3 19 12 c1 c7 53 0f 41 0c 91 13 c1
       9.005391 -9.131305 8.957953 -9.222912
000050 5c 5e 0f 41 41 3c 11 41 d4 9f 0f 41 d1 3b 10 41
       8.960537 9.07721 8.976521 9.014604
000060 17 1e 11 c1 41 3a 0f c1 87 c7 0f c1 09 a6 10 41
       -9.069846 -8.951722 -8.986213 9.040536
000070 19 52 0f c1 2d ad 10 c1 56 07 10 41 30 c3 11 c1
       -8.957543 -9.042279 9.001791 -9.110153
000080 5a 47 11 41 ac bd 11 41 cd 53 11 41 1c 49 0f c1
       9.07992 9.108807 9.082959 -8.955349
000090 14 df 10 c1 a5 31 12 41 31 3e 10 41 1e f4 13 41
       -9.054462 9.13712 9.015183 9.247099
0000a0 6b 20 13 41 a3 87 10 41 09 39 12 c1 c4 a8 13 41
       9.195415 9.033114 -9.138925 9.228703
0000b0 2f 0e 13 c1 95 71 13 c1 79 77 12 c1 c6 8b 11 c1
       -9.190963 -9.21523 -9.154168 -9.096624
0000c0 c6 50 12 41 19 2a 10 c1 99 05 13 c1 a8 d8 0f c1
       9.14472 -9.010278 -9.188867 -8.990395
0000d0 af d6 12 c1 04 b4 10 41 57 8d 12 c1 bc 4e 10 41
       -9.177413 9.043949 -9.159507 9.019222
0000e0 1e df 13 c1 17 7b 0f 41 ea 9f 10 41 cd b7 11 c1
       -9.241972 8.967551 9.0390415 -9.107373
0000f0 70 76 13 41 55 bb 10 c1 5c 6d 0f 41 de 2e 10 c1
       9.216415 -9.045735 8.964199 -9.011442
000100 9c 90 11 41 cf 18 10 41 61 f2 12 c1 9b 16 10 c1
       9.097805 9.006057 -9.184175 -9.005519
000110 3c e3 11 c1 a7 88 13 41 42 a0 12 41 01 32 10 41
       -9.117977 9.220862 9.164125 9.012208
000120 7d d8 10 c1 c0 52 0f 41 e8 41 12 41 e9 a7 13 c1
       -9.052854 8.957703 9.14109 -9.228494
000130 12 69 12 41 0e d9 11 c1 c5 68 12 c1 71 0c 10 c1
       9.150652 -9.115492 -9.1505785 -9.003037
000140 bc a7 0f 41 7f 40 11 41 eb f7 12 c1 e5 aa 0f c1
       8.978451 9.078246 -9.185527 -8.979222
000150 7a d1 12 c1 f0 92 11 c1 92 f3 10 c1 e0 71 12 41
       -9.176142 -9.098373 -9.059465 9.1528015
000160 9b 28 10 c1 01 43 10 41 ee 81 10 c1 86 8c 12 c1
       -9.009913 9.016358 -9.031721 -9.1593075
000170 bc 93 13 c1 4f d8 11 41 d2 bb 0f c1 9e dd 11 c1
       -9.223568 9.11531 -8.983355 -9.116606
000180 29 6a 0f c1 9e cd 10 c1 cb 17 12 41 6e 10 11 c1
       -8.963418 -9.0501995 9.130809 -9.066511
000190 39 cb 13 41 0c eb 10 c1 47 6c 13 41 6e 68 12 41
       9.237115 -9.0573845 9.213935 9.150496
0001a0 c1 dd 0f c1 d6 a1 0f 41 56 ec 12 c1 18 5e 13 41
       -8.991639 8.977011 -9.182699 9.210472
0001b0 ee de 13 c1 62 5e 12 c1 c9 fd 0f 41 e3 91 10 c1
       -9.241926 -9.148043 8.999459 -9.035617
0001c0 3a 9a 12 c1 8e 24 12 c1 b5 a5 10 41 f9 b5 11 41
       -9.162653 -9.1339245 9.040456 9.106927
0001d0 76 e5 10 41 3b 35 13 c1 2f c3 0f 41 6a d8 13 41
       9.056021 -9.200496 8.985152 9.240335
0001e0 c0 98 10 c1 2a 40 10 41 c6 82 0f c1 d9 14 12 c1
       -9.0372925 9.015665 -8.969427 -9.13009
0001f0 83 91 12 c1 48 b6 12 41 1d 12 10 41 51 4f 0f c1
       -9.160525 9.169502 9.004422 -8.956864
000200 c0 09 10 c1 0a d5 0f c1 bc 6b 0f c1 4f 26 11 c1
       -9.00238 -8.9895115 -8.963802 -9.071853
000210 12 7e 11 41 d7 f0 10 c1 a5 3a 12 41 37 22 13 41
       9.093279 -9.058799 9.1393175 9.195853
000220 4f ec 10 41 8b aa 12 41 1d 1d 12 c1 98 51 12 41
       9.057693 9.166636 -9.132108 9.14492
000230 6e d1 0f 41 80 69 10 41 7b e7 0f 41 11 be 10 c1
       8.98863 9.025757 8.994014 -9.046403
000240 c9 db 12 41 de 1d 10 c1 d4 fe 0f 41 21 40 12 41
       9.1786585 -9.007292 8.999714 9.140656
000250 6b bf 10 c1 9c d3 12 41 b3 b1 11 c1 34 d7 0f 41
       -9.046733 9.176662 -9.105884 8.99004
000260 85 9a 11 c1 e9 00 12 41 99 31 12 41 7a 75 11 c1
       -9.1002245 9.125222 9.137109 -9.091181
000270 3b 78 10 41 02 0c 13 41 51 04 12 41 f9 67 0f c1
       9.029353 9.190432 9.126054 -8.962884
000280 1b f6 10 c1 ee 2e 11 41 26 20 10 41 65 aa 13 c1
       -9.060084 9.073957 9.007849 -9.2291
000290 6d 87 13 c1 b0 cd 12 41 af be 10 c1 74 51 10 41
       -9.220563 9.175217 -9.046554 9.019886
0002a0 3e ae 13 41 00 e4 13 41 4d 50 13 c1 2e 21 10 c1
       9.23004 9.243164 -9.207105 -9.0081005
0002b0 60 da 11 41 df 71 10 41 d6 88 10 41 70 e4 12 41
       9.115814 9.027801 9.033407 9.180771
0002c0 da d3 0f 41 80 c5 13 c1 d4 02 10 41 7a 93 11 c1
       8.989222 -9.235718 9.00069 -9.098505
0002d0 0b 77 0f 41 44 7e 10 41 0b 9d 13 41 49 b5 12 c1
       8.966563 9.030827 9.225841 -9.169259
0002e0 cf 4a 0f 41 ad 49 10 41 4b eb 13 41 52 4c 13 41
       8.955764 9.017987 9.244945 9.206133
0002f0 36 2b 13 c1 83 b5 12 41 3e 0c 12 c1 bb 82 11 41
       -9.19805 9.169314 -9.127989 9.094417
000300 a3 16 12 c1 5d 0c 10 c1 24 9c 0f 41 c5 e6 0f c1
       -9.130527 -9.003018 8.97562 -8.99384
000310 2b 1c 11 41 83 c2 0f c1 08 da 0f 41 08 eb 12 41
       9.069377 -8.984988 8.99073 9.182381
000320 6f 78 0f c1 14 6f 0f 41 bd 0e 11 41 f8 b1 13 41
       -8.966903 8.964619 9.066098 9.230949
000330 d0 34 11 c1 bb ae 10 c1 cf 30 12 41 13 92 12 41
       -9.075394 -9.042659 9.136916 9.160663
000340 1d f9 10 c1 71 7c 0f c1 a0 39 10 41 32 66 13 c1
       -9.060819 -8.967881 9.014069 -9.21245
000350 4b e3 11 41 b4 de 13 41 6e 45 13 41 a4 fe 0f c1
       9.117991 9.241871 9.204451 -8.999668
000360 f7 3a 11 c1 07 e0 0f 41 cf ef 12 41 6d 49 12 41
       -9.076896 8.992194 9.183547 9.142926
000370 b9 c1 10 41 2e 99 12 41 d1 34 11 c1 3d ca 0f 41
       9.047296 9.162397 -9.075395 8.986875
000380 e8 9d 0f c1 f4 c5 10 41 73 32 12 41 13 e6 12 41
       -8.976051 9.048328 9.137317 9.18117
000390 ba 7f 13 c1 31 08 13 41 90 aa 0f 41 a7 a2 10 41
       -9.218683 9.1895 8.979141 9.03971
0003a0 cb 6b 13 41 6f d4 10 c1 1f e2 13 41 c4 0e 11 c1
       9.213817 -9.051864 9.242705 -9.066105
0003b0 46 f8 0f 41 d5 5e 0f c1 9c 00 11 c1 1b c4 10 41
       8.998114 -8.960652 -9.062649 9.047877
0003c0 0a 3d 12 c1 b5 6d 13 41 54 44 13 c1 45 ff 11 41
       -9.139902 9.214284 -9.204182 9.124822
0003d0 b4 7c 13 41 58 08 10 c1 98 cb 10 41 41 81 0f 41
       9.217945 -9.002037 9.0497055 8.969056
0003e0 e0 5c 0f 41 e2 b3 11 c1 6b fc 11 c1 5d 34 0f 41
       8.960175 -9.106417 -9.1241255 8.950284
0003f0 16 69 13 41 36 55 10 c1 e3 9f 13 c1 c8 4b 11 41
       9.213156 -9.020803 -9.226535 9.081001

price_encoder.encoder.bias_ih_l0 f4 [180]
000000 00 73 12 c1 5e 8e 13 41 f4 f5 10 41 f5 60 10 c1
       -9.153076 9.222258 9.060047 -9.023671
000010 ea 48 13 c1 05 d8 10 c1 e8 e8 12 41 ba 15 11 c1
       -9.205301 -9.052739 9.181862 -9.067804
000020 f4 1d 13 41 27 b2 12 c1 f9 96 10 c1 90 f4 11 c1
       9.194813 -9.168494 -9.036859 -9.122208
000030 32 b7 13 c1 2d b8 11 41 15 68 10 41 0c 97 13 41
       -9.232225 9.107465 9.025411 9.224377
000040 fb ae 12 c1 4a 11 10 41 fd f0 12 c1 ef d7 13 c1
       -9.16772 9.004221 -9.183835 -9.240218
000050 96 1e 12 c1 7e 42 0f c1 30 aa 11 c1 3b 1f 11 41
       -9.132467 -8.953733 -9.10405 9.070125
000060 02 ba 12 c1 1a c0 11 c1 e8 05 10 c1 db 26 11 41
       -9.170412 -9.1094 -9.001442 9.071986
000070 0a 54 12 c1 e5 09 11 41 00 0d 10 41 88 c8 13 c1
       -9.145517 9.064916 9.003174 -9.236458
000080 ec 78 13 41 88 b4 12 c1 b7 44 10 c1 46 ed 10 41
       9.217022 -9.169075 -9.016776 9.057928
000090 e3 da 10 c1 26 f8 13 c1 10 6a 0f c1 f9 69 12 41
       -9.053439 -9.248083 -8.963394 9.150872
0000a0 a1 2b 10 41 85 68 0e 41 24 76 13 c1 92 e7 10 41
       9.010652 8.900517 -9.216343 9.056536
0000b0 92 2e 11 41 af cf 0f c1 9f b1 13 41 92 f8 10 41
       9.07387 -8.988204 9.230865 9.060686
0000c0 2e e7 12 c1 78 7a 10 c1 04 87 13 c1 47 3e 13 41
       -9.18144 -9.0299 -9.220463 9.202704
0000d0 9d d0 11 c1 33 12 12 41 d2 02 10 41 c2 6d 13 c1
       -9.113431 9.129443 9.000689 -9.214296
0000e0 3b 13 10 c1 c8 92 10 c1 0b ed 11 41 af 78 10 41
       -9.004695 -9.035835 9.120372 9.029464
0000f0 33 6e 11 41 0a 92 11 c1 db d6 12 41 12 4f 11 41
       9.089404 -9.098154 9.177455 9.081804
000100 8a 05 13 c1 4f 4d 12 c1 d1 69 11 c1 a6 db 0f c1
       -9.188852 -9.143874 -9.088334 -8.991125
000110 d2 67 10 41 7a 88 12 c1 56 52 0f c1 6a 8c 0f c1
       9.025347 -9.158319 -8.957602 -8.971781
000120 d9 f5 11 41 ac 03 13 c1 db 1d 11 41 47 5f 0f 41
       9.122521 -9.188396 9.069789 8.960761
000130 a4 d7 11 c1 38 08 10 41 a6 db 11 c1 4b 96 12 c1
       -9.115147 9.002007 -9.116125 -9.161693
000140 5a de 10 41 ae 18 13 c1 2c df 12 c1 08 9d 10 c1
       9.054285 -9.193525 -9.179485 -9.038338
000150 50 85 12 41 dd 00 12 41 2f 2c 11 c1 92 cc 10 c1
       9.157547 9.125211 -9.073287 -9.049944
000160 ac 09 12 41 c1 fd 11 41 96 58 0f 41 dc 00 13 c1
       9.127361 9.124452 8.959127 -9.18771
000170 ee 6b 10 c1 16 f2 13 c1 82 73 0f 41 48 d4 11 41
       -9.02635 -9.246603 8.9657 9.1143265
000180 5d 74 12 c1 0f 37 11 41 bd 70 10 41 49 cd 0f c1
       -9.153409 9.075942 9.027524 -8.987618
000190 4b 49 0f c1 b1 2f 12 41 3f 39 11 41 71 46 10 41
       -8.955394 9.136643 9.076476 9.017198
0001a0 11 95 12 c1 59 3b 10 41 6b 94 12 41 44 5c 13 41
       -9.161393 9.014489 9.161235 9.210026
0001b0 6a 7c 10 41 be e7 12 41 4d 67 13 c1 cd fb 0f 41
       9.030375 9.181578 -9.21272 8.998975
0001c0 a8 24 12 41 b0 ef 0f c1 ab 5f 0f c1 ab a1 10 c1
       9.133949 -8.996017 -8.960856 -9.03947
0001d0 d5 e6 13 41 8a 45 0f c1 ee b3 0f c1 1c 03 13 41
       9.243855 -8.954477 -8.981428 9.188259
0001e0 4d 6a 11 c1 bb 93 12 c1 45 d3 12 c1 19 8d 10 41
       -9.088452 -9.161067 -9.176579 9.034448
0001f0 63 39 13 41 fa f6 10 41 30 48 13 c1 85 46 12 41
       9.20151 9.060297 -9.205124 9.142217
000200 4a c9 10 41 b8 30 11 c1 f4 a0 12 c1 3e 4e 13 41
       9.049143 -9.074394 -9.164295 9.206602
000210 c9 83 11 c1 a0 90 11 c1 fa c0 12 41 89 2e 10 c1
       -9.094674 -9.097809 9.172113 -9.011361
000220 5d e8 11 41 28 8a 0f 41 34 b7 12 c1 56 c8 13 c1
       9.119229 8.97123 -9.169727 -9.23641
000230 5c c5 13 c1 30 c2 0f 41 5a 64 11 c1 64 7f 13 41
       -9.235683 8.984909 -9.087 9.218601
000240 06 ef 0f c1 e3 d2 13 c1 f9 b0 0f c1 32 2d 11 c1
       -8.995855 -9.238986 -8.980706 -9.073534
000250 ec e5 12 41 39 44 12 41 53 d3 0f 41 fe 72 0f c1
       9.181133 9.141656 8.989093 -8.965574
000260 9c 97 13 41 2f c3 12 c1 29 c4 12 c1 de 01 13 c1
       9.224514 -9.172652 -9.172891 -9.187956
000270 08 57 10 c1 64 43 13 c1 b5 bd 10 41 f8 54 12 c1
       -9.021248 -9.203953 9.046315 -9.145744
000280 4b f2 10 c1 3a 03 10 c1 ee 3d 11 41 47 90 0f c1
       -9.059154 -9.000788 9.07762 -8.972724
000290 59 fa 0f 41 ff d8 10 41 d4 75 11 c1 f1 c9 0f 41
       8.99862 9.052978 -9.091267 8.986802
0002a0 5a 5c 0f c1 b1 88 0f c1 56 81 13 41 ce fc 12 c1
       -8.960047 -8.970872 9.219076 -9.18672
0002b0 2e 20 10 c1 e7 9e 11 c1 14 69 10 41 4f 47 10 41
       -9.007856 -9.1012945 9.025654 9.017409
0002c0 d2 d1 12 c1 3a fc 11 c1 e3 3d 11 41 4e df 13 41
       -9.176226 -9.124079 9.077609 9.242018

price_encoder.encoder.bias_hh_l0 f4 [180]
000000 54 1a 10 c1 06 db 13 41 5a 73 13 41 80 9c 0f c1
       -9.006428 9.2409725 9.215662 -8.975708
000010 f6 b9 12 c1 d1 3b 11 c1 13 67 0f 41 0d 8b 13 c1
       -9.170401 -9.077104 8.962665 -9.221448
000020 79 1d 11 41 75 8c 10 c1 65 d2 10 c1 d8 b4 0f c1
       9.069695 -9.034291 -9.051366 -8.981651
000030 06 11 11 c1 0f c2 10 41 e5 db 12 41 42 c2 0f 41
       -9.066656 9.047378 9.178685 8.984926
000040 e1 28 13 c1 54 61 10 41 59 7f 12 c1 40 91 0f c1
       -9.19748 9.023762 -9.156091 -8.972961
000050 87 fe 12 c1 54 0e 12 c1 61 20 11 c1 65 50 11 41
       -9.18714 -9.128498 -9.070405 9.082128
000060 ca 37 12 c1 42 d8 11 c1 fd 82 11 c1 25 7c 0f 41
       -9.13862 -9.115297 -9.09448 8.967809
000070 4e 2b 11 c1 00 f9 11 41 5f 71 10 41 83 86 13 c1
       -9.073072 9.123291 9.0276785 -9.22034
000080 ce 4b 13 41 a0 64 11 c1 cb f1 12 c1 4f ea 11 41
       9.206007 -9.087067 -9.1840315 9.119704
000090 37 39 0f c1 b4 45 11 c1 7e ac 10 c1 0d 90 12 41
       -8.951468 -9.079517 -9.042112 9.160169
0000a0 da da 0f 41 d2 22 0f 41 30 07 12 c1 10 83 0f 41
       8.990931 8.946001 -9.126755 8.969498
0000b0 85 4e 0f 41 c0 d9 12 c1 72 46 0f 41 3a 88 0f 41
       8.95667 -9.178162 8.954699 8.970758
0000c0 f6 c2 11 c1 40 3d 12 c1 3b e5 11 c1 d4 11 12 41
       -9.110098 -9.139954 -9.118464 9.129353
0000d0 6d 18 11 c1 d0 d1 10 41 b5 cc 0f 41 e8 93 11 c1
       -9.068463 9.051224 8.987477 -9.09861
0000e0 35 1d 12 c1 92 db 11 c1 96 da 11 41 c3 43 13 41
       -9.132131 -9.116106 9.115866 9.204043
0000f0 3f 14 10 41 60 02 11 c1 28 82 11 41 ef 0f 13 41
       9.004943 -9.06308 9.094276 9.19139
000100 99 1a 11 c1 36 79 13 c1 e3 62 12 c1 1e 1e 12 c1
       -9.068994 -9.2170925 -9.149142 -9.132353
000110 00 64 10 41 69 44 12 c1 ae 65 10 c1 3b e8 13 c1
       9.024414 -9.141702 -9.024824 -9.244197
000120 ec 57 0f 41 5c 4c 10 c1 84 3a 12 41 ac 01 13 41
       8.958965 -9.018642 9.139286 9.187908
000130 1e 2e 11 c1 dc a5 0f 41 cd ed 10 c1 2a 70 0f c1
       -9.073759 8.977993 -9.058057 -8.964884
000140 c0 d5 0f 41 2d c6 12 c1 d0 ec 11 c1 16 47 11 c1
       8.989685 -9.173383 -9.120316 -9.079855
000150 67 87 13 41 73 77 12 41 e9 dc 12 c1 2f e0 12 c1
       9.220557 9.154162 -9.178933 -9.179732
000160 57 c3 10 41 3f 3f 13 41 82 09 12 41 8b 81 13 c1
       9.04769 9.202941 9.127321 -9.219127
000170 0f c3 12 c1 40 bb 0f c1 e7 fd 11 41 8a 78 13 41
       -9.172622 -8.983215 9.124488 9.2169285
000180 a4 42 11 c1 cd 62 12 41 69 bd 12 41 4e cf 12 c1
       -9.07877 9.149121 9.171243 -9.1756115
000190 31 07 13 c1 c4 0b 10 41 10 48 11 41 4a d8 11 41
       -9.189256 9.002872 9.080093 9.115305
0001a0 ae 5a 11 c1 09 e0 0f 41 4c d4 0f 41 2b 2c 13 41
       -9.084639 8.992196 8.98933 9.198283
0001b0 8d 4c 0f 41 62 3e 12 41 33 1f 11 c1 cb 71 11 41
       8.956189 9.14023 -9.070117 9.0902815
0001c0 d4 92 10 41 77 70 10 c1 eb d8 12 c1 91 49 10 c1
       9.035847 -9.027457 -9.1779585 -9.017961
0001d0 eb c7 0f 41 bd 11 12 c1 88 5e 11 c1 68 b4 12 41
       8.986308 -9.129331 -9.085579 9.1690445
0001e0 d2 bd 0f c1 cb 83 0f c1 93 ed 10 c1 75 95 10 41
       -8.983843 -8.969676 -9.0580015 9.036489
0001f0 d9 fa 0f 41 7b b3 11 41 48 c4 11 c1 4c 8f 0f 41
       8.998742 9.106318 -9.11042 8.972485
000200 7f 68 0f 41 9a f4 11 c1 4c fe 10 c1 b7 ce 12 41
       8.963012 -9.122217 -9.062084 9.1754675
000210 99 b7 11 c1 4d 3e 13 c1 a1 e2 12 41 80 c7 13 c1
       -9.107324 -9.20271 9.180329 -9.236206
000220 6f da 12 41 54 62 13 41 10 db 13 c1 c4 67 10 c1
       9.1783285 9.211506 -9.240982 -9.025333
000230 06 84 10 c1 c2 37 10 41 0c 8d 0f c1 04 d6 12 41
       -9.032232 9.013613 -8.971935 9.17725
000240 74 c3 13 c1 79 31 12 c1 36 ca 10 c1 27 9e 13 c1
       -9.235218 -9.137078 -9.049368 -9.226111
000250 19 87 0f 41 a6 31 11 41 6f ba 0f 41 03 21 11 c1
       8.970483 9.074621 8.983016 -9.0705595
000260 30 52 10 41 82 4c 12 c1 54 bb 0f c1 d6 a1 0f c1
       9.020065 -9.143679 -8.983234 -8.977011
000270 fc be 0f c1 e0 da 10 c1 5c c0 13 41 36 86 0f c1
       -8.984127 -9.053436 9.234463 -8.970266
000280 ab f6 12 c1 d7 ec 10 c1 3f 3e 11 41 c0 18 13 c1
       -9.185222 -9.057822 9.077697 -9.1935425
000290 4c 97 10 41 07 1f 11 41 f4 45 13 c1 81 9d 11 41
       9.036938 9.070075 -9.204578 9.100953
0002a0 74 b8 12 c1 89 86 13 c1 14 c7 10 41 c9 f7 0f c1
       -9.1700325 -9.2203455 9.048603 -8.997994
0002b0 02 ab 13 c1 6f a3 13 c1 3f 8c 12 41 ed 5c 10 41
       -9.22925 -9.227401 9.15924 9.022687
0002c0 ea 51 12 c1 4a d7 12 c1 7b c6 12 41 6b d3 11 41
       -9.144999 -9.177561 9.173457 9.114116

atten_layer.0.weight f4 [45, 135]
000000 c0 52 bc bb 40 cb d3 3b 10 c0 bf bc 58 49 8d bc
       -0.0057471693 0.0064634383 -0.023407012 -0.017246887
000010 67 17 ab 3d 36 22 4b 3d d9 b8 42 bd 3d 6c 05 bd
       0.08354073 0.049593173 -0.047539566 -0.032573927
000020 f6 50 52 3d 2b 99 a3 3d 5c cd c8 3c 1d 5d 97 3d
       0.05134674 0.07988199 0.024511985 0.07390807
000030 3c a7 90 bc 4e 36 5b 3d 80 fe 68 ba 8d ca 01 bd
       -0.017657869 0.053518586 -0.0008888021 -0.031687308
000040 14 e6 bf bc c4 5c dd 3c 8e 32 37 3d c0 81 32 3b
       -0.02342514 0.027021773 0.044725947 0.0027237982
000050 58 d2 8d bc fa 02 fc bc 80 87 31 bb 39 f2 af 3d
       -0.017312214 -0.030763138 -0.002708882 0.08591122
000060 f8 00 dc 3c ca 41 a9 bd f0 4b 9f bc 80 1b 05 3d
       0.02685593 -0.082645014 -0.01944539 0.03249693
000070 07 82 a8 bd 12 a7 63 3d 64 7b 6a bd 89 eb 90 bd
       -0.08227926 0.055579253 -0.05724658 -0.07076175
000080 6c 25 2f bd 20 a2 40 3b de 57 81 bd d0 87 d5 bb
       -0.042760298 0.002939351 -0.063155875 -0.0065164343
000090 b8 1c 79 bd 50 e5 3f bc 30 cc a8 bd 23 7b 07 bd
       -0.060818404 -0.011712387 -0.08242071 -0.033076417
0000a0 60 33 80 bb 19 d4 a5 3d b1 46 af bd 60 66 03 bc
       -0.0039123744 0.08097095 -0.08558405 -0.008020014
0000b0 00 c0 77 b8 23 39 9c bd 1f 54 3b bd de 2a 28 3d
       -5.9068203e-05 -0.076280855 -0.04573452 0.041056506
0000c0 a2 43 6a 3d 77 0b 85 3d 0b b3 9d 3d bd f9 a3 3d
       0.057193406 0.06496327 0.07700165 0.08006618
0000d0 f0 54 96 bc 86 4a 8a bd 39 e6 97 bd ea f6 2c bd
       -0.018351048 -0.067524955 -0.07416958 -0.042227663
0000e0 e0 49 4f bd 2c 1a e9 3c 59 0e 35 bd 6f 67 88 3d
       -0.050607562 0.028454863 -0.044203136 0.066603534
0000f0 9b 5c 38 bd 7b d2 8c 3d 12 c1 51 3d ef 27 96 3d
       -0.04501019 0.068760835 0.051209517 0.073318355
000100 3f 0c 94 bd a9 35 a5 3d 40 89 c3 ba eb 93 97 3d
       -0.07228898 0.080668755 -0.0014918223 0.0740126
000110 32 5d 42 3d 88 06 81 bd ea e3 91 bd 0b 99 ae 3d
       0.04745216 -0.06300074 -0.07123549 0.085252844
000120 78 ae b2 bc a0 fc 7b bc 80 9d ea ba 31 35 7e bd
       -0.021811709 -0.015380055 -0.0017899722 -0.062062446
000130 20 55 65 bc fe d8 28 3d e0 a0 6c bb 46 42 a3 bd
       -0.013997346 0.041222565 -0.003610663 -0.07971625
000140 08 85 1e 3d 69 81 84 3d ff 6e 0d bd 6b 21 90 bd
       0.038701087 0.064699955 -0.034529682 -0.07037624
000150 6f 9a 9b 3d f2 79 34 3d 79 1f 9a 3d 00 b4 10 3b
       0.07597815 0.04406161 0.07525534 0.0022079945
000160 1d 00 32 bd 5d 1f 9b 3d b0 71 12 c1 e6 b8 17 c1
       -0.04345714 0.075743414 -9.152756 -9.482641
000170 72 27 1e c1 28 88 12 c1 27 a3 11 41 01 72 12 c1
       -9.88463 -9.158241 9.102332 -9.152833
000180 da fb 12 c1 ea 4c 1e 41 7e 73 11 41 66 e5 10 41
       -9.186487 9.893778 9.090696 9.0560055
000190 85 83 11 c1 3f cb 0f c1 95 05 11 c1 55 80 12 41
       -9.094609 -8.987121 -9.063863 9.156331
0001a0 23 ff 11 c1 c4 22 10 c1 1c 13 11 c1 46 91 11 41
       -9.124789 -9.008488 -9.067165 9.097967
0001b0 58 0d 12 41 ef 6b 07 c1 87 89 1a c1 2a e6 1e 41
       9.128258 -8.463851 -9.658576 9.931192
0001c0 a8 9d 1c 41 6b fc 07 41 3e 11 13 c1 a1 eb 04 41
       9.78849 8.4991255 -9.1917095 8.307527
0001d0 02 37 19 41 63 85 11 41 e1 fb 1d c1 a4 25 1e 41
       9.57593 9.095065 -9.873994 9.88419
0001e0 52 82 11 41 00 97 12 c1 01 e2 10 41 d0 07 12 c1
       9.0943165 -9.161865 9.055177 -9.126907
0001f0 a0 4c 10 c1 f2 66 10 c1 b6 33 11 41 4c 2e 11 c1
       -9.018707 -9.025133 9.075125 -9.073803
000200 fe 21 13 41 70 5c 11 41 60 8a 07 c1 e9 12 1a 41
       9.195799 9.085068 -8.471283 9.629617
000210 1e 2d 20 c1 de bc 13 c1 6e 66 1c 41 ca c1 8a bd
       -10.011015 -9.23361 9.775007 -0.067752436
000220 c5 94 99 3d f8 e9 51 bd b9 2b 8e bd 4c 7a ee 3c
       0.07499079 -0.05124852 -0.06941933 0.02911105
000230 c0 8e 3e 3b 0e 6a 35 3d 80 f2 51 3c 4c 23 c9 bc
       0.0029076785 0.044290595 0.012814164 -0.024552964
000240 7a 9d 04 3d ea cb a2 bd d3 35 12 bd 7e 44 71 3d
       0.032376744 -0.0794905 -0.035695862 0.05890321
000250 16 db 3f 3d fb 86 2b bd 1d e2 a8 3d 62 f4 5f 3d
       0.046839796 -0.041876774 0.08246253 0.05467642
000260 8e 12 2b 3d 38 15 7c bd 81 a6 51 bd fa f9 92 bd
       0.041765742 -0.061543673 -0.05118418 -0.071765855
000270 a0 f9 4d bd 1e 36 01 3d 99 b2 87 3d fd 37 94 3d
       -0.05028689 0.03154575 0.06625862 0.072372414
000280 60 26 42 bb f0 bb 11 3c ae d4 f3 bc e8 f6 82 bd
       -0.0029624924 0.008894905 -0.0297645 -0.0639475
000290 60 41 f8 3c 58 aa cc bc cc db 18 bd 48 b0 f5 bc
       0.03030461 -0.02498357 -0.03731899 -0.029991284
0002a0 44 ae 8a bd 1c 96 54 bd 1e b9 05 bd 50 8c af bc
       -0.0677152 -0.051900968 -0.032647245 -0.02142921
0002b0 9c b1 a7 bc 1f 3c a3 3d 28 59 ab bc 7a eb 2f 3d
       -0.020470433 0.079704516 -0.020916536 0.042949177
0002c0 6c d8 87 bc 77 85 9f 3d e0 bf bb bc e6 79 54 3d
       -0.01658269 0.07789128 -0.022918642 0.051874064
0002d0 ea ed 7b 3d 50 39 c6 bc 24 5c f1 3c a4 24 45 bd
       0.06150619 -0.02419725 0.029462881 -0.048130646
0002e0 b2 de 12 bd 9e 89 47 3d ea 1f 3b 3d b4 8a 91 3c
       -0.03585691 0.048715226 0.045684732 0.017766334
0002f0 c1 25 93 3d 79 7c 42 bd a8 c9 4e 3c 75 13 8d bd
       0.07184935 -0.047481988 0.012621321 -0.06888477
000300 52 da ad bd 10 d1 5b bd 3f 69 af 3d 4e 3f 51 3d
       -0.08488907 -0.053666174 0.08564996 0.051085763
000310 69 68 80 3d 3a 40 7a 3d 10 c7 33 bc 20 0d 79 3c
       0.06269915 0.061096407 -0.010972753 0.015200883
000320 ea 2c c5 bc 37 5f 49 bd a2 c8 10 bd 43 1c 4d bd
       -0.024069268 -0.04916307 -0.03534759 -0.05007578
000330 ce 6e 27 3d f0 15 24 bd bc d8 9e bc 35 02 a9 3d
       0.040877156 -0.040059984 -0.019390456 0.08252374
000340 9a a9 14 3d f8 0e 7c 3c dc 5c 84 bc 0d 30 87 3d
       0.036294557 0.015384428 -0.01615756 0.06600962
000350 30 52 af 3b 60 5a 3f 3b 60 fe 3a bd e9 9e 8f bd
       0.0053503737 0.0029198155 -0.045652747 -0.070127316
000360 42 aa 7e 3d f3 92 43 bd a9 8c 9b bd 92 cc 9f bd
       0.06217409 -0.047747564 -0.07595188 -0.078026906
000370 2c d2 9e 3c d8 3d aa bd 26 18 91 bd 10 7c ae 3c
       0.019387327 -0.08312577 -0.07084684 0.021299392
000380 da e3 26 3d 89 d4 15 c1 fa da 18 41 ec 6f 1b 41
       0.04074464 -9.364388 9.553461 9.714825
000390 24 d3 10 c1 c0 b2 10 41 0d 3e 11 41 6c 7a 10 41
       -9.051548 9.04364 9.077649 9.029888
0003a0 ae a5 14 c1 b8 db 13 41 14 87 12 41 c5 05 11 c1
       -9.290449 9.241142 9.157978 -9.063909
0003b0 57 2c 0e c1 ee 42 12 c1 7f 7c 10 41 49 76 12 c1
       -8.885825 -9.14134 9.030395 -9.153878
0003c0 e5 5e 0e c1 f4 c0 11 41 ab 6a 11 41 39 08 11 41
       -8.898168 9.109608 9.088542 9.0645075
0003d0 5a 6d 17 c1 00 e8 15 41 60 e5 14 c1 0e b5 19 c1
       -9.464197 9.369141 -9.306 -9.606703
0003e0 45 36 19 41 af 8e 11 c1 73 ee 17 41 a4 36 15 c1
       9.575749 -9.097335 9.495715 -9.32584
0003f0 f9 c7 12 41 ef 3d 18 41 d7 ee 15 c1 6d ba 11 41
       9.173821 9.5151205 -9.3708105 9.108014

atten_layer.0.bias f4 [45]
000000 41 55 0c 41 5d cd 12 41 df 04 0f 41 bb 80 11 c1
       8.770814 9.1751375 8.938689 -9.093928
000010 a0 c3 10 c1 6e 1e 12 c1 6a 43 13 c1 61 d4 10 41
       -9.04776 -9.132429 -9.2039585 9.05185
000020 c3 c9 11 c1 04 4c 11 41 45 c4 0f c1 c6 69 12 c1
       -9.111758 9.0810585 -8.985417 -9.150824
000030 98 20 12 41 a6 3b 10 c1 81 02 0f c1 9b 90 12 41
       9.132957 -9.014563 -8.938111 9.160304
000040 e8 f3 0f c1 db c1 12 c1 0e 3e 0f c1 83 12 10 c1
       -8.997047 -9.172328 -8.95265 -9.004519
000050 db 29 12 c1 87 86 13 41 36 69 10 41 89 30 12 41
       -9.135219 9.220344 9.025686 9.136849
000060 e2 7b 13 c1 33 5c 12 c1 67 88 11 c1 53 9f 11 c1
       -9.217745 -9.14751 -9.095801 -9.1013975
000070 56 bf 0f c1 4f e1 13 c1 a2 88 10 41 8d fd 11 41
       -8.984213 -9.242507 9.033358 9.124402
000080 25 f9 11 41 cf 05 12 41 98 a0 10 c1 e5 20 13 c1
       9.123326 9.126418 -9.039207 -9.195531
000090 6f 66 12 41 15 9f 10 41 a4 90 13 c1 c5 a2 10 41
       9.150008 9.038838 -9.222813 9.039739
0000a0 90 54 0f c1 eb 14 12 c1 f6 0f 12 41 a2 55 12 41
       -8.958145 -9.130107 9.128897 9.145906
0000b0 20 73 0f c1
       -8.965607

atten_layer.2.weight f4 [1, 45]
000000 7e f6 e8 40 10 f9 30 c1 cb b0 06 41 b9 eb ef c0
       7.2800894 -11.060806 8.418162 -7.4975247
000010 b1 14 fc c0 89 a7 ee c0 2d 6c 03 c1 26 fd 1e c1
       -7.877526 -7.457951 -8.21391 -9.936804
000020 d8 7d f5 c0 50 65 f8 40 9a 6e db c0 c3 df 1d 41
       -7.671612 7.7623672 -6.857251 9.867129
000030 12 75 22 c1 35 8f fa c0 9f 5d 3c 41 b3 9e 05 41
       -10.153582 -7.8299813 11.772857 8.351245
000040 d0 3e 2c 41 7b 39 22 41 0a 2b e6 c0 e4 87 e9 c0
       10.765335 10.139033 -7.192754 -7.297838
000050 1e cd 1a 41 1e cd 10 41 31 ec 0e 41 bf 02 0f 41
       9.675077 9.050077 8.932664 8.93817
000060 67 e2 16 41 cb ea 28 41 0c b7 0b c1 7b c4 05 c1
       9.430274 10.5573225 -8.732189 -8.360469
000070 6b 48 34 41 f5 0b 16 41 a4 02 0e 41 9d a7 26 c1
       11.26768 9.377919 8.875645 -10.415921
000080 8a 29 05 41 a6 cf 14 c1 88 52 24 41 c4 48 08 c1
       8.322641 -9.300695 10.270149 -8.517765
000090 c9 da 1a c1 2b d6 1e c1 18 a3 1d 41 fb 73 27 c1
       -9.678414 -9.927287 9.852318 -10.465816
0000a0 f9 b4 eb c0 37 d7 17 41 89 61 2a c1 3c 40 11 41
       -7.3658414 9.490043 -10.648812 9.078182
0000b0 58 8f ea c0
       -7.329998

lstm.weight_ih_l0 f4 [180, 45]
000000 57 64 0d 41 94 a9 13 c1 7e 58 14 c1 b6 7f 11 41
       8.836997 -9.228901 -9.271605 9.093679
000010 f4 b1 13 c1 96 92 11 41 53 91 0f 41 c8 d7 13 41
       -9.230946 9.098288 8.97298 9.240181
000020 11 c0 0e c1 09 ff 13 41 d1 89 10 41 0b c5 12 41
       -8.921891 9.249764 9.033647 9.173106
000030 ad 9b 11 41 c5 3f 11 41 01 30 12 c1 7a 10 14 41
       9.100507 9.078069 -9.13672 9.254023
000040 a5 86 10 c1 92 2c 14 c1 40 43 11 c1 d5 e6 14 41
       -9.032872 -9.260881 -9.078918 9.306355
000050 25 2c 15 c1 31 de 17 41 97 92 14 41 6d c7 11 c1
       -9.323277 9.491746 9.285789 -9.111188
000060 68 99 07 41 f7 87 15 c1 af 0c 15 41 5c d2 11 c1
       8.474953 -9.345695 9.315597 -9.113857
000070 dd 30 16 c1 7a b2 13 41 5f 2b 11 c1 49 87 13 c1
       -9.3869295 9.231073 -9.073089 -9.220529
000080 31 07 11 c1 75 f4 12 41 24 91 13 41 3f a0 13 c1
       -9.064256 9.184682 9.222935 -9.226623
000090 ca db 11 c1 3b 1b 11 41 e1 97 11 41 d1 54 13 c1
       -9.116159 9.069148 9.09958 -9.208207
0000a0 dc ef 11 c1 e9 fa 14 41 1c 65 15 c1 14 4e 13 c1
       -9.121059 9.311257 -9.337185 -9.206562
0000b0 2d d1 15 41 7c 09 14 41 8d cf 16 c1 5f 19 14 c1
       9.363568 9.2523155 -9.425672 -9.256194
0000c0 d0 93 13 41 63 b0 12 41 5e 69 12 41 67 7a 12 41
       9.223587 9.168063 9.150724 9.154883
0000d0 de af 12 41 f9 a3 10 c1 0d f1 10 41 3e ce 10 41
       9.167936 -9.040032 9.05885 9.050352
0000e0 7f 2c 10 c1 46 df 11 41 5d e4 0f c1 c3 a4 10 c1
       -9.010863 9.11701 -8.993253 -9.040225
0000f0 87 ec 0f 41 0f e0 11 c1 76 ba 0f c1 7d 5f 10 c1
       8.995246 -9.117202 -8.983023 -9.023313
000100 51 df 14 41 fe 4e 15 c1 ae 68 12 41 ac 0f 17 41
       9.304521 -9.331785 9.150557 9.441326
000110 5a 80 13 c1 0f e9 f1 c0 b2 a4 14 c1 87 98 14 41
       -9.218836 -7.5596995 -9.290209 9.287238
000120 4d 89 0f c1 9f bf 15 c1 eb 07 14 41 09 25 11 c1
       -8.971021 -9.3592825 9.251933 -9.071542
000130 13 57 13 c1 e5 17 14 c1 05 08 11 41 21 55 10 41
       -9.208758 -9.255834 9.064458 9.020783
000140 46 d7 11 c1 08 f1 11 c1 49 63 12 41 0b 13 13 41
       -9.115057 -9.1213455 9.14924 9.192149
000150 e7 6c 0f c1 da f7 11 c1 a0 bc 14 41 75 1c 12 c1
       -8.9640875 -9.123011 9.296051 -9.1319475
000160 7c 57 0d c1 c2 4f 15 41 d7 fc 0f c1 47 79 15 c1
       -8.8338585 9.331972 -8.9992285 -9.342109
000170 40 62 15 c1 df 88 10 41 7d 00 12 c1 e0 62 11 41
       -9.336487 9.033416 -9.125119 9.086639
000180 08 f3 11 c1 1e 3e 15 41 5d c2 13 c1 0e e5 12 c1
       -9.121834 9.327665 -9.234952 -9.180922
000190 b6 44 11 41 19 eb f8 c0 96 b8 12 c1 85 25 13 41
       9.079275 -7.7786984 -9.170065 9.19666
0001a0 c5 3d 10 41 32 03 10 41 a5 d3 12 41 ff 54 10 41
       9.01508 9.00078 9.176671 9.020751
0001b0 f7 a0 10 c1 6c ff 14 41 8c b8 14 c1 7d d7 12 41
       -9.039298 9.312359 -9.295055 9.177609
0001c0 ec 4d 12 41 aa 46 13 c1 8c 4d d3 c0 9c b8 12 c1
       9.144024 -9.204752 -6.603216 -9.170071
0001d0 ad e2 16 41 38 60 11 c1 84 dd 14 c1 e3 4d 14 41
       9.430341 -9.085991 -9.304081 9.269015
0001e0 91 e9 13 41 f2 b6 0f 41 b5 18 12 c1 ea df 13 41
       9.244523 8.982164 -9.131032 9.2421665
0001f0 69 ea 10 41 07 4b 12 41 65 ef 13 41 19 72 13 41
       9.057229 9.143317 9.245946 9.215356
000200 65 85 0f c1 62 37 12 c1 e3 4c 11 41 3f cd 13 41
       -8.970067 -9.138521 9.081271 9.237609
000210 60 ae 15 c1 88 eb 10 41 87 7e 12 41 e4 6e 14 41
       -9.355072 9.057503 9.15589 9.277073
000220 06 42 16 c1 03 57 15 c1 ea 7d 13 41 db bf 10 c1
       -9.391119 -9.333743 9.218241 -9.04684
000230 47 2a 10 41 c4 f9 13 41 00 c6 16 41 50 7a 10 c1
       9.010322 9.248478 9.42334 -9.029861
000240 7d 71 10 c1 6f ba 13 41 db 88 0e c1 63 63 0f 41
       -9.027707 9.233016 -8.908412 8.961764
000250 80 df 12 41 76 12 13 41 fd cd 12 41 ff a2 11 41
       9.179565 9.192007 9.17529 9.102294
000260 46 a2 0f c1 ec d4 11 c1 be 48 18 41 bd 07 14 c1
       -8.977118 -9.114483 9.517759 -9.251889
000270 e6 4a 13 41 32 aa 16 41 36 ec 17 c1 70 95 f2 40
       9.205786 9.416552 -9.495169 7.580742
000280 e4 c7 15 c1 cc 9b 15 41 9c 60 10 c1 7d c2 17 c1
       -9.361301 9.350536 -9.023586 -9.4849825
000290 53 25 16 41 8b 8e 10 c1 83 4c 14 41 81 30 10 c1
       9.384112 -9.034801 9.26868 -9.011842
0002a0 ea 1c 10 41 a3 7a 12 41 49 de 12 c1 36 d3 0f c1
       9.007059 9.154941 -9.179269 -8.989065
0002b0 82 40 0f 41 ed 7e 10 c1 b8 b8 10 c1 a4 87 12 41
       8.953249 -9.030988 -9.045097 9.158115
0002c0 ce 23 14 41 8a 8f 13 c1 01 ed 10 41 85 fe 13 41
       9.258741 -9.222544 9.057862 9.249639
0002d0 8a 3e 11 41 67 bb 15 c1 10 0d 19 c1 12 7d 10 41
       9.077768 -9.358253 -9.565689 9.030535
0002e0 5f b9 0e 41 87 d4 12 41 a4 92 11 41 c6 03 15 41
       8.920257 9.176887 9.098301 9.313421
0002f0 1a ca 13 c1 19 b5 13 c1 52 e9 10 41 83 3f 12 c1
       -9.236841 -9.231713 9.056963 -9.140506
000300 fb 04 10 41 37 a3 0d c1 36 53 14 41 c2 1b 13 41
       9.001216 -8.852347 9.270315 9.194277
000310 0c 5f 11 41 f7 e7 10 c1 14 89 0f c1 d0 55 17 41
       9.085705 -9.056632 -8.970966 9.45845
000320 71 69 18 c1 90 dd 13 41 16 a0 15 41 fc d0 17 c1
       -9.525743 9.241592 9.3515835 -9.488522
000330 04 2c 0b 41 04 76 18 c1 94 c3 16 41 7b 66 10 c1
       8.698246 -9.528812 9.422749 -9.02502
000340 e0 6c 14 c1 62 69 15 41 d6 92 11 c1 18 ac 11 41
       -9.276581 9.338228 -9.098349 9.104515
000350 29 37 12 c1 9f 54 13 41 62 7f 13 41 fd 76 10 c1
       -9.138467 9.208159 9.218599 -9.02905
000360 a4 52 10 c1 e6 ce 12 41 9b 3b 0f c1 f7 a8 12 c1
       -9.020176 9.175512 -8.952052 -9.166251
000370 23 83 13 c1 8d 46 17 41 2b fa 14 c1 f0 de 13 41
       -9.219516 9.454724 -9.311076 9.241928
000380 a8 84 14 41 6c aa 13 41 e9 ac 14 c1 ff fd 16 c1
       9.282387 9.229107 -9.292214 -9.437011
000390 d4 b8 10 41 48 6b 13 c1 ee 50 11 41 5c 8a 0f 41
       9.045124 -9.213692 9.082258 8.971279
0003a0 cd e9 13 41 06 b3 12 c1 6d 1e 14 c1 e5 8a 11 41
       9.24458 -9.168707 -9.257428 9.09641
0003b0 a9 07 07 c1 34 5e 11 41 60 bc 11 41 a1 3f 12 41
       -8.43937 9.085499 9.10849 9.140534
0003c0 b5 8e 12 41 bc 9c 10 41 4a 5e 13 c1 dd 98 12 c1
       9.159841 9.038265 -9.21052 -9.16232
0003d0 c9 8d 13 41 dd 13 15 c1 d0 99 12 41 c5 70 13 41
       9.2221155 -9.317349 9.162552 9.215032
0003e0 a4 a3 15 c1 a0 ee e7 c0 8f 35 16 c1 09 b6 12 41
       -9.352451 -7.247879 -9.388076 9.169442
0003f0 34 ad 13 c1 06 ad 15 c1 50 05 17 41 88 56 12 c1
       -9.229786 -9.354742 9.438797 -9.146126

lstm.weight_hh_l0 f4 [180, 45]
000000 10 96 73 bc 4b 1e 10 3e 37 b5 15 be e0 ef 82 3b
       -0.014867321 0.14074056 -0.14619909 0.0039958805
000010 84 f7 14 be 31 a0 b9 bd 08 e3 1d 3d 22 2c cc 3d
       -0.14547545 -0.09063757 0.038546592 0.09969355
000020 40 ef c2 bc 95 e2 07 3e 0e 7f 8a 3d aa ec 09 be
       -0.023795724 0.13270028 0.06762515 -0.13469186
000030 30 24 18 bd e0 58 b9 bc 18 8d c2 bc cc 5f 80 3d
       -0.037143886 -0.022625387 -0.02374892 0.06268272
000040 6a c5 fb 3d 46 ea cf bd 5a 5f a9 bd 94 f1 b5 bd
       0.12293513 -0.10152106 -0.0827014 -0.08883968
000050 78 83 e3 3c 6c 35 75 3d e2 84 c8 bd 18 28 a5 3d
       0.02777265 0.0598654 -0.097909704 0.08064288
000060 2a 7d 86 3d 02 a6 34 bd a4 3a 38 bd e1 a7 0e be
       0.06566842 -0.04410363 -0.0449778 -0.13931228
000070 86 e5 c2 bd cc b7 2e 3d 60 07 6f 3d a9 91 06 3e
       -0.09516434 0.04265575 0.058356643 0.13141502
000080 46 57 0d bd 14 9d ce 3d 1c 78 a9 bd 49 f9 f3 bd
       -0.03450706 0.10088554 -0.08274862 -0.11912782
000090 2e aa 02 be 24 51 c9 3d 38 5b c0 bc c2 cd f6 3d
       -0.12760231 0.098299295 -0.023480996 0.12050964
0000a0 fc f2 5e bd 6d 13 18 3e 80 1e 81 3d dd 4f 8d bd
       -0.054430947 0.1485116 0.063046455 -0.06899998
0000b0 72 82 a5 3d 90 29 17 bd ac ba cb 3d e8 e5 b5 bc
       0.08081521 -0.03690487 0.09947714 -0.022204354
0000c0 01 58 17 3e ee d3 e3 3d 02 1b 0c be 60 60 0a 3d
       0.14779665 0.11124407 -0.13682178 0.033783317
0000d0 d0 ea 46 bc 70 f1 61 bd 64 35 9c 3d 48 dd dd bc
       -0.012140945 -0.055161893 0.07627371 -0.027083054
0000e0 a0 27 5f bd 18 27 cc bd 36 c3 f0 bd 6a 07 b7 3d
       -0.05448115 -0.09968394 -0.117559835 0.08936961
0000f0 86 85 c3 3d 18 ea 9f bc fc 42 bf 3d ea 87 82 bd
       0.09546952 -0.019520804 0.09338948 -0.0637358
000100 56 c5 f8 3d 9e 92 0d bd 26 cd 8b 3d c0 13 bd 3c
       0.12147014 -0.034563653 0.06826238 0.023080707
000110 cf 51 11 3e f8 df 93 bc ea 8e f3 bd 76 ea c5 bd
       0.14191364 -0.018051133 -0.11892493 -0.096638605
000120 c0 33 be bb a8 0c 0d bd 0c da c2 bd d6 19 de bd
       -0.005804509 -0.034435898 -0.095142454 -0.108447716
000130 f1 b8 09 be a4 c3 1d bd d6 de c6 3d 28 24 b2 3c
       -0.13449456 -0.038516656 0.09710471 0.021745756
000140 00 9b 4d 3b 4d 57 17 be c0 33 f2 3b 2c fd 10 be
       0.0031372905 -0.14779396 0.007391423 -0.14159077
000150 82 b6 ca bd 54 69 92 bd ff 04 07 be c0 01 86 bc
       -0.09898092 -0.07148996 -0.131855 -0.016358256
000160 c6 a7 9e 3d b2 a5 d1 bd 67 bd 16 be 22 b4 e8 bd
       0.07746844 -0.10236682 -0.14720689 -0.113624826
000170 10 27 5a 3c 8d 6b 17 3e da c4 f1 3d c5 5a 0c 3e
       0.013314977 0.14787121 0.118051246 0.13706501
000180 40 d8 54 3b fc 75 5d 3d 80 82 2b bd 88 ef ee bd
       0.0032477528 0.054067597 -0.0418725 -0.11666781
000190 a8 37 15 3d 84 91 99 3d 4e 29 e9 3d e0 84 b1 bd
       0.03643003 0.07498458 0.11384831 -0.08667922
0001a0 48 bb c5 3c fe ba f4 bd 22 78 08 be 16 fd 8a bd
       0.024137154 -0.119497284 -0.13327077 -0.067865536
0001b0 74 ef d8 bd e5 a5 e7 bd d0 2c 39 bc 95 f7 01 be
       -0.10592547 -0.11310939 -0.011302188 -0.12692101
0001c0 e0 4d f0 bd d2 56 d3 bd d3 fe ba bd b0 8a 1f 3c
       -0.117336035 -0.10319294 -0.09130635 0.0097376555
0001d0 28 e1 8e bc 2a 1d 80 3d 58 2f c0 bc 6c b4 71 3d
       -0.017441347 0.062555626 -0.023460075 0.059009954
0001e0 ba aa 0e bd b6 b6 99 3d b0 58 84 3d 1a 78 f5 3d
       -0.034830786 0.075055525 0.06462228 0.11985798
0001f0 a8 7c e6 3c 2a f8 e8 bd 64 d1 4a 3d 80 db 43 3c
       0.028135613 -0.113754585 0.049516097 0.011954188
000200 68 cb bc bd 0e d8 82 3d 9c 51 0f 3d 78 57 b3 bc
       -0.09218484 0.063888654 0.03498994 -0.021892294
000210 c6 2f dd bd da 40 21 bd ae c6 af bd a8 07 98 3c
       -0.10800128 -0.039368488 -0.08582817 0.018558338
000220 ea 49 8b bd 80 80 e6 bb d6 4c 03 bd d8 6c 30 3d
       -0.06801207 -0.0070343614 -0.0320557 0.04307255
000230 80 26 8c 3d f8 63 ee bc 14 a5 b5 3d 08 2f 04 be
       0.06843281 -0.029100403 0.08869377 -0.12908566
000240 0b 97 11 3e 83 68 11 3e d1 bc 02 3e 8a a2 af bd
       0.14217775 0.14200024 0.1276734 -0.08575924
000250 66 99 1f bd 50 db 12 3d b4 d0 fb bd fa f1 dc 3d
       -0.03896465 0.035853684 -0.12295666 0.10788341
000260 80 b7 c8 3b fd ac 00 3e e6 fd ff bd 16 92 25 bd
       0.0061253905 0.1256599 -0.12499599 -0.04042252
000270 f2 2f 08 be 48 fb 5d bd 18 21 cd 3c 00 76 64 bb
       -0.1329954 -0.05419472 0.025040194 -0.0034860373
000280 68 4f 7a 3d 2c 09 47 bd 30 31 34 bd 39 69 e8 bd
       0.061110884 -0.04859273 -0.04399222 -0.11348195
000290 ea aa 13 be 15 75 01 3e 81 6b d3 bd f9 db f8 bd
       -0.14420667 0.1264232 -0.10323239 -0.121513315
0002a0 88 f4 0e bd 00 32 5a bc 88 47 ea 3c 2e 43 db bd
       -0.034901172 -0.013317585 0.028598562 -0.10706173
0002b0 1d 07 e1 bd ef 07 02 be 7e 02 a1 3d 94 b8 8d 3d
       -0.10987685 -0.12698339 0.078618035 0.06919971
0002c0 40 7c 88 bd 00 88 15 3b b0 60 e4 bc 54 db 15 3d
       -0.06664324 0.0022816658 -0.027878135 0.03658612
0002d0 8c a6 c0 bd cd 37 9e bd 00 e4 f4 bc 62 48 17 bd
       -0.09406766 -0.07725487 -0.029893875 -0.036934264
0002e0 aa 52 a4 bd 94 d9 e3 bd 08 f1 9c bc fa d5 f1 bd
       -0.080235794 -0.11125484 -0.019157901 -0.11808391
0002f0 54 3c fa bc 29 57 01 3e 40 87 3a 3d 70 7e 59 3c
       -0.030546345 0.12630905 0.04553914 0.013274774
000300 60 8c 1c bd 0e 09 91 3d 50 93 54 3d 4e ef a6 3d
       -0.03821981 0.07081805 0.0518983 0.081511125
000310 c4 31 9e 3d d8 56 8a 3c 40 79 bd bc 76 89 fd bd
       0.07724336 0.016887113 -0.023129106 -0.12379734
000320 1e 2c df bd 46 a0 af 3d 78 1e e8 bc f0 85 07 3c
       -0.108970866 0.085754916 -0.028334841 0.008271679
000330 ec dd 06 be 18 c8 cb bd fb 6c a8 bd ce 30 de 3d
       -0.13170594 -0.09950274 -0.082239114 0.108491525
000340 ba 23 e6 3d ee 8a 2d bd c7 bd 8a bd 5a 0f d6 3d
       0.11237283 -0.04236882 -0.067744784 0.10452147
000350 9c e7 b0 3d 6a 6b b0 bd ee 35 e9 3d cc cb 6e 3d
       0.08637926 -0.086142376 0.113872394 0.058299825
000360 b0 04 64 3c 9e 79 8b bd bc 48 c7 3d c7 e8 ae bd
       0.013917133 -0.06810306 0.0973067 -0.085404925
000370 c0 23 ed bb 51 30 d9 bd 89 e0 14 be bf b2 8e bd
       -0.0072369277 -0.10604919 -0.14538778 -0.06967687
000380 f6 02 59 bd 80 a6 76 3d b8 df b5 3d cb b6 01 be
       -0.05298134 0.06021738 0.088805616 -0.12667386
000390 ae 31 ae 3d 0e 8e db bd af 97 0e 3e 7f d9 c1 bd
       0.085055694 -0.10720454 0.1392505 -0.09465312
0003a0 c4 17 0b 3d b0 d2 3f 3d 9e 9d 07 bd 7d 93 a8 bd
       0.03395821 0.046831787 -0.0331093 -0.08231256
0003b0 0d e5 0d 3e f1 48 17 3e 51 c9 04 3e a2 c7 58 bd
       0.13856907 0.14773919 0.12967421 -0.05292476
0003c0 80 5d 50 3c f2 1b b8 bd 00 c3 0f ba af 37 ec bd
       0.012717605 -0.08989705 -0.00054840744 -0.11534058
0003d0 b8 bf 48 bd 18 d3 65 3d 28 46 bc bd 16 5e b3 bd
       -0.049010962 0.056109518 -0.09193069 -0.0875818
0003e0 1a 8b e0 3d b0 f3 57 bd 14 c3 8e bd f6 a7 8f 3d
       0.109640315 -0.052722633 -0.06970802 0.07014458
0003f0 4a ee e3 bd 0a e6 04 bd 80 d1 02 3b 9a 9d f4 3d
       -0.111294344 -0.032445945 0.0019961298 0.119441226
