Ni_prediction/savemodel/bst_mod_384.pth (torch_old, 533443 bytes, 44 tensors)

price_encoder.attention.weight f4 [1, 121]
00000000: 6c3f b640 3858 b740 5493 b440 a17a b7c0
00000010: 4d5c b2c0 9464 b240 6c16 b640 7076 b1c0
00000020: 4e85 b540 9f52 b440 024a b440 f4ae b640
00000030: 8ed8 b2c0 ead2 b4c0 f302 b5c0 9344 b340
00000040: 785d b240 f262 b3c0 2663 b040 7148 b540
00000050: 9295 b040 8ef2 b440 a78e b640 b830 b6c0
00000060: 7636 b6c0 b84d b440 e2e8 b2c0 a78d b6c0
00000070: 84e3 b5c0 7890 b3c0 0dcd b540 203a b4c0
00000080: 7cb1 b440 0890 b740 3fa5 b240 9281 b440
00000090: 9c41 b6c0 2781 b640 623f b540 023f b6c0
000000a0: 58ee b440 40a7 b740 768e b340 4a5f b640
000000b0: 57d8 b340 756f b640 a66c b640 2b71 b640
000000c0: fe84 b740 5b50 b440 d41c b340 d5ec b340
000000d0: ee12 b640 86fd b340 43ed b140 881c b540
000000e0: dacf b540 c042 b7c0 c210 b5c0 26df b740
000000f0: ac0a b340 10d7 b6c0 83b9 b5c0 16e6 b1c0
00000100: ae62 b7c0 4afa b640 30df b440 d4a8 b340
00000110: 83fc b240 7d9f b4c0 0925 b4c0 e638 b540
00000120: daa5 b540 5ede b240 000d b3c0 605a b240
00000130: a809 b3c0 d096 9540 9aed b640 08d7 b540
00000140: d6a2 b2c0 0df4 b2c0 0422 b540 54f2 b340
00000150: c426 b740 e284 b7c0 c63f b2c0 69a5 b7c0
00000160: a8b3 b640 0985 b640 3187 b740 fb4f b740
00000170: 68df b340 06ce b640 326c b3c0 17a0 b7c0
00000180: 9d73 b3c0 3298 b540 3425 b6c0 1b8b b140
00000190: cd99 b340 5504 b440 2bed b440 3912 b740
000001a0: ae50 b640 364e b340 2748 b240 b167 b640
000001b0: ce9b b640 38e6 b440 ec34 b240 740a b540
000001c0: f2ff b140 d4a8 b540 b533 b740 a63f b240
000001d0: f2fc b340 eac1 b340 5cb4 b640 c46e b540
000001e0: b36b b640
5.695242 5.729519 5.6429844 -5.7337193 -5.573767 5.5747776 5.690237 -5.5457077
5.6725225 5.6350856 5.634034 5.7088566 -5.588935 -5.6507463 -5.65661 5.602121
5.5739098 -5.6058283 5.512103 5.665093 5.518258 5.6546087 5.7049136 -5.693447
-5.694148 5.634487 -5.590928 -5.7047915 -5.684023 -5.6113853 5.6812806 -5.6320953
5.6466656 5.736332 5.5826716 5.6408167 -5.695509 5.7032657 5.663987 -5.6951914
5.6540947 5.7391663 5.6111403 5.699132 5.6201587 5.7011056 5.7007627 5.7013144
5.7349844 5.634809 5.597269 5.62266 5.6898108 5.6246977 5.5602126 5.659733
5.6816225 -5.726898 -5.6582956 5.74599 5.5950527 -5.7137527 -5.6788955 -5.5593367
-5.730796 5.718053 5.6522446 5.614359 5.593324 -5.644469 -5.629521 5.6631956
5.6764956 5.5896444 -5.595337 5.573532 -5.5949287 4.6746597 5.716504 5.682499
-5.5823774 -5.5922914 5.6604023 5.623331 5.723482 -5.734971 -5.570285 -5.7389417
5.7094307 5.7037396 5.735253 5.7285132 5.6210213 5.7126493 -5.6069574 -5.738292
-5.607863 5.6748285 -5.6920414 5.5482306 5.6125245 5.625529 5.653951 5.7209744
5.6973486 5.603297 5.5713077 5.7001576 5.706519 5.653103 5.56896 5.657526
5.5624933 5.676859 5.725062 5.5702696 5.624627 5.617421 5.7095165 5.669771
5.700647

price_encoder.encoder.weight_ih_l0 f4 [180, 45]
00000000: 1c78 cebd 3286 f1bd 1832 033d 2005 a93d
00000010: e67b 63bd a2b0 d53d 8009 a13d 0aef f9bd
00000020: b740 d4bd 4015 43bc 73f8 e1bd ceef 6cbd
00000030: bcda d9bc d840 fb3c beb2 f7bd 70ab 763c
00000040: fc9a 503d 0840 aabd 6861 b93d e6b1 eb3d
00000050: 3583 db3d 256d 8c3d f47a dabd 477d b1c0
00000060: d778 14be a5f2 17be 6b3d f9bd 5ba3 033e
00000070: 534b 083e 389a 143d 0b55 07be e0f9 fcbb
00000080: b6f8 ef3d 8f14 ae40 cb69 b340 05f8 b340
00000090: 8c7f b440 11a5 b440 e4a8 cfbe 65f4 b240
000000a0: dea3 b940 d85b b740 40e1 b240 88ba c63c
000000b0: d6bd febd 6014 00be 8a44 8f3d b52e e23d
000000c0: f267 373d f629 bc3d 9501 fe3d ac62 8dbd
000000d0: ff69 b03d d138 7a3d 706e 003d 88ee bb3d
000000e0: 50f7 a8bc fafc 8a3d 1fb8 043e 60dc 453c
000000f0: a325 11be c737 09be 60f9 9e3b 288a 06bd
00000100: 69c5 d13d bc2b 0b40 e08e 2c3d 6759 5fbd
00000110: ea69 b040 77e7 f6bd cb93 13be 7a37 f73d
00000120: 3eaf 3abd 64ac 11be 403b 4cbb 8aa9 32bd
00000130: 5754 0e3e 21bb c0bd 2e41 b240 73de b040
00000140: c11b b440 e89f b240 7c27 b940 035a 07be
00000150: 23f3 b240 87de b140 bd53 b240 cd78 b740
00000160: 103a 243d 707b 343d 8d11 d83d e554 debb
00000170: dc92 f0bd 018d e0bd 2898 e73c 176a 4d3d
00000180: 2086 853d 362f 883d a456 e1bc 8e92 abbd
00000190: c61e 06be 302e a13c 9e79 4bbd a006 cfbd
000001a0: 60f5 ba3b 58c1 883c 421f c23d 84a8 c7bd
000001b0: 1061 6c3c ce23 a5bd 742d fc3f 9306 b8bb
000001c0: 24b6 86bd 438b b340 2495 5cbd 00d2 263d
000001d0: 7e00 35bd f562 403c b703 cfbd 336e 103e
000001e0: 424c dfbd df28 103e bc1f 0ebe 9865 b840
000001f0: 53d5 b040 3cfb b340 2d15 b640 1cc0 b740
00000200: b0b2 b2c0 6b91 b340 905f b740 7802 b140
00000210: ed3c b340 94d1 6f3d 1dbc 80bd c24b c73d
00000220: 46b9 5ebd 8e17 05be 40e7 aebc 3076 20bd
00000230: b073 ed3d fa74 f73d bcf6 c13d 0a99 8dbb
00000240: 18b5 a13d 02a1 e63d b6fa ec3d f0ba c93d
00000250: e1a0 b0c0 5cea 113d 4c36 7c3d b6da 15bd
00000260: a05c 17bc 87bf 1340 5ed3 323d c2cf a1be
00000270: b6d3 88bc 1695 6c3d fdc9 b4c0 8cda 463d
00000280: 0de6 143e 40b8 83bd 3230 b6bd 52ac b5c0
00000290: 7823 af3d aa78 c73d d2cb 95c0 3432 b9bd
000002a0: 806a b8c0 dc6c b7c0 5515 b2c0 1f9a b2c0
000002b0: 7839 b7c0 7ae8 c6bd 95d1 b2c0 cd03 b5c0
000002c0: 8917 b2c0 955a b2c0 f22d a13d e86d 173d
000002d0: da3c b0bd b862 acbc 6659 ac3d 210c 0d3e
000002e0: 3c14 b13d bc20 133e 9e4c 0dbe acfe 12be
000002f0: 1e7a b4bd 6497 55bd 98df 593d 23d6 14be
00000300: 329c d8bd cff1 a6bd 805a edbb 6684 b23d
00000310: 24b1 08bd fcdc b8bd 6832 1d3d caee b2bd
00000320: 0567 a1bd 62e1 b03d 9aa1 2c3d fb06 b4c0
00000330: b249 cd3d 81c7 103e 6cf5 993d 50da df3c
00000340: 7d28 033e ca30 fa3d 4842 5d3d 0028 8cbc
00000350: 7bd8 d6bd 568c b0c0 f914 b8c0 6418 b9c0
00000360: 420e b3c0 ac20 b5c0 e049 b1bb 585a b4c0
00000370: fb67 b1c0 0d40 b0c0 ef09 b7c0 2427 a3bd
00000380: 70ee 3abc f69e 8abc 7c26 863d d0b9 743c
00000390: f8c4 1cbd 59b5 013e 6f38 163e 0ef5 caba
000003a0: df5d 183e 7ced 813d beaf e73d 70b8 06be
000003b0: 60d3 bb3d 731d bbbd 1240 b240 705b 0f3c
000003c0: 00ab f83a 7459 1f3d e81f d23c fab1 d3bd
000003d0: 2c09 9f3d 8ee7 cebd 5d40 9ebd d46f 53b9
000003e0: b8c0 b9c0 6029 de3c 952b babd 967b f23d
000003f0: d66e 1fbd a826 b540 923e 833d a1a5 0a3e
-0.10081503 -0.11793174 0.032030195 0.08252931 -0.05553808 0.10434081 0.0786314 -0.12203796
-0.10363906 -0.011906922 -0.11033716 -0.057845883 -0.026593558 0.030670568 -0.12094639 0.015055522
0.050929055 -0.08312994 0.09051782 0.11508541 0.10718385 0.06856755 -0.10667983 -5.5465426
-0.14499222 -0.14838655 -0.12169918 0.12855284 0.13309984 0.036279887 -0.13216035 -0.007720217
0.1171736 5.4400096 5.606664 5.624026 5.6405697 5.6451497 -0.4055854 5.5923333
5.8012533 5.7299614 5.5899963 0.024258867 -0.12438552 -0.12507772 0.06995495 0.11044065
0.044776864 0.09187691 0.124026455 -0.06903586 0.08613967 0.06108934 0.03135532 0.091763556
-0.02062574 0.06786533 0.12960862 0.012076467 -0.14174514 -0.13400184 0.004851505 -0.0328466
0.10242731 2.1745443 0.042128444 -0.05452862 5.512929 -0.12055867 -0.14411847 0.12071128
-0.04557728 -0.14225918 -0.0031163245 -0.043618716 0.1389936 -0.09410692 5.5704565 5.5271544
5.628388 5.58202 5.78607 -0.1321793 5.59218 5.558414 5.572722 5.733496
0.040094435 0.04406303 0.105502225 -0.0067850226 -0.11746761 -0.10964394 0.028270796 0.050150003
0.06519723 0.0664963 -0.027507134 -0.083775625 -0.13097677 0.019675344 -0.04967653 -0.101086855
0.0057055205 0.016693756 0.09478618 -0.09748939 0.014427438 -0.0806347 1.9701371 -0.005616018
-0.06577709 5.6107497 -0.05385317 0.040727615 -0.044189923 0.011742343 -0.101081304 0.14104538
-0.10903217 0.14078091 -0.13879293 5.7624016 5.5260406 5.6244183 5.690085 5.742201
-5.5843124 5.611501 5.7304153 5.5315514 5.601187 0.05854948 -0.0628588 0.097312465
-0.05437591 -0.12997267 -0.021350503 -0.039175212 0.11594331 0.120828584 0.09470889 -0.004321222
0.07895869 0.112611786 0.11571257 0.098501086 -5.5196385 0.035623893 0.06157522 -0.036585532
-0.009238392 2.308565 0.043658607 -0.3160382 -0.016702514 0.057759367 -5.649657 0.048548266
0.14540882 -0.06431627 -0.08895911 -5.677285 0.08551687 0.09739812 -4.6811304 -0.090427786
-5.7630005 -5.7320385 -5.565104 -5.5813136 -5.725765 -0.0971231 -5.5880837 -5.656714
-5.565373 -5.5735574 0.078700915 0.03697005 -0.086053565 -0.021043167 0.08415489 0.13774158
0.086464375 0.14367956 -0.13798758 -0.14354962 -0.088123545 -0.05214633 0.05319175 -0.14534812
-0.10576667 -0.0815159 -0.0072434545 0.08716659 -0.03337206 -0.090265244 0.03837815 -0.08736952
-0.078809775 0.08636738 0.042146303 -5.625852 0.10023822 0.14138605 0.07517514 0.02732578
0.12808414 0.12216337 0.05401829 -0.017108917 -0.10490509 -5.517131 -5.75256 -5.7842274
-5.5954905 -5.6602383 -0.005410418 -5.6360283 -5.543943 -5.5078187 -5.7199626 -0.0796645
-0.011409387 -0.016921502 0.06550309 0.014936879 -0.03827378 0.12666835 0.14669965 -0.0015484409
0.14879559 0.06344125 0.11312817 -0.13156295 0.09171176 -0.09136476 5.570321 0.008749828
0.001897186 0.03890367 0.02564998 -0.10336681 0.07765421 -0.10102759 -0.0772712 -0.00020164187
-5.804775 0.027119339 -0.09090344 0.118399784 -0.03892406 5.660969 0.06408419 0.13539745

price_encoder.encoder.weight_hh_l0 f4 [180, 45]
00000000: 26a1 b840 3dbf b540 c05b b140 dc64 b1c0
00000010: deb5 b440 aaf0 b240 205e b440 c6ba b8c0
00000020: 3c76 b4c0 84b2 b2c0 2bdd b7c0 4915 b740
00000030: ef05 b3c0 8106 b5c0 0274 b240 de3d b9c0
00000040: 6905 b240 690c b6c0 fc80 b040 7dfa b8c0
00000050: 2396 b040 7b51 b440 0419 b140 d850 b240
00000060: 2d15 b4c0 f64d b0c0 6068 b1c0 2d25 b340
00000070: a17d b0c0 7433 b3c0 f0e7 b140 395f b5c0
00000080: aa67 b440 2f54 b540 8b80 b440 aa6b b0c0
00000090: 3697 b3c0 083c b640 9755 b240 89c0 b940
000000a0: 5819 b840 6ae8 b240 cc4a b6c0 e729 b940
000000b0: e3f4 b7c0 9abb b8c0 9cc7 b6c0 6ff0 b4c0
000000c0: 3f7a b640 6e2d b2c0 bae3 b7c0 a18a b1c0
000000d0: f185 b7c0 2341 b340 52f3 b6c0 ab76 b240
000000e0: 9196 b9c0 93cf b040 f118 b340 7448 b5c0
000000f0: 4dc5 b840 c14f b3c0 20b4 b040 f436 b2c0
00000100: 1afa b440 dd0a b240 4fbd b7c0 7506 b2c0
00000110: 479f b5c0 b6e9 b840 2619 b740 3b3d b240
00000120: 0c8a b3c0 ef7e b040 885c b640 3228 b9c0
00000130: d1aa b640 ed8a b5c0 38aa b6c0 24f2 b1c0
00000140: d228 b140 f559 b440 61c8 b7c0 242f b1c0
00000150: 887b b7c0 c4fe b4c0 2dc0 b3c0 6cbc b640
00000160: 712a b2c0 365f b240 01dd b2c0 b2f1 b6c0
00000170: deff b8c0 7089 b540 f950 b1c0 0b94 b5c0
00000180: bbad b0c0 5074 b3c0 5808 b640 dff9 b3c0
00000190: ca6e b940 23af b3c0 fdb0 b840 8ba9 b640
000001a0: cf94 b1c0 091d b140 3ab1 b7c0 a294 b840
000001b0: 3096 b9c0 7595 b6c0 d7d4 b140 e6fc b2c0
000001c0: 160d b7c0 db21 b6c0 8824 b340 cb44 b540
000001d0: f9a3 b340 f142 b8c0 b15f b140 2889 b940
000001e0: a10a b3c0 8959 b240 eede b0c0 7502 b6c0
000001f0: acfb b6c0 2b45 b740 79fd b140 1178 b0c0
00000200: c3ec b1c0 6483 b1c0 e1b0 b0c0 9b25 b4c0
00000210: 0cd5 b440 b8ba b3c0 044e b640 f01c b840
00000220: aab1 b340 b42d b740 fa12 b6c0 e57b b640
00000230: 2d7c b140 2bac b240 40a8 b140 3855 b3c0
00000240: 2590 b740 fb14 b2c0 ecd6 b140 f958 b640
00000250: ed57 b3c0 cb7f b740 403c b5c0 b687 b140
00000260: ea0d b5c0 9bda b540 ed3b b640 ddc3 b4c0
00000270: 9ec9 b240 8bf0 b740 69e1 b540 5ca9 b0c0
00000280: 3ec5 b3c0 d836 b440 8a19 b240 2a2d b9c0
00000290: 44e7 b8c0 f773 b740 7556 b3c0 197c b240
000002a0: da34 b940 52a0 b940 0f79 b8c0 991b b2c0
000002b0: 928d b540 e7bc b240 cfea b240 6fa1 b740
000002c0: 0481 b140 5b63 b9c0 edde b140 d6ff b4c0
000002d0: 7bc7 b040 add5 b240 7a12 b940 2e43 b7c0
000002e0: 106f b040 8c6c b240 e5ae b940 1c71 b840
000002f0: eb2e b8c0 a243 b740 42f1 b5c0 5dde b440
00000300: 0806 b6c0 fbf1 b1c0 a411 b140 d5a6 b1c0
00000310: 5611 b440 595e b1c0 5d8d b140 9fae b740
00000320: 44ca b0c0 91b7 b040 7df6 b340 4e3c b940
00000330: 9a42 b4c0 9036 b3c0 5a3a b640 ccfc b640
00000340: 42cb b3c0 47d2 b0c0 794c b240 d6a4 b8c0
00000350: 649f b540 ba95 b940 5463 b840 8cd6 b1c0
00000360: e74e b4c0 5a99 b140 2cb8 b740 916b b640
00000370: 885c b340 ff0a b740 9b42 b4c0 cd6d b140
00000380: 2c15 b1c0 fd64 b340 a23d b640 b6a4 b740
00000390: ded7 b8c0 e9e8 b740 7a2e b140 6c1e b340
000003a0: 05b0 b840 f081 b3c0 8f9c b940 8af6 b3c0
000003b0: d3c9 b140 1597 b0c0 3eda b3c0 4a61 b340
000003c0: ce52 b6c0 d9b3 b840 2161 b8c0 52d7 b540
000003d0: d3d1 b840 f5e9 b1c0 4370 b340 e7db b040
000003e0: 2c93 b040 9f40 b5c0 9fd1 b5c0 3042 b040
000003f0: 9baa b840 9c83 b2c0 2818 b9c0 8370 b440
5.7696714 5.6795945 5.54245 -5.543562 5.6472006 5.591878 5.63649 -5.7727995
-5.639433 -5.5842915 -5.745748 5.7213483 -5.5944743 -5.657044 5.576661 -5.788802
5.5631604 -5.689015 5.515745 -5.780577 5.518327 5.6349463 5.5343037 5.5723686
-5.627585 -5.5095167 -5.543991 5.598288 -5.5153356 -5.600031 5.5595627 -5.667874
5.6376543 5.6665263 5.6406913 -5.5131426 -5.6122084 5.694828 5.572948 5.804753
5.7530937 5.590871 -5.6966305 5.786365 -5.7486434 -5.7729006 -5.7118664 -5.65435
5.7024226 -5.5680456 -5.7465487 -5.5481725 -5.7351003 5.6017013 -5.717202 5.576986
-5.7996297 5.5253386 5.5967946 -5.6650944 5.7740846 -5.6034856 5.521988 -5.569208
5.65553 5.563826 -5.741859 -5.563288 -5.675693 5.778529 5.72182 5.5699744
-5.6106014 5.515495 5.6987953 -5.7861567 5.7083516 -5.6732087 -5.7082787 -5.560808
5.536233 5.635981 -5.7432103 -5.5370045 -5.7338295 -5.6560993 -5.617209 5.7105007
-5.567681 5.5741224 -5.589478 -5.717004 -5.781234 5.673027 -5.5411344 -5.6743217
-5.5212073 -5.6079483 5.6885185 -5.624252 5.794774 -5.615129 5.771605 5.708196
-5.549415 5.5347943 -5.740384 5.7681437 -5.7995834 -5.7057443 5.5572314 -5.5933714
-5.7203474 -5.6916327 5.5982094 5.6646476 5.613766 -5.7581716 5.542931 5.7979927
-5.5950475 5.5734296 -5.527213 -5.6878 -5.7182217 5.7271934 5.5621915 -5.5146565
-5.5601516 -5.547289 -5.5215917 -5.6295905 5.6510067 -5.616543 5.6970234 5.7535324
5.6154375 5.724329 -5.6898165 5.702624 5.546408 5.5835166 5.5517883 -5.6041527
5.736346 -5.565061 5.5574856 5.698361 -5.604483 5.7343497 -5.6636047 5.5478163
-5.6579485 5.682935 5.694815 -5.648909 5.5871115 5.748113 5.683766 -5.5206738
-5.6178274 5.631695 5.5656176 -5.786763 -5.7782307 5.732906 -5.604304 5.5776486
5.7877016 5.8008204 -5.7647777 -5.565869 5.6735315 5.5855594 5.591163 5.7384562
5.546999 -5.7933784 5.5584626 -5.65623 5.5243506 5.5885835 5.7835054 -5.7269506
5.5135574 5.5757504 5.8025994 5.7638073 -5.7557273 5.727006 -5.6857004 5.652144
-5.688236 -5.5607886 5.5334034 -5.551615 5.627116 -5.542767 5.5485063 5.740066
-5.5246906 5.522408 5.623839 5.7886114 -5.63313 -5.6004105 5.694623 5.718359
-5.6185617 -5.5256686 5.571835 -5.7701216 5.675707 5.799527 5.762125 -5.55744
-5.6346316 5.5499697 5.741232 5.7006307 5.6050453 5.7200923 -5.6331306 5.5446534
-5.5338345 5.6060777 5.6950235 5.7388563 -5.776351 5.7471814 5.5369234 5.5974636
5.7714868 -5.6096115 5.800361 -5.623845 5.5558867 -5.5184426 -5.620391 5.605626
-5.697608 5.771954 -5.7618566 5.682534 5.7756133 -5.559809 5.607454 5.5268435
5.5179653 -5.6641383 -5.6818385 5.5080795 5.770826 -5.5785656 -5.7841988 5.6387343

price_encoder.encoder.bias_ih_l0 f4 [180]
00000000: abbe b6c0 23f5 b840 f0c4 b340 179b b2c0
00000010: 4b6a b8c0 1a89 b3c0 5eaa b740 7704 b4c0
00000020: 6914 b840 ea3c b7c0 1207 b3c0 edc1 b5c0
00000030: c146 b9c0 3249 b540 56a9 b240 7f06 b940
00000040: 9236 b7c0 d5fb b140 86ba b7c0 3388 b9c0
00000050: ec15 b6c0 715e b0c0 3f2d b5c0 7417 b440
00000060: a04c b7c0 0c59 b5c0 15e5 b1c0 b326 b440
00000070: c780 b6c0 cfec b340 42f3 b140 6b69 b9c0
00000080: 45ca b840 ad41 b7c0 a362 b2c0 97b3 b340
00000090: d48e b3c0 99c8 b9c0 89ad b0c0 a0ac b640
000000a0: 7b30 b240 b2aa ae40 b5c4 b8c0 2fa8 b340
000000b0: 1e36 b440 af78 b1c0 9c3b b940 2dca b340
000000c0: eba6 b7c0 16ce b2c0 71e6 b8c0 0855 b840
000000d0: 0d7a b5c0 2afd b540 e7de b140 f3b3 b8c0
000000e0: b7ff b1c0 b0fe b2c0 e2b2 b540 84ca b240
000000f0: 54b5 b440 f8fc b4c0 4986 b740 1777 b440
00000100: 9be3 b7c0 5373 b6c0 8fac b4c0 9a90 b1c0
00000110: d1a8 b240 9de9 b6c0 1a7e b0c0 37f2 b0c0
00000120: 7bc4 b540 e1df b7c0 b414 b440 fa97 b040
00000130: 1a88 b5c0 b3e9 b140 1e90 b5c0 3905 b7c0
00000140: c395 b340 e009 b8c0 e896 b7c0 3013 b3c0
00000150: 46e3 b640 84da b540 5a31 b4c0 3672 b3c0
00000160: 1eec b540 4ad4 b540 9b8a b040 40da b7c0
00000170: 06b1 b2c0 7bbc b9c0 6bc0 b040 6381 b540
00000180: 65c1 b6c0 1847 b440 a3ba b240 e273 b1c0
00000190: 086c b0c0 2038 b640 784b b440 1566 b240
000001a0: c502 b7c0 e74f b240 7a01 b740 fb90 b840
000001b0: fad1 b240 0aa8 b740 0aa7 b8c0 e0d0 b140
000001c0: 1022 b640 abb8 b1c0 c298 b0c0 731c b3c0
000001d0: fca5 b940 8664 b0c0 3241 b1c0 c1de b740
000001e0: 86ad b4c0 1a00 b7c0 1e7f b7c0 56f3 b240
000001f0: 414b b840 fcc6 b340 d868 b8c0 c265 b640
00000200: a86b b340 6a3a b4c0 881a b7c0 f274 b840
00000210: 79e0 b4c0 23fa b4c0 8d5a b740 4b36 b2c0
00000220: 8aa9 b540 b3ed b040 0547 b7c0 0669 b9c0
00000230: 6c66 b9c0 b45d b140 a1a1 b4c0 31d7 b840
00000240: 55b7 b1c0 1c7e b9c0 4a3b b1c0 6033 b4c0
00000250: 68a4 b740 2a61 b640 f67f b140 65bf b0c0
00000260: 9c07 b940 f85e b7c0 e960 b7c0 45dc b7c0
00000270: 4087 b2c0 405f b8c0 8254 b340 a282 b6c0
00000280: a2bd b3c0 b9df b1c0 d254 b440 eef9 b0c0
00000290: f8cd b140 108b b340 93c4 b4c0 336d b140
000002a0: 2292 b0c0 c4ea b0c0 16db b840 27d2 b7c0
000002b0: 9919 b2c0 b016 b5c0 54ab b240 d267 b240
000002c0: 387c b7c0 3dd1 b5c0 bd54 b440 ef96 b940
-5.710775 5.779924 5.61779 -5.581432 -5.762975 -5.610486 5.739547 -5.625545
5.7524915 -5.726186 -5.594613 -5.6799226 -5.789887 5.665185 5.583171 5.782043
-5.7254114 5.561991 -5.741519 -5.797876 -5.690176 -5.5115285 -5.661773 5.627863
-5.7281036 -5.66712 -5.559214 5.629724 -5.70322 5.6226573 5.5609446 -5.7941184
5.774691 -5.726767 -5.5745406 5.6156726 -5.611185 -5.805737 -5.5211835 5.7085724
5.568418 5.458337 -5.774012 5.61428 5.631606 -5.545982 5.7885265 5.6184297
-5.7391257 -5.587657 -5.77813 5.76038 -5.671149 5.687154 5.5584598 -5.7719665
-5.562465 -5.59359 5.6780863 5.587221 5.647135 -5.65588 5.735142 5.6395373
-5.746534 -5.7015777 -5.6460643 -5.5489016 5.5831075 -5.7160172 -5.5153933 -5.5295672
5.6802344 -5.746079 5.627527 5.518552 -5.672864 5.5597777 -5.6738424 -5.7193875
5.6120315 -5.7512054 -5.737171 -5.596092 5.7152433 5.6829243 -5.6310244 -5.607692
5.685073 5.682164 5.5169196 -5.745392 -5.5841093 -5.804258 5.5234885 5.6720443
-5.7111077 5.6336784 5.585283 -5.545396 -5.5131874 5.694351 5.6342125 5.574961
-5.719088 5.5722537 5.7189302 5.767698 5.588132 5.7392626 -5.7703905 5.5567474
5.691658 -5.5537925 -5.518647 -5.597223 5.801512 -5.512271 -5.5392084 5.7459416
-5.646182 -5.7187624 -5.734267 5.592204 5.7591863 5.61804 -5.7627983 5.6999216
5.6068916 -5.6321306 -5.7219887 5.7642756 -5.6524014 -5.6555343 5.7298036 -5.5691276
5.6769457 5.529016 -5.7274194 -5.7940702 -5.7937527 5.5426884 -5.64473 5.7762685
-5.5536294 -5.796644 -5.5384874 -5.6312714 5.738819 5.699361 5.54687 -5.5233636
5.782179 -5.730343 -5.73058 -5.7456384 -5.57901 -5.761627 5.604066 -5.7034464
-5.6168985 -5.55856 5.635354 -5.530509 5.5563927 5.6107254 -5.648996 5.54458
-5.5178385 -5.528658 5.776744 -5.7444034 -5.5656247 -5.6590195 5.583414 5.5751734
-5.7339134 -5.681792 5.635344 5.7996745

price_encoder.encoder.bias_hh_l0 f4 [180]
00000000: e70d b2c0 5f8e b940 20bf b840 5c12 b1c0
00000010: 874c b7c0 9c50 b4c0 92a7 b040 81ee b8c0
00000020: f113 b440 0cf2 b2c0 dc7d b3c0 0643 b1c0
00000030: 0ffb b3c0 365d b340 5c90 b740 d75d b140
00000040: 422a b8c0 d49b b240 5ad7 b6c0 dffb b0c0
00000050: 98d5 b7c0 6bf5 b5c0 c019 b4c0 bd79 b440
00000060: 4f48 b6c0 5689 b5c0 dfde b4c0 afd1 b040
00000070: 992f b4c0 c9ca b540 e7bb b240 6fe5 b8c0
00000080: 1570 b840 2da2 b4c0 23bc b7c0 6aad b540
00000090: e34b b0c0 5d64 b4c0 1732 b3c0 bff8 b640
000000a0: 018f b140 1e1f b040 27e7 b5c0 83df b040
000000b0: 7c76 b040 138c b7c0 5666 b040 d7e9 b040
000000c0: c45e b5c0 3a53 b6c0 46a3 b5c0 6cfc b540
000000d0: da09 b4c0 b27c b340 bb72 b140 b100 b5c0
000000e0: 2b13 b6c0 f78f b5c0 fc8d b540 fe5f b840
000000f0: bd01 b240 c5dd b3c0 37dd b440 66f8 b740
00000100: 310e b4c0 d8ca b8c0 759e b6c0 fc14 b6c0
00000110: 2da1 b240 8861 b6c0 88a4 b2c0 c7a8 b9c0
00000120: 4589 b040 eb71 b2c0 c24d b640 e2db b740
00000130: 3635 b4c0 1325 b140 a6b4 b3c0 bdb9 b0c0
00000140: d184 b140 f364 b7c0 6cb2 b5c0 2067 b4c0
00000150: 36e7 b840 92c7 b640 6592 b7c0 ef98 b7c0
00000160: c35f b340 f856 b840 c9eb b540 80db b8c0
00000170: b85e b7c0 d54f b1c0 95d4 b540 7fc9 b840
00000180: 3d5e b4c0 499e b640 6b53 b740 3077 b7c0
00000190: eae6 b7c0 caf0 b140 1669 b440 6789 b540
000001a0: 4b8e b4c0 6099 b140 e981 b140 d530 b840
000001b0: 8a72 b040 7c55 b640 6517 b4c0 80bc b440
000001c0: c8fe b240 17ba b2c0 688a b7c0 556c b2c0
000001d0: 2a69 b140 3dfc b5c0 fe95 b4c0 6d41 b740
000001e0: fa54 b1c0 f8e0 b0c0 32b4 b3c0 0a04 b340
000001f0: f9ce b140 d03f b540 6761 b5c0 f8f7 b040
00000200: 6aaa b040 fec1 b5c0 a0d5 b3c0 0476 b740
00000210: 0b48 b5c0 1655 b8c0 d39d b740 5b67 b9c0
00000220: 708d b740 1b9d b840 738e b9c0 b4a8 b2c0
00000230: 8ee4 b2c0 bc48 b240 79f3 b0c0 9c84 b740
00000240: 415f b9c0 ae3b b6c0 806d b3c0 b214 b9c0
00000250: 94e7 b040 453c b440 344e b140 041b b4c0
00000260: 927d b240 b871 b6c0 fd4f b1c0 071d b1c0
00000270: 4e57 b1c0 ce8e b3c0 1359 b940 cee5 b0c0
00000280: e4c5 b7c0 bab2 b3c0 7455 b440 040a b8c0
00000290: b807 b340 0c17 b440 6164 b8c0 e313 b540
000002a0: 8549 b7c0 7be5 b8c0 3c67 b340 d9c8 b1c0
000002b0: 652e b9c0 411f b9c0 24f1 b640 0893 b240
000002c0: 887c b6c0 2787 b7c0 9065 b740 a97f b540
-5.564197 5.7986293 5.7733307 -5.533491 -5.7280917 -5.63484 5.5204554 -5.7791142
5.6274343 -5.5920467 -5.6091137 -5.5394316 -5.624397 5.6051283 5.736372 5.542705
-5.7551584 5.581522 -5.713788 -5.530746 -5.7448235 -5.6862082 -5.6281433 5.6398606
-5.6963267 -5.6730146 -5.652206 5.525596 -5.6308103 5.681004 5.5854373 -5.778007
5.763682 -5.644797 -5.741716 5.6774187 -5.5092635 -5.6372514 -5.5998645 5.7178645
5.5487065 5.5037985 -5.684467 5.527284 5.5144634 -5.735849 5.512492 5.528545
-5.667818 -5.6976595 -5.676181 5.687063 -5.6262026 5.6089716 5.545255 -5.6563344
-5.68984 -5.673824 5.673582 5.761718 5.562712 -5.6208215 5.652004 5.749072
-5.6267323 -5.774761 -5.706843 -5.6900616 5.582175 -5.6994057 -5.5825844 -5.8018527
5.5167565 -5.576406 5.696992 5.745591 -5.6314955 5.5357757 -5.615802 -5.522673
5.547463 -5.731073 -5.67803 -5.6375885 5.778224 5.7118616 -5.7366204 -5.7374187
5.6054397 5.7606163 5.6850324 -5.7767944 -5.7303123 -5.540995 5.6822 5.7745967
-5.6365037 5.706822 5.728933 -5.7332993 -5.7469378 5.560643 5.637828 5.6730227
-5.6423697 5.5499725 5.547108 5.755961 5.513982 5.697935 -5.627856 5.6480103
5.593601 -5.585216 -5.7356453 -5.575724 5.5440874 -5.687041 -5.6433096 5.7267365
-5.541623 -5.527462 -5.6157465 5.594243 5.556515 5.6640396 -5.66814 5.5302696
5.5208025 -5.6799307 -5.6198273 5.733156 -5.6650443 -5.7603865 5.7380157 -5.7938666
5.7360153 5.769178 -5.798639 -5.5830936 -5.5903997 5.5713787 -5.529721 5.7349377
-5.7928777 -5.694785 -5.6071167 -5.7837763 5.528269 5.632357 5.5407963 -5.628298
5.5778284 -5.7013817 -5.541014 -5.5347934 -5.5419073 -5.611182 5.7921233 -5.5280523
-5.7429066 -5.615567 5.6354313 -5.7512226 5.594692 5.6278133 -5.7622533 5.6586776
-5.7277246 -5.7780128 5.606352 -5.5557675 -5.7869134 -5.785065 5.716936 5.580448
-5.7027016 -5.735248 5.731148 5.6718335

atten_layer.0.weight f4 [45, 135]
00000000: c052 bcbb 40cb d33b 10c0 bfbc 5849 8dbc
00000010: 6717 ab3d 3622 4b3d d9b8 42bd 3d6c 05bd
00000020: f650 523d 2b99 a33d 5ccd c83c 1d5d 973d
00000030: 3ca7 90bc 4e36 5b3d 80fe 68ba 8dca 01bd
00000040: 14e6 bfbc c45c dd3c 8e32 373d c081 323b
00000050: 58d2 8dbc fa02 fcbc 8087 31bb 39f2 af3d
00000060: f800 dc3c ca41 a9bd f04b 9fbc 801b 053d
00000070: 0782 a8bd 12a7 633d 647b 6abd 89eb 90bd
00000080: 6c25 2fbd 20a2 403b de57 81bd d087 d5bb
00000090: b81c 79bd 50e5 3fbc 30cc a8bd 237b 07bd
000000a0: 6033 80bb 19d4 a53d b146 afbd 6066 03bc
000000b0: 00c0 77b8 2339 9cbd 1f54 3bbd de2a 283d
000000c0: a243 6a3d 770b 853d 0bb3 9d3d bdf9 a33d
000000d0: f054 96bc 864a 8abd 39e6 97bd eaf6 2cbd
000000e0: e049 4fbd 2c1a e93c 590e 35bd 6f67 883d
000000f0: 9b5c 38bd 7bd2 8c3d 12c1 513d ef27 963d
00000100: 3f0c 94bd a935 a53d 4089 c3ba eb93 973d
00000110: 325d 423d 8806 81bd eae3 91bd 0b99 ae3d
00000120: 78ae b2bc a0fc 7bbc 809d eaba 3135 7ebd
00000130: 2055 65bc fed8 283d e0a0 6cbb 4642 a3bd
00000140: 0885 1e3d 6981 843d ff6e 0dbd 6b21 90bd
00000150: 6f9a 9b3d f279 343d 791f 9a3d 00b4 103b
00000160: 1d00 32bd 5d1f 9b3d 0cbc b6c0 2e49 c1c0
00000170: b524 cec0 f7e8 b6c0 2d1f b540 aebc b6c0
00000180: 3ed0 b7c0 9b6f ce40 e7bf b440 d9a3 b340
00000190: f0df b4c0 d06f b1c0 2ee4 b3c0 53d9 b640
000001a0: 10d7 b5c0 c41e b2c0 39ff b3c0 70fb b440
000001b0: 77f3 b540 3cb3 a0c0 c1e9 c6c0 f7a1 cf40
000001c0: 8011 cb40 0fd4 a140 01fb b7c0 3ab3 9b40
000001d0: 0945 c440 ace3 b440 9ccd cdc0 1921 ce40
000001e0: 8bdd b440 a306 b7c0 109d b340 65e8 b5c0
000001f0: 7272 b2c0 10a7 b2c0 6640 b440 9335 b4c0
00000200: 7d1c b840 d091 b440 14f0 a0c0 a4fc c540
00000210: 8d2f d2c0 1652 b9c0 1aa3 ca40 cac1 8abd
00000220: c594 993d f8e9 51bd b92b 8ebd 4c7a ee3c
00000230: c08e 3e3b 0e6a 353d 80f2 513c 4c23 c9bc
00000240: 7a9d 043d eacb a2bd d335 12bd 7e44 713d
00000250: 16db 3f3d fb86 2bbd 1de2 a83d 62f4 5f3d
00000260: 8e12 2b3d 3815 7cbd 81a6 51bd faf9 92bd
00000270: a0f9 4dbd 1e36 013d 99b2 873d fd37 943d
00000280: 6026 42bb f0bb 113c aed4 f3bc e8f6 82bd
00000290: 6041 f83c 58aa ccbc ccdb 18bd 48b0 f5bc
000002a0: 44ae 8abd 1c96 54bd 1eb9 05bd 508c afbc
000002b0: 9cb1 a7bc 1f3c a33d 2859 abbc 7aeb 2f3d
000002c0: 6cd8 87bc 7785 9f3d e0bf bbbc e679 543d
000002d0: eaed 7b3d 5039 c6bc 245c f13c a424 45bd
000002e0: b2de 12bd 9e89 473d ea1f 3b3d b48a 913c
000002f0: c125 933d 797c 42bd a8c9 4e3c 7513 8dbd
00000300: 52da adbd 10d1 5bbd 3f69 af3d 4e3f 513d
00000310: 6968 803d 3a40 7a3d 10c7 33bc 200d 793c
00000320: ea2c c5bc 375f 49bd a2c8 10bd 431c 4dbd
00000330: ce6e 273d f015 24bd bcd8 9ebc 3502 a93d
00000340: 9aa9 143d f80e 7c3c dc5c 84bc 0d30 873d
00000350: 3052 af3b 605a 3f3b 60fe 3abd e99e 8fbd
00000360: 42aa 7e3d f392 43bd a98c 9bbd 92cc 9fbd
00000370: 2cd2 9e3c d83d aabd 2618 91bd 107c ae3c
00000380: dae3 263d ea80 bdc0 0f8d c340 53b6 c840
00000390: 597f b3c0 983e b340 1155 b440 ffcd b240
000003a0: 7e23 bbc0 c58f b940 cfe6 b640 90e4 b3c0
000003b0: 6432 aec0 945e b6c0 24d2 b240 3ec5 b6c0
000003c0: 7497 aec0 c15a b540 44ae b440 78e9 b340
000003d0: 28b2 c0c0 d4a7 bd40 d3a2 bbc0 0341 c5c0
000003e0: 8e43 c440 42f6 b4c0 3bb4 c140 4945 bcc0
000003f0: 8968 b740 2053 c240 81b5 bdc0 b24d b540
-0.0057471693 0.0064634383 -0.023407012 -0.017246887 0.08354073 0.049593173 -0.047539566 -0.032573927
0.05134674 0.07988199 0.024511985 0.07390807 -0.017657869 0.053518586 -0.0008888021 -0.031687308
-0.02342514 0.027021773 0.044725947 0.0027237982 -0.017312214 -0.030763138 -0.002708882 0.08591122
0.02685593 -0.082645014 -0.01944539 0.03249693 -0.08227926 0.055579253 -0.05724658 -0.07076175
-0.042760298 0.002939351 -0.063155875 -0.0065164343 -0.060818404 -0.011712387 -0.08242071 -0.033076417
-0.0039123744 0.08097095 -0.08558405 -0.008020014 -5.9068203e-05 -0.076280855 -0.04573452 0.041056506
0.057193406 0.06496327 0.07700165 0.08006618 -0.018351048 -0.067524955 -0.07416958 -0.042227663
-0.050607562 0.028454863 -0.044203136 0.066603534 -0.04501019 0.068760835 0.051209517 0.073318355
-0.07228898 0.080668755 -0.0014918223 0.0740126 0.04745216 -0.06300074 -0.07123549 0.085252844
-0.021811709 -0.015380055 -0.0017899722 -0.062062446 -0.013997346 0.041222565 -0.003610663 -0.07971625
0.038701087 0.064699955 -0.034529682 -0.07037624 0.07597815 0.04406161 0.07525534 0.0022079945
-0.04345714 0.075743414 -5.710455 -6.040183 -6.441981 -5.715938 5.6600556 -5.710532
-5.74417 6.4511237 5.6484256 5.613751 -5.652336 -5.544899 -5.621604 5.714029
-5.6825027 -5.5662556 -5.624905 5.655693 5.68597 -5.021879 -6.2160344 6.488521
6.345886 5.057136 -5.74939 4.8656282 6.133427 5.652792 -6.431349 6.4415402
5.652044 -5.71956 5.6129227 -5.6846185 -5.5764704 -5.5828934 5.632861 -5.63154
5.7534776 5.6427994 -5.0293064 6.18709 -6.5683045 -5.7912703 6.33241 -0.067752436
0.07499079 -0.05124852 -0.06941933 0.02911105 0.0029076785 0.044290595 0.012814164 -0.024552964
0.032376744 -0.0794905 -0.035695862 0.05890321 0.046839796 -0.041876774 0.08246253 0.05467642
0.041765742 -0.061543673 -0.05118418 -0.071765855 -0.05028689 0.03154575 0.06625862 0.072372414
-0.0029624924 0.008894905 -0.0297645 -0.0639475 0.03030461 -0.02498357 -0.03731899 -0.029991284
-0.0677152 -0.051900968 -0.032647245 -0.02142921 -0.020470433 0.079704516 -0.020916536 0.042949177
-0.01658269 0.07789128 -0.022918642 0.051874064 0.06150619 -0.02419725 0.029462881 -0.048130646
-0.03585691 0.048715226 0.045684732 0.017766334 0.07184935 -0.047481988 0.012621321 -0.06888477
-0.08488907 -0.053666174 0.08564996 0.051085763 0.06269915 0.061096407 -0.010972753 0.015200883
-0.024069268 -0.04916307 -0.03534759 -0.05007578 0.040877156 -0.040059984 -0.019390456 0.08252374
0.036294557 0.015384428 -0.01615756 0.06600962 0.0053503737 0.0029198155 -0.045652747 -0.070127316
0.06217409 -0.047747564 -0.07595188 -0.078026906 0.019387327 -0.08312577 -0.07084684 0.021299392
0.04074464 -5.9219866 6.110969 6.2722564 -5.6092954 5.601391 5.635384 5.587646
-5.8480825 5.7988 5.715675 -5.6216507 -5.443651 -5.699045 5.588152 -5.7115774
-5.455988 5.6673284 5.6462727 5.6222496 -6.0217476 5.926737 -5.863626 -6.164186
6.1332464 -5.655061 6.053251 -5.8834577 5.7315106 6.072647 -5.9284062 5.6657343

atten_layer.0.bias f4 [45]
00000000: ae84 aa40 5073 b740 3fe3 af40 5dda b4c0
00000010: 5460 b3c0 9d15 b6c0 4c5f b8c0 d481 b340
00000020: 5c6c b5c0 fb70 b440 dd61 b1c0 3aac b6c0
00000030: f119 b640 8150 b2c0 86de afc0 dcf9 b640
00000040: 17c1 b1c0 505c b7c0 9155 b0c0 45fe b1c0
00000050: 742c b6c0 77e5 b840 98ab b240 cf39 b640
00000060: 31d0 b8c0 1791 b6c0 b3e9 b4c0 8617 b5c0
00000070: 0058 b1c0 f09a b9c0 68ea b240 e3d3 b540
00000080: 13cb b540 65e4 b540 4d1a b3c0 4a1a b8c0
00000090: 8ca5 b640 4717 b340 aff9 b8c0 a71e b340
000000a0: 8f82 b0c0 9a02 b6c0 aff8 b540 f783 b640
000000b0: a8bf b0c0
5.3286963 5.732826 5.49649 -5.6516557 -5.605509 -5.6901383 -5.761633 5.609598
-5.6694775 5.6387916 -5.543196 -5.7085238 5.6906667 -5.572327 -5.4959135 5.7180004
-5.5548205 -5.7300186 -5.510445 -5.5622888 -5.6929264 5.778011 5.5834465 5.6945567
-5.775414 -5.705211 -5.6535277 -5.6591215 -5.541992 -5.8001633 5.591114 5.682115
5.6810393 5.68413 -5.5969605 -5.753209 5.7077084 5.5965915 -5.780479 5.5974917
-5.5159373 -5.6878176 5.686607 5.703609 -5.5233955

atten_layer.2.weight f4 [1, 45]
00000000: 58a7 7540 59c3 f3c0 213d 9f40 e7c8 81c0
00000010: dff1 8dc0 b784 80c0 b1b4 98c0 e7cf cfc0
00000020: 065b 87c0 7e42 8a40 9097 5ac0 6895 cd40
00000030: e8be d6c0 636c 8cc0 7d45 0541 3319 9d40
00000040: 0050 ea40 c947 d640 6f10 70c0 24ca 76c0
00000050: de70 c740 5173 b340 e9b1 af40 00df af40
00000060: 659c bf40 c6a8 e340 6848 a9c0 ba64 9dc0
00000070: 4061 fa40 b5ef bd40 0adf ad40 f822 dfc0
00000080: fd2e 9c40 6377 bbc0 5f79 da40 af6c a2c0
00000090: 308c c7c0 fc81 cfc0 201c cd40 82bb e0c0
000000a0: 4d24 7bc0 c985 c140 e695 e6c0 6e59 b440
000000b0: 0bd9 78c0
3.8383389 -7.617596 4.976212 -4.055774 -4.4357753 -4.0162005 -4.772057 -6.4941287
-4.2298613 4.3206167 -3.4155006 6.424488 -6.710804 -4.388231 8.329465 4.909326
7.3222656 6.696263 -3.751003 -3.8560877 6.2325277 5.6078267 5.4904675 5.4959717
5.987841 7.114352 -5.2900887 -4.9185457 7.8243713 5.935511 5.4334764 -6.9730186
4.880736 -5.8583236 6.827316 -5.075767 -6.2358627 -6.484617 6.409683 -7.022889
-3.9240906 6.047581 -7.205798 5.6359167 -3.8882473

lstm.weight_ih_l0 f4 [180, 45]
00000000: 98a2 ac40 882b b9c0 3189 bac0 53d8 b440
00000010: 453c b9c0 0ffe b440 06fc b040 e487 b940
00000020: b459 afc0 5cd6 b940 c5ec b240 af62 b740
00000030: 3910 b540 8158 b440 c038 b6c0 3af9 b940
00000040: 6de6 b2c0 6331 bac0 775f b4c0 bca5 bb40
00000050: 4c30 bcc0 ba93 c140 54fd ba40 b067 b5c0
00000060: 220e a140 dae7 bcc0 68f1 bb40 8b7d b5c0
00000070: 7c39 bec0 513d b940 ba2f b4c0 fae6 b8c0
00000080: 66e7 b3c0 76c1 b740 adfa b840 df18 b9c0
00000090: 6590 b5c0 760f b440 a408 b540 1682 b8c0
000000a0: 85b8 b5c0 e1cd bb40 2ba2 bcc0 9d74 b8c0
000000b0: 327a bd40 41eb b940 b476 bfc0 040b bac0
000000c0: 0600 b940 6339 b740 6bab b640 78cd b640
000000d0: 5838 b740 0f21 b3c0 26bb b340 8f75 b340
000000e0: 3a32 b2c0 5c97 b540 08a2 b1c0 a222 b3c0
000000f0: 58b2 b140 ed98 b5c0 414e b1c0 2a98 b2c0
00000100: b896 bb40 f475 bcc0 0baa b640 e3f6 bf40
00000110: 1ed9 b8c0 3dc6 83c0 8921 bbc0 3509 bb40
00000120: fceb b0c0 1d57 bdc0 1fe8 b940 0e23 b4c0
00000130: 9b86 b8c0 0f08 bac0 10e9 b340 7283 b240
00000140: 5d87 b5c0 dcba b5c0 449f b640 9afe b740
00000150: 36b3 b0c0 7dc8 b5c0 5f51 bb40 aa11 b6c0
00000160: e488 acc0 7f77 bc40 f5d2 b1c0 7cca bcc0
00000170: 759c bcc0 e2ea b240 c2d9 b5c0 ad9e b440
00000180: dabe b5c0 3954 bc40 145d b9c0 aca2 b7c0
00000190: 6162 b440 30d0 8ac0 c749 b7c0 8c23 b840
000001a0: bf54 b240 a9df b140 dd7f b740 2d83 b240
000001b0: 0c1b b3c0 e4d6 bb40 3749 bbc0 8d87 b740
000001c0: 8d74 b640 cd65 b8c0 7355 4ac0 d549 b7c0
000001d0: f19c bf40 6099 b4c0 1d93 bbc0 0074 ba40
000001e0: 74ab b940 3a47 b140 2b0a b6c0 2998 b940
000001f0: ddad b340 c66e b640 19b7 b940 a2bc b840
00000200: 2de4 b0c0 7d47 b6c0 b972 b440 d472 b940
00000210: a234 bdc0 1bb0 b340 b6d5 b640 f8b5 ba40
00000220: c95b bec0 fd85 bcc0 3fd4 b840 cb58 b3c0
00000230: c82d b240 d5cb b940 9e63 bf40 c7cd b2c0
00000240: 24bc b2c0 3b4d b940 58eb aec0 30a0 b040
00000250: 9097 b740 70fd b740 9074 b740 dc1e b540
00000260: e71d b1c0 a982 b5c0 bc68 c240 c3e7 b9c0
00000270: 456e b840 082c bf40 c2af c1c0 f081 8440
00000280: a467 bdc0 810f bd40 659a b2c0 5b5c c1c0
00000290: 6b22 be40 3af6 b2c0 3e71 ba40 3a3a b2c0
000002a0: 1113 b240 f2cd b640 2495 b7c0 bd7f b1c0
000002b0: 795a b040 00d7 b2c0 884a b3c0 f0e7 b640
000002c0: df1f ba40 79f7 b8c0 0cb3 b340 56d5 b940
000002d0: 0a56 b440 ae4e bdc0 2ef1 c3c0 49d3 b240
000002e0: 534c af40 a181 b740 2cfe b440 99df bb40
000002f0: 8b6c b9c0 8f42 b9c0 b0ab b340 be57 b6c0
00000300: 3ae3 b140 4520 adc0 a37e ba40 0810 b840
00000310: 0997 b440 faa8 b3c0 8aeb b0c0 1a83 c040
00000320: 18aa c2c0 7393 b940 1118 bd40 5479 c1c0
00000330: 7b32 a840 3dc3 c2c0 c55e bf40 22a6 b2c0
00000340: efb1 bac0 b6aa bc40 8efe b4c0 0b31 b540
00000350: 0c47 b6c0 b481 b840 2dd7 b840 24c7 b2c0
00000360: 787e b2c0 6376 b740 ab50 b0c0 8d2a b7c0
00000370: aede b8c0 9964 c040 65cc bbc0 3296 b940
00000380: 7ae1 ba40 392d b940 f331 bbc0 8fd3 bfc0
00000390: bf4a b340 ffae b8c0 cf7a b440 1aee b040
000003a0: ebab b940 a73e b7c0 1f15 bac0 aeee b440
000003b0: 4deb 9fc0 5895 b440 9851 b540 f957 b640
000003c0: 0ff6 b640 9612 b340 0695 b8c0 5c0a b7c0
000003d0: f9f3 b840 c2ff bbc0 410c b740 fab9 b840
000003e0: 2d1f bdc0 9c97 73c0 e042 bec0 ae44 b740
000003f0: c832 b9c0 ed31 bdc0 2de2 bf40 c585 b6c0
5.394848 -5.786564 -5.829247 5.651407 -5.788607 5.656013 5.5307646 5.797838
-5.4797 5.807417 5.5914025 5.7307963 5.6582303 5.6358037 -5.6944275 5.811673
-5.590628 -5.8185287 -5.6366534 5.8639812 -5.8808956 6.049283 5.843424 -5.668907
5.032975 -5.903302 5.8732185 -5.671575 -5.944517 5.788735 -5.630826 -5.7781954
-5.621997 5.742366 5.7806 -5.784286 -5.6738763 5.6268873 5.657305 -5.7658796
-5.6787744 5.8688817 -5.894796 -5.764235 5.9211664 5.8099675 -5.98324 -5.8138447
5.781253 5.725755 5.708425 5.7125816 5.725628 -5.5977855 5.6165953 5.6081004
-5.568631 5.6747265 -5.551029 -5.5979776 5.5530205 -5.6749177 -5.5408025 -5.5810747
5.8621483 -5.8893986 5.708257 5.9988875 -5.7765036 -4.117949 -5.8478436 5.844874
-5.5288067 -5.916884 5.809585 -5.629279 -5.7664313 -5.8134837 5.6222 5.5785456
-5.672774 -5.67906 5.7069416 5.7498293 -5.5218763 -5.6807237 5.853683 -5.6896563
-5.3917103 5.889587 -5.5570016 -5.8997173 -5.8940988 5.591172 -5.682832 5.6443696
-5.6795473 5.885281 -5.792612 -5.7386074 5.637009 -4.3379135 -5.727756 5.754339
5.572845 5.5585523 5.7343583 5.5785127 -5.5970516 5.869982 -5.8526874 5.7352967
5.7017274 -5.762427 -3.1614654 -5.7277627 5.987908 -5.6437225 -5.861708 5.82666
5.8021793 5.5399446 -5.688741 5.799824 5.6149735 5.701022 5.803601 5.7730265
-5.5278535 -5.6962266 5.639004 5.795267 -5.912675 5.6152472 5.7135878 5.834713
-5.9487042 -5.891356 5.775909 -5.604589 5.5680885 5.806132 5.9809103 -5.5876193
-5.5854664 5.7906775 -5.4662285 5.519554 5.7372513 5.749687 5.732979 5.660017
-5.5349 -5.6721997 6.075285 -5.809541 5.7634606 5.974125 -6.052705 4.1408615
-5.9189014 5.9081426 -5.581347 -6.042524 5.9417014 -5.592557 5.8263235 -5.5696077
5.5648274 5.71264 -5.7369556 -5.546843 5.511044 -5.588745 -5.602848 5.7158127
5.8163905 -5.780209 5.6156063 5.807292 5.635503 -5.9158545 -6.123191 5.5882916
5.478067 5.734574 5.656027 5.8710446 -5.7945 -5.789375 5.614708 -5.6982107
5.5589876 -5.410189 5.8279586 5.751957 5.643437 -5.614377 -5.5287523 6.0160036
-6.0832634 5.799249 5.909188 -6.0460606 5.256162 -6.086333 5.9803185 -5.58278
-5.8342204 5.8958387 -5.6560736 5.6622367 -5.6961727 5.765833 5.7762666 -5.586809
-5.577938 5.7332015 -5.509847 -5.723944 -5.7771826 6.01228 -5.8687005 5.7995844
5.840024 5.7867703 -5.8498473 -5.994575 5.6028743 -5.771362 5.6399913 5.529065
5.802236 -5.726398 -5.8150783 5.6541357 -4.9974732 5.6432304 5.66621 5.698239
5.7175364 5.596019 -5.7681913 -5.7200146 5.779782 -5.8749704 5.720246 5.772702
-5.9100556 -3.8061285 -5.9456635 5.7271338 -5.787449 -5.9123445 5.9963593 -5.7038293

lstm.weight_hh_l0 f4 [180, 45]
00000000: 1096 73bc 4b1e 103e 37b5 15be e0ef 823b
00000010: 84f7 14be 31a0 b9bd 08e3 1d3d 222c cc3d
00000020: 40ef c2bc 95e2 073e 0e7f 8a3d aaec 09be
00000030: 3024 18bd e058 b9bc 188d c2bc cc5f 803d
00000040: 6ac5 fb3d 46ea cfbd 5a5f a9bd 94f1 b5bd
00000050: 7883 e33c 6c35 753d e284 c8bd 1828 a53d
00000060: 2a7d 863d 02a6 34bd a43a 38bd e1a7 0ebe
00000070: 86e5 c2bd ccb7 2e3d 6007 6f3d a991 063e
00000080: 4657 0dbd 149d ce3d 1c78 a9bd 49f9 f3bd
00000090: 2eaa 02be 2451 c93d 385b c0bc c2cd f63d
000000a0: fcf2 5ebd 6d13 183e 801e 813d dd4f 8dbd
000000b0: 7282 a53d 9029 17bd acba cb3d e8e5 b5bc
000000c0: 0158 173e eed3 e33d 021b 0cbe 6060 0a3d
000000d0: d0ea 46bc 70f1 61bd 6435 9c3d 48dd ddbc
000000e0: a027 5fbd 1827 ccbd 36c3 f0bd 6a07 b73d
000000f0: 8685 c33d 18ea 9fbc fc42 bf3d ea87 82bd
00000100: 56c5 f83d 9e92 0dbd 26cd 8b3d c013 bd3c
00000110: cf51 113e f8df 93bc ea8e f3bd 76ea c5bd
00000120: c033 bebb a80c 0dbd 0cda c2bd d619 debd
00000130: f1b8 09be a4c3 1dbd d6de c63d 2824 b23c
00000140: 009b 4d3b 4d57 17be c033 f23b 2cfd 10be
00000150: 82b6 cabd 5469 92bd ff04 07be c001 86bc
00000160: c6a7 9e3d b2a5 d1bd 67bd 16be 22b4 e8bd
00000170: 1027 5a3c 8d6b 173e dac4 f13d c55a 0c3e
00000180: 40d8 543b fc75 5d3d 8082 2bbd 88ef eebd
00000190: a837 153d 8491 993d 4e29 e93d e084 b1bd
000001a0: 48bb c53c feba f4bd 2278 08be 16fd 8abd
000001b0: 74ef d8bd e5a5 e7bd d02c 39bc 95f7 01be
000001c0: e04d f0bd d256 d3bd d3fe babd b08a 1f3c
000001d0: 28e1 8ebc 2a1d 803d 582f c0bc 6cb4 713d
000001e0: baaa 0ebd b6b6 993d b058 843d 1a78 f53d
000001f0: a87c e63c 2af8 e8bd 64d1 4a3d 80db 433c
00000200: 68cb bcbd 0ed8 823d 9c51 0f3d 7857 b3bc
00000210: c62f ddbd da40 21bd aec6 afbd a807 983c
00000220: ea49 8bbd 8080 e6bb d64c 03bd d86c 303d
00000230: 8026 8c3d f863 eebc 14a5 b53d 082f 04be
00000240: 0b97 113e 8368 113e d1bc 023e 8aa2 afbd
00000250: 6699 1fbd 50db 123d b4d0 fbbd faf1 dc3d
00000260: 80b7 c83b fdac 003e e6fd ffbd 1692 25bd
00000270: f22f 08be 48fb 5dbd 1821 cd3c 0076 64bb
00000280: 684f 7a3d 2c09 47bd 3031 34bd 3969 e8bd
00000290: eaaa 13be 1575 013e 816b d3bd f9db f8bd
000002a0: 88f4 0ebd 0032 5abc 8847 ea3c 2e43 dbbd
000002b0: 1d07 e1bd ef07 02be 7e02 a13d 94b8 8d3d
000002c0: 407c 88bd 0088 153b b060 e4bc 54db 153d
000002d0: 8ca6 c0bd cd37 9ebd 00e4 f4bc 6248 17bd
000002e0: aa52 a4bd 94d9 e3bd 08f1 9cbc fad5 f1bd
000002f0: 543c fabc 2957 013e 4087 3a3d 707e 593c
00000300: 608c 1cbd 0e09 913d 5093 543d 4eef a63d
00000310: c431 9e3d d856 8a3c 4079 bdbc 7689 fdbd
00000320: 1e2c dfbd 46a0 af3d 781e e8bc f085 073c
00000330: ecdd 06be 18c8 cbbd fb6c a8bd ce30 de3d
00000340: ba23 e63d ee8a 2dbd c7bd 8abd 5a0f d63d
00000350: 9ce7 b03d 6a6b b0bd ee35 e93d cccb 6e3d
00000360: b004 643c 9e79 8bbd bc48 c73d c7e8 aebd
00000370: c023 edbb 5130 d9bd 89e0 14be bfb2 8ebd
00000380: f602 59bd 80a6 763d b8df b53d cbb6 01be
00000390: ae31 ae3d 0e8e dbbd af97 0e3e 7fd9 c1bd
000003a0: c417 0b3d b0d2 3f3d 9e9d 07bd 7d93 a8bd
000003b0: 0de5 0d3e f148 173e 51c9 043e a2c7 58bd
000003c0: 805d 503c f21b b8bd 00c3 0fba af37 ecbd
000003d0: b8bf 48bd 18d3 653d 2846 bcbd 165e b3bd
000003e0: 1a8b e03d b0f3 57bd 14c3 8ebd f6a7 8f3d
000003f0: 4aee e3bd 0ae6 04bd 80d1 023b 9a9d f43d
-0.014867321 0.14074056 -0.14619909 0.0039958805 -0.14547545 -0.09063757 0.038546592 0.09969355
-0.023795724 0.13270028 0.06762515 -0.13469186 -0.037143886 -0.022625387 -0.02374892 0.06268272
0.12293513 -0.10152106 -0.0827014 -0.08883968 0.02777265 0.0598654 -0.097909704 0.08064288
0.06566842 -0.04410363 -0.0449778 -0.13931228 -0.09516434 0.04265575 0.058356643 0.13141502
-0.03450706 0.10088554 -0.08274862 -0.11912782 -0.12760231 0.098299295 -0.023480996 0.12050964
-0.054430947 0.1485116 0.063046455 -0.06899998 0.08081521 -0.03690487 0.09947714 -0.022204354
0.14779665 0.11124407 -0.13682178 0.033783317 -0.012140945 -0.055161893 0.07627371 -0.027083054
-0.05448115 -0.09968394 -0.117559835 0.08936961 0.09546952 -0.019520804 0.09338948 -0.0637358
0.12147014 -0.034563653 0.06826238 0.023080707 0.14191364 -0.018051133 -0.11892493 -0.096638605
-0.005804509 -0.034435898 -0.095142454 -0.108447716 -0.13449456 -0.038516656 0.09710471 0.021745756
0.0031372905 -0.14779396 0.007391423 -0.14159077 -0.09898092 -0.07148996 -0.131855 -0.016358256
0.07746844 -0.10236682 -0.14720689 -0.113624826 0.013314977 0.14787121 0.118051246 0.13706501
0.0032477528 0.054067597 -0.0418725 -0.11666781 0.03643003 0.07498458 0.11384831 -0.08667922
0.024137154 -0.119497284 -0.13327077 -0.067865536 -0.10592547 -0.11310939 -0.011302188 -0.12692101
-0.117336035 -0.10319294 -0.09130635 0.0097376555 -0.017441347 0.062555626 -0.023460075 0.059009954
-0.034830786 0.075055525 0.06462228 0.11985798 0.028135613 -0.113754585 0.049516097 0.011954188
-0.09218484 0.063888654 0.03498994 -0.021892294 -0.10800128 -0.039368488 -0.08582817 0.018558338
-0.06801207 -0.0070343614 -0.0320557 0.04307255 0.06843281 -0.029100403 0.08869377 -0.12908566
0.14217775 0.14200024 0.1276734 -0.08575924 -0.03896465 0.035853684 -0.12295666 0.10788341
0.0061253905 0.1256599 -0.12499599 -0.04042252 -0.1329954 -0.05419472 0.025040194 -0.0034860373
0.061110884 -0.04859273 -0.04399222 -0.11348195 -0.14420667 0.1264232 -0.10323239 -0.121513315
-0.034901172 -0.013317585 0.028598562 -0.10706173 -0.10987685 -0.12698339 0.078618035 0.06919971
-0.06664324 0.0022816658 -0.027878135 0.03658612 -0.09406766 -0.07725487 -0.029893875 -0.036934264
-0.080235794 -0.11125484 -0.019157901 -0.11808391 -0.030546345 0.12630905 0.04553914 0.013274774
-0.03821981 0.07081805 0.0518983 0.081511125 0.07724336 0.016887113 -0.023129106 -0.12379734
-0.108970866 0.085754916 -0.028334841 0.008271679 -0.13170594 -0.09950274 -0.082239114 0.108491525
0.11237283 -0.04236882 -0.067744784 0.10452147 0.08637926 -0.086142376 0.113872394 0.058299825
0.013917133 -0.06810306 0.0973067 -0.085404925 -0.0072369277 -0.10604919 -0.14538778 -0.06967687
-0.05298134 0.06021738 0.088805616 -0.12667386 0.085055694 -0.10720454 0.1392505 -0.09465312
0.03395821 0.046831787 -0.0331093 -0.08231256 0.13856907 0.14773919 0.12967421 -0.05292476
0.012717605 -0.08989705 -0.00054840744 -0.11534058 -0.049010962 0.056109518 -0.09193069 -0.0875818
0.109640315 -0.052722633 -0.06970802 0.07014458 -0.111294344 -0.032445945 0.0019961298 0.119441226

lstm.bias_ih_l0 f4 [180]
00000000: 4ac9 cb40 2f57 cd40 1aaf ca40 95d6 cc40
00000010: ee3a ce40 cc3f ca40 2b02 cf40 0e89 ce40
00000020: b0a2 c940 deaf cd40 5605 cc40 1054 cd40
00000030: e8a6 cc40 6ecc ce40 2800 cf40 600a c640
00000040: b654 c840 aabc ce40 d50c d240 39d7 cb40
00000050: ae9d cd40 66e1 ce40 a649 cc40 2019 cc40
00000060: d5cf c940 8b2b cb40 6e3b cc40 6006 ca40
00000070: 2eaf cc40 261e d240 a0ba d140 45d3 cd40
00000080: c695 cc40 f492 cb40 18e0 d440 e961 cb40
00000090: 78a0 cf40 42d4 c840 98fc d040 9433 d440
000000a0: f00c ce40 5e36 d140 70ae d540 7239 ce40
000000b0: 1c0a d140 8c08 9ebd 001a de3b a0bd efbb
000000c0: 8cae 0d3d 7809 1dbd 18b0 be3d a23b cf3d
000000d0: c424 b63d 12a1 25bd d601 14bd 86e2 e53d
000000e0: 1652 d63d b821 2f3d 32b4 6cbd d4c3 f0bd
000000f0: 2045 adbb 20d5 97bb 302d c0bd 8ca9 913d
00000100: 34c6 ae3d 9c77 893d 509e bcbc ae25 b3bd
00000110: 8485 0ebe 5e0a b6bd 0062 aebd 3785 a7bd
00000120: 619f d2bd 127a 93bd 7773 143e 6431 a3bd
00000130: 98f6 623d 3ed0 c1bd 9640 c33d 4723 0abe
00000140: 4cb7 343d a709 153e a2b3 9ebd 781e 9c3c
00000150: 04c8 12be 867a 78bd ca2c e53d 84e3 c03d
00000160: 64ef 513d 76ee a83d 5caa d9c0 7e51 d0c0
00000170: ef16 d140 a163 d7c0 e3cc d8c0 1b39 ccc0
00000180: a1e0 d8c0 4468 cec0 722e cd40 0575 c940
00000190: 6f54 c7c0 9765 e340 85a2 e0c0 3c54 d3c0
000001a0: ba55 d840 ce01 cc40 e638 c5c0 5ad3 c740
000001b0: 1520 df40 8309 d640 10cf c740 fc51 c9c0
000001c0: 25bd d7c0 5972 c840 0d5b d240 49d2 cdc0
000001d0: 99f6 d0c0 2bc5 d640 f9eb cf40 94ed c840
000001e0: 7d21 c8c0 ff45 d0c0 3cf5 d340 2fee ca40
000001f0: c067 c7c0 98b6 ce40 3ec5 c540 11be d140
00000200: 35d7 d6c0 c00a d340 d5d4 cf40 b9db d1c0
00000210: d8a7 dcc0 9caa cbc0 9edc cdc0 4817 d040
00000220: 70dc cd40 4429 d240 1609 cd40 2f8f cc40
00000230: 9ed3 cd40 6ac4 cc40 6156 ce40 f0a5 d040
00000240: acdd d440 61e2 d040 024e d540 011d d140
00000250: 3201 cf40 e4ae d340 bd29 d040 0b67 ce40
00000260: 1b78 cf40 4e9a d440 d6e5 cf40 1424 ce40
00000270: ee97 d340 15d8 cf40 530a d040 cfd5 cc40
00000280: dd8e d240 09ad cf40 1a52 c840 83c5 c740
00000290: e081 d540 2272 d240 dc12 cc40 f6b6 cb40
000002a0: 69f5 cd40 747b d540 3526 cd40 f8ec cf40
000002b0: 4ffc cf40 44af d140 85f3 cf40 286d cc40
000002c0: 938c d140 44b4 d640 e695 c940 9351 cb40
6.3683214 6.4168925 6.3338747 6.401194 6.4446936 6.3202877 6.4690146 6.4542303
6.3011093 6.427718 6.3756514 6.4165115 6.3953743 6.462455 6.468769 6.1887665
6.2603407 6.4605303 6.5640664 6.3700223 6.425498 6.4650145 6.3839903 6.378067
6.30662 6.3490653 6.3822546 6.313278 6.3963842 6.56618 6.5540314 6.4320397
6.393283 6.3616886 6.652355 6.355702 6.4883385 6.2759104 6.530834 6.631296
6.4390793 6.5378866 6.6775436 6.4445124 6.532484 -0.07716474 0.006778002 -0.0073163062
0.03459029 -0.03833911 0.09310931 0.10118796 0.08893731 -0.04043681 -0.036134563 0.112248465
0.104648754 0.042756766 -0.057789035 -0.11756101 -0.0052877814 -0.004633561 -0.09383619 0.071124166
0.08533898 0.06712267 -0.023024708 -0.08747421 -0.1391812 -0.08888696 -0.08514786 -0.081797056
-0.10284305 -0.072010174 0.14497171 -0.07968405 0.05541095 -0.09463547 0.09533803 -0.1349002
0.044120118 0.14554463 -0.07749106 0.019057497 -0.14334112 -0.060663722 0.111901835 0.09418395
0.05125369 0.08248608 -6.802046 -6.509948 6.5340495 -6.7309117 -6.7750106 -6.381971
-6.7774205 -6.4502277 6.4119196 6.2955346 -6.229057 7.106151 -7.019839 -6.6040325
6.7604647 6.3752203 -6.1631956 6.2445498 6.9726663 6.688661 6.244026 -6.291258
-6.741839 6.2639585 6.5736146 -6.4319196 -6.5301023 6.7115684 6.4975553 6.279001
-6.254088 -6.5085444 6.623686 6.341575 -6.231415 6.4597893 6.1803274 6.5544515
-6.7137704 6.5950623 6.4947305 -6.5580716 -6.8954887 -6.3645763 -6.433181 6.502842
6.433159 6.5675373 6.407359 6.3924785 6.432082 6.3989763 6.4480443 6.520256
6.6520596 6.527634 6.6657724 6.5347905 6.468896 6.615099 6.505095 6.4500785
6.4834113 6.643836 6.496806 6.441904 6.612296 6.495127 6.5012603 6.4010997
6.5799394 6.4898725 6.260022 6.2428603 6.672104 6.576432 6.377302 6.366084
6.4362073 6.67132 6.410914 6.497677 6.4995494 6.5526447 6.4984765 6.3883247
6.54841 6.709505 6.299548 6.353708
