Ni_prediction/savemodel/bst_mod_296.pth (torch_old, 533443 bytes, 44 tensors)

price_encoder.attention.weight f4 [1, 121]
4.290354 4.3238244 4.2377567 -4.3298326 -4.168165 4.170891 4.285099 -4.168703
4.268194 4.2350855 4.2288065 4.303142 -4.1857357 -4.2468596 -4.252053 4.1969986
4.168566 -4.2006006 4.122966 4.265899 4.1257687 4.249381 4.299759 -4.2895603
-4.2899084 4.229391 -4.188078 -4.299564 -4.278795 -4.2068872 4.283869 -4.2270336
4.2411003 4.3313665 4.1784563 4.23693 -4.291924 4.297581 4.2585526 -4.2930217
4.250208 4.3339386 4.2085943 4.2936974 4.22901 4.2953043 4.295006 4.29616
4.3297734 4.2289996 4.1920414 4.218103 4.2912993 4.2229633 4.158337 4.254505
4.2758517 -4.3212004 -4.252833 4.340328 4.190522 -4.3085303 -4.273668 -4.1594725
-4.326909 4.314166 4.2465353 4.2091312 4.190108 -4.2394915 -4.2237506 4.2593246
4.271369 4.1844225 -4.189712 4.1691084 -4.1894913 3.2998867 4.3112764 4.2779417
-4.176683 -4.187202 4.2547245 4.217531 4.317713 -4.3300414 -4.166412 -4.3339214
4.305544 4.298031 4.3293853 4.3226523 4.2151732 4.306786 -4.201114 -4.332445
-4.201989 4.2689962 -4.28619 4.1423855 4.206663 4.219687 4.2481146 4.315141
4.29149 4.197432 4.1654506 4.2942886 4.300667 4.247262 4.163097 4.25167
4.1566253 4.2710247 4.319196 4.1644087 4.218764 4.211555 4.3036556 4.2639275
4.2947717
00000000: 944a 8940 c55c 8a40 b49b 8740 fd8d 8ac0
00000010: 9c61 85c0 f077 8540 881f 8940 0466 85c0
00000020: 0c95 8840 d285 8740 6252 8740 57b3 8940
00000030: 8cf1 85c0 46e6 87c0 d110 88c0 d04d 8640
00000040: e564 8540 526b 86c0 56ef 8340 3f82 8840
00000050: 4c06 8440 eefa 8740 a097 8940 1444 89c0
00000060: ee46 89c0 2c57 8740 bc04 86c0 0796 89c0
00000070: e3eb 88c0 d29e 86c0 7415 8940 dc43 87c0
00000080: 18b7 8740 8e9a 8a40 eab5 8540 ee94 8740
00000090: 7157 89c0 c985 8940 1046 8840 6f60 89c0
000000a0: b401 8840 a0af 8a40 ceac 8640 f865 8940
000000b0: 0d54 8740 2273 8940 b070 8940 257a 8940
000000c0: 818d 8a40 f753 8740 3425 8640 b3fa 8640
000000d0: 5352 8940 8422 8740 1911 8540 e824 8840
000000e0: c7d3 8840 4647 8ac0 3517 88c0 f8e3 8a40
000000f0: c218 8640 7bdf 89c0 e3c1 88c0 661a 85c0
00000100: 0a76 8ac0 a60d 8a40 9ee3 8740 34b1 8640
00000110: 5d15 8640 eaa9 87c0 f728 87c0 634c 8840
00000120: 0eaf 8840 cae6 8540 1f12 86c0 5669 8540
00000130: 5010 86c0 5831 5340 faf5 8940 e6e4 8840
00000140: 63a7 85c0 8ffd 85c0 b426 8840 04f6 8640
00000150: b42a 8a40 b38f 8ac0 3f53 85c0 7caf 8ac0
00000160: 04c7 8940 7889 8940 538a 8a40 2b53 8a40
00000170: b3e2 8640 31d1 8940 876f 86c0 64a3 8ac0
00000180: b276 86c0 9e9b 8840 7828 89c0 6c8e 8440
00000190: fc9c 8640 ad07 8740 8ef0 8740 a315 8a40
000001a0: e353 8940 5d51 8640 5f4b 8540 d06a 8940
000001b0: 109f 8940 92e9 8740 1738 8540 ae0d 8840
000001c0: 1303 8540 3cac 8840 db36 8a40 d642 8540
000001d0: 1d00 8740 0fc5 8640 8cb7 8940 1872 8840
000001e0: c56e 8940

price_encoder.encoder.weight_ih_l0 f4 [180, 45]
-0.10081503 -0.11793174 0.032030195 0.08252931 -0.05553808 0.10434081 0.0786314 -0.12203796
-0.10363906 -0.011906922 -0.11033716 -0.057845883 -0.026593558 0.030670568 -0.12094639 0.015055522
0.050929055 -0.08312994 0.09051782 0.11508541 0.106052496 0.068557076 -0.10670078 -4.1408205
-0.14499222 -0.14838655 -0.12169918 0.12855284 0.13309984 0.036279887 -0.13216035 -0.007720217
0.1171736 4.0724254 4.2008047 4.2181697 4.23473 4.2392855 -0.31444266 4.1864734
4.3953867 4.324101 4.184158 0.024258867 -0.12438552 -0.12518248 0.06994447 0.11040922
0.044698298 0.09187691 0.123534106 -0.069088235 0.086013965 0.06078555 0.03135532 0.091763556
-0.02062574 0.06786533 0.12960862 0.012076467 -0.14174514 -0.13400184 0.004851505 -0.0328466
0.10002842 1.6151153 0.028790314 -0.07386859 4.107089 -0.12055867 -0.14411847 0.12071128
-0.04557728 -0.14230108 -0.0031163245 -0.043618716 0.1389936 -0.09410692 4.165229 4.12131
4.2225285 4.176173 4.380229 -0.1321793 4.186315 4.152555 4.166858 4.327644
0.040094435 0.04406303 0.1054289 -0.006796153 -0.11748856 -0.1097068 0.028270796 0.049778122
0.06515533 0.06640202 -0.027737595 -0.083775625 -0.13097677 0.019675344 -0.04967653 -0.101086855
0.0057055205 0.016693756 0.09478618 -0.09748939 0.014427438 -0.08245744 1.4998391 -0.015783451
-0.080537096 4.2049046 -0.05385317 0.040727615 -0.044189923 0.011741034 -0.10111273 0.14104538
-0.10903217 0.14078091 -0.13879293 4.357237 4.1201706 4.218567 4.284243 4.3363457
-4.2053633 4.205659 4.3245664 4.1257057 4.195328 0.05854948 -0.0628588 0.097312465
-0.05437591 -0.12997267 -0.021345265 -0.039175212 0.11596426 0.120828584 0.094719365 -0.0043061636
0.07895869 0.112611786 0.11571257 0.098501086 -4.1138253 0.035623893 0.06157522 -0.036585532
-0.009238392 1.7211747 0.043784313 -0.26923358 -0.016000655 0.05878073 -4.2438326 0.048548266
0.14540882 -0.06431627 -0.08895911 -4.2714405 0.08551687 0.09739812 -3.489735 -0.090427786
-4.367159 -4.32617 -4.159245 -4.1754475 -4.3199115 -0.0971231 -4.1822333 -4.2508693
-4.1595087 -4.167683 0.078700915 0.03697005 -0.08604309 -0.021043167 0.08415489 0.13774158
0.086464375 0.14370051 -0.13798758 -0.14354962 -0.088102594 -0.05214633 0.05319175 -0.14534812
-0.10576667 -0.0815159 -0.0072434545 0.08716659 -0.03337206 -0.090265244 0.03837815 -0.08722286
-0.025573814 0.08716352 0.043314323 -4.2199845 0.10023822 0.14138605 0.07517514 0.02732578
0.12808414 0.12216337 0.05401829 -0.017108917 -0.10490509 -4.1200347 -4.3467064 -4.3783836
-4.1896334 -4.254391 -0.005410418 -4.2301874 -4.138073 -4.101958 -4.3141084 -0.0796645
-0.011409387 -0.016918883 0.06550309 0.014936879 -0.03827378 0.12666835 0.14669965 -0.0015476225
0.14879559 0.06344125 0.11312817 -0.13156295 0.09171176 -0.09136476 4.164472 0.008749828
0.001897186 0.03890367 0.02564998 -0.10336681 0.077696115 -0.08521115 -0.07704074 0.00013587199
-4.398935 0.027119339 -0.09090344 0.118399784 -0.03892406 4.2551017 0.06405276 0.13539745
00000000: 1c78 cebd 3286 f1bd 1832 033d 2005 a93d
00000010: e67b 63bd a2b0 d53d 8009 a13d 0aef f9bd
00000020: b740 d4bd 4015 43bc 73f8 e1bd ceef 6cbd
00000030: bcda d9bc d840 fb3c beb2 f7bd 70ab 763c
00000040: fc9a 503d 0840 aabd 6861 b93d e6b1 eb3d
00000050: 0d32 d93d a767 8c3d f085 dabd 9a81 84c0
00000060: d778 14be a5f2 17be 6b3d f9bd 5ba3 033e
00000070: 534b 083e 389a 143d 0b55 07be e0f9 fcbb
00000080: b6f8 ef3d 4f51 8240 fe6c 8640 3ffb 8640
00000090: e882 8740 3aa8 8740 a1fe a0be 97f7 8540
000000a0: 02a7 8c40 095f 8a40 9fe4 8540 88ba c63c
000000b0: d6bd febd d62f 00be 0c3f 8f3d 3b1e e23d
000000c0: 9015 373d f629 bc3d 73ff fc3d 227e 8dbd
000000d0: 1728 b03d 45fa 783d 706e 003d 88ee bb3d
000000e0: 50f7 a8bc fafc 8a3d 1fb8 043e 60dc 453c
000000f0: a325 11be c737 09be 60f9 9e3b 288a 06bd
00000100: b3db cc3d 19bc ce3f aad9 eb3c 6a48 97bd
00000110: 466d 8340 77e7 f6bd cb93 13be 7a37 f73d
00000120: 3eaf 3abd 60b7 11be 403b 4cbb 8aa9 32bd
00000130: 5754 0e3e 21bb c0bd 8e49 8540 c6e1 8340
00000140: f41e 8740 36a3 8540 d62a 8c40 035a 07be
00000150: 4bf6 8540 bbe1 8440 e756 8540 0f7c 8a40
00000160: 103a 243d 707b 343d 1beb d73d 43b2 debb
00000170: d89d f0bd f5ad e0bd 2898 e73c 25e4 4b3d
00000180: 2870 853d c8fd 873d f439 e3bc 8e92 abbd
00000190: c61e 06be 302e a13c 9e79 4bbd a006 cfbd
000001a0: 60f5 ba3b 58c1 883c 421f c23d 84a8 c7bd
000001b0: 1061 6c3c 72df a8bd bafa bf3f 4c4c 81bc
000001c0: a2f0 a4bd 948e 8640 2495 5cbd 00d2 263d
000001d0: 7e00 35bd 775d 403c 3114 cfbd 336e 103e
000001e0: 424c dfbd df28 103e bc1f 0ebe 7c6e 8b40
000001f0: 70d8 8340 80fe 8640 8518 8940 58c3 8a40
00000200: 5692 86c0 c294 8640 d962 8a40 c805 8440
00000210: 2140 8640 94d1 6f3d 1dbc 80bd c24b c73d
00000220: 46b9 5ebd 8e17 05be 44dc aebc 3076 20bd
00000230: ac7e ed3d fa74 f73d 3afc c13d b81a 8dbb
00000240: 18b5 a13d 02a1 e63d b6fa ec3d f0ba c93d
00000250: 75a4 83c0 5cea 113d 4c36 7c3d b6da 15bd
00000260: a05c 17bc 744f dc3f 2e57 333d fcd8 89be
00000270: ce13 83bc 10c4 703d 7acd 87c0 8cda 463d
00000280: 0de6 143e 40b8 83bd 3230 b6bd a4af 88c0
00000290: 7823 af3d aa78 c73d d157 5fc0 3432 b9bd
000002a0: c4bf 8bc0 fc6f 8ac0 8918 85c0 449d 85c0
000002b0: b73c 8ac0 7ae8 c6bd dbd4 85c0 1f07 88c0
000002c0: b21a 85c0 a95d 85c0 f22d a13d e86d 173d
000002d0: 5c37 b0bd b862 acbc 6659 ac3d 210c 0d3e
000002e0: 3c14 b13d 3a26 133e 9e4c 0dbe acfe 12be
000002f0: 226f b4bd 6497 55bd 98df 593d 23d6 14be
00000300: 329c d8bd cff1 a6bd 805a edbb 6684 b23d
00000310: 24b1 08bd fcdc b8bd 6832 1d3d e6a1 b2bd
00000320: 2d80 d1bc ca82 b23d 5c6a 313d 1d0a 87c0
00000330: b249 cd3d 81c7 103e 6cf5 993d 50da df3c
00000340: 7d28 033e ca30 fa3d 4842 5d3d 0028 8cbc
00000350: 7bd8 d6bd 53d7 83c0 3818 8bc0 b81b 8cc0
00000360: 7a11 86c0 f923 88c0 e049 b1bb b25d 87c0
00000370: 186b 84c0 3d43 83c0 2d0d 8ac0 2427 a3bd
00000380: 70ee 3abc 7899 8abc 7c26 863d d0b9 743c
00000390: f8c4 1cbd 59b5 013e 6f38 163e 98d9 caba
000003a0: df5d 183e 7ced 813d beaf e73d 70b8 06be
000003b0: 60d3 bb3d 731d bbbd 5b43 8540 705b 0f3c
000003c0: 00ab f83a 7459 1f3d e81f d23c fab1 d3bd
000003d0: 241f 9f3d 2f83 aebd 89c7 9dbd dc78 0e39
000003e0: 13c4 8cc0 6029 de3c 952b babd 967b f23d
000003f0: d66e 1fbd cb29 8840 182e 833d a1a5 0a3e

price_encoder.encoder.weight_hh_l0 f4 [180, 45]
4.3638167 4.2737484 4.13658 -4.137719 4.241332 4.1860356 4.2306376 -4.366951
-4.2335553 -4.1784215 -4.339892 4.3154755 -4.1886325 -4.2511835 4.170803 -4.3829412
4.157303 -4.2831473 4.109895 -4.37473 4.112477 4.2291102 4.1284733 4.16651
-4.2217174 -4.103662 -4.1381326 4.1924458 -4.109477 -4.1941614 4.153697 -4.2620173
4.231781 4.260657 4.2348504 -4.1072803 -4.2063513 4.288975 4.167121 4.3989105
4.3472295 4.1850185 -4.2907877 4.38052 -4.3427687 -4.3670216 -4.3059974 -4.2485156
4.2965765 -4.1621795 -4.3406796 -4.142313 -4.329241 4.1958437 -4.311348 4.171118
-4.3937798 4.1194725 4.190941 -4.2592506 4.368249 -4.197643 4.1161127 -4.1633353
4.2496543 4.157954 -4.3359914 -4.157431 -4.2698364 4.372665 4.3159566 4.164115
-4.2047424 4.1096506 4.2929463 -4.380291 4.302489 -4.2673626 -4.3024354 -4.154953
4.1303577 4.2301073 -4.337345 -4.1311293 -4.3279686 -4.2502556 -4.2113395 4.3046274
-4.161808 4.1682706 -4.1836367 -4.311144 -4.3753586 4.2671666 -4.1352754 -4.2684774
-4.1153655 -4.2020855 4.282654 -4.2184057 4.3889275 -4.209287 4.365739 4.3023305
-4.1435513 4.128921 -4.3345203 4.362297 -4.3937407 -4.2998676 4.151379 -4.1875215
-4.3144927 -4.2857766 4.192374 4.2587943 4.207927 -4.3523064 4.1370687 4.392149
-4.189206 4.1675673 -4.1213555 -4.2819552 -4.3123713 4.321366 4.15634 -4.108813
-4.1543036 -4.141449 -4.115738 -4.2237244 4.2451344 -4.2107015 4.291159 4.3476634
4.2095766 4.318483 -4.2839637 4.296787 4.1405654 4.177672 4.145928 -4.198287
4.3304715 -4.1591988 4.1516376 4.292514 -4.1986504 4.3284993 -4.2577357 4.141969
-4.252087 4.2770834 4.288965 -4.243037 4.181268 4.3422647 4.2779183 -4.1148214
-4.21199 4.2258487 4.1597505 -4.3808985 -4.3724008 4.3270574 -4.1984553 4.1717806
4.381861 4.3949747 -4.358919 -4.1600204 4.267669 4.179718 4.1852927 4.332595
4.141162 -4.38751 4.152633 -4.2503586 4.1185007 4.1827292 4.377659 -4.3210807
4.1076937 4.1698956 4.396743 4.357963 -4.349881 4.32116 -4.2798395 4.2462673
-4.282374 -4.15494 4.1275563 -4.145752 4.2212653 -4.1369247 4.1426644 4.33419
-4.11883 4.1165433 4.2179976 4.3827515 -4.2272587 -4.1945558 4.288768 4.312486
-4.2127166 -4.1198 4.1659875 -4.364276 4.269835 4.3936987 4.356283 -4.1515894
-4.228787 4.144109 4.3353653 4.2948 4.1991873 4.3142276 -4.2272797 4.1387916
-4.1279774 4.2002277 4.289156 4.3330016 -4.37051 4.3413506 4.1310735 4.191605
4.365629 -4.2037435 4.394512 -4.217993 4.1500273 -4.112564 -4.214557 4.1997657
-4.2917533 4.366101 -4.3559904 4.2766833 4.369759 -4.153954 4.201589 4.1209927
4.1121025 -4.258285 -4.2760015 4.102227 4.3649807 -4.1727257 -4.3783464 4.232868
00000000: 63a4 8b40 8cc2 8840 dd5e 8440 3268 84c0
00000010: feb8 8740 01f4 8540 6261 8740 10be 8bc0
00000020: 4979 87c0 a1b5 85c0 65e0 8ac0 6018 8a40
00000030: 4709 86c0 b209 88c0 3877 8540 0e41 8cc0
00000040: a008 8540 8b0f 89c0 4384 8340 cafd 8bc0
00000050: 6999 8340 df54 8740 741c 8440 0d54 8540
00000060: 4f18 87c0 3351 83c0 956b 84c0 8428 8640
00000070: d680 83c0 9236 86c0 16eb 8440 7262 88c0
00000080: c06a 8740 4d57 8840 e583 8740 d76e 83c0
00000090: 6e9a 86c0 483f 8940 0e59 8540 e0c3 8c40
000000a0: 811c 8b40 aceb 8540 224e 89c0 382d 8c40
000000b0: f6f7 8ac0 a4be 8bc0 bbca 89c0 d7f3 87c0
000000c0: 8e7d 8940 9330 85c0 d9e6 8ac0 d48d 84c0
000000d0: 2489 8ac0 5a44 8640 90f6 89c0 cc79 8540
000000e0: d899 8cc0 b8d2 8340 301c 8640 c84b 88c0
000000f0: b2c8 8b40 1753 86c0 32b7 8340 0b3a 85c0
00000100: 2bfd 8740 f60d 8540 71c0 8ac0 ad09 85c0
00000110: 80a2 88c0 dfec 8b40 511c 8a40 6e40 8540
00000120: 408d 86c0 4282 8340 d15f 8940 582b 8cc0
00000130: fdad 8940 3c8e 88c0 8dad 89c0 60f5 84c0
00000140: e42b 8440 0a5d 8740 88cb 8ac0 3632 84c0
00000150: b87e 8ac0 1802 88c0 4bc3 86c0 82bf 8940
00000160: 882d 85c0 7962 8540 5ae0 85c0 e4f4 89c0
00000170: f002 8cc0 a18c 8840 2d54 84c0 5e97 88c0
00000180: 13b1 83c0 7c77 86c0 800b 8940 2efd 86c0
00000190: 1872 8c40 7bb2 86c0 22b4 8b40 b1ac 8940
000001a0: f997 84c0 1f20 8440 64b4 8ac0 f097 8b40
000001b0: 8699 8cc0 8498 89c0 19d8 8440 2d00 86c0
000001c0: 5310 8ac0 1525 89c0 ee27 8640 0b48 8840
000001d0: 57a7 8640 1846 8bc0 de62 8440 7c8c 8c40
000001e0: fa0d 86c0 b65c 8540 25e2 83c0 c705 89c0
000001f0: f2fe 89c0 a148 8a40 bd00 8540 657b 83c0
00000200: 0ef0 84c0 c086 84c0 20b4 83c0 c028 87c0
00000210: 24d8 8740 11be 86c0 2d51 8940 0f20 8b40
00000220: dab4 8640 0331 8a40 3b16 89c0 477f 8940
00000230: 837f 8440 7daf 8540 71ab 8440 5e58 86c0
00000240: 3993 8a40 2818 85c0 37da 8440 465c 8940
00000250: 585b 86c0 1183 8a40 5f3f 88c0 038b 8440
00000260: 1911 88c0 dedd 8840 343f 8940 f6c6 87c0
00000270: f3cc 8540 d5f3 8a40 b5e4 8840 9eac 83c0
00000280: 9fc8 86c0 273a 8740 ad1c 8540 5230 8cc0
00000290: b5ea 8bc0 4177 8a40 bf59 86c0 3a7f 8540
000002a0: 3538 8c40 a2a3 8c40 447c 8bc0 e31e 85c0
000002b0: bf90 8840 40c0 8540 ebed 8540 9ea4 8a40
000002c0: 6684 8440 7b66 8cc0 5fe2 8440 f002 88c0
000002d0: c2ca 8340 ebd8 8540 c815 8c40 4b46 8ac0
000002e0: 3a72 8340 c96f 8540 1eb2 8c40 6f74 8b40
000002f0: 3a32 8bc0 f146 8a40 72f4 88c0 6ce1 8740
00000300: 3509 89c0 45f5 84c0 f114 8440 00aa 84c0
00000310: 9b14 8740 b061 84c0 b590 8440 afb1 8a40
00000320: 75cd 83c0 b9ba 8340 d6f9 8640 803f 8c40
00000330: b445 87c0 cd39 86c0 963d 8940 e3ff 8940
00000340: 93ce 86c0 67d5 83c0 c54f 8540 26a8 8bc0
00000350: 7da2 8840 2e99 8c40 ac66 8b40 d2d9 84c0
00000360: 3952 87c0 8a9c 8440 50bb 8a40 006f 8940
00000370: be5f 8640 270e 8a40 e045 87c0 fb70 8440
00000380: 6418 84c0 4468 8640 c440 8940 f3a7 8a40
00000390: 38db 8bc0 58ec 8a40 c131 8440 a121 8640
000003a0: 3cb3 8b40 1185 86c0 d89f 8c40 ccf9 86c0
000003b0: 06cd 8440 209a 83c0 a7dd 86c0 7b64 8640
000003c0: 0b56 89c0 19b7 8b40 4664 8bc0 97da 8840
000003d0: 11d5 8b40 31ed 84c0 6b73 8640 2cdf 8340
000003e0: 5896 8340 df43 88c0 01d5 88c0 7245 8340
000003f0: ecad 8b40 f886 85c0 6a1b 8cc0 a873 8740

price_encoder.encoder.bias_ih_l0 f4 [180]
-4.304912 4.3740654 4.2119293 -4.175579 -4.357116 -4.204631 4.333696 -4.2196693
4.3466163 -4.3203273 -4.188767 -4.274046 -4.384033 4.259341 4.177315 4.3762064
-4.319556 4.1561522 -4.335678 -4.392006 -4.2843304 -4.1056633 -4.255914 4.222018
-4.322258 -4.261265 -4.1533656 4.223862 -4.297378 4.216817 4.155077 -4.3882575
4.3688207 -4.3209286 -4.168681 4.209814 -4.2053213 -4.399892 -4.1153274 4.3027263
4.1625905 4.0525355 -4.3681583 4.20841 4.2257686 -4.1401143 4.3826833 4.2125673
-4.333261 -4.1818037 -4.372266 4.3545103 -4.265276 4.2812924 4.1526194 -4.3661246
-4.1566114 -4.187751 4.27224 4.1813602 4.241292 -4.2500305 4.329277 4.233685
-4.340684 -4.2957454 -4.240208 -4.1430407 4.1772513 -4.3101473 -4.1095595 -4.123716
4.274396 -4.340225 4.2216725 4.112697 -4.2670007 4.153928 -4.268008 -4.3135257
4.206181 -4.3453526 -4.3313127 -4.1902394 4.3093805 4.27707 -4.2251744 -4.201862
4.2792096 4.2762895 4.111046 -4.3395386 -4.178252 -4.3983917 4.117632 4.2661858
-4.3052406 4.2278156 4.179417 -4.139549 -4.107334 4.288479 4.2283688 4.169101
-4.3132544 4.1663966 4.313077 4.361864 4.182262 4.3334107 -4.36454 4.150914
4.285797 -4.147956 -4.112791 -4.1913805 4.3956623 -4.1064296 -4.1333394 4.3400908
-4.240323 -4.3129086 -4.3283944 4.1863546 4.353321 4.2121773 -4.356947 4.294066
4.201054 -4.226301 -4.31613 4.358411 -4.246542 -4.2496977 4.3239474 -4.1632853
4.271079 4.123165 -4.3215575 -4.388201 -4.3880677 4.1368546 -4.238859 4.3704157
-4.1477695 -4.3907948 -4.1326294 -4.2254148 4.3329787 4.2935047 4.1410146 -4.1175027
4.376333 -4.3244996 -4.3247137 -4.339791 -4.173147 -4.355761 4.198215 -4.29758
-4.2110443 -4.1527114 4.229506 -4.1246543 4.150532 4.2048936 -4.243137 4.1387153
-4.111999 -4.1228127 4.370901 -4.3385363 -4.159764 -4.253158 4.1775603 4.1693187
-4.3280783 -4.275935 4.2294936 4.393829
00000000: d7c1 89c0 58f8 8b40 20c8 8640 589e 85c0
00000010: 7f6d 8bc0 568c 86c0 a3ad 8a40 8807 87c0
00000020: 7b17 8b40 1f40 8ac0 610a 86c0 fcc4 88c0
00000030: 004a 8cc0 854c 8840 91ac 8540 e209 8c40
00000040: ce39 8ac0 33ff 8440 e0bd 8ac0 508b 8cc0
00000050: 3c19 89c0 9861 83c0 7330 88c0 c51a 8740
00000060: f04f 8ac0 485c 88c0 5fe8 84c0 e129 8740
00000070: 1f84 89c0 2af0 8640 64f6 8440 9b6c 8cc0
00000080: 61cd 8b40 0c45 8ac0 d665 85c0 ccb6 8640
00000090: fe91 86c0 eacb 8cc0 c3b0 83c0 efaf 8940
000000a0: f133 8540 5fae 8140 f4c7 8bc0 4bab 8640
000000b0: 7f39 8740 d17b 84c0 f13e 8c40 5acd 8640
000000c0: 13aa 8ac0 56d1 85c0 9ae9 8bc0 2658 8b40
000000d0: 247d 88c0 5900 8940 42e2 8440 4bb7 8bc0
000000e0: f602 85c0 0e02 86c0 31b6 8840 b4cd 8540
000000f0: aab8 8740 4000 88c0 7089 8a40 597a 8740
00000100: e2e6 8ac0 bf76 89c0 c9af 87c0 ca93 84c0
00000110: 0bac 8540 baec 89c0 8381 83c0 7bf5 83c0
00000120: dac7 8840 20e3 8ac0 f117 8740 379b 8340
00000130: 458b 88c0 faec 8440 8693 88c0 6708 8ac0
00000140: 0999 8640 210d 8bc0 1d9a 8ac0 7116 86c0
00000150: 72e6 8940 c2dd 8840 a134 87c0 a775 86c0
00000160: 49ef 8840 5dd7 8840 b08d 8340 80dd 8ac0
00000170: 3eb4 85c0 a0bf 8cc0 a4c3 8340 9884 8840
00000180: 88c4 89c0 444a 8740 c9bd 8540 2f77 84c0
00000190: 486f 83c0 383b 8940 cc4e 8740 4769 8540
000001a0: 2e06 8ac0 1f53 8540 ba04 8a40 6494 8b40
000001b0: 17d5 8540 4dab 8a40 50aa 8bc0 4ad4 8440
000001c0: 4025 8940 0ebc 84c0 fc9b 83c0 ca1f 86c0
000001d0: 44a9 8c40 df67 83c0 5144 84c0 06e2 8a40
000001e0: bab0 87c0 5903 8ac0 3582 8ac0 9ef6 8540
000001f0: 684e 8b40 28ca 8640 1c6c 8bc0 fd68 8940
00000200: 096f 8640 dc3d 87c0 bd1d 8ac0 1a78 8b40
00000210: ace3 87c0 86fd 87c0 c75d 8a40 a239 85c0
00000220: aeac 8840 f8f0 8340 334a 8ac0 256c 8cc0
00000230: 0d6b 8cc0 1d61 8440 bca4 87c0 72da 8b40
00000240: 87ba 84c0 6481 8cc0 803e 84c0 9936 87c0
00000250: c3a7 8a40 6464 8940 3183 8440 95c2 83c0
00000260: ec0a 8c40 4d62 8ac0 0e64 8ac0 91df 8ac0
00000270: 6c8a 85c0 6562 8bc0 c757 8640 c685 89c0
00000280: e0c0 86c0 03e3 84c0 1d58 8740 2bfd 83c0
00000290: 28d1 8440 7d8e 8640 c7c7 87c0 5b70 8440
000002a0: 7f95 83c0 15ee 83c0 6cde 8b40 4ad5 8ac0
000002b0: c91c 85c0 df19 88c0 93ae 8540 0f6b 8540
000002c0: 9e7f 8ac0 76d4 88c0 0358 8740 3f9a 8c40

price_encoder.encoder.bias_hh_l0 f4 [180]
-4.1583343 4.392771 4.36747 -4.1276383 -4.322233 -4.228985 4.1146045 -4.3732386
4.221559 -4.1861887 -4.2032676 -4.133555 -4.218543 4.199284 4.330517 4.136868
-4.3493032 4.175683 -4.3079467 -4.124876 -4.338978 -4.280343 -4.2222843 4.2340155
-4.290481 -4.2671595 -4.2463574 4.119734 -4.224969 4.2751637 4.1795697 -4.372146
4.357812 -4.2389584 -4.335856 4.27156 -4.1033998 -4.2314067 -4.1940084 4.3120184
4.142879 4.0979977 -4.278613 4.1214137 4.1086264 -4.3299813 4.106649 4.122682
-4.2619534 -4.291806 -4.2703166 4.2811937 -4.2203298 4.2031107 4.139415 -4.2504926
-4.2839866 -4.267985 4.267736 4.355857 4.1568694 -4.214972 4.2461386 4.3432198
-4.2208824 -4.368929 -4.300987 -4.2842007 4.1763186 -4.2935357 -4.1767507 -4.3960013
4.110918 -4.170552 4.2911377 4.3397365 -4.225632 4.1299253 -4.2099676 -4.1168113
4.1416125 -4.32522 -4.272172 -4.2317357 4.372361 4.3060074 -4.3307705 -4.3315887
4.1995764 4.3547416 4.279158 -4.370941 -4.324455 -4.135129 4.276343 4.368738
-4.230636 4.300959 4.3230677 -4.3274527 -4.3410845 4.154771 4.231984 4.2671633
-4.2365365 4.1441154 4.141255 4.350127 4.108112 4.2920833 -4.2220054 4.242177
4.1877403 -4.179379 -4.329789 -4.169882 4.1382375 -4.2811995 -4.2374406 4.320885
-4.135764 -4.1216083 -4.209874 4.188394 4.15065 4.2581763 -4.2622886 4.1244144
4.114965 -4.2741013 -4.213969 4.3272915 -4.2591844 -4.35455 4.33216 -4.3880243
4.3301487 4.3633265 -4.3927765 -4.1772246 -4.1847153 4.165545 -4.1238503 4.329085
-4.387018 -4.288936 -4.201258 -4.3779197 4.1224284 4.226501 4.1349406 -4.222437
4.171983 -4.2955384 -4.135148 -4.1289463 -4.136044 -4.205316 4.3862724 -4.122185
-4.3370523 -4.2097187 4.2295833 -4.345368 4.188831 4.221982 -4.356395 4.252813
-4.321885 -4.3721676 4.2005086 -4.1499 -4.3810525 -4.379204 4.3110824 4.174593
-4.2968664 -4.3293915 4.3252974 4.265988
00000000: 1311 85c0 9491 8c40 50c2 8b40 9d15 84c0
00000010: bc4f 8ac0 d853 87c0 d7aa 8340 92f1 8bc0
00000020: 0317 8740 42f5 85c0 2b81 86c0 1546 84c0
00000030: 4efe 86c0 8960 8640 9893 8a40 3961 8440
00000040: 7e2d 8bc0 329f 8540 b3da 89c0 fcfe 83c0
00000050: e8d8 8ac0 92f8 88c0 f41c 87c0 0e7d 8740
00000060: 9f4b 89c0 928c 88c0 29e2 87c0 dcd4 8340
00000070: f232 87c0 24ce 8840 09bf 8540 9fe8 8bc0
00000080: 3273 8b40 8ca5 87c0 55bf 8ac0 9fb0 8840
00000090: 0d4f 83c0 af67 87c0 5135 86c0 0efc 8940
000000a0: 7792 8440 cc22 8340 66ea 88c0 9fe2 8340
000000b0: de79 8340 358f 8ac0 ab69 8340 03ed 8340
000000c0: ec61 88c0 7a56 89c0 6fa6 88c0 8aff 8840
000000d0: f10c 87c0 e27f 8640 1676 8440 0904 88c0
000000e0: 6b16 89c0 5593 88c0 4b91 8840 2e63 8b40
000000f0: 1305 8540 0de1 86c0 5ee0 8740 a8fb 8a40
00000100: 7811 87c0 44ce 8bc0 afa1 89c0 2c18 89c0
00000110: 67a4 8540 a564 89c0 f1a7 85c0 0bac 8cc0
00000120: a48c 8340 2975 85c0 0051 8940 1fdf 8a40
00000130: 6138 87c0 5928 8440 0eb8 86c0 ebbc 83c0
00000140: 1788 8440 3468 8ac0 a2b5 88c0 616a 87c0
00000150: 62ea 8b40 d0ca 8940 ac95 8ac0 609c 8ac0
00000160: ee62 8640 0b5a 8b40 ddee 8840 c0de 8bc0
00000170: ef61 8ac0 fa52 84c0 cdd7 8840 b4cc 8b40
00000180: 5f61 87c0 75a1 8940 9256 8a40 7e7a 8ac0
00000190: 2aea 8ac0 e2f3 8440 6a6c 8740 9a8c 8840
000001a0: b591 87c0 989c 8440 2985 8440 3e34 8b40
000001b0: a775 8340 bf58 8940 ab1a 87c0 eabf 8740
000001c0: f801 8640 79bd 85c0 a28d 8ac0 ac6f 85c0
000001d0: 716c 8440 96ff 88c0 1d99 87c0 b144 8a40
000001e0: 2e58 84c0 37e4 83c0 4ab7 86c0 5307 8640
000001f0: 20d2 8440 fb42 8840 ab64 88c0 34fb 8340
00000200: cbad 8340 70c5 88c0 d6d8 86c0 2c79 8a40
00000210: 3d4b 88c0 7958 8bc0 0ea1 8a40 b26a 8cc0
00000220: 9490 8a40 5fa0 8b40 a091 8cc0 d3ab 85c0
00000230: 30e9 85c0 254c 8540 95f6 83c0 dd87 8a40
00000240: 7462 8cc0 f73e 89c0 b570 86c0 eb17 8cc0
00000250: efea 8340 7f3f 8740 6f51 8440 341e 87c0
00000260: e280 8540 0d75 89c0 2253 84c0 5420 84c0
00000270: 795a 84c0 f391 86c0 585c 8c40 f1e8 83c0
00000280: 22c9 8ac0 04b6 86c0 bf58 8740 410d 8bc0
00000290: e70a 8640 7a1a 8740 9667 8bc0 0b17 8840
000002a0: e24c 8ac0 cce8 8bc0 916a 8640 fbcb 84c0
000002b0: 9531 8cc0 7022 8cc0 63f4 8940 4496 8540
000002c0: ee7f 89c0 608a 8ac0 d668 8a40 f982 8840

atten_layer.0.weight f4 [45, 135]
-0.0057471693 0.0064634383 -0.023407012 -0.017246887 0.08354073 0.049593173 -0.047539566 -0.032573927
0.05134674 0.07988199 0.024511985 0.07390807 -0.017657869 0.053518586 -0.0008888021 -0.031687308
-0.02342514 0.027021773 0.044725947 0.0027237982 -0.017312214 -0.030763138 -0.002708882 0.08591122
0.02685593 -0.082645014 -0.01944539 0.03249693 -0.08227926 0.055579253 -0.05724658 -0.07076175
-0.042760298 0.002939351 -0.063155875 -0.0065164343 -0.060818404 -0.011712387 -0.08242071 -0.033076417
-0.0039123744 0.08097095 -0.08558405 -0.008020014 -5.9068203e-05 -0.076280855 -0.04573452 0.041056506
0.057193406 0.06496327 0.07700165 0.08006618 -0.018351048 -0.067524955 -0.07416958 -0.042227663
-0.050607562 0.028454863 -0.044203136 0.066603534 -0.04501019 0.068760835 0.051209517 0.073318355
-0.07228898 0.080668755 -0.0014918223 0.0740126 0.04745216 -0.06300074 -0.07123549 0.085252844
-0.021811709 -0.015380055 -0.0017899722 -0.062062446 -0.013997346 0.041222565 -0.003610663 -0.07971625
0.038701087 0.064699955 -0.034529682 -0.07037624 0.07597815 0.04406161 0.07525534 0.0022079945
-0.04345714 0.075743414 -4.304577 -4.634331 -5.036145 -4.3101 4.2541986 -4.304683
-4.3383255 5.045278 4.242595 4.207882 -4.2465034 -4.1390495 -4.2157607 4.3081527
-4.276648 -4.1603875 -4.2190394 4.249832 4.2801147 -3.616073 -4.810196 5.0826926
4.9400315 3.6513152 -4.3435397 3.4598129 4.7275915 4.246929 -5.025489 5.0356874
4.2461762 -4.3137 4.2070704 -4.278753 -4.1706276 -4.177034 4.2269893 -4.225687
4.347618 4.2369356 -3.6236556 4.7812433 -5.162445 -4.385399 4.9265566 -0.067752436
0.07499079 -0.05124852 -0.06941933 0.02911105 0.0029076785 0.044290595 0.012814164 -0.024552964
0.032376744 -0.0794905 -0.035695862 0.05890321 0.046839796 -0.041876774 0.08246253 0.05467642
0.041765742 -0.061543673 -0.05118418 -0.071765855 -0.05028689 0.03154575 0.06625862 0.072372414
-0.0029624924 0.008894905 -0.0297645 -0.0639475 0.03030461 -0.02498357 -0.03731899 -0.029991284
-0.0677152 -0.051900968 -0.032647245 -0.02142921 -0.020470433 0.079704516 -0.020916536 0.042949177
-0.01658269 0.07789128 -0.022918642 0.051874064 0.06150619 -0.02419725 0.029462881 -0.048130646
-0.03585691 0.048715226 0.045684732 0.017766334 0.07184935 -0.047481988 0.012621321 -0.06888477
-0.08488907 -0.053666174 0.08564996 0.051085763 0.06269915 0.061096407 -0.010972753 0.015200883
-0.024069268 -0.04916307 -0.03534759 -0.05007578 0.040877156 -0.040059984 -0.019390456 0.08252374
0.036294557 0.015384428 -0.01615756 0.06600962 0.0053503737 0.0029198155 -0.045652747 -0.070127316
0.06217409 -0.047747564 -0.07595188 -0.078026906 0.019387327 -0.08312577 -0.07084684 0.021299392
0.04074464 -4.516159 4.705133 4.8664 -4.203435 4.195539 4.2295547 4.181805
-4.4422355 4.3929353 4.3098173 -4.2158012 -4.037784 -4.2931933 4.1822863 -4.305745
-4.050153 4.26146 4.2404146 4.2164087 -4.6158924 4.520874 -4.4577694 -4.7583094
4.7274027 -4.2491856 4.6473923 -4.4775896 4.32564 4.6667786 -4.5225434 4.2598834
00000000: c052 bcbb 40cb d33b 10c0 bfbc 5849 8dbc
00000010: 6717 ab3d 3622 4b3d d9b8 42bd 3d6c 05bd
00000020: f650 523d 2b99 a33d 5ccd c83c 1d5d 973d
00000030: 3ca7 90bc 4e36 5b3d 80fe 68ba 8dca 01bd
00000040: 14e6 bfbc c45c dd3c 8e32 373d c081 323b
00000050: 58d2 8dbc fa02 fcbc 8087 31bb 39f2 af3d
00000060: f800 dc3c ca41 a9bd f04b 9fbc 801b 053d
00000070: 0782 a8bd 12a7 633d 647b 6abd 89eb 90bd
00000080: 6c25 2fbd 20a2 403b de57 81bd d087 d5bb
00000090: b81c 79bd 50e5 3fbc 30cc a8bd 237b 07bd
000000a0: 6033 80bb 19d4 a53d b146 afbd 6066 03bc
000000b0: 00c0 77b8 2339 9cbd 1f54 3bbd de2a 283d
000000c0: a243 6a3d 770b 853d 0bb3 9d3d bdf9 a33d
000000d0: f054 96bc 864a 8abd 39e6 97bd eaf6 2cbd
000000e0: e049 4fbd 2c1a e93c 590e 35bd 6f67 883d
000000f0: 9b5c 38bd 7bd2 8c3d 12c1 513d ef27 963d
00000100: 3f0c 94bd a935 a53d 4089 c3ba eb93 973d
00000110: 325d 423d 8806 81bd eae3 91bd 0b99 ae3d
00000120: 78ae b2bc a0fc 7bbc 809d eaba 3135 7ebd
00000130: 2055 65bc fed8 283d e0a0 6cbb 4642 a3bd
00000140: 0885 1e3d 6981 843d ff6e 0dbd 6b21 90bd
00000150: 6f9a 9b3d f279 343d 791f 9a3d 00b4 103b
00000160: 1d00 32bd 5d1f 9b3d 18bf 89c0 714c 94c0
00000170: 1a28 a1c0 57ec 89c0 6522 8840 f7bf 89c0
00000180: 90d3 8ac0 eb72 a140 57c3 8740 f8a6 8640
00000190: 5be3 87c0 1873 84c0 83e7 86c0 63dc 8940
000001a0: 4dda 88c0 e521 85c0 5f02 87c0 a0fe 8740
000001b0: b3f6 8840 bd6d 67c0 20ed 99c0 6ba5 a240
000001c0: bd14 9e40 26af 6940 47fe 8ac0 936d 5d40
000001d0: 6e48 9740 d8e6 8740 ced0 a0c0 5a24 a140
000001e0: ade0 8740 d509 8ac0 52a0 8640 8beb 88c0
000001f0: c875 85c0 43aa 85c0 7f43 8740 d438 87c0
00000200: b01f 8b40 fa94 8740 f9e9 67c0 f2ff 9840
00000210: c032 a5c0 3055 8cc0 5aa6 9d40 cac1 8abd
00000220: c594 993d f8e9 51bd b92b 8ebd 4c7a ee3c
00000230: c08e 3e3b 0e6a 353d 80f2 513c 4c23 c9bc
00000240: 7a9d 043d eacb a2bd d335 12bd 7e44 713d
00000250: 16db 3f3d fb86 2bbd 1de2 a83d 62f4 5f3d
00000260: 8e12 2b3d 3815 7cbd 81a6 51bd faf9 92bd
00000270: a0f9 4dbd 1e36 013d 99b2 873d fd37 943d
00000280: 6026 42bb f0bb 113c aed4 f3bc e8f6 82bd
00000290: 6041 f83c 58aa ccbc ccdb 18bd 48b0 f5bc
000002a0: 44ae 8abd 1c96 54bd 1eb9 05bd 508c afbc
000002b0: 9cb1 a7bc 1f3c a33d 2859 abbc 7aeb 2f3d
000002c0: 6cd8 87bc 7785 9f3d e0bf bbbc e679 543d
000002d0: eaed 7b3d 5039 c6bc 245c f13c a424 45bd
000002e0: b2de 12bd 9e89 473d ea1f 3b3d b48a 913c
000002f0: c125 933d 797c 42bd a8c9 4e3c 7513 8dbd
00000300: 52da adbd 10d1 5bbd 3f69 af3d 4e3f 513d
00000310: 6968 803d 3a40 7a3d 10c7 33bc 200d 793c
00000320: ea2c c5bc 375f 49bd a2c8 10bd 431c 4dbd
00000330: ce6e 273d f015 24bd bcd8 9ebc 3502 a93d
00000340: 9aa9 143d f80e 7c3c dc5c 84bc 0d30 873d
00000350: 3052 af3b 605a 3f3b 60fe 3abd e99e 8fbd
00000360: 42aa 7e3d f392 43bd a98c 9bbd 92cc 9fbd
00000370: 2cd2 9e3c d83d aabd 2618 91bd 107c ae3c
00000380: dae3 263d 6084 90c0 7390 9640 8cb9 9b40
00000390: 8a82 86c0 db41 8640 8358 8740 59d1 8540
000003a0: cb26 8ec0 ed92 8c40 06ea 8940 d8e7 86c0
000003b0: 8735 81c0 d761 89c0 4ad5 8540 aac8 89c0
000003c0: da9a 81c0 e15d 8840 7ab1 8740 d2ec 8640
000003d0: 64b5 93c0 00ab 9040 0ca6 8ec0 1244 98c0
000003e0: e246 9740 54f9 87c0 70b7 9440 6a48 8fc0
000003f0: a56b 8a40 4056 9540 adb8 90c0 f750 8840

atten_layer.0.bias f4 [45]
3.922816 4.3269596 4.0906315 -4.2457876 -4.1996655 -4.284282 -4.3557525 4.2037177
-4.2636023 4.232926 -4.137343 -4.302656 4.28481 -4.1664543 -4.0900702 4.3121243
-4.148973 -4.324153 -4.1045804 -4.1564445 -4.287051 4.372146 4.177586 4.2887006
-4.3695498 -4.2993464 -4.2476654 -4.2532773 -4.1361346 -4.394331 4.185262 4.2762475
4.275174 4.278283 -4.191095 -4.3473625 4.301851 4.1907578 -4.3746166 4.191632
-4.110095 -4.2819576 4.280736 4.2977233 -4.1175213
00000000: 6b0f 7b40 7476 8a40 74e6 8240 7edd 87c0
00000010: a963 86c0 d718 89c0 5362 8bc0 db84 8640
00000020: 6e6f 88c0 2174 8740 1d65 84c0 5caf 89c0
00000030: 2a1d 8940 9853 85c0 dbe1 82c0 ecfc 8940
00000040: 63c4 84c0 765f 8ac0 b958 83c0 9801 85c0
00000050: 862f 89c0 9fe8 8b40 c9ae 8540 093d 8940
00000060: 5ad3 8bc0 3f94 89c0 e0ec 87c0 d91a 88c0
00000070: 375b 84c0 5c9e 8cc0 abed 8540 05d7 8840
00000080: 3ace 8840 b2e7 8840 731d 86c0 981d 8bc0
00000090: c3a8 8940 b01a 8640 dcfc 8bc0 d921 8640
000000a0: e685 83c0 cc05 89c0 cafb 8840 f386 8940
000000b0: bcc2 83c0

atten_layer.2.weight f4 [1, 45]
2.4325159 -6.2117376 3.5704057 -2.6499631 -3.0299523 -2.6104033 -3.3663414 -5.0882835
-2.8240786 2.914792 -2.009677 5.0186377 -5.3049335 -2.982413 6.9234495 3.503517
5.9164143 5.290407 -2.3451974 -2.4502609 4.8266673 4.201967 4.084603 4.090099
4.581994 5.70848 -3.884218 -3.5127313 6.418493 4.529649 4.0276184 -5.567149
3.4749448 -4.452462 5.4214416 -3.6699457 -4.8300114 -5.078765 5.0038366 -5.617037
-2.51828 4.6417084 -5.799926 4.230044 -2.4824247
00000000: 57ae 1b40 8ec6 c6c0 8781 6440 ff98 29c0
00000010: bdea 41c0 d910 27c0 2372 57c0 38d3 a2c0
00000020: b4bd 34c0 f48b 3a40 8c9e 00c0 ae98 a040
00000030: 04c2 a9c0 dbdf 3ec0 e68c dd40 9f39 6040
00000040: 4453 bd40 044b a940 b717 16c0 13d1 1cc0
00000050: 0f74 9a40 8376 8640 11b5 8240 17e2 8240
00000060: b29f 9240 deab b640 0797 78c0 97d0 60c0
00000070: 4b64 cd40 e2f2 9040 40e2 8040 1626 b2c0
00000080: 7f65 5e40 927a 8ec0 737c ad40 64e0 6ac0
00000090: 748f 9ac0 3e85 a2c0 6e1f a040 c4be b3c0
000000a0: 802b 21c0 e088 9440 fe98 b9c0 855c 8740
000000b0: 0ce0 1ec0

lstm.weight_ih_l0 f4 [180, 45]
3.989058 -4.3807077 -4.423373 4.245553 -4.3827333 4.250142 4.124918 4.391967
-4.073842 4.4015703 4.1855497 4.3248982 4.252374 4.2299414 -4.2885723 4.4057984
-4.1847763 -4.412665 -4.230793 4.45811 -4.475013 4.6434164 4.43756 -4.2630367
3.6293542 -4.497444 4.4673386 -4.2657228 -4.538638 4.3828754 -4.224985 -4.37235
-4.2161255 4.336534 4.3747234 -4.378418 -4.2680254 4.2210236 4.251479 -4.360036
-4.272923 4.4630165 -4.488923 -4.3583617 4.515312 4.4041433 -4.577379 -4.4079704
4.3753834 4.3199134 4.3025517 4.306724 4.319772 -4.1919265 4.2107444 4.202263
-4.162974 4.2688622 -4.1455665 -4.1920795 4.1471224 -4.2690845 -4.1349545 -4.1752276
4.4562893 -4.483533 4.302383 4.5930204 -4.370622 -2.7118492 -4.441983 4.4389887
-4.122943 -4.5110044 4.403697 -4.223435 -4.360533 -4.4076157 4.2163363 4.1726785
-4.266922 -4.273216 4.3010664 4.3439636 -4.11601 -4.274858 4.447818 -4.2837696
-3.9858494 4.4837227 -4.1511035 -4.4938474 -4.4882164 4.1853304 -4.276965 4.2385273
-4.273686 4.4794216 -4.386751 -4.3327665 4.2311554 -2.9492388 -4.3219 4.348441
4.166983 4.1526847 4.328499 4.1726613 -4.19122 4.464121 -4.4468217 4.329423
4.295851 -4.3565345 -1.7561046 -4.321878 4.5820427 -4.237854 -4.455832 4.420779
4.3963275 4.1340933 -4.2828813 4.3939705 4.2091117 4.295167 4.3977604 4.3671675
-4.1220036 -4.290369 4.2331476 4.389413 -4.5068145 4.2094145 4.3077245 4.428901
-4.542814 -4.4854994 4.370039 -4.1987467 4.1622386 4.4002843 4.57505 -4.181746
-4.1796174 4.384821 -4.060525 4.113711 4.331353 4.3438406 4.327122 4.2541738
-4.129067 -4.266329 4.669423 -4.4036846 4.357582 4.5682554 -4.646819 2.7655861
-4.5130463 4.5022774 -4.1754937 -4.636651 4.535845 -4.1866937 4.42049 -4.163744
4.158983 4.306781 -4.3311105 -4.140998 4.1052084 -4.1828995 -4.196985 4.3099494
4.410528 -4.3743553 4.2097425 4.401428 4.229654 -4.5099955 -4.7173214 4.182414
4.0722294 4.3287325 4.2501836 4.4651756 -4.388647 -4.383522 4.208844 -4.292497
4.153141 -4.004421 4.422142 4.346076 4.2375884 -4.20855 -4.122903 4.610142
-4.6773973 4.3933725 4.5033345 -4.6402035 3.851965 -4.680473 4.574442 -4.1769185
-4.4283648 4.4899707 -4.2502074 4.256407 -4.2903066 4.35997 4.3703938 -4.1809454
-4.172096 4.327351 -4.103996 -4.3180995 -4.371319 4.606394 -4.4628296 4.3937297
4.4341574 4.3810062 -4.443983 -4.588688 4.1970334 -4.3654976 4.234159 4.1232204
4.396358 -4.3205414 -4.409217 4.2482796 -3.5945623 4.2373815 4.260312 4.292488
4.31164 4.1901584 -4.362336 -4.314157 4.373925 -4.469104 4.3143725 4.366816
-4.5041943 -2.4002209 -4.5397863 4.3212533 -4.3816023 -4.506465 4.5905046 -4.2980003
00000000: ba4c 7f40 c22e 8cc0 468c 8dc0 92db 8740
00000010: 5a3f 8cc0 2a01 8840 54ff 8340 fe8a 8c40
00000020: ea5c 82c0 aad9 8c40 06f0 8540 9165 8a40
00000030: 7313 8840 ae5b 8740 fc3b 89c0 4dfc 8c40
00000040: b0e9 85c0 8d34 8dc0 a862 87c0 d6a8 8e40
00000050: 4e33 8fc0 de96 9440 7e00 8e40 cc6a 88c0
00000060: 5747 6840 10eb 8fc0 70f4 8e40 cd80 88c0
00000070: 863c 91c0 8440 8c40 1433 87c0 4bea 8bc0
00000080: 80ea 86c0 e3c4 8a40 bcfd 8b40 001c 8cc0
00000090: aa93 88c0 a012 8740 1e0c 8840 6a85 8bc0
000000a0: c9bb 88c0 08d1 8e40 42a5 8fc0 b377 8bc0
000000b0: 707d 9040 beee 8c40 e479 92c0 180e 8dc0
000000c0: 2403 8c40 bb3c 8a40 81ae 8940 afd0 8940
000000d0: 923b 8a40 4324 86c0 6bbe 8640 f078 8640
000000e0: 1537 85c0 859a 8840 7ba8 84c0 8425 86c0
000000f0: 3ab5 8440 579c 88c0 8c51 84c0 779b 85c0
00000100: ec99 8e40 1a79 8fc0 1fad 8940 06fa 9240
00000110: 23dc 8bc0 f08e 2dc0 ba24 8ec0 320c 8e40
00000120: 26ef 83c0 265a 90c0 16eb 8c40 6126 87c0
00000130: 7d89 8bc0 300b 8dc0 3aec 8640 9586 8540
00000140: a08a 88c0 2fbe 88c0 56a2 8940 c001 8b40
00000150: 5bb6 83c0 a3cb 88c0 8654 8e40 a414 89c0
00000160: 2818 7fc0 a87a 8f40 d7d5 84c0 99cd 8fc0
00000170: 789f 8fc0 3aee 8540 e6dc 88c0 04a2 8740
00000180: 09c2 88c0 6c57 8f40 4460 8cc0 06a6 8ac0
00000190: a065 8740 54c0 3cc0 014d 8ac0 6e26 8b40
000001a0: ed57 8540 cbe2 8440 1083 8a40 7186 8540
000001b0: 791e 86c0 14da 8e40 5d4c 8ec0 a28a 8a40
000001c0: 9d77 8940 bb68 8bc0 09c8 e0bf d34c 8ac0
000001d0: 18a0 9240 809c 87c0 2d96 8ec0 0677 8d40
000001e0: b7ae 8c40 7e4a 8440 5d0d 89c0 689b 8c40
000001f0: 0bb1 8640 0272 8940 74ba 8c40 d6bf 8b40
00000200: 74e7 83c0 b44a 89c0 f275 8740 1276 8c40
00000210: d337 90c0 86b3 8640 e1d8 8940 8fb9 8d40
00000220: bb5e 91c0 3689 8fc0 5cd7 8b40 225c 86c0
00000230: 0f31 8540 21cf 8c40 cf66 9240 ddd0 85c0
00000240: 6dbf 85c0 7450 8c40 d2ef 81c0 85a3 8340
00000250: 729a 8a40 be00 8b40 c977 8a40 3122 8840
00000260: 5121 84c0 c485 88c0 ea6b 9540 fcea 8cc0
00000270: 5071 8b40 262f 9240 beb2 94c0 5dff 3040
00000280: e06a 90c0 a812 9040 a59d 85c0 725f 94c0
00000290: a425 9140 65f9 85c0 a774 8d40 643d 85c0
000002a0: 6416 8540 26d1 8940 7598 8ac0 0e83 84c0
000002b0: de5d 8340 50da 85c0 b34d 86c0 1beb 8940
000002c0: 0c23 8d40 b8fa 8bc0 36b6 8640 80d8 8c40
000002d0: 5359 8740 e251 90c0 4cf4 96c0 56d6 8540
000002e0: b44f 8240 fa84 8a40 8101 8840 b8e2 8e40
000002f0: cc6f 8cc0 d045 8cc0 daae 8640 235c 89c0
00000300: 88e6 8440 3824 80c0 3082 8d40 0e13 8b40
00000310: 539a 8740 71ac 86c0 d2ee 83c0 4986 9340
00000320: 3dad 95c0 8296 8c40 511b 9040 8c7c 94c0
00000330: 9886 7640 6fc6 95c0 d461 9240 51a9 85c0
00000340: 2ab5 8dc0 d7ad 8f40 b301 88c0 7c34 8840
00000350: 314a 89c0 e084 8b40 44da 8b40 4eca 85c0
00000360: cf81 85c0 a979 8a40 ef53 83c0 df2d 8ac0
00000370: d8e1 8bc0 9467 9340 80cf 8ec0 6f99 8c40
00000380: 9ee4 8d40 3431 8c40 1c35 8ec0 88d6 92c0
00000390: 194e 8640 28b2 8bc0 3b7e 8740 6cf1 8340
000003a0: f7ae 8c40 e041 8ac0 4e18 8dc0 e8f1 8740
000003b0: 4f0d 66c0 a198 8740 7a54 8840 105c 8940
000003c0: f4f8 8940 c715 8640 4298 8bc0 930d 8ac0
000003d0: 32f7 8b40 e602 8fc0 570f 8a40 f5bc 8b40
000003e0: 5c22 90c0 389d 19c0 ee45 91c0 b547 8a40
000003f0: 1636 8cc0 f634 90c0 6ae5 9240 3889 89c0

lstm.weight_hh_l0 f4 [180, 45]
-0.014867321 0.14074056 -0.14619909 0.0039958805 -0.14547545 -0.09063757 0.038546592 0.09969355
-0.023795724 0.13270028 0.06762515 -0.13469186 -0.037143886 -0.022625387 -0.02374892 0.06268272
0.12293513 -0.10152106 -0.0827014 -0.08883968 0.02777265 0.0598654 -0.097909704 0.08064288
0.06566842 -0.04410363 -0.0449778 -0.13931228 -0.09516434 0.04265575 0.058356643 0.13141502
-0.03450706 0.10088554 -0.08274862 -0.11912782 -0.12760231 0.098299295 -0.023480996 0.12050964
-0.054430947 0.1485116 0.063046455 -0.06899998 0.08081521 -0.03690487 0.09947714 -0.022204354
0.14779665 0.11124407 -0.13682178 0.033783317 -0.012140945 -0.055161893 0.07627371 -0.027083054
-0.05448115 -0.09968394 -0.117559835 0.08936961 0.09546952 -0.019520804 0.09338948 -0.0637358
0.12147014 -0.034563653 0.06826238 0.023080707 0.14191364 -0.018051133 -0.11892493 -0.096638605
-0.005804509 -0.034435898 -0.095142454 -0.108447716 -0.13449456 -0.038516656 0.09710471 0.021745756
0.0031372905 -0.14779396 0.007391423 -0.14159077 -0.09898092 -0.07148996 -0.131855 -0.016358256
0.07746844 -0.10236682 -0.14720689 -0.113624826 0.013314977 0.14787121 0.118051246 0.13706501
0.0032477528 0.054067597 -0.0418725 -0.11666781 0.03643003 0.07498458 0.11384831 -0.08667922
0.024137154 -0.119497284 -0.13327077 -0.067865536 -0.10592547 -0.11310939 -0.011302188 -0.12692101
-0.117336035 -0.10319294 -0.09130635 0.0097376555 -0.017441347 0.062555626 -0.023460075 0.059009954
-0.034830786 0.075055525 0.06462228 0.11985798 0.028135613 -0.113754585 0.049516097 0.011954188
-0.09218484 0.063888654 0.03498994 -0.021892294 -0.10800128 -0.039368488 -0.08582817 0.018558338
-0.06801207 -0.0070343614 -0.0320557 0.04307255 0.06843281 -0.029100403 0.08869377 -0.12908566
0.14217775 0.14200024 0.1276734 -0.08575924 -0.03896465 0.035853684 -0.12295666 0.10788341
0.0061253905 0.1256599 -0.12499599 -0.04042252 -0.1329954 -0.05419472 0.025040194 -0.0034860373
0.061110884 -0.04859273 -0.04399222 -0.11348195 -0.14420667 0.1264232 -0.10323239 -0.121513315
-0.034901172 -0.013317585 0.028598562 -0.10706173 -0.10987685 -0.12698339 0.078618035 0.06919971
-0.06664324 0.0022816658 -0.027878135 0.03658612 -0.09406766 -0.07725487 -0.029893875 -0.036934264
-0.080235794 -0.11125484 -0.019157901 -0.11808391 -0.030546345 0.12630905 0.04553914 0.013274774
-0.03821981 0.07081805 0.0518983 0.081511125 0.07724336 0.016887113 -0.023129106 -0.12379734
-0.108970866 0.085754916 -0.028334841 0.008271679 -0.13170594 -0.09950274 -0.082239114 0.108491525
0.11237283 -0.04236882 -0.067744784 0.10452147 0.08637926 -0.086142376 0.113872394 0.058299825
0.013917133 -0.06810306 0.0973067 -0.085404925 -0.0072369277 -0.10604919 -0.14538778 -0.06967687
-0.05298134 0.06021738 0.088805616 -0.12667386 0.085055694 -0.10720454 0.1392505 -0.09465312
0.03395821 0.046831787 -0.0331093 -0.08231256 0.13856907 0.14773919 0.12967421 -0.05292476
0.012717605 -0.08989705 -0.00054840744 -0.11534058 -0.049010962 0.056109518 -0.09193069 -0.0875818
0.109640315 -0.052722633 -0.06970802 0.07014458 -0.111294344 -0.032445945 0.0019961298 0.119441226
00000000: 1096 73bc 4b1e 103e 37b5 15be e0ef 823b
00000010: 84f7 14be 31a0 b9bd 08e3 1d3d 222c cc3d
00000020: 40ef c2bc 95e2 073e 0e7f 8a3d aaec 09be
00000030: 3024 18bd e058 b9bc 188d c2bc cc5f 803d
00000040: 6ac5 fb3d 46ea cfbd 5a5f a9bd 94f1 b5bd
00000050: 7883 e33c 6c35 753d e284 c8bd 1828 a53d
00000060: 2a7d 863d 02a6 34bd a43a 38bd e1a7 0ebe
00000070: 86e5 c2bd ccb7 2e3d 6007 6f3d a991 063e
00000080: 4657 0dbd 149d ce3d 1c78 a9bd 49f9 f3bd
00000090: 2eaa 02be 2451 c93d 385b c0bc c2cd f63d
000000a0: fcf2 5ebd 6d13 183e 801e 813d dd4f 8dbd
000000b0: 7282 a53d 9029 17bd acba cb3d e8e5 b5bc
000000c0: 0158 173e eed3 e33d 021b 0cbe 6060 0a3d
000000d0: d0ea 46bc 70f1 61bd 6435 9c3d 48dd ddbc
000000e0: a027 5fbd 1827 ccbd 36c3 f0bd 6a07 b73d
000000f0: 8685 c33d 18ea 9fbc fc42 bf3d ea87 82bd
00000100: 56c5 f83d 9e92 0dbd 26cd 8b3d c013 bd3c
00000110: cf51 113e f8df 93bc ea8e f3bd 76ea c5bd
00000120: c033 bebb a80c 0dbd 0cda c2bd d619 debd
00000130: f1b8 09be a4c3 1dbd d6de c63d 2824 b23c
00000140: 009b 4d3b 4d57 17be c033 f23b 2cfd 10be
00000150: 82b6 cabd 5469 92bd ff04 07be c001 86bc
00000160: c6a7 9e3d b2a5 d1bd 67bd 16be 22b4 e8bd
00000170: 1027 5a3c 8d6b 173e dac4 f13d c55a 0c3e
00000180: 40d8 543b fc75 5d3d 8082 2bbd 88ef eebd
00000190: a837 153d 8491 993d 4e29 e93d e084 b1bd
000001a0: 48bb c53c feba f4bd 2278 08be 16fd 8abd
000001b0: 74ef d8bd e5a5 e7bd d02c 39bc 95f7 01be
000001c0: e04d f0bd d256 d3bd d3fe babd b08a 1f3c
000001d0: 28e1 8ebc 2a1d 803d 582f c0bc 6cb4 713d
000001e0: baaa 0ebd b6b6 993d b058 843d 1a78 f53d
000001f0: a87c e63c 2af8 e8bd 64d1 4a3d 80db 433c
00000200: 68cb bcbd 0ed8 823d 9c51 0f3d 7857 b3bc
00000210: c62f ddbd da40 21bd aec6 afbd a807 983c
00000220: ea49 8bbd 8080 e6bb d64c 03bd d86c 303d
00000230: 8026 8c3d f863 eebc 14a5 b53d 082f 04be
00000240: 0b97 113e 8368 113e d1bc 023e 8aa2 afbd
00000250: 6699 1fbd 50db 123d b4d0 fbbd faf1 dc3d
00000260: 80b7 c83b fdac 003e e6fd ffbd 1692 25bd
00000270: f22f 08be 48fb 5dbd 1821 cd3c 0076 64bb
00000280: 684f 7a3d 2c09 47bd 3031 34bd 3969 e8bd
00000290: eaaa 13be 1575 013e 816b d3bd f9db f8bd
000002a0: 88f4 0ebd 0032 5abc 8847 ea3c 2e43 dbbd
000002b0: 1d07 e1bd ef07 02be 7e02 a13d 94b8 8d3d
000002c0: 407c 88bd 0088 153b b060 e4bc 54db 153d
000002d0: 8ca6 c0bd cd37 9ebd 00e4 f4bc 6248 17bd
000002e0: aa52 a4bd 94d9 e3bd 08f1 9cbc fad5 f1bd
000002f0: 543c fabc 2957 013e 4087 3a3d 707e 593c
00000300: 608c 1cbd 0e09 913d 5093 543d 4eef a63d
00000310: c431 9e3d d856 8a3c 4079 bdbc 7689 fdbd
00000320: 1e2c dfbd 46a0 af3d 781e e8bc f085 073c
00000330: ecdd 06be 18c8 cbbd fb6c a8bd ce30 de3d
00000340: ba23 e63d ee8a 2dbd c7bd 8abd 5a0f d63d
00000350: 9ce7 b03d 6a6b b0bd ee35 e93d cccb 6e3d
00000360: b004 643c 9e79 8bbd bc48 c73d c7e8 aebd
00000370: c023 edbb 5130 d9bd 89e0 14be bfb2 8ebd
00000380: f602 59bd 80a6 763d b8df b53d cbb6 01be
00000390: ae31 ae3d 0e8e dbbd af97 0e3e 7fd9 c1bd
000003a0: c417 0b3d b0d2 3f3d 9e9d 07bd 7d93 a8bd
000003b0: 0de5 0d3e f148 173e 51c9 043e a2c7 58bd
000003c0: 805d 503c f21b b8bd 00c3 0fba af37 ecbd
000003d0: b8bf 48bd 18d3 653d 2846 bcbd 165e b3bd
000003e0: 1a8b e03d b0f3 57bd 14c3 8ebd f6a7 8f3d
000003f0: 4aee e3bd 0ae6 04bd 80d1 023b 9a9d f43d

lstm.bias_ih_l0 f4 [180]
4.961225 5.0094314 4.9265356 4.994005 5.0376086 4.9128923 5.061758 5.0467753
4.8936977 5.020311 4.9682655 5.0095115 4.988243 5.0552645 5.0616884 4.781242
4.852416 5.0530357 5.1571474 4.962924 5.017996 5.057481 4.976635 4.9706526
4.899419 4.9415917 4.974861 4.905888 4.989041 5.158726 5.146588 5.024719
4.985935 4.954297 5.244843 4.9483356 5.080862 4.868623 5.1237407 5.224205
5.0318336 5.1305265 5.2706227 5.036682 5.125071 -0.07716474 0.006778002 -0.0073163062
0.03459029 -0.03833911 0.09310931 0.10118796 0.08893731 -0.04043681 -0.036134563 0.112248465
0.104648754 0.042756766 -0.057789035 -0.11756101 -0.0052877814 -0.004633561 -0.09383619 0.071124166
0.08533898 0.06712267 -0.023024708 -0.08747421 -0.1391812 -0.08888696 -0.08514786 -0.081797056
-0.10284305 -0.072010174 0.14497171 -0.07968405 0.05541095 -0.09463547 0.09533803 -0.1349002
0.044120118 0.14554463 -0.07749106 0.019057497 -0.14334112 -0.060663722 0.111901835 0.09418395
0.05125369 0.08248608 -5.3961477 -5.1040497 5.1281514 -5.3250136 -5.3691125 -4.976073
-5.3715224 -5.0443296 5.0060215 4.8896365 -4.8231587 5.700253 -5.6139407 -5.1981344
5.3545666 4.969322 -4.7572975 4.8386517 5.566768 5.282763 4.838128 -4.88536
-5.335941 4.8580604 5.1677165 -5.0260215 -5.124204 5.3056703 5.091657 4.873103
-4.84819 -5.1026464 5.2177877 4.935677 -4.8255167 5.053891 4.7744293 5.1485534
-5.3078723 5.189164 5.0888324 -5.1521735 -5.4895906 -4.9586782 -5.0272827 5.0956545
5.0255265 5.1600537 5.0000305 4.9852824 5.0245523 4.991578 5.0404167 5.1126914
5.2445183 5.120119 5.2586956 5.127535 5.0615597 5.2079234 5.0974264 5.041971
5.0757604 5.2368345 5.0895987 5.0342426 5.2046204 5.0876026 5.0936913 4.9937387
5.1723223 5.082325 4.8524246 4.8353524 5.2645073 5.168832 4.9698277 4.9585958
5.028649 5.263664 5.003406 5.0900464 5.0921464 5.1454644 5.091251 4.9809403
5.140885 5.302478 4.891515 4.9461226
00000000: 5bc2 9e40 434d a040 2ea6 9d40 e4ce 9f40
00000010: 1734 a140 6a36 9d40 ecf9 a140 2f7f a140
00000020: 2c99 9c40 63a6 a040 08fc 9e40 eb4d a040
00000030: b09f 9f40 bac4 a140 5af9 a140 efff 9840
00000040: fe46 9b40 78b2 a140 5a07 a540 46d0 9e40
00000050: 6c93 a040 e2d6 a140 9840 9f40 960f 9f40
00000060: 0ac8 9c40 8521 9e40 1032 9f40 09fd 9c40
00000070: 39a6 9f40 4914 a540 d9b0 a440 80ca a040
00000080: c88c 9f40 9a89 9e40 c1d5 a740 c458 9e40
00000090: 6c96 a240 c2cb 9b40 aff5 a340 b02c a740
000000a0: c804 a140 462d a440 f1a8 a840 802c a140
000000b0: 9500 a440 8c08 9ebd 001a de3b a0bd efbb
000000c0: 8cae 0d3d 7809 1dbd 18b0 be3d a23b cf3d
000000d0: c424 b63d 12a1 25bd d601 14bd 86e2 e53d
000000e0: 1652 d63d b821 2f3d 32b4 6cbd d4c3 f0bd
000000f0: 2045 adbb 20d5 97bb 302d c0bd 8ca9 913d
00000100: 34c6 ae3d 9c77 893d 509e bcbc ae25 b3bd
00000110: 8485 0ebe 5e0a b6bd 0062 aebd 3785 a7bd
00000120: 619f d2bd 127a 93bd 7773 143e 6431 a3bd
00000130: 98f6 623d 3ed0 c1bd 9640 c33d 4723 0abe
00000140: 4cb7 343d a709 153e a2b3 9ebd 781e 9c3c
00000150: 04c8 12be 867a 78bd ca2c e53d 84e3 c03d
00000160: 64ef 513d 76ee a83d 3ead acc0 6054 a3c0
00000170: d119 a440 8366 aac0 c5cf abc0 fd3b 9fc0
00000180: 83e3 abc0 266b a1c0 5431 a040 e777 9c40
00000190: 5157 9ac0 7968 b640 67a5 b3c0 1e57 a6c0
000001a0: 9c58 ab40 b004 9f40 c83b 98c0 3cd6 9a40
000001b0: f722 b240 650c a940 f2d1 9a40 de54 9cc0
000001c0: 07c0 aac0 3b75 9b40 ef5d a540 2bd5 a0c0
000001d0: 7bf9 a3c0 0dc8 a940 dbee a240 76f0 9b40
000001e0: 5f24 9bc0 e148 a3c0 1ef8 a640 11f1 9d40
000001f0: a26a 9ac0 7ab9 a140 20c8 9840 f3c0 a440
00000200: 17da a9c0 a20d a640 b7d7 a240 9bde a4c0
00000210: baaa afc0 7ead 9ec0 80df a0c0 9a0f a340
00000220: 1dd1 a040 291f a540 4000 a040 6f87 9f40
00000230: 22c9 a040 02bb 9f40 184b a140 2b9b a340
00000240: 18d3 a740 04d8 a340 3c47 a840 c414 a440
00000250: 4cf8 a140 4fa7 a640 1e1e a340 d457 a140
00000260: a16c a240 2694 a740 fedd a240 8418 a140
00000270: 408c a640 a4cd a240 85ff a240 b5cc 9f40
00000280: aa83 a540 68a2 a240 1047 9b40 35bb 9a40
00000290: d876 a840 1267 a540 d408 9f40 d1ac 9e40
000002a0: b1ea a040 ef6f a840 e71b a040 a9e1 a240
000002b0: ddf2 a240 a5a7 a440 87eb a240 dd63 9f40
000002c0: 2182 a440 e6ad a940 4a87 9c40 a346 9e40
