Ni_prediction/savemodel/bst_mod_583.pth (torch_old, 533443 bytes, 44 tensors)

price_encoder.attention.weight f4 [1, 121]
000000 4e 0e 0e 41 22 9f 0e 41 42 38 0d 41 78 9f 0e c1
       8.878492 8.913851 8.826235 -8.913933
000010 7b 21 0c c1 71 14 0c 41 ce f9 0d 41 8b a4 0a c1
       -8.758174 8.754991 8.873487 -8.665172
000020 5a a9 0d 41 c6 ea 0c 41 99 13 0d 41 8b 4a 0e 41
       8.853846 8.807318 8.817285 8.893199
000030 b7 49 0c c1 9c 4b 0d c1 7e 6b 0d c1 e2 90 0c 41
       -8.767997 -8.830959 -8.838743 8.785372
000040 10 22 0c 41 11 a0 0c c1 df 8a 0a 41 78 5c 0d 41
       8.758316 -8.789079 8.658904 8.835075
000050 84 c4 0a 41 df 67 0d 41 ec 35 0e 41 83 fa 0d c1
       8.672977 8.837859 8.8881645 -8.87366
000060 e3 01 0e c1 74 15 0d 41 de 4e 0c c1 f5 37 0e c1
       -8.875461 8.817738 -8.769255 -8.888661
000070 5a e0 0d c1 29 b2 0c c1 06 8f 0d 41 a8 0b 0d c1
       -8.867273 -8.793496 8.847418 -8.815346
000080 ee 4b 0d 41 9c b6 0e 41 80 39 0c 41 f0 22 0d 41
       8.8310375 8.919582 8.764038 8.82103
000090 f5 02 0e c1 a8 33 0e 41 d8 92 0d 41 37 f5 0d c1
       -8.875722 8.887611 8.848351 -8.872367
0000a0 53 59 0d 41 38 c2 0e 41 f1 9c 0c 41 bb 22 0e 41
       8.834308 8.922417 8.788316 8.883479
0000b0 a8 59 0c 41 46 2e 0e 41 68 29 0e 41 2e 27 0e 41
       8.771889 8.886297 8.885109 8.884565
0000c0 17 b1 0e 41 98 1e 0d 41 aa 80 0c 41 5e e0 0c 41
       8.918235 8.819969 8.781412 8.804777
0000d0 da b9 0d 41 ae cc 0c 41 90 c7 0b 41 dc 7c 0d 41
       8.857874 8.799971 8.736221 8.842983
0000e0 0c db 0d 41 68 94 0e c1 8c 7b 0d c1 92 e2 0e 41
       8.865978 -8.911232 -8.842663 8.930315
0000f0 3a 6f 0c 41 20 5a 0e c1 5a cb 0d c1 df af 0b c1
       8.777155 -8.897003 -8.862146 -8.730437
000100 c5 97 0e c1 4c 5f 0e 41 c6 62 0d 41 02 c3 0c 41
       -8.912053 8.898266 8.836615 8.797609
000110 45 5e 0c 41 56 3e 0d c1 ed 08 0d c1 9a 7e 0d 41
       8.773015 -8.827719 -8.814679 8.843409
000120 85 c1 0d 41 c7 5d 0c 41 ca 79 0c c1 15 14 0c 41
       8.859746 8.772895 -8.779734 8.754903
000130 1e 78 0c c1 23 44 f9 40 65 65 0e 41 95 d5 0d 41
       -8.7793255 7.7895675 8.899755 8.864644
000140 bb 44 0c c1 9e 68 0c c1 2b 84 0d 41 90 ef 0c 41
       -8.76678 -8.775541 8.844768 8.808487
000150 fa 89 0e 41 09 b1 0e c1 0a 02 0c c1 4c c1 0e c1
       8.908686 -8.918221 -8.750498 -8.922192
000160 fb 3b 0e 41 98 35 0e 41 36 ba 0e 41 98 9e 0e 41
       8.889644 8.888084 8.920462 8.913719
000170 18 e6 0c 41 94 5d 0e 41 76 ac 0c c1 ab c6 0e c1
       8.806175 8.897846 -8.792105 -8.923503
000180 2b b0 0c c1 98 c2 0d 41 21 09 0e c1 ce bb 0b 41
       -8.79301 8.860008 -8.877229 8.733351
000190 47 c3 0c 41 91 f8 0c 41 0a 6d 0d 41 b3 7f 0e 41
       8.797675 8.810685 8.839121 8.906177
0001a0 e1 1e 0e 41 76 9d 0c 41 5f 1a 0c 41 64 2a 0e 41
       8.882539 8.788443 8.756438 8.885349
0001b0 76 44 0e 41 90 69 0d 41 c0 10 0c 41 b0 7b 0d 41
       8.891714 8.838272 8.754089 8.842697
0001c0 40 f6 0b 41 ea ca 0d 41 72 90 0e 41 1e 16 0c 41
       8.74762 8.86204 8.910265 8.7554
0001d0 df f4 0c 41 58 d7 0c 41 bf 50 0e 41 de ad 0d 41
       8.809783 8.802574 8.894713 8.854948
0001e0 66 2c 0e 41
       8.885839

price_encoder.encoder.weight_ih_l0 f4 [180, 45]
000000 1c 78 ce bd 32 86 f1 bd 18 32 03 3d 20 05 a9 3d
       -0.10081503 -0.11793174 0.032030195 0.08252931
000010 e6 7b 63 bd a2 b0 d5 3d 80 09 a1 3d 0a ef f9 bd
       -0.05553808 0.10434081 0.0786314 -0.12203796
000020 b7 40 d4 bd 40 15 43 bc 73 f8 e1 bd ce ef 6c bd
       -0.10363906 -0.011906922 -0.11033716 -0.057845883
000030 bc da d9 bc d8 40 fb 3c be b2 f7 bd 70 ab 76 3c
       -0.026593558 0.030670568 -0.12094639 0.015055522
000040 fc 9a 50 3d 08 40 aa bd 68 61 b9 3d e6 b1 eb 3d
       0.050929055 -0.08312994 0.09051782 0.11508541
000050 e1 c2 e0 3d 96 79 8c 3d 12 62 da bd 06 b2 0b c1
       0.1097467 0.06859128 -0.10663237 -8.730963
000060 d7 78 14 be a5 f2 17 be 6b 3d f9 bd 5b a3 03 3e
       -0.14499222 -0.14838655 -0.12169918 0.12855284
000070 53 4b 08 3e 38 9a 14 3d 0b 55 07 be e0 f9 fc bb
       0.13309984 0.036279887 -0.13216035 -0.007720217
000080 b6 f8 ef 3d 84 9c 08 41 43 ab 0c 41 68 f2 0c 41
       0.1171736 8.538212 8.791812 8.809181
000090 34 36 0d 41 f9 48 0d 41 b2 b4 1c bf 88 70 0c 41
       8.825733 8.830316 -0.6121322 8.777473
0000a0 ae c8 0f 41 86 a4 0e 41 f5 66 0c 41 88 ba c6 3c
       8.986494 8.915167 8.775136 0.024258867
0000b0 d6 bd fe bd b5 b4 ff bd fb 50 8f 3d 08 54 e2 3d
       -0.12438552 -0.12485639 0.06997868 0.11051184
0000c0 91 22 38 3d f6 29 bc 3d f5 25 00 3e 77 24 8d bd
       0.04495484 0.09187691 0.1251448 -0.06891721
0000d0 4b ff b0 3d 6b 0a 7d 3d 70 6e 00 3d 88 ee bb 3d
       0.08642443 0.061777513 0.03135532 0.091763556
0000e0 50 f7 a8 bc fa fc 8a 3d 1f b8 04 3e 60 dc 45 3c
       -0.02062574 0.06786533 0.12960862 0.012076467
0000f0 a3 25 11 be c7 37 09 be 60 f9 9e 3b 28 8a 06 bd
       -0.14174514 -0.13400184 0.004851505 -0.0328466
000100 7e e6 dc 3d 71 48 5c 40 8a 29 94 3d 28 7d 2f bc
       0.107861504 3.4419215 0.072344854 -0.010710992
000110 23 2b 0b 41 77 e7 f6 bd cb 93 13 be 7a 37 f7 3d
       8.698031 -0.12055867 -0.14411847 0.12071128
000120 3e af 3a bd 82 93 11 be 40 3b 4c bb 8a a9 32 bd
       -0.04557728 -0.14216426 -0.0031163245 -0.043618716
000130 57 54 0e 3e 21 bb c0 bd 2f 0f 0c 41 6e 65 0b 41
       0.1389936 -0.09410692 8.753707 8.712263
000140 48 04 0d 41 45 46 0c 41 75 8a 0f 41 03 5a 07 be
       8.813545 8.767156 8.971303 -0.1321793
000150 e8 6f 0c 41 89 e5 0b 41 2b 20 0c 41 03 b3 0e 41
       8.777321 8.743539 8.7578535 8.918704
000160 10 3a 24 3d 70 7b 34 3d a4 68 d8 3d 64 81 dd bb
       0.040094435 0.04406303 0.105668336 -0.0067598093
000170 fa 79 f0 bd 5b 42 e0 bd 28 98 e7 3c 6e dd 50 3d
       -0.11742015 -0.10950156 0.028270796 0.05099242
000180 e4 b7 85 3d 2f 9f 88 3d cc 0f dd bc 8e 92 ab bd
       0.06529215 0.06670987 -0.026985072 -0.083775625
000190 c6 1e 06 be 30 2e a1 3c 9e 79 4b bd a0 06 cf bd
       -0.13097677 0.019675344 -0.04967653 -0.101086855
0001a0 60 f5 ba 3b 58 c1 88 3c 42 1f c2 3d 84 a8 c7 bd
       0.0057055205 0.016693756 0.09478618 -0.09748939
0001b0 10 61 6c 3c 54 a4 9c bd 05 46 42 40 f7 b3 8e 3c
       0.014427438 -0.076485306 3.0355237 0.017419798
0001c0 66 78 04 bd 00 bc 0c 41 24 95 5c bd 00 d2 26 3d
       -0.032341383 8.795898 -0.05385317 0.040727615
0001d0 7e 00 35 bd 66 6f 40 3c 64 de ce bd 33 6e 10 3e
       -0.044189923 0.011745309 -0.101010114 0.14104538
0001e0 42 4c df bd df 28 10 3e bc 1f 0e be 64 21 0f 41
       -0.10903217 0.14078091 -0.13879293 8.945652
0001f0 de 60 0b 41 04 f4 0c 41 1d 01 0e 41 ae d6 0e 41
       8.711149 8.809574 8.875272 8.927412
000200 ea 53 0b c1 15 bf 0c 41 62 a6 0e 41 74 77 0b 41
       -8.707987 8.796651 8.915621 8.716663
000210 d1 94 0c 41 94 d1 6f 3d 1d bc 80 bd c2 4b c7 3d
       8.786332 0.05854948 -0.0628588 0.097312465
000220 46 b9 5e bd 8e 17 05 be 22 00 af bc 30 76 20 bd
       -0.05437591 -0.12997267 -0.021362368 -0.039175212
000230 ce 5a ed 3d fa 74 f7 3d 4b ea c1 3d 31 b7 8e bb
       0.11589585 0.120828584 0.09468516 -0.004355334
000240 18 b5 a1 3d 02 a1 e6 3d b6 fa ec 3d f0 ba c9 3d
       0.07895869 0.112611786 0.11571257 0.098501086
000250 a2 46 0b c1 5c ea 11 3d 4c 36 7c 3d b6 da 15 bd
       -8.704744 0.035623893 0.06157522 -0.036585532
000260 a0 5c 17 bc 50 f1 68 40 c6 a8 31 3d cf 18 d8 be
       -0.009238392 3.6397285 0.043373846 -0.42206427
000270 02 da 95 bc 03 1b 63 3d 71 5b 0d c1 8c da 46 3d
       -0.01829243 0.055445682 -8.834825 0.048548266
000280 0d e6 14 3e 40 b8 83 bd 32 30 b6 bd aa cc 0d c1
       0.14540882 -0.06431627 -0.08895911 -8.862467
000290 78 23 af 3d aa 78 c7 3d a4 34 ec c0 34 32 b9 bd
       0.08551687 0.09739812 -7.381426 -0.090427786
0002a0 27 cf 0e c1 0a ad 0e c1 f3 00 0c c1 60 43 0c c1
       -8.925574 -8.917246 -8.750232 -8.766449
0002b0 55 93 0e c1 7a e8 c6 bd 1e 5f 0c c1 5d 78 0d c1
       -8.91097 -0.0971231 -8.773222 -8.841886
0002c0 0d 02 0c c1 97 23 0c c1 f2 2d a1 3d e8 6d 17 3d
       -8.750501 -8.758689 0.078700915 0.03697005
0002d0 4b 49 b0 bd b8 62 ac bc 66 59 ac 3d 21 0c 0d 3e
       -0.086077295 -0.021043167 0.08415489 0.13774158
0002e0 3c 14 b1 3d 4b 14 13 3e 9e 4c 0d be ac fe 12 be
       0.086464375 0.1436321 -0.13798758 -0.14354962
0002f0 00 93 b4 bd 64 97 55 bd 98 df 59 3d 23 d6 14 be
       -0.088171005 -0.05214633 0.05319175 -0.14534812
000300 32 9c d8 bd cf f1 a6 bd 80 5a ed bb 66 84 b2 3d
       -0.10576667 -0.0815159 -0.0072434545 0.08716659
000310 24 b1 08 bd fc dc b8 bd 68 32 1d 3d f8 9c b3 bd
       -0.03337206 -0.090265244 0.03837815 -0.08770174
000320 80 33 4c be d6 2f ad 3d 2b cb 21 3d e3 f9 0c c1
       -0.1994152 0.084563896 0.039500397 -8.8110075
000330 b2 49 cd 3d 81 c7 10 3e 6c f5 99 3d 50 da df 3c
       0.10023822 0.14138605 0.07517514 0.02732578
000340 7d 28 03 3e ca 30 fa 3d 48 42 5d 3d 00 28 8c bc
       0.12808414 0.12216337 0.05401829 -0.017108917
000350 7b d8 d6 bd 1d ea 0a c1 23 01 0f c1 e8 82 0f c1
       -0.10490509 -8.682157 -8.9377775 -8.96946
000360 79 7d 0c c1 ce 86 0d c1 e0 49 b1 bb 98 23 0d c1
       -8.780633 -8.845411 -0.005410418 -8.82119
000370 3b aa 0b c1 32 16 0b c1 8d 7b 0e c1 24 27 a3 bd
       -8.72906 -8.692919 -8.905164 -0.0796645
000380 70 ee 3a bc 67 ab 8a bc 7c 26 86 3d d0 b9 74 3c
       -0.011409387 -0.016927434 0.06550309 0.014936879
000390 f8 c4 1c bd 59 b5 01 3e 6f 38 16 3e 43 33 cb ba
       -0.03827378 0.12666835 0.14669965 -0.0015502948
0003a0 df 5d 18 3e 7c ed 81 3d be af e7 3d 70 b8 06 be
       0.14879559 0.06344125 0.11312817 -0.13156295
0003b0 60 d3 bb 3d 73 1d bb bd 54 16 0c 41 70 5b 0f 3c
       0.09171176 -0.09136476 8.755451 0.008749828
0003c0 00 ab f8 3a 74 59 1f 3d e8 1f d2 3c fa b1 d3 bd
       0.001897186 0.03890367 0.02564998 -0.10336681
0003d0 68 d7 9e 3d 0a 25 0c be 13 52 9f bd 6e 52 7d ba
       0.07755929 -0.13686004 -0.07779326 -0.0009663467
0003e0 1c d7 0f c1 60 29 de 3c 95 2b ba bd 96 7b f2 3d
       -8.990017 0.027119339 -0.09090344 0.118399784
0003f0 d6 6e 1f bd cc 89 0d 41 e5 63 83 3d a1 a5 0a 3e
       -0.03892406 8.846142 0.06415538 0.13539745

price_encoder.encoder.weight_hh_l0 f4 [180, 45]
000000 41 47 0f 41 1f d6 0d 41 1d a4 0b 41 ac a8 0b c1
       8.954896 8.864776 8.727567 -8.72868
000010 61 51 0d 41 aa 6e 0c 41 7c 25 0d 41 12 54 0f c1
       8.832368 8.777018 8.821651 -8.958025
000020 8c 31 0d c1 94 4f 0c c1 37 e5 0e c1 3b 81 0e 41
       -8.824596 -8.769428 -8.930961 8.90655
000030 4f 79 0c c1 b7 79 0d c1 4f 30 0c 41 a7 95 0f c1
       -8.779616 -8.842216 8.761794 -8.974036
000040 fc f8 0b 41 ba fc 0d c1 ae 36 0b 41 f3 73 0f c1
       8.748287 -8.874201 8.70085 -8.965808
000050 43 41 0b 41 28 1f 0d 41 bb 82 0b 41 b8 1e 0c 41
       8.703433 8.8201065 8.719417 8.7575
000060 fe 00 0d c1 28 1d 0b c1 6e aa 0b c1 f0 88 0c 41
       -8.812742 -8.694618 -8.729109 8.783432
000070 00 35 0b c1 14 90 0c c1 3d ea 0b 41 17 a6 0d c1
       -8.700439 -8.785175 8.744687 -8.853049
000080 41 2a 0d 41 93 a0 0d 41 b4 36 0d 41 03 2c 0b c1
       8.822816 8.851703 8.825855 -8.698245
000090 fb c1 0c c1 8c 14 0e 41 18 21 0c 41 05 d7 0f 41
       -8.7973585 8.880016 8.75808 8.989995
0000a0 52 03 0f 41 8a 6a 0c 41 f0 1b 0e c1 ab 8b 0f 41
       8.938311 8.7760105 -8.881821 8.971599
0000b0 16 f1 0e c1 7c 54 0f c1 60 5a 0e c1 ad 6e 0d c1
       -8.933859 -8.958126 -8.897064 -8.83952
0000c0 ad 33 0e 41 00 0d 0c c1 80 e8 0e c1 8f bb 0b c1
       8.887616 -8.753174 -8.931763 -8.733291
0000d0 96 b9 0e c1 eb 96 0c 41 3e 70 0e c1 a3 31 0c 41
       -8.920309 8.786845 -8.902403 8.762118
0000e0 05 c2 0f c1 fe 5d 0b 41 d1 82 0c 41 b4 9a 0d c1
       -8.984868 8.710447 8.781938 -8.850269
0000f0 57 59 0f 41 3c 9e 0c c1 43 50 0b 41 c5 11 0c c1
       8.9593115 -8.788631 8.707095 -8.754338
000100 83 73 0d 41 b6 fb 0b 41 48 d5 0e c1 82 f9 0b c1
       8.840701 8.748953 -8.927071 -8.748415
000110 23 c6 0d c1 8e 6b 0f 41 29 83 0e 41 e8 14 0c 41
       -8.860873 8.963758 8.9070215 8.755104
000120 64 bb 0c c1 a7 35 0b 41 cf 24 0e 41 d0 8a 0f c1
       -8.79575 8.700599 8.883986 -8.97139
000130 f9 4b 0e 41 f5 bb 0d c1 ac 4b 0e c1 58 ef 0b c1
       8.893548 -8.858388 -8.893475 -8.745934
000140 a3 8a 0b 41 66 23 0d 41 d2 da 0e c1 cc 8d 0b c1
       8.721347 8.821142 -8.928423 -8.722118
000150 61 b4 0e c1 d7 75 0d c1 79 d6 0c c1 c7 54 0e 41
       -8.919038 -8.8412695 -8.8023615 8.895698
000160 82 0b 0c c1 e8 25 0c 41 d5 64 0c c1 6d 6f 0e c1
       -8.75281 8.759254 -8.774617 -8.902204
000170 a3 76 0f c1 36 bb 0d 41 b9 9e 0b c1 85 c0 0d c1
       -8.966464 8.858206 -8.726251 -8.859502
000180 10 4d 0b c1 85 b0 0c c1 b2 fa 0d 41 55 f3 0c c1
       -8.706314 -8.793096 8.873705 -8.809407
000190 20 ae 0f 41 f3 cd 0c c1 2e 4f 0f 41 55 4b 0e 41
       8.980011 -8.800281 8.956831 8.893392
0001a0 a8 c0 0b c1 bd 84 0b 41 3d cf 0e c1 ff 40 0f 41
       -8.734535 8.719907 -8.925595 8.953368
0001b0 d5 c1 0f c1 49 41 0e c1 b0 e0 0b 41 ca 74 0c c1
       -8.984822 -8.890939 8.742355 -8.778513
0001c0 21 7d 0e c1 75 07 0e c1 9c 88 0c 41 e0 98 0d 41
       -8.905549 -8.876821 8.783352 8.849823
0001d0 5d c8 0c 41 22 18 0f c1 16 a6 0b 41 51 bb 0f 41
       8.798917 -8.943392 8.728048 8.983232
0001e0 a7 7b 0c c1 11 23 0c 41 ad 65 0b c1 c0 f7 0d c1
       -8.780189 8.758561 -8.712323 -8.872986
0001f0 6a 74 0e c1 2f 99 0e 41 04 f5 0b 41 38 32 0b c1
       -8.903421 8.912398 8.747318 -8.69976
000200 a7 ec 0b c1 f1 b7 0b c1 a3 4e 0b c1 36 09 0d c1
       -8.745276 -8.732408 -8.706698 -8.814749
000210 f9 60 0d 41 be d3 0c c1 8c 1d 0e 41 1e 05 0f 41
       8.836175 -8.801695 8.882214 8.938749
000220 36 cf 0c 41 72 8d 0e 41 04 00 0e c1 7f 34 0e 41
       8.800589 8.909533 -8.875004 8.887816
000230 55 b4 0b 41 67 4c 0c 41 62 ca 0b 41 f8 a0 0c c1
       8.731526 8.768653 8.73691 -8.789299
000240 b0 be 0e 41 c5 00 0c c1 bb e1 0b 41 08 23 0e 41
       8.921555 -8.750188 8.74261 8.883553
000250 52 a2 0c c1 83 b6 0e 41 9a 94 0d c1 1b ba 0b 41
       -8.789629 8.919559 -8.84878 8.732936
000260 6c 7d 0d c1 d0 e3 0d 41 80 14 0e 41 61 58 0d c1
       -8.843121 8.868118 8.880005 -8.834077
000270 22 5b 0c 41 e9 ee 0e 41 38 e7 0d 41 e0 4a 0b c1
       8.772249 8.933328 8.86895 -8.70578
000280 02 d9 0c c1 d5 11 0d 41 0d 03 0c 41 4c 8d 0f c1
       -8.80298 8.816854 8.750745 -8.971996
000290 54 6a 0f c1 97 b0 0e 41 96 a1 0c c1 5b 34 0c 41
       -8.963459 8.918113 -8.78945 8.762782
0002a0 25 91 0f 41 e7 c6 0f 41 34 33 0f c1 15 04 0c c1
       8.972936 8.98606 -8.950001 -8.750997
0002b0 47 bd 0d 41 c6 54 0c 41 bd 6b 0c 41 57 c7 0e 41
       8.85871 8.770697 8.776303 8.923667
0002c0 c1 b6 0b 41 67 a8 0f c1 bb e5 0b 41 61 76 0d c1
       8.732118 -8.978614 8.743587 -8.841401
0002d0 f2 59 0b 41 2b 61 0c 41 f2 7f 0f 41 30 98 0e c1
       8.709459 8.773723 8.968737 -8.912155
0002e0 b6 2d 0b 41 94 2c 0c 41 32 ce 0f 41 39 2f 0f 41
       8.69866 8.760883 8.987841 8.949029
0002f0 1d 0e 0f c1 6a 98 0e 41 25 ef 0d c1 a2 65 0d 41
       -8.940946 8.91221 -8.870885 8.837313
000300 8a f9 0d c1 44 ef 0b c1 0b 7f 0b 41 ac c9 0b c1
       -8.873423 -8.745914 8.718516 -8.736736
000310 12 ff 0c 41 6a a5 0b c1 ef bc 0b 41 ef cd 0e 41
       8.812273 -8.727884 8.733626 8.925277
000320 56 5b 0b c1 fb 51 0b 41 a4 f1 0c 41 df 94 0f 41
       -8.709799 8.707515 8.808994 8.9738455
000330 b7 17 0d c1 a2 91 0c c1 b6 13 0e 41 fa 74 0e 41
       -8.81829 -8.785555 8.879812 8.903559
000340 04 dc 0c c1 58 5f 0b c1 87 1c 0c 41 19 49 0f c1
       -8.803715 -8.710777 8.756965 -8.955346
000350 32 c6 0d 41 9b c1 0f 41 55 28 0f 41 8b e1 0b c1
       8.860888 8.984767 8.947347 -8.742564
000360 de 1d 0d c1 ee c2 0b 41 b6 d2 0e 41 54 2c 0e 41
       -8.819792 8.73509 8.926443 8.885822
000370 a0 a4 0c 41 15 7c 0e 41 b8 17 0d c1 24 ad 0b 41
       8.790192 8.905293 -8.818291 8.729771
000380 cf 80 0b c1 db a8 0c 41 5a 15 0e 41 fa c8 0e 41
       -8.718947 8.7912245 8.880213 8.924067
000390 a1 62 0f c1 18 eb 0e 41 77 8d 0b 41 8e 85 0c 41
       -8.961579 8.932396 8.722037 8.782606
0003a0 b2 4e 0f 41 56 b7 0c c1 06 c5 0f 41 ab f1 0c c1
       8.956713 -8.79476 8.985601 -8.809001
0003b0 2d db 0b 41 bc 41 0b c1 83 e3 0c c1 02 a7 0c 41
       8.74101 -8.703548 -8.805545 8.790773
0003c0 f1 1f 0e c1 9c 50 0f 41 3b 27 0f c1 2c e2 0d 41
       -8.882798 8.95718 -8.947078 8.867718
0003d0 9b 5f 0f 41 3f eb 0b c1 7f ae 0c 41 28 64 0b 41
       8.960841 -8.744933 8.792602 8.711952
0003e0 c7 3f 0b 41 c9 96 0d c1 52 df 0d c1 44 17 0b 41
       8.703071 -8.849313 -8.867022 8.69318
0003f0 fd 4b 0f 41 1d 38 0c c1 ca 82 0f c1 af 2e 0d 41
       8.956052 -8.7637 -8.969431 8.823897

price_encoder.encoder.bias_ih_l0 f4 [180]
000000 e7 55 0e c1 45 71 0f 41 db d8 0c 41 dc 43 0c c1
       -8.895972 8.965154 8.802943 -8.766567
000010 d1 2b 0f c1 ec ba 0c c1 cf cb 0e 41 a1 f8 0c c1
       -8.948197 -8.795635 8.924758 -8.8107
000020 db 00 0f 41 0e 95 0e c1 e0 79 0c c1 77 d7 0d c1
       8.937709 -8.91139 -8.779755 -8.865104
000030 19 9a 0f c1 14 9b 0d 41 fc 4a 0c 41 f3 79 0f 41
       -8.9751215 8.850361 8.768307 8.967273
000040 e2 91 0e c1 31 f4 0b 41 e4 d3 0e c1 d6 ba 0f c1
       -8.910616 8.747117 -8.926731 -8.983114
000050 7d 01 0e c1 65 25 0b c1 17 8d 0d c1 22 02 0d 41
       -8.875363 -8.69663 -8.846946 8.813021
000060 e9 9c 0e c1 01 a3 0d c1 cf e8 0b c1 c2 09 0d 41
       -8.913308 -8.852296 -8.744338 8.814882
000070 f1 36 0e c1 cc ec 0c 41 e7 ef 0b 41 6f ab 0f c1
       -8.888413 8.807812 8.74607 -8.979354
000080 d3 5b 0f 41 6f 97 0e c1 9e 27 0c c1 2d d0 0c 41
       8.959918 -8.911971 -8.759672 8.800824
000090 ca bd 0c c1 0d db 0f c1 f7 4c 0b c1 e0 4c 0e 41
       -8.796335 -8.990979 -8.70629 8.893768
0000a0 88 0e 0c 41 6c 4b 0a 41 0b 59 0f c1 79 ca 0c 41
       8.753548 8.643414 -8.959239 8.799432
0000b0 79 11 0d 41 96 b2 0b c1 86 94 0f 41 79 db 0c 41
       8.816766 -8.7311 8.973761 8.803582
0000c0 15 ca 0e c1 5f 5d 0c c1 eb 69 0f c1 2e 21 0f 41
       -8.924336 -8.772796 -8.963359 8.9456005
0000d0 84 b3 0d c1 1a f5 0d 41 b9 e5 0b 41 a9 50 0f c1
       -8.856327 8.872339 8.743585 -8.957192
0000e0 22 f6 0b c1 af 75 0c c1 f2 cf 0d 41 96 5b 0c 41
       -8.747591 -8.778731 8.863268 8.77236
0000f0 1a 51 0d 41 f1 74 0d c1 c2 b9 0e 41 f9 31 0d 41
       8.8323 -8.84105 8.920351 8.8247
000100 71 e8 0e c1 36 30 0e c1 b8 4c 0d c1 8d be 0b c1
       -8.931748 -8.88677 -8.83123 -8.734021
000110 b9 4a 0c 41 61 6b 0e c1 3d 35 0b c1 51 6f 0b c1
       8.768243 -8.901216 -8.700498 -8.714677
000120 c0 d8 0d 41 93 e6 0e c1 c2 00 0d 41 2e 42 0b 41
       8.8654175 -8.931293 8.812685 8.703657
000130 8b ba 0d c1 1f eb 0b 41 8d be 0d c1 32 79 0e c1
       -8.858043 8.744903 -8.859021 -8.904589
000140 41 c1 0c 41 95 fb 0e c1 13 c2 0e c1 ef 7f 0c c1
       8.797181 -8.936421 -8.922381 -8.781234
000150 37 68 0e 41 c4 e3 0d 41 16 0f 0d c1 79 af 0c c1
       8.900443 8.868107 -8.816183 -8.79284
000160 93 ec 0d 41 a8 e0 0d 41 7d 3b 0b 41 c3 e3 0e c1
       8.870257 8.867348 8.7020235 -8.930606
000170 d5 4e 0c c1 fd d4 0f c1 69 56 0b 41 2f b7 0d 41
       -8.769246 -8.989499 8.708596 8.857223
000180 44 57 0e c1 f6 19 0d 41 a4 53 0c 41 30 b0 0b c1
       -8.896305 8.818838 8.77042 -8.730515
000190 32 2c 0b c1 98 12 0e 41 26 1c 0d 41 58 29 0c 41
       -8.69829 8.8795395 8.819372 8.760094
0001a0 f8 77 0e c1 40 1e 0c 41 52 77 0e 41 2b 3f 0f 41
       -8.904289 8.757385 8.904131 8.952922
0001b0 51 5f 0c 41 a5 ca 0e 41 34 4a 0f c1 b4 de 0b 41
       8.773271 8.924474 -8.955616 8.741871
0001c0 8f 07 0e 41 97 d2 0b c1 92 42 0b c1 92 84 0c c1
       8.876845 -8.738914 -8.7037525 -8.782366
0001d0 bc c9 0f 41 71 28 0b c1 d5 96 0b c1 03 e6 0e 41
       8.986752 -8.697373 -8.724324 8.931155
0001e0 34 4d 0d c1 a2 76 0e c1 2c b6 0e c1 00 70 0c 41
       -8.831348 -8.903963 -8.919476 8.777344
0001f0 4a 1c 0f 41 e1 d9 0c 41 17 2b 0f c1 6c 29 0e 41
       8.9444065 8.803193 -8.94802 8.885113
000200 31 ac 0c 41 9f 13 0d c1 db 83 0e c1 25 31 0f 41
       8.792039 -8.81729 -8.907191 8.949498
000210 b0 66 0d c1 87 73 0d c1 e1 a3 0e 41 70 11 0c c1
       -8.83757 -8.840705 8.9150095 -8.754257
000220 44 cb 0d 41 0f 6d 0b 41 1b 9a 0e c1 3d ab 0f c1
       8.862125 8.714126 -8.912623 -8.979306
000230 43 a8 0f c1 17 a5 0b 41 41 47 0d c1 4b 62 0f 41
       -8.9785795 8.727805 -8.829896 8.961497
000240 ed d1 0b c1 ca b5 0f c1 e0 93 0b c1 19 10 0d c1
       -8.738751 -8.981882 -8.723602 -8.81643
000250 d3 c8 0e 41 20 27 0e 41 3a b6 0b 41 e5 55 0b c1
       8.924029 8.884552 8.731989 -8.70847
000260 83 7a 0f 41 16 a6 0e c1 10 a7 0e c1 c5 e4 0e c1
       8.96741 -8.915548 -8.915787 -8.930852
000270 ef 39 0c c1 4b 26 0f c1 9c a0 0c 41 df 37 0e c1
       -8.764144 -8.946849 8.789211 -8.88864
000280 32 d5 0c c1 21 e6 0b c1 d5 20 0d 41 2e 73 0b c1
       -8.80205 -8.743684 8.820516 -8.71562
000290 40 dd 0b 41 e6 bb 0c 41 bb 58 0d c1 d8 ac 0b 41
       8.741516 8.795874 -8.834163 8.729698
0002a0 41 3f 0b c1 98 6b 0b c1 3d 64 0f 41 b5 df 0e c1
       -8.702943 -8.713768 8.961972 -8.929616
0002b0 15 03 0c c1 ce 81 0d c1 fb 4b 0c 41 36 2a 0c 41
       -8.750752 -8.844191 8.76855 8.760305
0002c0 b9 b4 0e c1 21 df 0d c1 ca 20 0d 41 35 c2 0f 41
       -8.919122 -8.866975 8.820505 8.984914

price_encoder.encoder.bias_hh_l0 f4 [180]
000000 3b fd 0b c1 ed bd 0f 41 41 56 0f 41 67 7f 0b c1
       -8.749324 8.983869 8.958558 -8.718604
000010 dd 9c 0e c1 b8 1e 0d c1 fa 49 0b 41 f4 6d 0f c1
       -8.913297 -8.82 8.705561 -8.964344
000020 60 00 0d 41 5c 6f 0c c1 4c b5 0c c1 bf 97 0b c1
       8.812592 -8.777187 -8.794262 -8.724547
000030 ed f3 0c c1 f6 a4 0c 41 cc be 0e 41 29 a5 0b 41
       -8.809552 8.790274 8.921581 8.727822
000040 c8 0b 0f c1 3b 44 0c 41 40 62 0e c1 27 74 0b c1
       -8.940376 8.766658 -8.898987 -8.7158575
000050 6e e1 0e c1 3b f1 0d c1 48 03 0d c1 4c 33 0d 41
       -8.930037 -8.871394 -8.813301 8.825024
000060 b1 1a 0e c1 29 bb 0d c1 e4 65 0d c1 0c 5f 0b 41
       -8.881516 -8.858193 -8.837376 8.710705
000070 35 0e 0d c1 e7 db 0d 41 46 54 0c 41 6a 69 0f c1
       -8.8159685 8.866187 8.770575 -8.963236
000080 b5 2e 0f 41 87 47 0d c1 b2 d4 0e c1 36 cd 0d 41
       8.948903 -8.829963 -8.926928 8.8626
000090 1e 1c 0b c1 9b 28 0d c1 65 8f 0c c1 f4 72 0e 41
       -8.694365 -8.822413 -8.785008 8.903065
0000a0 c1 bd 0b 41 b9 05 0b 41 17 ea 0d c1 f7 65 0b 41
       8.733827 8.688897 -8.869651 8.712394
0000b0 6c 31 0b 41 a7 bc 0e c1 59 29 0b 41 21 6b 0b 41
       8.699566 -8.921058 8.697595 8.7136545
0000c0 dd a5 0d c1 27 20 0e c1 22 c8 0d c1 bb f4 0d 41
       -8.852994 -8.88285 -8.861361 8.872249
0000d0 54 fb 0c c1 b7 b4 0c 41 9c af 0b 41 cf 76 0d c1
       -8.811359 8.79412 8.730373 -8.841506
0000e0 1c 00 0e c1 79 be 0d c1 7d bd 0d 41 aa 26 0f 41
       -8.875027 -8.859002 8.858762 8.946939
0000f0 26 f7 0b 41 47 e5 0c c1 0f 65 0d 41 d6 f2 0e 41
       8.747839 -8.805976 8.8371725 8.934286
000100 80 fd 0c c1 1d 5c 0f c1 ca 45 0e c1 05 01 0e c1
       -8.81189 -8.959989 -8.892038 -8.875249
000110 e7 46 0c 41 50 27 0e c1 95 48 0c c1 22 cb 0f c1
       8.76731 -8.884598 -8.76772 -8.987093
000120 d3 3a 0b 41 43 2f 0c c1 6b 1d 0e 41 93 e4 0e 41
       8.701861 -8.7615385 8.882182 8.930804
000130 05 11 0d c1 c3 88 0b 41 b4 d0 0c c1 11 53 0b c1
       -8.816655 8.720889 -8.800953 -8.70778
000140 a7 b8 0b 41 14 a9 0e c1 b7 cf 0d c1 fd 29 0d c1
       8.732581 -8.916279 -8.863212 -8.822751
000150 4e 6a 0f 41 5a 5a 0e 41 d0 bf 0e c1 16 c3 0e c1
       8.963453 8.8970585 -8.921829 -8.922628
000160 3e a6 0c 41 26 22 0f 41 69 ec 0d 41 72 64 0f c1
       8.790586 8.945837 8.870217 -8.962023
000170 f6 a5 0e c1 27 9e 0b c1 ce e0 0d 41 71 5b 0f 41
       -8.915518 -8.726111 8.867384 8.959825
000180 8b 25 0d c1 b4 45 0e 41 50 a0 0e 41 35 b2 0e c1
       -8.821666 8.892017 8.914139 -8.918508
000190 18 ea 0e c1 ab ee 0b 41 f7 2a 0d 41 31 bb 0d 41
       -8.932152 8.745769 8.822989 8.858201
0001a0 95 3d 0d c1 f0 c2 0b 41 33 b7 0b 41 12 0f 0f 41
       -8.827535 8.735092 8.732226 8.941179
0001b0 74 2f 0b 41 49 21 0e 41 1a 02 0d c1 b2 54 0d 41
       8.699085 8.883126 -8.813013 8.833178
0001c0 bb 75 0c 41 5e 53 0c c1 d2 bb 0e c1 78 2c 0c c1
       8.778743 -8.770353 -8.920855 -8.760857
0001d0 d2 aa 0b 41 a4 f4 0d c1 6f 41 0d c1 4f 97 0e 41
       8.729204 -8.872227 -8.828475 8.911941
0001e0 b9 a0 0b c1 b2 66 0b c1 7a d0 0c c1 5c 78 0c 41
       -8.726739 -8.712572 -8.800898 8.779385
0001f0 c0 dd 0b 41 62 96 0d 41 2f a7 0d c1 33 72 0b 41
       8.741638 8.849215 -8.853316 8.715381
000200 66 4b 0b 41 81 d7 0d c1 33 e1 0c c1 9e b1 0e 41
       8.705908 -8.865113 -8.80498 8.918364
000210 80 9a 0d c1 34 21 0f c1 88 c5 0e 41 67 aa 0f c1
       -8.85022 -8.945606 8.923225 -8.979102
000220 56 bd 0e 41 3b 45 0f 41 f7 bd 0f c1 ab 4a 0c c1
       8.921225 8.954402 -8.983878 -8.7682295
000230 ed 66 0c c1 a9 1a 0c 41 f3 6f 0b c1 eb b8 0e 41
       -8.775128 8.756509 -8.714831 8.920146
000240 5b a6 0f c1 60 14 0e c1 1d ad 0c c1 0e 81 0f c1
       -8.978114 -8.879974 -8.792264 -8.9690075
000250 00 6a 0b 41 8d 14 0d 41 56 9d 0b 41 ea 03 0d c1
       8.713379 8.817517 8.725912 -8.813456
000260 17 35 0c 41 69 2f 0e c1 3b 9e 0b c1 bd 84 0b c1
       8.762961 -8.886575 -8.7261305 -8.719907
000270 e3 a1 0b c1 c7 bd 0c c1 43 a3 0f 41 1d 69 0b c1
       -8.727023 -8.796332 8.977359 -8.713162
000280 92 d9 0e c1 be cf 0c c1 26 21 0d 41 a7 fb 0e c1
       -8.928118 -8.800718 8.820593 -8.936439
000290 33 7a 0c 41 ee 01 0d 41 db 28 0f c1 68 80 0d 41
       8.779834 8.812971 -8.9474745 8.843849
0002a0 5b 9b 0e c1 70 69 0f c1 fb a9 0c 41 b0 da 0b c1
       -8.912929 -8.963242 8.791499 -8.7408905
0002b0 e9 8d 0f c1 56 86 0f c1 26 6f 0e 41 d4 3f 0c 41
       -8.972146 -8.970297 8.902136 8.765583
0002c0 d1 34 0e c1 31 ba 0e c1 62 a9 0e 41 52 b6 0d 41
       -8.887895 -8.920457 8.916353 8.857012

atten_layer.0.weight f4 [45, 135]
000000 c0 52 bc bb 40 cb d3 3b 10 c0 bf bc 58 49 8d bc
       -0.0057471693 0.0064634383 -0.023407012 -0.017246887
000010 67 17 ab 3d 36 22 4b 3d d9 b8 42 bd 3d 6c 05 bd
       0.08354073 0.049593173 -0.047539566 -0.032573927
000020 f6 50 52 3d 2b 99 a3 3d 5c cd c8 3c 1d 5d 97 3d
       0.05134674 0.07988199 0.024511985 0.07390807
000030 3c a7 90 bc 4e 36 5b 3d 80 fe 68 ba 8d ca 01 bd
       -0.017657869 0.053518586 -0.0008888021 -0.031687308
000040 14 e6 bf bc c4 5c dd 3c 8e 32 37 3d c0 81 32 3b
       -0.02342514 0.027021773 0.044725947 0.0027237982
000050 58 d2 8d bc fa 02 fc bc 80 87 31 bb 39 f2 af 3d
       -0.017312214 -0.030763138 -0.002708882 0.08591122
000060 f8 00 dc 3c ca 41 a9 bd f0 4b 9f bc 80 1b 05 3d
       0.02685593 -0.082645014 -0.01944539 0.03249693
000070 07 82 a8 bd 12 a7 63 3d 64 7b 6a bd 89 eb 90 bd
       -0.08227926 0.055579253 -0.05724658 -0.07076175
000080 6c 25 2f bd 20 a2 40 3b de 57 81 bd d0 87 d5 bb
       -0.042760298 0.002939351 -0.063155875 -0.0065164343
000090 b8 1c 79 bd 50 e5 3f bc 30 cc a8 bd 23 7b 07 bd
       -0.060818404 -0.011712387 -0.08242071 -0.033076417
0000a0 60 33 80 bb 19 d4 a5 3d b1 46 af bd 60 66 03 bc
       -0.0039123744 0.08097095 -0.08558405 -0.008020014
0000b0 00 c0 77 b8 23 39 9c bd 1f 54 3b bd de 2a 28 3d
       -5.9068203e-05 -0.076280855 -0.04573452 0.041056506
0000c0 a2 43 6a 3d 77 0b 85 3d 0b b3 9d 3d bd f9 a3 3d
       0.057193406 0.06496327 0.07700165 0.08006618
0000d0 f0 54 96 bc 86 4a 8a bd 39 e6 97 bd ea f6 2c bd
       -0.018351048 -0.067524955 -0.07416958 -0.042227663
0000e0 e0 49 4f bd 2c 1a e9 3c 59 0e 35 bd 6f 67 88 3d
       -0.050607562 0.028454863 -0.044203136 0.066603534
0000f0 9b 5c 38 bd 7b d2 8c 3d 12 c1 51 3d ef 27 96 3d
       -0.04501019 0.068760835 0.051209517 0.073318355
000100 3f 0c 94 bd a9 35 a5 3d 40 89 c3 ba eb 93 97 3d
       -0.07228898 0.080668755 -0.0014918223 0.0740126
000110 32 5d 42 3d 88 06 81 bd ea e3 91 bd 0b 99 ae 3d
       0.04745216 -0.06300074 -0.07123549 0.085252844
000120 78 ae b2 bc a0 fc 7b bc 80 9d ea ba 31 35 7e bd
       -0.021811709 -0.015380055 -0.0017899722 -0.062062446
000130 20 55 65 bc fe d8 28 3d e0 a0 6c bb 46 42 a3 bd
       -0.013997346 0.041222565 -0.003610663 -0.07971625
000140 08 85 1e 3d 69 81 84 3d ff 6e 0d bd 6b 21 90 bd
       0.038701087 0.064699955 -0.034529682 -0.07037624
000150 6f 9a 9b 3d f2 79 34 3d 79 1f 9a 3d 00 b4 10 3b
       0.07597815 0.04406161 0.07525534 0.0022079945
000160 1d 00 32 bd 5d 1f 9b 3d 97 54 0e c1 cd 9b 13 c1
       -0.04345714 0.075743414 -8.895652 -9.225537
000170 59 0a 1a c1 0f 6b 0e c1 0e 86 0d 41 e8 54 0e c1
       -9.627526 -8.901137 8.845228 -8.895729
000180 c1 de 0e c1 d1 2f 1a 41 65 56 0d 41 4d c8 0c 41
       -8.929383 9.636674 8.833592 8.798902
000190 6c 66 0d c1 26 ae 0b c1 7c e8 0c c1 3c 63 0e 41
       -8.837505 -8.730017 -8.806759 8.899227
0001a0 0a e2 0d c1 ab 05 0c c1 03 f6 0c c1 2d 74 0d 41
       -8.867685 -8.751384 -8.810061 8.840863
0001b0 3f f0 0d 41 d6 4e 03 c1 6e 6c 16 c1 11 c9 1a 41
       8.871154 -8.206747 -9.401472 9.6740885
0001c0 8f 80 18 41 52 df 03 41 25 f4 0e c1 88 ce 00 41
       9.531386 8.242022 -8.934606 8.050423
0001d0 e9 19 15 41 4a 68 0d 41 c8 de 19 c1 8b 08 1a 41
       9.318826 8.837961 -9.61689 9.627086
0001e0 39 65 0d 41 e7 79 0e c1 e8 c4 0c 41 b7 ea 0d c1
       8.837213 -8.904761 8.798073 -8.869803
0001f0 87 2f 0c c1 d9 49 0c c1 9d 16 0d 41 33 11 0d c1
       -8.761603 -8.768029 8.818021 -8.816699
000200 e5 04 0f 41 57 3f 0d 41 47 6d 03 c1 d0 f5 15 41
       8.938695 8.827964 -8.214179 9.372513
000210 05 10 1c c1 c5 9f 0f c1 55 49 18 41 ca c1 8a bd
       -9.753911 -8.976506 9.517903 -0.067752436
000220 c5 94 99 3d f8 e9 51 bd b9 2b 8e bd 4c 7a ee 3c
       0.07499079 -0.05124852 -0.06941933 0.02911105
000230 c0 8e 3e 3b 0e 6a 35 3d 80 f2 51 3c 4c 23 c9 bc
       0.0029076785 0.044290595 0.012814164 -0.024552964
000240 7a 9d 04 3d ea cb a2 bd d3 35 12 bd 7e 44 71 3d
       0.032376744 -0.0794905 -0.035695862 0.05890321
000250 16 db 3f 3d fb 86 2b bd 1d e2 a8 3d 62 f4 5f 3d
       0.046839796 -0.041876774 0.08246253 0.05467642
000260 8e 12 2b 3d 38 15 7c bd 81 a6 51 bd fa f9 92 bd
       0.041765742 -0.061543673 -0.05118418 -0.071765855
000270 a0 f9 4d bd 1e 36 01 3d 99 b2 87 3d fd 37 94 3d
       -0.05028689 0.03154575 0.06625862 0.072372414
000280 60 26 42 bb f0 bb 11 3c ae d4 f3 bc e8 f6 82 bd
       -0.0029624924 0.008894905 -0.0297645 -0.0639475
000290 60 41 f8 3c 58 aa cc bc cc db 18 bd 48 b0 f5 bc
       0.03030461 -0.02498357 -0.03731899 -0.029991284
0002a0 44 ae 8a bd 1c 96 54 bd 1e b9 05 bd 50 8c af bc
       -0.0677152 -0.051900968 -0.032647245 -0.02142921
0002b0 9c b1 a7 bc 1f 3c a3 3d 28 59 ab bc 7a eb 2f 3d
       -0.020470433 0.079704516 -0.020916536 0.042949177
0002c0 6c d8 87 bc 77 85 9f 3d e0 bf bb bc e6 79 54 3d
       -0.01658269 0.07789128 -0.022918642 0.051874064
0002d0 ea ed 7b 3d 50 39 c6 bc 24 5c f1 3c a4 24 45 bd
       0.06150619 -0.02419725 0.029462881 -0.048130646
0002e0 b2 de 12 bd 9e 89 47 3d ea 1f 3b 3d b4 8a 91 3c
       -0.03585691 0.048715226 0.045684732 0.017766334
0002f0 c1 25 93 3d 79 7c 42 bd a8 c9 4e 3c 75 13 8d bd
       0.07184935 -0.047481988 0.012621321 -0.06888477
000300 52 da ad bd 10 d1 5b bd 3f 69 af 3d 4e 3f 51 3d
       -0.08488907 -0.053666174 0.08564996 0.051085763
000310 69 68 80 3d 3a 40 7a 3d 10 c7 33 bc 20 0d 79 3c
       0.06269915 0.061096407 -0.010972753 0.015200883
000320 ea 2c c5 bc 37 5f 49 bd a2 c8 10 bd 43 1c 4d bd
       -0.024069268 -0.04916307 -0.03534759 -0.05007578
000330 ce 6e 27 3d f0 15 24 bd bc d8 9e bc 35 02 a9 3d
       0.040877156 -0.040059984 -0.019390456 0.08252374
000340 9a a9 14 3d f8 0e 7c 3c dc 5c 84 bc 0d 30 87 3d
       0.036294557 0.015384428 -0.01615756 0.06600962
000350 30 52 af 3b 60 5a 3f 3b 60 fe 3a bd e9 9e 8f bd
       0.0053503737 0.0029198155 -0.045652747 -0.070127316
000360 42 aa 7e 3d f3 92 43 bd a9 8c 9b bd 92 cc 9f bd
       0.06217409 -0.047747564 -0.07595188 -0.078026906
000370 2c d2 9e 3c d8 3d aa bd 26 18 91 bd 10 7c ae 3c
       0.019387327 -0.08312577 -0.07084684 0.021299392
000380 da e3 26 3d 70 b7 11 c1 e1 bd 14 41 d3 52 17 41
       0.04074464 -9.107285 9.296357 9.457721
000390 0b b6 0c c1 a7 95 0c 41 f4 20 0d 41 53 5d 0c 41
       -8.794444 8.786536 8.820545 8.772784
0003a0 95 88 10 c1 9f be 0f 41 fb 69 0e 41 ac e8 0c c1
       -9.033345 8.984038 8.900874 -8.806805
0003b0 3e 0f 0a c1 d5 25 0e c1 66 5f 0c 41 30 59 0e c1
       -8.628721 -8.884236 8.773291 -8.896774
0003c0 cc 41 0a c1 db a3 0d 41 92 4d 0d 41 20 eb 0c 41
       -8.641064 8.852504 8.831438 8.807404
0003d0 41 50 13 c1 e7 ca 11 41 47 c8 10 c1 f5 97 15 c1
       -9.207093 9.112037 -9.048896 -9.349599
0003e0 2c 19 15 41 96 71 0d c1 5a d1 13 41 8b 19 11 c1
       9.3186455 -8.840231 9.238611 -9.068736
0003f0 e0 aa 0e 41 d6 20 14 41 be d1 11 c1 54 9d 0d 41
       8.916718 9.258017 -9.113707 8.85091

atten_layer.0.bias f4 [45]
000000 28 38 08 41 44 b0 0e 41 c6 e7 0a 41 a2 63 0d c1
       8.51371 8.918034 8.681585 -8.836824
000010 87 a6 0c c1 55 01 0e c1 51 26 0f c1 48 b7 0c 41
       -8.790656 -8.875325 -8.946855 8.794746
000020 aa ac 0d c1 eb 2e 0d 41 2c a7 0b c1 ad 4c 0e c1
       -8.854654 8.823955 -8.728313 -8.89372
000030 7f 03 0e 41 8d 1e 0c c1 68 e5 0a c1 82 73 0e 41
       8.875854 -8.757459 -8.681007 8.9032
000040 cf d6 0b c1 c2 a4 0e c1 f5 20 0b c1 6a f5 0b c1
       -8.7399435 -8.915224 -8.695546 -8.747416
000050 c2 0c 0e c1 6e 69 0f 41 1d 4c 0c 41 70 13 0e 41
       -8.878115 8.96324 8.768582 8.8797455
000060 c9 5e 0f c1 1a 3f 0e c1 4e 6b 0d c1 3a 82 0d c1
       -8.960641 -8.890406 -8.838697 -8.844294
000070 3d a2 0b c1 36 c4 0f c1 89 6b 0c 41 74 e0 0d 41
       -8.727109 -8.985403 8.776254 8.867298
000080 0c dc 0d 41 b6 e8 0d 41 7f 83 0c c1 cc 03 0f c1
       8.866222 8.869314 -8.782104 -8.938427
000090 56 49 0e 41 fc 81 0c 41 8b 73 0f c1 ac 85 0c 41
       8.892904 8.781734 -8.965709 8.782635
0000a0 77 37 0b c1 d2 f7 0d c1 dd f2 0d 41 89 38 0e 41
       -8.701041 -8.873003 8.871793 8.888803
0000b0 07 56 0b c1
       -8.708503

atten_layer.2.weight f4 [1, 45]
000000 4d bd e0 40 f7 db 2c c1 b2 93 02 41 88 b2 e7 c0
       7.023108 -10.803702 8.161058 -7.2405434
000010 80 db f3 c0 58 6e e6 c0 52 9e fe c0 0d e0 1a c1
       -7.6205444 -7.2009697 -7.956826 -9.6797
000020 a7 44 ed c0 1f 2c f0 40 69 35 d3 c0 aa c2 19 41
       -7.4146304 7.505386 -6.60027 9.610025
000030 f9 57 1e c1 04 56 f2 c0 86 40 38 41 9a 81 01 41
       -9.896478 -7.573 11.515753 8.094141
000040 b7 21 28 41 62 1c 1e 41 d9 f1 dd c0 b3 4e e1 c0
       10.508231 9.881929 -6.9357724 -7.040857
000050 05 b0 16 41 05 b0 0c 41 18 cf 0a 41 a6 e5 0a 41
       9.4179735 8.7929735 8.67556 8.6810665
000060 4e c5 12 41 b2 cd 24 41 f3 99 07 c1 62 a7 01 c1
       9.17317 10.300219 -8.475085 -8.103365
000070 52 2b 30 41 dc ee 11 41 8b e5 09 41 84 8a 22 c1
       11.010576 9.120815 8.618541 -10.158817
000080 71 0c 01 41 8d b2 10 c1 6f 35 20 41 ab 2b 04 c1
       8.065537 -9.0435915 10.013045 -8.260661
000090 b0 bd 16 c1 12 b9 1a c1 ff 85 19 41 e2 56 23 c1
       -9.42131 -9.670183 9.595214 -10.208712
0000a0 c8 7b e3 c0 1e ba 13 41 70 44 26 c1 23 23 0d 41
       -7.10886 9.232939 -10.391708 8.821078
0000b0 27 56 e2 c0
       -7.0730166

lstm.weight_ih_l0 f4 [180, 45]
000000 3e 47 09 41 7b 8c 0f c1 65 3b 10 c1 9d 62 0d 41
       8.579893 -8.971797 -9.014501 8.8365755
000010 db 94 0f c1 7d 75 0d 41 3a 74 0b 41 af ba 0f 41
       -8.973842 8.841184 8.715876 8.983077
000020 f8 a2 0a c1 f0 e1 0f 41 b8 6c 0c 41 f2 a7 0e 41
       -8.664787 8.9926605 8.776543 8.916002
000030 94 7e 0d 41 ac 22 0d 41 e8 12 0e c1 61 f3 0f 41
       8.843403 8.820965 -8.879616 8.996919
000040 8c 69 0c c1 79 0f 10 c1 27 26 0d c1 bc c9 10 41
       -8.775768 -9.0037775 -8.821815 9.049252
000050 0c 0f 11 c1 18 c1 13 41 7e 75 10 41 54 aa 0d c1
       -9.066174 9.234642 9.028685 -8.854084
000060 4f 7c 03 41 de 6a 11 c1 96 ef 10 41 43 b5 0d c1
       8.217849 -9.088591 9.058493 -8.856753
000070 c4 13 12 c1 61 95 0f 41 46 0e 0d c1 30 6a 0f c1
       -9.129826 8.973969 -8.815985 -8.963425
000080 18 ea 0c c1 5c d7 0e 41 0b 74 0f 41 26 83 0f c1
       -8.807152 8.927578 8.965831 -8.969519
000090 b1 be 0d c1 22 fe 0c 41 c8 7a 0d 41 b8 37 0f c1
       -8.8590555 8.812044 8.842476 -8.951103
0000a0 c3 d2 0d c1 d0 dd 10 41 03 48 11 c1 fb 30 0f c1
       -8.8639555 9.054153 -9.080081 -8.949458
0000b0 14 b4 11 41 63 ec 0f 41 74 b2 12 c1 46 fc 0f c1
       9.106464 8.995212 -9.168568 -8.99909
0000c0 b7 76 0f 41 4a 93 0e 41 45 4c 0e 41 4e 5d 0e 41
       8.966483 8.910959 8.8936205 8.897779
0000d0 c5 92 0e 41 e0 86 0c c1 f4 d3 0c 41 25 b1 0c 41
       8.910832 -8.782928 8.801746 8.793248
0000e0 66 0f 0c c1 2d c2 0d 41 44 c7 0b c1 aa 87 0c c1
       -8.753759 8.859906 -8.736149 -8.783121
0000f0 6e cf 0b 41 f6 c2 0d c1 5d 9d 0b c1 64 42 0c c1
       8.738142 -8.860098 -8.725919 -8.766209
000100 38 c2 10 41 e5 31 11 c1 95 4b 0e 41 93 f2 12 41
       9.047417 -9.074681 8.893453 9.184222
000110 41 63 0f c1 de af e9 c0 99 87 10 c1 6e 7b 10 41
       -8.961732 -7.302718 -9.033105 9.030134
000120 34 6c 0b c1 86 a2 11 c1 d2 ea 0f 41 f0 07 0d c1
       -8.713917 -9.102179 8.994829 -8.814438
000130 fa 39 0f c1 cc fa 0f c1 ec ea 0c 41 08 38 0c 41
       -8.951654 -8.99873 8.807354 8.7636795
000140 2d ba 0d c1 ef d3 0d c1 30 46 0e 41 f2 f5 0e 41
       -8.857953 -8.864242 8.892136 8.935045
000150 ce 4f 0b c1 c1 da 0d c1 87 9f 10 41 5c ff 0d c1
       -8.706984 -8.865907 9.038947 -8.874844
000160 63 3a 09 c1 a9 32 11 41 be df 0b c1 2e 5c 11 c1
       -8.576755 9.074868 -8.742125 -9.085005
000170 27 45 11 c1 c6 6b 0c 41 64 e3 0d c1 c7 45 0d 41
       -9.079383 8.776312 -8.868015 8.8295355
000180 ef d5 0d c1 05 21 11 41 44 a5 0f c1 f5 c7 0e c1
       -8.86473 9.070561 -8.977848 -8.923818
000190 9d 27 0d 41 e8 b1 f0 c0 7d 9b 0e c1 6c 08 0f 41
       8.822171 -7.521717 -8.912961 8.939556
0001a0 ac 20 0c 41 19 e6 0b 41 8c b6 0e 41 e6 37 0c 41
       8.757977 8.743676 8.919567 8.763647
0001b0 de 83 0c c1 53 e2 10 41 73 9b 10 c1 64 ba 0e 41
       -8.782194 9.055255 -9.037951 8.920506
0001c0 d3 30 0e 41 91 29 0f c1 5b 14 cb c0 83 9b 0e c1
       8.88692 -8.947648 -6.346235 -8.912967
0001d0 94 c5 12 41 1f 43 0d c1 6b c0 10 c1 ca 30 10 41
       9.173237 -8.828887 -9.046977 9.011911
0001e0 78 cc 0f 41 d9 99 0b 41 9c fb 0d c1 d1 c2 0f 41
       8.987419 8.72506 -8.873928 8.985063
0001f0 50 cd 0c 41 ee 2d 0e 41 4c d2 0f 41 00 55 0f 41
       8.800125 8.886213 8.988842 8.958252
000200 4c 68 0b c1 49 1a 0e c1 ca 2f 0d 41 26 b0 0f 41
       -8.712963 -8.881417 8.824167 8.980505
000210 47 91 11 c1 6f ce 0c 41 6e 61 0e 41 cb 51 10 41
       -9.097968 8.800399 8.898787 9.019969
000220 ed 24 12 c1 ea 39 11 c1 d1 60 0f 41 c2 a2 0c c1
       -9.134015 -9.076639 8.961137 -8.789736
000230 2e 0d 0c 41 ab dc 0f 41 e7 a8 12 41 37 5d 0c c1
       8.753218 8.991374 9.166236 -8.772758
000240 64 54 0c c1 56 9d 0f 41 c2 6b 0a c1 4a 46 0b 41
       -8.770603 8.975912 -8.651308 8.70466
000250 67 c2 0e 41 5d f5 0e 41 e4 b0 0e 41 e6 85 0d 41
       8.9224615 8.934903 8.918186 8.84519
000260 2d 85 0b c1 d3 b7 0d c1 a5 2b 14 41 a4 ea 0f c1
       -8.720014 -8.857379 9.260655 -8.994785
000270 cd 2d 0f 41 19 8d 12 41 1d cf 13 c1 3f 5c ea 40
       8.948682 9.159448 -9.238065 7.3237605
000280 cb aa 11 c1 b3 7e 11 41 83 43 0c c1 64 a5 13 c1
       -9.1041975 9.093432 -8.766482 -9.227879
000290 3a 08 12 41 72 71 0c c1 6a 2f 10 41 68 13 0c c1
       9.127008 -8.777697 9.011576 -8.754738
0002a0 d1 ff 0b 41 8a 5d 0e 41 30 c1 0e c1 1d b6 0b c1
       8.749955 8.897837 -8.922165 -8.731961
0002b0 69 23 0b 41 d4 61 0c c1 9f 9b 0c c1 8b 6a 0e 41
       8.696145 -8.773884 -8.787993 8.901011
0002c0 b5 06 10 41 71 72 0f c1 e8 cf 0c 41 6c e1 0f 41
       9.001637 -8.96544 8.800758 8.992535
0002d0 71 21 0d 41 4e 9e 11 c1 f7 ef 14 c1 f9 5f 0c 41
       8.820664 -9.101149 -9.308585 8.773431
0002e0 46 9c 0a 41 6e b7 0e 41 8b 75 0d 41 ad e6 10 41
       8.663153 8.919783 8.841197 9.056317
0002f0 01 ad 0f c1 00 98 0f c1 39 cc 0c 41 6a 22 0e c1
       -8.979737 -8.974609 8.799859 -8.883402
000300 e2 e7 0b 41 1e 86 09 c1 1d 36 10 41 a9 fe 0e 41
       8.744112 -8.595243 9.013211 8.937173
000310 f3 41 0d 41 de ca 0c c1 fb 6b 0b c1 b7 38 13 41
       8.828601 -8.799528 -8.713862 9.201346
000320 58 4c 14 c1 77 c0 0f 41 fd 82 11 41 e3 b3 13 c1
       -9.268639 8.9844885 9.09448 -9.231418
000330 eb 0e 07 41 eb 58 14 c1 7b a6 12 41 62 49 0c c1
       8.441142 -9.2717085 9.165645 -8.767916
000340 c7 4f 10 c1 49 4c 11 41 bd 75 0d c1 ff 8e 0d 41
       -9.019477 9.081124 -8.841245 8.847411
000350 10 1a 0e c1 86 37 0f 41 49 62 0f 41 e4 59 0c c1
       -8.881363 8.951056 8.961495 -8.771946
000360 8b 35 0c c1 cd b1 0e 41 82 1e 0b c1 de 8b 0e c1
       -8.763072 8.918408 -8.694948 -8.909147
000370 0a 66 0f c1 74 29 13 41 12 dd 10 c1 d7 c1 0f 41
       -8.962412 9.19762 -9.053972 8.984824
000380 8f 67 10 41 53 8d 0f 41 d0 8f 10 c1 e6 e0 12 c1
       9.025283 8.972003 -9.03511 -9.179907
000390 bb 9b 0c 41 2f 4e 0f c1 d5 33 0d 41 43 6d 0b 41
       8.78802 -8.956588 8.825154 8.714175
0003a0 b4 cc 0f 41 ed 95 0e c1 54 01 10 c1 cc 6d 0d 41
       8.987476 -8.911603 -9.000324 8.839306
0003b0 90 ea 02 c1 1b 41 0d 41 47 9f 0d 41 88 22 0e 41
       -8.182266 8.828395 8.851386 8.8834305
0003c0 9c 71 0e 41 a3 7f 0c 41 31 41 0f c1 c4 7b 0e c1
       8.902737 8.781161 -8.953416 -8.905216
0003d0 b0 70 0f 41 c4 f6 10 c1 b7 7c 0e 41 ac 53 0f 41
       8.965012 -9.0602455 8.905448 8.957928
0003e0 8b 86 11 c1 6f b5 df c0 76 18 12 c1 f0 98 0e 41
       -9.095347 -6.9908977 -9.130972 8.912338
0003f0 1b 90 0f c1 ed 8f 11 c1 37 e8 12 41 6f 39 0e c1
       -8.972682 -9.097638 9.181693 -8.889022

lstm.weight_hh_l0 f4 [180, 45]
000000 10 96 73 bc 4b 1e 10 3e 37 b5 15 be e0 ef 82 3b
       -0.014867321 0.14074056 -0.14619909 0.0039958805
000010 84 f7 14 be 31 a0 b9 bd 08 e3 1d 3d 22 2c cc 3d
       -0.14547545 -0.09063757 0.038546592 0.09969355
000020 40 ef c2 bc 95 e2 07 3e 0e 7f 8a 3d aa ec 09 be
       -0.023795724 0.13270028 0.06762515 -0.13469186
000030 30 24 18 bd e0 58 b9 bc 18 8d c2 bc cc 5f 80 3d
       -0.037143886 -0.022625387 -0.02374892 0.06268272
000040 6a c5 fb 3d 46 ea cf bd 5a 5f a9 bd 94 f1 b5 bd
       0.12293513 -0.10152106 -0.0827014 -0.08883968
000050 78 83 e3 3c 6c 35 75 3d e2 84 c8 bd 18 28 a5 3d
       0.02777265 0.0598654 -0.097909704 0.08064288
000060 2a 7d 86 3d 02 a6 34 bd a4 3a 38 bd e1 a7 0e be
       0.06566842 -0.04410363 -0.0449778 -0.13931228
000070 86 e5 c2 bd cc b7 2e 3d 60 07 6f 3d a9 91 06 3e
       -0.09516434 0.04265575 0.058356643 0.13141502
000080 46 57 0d bd 14 9d ce 3d 1c 78 a9 bd 49 f9 f3 bd
       -0.03450706 0.10088554 -0.08274862 -0.11912782
000090 2e aa 02 be 24 51 c9 3d 38 5b c0 bc c2 cd f6 3d
       -0.12760231 0.098299295 -0.023480996 0.12050964
0000a0 fc f2 5e bd 6d 13 18 3e 80 1e 81 3d dd 4f 8d bd
       -0.054430947 0.1485116 0.063046455 -0.06899998
0000b0 72 82 a5 3d 90 29 17 bd ac ba cb 3d e8 e5 b5 bc
       0.08081521 -0.03690487 0.09947714 -0.022204354
0000c0 01 58 17 3e ee d3 e3 3d 02 1b 0c be 60 60 0a 3d
       0.14779665 0.11124407 -0.13682178 0.033783317
0000d0 d0 ea 46 bc 70 f1 61 bd 64 35 9c 3d 48 dd dd bc
       -0.012140945 -0.055161893 0.07627371 -0.027083054
0000e0 a0 27 5f bd 18 27 cc bd 36 c3 f0 bd 6a 07 b7 3d
       -0.05448115 -0.09968394 -0.117559835 0.08936961
0000f0 86 85 c3 3d 18 ea 9f bc fc 42 bf 3d ea 87 82 bd
       0.09546952 -0.019520804 0.09338948 -0.0637358
000100 56 c5 f8 3d 9e 92 0d bd 26 cd 8b 3d c0 13 bd 3c
       0.12147014 -0.034563653 0.06826238 0.023080707
000110 cf 51 11 3e f8 df 93 bc ea 8e f3 bd 76 ea c5 bd
       0.14191364 -0.018051133 -0.11892493 -0.096638605
000120 c0 33 be bb a8 0c 0d bd 0c da c2 bd d6 19 de bd
       -0.005804509 -0.034435898 -0.095142454 -0.108447716
000130 f1 b8 09 be a4 c3 1d bd d6 de c6 3d 28 24 b2 3c
       -0.13449456 -0.038516656 0.09710471 0.021745756
000140 00 9b 4d 3b 4d 57 17 be c0 33 f2 3b 2c fd 10 be
       0.0031372905 -0.14779396 0.007391423 -0.14159077
000150 82 b6 ca bd 54 69 92 bd ff 04 07 be c0 01 86 bc
       -0.09898092 -0.07148996 -0.131855 -0.016358256
000160 c6 a7 9e 3d b2 a5 d1 bd 67 bd 16 be 22 b4 e8 bd
       0.07746844 -0.10236682 -0.14720689 -0.113624826
000170 10 27 5a 3c 8d 6b 17 3e da c4 f1 3d c5 5a 0c 3e
       0.013314977 0.14787121 0.118051246 0.13706501
000180 40 d8 54 3b fc 75 5d 3d 80 82 2b bd 88 ef ee bd
       0.0032477528 0.054067597 -0.0418725 -0.11666781
000190 a8 37 15 3d 84 91 99 3d 4e 29 e9 3d e0 84 b1 bd
       0.03643003 0.07498458 0.11384831 -0.08667922
0001a0 48 bb c5 3c fe ba f4 bd 22 78 08 be 16 fd 8a bd
       0.024137154 -0.119497284 -0.13327077 -0.067865536
0001b0 74 ef d8 bd e5 a5 e7 bd d0 2c 39 bc 95 f7 01 be
       -0.10592547 -0.11310939 -0.011302188 -0.12692101
0001c0 e0 4d f0 bd d2 56 d3 bd d3 fe ba bd b0 8a 1f 3c
       -0.117336035 -0.10319294 -0.09130635 0.0097376555
0001d0 28 e1 8e bc 2a 1d 80 3d 58 2f c0 bc 6c b4 71 3d
       -0.017441347 0.062555626 -0.023460075 0.059009954
0001e0 ba aa 0e bd b6 b6 99 3d b0 58 84 3d 1a 78 f5 3d
       -0.034830786 0.075055525 0.06462228 0.11985798
0001f0 a8 7c e6 3c 2a f8 e8 bd 64 d1 4a 3d 80 db 43 3c
       0.028135613 -0.113754585 0.049516097 0.011954188
000200 68 cb bc bd 0e d8 82 3d 9c 51 0f 3d 78 57 b3 bc
       -0.09218484 0.063888654 0.03498994 -0.021892294
000210 c6 2f dd bd da 40 21 bd ae c6 af bd a8 07 98 3c
       -0.10800128 -0.039368488 -0.08582817 0.018558338
000220 ea 49 8b bd 80 80 e6 bb d6 4c 03 bd d8 6c 30 3d
       -0.06801207 -0.0070343614 -0.0320557 0.04307255
000230 80 26 8c 3d f8 63 ee bc 14 a5 b5 3d 08 2f 04 be
       0.06843281 -0.029100403 0.08869377 -0.12908566
000240 0b 97 11 3e 83 68 11 3e d1 bc 02 3e 8a a2 af bd
       0.14217775 0.14200024 0.1276734 -0.08575924
000250 66 99 1f bd 50 db 12 3d b4 d0 fb bd fa f1 dc 3d
       -0.03896465 0.035853684 -0.12295666 0.10788341
000260 80 b7 c8 3b fd ac 00 3e e6 fd ff bd 16 92 25 bd
       0.0061253905 0.1256599 -0.12499599 -0.04042252
000270 f2 2f 08 be 48 fb 5d bd 18 21 cd 3c 00 76 64 bb
       -0.1329954 -0.05419472 0.025040194 -0.0034860373
000280 68 4f 7a 3d 2c 09 47 bd 30 31 34 bd 39 69 e8 bd
       0.061110884 -0.04859273 -0.04399222 -0.11348195
000290 ea aa 13 be 15 75 01 3e 81 6b d3 bd f9 db f8 bd
       -0.14420667 0.1264232 -0.10323239 -0.121513315
0002a0 88 f4 0e bd 00 32 5a bc 88 47 ea 3c 2e 43 db bd
       -0.034901172 -0.013317585 0.028598562 -0.10706173
0002b0 1d 07 e1 bd ef 07 02 be 7e 02 a1 3d 94 b8 8d 3d
       -0.10987685 -0.12698339 0.078618035 0.06919971
0002c0 40 7c 88 bd 00 88 15 3b b0 60 e4 bc 54 db 15 3d
       -0.06664324 0.0022816658 -0.027878135 0.03658612
0002d0 8c a6 c0 bd cd 37 9e bd 00 e4 f4 bc 62 48 17 bd
       -0.09406766 -0.07725487 -0.029893875 -0.036934264
0002e0 aa 52 a4 bd 94 d9 e3 bd 08 f1 9c bc fa d5 f1 bd
       -0.080235794 -0.11125484 -0.019157901 -0.11808391
0002f0 54 3c fa bc 29 57 01 3e 40 87 3a 3d 70 7e 59 3c
       -0.030546345 0.12630905 0.04553914 0.013274774
000300 60 8c 1c bd 0e 09 91 3d 50 93 54 3d 4e ef a6 3d
       -0.03821981 0.07081805 0.0518983 0.081511125
000310 c4 31 9e 3d d8 56 8a 3c 40 79 bd bc 76 89 fd bd
       0.07724336 0.016887113 -0.023129106 -0.12379734
000320 1e 2c df bd 46 a0 af 3d 78 1e e8 bc f0 85 07 3c
       -0.108970866 0.085754916 -0.028334841 0.008271679
000330 ec dd 06 be 18 c8 cb bd fb 6c a8 bd ce 30 de 3d
       -0.13170594 -0.09950274 -0.082239114 0.108491525
000340 ba 23 e6 3d ee 8a 2d bd c7 bd 8a bd 5a 0f d6 3d
       0.11237283 -0.04236882 -0.067744784 0.10452147
000350 9c e7 b0 3d 6a 6b b0 bd ee 35 e9 3d cc cb 6e 3d
       0.08637926 -0.086142376 0.113872394 0.058299825
000360 b0 04 64 3c 9e 79 8b bd bc 48 c7 3d c7 e8 ae bd
       0.013917133 -0.06810306 0.0973067 -0.085404925
000370 c0 23 ed bb 51 30 d9 bd 89 e0 14 be bf b2 8e bd
       -0.0072369277 -0.10604919 -0.14538778 -0.06967687
000380 f6 02 59 bd 80 a6 76 3d b8 df b5 3d cb b6 01 be
       -0.05298134 0.06021738 0.088805616 -0.12667386
000390 ae 31 ae 3d 0e 8e db bd af 97 0e 3e 7f d9 c1 bd
       0.085055694 -0.10720454 0.1392505 -0.09465312
0003a0 c4 17 0b 3d b0 d2 3f 3d 9e 9d 07 bd 7d 93 a8 bd
       0.03395821 0.046831787 -0.0331093 -0.08231256
0003b0 0d e5 0d 3e f1 48 17 3e 51 c9 04 3e a2 c7 58 bd
       0.13856907 0.14773919 0.12967421 -0.05292476
0003c0 80 5d 50 3c f2 1b b8 bd 00 c3 0f ba af 37 ec bd
       0.012717605 -0.08989705 -0.00054840744 -0.11534058
0003d0 b8 bf 48 bd 18 d3 65 3d 28 46 bc bd 16 5e b3 bd
       -0.049010962 0.056109518 -0.09193069 -0.0875818
0003e0 1a 8b e0 3d b0 f3 57 bd 14 c3 8e bd f6 a7 8f 3d
       0.109640315 -0.052722633 -0.06970802 0.07014458
0003f0 4a ee e3 bd 0a e6 04 bd 80 d1 02 3b 9a 9d f4 3d
       -0.111294344 -0.032445945 0.0019961298 0.119441226
