Ni_prediction/savemodel/bst_mod_677.pth (torch_old, 533443 bytes, 44 tensors)

price_encoder.attention.weight f4 [1, 121]
000000 66 1f 26 41 3a b0 26 41 5a 49 25 41 af aa 26 c1
       10.382666 10.418024 10.330408 -10.416671
000010 93 32 24 c1 a8 1f 24 41 e6 0a 26 41 2e 3a 22 c1
       -10.262347 10.257729 10.377661 -10.139204
000020 91 b4 25 41 5a e4 24 41 b1 24 25 41 a3 5b 26 41
       10.356584 10.30575 10.321458 10.397372
000030 ee 54 24 c1 d3 56 25 c1 96 7c 25 c1 fa a1 24 41
       -10.270735 -10.333697 -10.3429165 10.289545
000040 28 33 24 41 29 b1 24 c1 6b 55 22 41 0c 56 25 41
       10.262489 -10.293252 10.145854 10.333508
000050 b3 a0 22 41 f7 78 25 41 04 47 26 41 ba 05 26 c1
       10.164233 10.342032 10.392338 -10.376398
000060 1a 0d 26 c1 8c 26 25 41 34 54 24 c1 0d 49 26 c1
       -10.378199 10.321911 -10.270557 -10.392835
000070 72 f1 25 c1 41 c3 24 c1 d8 7c 25 41 c0 1c 25 c1
       -10.371447 -10.297669 10.342979 -10.319519
000080 06 5d 25 41 b4 c7 26 41 b7 44 24 41 27 2e 25 41
       10.335211 10.423756 10.266776 10.323768
000090 2c 0e 26 c1 c0 44 26 41 f0 a3 25 41 8d fa 25 c1
       -10.37846 10.391785 10.352524 -10.37367
0000a0 8a 64 25 41 50 d3 26 41 47 a2 24 41 d3 33 26 41
       10.337046 10.42659 10.2896185 10.387652
0000b0 f6 2f 24 41 3f 45 26 41 80 3a 26 41 46 38 26 41
       10.261709 10.391906 10.389282 10.388739
0000c0 2f c2 26 41 91 35 25 41 c2 91 24 41 76 f1 24 41
       10.422408 10.325578 10.285585 10.30895
0000d0 8d ad 25 41 23 cc 24 41 e6 cc 23 41 f4 8d 25 41
       10.354871 10.299838 10.237524 10.347157
0000e0 24 ec 25 41 80 a5 26 c1 a4 8c 25 c1 aa f3 26 41
       10.3701515 -10.415405 -10.346836 10.434488
0000f0 52 80 24 41 38 6b 26 c1 72 dc 25 c1 73 a9 23 c1
       10.281328 -10.401176 -10.36632 -10.228869
000100 fc a2 26 c1 83 6a 26 41 de 73 25 41 1a d4 24 41
       -10.414791 10.401004 10.340788 10.301783
000110 7c 69 24 41 6e 4f 25 c1 e6 1f 25 c1 d1 89 25 41
       10.275753 -10.331892 -10.320288 10.346147
000120 9d d2 25 41 df 6e 24 41 e2 8a 24 c1 4c 1f 24 41
       10.363919 10.277068 -10.283907 10.257641
000130 36 89 24 c1 68 31 14 41 7d 76 26 41 ad e6 25 41
       -10.283499 9.262062 10.403928 10.368817
000140 d3 55 24 c1 b6 79 24 c1 43 95 25 41 89 06 25 41
       -10.270953 -10.279715 10.348941 10.3140955
000150 f3 a0 26 41 21 c2 26 c1 41 0d 24 c1 64 d2 26 c1
       10.414294 -10.422395 -10.253236 -10.426365
000160 32 47 26 41 b0 46 26 41 2f d1 26 41 91 b5 26 41
       10.392382 10.392258 10.42607 10.419328
000170 11 fd 24 41 8d 74 26 41 6f c3 24 c1 a4 dd 26 c1
       10.311784 10.403455 -10.297713 -10.4291115
000180 24 c7 24 c1 91 d9 25 41 1a 20 26 c1 c7 d2 23 41
       -10.298618 10.365617 -10.382837 10.238959
000190 40 da 24 41 8a 0f 25 41 03 84 25 41 ac 96 26 41
       10.303284 10.316294 10.344729 10.411785
0001a0 da 35 26 41 6f b4 24 41 58 31 24 41 5d 41 26 41
       10.388147 10.294051 10.262047 10.390958
0001b0 6f 5b 26 41 89 80 25 41 b9 27 24 41 a9 92 25 41
       10.397323 10.343881 10.259698 10.348306
0001c0 39 0d 24 41 e3 e1 25 41 6b a7 26 41 17 2d 24 41
       10.253228 10.367648 10.415874 10.261008
0001d0 d8 0b 25 41 51 ee 24 41 b8 67 26 41 d7 c4 25 41
       10.315392 10.308183 10.400322 10.360557
0001e0 5f 43 26 41
       10.391448

price_encoder.encoder.weight_ih_l0 f4 [180, 45]
000000 1c 78 ce bd 32 86 f1 bd 18 32 03 3d 20 05 a9 3d
       -0.10081503 -0.11793174 0.032030195 0.08252931
000010 e6 7b 63 bd a2 b0 d5 3d 80 09 a1 3d 0a ef f9 bd
       -0.05553808 0.10434081 0.0786314 -0.12203796
000020 b7 40 d4 bd 40 15 43 bc 73 f8 e1 bd ce ef 6c bd
       -0.10363906 -0.011906922 -0.11033716 -0.057845883
000030 bc da d9 bc d8 40 fb 3c be b2 f7 bd 70 ab 76 3c
       -0.026593558 0.030670568 -0.12094639 0.015055522
000040 fc 9a 50 3d 08 40 aa bd 68 61 b9 3d e6 b1 eb 3d
       0.050929055 -0.08312994 0.09051782 0.11508541
000050 cd 3d e3 3d 77 7f 8c 3d 50 56 da bd 1e c3 23 c1
       0.11095772 0.068602495 -0.10660994 -10.235136
000060 d7 78 14 be a5 f2 17 be 6b 3d f9 bd 5b a3 03 3e
       -0.14499222 -0.14838655 -0.12169918 0.12855284
000070 53 4b 08 3e 38 9a 14 3d 0b 55 07 be e0 f9 fc bb
       0.13309984 0.036279887 -0.13216035 -0.007720217
000080 b6 f8 ef 3d 00 09 20 41 3c c2 24 41 61 09 25 41
       0.1171736 10.002197 10.2974205 10.31479
000090 2d 4d 25 41 f2 5f 25 41 f2 b0 35 bf 81 87 24 41
       10.331342 10.335924 -0.7097312 10.283082
0000a0 a7 df 27 41 7f bb 26 41 ee 7d 24 41 88 ba c6 3c
       10.492103 10.420775 10.280745 0.024258867
0000b0 d6 bd fe bd cc 7f ff bd dc 56 8f 3d ab 65 e2 3d
       -0.12438552 -0.12475547 0.06998989 0.11054548
0000c0 c0 7a 38 3d f6 29 bc 3d 0d b3 00 3e 12 07 8d bd
       0.04503894 0.09187691 0.12568302 -0.06886114
0000d0 d7 45 b1 3d 65 5f 7e 3d 70 6e 00 3d 88 ee bb 3d
       0.08655899 0.062102694 0.03135532 0.091763556
0000e0 50 f7 a8 bc fa fc 8a 3d 1f b8 04 3e 60 dc 45 3c
       -0.02062574 0.06786533 0.12960862 0.012076467
0000f0 a3 25 11 be c7 37 09 be 60 f9 9e 3b 28 8a 06 bd
       -0.14174514 -0.13400184 0.004851505 -0.0328466
000100 c3 28 e2 3d 5f 4e 81 40 63 65 b1 3d 44 c0 23 3c
       0.11042931 4.040817 0.08661916 0.00999457
000110 1c 42 23 41 77 e7 f6 bd cb 93 13 be 7a 37 f7 3d
       10.20364 -0.12055867 -0.14411847 0.12071128
000120 3e af 3a bd c0 87 11 be 40 3b 4c bb 8a a9 32 bd
       -0.04557728 -0.14211941 -0.0031163245 -0.043618716
000130 57 54 0e 3e 21 bb c0 bd 47 20 24 41 67 7c 23 41
       0.1389936 -0.09410692 10.25788 10.217872
000140 41 1b 25 41 3e 5d 24 41 6e a1 27 41 03 5a 07 be
       10.319154 10.272764 10.476912 -0.1321793
000150 e1 86 24 41 82 fc 23 41 24 37 24 41 fc c9 26 41
       10.282929 10.249147 10.263462 10.424313
000160 10 3a 24 3d 70 7b 34 3d cb 91 d8 3d 73 1d dd bb
       0.040094435 0.04406303 0.10574683 -0.0067478954
000170 38 6e f0 bd 15 1f e0 bd 28 98 e7 3c d5 7e 52 3d
       -0.117397726 -0.109434284 0.028270796 0.051390488
000180 68 cf 85 3d 18 d4 88 3d 74 0a db bc 8e 92 ab bd
       0.065337 0.06681079 -0.026738383 -0.083775625
000190 c6 1e 06 be 30 2e a1 3c 9e 79 4b bd a0 06 cf bd
       -0.13097677 0.019675344 -0.04967653 -0.101086855
0001a0 60 f5 ba 3b 58 c1 88 3c 42 1f c2 3d 84 a8 c7 bd
       0.0057055205 0.016693756 0.09478618 -0.09748939
0001b0 10 61 6c 3c 85 9f 98 bd 20 7e 62 40 c2 df e7 3c
       0.014427438 -0.07452301 3.538948 0.028304938
0001c0 cc 7d 87 bc f9 d2 24 41 24 95 5c bd 00 d2 26 3d
       -0.016539477 10.301507 -0.05385317 0.040727615
0001d0 7e 00 35 bd 47 75 40 3c c1 cc ce bd 33 6e 10 3e
       -0.044189923 0.011746711 -0.100976475 0.14104538
0001e0 42 4c df bd df 28 10 3e bc 1f 0e be 7c 32 27 41
       -0.10903217 0.14078091 -0.13879293 10.449825
0001f0 d7 77 23 41 fd 0a 25 41 16 18 26 41 a7 ed 26 41
       10.216758 10.315183 10.38088 10.433021
000200 43 f1 22 c1 0e d6 24 41 5b bd 26 41 6d 8e 23 41
       -10.183902 10.302259 10.421229 10.222272
000210 ca ab 24 41 94 d1 6f 3d 1d bc 80 bd c2 4b c7 3d
       10.291941 0.05854948 -0.0628588 0.097312465
000220 46 b9 5e bd 8e 17 05 be e4 0b af bc 30 76 20 bd
       -0.05437591 -0.12997267 -0.021367975 -0.039175212
000230 0c 4f ed 3d fa 74 f7 3d 6a e4 c1 3d 68 3e 8f bb
       0.115873426 0.120828584 0.09467395 -0.004371453
000240 18 b5 a1 3d 02 a1 e6 3d b6 fa ec 3d f0 ba c9 3d
       0.07895869 0.112611786 0.11571257 0.098501086
000250 9b 5d 23 c1 5c ea 11 3d 4c 36 7c 3d b6 da 15 bd
       -10.210353 0.035623893 0.06157522 -0.036585532
000260 a0 5c 17 bc 42 98 88 40 ae 1b 31 3d 8c bf f1 be
       -0.009238392 4.268586 0.043239288 -0.4721645
000270 8e 01 9c bc a0 a0 5e 3d 6a 72 25 c1 8c da 46 3d
       -0.01904371 0.054352403 -10.340433 0.048548266
000280 0d e6 14 3e 40 b8 83 bd 32 30 b6 bd a3 e3 25 c1
       0.14540882 -0.06431627 -0.08895911 -10.368075
000290 78 23 af 3d aa 78 c7 3d ab 84 0a c1 34 32 b9 bd
       0.08551687 0.09739812 -8.65739 -0.090427786
0002a0 18 b7 26 c1 03 c4 26 c1 ec 17 24 c1 59 5a 24 c1
       -10.419701 -10.422854 -10.25584 -10.272058
0002b0 4e aa 26 c1 7a e8 c6 bd 17 76 24 c1 56 8f 25 c1
       -10.416578 -0.0971231 -10.278831 -10.347494
0002c0 06 19 24 c1 90 3a 24 c1 f2 2d a1 3d e8 6d 17 3d
       -10.256109 -10.2642975 0.078700915 0.03697005
0002d0 2c 4f b0 bd b8 62 ac bc 66 59 ac 3d 21 0c 0d 3e
       -0.08608851 -0.021043167 0.08415489 0.13774158
0002e0 3c 14 b1 3d 6a 0e 13 3e 9e 4c 0d be ac fe 12 be
       0.086464375 0.14360967 -0.13798758 -0.14354962
0002f0 c2 9e b4 bd 64 97 55 bd 98 df 59 3d 23 d6 14 be
       -0.08819343 -0.05214633 0.05319175 -0.14534812
000300 32 9c d8 bd cf f1 a6 bd 80 5a ed bb 66 84 b2 3d
       -0.10576667 -0.0815159 -0.0072434545 0.08716659
000310 24 b1 08 bd fc dc b8 bd 68 32 1d 3d 46 ef b3 bd
       -0.03337206 -0.090265244 0.03837815 -0.08785872
000320 3c 47 83 be 0a 71 ab 3d 2c ac 1c 3d dc 10 25 c1
       -0.25640285 0.0837117 0.038250133 -10.316616
000330 b2 49 cd 3d 81 c7 10 3e 6c f5 99 3d 50 da df 3c
       0.10023822 0.14138605 0.07517514 0.02732578
000340 7d 28 03 3e ca 30 fa 3d 48 42 5d 3d 00 28 8c bc
       0.12808414 0.12216337 0.05401829 -0.017108917
000350 7b d8 d6 bd ef d7 22 c1 1c 18 27 c1 e1 99 27 c1
       -0.10490509 -10.177718 -10.443386 -10.475068
000360 72 94 24 c1 c7 9d 25 c1 e0 49 b1 bb 91 3a 25 c1
       -10.286242 -10.35102 -0.005410418 -10.326798
000370 34 c1 23 c1 2b 2d 23 c1 86 92 26 c1 24 27 a3 bd
       -10.234669 -10.198527 -10.410772 -0.0796645
000380 70 ee 3a bc 48 b1 8a bc 7c 26 86 3d d0 b9 74 3c
       -0.011409387 -0.016930237 0.06550309 0.014936879
000390 f8 c4 1c bd 59 b5 01 3e 6f 38 16 3e a8 50 cb ba
       -0.03827378 0.12666835 0.14669965 -0.0015511708
0003a0 df 5d 18 3e 7c ed 81 3d be af e7 3d 70 b8 06 be
       0.14879559 0.06344125 0.11312817 -0.13156295
0003b0 60 d3 bb 3d 73 1d bb bd 4d 2d 24 41 70 5b 0f 3c
       0.09171176 -0.09136476 10.26106 0.008749828
0003c0 00 ab f8 3a 74 59 1f 3d e8 1f d2 3c fa b1 d3 bd
       0.001897186 0.03890367 0.02564998 -0.10336681
0003d0 e4 bf 9e 3d 9d 7b 1d be 69 d3 9f bd 9a 03 ae ba
       0.07751444 -0.15379186 -0.07803995 -0.001327622
0003e0 15 ee 27 c1 60 29 de 3c 95 2b ba bd 96 7b f2 3d
       -10.4956255 0.027119339 -0.09090344 0.118399784
0003f0 d6 6e 1f bd c5 a0 25 41 88 75 83 3d a1 a5 0a 3e
       -0.03892406 10.35175 0.06418902 0.13539745

price_encoder.encoder.weight_hh_l0 f4 [180, 45]
000000 3a 5e 27 41 18 ed 25 41 16 bb 23 41 a5 bf 23 c1
       10.460505 10.370384 10.233175 -10.234288
000010 5a 68 25 41 a3 85 24 41 75 3c 25 41 0b 6b 27 c1
       10.337976 10.282626 10.32726 -10.463634
000020 85 48 25 c1 8d 66 24 c1 30 fc 26 c1 34 98 26 41
       -10.330205 -10.275037 -10.436569 10.412159
000030 48 90 24 c1 b0 90 25 c1 48 47 24 41 a0 ac 27 c1
       -10.285225 -10.347824 10.267403 -10.479645
000040 f5 0f 24 41 b3 13 26 c1 a7 4d 23 41 ec 8a 27 c1
       10.253896 -10.379809 10.206458 -10.471416
000050 3c 58 23 41 21 36 25 41 b4 99 23 41 b1 35 24 41
       10.209042 10.325715 10.225025 10.263108
000060 f7 17 25 c1 21 34 23 c1 67 c1 23 c1 e9 9f 24 41
       -10.318351 -10.200227 -10.234717 10.289041
000070 f9 4b 23 c1 0d a7 24 c1 36 01 24 41 10 bd 25 c1
       -10.206048 -10.290784 10.250296 -10.358658
000080 3a 41 25 41 8c b7 25 41 ad 4d 25 41 fc 42 23 c1
       10.328424 10.357311 10.331464 -10.203854
000090 f4 d8 24 c1 85 2b 26 41 11 38 24 41 fe ed 27 41
       -10.302967 10.385625 10.263688 10.495604
0000a0 4b 1a 27 41 83 81 24 41 e9 32 26 c1 a4 a2 27 41
       10.443919 10.281619 -10.387429 10.477207
0000b0 0f 08 27 c1 75 6b 27 c1 59 71 26 c1 a6 85 25 c1
       -10.439467 -10.463735 -10.402673 -10.345129
0000c0 a6 4a 26 41 f9 23 24 c1 79 ff 26 c1 88 d2 23 c1
       10.393225 -10.258782 -10.437371 -10.238899
0000d0 8f d0 26 c1 e4 ad 24 41 37 87 26 c1 9c 48 24 41
       -10.425918 10.292454 -10.408011 10.267727
0000e0 fe d8 27 c1 f7 74 23 41 ca 99 24 41 ad b1 25 c1
       -10.490477 10.216056 10.287546 -10.355878
0000f0 50 70 27 41 35 b5 24 c1 3c 67 23 41 be 28 24 c1
       10.46492 -10.29424 10.212704 -10.259947
000100 7c 8a 25 41 af 12 24 41 41 ec 26 c1 7b 10 24 c1
       10.34631 10.254561 -10.432679 -10.254024
000110 1c dd 25 c1 87 82 27 41 22 9a 26 41 e1 2b 24 41
       -10.366482 10.469367 10.41263 10.260713
000120 5d d2 24 c1 a0 4c 23 41 c8 3b 26 41 c9 a1 27 c1
       -10.301358 10.206207 10.389595 -10.476998
000130 f2 62 26 41 ee d2 25 c1 a5 62 26 c1 51 06 24 c1
       10.399157 -10.3639965 -10.399083 -10.251542
000140 9c a1 23 41 5f 3a 25 41 cb f1 26 c1 c5 a4 23 c1
       10.226955 10.326751 -10.4340315 -10.227727
000150 5a cb 26 c1 d0 8c 25 c1 72 ed 24 c1 c0 6b 26 41
       -10.424646 -10.346878 -10.30797 10.401306
000160 7b 22 24 c1 e1 3c 24 41 ce 7b 24 c1 66 86 26 c1
       -10.258418 10.264863 -10.280226 -10.407812
000170 9c 8d 27 c1 2f d2 25 41 b2 b5 23 c1 7e d7 25 c1
       -10.472073 10.363814 -10.231859 -10.36511
000180 09 64 23 c1 7e c7 24 c1 ab 11 26 41 4e 0a 25 c1
       -10.211923 -10.298704 10.379313 -10.315016
000190 19 c5 27 41 ec e4 24 c1 27 66 27 41 4e 62 26 41
       10.48562 -10.305889 10.46244 10.399
0001a0 a1 d7 23 c1 b6 9b 23 41 36 e6 26 c1 f8 57 27 41
       -10.240144 10.225515 -10.431204 10.458977
0001b0 ce d8 27 c1 42 58 26 c1 a9 f7 23 41 c3 8b 24 c1
       -10.490431 -10.396547 10.247964 -10.2841215
0001c0 1a 94 26 c1 6e 1e 26 c1 95 9f 24 41 d9 af 25 41
       -10.411158 -10.382429 10.28896 10.355432
0001d0 56 df 24 41 1b 2f 27 c1 0f bd 23 41 4a d2 27 41
       10.304525 -10.449 10.233657 10.48884
0001e0 a0 92 24 c1 0a 3a 24 41 a6 7c 23 c1 b9 0e 26 c1
       -10.285797 10.26417 -10.217932 -10.378594
0001f0 63 8b 26 c1 28 b0 26 41 fd 0b 24 41 31 49 23 c1
       -10.40903 10.418007 10.252927 -10.205369
000200 a0 03 24 c1 ea ce 23 c1 9c 65 23 c1 2f 20 25 c1
       -10.250885 -10.238016 -10.212307 -10.320357
000210 f2 77 25 41 b7 ea 24 c1 85 34 26 41 17 1c 27 41
       10.341784 -10.307303 10.387822 10.444358
000220 2f e6 24 41 6b a4 26 41 fd 16 26 c1 78 4b 26 41
       10.306197 10.415141 -10.380612 10.393425
000230 4e cb 23 41 60 63 24 41 5b e1 23 41 f1 b7 24 c1
       10.237135 10.274261 10.242518 -10.294908
000240 a9 d5 26 41 be 17 24 c1 b4 f8 23 41 01 3a 26 41
       10.427163 -10.255796 10.248219 10.389161
000250 4b b9 24 c1 7c cd 26 41 93 ab 25 c1 14 d1 23 41
       -10.295238 10.425167 -10.354388 10.238544
000260 65 94 25 c1 c9 fa 25 41 79 2b 26 41 5a 6f 25 c1
       -10.348729 10.373727 10.385613 -10.339685
000270 1b 72 24 41 e2 05 27 41 31 fe 25 41 d9 61 23 c1
       10.277858 10.438936 10.374558 -10.211389
000280 fb ef 24 c1 ce 28 25 41 06 1a 24 41 45 a4 27 c1
       -10.308589 10.322462 10.256353 -10.477605
000290 4d 81 27 c1 90 c7 26 41 8f b8 24 c1 54 4b 24 41
       -10.469068 10.423721 -10.295058 10.268391
0002a0 1e a8 27 41 e0 dd 27 41 2d 4a 27 c1 0e 1b 24 c1
       10.478544 10.491669 -10.455609 -10.256605
0002b0 40 d4 25 41 bf 6b 24 41 b6 82 24 41 50 de 26 41
       10.364319 10.276305 10.281912 10.4292755
0002c0 ba cd 23 41 60 bf 27 c1 b4 fc 23 41 5a 8d 25 c1
       10.237726 -10.484222 10.249195 -10.34701
0002d0 eb 70 23 41 24 78 24 41 eb 96 27 41 29 af 26 c1
       10.215068 10.279331 10.474345 -10.417764
0002e0 af 44 23 41 8d 43 24 41 2b e5 27 41 32 46 27 41
       10.204268 10.266492 10.493449 10.454638
0002f0 16 25 27 c1 63 af 26 41 1e 06 26 c1 9b 7c 25 41
       -10.446554 10.417819 -10.376493 10.342921
000300 83 10 26 c1 3d 06 24 c1 04 96 23 41 a5 e0 23 c1
       -10.379031 -10.251523 10.224125 -10.242345
000310 0b 16 25 41 63 bc 23 c1 e8 d3 23 41 e8 e4 26 41
       10.317882 -10.233493 10.239235 10.430885
000320 4f 72 23 c1 f4 68 23 41 9d 08 25 41 d8 ab 27 41
       -10.215407 10.213123 10.314603 10.479454
000330 b0 2e 25 c1 9b a8 24 c1 af 2a 26 41 f3 8b 26 41
       -10.323898 -10.291163 10.385421 10.409167
000340 fd f2 24 c1 51 76 23 c1 80 33 24 41 12 60 27 c1
       -10.309323 -10.216386 10.262573 -10.460955
000350 2b dd 25 41 94 d8 27 41 4e 3f 27 41 84 f8 23 c1
       10.366496 10.4903755 10.452955 -10.248173
000360 d7 34 25 c1 e7 d9 23 41 af e9 26 41 4d 43 26 41
       -10.3254 10.240699 10.432052 10.391431
000370 99 bb 24 41 0e 93 26 41 b1 2e 25 c1 1d c4 23 41
       10.2958 10.410902 -10.323899 10.235379
000380 c8 97 23 c1 d4 bf 24 41 53 2c 26 41 f3 df 26 41
       -10.224556 10.296833 10.385821 10.429675
000390 9a 79 27 c1 11 02 27 41 70 a4 23 41 87 9c 24 41
       -10.467188 10.4380045 10.227646 10.288215
0003a0 ab 65 27 41 4f ce 24 c1 ff db 27 41 a4 08 25 c1
       10.462321 -10.300368 10.49121 -10.31461
0003b0 26 f2 23 41 b5 58 23 c1 7c fa 24 c1 fb bd 24 41
       10.246618 -10.209157 -10.311153 10.296382
0003c0 ea 36 26 c1 95 67 27 41 34 3e 27 c1 25 f9 25 41
       -10.388407 10.462789 -10.452686 10.373326
0003d0 94 76 27 41 38 02 24 c1 78 c5 24 41 21 7b 23 41
       10.46645 -10.250542 10.29821 10.217561
0003e0 c0 56 23 41 c2 ad 25 c1 4b f6 25 c1 3d 2e 23 41
       10.208679 -10.354921 -10.37263 10.198789
0003f0 f6 62 27 41 16 4f 24 c1 c3 99 27 c1 a8 45 25 41
       10.46166 -10.269308 -10.4750395 10.329506

price_encoder.encoder.bias_ih_l0 f4 [180]
000000 e0 6c 26 c1 3e 88 27 41 d4 ef 24 41 d5 5a 24 c1
       -10.401581 10.470762 10.308552 -10.272176
000010 ca 42 27 c1 e5 d1 24 c1 c8 e2 26 41 9a 0f 25 c1
       -10.453806 -10.301244 10.4303665 -10.316309
000020 d4 17 27 41 07 ac 26 c1 d9 90 24 c1 70 ee 25 c1
       10.443317 -10.416999 -10.285363 -10.370712
000030 12 b1 27 c1 0d b2 25 41 f5 61 24 41 ec 90 27 41
       -10.48073 10.355969 10.273915 10.472881
000040 db a8 26 c1 2a 0b 24 41 dd ea 26 c1 cf d1 27 c1
       -10.4162245 10.252726 -10.43234 -10.488723
000050 76 18 26 c1 5e 3c 23 c1 10 a4 25 c1 1b 19 25 41
       -10.380972 -10.202238 -10.352554 10.318629
000060 e2 b3 26 c1 fa b9 25 c1 c8 ff 23 c1 bb 20 25 41
       -10.418917 -10.357904 -10.249947 10.320491
000070 ea 4d 26 c1 c5 03 25 41 e0 06 24 41 68 c2 27 c1
       -10.394022 10.31342 10.251678 -10.484962
000080 cc 72 27 41 68 ae 26 c1 97 3e 24 c1 26 e7 24 41
       10.465527 -10.41758 -10.265281 10.306433
000090 c3 d4 24 c1 06 f2 27 c1 f0 63 23 c1 d9 63 26 41
       -10.301944 -10.496588 -10.211899 10.399377
0000a0 81 25 24 41 65 62 22 41 04 70 27 c1 72 e1 24 41
       10.259156 10.149022 -10.464848 10.30504
0000b0 72 28 25 41 8f c9 23 c1 7f ab 27 41 72 f2 24 41
       10.322374 -10.236709 10.479369 10.309191
0000c0 0e e1 26 c1 58 74 24 c1 e4 80 27 c1 27 38 27 41
       -10.429945 -10.278404 -10.468967 10.451209
0000d0 7d ca 25 c1 13 0c 26 41 b2 fc 23 41 a2 67 27 c1
       -10.361936 10.377948 10.249193 -10.462801
0000e0 1b 0d 24 c1 a8 8c 24 c1 eb e6 25 41 8f 72 24 41
       -10.2532 -10.28434 10.368876 10.277968
0000f0 13 68 25 41 ea 8b 25 c1 bb d0 26 41 f2 48 25 41
       10.337909 -10.346659 10.42596 10.330309
000100 6a ff 26 c1 2f 47 26 c1 b1 63 25 c1 86 d5 23 c1
       -10.437357 -10.392379 -10.336839 -10.23963
000110 b2 61 24 41 5a 82 26 c1 36 4c 23 c1 4a 86 23 c1
       10.273851 -10.406824 -10.206106 -10.220285
000120 b9 ef 25 41 8c fd 26 c1 bb 17 25 41 27 59 23 41
       10.371026 -10.436901 10.318294 10.209266
000130 84 d1 25 c1 18 02 24 41 86 d5 25 c1 2b 90 26 c1
       -10.363651 10.250511 -10.36463 -10.410197
000140 3a d8 24 41 8e 12 27 c1 0c d9 26 c1 e8 96 24 c1
       10.30279 -10.44203 -10.42799 -10.286842
000150 30 7f 26 41 bd fa 25 41 0f 26 25 c1 72 c6 24 c1
       10.406052 10.373715 -10.321792 -10.298449
000160 8c 03 26 41 a1 f7 25 41 76 52 23 41 bc fa 26 c1
       10.375866 10.372956 10.207632 -10.436214
000170 ce 65 24 c1 f6 eb 27 c1 62 6d 23 41 28 ce 25 41
       -10.274855 -10.495108 10.214205 10.362831
000180 3d 6e 26 c1 ef 30 25 41 9d 6a 24 41 29 c7 23 c1
       -10.401914 10.324447 10.276029 -10.236123
000190 2b 43 23 c1 91 29 26 41 1f 33 25 41 51 40 24 41
       -10.203898 10.385148 10.324981 10.265702
0001a0 f1 8e 26 c1 39 35 24 41 4b 8e 26 41 24 56 27 41
       -10.409898 10.262994 10.4097395 10.45853
0001b0 4a 76 24 41 9e e1 26 41 2d 61 27 c1 ad f5 23 41
       10.278879 10.430082 -10.461225 10.247479
0001c0 88 1e 26 41 90 e9 23 c1 8b 59 23 c1 8b 9b 24 c1
       10.382454 -10.244522 -10.209361 -10.287974
0001d0 b5 e0 27 41 6a 3f 23 c1 ce ad 23 c1 fc fc 26 41
       10.49236 -10.202982 -10.229933 10.436764
0001e0 2d 64 25 c1 9b 8d 26 c1 25 cd 26 c1 f9 86 24 41
       -10.336957 -10.409572 -10.425084 10.282952
0001f0 43 33 27 41 da f0 24 41 10 42 27 c1 65 40 26 41
       10.450015 10.308802 -10.453629 10.390721
000200 2a c3 24 41 98 2a 25 c1 d4 9a 26 c1 1e 48 27 41
       10.297647 -10.322899 -10.4128 10.455107
000210 a9 7d 25 c1 80 8a 25 c1 da ba 26 41 69 28 24 c1
       -10.343179 -10.346313 10.420618 -10.259866
000220 3d e2 25 41 08 84 23 41 14 b1 26 c1 36 c2 27 c1
       10.367734 10.219734 -10.418232 -10.484915
000230 3c bf 27 c1 10 bc 23 41 3a 5e 25 c1 44 79 27 41
       -10.484188 10.233414 -10.335505 10.467106
000240 e6 e8 23 c1 c3 cc 27 c1 d9 aa 23 c1 12 27 25 c1
       -10.24436 -10.487491 -10.229211 -10.322039
000250 cc df 26 41 19 3e 26 41 33 cd 23 41 de 6c 23 c1
       10.429638 10.390161 10.237597 -10.214079
000260 7c 91 27 41 0f bd 26 c1 09 be 26 c1 be fb 26 c1
       10.473019 -10.421157 -10.421395 -10.4364605
000270 e8 50 24 c1 44 3d 27 c1 95 b7 24 41 d8 4e 26 c1
       -10.2697525 -10.452457 10.29482 -10.394249
000280 2b ec 24 c1 1a fd 23 c1 ce 37 25 41 27 8a 23 c1
       -10.307658 -10.249292 10.326124 -10.221229
000290 39 f4 23 41 df d2 24 41 b4 6f 25 c1 d1 c3 23 41
       10.247125 10.301482 -10.339771 10.235307
0002a0 3a 56 23 c1 91 82 23 c1 36 7b 27 41 ae f6 26 c1
       -10.208551 -10.219377 10.467581 -10.435225
0002b0 0e 1a 24 c1 c7 98 25 c1 f4 62 24 41 2f 41 24 41
       -10.256361 -10.349799 10.2741585 10.265914
0002c0 b2 cb 26 c1 1a f6 25 c1 c3 37 25 41 2e d9 27 41
       -10.42473 -10.372583 10.326114 10.490522

price_encoder.encoder.bias_hh_l0 f4 [180]
000000 34 14 24 c1 e6 d4 27 41 3a 6d 27 41 60 96 23 c1
       -10.254932 10.489477 10.464167 -10.224213
000010 d6 b3 26 c1 b1 35 25 c1 f3 60 23 41 ed 84 27 c1
       -10.418905 -10.325608 10.211169 -10.469953
000020 59 17 25 41 55 86 24 c1 45 cc 24 c1 b8 ae 23 c1
       10.3182 -10.282796 -10.2998705 -10.230156
000030 e6 0a 25 c1 ef bb 24 41 c5 d5 26 41 22 bc 23 41
       -10.315161 10.295882 10.42719 10.233431
000040 c1 22 27 c1 34 5b 24 41 39 79 26 c1 20 8b 23 c1
       -10.445985 10.272266 -10.404595 -10.221466
000050 67 f8 26 c1 34 08 26 c1 41 1a 25 c1 45 4a 25 41
       -10.435645 -10.377003 -10.31891 10.330632
000060 aa 31 26 c1 22 d2 25 c1 dd 7c 25 c1 05 76 23 41
       -10.387125 -10.363802 -10.342984 10.216313
000070 2e 25 25 c1 e0 f2 25 41 3f 6b 24 41 63 80 27 c1
       -10.321577 10.371796 10.276183 -10.468844
000080 ae 45 27 41 80 5e 25 c1 ab eb 26 c1 2f e4 25 41
       10.454512 -10.335571 -10.432536 10.368209
000090 17 33 23 c1 94 3f 25 c1 5e a6 24 c1 ed 89 26 41
       -10.199973 -10.328022 -10.290617 10.408673
0000a0 ba d4 23 41 b2 1c 23 41 10 01 26 c1 f0 7c 23 41
       10.239435 10.194506 -10.375259 10.218002
0000b0 65 48 23 41 a0 d3 26 c1 52 40 23 41 1a 82 23 41
       10.205174 -10.426666 10.203203 10.219263
0000c0 d6 bc 25 c1 20 37 26 c1 1b df 25 c1 b4 0b 26 41
       -10.358603 -10.388458 -10.366969 10.377857
0000d0 4d 12 25 c1 b0 cb 24 41 95 c6 23 41 c8 8d 25 c1
       -10.316968 10.299728 10.235982 -10.347115
0000e0 15 17 26 c1 72 d5 25 c1 76 d4 25 41 a3 3d 27 41
       -10.380635 -10.364611 10.36437 10.452548
0000f0 1f 0e 24 41 40 fc 24 c1 08 7c 25 41 cf 09 27 41
       10.253448 -10.311584 10.342781 10.439895
000100 79 14 25 c1 16 73 27 c1 c3 5c 26 c1 fe 17 26 c1
       -10.317498 -10.465597 -10.397647 -10.380857
000110 e0 5d 24 41 49 3e 26 c1 8e 5f 24 c1 1b e2 27 c1
       10.272919 -10.390206 -10.273329 -10.492702
000120 cc 51 23 41 3c 46 24 c1 64 34 26 41 8c fb 26 41
       10.20747 -10.267147 10.387791 10.436413
000130 fe 27 25 c1 bc 9f 23 41 ad e7 24 c1 0a 6a 23 c1
       -10.322264 10.226498 -10.306561 -10.213388
000140 a0 cf 23 41 0d c0 26 c1 b0 e6 25 c1 f6 40 25 c1
       10.23819 -10.421887 -10.36882 -10.32836
000150 47 81 27 41 53 71 26 41 c9 d6 26 c1 0f da 26 c1
       10.469062 10.402667 -10.427438 -10.428237
000160 37 bd 24 41 1f 39 27 41 62 03 26 41 6b 7b 27 c1
       10.296195 10.451446 10.375826 -10.467631
000170 ef bc 26 c1 20 b5 23 c1 c7 f7 25 41 6a 72 27 41
       -10.421126 -10.23172 10.3729925 10.465433
000180 84 3c 25 c1 ad 5c 26 41 49 b7 26 41 2e c9 26 c1
       -10.327274 10.397626 10.419747 -10.424116
000190 11 01 27 c1 a4 05 24 41 f0 41 25 41 2a d2 25 41
       -10.43776 10.251377 10.328598 10.36381
0001a0 8e 54 25 c1 e9 d9 23 41 2c ce 23 41 0b 26 27 41
       -10.333143 10.240701 10.237835 10.446788
0001b0 6d 46 23 41 42 38 26 41 13 19 25 c1 ab 6b 25 41
       10.204694 10.388735 -10.318622 10.338786
0001c0 b4 8c 24 41 57 6a 24 c1 cb d2 26 c1 71 43 24 c1
       10.284351 -10.275962 -10.426463 -10.266465
0001d0 cb c1 23 41 9d 0b 26 c1 68 58 25 c1 48 ae 26 41
       10.234813 -10.377835 -10.334084 10.417549
0001e0 b2 b7 23 c1 ab 7d 23 c1 73 e7 24 c1 55 8f 24 41
       -10.2323475 -10.218181 -10.306506 10.284993
0001f0 b9 f4 23 41 5b ad 25 41 28 be 25 c1 2c 89 23 41
       10.247247 10.354823 -10.358925 10.220989
000200 5f 62 23 41 7a ee 25 c1 2c f8 24 c1 97 c8 26 41
       10.211516 -10.370722 -10.310589 10.423972
000210 79 b1 25 c1 2d 38 27 c1 81 dc 26 41 60 c1 27 c1
       -10.355828 -10.451215 10.428834 -10.484711
000220 4f d4 26 41 34 5c 27 41 f0 d4 27 c1 a4 61 24 c1
       10.426833 10.460011 -10.489487 -10.273838
000230 e6 7d 24 c1 a2 31 24 41 ec 86 23 c1 e4 cf 26 41
       -10.280737 10.262117 -10.22044 10.425755
000240 54 bd 27 c1 59 2b 26 c1 16 c4 24 c1 07 98 27 c1
       -10.483723 -10.385583 -10.297873 -10.474616
000250 f9 80 23 41 86 2b 25 41 4f b4 23 41 e3 1a 25 c1
       10.218987 10.323126 10.231521 -10.319064
000260 10 4c 24 41 62 46 26 c1 34 b5 23 c1 b6 9b 23 c1
       10.26857 -10.392183 -10.231739 -10.225515
000270 dc b8 23 c1 c0 d4 24 c1 3c ba 27 41 16 80 23 c1
       -10.232632 -10.301941 10.482967 -10.218771
000280 8b f0 26 c1 b7 e6 24 c1 1f 38 25 41 a0 12 27 c1
       -10.433726 -10.306327 10.326201 -10.442047
000290 2c 91 24 41 e7 18 25 41 d4 3f 27 c1 61 97 25 41
       10.285442 10.31858 -10.453083 10.349458
0002a0 54 b2 26 c1 69 80 27 c1 f4 c0 24 41 a9 f1 23 c1
       -10.418537 -10.46885 10.297108 -10.246499
0002b0 e2 a4 27 c1 4f 9d 27 c1 1f 86 26 41 cd 56 24 41
       -10.477755 -10.475905 10.407744 10.271192
0002c0 ca 4b 26 c1 2a d1 26 c1 5b c0 26 41 4b cd 25 41
       -10.393503 -10.426065 10.421962 10.36262

atten_layer.0.weight f4 [45, 135]
000000 c0 52 bc bb 40 cb d3 3b 10 c0 bf bc 58 49 8d bc
       -0.0057471693 0.0064634383 -0.023407012 -0.017246887
000010 67 17 ab 3d 36 22 4b 3d d9 b8 42 bd 3d 6c 05 bd
       0.08354073 0.049593173 -0.047539566 -0.032573927
000020 f6 50 52 3d 2b 99 a3 3d 5c cd c8 3c 1d 5d 97 3d
       0.05134674 0.07988199 0.024511985 0.07390807
000030 3c a7 90 bc 4e 36 5b 3d 80 fe 68 ba 8d ca 01 bd
       -0.017657869 0.053518586 -0.0008888021 -0.031687308
000040 14 e6 bf bc c4 5c dd 3c 8e 32 37 3d c0 81 32 3b
       -0.02342514 0.027021773 0.044725947 0.0027237982
000050 58 d2 8d bc fa 02 fc bc 80 87 31 bb 39 f2 af 3d
       -0.017312214 -0.030763138 -0.002708882 0.08591122
000060 f8 00 dc 3c ca 41 a9 bd f0 4b 9f bc 80 1b 05 3d
       0.02685593 -0.082645014 -0.01944539 0.03249693
000070 07 82 a8 bd 12 a7 63 3d 64 7b 6a bd 89 eb 90 bd
       -0.08227926 0.055579253 -0.05724658 -0.07076175
000080 6c 25 2f bd 20 a2 40 3b de 57 81 bd d0 87 d5 bb
       -0.042760298 0.002939351 -0.063155875 -0.0065164343
000090 b8 1c 79 bd 50 e5 3f bc 30 cc a8 bd 23 7b 07 bd
       -0.060818404 -0.011712387 -0.08242071 -0.033076417
0000a0 60 33 80 bb 19 d4 a5 3d b1 46 af bd 60 66 03 bc
       -0.0039123744 0.08097095 -0.08558405 -0.008020014
0000b0 00 c0 77 b8 23 39 9c bd 1f 54 3b bd de 2a 28 3d
       -5.9068203e-05 -0.076280855 -0.04573452 0.041056506
0000c0 a2 43 6a 3d 77 0b 85 3d 0b b3 9d 3d bd f9 a3 3d
       0.057193406 0.06496327 0.07700165 0.08006618
0000d0 f0 54 96 bc 86 4a 8a bd 39 e6 97 bd ea f6 2c bd
       -0.018351048 -0.067524955 -0.07416958 -0.042227663
0000e0 e0 49 4f bd 2c 1a e9 3c 59 0e 35 bd 6f 67 88 3d
       -0.050607562 0.028454863 -0.044203136 0.066603534
0000f0 9b 5c 38 bd 7b d2 8c 3d 12 c1 51 3d ef 27 96 3d
       -0.04501019 0.068760835 0.051209517 0.073318355
000100 3f 0c 94 bd a9 35 a5 3d 40 89 c3 ba eb 93 97 3d
       -0.07228898 0.080668755 -0.0014918223 0.0740126
000110 32 5d 42 3d 88 06 81 bd ea e3 91 bd 0b 99 ae 3d
       0.04745216 -0.06300074 -0.07123549 0.085252844
000120 78 ae b2 bc a0 fc 7b bc 80 9d ea ba 31 35 7e bd
       -0.021811709 -0.015380055 -0.0017899722 -0.062062446
000130 20 55 65 bc fe d8 28 3d e0 a0 6c bb 46 42 a3 bd
       -0.013997346 0.041222565 -0.003610663 -0.07971625
000140 08 85 1e 3d 69 81 84 3d ff 6e 0d bd 6b 21 90 bd
       0.038701087 0.064699955 -0.034529682 -0.07037624
000150 6f 9a 9b 3d f2 79 34 3d 79 1f 9a 3d 00 b4 10 3b
       0.07597815 0.04406161 0.07525534 0.0022079945
000160 1d 00 32 bd 5d 1f 9b 3d 90 6b 26 c1 c6 b2 2b c1
       -0.04345714 0.075743414 -10.40126 -10.731146
000170 52 21 32 c1 08 82 26 c1 07 9d 25 41 e1 6b 26 c1
       -11.133135 -10.406746 10.350837 -10.401338
000180 ba f5 26 c1 ca 46 32 41 5e 6d 25 41 46 df 24 41
       -10.434992 11.1422825 10.339201 10.30451
000190 65 7d 25 c1 1f c5 23 c1 75 ff 24 c1 35 7a 26 41
       -10.343114 -10.235625 -10.312367 10.404836
0001a0 03 f9 25 c1 a4 1c 24 c1 fc 0c 25 c1 26 8b 25 41
       -10.373294 -10.256992 -10.31567 10.346472
0001b0 38 07 26 41 cf 65 1b c1 67 83 2e c1 0a e0 32 41
       10.376762 -9.712356 -10.907081 11.179697
0001c0 88 97 30 41 4b f6 1b 41 1e 0b 27 c1 81 e5 18 41
       11.036995 9.74763 -10.440214 9.556031
0001d0 e2 30 2d 41 43 7f 25 41 c1 f5 31 c1 84 1f 32 41
       10.824434 10.34357 -11.1224985 11.132694
0001e0 32 7c 25 41 e0 90 26 c1 e1 db 24 41 b0 01 26 c1
       10.342821 -10.41037 10.303681 -10.375412
0001f0 80 46 24 c1 d2 60 24 c1 96 2d 25 41 2c 28 25 c1
       -10.267212 -10.273638 10.323629 -10.322308
000200 de 1b 27 41 50 56 25 41 40 84 1b c1 c9 0c 2e 41
       10.4443035 10.333572 -9.719788 10.878121
000210 fe 26 34 c1 be b6 27 c1 4e 60 30 41 ca c1 8a bd
       -11.25952 -10.482115 11.023512 -0.067752436
000220 c5 94 99 3d f8 e9 51 bd b9 2b 8e bd 4c 7a ee 3c
       0.07499079 -0.05124852 -0.06941933 0.02911105
000230 c0 8e 3e 3b 0e 6a 35 3d 80 f2 51 3c 4c 23 c9 bc
       0.0029076785 0.044290595 0.012814164 -0.024552964
000240 7a 9d 04 3d ea cb a2 bd d3 35 12 bd 7e 44 71 3d
       0.032376744 -0.0794905 -0.035695862 0.05890321
000250 16 db 3f 3d fb 86 2b bd 1d e2 a8 3d 62 f4 5f 3d
       0.046839796 -0.041876774 0.08246253 0.05467642
000260 8e 12 2b 3d 38 15 7c bd 81 a6 51 bd fa f9 92 bd
       0.041765742 -0.061543673 -0.05118418 -0.071765855
000270 a0 f9 4d bd 1e 36 01 3d 99 b2 87 3d fd 37 94 3d
       -0.05028689 0.03154575 0.06625862 0.072372414
000280 60 26 42 bb f0 bb 11 3c ae d4 f3 bc e8 f6 82 bd
       -0.0029624924 0.008894905 -0.0297645 -0.0639475
000290 60 41 f8 3c 58 aa cc bc cc db 18 bd 48 b0 f5 bc
       0.03030461 -0.02498357 -0.03731899 -0.029991284
0002a0 44 ae 8a bd 1c 96 54 bd 1e b9 05 bd 50 8c af bc
       -0.0677152 -0.051900968 -0.032647245 -0.02142921
0002b0 9c b1 a7 bc 1f 3c a3 3d 28 59 ab bc 7a eb 2f 3d
       -0.020470433 0.079704516 -0.020916536 0.042949177
0002c0 6c d8 87 bc 77 85 9f 3d e0 bf bb bc e6 79 54 3d
       -0.01658269 0.07789128 -0.022918642 0.051874064
0002d0 ea ed 7b 3d 50 39 c6 bc 24 5c f1 3c a4 24 45 bd
       0.06150619 -0.02419725 0.029462881 -0.048130646
0002e0 b2 de 12 bd 9e 89 47 3d ea 1f 3b 3d b4 8a 91 3c
       -0.03585691 0.048715226 0.045684732 0.017766334
0002f0 c1 25 93 3d 79 7c 42 bd a8 c9 4e 3c 75 13 8d bd
       0.07184935 -0.047481988 0.012621321 -0.06888477
000300 52 da ad bd 10 d1 5b bd 3f 69 af 3d 4e 3f 51 3d
       -0.08488907 -0.053666174 0.08564996 0.051085763
000310 69 68 80 3d 3a 40 7a 3d 10 c7 33 bc 20 0d 79 3c
       0.06269915 0.061096407 -0.010972753 0.015200883
000320 ea 2c c5 bc 37 5f 49 bd a2 c8 10 bd 43 1c 4d bd
       -0.024069268 -0.04916307 -0.03534759 -0.05007578
000330 ce 6e 27 3d f0 15 24 bd bc d8 9e bc 35 02 a9 3d
       0.040877156 -0.040059984 -0.019390456 0.08252374
000340 9a a9 14 3d f8 0e 7c 3c dc 5c 84 bc 0d 30 87 3d
       0.036294557 0.015384428 -0.01615756 0.06600962
000350 30 52 af 3b 60 5a 3f 3b 60 fe 3a bd e9 9e 8f bd
       0.0053503737 0.0029198155 -0.045652747 -0.070127316
000360 42 aa 7e 3d f3 92 43 bd a9 8c 9b bd 92 cc 9f bd
       0.06217409 -0.047747564 -0.07595188 -0.078026906
000370 2c d2 9e 3c d8 3d aa bd 26 18 91 bd 10 7c ae 3c
       0.019387327 -0.08312577 -0.07084684 0.021299392
000380 da e3 26 3d 69 ce 29 c1 da d4 2c 41 cc 69 2f 41
       0.04074464 -10.612893 10.801966 10.963329
000390 04 cd 24 c1 a0 ac 24 41 ed 37 25 41 4c 74 24 41
       -10.300053 10.292145 10.326154 10.278393
0003a0 8e 9f 28 c1 98 d5 27 41 f4 80 26 41 a5 ff 24 c1
       -10.538954 10.489647 10.406483 -10.312413
0003b0 37 26 22 c1 ce 3c 26 c1 5f 76 24 41 29 70 26 c1
       -10.13433 -10.389845 10.278899 -10.402383
0003c0 c5 58 22 c1 d4 ba 25 41 8b 64 25 41 19 02 25 41
       -10.146672 10.358112 10.337047 10.313012
0003d0 3a 67 2b c1 e0 e1 29 41 40 df 28 c1 ee ae 2d c1
       -10.712702 10.617645 -10.554504 -10.855207
0003e0 25 30 2d 41 8f 88 25 c1 53 e8 2b 41 84 30 29 c1
       10.824254 -10.3458395 10.74422 -10.574345
0003f0 d9 c1 26 41 cf 37 2c 41 b7 e8 29 c1 4d b4 25 41
       10.422326 10.763625 -10.619315 10.356519

atten_layer.0.bias f4 [45]
000000 21 4f 20 41 3d c7 26 41 bf fe 22 41 9b 7a 25 c1
       10.019319 10.423642 10.187194 -10.342433
000010 80 bd 24 c1 4e 18 26 c1 4a 3d 27 c1 41 ce 24 41
       -10.296265 -10.380934 -10.452463 10.300355
000020 a3 c3 25 c1 e4 45 25 41 25 be 23 c1 a6 63 26 c1
       -10.360263 10.329563 -10.233922 -10.399328
000030 78 1a 26 41 86 35 24 c1 61 fc 22 c1 7b 8a 26 41
       10.381462 -10.263067 -10.186616 10.408809
000040 c8 ed 23 c1 bb bb 26 c1 ee 37 23 c1 63 0c 24 c1
       -10.245552 -10.420833 -10.201155 -10.253024
000050 bb 23 26 c1 67 80 27 41 16 63 24 41 69 2a 26 41
       -10.383723 10.468848 10.274191 10.385354
000060 c2 75 27 c1 13 56 26 c1 47 82 25 c1 33 99 25 c1
       -10.466249 -10.396014 -10.344306 -10.349902
000070 36 b9 23 c1 2f db 27 c1 82 82 24 41 6d f7 25 41
       -10.2327175 -10.491012 10.281862 10.372907
000080 05 f3 25 41 af ff 25 41 78 9a 24 c1 c5 1a 27 c1
       10.371831 10.374923 -10.287712 -10.444036
000090 4f 60 26 41 f5 98 24 41 84 8a 27 c1 a5 9c 24 41
       10.398513 10.287343 -10.471317 10.288243
0000a0 70 4e 23 c1 cb 0e 26 c1 d6 09 26 41 82 4f 26 41
       -10.20665 -10.378612 10.377401 10.394411
0000b0 00 6d 23 c1
       -10.214111

atten_layer.2.weight f4 [1, 45]
000000 b8 73 08 41 f0 f2 44 c1 ab aa 1a 41 c2 ee 0b c1
       8.528252 -12.309311 9.666667 -8.7457905
000010 fc 03 12 c1 96 4c 0b c1 0d 66 17 c1 06 f7 32 c1
       -9.125973 -8.706198 -9.462415 -11.185308
000020 29 b8 0e c1 11 2c 10 41 f3 ae 01 c1 a3 d9 31 41
       -8.919961 9.010758 -8.105212 11.115634
000030 f2 6e 36 c1 26 41 11 c1 7f 57 50 41 93 98 19 41
       -11.402086 -9.078405 13.021361 9.59975
000040 b0 38 40 41 5b 33 36 41 d1 0d 07 c1 74 bc 08 c1
       12.01384 11.387538 -8.440873 -8.546009
000050 fe c6 2e 41 fe c6 24 41 11 e6 22 41 9f fc 22 41
       10.923582 10.298582 10.181169 10.186675
000060 47 dc 2a 41 ab e4 3c 41 ec b0 1f c1 5b be 19 c1
       10.678779 11.805827 -9.980694 -9.6089735
000070 4b 42 48 41 d5 05 2a 41 84 fc 21 41 7d a1 3a c1
       12.516185 10.626424 10.124149 -11.664426
000080 6a 23 19 41 86 c9 28 c1 68 4c 38 41 a4 42 1c c1
       9.571146 -10.5492 11.518654 -9.76627
000090 a9 d4 2e c1 0b d0 32 c1 f8 9c 31 41 db 6d 3b c1
       -10.926919 -11.175792 11.100822 -11.71432
0000a0 20 d3 09 c1 17 d1 2b 41 69 5b 3e c1 1c 3a 25 41
       -8.614044 10.738547 -11.897317 10.326687
0000b0 3d 40 09 c1
       -8.578183

lstm.weight_ih_l0 f4 [180, 45]
000000 37 5e 21 41 74 a3 27 c1 5e 52 28 c1 96 79 25 41
       10.085502 -10.477406 -10.520109 10.342184
000010 d4 ab 27 c1 76 8c 25 41 33 8b 23 41 a8 d1 27 41
       -10.47945 10.346792 10.221484 10.488686
000020 f1 b9 22 c1 e9 f8 27 41 b1 83 24 41 eb be 26 41
       -10.170396 10.498269 10.282151 10.421611
000030 8d 95 25 41 a5 39 25 41 e1 29 26 c1 5a 0a 28 41
       10.349011 10.326573 -10.385224 10.502527
000040 85 80 24 c1 72 26 28 c1 20 3d 25 c1 b5 e0 28 41
       -10.281377 -10.509386 -10.327423 10.55486
000050 05 26 29 c1 11 d8 2b 41 77 8c 28 41 4d c1 25 c1
       -10.571782 10.740251 10.534293 -10.359693
000060 48 93 1b 41 d7 81 29 c1 8f 06 29 41 3c cc 25 c1
       9.723457 -10.594199 10.564101 -10.362362
000070 bd 2a 2a c1 5a ac 27 41 3f 25 25 c1 29 81 27 c1
       -10.635434 10.479578 -10.321593 -10.469033
000080 11 01 25 c1 55 ee 26 41 04 8b 27 41 1f 9a 27 c1
       -10.31276 10.433187 10.471439 -10.475127
000090 aa d5 25 c1 1b 15 25 41 c1 91 25 41 b1 4e 27 c1
       -10.364664 10.317653 10.348084 -10.456712
0000a0 bc e9 25 c1 c9 f4 28 41 fc 5e 29 c1 f4 47 27 c1
       -10.369564 10.559762 -10.58569 -10.455067
0000b0 0d cb 29 41 5c 03 28 41 6d c9 2a c1 3f 13 28 c1
       10.612073 10.50082 -10.674176 -10.504699
0000c0 b0 8d 27 41 43 aa 26 41 3e 63 26 41 47 74 26 41
       10.472092 10.416568 10.399229 10.403388
0000d0 be a9 26 41 d9 9d 24 c1 ed ea 24 41 1e c8 24 41
       10.416441 -10.288537 10.307355 10.298857
0000e0 5f 26 24 c1 26 d9 25 41 3d de 23 c1 a3 9e 24 c1
       -10.259368 10.365515 -10.241757 -10.28873
0000f0 67 e6 23 41 ef d9 25 c1 56 b4 23 c1 5d 59 24 c1
       10.243751 -10.365706 -10.231527 -10.271817
000100 31 d9 28 41 de 48 29 c1 8e 62 26 41 8c 09 2b 41
       10.553025 -10.58029 10.399061 10.689831
000110 3a 7a 27 c1 8c ed 0c c1 92 9e 28 c1 67 92 28 41
       -10.46734 -8.807995 -10.538713 10.535743
000120 2d 83 23 c1 7f b9 29 c1 cb 01 28 41 e9 1e 25 c1
       -10.219525 -10.607787 10.500438 -10.320046
000130 f3 50 27 c1 c5 11 28 c1 e5 01 25 41 01 4f 24 41
       -10.457263 -10.504338 10.312963 10.269288
000140 26 d1 25 c1 e8 ea 25 c1 29 5d 26 41 eb 0c 27 41
       -10.363562 -10.36985 10.397744 10.440654
000150 c7 66 23 c1 ba f1 25 c1 80 b6 28 41 55 16 26 c1
       -10.212592 -10.371515 10.544556 -10.380452
000160 5c 51 21 c1 a2 49 29 41 b7 f6 23 c1 27 73 29 c1
       -10.082363 10.580477 -10.247733 -10.590613
000170 20 5c 29 c1 bf 82 24 41 5d fa 25 c1 c0 5c 25 41
       -10.584991 10.28192 -10.373624 10.335144
000180 e8 ec 25 c1 fe 37 29 41 3d bc 27 c1 ee de 26 c1
       -10.370338 10.57617 -10.483457 -10.429426
000190 96 3e 25 41 ff 6e 10 c1 76 b2 26 c1 65 1f 27 41
       10.32778 -9.027099 -10.41857 10.445165
0001a0 a5 37 24 41 12 fd 23 41 85 cd 26 41 df 4e 24 41
       10.263585 10.249285 10.425176 10.269256
0001b0 d7 9a 24 c1 4c f9 28 41 6c b2 28 c1 5d d1 26 41
       -10.287803 10.5608635 -10.54356 10.426114
0001c0 cc 47 26 41 8a 40 27 c1 6c 3c fb c0 7c b2 26 c1
       10.392529 -10.453257 -7.8511257 -10.418575
0001d0 8d dc 2a 41 18 5a 25 c1 64 d7 28 c1 c3 47 28 41
       10.678845 -10.334496 -10.552586 10.51752
0001e0 71 e3 27 41 d2 b0 23 41 95 12 26 c1 ca d9 27 41
       10.493028 10.230669 -10.379537 10.490671
0001f0 49 e4 24 41 e7 44 26 41 45 e9 27 41 f9 6b 27 41
       10.305734 10.391822 10.494451 10.4638605
000200 45 7f 23 c1 42 31 26 c1 c3 46 25 41 1f c7 27 41
       -10.218572 -10.387026 10.329776 10.486114
000210 40 a8 29 c1 68 e5 24 41 67 78 26 41 c4 68 28 41
       -10.603577 10.306007 10.404395 10.525578
000220 e6 3b 2a c1 e3 50 29 c1 ca 77 27 41 bb b9 24 c1
       -10.639624 -10.582248 10.466745 -10.295344
000230 27 24 24 41 a4 f3 27 41 e0 bf 2a 41 30 74 24 c1
       10.258826 10.496983 10.6718445 -10.278366
000240 5d 6b 24 c1 4f b4 27 41 bb 82 22 c1 43 5d 23 41
       -10.276212 10.481521 -10.156917 10.210269
000250 60 d9 26 41 56 0c 27 41 dd c7 26 41 df 9c 25 41
       10.42807 10.440512 10.423795 10.350799
000260 26 9c 23 c1 cc ce 25 c1 9e 42 2c 41 9d 01 28 c1
       -10.225622 -10.3629875 10.766264 -10.500394
000270 c6 44 27 41 12 a4 2a 41 16 e6 2b c1 c7 43 0d 41
       10.45429 10.665056 -10.743673 8.829047
000280 c4 c1 29 c1 ac 95 29 41 7c 5a 24 c1 5d bc 2b c1
       -10.609806 10.599041 -10.272091 -10.733487
000290 33 1f 2a 41 6b 88 24 c1 63 46 28 41 61 2a 24 c1
       10.632617 -10.283305 10.517184 -10.260346
0002a0 ca 16 24 41 83 74 26 41 29 d8 26 c1 16 cd 23 c1
       10.255564 10.403445 -10.427773 -10.23757
0002b0 62 3a 23 41 cd 78 24 c1 98 b2 24 c1 84 81 26 41
       10.201754 -10.279492 -10.293602 10.40662
0002c0 ae 1d 28 41 6a 89 27 c1 e1 e6 24 41 65 f8 27 41
       10.507246 -10.471048 10.306367 10.498143
0002d0 6a 38 25 41 47 b5 29 c1 f0 06 2d c1 f2 76 24 41
       10.326273 -10.606757 -10.814194 10.279039
0002e0 3f b3 22 41 67 ce 26 41 84 8c 25 41 a6 fd 28 41
       10.168761 10.425391 10.346806 10.561926
0002f0 fa c3 27 c1 f9 ae 27 c1 32 e3 24 41 63 39 26 c1
       -10.485346 -10.480218 10.305468 -10.38901
000300 db fe 23 41 17 9d 21 c1 16 4d 28 41 a2 15 27 41
       10.249721 -10.100852 10.51882 10.442781
000310 ec 58 25 41 d7 e1 24 c1 f4 82 23 c1 b0 4f 2b 41
       10.334209 -10.305137 -10.219471 10.706955
000320 51 63 2c c1 70 d7 27 41 f6 99 29 41 dc ca 2b c1
       -10.774247 10.490097 10.600088 -10.737026
000330 e4 25 1f 41 e4 6f 2c c1 74 bd 2a 41 5b 60 24 c1
       9.946751 -10.777317 10.671253 -10.273524
000340 c0 66 28 c1 42 63 29 41 b6 8c 25 c1 f8 a5 25 41
       -10.525085 10.586733 -10.346853 10.35302
000350 09 31 26 c1 7f 4e 27 41 42 79 27 41 dd 70 24 c1
       -10.386971 10.456664 10.467104 -10.2775545
000360 84 4c 24 c1 c6 c8 26 41 7b 35 23 c1 d7 a2 26 c1
       -10.268681 10.424017 -10.200557 -10.414756
000370 03 7d 27 c1 6d 40 2b 41 0b f4 28 c1 d0 d8 27 41
       -10.46802 10.703229 -10.559581 10.490433
000380 88 7e 28 41 4c a4 27 41 c9 a6 28 c1 df f7 2a c1
       10.530891 10.477612 -10.540719 -10.685515
000390 b4 b2 24 41 28 65 27 c1 ce 4a 25 41 3c 84 23 41
       10.293629 -10.462196 10.330763 10.219784
0003a0 ad e3 27 41 e6 ac 26 c1 4d 18 28 c1 c5 84 25 41
       10.493085 -10.417212 -10.505933 10.344914
0003b0 89 01 1b c1 14 58 25 41 40 b6 25 41 81 39 26 41
       -9.687875 10.334003 10.356995 10.389039
0003c0 95 88 26 41 9c 96 24 41 2a 58 27 c1 bd 92 26 c1
       10.408345 10.28677 -10.459024 -10.410825
0003d0 a9 87 27 41 bd 0d 29 c1 b0 93 26 41 a5 6a 27 41
       10.47062 -10.565854 10.4110565 10.463536
0003e0 84 9d 29 c1 b9 ef 07 c1 6f 2f 2a c1 e9 af 26 41
       -10.600956 -8.496026 -10.63658 10.417947
0003f0 14 a7 27 c1 e6 a6 29 c1 30 ff 2a 41 68 50 26 c1
       -10.478291 -10.603247 10.687302 -10.39463

lstm.weight_hh_l0 f4 [180, 45]
000000 10 96 73 bc 4b 1e 10 3e 37 b5 15 be e0 ef 82 3b
       -0.014867321 0.14074056 -0.14619909 0.0039958805
000010 84 f7 14 be 31 a0 b9 bd 08 e3 1d 3d 22 2c cc 3d
       -0.14547545 -0.09063757 0.038546592 0.09969355
000020 40 ef c2 bc 95 e2 07 3e 0e 7f 8a 3d aa ec 09 be
       -0.023795724 0.13270028 0.06762515 -0.13469186
000030 30 24 18 bd e0 58 b9 bc 18 8d c2 bc cc 5f 80 3d
       -0.037143886 -0.022625387 -0.02374892 0.06268272
000040 6a c5 fb 3d 46 ea cf bd 5a 5f a9 bd 94 f1 b5 bd
       0.12293513 -0.10152106 -0.0827014 -0.08883968
000050 78 83 e3 3c 6c 35 75 3d e2 84 c8 bd 18 28 a5 3d
       0.02777265 0.0598654 -0.097909704 0.08064288
000060 2a 7d 86 3d 02 a6 34 bd a4 3a 38 bd e1 a7 0e be
       0.06566842 -0.04410363 -0.0449778 -0.13931228
000070 86 e5 c2 bd cc b7 2e 3d 60 07 6f 3d a9 91 06 3e
       -0.09516434 0.04265575 0.058356643 0.13141502
000080 46 57 0d bd 14 9d ce 3d 1c 78 a9 bd 49 f9 f3 bd
       -0.03450706 0.10088554 -0.08274862 -0.11912782
000090 2e aa 02 be 24 51 c9 3d 38 5b c0 bc c2 cd f6 3d
       -0.12760231 0.098299295 -0.023480996 0.12050964
0000a0 fc f2 5e bd 6d 13 18 3e 80 1e 81 3d dd 4f 8d bd
       -0.054430947 0.1485116 0.063046455 -0.06899998
0000b0 72 82 a5 3d 90 29 17 bd ac ba cb 3d e8 e5 b5 bc
       0.08081521 -0.03690487 0.09947714 -0.022204354
0000c0 01 58 17 3e ee d3 e3 3d 02 1b 0c be 60 60 0a 3d
       0.14779665 0.11124407 -0.13682178 0.033783317
0000d0 d0 ea 46 bc 70 f1 61 bd 64 35 9c 3d 48 dd dd bc
       -0.012140945 -0.055161893 0.07627371 -0.027083054
0000e0 a0 27 5f bd 18 27 cc bd 36 c3 f0 bd 6a 07 b7 3d
       -0.05448115 -0.09968394 -0.117559835 0.08936961
0000f0 86 85 c3 3d 18 ea 9f bc fc 42 bf 3d ea 87 82 bd
       0.09546952 -0.019520804 0.09338948 -0.0637358
000100 56 c5 f8 3d 9e 92 0d bd 26 cd 8b 3d c0 13 bd 3c
       0.12147014 -0.034563653 0.06826238 0.023080707
000110 cf 51 11 3e f8 df 93 bc ea 8e f3 bd 76 ea c5 bd
       0.14191364 -0.018051133 -0.11892493 -0.096638605
000120 c0 33 be bb a8 0c 0d bd 0c da c2 bd d6 19 de bd
       -0.005804509 -0.034435898 -0.095142454 -0.108447716
000130 f1 b8 09 be a4 c3 1d bd d6 de c6 3d 28 24 b2 3c
       -0.13449456 -0.038516656 0.09710471 0.021745756
000140 00 9b 4d 3b 4d 57 17 be c0 33 f2 3b 2c fd 10 be
       0.0031372905 -0.14779396 0.007391423 -0.14159077
000150 82 b6 ca bd 54 69 92 bd ff 04 07 be c0 01 86 bc
       -0.09898092 -0.07148996 -0.131855 -0.016358256
000160 c6 a7 9e 3d b2 a5 d1 bd 67 bd 16 be 22 b4 e8 bd
       0.07746844 -0.10236682 -0.14720689 -0.113624826
000170 10 27 5a 3c 8d 6b 17 3e da c4 f1 3d c5 5a 0c 3e
       0.013314977 0.14787121 0.118051246 0.13706501
000180 40 d8 54 3b fc 75 5d 3d 80 82 2b bd 88 ef ee bd
       0.0032477528 0.054067597 -0.0418725 -0.11666781
000190 a8 37 15 3d 84 91 99 3d 4e 29 e9 3d e0 84 b1 bd
       0.03643003 0.07498458 0.11384831 -0.08667922
0001a0 48 bb c5 3c fe ba f4 bd 22 78 08 be 16 fd 8a bd
       0.024137154 -0.119497284 -0.13327077 -0.067865536
0001b0 74 ef d8 bd e5 a5 e7 bd d0 2c 39 bc 95 f7 01 be
       -0.10592547 -0.11310939 -0.011302188 -0.12692101
0001c0 e0 4d f0 bd d2 56 d3 bd d3 fe ba bd b0 8a 1f 3c
       -0.117336035 -0.10319294 -0.09130635 0.0097376555
0001d0 28 e1 8e bc 2a 1d 80 3d 58 2f c0 bc 6c b4 71 3d
       -0.017441347 0.062555626 -0.023460075 0.059009954
0001e0 ba aa 0e bd b6 b6 99 3d b0 58 84 3d 1a 78 f5 3d
       -0.034830786 0.075055525 0.06462228 0.11985798
0001f0 a8 7c e6 3c 2a f8 e8 bd 64 d1 4a 3d 80 db 43 3c
       0.028135613 -0.113754585 0.049516097 0.011954188
000200 68 cb bc bd 0e d8 82 3d 9c 51 0f 3d 78 57 b3 bc
       -0.09218484 0.063888654 0.03498994 -0.021892294
000210 c6 2f dd bd da 40 21 bd ae c6 af bd a8 07 98 3c
       -0.10800128 -0.039368488 -0.08582817 0.018558338
000220 ea 49 8b bd 80 80 e6 bb d6 4c 03 bd d8 6c 30 3d
       -0.06801207 -0.0070343614 -0.0320557 0.04307255
000230 80 26 8c 3d f8 63 ee bc 14 a5 b5 3d 08 2f 04 be
       0.06843281 -0.029100403 0.08869377 -0.12908566
000240 0b 97 11 3e 83 68 11 3e d1 bc 02 3e 8a a2 af bd
       0.14217775 0.14200024 0.1276734 -0.08575924
000250 66 99 1f bd 50 db 12 3d b4 d0 fb bd fa f1 dc 3d
       -0.03896465 0.035853684 -0.12295666 0.10788341
000260 80 b7 c8 3b fd ac 00 3e e6 fd ff bd 16 92 25 bd
       0.0061253905 0.1256599 -0.12499599 -0.04042252
000270 f2 2f 08 be 48 fb 5d bd 18 21 cd 3c 00 76 64 bb
       -0.1329954 -0.05419472 0.025040194 -0.0034860373
000280 68 4f 7a 3d 2c 09 47 bd 30 31 34 bd 39 69 e8 bd
       0.061110884 -0.04859273 -0.04399222 -0.11348195
000290 ea aa 13 be 15 75 01 3e 81 6b d3 bd f9 db f8 bd
       -0.14420667 0.1264232 -0.10323239 -0.121513315
0002a0 88 f4 0e bd 00 32 5a bc 88 47 ea 3c 2e 43 db bd
       -0.034901172 -0.013317585 0.028598562 -0.10706173
0002b0 1d 07 e1 bd ef 07 02 be 7e 02 a1 3d 94 b8 8d 3d
       -0.10987685 -0.12698339 0.078618035 0.06919971
0002c0 40 7c 88 bd 00 88 15 3b b0 60 e4 bc 54 db 15 3d
       -0.06664324 0.0022816658 -0.027878135 0.03658612
0002d0 8c a6 c0 bd cd 37 9e bd 00 e4 f4 bc 62 48 17 bd
       -0.09406766 -0.07725487 -0.029893875 -0.036934264
0002e0 aa 52 a4 bd 94 d9 e3 bd 08 f1 9c bc fa d5 f1 bd
       -0.080235794 -0.11125484 -0.019157901 -0.11808391
0002f0 54 3c fa bc 29 57 01 3e 40 87 3a 3d 70 7e 59 3c
       -0.030546345 0.12630905 0.04553914 0.013274774
000300 60 8c 1c bd 0e 09 91 3d 50 93 54 3d 4e ef a6 3d
       -0.03821981 0.07081805 0.0518983 0.081511125
000310 c4 31 9e 3d d8 56 8a 3c 40 79 bd bc 76 89 fd bd
       0.07724336 0.016887113 -0.023129106 -0.12379734
000320 1e 2c df bd 46 a0 af 3d 78 1e e8 bc f0 85 07 3c
       -0.108970866 0.085754916 -0.028334841 0.008271679
000330 ec dd 06 be 18 c8 cb bd fb 6c a8 bd ce 30 de 3d
       -0.13170594 -0.09950274 -0.082239114 0.108491525
000340 ba 23 e6 3d ee 8a 2d bd c7 bd 8a bd 5a 0f d6 3d
       0.11237283 -0.04236882 -0.067744784 0.10452147
000350 9c e7 b0 3d 6a 6b b0 bd ee 35 e9 3d cc cb 6e 3d
       0.08637926 -0.086142376 0.113872394 0.058299825
000360 b0 04 64 3c 9e 79 8b bd bc 48 c7 3d c7 e8 ae bd
       0.013917133 -0.06810306 0.0973067 -0.085404925
000370 c0 23 ed bb 51 30 d9 bd 89 e0 14 be bf b2 8e bd
       -0.0072369277 -0.10604919 -0.14538778 -0.06967687
000380 f6 02 59 bd 80 a6 76 3d b8 df b5 3d cb b6 01 be
       -0.05298134 0.06021738 0.088805616 -0.12667386
000390 ae 31 ae 3d 0e 8e db bd af 97 0e 3e 7f d9 c1 bd
       0.085055694 -0.10720454 0.1392505 -0.09465312
0003a0 c4 17 0b 3d b0 d2 3f 3d 9e 9d 07 bd 7d 93 a8 bd
       0.03395821 0.046831787 -0.0331093 -0.08231256
0003b0 0d e5 0d 3e f1 48 17 3e 51 c9 04 3e a2 c7 58 bd
       0.13856907 0.14773919 0.12967421 -0.05292476
0003c0 80 5d 50 3c f2 1b b8 bd 00 c3 0f ba af 37 ec bd
       0.012717605 -0.08989705 -0.00054840744 -0.11534058
0003d0 b8 bf 48 bd 18 d3 65 3d 28 46 bc bd 16 5e b3 bd
       -0.049010962 0.056109518 -0.09193069 -0.0875818
0003e0 1a 8b e0 3d b0 f3 57 bd 14 c3 8e bd f6 a7 8f 3d
       0.109640315 -0.052722633 -0.06970802 0.07014458
0003f0 4a ee e3 bd 0a e6 04 bd 80 d1 02 3b 9a 9d f4 3d
       -0.111294344 -0.032445945 0.0019961298 0.119441226
