Ni_prediction/savemodel/bst_mod_648.pth (torch_old, 533443 bytes, 44 tensors)

price_encoder.attention.weight f4 [1, 121]
9.916922 9.95228 9.864664 -9.951371 -9.796603 9.792429 9.911917 -9.682793
9.891284 9.841784 9.855714 9.931628 -9.805435 -9.868398 -9.877172 9.823801
9.796745 -9.827508 9.685443 9.869541 9.702489 9.876288 9.926594 -9.9110985
-9.912899 9.856167 -9.805702 -9.927091 -9.905703 -9.831925 9.879902 -9.853775
9.869467 9.958012 9.8014765 9.858468 -9.91316 9.926041 9.88678 -9.908814
9.871746 9.960846 9.824763 9.921908 9.800409 9.925717 9.923538 9.922995
9.956664 9.859389 9.819841 9.843206 9.891349 9.835427 9.772669 9.8814125
9.9044075 -9.949661 -9.881092 9.968744 9.815584 -9.935432 -9.900576 -9.764903
-9.9494915 9.935704 9.875044 9.836039 9.810453 -9.866148 -9.854099 9.880847
9.898175 9.811324 -9.818163 9.792341 -9.817755 8.806095 9.938184 9.903073
-9.805209 -9.813971 9.883197 9.847907 9.948106 -9.956651 -9.787936 -9.960621
9.927082 9.926514 9.959882 9.953139 9.845595 9.937266 -9.831525 -9.962923
-9.83243 9.899428 -9.916649 9.772771 9.837095 9.850105 9.878541 9.945597
9.921959 9.827863 9.795858 9.924769 9.931134 9.877692 9.7935095 9.882117
9.78704 9.90146 9.949685 9.79482 9.849203 9.841994 9.934134 9.894368
9.92526
00000000: b6ab 1e41 8a3c 1f41 aad5 1d41 d138 1fc1
00000010: e3be 1cc1 caad 1c41 3697 1e41 b8ec 1ac1
00000020: b342 1e41 f277 1d41 01b1 1d41 f3e7 1e41
00000030: 10e3 1cc1 f5e4 1dc1 e608 1ec1 4a2e 1d41
00000040: 78bf 1c41 793d 1dc1 93f7 1a41 a4e9 1d41
00000050: 653d 1b41 4705 1e41 54d3 1e41 dc93 1ec1
00000060: 3c9b 1ec1 dcb2 1d41 28e4 1cc1 5dd5 1ec1
00000070: c27d 1ec1 914f 1dc1 1414 1e41 10a9 1dc1
00000080: 56e9 1d41 0454 1f41 d9d2 1c41 49bc 1d41
00000090: 4e9c 1ec1 10d1 1e41 4030 1e41 818a 1ec1
000000a0: acf2 1d41 a05f 1f41 3b32 1d41 23c0 1e41
000000b0: 7ace 1c41 bdcf 1e41 d0c6 1e41 96c4 1e41
000000c0: 7f4e 1f41 0fc0 1d41 121e 1d41 c67d 1d41
000000d0: f742 1e41 e95d 1d41 da5c 1c41 441a 1e41
000000e0: 7478 1e41 d031 1fc1 f418 1ec1 fa7f 1f41
000000f0: a20c 1d41 88f7 1ec1 c268 1ec1 0b3d 1cc1
00000100: 1e31 1fc1 a5f8 1e41 2e00 1e41 6a60 1d41
00000110: 9ef7 1c41 bedb 1dc1 64aa 1dc1 f317 1e41
00000120: ed5e 1e41 2ffb 1c41 3217 1dc1 6ead 1c41
00000130: 8615 1dc1 c4e5 0c41 cd02 1f41 fd72 1e41
00000140: 23e2 1cc1 0606 1dc1 9321 1e41 0791 1d41
00000150: 712b 1f41 714e 1fc1 639b 1cc1 b45e 1fc1
00000160: 54d5 1e41 00d3 1e41 ad5b 1f41 0f40 1f41
00000170: 8f87 1d41 0bff 1e41 ed4d 1dc1 2268 1fc1
00000180: a251 1dc1 0f64 1e41 98aa 1ec1 455d 1c41
00000190: be64 1d41 089a 1d41 810e 1e41 2a21 1f41
000001a0: 58c0 1e41 ed3e 1d41 d6bb 1c41 dbcb 1e41
000001b0: ede5 1e41 070b 1e41 37b2 1c41 271d 1e41
000001c0: b797 1c41 616c 1e41 e931 1f41 95b7 1c41
000001d0: 5696 1d41 cf78 1d41 36f2 1e41 554f 1e41
000001e0: ddcd 1e41

price_encoder.encoder.weight_ih_l0 f4 [180, 45]
-0.10081503 -0.11793174 0.032030195 0.08252931 -0.05553808 0.10434081 0.0786314 -0.12203796
-0.10363906 -0.011906922 -0.11033716 -0.057845883 -0.026593558 0.030670568 -0.12094639 0.015055522
0.050929055 -0.08312994 0.09051782 0.11508541 0.11058275 0.06859902 -0.106616884 -9.769392
-0.14499222 -0.14838655 -0.12169918 0.12855284 0.13309984 0.036279887 -0.13216035 -0.007720217
0.1171736 9.548897 9.831232 9.848601 9.865153 9.869736 -0.6795112 9.816894
10.025914 9.954587 9.814556 0.024258867 -0.12438552 -0.12478672 0.06998642 0.11053506
0.0450129 0.09187691 0.12551637 -0.0688785 0.08651733 0.062002007 0.03135532 0.091763556
-0.02062574 0.06786533 0.12960862 0.012076467 -0.14174514 -0.13400184 0.004851505 -0.0328466
0.10963423 3.855361 0.08219934 0.0035834338 9.737452 -0.12055867 -0.14411847 0.12071128
-0.04557728 -0.1421333 -0.0031163245 -0.043618716 0.1389936 -0.09410692 9.792136 9.751683
9.852965 9.806576 10.010723 -0.1321793 9.816741 9.782959 9.797274 9.958124
0.040094435 0.04406303 0.105722524 -0.0067515844 -0.11740467 -0.109455116 0.028270796 0.051267233
0.065323114 0.06677954 -0.026814766 -0.083775625 -0.13097677 0.019675344 -0.04967653 -0.101086855
0.0057055205 0.016693756 0.09478618 -0.09748939 0.014427438 -0.075130604 3.3830705 0.024934523
-0.021432351 9.835319 -0.05385317 0.040727615 -0.044189923 0.011746277 -0.10098689 0.14104538
-0.10903217 0.14078091 -0.13879293 9.984081 9.750569 9.848994 9.914692 9.966832
-9.726602 9.836071 9.955041 9.7560835 9.825752 0.05854948 -0.0628588 0.097312465
-0.05437591 -0.12997267 -0.021366239 -0.039175212 0.11588037 0.120828584 0.09467742 -0.004366462
0.07895869 0.112611786 0.11571257 0.098501086 -9.744164 0.035623893 0.06157522 -0.036585532
-0.009238392 4.0739336 0.04328095 -0.45665175 -0.018811088 0.05469092 -9.874245 0.048548266
0.14540882 -0.06431627 -0.08895911 -9.901887 0.08551687 0.09739812 -8.262307 -0.090427786
-9.9570675 -9.956666 -9.789652 -9.805869 -9.95039 -0.0971231 -9.812642 -9.881306
-9.789921 -9.798109 0.078700915 0.03697005 -0.08608504 -0.021043167 0.08415489 0.13774158
0.086464375 0.14361662 -0.13798758 -0.14354962 -0.08818649 -0.05214633 0.05319175 -0.14534812
-0.10576667 -0.0815159 -0.0072434545 0.08716659 -0.03337206 -0.090265244 0.03837815 -0.087810114
-0.23875575 0.08397557 0.038637258 -9.850428 0.10023822 0.14138605 0.07517514 0.02732578
0.12808414 0.12216337 0.05401829 -0.017108917 -0.10490509 -9.714641 -9.977198 -10.00888
-9.820053 -9.884831 -0.005410418 -9.86061 -9.76848 -9.732339 -9.944584 -0.0796645
-0.011409387 -0.01692937 0.06550309 0.014936879 -0.03827378 0.12666835 0.14669965 -0.0015508996
0.14879559 0.06344125 0.11312817 -0.13156295 0.09171176 -0.09136476 9.794871 0.008749828
0.001897186 0.03890367 0.02564998 -0.10336681 0.07752833 -0.14854918 -0.07796357 -0.0012157594
-10.029437 0.027119339 -0.09090344 0.118399784 -0.03892406 9.885562 0.0641786 0.13539745
00000000: 1c78 cebd 3286 f1bd 1832 033d 2005 a93d
00000010: e67b 63bd a2b0 d53d 8009 a13d 0aef f9bd
00000020: b740 d4bd 4015 43bc 73f8 e1bd ceef 6cbd
00000030: bcda d9bc d840 fb3c beb2 f7bd 70ab 763c
00000040: fc9a 503d 0840 aabd 6861 b93d e6b1 eb3d
00000050: 3579 e23d a57d 8c3d f459 dabd 6e4f 1cc1
00000060: d778 14be a5f2 17be 6b3d f9bd 5ba3 033e
00000070: 534b 083e 389a 143d 0b55 07be e0f9 fcbb
00000080: b6f8 ef3d 48c8 1841 ba4c 1d41 df93 1d41
00000090: abd7 1d41 70ea 1d41 72f4 2dbf ff11 1d41
000000a0: 256a 2041 fd45 1f41 6c08 1d41 88ba c63c
000000b0: d6bd febd 2e90 ffbd 0a55 8f3d 3560 e23d
000000c0: 725f 383d f629 bc3d 5d87 003e 2c10 8dbd
000000d0: ff2f b13d d1f5 7d3d 706e 003d 88ee bb3d
000000e0: 50f7 a8bc fafc 8a3d 1fb8 043e 60dc 453c
000000f0: a325 11be c737 09be 60f9 9e3b 288a 06bd
00000100: e987 e03d 3cbe 7640 2158 a83d 0bd8 6a3b
00000110: 9acc 1b41 77e7 f6bd cb93 13be 7a37 f73d
00000120: 3eaf 3abd 648b 11be 403b 4cbb 8aa9 32bd
00000130: 5754 0e3e 21bb c0bd 97ac 1c41 e506 1c41
00000140: bfa5 1d41 bce7 1c41 ec2b 2041 035a 07be
00000150: 5f11 1d41 0087 1c41 a2c1 1c41 7a54 1f41
00000160: 103a 243d 707b 343d 0d85 d83d 653c ddbb
00000170: dc71 f0bd 012a e0bd 2898 e73c 97fd 513d
00000180: 20c8 853d b6c3 883d a4aa dbbc 8e92 abbd
00000190: c61e 06be 302e a13c 9e79 4bbd a006 cfbd
000001a0: 60f5 ba3b 58c1 883c 421f c23d 84a8 c7bd
000001b0: 1061 6c3c 13de 99bd 3a84 5840 7c43 cc3c
000001c0: e692 afbc 775d 1d41 2495 5cbd 00d2 263d
000001d0: 7e00 35bd 7573 403c 37d2 cebd 336e 103e
000001e0: 424c dfbd df28 103e bc1f 0ebe ccbe 1f41
000001f0: 5502 1c41 7b95 1d41 94a2 1e41 2578 1f41
00000200: 29a0 1bc1 8c60 1d41 d947 1f41 eb18 1c41
00000210: 4836 1d41 94d1 6f3d 1dbc 80bd c24b c73d
00000220: 46b9 5ebd 8e17 05be 4008 afbc 3076 20bd
00000230: b052 ed3d fa74 f73d 3ce6 c13d 8a14 8fbb
00000240: 18b5 a13d 02a1 e63d b6fa ec3d f0ba c93d
00000250: 19e8 1bc1 5cea 113d 4c36 7c3d b6da 15bd
00000260: a05c 17bc aa5d 8240 5e47 313d 42ce e9be
00000270: b619 9abc 9603 603d e8fc 1dc1 8cda 463d
00000280: 0de6 143e 40b8 83bd 3230 b6bd 216e 1ec1
00000290: 7823 af3d aa78 c73d 6932 04c1 3432 b9bd
000002a0: 2650 1fc1 814e 1fc1 6aa2 1cc1 d7e4 1cc1
000002b0: cc34 1fc1 7ae8 c6bd 9500 1dc1 d419 1ec1
000002c0: 84a3 1cc1 0ec5 1cc1 f22d a13d e86d 173d
000002d0: 5a4d b0bd b862 acbc 6659 ac3d 210c 0d3e
000002e0: 3c14 b13d 3c10 133e 9e4c 0dbe acfe 12be
000002f0: 1e9b b4bd 6497 55bd 98df 593d 23d6 14be
00000300: 329c d8bd cff1 a6bd 805a edbb 6684 b23d
00000310: 24b1 08bd fcdc b8bd 6832 1d3d cad5 b3bd
00000320: 637c 74be 62fb ab3d 1a42 1e3d 5a9b 1dc1
00000330: b249 cd3d 81c7 103e 6cf5 993d 50da df3c
00000340: 7d28 033e ca30 fa3d 4842 5d3d 0028 8cbc
00000350: 7bd8 d6bd 2b6f 1bc1 9aa2 1fc1 5f24 20c1
00000360: f01e 1dc1 4528 1ec1 e049 b1bb 0fc5 1dc1
00000370: b24b 1cc1 a9b7 1bc1 041d 1fc1 2427 a3bd
00000380: 70ee 3abc 76af 8abc 7c26 863d d0b9 743c
00000390: f8c4 1cbd 59b5 013e 6f38 163e 8e47 cbba
000003a0: df5d 183e 7ced 813d beaf e73d 70b8 06be
000003b0: 60d3 bb3d 731d bbbd cbb7 1c41 705b 0f3c
000003c0: 00ab f83a 7459 1f3d e81f d23c fab1 d3bd
000003d0: 2cc7 9e3d 471d 18be 5dab 9fbd 1e5a 9fba
000003e0: 9378 20c1 6029 de3c 952b babd 967b f23d
000003f0: d66e 1fbd 432b 1e41 1270 833d a1a5 0a3e

price_encoder.encoder.weight_hh_l0 f4 [180, 45]
9.994316 9.904196 9.766987 -9.7681 9.871788 9.816438 9.861072 -9.997445
-9.864017 -9.808848 -9.970381 9.945971 -9.8190365 -9.881636 9.801214 -10.013456
9.787707 -9.913621 9.74027 -10.005228 9.742853 9.859527 9.758837 9.79692
-9.852162 -9.734038 -9.768529 9.822852 -9.73986 -9.824595 9.784107 -9.892469
9.862236 9.891123 9.865275 -9.737665 -9.836779 9.919436 9.7975 10.029415
9.977731 9.815431 -9.921241 10.011019 -9.973279 -9.997546 -9.936484 -9.878941
9.927036 -9.792594 -9.971183 -9.772711 -9.959729 9.826265 -9.941823 9.801538
-10.024288 9.749867 9.821358 -9.889689 9.998732 -9.828052 9.746515 -9.793758
9.880121 9.788373 -9.966491 -9.787835 -9.900293 10.003179 9.946442 9.794524
-9.83517 9.740019 9.923407 -10.01081 9.932968 -9.897808 -9.932895 -9.785354
9.760767 9.860562 -9.967843 -9.7615385 -9.958458 -9.88069 -9.841782 9.935118
-9.79223 9.798675 -9.814037 -9.941624 -10.005884 9.897626 -9.765671 -9.898922
-9.745734 -9.832516 9.913125 -9.848827 10.019431 -9.839701 9.996251 9.932812
-9.773955 9.759327 -9.965015 9.992788 -10.024242 -9.930359 9.781775 -9.817933
-9.944969 -9.916241 9.822772 9.889243 9.838337 -9.982812 9.767468 10.022652
-9.819609 9.797981 -9.751743 -9.912406 -9.942842 9.951818 9.786738 -9.739181
-9.784697 -9.771828 -9.746119 -9.854169 9.875595 -9.841115 9.921634 9.978169
9.840009 9.948953 -9.914424 9.927237 9.7709465 9.808073 9.77633 -9.828719
9.960975 -9.789608 9.78203 9.922973 -9.829049 9.958979 -9.8882 9.772356
-9.882541 9.907538 9.919425 -9.873497 9.811669 9.972748 9.90837 -9.7452
-9.842401 9.856274 9.790165 -10.011416 -10.002879 9.957533 -9.82887 9.802202
10.012356 10.02548 -9.989421 -9.790417 9.89813 9.810117 9.815723 9.963087
9.771538 -10.018034 9.783007 -9.880821 9.748879 9.813143 10.008157 -9.951575
9.73808 9.800303 10.027261 9.988449 -9.980366 9.951631 -9.910305 9.876733
-9.912843 -9.785335 9.7579365 -9.776156 9.851693 -9.767304 9.7730465 9.964697
-9.749219 9.746935 9.848414 10.013266 -9.85771 -9.824975 9.919232 9.942979
-9.843135 -9.750197 9.796385 -9.994766 9.900308 10.024187 9.986767 -9.781984
-9.859212 9.77451 9.965863 9.925242 9.829612 9.944714 -9.857711 9.769191
-9.758368 9.830645 9.919633 9.963487 -10.000999 9.971816 9.761457 9.822026
9.996133 -9.83418 10.025022 -9.848421 9.78043 -9.742969 -9.844965 9.8301935
-9.922218 9.9966 -9.986498 9.907138 10.000261 -9.784353 9.832022 9.751372
9.742491 -9.888733 -9.906442 9.7326 9.995472 -9.80312 -10.008851 9.8633175
00000000: b8e8 1f41 9677 1e41 9445 1c41 234a 1cc1
00000010: d8f2 1d41 2110 1d41 f3c6 1d41 89f5 1fc1
00000020: 03d3 1dc1 0bf1 1cc1 ae86 1fc1 b222 1f41
00000030: c61a 1dc1 2e1b 1ec1 c6d1 1c41 1e37 20c1
00000040: 739a 1c41 319e 1ec1 25d8 1b41 6a15 20c1
00000050: bae2 1b41 9fc0 1d41 3224 1c41 2fc0 1c41
00000060: 75a2 1dc1 9fbe 1bc1 e54b 1cc1 672a 1d41
00000070: 77d6 1bc1 8b31 1dc1 b48b 1c41 8e47 1ec1
00000080: b8cb 1d41 0a42 1e41 2bd8 1d41 7acd 1bc1
00000090: 7263 1dc1 03b6 1e41 8fc2 1c41 7c78 2041
000000a0: c9a4 1f41 010c 1d41 67bd 1ec1 222d 2041
000000b0: 8d92 1fc1 f3f5 1fc1 d7fb 1ec1 2410 1ec1
000000c0: 24d5 1e41 77ae 1cc1 f789 1fc1 065d 1cc1
000000d0: 0d5b 1fc1 6238 1d41 b511 1fc1 1ad3 1c41
000000e0: 7c63 20c1 75ff 1b41 4824 1d41 2b3c 1ec1
000000f0: cefa 1f41 b33f 1dc1 baf1 1b41 3cb3 1cc1
00000100: fa14 1e41 2d9d 1c41 bf76 1fc1 f99a 1cc1
00000110: 9a67 1ec1 050d 2041 a024 1f41 5fb6 1c41
00000120: db5c 1dc1 1ed7 1b41 46c6 1e41 472c 20c1
00000130: 70ed 1e41 6c5d 1ec1 23ed 1ec1 cf90 1cc1
00000140: 1a2c 1c41 ddc4 1d41 497c 1fc1 432f 1cc1
00000150: d855 1fc1 4e17 1ec1 f077 1dc1 3ef6 1e41
00000160: f9ac 1cc1 5fc7 1c41 4c06 1dc1 e410 1fc1
00000170: 1a18 20c1 ad5c 1e41 3040 1cc1 fc61 1ec1
00000180: 87ee 1bc1 fc51 1dc1 299c 1e41 cc94 1dc1
00000190: 974f 2041 6a6f 1dc1 a5f0 1f41 ccec 1e41
000001a0: 1f62 1cc1 3426 1c41 b470 1fc1 76e2 1f41
000001b0: 4c63 20c1 c0e2 1ec1 2782 1c41 4116 1dc1
000001c0: 981e 1fc1 eca8 1ec1 132a 1d41 573a 1e41
000001d0: d469 1d41 99b9 1fc1 8d47 1c41 c85c 2041
000001e0: 1e1d 1dc1 88c4 1c41 2407 1cc1 3799 1ec1
000001f0: e115 1fc1 a63a 1f41 7b96 1c41 afd3 1bc1
00000200: 1e8e 1cc1 6859 1cc1 1af0 1bc1 adaa 1dc1
00000210: 7002 1e41 3575 1dc1 03bf 1e41 95a6 1f41
00000220: ad70 1d41 e92e 1f41 7ba1 1ec1 f6d5 1e41
00000230: cc55 1c41 deed 1c41 d96b 1c41 6f42 1dc1
00000240: 2760 1f41 3ca2 1cc1 3283 1c41 7fc4 1e41
00000250: c943 1dc1 fa57 1f41 1136 1ec1 925b 1c41
00000260: e31e 1ec1 4785 1e41 f7b5 1e41 d8f9 1dc1
00000270: 99fc 1c41 6090 1f41 af88 1e41 57ec 1bc1
00000280: 797a 1dc1 4cb3 1d41 84a4 1c41 c32e 20c1
00000290: cb0b 20c1 0e52 1f41 0d43 1dc1 d2d5 1c41
000002a0: 9c32 2041 5e68 2041 abd4 1fc1 8ca5 1cc1
000002b0: be5e 1e41 3df6 1c41 340d 1d41 ce68 1f41
000002c0: 3858 1c41 de49 20c1 3287 1c41 d817 1ec1
000002d0: 69fb 1b41 a202 1d41 6921 2041 a739 1fc1
000002e0: 2dcf 1b41 0bce 1c41 a96f 2041 b0d0 1f41
000002f0: 94af 1fc1 e139 1f41 9c90 1ec1 1907 1e41
00000300: 019b 1ec1 bb90 1cc1 8220 1c41 236b 1cc1
00000310: 89a0 1d41 e146 1cc1 665e 1c41 666f 1f41
00000320: cdfc 1bc1 72f3 1b41 1b93 1d41 5636 2041
00000330: 2eb9 1dc1 1933 1dc1 2db5 1e41 7116 1f41
00000340: 7b7d 1dc1 cf00 1cc1 febd 1c41 90ea 1fc1
00000350: a967 1e41 1263 2041 ccc9 1f41 0283 1cc1
00000360: 55bf 1dc1 6564 1c41 2d74 1f41 cbcd 1e41
00000370: 1746 1d41 8c1d 1f41 2fb9 1dc1 9b4e 1c41
00000380: 4622 1cc1 524a 1d41 d1b6 1e41 716a 1f41
00000390: 1804 20c1 8f8c 1f41 ee2e 1c41 0527 1d41
000003a0: 29f0 1f41 cd58 1dc1 7d66 2041 2293 1dc1
000003b0: a47c 1c41 33e3 1bc1 fa84 1dc1 7948 1d41
000003c0: 68c1 1ec1 13f2 1f41 b2c8 1fc1 a383 1e41
000003d0: 1201 2041 b68c 1cc1 f64f 1d41 9f05 1c41
000003e0: 3ee1 1b41 4038 1ec1 c980 1ec1 bbb8 1b41
000003f0: 74ed 1f41 94d9 1cc1 4124 20c1 26d0 1d41

price_encoder.encoder.bias_ih_l0 f4 [180]
-9.935392 10.004574 9.842363 -9.805987 -9.9876175 -9.835055 9.964178 -9.850121
9.977129 -9.95081 -9.819175 -9.904524 -10.014542 9.889781 9.807727 10.006693
-9.950036 9.786537 -9.966151 -10.022534 -9.9147835 -9.73605 -9.886366 9.852441
-9.952728 -9.891716 -9.783758 9.854302 -9.927834 9.847232 9.78549 -10.018774
9.999338 -9.951391 -9.799092 9.840244 -9.835755 -10.030399 -9.74571 9.933188
9.792968 9.682834 -9.998659 9.838852 9.856186 -9.77052 10.013181 9.843002
-9.963757 -9.812216 -10.002779 9.985021 -9.895747 9.911759 9.783005 -9.996613
-9.787011 -9.818151 9.902688 9.81178 9.87172 -9.88047 9.959771 9.8641205
-9.9711685 -9.92619 -9.87065 -9.773441 9.807663 -9.940636 -9.739918 -9.754097
9.904838 -9.970713 9.852105 9.743077 -9.897463 9.784323 -9.898441 -9.944009
9.836601 -9.9758415 -9.961802 -9.820654 9.939863 9.907527 -9.855603 -9.83226
9.9096775 9.906768 9.741444 -9.970026 -9.808666 -10.028919 9.748016 9.896643
-9.935725 9.858258 9.80984 -9.769935 -9.73771 9.91896 9.858792 9.799514
-9.943709 9.796805 9.943551 9.992342 9.812691 9.963894 -9.995036 9.781291
9.9162655 -9.778334 -9.743173 -9.821786 10.026172 -9.7367935 -9.763744 9.970575
-9.870769 -9.943383 -9.958896 9.816764 9.983827 9.842613 -9.98744 9.924533
9.831459 -9.85671 -9.946611 9.988918 -9.87699 -9.880125 9.95443 -9.793677
9.901546 9.753546 -9.952044 -10.018726 -10.018 9.767225 -9.869316 10.000917
-9.778172 -10.021302 -9.763022 -9.85585 9.9634495 9.923972 9.771409 -9.74789
10.00683 -9.954968 -9.955207 -9.970272 -9.803564 -9.986269 9.828631 -9.928061
-9.84147 -9.783104 9.859936 -9.75504 9.780936 9.835294 -9.873583 9.769118
-9.742363 -9.753188 10.001392 -9.969036 -9.790173 -9.883611 9.80797 9.799726
-9.958542 -9.906395 9.859925 10.024334
00000000: 5ef7 1ec1 bc12 2041 527a 1d41 53e5 1cc1
00000010: 48cd 1fc1 635c 1dc1 466d 1f41 189a 1dc1
00000020: 52a2 1f41 8536 1fc1 571b 1dc1 ee78 1ec1
00000030: 903b 20c1 8b3c 1e41 73ec 1c41 6a1b 2041
00000040: 5933 1fc1 a895 1c41 5b75 1fc1 4d5c 20c1
00000050: f4a2 1ec1 dcc6 1bc1 8e2e 1ec1 99a3 1d41
00000060: 603e 1fc1 7844 1ec1 468a 1cc1 39ab 1d41
00000070: 68d8 1ec1 438e 1d41 5e91 1c41 e64c 20c1
00000080: 4afd 1f41 e638 1fc1 15c9 1cc1 a471 1d41
00000090: 415f 1dc1 847c 20c1 6eee 1bc1 57ee 1e41
000000a0: ffaf 1c41 e3ec 1a41 82fa 1fc1 f06b 1d41
000000b0: f0b2 1d41 0d54 1cc1 fd35 2041 f07c 1d41
000000c0: 8c6b 1fc1 d6fe 1cc1 620b 20c1 a5c2 1f41
000000d0: fb54 1ec1 9196 1e41 3087 1c41 20f2 1fc1
000000e0: 9997 1cc1 2617 1dc1 6971 1e41 0dfd 1c41
000000f0: 91f2 1d41 6816 1ec1 395b 1f41 70d3 1d41
00000100: e889 1fc1 add1 1ec1 2fee 1dc1 0460 1cc1
00000110: 30ec 1c41 d80c 1fc1 b4d6 1bc1 c810 1cc1
00000120: 377a 1e41 0a88 1fc1 39a2 1d41 a5e3 1b41
00000130: 025c 1ec1 968c 1c41 0460 1ec1 a91a 1fc1
00000140: b862 1d41 0c9d 1fc1 8a63 1fc1 6621 1dc1
00000150: ae09 1f41 3b85 1e41 8db0 1dc1 f050 1dc1
00000160: 0a8e 1e41 1f82 1e41 f4dc 1b41 3a85 1fc1
00000170: 4cf0 1cc1 7476 20c1 e0f7 1b41 a658 1e41
00000180: bbf8 1ec1 6dbb 1d41 1bf5 1c41 a751 1cc1
00000190: a9cd 1bc1 0fb4 1e41 9dbd 1d41 cfca 1c41
000001a0: 6f19 1fc1 b7bf 1c41 c918 1f41 a2e0 1f41
000001b0: c800 1d41 1c6c 1f41 abeb 1fc1 2b80 1c41
000001c0: 06a9 1e41 0e74 1cc1 09e4 1bc1 0926 1dc1
000001d0: 336b 2041 e8c9 1bc1 4c38 1cc1 7a87 1f41
000001e0: abee 1dc1 1918 1fc1 a357 1fc1 7711 1d41
000001f0: c1bd 1f41 587b 1d41 8ecc 1fc1 e3ca 1e41
00000200: a84d 1d41 16b5 1dc1 5225 1fc1 9cd2 1f41
00000210: 2708 1ec1 fe14 1ec1 5845 1f41 e7b2 1cc1
00000220: bb6c 1e41 860e 1c41 923b 1fc1 b44c 20c1
00000230: ba49 20c1 8e46 1c41 b8e8 1dc1 c203 2041
00000240: 6473 1cc1 4157 20c1 5735 1cc1 90b1 1dc1
00000250: 4a6a 1f41 97c8 1e41 b157 1c41 5cf7 1bc1
00000260: fa1b 2041 8d47 1fc1 8748 1fc1 3c86 1fc1
00000270: 66db 1cc1 c2c7 1fc1 1342 1d41 56d9 1ec1
00000280: a976 1dc1 9887 1cc1 4cc2 1d41 a514 1cc1
00000290: b77e 1c41 5d5d 1d41 32fa 1dc1 4f4e 1c41
000002a0: b8e0 1bc1 0f0d 1cc1 b405 2041 2c81 1fc1
000002b0: 8ca4 1cc1 4523 1ec1 72ed 1c41 adcb 1c41
000002c0: 3056 1fc1 9880 1ec1 41c2 1d41 ac63 2041

price_encoder.encoder.bias_hh_l0 f4 [180]
-9.788744 10.023289 9.997978 -9.758024 -9.952717 -9.85942 9.744981 -10.003764
9.852012 -9.816607 -9.833682 -9.7639675 -9.848972 9.829694 9.961001 9.767242
-9.979796 9.806078 -9.938407 -9.755278 -9.969457 -9.910814 -9.852721 9.864444
-9.920937 -9.897614 -9.876796 9.750125 -9.855389 9.905607 9.809995 -10.002656
9.988323 -9.869383 -9.966348 9.90202 -9.733785 -9.861834 -9.824429 9.942485
9.773247 9.728317 -9.909071 9.751814 9.738986 -9.960478 9.737015 9.753075
-9.892414 -9.92227 -9.900781 9.911669 -9.85078 9.83354 9.7697935 -9.880926
-9.914447 -9.898422 9.898182 9.98636 9.787259 -9.845396 9.876593 9.973706
-9.85131 -9.999409 -9.931458 -9.914669 9.80673 -9.924018 -9.80714 -10.026513
9.7412815 -9.800959 9.921602 9.970224 -9.856075 9.760309 -9.840373 -9.7472
9.772001 -9.955699 -9.902632 -9.862171 10.002873 9.936479 -9.961249 -9.962049
9.830007 9.985257 9.909637 -10.001443 -9.954938 -9.765532 9.906804 9.999245
-9.861086 9.9314375 9.953559 -9.957928 -9.971572 9.785189 9.86241 9.897621
-9.866955 9.774512 9.7716465 9.980599 9.738505 9.922546 -9.852433 9.872598
9.818163 -9.809773 -9.960275 -9.800277 9.768624 -9.911647 -9.867895 9.951361
-9.766159 -9.751992 -9.840318 9.818805 9.781058 9.888635 -9.892736 9.754801
9.745328 -9.904533 -9.8444 9.957784 -9.88964 -9.985026 9.962646 -10.018522
9.960645 9.993822 -10.023298 -9.80765 -9.8145485 9.795929 -9.7542515 9.959566
-10.017534 -9.9193945 -9.831684 -10.008428 9.752799 9.856937 9.765332 -9.852876
9.8023815 -9.925995 -9.765551 -9.759327 -9.766443 -9.8357525 10.016779 -9.752583
-9.967538 -9.840138 9.860013 -9.975859 9.819254 9.852391 -9.986895 9.883269
-9.952349 -10.002662 9.830919 -9.780311 -10.011566 -10.009717 9.941556 9.805003
-9.927315 -9.959877 9.955773 9.896432
00000000: b29e 1cc1 645f 2041 b8f7 1f41 de20 1cc1
00000010: 543e 1fc1 2fc0 1dc1 71eb 1b41 6b0f 20c1
00000020: d7a1 1d41 d310 1dc1 c356 1dc1 3639 1cc1
00000030: 6495 1dc1 6d46 1d41 4360 1f41 a046 1c41
00000040: 3fad 1fc1 b2e5 1c41 b703 1fc1 9e15 1cc1
00000050: e582 1fc1 b292 1ec1 bfa4 1dc1 c3d4 1d41
00000060: 28bc 1ec1 a05c 1ec1 5b07 1ec1 8300 1c41
00000070: acaf 1dc1 5e7d 1e41 bdf5 1c41 e10a 20c1
00000080: 2cd0 1f41 fee8 1dc1 2976 1fc1 ad6e 1e41
00000090: 95bd 1bc1 12ca 1dc1 dc30 1dc1 6b14 1f41
000000a0: 385f 1c41 30a7 1b41 8e8b 1ec1 6e07 1c41
000000b0: e3d2 1b41 1e5e 1fc1 d0ca 1b41 980c 1c41
000000c0: 5447 1ec1 9ec1 1ec1 9969 1ec1 3296 1e41
000000d0: cb9c 1dc1 2e56 1d41 1351 1c41 4618 1ec1
000000e0: 93a1 1ec1 f05f 1ec1 f45e 1e41 21c8 1f41
000000f0: 9d98 1c41 be86 1dc1 8606 1e41 4d94 1f41
00000100: f79e 1dc1 94fd 1fc1 41e7 1ec1 7ca2 1ec1
00000110: 5ee8 1c41 c7c8 1ec1 0cea 1cc1 996c 20c1
00000120: 4adc 1b41 bad0 1cc1 e2be 1e41 0a86 1f41
00000130: 7cb2 1dc1 3a2a 1c41 2b72 1dc1 88f4 1bc1
00000140: 1e5a 1c41 8b4a 1fc1 2e71 1ec1 74cb 1dc1
00000150: c50b 2041 d1fb 1e41 4761 1fc1 8d64 1fc1
00000160: b547 1d41 9dc3 1f41 e08d 1e41 e905 20c1
00000170: 6d47 1fc1 9e3f 1cc1 4582 1e41 e8fc 1f41
00000180: 02c7 1dc1 2be7 1e41 c741 1f41 ac53 1fc1
00000190: 8f8b 1fc1 2290 1c41 6ecc 1d41 a85c 1e41
000001a0: 0cdf 1dc1 6764 1c41 aa58 1c41 89b0 1f41
000001b0: ebd0 1b41 c0c2 1e41 91a3 1dc1 29f6 1d41
000001c0: 3217 1d41 d5f4 1cc1 495d 1fc1 efcd 1cc1
000001d0: 494c 1c41 1b96 1ec1 e6e2 1dc1 c638 1f41
000001e0: 3042 1cc1 2908 1cc1 f171 1dc1 d319 1d41
000001f0: 377f 1c41 d937 1e41 a648 1ec1 aa13 1c41
00000200: ddec 1b41 f878 1ec1 aa82 1dc1 1553 1f41
00000210: f73b 1ec1 abc2 1fc1 ff66 1f41 de4b 20c1
00000220: cd5e 1f41 b2e6 1f41 6e5f 20c1 22ec 1cc1
00000230: 6408 1dc1 20bc 1c41 6a11 1cc1 625a 1f41
00000240: d247 20c1 d7b5 1ec1 944e 1dc1 8522 20c1
00000250: 770b 1c41 04b6 1d41 cd3e 1c41 61a5 1dc1
00000260: 8ed6 1c41 e0d0 1ec1 b23f 1cc1 3426 1cc1
00000270: 5a43 1cc1 3e5f 1dc1 ba44 2041 940a 1cc1
00000280: 097b 1fc1 3571 1dc1 9dc2 1d41 1e9d 1fc1
00000290: aa1b 1d41 65a3 1d41 52ca 1fc1 df21 1e41
000002a0: d23c 1fc1 e70a 20c1 724b 1d41 277c 1cc1
000002b0: 602f 20c1 cd27 20c1 9d10 1f41 4be1 1c41
000002c0: 48d6 1ec1 a85b 1fc1 d94a 1f41 c957 1e41

atten_layer.0.weight f4 [45, 135]
-0.0057471693 0.0064634383 -0.023407012 -0.017246887 0.08354073 0.049593173 -0.047539566 -0.032573927
0.05134674 0.07988199 0.024511985 0.07390807 -0.017657869 0.053518586 -0.0008888021 -0.031687308
-0.02342514 0.027021773 0.044725947 0.0027237982 -0.017312214 -0.030763138 -0.002708882 0.08591122
0.02685593 -0.082645014 -0.01944539 0.03249693 -0.08227926 0.055579253 -0.05724658 -0.07076175
-0.042760298 0.002939351 -0.063155875 -0.0065164343 -0.060818404 -0.011712387 -0.08242071 -0.033076417
-0.0039123744 0.08097095 -0.08558405 -0.008020014 -5.9068203e-05 -0.076280855 -0.04573452 0.041056506
0.057193406 0.06496327 0.07700165 0.08006618 -0.018351048 -0.067524955 -0.07416958 -0.042227663
-0.050607562 0.028454863 -0.044203136 0.066603534 -0.04501019 0.068760835 0.051209517 0.073318355
-0.07228898 0.080668755 -0.0014918223 0.0740126 0.04745216 -0.06300074 -0.07123549 0.085252844
-0.021811709 -0.015380055 -0.0017899722 -0.062062446 -0.013997346 0.041222565 -0.003610663 -0.07971625
0.038701087 0.064699955 -0.034529682 -0.07037624 0.07597815 0.04406161 0.07525534 0.0022079945
-0.04345714 0.075743414 -9.935072 -10.264957 -10.666946 -9.9405575 9.884648 -9.935149
-9.968803 10.676094 9.873013 9.838322 -9.876925 -9.769437 -9.846179 9.938647
-9.907105 -9.790804 -9.849482 9.880283 9.910574 -9.246167 -10.440892 10.713509
10.5708065 9.281442 -9.974026 9.089843 10.358246 9.877381 -10.65631 10.666506
9.876633 -9.944181 9.837493 -9.909224 -9.8010235 -9.807449 9.857441 -9.856119
9.978115 9.867384 -9.253599 10.411933 -10.793331 -10.015926 10.557323 -0.067752436
0.07499079 -0.05124852 -0.06941933 0.02911105 0.0029076785 0.044290595 0.012814164 -0.024552964
0.032376744 -0.0794905 -0.035695862 0.05890321 0.046839796 -0.041876774 0.08246253 0.05467642
0.041765742 -0.061543673 -0.05118418 -0.071765855 -0.05028689 0.03154575 0.06625862 0.072372414
-0.0029624924 0.008894905 -0.0297645 -0.0639475 0.03030461 -0.02498357 -0.03731899 -0.029991284
-0.0677152 -0.051900968 -0.032647245 -0.02142921 -0.020470433 0.079704516 -0.020916536 0.042949177
-0.01658269 0.07789128 -0.022918642 0.051874064 0.06150619 -0.02419725 0.029462881 -0.048130646
-0.03585691 0.048715226 0.045684732 0.017766334 0.07184935 -0.047481988 0.012621321 -0.06888477
-0.08488907 -0.053666174 0.08564996 0.051085763 0.06269915 0.061096407 -0.010972753 0.015200883
-0.024069268 -0.04916307 -0.03534759 -0.05007578 0.040877156 -0.040059984 -0.019390456 0.08252374
0.036294557 0.015384428 -0.01615756 0.06600962 0.0053503737 0.0029198155 -0.045652747 -0.070127316
0.06217409 -0.047747564 -0.07595188 -0.078026906 0.019387327 -0.08312577 -0.07084684 0.021299392
0.04074464 -10.146705 10.335777 10.497141 -9.833864 9.825956 9.859965 9.812204
-10.072765 10.0234585 9.940294 -9.846225 -9.668141 -9.923656 9.812711 -9.936194
-9.680484 9.891924 9.870858 9.846824 -10.246513 10.151457 -10.088316 -10.389019
10.358066 -9.879651 10.278031 -10.108156 9.956138 10.297437 -10.153127 9.89033
00000000: c052 bcbb 40cb d33b 10c0 bfbc 5849 8dbc
00000010: 6717 ab3d 3622 4b3d d9b8 42bd 3d6c 05bd
00000020: f650 523d 2b99 a33d 5ccd c83c 1d5d 973d
00000030: 3ca7 90bc 4e36 5b3d 80fe 68ba 8dca 01bd
00000040: 14e6 bfbc c45c dd3c 8e32 373d c081 323b
00000050: 58d2 8dbc fa02 fcbc 8087 31bb 39f2 af3d
00000060: f800 dc3c ca41 a9bd f04b 9fbc 801b 053d
00000070: 0782 a8bd 12a7 633d 647b 6abd 89eb 90bd
00000080: 6c25 2fbd 20a2 403b de57 81bd d087 d5bb
00000090: b81c 79bd 50e5 3fbc 30cc a8bd 237b 07bd
000000a0: 6033 80bb 19d4 a53d b146 afbd 6066 03bc
000000b0: 00c0 77b8 2339 9cbd 1f54 3bbd de2a 283d
000000c0: a243 6a3d 770b 853d 0bb3 9d3d bdf9 a33d
000000d0: f054 96bc 864a 8abd 39e6 97bd eaf6 2cbd
000000e0: e049 4fbd 2c1a e93c 590e 35bd 6f67 883d
000000f0: 9b5c 38bd 7bd2 8c3d 12c1 513d ef27 963d
00000100: 3f0c 94bd a935 a53d 4089 c3ba eb93 973d
00000110: 325d 423d 8806 81bd eae3 91bd 0b99 ae3d
00000120: 78ae b2bc a0fc 7bbc 809d eaba 3135 7ebd
00000130: 2055 65bc fed8 283d e0a0 6cbb 4642 a3bd
00000140: 0885 1e3d 6981 843d ff6e 0dbd 6b21 90bd
00000150: 6f9a 9b3d f279 343d 791f 9a3d 00b4 103b
00000160: 1d00 32bd 5d1f 9b3d 0ef6 1ec1 443d 24c1
00000170: d0ab 2ac1 860c 1fc1 8527 1e41 5ff6 1ec1
00000180: 3880 1fc1 48d1 2a41 dcf7 1d41 c469 1d41
00000190: e307 1ec1 9d4f 1cc1 f389 1dc1 b304 1f41
000001a0: 8183 1ec1 22a7 1cc1 7a97 1dc1 a415 1e41
000001b0: b691 1e41 4df0 13c1 e50d 27c1 886a 2b41
000001c0: 0622 2941 c980 1441 9c95 1fc1 ff6f 1141
000001d0: 60bb 2541 c109 1e41 3f80 2ac1 02aa 2a41
000001e0: b006 1e41 5e1b 1fc1 5f66 1d41 2e8c 1ec1
000001f0: fed0 1cc1 50eb 1cc1 14b8 1d41 aab2 1dc1
00000200: 5ca6 1f41 cee0 1d41 be0e 14c1 4797 2641
00000210: 7cb1 2cc1 3c41 20c1 ccea 2841 cac1 8abd
00000220: c594 993d f8e9 51bd b92b 8ebd 4c7a ee3c
00000230: c08e 3e3b 0e6a 353d 80f2 513c 4c23 c9bc
00000240: 7a9d 043d eacb a2bd d335 12bd 7e44 713d
00000250: 16db 3f3d fb86 2bbd 1de2 a83d 62f4 5f3d
00000260: 8e12 2b3d 3815 7cbd 81a6 51bd faf9 92bd
00000270: a0f9 4dbd 1e36 013d 99b2 873d fd37 943d
00000280: 6026 42bb f0bb 113c aed4 f3bc e8f6 82bd
00000290: 6041 f83c 58aa ccbc ccdb 18bd 48b0 f5bc
000002a0: 44ae 8abd 1c96 54bd 1eb9 05bd 508c afbc
000002b0: 9cb1 a7bc 1f3c a33d 2859 abbc 7aeb 2f3d
000002c0: 6cd8 87bc 7785 9f3d e0bf bbbc e679 543d
000002d0: eaed 7b3d 5039 c6bc 245c f13c a424 45bd
000002e0: b2de 12bd 9e89 473d ea1f 3b3d b48a 913c
000002f0: c125 933d 797c 42bd a8c9 4e3c 7513 8dbd
00000300: 52da adbd 10d1 5bbd 3f69 af3d 4e3f 513d
00000310: 6968 803d 3a40 7a3d 10c7 33bc 200d 793c
00000320: ea2c c5bc 375f 49bd a2c8 10bd 431c 4dbd
00000330: ce6e 273d f015 24bd bcd8 9ebc 3502 a93d
00000340: 9aa9 143d f80e 7c3c dc5c 84bc 0d30 873d
00000350: 3052 af3b 605a 3f3b 60fe 3abd e99e 8fbd
00000360: 42aa 7e3d f392 43bd a98c 9bbd 92cc 9fbd
00000370: 2cd2 9e3c d83d aabd 2618 91bd 107c ae3c
00000380: dae3 263d e758 22c1 585f 2541 4af4 2741
00000390: 8257 1dc1 1e37 1d41 6bc2 1d41 cafe 1c41
000003a0: 0c2a 21c1 1660 2041 720b 1f41 238a 1dc1
000003b0: b5b0 1ac1 4cc7 1ec1 dd00 1d41 a7fa 1ec1
000003c0: 43e3 1ac1 5245 1e41 09ef 1d41 978c 1d41
000003d0: b8f1 23c1 5e6c 2241 be69 21c1 6c39 26c1
000003e0: a3ba 2541 0d13 1ec1 d172 2441 02bb 21c1
000003f0: 574c 1f41 4dc2 2441 3573 22c1 cb3e 1e41

atten_layer.0.bias f4 [45]
9.55313 9.957454 9.721005 -9.876245 -9.830076 -9.914745 -9.986275 9.834167
-9.894074 9.863375 -9.767734 -9.93314 9.915274 -9.796879 -9.7204275 9.94262
-9.779364 -9.954644 -9.734966 -9.786836 -9.917535 10.00266 9.808002 9.919166
-10.000061 -9.929826 -9.878118 -9.883714 -9.766529 -10.024823 9.815674 9.906718
9.9056425 9.908734 -9.821524 -9.977847 9.932324 9.821155 -10.005129 9.822055
-9.740461 -9.912423 9.911213 9.928223 -9.747923
00000000: 9fd9 1841 bb51 1f41 3d89 1b41 1905 1ec1
00000010: fe47 1dc1 cca2 1ec1 c8c7 1fc1 bf58 1d41
00000020: 214e 1ec1 62d0 1d41 a348 1cc1 24ee 1ec1
00000030: f6a4 1e41 04c0 1cc1 df86 1bc1 f914 1f41
00000040: 4678 1cc1 3946 1fc1 6cc2 1bc1 e196 1cc1
00000050: 39ae 1ec1 e50a 2041 94ed 1c41 e7b4 1e41
00000060: 4000 20c1 91e0 1ec1 c50c 1ec1 b123 1ec1
00000070: b443 1cc1 ad65 20c1 000d 1d41 eb81 1e41
00000080: 837d 1e41 2d8a 1e41 f624 1dc1 43a5 1fc1
00000090: cdea 1e41 7323 1d41 0215 20c1 2327 1d41
000000a0: eed8 1bc1 4999 1ec1 5494 1e41 00da 1e41
000000b0: 7ef7 1bc1

atten_layer.2.weight f4 [1, 45]
8.062063 -11.8431225 9.200479 -8.279602 -8.659784 -8.240009 -8.996226 -10.71912
-8.453773 8.54457 -7.6391945 10.649446 -10.935898 -8.612217 12.555173 9.133561
11.547651 10.92135 -7.974697 -8.079821 10.457394 9.832394 9.71498 9.720487
10.21259 11.339639 -9.514505 -9.142785 12.049996 10.160235 9.657961 -11.198237
9.104958 -10.083012 11.052465 -9.300081 -10.460731 -10.709603 10.634634 -11.248132
-8.147856 10.272359 -11.4311285 9.860498 -8.111995
00000000: 36fe 0041 6e7d 3dc1 2935 1341 4079 04c1
00000010: 7a8e 0ac1 14d7 03c1 8bf0 0fc1 8481 2bc1
00000020: a742 07c1 8fb6 0841 4874 f4c0 2164 2a41
00000030: 70f9 2ec1 a4cb 09c1 fde1 4841 1123 1241
00000040: 2ec3 3841 d9bd 2e41 b830 ffc0 f246 01c1
00000050: 7c51 2741 7c51 1d41 8f70 1b41 1d87 1b41
00000060: c566 2341 296f 3541 6a3b 18c1 d948 12c1
00000070: c9cc 4041 5390 2241 0287 1a41 fb2b 33c1
00000080: e8ad 1141 0454 21c1 e6d6 3041 22cd 14c1
00000090: 275f 27c1 895a 2bc1 7627 2a41 59f8 33c1
000000a0: 9e5d 02c1 955b 2441 e7e5 36c1 9ac4 1d41
000000b0: bbca 01c1

lstm.weight_ih_l0 f4 [180, 45]
9.619313 -10.011217 -10.053921 9.875996 -10.013262 9.880604 9.755296 10.022497
-9.704207 10.032081 9.815963 9.955422 9.882823 9.860385 -9.919036 10.036339
-9.815188 -10.043198 -9.861235 10.088672 -10.105594 10.274062 10.068105 -9.893504
9.257269 -10.128011 10.097913 -9.8961735 -10.169246 10.01339 -9.855405 -10.002845
-9.846572 9.966998 10.005251 -10.008939 -9.898476 9.851464 9.881896 -9.990523
-9.903376 10.093574 -10.119501 -9.988878 10.1458845 10.034632 -10.207988 -10.03851
10.005903 9.950379 9.933041 9.9372 9.950253 -9.822349 9.8411665 9.832668
-9.7931795 9.899326 -9.775569 -9.822541 9.777562 -9.899518 -9.765339 -9.805629
10.086837 -10.114101 9.932873 10.223642 -10.001152 -8.341806 -10.072525 10.069554
-9.753337 -10.141599 10.034249 -9.853858 -9.991075 -10.03815 9.846774 9.8031
-9.897373 -9.903662 9.931556 9.974465 -9.746404 -9.905327 10.078367 -9.914264
-9.616175 10.114288 -9.781545 -10.124425 -10.118803 9.815732 -9.907435 9.868956
-9.90415 10.109982 -10.017268 -9.963238 9.861591 -8.56091 -9.952381 9.978976
9.797397 9.783096 9.958987 9.803067 -9.821614 10.094675 -10.077372 9.959926
9.92634 -9.987068 -7.3851595 -9.952387 10.212657 -9.868307 -10.086397 10.0513315
10.026839 9.764481 -9.913348 10.024483 9.839545 9.925633 10.028262 9.997672
-9.752383 -9.920837 9.863587 10.019925 -10.137388 9.839819 9.938207 10.059389
-10.173435 -10.116059 10.000557 -9.829156 9.792638 10.030794 10.205656 -9.812178
-9.810023 10.015332 -9.690728 9.744081 9.961882 9.974323 9.957606 9.88461
-9.759434 -9.896799 10.300076 -10.034205 9.988102 10.198868 -10.277485 8.362859
-10.143618 10.132853 -9.8059025 -10.267299 10.166429 -9.817117 10.050996 -9.794158
9.789375 9.937257 -9.961585 -9.771381 9.735565 -9.813304 -9.827414 9.940432
10.041058 -10.00486 9.8401785 10.031955 9.860085 -10.140569 -10.348005 9.812851
9.702573 9.959203 9.880617 10.095737 -10.019157 -10.0140295 9.839279 -9.922822
9.783532 -9.634664 10.052631 9.976593 9.868021 -9.838948 -9.753283 10.240767
-10.308059 10.023909 10.1339 -10.270838 9.480562 -10.311129 10.205065 -9.807336
-10.058897 10.120544 -9.880665 9.886831 -9.920783 9.990476 10.000916 -9.811366
-9.802492 9.9578285 -9.734368 -9.948567 -10.001832 10.2370405 -10.093392 10.024244
10.064703 10.011423 -10.074531 -10.219327 9.82744 -9.996008 9.864574 9.753595
10.026896 -9.951023 -10.039744 9.878726 -9.221686 9.867815 9.890806 9.922851
9.942157 9.820581 -9.992836 -9.944636 10.004432 -10.099666 9.944868 9.997348
-10.134768 -8.029838 -10.170392 9.951758 -10.012102 -10.137058 10.221113 -9.928442
00000000: b5e8 1941 f22d 20c1 dcdc 20c1 1404 1e41
00000010: 5236 20c1 f416 1e41 b115 1c41 265c 2041
00000020: 6f44 1bc1 6783 2041 2f0e 1d41 6949 1f41
00000030: 0b20 1e41 23c4 1d41 5fb4 1ec1 d894 2041
00000040: 030b 1dc1 f0b0 20c1 9ec7 1dc1 336b 2141
00000050: 83b0 21c1 8f62 2441 f516 2141 cb4b 1ec1
00000060: c61d 1441 550c 22c1 0d91 2141 ba56 1ec1
00000070: 3bb5 22c1 d836 2041 bdaf 1dc1 a70b 20c1
00000080: 8f8b 1dc1 d378 1f41 8215 2041 9d24 20c1
00000090: 2860 1ec1 999f 1d41 3f1c 1e41 2fd9 1fc1
000000a0: 3a74 1ec1 477f 2141 7ae9 21c1 72d2 1fc1
000000b0: 8b55 2241 da8d 2041 eb53 23c1 bd9d 20c1
000000c0: 2e18 2041 c134 1f41 bced 1e41 c5fe 1e41
000000d0: 3c34 1f41 5728 1dc1 6b75 1d41 9c52 1d41
000000e0: ddb0 1cc1 a463 1e41 bb68 1cc1 2129 1dc1
000000f0: e570 1c41 6d64 1ec1 d43e 1cc1 dbe3 1cc1
00000100: af63 2141 5cd3 21c1 0ced 1e41 0a94 2341
00000110: b804 20c1 0a78 05c1 1029 21c1 e51c 2141
00000120: ab0d 1cc1 fd43 22c1 498c 2041 67a9 1dc1
00000130: 71db 1fc1 439c 20c1 638c 1d41 7fd9 1c41
00000140: a45b 1ec1 6675 1ec1 a7e7 1e41 6997 1f41
00000150: 45f1 1bc1 387c 1ec1 fe40 2141 d3a0 1ec1
00000160: dadb 19c1 20d4 2141 3581 1cc1 a5fd 21c1
00000170: 9ee6 21c1 3d0d 1d41 db84 1ec1 3ee7 1d41
00000180: 6677 1ec1 7cc2 2141 bb46 20c1 6c69 1fc1
00000190: 14c9 1d41 7df9 08c1 f43c 1fc1 e3a9 1f41
000001a0: 23c2 1c41 9087 1c41 0358 1f41 5dd9 1c41
000001b0: 5525 1dc1 ca83 2141 ea3c 21c1 db5b 1f41
000001c0: 4ad2 1e41 08cb 1fc1 3a53 ecc0 fa3c 1fc1
000001d0: 0b67 2341 96e4 1dc1 e261 21c1 41d2 2041
000001e0: ef6d 2041 503b 1c41 139d 1ec1 4864 2041
000001f0: c76e 1d41 65cf 1e41 c373 2041 77f6 1f41
00000200: c309 1cc1 c0bb 1ec1 41d1 1d41 9d51 2041
00000210: be32 22c1 e66f 1d41 e502 1f41 42f3 2041
00000220: 64c6 22c1 61db 21c1 4802 2041 3944 1dc1
00000230: a5ae 1c41 227e 2041 5e4a 2341 aefe 1cc1
00000240: dbf5 1cc1 cd3e 2041 390d 1bc1 c1e7 1b41
00000250: de63 1f41 d496 1f41 5b52 1f41 5d27 1e41
00000260: a426 1cc1 4a59 1ec1 1ccd 2441 1b8c 20c1
00000270: 44cf 1f41 902e 2341 9470 24c1 45ce 0541
00000280: 424c 22c1 2a20 2241 fae4 1cc1 db46 24c1
00000290: b1a9 2241 e912 1dc1 e1d0 2041 dfb4 1cc1
000002a0: 48a1 1c41 01ff 1e41 a762 1fc1 9457 1cc1
000002b0: e0c4 1b41 4b03 1dc1 163d 1dc1 020c 1f41
000002c0: 2ca8 2041 e813 20c1 5f71 1d41 e382 2041
000002d0: e8c2 1d41 c53f 22c1 6e91 25c1 7001 1d41
000002e0: bd3d 1b41 e558 1f41 0217 1e41 2488 2141
000002f0: 784e 20c1 7739 20c1 b06d 1d41 e1c3 1ec1
00000300: 5989 1c41 9527 1ac1 94d7 2041 20a0 1f41
00000310: 6ae3 1d41 556c 1dc1 720d 1cc1 2eda 2341
00000320: cfed 24c1 ee61 2041 7424 2241 5a55 24c1
00000330: 62b0 1741 62fa 24c1 f247 2341 d9ea 1cc1
00000340: 3ef1 20c1 c0ed 2141 3417 1ec1 7630 1e41
00000350: 87bb 1ec1 fdd8 1f41 c003 2041 5bfb 1cc1
00000360: 02d7 1cc1 4453 1f41 f9bf 1bc1 552d 1fc1
00000370: 8107 20c1 ebca 2341 897e 21c1 4e63 2041
00000380: 0609 2141 ca2e 2041 4731 21c1 5d82 23c1
00000390: 323d 1d41 a6ef 1fc1 4cd5 1d41 ba0e 1c41
000003a0: 2b6e 2041 6437 1fc1 cba2 20c1 430f 1e41
000003b0: 078c 13c1 92e2 1d41 be40 1e41 ffc3 1e41
000003c0: 1313 1f41 1a21 1d41 a8e2 1fc1 3b1d 1fc1
000003d0: 2712 2041 3b98 21c1 2e1e 1f41 23f5 1f41
000003e0: 0228 22c1 377a 00c1 edb9 22c1 673a 1f41
000003f0: 9231 20c1 6431 22c1 ae89 2341 e6da 1ec1

lstm.weight_hh_l0 f4 [180, 45]
-0.014867321 0.14074056 -0.14619909 0.0039958805 -0.14547545 -0.09063757 0.038546592 0.09969355
-0.023795724 0.13270028 0.06762515 -0.13469186 -0.037143886 -0.022625387 -0.02374892 0.06268272
0.12293513 -0.10152106 -0.0827014 -0.08883968 0.02777265 0.0598654 -0.097909704 0.08064288
0.06566842 -0.04410363 -0.0449778 -0.13931228 -0.09516434 0.04265575 0.058356643 0.13141502
-0.03450706 0.10088554 -0.08274862 -0.11912782 -0.12760231 0.098299295 -0.023480996 0.12050964
-0.054430947 0.1485116 0.063046455 -0.06899998 0.08081521 -0.03690487 0.09947714 -0.022204354
0.14779665 0.11124407 -0.13682178 0.033783317 -0.012140945 -0.055161893 0.07627371 -0.027083054
-0.05448115 -0.09968394 -0.117559835 0.08936961 0.09546952 -0.019520804 0.09338948 -0.0637358
0.12147014 -0.034563653 0.06826238 0.023080707 0.14191364 -0.018051133 -0.11892493 -0.096638605
-0.005804509 -0.034435898 -0.095142454 -0.108447716 -0.13449456 -0.038516656 0.09710471 0.021745756
0.0031372905 -0.14779396 0.007391423 -0.14159077 -0.09898092 -0.07148996 -0.131855 -0.016358256
0.07746844 -0.10236682 -0.14720689 -0.113624826 0.013314977 0.14787121 0.118051246 0.13706501
0.0032477528 0.054067597 -0.0418725 -0.11666781 0.03643003 0.07498458 0.11384831 -0.08667922
0.024137154 -0.119497284 -0.13327077 -0.067865536 -0.10592547 -0.11310939 -0.011302188 -0.12692101
-0.117336035 -0.10319294 -0.09130635 0.0097376555 -0.017441347 0.062555626 -0.023460075 0.059009954
-0.034830786 0.075055525 0.06462228 0.11985798 0.028135613 -0.113754585 0.049516097 0.011954188
-0.09218484 0.063888654 0.03498994 -0.021892294 -0.10800128 -0.039368488 -0.08582817 0.018558338
-0.06801207 -0.0070343614 -0.0320557 0.04307255 0.06843281 -0.029100403 0.08869377 -0.12908566
0.14217775 0.14200024 0.1276734 -0.08575924 -0.03896465 0.035853684 -0.12295666 0.10788341
0.0061253905 0.1256599 -0.12499599 -0.04042252 -0.1329954 -0.05419472 0.025040194 -0.0034860373
0.061110884 -0.04859273 -0.04399222 -0.11348195 -0.14420667 0.1264232 -0.10323239 -0.121513315
-0.034901172 -0.013317585 0.028598562 -0.10706173 -0.10987685 -0.12698339 0.078618035 0.06919971
-0.06664324 0.0022816658 -0.027878135 0.03658612 -0.09406766 -0.07725487 -0.029893875 -0.036934264
-0.080235794 -0.11125484 -0.019157901 -0.11808391 -0.030546345 0.12630905 0.04553914 0.013274774
-0.03821981 0.07081805 0.0518983 0.081511125 0.07724336 0.016887113 -0.023129106 -0.12379734
-0.108970866 0.085754916 -0.028334841 0.008271679 -0.13170594 -0.09950274 -0.082239114 0.108491525
0.11237283 -0.04236882 -0.067744784 0.10452147 0.08637926 -0.086142376 0.113872394 0.058299825
0.013917133 -0.06810306 0.0973067 -0.085404925 -0.0072369277 -0.10604919 -0.14538778 -0.06967687
-0.05298134 0.06021738 0.088805616 -0.12667386 0.085055694 -0.10720454 0.1392505 -0.09465312
0.03395821 0.046831787 -0.0331093 -0.08231256 0.13856907 0.14773919 0.12967421 -0.05292476
0.012717605 -0.08989705 -0.00054840744 -0.11534058 -0.049010962 0.056109518 -0.09193069 -0.0875818
0.109640315 -0.052722633 -0.06970802 0.07014458 -0.111294344 -0.032445945 0.0019961298 0.119441226
00000000: 1096 73bc 4b1e 103e 37b5 15be e0ef 823b
00000010: 84f7 14be 31a0 b9bd 08e3 1d3d 222c cc3d
00000020: 40ef c2bc 95e2 073e 0e7f 8a3d aaec 09be
00000030: 3024 18bd e058 b9bc 188d c2bc cc5f 803d
00000040: 6ac5 fb3d 46ea cfbd 5a5f a9bd 94f1 b5bd
00000050: 7883 e33c 6c35 753d e284 c8bd 1828 a53d
00000060: 2a7d 863d 02a6 34bd a43a 38bd e1a7 0ebe
00000070: 86e5 c2bd ccb7 2e3d 6007 6f3d a991 063e
00000080: 4657 0dbd 149d ce3d 1c78 a9bd 49f9 f3bd
00000090: 2eaa 02be 2451 c93d 385b c0bc c2cd f63d
000000a0: fcf2 5ebd 6d13 183e 801e 813d dd4f 8dbd
000000b0: 7282 a53d 9029 17bd acba cb3d e8e5 b5bc
000000c0: 0158 173e eed3 e33d 021b 0cbe 6060 0a3d
000000d0: d0ea 46bc 70f1 61bd 6435 9c3d 48dd ddbc
000000e0: a027 5fbd 1827 ccbd 36c3 f0bd 6a07 b73d
000000f0: 8685 c33d 18ea 9fbc fc42 bf3d ea87 82bd
00000100: 56c5 f83d 9e92 0dbd 26cd 8b3d c013 bd3c
00000110: cf51 113e f8df 93bc ea8e f3bd 76ea c5bd
00000120: c033 bebb a80c 0dbd 0cda c2bd d619 debd
00000130: f1b8 09be a4c3 1dbd d6de c63d 2824 b23c
00000140: 009b 4d3b 4d57 17be c033 f23b 2cfd 10be
00000150: 82b6 cabd 5469 92bd ff04 07be c001 86bc
00000160: c6a7 9e3d b2a5 d1bd 67bd 16be 22b4 e8bd
00000170: 1027 5a3c 8d6b 173e dac4 f13d c55a 0c3e
00000180: 40d8 543b fc75 5d3d 8082 2bbd 88ef eebd
00000190: a837 153d 8491 993d 4e29 e93d e084 b1bd
000001a0: 48bb c53c feba f4bd 2278 08be 16fd 8abd
000001b0: 74ef d8bd e5a5 e7bd d02c 39bc 95f7 01be
000001c0: e04d f0bd d256 d3bd d3fe babd b08a 1f3c
000001d0: 28e1 8ebc 2a1d 803d 582f c0bc 6cb4 713d
000001e0: baaa 0ebd b6b6 993d b058 843d 1a78 f53d
000001f0: a87c e63c 2af8 e8bd 64d1 4a3d 80db 433c
00000200: 68cb bcbd 0ed8 823d 9c51 0f3d 7857 b3bc
00000210: c62f ddbd da40 21bd aec6 afbd a807 983c
00000220: ea49 8bbd 8080 e6bb d64c 03bd d86c 303d
00000230: 8026 8c3d f863 eebc 14a5 b53d 082f 04be
00000240: 0b97 113e 8368 113e d1bc 023e 8aa2 afbd
00000250: 6699 1fbd 50db 123d b4d0 fbbd faf1 dc3d
00000260: 80b7 c83b fdac 003e e6fd ffbd 1692 25bd
00000270: f22f 08be 48fb 5dbd 1821 cd3c 0076 64bb
00000280: 684f 7a3d 2c09 47bd 3031 34bd 3969 e8bd
00000290: eaaa 13be 1575 013e 816b d3bd f9db f8bd
000002a0: 88f4 0ebd 0032 5abc 8847 ea3c 2e43 dbbd
000002b0: 1d07 e1bd ef07 02be 7e02 a13d 94b8 8d3d
000002c0: 407c 88bd 0088 153b b060 e4bc 54db 153d
000002d0: 8ca6 c0bd cd37 9ebd 00e4 f4bc 6248 17bd
000002e0: aa52 a4bd 94d9 e3bd 08f1 9cbc fad5 f1bd
000002f0: 543c fabc 2957 013e 4087 3a3d 707e 593c
00000300: 608c 1cbd 0e09 913d 5093 543d 4eef a63d
00000310: c431 9e3d d856 8a3c 4079 bdbc 7689 fdbd
00000320: 1e2c dfbd 46a0 af3d 781e e8bc f085 073c
00000330: ecdd 06be 18c8 cbbd fb6c a8bd ce30 de3d
00000340: ba23 e63d ee8a 2dbd c7bd 8abd 5a0f d63d
00000350: 9ce7 b03d 6a6b b0bd ee35 e93d cccb 6e3d
00000360: b004 643c 9e79 8bbd bc48 c73d c7e8 aebd
00000370: c023 edbb 5130 d9bd 89e0 14be bfb2 8ebd
00000380: f602 59bd 80a6 763d b8df b53d cbb6 01be
00000390: ae31 ae3d 0e8e dbbd af97 0e3e 7fd9 c1bd
000003a0: c417 0b3d b0d2 3f3d 9e9d 07bd 7d93 a8bd
000003b0: 0de5 0d3e f148 173e 51c9 043e a2c7 58bd
000003c0: 805d 503c f21b b8bd 00c3 0fba af37 ecbd
000003d0: b8bf 48bd 18d3 653d 2846 bcbd 165e b3bd
000003e0: 1a8b e03d b0f3 57bd 14c3 8ebd f6a7 8f3d
000003f0: 4aee e3bd 0ae6 04bd 80d1 023b 9a9d f43d

lstm.bias_ih_l0 f4 [180]
10.593297 10.641977 10.558889 10.6262045 10.669696 10.545313 10.694079 10.679336
10.526132 10.652801 10.6007 10.641472 10.62037 10.687497 10.693786 10.413757
10.48543 10.685635 10.78909 10.594994 10.650588 10.690123 10.609035 10.603126
10.531573 10.574124 10.607308 10.538283 10.621434 10.791338 10.779159 10.657105
10.618343 10.586737 10.877569 10.580737 10.713453 10.500892 10.755878 10.856392
10.664128 10.763006 10.902621 10.669669 10.757614 -0.07716474 0.006778002 -0.0073163062
0.03459029 -0.03833911 0.09310931 0.10118796 0.08893731 -0.04043681 -0.036134563 0.112248465
0.104648754 0.042756766 -0.057789035 -0.11756101 -0.0052877814 -0.004633561 -0.09383619 0.071124166
0.08533898 0.06712267 -0.023024708 -0.08747421 -0.1391812 -0.08888696 -0.08514786 -0.081797056
-0.10284305 -0.072010174 0.14497171 -0.07968405 0.05541095 -0.09463547 0.09533803 -0.1349002
0.044120118 0.14554463 -0.07749106 0.019057497 -0.14334112 -0.060663722 0.111901835 0.09418395
0.05125369 0.08248608 -11.027184 -10.734946 10.759059 -10.956016 -11.000134 -10.606907
-11.002546 -10.675197 10.636871 10.520431 -10.453921 11.331434 -11.24508 -10.829075
10.985582 10.600155 -10.388029 10.469421 11.197885 10.913745 10.468897 -10.516151
-10.966948 10.488839 10.798643 -10.65688 -10.75511 10.936663 10.722548 10.503889
-10.478964 -10.733542 10.848739 10.566493 -10.45628 10.684763 10.405168 10.77947
-10.938866 10.8201 10.719721 -10.7830925 -11.120671 -10.589505 -10.658143 10.727905
10.658267 10.792696 10.632405 10.617487 10.657186 10.624033 10.673164 10.745401
10.877274 10.752782 10.890868 10.759881 10.693971 10.8402 10.730244 10.67529
10.708565 10.868898 10.721862 10.667038 10.837522 10.720259 10.726408 10.626155
10.805132 10.714993 10.485058 10.467867 10.897334 10.801618 10.602366 10.591136
10.661313 10.896562 10.635996 10.72284 10.724645 10.777732 10.723542 10.613368
10.773556 10.934612 10.524664 10.578773
00000000: 257e 2941 8a45 2a41 36f1 2841 ef04 2a41
00000010: 13b7 2a41 9ab9 2841 f31a 2b41 8fde 2a41
00000020: 096b 2841 df71 2a41 789c 2941 7843 2a41
00000030: 09ed 2941 fdff 2a41 bf19 2b41 c09e 2641
00000040: 52c4 2741 5cf8 2a41 1da0 2c41 1885 2941
00000050: cf68 2a41 be0a 2b41 9bbe 2941 67a6 2941
00000060: 5381 2841 9d2f 2941 89b7 2941 cf9c 2841
00000070: 65f1 2941 52a9 2c41 6f77 2c41 8183 2a41
00000080: bce4 2941 4663 2941 860a 2e41 b34a 2941
00000090: 4e6a 2b41 a703 2841 1418 2c41 c8b3 2d41
000000a0: 45a0 2a41 4635 2c41 2371 2e41 f7b6 2a41
000000b0: 301f 2c41 8c08 9ebd 001a de3b a0bd efbb
000000c0: 8cae 0d3d 7809 1dbd 18b0 be3d a23b cf3d
000000d0: c424 b63d 12a1 25bd d601 14bd 86e2 e53d
000000e0: 1652 d63d b821 2f3d 32b4 6cbd d4c3 f0bd
000000f0: 2045 adbb 20d5 97bb 302d c0bd 8ca9 913d
00000100: 34c6 ae3d 9c77 893d 509e bcbc ae25 b3bd
00000110: 8485 0ebe 5e0a b6bd 0062 aebd 3785 a7bd
00000120: 619f d2bd 127a 93bd 7773 143e 6431 a3bd
00000130: 98f6 623d 3ed0 c1bd 9640 c33d 4723 0abe
00000140: 4cb7 343d a709 153e a2b3 9ebd 781e 9c3c
00000150: 04c8 12be 867a 78bd ca2c e53d 84e3 c03d
00000160: 64ef 513d 76ee a83d 586f 30c1 57c2 2bc1
00000170: 1b25 2c41 d74b 2fc1 8d00 30c1 e4b5 29c1
00000180: 6e0a 30c1 9bcd 2ac1 a030 2a41 af53 2841
00000190: 4343 27c1 8e4d 3541 d9eb 33c1 e443 2dc1
000001a0: f2c4 2f41 3c9a 2941 5e35 26c1 c082 2741
000001b0: 892a 3341 b39e 2e41 9a80 2741 2842 28c1
000001c0: 9e78 2fc1 49d2 2741 3ec7 2c41 9582 2ac1
000001d0: ee14 2cc1 92fc 2e41 8e8f 2b41 ee0f 2841
000001e0: d6a9 27c1 97bc 2bc1 6f94 2d41 5b10 2941
000001f0: ec4c 27c1 caf4 2a41 917b 2641 b678 2c41
00000200: 9805 2fc1 211f 2d41 fa83 2b41 8c87 2cc1
00000210: 45ee 31c1 9d6e 29c1 c187 2ac1 80a5 2b41
00000220: 4388 2a41 e2ae 2c41 551e 2a41 3ae1 2941
00000230: d583 2a41 0afc 2941 48c5 2a41 2aed 2b41
00000240: 5009 2e41 650b 2c41 ff40 2e41 7928 2c41
00000250: 811a 2b41 7671 2d41 14af 2b41 fdcd 2a41
00000260: 4856 2b41 02e7 2d41 bf8c 2b41 30ac 2a41
00000270: 7d66 2d41 2e86 2b41 5e9f 2b41 bb04 2a41
00000280: d2e1 2c41 9c70 2b41 ccc2 2741 627c 2741
00000290: 7b5b 2e41 6dd3 2c41 4ba3 2941 4b75 2941
000002a0: bd94 2a41 5158 2e41 0a2d 2a41 c190 2b41
000002b0: 2598 2b41 9771 2c41 a193 2b41 5bd0 2941
000002c0: 7c60 2c41 2cf4 2e41 0665 2841 a742 2941
