Ni_prediction/savemodel/bst_mod_146.pth (torch_old, 533442 bytes, 44 tensors)

price_encoder.attention.weight f4 [1, 121]
0	0x3ff3d2bc	1.9048686
1	0x3ff7f03c	1.9370189
2	0x3fecff06	1.8515327
3	0xbff9130c	-1.9458938
4	0xbfe4089e	-1.781513
5	0x3fe4b7f6	1.786864
6	0x3ff31b0f	1.8992633
7	0xbfea53d0	-1.8306828
8	0x3ff11dee	1.8837259
9	0x3fedc9b6	1.8577182
10	0x3febdad6	1.8426158
11	0x3ff549d4	1.9163156
12	0xbfe6cd66	-1.8031433
13	0xbfee72c0	-1.8628769
14	0xbfeefada	-1.8670304
15	0x3fe7d522	1.8111918
16	0x3fe41bb9	1.782096
17	0xbfe83be2	-1.8143275
18	0x3fe1d00a	1.7641613
19	0x3ff1e8c5	1.8899161
20	0x3fe16baa	1.7610981
21	0x3fee7da0	1.8632088
22	0x3ff4fa5b	1.9138902
23	0xbff3e9f6	-1.9055774
24	0xbff3e928	-1.9055529
25	0x3febfc09	1.843629
26	0xbfe72c9a	-1.8060486
27	0xbff4e415	-1.9132105
28	0xbff2453c	-1.8927379
29	0xbfe93b5d	-1.8221241
30	0x3ff49c1c	1.9110141
31	0xbfebb132	-1.8413451
32	0x3fed5f99	1.8544799
33	0x3ff90f9d	1.945789
34	0x3fe5a64e	1.7941377
35	0x3fed2d54	1.8529458
36	0xbff45010	-1.9086933
37	0x3ff495a8	1.9108171
38	0x3fef9ecc	1.8720336
39	0xbff4c090	-1.9121265
40	0x3feee4ce	1.8663576
41	0x3ff951fc	1.9478145
42	0x3fe9d745	1.826882
43	0x3ff41eb0	1.9071865
44	0x3feef0c7	1.866723
45	0x3ff444c5	1.9083487
46	0x3ff43d2a	1.9081166
47	0x3ff48471	1.9102918
48	0x3ff8cd52	1.9437659
49	0x3febc713	1.8420128
50	0x3fe7203d	1.8056713
51	0x3feaa365	1.8331114
52	0x3ff555a2	1.9166758
53	0x3febffdf	1.8437461
54	0x3fe39424	1.7779584
55	0x3fef26d0	1.868372
56	0x3ff1c916	1.8889492
57	0xbff79a74	-1.934401
58	0xbfeee261	-1.8662835
59	0x3ffa0eae	1.953573
60	0x3fe72211	1.8057271
61	0xbff61434	-1.9224916
62	0xbff19b51	-1.8875524
63	0xbfe42587	-1.7823952
64	0xbff8adef	-1.942808
65	0x3ff7154a	1.9303372
66	0x3fee0b89	1.859727
67	0x3fe95a5c	1.82307
68	0x3fe751d1	1.8071843
69	0xbfed4cb0	-1.8539028
70	0xbfeb1df2	-1.8368514
71	0x3ff013a6	1.8755996
72	0x3ff159f2	1.8855574
73	0x3fe6317a	1.7983849
74	0xbfe6ca24	-1.8030438
75	0x3fe46a7c	1.7844996
76	0xbfe6c75c	-1.802959
77	0x3f81885a	1.0119736
78	0x3ff66dbc	1.9252238
79	0x3ff247d2	1.8928168
80	0xbfe51b92	-1.7899039
81	0xbfe6961e	-1.8014562
82	0x3fef19da	1.8679764
83	0x3fea5026	1.8305709
84	0x3ff72466	1.9307983
85	0xbff8e6ac	-1.9445395
86	0xbfe433c8	-1.7828302
87	0xbff961d4	-1.948298
88	0x3ff5f5b6	1.921561
89	0x3ff4a306	1.9112251
90	0x3ff89c7b	1.9422754
91	0x3ff7c060	1.9355583
92	0x3fe9ff5e	1.8281057
93	0x3ff5b8ae	1.9196985
94	0xbfe83413	-1.8140892
95	0xbff9026a	-1.9453862
96	0xbfe84d51	-1.8148595
97	0x3ff0ee1a	1.8822663
98	0xbff316e9	-1.8991367
99	0x3fe0aff0	1.7553692
100	0x3fe8e78e	1.8195665
101	0x3fea93b6	1.8326328
102	0x3fee37bc	1.8610759
103	0x3ff6cbc9	1.928094
104	0x3ff3c35a	1.9043992
105	0x3fe7b917	1.810336
106	0x3fe3a156	1.7783611
107	0x3ff41e4f	1.907175
108	0x3ff4f0a1	1.9135934
109	0x3fee1b0e	1.8602006
110	0x3fe353dc	1.7759967
111	0x3feeaac8	1.8645868
112	0x3fe27fa7	1.7695206
113	0x3ff12723	1.8840069
114	0x3ff75024	1.9321332
115	0x3fe37f16	1.7773159
116	0x3fea7438	1.8316717
117	0x3fe987a2	1.8244517
118	0x3ff55214	1.9165673
119	0x3ff03e70	1.8769054
120	0x3ff42d73	1.907637

price_encoder.encoder.weight_ih_l0 f4 [180, 45]
0	0xbdce781c	-0.10081503
1	0xbdf18632	-0.11793174
2	0x3d033218	0.032030195
3	0x3da90520	0.08252931
4	0xbd637be6	-0.05553808
5	0x3dd5b0a2	0.10434081
6	0x3da10980	0.0786314
7	0xbdf9ef0a	-0.12203796
8	0xbdd440b7	-0.10363906
9	0xbc431540	-0.011906922
10	0xbde1f873	-0.11033716
11	0xbd6cefce	-0.057845883
12	0xbcd9dabc	-0.026593558
13	0x3cfb40d8	0.030670568
14	0xbdf7b2be	-0.12094639
15	0x3c76ab70	0.015055522
16	0x3d509afc	0.050929055
17	0xbdaa4008	-0.08312994
18	0x3db96168	0.09051782
19	0x3debb1e6	0.11508541
20	0x3dd541b4	0.104129225
21	0x3d8c5e47	0.068539195
22	0xbdda98b0	-0.10673654
23	0xbfe08394	-1.7540154
24	0xbe1478d7	-0.14499222
25	0xbe17f2a5	-0.14838655
26	0xbdf93d6b	-0.12169918
27	0x3e03a35b	0.12855284
28	0x3e084b53	0.13309984
29	0x3d149a38	0.036279887
30	0xbe07550b	-0.13216035
31	0xbbfcf9e0	-0.007720217
32	0x3deff8b6	0.1171736
33	0x3fe00e0a	1.7504284
34	0x3fe827c6	1.8137138
35	0x3fea610e	1.8310869
36	0x3fec80f0	1.8476849
37	0x3fed1454	1.8521829
38	0xbe23a843	-0.15982156
39	0x3fe65228	1.7993822
40	0x40008774	2.0082674
41	0x3ff7efdc	1.9370074
42	0x3fe607e6	1.797116
43	0x3cc6ba88	0.024258867
44	0xbdfebdd6	-0.12438552
45	0xbe005e1e	-0.12535903
46	0x3d8f35ac	0.06992659
47	0x3de2021b	0.11035558
48	0x3d3688f0	0.044564188
49	0x3dbc29f6	0.09187691
50	0x3dfb47c1	0.12269545
51	0xbd8dad02	-0.06917764
52	0x3dafb797	0.08579939
53	0x3d76dc28	0.06026855
54	0x3d006e70	0.03135532
55	0x3dbbee88	0.091763556
56	0xbca8f750	-0.02062574
57	0x3d8afcfa	0.06786533
58	0x3e04b81f	0.12960862
59	0x3c45dc60	0.012076467
60	0xbe1125a3	-0.14174514
61	0xbe0937c7	-0.13400184
62	0x3b9ef960	0.004851505
63	0xbd068a28	-0.0328466
64	0x3dc483c6	0.09595446
65	0x3f2a7234	0.6658051
66	0x3bca0e45	0.006166252
67	0xbdda78fb	-0.106676064
68	0x3fdc2a7c	1.7200465
69	0xbdf6e777	-0.12055867
70	0xbe1393cb	-0.14411847
71	0x3df7377a	0.12071128
72	0xbd3aaf3e	-0.04557728
73	0xbe11ca20	-0.14237261
74	0xbb4c3b40	-0.0031163245
75	0xbd32a98a	-0.043618716
76	0x3e0e5457	0.1389936
77	0xbdc0bb21	-0.09410692
78	0x3fe3b9be	1.7791059
79	0x3fddfc02	1.7342532
80	0x3feaef98	1.8354368
81	0x3fe50198	1.7891111
82	0x3fff202c	1.9931693
83	0xbe075a03	-0.1321793
84	0x3fe64c98	1.7992125
85	0x3fe1fac4	1.7654653
86	0x3fe3cefe	1.7797544
87	0x3ff864a5	1.9405714
88	0x3d243a10	0.040094435
89	0x3d347b70	0.04406303
90	0x3dd7a97b	0.10530373
91	0xbbdf4b87	-0.0068144235
92	0xbdf0b098	-0.117524326
93	0xbde0e635	-0.109814085
94	0x3ce79828	0.028270796
95	0x3d494d27	0.049145844
96	0x3d855003	0.06509402
97	0x3d87a968	0.066241086
98	0xbce66a51	-0.028126867
99	0xbdab928e	-0.083775625
100	0xbe061ec6	-0.13097677
101	0x3ca12e30	0.019675344
102	0xbd4b799e	-0.04967653
103	0xbdcf06a0	-0.101086855
104	0x3bbaf560	0.0057055205
105	0x3c88c158	0.016693756
106	0x3dc21f42	0.09478618
107	0xbdc7a884	-0.09748939
108	0x3c6c6110	0.014427438
109	0xbdaf37d2	-0.08555569
110	0x3f33a8c6	0.701794
111	0xbd074aaa	-0.03303019
112	0xbdd836e9	-0.10557348
113	0x3fe8af30	1.8178463
114	0xbd5c9524	-0.05385317
115	0x3d26d200	0.040727615
116	0xbd35007e	-0.044189923
117	0x3c405417	0.011738799
118	0xbdcf3051	-0.101166375
119	0x3e106e33	0.14104538
120	0xbddf4c42	-0.10903217
121	0x3e1028df	0.14078091
122	0xbe0e1fbc	-0.13879293
123	0x3ffc54c0	1.9713364
124	0x3fddd4b9	1.7330543
125	0x3fea6e75	1.8314959
126	0x3ff2d75e	1.8971975
127	0x3ff98185	1.9492651
128	0xbfee995c	-1.8640552
129	0x3fe8c7d2	1.818598
130	0x3ff8000e	1.9375017
131	0x3fde8bea	1.7386448
132	0x3fe7744e	1.8082368
133	0x3d6fd194	0.05854948
134	0xbd80bc1d	-0.0628588
135	0x3dc74bc2	0.097312465
136	0xbd5eb946	-0.05437591
137	0xbe05178e	-0.12997267
138	0xbcaec984	-0.021336325
139	0xbd207630	-0.039175212
140	0x3ded916c	0.11600003
141	0x3df774fa	0.120828584
142	0x3dc2059a	0.09473725
143	0xbb8c4318	-0.004280459
144	0x3da1b518	0.07895869
145	0x3de6a102	0.112611786
146	0x3decfab6	0.11571257
147	0x3dc9baf0	0.098501086
148	0xbfdd08bd	-1.7268292
149	0x3d11ea5c	0.035623893
150	0x3d7c364c	0.06157522
151	0xbd15dab6	-0.036585532
152	0xbc175ca0	-0.009238392
153	0x3f396eac	0.72434497
154	0x3d34374e	0.043998055
155	0xbe4268e5	-0.18985327
156	0xbc72ac8c	-0.014811646
157	0x3d77dccd	0.060513306
158	0xbfedac13	-1.8568138
159	0x3d46da8c	0.048548266
160	0x3e14e60d	0.14540882
161	0xbd83b840	-0.06431627
162	0xbdb63032	-0.08895911
163	0xbff13366	-1.884381
164	0x3daf2378	0.08551687
165	0x3dc778aa	0.09739812
166	0xbfbbbeb7	-1.4667577
167	0xbdb93234	-0.090427786
168	0xbfff96a6	-1.9967849
169	0xbff832fd	-1.939056
170	0xbfe2d5f2	-1.7721541
171	0xbfe4e847	-1.7883385
172	0xbff7671d	-1.9328343
173	0xbdc6e87a	-0.0971231
174	0xbfe5c7db	-1.7951616
175	0xbfee913c	-1.8638072
176	0xbfe2de44	-1.772408
177	0xbfe3e92f	-1.7805537
178	0x3da12df2	0.078700915
179	0x3d176de8	0.03697005
180	0xbdb02dfc	-0.08602521
181	0xbcac62b8	-0.021043167
182	0x3dac5966	0.08415489
183	0x3e0d0c21	0.13774158
184	0x3db1143c	0.086464375
185	0x3e132f9a	0.14373627
186	0xbe0d4c9e	-0.13798758
187	0xbe12feac	-0.14354962
188	0xbdb45c62	-0.08806683
189	0xbd559764	-0.05214633
190	0x3d59df98	0.05319175
191	0xbe14d623	-0.14534812
192	0xbdd89c32	-0.10576667
193	0xbda6f1cf	-0.0815159
194	0xbbed5a80	-0.0072434545
195	0x3db28466	0.08716659
196	0xbd08b124	-0.03337206
197	0xbdb8dcfc	-0.090265244
198	0x3d1d3268	0.03837815
199	0xbdb2204c	-0.086975664
200	0x3d8491da	0.064731315
201	0x3db5498d	0.08851919
202	0x3d398631	0.04529399
203	0xbfea9ba1	-1.8328744
204	0x3dcd49b2	0.10023822
205	0x3e10c781	0.14138605
206	0x3d99f56c	0.07517514
207	0x3cdfda50	0.02732578
208	0x3e03287d	0.12808414
209	0x3dfa30ca	0.12216337
210	0x3d5d4248	0.05401829
211	0xbc8c2800	-0.017108917
212	0xbdd6d87b	-0.10490509
213	0xbfdfba1a	-1.7478669
214	0xbffad507	-1.9596261
215	0xbffee368	-1.9913149
216	0xbfe6b9e0	-1.8025475
217	0xbfef0490	-1.8673267
218	0xbbb149e0	-0.005410418
219	0xbfebec14	-1.843142
220	0xbfe01f59	-1.7509567
221	0xbfdb8064	-1.7148557
222	0xbff6a8ed	-1.9270302
223	0xbda32724	-0.0796645
224	0xbc3aee70	-0.011409387
225	0xbc8a9018	-0.016914412
226	0x3d86267c	0.06550309
227	0x3c74b9d0	0.014936879
228	0xbd1cc4f8	-0.03827378
229	0x3e01b559	0.12666835
230	0x3e16386f	0.14669965
231	0xbacaaab8	-0.0015462255
232	0x3e185ddf	0.14879559
233	0x3d81ed7c	0.06344125
234	0x3de7afbe	0.11312817
235	0xbe06b870	-0.13156295
236	0x3dbbd360	0.09171176
237	0xbdbb1d73	-0.09136476
238	0x3fe381f9	1.777404
239	0x3c0f5b70	0.008749828
240	0x3af8ab00	0.001897186
241	0x3d1f5974	0.03890367
242	0x3cd21fe8	0.02564998
243	0xbdd3b1fa	-0.10336681
244	0x3d9f44a4	0.07776764
245	0xbd6f2556	-0.058385216
246	0xbd9cf949	-0.07664735
247	0x3a39b264	0.0007083772
248	0xc000c284	-2.0118723
249	0x3cde2960	0.027119339
250	0xbdba2b95	-0.09090344
251	0x3df27b96	0.118399784
252	0xbd1f6ed6	-0.03892406
253	0x3fef1a86	1.8679969
254	0x3d8311f8	0.06399912
255	0x3e0aa5a1	0.13539745

price_encoder.encoder.weight_hh_l0 f4 [180, 45]
0	0x3ffd058f	1.9767321
1	0x3ff17f12	1.8866904
2	0x3fdfee6d	1.7494637
3	0xbfe015aa	-1.7506611
4	0x3fed570d	1.8542191
5	0x3fe64538	1.7989874
6	0x3febf9e7	1.8435639
7	0xbffd6cac	-1.9798789
8	0xbfec5769	-1.8464175
9	0xbfe54983	-1.7913059
10	0xbff9f5a6	-1.9528091
11	0x3ff6d443	1.9283527
12	0xbfe69a64	-1.8015866
13	0xbfee9a8a	-1.8640912
14	0x3fe450d0	1.7837162
15	0xbfff7778	-1.9958334
16	0x3fe29672	1.7702162
17	0xbff2b15d	-1.8960377
18	0x3fdc8599	1.7228271
19	0xbffe6b96	-1.9876583
20	0x3fdcda21	1.7254068
21	0x3febc8c2	1.8420641
22	0x3fdee77c	1.7414393
23	0x3fe3c418	1.7794218
24	0xbfead45b	-1.8346056
25	0xbfdbb8ff	-1.7165831
26	0xbfe0222e	-1.7510431
27	0x3fe71704	1.8053899
28	0xbfdc7710	-1.7223835
29	0xbfe74d49	-1.807046
30	0x3fe21fa1	1.7665902
31	0xbfeffdd4	-1.8749337
32	0x3fec1d93	1.8446525
33	0x3fefd031	1.873541
34	0x3fec84d8	1.8478041
35	0xbfdc2efa	-1.7201836
36	0xbfe8ddbc	-1.8192668
37	0x3ff37165	1.901898
38	0x3fe3da24	1.7800946
39	0x4000c20b	2.0118434
40	0x3ffae584	1.9601293
41	0x3fe62307	1.797944
42	0xbff3ada0	-1.9037361
43	0x3fff2964	1.9934506
44	0xbffa5267	-1.9556397
45	0xbffd6cb5	-1.97988
46	0xbff59def	-1.9188823
47	0xbfee4498	-1.8614683
48	0x3ff46b0a	1.9095166
49	0xbfe33587	-1.775071
50	0xbffa0e71	-1.9535657
51	0xbfe0ab20	-1.7552223
52	0xbff89850	-1.9421482
53	0x3fe78566	1.8087585
54	0xbff64e46	-1.9242637
55	0x3fe45a43	1.7840046
56	0xc0006dc3	-2.0066993
57	0x3fddbe25	1.7323653
58	0x3fe6e4ed	1.8038613
59	0xbfefa422	-1.8721964
60	0x3ffd97c2	1.9811938
61	0xbfe7c18a	-1.8105938
62	0x3fdd4f2b	1.7289785
63	0xbfe35af0	-1.7762127
64	0x3fee671f	1.862522
65	0x3fe2aab5	1.7708346
66	0xbff974ef	-1.948881
67	0xbfe29ab4	-1.7703462
68	0xbff0fe06	-1.8827522
69	0x3ffe26b6	1.9855564
70	0x3ff6e4c6	1.9288566
71	0x3fe3756a	1.7770207
72	0xbfe8a8cc	-1.8176513
73	0x3fdc7dfa	1.7225945
74	0x3ff3f3b5	1.9058748
75	0xbfff2075	-1.993178
76	0x3ff52b88	1.915391
77	0xbff0add2	-1.8803046
78	0xbff52b5c	-1.9153857
79	0xbfe2497a	-1.7678673
80	0x3fdf2201	1.7432252
81	0x3febe6d5	1.8429819
82	0xbff9a171	-1.9502393
83	0xbfdf3b5b	-1.7439989
84	0xbff86ea0	-1.940876
85	0xbfee7d5c	-1.8632007
86	0xbfe98035	-1.8242251
87	0x3ff570c1	1.9175035
88	0xbfe328d7	-1.7746838
89	0x3fe3fe3d	1.7811962
90	0xbfe5f64a	-1.7965786
91	0xbff64750	-1.9240513
92	0xbffe7e23	-1.9882244
93	0x3ff0a642	1.8800738
94	0xbfdfc488	-1.7481852
95	0xbff0d272	-1.8814223
96	0xbfdd3998	-1.7283201
97	0xbfe85172	-1.8149855
98	0x3ff2a178	1.8955526
99	0xbfea6996	-1.8313472
100	0x40001e5a	2.0018525
101	0xbfe93f2a	-1.8222401
102	0x3ffd43a9	1.9786273
103	0x3ff52618	1.915225
104	0xbfe0d32d	-1.7564446
105	0x3fdef323	1.741795
106	0xbff94514	-1.9474206
107	0x3ffcd43a	1.9752266
108	0xc0006d60	-2.0066757
109	0xbff4d461	-1.9127313
110	0x3fe1d4ad	1.7643028
111	0xbfe67545	-1.8004538
112	0xbff6b57f	-1.9274138
113	0xbff3086d	-1.8986946
114	0x3fe71485	1.8053137
115	0x3fef9485	1.87172
116	0x3fe912a0	1.8208809
117	0xbffb8bb3	-1.9652008
118	0x3fdfff18	1.7499723
119	0x4000532f	2.0050771
120	0xbfe6ad26	-1.8021591
121	0x3fe3e674	1.7804704
122	0xbfddfc8a	-1.7342694
123	0xbff28c08	-1.8948984
124	0xbff6701b	-1.9252962
125	0x3ff7986e	1.9343393
126	0x3fe2775f	1.7692679
127	0xbfdc6280	-1.721756
128	0xbfe234de	-1.7672384
129	0xbfe09066	-1.7544067
130	0xbfdd44c1	-1.7286607
131	0xbfeb1645	-1.8366171
132	0x3fedd35d	1.8580128
133	0xbfe96d8c	-1.8236556
134	0x3ff3b82a	1.9040577
135	0x3ffaf33f	1.9605483
136	0x3fe94726	1.8224838
137	0x3ff738e8	1.9314241
138	0xbff2cd47	-1.8968896
139	0x3ff4726c	1.9097419
140	0x3fe07334	1.7535157
141	0x3fe532d0	1.7906132
142	0x3fe12186	1.7588356
143	0xbfe7d4c7	-1.811181
144	0x3ff8bf69	1.9433414
145	0xbfe2d442	-1.7721026
146	0x3fe1dd94	1.7645745
147	0x3ff3e5dc	1.9054523
148	0xbfe7e2e4	-1.8116117
149	0x3ff880c9	1.9414302
150	0xbfef708d	-1.8706223
151	0x3fe0a0d8	1.7549086
152	0xbfeeb816	-1.8649929
153	0x3ff1ebd1	1.890009
154	0x3ff37143	1.901894
155	0xbfed8e9f	-1.855915
156	0x3fe5a8e0	1.7942162
157	0x3ffa43df	1.9551963
158	0x3ff20794	1.8908563
159	0xbfdd26d3	-1.7277473
160	0xbfe997f2	-1.8249495
161	0x3feb5d68	1.838788
162	0x3fe2e5e1	1.7726403
163	0xbfff347a	-1.993789
164	0xbffe2030	-1.9853573
165	0x3ff85167	1.9399842
166	0xbfe7dbac	-1.8113914
167	0x3fe47013	1.7846702
168	0x3fff5580	1.9947968
169	0x40008177	2.007902
170	0xbffc64d2	-1.9718268
171	0xbfe2f038	-1.7729559
172	0x3ff0b67e	1.8805692
173	0x3fe575da	1.792659
174	0x3fe62aa1	1.7981759
175	0x3ff905fe	1.9454954
176	0x3fe086ee	1.7541177
177	0xc000065b	-2.000388
178	0x3fe1ff44	1.7656026
179	0xbfee7e81	-1.8632356
180	0x3fdd9f87	1.7314309
181	0x3fe5d7dd	1.7956501
182	0x3ffecb92	1.9905875
183	0xbff78c29	-1.9339648
184	0x3fdc3c6a	1.7205937
185	0x3fe43341	1.7828141
186	0x40009dfb	2.0096424
187	0x3ffc4694	1.9709039
188	0xbffb3d53	-1.962809
189	0x3ff7907c	1.9340968
190	0xbff24584	-1.8927464
191	0x3fedf813	1.8591331
192	0xbff29874	-1.8952775
193	0xbfe249d2	-1.7678778
194	0x3fdec888	1.7404947
195	0xbfe11b82	-1.758652
196	0x3feac6d3	1.8341926
197	0xbfdffbf8	-1.749877
198	0x3fe0b81c	1.7556186
199	0x3ff9391d	1.9470555
200	0xbfdda974	-1.7317338
201	0x3fdd5e4c	1.7294402
202	0x3fea5c9c	1.8309512
203	0x3fff7178	1.9956503
204	0xbfeb89b1	-1.8401395
205	0xbfe75b18	-1.8074675
206	0x3ff36a4e	1.9016817
207	0x3ff67247	1.9253625
208	0xbfe9aefc	-1.8256526
209	0xbfddc8af	-1.7326869
210	0x3fe3b3ce	1.7789247
211	0xbffd152a	-1.9772084
212	0x3ff0fcd1	1.8827153
213	0x40006ce8	2.006647
214	0x3ffc0fb8	1.9692297
215	0xbfe1dbc9	-1.7645198
216	0xbfebbd9c	-1.8417239
217	0x3fe0e5e8	1.7570162
218	0x3ff96085	1.948258
219	0x3ff431a6	1.9077652
220	0x3fe7f2d8	1.8120985
221	0x3ff6abf1	1.9271222
222	0xbfeb8bfd	-1.8402096
223	0x3fe0378c	1.7516952
224	0xbfded558	-1.7408857
225	0x3fe8159d	1.8131596
226	0x3ff3763f	1.9020461
227	0x3ff91403	1.9459232
228	0xbffde1d8	-1.9834547
229	0x3ffa26f8	1.9543142
230	0x3fdf3b99	1.7440063
231	0x3fe6fa74	1.8045182
232	0x3ffd40a0	1.9785347
233	0xbfe8875d	-1.816631
234	0x400079cb	2.0074337
235	0xbfea5b97	-1.8309201
236	0x3fe1a7ea	1.7629368
237	0xbfdcda75	-1.7254168
238	0xbfe9ec16	-1.8275173
239	0x3fe805ac	1.8126731
240	0xbff3cc61	-1.9046746
241	0x3ffd5081	1.9790193
242	0xbffc044d	-1.9688812
243	0x3ff1dec9	1.8896114
244	0x3ffdc849	1.9826747
245	0xbfe228f1	-1.7668744
246	0x3fe84114	1.814486
247	0x3fddf127	1.7339219
248	0x3fdcccee	1.725004
249	0xbfef83cf	-1.87121
250	0xbff1c97c	-1.8889613
251	0x3fdb89d7	1.715144
252	0x3ffd2c52	1.977915
253	0xbfe4912c	-1.7856803
254	0xbffee18f	-1.9912585
255	0x3fec41d9	1.8457595

price_encoder.encoder.bias_ih_l0 f4 [180]
0	0xbff57af0	-1.9178143
1	0x3ffe54fa	1.9869683
2	0x3fe99414	1.8248315
3	0xbfe4edab	-1.788503
4	0xbffc29bc	-1.9700236
5	0xbfe8a554	-1.8175454
6	0x3ff92b71	1.9466382
7	0xbfea9083	-1.8325351
8	0x3ffad075	1.9594866
9	0xbff77468	-1.9332399
10	0xbfe69e5c	-1.8017077
11	0xbff1864d	-1.886911
12	0xbfff9bbb	-1.99694
13	0x3fefa70a	1.8722851
14	0x3fe5264e	1.7902315
15	0x3ffe9caa	1.989156
16	0xbff75b5d	-1.9324757
17	0x3fe27244	1.7691121
18	0xbff96cc0	-1.9486313
19	0xc0004ff8	-2.004881
20	0xbff2d9c8	-1.8972712
21	0xbfdbf981	-1.7185518
22	0xbfef3592	-1.8688223
23	0x3feadffe	1.8349607
24	0xbff7b492	-1.9351981
25	0xbfefe51c	-1.8741794
26	0xbfe21632	-1.7663023
27	0x3feb1b2e	1.836767
28	0xbff485be	-1.9103315
29	0x3fea35f6	1.8297718
30	0x3fe24c9f	1.7679633
31	0xc00012eb	-2.0011547
32	0x3ffda859	1.9817001
33	0xbff7898c	-1.9338851
34	0xbfe40b1c	-1.781589
35	0x3fe94f06	1.8227241
36	0xbfe8bb7e	-1.8182218
37	0xc000d205	-2.0128186
38	0xbfdd36de	-1.7282369
39	0x3ff53482	1.9156649
40	0x3fe345a2	1.7755625
41	0x3fd5965f	1.6686515
42	0xbffd93dd	-1.9810749
43	0x3fe92025	1.8212935
44	0x3feb5b04	1.8387151
45	0xbfe0625a	-1.7530015
46	0x3fff706e	1.9956186
47	0x3fe9a8ec	1.8254676
48	0xbff91bac	-1.946157
49	0xbfe5b9a3	-1.7947277
50	0xbffe199e	-1.9851568
51	0x3ffbd38b	1.9673933
52	0xbff06753	-1.8781532
53	0x3ff27516	1.8941982
54	0x3fe1fe58	1.7655745
55	0xbffd5222	-1.979069
56	0xbfe28019	-1.7695342
57	0xbfe67cd9	-1.800685
58	0x3ff14d9e	1.8851812
59	0x3fe5aa92	1.7942679
60	0x3fed57bc	1.85424
61	0xbfee7569	-1.8629581
62	0x3ff89928	1.942174
63	0x3fec5dc1	1.8466111
64	0xbffa0ffb	-1.9536127
65	0xbff4509c	-1.90871
66	0xbfed3328	-1.8531237
67	0xbfe0c2e6	-1.7559478
68	0x3fe52404	1.7901616
69	0xbff625df	-1.9230307
70	0xbfdc7bac	-1.7225242
71	0xbfde4a2b	-1.7366384
72	0x3ff194b8	1.887351
73	0xbffa00b7	-1.9531468
74	0x3fead3fb	1.8345941
75	0x3fdce11d	1.7256199
76	0xbff0a09c	-1.8799014
77	0x3fe22879	1.7668601
78	0xbff0c3a2	-1.8809702
79	0xbff69599	-1.9264404
80	0x3fe8d8a1	1.819111
81	0xbffaa8d5	-1.9582773
82	0xbff8dc64	-1.9442258
83	0xbfe6ce21	-1.8031656
84	0x3ff60d50	1.9222813
85	0x3ff1eb49	1.8899928
86	0xbfeb470f	-1.838106
87	0xbfe84c62	-1.814831
88	0x3ff230aa	1.8921101
89	0x3ff1cff5	1.8891588
90	0x3fdca94f	1.7239169
91	0xbff9ea21	-1.9524575
92	0xbfe544be	-1.7911603
93	0xc000b8ae	-2.011272
94	0x3fdd8260	1.7305412
95	0x3ff0863c	1.8790965
96	0xbff5853d	-1.9181286
97	0x3feb9ca6	1.840718
98	0x3fe56a80	1.7923126
99	0xbfe05188	-1.7524881
100	0xbfdc316f	-1.7202586
101	0x3ff35fad	1.9013573
102	0x3febb054	1.8413186
103	0x3fe418e4	1.7820096
104	0xbff68e62	-1.9262202
105	0x3fe3c074	1.7793107
106	0x3ff68737	1.9260014
107	0x3ffcc698	1.9748106
108	0x3fe5c757	1.7951459
109	0x3ff9219f	1.9463385
110	0xbffd1d8f	-1.9774646
111	0x3fe1c6d0	1.7638798
112	0x3ff308b4	1.8987031
113	0xbfe165b0	-1.7609158
114	0xbfdce3fb	-1.7257074
115	0xbfe6f414	-1.8043237
116	0x40008c9f	2.0085828
117	0xbfdc1460	-1.7193718
118	0xbfdf8451	-1.7462255
119	0x3ff9fc89	1.9530193
120	0xbfed3698	-1.8532286
121	0xbff68160	-1.9258232
122	0xbff87b95	-1.9412714
123	0x3fe64f1c	1.7992892
124	0x3ffbacfe	1.9662168
125	0x3fe99c2a	1.8250782
126	0xbffc24b1	-1.9698697
127	0x3ff4181b	1.9069856
128	0x3fe83148	1.814004
129	0xbfeb6c76	-1.8392475
130	0xbff6eae4	-1.9290433
131	0x3ffc5397	1.971301
132	0xbfee0270	-1.8594494
133	0xbfee6b38	-1.862647
134	0x3ff7eb41	1.9368669
135	0xbfe35bc6	-1.7762382
136	0x3ff125fd	1.8839718
137	0x3fde380d	1.7360855
138	0xbff79c52	-1.934458
139	0xc00011a9	-2.001078
140	0xc0001073	-2.001004
141	0x3fdff9e8	1.749814
142	0xbfed05e7	-1.8517426
143	0x3ffddda4	1.9833264
144	0xbfe15dea	-1.7606785
145	0xc0003ce8	-2.0037174
146	0xbfdf6de6	-1.7455413
147	0xbfeb4e72	-1.8383315
148	0x3ff91436	1.9459293
149	0x3ff405a6	1.9064224
150	0x3fe080e1	1.7539331
151	0xbfdd7e16	-1.7304103
152	0x3ffea036	1.9892642
153	0xbff7fde6	-1.9374359
154	0xbff8037f	-1.9376067
155	0xbff9f2ec	-1.9527259
156	0xbfe49cff	-1.7860411
157	0xbffbfccb	-1.9686521
158	0x3fe7d38f	1.8111438
159	0xbff48a5b	-1.9104723
160	0xbfe97772	-1.8239577
161	0xbfe200b2	-1.7656462
162	0x3febd50e	1.8424394
163	0xbfde689c	-1.7375674
164	0x3fe1b854	1.7634377
165	0x3fe8af84	1.8178563
166	0xbfed92f2	-1.8560469
167	0x3fe034bd	1.7516094
168	0xbfdccb5a	-1.7249558
169	0xbfde2d16	-1.7357509
170	0x3ffdee7c	1.9838405
171	0xbff9c85b	-1.9514269
172	0xbfe2e6e2	-1.772671
173	0xbfeedb32	-1.8660643
174	0x3fe52e8f	1.7904834
175	0x3fe4206f	1.7822398
176	0xbff873d4	-1.9410348
177	0xbff1c5e2	-1.8888514
178	0x3febd497	1.8424252
179	0x40006e83	2.006745

price_encoder.encoder.bias_hh_l0 f4 [180]
0	0xbfe2b7e2	-1.7712367
1	0x40005ce1	2.0056689
2	0x3ffd7cb2	1.9803679
3	0xbfdecabd	-1.7405621
4	0xbff7b2ce	-1.9351442
5	0xbfebc35e	-1.8418996
6	0x3fdd203d	1.7275463
7	0xbffe3897	-1.986102
8	0x3feace93	1.8344291
9	0xbfe648f4	-1.7991014
10	0xbfe87988	-1.8162088
11	0xbfdf8ab1	-1.74642
12	0xbfea6d4d	-1.8314606
13	0x3fe7f716	1.812228
14	0x3ff8c268	1.9434328
15	0x3fdffa70	1.7498302
16	0xbffb2a0d	-1.9622208
17	0x3fe4f23c	1.7886424
18	0xbff5e01e	-1.920902
19	0xbfde6ee5	-1.7377592
20	0xbff9d870	-1.9519176
21	0xbff2557b	-1.8932337
22	0xbfeae792	-1.835192
23	0x3fec6920	1.8469582
24	0xbff3a350	-1.9034214
25	0xbff0a646	-1.8800743
26	0xbfedfd5a	-1.8592942
27	0x3fddc71e	1.7326391
28	0xbfeb4106	-1.8379219
29	0x3ff1adde	1.8881185
30	0x3fe56f33	1.792456
31	0xbffe1606	-1.9850471
32	0x3ffc3fb3	1.970694
33	0xbfed0b8c	-1.8519149
34	0xbff97112	-1.9487631
35	0x3ff13654	1.8844705
36	0xbfdbafbc	-1.7163005
37	0xbfec13a4	-1.8443494
38	0xbfe7491a	-1.8069184
39	0x3ff664fa	1.9249566
40	0x3fe0bfbc	1.7558513
41	0x3fdb680f	1.7141131
42	0xbff21ddf	-1.8915366
43	0x3fddfd6f	1.7342967
44	0x3fdc5c74	1.7215714
45	0xbff8aff2	-1.9428694
46	0x3fdc1bc6	1.7195976
47	0x3fde2790	1.7355824
48	0xbfeffb0c	-1.8748488
49	0xbff3ce33	-1.9047302
50	0xbff10d1c	-1.8832126
51	0x3ff2711b	1.8940767
52	0xbfeaa683	-1.8332065
53	0x3fe8733c	1.8160167
54	0x3fe04daa	1.7523701
55	0xbfee8562	-1.8634455
56	0xbff2cdeb	-1.8969091
57	0xbff0c1f3	-1.8809189
58	0x3ff0ba08	1.8806772
59	0x3ffc0060	1.9687614
60	0x3fe2895e	1.7698171
61	0xbfe9f89d	-1.8278996
62	0x3fedf4e0	1.8590355
63	0x3ffa62f9	1.9561454
64	0xbfeaba51	-1.8338109
65	0xbffdae50	-1.9818821
66	0xbff4fac2	-1.9139025
67	0xbff2d46e	-1.8971078
68	0x3fe50574	1.7892289
69	0xbff4058b	-1.9064192
70	0xbfe51564	-1.7897153
71	0xc00091fb	-2.00891
72	0x3fdca7e2	1.7238734
73	0xbfe448d5	-1.7834727
74	0x3ff3b835	1.904059
75	0x3ff9f0cb	1.9526609
76	0xbfeb550c	-1.8385329
77	0x3fdf15f5	1.7428576
78	0xbfe955c4	-1.8229299
79	0xbfdd67ab	-1.7297262
80	0x3fe094db	1.7545427
81	0xbff8152b	-1.938146
82	0xbff14a7a	-1.8850853
83	0xbfec1de1	-1.8446618
84	0x3ffe1cde	1.985256
85	0x3ff59f81	1.9189302
86	0xbff8cb3d	-1.9437023
87	0xbff8e732	-1.9445555
88	0x3fe7ff3e	1.8124769
89	0x3ffbdaab	1.9676107
90	0x3ff22e1d	1.8920323
91	0xbffdeee7	-1.9838532
92	0xbff7fb7c	-1.9373622
93	0xbfdfbf1b	-1.7480196
94	0x3ff1d306	1.8892524
95	0x3ffda682	1.9816439
96	0xbfebf897	-1.8435239
97	0x3ff4f96e	1.913862
98	0x3ff7cda2	1.9359629
99	0xbff85ec6	-1.9403923
100	0xbffa1cf5	-1.9540087
101	0x3fe24257	1.7676495
102	0x3fec26ca	1.8449337
103	0x3ff0a630	1.8800716
104	0xbfecbc7e	-1.8495023
105	0x3fe0e656	1.7570293
106	0x3fe088f1	1.7541791
107	0x3ffb4614	1.9630761
108	0x3fdc498f	1.7209948
109	0x3ff3d761	1.9050103
110	0xbfeadf2d	-1.8349358
111	0x3fed7554	1.8551431
112	0x3fe67b90	1.8006458
113	0xbfe56b5e	-1.7923391
114	0xbff8aa99	-1.9427062
115	0xbfe4339a	-1.7828248
116	0x3fe02662	1.7511714
117	0xbff27338	-1.8941412
118	0xbfecd78b	-1.8503278
119	0x3ff78737	1.9338139
120	0xbfdfd46a	-1.7486699
121	0xbfde04d8	-1.7345228
122	0xbfe94fed	-1.8227516
123	0x3fe691ee	1.8013284
124	0x3fe1bbe0	1.763546
125	0x3fef7f74	1.8710771
126	0xbff00711	-1.8752156
127	0x3fde60ef	1.7373332
128	0x3fdd2c4e	1.7279146
129	0xbff18ac2	-1.887047
130	0xbfe9d746	-1.8268821
131	0x3ff857f3	1.940184
132	0xbfefa0b2	-1.8720915
133	0xbffbd6cc	-1.9674926
134	0x3ff8f85f	1.9450797
135	0xc0000fc8	-2.0009632
136	0x3ff8b58f	1.9430407
137	0x3ffcf57f	1.976242
138	0xc0005cda	-2.0056672
139	0xbfe52251	-1.7901098
140	0xbfe619e6	-1.7976654
141	0x3fe3a60a	1.7785046
142	0xbfde4d45	-1.7367331
143	0x3ff8938a	1.9420025
144	0xbffffd4c	-1.9999175
145	0xbff37082	-1.901871
146	0xbfe836be	-1.8141706
147	0xbffed370	-1.9908276
148	0x3fde20ec	1.7353797
149	0x3feb7214	1.8394189
150	0x3fdfb9db	1.7478594
151	0xbfeaec8e	-1.8353441
152	0x3fe47864	1.784924
153	0xbff448e4	-1.9084744
154	0xbfdfbfcd	-1.7480408
155	0xbfdef5f8	-1.7418814
156	0xbfdfdd33	-1.748938
157	0xbfe8bb0b	-1.8182081
158	0x3fffe579	1.9991904
159	0xbfde1701	-1.735077
160	0xbff99878	-1.9499655
161	0xbfe94cb6	-1.8226535
162	0x3febd798	1.8425169
163	0xbffaa8f0	-1.9582806
164	0x3fe69f50	1.8017368
165	0x3feadf7a	1.834945
166	0xbffc1212	-1.9693015
167	0x3feecf7b	1.8657068
168	0xbff7a8e8	-1.9348421
169	0xbffe17a0	-1.985096
170	0x3fe81f66	1.8134582
171	0xbfe1a31d	-1.7627903
172	0xbfff39ca	-1.9939511
173	0xbffefd32	-1.9921019
174	0x3ff645d1	1.9240056
175	0x3fe4cd47	1.7875146
176	0xbff47516	-1.9098232
177	0xbff89d8a	-1.9423077
178	0x3ff817e5	1.9382292
179	0x3ff0805d	1.8789173

atten_layer.0.weight f4 [45, 135]
0	0xbbbc52c0	-0.0057471693
1	0x3bd3cb40	0.0064634383
2	0xbcbfc010	-0.023407012
3	0xbc8d4958	-0.017246887
4	0x3dab1767	0.08354073
5	0x3d4b2236	0.049593173
6	0xbd42b8d9	-0.047539566
7	0xbd056c3d	-0.032573927
8	0x3d5250f6	0.05134674
9	0x3da3992b	0.07988199
10	0x3cc8cd5c	0.024511985
11	0x3d975d1d	0.07390807
12	0xbc90a73c	-0.017657869
13	0x3d5b364e	0.053518586
14	0xba68fe80	-0.0008888021
15	0xbd01ca8d	-0.031687308
16	0xbcbfe614	-0.02342514
17	0x3cdd5cc4	0.027021773
18	0x3d37328e	0.044725947
19	0x3b3281c0	0.0027237982
20	0xbc8dd258	-0.017312214
21	0xbcfc02fa	-0.030763138
22	0xbb318780	-0.002708882
23	0x3daff239	0.08591122
24	0x3cdc00f8	0.02685593
25	0xbda941ca	-0.082645014
26	0xbc9f4bf0	-0.01944539
27	0x3d051b80	0.03249693
28	0xbda88207	-0.08227926
29	0x3d63a712	0.055579253
30	0xbd6a7b64	-0.05724658
31	0xbd90eb89	-0.07076175
32	0xbd2f256c	-0.042760298
33	0x3b40a220	0.002939351
34	0xbd8157de	-0.063155875
35	0xbbd587d0	-0.0065164343
36	0xbd791cb8	-0.060818404
37	0xbc3fe550	-0.011712387
38	0xbda8cc30	-0.08242071
39	0xbd077b23	-0.033076417
40	0xbb803360	-0.0039123744
41	0x3da5d419	0.08097095
42	0xbdaf46b1	-0.08558405
43	0xbc036660	-0.008020014
44	0xb877c000	-5.9068203e-05
45	0xbd9c3923	-0.076280855
46	0xbd3b541f	-0.04573452
47	0x3d282ade	0.041056506
48	0x3d6a43a2	0.057193406
49	0x3d850b77	0.06496327
50	0x3d9db30b	0.07700165
51	0x3da3f9bd	0.08006618
52	0xbc9654f0	-0.018351048
53	0xbd8a4a86	-0.067524955
54	0xbd97e639	-0.07416958
55	0xbd2cf6ea	-0.042227663
56	0xbd4f49e0	-0.050607562
57	0x3ce91a2c	0.028454863
58	0xbd350e59	-0.044203136
59	0x3d88676f	0.066603534
60	0xbd385c9b	-0.04501019
61	0x3d8cd27b	0.068760835
62	0x3d51c112	0.051209517
63	0x3d9627ef	0.073318355
64	0xbd940c3f	-0.07228898
65	0x3da535a9	0.080668755
66	0xbac38940	-0.0014918223
67	0x3d9793eb	0.0740126
68	0x3d425d32	0.04745216
69	0xbd810688	-0.06300074
70	0xbd91e3ea	-0.07123549
71	0x3dae990b	0.085252844
72	0xbcb2ae78	-0.021811709
73	0xbc7bfca0	-0.015380055
74	0xbaea9d80	-0.0017899722
75	0xbd7e3531	-0.062062446
76	0xbc655520	-0.013997346
77	0x3d28d8fe	0.041222565
78	0xbb6ca0e0	-0.003610663
79	0xbda34246	-0.07971625
80	0x3d1e8508	0.038701087
81	0x3d848169	0.064699955
82	0xbd0d6eff	-0.034529682
83	0xbd90216b	-0.07037624
84	0x3d9b9a6f	0.07597815
85	0x3d3479f2	0.04406161
86	0x3d9a1f79	0.07525534
87	0x3b10b400	0.0022079945
88	0xbd32001d	-0.04345714
89	0x3d9b1f5d	0.075743414
90	0xbff55873	-1.9167618
91	0xc00ff1ad	-2.2491257
92	0xc0299450	-2.6496773
93	0xbff6297a	-1.9231408
94	0x3feefe72	1.86714
95	0xbff5775a	-1.9177048
96	0xbff9c0ce	-1.9511964
97	0x402a25a9	2.6585486
98	0x3fed845c	1.8556018
99	0x3fe90e24	1.820744
100	0xbfee03db	-1.8594927
101	0xbfe040c6	-1.7519767
102	0xbfea126a	-1.828687
103	0x3ff5e21c	1.9209628
104	0xbff1c6bb	-1.8888773
105	0xbfe2faa2	-1.7732737
106	0xbfea7bcc	-1.831903
107	0x3fee6d6e	1.8627145
108	0x3ff24ee1	1.8930322
109	0xbf9d4dd2	-1.2289374
110	0xc01b1c22	-2.423592
111	0x402c91d8	2.6964016
112	0x402365b2	2.553082
113	0x3fa1ccca	1.2640622
114	0xbffa469d	-1.95528
115	0x3f894d0e	1.072664
116	0x4015e1c2	2.3419042
117	0x3fee0ef8	1.8598318
118	0xc028e72c	-2.6391096
119	0x40298b1e	2.649116
120	0x3fedf514	1.8590417
121	0xbff6872e	-1.9260004
122	0x3fe8f7ac	1.8200583
123	0xbff220ac	-1.8916221
124	0xbfe44b80	-1.7835541
125	0xbfe51e01	-1.7899781
126	0x3feb80ab	1.8398641
127	0xbfeb56dd	-1.8385884
128	0x3ffaf1b2	1.960501
129	0x3fecc768	1.8498354
130	0xbfa179d8	-1.2615309
131	0x40194023	2.3945396
132	0xc0319fb3	-2.7753723
133	0xbfffc9f8	-1.9983511
134	0x402288ab	2.5395916
135	0xbd8ac1ca	-0.067752436
136	0x3d9994c5	0.07499079
137	0xbd51e9f8	-0.05124852
138	0xbd8e2bb9	-0.06941933
139	0x3cee7a4c	0.02911105
140	0x3b3e8ec0	0.0029076785
141	0x3d356a0e	0.044290595
142	0x3c51f280	0.012814164
143	0xbcc9234c	-0.024552964
144	0x3d049d7a	0.032376744
145	0xbda2cbea	-0.0794905
146	0xbd1235d3	-0.035695862
147	0x3d71447e	0.05890321
148	0x3d3fdb16	0.046839796
149	0xbd2b86fb	-0.041876774
150	0x3da8e21d	0.08246253
151	0x3d5ff462	0.05467642
152	0x3d2b128e	0.041765742
153	0xbd7c1538	-0.061543673
154	0xbd51a681	-0.05118418
155	0xbd92f9fa	-0.071765855
156	0xbd4df9a0	-0.05028689
157	0x3d01361e	0.03154575
158	0x3d87b299	0.06625862
159	0x3d9437fd	0.072372414
160	0xbb422660	-0.0029624924
161	0x3c11bbf0	0.008894905
162	0xbcf3d4ae	-0.0297645
163	0xbd82f6e8	-0.0639475
164	0x3cf84160	0.03030461
165	0xbcccaa58	-0.02498357
166	0xbd18dbcc	-0.03731899
167	0xbcf5b048	-0.029991284
168	0xbd8aae44	-0.0677152
169	0xbd54961c	-0.051900968
170	0xbd05b91e	-0.032647245
171	0xbcaf8c50	-0.02142921
172	0xbca7b19c	-0.020470433
173	0x3da33c1f	0.079704516
174	0xbcab5928	-0.020916536
175	0x3d2feb7a	0.042949177
176	0xbc87d86c	-0.01658269
177	0x3d9f8577	0.07789128
178	0xbcbbbfe0	-0.022918642
179	0x3d5479e6	0.051874064
180	0x3d7bedea	0.06150619
181	0xbcc63950	-0.02419725
182	0x3cf15c24	0.029462881
183	0xbd4524a4	-0.048130646
184	0xbd12deb2	-0.03585691
185	0x3d47899e	0.048715226
186	0x3d3b1fea	0.045684732
187	0x3c918ab4	0.017766334
188	0x3d9325c1	0.07184935
189	0xbd427c79	-0.047481988
190	0x3c4ec9a8	0.012621321
191	0xbd8d1375	-0.06888477
192	0xbdadda52	-0.08488907
193	0xbd5bd110	-0.053666174
194	0x3daf693f	0.08564996
195	0x3d513f4e	0.051085763
196	0x3d806869	0.06269915
197	0x3d7a403a	0.061096407
198	0xbc33c710	-0.010972753
199	0x3c790d20	0.015200883
200	0xbcc52cea	-0.024069268
201	0xbd495f37	-0.04916307
202	0xbd10c8a2	-0.03534759
203	0xbd4d1c43	-0.05007578
204	0x3d276ece	0.040877156
205	0xbd2415f0	-0.040059984
206	0xbc9ed8bc	-0.019390456
207	0x3da90235	0.08252374
208	0x3d14a99a	0.036294557
209	0x3c7c0ef8	0.015384428
210	0xbc845cdc	-0.01615756
211	0x3d87300d	0.06600962
212	0x3baf5230	0.0053503737
213	0x3b3f5a60	0.0029198155
214	0xbd3afe60	-0.045652747
215	0xbd8f9ee9	-0.070127316
216	0x3d7eaa42	0.06217409
217	0xbd4392f3	-0.047747564
218	0xbd9b8ca9	-0.07595188
219	0xbd9fcc92	-0.078026906
220	0x3c9ed22c	0.019387327
221	0xbdaa3dd8	-0.08312577
222	0xbd911826	-0.07084684
223	0x3cae7c10	0.021299392
224	0x3d26e3da	0.04074464
225	0xc0084320	-2.129097
226	0x401465db	2.3187168
227	0x401eab3d	2.4792016
228	0xbfe88073	-1.81642
229	0x3fe77bbe	1.8084638
230	0x3febd7ec	1.8425269
231	0x3fe5bac8	1.7947626
232	0xc003926e	-2.0558124
233	0x40005f55	2.0058186
234	0x3ff61b3e	1.9227064
235	0xbfea14e5	-1.8287627
236	0xbfd3481a	-1.6506379
237	0xbff3fb16	-1.9061
238	0x3fe5c7ac	1.795156
239	0xbff5d178	-1.920455
240	0xbfd4dffc	-1.6630855
241	0x3fefe94c	1.8743072
242	0x3fed390c	1.8533034
243	0x3fea2818	1.8293486
244	0xc00ea442	-2.2287755
245	0x40088eb7	2.1337106
246	0xc0048410	-2.0705605
247	0xc017bf4b	-2.3710506
248	0x4015c9f2	2.3404508
249	0xbfee4ed6	-1.8617809
250	0x4010a811	2.260258
251	0xc005c8c1	-2.090378
252	0x3ff8218d	1.9385239
253	0x4011e43f	2.279556
254	0xc008a9a1	-2.1353533
255	0x3fefb78e	1.8727891

atten_layer.0.bias f4 [45]
0	0x3fc4881e	1.535404
1	0x3ff8454a	1.9396145
2	0x3fda03e0	1.7032433
3	0xbfeddfaa	-1.8583882
4	0xbfe7fa4a	-1.8123257
5	0xbff2cf1a	-1.8969452
6	0xbffbb899	-1.966571
7	0x3fe87f5e	1.8163869
8	0xbff021fa	-1.8760369
9	0x3fec3a88	1.8455362
10	0xbfdfffce	-1.749994
11	0xbff529de	-1.9153402
12	0x3ff2e199	1.8975097
13	0xbfe3b6e4	-1.7790189
14	0xbfd9f547	-1.7027978
15	0x3ff65c33	1.9246887
16	0xbfe17ee8	-1.7616854
17	0xbff7e9ea	-1.936826
18	0xbfdbcd4a	-1.7172024
19	0xbfe27260	-1.7691154
20	0xbff32ac2	-1.8997424
21	0x3ffe06b1	1.9845792
22	0x3fe52452	1.7901709
23	0x3ff35f0c	1.9013381
24	0xbffdbc1a	-1.9823029
25	0xbff4bce8	-1.912015
26	0xbfee1a48	-1.860177
27	0xbfeed62e	-1.8659112
28	0xbfdfd986	-1.7488258
29	0xc0009afd	-2.0094597
30	0x3fe61dfd	1.7977902
31	0x3ff1c7f8	1.8889151
32	0x3ff18521	1.8868753
33	0x3ff21311	1.8912069
34	0xbfe6e253	-1.8037819
35	0xbffae0bc	-1.9599833
36	0x3ff510dc	1.914577
37	0x3fe6da16	1.8035305
38	0xbffe607b	-1.9873194
39	0x3fe6f439	1.8043281
40	0xbfdc83b2	-1.722769
41	0xbff2864a	-1.8947232
42	0x3ff25a79	1.893386
43	0x3ff462ed	1.909269
44	0xbfdd7200	-1.7300415

atten_layer.2.weight f4 [1, 45]
0	0x3d38bbff	0.045101162
1	0xc074c14b	-3.8242977
2	0x3f9768f4	1.1828904
3	0xbe86756e	-0.26261467
4	0xbf247d1f	-0.6425342
5	0xbe64819b	-0.22315066
6	0xbf7ec089	-0.99512535
7	0xc02cdb58	-2.7008877
8	0xbee00226	-0.4375164
9	0x3f0701e6	0.5273727
10	0x3ec167ff	0.37774655
11	0x40286655	2.6312459
12	0xc03ab842	-2.9174962
13	0xbf1851b4	-0.5949967
14	0x40912728	4.53603
15	0x3f8eddb0	1.1161404
16	0x4061db64	3.5290155
17	0x4039cad5	2.903005
18	0x3d2cb966	0.042168997
19	0xbd80a9a3	-0.06282356
20	0x401c1cb9	2.439253
21	0x3fe84462	1.8145869
22	0x3fd93c62	1.6971552
23	0x3fd9ef5e	1.7026174
24	0x400c7495	2.1946156
25	0x40548be8	3.3210392
26	0xbfbf9844	-1.4968343
27	0xbf900b10	-1.1253376
28	0x4080fe30	4.0310287
29	0x4009176c	2.1420546
30	0x3fd1f34e	1.6402376
31	0xc04b806a	-3.1797128
32	0x3f8b4a2b	1.0882009
33	0xc0042975	-2.0650303
34	0x40422cee	3.0339923
35	0xbfa429d4	-1.2825265
36	0xc01c53e7	-2.442621
37	0xc02c3f5a	-2.6913667
38	0x402773e2	2.616448
39	0xc04eb268	-3.229639
40	0xbe060a02	-0.13089755
41	0x401045f0	2.2542686
42	0xc05a6618	-3.4124813
43	0x3febdd80	1.8426971
44	0xbdc28518	-0.09498042

lstm.weight_ih_l0 f4 [180, 45]
0	0x3fcddcec	1.6083045
1	0xbfff0bb6	-1.9925449
2	0xc002417b	-2.0352466
3	0x3fede1e2	1.8584559
4	0xbfff6f50	-1.9955845
5	0x3fee76d4	1.8630013
6	0x3fde71de	1.73785
7	0x40003cd2	2.0037122
8	0xbfd7e6a4	-1.6867261
9	0x4000ecd0	2.014454
10	0x3fe633ce	1.798456
11	0x3ff6f212	1.9292624
12	0x3feec183	1.8652805
13	0x3feba4b3	1.8409637
14	0xbff34f1c	-1.9008517
15	0x40012545	2.0178998
16	0xbfe61a2e	-1.797674
17	0xc001a24c	-2.0255308
18	0xbfebfe5e	-1.8437002
19	0x400479ca	2.0699334
20	0xc0058d65	-2.086755
21	0x401055ca	2.2552361
22	0x40032920	2.049385
23	0xbfeffb41	-1.8748552
24	0x3fb8d71e	1.4440649
25	0xc006fd83	-2.1092231
26	0x4005111e	2.0791698
27	0xbff07791	-1.8786489
28	0xc009a171	-2.1504786
29	0x3fff5233	1.994696
30	0xbfeb4130	-1.8379269
31	0xbffe0b8a	-1.9847271
32	0xbfea1c2c	-1.8289847
33	0x3ff9886a	1.9494755
34	0x3ffe6888	1.987565
35	0xbffee2ac	-1.9912925
36	0xbff0c2df	-1.880947
37	0x3feabea8	1.8339434
38	0x3feea56e	1.8644235
39	0xbffc8a7c	-1.9729762
40	0xbff162bf	-1.885826
41	0x4004c96e	2.0747943
42	0xc006705c	-2.1006079
43	0xbffc50b2	-1.9712126
44	0x40082322	2.1271443
45	0x40015bb2	2.0212216
46	0xc00c1834	-2.1889772
47	0xc001401a	-2.0195374
48	0x3ffe7ea2	1.9882395
49	0x3ff778c7	1.9333733
50	0x3ff52bd2	1.9153998
51	0x3ff5b681	1.9196321
52	0x3ff73552	1.9313147
53	0xbfe7057a	-1.8048546
54	0x3fe96e04	1.8236699
55	0x3fe87369	1.816022
56	0xbfe63af8	-1.7986746
57	0x3ff0dd32	1.8817503
58	0xbfe6b204	-1.8023076
59	0xbfe4adf6	-1.7865589
60	0x3fe077e4	1.7536588
61	0xbff0e669	-1.8820316
62	0xbfdfba9b	-1.7478822
63	0xbfe4e298	-1.7881651
64	0x400457de	2.067863
65	0xc00614fb	-2.0950305
66	0x3ff4f8c2	1.9138415
67	0x400d1742	2.2045445
68	0xbffdb7a3	-1.9821666
69	0xbe8efef4	-0.2792889
70	0xc0036c90	-2.0535011
71	0x40033aa6	2.0504546
72	0xbfde3018	-1.7358427
73	0xc007d6d6	-2.1224875
74	0x4000f870	2.0151634
75	0xbfeb0e3c	-1.8363719
76	0xbffa3a52	-1.9549048
77	0xc0014f55	-2.020467
78	0x3fea2364	1.829205
79	0x3fe48cae	1.7855432
80	0xbff09eb4	-1.8798432
81	0xbff16d86	-1.8861549
82	0x3ff4fb73	1.9139236
83	0x3ffa79be	1.9568403
84	0xbfdd4cb7	-1.7289037
85	0xbff1a176	-1.8877399
86	0x4003cbed	2.0593216
87	0xbff29527	-1.8951768
88	0xbfccbcc7	-1.599511
89	0x4006181e	2.095222
90	0xbfe0e7cf	-1.7570742
91	0xc006c0e1	-2.1055224
92	0xc00662e8	-2.0997868
93	0x3fe62d5c	1.7982593
94	0xbff1e614	-1.8898339
95	0x3fecfc38	1.8514471
96	0xbff17b75	-1.8865801
97	0x4005d3ba	2.0910478
98	0xbffff3d3	-1.9996284
99	0xbff90c34	-1.9456849
100	0x3fec0a12	1.8440573
101	0xbfa35502	-1.2760317
102	0xbff7a840	-1.9348221
103	0x3ffaad78	1.9584188
104	0x3fe403b5	1.7813631
105	0x3fe1adf0	1.7631207
106	0x3ff87ee0	1.9413719
107	0x3fe48e6a	1.7855961
108	0xbfe6efa4	-1.8041883
109	0x4004d96f	2.075771
110	0xc003bd26	-2.0584197
111	0x3ff87189	1.9409648
112	0x3ff42654	1.9074197
113	0xbffbecf4	-1.9681687
114	0x3f1359ac	0.57558703
115	0xbff77ba0	-1.9334602
116	0x400c64d4	2.193654
117	0xbfece511	-1.8507406
118	0xc0045012	-2.067387
119	0x400211f5	2.032346
120	0x40009764	2.0092402
121	0x3fdfbfec	1.7480445
122	0xbff2a862	-1.8957636
123	0x40007052	2.0068555
124	0x3fe93712	1.8219931
125	0x3ff43bfb	1.9080805
126	0x4000af35	2.0106938
127	0x3ffd730c	1.9800735
128	0xbfde1142	-1.7349017
129	0xbff39ecc	-1.9032836
130	0x3fec4acc	1.8460326
131	0x40001120	2.0010452
132	0xc0079335	-2.1183598
133	0x3fe942a6	1.8223464
134	0x3ff5ab7e	1.919296
135	0x4002e6f8	2.0453472
136	0xc009e779	-2.154753
137	0xc0063c65	-2.0974362
138	0x3ffdcfaa	1.9828999
139	0xbfe7e531	-1.8116819
140	0x3fe33818	1.7751493
141	0x4000d844	2.0131998
142	0x400bf694	2.186925
143	0xbfe5b5de	-1.7946126
144	0xbfe57122	-1.792515
145	0x3fffb4d6	1.9977062
146	0xbfd847f1	-1.6896955
147	0x3fdd02a7	1.7266434
148	0x3ff88157	1.9414471
149	0x3ffac73e	1.9592054
150	0x3ff82a5d	1.9387928
151	0x3feefc7e	1.8670805
152	0xbfdefa45	-1.7420126
153	0xbff08a05	-1.879212
154	0x40120209	2.2813742
155	0xc000fe90	-2.0155373
156	0x3ffc1272	1.9693129
157	0x400b865f	2.1800764
158	0xc0108fd4	-2.2587786
159	0x3fa5c220	1.2949867
160	0xc007fec8	-2.1249256
161	0x40074dc1	2.1141207
162	0xbfe4ea94	-1.7884088
163	0xc00fe746	-2.2484908
164	0x400973fe	2.1477046
165	0xbfe658b8	-1.7995825
166	0x40023d63	2.0349967
167	0xbfe3684a	-1.7766201
168	0x3fe2cd8c	1.7718978
169	0x3ff5b7a6	1.919667
170	0xbff8d67c	-1.9440455
171	0xbfe080d0	-1.753931
172	0x3fdbeca1	1.7181588
173	0xbfe5dcfe	-1.7958066
174	0xbfe7aa4e	-1.8098848
175	0x3ff61e4e	1.9227998
176	0x40016e77	2.0223672
177	0xbffe37bd	-1.986076
178	0x3fe94b9a	1.8226197
179	0x4000d809	2.0131857
180	0x3febfd5f	1.8436698
181	0xc007d1b9	-2.1221755
182	0xc015158f	-2.3294408
183	0x3fe5caf8	1.7952566
184	0x3fd7e216	1.6865871
185	0x3ff88875	1.9416643
186	0x3fee7ad8	1.8631239
187	0x4004efb4	2.0771303
188	0xc000196e	-2.001552
189	0xbfff89d2	-1.9963934
190	0x3fe937c4	1.8220143
191	0xbff600a1	-1.9218942
192	0x3fe20ea4	1.7660718
193	0xbfd04744	-1.6271749
194	0x40027ad2	2.0387464
195	0x3ffa99b1	1.9578153
196	0x3fecdc50	1.8504734
197	0xbfe92703	-1.821503
198	0xbfde2fcf	-1.735834
199	0x400e398c	2.2222624
200	0xc01284df	-2.2893598
201	0x4000540e	2.0051303
202	0x4007610d	2.1152985
203	0xc0102733	-2.2523925
204	0x3fcfbefe	1.6230161
205	0xc012b7c1	-2.2924654
206	0x400bece6	2.1863341
207	0xbfe51900	-1.7898254
208	0xc0029566	-2.0403686
209	0x400685a7	2.1019075
210	0xbfee79aa	-1.8630879
211	0x3fef84e2	1.8712428
212	0xbff39b6e	-1.9031808
213	0x3ffc8630	1.9728451
214	0x3ffddae0	1.983242
215	0xbfe59c69	-1.7938358
216	0xbfe47c22	-1.7850382
217	0x3ff85b32	1.9402831
218	0xbfdbc2dc	-1.7168841
219	0xbff72c66	-1.9310424
220	0xbffdfb86	-1.9842384
221	0x400df8b3	2.2183044
222	0xc004c536	-2.0745368
223	0x40006c35	2.0066044
224	0x4002f16e	2.0459857
225	0x40000ab0	2.0006523
226	0xc0039071	-2.055691
227	0xc00cd23f	-2.2003324
228	0x3fe7acc6	1.8099601
229	0xbffd3b42	-1.9783709
230	0x3fec6d8a	1.8470929
231	0x3fde3a6a	1.7361577
232	0x4000826e	2.0079608
233	0xbff77ad0	-1.9334354
234	0xc001698b	-2.0220668
235	0x3fee3b0c	1.861177
236	0xbfbaac9e	-1.4583929
237	0x3fecd6d1	1.8503057
238	0x3feeed4a	1.8666165
239	0x3ff5240c	1.9151626
240	0x3ff60514	1.92203
241	0x3fe6c95e	1.8030202
242	0xbffcd4b5	-1.9752413
243	0xbff6aa48	-1.9270716
244	0x3ffe295d	1.9856373
245	0xc0052a4a	-2.0807061
246	0x3ff684de	1.9259298
247	0x3ffd3bf6	1.9783924
248	0xc0076afc	-2.1159048
249	0x3c6da423	0.014504465
250	0xc009b048	-2.1513844
251	0x3ff767b4	1.9328523
252	0xbfff4cc2	-1.99453
253	0xc0078e2c	-2.1180525
254	0x400cf02a	2.2021585
255	0xbff49a07	-1.9109505

lstm.weight_hh_l0 f4 [180, 45]
0	0xbc739610	-0.014867321
1	0x3e101e4b	0.14074056
2	0xbe15b537	-0.14619909
3	0x3b82efe0	0.0039958805
4	0xbe14f784	-0.14547545
5	0xbdb9a031	-0.09063757
6	0x3d1de308	0.038546592
7	0x3dcc2c22	0.09969355
8	0xbcc2ef40	-0.023795724
9	0x3e07e295	0.13270028
10	0x3d8a7f0e	0.06762515
11	0xbe09ecaa	-0.13469186
12	0xbd182430	-0.037143886
13	0xbcb958e0	-0.022625387
14	0xbcc28d18	-0.02374892
15	0x3d805fcc	0.06268272
16	0x3dfbc56a	0.12293513
17	0xbdcfea46	-0.10152106
18	0xbda95f5a	-0.0827014
19	0xbdb5f194	-0.08883968
20	0x3ce38378	0.02777265
21	0x3d75356c	0.0598654
22	0xbdc884e2	-0.097909704
23	0x3da52818	0.08064288
24	0x3d867d2a	0.06566842
25	0xbd34a602	-0.04410363
26	0xbd383aa4	-0.0449778
27	0xbe0ea7e1	-0.13931228
28	0xbdc2e586	-0.09516434
29	0x3d2eb7cc	0.04265575
30	0x3d6f0760	0.058356643
31	0x3e0691a9	0.13141502
32	0xbd0d5746	-0.03450706
33	0x3dce9d14	0.10088554
34	0xbda9781c	-0.08274862
35	0xbdf3f949	-0.11912782
36	0xbe02aa2e	-0.12760231
37	0x3dc95124	0.098299295
38	0xbcc05b38	-0.023480996
39	0x3df6cdc2	0.12050964
40	0xbd5ef2fc	-0.054430947
41	0x3e18136d	0.1485116
42	0x3d811e80	0.063046455
43	0xbd8d4fdd	-0.06899998
44	0x3da58272	0.08081521
45	0xbd172990	-0.03690487
46	0x3dcbbaac	0.09947714
47	0xbcb5e5e8	-0.022204354
48	0x3e175801	0.14779665
49	0x3de3d3ee	0.11124407
50	0xbe0c1b02	-0.13682178
51	0x3d0a6060	0.033783317
52	0xbc46ead0	-0.012140945
53	0xbd61f170	-0.055161893
54	0x3d9c3564	0.07627371
55	0xbcdddd48	-0.027083054
56	0xbd5f27a0	-0.05448115
57	0xbdcc2718	-0.09968394
58	0xbdf0c336	-0.117559835
59	0x3db7076a	0.08936961
60	0x3dc38586	0.09546952
61	0xbc9fea18	-0.019520804
62	0x3dbf42fc	0.09338948
63	0xbd8287ea	-0.0637358
64	0x3df8c556	0.12147014
65	0xbd0d929e	-0.034563653
66	0x3d8bcd26	0.06826238
67	0x3cbd13c0	0.023080707
68	0x3e1151cf	0.14191364
69	0xbc93dff8	-0.018051133
70	0xbdf38eea	-0.11892493
71	0xbdc5ea76	-0.096638605
72	0xbbbe33c0	-0.005804509
73	0xbd0d0ca8	-0.034435898
74	0xbdc2da0c	-0.095142454
75	0xbdde19d6	-0.108447716
76	0xbe09b8f1	-0.13449456
77	0xbd1dc3a4	-0.038516656
78	0x3dc6ded6	0.09710471
79	0x3cb22428	0.021745756
80	0x3b4d9b00	0.0031372905
81	0xbe17574d	-0.14779396
82	0x3bf233c0	0.007391423
83	0xbe10fd2c	-0.14159077
84	0xbdcab682	-0.09898092
85	0xbd926954	-0.07148996
86	0xbe0704ff	-0.131855
87	0xbc8601c0	-0.016358256
88	0x3d9ea7c6	0.07746844
89	0xbdd1a5b2	-0.10236682
90	0xbe16bd67	-0.14720689
91	0xbde8b422	-0.113624826
92	0x3c5a2710	0.013314977
93	0x3e176b8d	0.14787121
94	0x3df1c4da	0.118051246
95	0x3e0c5ac5	0.13706501
96	0x3b54d840	0.0032477528
97	0x3d5d75fc	0.054067597
98	0xbd2b8280	-0.0418725
99	0xbdeeef88	-0.11666781
100	0x3d1537a8	0.03643003
101	0x3d999184	0.07498458
102	0x3de9294e	0.11384831
103	0xbdb184e0	-0.08667922
104	0x3cc5bb48	0.024137154
105	0xbdf4bafe	-0.119497284
106	0xbe087822	-0.13327077
107	0xbd8afd16	-0.067865536
108	0xbdd8ef74	-0.10592547
109	0xbde7a5e5	-0.11310939
110	0xbc392cd0	-0.011302188
111	0xbe01f795	-0.12692101
112	0xbdf04de0	-0.117336035
113	0xbdd356d2	-0.10319294
114	0xbdbafed3	-0.09130635
115	0x3c1f8ab0	0.0097376555
116	0xbc8ee128	-0.017441347
117	0x3d801d2a	0.062555626
118	0xbcc02f58	-0.023460075
119	0x3d71b46c	0.059009954
120	0xbd0eaaba	-0.034830786
121	0x3d99b6b6	0.075055525
122	0x3d8458b0	0.06462228
123	0x3df5781a	0.11985798
124	0x3ce67ca8	0.028135613
125	0xbde8f82a	-0.113754585
126	0x3d4ad164	0.049516097
127	0x3c43db80	0.011954188
128	0xbdbccb68	-0.09218484
129	0x3d82d80e	0.063888654
130	0x3d0f519c	0.03498994
131	0xbcb35778	-0.021892294
132	0xbddd2fc6	-0.10800128
133	0xbd2140da	-0.039368488
134	0xbdafc6ae	-0.08582817
135	0x3c9807a8	0.018558338
136	0xbd8b49ea	-0.06801207
137	0xbbe68080	-0.0070343614
138	0xbd034cd6	-0.0320557
139	0x3d306cd8	0.04307255
140	0x3d8c2680	0.06843281
141	0xbcee63f8	-0.029100403
142	0x3db5a514	0.08869377
143	0xbe042f08	-0.12908566
144	0x3e11970b	0.14217775
145	0x3e116883	0.14200024
146	0x3e02bcd1	0.1276734
147	0xbdafa28a	-0.08575924
148	0xbd1f9966	-0.03896465
149	0x3d12db50	0.035853684
150	0xbdfbd0b4	-0.12295666
151	0x3ddcf1fa	0.10788341
152	0x3bc8b780	0.0061253905
153	0x3e00acfd	0.1256599
154	0xbdfffde6	-0.12499599
155	0xbd259216	-0.04042252
156	0xbe082ff2	-0.1329954
157	0xbd5dfb48	-0.05419472
158	0x3ccd2118	0.025040194
159	0xbb647600	-0.0034860373
160	0x3d7a4f68	0.061110884
161	0xbd47092c	-0.04859273
162	0xbd343130	-0.04399222
163	0xbde86939	-0.11348195
164	0xbe13aaea	-0.14420667
165	0x3e017515	0.1264232
166	0xbdd36b81	-0.10323239
167	0xbdf8dbf9	-0.121513315
168	0xbd0ef488	-0.034901172
169	0xbc5a3200	-0.013317585
170	0x3cea4788	0.028598562
171	0xbddb432e	-0.10706173
172	0xbde1071d	-0.10987685
173	0xbe0207ef	-0.12698339
174	0x3da1027e	0.078618035
175	0x3d8db894	0.06919971
176	0xbd887c40	-0.06664324
177	0x3b158800	0.0022816658
178	0xbce460b0	-0.027878135
179	0x3d15db54	0.03658612
180	0xbdc0a68c	-0.09406766
181	0xbd9e37cd	-0.07725487
182	0xbcf4e400	-0.029893875
183	0xbd174862	-0.036934264
184	0xbda452aa	-0.080235794
185	0xbde3d994	-0.11125484
186	0xbc9cf108	-0.019157901
187	0xbdf1d5fa	-0.11808391
188	0xbcfa3c54	-0.030546345
189	0x3e015729	0.12630905
190	0x3d3a8740	0.04553914
191	0x3c597e70	0.013274774
192	0xbd1c8c60	-0.03821981
193	0x3d91090e	0.07081805
194	0x3d549350	0.0518983
195	0x3da6ef4e	0.081511125
196	0x3d9e31c4	0.07724336
197	0x3c8a56d8	0.016887113
198	0xbcbd7940	-0.023129106
199	0xbdfd8976	-0.12379734
200	0xbddf2c1e	-0.108970866
201	0x3dafa046	0.085754916
202	0xbce81e78	-0.028334841
203	0x3c0785f0	0.008271679
204	0xbe06ddec	-0.13170594
205	0xbdcbc818	-0.09950274
206	0xbda86cfb	-0.082239114
207	0x3dde30ce	0.108491525
208	0x3de623ba	0.11237283
209	0xbd2d8aee	-0.04236882
210	0xbd8abdc7	-0.067744784
211	0x3dd60f5a	0.10452147
212	0x3db0e79c	0.08637926
213	0xbdb06b6a	-0.086142376
214	0x3de935ee	0.113872394
215	0x3d6ecbcc	0.058299825
216	0x3c6404b0	0.013917133
217	0xbd8b799e	-0.06810306
218	0x3dc748bc	0.0973067
219	0xbdaee8c7	-0.085404925
220	0xbbed23c0	-0.0072369277
221	0xbdd93051	-0.10604919
222	0xbe14e089	-0.14538778
223	0xbd8eb2bf	-0.06967687
224	0xbd5902f6	-0.05298134
225	0x3d76a680	0.06021738
226	0x3db5dfb8	0.088805616
227	0xbe01b6cb	-0.12667386
228	0x3dae31ae	0.085055694
229	0xbddb8e0e	-0.10720454
230	0x3e0e97af	0.1392505
231	0xbdc1d97f	-0.09465312
232	0x3d0b17c4	0.03395821
233	0x3d3fd2b0	0.046831787
234	0xbd079d9e	-0.0331093
235	0xbda8937d	-0.08231256
236	0x3e0de50d	0.13856907
237	0x3e1748f1	0.14773919
238	0x3e04c951	0.12967421
239	0xbd58c7a2	-0.05292476
240	0x3c505d80	0.012717605
241	0xbdb81bf2	-0.08989705
242	0xba0fc300	-0.00054840744
243	0xbdec37af	-0.11534058
244	0xbd48bfb8	-0.049010962
245	0x3d65d318	0.056109518
246	0xbdbc4628	-0.09193069
247	0xbdb35e16	-0.0875818
248	0x3de08b1a	0.109640315
249	0xbd57f3b0	-0.052722633
250	0xbd8ec314	-0.06970802
251	0x3d8fa7f6	0.07014458
252	0xbde3ee4a	-0.111294344
253	0xbd04e60a	-0.032445945
254	0x3b02d180	0.0019961298
255	0x3df49d9a	0.119441226
