Ni_prediction/savemodel/bst_mod_627.pth (torch_old, 533443 bytes, 44 tensors)

price_encoder.attention.weight f4 [1, 121]
000000 36 4c 19 41 0a dd 19 41 2a 76 18 41 a1 da 19 c1
       9.581106 9.616465 9.528849 -9.615876
000010 63 5f 17 c1 9a 4f 17 41 b6 37 19 41 c8 a8 15 c1
       -9.460788 9.456934 9.576101 -9.353706
000020 83 e4 18 41 b2 1d 18 41 81 51 18 41 73 88 19 41
       9.555789 9.50725 9.519898 9.595813
000030 e0 84 17 c1 c5 86 18 c1 66 a9 18 c1 ca ce 17 41
       -9.46994 -9.532903 -9.541357 9.487986
000040 f8 5f 17 41 f9 dd 17 c1 d3 a7 15 41 64 8f 18 41
       9.46093 -9.491693 9.353473 9.535007
000050 b5 e9 15 41 c7 a5 18 41 d4 73 19 41 ac 35 19 c1
       9.369557 9.540473 9.590778 -9.5756035
000060 0c 3d 19 c1 5c 53 18 41 48 87 17 c1 dd 75 19 c1
       -9.577404 9.520351 -9.470528 -9.591275
000070 42 1e 19 c1 11 f0 17 c1 74 bc 18 41 90 49 18 c1
       -9.569887 -9.49611 9.546009 -9.51796
000080 d6 89 18 41 84 f4 19 41 a9 74 17 41 19 5e 18 41
       9.533651 9.622196 9.4659815 9.522973
000090 1e 3e 19 c1 90 71 19 41 c0 d0 18 41 a1 2d 19 c1
       -9.577665 9.590225 9.550964 -9.57364
0000a0 7c 94 18 41 20 00 1a 41 5b d5 17 41 a3 60 19 41
       9.536251 9.6250305 9.489589 9.586093
0000b0 1a 7c 17 41 ed 6e 19 41 50 67 19 41 16 65 19 41
       9.467798 9.5895815 9.587723 9.587179
0000c0 ff ee 19 41 3f 5f 18 41 92 be 17 41 46 1e 18 41
       9.620849 9.523253 9.484026 9.507391
0000d0 07 ea 18 41 59 02 18 41 fa ff 16 41 c4 ba 18 41
       9.557136 9.500573 9.437494 9.545597
0000e0 f4 18 19 41 50 d2 19 c1 74 b9 18 c1 7a 20 1a 41
       9.568592 -9.613846 -9.545277 9.632929
0000f0 22 ad 17 41 08 98 19 c1 42 09 19 c1 cb e2 16 c1
       9.479769 -9.599617 -9.56476 -9.430369
000100 ee d2 19 c1 75 9a 19 41 ae a0 18 41 ea 00 18 41
       -9.6139965 9.600209 9.539228 9.500223
000110 6e 99 17 41 3e 7c 18 c1 94 49 18 c1 c3 b9 18 41
       9.474958 -9.530333 -9.517963 9.545352
000120 6d ff 18 41 af 9b 17 41 b2 b7 17 c1 3e 4f 17 41
       9.56236 9.475509 -9.4823475 9.456846
000130 06 b6 17 c1 24 a3 07 41 4d a3 19 41 7d 13 19 41
       -9.481939 8.477329 9.602368 9.567258
000140 a3 82 17 c1 86 a6 17 c1 13 c2 18 41 37 30 18 41
       -9.469394 -9.478155 9.547381 9.511771
000150 a1 ca 19 41 f1 ee 19 c1 33 3d 17 c1 34 ff 19 c1
       9.61197 -9.620835 -9.452441 -9.624805
000160 24 77 19 41 80 73 19 41 dd fa 19 41 3f df 19 41
       9.591587 9.590698 9.623746 9.617003
000170 bf 26 18 41 3b 9e 19 41 1d ed 17 c1 52 07 1a c1
       9.5094595 9.6011305 -9.495389 -9.626787
000180 d2 f0 17 c1 3f 03 19 41 c8 49 19 c1 75 fc 16 41
       -9.496294 9.5632925 -9.580513 9.436635
000190 ee 03 18 41 38 39 18 41 b1 ad 18 41 5a c0 19 41
       9.500959 9.513969 9.542405 9.609461
0001a0 88 5f 19 41 1d de 17 41 06 5b 17 41 0b 6b 19 41
       9.585823 9.491727 9.4597225 9.588634
0001b0 1d 85 19 41 37 aa 18 41 67 51 17 41 57 bc 18 41
       9.594998 9.541556 9.457374 9.545981
0001c0 e7 36 17 41 91 0b 19 41 19 d1 19 41 c5 56 17 41
       9.450904 9.565324 9.613549 9.458684
0001d0 86 35 18 41 ff 17 18 41 66 91 19 41 85 ee 18 41
       9.513067 9.505858 9.597998 9.558232
0001e0 0d 6d 19 41
       9.589124

price_encoder.encoder.weight_ih_l0 f4 [180, 45]
000000 1c 78 ce bd 32 86 f1 bd 18 32 03 3d 20 05 a9 3d
       -0.10081503 -0.11793174 0.032030195 0.08252931
000010 e6 7b 63 bd a2 b0 d5 3d 80 09 a1 3d 0a ef f9 bd
       -0.05553808 0.10434081 0.0786314 -0.12203796
000020 b7 40 d4 bd 40 15 43 bc 73 f8 e1 bd ce ef 6c bd
       -0.10363906 -0.011906922 -0.11033716 -0.057845883
000030 bc da d9 bc d8 40 fb 3c be b2 f7 bd 70 ab 76 3c
       -0.026593558 0.030670568 -0.12094639 0.015055522
000040 fc 9a 50 3d 08 40 aa bd 68 61 b9 3d e6 b1 eb 3d
       0.050929055 -0.08312994 0.09051782 0.11508541
000050 75 eb e1 3d 55 7c 8c 3d 94 5c da bd ee ef 16 c1
       0.11031238 0.06859652 -0.10662189 -9.433577
000060 d7 78 14 be a5 f2 17 be 6b 3d f9 bd 5b a3 03 3e
       -0.14499222 -0.14838655 -0.12169918 0.12855284
000070 53 4b 08 3e 38 9a 14 3d 0b 55 07 be e0 f9 fc bb
       0.13309984 0.036279887 -0.13216035 -0.007720217
000080 b6 f8 ef 3d 88 8d 13 41 ea eb 17 41 0f 33 18 41
       0.1171736 9.222054 9.495096 9.5124655
000090 db 76 18 41 a0 89 18 41 72 60 28 bf 2f b1 17 41
       9.529017 9.5336 -0.65772164 9.480758
0000a0 55 09 1b 41 2d e5 19 41 9c a7 17 41 88 ba c6 3c
       9.689778 9.618451 9.47842 0.024258867
0000b0 d6 bd fe bd fe 9b ff bd ba 53 8f 3d 45 5c e2 3d
       -0.12438552 -0.12480925 0.069983914 0.11052755
0000c0 c2 4b 38 3d f6 29 bc 3d dd 67 00 3e bc 16 8d bd
       0.044994123 0.09187691 0.1253962 -0.06889102
0000d0 3f 20 b1 3d b1 a9 7d 3d 70 6e 00 3d 88 ee bb 3d
       0.086487286 0.06192941 0.03135532 0.091763556
0000e0 50 f7 a8 bc fa fc 8a 3d 1f b8 04 3e 60 dc 45 3c
       -0.02062574 0.06786533 0.12960862 0.012076467
0000f0 a3 25 11 be c7 37 09 be 60 f9 9e 3b 28 8a 06 bd
       -0.14174514 -0.13400184 0.004851505 -0.0328466
000100 59 5b df 3d ac 2f 6e 40 51 d1 a1 3d 28 37 88 ba
       0.10906095 3.7216597 0.07901252 -0.0010392414
000110 ca 6b 16 41 77 e7 f6 bd cb 93 13 be 7a 37 f7 3d
       9.401316 -0.12055867 -0.14411847 0.12071128
000120 3e af 3a bd 04 8e 11 be 40 3b 4c bb 8a a9 32 bd
       -0.04557728 -0.14214331 -0.0031163245 -0.043618716
000130 57 54 0e 3e 21 bb c0 bd 17 4d 17 41 15 a6 16 41
       0.1389936 -0.09410692 9.456321 9.415547
000140 ef 44 18 41 ec 86 17 41 1c cb 1a 41 03 5a 07 be
       9.5168295 9.47044 9.674587 -0.1321793
000150 8f b0 17 41 30 26 17 41 d2 60 17 41 aa f3 19 41
       9.480605 9.446823 9.461138 9.621988
000160 10 3a 24 3d 70 7b 34 3d dd 7b d8 3d b5 52 dd bb
       0.040094435 0.04406303 0.105705 -0.006754244
000170 7c 74 f0 bd e1 31 e0 bd 28 98 e7 3c 67 a0 51 3d
       -0.11740968 -0.10947014 0.028270796 0.051178362
000180 e0 c2 85 3d e6 b7 88 3d 24 1e dc bc 8e 92 ab bd
       0.0653131 0.06675701 -0.02686984 -0.083775625
000190 c6 1e 06 be 30 2e a1 3c 9e 79 4b bd a0 06 cf bd
       -0.13097677 0.019675344 -0.04967653 -0.101086855
0001a0 60 f5 ba 3b 58 c1 88 3c 42 1f c2 3d 84 a8 c7 bd
       0.0057055205 0.016693756 0.09478618 -0.09748939
0001b0 10 61 6c 3c c3 c3 9a bd ca 52 51 40 0c 5b b8 3c
       0.014427438 -0.0755687 3.270678 0.022504352
0001c0 76 79 cc bc a7 fc 17 41 24 95 5c bd 00 d2 26 3d
       -0.02496026 9.499183 -0.05385317 0.040727615
0001d0 7e 00 35 bd 25 72 40 3c 27 d6 ce bd 33 6e 10 3e
       -0.044189923 0.011745964 -0.1009944 0.14104538
0001e0 42 4c df bd df 28 10 3e bc 1f 0e be 4c 5f 1a 41
       -0.10903217 0.14078091 -0.13879293 9.648266
0001f0 85 a1 16 41 ab 34 18 41 c4 41 19 41 55 17 1a 41
       9.4144335 9.512858 9.578556 9.630696
000200 e6 5a 16 c1 bc ff 17 41 09 e7 19 41 1b b8 16 41
       -9.397192 9.499935 9.618905 9.419948
000210 78 d5 17 41 94 d1 6f 3d 1d bc 80 bd c2 4b c7 3d
       9.489616 0.05854948 -0.0628588 0.097312465
000220 46 b9 5e bd 8e 17 05 be a0 05 af bc 30 76 20 bd
       -0.05437591 -0.12997267 -0.021364987 -0.039175212
000230 50 55 ed 3d fa 74 f7 3d 8c e7 c1 3d 5a f6 8e bb
       0.11588538 0.120828584 0.09467992 -0.0043628635
000240 18 b5 a1 3d 02 a1 e6 3d b6 fa ec 3d f0 ba c9 3d
       0.07895869 0.112611786 0.11571257 0.098501086
000250 49 87 16 c1 5c ea 11 3d 4c 36 7c 3d b6 da 15 bd
       -9.408029 0.035623893 0.06157522 -0.036585532
000260 a0 5c 17 bc 37 bf 7b 40 de 66 31 3d 32 14 e4 be
       -0.009238392 3.9335458 0.043310992 -0.44546658
000270 f6 b9 98 bc 86 03 61 3d 18 9c 18 c1 8c da 46 3d
       -0.01864336 0.054935 -9.538109 0.048548266
000280 0d e6 14 3e 40 b8 83 bd 32 30 b6 bd 51 0d 19 c1
       0.14540882 -0.06431627 -0.08895911 -9.565751
000290 78 23 af 3d aa 78 c7 3d 32 47 ff c0 34 32 b9 bd
       0.08551687 0.09739812 -7.977441 -0.090427786
0002a0 d6 f9 19 c1 b1 ed 19 c1 9a 41 17 c1 07 84 17 c1
       -9.623495 -9.62053 -9.453516 -9.469733
0002b0 fc d3 19 c1 7a e8 c6 bd c5 9f 17 c1 04 b9 18 c1
       -9.614254 -0.0971231 -9.476506 -9.54517
0002c0 b4 42 17 c1 3e 64 17 c1 f2 2d a1 3d e8 6d 17 3d
       -9.453785 -9.461973 0.078700915 0.03697005
0002d0 0a 4c b0 bd b8 62 ac bc 66 59 ac 3d 21 0c 0d 3e
       -0.08608253 -0.021043167 0.08415489 0.13774158
0002e0 3c 14 b1 3d 8c 11 13 3e 9e 4c 0d be ac fe 12 be
       0.086464375 0.14362162 -0.13798758 -0.14354962
0002f0 7e 98 b4 bd 64 97 55 bd 98 df 59 3d 23 d6 14 be
       -0.08818148 -0.05214633 0.05319175 -0.14534812
000300 32 9c d8 bd cf f1 a6 bd 80 5a ed bb 66 84 b2 3d
       -0.10576667 -0.0815159 -0.0072434545 0.08716659
000310 24 b1 08 bd fc dc b8 bd 68 32 1d 3d 6a c3 b3 bd
       -0.03337206 -0.090265244 0.03837815 -0.08777507
000320 53 75 67 be 22 5f ac 3d ca 66 1f 3d 8a 3a 18 c1
       -0.2260335 0.08416583 0.038916387 -9.514292
000330 b2 49 cd 3d 81 c7 10 3e 6c f5 99 3d 50 da df 3c
       0.10023822 0.14138605 0.07517514 0.02732578
000340 7d 28 03 3e ca 30 fa 3d 48 42 5d 3d 00 28 8c bc
       0.12808414 0.12216337 0.05401829 -0.017108917
000350 7b d8 d6 bd 8b 17 16 c1 ca 41 1a c1 8f c3 1a c1
       -0.10490509 -9.380748 -9.641062 -9.672744
000360 20 be 17 c1 75 c7 18 c1 e0 49 b1 bb 3f 64 18 c1
       -9.483917 -9.548696 -0.005410418 -9.524474
000370 e2 ea 16 c1 d9 56 16 c1 34 bc 19 c1 24 27 a3 bd
       -9.432344 -9.396203 -9.608448 -0.0796645
000380 70 ee 3a bc 26 ae 8a bc 7c 26 86 3d d0 b9 74 3c
       -0.011409387 -0.016928744 0.06550309 0.014936879
000390 f8 c4 1c bd 59 b5 01 3e 6f 38 16 3e fe 40 cb ba
       -0.03827378 0.12666835 0.14669965 -0.001550704
0003a0 df 5d 18 3e 7c ed 81 3d be af e7 3d 70 b8 06 be
       0.14879559 0.06344125 0.11312817 -0.13156295
0003b0 60 d3 bb 3d 73 1d bb bd fb 56 17 41 70 5b 0f 3c
       0.09171176 -0.09136476 9.458735 0.008749828
0003c0 00 ab f8 3a 74 59 1f 3d e8 1f d2 3c fa b1 d3 bd
       0.001897186 0.03890367 0.02564998 -0.10336681
0003d0 6c cc 9e 3d 57 3e 14 be 7d 8e 9f bd be c7 94 ba
       0.07753834 -0.14476906 -0.07790849 -0.0011351032
0003e0 c3 17 1b c1 60 29 de 3c 95 2b ba bd 96 7b f2 3d
       -9.693301 0.027119339 -0.09090344 0.118399784
0003f0 d6 6e 1f bd 73 ca 18 41 22 6c 83 3d a1 a5 0a 3e
       -0.03892406 9.549426 0.06417109 0.13539745

price_encoder.encoder.weight_hh_l0 f4 [180, 45]
000000 e8 87 1a 41 c6 16 19 41 c4 e4 16 41 53 e9 16 c1
       9.65818 9.56806 9.430851 -9.431964
000010 08 92 18 41 51 af 17 41 23 66 18 41 b9 94 1a c1
       9.535652 9.480302 9.524936 -9.661309
000020 33 72 18 c1 3b 90 17 c1 de 25 1a c1 e2 c1 19 41
       -9.527881 -9.4727125 -9.634245 9.609835
000030 f6 b9 17 c1 5e ba 18 c1 f6 70 17 41 4e d6 1a c1
       -9.482901 -9.5455 9.465078 -9.6773205
000040 a3 39 17 41 61 3d 19 c1 55 77 16 41 9a b4 1a c1
       9.451571 -9.577485 9.404134 -9.669092
000050 ea 81 16 41 cf 5f 18 41 62 c3 16 41 5f 5f 17 41
       9.406717 9.523391 9.422701 9.460784
000060 a5 41 18 c1 cf 5d 16 c1 15 eb 16 c1 97 c9 17 41
       -9.5160265 -9.3979025 -9.432393 9.486716
000070 a7 75 16 c1 bb d0 17 c1 e4 2a 17 41 be e6 18 c1
       -9.403724 -9.48846 9.447971 -9.556334
000080 e8 6a 18 41 3a e1 18 41 5b 77 18 41 aa 6c 16 c1
       9.5261 9.554987 9.5291395 -9.401529
000090 a2 02 18 c1 33 55 19 41 bf 61 17 41 ac 17 1b 41
       -9.500643 9.583301 9.461364 9.693279
0000a0 f9 43 1a 41 31 ab 17 41 97 5c 19 c1 52 cc 1a 41
       9.641595 9.479295 -9.585105 9.674883
0000b0 bd 31 1a c1 23 95 1a c1 07 9b 19 c1 54 af 18 c1
       -9.637143 -9.66141 -9.600348 -9.542805
0000c0 54 74 19 41 a7 4d 17 c1 27 29 1a c1 36 fc 16 c1
       9.5909 -9.456458 -9.635047 -9.436575
0000d0 3d fa 19 c1 92 d7 17 41 e5 b0 19 c1 4a 72 17 41
       -9.623593 9.490129 -9.605687 9.465403
0000e0 ac 02 1b c1 a5 9e 16 41 78 c3 17 41 5b db 18 c1
       -9.688152 9.413732 9.485222 -9.553554
0000f0 fe 99 1a 41 e3 de 17 c1 ea 90 16 41 6c 52 17 c1
       9.662596 -9.491916 9.410379 -9.457623
000100 2a b4 18 41 5d 3c 17 41 ef 15 1a c1 29 3a 17 c1
       9.543985 9.452237 -9.630355 -9.451699
000110 ca 06 19 c1 35 ac 1a 41 d0 c3 19 41 8f 55 17 41
       -9.5641575 9.667043 9.610306 9.458388
000120 0b fc 17 c1 4e 76 16 41 76 65 19 41 77 cb 1a c1
       -9.499034 9.403883 9.587271 -9.674674
000130 a0 8c 19 41 9c fc 18 c1 53 8c 19 c1 ff 2f 17 c1
       9.596832 -9.561672 -9.596759 -9.449218
000140 4a cb 16 41 0d 64 18 41 79 1b 1a c1 73 ce 16 c1
       9.424631 9.524426 -9.631707 -9.425403
000150 08 f5 19 c1 7e b6 18 c1 20 17 18 c1 6e 95 19 41
       -9.622322 -9.544554 -9.505646 9.598982
000160 29 4c 17 c1 8f 66 17 41 7c a5 17 c1 14 b0 19 c1
       -9.456094 9.462539 -9.477901 -9.605488
000170 4a b7 1a c1 dd fb 18 41 60 df 16 c1 2c 01 19 c1
       -9.669748 9.56149 -9.429535 -9.562786
000180 b7 8d 16 c1 2c f1 17 c1 59 3b 19 41 fc 33 18 c1
       -9.409598 -9.49638 9.576989 -9.5126915
000190 c7 ee 1a 41 9a 0e 18 c1 d5 8f 1a 41 fc 8b 19 41
       9.683295 -9.503565 9.660115 9.596676
0001a0 4f 01 17 c1 64 c5 16 41 e4 0f 1a c1 a6 81 1a 41
       -9.4378195 9.423191 -9.62888 9.656652
0001b0 7c 02 1b c1 f0 81 19 c1 57 21 17 41 71 b5 17 c1
       -9.688107 -9.594223 9.44564 -9.481797
0001c0 c8 bd 19 c1 1c 48 19 c1 43 c9 17 41 87 d9 18 41
       -9.608833 -9.580105 9.486636 9.553107
0001d0 04 09 18 41 c9 58 1a c1 bd e6 16 41 f8 fb 1a 41
       9.502201 -9.646676 9.431333 9.686516
0001e0 4e bc 17 c1 b8 63 17 41 54 a6 16 c1 67 38 19 c1
       -9.483473 9.461845 -9.415607 -9.57627
0001f0 11 b5 19 c1 d6 d9 19 41 ab 35 17 41 df 72 16 c1
       -9.606706 9.615683 9.450603 -9.403045
000200 4e 2d 17 c1 98 f8 16 c1 4a 8f 16 c1 dd 49 18 c1
       -9.448561 -9.435692 -9.409983 -9.518033
000210 a0 a1 18 41 65 14 18 c1 33 5e 19 41 c5 45 1a 41
       9.539459 -9.504979 9.585498 9.642034
000220 dd 0f 18 41 19 ce 19 41 ab 40 19 c1 26 75 19 41
       9.503873 9.612817 -9.578288 9.591101
000230 fc f4 16 41 0e 8d 17 41 09 0b 17 41 9f e1 17 c1
       9.434811 9.471937 9.440194 -9.492583
000240 57 ff 19 41 6c 41 17 c1 62 22 17 41 af 63 19 41
       9.624839 -9.453472 9.445894 9.586837
000250 f9 e2 17 c1 2a f7 19 41 41 d5 18 c1 c2 fa 16 41
       -9.492913 9.622843 -9.552064 9.43622
000260 13 be 18 c1 77 24 19 41 27 55 19 41 08 99 18 c1
       -9.546405 9.571403 9.583289 -9.537361
000270 c9 9b 17 41 90 2f 1a 41 df 27 19 41 87 8b 16 c1
       9.4755335 9.636612 9.572234 -9.409064
000280 a9 19 18 c1 7c 52 18 41 b4 43 17 41 f3 cd 1a c1
       -9.506265 9.520138 9.454029 -9.675281
000290 fb aa 1a c1 3e f1 19 41 3d e2 17 c1 02 75 17 41
       -9.666743 9.621397 -9.492734 9.466066
0002a0 cc d1 1a 41 8e 07 1b 41 db 73 1a c1 bc 44 17 c1
       9.67622 9.689344 -9.653285 -9.454281
0002b0 ee fd 18 41 6d 95 17 41 64 ac 17 41 fe 07 1a 41
       9.561995 9.473981 9.479588 9.626951
0002c0 68 f7 16 41 0e e9 1a c1 62 26 17 41 08 b7 18 c1
       9.435402 -9.681898 9.446871 -9.544685
0002d0 99 9a 16 41 d2 a1 17 41 99 c0 1a 41 d7 d8 19 c1
       9.412744 9.477007 9.672021 -9.615439
0002e0 5d 6e 16 41 3b 6d 17 41 d9 0e 1b 41 e0 6f 1a 41
       9.401944 9.464168 9.691125 9.652313
0002f0 c4 4e 1a c1 11 d9 19 41 cc 2f 19 c1 49 a6 18 41
       -9.64423 9.615495 -9.574169 9.540597
000300 31 3a 19 c1 eb 2f 17 c1 b2 bf 16 41 53 0a 17 c1
       -9.576707 -9.449199 9.421801 -9.440021
000310 b9 3f 18 41 11 e6 16 c1 96 fd 16 41 96 0e 1a 41
       9.515557 -9.431169 9.436911 9.628561
000320 fd 9b 16 c1 a2 92 16 41 4b 32 18 41 86 d5 1a 41
       -9.413083 9.410799 9.512279 9.67713
000330 5e 58 18 c1 49 d2 17 c1 5d 54 19 41 a1 b5 19 41
       -9.521574 -9.488839 9.5830965 9.606843
000340 ab 1c 18 c1 ff 9f 16 c1 2e 5d 17 41 c0 89 1a c1
       -9.506999 -9.414062 9.460249 -9.65863
000350 d9 06 19 41 42 02 1b 41 fc 68 1a 41 32 22 17 c1
       9.564172 9.688051 9.650631 -9.445848
000360 85 5e 18 c1 95 03 17 41 5d 13 1a 41 fb 6c 19 41
       -9.523076 9.4383745 9.629727 9.589107
000370 47 e5 17 41 bc bc 19 41 5f 58 18 c1 cb ed 16 41
       9.493476 9.608578 -9.521575 9.433055
000380 76 c1 16 c1 82 e9 17 41 01 56 19 41 a1 09 1a 41
       -9.422232 9.494509 9.583497 9.627351
000390 48 a3 1a c1 bf 2b 1a 41 1e ce 16 41 35 c6 17 41
       -9.664864 9.63568 9.425322 9.48589
0003a0 59 8f 1a 41 fd f7 17 c1 ad 05 1b 41 52 32 18 c1
       9.659997 -9.498044 9.688886 -9.512285
0003b0 d4 1b 17 41 63 82 16 c1 2a 24 18 c1 a9 e7 17 41
       9.444294 -9.406833 -9.508829 9.494058
0003c0 98 60 19 c1 43 91 1a 41 e2 67 1a c1 d3 22 19 41
       -9.586082 9.660464 -9.650362 9.571002
0003d0 42 a0 1a 41 e6 2b 17 c1 26 ef 17 41 cf a4 16 41
       9.664125 -9.448217 9.495886 9.415236
0003e0 6e 80 16 41 70 d7 18 c1 f9 1f 19 c1 eb 57 16 41
       9.406355 -9.552597 -9.570306 9.396464
0003f0 a4 8c 1a 41 c4 78 17 c1 71 c3 1a c1 56 6f 18 41
       9.659336 -9.466984 -9.672715 9.527182

price_encoder.encoder.bias_ih_l0 f4 [180]
000000 8e 96 19 c1 ec b1 1a 41 82 19 18 41 83 84 17 c1
       -9.5992565 9.668438 9.5062275 -9.4698515
000010 78 6c 1a c1 93 fb 17 c1 76 0c 1a 41 48 39 18 c1
       -9.651482 -9.4989195 9.628042 -9.513985
000020 82 41 1a 41 b5 d5 19 c1 87 ba 17 c1 1e 18 19 c1
       9.640993 -9.614675 -9.483039 -9.568388
000030 c0 da 1a c1 bb db 18 41 a3 8b 17 41 9a ba 1a 41
       -9.678406 9.553645 9.471591 9.670557
000040 89 d2 19 c1 d8 34 17 41 8b 14 1a c1 7d fb 1a c1
       -9.6139 9.450401 -9.630015 -9.6863985
000050 24 42 19 c1 0c 66 16 c1 be cd 18 c1 c9 42 18 41
       -9.578648 -9.399914 -9.55023 9.516305
000060 90 dd 19 c1 a8 e3 18 c1 76 29 17 c1 69 4a 18 41
       -9.616592 -9.55558 -9.447622 9.518167
000070 98 77 19 c1 73 2d 18 41 8e 30 17 41 16 ec 1a c1
       -9.591698 9.511096 9.449354 -9.682638
000080 7a 9c 1a 41 16 d8 19 c1 45 68 17 c1 d4 10 18 41
       9.663202 -9.615255 -9.462956 9.504108
000090 71 fe 17 c1 b4 1b 1b c1 9e 8d 16 c1 87 8d 19 41
       -9.4996195 -9.694263 -9.4095745 9.597053
0000a0 2f 4f 17 41 13 8c 15 41 b2 99 1a c1 20 0b 18 41
       9.456832 9.346698 -9.662523 9.502716
0000b0 20 52 18 41 3d f3 16 c1 2d d5 1a 41 20 1c 18 41
       9.52005 -9.434384 9.677045 9.506866
0000c0 bc 0a 1a c1 06 9e 17 c1 92 aa 1a c1 d5 61 1a 41
       -9.627621 -9.47608 -9.666643 9.648885
0000d0 2b f4 18 c1 c1 35 19 41 60 26 17 41 50 91 1a c1
       -9.559611 9.5756235 9.446869 -9.660477
0000e0 c9 36 17 c1 56 b6 17 c1 99 10 19 41 3d 9c 17 41
       -9.450875 -9.482016 9.566552 9.475644
0000f0 c1 91 18 41 98 b5 18 c1 69 fa 19 41 a0 72 18 41
       9.535584 -9.544334 9.623635 9.527985
000100 18 29 1a c1 dd 70 19 c1 5f 8d 18 c1 34 ff 16 c1
       -9.635033 -9.5900545 -9.534514 -9.437305
000110 60 8b 17 41 08 ac 19 c1 e4 75 16 c1 f8 af 16 c1
       9.471527 -9.6045 -9.403782 -9.417961
000120 67 19 19 41 3a 27 1a c1 69 41 18 41 d5 82 16 41
       9.568702 -9.634577 9.515969 9.406941
000130 32 fb 18 c1 c6 2b 17 41 34 ff 18 c1 d9 b9 19 c1
       -9.561327 9.448187 -9.562305 -9.607873
000140 e8 01 18 41 3c 3c 1a c1 ba 02 1a c1 96 c0 17 c1
       9.500465 -9.639706 -9.625666 -9.484518
000150 de a8 19 41 6b 24 19 41 bd 4f 18 c1 20 f0 17 c1
       9.603727 9.571391 -9.519467 -9.496124
000160 3a 2d 19 41 4f 21 19 41 24 7c 16 41 6a 24 1a c1
       9.573542 9.570632 9.405308 -9.63389
000170 7c 8f 17 c1 a4 15 1b c1 10 97 16 41 d6 f7 18 41
       -9.47253 -9.692783 9.4118805 9.560507
000180 eb 97 19 c1 9d 5a 18 41 4b 94 17 41 d7 f0 16 c1
       -9.599589 9.522122 9.473704 -9.433799
000190 d9 6c 16 c1 3f 53 19 41 cd 5c 18 41 ff 69 17 41
       -9.401574 9.582824 9.522656 9.463378
0001a0 9f b8 19 c1 e7 5e 17 41 f9 b7 19 41 d2 7f 1a 41
       -9.6075735 9.4606695 9.607415 9.656206
0001b0 f8 9f 17 41 4c 0b 1a 41 db 8a 1a c1 5b 1f 17 41
       9.476555 9.627758 -9.6589 9.445155
0001c0 36 48 19 41 3e 13 17 c1 39 83 16 c1 39 c5 17 c1
       9.58013 -9.442198 -9.407037 -9.48565
0001d0 63 0a 1b 41 18 69 16 c1 7c d7 16 c1 aa 26 1a 41
       9.690036 -9.400658 -9.4276085 9.634439
0001e0 db 8d 18 c1 49 b7 19 c1 d3 f6 19 c1 a7 b0 17 41
       -9.534633 -9.607247 -9.62276 9.480628
0001f0 f1 5c 1a 41 88 1a 18 41 be 6b 1a c1 13 6a 19 41
       9.647691 9.506477 -9.651304 9.588397
000200 d8 ec 17 41 46 54 18 c1 82 c4 19 c1 cc 71 1a 41
       9.495323 -9.520575 -9.610476 9.652782
000210 57 a7 18 c1 2e b4 18 c1 88 e4 19 41 17 52 17 c1
       -9.540854 -9.543989 9.618294 -9.457541
000220 eb 0b 19 41 b6 ad 16 41 c2 da 19 c1 e4 eb 1a c1
       9.56541 9.41741 -9.615908 -9.6825905
000230 ea e8 1a c1 be e5 16 41 e8 87 18 c1 f2 a2 1a 41
       -9.681864 9.431089 -9.53318 9.664782
000240 94 12 17 c1 71 f6 1a c1 87 d4 16 c1 c0 50 18 c1
       -9.442036 -9.685166 -9.426887 -9.519714
000250 7a 09 1a 41 c7 67 19 41 e1 f6 16 41 8c 96 16 c1
       9.627314 9.587836 9.435273 -9.411755
000260 2a bb 1a 41 bd e6 19 c1 b7 e7 19 c1 6c 25 1a c1
       9.670694 -9.618833 -9.619071 -9.634136
000270 96 7a 17 c1 f2 66 1a c1 43 e1 17 41 86 78 19 c1
       -9.467428 -9.650133 9.492496 -9.591925
000280 d9 15 18 c1 c8 26 17 c1 7c 61 18 41 d5 b3 16 c1
       -9.505334 -9.446968 9.5238 -9.418904
000290 e7 1d 17 41 8d fc 17 41 62 99 18 c1 7f ed 16 41
       9.4448 9.499158 -9.537447 9.432982
0002a0 e8 7f 16 c1 3f ac 16 c1 e4 a4 1a 41 5c 20 1a c1
       -9.406227 -9.417052 9.6652565 -9.6329
0002b0 bc 43 17 c1 75 c2 18 c1 a2 8c 17 41 dd 6a 17 41
       -9.454037 -9.547475 9.471834 9.46359
0002c0 60 f5 19 c1 c8 1f 19 c1 71 61 18 41 dc 02 1b 41
       -9.622406 -9.570259 9.523789 9.688198

price_encoder.encoder.bias_hh_l0 f4 [180]
000000 e2 3d 17 c1 94 fe 1a 41 e8 96 1a 41 0e c0 16 c1
       -9.452608 9.687153 9.661842 -9.421888
000010 84 dd 19 c1 5f 5f 18 c1 a1 8a 16 41 9b ae 1a c1
       -9.616581 -9.523284 9.408845 -9.667628
000020 07 41 18 41 03 b0 17 c1 f3 f5 17 c1 66 d8 16 c1
       9.515876 -9.480472 -9.497546 -9.427832
000030 94 34 18 c1 9d e5 17 41 73 ff 19 41 d0 e5 16 41
       -9.512836 9.493558 9.624866 9.431107
000040 6f 4c 1a c1 e2 84 17 41 e7 a2 19 c1 ce b4 16 c1
       -9.643661 9.469942 -9.602271 -9.419142
000050 15 22 1a c1 e2 31 19 c1 ef 43 18 c1 f3 73 18 41
       -9.633321 -9.574678 -9.516585 9.528308
000060 58 5b 19 c1 d0 fb 18 c1 8b a6 18 c1 b3 9f 16 41
       -9.584801 -9.561478 -9.54066 9.413989
000070 dc 4e 18 c1 8e 1c 19 41 ed 94 17 41 11 aa 1a c1
       -9.519253 9.569471 9.473859 -9.66652
000080 5c 6f 1a 41 2e 88 18 c1 59 15 1a c1 dd 0d 19 41
       9.652187 -9.533247 -9.630212 9.565885
000090 c5 5c 16 c1 42 69 18 c1 0c d0 17 c1 9b b3 19 41
       -9.397649 -9.525698 -9.488293 9.606349
0000a0 68 fe 16 41 60 46 16 41 be 2a 19 c1 9e a6 16 41
       9.437111 9.392181 -9.572935 9.415678
0000b0 13 72 16 41 4e fd 19 c1 00 6a 16 41 c8 ab 16 41
       9.40285 -9.624342 9.400879 9.416939
0000c0 84 e6 18 c1 ce 60 19 c1 c9 08 19 c1 62 35 19 41
       -9.556278 -9.586134 -9.564645 9.575533
0000d0 fb 3b 18 c1 5e f5 17 41 43 f0 16 41 76 b7 18 c1
       -9.514644 9.497404 9.433658 -9.54479
0000e0 c3 40 19 c1 20 ff 18 c1 24 fe 18 41 51 67 1a 41
       -9.578311 -9.562286 9.562046 9.650224
0000f0 cd 37 17 41 ee 25 18 c1 b6 a5 18 41 7d 33 1a 41
       9.451123 -9.50926 9.540457 9.63757
000100 27 3e 18 c1 c4 9c 1a c1 71 86 19 c1 ac 41 19 c1
       -9.515174 -9.663273 -9.595323 -9.578533
000110 8e 87 17 41 f7 67 19 c1 3c 89 17 c1 c9 0b 1b c1
       9.470594 -9.587882 -9.4710045 -9.690377
000120 7a 7b 16 41 ea 6f 17 c1 12 5e 19 41 3a 25 1a 41
       9.405146 -9.464823 9.585466 9.6340885
000130 ac 51 18 c1 6a c9 16 41 5b 11 18 c1 b8 93 16 c1
       -9.519939 9.424173 -9.504237 -9.411064
000140 4e f9 16 41 bb e9 19 c1 5e 10 19 c1 a4 6a 18 c1
       9.435865 -9.619563 -9.566496 -9.526035
000150 f5 aa 1a 41 01 9b 19 41 77 00 1a c1 bd 03 1a c1
       9.666738 9.600343 -9.6251135 -9.625913
000160 e5 e6 17 41 cd 62 1a 41 10 2d 19 41 19 a5 1a c1
       9.493871 9.649121 9.573502 -9.665307
000170 9d e6 19 c1 ce de 16 c1 75 21 19 41 18 9c 1a 41
       -9.618802 -9.429396 9.570668 9.663109
000180 32 66 18 c1 5b 86 19 41 f7 e0 19 41 dc f2 19 c1
       -9.52495 9.595302 9.617423 -9.621792
000190 bf 2a 1a c1 52 2f 17 41 9e 6b 18 41 d8 fb 18 41
       -9.635436 9.449053 9.526274 9.561485
0001a0 3c 7e 18 c1 97 03 17 41 da f7 16 41 b9 4f 1a 41
       -9.530819 9.438376 9.435511 9.644464
0001b0 1b 70 16 41 f0 61 19 41 c1 42 18 c1 59 95 18 41
       9.4023695 9.5864105 -9.516297 9.536462
0001c0 62 b6 17 41 05 94 17 c1 79 fc 19 c1 1f 6d 17 c1
       9.482027 -9.473638 -9.624139 -9.464141
0001d0 79 eb 16 41 4b 35 19 c1 16 82 18 c1 f6 d7 19 41
       9.432488 -9.575511 -9.531759 9.615225
0001e0 60 e1 16 c1 59 a7 16 c1 21 11 18 c1 03 b9 17 41
       -9.430023 -9.415856 -9.504182 9.482669
0001f0 67 1e 17 41 09 d7 18 41 d6 e7 18 c1 da b2 16 41
       9.444922 9.552499 -9.556601 9.418665
000200 0d 8c 16 41 28 18 19 c1 da 21 18 c1 45 f2 19 41
       9.409192 -9.5683975 -9.508265 9.621648
000210 27 db 18 c1 db 61 1a c1 2f 06 1a 41 0e eb 1a c1
       -9.553504 -9.6488905 9.62651 -9.682386
000220 fd fd 19 41 e2 85 1a 41 9e fe 1a c1 52 8b 17 c1
       9.624509 9.657686 -9.687162 -9.471514
000230 94 a7 17 c1 50 5b 17 41 9a b0 16 c1 92 f9 19 41
       -9.478413 9.459793 -9.418116 9.62343
000240 02 e7 1a c1 07 55 19 c1 c4 ed 17 c1 b5 c1 1a c1
       -9.681398 -9.583259 -9.495548 -9.672292
000250 a7 aa 16 41 34 55 18 41 fd dd 16 41 91 44 18 c1
       9.416663 9.520802 9.429196 -9.51674
000260 be 75 17 41 10 70 19 c1 e2 de 16 c1 64 c5 16 c1
       9.466246 -9.589859 -9.429415 -9.423191
000270 8a e2 16 c1 6e fe 17 c1 ea e3 1a 41 c4 a9 16 c1
       -9.430307 -9.499617 9.680643 -9.416447
000280 39 1a 1a c1 65 10 18 c1 cd 61 18 41 4e 3c 1a c1
       -9.631402 -9.504003 9.523877 -9.639723
000290 da ba 17 41 95 42 18 41 82 69 1a c1 0f c1 18 41
       9.483118 9.516255 -9.650759 9.547133
0002a0 02 dc 19 c1 17 aa 1a c1 a2 ea 17 41 57 1b 17 c1
       -9.616213 -9.666526 9.494783 -9.444175
0002b0 90 ce 1a c1 fd c6 1a c1 cd af 19 41 7b 80 17 41
       -9.67543 -9.673581 9.60542 9.468867
0002c0 78 75 19 c1 d8 fa 19 c1 09 ea 19 41 f9 f6 18 41
       -9.591179 -9.623741 9.6196375 9.560296

atten_layer.0.weight f4 [45, 135]
000000 c0 52 bc bb 40 cb d3 3b 10 c0 bf bc 58 49 8d bc
       -0.0057471693 0.0064634383 -0.023407012 -0.017246887
000010 67 17 ab 3d 36 22 4b 3d d9 b8 42 bd 3d 6c 05 bd
       0.08354073 0.049593173 -0.047539566 -0.032573927
000020 f6 50 52 3d 2b 99 a3 3d 5c cd c8 3c 1d 5d 97 3d
       0.05134674 0.07988199 0.024511985 0.07390807
000030 3c a7 90 bc 4e 36 5b 3d 80 fe 68 ba 8d ca 01 bd
       -0.017657869 0.053518586 -0.0008888021 -0.031687308
000040 14 e6 bf bc c4 5c dd 3c 8e 32 37 3d c0 81 32 3b
       -0.02342514 0.027021773 0.044725947 0.0027237982
000050 58 d2 8d bc fa 02 fc bc 80 87 31 bb 39 f2 af 3d
       -0.017312214 -0.030763138 -0.002708882 0.08591122
000060 f8 00 dc 3c ca 41 a9 bd f0 4b 9f bc 80 1b 05 3d
       0.02685593 -0.082645014 -0.01944539 0.03249693
000070 07 82 a8 bd 12 a7 63 3d 64 7b 6a bd 89 eb 90 bd
       -0.08227926 0.055579253 -0.05724658 -0.07076175
000080 6c 25 2f bd 20 a2 40 3b de 57 81 bd d0 87 d5 bb
       -0.042760298 0.002939351 -0.063155875 -0.0065164343
000090 b8 1c 79 bd 50 e5 3f bc 30 cc a8 bd 23 7b 07 bd
       -0.060818404 -0.011712387 -0.08242071 -0.033076417
0000a0 60 33 80 bb 19 d4 a5 3d b1 46 af bd 60 66 03 bc
       -0.0039123744 0.08097095 -0.08558405 -0.008020014
0000b0 00 c0 77 b8 23 39 9c bd 1f 54 3b bd de 2a 28 3d
       -5.9068203e-05 -0.076280855 -0.04573452 0.041056506
0000c0 a2 43 6a 3d 77 0b 85 3d 0b b3 9d 3d bd f9 a3 3d
       0.057193406 0.06496327 0.07700165 0.08006618
0000d0 f0 54 96 bc 86 4a 8a bd 39 e6 97 bd ea f6 2c bd
       -0.018351048 -0.067524955 -0.07416958 -0.042227663
0000e0 e0 49 4f bd 2c 1a e9 3c 59 0e 35 bd 6f 67 88 3d
       -0.050607562 0.028454863 -0.044203136 0.066603534
0000f0 9b 5c 38 bd 7b d2 8c 3d 12 c1 51 3d ef 27 96 3d
       -0.04501019 0.068760835 0.051209517 0.073318355
000100 3f 0c 94 bd a9 35 a5 3d 40 89 c3 ba eb 93 97 3d
       -0.07228898 0.080668755 -0.0014918223 0.0740126
000110 32 5d 42 3d 88 06 81 bd ea e3 91 bd 0b 99 ae 3d
       0.04745216 -0.06300074 -0.07123549 0.085252844
000120 78 ae b2 bc a0 fc 7b bc 80 9d ea ba 31 35 7e bd
       -0.021811709 -0.015380055 -0.0017899722 -0.062062446
000130 20 55 65 bc fe d8 28 3d e0 a0 6c bb 46 42 a3 bd
       -0.013997346 0.041222565 -0.003610663 -0.07971625
000140 08 85 1e 3d 69 81 84 3d ff 6e 0d bd 6b 21 90 bd
       0.038701087 0.064699955 -0.034529682 -0.07037624
000150 6f 9a 9b 3d f2 79 34 3d 79 1f 9a 3d 00 b4 10 3b
       0.07597815 0.04406161 0.07525534 0.0022079945
000160 1d 00 32 bd 5d 1f 9b 3d 3e 95 19 c1 74 dc 1e c1
       -0.04345714 0.075743414 -9.598936 -9.928822
000170 00 4b 25 c1 b6 ab 19 c1 b5 c6 18 41 8f 95 19 c1
       -10.330811 -9.604422 9.548512 -9.599013
000180 68 1f 1a c1 78 70 25 41 0c 97 18 41 f4 08 18 41
       -9.632668 10.339958 9.536877 9.502186
000190 13 a7 18 c1 cd ee 16 c1 23 29 18 c1 e3 a3 19 41
       -9.54079 -9.433301 -9.510043 9.602511
0001a0 b1 22 19 c1 52 46 17 c1 aa 36 18 c1 d4 b4 18 41
       -9.57097 -9.454668 -9.513346 9.5441475
0001b0 e6 30 19 41 7d 8f 0e c1 15 ad 21 c1 b8 09 26 41
       9.574438 -8.910031 -10.104756 10.377373
0001c0 36 c1 23 41 f9 1f 0f 41 cc 34 1a c1 2f 0f 0c 41
       10.234671 8.945306 -9.63789 8.753707
0001d0 90 5a 20 41 f1 a8 18 41 6f 1f 25 c1 32 49 25 41
       10.02211 9.541245 -10.320174 10.33037
0001e0 e0 a5 18 41 8e ba 19 c1 8f 05 18 41 5e 2b 19 c1
       9.540497 -9.608046 9.501357 -9.573088
0001f0 2e 70 17 c1 80 8a 17 c1 44 57 18 41 da 51 18 c1
       -9.464888 -9.471313 9.521305 -9.519983
000200 8c 45 1a 41 fe 7f 18 41 ee ad 0e c1 77 36 21 41
       9.641979 9.531248 -8.917463 10.075797
000210 ac 50 27 c1 6c e0 1a c1 fc 89 23 41 ca c1 8a bd
       -10.457195 -9.6797905 10.221188 -0.067752436
000220 c5 94 99 3d f8 e9 51 bd b9 2b 8e bd 4c 7a ee 3c
       0.07499079 -0.05124852 -0.06941933 0.02911105
000230 c0 8e 3e 3b 0e 6a 35 3d 80 f2 51 3c 4c 23 c9 bc
       0.0029076785 0.044290595 0.012814164 -0.024552964
000240 7a 9d 04 3d ea cb a2 bd d3 35 12 bd 7e 44 71 3d
       0.032376744 -0.0794905 -0.035695862 0.05890321
000250 16 db 3f 3d fb 86 2b bd 1d e2 a8 3d 62 f4 5f 3d
       0.046839796 -0.041876774 0.08246253 0.05467642
000260 8e 12 2b 3d 38 15 7c bd 81 a6 51 bd fa f9 92 bd
       0.041765742 -0.061543673 -0.05118418 -0.071765855
000270 a0 f9 4d bd 1e 36 01 3d 99 b2 87 3d fd 37 94 3d
       -0.05028689 0.03154575 0.06625862 0.072372414
000280 60 26 42 bb f0 bb 11 3c ae d4 f3 bc e8 f6 82 bd
       -0.0029624924 0.008894905 -0.0297645 -0.0639475
000290 60 41 f8 3c 58 aa cc bc cc db 18 bd 48 b0 f5 bc
       0.03030461 -0.02498357 -0.03731899 -0.029991284
0002a0 44 ae 8a bd 1c 96 54 bd 1e b9 05 bd 50 8c af bc
       -0.0677152 -0.051900968 -0.032647245 -0.02142921
0002b0 9c b1 a7 bc 1f 3c a3 3d 28 59 ab bc 7a eb 2f 3d
       -0.020470433 0.079704516 -0.020916536 0.042949177
0002c0 6c d8 87 bc 77 85 9f 3d e0 bf bb bc e6 79 54 3d
       -0.01658269 0.07789128 -0.022918642 0.051874064
0002d0 ea ed 7b 3d 50 39 c6 bc 24 5c f1 3c a4 24 45 bd
       0.06150619 -0.02419725 0.029462881 -0.048130646
0002e0 b2 de 12 bd 9e 89 47 3d ea 1f 3b 3d b4 8a 91 3c
       -0.03585691 0.048715226 0.045684732 0.017766334
0002f0 c1 25 93 3d 79 7c 42 bd a8 c9 4e 3c 75 13 8d bd
       0.07184935 -0.047481988 0.012621321 -0.06888477
000300 52 da ad bd 10 d1 5b bd 3f 69 af 3d 4e 3f 51 3d
       -0.08488907 -0.053666174 0.08564996 0.051085763
000310 69 68 80 3d 3a 40 7a 3d 10 c7 33 bc 20 0d 79 3c
       0.06269915 0.061096407 -0.010972753 0.015200883
000320 ea 2c c5 bc 37 5f 49 bd a2 c8 10 bd 43 1c 4d bd
       -0.024069268 -0.04916307 -0.03534759 -0.05007578
000330 ce 6e 27 3d f0 15 24 bd bc d8 9e bc 35 02 a9 3d
       0.040877156 -0.040059984 -0.019390456 0.08252374
000340 9a a9 14 3d f8 0e 7c 3c dc 5c 84 bc 0d 30 87 3d
       0.036294557 0.015384428 -0.01615756 0.06600962
000350 30 52 af 3b 60 5a 3f 3b 60 fe 3a bd e9 9e 8f bd
       0.0053503737 0.0029198155 -0.045652747 -0.070127316
000360 42 aa 7e 3d f3 92 43 bd a9 8c 9b bd 92 cc 9f bd
       0.06217409 -0.047747564 -0.07595188 -0.078026906
000370 2c d2 9e 3c d8 3d aa bd 26 18 91 bd 10 7c ae 3c
       0.019387327 -0.08312577 -0.07084684 0.021299392
000380 da e3 26 3d 17 f8 1c c1 88 fe 1f 41 7a 93 22 41
       0.04074464 -9.810569 9.999641 10.161005
000390 b2 f6 17 c1 4e d6 17 41 9b 61 18 41 fa 9d 17 41
       -9.497728 9.4898205 9.523829 9.4760685
0003a0 3c c9 1b c1 46 ff 1a 41 a2 aa 19 41 53 29 18 c1
       -9.7366295 9.687323 9.604158 -9.510089
0003b0 e5 4f 15 c1 7c 66 19 c1 0d a0 17 41 d7 99 19 c1
       -9.3320055 -9.587521 9.476575 -9.600059
0003c0 73 82 15 c1 82 e4 18 41 39 8e 18 41 c7 2b 18 41
       -9.344348 9.555788 9.534722 9.510688
0003d0 e8 90 1e c1 8e 0b 1d 41 ee 08 1c c1 9c d8 20 c1
       -9.9103775 9.815321 -9.75218 -10.052883
0003e0 d3 59 20 41 3d b2 18 c1 01 12 1f 41 32 5a 1c c1
       10.02193 -9.543515 9.9418955 -9.77202
0003f0 87 eb 19 41 7d 61 1f 41 65 12 1d c1 fb dd 18 41
       9.620002 9.961301 -9.816991 9.554194

atten_layer.0.bias f4 [45]
000000 cf 78 13 41 eb f0 19 41 6d 28 16 41 49 a4 18 c1
       9.216994 9.621318 9.38487 -9.540109
000010 2e e7 17 c1 fc 41 19 c1 f8 66 1a c1 ef f7 17 41
       -9.49394 -9.578609 -9.650139 9.498031
000020 51 ed 18 c1 92 6f 18 41 d3 e7 16 c1 54 8d 19 c1
       -9.557939 9.527239 -9.431598 -9.597004
000030 26 44 19 41 34 5f 17 c1 0f 26 16 c1 29 b4 19 41
       9.579138 -9.460743 -9.384292 9.606484
000040 76 17 17 c1 69 e5 19 c1 9c 61 16 c1 11 36 17 c1
       -9.443228 -9.618508 -9.39883 -9.4507
000050 69 4d 19 c1 15 aa 1a 41 c4 8c 17 41 17 54 19 41
       -9.581399 9.666524 9.471867 9.58303
000060 70 9f 1a c1 c1 7f 19 c1 f5 ab 18 c1 e1 c2 18 c1
       -9.663925 -9.59369 -9.541982 -9.547578
000070 e4 e2 16 c1 dd 04 1b c1 30 ac 17 41 1b 21 19 41
       -9.430393 -9.688687 9.479538 9.570582
000080 b3 1c 19 41 5d 29 19 41 26 c4 17 c1 73 44 1a c1
       9.569507 9.572598 -9.485388 -9.641711
000090 fd 89 19 41 a3 c2 17 41 32 b4 1a c1 53 c6 17 41
       9.596189 9.485019 -9.668993 9.485919
0000a0 1e 78 16 c1 79 38 19 c1 84 33 19 41 30 79 19 41
       -9.4043255 -9.576287 9.575077 9.592087
0000b0 ae 96 16 c1
       -9.411787

atten_layer.2.weight f4 [1, 45]
000000 dc 3b f7 40 9e 1c 38 c1 59 d4 0d 41 17 31 fe c0
       7.726057 -11.506987 8.864343 -7.9434924
000010 aa 2d 05 c1 e7 ec fc c0 bb 8f 0a c1 b4 20 26 c1
       -8.323648 -7.9039187 -8.66009 -10.382984
000020 d7 e1 01 c1 bf 55 03 41 f8 b3 e9 c0 51 03 25 41
       -8.117637 8.208434 -7.303219 10.31331
000030 a0 98 29 c1 d4 6a 04 c1 2d 81 43 41 41 c2 0c 41
       -10.599762 -8.276081 12.219037 8.797425
000040 5e 62 33 41 09 5d 29 41 68 70 f4 c0 42 cd f7 c0
       11.211515 10.585214 -7.6387215 -7.743806
000050 ac f0 21 41 ac f0 17 41 bf 0f 16 41 4d 26 16 41
       10.121258 9.496258 9.378844 9.384351
000060 f5 05 1e 41 59 0e 30 41 9a da 12 c1 09 e8 0c c1
       9.876454 11.003503 -9.1783695 -8.806649
000070 f9 6b 3b 41 83 2f 1d 41 32 26 15 41 2b cb 2d c1
       11.7138605 9.8241 9.321825 -10.862102
000080 18 4d 0c 41 34 f3 1b c1 16 76 2b 41 52 6c 0f c1
       8.768822 -9.746876 10.71633 -8.963945
000090 57 fe 21 c1 b9 f9 25 c1 a6 c6 24 41 89 97 2e c1
       -10.124595 -10.373467 10.298498 -10.911996
0000a0 57 fa f9 c0 c5 fa 1e 41 17 85 31 c1 ca 63 18 41
       -7.811809 9.936223 -11.094993 9.524363
0000b0 b6 d4 f8 c0
       -7.7759657

lstm.weight_ih_l0 f4 [180, 45]
000000 e5 87 14 41 22 cd 1a c1 0c 7c 1b c1 44 a3 18 41
       9.283177 -9.675081 -9.717785 9.53986
000010 82 d5 1a c1 24 b6 18 41 e1 b4 16 41 56 fb 1a 41
       -9.677126 9.544468 9.41916 9.686361
000020 9f e3 15 c1 97 22 1b 41 5f ad 17 41 99 e8 19 41
       -9.368072 9.695945 9.479827 9.619287
000030 3b bf 18 41 53 63 18 41 8f 53 19 c1 08 34 1b 41
       9.546687 9.524249 -9.5829 9.700203
000040 33 aa 17 c1 20 50 1b c1 ce 66 18 c1 63 0a 1c 41
       -9.479053 -9.707062 -9.525099 9.752536
000050 b3 4f 1c c1 bf 01 1f 41 25 b6 1b 41 fb ea 18 c1
       -9.769458 9.937926 9.731969 -9.557368
000060 f6 bc 0e 41 85 ab 1c c1 3d 30 1c 41 ea f5 18 c1
       8.921133 -9.791875 9.761777 -9.560038
000070 6b 54 1d c1 08 d6 1a 41 ed 4e 18 c1 d7 aa 1a c1
       -9.83311 9.677254 -9.519269 -9.666709
000080 bf 2a 18 c1 03 18 1a 41 b2 b4 1a 41 cd c3 1a c1
       -9.510436 9.630862 9.669115 -9.672803
000090 58 ff 18 c1 c9 3e 18 41 6f bb 18 41 5f 78 1a c1
       -9.56234 9.515328 9.54576 -9.654387
0000a0 6a 13 19 c1 77 1e 1c 41 aa 88 1c c1 a2 71 1a c1
       -9.56724 9.757438 -9.783365 -9.652742
0000b0 bb f4 1c 41 0a 2d 1b 41 1b f3 1d c1 ed 3c 1b c1
       9.809749 9.698496 -9.871852 -9.702374
0000c0 5e b7 1a 41 f1 d3 19 41 ec 8c 19 41 f5 9d 19 41
       9.669767 9.6142435 9.596905 9.601064
0000d0 6c d3 19 41 87 c7 17 c1 9b 14 18 41 cc f1 17 41
       9.614117 -9.486213 9.505031 9.496532
0000e0 0d 50 17 c1 d4 02 19 41 eb 07 17 c1 51 c8 17 c1
       -9.457044 9.56319 -9.439433 -9.486405
0000f0 15 10 17 41 9d 03 19 c1 04 de 16 c1 0b 83 17 c1
       9.441426 -9.563382 -9.429203 -9.469493
000100 df 02 1c 41 8c 72 1c c1 3c 8c 19 41 3a 33 1e 41
       9.750701 -9.777966 9.596737 9.8875065
000110 e8 a3 1a c1 3a 17 00 c1 40 c8 1b c1 15 bc 1b 41
       -9.665016 -8.005671 -9.736389 9.733418
000120 db ac 16 c1 2d e3 1c c1 79 2b 1b 41 97 48 18 c1
       -9.417201 -9.805463 9.698113 -9.517722
000130 a1 7a 1a c1 73 3b 1b c1 93 2b 18 41 af 78 17 41
       -9.654939 -9.702014 9.510638 9.466964
000140 d4 fa 18 c1 96 14 19 c1 d7 86 19 41 99 36 1a 41
       -9.561237 -9.567526 9.59542 9.6383295
000150 75 90 16 c1 68 1b 19 c1 2e e0 1b 41 03 40 19 c1
       -9.410268 -9.569191 9.742231 -9.578128
000160 0a 7b 14 c1 50 73 1c 41 65 20 17 c1 d5 9c 1c c1
       -9.280039 9.778152 -9.445409 -9.788289
000170 ce 85 1c c1 6d ac 17 41 0b 24 19 c1 6e 86 18 41
       -9.782667 9.479596 -9.5713 9.53282
000180 96 16 19 c1 ac 61 1c 41 eb e5 1a c1 9c 08 1a c1
       -9.568014 9.773846 -9.681132 -9.627102
000190 44 68 18 41 ad 98 03 c1 24 dc 19 c1 13 49 1a 41
       9.525455 -8.224774 -9.616245 9.64284
0001a0 53 61 17 41 c0 26 17 41 33 f7 19 41 8d 78 17 41
       9.461261 9.44696 9.622851 9.466931
0001b0 85 c4 17 c1 fa 22 1c 41 1a dc 1b c1 0b fb 19 41
       -9.485478 9.758539 -9.741236 9.62379
0001c0 7a 71 19 41 38 6a 1a c1 ea 92 e1 c0 2a dc 19 c1
       9.590204 -9.650932 -7.049184 -9.616251
0001d0 3b 06 1e 41 c6 83 18 c1 12 01 1c c1 71 71 1b 41
       9.876521 -9.532171 -9.750261 9.715196
0001e0 1f 0d 1b 41 80 da 16 41 43 3c 19 c1 78 03 1b 41
       9.690703 9.428345 -9.577212 9.688347
0001f0 f7 0d 18 41 95 6e 19 41 f3 12 1b 41 a7 95 1a 41
       9.503409 9.589498 9.692126 9.661536
000200 f3 a8 16 c1 f0 5a 19 c1 71 70 18 41 cd f0 1a 41
       -9.416247 -9.584702 9.5274515 9.683789
000210 ee d1 1c c1 16 0f 18 41 15 a2 19 41 72 92 1b 41
       -9.801252 9.503683 9.602071 9.723253
000220 94 65 1d c1 91 7a 1c c1 78 a1 1a 41 69 e3 17 c1
       -9.837299 -9.779923 9.664421 -9.49302
000230 d5 4d 17 41 52 1d 1b 41 8e e9 1d 41 de 9d 17 c1
       9.456502 9.694658 9.86952 -9.476042
000240 0b 95 17 c1 fd dd 1a 41 69 ac 15 c1 f1 86 16 41
       -9.473887 9.679196 -9.354592 9.407945
000250 0e 03 1a 41 04 36 1a 41 8b f1 19 41 8d c6 18 41
       9.625746 9.638187 9.62147 9.548474
000260 d4 c5 16 c1 7a f8 18 c1 4c 6c 1f 41 4b 2b 1b c1
       -9.423298 -9.560663 9.96394 -9.69807
000270 74 6e 1a 41 c0 cd 1d 41 c4 0f 1f c1 75 6d 00 41
       9.651966 9.862732 -9.941349 8.026723
000280 72 eb 1c c1 5a bf 1c 41 2a 84 17 c1 0b e6 1e c1
       -9.807482 9.796717 -9.469767 -9.931163
000290 e1 48 1d 41 19 b2 17 c1 11 70 1b 41 0f 54 17 c1
       9.830293 -9.480981 9.71486 -9.458022
0002a0 78 40 17 41 31 9e 19 41 d7 01 1a c1 c4 f6 16 c1
       9.453239 9.601121 -9.625449 -9.4352455
0002b0 10 64 16 41 7b a2 17 c1 46 dc 17 c1 32 ab 19 41
       9.399429 -9.477168 -9.491278 9.604296
0002c0 5c 47 1b 41 18 b3 1a c1 8f 10 18 41 13 22 1b 41
       9.704922 -9.668724 9.504043 9.695819
0002d0 18 62 18 41 f5 de 1c c1 9e 30 20 c1 a0 a0 17 41
       9.523949 -9.804433 -10.011869 9.476715
0002e0 ed dc 15 41 15 f8 19 41 32 b6 18 41 54 27 1c 41
       9.366437 9.623067 9.544481 9.759602
0002f0 a8 ed 1a c1 a7 d8 1a c1 e0 0c 18 41 11 63 19 c1
       -9.683022 -9.677894 9.503143 -9.586686
000300 89 28 17 41 c5 c6 14 c1 c4 76 1b 41 50 3f 1a 41
       9.447396 -9.298528 9.7164955 9.640457
000310 9a 82 18 41 85 0b 18 c1 a2 ac 16 c1 5e 79 1e 41
       9.531885 -9.502812 -9.417147 9.904631
000320 ff 8c 1f c1 1e 01 1b 41 a4 c3 1c 41 8a f4 1e c1
       -9.971923 9.687773 9.797764 -9.934702
000330 92 4f 12 41 92 99 1f c1 22 e7 1d 41 09 8a 17 c1
       9.144426 -9.974993 9.868929 -9.4712
000340 6e 90 1b c1 f0 8c 1c 41 64 b6 18 c1 a6 cf 18 41
       -9.722761 9.784409 -9.544529 9.550695
000350 b7 5a 19 c1 2d 78 1a 41 f0 a2 1a 41 8b 9a 17 c1
       -9.584647 9.65434 9.66478 -9.47523
000360 32 76 17 c1 74 f2 19 41 29 5f 16 c1 85 cc 19 c1
       -9.466356 9.621693 -9.398232 -9.612432
000370 b1 a6 1a c1 1b 6a 1e 41 b9 1d 1c c1 7e 02 1b 41
       -9.665696 9.900905 -9.7572565 9.688108
000380 36 a8 1b 41 fa cd 1a 41 77 d0 1b c1 8d 21 1e c1
       9.728567 9.675287 -9.738395 -9.883191
000390 62 dc 17 41 d6 8e 1a c1 7c 74 18 41 ea ad 16 41
       9.491304 -9.659872 9.528439 9.4174595
0003a0 5b 0d 1b 41 94 d6 19 c1 fb 41 1b c1 73 ae 18 41
       9.690761 -9.614887 -9.7036085 9.54259
0003b0 37 2b 0e c1 c2 81 18 41 ee df 18 41 2f 63 19 41
       -8.8855505 9.531679 9.55467 9.586715
0003c0 43 b2 19 41 4a c0 17 41 d8 81 1a c1 6b bc 19 c1
       9.606021 9.484446 -9.6567 -9.6085005
0003d0 57 b1 1a 41 6b 37 1c c1 5e bd 19 41 53 94 1a 41
       9.668296 -9.76353 9.608732 9.661212
0003e0 32 c7 1c c1 fe 33 f6 c0 1d 59 1d c1 97 d9 19 41
       -9.798632 -7.6938467 -9.834256 9.6156225
0003f0 c2 d0 1a c1 94 d0 1c c1 de 28 1e 41 16 7a 19 c1
       -9.675966 -9.800922 9.884977 -9.592306

lstm.weight_hh_l0 f4 [180, 45]
000000 10 96 73 bc 4b 1e 10 3e 37 b5 15 be e0 ef 82 3b
       -0.014867321 0.14074056 -0.14619909 0.0039958805
000010 84 f7 14 be 31 a0 b9 bd 08 e3 1d 3d 22 2c cc 3d
       -0.14547545 -0.09063757 0.038546592 0.09969355
000020 40 ef c2 bc 95 e2 07 3e 0e 7f 8a 3d aa ec 09 be
       -0.023795724 0.13270028 0.06762515 -0.13469186
000030 30 24 18 bd e0 58 b9 bc 18 8d c2 bc cc 5f 80 3d
       -0.037143886 -0.022625387 -0.02374892 0.06268272
000040 6a c5 fb 3d 46 ea cf bd 5a 5f a9 bd 94 f1 b5 bd
       0.12293513 -0.10152106 -0.0827014 -0.08883968
000050 78 83 e3 3c 6c 35 75 3d e2 84 c8 bd 18 28 a5 3d
       0.02777265 0.0598654 -0.097909704 0.08064288
000060 2a 7d 86 3d 02 a6 34 bd a4 3a 38 bd e1 a7 0e be
       0.06566842 -0.04410363 -0.0449778 -0.13931228
000070 86 e5 c2 bd cc b7 2e 3d 60 07 6f 3d a9 91 06 3e
       -0.09516434 0.04265575 0.058356643 0.13141502
000080 46 57 0d bd 14 9d ce 3d 1c 78 a9 bd 49 f9 f3 bd
       -0.03450706 0.10088554 -0.08274862 -0.11912782
000090 2e aa 02 be 24 51 c9 3d 38 5b c0 bc c2 cd f6 3d
       -0.12760231 0.098299295 -0.023480996 0.12050964
0000a0 fc f2 5e bd 6d 13 18 3e 80 1e 81 3d dd 4f 8d bd
       -0.054430947 0.1485116 0.063046455 -0.06899998
0000b0 72 82 a5 3d 90 29 17 bd ac ba cb 3d e8 e5 b5 bc
       0.08081521 -0.03690487 0.09947714 -0.022204354
0000c0 01 58 17 3e ee d3 e3 3d 02 1b 0c be 60 60 0a 3d
       0.14779665 0.11124407 -0.13682178 0.033783317
0000d0 d0 ea 46 bc 70 f1 61 bd 64 35 9c 3d 48 dd dd bc
       -0.012140945 -0.055161893 0.07627371 -0.027083054
0000e0 a0 27 5f bd 18 27 cc bd 36 c3 f0 bd 6a 07 b7 3d
       -0.05448115 -0.09968394 -0.117559835 0.08936961
0000f0 86 85 c3 3d 18 ea 9f bc fc 42 bf 3d ea 87 82 bd
       0.09546952 -0.019520804 0.09338948 -0.0637358
000100 56 c5 f8 3d 9e 92 0d bd 26 cd 8b 3d c0 13 bd 3c
       0.12147014 -0.034563653 0.06826238 0.023080707
000110 cf 51 11 3e f8 df 93 bc ea 8e f3 bd 76 ea c5 bd
       0.14191364 -0.018051133 -0.11892493 -0.096638605
000120 c0 33 be bb a8 0c 0d bd 0c da c2 bd d6 19 de bd
       -0.005804509 -0.034435898 -0.095142454 -0.108447716
000130 f1 b8 09 be a4 c3 1d bd d6 de c6 3d 28 24 b2 3c
       -0.13449456 -0.038516656 0.09710471 0.021745756
000140 00 9b 4d 3b 4d 57 17 be c0 33 f2 3b 2c fd 10 be
       0.0031372905 -0.14779396 0.007391423 -0.14159077
000150 82 b6 ca bd 54 69 92 bd ff 04 07 be c0 01 86 bc
       -0.09898092 -0.07148996 -0.131855 -0.016358256
000160 c6 a7 9e 3d b2 a5 d1 bd 67 bd 16 be 22 b4 e8 bd
       0.07746844 -0.10236682 -0.14720689 -0.113624826
000170 10 27 5a 3c 8d 6b 17 3e da c4 f1 3d c5 5a 0c 3e
       0.013314977 0.14787121 0.118051246 0.13706501
000180 40 d8 54 3b fc 75 5d 3d 80 82 2b bd 88 ef ee bd
       0.0032477528 0.054067597 -0.0418725 -0.11666781
000190 a8 37 15 3d 84 91 99 3d 4e 29 e9 3d e0 84 b1 bd
       0.03643003 0.07498458 0.11384831 -0.08667922
0001a0 48 bb c5 3c fe ba f4 bd 22 78 08 be 16 fd 8a bd
       0.024137154 -0.119497284 -0.13327077 -0.067865536
0001b0 74 ef d8 bd e5 a5 e7 bd d0 2c 39 bc 95 f7 01 be
       -0.10592547 -0.11310939 -0.011302188 -0.12692101
0001c0 e0 4d f0 bd d2 56 d3 bd d3 fe ba bd b0 8a 1f 3c
       -0.117336035 -0.10319294 -0.09130635 0.0097376555
0001d0 28 e1 8e bc 2a 1d 80 3d 58 2f c0 bc 6c b4 71 3d
       -0.017441347 0.062555626 -0.023460075 0.059009954
0001e0 ba aa 0e bd b6 b6 99 3d b0 58 84 3d 1a 78 f5 3d
       -0.034830786 0.075055525 0.06462228 0.11985798
0001f0 a8 7c e6 3c 2a f8 e8 bd 64 d1 4a 3d 80 db 43 3c
       0.028135613 -0.113754585 0.049516097 0.011954188
000200 68 cb bc bd 0e d8 82 3d 9c 51 0f 3d 78 57 b3 bc
       -0.09218484 0.063888654 0.03498994 -0.021892294
000210 c6 2f dd bd da 40 21 bd ae c6 af bd a8 07 98 3c
       -0.10800128 -0.039368488 -0.08582817 0.018558338
000220 ea 49 8b bd 80 80 e6 bb d6 4c 03 bd d8 6c 30 3d
       -0.06801207 -0.0070343614 -0.0320557 0.04307255
000230 80 26 8c 3d f8 63 ee bc 14 a5 b5 3d 08 2f 04 be
       0.06843281 -0.029100403 0.08869377 -0.12908566
000240 0b 97 11 3e 83 68 11 3e d1 bc 02 3e 8a a2 af bd
       0.14217775 0.14200024 0.1276734 -0.08575924
000250 66 99 1f bd 50 db 12 3d b4 d0 fb bd fa f1 dc 3d
       -0.03896465 0.035853684 -0.12295666 0.10788341
000260 80 b7 c8 3b fd ac 00 3e e6 fd ff bd 16 92 25 bd
       0.0061253905 0.1256599 -0.12499599 -0.04042252
000270 f2 2f 08 be 48 fb 5d bd 18 21 cd 3c 00 76 64 bb
       -0.1329954 -0.05419472 0.025040194 -0.0034860373
000280 68 4f 7a 3d 2c 09 47 bd 30 31 34 bd 39 69 e8 bd
       0.061110884 -0.04859273 -0.04399222 -0.11348195
000290 ea aa 13 be 15 75 01 3e 81 6b d3 bd f9 db f8 bd
       -0.14420667 0.1264232 -0.10323239 -0.121513315
0002a0 88 f4 0e bd 00 32 5a bc 88 47 ea 3c 2e 43 db bd
       -0.034901172 -0.013317585 0.028598562 -0.10706173
0002b0 1d 07 e1 bd ef 07 02 be 7e 02 a1 3d 94 b8 8d 3d
       -0.10987685 -0.12698339 0.078618035 0.06919971
0002c0 40 7c 88 bd 00 88 15 3b b0 60 e4 bc 54 db 15 3d
       -0.06664324 0.0022816658 -0.027878135 0.03658612
0002d0 8c a6 c0 bd cd 37 9e bd 00 e4 f4 bc 62 48 17 bd
       -0.09406766 -0.07725487 -0.029893875 -0.036934264
0002e0 aa 52 a4 bd 94 d9 e3 bd 08 f1 9c bc fa d5 f1 bd
       -0.080235794 -0.11125484 -0.019157901 -0.11808391
0002f0 54 3c fa bc 29 57 01 3e 40 87 3a 3d 70 7e 59 3c
       -0.030546345 0.12630905 0.04553914 0.013274774
000300 60 8c 1c bd 0e 09 91 3d 50 93 54 3d 4e ef a6 3d
       -0.03821981 0.07081805 0.0518983 0.081511125
000310 c4 31 9e 3d d8 56 8a 3c 40 79 bd bc 76 89 fd bd
       0.07724336 0.016887113 -0.023129106 -0.12379734
000320 1e 2c df bd 46 a0 af 3d 78 1e e8 bc f0 85 07 3c
       -0.108970866 0.085754916 -0.028334841 0.008271679
000330 ec dd 06 be 18 c8 cb bd fb 6c a8 bd ce 30 de 3d
       -0.13170594 -0.09950274 -0.082239114 0.108491525
000340 ba 23 e6 3d ee 8a 2d bd c7 bd 8a bd 5a 0f d6 3d
       0.11237283 -0.04236882 -0.067744784 0.10452147
000350 9c e7 b0 3d 6a 6b b0 bd ee 35 e9 3d cc cb 6e 3d
       0.08637926 -0.086142376 0.113872394 0.058299825
000360 b0 04 64 3c 9e 79 8b bd bc 48 c7 3d c7 e8 ae bd
       0.013917133 -0.06810306 0.0973067 -0.085404925
000370 c0 23 ed bb 51 30 d9 bd 89 e0 14 be bf b2 8e bd
       -0.0072369277 -0.10604919 -0.14538778 -0.06967687
000380 f6 02 59 bd 80 a6 76 3d b8 df b5 3d cb b6 01 be
       -0.05298134 0.06021738 0.088805616 -0.12667386
000390 ae 31 ae 3d 0e 8e db bd af 97 0e 3e 7f d9 c1 bd
       0.085055694 -0.10720454 0.1392505 -0.09465312
0003a0 c4 17 0b 3d b0 d2 3f 3d 9e 9d 07 bd 7d 93 a8 bd
       0.03395821 0.046831787 -0.0331093 -0.08231256
0003b0 0d e5 0d 3e f1 48 17 3e 51 c9 04 3e a2 c7 58 bd
       0.13856907 0.14773919 0.12967421 -0.05292476
0003c0 80 5d 50 3c f2 1b b8 bd 00 c3 0f ba af 37 ec bd
       0.012717605 -0.08989705 -0.00054840744 -0.11534058
0003d0 b8 bf 48 bd 18 d3 65 3d 28 46 bc bd 16 5e b3 bd
       -0.049010962 0.056109518 -0.09193069 -0.0875818
0003e0 1a 8b e0 3d b0 f3 57 bd 14 c3 8e bd f6 a7 8f 3d
       0.109640315 -0.052722633 -0.06970802 0.07014458
0003f0 4a ee e3 bd 0a e6 04 bd 80 d1 02 3b 9a 9d f4 3d
       -0.111294344 -0.032445945 0.0019961298 0.119441226
