Ni_prediction/savemodel/bst_mod_258.pth (torch_old, 533443 bytes, 44 tensors)

price_encoder.attention.weight f4 [1, 121]
000000 e2 97 6b 40 bc b6 6d 40 88 37 68 40 a6 25 6e c0
       3.6811452 3.7142782 3.6283894 -3.7210479
000010 51 c1 63 c0 d8 f8 63 40 c2 40 6b 40 b0 95 64 c0
       -3.558674 3.5620632 3.6758275 -3.5716362
000020 25 31 6a 40 51 30 68 40 10 a5 67 40 e4 63 6c 40
       3.6592495 3.627949 3.6194496 3.6935968
000030 9e f2 64 c0 f8 d5 68 c0 d5 26 69 c0 68 9d 65 40
       -3.5773082 -3.6380596 -3.642995 3.5877323
000040 60 c8 63 40 5b d6 65 c0 4e 51 61 40 5a 2f 6a 40
       3.559105 -3.5912082 3.5205874 3.65914
000050 3c 66 61 40 3e f6 68 40 da 30 6c 40 92 91 6b c0
       3.521865 3.6400294 3.6904817 -3.68076
000060 52 95 6b c0 42 b0 67 40 b8 1a 65 c0 72 2b 6c c0
       -3.6809888 3.620133 -3.5797558 -3.6901517
000070 dc d8 6a c0 ec 43 66 c0 85 62 6b 40 e8 89 67 c0
       -3.669486 -3.5978956 3.6778882 -3.6177921
000080 1e 6c 68 40 7f 37 6e 40 90 73 64 40 44 33 68 40
       3.631599 3.7221372 3.5695534 3.628129
000090 00 bb 6b c0 f4 08 6c 40 93 8a 69 40 d3 d6 6b c0
       -3.6832886 3.6880465 3.649083 -3.6849868
0000a0 99 0d 69 40 ec 5f 6e 40 6a 6c 66 40 83 ca 6b 40
       3.641455 3.7246046 3.600367 3.6842353
0000b0 42 0c 68 40 3c e3 6b 40 76 de 6b 40 e5 f5 6b 40
       3.6257482 3.6857443 3.685453 3.6868832
0000c0 3e 1c 6e 40 d6 a4 67 40 81 49 65 40 ce fa 66 40
       3.7204738 3.6194358 3.5826113 3.609058
0000d0 7d d5 6b 40 15 5f 67 40 f8 3a 63 40 6c 4a 69 40
       3.6849053 3.6151783 3.5504742 3.6451674
0000e0 aa a4 6a 40 c4 8b 6d c0 ae 2c 69 c0 67 c5 6e 40
       3.6663003 -3.7116556 -3.643352 3.7307985
0000f0 94 37 65 40 1c c0 6c c0 7f 84 6a c0 0c 5b 63 c0
       3.5815172 -3.6992254 -3.664337 -3.552432
000100 db f4 6d c0 a1 25 6d 40 ac c4 68 40 76 63 66 40
       -3.7180698 3.7054217 3.637004 3.5998206
000110 40 38 65 40 43 56 68 c0 14 4f 67 c0 88 a3 69 40
       3.5815582 -3.630265 -3.6142015 3.6506062
000120 e0 5f 6a 40 bb ce 64 40 3a 22 65 c0 62 d9 63 40
       3.6621017 3.5751178 -3.580214 3.560143
000130 f8 1e 65 c0 70 17 2d 40 12 ed 6c 40 6c ce 6a 40
       -3.5800152 2.7045555 3.7019696 3.668849
000140 66 4c 64 c0 15 fd 64 c0 fb 4a 69 40 00 e9 66 40
       -3.567163 -3.577947 3.6452014 3.6079712
000150 5d 52 6d 40 0b 22 6e c0 43 b1 63 c0 1c 61 6e c0
       3.708152 -3.7208278 -3.5576942 -3.724677
000160 72 97 6c 40 38 10 6c 40 37 11 6e 40 f4 a2 6d 40
       3.6967435 3.68849 3.7198007 3.7130709
000170 12 c2 66 40 fb 9e 6c 40 c9 db 65 c0 7c 43 6e c0
       3.605595 3.6972034 -3.5915396 -3.722869
000180 e7 e9 65 c0 10 34 6a 40 9c 4d 6b c0 88 19 62 40
       -3.5924013 3.6594276 -3.676612 3.5328083
000190 91 36 66 40 14 0c 67 40 e0 dd 68 40 06 28 6d 40
       3.5970805 3.6101122 3.6385422 3.7055678
0001a0 66 a4 6b 40 50 9f 65 40 60 93 63 40 2f d2 6b 40
       3.681909 3.5878487 3.55587 3.6847036
0001b0 ca 3a 6c 40 d9 cf 68 40 c4 6c 63 40 00 18 69 40
       3.6910882 3.637686 3.5535135 3.6420898
0001c0 b5 02 63 40 3e 55 6a 40 49 6a 6d 40 48 82 63 40
       3.5470402 3.6614528 3.7096121 3.5548267
0001d0 d2 fc 66 40 b2 86 66 40 b3 6b 6c 40 eb e0 69 40
       3.609181 3.6019711 3.6940734 3.654353
0001e0 0c da 6b 40
       3.6851835

price_encoder.encoder.weight_ih_l0 f4 [180, 45]
000000 1c 78 ce bd 32 86 f1 bd 18 32 03 3d 20 05 a9 3d
       -0.10081503 -0.11793174 0.032030195 0.08252931
000010 e6 7b 63 bd a2 b0 d5 3d 80 09 a1 3d 0a ef f9 bd
       -0.05553808 0.10434081 0.0786314 -0.12203796
000020 b7 40 d4 bd 40 15 43 bc 73 f8 e1 bd ce ef 6c bd
       -0.10363906 -0.011906922 -0.11033716 -0.057845883
000030 bc da d9 bc d8 40 fb 3c be b2 f7 bd 70 ab 76 3c
       -0.026593558 0.030670568 -0.12094639 0.015055522
000040 fc 9a 50 3d 08 40 aa bd 68 61 b9 3d e6 b1 eb 3d
       0.050929055 -0.08312994 0.09051782 0.11508541
000050 b5 30 d8 3d 45 65 8c 3d b4 8a da bd b9 00 62 c0
       0.10556165 0.06855253 -0.10670987 -3.531294
000060 d7 78 14 be a5 f2 17 be 6b 3d f9 bd 5b a3 03 3e
       -0.14499222 -0.14838655 -0.12169918 0.12855284
000070 53 4b 08 3e 38 9a 14 3d 0b 55 07 be e0 f9 fc bb
       0.13309984 0.036279887 -0.13216035 -0.007720217
000080 b6 f8 ef 3d 29 af 5e 40 98 d6 65 40 21 f3 66 40
       0.1171736 3.479441 3.5912228 3.6085894
000090 8d 02 68 40 0a 4d 68 40 5d c2 8c be cc eb 64 40
       3.6251557 3.629702 -0.27492037 3.576892
0000a0 6b 4a 72 40 ae ba 6d 40 fe c5 64 40 88 ba c6 3c
       3.785792 3.714519 3.5745845 0.024258867
0000b0 d6 bd fe bd c0 3b 00 be aa 3c 8f 3d 15 17 e2 3d
       -0.12438552 -0.12522793 0.069939926 0.11039559
0000c0 d2 f1 36 3d f6 29 bc 3d 75 8f fc 3d 0c 8a 8d bd
       0.04466421 0.09187691 0.1233205 -0.06911096
0000d0 7f 0b b0 3d 11 70 78 3d 70 6e 00 3d 88 ee bb 3d
       0.08595943 0.06065375 0.03135532 0.091763556
0000e0 50 f7 a8 bc fa fc 8a 3d 1f b8 04 3e 60 dc 45 3c
       -0.02062574 0.06786533 0.12960862 0.012076467
0000f0 a3 25 11 be c7 37 09 be 60 f9 9e 3b 28 8a 06 bd
       -0.14174514 -0.13400184 0.004851505 -0.0328466
000100 09 ba ca 3d 74 af af 3f 65 79 bc 3c 55 75 a8 bd
       0.09898765 1.3725419 0.023007104 -0.08225504
000110 4c d7 5f 40 77 e7 f6 bd cb 93 13 be 7a 37 f7 3d
       3.4975157 -0.12055867 -0.14411847 0.12071128
000120 3e af 3a bd 24 bc 11 be 40 3b 4c bb 8a a9 32 bd
       -0.04557728 -0.14231926 -0.0031163245 -0.043618716
000130 57 54 0e 3e 21 bb c0 bd c3 93 63 40 42 c0 60 40
       0.1389936 -0.09410692 3.5558937 3.5117345
000140 84 3a 67 40 1e 43 64 40 36 52 71 40 03 5a 07 be
       3.6129465 3.5665965 3.7706428 -0.1321793
000150 2c e9 64 40 14 c0 62 40 64 aa 63 40 ca f4 6d 40
       3.5767317 3.5429735 3.5572748 3.7180657
000160 10 3a 24 3d 70 7b 34 3d 6d da d7 3d c5 da de bb
       0.040094435 0.04406303 0.10539708 -0.0068009817
000170 9c a2 f0 bd 41 bc e0 bd 28 98 e7 3c f7 3a 4b 3d
       -0.11749765 -0.109734066 0.028270796 0.04961678
000180 a0 66 85 3d 56 e8 87 3d a4 0b e4 bc 8e 92 ab bd
       0.06513715 0.066361114 -0.027837582 -0.083775625
000190 c6 1e 06 be 30 2e a1 3c 9e 79 4b bd a0 06 cf bd
       -0.13097677 0.019675344 -0.04967653 -0.101086855
0001a0 60 f5 ba 3b 58 c1 88 3c 42 1f c2 3d 84 a8 c7 bd
       0.0057055205 0.016693756 0.09478618 -0.09748939
0001b0 10 61 6c 3c 0e 7e aa bd 4e e0 a5 3f e1 69 a5 bc
       0.014427438 -0.08324824 1.2959077 -0.020192089
0001c0 0e 0c b2 bd de 19 66 40 24 95 5c bd 00 d2 26 3d
       -0.086937055 3.5953288 -0.05385317 0.040727615
0001d0 7e 00 35 bd 15 5b 40 3c 57 1b cf bd 33 6e 10 3e
       -0.044189923 0.011740466 -0.101126365 0.14104538
0001e0 42 4c df bd df 28 10 3e bc 1f 0e be 60 de 6f 40
       -0.10903217 0.14078091 -0.13879293 3.7479477
0001f0 6c ad 60 40 ad f9 66 40 c6 2d 6b 40 54 83 6e 40
       3.5105848 3.608989 3.6746688 3.7267656
000200 6a e0 66 c0 38 26 66 40 64 c2 6d 40 43 08 61 40
       -3.6074471 3.5960827 3.7149897 3.5161293
000210 e0 7c 65 40 94 d1 6f 3d 1d bc 80 bd c2 4b c7 3d
       3.5857468 0.05854948 -0.0628588 0.097312465
000220 46 b9 5e bd 8e 17 05 be 80 d7 ae bc 30 76 20 bd
       -0.05437591 -0.12997267 -0.021342993 -0.039175212
000230 70 83 ed 3d fa 74 f7 3d 9c fe c1 3d ea e3 8c bb
       0.11597335 0.120828584 0.09472391 -0.0042996304
000240 18 b5 a1 3d 02 a1 e6 3d b6 fa ec 3d f0 ba c9 3d
       0.07895869 0.112611786 0.11571257 0.098501086
000250 ce 45 60 c0 5c ea 11 3d 4c 36 7c 3d b6 da 15 bd
       -3.5042605 0.035623893 0.06157522 -0.036585532
000260 a0 5c 17 bc 20 b5 bb 3f 5e 90 33 3d 3f eb 7e be
       -0.009238392 1.466465 0.04383885 -0.24894427
000270 33 96 80 bc b6 94 72 3d c6 97 68 c0 8c da 46 3d
       -0.01569662 0.059223853 -3.6342635 0.048548266
000280 0d e6 14 3e 40 b8 83 bd 32 30 b6 bd fe 5b 6a c0
       0.14540882 -0.06431627 -0.08895911 -3.6618648
000290 78 23 af 3d aa 78 c7 3d 57 46 3e c0 34 32 b9 bd
       0.08551687 0.09739812 -2.9730432 -0.090427786
0002a0 b7 c1 70 c0 86 dc 6d c0 b0 2d 63 c0 19 37 64 c0
       -3.7618234 -3.7165847 -3.5496635 -3.565863
0002b0 18 76 6d c0 7a e8 c6 bd 62 a6 64 c0 f1 0a 69 c0
       -3.7103329 -0.0971231 -3.5726552 -3.6412928
0002c0 fa 31 63 c0 d5 b7 63 c0 f2 2d a1 3d e8 6d 17 3d
       -3.5499253 -3.5580952 0.078700915 0.03697005
0002d0 fa 34 b0 bd b8 62 ac bc 66 59 ac 3d 21 0c 0d 3e
       -0.086038545 -0.021043167 0.08415489 0.13774158
0002e0 3c 14 b1 3d 9c 28 13 3e 9e 4c 0d be ac fe 12 be
       0.086464375 0.1437096 -0.13798758 -0.14354962
0002f0 5e 6a b4 bd 64 97 55 bd 98 df 59 3d 23 d6 14 be
       -0.088093504 -0.05214633 0.05319175 -0.14534812
000300 32 9c d8 bd cf f1 a6 bd 80 5a ed bb 66 84 b2 3d
       -0.10576667 -0.0815159 -0.0072434545 0.08716659
000310 24 b1 08 bd fc dc b8 bd 68 32 1d 3d 8a 80 b2 bd
       -0.03337206 -0.090265244 0.03837815 -0.08715923
000320 24 37 23 bb e2 37 b3 3d ba 7d 33 3d ca 10 67 c0
       -0.0024904693 0.08750893 0.043821074 -3.6103997
000330 b2 49 cd 3d 81 c7 10 3e 6c f5 99 3d 50 da df 3c
       0.10023822 0.14138605 0.07517514 0.02732578
000340 7d 28 03 3e ca 30 fa 3d 48 42 5d 3d 00 28 8c bc
       0.12808414 0.12216337 0.05401829 -0.017108917
000350 7b d8 d6 bd 7e e9 60 c0 11 2d 6f c0 f9 33 71 c0
       -0.10490509 -3.5142512 -3.7371256 -3.7687972
000360 96 1f 65 c0 a3 44 69 c0 e0 49 b1 bb 22 b8 67 c0
       -3.5800529 -3.6448143 -0.005410418 -3.6206136
000370 bb d2 61 c0 0a 83 5f c0 00 17 6d c0 24 27 a3 bd
       -3.528487 -3.492373 -3.7045288 -0.0796645
000380 70 ee 3a bc 16 97 8a bc 7c 26 86 3d d0 b9 74 3c
       -0.011409387 -0.016917747 0.06550309 0.014936879
000390 f8 c4 1c bd 59 b5 01 3e 6f 38 16 3e ae cd ca ba
       -0.03827378 0.12666835 0.14669965 -0.0015472674
0003a0 df 5d 18 3e 7c ed 81 3d be af e7 3d 70 b8 06 be
       0.14879559 0.06344125 0.11312817 -0.13156295
0003b0 60 d3 bb 3d 73 1d bb bd 64 83 63 40 70 5b 0f 3c
       0.09171176 -0.09136476 3.5548944 0.008749828
0003c0 00 ab f8 3a 74 59 1f 3d e8 1f d2 3c fa b1 d3 bd
       0.001897186 0.03890367 0.02564998 -0.10336681
0003d0 ac 28 9f 3d 10 78 a0 bd 1d 93 9d bd ba f6 93 39
       0.077714294 -0.078354 -0.07694075 0.0002822185
0003e0 9c 84 72 c0 60 29 de 3c 95 2b ba bd 96 7b f2 3d
       -3.7893438 0.027119339 -0.09090344 0.118399784
0003f0 d6 6e 1f bd 24 50 69 40 f2 26 83 3d a1 a5 0a 3e
       -0.03892406 3.6455164 0.064039126 0.13539745

price_encoder.encoder.weight_hh_l0 f4 [180, 45]
000000 56 45 70 40 ce 81 6a 40 46 ba 61 40 1b cd 61 c0
       3.754232 3.6641726 3.5269942 -3.5281436
000010 8a 6e 68 40 be e4 64 40 6e bf 67 40 b0 78 70 c0
       3.6317468 3.5764613 3.621059 -3.7573662
000020 0e ef 67 c0 ce 67 64 c0 6e bd 6e c0 48 2d 6d 40
       -3.6239657 -3.5688357 -3.7303119 3.7058887
000030 4c 0f 65 c0 02 10 69 c0 12 eb 63 40 91 7e 71 c0
       -3.5790586 -3.641602 3.5612226 -3.77335
000040 e0 0d 63 40 a9 1b 6b c0 35 05 60 40 1e f8 70 c0
       3.5477219 -3.6735632 3.5003178 -3.7651439
000050 7e 2f 60 40 7c a6 67 40 b0 35 61 40 ba a4 63 40
       3.5028987 3.6195364 3.5189018 3.556929
000060 2d 2d 67 c0 0c 9f 5f c0 ca d3 61 c0 c0 4d 65 40
       -3.6121323 -3.4940825 -3.5285516 3.5828705
000070 48 fe 5f c0 b0 69 65 c0 be d2 62 40 87 c1 69 c0
       -3.499895 -3.5845757 3.5441127 -3.652437
000080 04 d2 67 40 26 ab 69 40 86 04 68 40 47 da 5f c0
       3.6221933 3.651071 3.625276 -3.4976976
000090 7f 31 66 c0 38 7b 6b 40 e8 ae 63 40 36 84 72 40
       -3.596771 3.6793957 3.5575504 3.7893195
0000a0 98 35 6f 40 02 d4 64 40 fc 98 6b c0 f6 56 71 40
       3.737646 3.57544 -3.6812124 3.7709327
0000b0 6f ec 6e c0 c0 79 70 c0 04 92 6c c0 6e e4 68 c0
       -3.7331808 -3.757431 -3.696412 -3.6389422
0000c0 d1 f7 6b 40 b7 5d 63 c0 40 ca 6e c0 48 18 62 c0
       3.6870005 -3.552595 -3.7310944 -3.532732
0000d0 e6 0e 6e c0 56 85 65 40 c4 e9 6c c0 27 f0 63 40
       -3.7196593 3.5862632 -3.701768 3.5615327
0000e0 26 30 72 c0 04 a2 60 40 06 35 65 40 4a 94 69 c0
       -3.7841887 3.5098886 3.5813613 -3.6496758
0000f0 fb 8d 70 40 e8 a2 65 c0 dc 6a 60 40 9a 70 63 c0
       3.7586658 -3.588068 3.5065222 -3.5537477
000100 d7 f6 68 40 75 18 63 40 73 7d 6e c0 fb 0f 63 c0
       3.640066 3.5483677 -3.7264068 -3.5478504
000110 a1 41 6a c0 3e d6 70 40 38 35 6d 40 77 7d 63 40
       -3.6602557 3.7630763 3.7063732 3.5545328
000120 1e 17 66 c0 3b 01 60 40 50 bc 6b 40 28 53 71 c0
       -3.595161 3.500075 3.6833687 -3.7707005
000130 94 58 6c 40 2e 19 6a c0 d4 57 6c c0 62 e7 62 c0
       3.6929064 -3.6577868 -3.6928606 -3.5453725
000140 4a 54 61 40 98 b6 67 40 a4 93 6e c0 ef 60 61 c0
       3.5207696 3.6205196 -3.7277613 -3.5215414
000150 0e fa 6d c0 e8 00 69 c0 22 83 66 c0 8a 7b 6c 40
       -3.7183871 -3.6406803 -3.6017537 3.6950402
000160 96 57 63 c0 9c c1 63 40 6b bd 64 c0 66 e6 6c c0
       -3.5522208 3.558692 -3.5740612 -3.7015624
000170 54 02 71 c0 de 15 6a 40 fa a4 61 c0 76 2b 6a c0
       -3.765767 3.6575847 -3.5256944 -3.6589026
000180 e4 5e 60 c0 8e eb 65 c0 96 13 6b 40 11 f7 66 c0
       -3.5057917 -3.592502 3.6730704 -3.6088297
000190 ae e0 71 40 b4 61 66 c0 ca 64 70 40 f5 55 6c 40
       3.7793384 -3.5997133 3.7561517 3.6927464
0001a0 84 2c 62 c0 c2 3c 61 40 60 65 6e c0 77 2c 70 40
       -3.533967 3.5193334 -3.7249374 3.752714
0001b0 86 2f 72 c0 88 2d 6c c0 dc ac 62 40 09 fd 64 c0
       -3.7841506 -3.690279 3.5418005 -3.577944
0001c0 4c 1d 6d c0 ce 46 6b c0 98 4c 65 40 c0 8c 69 40
       -3.7049131 -3.6761966 3.5828 3.6492157
0001d0 6b 4b 66 40 c3 88 6f c0 56 c2 61 40 75 15 72 40
       3.5983531 -3.7427223 3.5274863 3.7825596
0001e0 ae 18 65 c0 06 b6 63 40 ec c0 60 c0 45 08 6b c0
       -3.5796313 3.5579848 -3.511775 -3.6723797
0001f0 8e fa 6c c0 0c 8e 6d 40 24 fe 62 40 81 f3 5f c0
       -3.7027926 3.7117949 3.5467615 -3.4992373
000200 cc dc 62 c0 40 0a 62 c0 e8 64 60 c0 12 4e 67 c0
       -3.5447264 -3.5318756 -3.5061588 -3.61414
000210 d0 ac 68 40 de 78 66 c0 f0 9e 6b 40 ac 3c 6f 40
       3.6355476 -3.6011271 3.6815758 3.738078
000220 50 66 66 40 bb 5e 6d 40 22 29 6b c0 4e fb 6b 40
       3.5999947 3.708907 -3.6743855 3.6872134
000230 c0 fb 61 40 af 5b 64 40 7e 53 62 40 50 ad 65 c0
       3.5309906 3.568096 3.536346 -3.5887032
000240 f6 22 6e 40 e9 2c 63 c0 1f b1 62 40 3e b5 6b 40
       3.7208838 -3.549616 3.5420606 3.6829371
000250 74 b3 65 c0 d2 02 6e 40 4c 7b 69 c0 bb 12 62 40
       -3.589078 3.7189221 -3.6481504 3.5323932
000260 cd 1e 69 c0 66 b8 6a 40 15 7b 6b 40 74 8a 68 c0
       -3.642505 3.6675048 3.6793873 -3.6334505
000270 a0 96 64 40 54 e4 6e 40 1e c6 6a 40 e6 55 60 c0
       3.5716934 3.732686 3.668342 -3.5052428
000280 00 8e 66 c0 02 71 67 40 ec 35 63 40 1b 5d 71 c0
       -3.602417 3.6162724 3.5501661 -3.7713077
000290 00 d2 70 c0 2e eb 6d 40 2f b0 65 c0 04 fb 63 40
       -3.7628174 3.7174792 -3.5888784 3.5621958
0002a0 ef 6c 71 40 bd 43 72 40 1a f5 6f c0 75 3a 63 c0
       3.7722738 3.7853844 -3.7493348 -3.550443
0002b0 16 1e 6a 40 34 7d 64 40 61 d8 64 40 d4 45 6e 40
       3.6580863 3.5701418 3.5757067 3.723012
0002c0 8b 05 62 40 64 c9 71 c0 88 c1 62 40 66 02 69 c0
       3.5315883 -3.777917 3.5430622 -3.6407714
0002d0 30 92 60 40 7c ae 64 40 1b 28 71 40 22 89 6d c0
       3.5089226 3.5731497 3.7680728 -3.711495
0002e0 0c e1 5f 40 38 dc 63 40 a8 60 72 40 7c e5 6f 40
       3.4981108 3.560316 3.7871494 3.7483816
0002f0 14 61 6f c0 95 8a 6d 40 80 e5 6a c0 58 bf 68 40
       -3.7403002 3.7115834 -3.6702576 3.6366787
000300 04 0f 6b c0 3c e7 62 c0 94 26 61 40 96 50 62 c0
       -3.6727915 -3.5453634 3.5179796 -3.5361686
000310 e2 25 67 40 1a c0 61 c0 28 1e 62 40 de 5f 6e 40
       3.6116872 -3.52735 3.5330906 3.7246013
000320 84 97 60 c0 06 72 60 40 68 f0 66 40 7a 7b 71 40
       -3.5092478 3.5069594 3.6084232 3.7731614
000330 f0 87 67 c0 3a 70 65 c0 ce 77 6b 40 4e fc 6c 40
       -3.617672 -3.5849748 3.6791873 3.7028995
000340 d8 99 66 c0 5e a7 60 c0 3d 9c 63 40 e1 4c 70 c0
       -3.6031399 -3.5102153 3.556411 -3.7546923
000350 83 41 6a 40 dc 2e 72 40 f8 c9 6f 40 50 b0 62 c0
       3.6602485 3.78411 3.7467022 -3.5420113
000360 24 a1 67 c0 b0 35 62 40 34 73 6e 40 c8 da 6b 40
       -3.6192102 3.5345268 3.7257814 3.6852283
000370 1c bc 65 40 e3 18 6d 40 6e 88 67 c0 90 de 61 40
       3.5896063 3.704644 -3.617702 3.5292091
000380 66 2d 61 c0 38 cd 65 40 19 7e 6b 40 8e 4c 6e 40
       -3.518396 3.5906506 3.6795714 3.7234225
000390 04 b3 70 c0 66 d5 6e 40 2f 60 61 40 e0 3f 65 40
       -3.7609262 3.7317748 3.5214956 3.5820236
0003a0 04 63 70 40 b0 06 66 c0 25 3c 72 40 44 f0 66 c0
       3.7560434 -3.5941582 3.784921 -3.6084146
0003b0 aa 96 62 40 a5 30 60 c0 12 b8 66 c0 94 c5 65 40
       3.5404458 -3.502969 -3.6049848 3.5901842
0003c0 bc a8 6b c0 c0 6a 70 40 1d c5 6f c0 da b1 6a 40
       -3.6821737 3.7565155 -3.7464058 3.6671052
0003d0 ae a6 70 40 07 d7 62 c0 6c e3 65 40 06 bb 60 40
       3.7601733 -3.5443742 3.5920057 3.511415
0003e0 48 29 60 40 68 84 69 c0 c5 a6 6a c0 87 87 5f 40
       3.5025196 -3.6487064 -3.6664288 3.492647
0003f0 6e 58 70 40 ac 0a 64 c0 55 33 71 c0 e2 e3 67 40
       3.7553973 -3.5631514 -3.768758 3.6232839

price_encoder.encoder.bias_ih_l0 f4 [180]
000000 46 80 6c c0 32 ed 70 40 d8 8c 66 40 58 39 64 c0
       -3.6953292 3.7644773 3.6023464 -3.566
000010 92 d7 6f c0 4e 15 66 c0 f4 57 6e 40 90 0b 67 c0
       -3.7475324 -3.5950503 3.7241182 -3.6100807
000020 78 2b 6f 40 e0 7c 6d c0 77 11 65 c0 78 86 6a c0
       3.7370281 -3.7107468 -3.579191 -3.6644573
000030 7a 90 71 c0 c2 95 69 40 c6 55 64 40 54 10 71 40
       -3.7744431 3.6497655 3.5677352 3.7666216
000040 43 70 6d c0 27 fb 62 40 78 78 6e c0 09 13 72 c0
       -3.709977 3.5465791 -3.7261028 -3.7824118
000050 2d 2f 6b c0 ba bf 5f c0 84 5d 69 c0 41 32 67 40
       -3.6747544 -3.496077 -3.6463327 3.6124423
000060 94 9c 6d c0 32 b5 69 c0 6f cd 62 c0 5b 50 67 40
       -3.7126818 -3.6516843 -3.5437887 3.6142795
000070 fa 04 6c c0 12 dd 66 40 56 e9 62 40 aa d5 71 c0
       -3.6878037 3.607243 3.5454917 -3.778666
000080 42 97 70 40 d8 86 6d c0 4a c8 63 c0 36 6a 66 40
       3.759232 -3.7113552 -3.5590997 3.6002326
000090 94 20 66 c0 48 94 72 c0 26 5e 60 c0 91 5c 6c 40
       -3.5957384 -3.7903004 -3.5057464 3.6931498
0000a0 ac 64 63 40 46 5a 5c 40 74 8c 70 c0 21 53 66 40
       3.5530195 3.4430099 -3.7585726 3.5988238
0000b0 ba 6f 67 40 30 f4 61 c0 69 7a 71 40 4c 97 66 40
       3.6161942 -3.530529 3.7730963 3.6029844
0000c0 bd 50 6e c0 54 9f 64 c0 b5 cf 70 c0 d8 ac 6f 40
       -3.7236779 -3.5722246 -3.7626774 3.7449245
0000d0 d0 f6 69 c0 4e fd 6a 40 41 c1 62 40 2c 6b 70 c0
       -3.6556892 3.6717105 3.5430453 -3.7565413
0000e0 94 02 63 c0 da 00 65 c0 17 69 6a 40 04 98 64 40
       -3.5470324 -3.578177 3.6626642 3.5717783
0000f0 0d 6e 68 40 2c fd 68 c0 76 0f 6e 40 5c f1 67 40
       3.631717 -3.6404524 3.7196937 3.6241064
000100 70 ca 6e c0 45 ea 6b c0 36 5c 68 c0 30 24 62 c0
       -3.7311058 -3.6861737 -3.630628 -3.5334587
000110 b6 54 64 40 fe d5 6c c0 cc ff 5f c0 9f e7 60 c0
       3.5676703 -3.700561 -3.4999876 -3.514137
000120 74 8c 6a 40 e8 c2 6e c0 88 2c 67 40 16 33 60 40
       3.6648226 -3.7306461 3.612093 3.503118
000130 22 13 6a c0 a3 d6 62 40 d0 23 6a c0 64 0d 6d c0
       -3.6574178 3.5443504 -3.6584358 -3.7039423
000140 c0 2e 66 40 e6 16 6f c0 da 30 6e c0 8c 29 65 c0
       3.5966034 -3.7357726 -3.7217317 -3.5806608
000150 7c c9 6c 40 2c b8 6a 40 ef 65 67 c0 18 e8 65 c0
       3.6997976 3.667491 -3.6155965 -3.5922909
000160 2a db 6a 40 3c ab 6a 40 dc 17 60 40 a6 b7 6e c0
       3.6696267 3.6667013 3.5014563 -3.729959
000170 1a 65 64 c0 a7 7b 72 c0 e7 83 60 40 ce 05 6a 40
       -3.5686707 -3.7887971 3.5080507 3.6566043
000180 a0 85 6c c0 22 91 67 40 27 78 64 40 13 eb 61 c0
       -3.6956558 3.6182332 3.5698335 -3.5299728
000190 39 db 5f c0 f8 72 6b 40 52 9a 67 40 2c cf 63 40
       -3.4977553 3.6788921 3.618794 3.5595198
0001a0 24 09 6d c0 e0 a2 63 40 1d 06 6d 40 66 25 70 40
       -3.703683 3.556816 3.7034981 3.7522826
0001b0 ba a6 64 40 46 53 6e 40 34 51 70 c0 5a a5 62 40
       3.5726762 3.7238326 -3.7549562 3.5413423
0001c0 1c 47 6b 40 de 74 62 c0 9a 34 60 c0 4c 3c 65 c0
       3.6762152 -3.538383 -3.5032105 -3.5818052
0001d0 fd 4e 72 40 75 cc 5f c0 31 85 61 c0 b7 c0 6e 40
       3.786071 -3.496854 -3.5237544 3.7305124
0001e0 0f 5e 68 c0 56 03 6d c0 f1 00 6e c0 ec e9 64 40
       -3.630741 -3.7033286 -3.7188075 3.5767775
0001f0 65 99 6f 40 e8 90 66 40 d0 d4 6f c0 a0 ce 6b 40
       3.7437375 3.6025944 -3.747364 3.6844864
000200 cd da 65 40 7d 78 67 c0 1c 38 6d c0 c0 ec 6f 40
       3.5914795 -3.616729 -3.7065496 3.748825
000210 f4 c3 68 c0 c8 f7 68 c0 35 b8 6d 40 00 70 63 c0
       -3.63696 -3.6401234 3.714368 -3.553711
000220 f0 55 6a 40 96 de 60 40 fe 90 6d c0 b8 d4 71 c0
       3.6614952 3.5135856 -3.7119746 -3.7786083
000230 9a d2 71 c0 fb be 61 40 02 46 68 c0 6b b1 70 40
       -3.778479 3.5272815 -3.629273 3.7608287
000240 ac 71 62 c0 42 ff 71 c0 a2 79 61 c0 d3 69 67 c0
       -3.538188 -3.7812047 -3.5230489 -3.615834
000250 3e 4c 6e 40 6c c5 6b 40 06 03 62 40 c6 81 60 c0
       3.7234035 3.6839247 3.5314345 -3.5079207
000260 61 12 71 40 4b c1 6d c0 ad c4 6d c0 d0 bb 6e c0
       3.7667468 -3.7149227 -3.7151291 -3.7302132
000270 6c 11 64 c0 5a c1 6f c0 3a ac 65 40 1e 08 6c c0
       -3.5635633 -3.7461762 3.5886369 -3.6879954
000280 61 7e 66 c0 b6 c2 62 c0 ea ac 67 40 f7 f6 60 c0
       -3.6014636 -3.5431342 3.6199288 -3.5150735
000290 eb 9e 62 40 be 19 66 40 2c 8c 68 c0 49 dd 61 40
       3.5409496 3.5953212 -3.6335554 3.5291312
0002a0 bc 27 60 c0 de d8 60 c0 68 b9 70 40 27 a7 6e c0
       -3.5024252 -3.5132365 3.7613163 -3.7289522
0002b0 2e 36 63 c0 5a 30 69 c0 ce 59 64 40 c6 d2 63 40
       -3.5501819 -3.6435761 3.5679812 3.5597396
0002c0 fa fb 6d c0 8e a5 6a c0 b5 ac 67 40 f2 30 72 40
       -3.7185044 -3.6663547 3.6199162 3.7842374

price_encoder.encoder.bias_hh_l0 f4 [180]
000000 be 1e 63 c0 98 1f 72 40 26 81 70 40 e2 27 61 c0
       -3.5487514 3.7831783 3.7578826 -3.5180593
000010 1a 9c 6d c0 52 a4 67 c0 5a 52 60 40 9a df 70 c0
       -3.7126527 -3.6194043 3.5050263 -3.7636476
000020 86 2a 67 40 26 e7 64 c0 0b ff 65 c0 aa 88 61 c0
       3.6119704 -3.5766082 -3.5936916 -3.5239663
000030 40 f9 66 c0 c8 bd 65 40 d4 23 6e 40 34 bf 61 40
       -3.608963 3.5897083 3.7209368 3.527295
000040 9b 57 6f c0 25 3b 64 40 24 b2 6c c0 83 fa 60 c0
       -3.739722 3.56611 -3.6983728 -3.51529
000050 7f ae 6e c0 b6 ed 6a c0 84 36 67 c0 d3 f6 67 40
       -3.7294004 -3.6707587 -3.6127024 3.62444
000060 f2 93 6b c0 c6 15 6a c0 03 c1 68 c0 51 a6 60 40
       -3.6809049 -3.657579 -3.6367805 3.5101511
000070 a0 62 67 c0 06 99 6a 40 a0 7a 64 40 c2 cd 70 c0
       -3.6153946 3.6655898 3.5699844 -3.7625585
000080 f0 e2 6f 40 d8 47 68 c0 48 7b 6e c0 de 5d 6a 40
       3.7482262 -3.629385 -3.7262745 3.6619792
000090 b2 9a 5f c0 14 cc 67 c0 42 67 65 c0 cf f4 6c 40
       -3.4938169 -3.621831 -3.5844274 3.702442
0000a0 b8 21 62 40 20 43 5f 40 76 d1 6a c0 c9 c1 60 40
       3.533308 3.488472 -3.6690345 3.5118277
0000b0 76 f0 5f 40 fa 1a 6e c0 11 d0 5f 40 9e d6 60 40
       3.4990516 -3.7203965 3.4970744 3.5130992
0000c0 6f c0 69 c0 9c a9 6b c0 73 49 6a c0 a0 fb 6a 40
       -3.6523702 -3.6822271 -3.660733 3.671608
0000d0 6a 16 67 c0 5e fc 65 40 e9 e8 61 40 ce 04 69 c0
       -3.610743 3.5935283 3.5298407 -3.6409183
0000e0 7e 29 6b c0 68 23 6a c0 4b 1f 6a 40 f0 c2 6f 40
       -3.6744075 -3.658411 3.65816 3.746273
0000f0 df 06 63 40 c6 be 66 c0 52 bd 68 40 f6 f3 6e 40
       3.5472944 -3.605394 3.6365552 3.7336402
000100 9c 1f 67 c0 1f 99 70 c0 02 40 6c c0 f4 2c 6b c0
       -3.6113043 -3.7593458 -3.6914067 -3.6746187
000110 6e 45 64 40 d4 c5 6b c0 a8 4c 64 c0 85 54 72 c0
       3.5667377 -3.6839495 -3.5671787 -3.7864087
000120 06 16 60 40 f8 e6 63 c0 a6 9e 6b 40 e8 ba 6e 40
       3.5013442 -3.5609722 3.6815581 3.7301579
000130 5a 6d 67 c0 61 4d 61 40 e0 6c 66 c0 6c 76 60 c0
       -3.6160493 3.5203478 -3.6003952 -3.507228
000140 dc 0c 62 40 12 cd 6d c0 e4 67 6a c0 6c d1 67 c0
       3.5320349 -3.7156415 -3.662591 -3.622157
000150 44 d1 70 40 48 92 6c 40 05 28 6e c0 7e 35 6e c0
       3.7627726 3.6964283 -3.7211926 -3.722015
000160 74 c2 65 40 98 b0 6f 40 40 da 6a 40 0a ba 70 c0
       3.5899935 3.7451534 3.669571 -3.761355
000170 7c c0 6d c0 85 a2 61 c0 39 ac 6a 40 f2 95 70 40
       -3.7148733 -3.5255444 3.6667616 3.759152
000180 4e bf 67 c0 84 3f 6c 40 b9 a9 6d 40 b1 f1 6d c0
       -3.6210513 3.6913767 3.713484 -3.7178767
000190 fb d0 6e c0 4c e4 62 40 8e d5 67 40 d2 15 6a 40
       -3.7315052 3.5451841 3.6224093 3.6575818
0001a0 32 20 68 c0 d2 35 62 40 fb 06 62 40 24 65 6f 40
       -3.626965 3.534535 3.531676 3.7405481
0001b0 d6 e7 5f 40 2a ae 6b 40 04 32 67 c0 9c 7c 68 40
       3.4985251 3.6825051 -3.6124277 3.6326056
0001c0 8a 00 65 40 b4 77 64 c0 e8 17 6e c0 10 dc 63 c0
       3.578158 -3.569806 -3.7202091 -3.5603065
0001d0 91 d5 61 40 e3 fb 6a c0 c9 2e 68 c0 0f 86 6d 40
       3.52866 -3.671624 -3.6278555 3.7113073
0001e0 f7 ac 61 c0 12 c5 60 c0 1b 6b 66 c0 56 0b 65 40
       -3.526182 -3.5120282 -3.6002872 3.578817
0001f0 d3 a0 62 40 8e 82 69 40 00 c6 69 c0 0c f3 60 40
       3.541066 3.6485934 -3.65271 3.5148344
000200 51 58 60 40 a5 87 6a c0 4e ae 66 c0 ec ee 6d 40
       3.5053904 -3.664529 -3.6043887 3.7177076
000210 16 93 69 c0 94 ad 6f c0 c3 3e 6e 40 e6 d1 71 c0
       -3.6496024 -3.7449694 3.7225807 -3.7784362
000220 bc 1d 6e 40 4e 3d 70 40 ae 1f 72 c0 34 54 64 c0
       3.7205648 3.7537417 -3.7831836 -3.5676394
000230 1a cf 64 c0 0b 95 63 40 b4 e9 60 c0 5b 0c 6e 40
       -3.5751405 3.5559719 -3.514264 3.719504
000240 5c c1 71 c0 9e 7a 6b c0 0c de 65 c0 55 2c 71 c0
       -3.7774267 -3.679359 -3.5916777 -3.7683308
000250 9a d2 60 40 a2 7b 67 40 82 9f 61 40 04 39 67 c0
       3.512854 3.616921 3.5253606 -3.612855
000260 79 fe 63 40 cb e6 6b c0 d5 a2 61 c0 58 3d 61 c0
       3.5624068 -3.6859615 -3.5255635 -3.5193691
000270 86 b1 61 c0 78 20 66 c0 2e b5 71 40 72 ce 60 c0
       -3.5264602 -3.5957317 3.7766833 -3.5126004
000280 e5 8e 6e c0 b8 68 66 c0 2e ae 67 40 21 17 6f c0
       -3.7274716 -3.6001415 3.620006 -3.7357867
000290 69 12 65 40 ba 31 67 40 c0 cb 6f c0 a9 2a 69 40
       3.5792487 3.61241 -3.746811 3.6432288
0002a0 84 96 6d c0 24 ce 70 c0 da d1 65 40 87 94 62 c0
       -3.7123117 -3.7625818 3.5909333 -3.5403154
0002b0 a4 5f 71 c0 5c 41 71 c0 6e e5 6c 40 30 29 64 40
       -3.7714624 -3.7696142 3.7015033 3.565014
0002c0 9c fc 6b c0 62 11 6e c0 5b ce 6d 40 a0 02 6a 40
       -3.687293 -3.719811 3.71572 3.6564102

atten_layer.0.weight f4 [45, 135]
000000 c0 52 bc bb 40 cb d3 3b 10 c0 bf bc 58 49 8d bc
       -0.0057471693 0.0064634383 -0.023407012 -0.017246887
000010 67 17 ab 3d 36 22 4b 3d d9 b8 42 bd 3d 6c 05 bd
       0.08354073 0.049593173 -0.047539566 -0.032573927
000020 f6 50 52 3d 2b 99 a3 3d 5c cd c8 3c 1d 5d 97 3d
       0.05134674 0.07988199 0.024511985 0.07390807
000030 3c a7 90 bc 4e 36 5b 3d 80 fe 68 ba 8d ca 01 bd
       -0.017657869 0.053518586 -0.0008888021 -0.031687308
000040 14 e6 bf bc c4 5c dd 3c 8e 32 37 3d c0 81 32 3b
       -0.02342514 0.027021773 0.044725947 0.0027237982
000050 58 d2 8d bc fa 02 fc bc 80 87 31 bb 39 f2 af 3d
       -0.017312214 -0.030763138 -0.002708882 0.08591122
000060 f8 00 dc 3c ca 41 a9 bd f0 4b 9f bc 80 1b 05 3d
       0.02685593 -0.082645014 -0.01944539 0.03249693
000070 07 82 a8 bd 12 a7 63 3d 64 7b 6a bd 89 eb 90 bd
       -0.08227926 0.055579253 -0.05724658 -0.07076175
000080 6c 25 2f bd 20 a2 40 3b de 57 81 bd d0 87 d5 bb
       -0.042760298 0.002939351 -0.063155875 -0.0065164343
000090 b8 1c 79 bd 50 e5 3f bc 30 cc a8 bd 23 7b 07 bd
       -0.060818404 -0.011712387 -0.08242071 -0.033076417
0000a0 60 33 80 bb 19 d4 a5 3d b1 46 af bd 60 66 03 bc
       -0.0039123744 0.08097095 -0.08558405 -0.008020014
0000b0 00 c0 77 b8 23 39 9c bd 1f 54 3b bd de 2a 28 3d
       -5.9068203e-05 -0.076280855 -0.04573452 0.041056506
0000c0 a2 43 6a 3d 77 0b 85 3d 0b b3 9d 3d bd f9 a3 3d
       0.057193406 0.06496327 0.07700165 0.08006618
0000d0 f0 54 96 bc 86 4a 8a bd 39 e6 97 bd ea f6 2c bd
       -0.018351048 -0.067524955 -0.07416958 -0.042227663
0000e0 e0 49 4f bd 2c 1a e9 3c 59 0e 35 bd 6f 67 88 3d
       -0.050607562 0.028454863 -0.044203136 0.066603534
0000f0 9b 5c 38 bd 7b d2 8c 3d 12 c1 51 3d ef 27 96 3d
       -0.04501019 0.068760835 0.051209517 0.073318355
000100 3f 0c 94 bd a9 35 a5 3d 40 89 c3 ba eb 93 97 3d
       -0.07228898 0.080668755 -0.0014918223 0.0740126
000110 32 5d 42 3d 88 06 81 bd ea e3 91 bd 0b 99 ae 3d
       0.04745216 -0.06300074 -0.07123549 0.085252844
000120 78 ae b2 bc a0 fc 7b bc 80 9d ea ba 31 35 7e bd
       -0.021811709 -0.015380055 -0.0017899722 -0.062062446
000130 20 55 65 bc fe d8 28 3d e0 a0 6c bb 46 42 a3 bd
       -0.013997346 0.041222565 -0.003610663 -0.07971625
000140 08 85 1e 3d 69 81 84 3d ff 6e 0d bd 6b 21 90 bd
       0.038701087 0.064699955 -0.034529682 -0.07037624
000150 6f 9a 9b 3d f2 79 34 3d 79 1f 9a 3d 00 b4 10 3b
       0.07597815 0.04406161 0.07525534 0.0022079945
000160 1d 00 32 bd 5d 1f 9b 3d 96 7a 6c c0 e9 ca 80 c0
       -0.04345714 0.075743414 -3.694982 -4.0247693
000170 7f a6 8d c0 72 d5 6c c0 6e 41 69 40 9a 7c 6c c0
       -4.426574 -3.7005277 3.6446185 -3.695105
000180 d2 a3 6e c0 43 f1 8d 40 78 83 68 40 7c 4a 66 40
       -3.7287488 4.435701 3.6330242 3.5982962
000190 7e c3 68 c0 e0 e2 61 c0 be cb 66 c0 44 b5 6c 40
       -3.636932 -3.5294724 -3.6061854 3.6985636
0001a0 27 b1 6a c0 57 40 63 c0 50 01 67 c0 da f9 68 40
       -3.6670625 -3.550802 -3.609455 3.6402497
0001b0 0a ea 6a 40 10 6a 40 c0 83 6b 86 c0 da 23 8f 40
       3.6705346 -3.0064735 -4.200624 4.4731264
0001c0 0d 93 8a 40 33 ab 42 40 0c f9 6e c0 bf 69 36 40
       4.3304505 3.0416992 -3.7339506 2.8502042
0001d0 e3 c6 83 40 4a ca 68 40 21 4f 8d c0 b0 a2 8d 40
       4.118028 3.6373467 -4.4159093 4.4261093
0001e0 e8 bd 68 40 2d 10 6d c0 50 3d 66 40 a9 d3 6a c0
       3.636591 -3.7041123 3.5974922 -3.6691687
0001f0 4a e8 63 c0 24 51 64 c0 86 83 67 40 50 6e 67 c0
       -3.5610528 -3.5674524 3.6174026 -3.616108
000200 fc 3b 6f 40 8a 26 68 40 ae ee 40 c0 49 7e 85 40
       3.7380362 3.6273522 -3.0145679 4.1716657
000210 09 b1 91 c0 d2 a6 71 c0 ab 24 8a 40 ca c1 8a bd
       -4.5528607 -3.775807 4.316976 -0.067752436
000220 c5 94 99 3d f8 e9 51 bd b9 2b 8e bd 4c 7a ee 3c
       0.07499079 -0.05124852 -0.06941933 0.02911105
000230 c0 8e 3e 3b 0e 6a 35 3d 80 f2 51 3c 4c 23 c9 bc
       0.0029076785 0.044290595 0.012814164 -0.024552964
000240 7a 9d 04 3d ea cb a2 bd d3 35 12 bd 7e 44 71 3d
       0.032376744 -0.0794905 -0.035695862 0.05890321
000250 16 db 3f 3d fb 86 2b bd 1d e2 a8 3d 62 f4 5f 3d
       0.046839796 -0.041876774 0.08246253 0.05467642
000260 8e 12 2b 3d 38 15 7c bd 81 a6 51 bd fa f9 92 bd
       0.041765742 -0.061543673 -0.05118418 -0.071765855
000270 a0 f9 4d bd 1e 36 01 3d 99 b2 87 3d fd 37 94 3d
       -0.05028689 0.03154575 0.06625862 0.072372414
000280 60 26 42 bb f0 bb 11 3c ae d4 f3 bc e8 f6 82 bd
       -0.0029624924 0.008894905 -0.0297645 -0.0639475
000290 60 41 f8 3c 58 aa cc bc cc db 18 bd 48 b0 f5 bc
       0.03030461 -0.02498357 -0.03731899 -0.029991284
0002a0 44 ae 8a bd 1c 96 54 bd 1e b9 05 bd 50 8c af bc
       -0.0677152 -0.051900968 -0.032647245 -0.02142921
0002b0 9c b1 a7 bc 1f 3c a3 3d 28 59 ab bc 7a eb 2f 3d
       -0.020470433 0.079704516 -0.020916536 0.042949177
0002c0 6c d8 87 bc 77 85 9f 3d e0 bf bb bc e6 79 54 3d
       -0.01658269 0.07789128 -0.022918642 0.051874064
0002d0 ea ed 7b 3d 50 39 c6 bc 24 5c f1 3c a4 24 45 bd
       0.06150619 -0.02419725 0.029462881 -0.048130646
0002e0 b2 de 12 bd 9e 89 47 3d ea 1f 3b 3d b4 8a 91 3c
       -0.03585691 0.048715226 0.045684732 0.017766334
0002f0 c1 25 93 3d 79 7c 42 bd a8 c9 4e 3c 75 13 8d bd
       0.07184935 -0.047481988 0.012621321 -0.06888477
000300 52 da ad bd 10 d1 5b bd 3f 69 af 3d 4e 3f 51 3d
       -0.08488907 -0.053666174 0.08564996 0.051085763
000310 69 68 80 3d 3a 40 7a 3d 10 c7 33 bc 20 0d 79 3c
       0.06269915 0.061096407 -0.010972753 0.015200883
000320 ea 2c c5 bc 37 5f 49 bd a2 c8 10 bd 43 1c 4d bd
       -0.024069268 -0.04916307 -0.03534759 -0.05007578
000330 ce 6e 27 3d f0 15 24 bd bc d8 9e bc 35 02 a9 3d
       0.040877156 -0.040059984 -0.019390456 0.08252374
000340 9a a9 14 3d f8 0e 7c 3c dc 5c 84 bc 0d 30 87 3d
       0.036294557 0.015384428 -0.01615756 0.06600962
000350 30 52 af 3b 60 5a 3f 3b 60 fe 3a bd e9 9e 8f bd
       0.0053503737 0.0029198155 -0.045652747 -0.070127316
000360 42 aa 7e 3d f3 92 43 bd a9 8c 9b bd 92 cc 9f bd
       0.06217409 -0.047747564 -0.07595188 -0.078026906
000370 2c d2 9e 3c d8 3d aa bd 26 18 91 bd 10 7c ae 3c
       0.019387327 -0.08312577 -0.07084684 0.021299392
000380 da e3 26 3d 7c 05 7a c0 d8 0e 83 40 d6 37 88 40
       0.04074464 -3.9065847 4.095562 4.256816
000390 b4 01 66 c0 60 80 65 40 d0 ad 67 40 72 9f 64 40
       -3.593854 3.5859604 3.6199837 3.5722318
0003a0 16 4a 75 c0 45 22 72 40 ac d0 6c 40 5e cc 66 c0
       -3.8326468 3.7833416 3.7002363 -3.6062236
0003b0 5a 67 5b c0 5a c0 6b c0 25 a7 64 40 63 8e 6c c0
       -3.428183 -3.6836152 3.5727017 -3.6961906
0003c0 64 32 5c c0 50 b8 69 40 92 5f 68 40 57 d6 66 40
       -3.4405756 3.6518745 3.6308331 3.6068323
0003d0 af 33 80 c0 86 52 7a 40 6a 48 76 c0 49 c2 84 c0
       -4.006309 3.9112868 -3.8481698 -4.1487164
0003e0 36 c5 83 40 20 ef 68 c0 b7 35 81 40 1f 8d 77 c0
       4.1178236 -3.639595 4.037807 -3.8679883
0003f0 d6 d3 6d 40 7f d4 81 40 e0 6d 7a c0 9a 9e 69 40
       3.7160544 4.0571895 -3.9129562 3.6503053

atten_layer.0.bias f4 [45]
000000 70 0b 54 40 72 e9 6d 40 76 c9 5e 40 7d b7 68 c0
       3.313198 3.7173734 3.4810462 -3.6361992
000010 00 c4 65 c0 48 2e 6b c0 c5 c0 6f c0 29 06 66 40
       -3.590088 -3.6746998 -3.7461407 3.594126
000020 4e db 69 c0 ca e4 67 40 d8 c6 61 c0 3f 5b 6c c0
       -3.6540103 3.6233392 -3.5277615 -3.6930692
000030 ee 36 6b 40 ab a3 63 c0 68 c0 5e c0 4e f6 6c 40
       3.6752276 -3.5568645 -3.4804935 3.7025332
000040 6e 85 62 c0 75 bb 6d c0 fc ad 5f c0 de ff 62 c0
       -3.539394 -3.7145665 -3.4949942 -3.546867
000050 87 5b 6b c0 b4 cd 70 40 21 5a 64 40 aa 76 6b 40
       -3.6774614 3.7625551 3.568001 3.6791177
000060 34 a3 70 c0 0a 25 6c c0 46 d6 68 c0 5c 32 69 c0
       -3.7599611 -3.6897607 -3.6380782 -3.6436987
000070 06 b3 61 c0 ac 39 72 c0 f0 d7 64 40 92 aa 6a 40
       -3.5265517 -3.78477 3.5756798 3.6666608
000080 d8 98 6a 40 17 cc 6a 40 72 37 65 c0 d2 37 6f c0
       3.6655788 3.6687067 -3.581509 -3.737782
000090 1f 4e 6c 40 20 32 65 40 34 f6 70 c0 4a 40 65 40
       3.6922681 3.5811844 -3.765027 3.582049
0000a0 7a 08 60 c0 30 08 6b c0 13 f4 6a 40 21 0a 6c 40
       -3.5005174 -3.6723747 3.671147 3.6881182
0000b0 ec 81 60 c0
       -3.5079298

atten_layer.2.weight f4 [1, 45]
000000 b5 54 e9 3f c6 44 b3 c0 bc 7d 3d 40 32 95 02 c0
       1.8228976 -5.602145 2.9607992 -2.0403562
000010 c2 e6 1a c0 31 0d 00 c0 7e 73 30 c0 86 51 8f c0
       -2.4203343 -2.0008051 -2.757049 -4.4787016
000020 5e ba 0d c0 f5 87 13 40 1d 35 b3 bf f8 16 8d 40
       -2.2145 2.3051732 -1.4000584 4.409054
000030 3d 40 96 c0 f1 db 17 c0 2a 0b ca 40 da 35 39 40
       -4.6953416 -2.3727992 6.313863 2.8939118
000040 8e d1 a9 40 49 c9 95 40 cd 27 de bf 00 9a eb bf
       5.3068304 4.680821 -1.7355896 -1.8406372
000050 50 f2 86 40 9b e9 65 40 8e 66 5e 40 86 c0 5e 40
       4.217079 3.5923831 3.4750094 3.4805007
000060 fa 3b 7e 40 15 2a a3 40 32 93 51 c0 bf cc 39 c0
       3.9724107 5.098887 -3.274609 -2.9031217
000070 7e e2 b9 40 36 e2 7a 40 ca c0 5a 40 50 a4 9e c0
       5.808898 3.9200568 3.418017 -4.9575577
000080 16 62 37 40 5b f1 75 c0 aa fa 99 40 6e dc 43 c0
       2.8653617 -3.8428562 4.8118486 -3.060329
000090 be 0d 87 c0 87 03 8f c0 bc 9d 8c 40 0e 3d a0 c0
       -4.2204275 -4.4691806 4.3942547 -5.007453
0000a0 45 4f f4 bf 17 07 81 40 34 17 a6 c0 88 b5 67 40
       -1.9086691 4.0321155 -5.1903324 3.6204548
0000b0 0f b8 ef bf
       -1.8728045

lstm.weight_ih_l0 f4 [180, 45]
000000 18 4b 58 40 ea 59 71 c0 ba 14 74 c0 cd b3 68 40
       3.3795834 -3.771113 -3.813765 3.6359742
000010 25 7b 71 c0 dd fe 68 40 5a fb 60 40 4c 12 72 40
       -3.7731411 3.6405556 3.5153413 3.7823668
000020 62 b6 5d c0 bf af 72 40 b4 dc 64 40 7c c4 6d 40
       -3.4642568 3.7919767 3.5759706 3.7151175
000030 8a 23 69 40 a6 b3 67 40 84 74 6b c0 de f4 72 40
       3.6427941 3.6203399 -3.6789865 3.7961955
000040 08 d0 64 c0 72 65 73 c0 ec c1 67 c0 ba 4d 76 40
       -3.5751972 -3.8030667 -3.621211 3.848494
000050 90 62 77 c0 09 15 81 40 24 fd 74 40 f7 d1 69 c0
       -3.8653908 4.033818 3.8279505 -3.6534402
000060 7e 9c 41 40 59 d2 78 c0 e0 e4 76 40 44 fe 69 c0
       3.0251765 -3.8878386 3.8577194 -3.6561441
000070 3e 75 7b c0 6a 7d 71 40 e6 62 67 c0 18 d1 70 c0
       -3.929031 3.7732797 -3.6154113 -3.762762
000080 87 d1 66 c0 80 86 6e 40 ea f7 70 40 78 34 71 c0
       -3.6065385 3.7269592 3.7651315 -3.7688274
000090 00 24 6a c0 d8 21 67 40 06 15 69 40 70 07 70 c0
       -3.6584473 3.6114407 3.6419082 -3.750454
0000a0 3e 74 6a c0 1c 9e 76 40 8e 46 78 c0 ed eb 6f c0
       -3.6633449 3.8534002 -3.8793063 -3.7487748
0000b0 2b f7 79 40 fe da 72 40 1e f0 7d c0 68 18 73 c0
       3.905711 3.7946162 -3.9677806 -3.7983646
0000c0 c1 02 71 40 43 76 6d 40 86 59 6c 40 00 9e 6c 40
       3.765793 3.7103431 3.692964 3.6971436
0000d0 90 73 6d 40 24 45 65 c0 82 79 66 40 c0 ee 65 40
       3.7101784 -3.582345 3.6011662 3.5926971
0000e0 87 72 63 c0 a2 31 6a 40 ae 5c 62 c0 84 41 65 c0
       -3.5538652 3.6592793 -3.5369067 -3.5821238
0000f0 9d 64 62 40 74 35 6a c0 ca 9f 61 c0 a0 33 64 c0
       3.537391 -3.6595125 -3.5253778 -3.565651
000100 e9 2f 76 40 34 ee 77 c0 8a 56 6c 40 56 f0 7e 40
       3.8466742 -3.8739138 3.692782 3.983419
000110 86 b4 70 c0 6d 7d 06 c0 93 45 75 c0 73 14 75 40
       -3.7610183 -2.1014054 -3.8323715 3.8293731
000120 e2 da 60 c0 4c b0 79 c0 5c d2 72 40 7b 49 67 c0
       -3.5133595 -3.9013853 3.7940893 -3.61386
000130 76 09 70 c0 ba 12 73 c0 07 d5 66 40 ba 09 64 40
       -3.7505774 -3.798018 3.6067522 3.5630937
000140 ea 11 6a c0 16 79 6a c0 2e 41 6c 40 11 00 6f 40
       -3.6573434 -3.6636405 3.6914783 3.734379
000150 48 69 60 c0 d9 93 6a c0 20 a5 75 40 7c 25 6b c0
       -3.5064259 -3.665274 3.8382034 -3.6741629
000160 84 14 58 c0 54 f1 77 40 16 a5 62 c0 47 97 78 c0
       -3.3762522 3.8741045 -3.541326 -3.8842332
000170 d8 3a 78 c0 2e d9 64 40 5c b6 6a c0 be 40 68 40
       -3.8785915 3.5757556 -3.6673803 3.6289515
000180 aa 80 6a c0 ef aa 77 40 ff bc 71 c0 c6 48 6e c0
       -3.664103 3.869808 -3.7771604 -3.7231917
000190 ea c7 67 40 48 4b 18 c0 a6 96 6d c0 7e 48 6f 40
       3.6215768 -2.3795948 -3.7123199 3.7387996
0001a0 b8 ac 63 40 bb c1 62 40 be 02 6e 40 8c 09 64 40
       3.557417 3.5430744 3.7189174 3.5630827
0001b0 ba 39 65 c0 36 b0 76 40 d4 94 75 c0 93 11 6e 40
       -3.5816483 3.854505 -3.8372087 3.7198226
0001c0 86 eb 6b 40 aa cd 6f c0 a9 e7 92 bf e6 95 6d c0
       3.6862502 -3.7469277 -1.1476947 -3.712274
0001d0 85 3c 7e 40 8e 35 68 c0 60 28 76 c0 31 ea 73 40
       3.9724438 -3.6282687 -3.8462143 3.811169
0001e0 db 59 72 40 d0 91 61 40 56 17 6b c0 43 33 72 40
       3.7867343 3.5245247 -3.6732993 3.7843788
0001f0 b0 5e 66 40 a8 e0 6b 40 60 71 72 40 36 7c 70 40
       3.5995293 3.685587 3.7881699 3.7575812
000200 95 cb 60 c0 0c 92 6b c0 86 e8 67 40 7e e8 71 40
       -3.5124257 -3.680789 3.623567 3.7798152
000210 cc 6b 79 c0 d2 63 66 40 24 ae 6c 40 9b 70 74 40
       -3.8972044 3.5998425 3.6981287 3.819373
000220 9d b9 7b c0 a0 0e 78 c0 37 ab 70 40 fe b4 65 c0
       -3.933204 -3.8758926 3.7604501 -3.589172
000230 cb 5e 63 40 b3 9a 72 40 00 ca 7d 40 3f 9e 64 c0
       3.5526607 3.790692 3.965454 -3.5721586
000240 88 7b 64 c0 62 9d 71 40 4e e1 5c c0 c1 43 60 40
       -3.5700397 3.775231 -3.4512515 3.5041354
000250 be 30 6e 40 67 fe 6e 40 05 ec 6d 40 1a 41 69 40
       3.721725 3.7342775 3.7175305 3.6445985
000260 66 3f 61 c0 14 08 6a c0 1c ea 81 40 48 d2 72 c0
       -3.5194945 -3.656743 4.059828 -3.7940845
000270 ed de 6f 40 9e 5a 7d 40 de 30 81 c0 94 48 0e 40
       3.7479813 3.9586558 -4.037215 2.2231798
000280 10 d2 79 c0 7c 21 79 40 ea 37 64 c0 98 dd 80 c0
       -3.9034462 3.8926687 -3.5659127 -4.02705
000290 aa 47 7b 40 60 ef 64 c0 1d e6 73 40 5d 77 63 c0
       3.926249 -3.5771103 3.81092 -3.5541604
0002a0 7c 29 63 40 ea 9e 6c 40 9f 2d 6e c0 cf 02 62 c0
       3.549407 3.6971993 -3.7215345 -3.5314214
0002b0 7b b8 5f 40 56 b1 64 c0 fc 97 65 c0 ca d2 6c 40
       3.4956348 -3.5733237 -3.5874014 3.7003655
0002c0 5d 42 73 40 db f1 70 c0 02 69 66 40 4a ad 72 40
       3.8009255 -3.7647617 3.6001592 3.7918267
0002d0 7a af 67 40 22 a0 79 c0 7f 72 83 c0 27 a9 64 40
       3.6200852 -3.9003987 -4.1077266 3.5728242
0002e0 6c 9c 5d 40 b0 06 6e 40 bc ff 68 40 7b c1 76 40
       3.4626722 3.7191582 3.6406088 3.855559
0002f0 10 dc 71 c0 1f 88 71 c0 54 5a 66 40 04 ba 6b c0
       -3.7790565 -3.7739332 3.5992632 -3.6832285
000300 c2 c9 62 40 d2 47 59 c0 e8 01 74 40 66 22 6f 40
       3.5435643 -3.3950086 3.8126163 3.7364745
000310 54 31 68 40 ac 55 66 c0 52 da 60 c0 81 04 80 40
       3.6280107 -3.598979 -3.5133252 4.00055
000320 6f 2b 82 c0 4d 29 72 40 f2 32 79 40 c8 fa 80 c0
       -4.067802 3.7837708 3.8937345 -4.030613
000330 46 c4 4f 40 a3 44 82 c0 f3 bf 7d 40 3c 4f 64 c0
       3.2463546 -4.0708785 3.9648407 -3.567336
000340 90 66 74 c0 ce 57 78 40 f5 ff 68 c0 2a 66 69 40
       -3.81876 3.8803592 -3.6406224 3.6468606
000350 f6 90 6b c0 4d 06 70 40 06 b1 70 40 32 91 64 c0
       -3.6807227 3.7503846 3.7608047 -3.571362
000360 58 00 64 c0 fe ef 6d 40 8a a4 5f c0 74 58 6d c0
       -3.562521 3.717773 -3.4944177 -3.7085238
000370 34 c0 70 c0 6a cb 7f 40 06 9b 76 c0 4f 2f 72 40
       -3.7617311 3.9967904 -3.8532119 3.7841375
000380 68 c5 74 40 0c 61 71 40 54 66 75 c0 40 a9 7e c0
       3.8245487 3.7715483 -3.8343706 -3.9790802
000390 ec 98 65 40 d6 60 70 c0 38 f9 67 40 8e df 60 40
       3.5874586 -3.7559104 3.624586 3.5136447
0003a0 30 5a 72 40 62 80 6d c0 fa 2c 73 c0 75 e0 68 40
       3.7867546 -3.7109609 -3.7996202 3.6386998
0003b0 4e 80 3f c0 f4 2d 68 40 5c a3 69 40 a0 b7 6b 40
       -2.992206 3.6278048 3.6505957 3.6830826
0003c0 db ed 6c 40 29 28 65 40 17 2d 70 c0 c8 17 6d c0
       3.7020175 3.5805762 -3.752752 -3.7045765
0003d0 ca ea 70 40 cc 01 77 c0 fe 1a 6d 40 26 76 70 40
       3.7643304 -3.8594847 3.7047725 3.7572112
0003e0 e6 40 79 c0 90 21 e5 bf 04 88 7b c0 af 8b 6d 40
       -3.894586 -1.7900867 -3.9301767 3.7116506
0003f0 b0 68 71 c0 ec 65 79 c0 39 c7 7e 40 38 0f 6c c0
       -3.7720146 -3.8968458 3.9809096 -3.6884289

lstm.weight_hh_l0 f4 [180, 45]
000000 10 96 73 bc 4b 1e 10 3e 37 b5 15 be e0 ef 82 3b
       -0.014867321 0.14074056 -0.14619909 0.0039958805
000010 84 f7 14 be 31 a0 b9 bd 08 e3 1d 3d 22 2c cc 3d
       -0.14547545 -0.09063757 0.038546592 0.09969355
000020 40 ef c2 bc 95 e2 07 3e 0e 7f 8a 3d aa ec 09 be
       -0.023795724 0.13270028 0.06762515 -0.13469186
000030 30 24 18 bd e0 58 b9 bc 18 8d c2 bc cc 5f 80 3d
       -0.037143886 -0.022625387 -0.02374892 0.06268272
000040 6a c5 fb 3d 46 ea cf bd 5a 5f a9 bd 94 f1 b5 bd
       0.12293513 -0.10152106 -0.0827014 -0.08883968
000050 78 83 e3 3c 6c 35 75 3d e2 84 c8 bd 18 28 a5 3d
       0.02777265 0.0598654 -0.097909704 0.08064288
000060 2a 7d 86 3d 02 a6 34 bd a4 3a 38 bd e1 a7 0e be
       0.06566842 -0.04410363 -0.0449778 -0.13931228
000070 86 e5 c2 bd cc b7 2e 3d 60 07 6f 3d a9 91 06 3e
       -0.09516434 0.04265575 0.058356643 0.13141502
000080 46 57 0d bd 14 9d ce 3d 1c 78 a9 bd 49 f9 f3 bd
       -0.03450706 0.10088554 -0.08274862 -0.11912782
000090 2e aa 02 be 24 51 c9 3d 38 5b c0 bc c2 cd f6 3d
       -0.12760231 0.098299295 -0.023480996 0.12050964
0000a0 fc f2 5e bd 6d 13 18 3e 80 1e 81 3d dd 4f 8d bd
       -0.054430947 0.1485116 0.063046455 -0.06899998
0000b0 72 82 a5 3d 90 29 17 bd ac ba cb 3d e8 e5 b5 bc
       0.08081521 -0.03690487 0.09947714 -0.022204354
0000c0 01 58 17 3e ee d3 e3 3d 02 1b 0c be 60 60 0a 3d
       0.14779665 0.11124407 -0.13682178 0.033783317
0000d0 d0 ea 46 bc 70 f1 61 bd 64 35 9c 3d 48 dd dd bc
       -0.012140945 -0.055161893 0.07627371 -0.027083054
0000e0 a0 27 5f bd 18 27 cc bd 36 c3 f0 bd 6a 07 b7 3d
       -0.05448115 -0.09968394 -0.117559835 0.08936961
0000f0 86 85 c3 3d 18 ea 9f bc fc 42 bf 3d ea 87 82 bd
       0.09546952 -0.019520804 0.09338948 -0.0637358
000100 56 c5 f8 3d 9e 92 0d bd 26 cd 8b 3d c0 13 bd 3c
       0.12147014 -0.034563653 0.06826238 0.023080707
000110 cf 51 11 3e f8 df 93 bc ea 8e f3 bd 76 ea c5 bd
       0.14191364 -0.018051133 -0.11892493 -0.096638605
000120 c0 33 be bb a8 0c 0d bd 0c da c2 bd d6 19 de bd
       -0.005804509 -0.034435898 -0.095142454 -0.108447716
000130 f1 b8 09 be a4 c3 1d bd d6 de c6 3d 28 24 b2 3c
       -0.13449456 -0.038516656 0.09710471 0.021745756
000140 00 9b 4d 3b 4d 57 17 be c0 33 f2 3b 2c fd 10 be
       0.0031372905 -0.14779396 0.007391423 -0.14159077
000150 82 b6 ca bd 54 69 92 bd ff 04 07 be c0 01 86 bc
       -0.09898092 -0.07148996 -0.131855 -0.016358256
000160 c6 a7 9e 3d b2 a5 d1 bd 67 bd 16 be 22 b4 e8 bd
       0.07746844 -0.10236682 -0.14720689 -0.113624826
000170 10 27 5a 3c 8d 6b 17 3e da c4 f1 3d c5 5a 0c 3e
       0.013314977 0.14787121 0.118051246 0.13706501
000180 40 d8 54 3b fc 75 5d 3d 80 82 2b bd 88 ef ee bd
       0.0032477528 0.054067597 -0.0418725 -0.11666781
000190 a8 37 15 3d 84 91 99 3d 4e 29 e9 3d e0 84 b1 bd
       0.03643003 0.07498458 0.11384831 -0.08667922
0001a0 48 bb c5 3c fe ba f4 bd 22 78 08 be 16 fd 8a bd
       0.024137154 -0.119497284 -0.13327077 -0.067865536
0001b0 74 ef d8 bd e5 a5 e7 bd d0 2c 39 bc 95 f7 01 be
       -0.10592547 -0.11310939 -0.011302188 -0.12692101
0001c0 e0 4d f0 bd d2 56 d3 bd d3 fe ba bd b0 8a 1f 3c
       -0.117336035 -0.10319294 -0.09130635 0.0097376555
0001d0 28 e1 8e bc 2a 1d 80 3d 58 2f c0 bc 6c b4 71 3d
       -0.017441347 0.062555626 -0.023460075 0.059009954
0001e0 ba aa 0e bd b6 b6 99 3d b0 58 84 3d 1a 78 f5 3d
       -0.034830786 0.075055525 0.06462228 0.11985798
0001f0 a8 7c e6 3c 2a f8 e8 bd 64 d1 4a 3d 80 db 43 3c
       0.028135613 -0.113754585 0.049516097 0.011954188
000200 68 cb bc bd 0e d8 82 3d 9c 51 0f 3d 78 57 b3 bc
       -0.09218484 0.063888654 0.03498994 -0.021892294
000210 c6 2f dd bd da 40 21 bd ae c6 af bd a8 07 98 3c
       -0.10800128 -0.039368488 -0.08582817 0.018558338
000220 ea 49 8b bd 80 80 e6 bb d6 4c 03 bd d8 6c 30 3d
       -0.06801207 -0.0070343614 -0.0320557 0.04307255
000230 80 26 8c 3d f8 63 ee bc 14 a5 b5 3d 08 2f 04 be
       0.06843281 -0.029100403 0.08869377 -0.12908566
000240 0b 97 11 3e 83 68 11 3e d1 bc 02 3e 8a a2 af bd
       0.14217775 0.14200024 0.1276734 -0.08575924
000250 66 99 1f bd 50 db 12 3d b4 d0 fb bd fa f1 dc 3d
       -0.03896465 0.035853684 -0.12295666 0.10788341
000260 80 b7 c8 3b fd ac 00 3e e6 fd ff bd 16 92 25 bd
       0.0061253905 0.1256599 -0.12499599 -0.04042252
000270 f2 2f 08 be 48 fb 5d bd 18 21 cd 3c 00 76 64 bb
       -0.1329954 -0.05419472 0.025040194 -0.0034860373
000280 68 4f 7a 3d 2c 09 47 bd 30 31 34 bd 39 69 e8 bd
       0.061110884 -0.04859273 -0.04399222 -0.11348195
000290 ea aa 13 be 15 75 01 3e 81 6b d3 bd f9 db f8 bd
       -0.14420667 0.1264232 -0.10323239 -0.121513315
0002a0 88 f4 0e bd 00 32 5a bc 88 47 ea 3c 2e 43 db bd
       -0.034901172 -0.013317585 0.028598562 -0.10706173
0002b0 1d 07 e1 bd ef 07 02 be 7e 02 a1 3d 94 b8 8d 3d
       -0.10987685 -0.12698339 0.078618035 0.06919971
0002c0 40 7c 88 bd 00 88 15 3b b0 60 e4 bc 54 db 15 3d
       -0.06664324 0.0022816658 -0.027878135 0.03658612
0002d0 8c a6 c0 bd cd 37 9e bd 00 e4 f4 bc 62 48 17 bd
       -0.09406766 -0.07725487 -0.029893875 -0.036934264
0002e0 aa 52 a4 bd 94 d9 e3 bd 08 f1 9c bc fa d5 f1 bd
       -0.080235794 -0.11125484 -0.019157901 -0.11808391
0002f0 54 3c fa bc 29 57 01 3e 40 87 3a 3d 70 7e 59 3c
       -0.030546345 0.12630905 0.04553914 0.013274774
000300 60 8c 1c bd 0e 09 91 3d 50 93 54 3d 4e ef a6 3d
       -0.03821981 0.07081805 0.0518983 0.081511125
000310 c4 31 9e 3d d8 56 8a 3c 40 79 bd bc 76 89 fd bd
       0.07724336 0.016887113 -0.023129106 -0.12379734
000320 1e 2c df bd 46 a0 af 3d 78 1e e8 bc f0 85 07 3c
       -0.108970866 0.085754916 -0.028334841 0.008271679
000330 ec dd 06 be 18 c8 cb bd fb 6c a8 bd ce 30 de 3d
       -0.13170594 -0.09950274 -0.082239114 0.108491525
000340 ba 23 e6 3d ee 8a 2d bd c7 bd 8a bd 5a 0f d6 3d
       0.11237283 -0.04236882 -0.067744784 0.10452147
000350 9c e7 b0 3d 6a 6b b0 bd ee 35 e9 3d cc cb 6e 3d
       0.08637926 -0.086142376 0.113872394 0.058299825
000360 b0 04 64 3c 9e 79 8b bd bc 48 c7 3d c7 e8 ae bd
       0.013917133 -0.06810306 0.0973067 -0.085404925
000370 c0 23 ed bb 51 30 d9 bd 89 e0 14 be bf b2 8e bd
       -0.0072369277 -0.10604919 -0.14538778 -0.06967687
000380 f6 02 59 bd 80 a6 76 3d b8 df b5 3d cb b6 01 be
       -0.05298134 0.06021738 0.088805616 -0.12667386
000390 ae 31 ae 3d 0e 8e db bd af 97 0e 3e 7f d9 c1 bd
       0.085055694 -0.10720454 0.1392505 -0.09465312
0003a0 c4 17 0b 3d b0 d2 3f 3d 9e 9d 07 bd 7d 93 a8 bd
       0.03395821 0.046831787 -0.0331093 -0.08231256
0003b0 0d e5 0d 3e f1 48 17 3e 51 c9 04 3e a2 c7 58 bd
       0.13856907 0.14773919 0.12967421 -0.05292476
0003c0 80 5d 50 3c f2 1b b8 bd 00 c3 0f ba af 37 ec bd
       0.012717605 -0.08989705 -0.00054840744 -0.11534058
0003d0 b8 bf 48 bd 18 d3 65 3d 28 46 bc bd 16 5e b3 bd
       -0.049010962 0.056109518 -0.09193069 -0.0875818
0003e0 1a 8b e0 3d b0 f3 57 bd 14 c3 8e bd f6 a7 8f 3d
       0.109640315 -0.052722633 -0.06970802 0.07014458
0003f0 4a ee e3 bd 0a e6 04 bd 80 d1 02 3b 9a 9d f4 3d
       -0.111294344 -0.032445945 0.0019961298 0.119441226
