Ni_prediction/savemodel/bst_mod_281.pth (torch_old, 533443 bytes, 44 tensors)

price_encoder.attention.weight f4 [1, 121]
0	0x40819e84	4.0506
1	0x4082afc5	4.0839562
2	0x407fde9e	3.9979625
3	0xc082e379	-4.0902677
4	0xc07b697d	-3.9283135
5	0x407b9a4e	3.931293
6	0x40817378	4.0453453
7	0xc07bc2a7	-3.9337556
8	0x4080e9ec	4.028555
9	0x407fc0ef	3.9961507
10	0x407f4c14	3.9890184
11	0x40820657	4.063274
12	0xc07c9098	-3.9463253
13	0xc0803bac	-4.007284
14	0xc0806575	-4.012385
15	0x407d4380	3.9572449
16	0x407b7010	3.9287148
17	0xc07d7d89	-3.960787
18	0x4078b2e2	3.8859181
19	0x4080de3c	4.027128
20	0x4078d6a7	3.8881013
21	0x40804e9e	4.009597
22	0x4081eb90	4.060005
23	0xc0819979	-4.0499845
24	0xc0819bce	-4.050269
25	0x407f5639	3.9896376
26	0xc07cb729	-3.9486792
27	0xc081e961	-4.0597386
28	0xc0813fd1	-4.03904
29	0xc07de763	-3.9672477
30	0x408173c3	4.045381
31	0xc07f2f9b	-3.9872806
32	0x40800a17	4.0012317
33	0x4082ee7e	4.091613
34	0x407c15d1	3.9388316
35	0x407fd4a6	3.997354
36	0xc081ad41	-4.052399
37	0x4081d8c9	4.057713
38	0x40809928	4.018696
39	0xc081b81f	-4.0537257
40	0x4080575e	4.010665
41	0x40830369	4.0941663
42	0x407e0804	3.9692392
43	0x4081b910	4.0538406
44	0x407f76aa	3.9916177
45	0x4081c622	4.055436
46	0x4081c3b0	4.0551376
47	0x4081ce15	4.0564065
48	0x4082e171	4.0900197
49	0x407f4dee	3.9891315
50	0x407cf0f1	3.952206
51	0x407e9ed2	3.9784436
52	0x4081afa3	4.05269
53	0x407ef647	3.9837816
54	0x407ad353	3.9191482
55	0x408078ab	4.01473
56	0x408126c7	4.0359836
57	0xc0829a46	-4.081332
58	0xc0806a41	-4.0129704
59	0x408336f8	4.10046
60	0x407cdb44	3.950883
61	0xc082336b	-4.0687766
62	0xc08115b1	-4.033898
63	0xc07aeaf0	-3.9205894
64	0xc082cb35	-4.0873055
65	0x4082635c	4.074629
66	0x4080369e	4.006667
67	0x407e0a3e	3.9693751
68	0x407cd6f5	3.95062
69	0xc07ffbb3	-3.9997375
70	0xc07ef7ee	-3.9838824
71	0x4080a233	4.0197997
72	0x408102fe	4.0316153
73	0x407c7573	3.9446685
74	0xc07cca6e	-3.9498553
75	0x407b7c6c	3.929469
76	0xc07cc6d0	-3.9496346
77	0x404430bd	3.0654747
78	0x408249ea	4.0715227
79	0x40813959	4.0382504
80	0xc07bf4de	-3.9368205
81	0xc07ca2fe	-3.9474483
82	0x408079b4	4.0148563
83	0x407e9208	3.977663
84	0x40827db4	4.0778446
85	0xc082e3a3	-4.0902877
86	0xc07b521e	-3.926887
87	0xc083036c	-4.0941677
88	0x40821c69	4.065968
89	0x4081dc78	4.0581627
90	0x4082dd53	4.089517
91	0x4082a62b	4.082784
92	0x407e6b66	3.975305
93	0x40822431	4.066918
94	0xc07d850e	-3.961246
95	0xc082f664	-4.092577
96	0xc07d9364	-3.962121
97	0x4080ee9e	4.029128
98	0xc0817b78	-4.046322
99	0x4079c2d7	3.902517
100	0x407ddff8	3.966795
101	0x407eb55a	3.9798188
102	0x4080438e	4.0082464
103	0x408268a3	4.075273
104	0x4081a6e3	4.051622
105	0x407d48ba	3.9575639
106	0x407b3cbe	3.9255824
107	0x4081bdd0	4.0544205
108	0x4081f210	4.0607986
109	0x40803c92	4.007394
110	0x407b162e	3.9232287
111	0x408060ae	4.0118017
112	0x407aac26	3.916757
113	0x4080ff3c	4.0311565
114	0x408289db	4.079328
115	0x407b2bac	3.9245405
116	0x407ea63a	3.9788957
117	0x407e301e	3.9716868
118	0x40820a8c	4.0637875
119	0x4080c518	4.0240593
120	0x4081c1c5	4.0549035

price_encoder.encoder.weight_ih_l0 f4 [180, 45]
0	0xbdce781c	-0.10081503
1	0xbdf18632	-0.11793174
2	0x3d033218	0.032030195
3	0x3da90520	0.08252931
4	0xbd637be6	-0.05553808
5	0x3dd5b0a2	0.10434081
6	0x3da10980	0.0786314
7	0xbdf9ef0a	-0.12203796
8	0xbdd440b7	-0.10363906
9	0xbc431540	-0.011906922
10	0xbde1f873	-0.11033716
11	0xbd6cefce	-0.057845883
12	0xbcd9dabc	-0.026593558
13	0x3cfb40d8	0.030670568
14	0xbdf7b2be	-0.12094639
15	0x3c76ab70	0.015055522
16	0x3d509afc	0.050929055
17	0xbdaa4008	-0.08312994
18	0x3db96168	0.09051782
19	0x3debb1e6	0.11508541
20	0x3dd8cccd	0.10585938
21	0x3d8c66b7	0.06855529
22	0xbdda87d0	-0.106704354
23	0xc079a93f	-3.900955
24	0xbe1478d7	-0.14499222
25	0xbe17f2a5	-0.14838655
26	0xbdf93d6b	-0.12169918
27	0x3e03a35b	0.12855284
28	0x3e084b53	0.13309984
29	0x3d149a38	0.036279887
30	0xbe07550b	-0.13216035
31	0xbbfcf9e0	-0.007720217
32	0x3deff8b6	0.1171736
33	0x4075b37e	3.8390803
34	0x407d7ffb	3.9609363
35	0x407e9c7d	3.9783013
36	0x407fabd0	3.9948616
37	0x407ff674	3.9994173
38	0xbe990801	-0.2988892
39	0x407c952e	3.9466052
40	0x4084fa02	4.1555185
41	0x4082b209	4.084233
42	0x407c6f3e	3.9442897
43	0x3cc6ba88	0.024258867
44	0xbdfebdd6	-0.12438552
45	0xbe003486	-0.12520036
46	0x3d8f3e1c	0.06994268
47	0x3de21b6b	0.11040386
48	0x3d370780	0.044684887
49	0x3dbc29f6	0.09187691
50	0x3dfcd363	0.12345006
51	0xbd8d82d2	-0.069097176
52	0x3db01cd7	0.08599251
53	0x3d78c3e5	0.060733695
54	0x3d006e70	0.03135532
55	0x3dbbee88	0.091763556
56	0xbca8f750	-0.02062574
57	0x3d8afcfa	0.06786533
58	0x3e04b81f	0.12960862
59	0x3c45dc60	0.012076467
60	0xbe1125a3	-0.14174514
61	0xbe0937c7	-0.13400184
62	0x3b9ef960	0.004851505
63	0xbd068a28	-0.0328466
64	0x3dcc0503	0.099618934
65	0x3fc28415	1.5196558
66	0x3cd934ca	0.02651443
67	0xbd9e0ae3	-0.0771692
68	0x4077808c	3.8672209
69	0xbdf6e777	-0.12055867
70	0xbe1393cb	-0.14411847
71	0x3df7377a	0.12071128
72	0xbd3aaf3e	-0.04557728
73	0xbe11b940	-0.14230824
74	0xbb4c3b40	-0.0031163245
75	0xbd32a98a	-0.043618716
76	0x3e0e5457	0.1389936
77	0xbdc0bb21	-0.09410692
78	0x407b3aa6	3.9254546
79	0x4078698c	3.881442
80	0x407ee3e7	3.98266
81	0x407bec6c	3.936305
82	0x40847dd6	4.140361
83	0xbe075a03	-0.1321793
84	0x407c9296	3.946447
85	0x407a6975	3.9126866
86	0x407b53ce	3.92699
87	0x4082cf0f	4.0877757
88	0x3d243a10	0.040094435
89	0x3d347b70	0.04406303
90	0x3dd7e48b	0.10541638
91	0xbbdec233	-0.0067980527
92	0xbdf09fb8	-0.11749214
93	0xbde0b395	-0.109717526
94	0x3ce79828	0.028270796
95	0x3d4ba195	0.049714644
96	0x3d856c68	0.065148175
97	0x3d87f558	0.066385925
98	0xbce38c74	-0.027776934
99	0xbdab928e	-0.083775625
100	0xbe061ec6	-0.13097677
101	0x3ca12e30	0.019675344
102	0xbd4b799e	-0.04967653
103	0xbdcf06a0	-0.101086855
104	0x3bbaf560	0.0057055205
105	0x3c88c158	0.016693756
106	0x3dc21f42	0.09478618
107	0xbdc7a884	-0.09748939
108	0x3c6c6110	0.014427438
109	0xbda98292	-0.082768574
110	0x3fb5b50a	1.4195874
111	0xbc8f82bc	-0.017518394
112	0xbdaa190f	-0.08305561
113	0x407dc327	3.9650362
114	0xbd5c9524	-0.05385317
115	0x3d26d200	0.040727615
116	0xbd35007e	-0.044189923
117	0x3c405c87	0.01174081
118	0xbdcf1701	-0.101118095
119	0x3e106e33	0.14104538
120	0xbddf4c42	-0.10903217
121	0x3e1028df	0.14078091
122	0xbe0e1fbc	-0.13879293
123	0x4083c26c	4.117483
124	0x407856e0	3.8803024
125	0x407ea300	3.9786987
126	0x40816b85	4.044375
127	0x40831658	4.0964775
128	0xc07e15ac	-3.9700727
129	0x407dcf84	3.9657907
130	0x4082b5d9	4.084698
131	0x4078b190	3.8858376
132	0x407d2642	3.95546
133	0x3d6fd194	0.05854948
134	0xbd80bc1d	-0.0628588
135	0x3dc74bc2	0.097312465
136	0xbd5eb946	-0.05437591
137	0xbe05178e	-0.12997267
138	0xbcaeda64	-0.021344371
139	0xbd207630	-0.039175212
140	0x3ded808c	0.11596784
141	0x3df774fa	0.120828584
142	0x3dc1fd2a	0.09472115
143	0xbb8d0528	-0.004303593
144	0x3da1b518	0.07895869
145	0x3de6a102	0.112611786
146	0x3decfab6	0.11571257
147	0x3dc9baf0	0.098501086
148	0xc077eeea	-3.8739572
149	0x3d11ea5c	0.035623893
150	0x3d7c364c	0.06157522
151	0xbd15dab6	-0.036585532
152	0xbc175ca0	-0.009238392
153	0x3fcf7af2	1.6209395
154	0x3d336dae	0.04380577
155	0xbe85c288	-0.26124978
156	0xbc82188e	-0.01588085
157	0x3d717ae0	0.058955073
158	0xc080207a	-4.0039644
159	0x3d46da8c	0.048548266
160	0x3e14e60d	0.14540882
161	0xbd83b840	-0.06431627
162	0xbdb63032	-0.08895911
163	0xc08102a4	-4.0315723
164	0x3daf2378	0.08551687
165	0x3dc778aa	0.09739812
166	0xc052547b	-3.2864063
167	0xbdb93234	-0.090427786
168	0xc0842046	-4.1289396
169	0xc082c2fc	-4.086302
170	0xc07ad712	-3.9193769
171	0xc07be088	-3.9355793
172	0xc0828fb7	-4.0800433
173	0xbdc6e87a	-0.0971231
174	0xc07c4fb6	-3.9423652
175	0xc0805a1f	-4.011001
176	0xc07adb64	-3.9196405
177	0xc07b6152	-3.927815
178	0x3da12df2	0.078700915
179	0x3d176de8	0.03697005
180	0xbdb0366c	-0.0860413
181	0xbcac62b8	-0.021043167
182	0x3dac5966	0.08415489
183	0x3e0d0c21	0.13774158
184	0x3db1143c	0.086464375
185	0x3e13272a	0.14370409
186	0xbe0d4c9e	-0.13798758
187	0xbe12feac	-0.14354962
188	0xbdb46d42	-0.08809902
189	0xbd559764	-0.05214633
190	0x3d59df98	0.05319175
191	0xbe14d623	-0.14534812
192	0xbdd89c32	-0.10576667
193	0xbda6f1cf	-0.0815159
194	0xbbed5a80	-0.0072434545
195	0x3db28466	0.08716659
196	0xbd08b124	-0.03337206
197	0xbdb8dcfc	-0.090265244
198	0x3d1d3268	0.03837815
199	0xbdb294c6	-0.087197825
200	0xbc871592	-0.016489778
201	0x3db2ca0a	0.08729942
202	0x3d323b6c	0.0435137
203	0xc07eba3a	-3.9801164
204	0x3dcd49b2	0.10023822
205	0x3e10c781	0.14138605
206	0x3d99f56c	0.07517514
207	0x3cdfda50	0.02732578
208	0x3e03287d	0.12808414
209	0x3dfa30ca	0.12216337
210	0x3d5d4248	0.05401829
211	0xbc8c2800	-0.017108917
212	0xbdd6d87b	-0.10490509
213	0xc0786d06	-3.8816543
214	0xc0836b38	-4.106838
215	0xc0846eb8	-4.1385155
216	0xc07cc8f4	-3.9497652
217	0xc08076f9	-4.014523
218	0xbbb149e0	-0.005410418
219	0xc07f6164	-3.9903193
220	0xc0797c30	-3.8982048
221	0xc0772c74	-3.8620882
222	0xc082602d	-4.07424
223	0xbda32724	-0.0796645
224	0xbc3aee70	-0.011409387
225	0xbc8a9888	-0.016918436
226	0x3d86267c	0.06550309
227	0x3c74b9d0	0.014936879
228	0xbd1cc4f8	-0.03827378
229	0x3e01b559	0.12666835
230	0x3e16386f	0.14669965
231	0xbacad4e8	-0.0015474828
232	0x3e185ddf	0.14879559
233	0x3d81ed7c	0.06344125
234	0x3de7afbe	0.11312817
235	0xbe06b870	-0.13156295
236	0x3dbbd360	0.09171176
237	0xbdbb1d73	-0.09136476
238	0x407b2cb5	3.9246037
239	0x3c0f5b70	0.008749828
240	0x3af8ab00	0.001897186
241	0x3d1f5974	0.03890367
242	0x3cd21fe8	0.02564998
243	0xbdd3b1fa	-0.10336681
244	0x3d9f22e4	0.07770327
245	0xbda8fc7f	-0.08251285
246	0xbd9db2e9	-0.0770014
247	0x394adca1	0.00019346412
248	0xc0851713	-4.1590667
249	0x3cde2960	0.027119339
250	0xbdba2b95	-0.09090344
251	0x3df27b96	0.118399784
252	0xbd1f6ed6	-0.03892406
253	0x40807ccb	4.0152335
254	0x3d832b48	0.064047396
255	0x3e0aa5a1	0.13539745

price_encoder.encoder.weight_hh_l0 f4 [180, 45]
0	0x4083f763	4.1239486
1	0x4081158c	4.03388
2	0x407963ba	3.8967118
3	0xc0797664	-3.897851
4	0x40800bfe	4.001464
5	0x407c8e02	3.9461675
6	0x407f68c4	3.9907694
7	0xc0841110	-4.127083
8	0xc07f9892	-3.9936872
9	0xc07c1141	-3.938553
10	0xc0833365	-4.1000237
11	0x40826b60	4.0756073
12	0xc07cb88e	-3.9487643
13	0xc0805cb2	-4.0113153
14	0x407b9470	3.930935
15	0xc084940e	-4.143073
16	0x407ab73f	3.9174345
17	0xc081628b	-4.043279
18	0x4077ae86	3.870027
19	0xc08450ca	-4.134862
20	0x4077d8d2	3.8726087
21	0x407f4fbe	3.989242
22	0x4078dee8	3.888605
23	0x407b4e1a	3.926642
24	0xc07ed69d	-3.981849
25	0xc0774866	-3.8637938
26	0xc0797d2a	-3.8982644
27	0x407cf708	3.9525776
28	0xc077a7ab	-3.8696086
29	0xc07d1324	-3.9542933
30	0x407a7c2c	3.9138288
31	0xc080b572	-4.022149
32	0x407f7b80	3.9919128
33	0x4080aa4d	4.0207887
34	0x407fadca	3.9949822
35	0xc07783ae	-3.867412
36	0xc07ddadb	-3.9664829
37	0x40819248	4.0491066
38	0x407b581c	3.9272528
39	0x408516e0	4.1590424
40	0x40836f81	4.1073613
41	0x407c7d57	3.9451501
42	0xc081a122	-4.0509195
43	0x40848038	4.1406517
44	0xc0834af6	-4.1029005
45	0xc08411a4	-4.1271534
46	0xc0821dbb	-4.066129
47	0xc08046d7	-4.0086474
48	0x4081d08e	4.0567083
49	0xc07b0726	-3.9223113
50	0xc08339d9	-4.1008115
51	0xc079c1a8	-3.9024448
52	0xc082dc24	-4.0893726
53	0x407d2eb4	3.9559755
54	0xc0824990	-4.07148
55	0x407b9998	3.9312496
56	0xc084ecd8	-4.1539116
57	0x40784b70	3.8796043
58	0x407cde60	3.9510727
59	0xc0809ec8	-4.0193825
60	0x40841bb2	4.128381
61	0xc07d4c2e	-3.9577746
62	0x4078145a	3.8762422
63	0xc07b1a16	-3.9234672
64	0x4080502b	4.009786
65	0x407ac1ec	3.918086
66	0xc0831371	-4.096123
67	0xc07ab959	-3.9175627
68	0xc080f580	-4.0299683
69	0x40843fdf	4.132797
70	0x40826f51	4.0760884
71	0x407b26dc	3.9242468
72	0xc07dc080	-3.9648743
73	0x4077aa84	3.8697824
74	0x4081b2d1	4.053078
75	0xc0847e58	-4.140423
76	0x408200fd	4.0626206
77	0xc080e13c	-4.0274944
78	0xc082008d	-4.062567
79	0xc07a90c0	-3.9150848
80	0x4078fdc8	3.8904896
81	0x407f6013	3.990239
82	0xc0831e88	-4.097477
83	0xc0790a6c	-3.891261
84	0xc082d1b8	-4.0881004
85	0xc0805518	-4.0103874
86	0xc07e2c96	-3.9714713
87	0x40821282	4.0647593
88	0xc07b0110	-3.9219398
89	0x407b6af1	3.9284022
90	0xc07c66b4	-3.9437685
91	0xc08247e4	-4.0712757
92	0xc08455f0	-4.1354904
93	0x4080dfa1	4.0272985
94	0xc0794e5a	-3.8954072
95	0xc080ea5e	-4.0286093
96	0xc0780826	-3.8754973
97	0xc07d94f8	-3.9622173
98	0x40815e80	4.0427856
99	0xc07ea05d	-3.9785378
100	0x4084c518	4.1490593
101	0xc07e0af6	-3.969419
102	0x40840722	4.1258707
103	0x4081ffb1	4.0624623
104	0xc079d5f2	-3.9036832
105	0x4078e63e	3.8890529
106	0xc0830764	-4.094652
107	0x4083eaf0	4.122429
108	0xc084ec86	-4.1538725
109	0xc081eb84	-4.0599995
110	0x407a5632	3.911511
111	0xc07ca65a	-3.9476533
112	0xc0826353	-4.0746245
113	0xc0817815	-4.0459085
114	0x407cf5dc	3.952506
115	0x40809b0b	4.018926
116	0x407df4ae	3.968059
117	0xc0839918	-4.112438
118	0x40796bbc	3.8972006
119	0x4084df7c	4.152281
120	0xc07cc1f3	-3.9493377
121	0x407b5f6c	3.927699
122	0xc0786a4a	-3.8814874
123	0xc08158c7	-4.042087
124	0xc08251f2	-4.072503
125	0x40829ba1	4.0814977
126	0x407aa779	3.9164717
127	0xc0779cca	-3.8689446
128	0xc07a861b	-3.9144351
129	0xc079b380	-3.9015808
130	0xc0780e40	-3.8758698
131	0xc07ef77f	-3.983856
132	0x40802b24	4.005266
133	0xc07e2222	-3.9708333
134	0x4081a42d	4.051291
135	0x4083730f	4.1077952
136	0x407e0fb4	3.9697084
137	0x40828403	4.0786147
138	0xc081693b	-4.0440955
139	0x4081d247	4.0569186
140	0x4079a506	3.9006972
141	0x407c04fa	3.9378037
142	0x4079fce2	3.9060597
143	0xc07d56bc	-3.9584188
144	0x4082e639	4.0906034
145	0xc07ad650	-3.9193306
146	0x407a5a6e	3.9117694
147	0x4081af46	4.0526457
148	0xc07d5cb0	-3.9587822
149	0x4082d611	4.088631
150	0xc080925f	-4.0178676
151	0x4079bc06	3.902101
152	0xc0806419	-4.012219
153	0x408130de	4.037215
154	0x40819234	4.049097
155	0xc08019f6	-4.003169
156	0x407c3fe6	3.9414
157	0x408346d5	4.1023965
158	0x408137b5	4.03805
159	0xc077ff3c	-3.8749533
160	0xc07e373e	-3.9721217
161	0x407f1a4f	3.9859807
162	0x407adf5a	3.9198823
163	0xc0848352	-4.1410303
164	0xc0843db5	-4.1325326
165	0x4082ca41	4.087189
166	0xc07d597e	-3.9585872
167	0x407ba474	3.9319124
168	0x40848b35	4.141993
169	0x4084f6a2	4.1551065
170	0xc083cf44	-4.119051
171	0xc07ae3c5	-3.920152
172	0x4080e3bf	4.027801
173	0x407c267f	3.9398496
174	0x407c81d6	3.9454246
175	0x4082f79e	4.0927267
176	0x4079aecc	3.9012938
177	0xc084b97b	-4.1476417
178	0x407a6abe	3.912765
179	0xc08055f0	-4.0104904
180	0x40783b83	3.8786323
181	0x407c57d5	3.9428608
182	0x408468c8	4.1377907
183	0xc082994b	-4.0812125
184	0x40778a74	3.8678255
185	0x407b8592	3.9300275
186	0x4085051e	4.1568747
187	0x4083c76f	4.118095
188	0xc083853a	-4.110013
189	0x408299f1	4.0812917
190	0xc0814772	-4.0399714
191	0x4080346c	4.006399
192	0xc0815c35	-4.0425057
193	0xc07a908a	-3.915072
194	0x4078cfe2	3.8876882
195	0xc079fa00	-3.9058838
196	0x407ecf36	3.9813972
197	0xc0796960	-3.8970566
198	0x4079c76a	3.9027963
199	0x408304af	4.0943217
200	0xc07840ea	-3.878962
201	0x40781b71	3.876675
202	0x407e99ac	3.9781294
203	0x40849280	4.1428833
204	0xc07f3168	-3.9873905
205	0xc07d199a	-3.9546876
206	0x40819096	4.0488997
207	0x408252e3	4.072618
208	0xc07e4326	-3.9728484
209	0xc07850ce	-3.879932
210	0x407b458a	3.9261193
211	0xc083fb26	-4.124408
212	0x4080f57d	4.029967
213	0x4084ec2e	4.1538305
214	0x4083b9ac	4.116415
215	0xc07a59a3	-3.911721
216	0xc07f4a72	-3.9889188
217	0x4079df13	3.9042404
218	0x40830e50	4.095497
219	0x4081c200	4.0549316
220	0x407d657c	3.959319
221	0x40826127	4.0743594
222	0xc07f31c0	-3.9874115
223	0x407987f6	3.8989234
224	0xc078d6c7	-3.888109
225	0x407d7688	3.9603596
226	0x408193c4	4.049288
227	0x4082faf3	4.0931334
228	0xc0842e38	-4.130642
229	0x40833f58	4.1014824
230	0x40790981	3.891205
231	0x407ce941	3.9517367
232	0x4084063c	4.125761
233	0xc07db022	-3.9638753
234	0x4084f2d8	4.154644
235	0xc07e9998	-3.9781246
236	0x407a400c	3.910159
237	0xc077da2a	-3.8726907
238	0xc07e614f	-3.9746892
239	0x407d6ef6	3.9598975
240	0xc081a90b	-4.051885
241	0x40840a19	4.1262326
242	0xc083b746	-4.1161222
243	0x40812d97	4.036815
244	0x40842811	4.129891
245	0xc07a8062	-3.9140859
246	0x407d8cd6	3.961721
247	0x40786458	3.8811245
248	0x4077d2b0	3.8722343
249	0xc08096df	-4.018417
250	0xc0812801	-4.0361333
251	0x407730e3	3.8623588
252	0x408400ec	4.1251125
253	0xc07bb3ef	-3.9328573
254	0xc0846e6a	-4.1384783
255	0x407f8d50	3.993

price_encoder.encoder.bias_ih_l0 f4 [180]
0	0xc08214d7	-4.065044
1	0x40844b58	4.134197
2	0x407e363f	3.972061
3	0xc07be2b0	-3.935711
4	0xc083c07f	-4.117248
5	0xc07dbeac	-3.9647627
6	0x408300a3	4.0938277
7	0xc07eb50f	-3.979801
8	0x40836a7b	4.106748
9	0xc082931f	-4.080459
10	0xc07cbac1	-3.9488986
11	0xc08117fc	-4.034178
12	0xc0849d00	-4.144165
13	0x40809f85	4.0194726
14	0x407bff22	3.937447
15	0x40845ce2	4.136338
16	0xc0828cce	-4.079688
17	0x407aa466	3.916284
18	0xc08310e0	-4.09581
19	0xc084de50	-4.1521378
20	0xc0816c3c	-4.044462
21	0xc0776928	-3.8657932
22	0xc0808373	-4.016046
23	0x407edb8a	3.9821496
24	0xc082a2f0	-4.08239
25	0xc080af48	-4.0213966
26	0xc07a76be	-3.9134974
27	0x407ef9c2	3.983994
28	0xc081d71f	-4.05751
29	0x407e8655	3.976949
30	0x407a92c7	3.9152086
31	0xc084bf9b	-4.1483893
32	0x40842061	4.1289525
33	0xc082980c	-4.0810604
34	0xc07b71ac	-3.928813
35	0x407e1397	3.9699457
36	0xc07dc9fc	-3.9654531
37	0xc0851eea	-4.1600237
38	0xc0780786	-3.8754592
39	0x408202ef	4.062858
40	0x407b0de2	3.9227223
41	0x407402be	3.8126674
42	0xc0841af4	-4.12829
43	0x407dfc96	3.9685416
44	0x407f18ff	3.9859006
45	0xc0799da1	-3.900246
46	0x408491f1	4.142815
47	0x407e40b4	3.9726992
48	0xc082fd13	-4.093393
49	0xc07c48ac	-3.9419355
50	0xc0843c9a	-4.1323977
51	0x4083ab26	4.114642
52	0xc080d024	-4.025408
53	0x40815359	4.0414243
54	0x407a6a84	3.9127512
55	0xc0840a4b	-4.1262565
56	0xc07aabec	-3.9167433
57	0xc07caa1c	-3.9478827
58	0x40810931	4.032372
59	0x407c4168	3.941492
60	0x40800baa	4.001424
61	0xc0805340	-4.0101624
62	0x4082dc70	4.089409
63	0x407f9ab2	3.9938169
64	0xc08339e2	-4.100816
65	0xc081c9bf	-4.055877
66	0xc08002c9	-4.00034
67	0xc079cd94	-3.9031725
68	0x407bfe16	3.9373832
69	0xc0823fba	-4.070279
70	0xc077a906	-3.8696914
71	0xc07890f6	-3.8838477
72	0x40811ada	4.034528
73	0xc0833620	-4.100357
74	0x407ed5e2	3.9818044
75	0x4077dc6e	3.872829
76	0xc080de45	-4.0271325
77	0x407a7ff4	3.9140596
78	0xc080e686	-4.02814
79	0xc0825b67	-4.0736575
80	0x407dd812	3.966313
81	0xc0836021	-4.1054845
82	0xc082ed1d	-4.0914445
83	0xc07cd2e2	-3.9503713
84	0x40823972	4.0695124
85	0x408130c2	4.037202
86	0xc07f0f42	-3.9853063
87	0xc07d914e	-3.9619937
88	0x40814249	4.0393414
89	0x40812a5d	4.0364213
90	0x4077c157	3.8711755
91	0xc0833080	-4.0996704
92	0xc07c0e7c	-3.938384
93	0xc08512a0	-4.1585236
94	0x40782d48	3.8777637
95	0x4080d798	4.0263176
96	0xc0821788	-4.0653725
97	0x407f3a88	3.9879475
98	0x407c2192	3.939549
99	0xc079945e	-3.8996806
100	0xc0778490	-3.867466
101	0x40818e38	4.0486107
102	0x407f4398	3.9885006
103	0x407b788e	3.929233
104	0xc082592e	-4.073386
105	0x407b4c3e	3.9265285
106	0x408257ba	4.073209
107	0x4083e764	4.121996
108	0x407c502e	3.9423938
109	0x4082fe4d	4.0935426
110	0xc083fd50	-4.124672
111	0x407a4e93	3.9110458
112	0x40817840	4.045929
113	0xc07a1e1b	-3.9080875
114	0xc077ddf7	-3.8729227
115	0xc07ce594	-3.9515123
116	0x4084fc44	4.155794
117	0xc07775be	-3.8665614
118	0xc0792ea2	-3.8934712
119	0x40833506	4.1002226
120	0xc08003ba	-4.000455
121	0xc0825659	-4.0730405
122	0xc082d535	-4.0885262
123	0x407c933c	3.9464865
124	0x4083a168	4.113453
125	0x407e3a50	3.972309
126	0xc083bf1c	-4.117079
127	0x4081bbfd	4.054198
128	0x407d8411	3.9611857
129	0xc07f21b8	-3.986433
130	0xc08270bd	-4.076262
131	0x4083cb1a	4.1185427
132	0xc08036ac	-4.006674
133	0xc0805086	-4.0098295
134	0x4082b0c7	4.0840793
135	0xc07b1944	-3.923417
136	0x4080ffae	4.031211
137	0x407887f0	3.883297
138	0xc0829d33	-4.0816894
139	0xc084bf25	-4.148333
140	0xc084be0d	-4.1481996
141	0x4079683a	3.8969865
142	0xc07fef77	-3.9989908
143	0x40842d72	4.1305475
144	0xc07a1b0e	-3.9079013
145	0xc084d464	-4.1509266
146	0xc0792300	-3.8927612
147	0xc07f1331	-3.9855464
148	0x4082fac3	4.0931106
149	0x4081b764	4.0536366
150	0x4079ac62	3.9011464
151	0xc0782b29	-3.8776343
152	0x40845dec	4.136465
153	0xc082b54d	-4.0846314
154	0xc082b70e	-4.0848455
155	0xc0833291	-4.0999227
156	0xc07bbad8	-3.933279
157	0xc083b565	-4.115893
158	0x407d558e	3.9583468
159	0xc081d8c6	-4.0577116
160	0xc07e27c0	-3.9711761
161	0xc07a6c06	-3.9128432
162	0x407f563a	3.9896379
163	0xc078a056	-3.8847861
164	0x407a4850	3.9106636
165	0x407dc2f9	3.9650252
166	0xc0801ac7	-4.0032687
167	0x407986b6	3.898847
168	0xc077d0fd	-3.8721306
169	0xc078822a	-3.8829446
170	0x4084316c	4.131033
171	0xc083284a	-4.098668
172	0xc07adf92	-3.9198956
173	0xc0806cdf	-4.01329
174	0x407c0326	3.9376922
175	0x407b7c1e	3.9294505
176	0xc082d29e	-4.08821
177	0xc0812776	-4.036067
178	0x407f5607	3.9896257
179	0x4084ed3f	4.1539607

price_encoder.encoder.bias_hh_l0 f4 [180]
0	0xc07ac826	-3.918466
1	0x4084e494	4.1529026
2	0x40841550	4.1276016
3	0xc078d13a	-3.8877702
4	0xc082a2bc	-4.082365
5	0xc07f4db0	-3.9891167
6	0x4077fbad	3.874736
7	0xc0844492	-4.1333704
8	0x407ed405	3.9816906
9	0xc07c9084	-3.9463205
10	0xc07da855	-3.9633992
11	0xc079322a	-3.8936868
12	0xc07ea29b	-3.9786747
13	0x407d6711	3.9594157
14	0x4082e698	4.0906487
15	0x40796872	3.8969998
16	0xc083807e	-4.109435
17	0x407be464	3.9358149
18	0xc0822db3	-4.0680785
19	0xc078a3f8	-3.8850079
20	0xc0832be8	-4.0991096
21	0xc0814b92	-4.040475
22	0xc07edfe7	-3.982416
23	0x407fa01c	3.9941473
24	0xc0819e9f	-4.050613
25	0xc080df92	-4.0272913
26	0xc0803529	-4.0064893
27	0x40784fb8	3.8798656
28	0xc07f0be5	-3.985101
29	0x40812124	4.0352955
30	0x407c2411	3.9397013
31	0xc0843b9f	-4.132278
32	0x4083c632	4.117944
33	0xc07ff118	-3.9990902
34	0xc0831255	-4.095988
35	0x4081039f	4.031692
36	0xc077441a	-3.8635316
37	0xc07f755e	-3.9915385
38	0xc07d10a2	-3.9541402
39	0x40824f0e	4.07215
40	0x4079caee	3.9030108
41	0x4076eb98	3.8581295
42	0xc0813d66	-4.038745
43	0x40786b3e	3.8815455
44	0x407799bb	3.868758
45	0xc082e235	-4.090113
46	0x40777956	3.8667808
47	0x40788006	3.882814
48	0xc080b4ec	-4.022085
49	0xc081a97a	-4.051938
50	0xc080f96f	-4.0304484
51	0x4081528a	4.0413256
52	0xc07ebfe2	-3.9804616
53	0x407da5c3	3.9632423
54	0x4079922c	3.8995466
55	0xc0805709	-4.0106244
56	0xc081696b	-4.0441184
57	0xc080e655	-4.0281167
58	0x4080e44b	4.027868
59	0x4083b62e	4.1159887
60	0x407ab026	3.9170012
61	0xc07e681a	-3.9751039
62	0x4080335e	4.0062704
63	0x40834ea8	4.1033516
64	0xc07ec8f0	-3.9810143
65	0xc0842144	-4.1290607
66	0xc081f4af	-4.0611186
67	0xc0816b2c	-4.0443325
68	0x407beece	3.9364505
69	0xc081b7a5	-4.0536675
70	0xc07bf5e2	-3.9368825
71	0xc084ff0b	-4.156133
72	0x4077bf47	3.8710496
73	0xc07b9051	-3.9306834
74	0x4081a400	4.0512695
75	0x4083321f	4.0998683
76	0xc07f16c2	-3.985764
77	0x4078f6b2	3.890057
78	0xc07e161c	-3.9700994
79	0xc0781fd6	-3.876943
80	0x4079b62e	3.9017444
81	0xc082bb34	-4.085352
82	0xc08108a2	-4.032304
83	0xc07f7ac2	-3.9918675
84	0x40843d62	4.132493
85	0x40821dd0	4.066139
86	0xc082e8ac	-4.0909023
87	0xc082ef60	-4.0917206
88	0x407d6bdc	3.9597082
89	0x4083ad0b	4.1148734
90	0x408141dd	4.03929
91	0xc08431c0	-4.131073
92	0xc082b4ef	-4.0845866
93	0xc0794bf4	-3.8952608
94	0x40812acd	4.0364747
95	0x40841fb4	4.12887
96	0xc07f68be	-3.990768
97	0x4081f475	4.061091
98	0x4082a992	4.0831995
99	0xc082cd7e	-4.0875845
100	0xc0833d2a	-4.1012163
101	0x407a8dc4	3.9149027
102	0x407f7ed4	3.992116
103	0x4080df9a	4.027295
104	0xc07fc96b	-3.9966686
105	0x4079df30	3.9042473
106	0x4079b052	3.9013867
107	0x4083873e	4.110259
108	0x4077914a	3.8682427
109	0x4081abbf	4.052215
110	0xc07edb56	-3.9821372
111	0x408012ea	4.002309
112	0x407ca9ef	3.947872
113	0xc07c20f1	-3.9395106
114	0xc082e0a2	-4.089921
115	0xc07b8558	-3.9300137
116	0x40797ee2	3.8983693
117	0xc0815296	-4.0413313
118	0xc07fd83a	-3.9975724
119	0x408297b1	4.081017
120	0xc079565c	-3.895896
121	0xc0786e6e	-3.88174
122	0xc07e1494	-3.970006
123	0x407cb4a6	3.948526
124	0x407a4a40	3.9107819
125	0x408095fb	4.018308
126	0xc080b7ab	-4.0224204
127	0x40789c67	3.884546
128	0x40780195	3.8750966
129	0xc0811870	-4.034233
130	0xc07e57ac	-3.974101
131	0x4082cc2c	4.0874233
132	0xc0809e3d	-4.019316
133	0xc083ab79	-4.1146817
134	0x4082f40e	4.092292
135	0xc084bdb2	-4.148156
136	0x4082e394	4.0902805
137	0x4083f35f	4.1234584
138	0xc084e4a0	-4.1529083
139	0xc07bfda6	-3.9373565
140	0xc07c7860	-3.944847
141	0x407b3e4a	3.9256768
142	0xc0789329	-3.883982
143	0x4082dadd	4.0892167
144	0xc084b574	-4.14715
145	0xc08191f7	-4.049068
146	0xc07d876a	-3.96139
147	0xc0846aeb	-4.1380515
148	0x40787bde	3.8825603
149	0x407f24fe	3.9866328
150	0x407948de	3.8950725
151	0xc07ee267	-3.9825685
152	0x407ba7c4	3.9321146
153	0xc081c80d	-4.0556703
154	0xc0794c44	-3.89528
155	0xc078e6a7	-3.889078
156	0xc0795af2	-3.8961759
157	0xc07dc9e6	-3.965448
158	0x4084af58	4.1464043
159	0xc07877e1	-3.8823168
160	0xc0831c22	-4.097184
161	0xc07e1208	-3.9698505
162	0x407f577e	3.989715
163	0xc0836041	-4.1054997
164	0x407cbbce	3.9489627
165	0x407edaf5	3.982114
166	0xc083ba96	-4.1165266
167	0x40806a0b	4.0129447
168	0xc0829fe2	-4.082017
169	0xc0843bcc	-4.1322994
170	0x407d7b21	3.9606402
171	0xc07a3df5	-3.9100316
172	0xc0848495	-4.1411843
173	0xc0847570	-4.1393356
174	0x40824763	4.071214
175	0x407bd288	3.9347248
176	0xc081d2ee	-4.0569983
177	0xc082dd60	-4.0895233
178	0x4082bbd6	4.085429
179	0x4080d5f9	4.0261197

atten_layer.0.weight f4 [45, 135]
0	0xbbbc52c0	-0.0057471693
1	0x3bd3cb40	0.0064634383
2	0xbcbfc010	-0.023407012
3	0xbc8d4958	-0.017246887
4	0x3dab1767	0.08354073
5	0x3d4b2236	0.049593173
6	0xbd42b8d9	-0.047539566
7	0xbd056c3d	-0.032573927
8	0x3d5250f6	0.05134674
9	0x3da3992b	0.07988199
10	0x3cc8cd5c	0.024511985
11	0x3d975d1d	0.07390807
12	0xbc90a73c	-0.017657869
13	0x3d5b364e	0.053518586
14	0xba68fe80	-0.0008888021
15	0xbd01ca8d	-0.031687308
16	0xbcbfe614	-0.02342514
17	0x3cdd5cc4	0.027021773
18	0x3d37328e	0.044725947
19	0x3b3281c0	0.0027237982
20	0xbc8dd258	-0.017312214
21	0xbcfc02fa	-0.030763138
22	0xbb318780	-0.002708882
23	0x3daff239	0.08591122
24	0x3cdc00f8	0.02685593
25	0xbda941ca	-0.082645014
26	0xbc9f4bf0	-0.01944539
27	0x3d051b80	0.03249693
28	0xbda88207	-0.08227926
29	0x3d63a712	0.055579253
30	0xbd6a7b64	-0.05724658
31	0xbd90eb89	-0.07076175
32	0xbd2f256c	-0.042760298
33	0x3b40a220	0.002939351
34	0xbd8157de	-0.063155875
35	0xbbd587d0	-0.0065164343
36	0xbd791cb8	-0.060818404
37	0xbc3fe550	-0.011712387
38	0xbda8cc30	-0.08242071
39	0xbd077b23	-0.033076417
40	0xbb803360	-0.0039123744
41	0x3da5d419	0.08097095
42	0xbdaf46b1	-0.08558405
43	0xbc036660	-0.008020014
44	0xb877c000	-5.9068203e-05
45	0xbd9c3923	-0.076280855
46	0xbd3b541f	-0.04573452
47	0x3d282ade	0.041056506
48	0x3d6a43a2	0.057193406
49	0x3d850b77	0.06496327
50	0x3d9db30b	0.07700165
51	0x3da3f9bd	0.08006618
52	0xbc9654f0	-0.018351048
53	0xbd8a4a86	-0.067524955
54	0xbd97e639	-0.07416958
55	0xbd2cf6ea	-0.042227663
56	0xbd4f49e0	-0.050607562
57	0x3ce91a2c	0.028454863
58	0xbd350e59	-0.044203136
59	0x3d88676f	0.066603534
60	0xbd385c9b	-0.04501019
61	0x3d8cd27b	0.068760835
62	0x3d51c112	0.051209517
63	0x3d9627ef	0.073318355
64	0xbd940c3f	-0.07228898
65	0x3da535a9	0.080668755
66	0xbac38940	-0.0014918223
67	0x3d9793eb	0.0740126
68	0x3d425d32	0.04745216
69	0xbd810688	-0.06300074
70	0xbd91e3ea	-0.07123549
71	0x3dae990b	0.085252844
72	0xbcb2ae78	-0.021811709
73	0xbc7bfca0	-0.015380055
74	0xbaea9d80	-0.0017899722
75	0xbd7e3531	-0.062062446
76	0xbc655520	-0.013997346
77	0x3d28d8fe	0.041222565
78	0xbb6ca0e0	-0.003610663
79	0xbda34246	-0.07971625
80	0x3d1e8508	0.038701087
81	0x3d848169	0.064699955
82	0xbd0d6eff	-0.034529682
83	0xbd90216b	-0.07037624
84	0x3d9b9a6f	0.07597815
85	0x3d3479f2	0.04406161
86	0x3d9a1f79	0.07525534
87	0x3b10b400	0.0022079945
88	0xbd32001d	-0.04345714
89	0x3d9b1f5d	0.075743414
90	0xc0821218	-4.0647087
91	0xc08c9f71	-4.394463
92	0xc0997b1a	-4.796277
93	0xc0823f57	-4.070232
94	0x40807565	4.0143304
95	0xc08212f7	-4.064815
96	0xc0832690	-4.0984573
97	0x4099c5eb	4.80541
98	0x40801657	4.002727
99	0x407df3ef	3.9680135
100	0xc080365b	-4.006635
101	0xc0798c30	-3.8991814
102	0xc07e7507	-3.9758928
103	0x40822f63	4.0682845
104	0xc0812d4d	-4.03678
105	0xc07ae9ca	-3.9205194
106	0xc07eaabe	-3.9791713
107	0x408051a0	4.009964
108	0x408149b3	4.0402465
109	0xc0581366	-3.376184
110	0xc0924020	-4.5703278
111	0x409af86b	4.8428245
112	0x409667bd	4.7001634
113	0x405a54ae	3.4114184
114	0xc0835147	-4.1036716
115	0x404e132a	3.2199197
116	0x408f9b6e	4.4877234
117	0x408039d8	4.007061
118	0xc09923ce	-4.7856207
119	0x4099775a	4.7958193
120	0x408033ad	4.006308
121	0xc0825cd5	-4.073832
122	0x407de6a4	3.9672022
123	0xc0813e8b	-4.0388846
124	0xc07b9190	-3.9307594
125	0xc07bfa85	-3.9371655
126	0x407f2cfd	3.9871209
127	0xc07f17a8	-3.9858189
128	0x408372b0	4.10775
129	0x407fcff4	3.9970675
130	0xc05891c4	-3.3838968
131	0x409152f2	4.541375
132	0xc09d85c0	-4.922577
133	0xc084a830	-4.1455307
134	0x4095f95a	4.6866884
135	0xbd8ac1ca	-0.067752436
136	0x3d9994c5	0.07499079
137	0xbd51e9f8	-0.05124852
138	0xbd8e2bb9	-0.06941933
139	0x3cee7a4c	0.02911105
140	0x3b3e8ec0	0.0029076785
141	0x3d356a0e	0.044290595
142	0x3c51f280	0.012814164
143	0xbcc9234c	-0.024552964
144	0x3d049d7a	0.032376744
145	0xbda2cbea	-0.0794905
146	0xbd1235d3	-0.035695862
147	0x3d71447e	0.05890321
148	0x3d3fdb16	0.046839796
149	0xbd2b86fb	-0.041876774
150	0x3da8e21d	0.08246253
151	0x3d5ff462	0.05467642
152	0x3d2b128e	0.041765742
153	0xbd7c1538	-0.061543673
154	0xbd51a681	-0.05118418
155	0xbd92f9fa	-0.071765855
156	0xbd4df9a0	-0.05028689
157	0x3d01361e	0.03154575
158	0x3d87b299	0.06625862
159	0x3d9437fd	0.072372414
160	0xbb422660	-0.0029624924
161	0x3c11bbf0	0.008894905
162	0xbcf3d4ae	-0.0297645
163	0xbd82f6e8	-0.0639475
164	0x3cf84160	0.03030461
165	0xbcccaa58	-0.02498357
166	0xbd18dbcc	-0.03731899
167	0xbcf5b048	-0.029991284
168	0xbd8aae44	-0.0677152
169	0xbd54961c	-0.051900968
170	0xbd05b91e	-0.032647245
171	0xbcaf8c50	-0.02142921
172	0xbca7b19c	-0.020470433
173	0x3da33c1f	0.079704516
174	0xbcab5928	-0.020916536
175	0x3d2feb7a	0.042949177
176	0xbc87d86c	-0.01658269
177	0x3d9f8577	0.07789128
178	0xbcbbbfe0	-0.022918642
179	0x3d5479e6	0.051874064
180	0x3d7bedea	0.06150619
181	0xbcc63950	-0.02419725
182	0x3cf15c24	0.029462881
183	0xbd4524a4	-0.048130646
184	0xbd12deb2	-0.03585691
185	0x3d47899e	0.048715226
186	0x3d3b1fea	0.045684732
187	0x3c918ab4	0.017766334
188	0x3d9325c1	0.07184935
189	0xbd427c79	-0.047481988
190	0x3c4ec9a8	0.012621321
191	0xbd8d1375	-0.06888477
192	0xbdadda52	-0.08488907
193	0xbd5bd110	-0.053666174
194	0x3daf693f	0.08564996
195	0x3d513f4e	0.051085763
196	0x3d806869	0.06269915
197	0x3d7a403a	0.061096407
198	0xbc33c710	-0.010972753
199	0x3c790d20	0.015200883
200	0xbcc52cea	-0.024069268
201	0xbd495f37	-0.04916307
202	0xbd10c8a2	-0.03534759
203	0xbd4d1c43	-0.05007578
204	0x3d276ece	0.040877156
205	0xbd2415f0	-0.040059984
206	0xbc9ed8bc	-0.019390456
207	0x3da90235	0.08252374
208	0x3d14a99a	0.036294557
209	0x3c7c0ef8	0.015384428
210	0xbc845cdc	-0.01615756
211	0x3d87300d	0.06600962
212	0x3baf5230	0.0053503737
213	0x3b3f5a60	0.0029198155
214	0xbd3afe60	-0.045652747
215	0xbd8f9ee9	-0.070127316
216	0x3d7eaa42	0.06217409
217	0xbd4392f3	-0.047747564
218	0xbd9b8ca9	-0.07595188
219	0xbd9fcc92	-0.078026906
220	0x3c9ed22c	0.019387327
221	0xbdaa3dd8	-0.08312577
222	0xbd911826	-0.07084684
223	0x3cae7c10	0.021299392
224	0x3d26e3da	0.04074464
225	0xc088d760	-4.276291
226	0x408ee373	4.465265
227	0x40940c8c	4.6265316
228	0xc07dab13	-3.9635665
229	0x407d29b5	3.9556706
230	0x407f5706	3.9896865
231	0x407c48b2	3.941937
232	0xc08679cb	-4.2023673
233	0x4084e5ed	4.153067
234	0x40823d06	4.069949
235	0xc07e75b0	-3.975933
236	0xc07310c8	-3.7978992
237	0xc081b4d7	-4.053325
238	0x407c5093	3.9424179
239	0xc0821baa	-4.065877
240	0xc073dba2	-3.8102803
241	0x4080b0e1	4.0215917
242	0x4080047a	4.0005465
243	0x407e7fa3	3.9765403
244	0xc08c0864	-4.3760242
245	0x4088fe00	4.281006
246	0xc086f90c	-4.217901
247	0xc0909712	-4.518441
248	0x408f99e2	4.4875345
249	0xc0804c54	-4.0093174
250	0x408d0a70	4.407524
251	0xc0879b6a	-4.2377214
252	0x4082bea5	4.085772
253	0x408da940	4.4269104
254	0xc0890bad	-4.2826753
255	0x4080a3f7	4.0200152

atten_layer.0.bias f4 [45]
0	0x406bb4f2	3.682919
1	0x4082c974	4.0870914
2	0x407672e2	3.850762
3	0xc080307e	-4.0059195
4	0xc07d6d52	-3.9597974
5	0xc0816bd7	-4.044414
6	0xc083b553	-4.1158843
7	0x407dafb6	3.9638495
8	0xc080c26e	-4.023734
9	0x407f8e42	3.9930577
10	0xc079703a	-3.8974748
11	0xc082025c	-4.062788
12	0x4081702a	4.044942
13	0xc07b4d2f	-3.926586
14	0xc07669b6	-3.850202
15	0x40824fec	4.072256
16	0xc07a2ec5	-3.9091046
17	0xc082b276	-4.084285
18	0xc0775770	-3.8647118
19	0xc07aa930	-3.9165764
20	0xc0818286	-4.047183
21	0x40843b9f	4.132278
22	0x407c0392	3.937718
23	0x40819009	4.0488324
24	0xc084265a	-4.1296816
25	0xc081e73f	-4.0594783
26	0xc0803fe0	-4.0077972
27	0xc0806dd9	-4.013409
28	0xc0795c6e	-3.8962665
29	0xc084f15c	-4.154463
30	0x407c8156	3.945394
31	0x40812a05	4.0363793
32	0x4081213a	4.035306
33	0x40813ab2	4.038415
34	0xc07ce0e6	-3.9512267
35	0xc0837098	-4.1074944
36	0x4081fbc3	4.0619826
37	0x407cdb60	3.9508896
38	0xc0844fdc	-4.1347485
39	0x407ce9b2	3.9517636
40	0xc077b1cb	-3.8702266
41	0xc08158cc	-4.0420895
42	0x40814eca	4.040868
43	0x4081d9f3	4.057855
44	0xc0782b74	-3.8776522

atten_layer.2.weight f4 [1, 45]
0	0x400c53dd	2.1926186
1	0xc0bf198e	-5.9718695
2	0x40552727	3.3305147
3	0xc01a3e9c	-2.4100714
4	0xc0329042	-2.7900548
5	0xc017b689	-2.370516
6	0xc0481907	-3.1265275
7	0xc09b2638	-4.8484154
8	0xc0256383	-2.5841987
9	0x402b3176	2.6748939
10	0xbfe28826	-1.7697799
11	0x4098ebae	4.7787695
12	0xc0a21504	-5.0650654
13	0xc02f8569	-2.7425177
14	0x40d5dfe6	6.6835814
15	0x4050df40	3.263626
16	0x40b5a644	5.676546
17	0x40a19e04	5.050539
18	0xc006bd5c	-2.1053076
19	0xc00d768d	-2.2103608
20	0x4092c70f	4.586799
21	0x407d9306	3.9620986
22	0x40761006	3.844728
23	0x40766a0e	3.850223
24	0x408af2b2	4.342126
25	0x40aefede	5.4686117
26	0xc0693ca0	-3.6443253
27	0xc051762e	-3.272838
28	0x40c5b74b	6.1786246
29	0x408945e2	4.2897806
30	0x40726a35	3.7877324
31	0xc0aa7916	-5.327281
32	0x404f0b4a	3.235064
33	0xc086cd92	-4.212594
34	0x40a5cf73	5.1815734
35	0xc05b85ee	-3.4300494
36	0xc092e274	-4.590143
37	0xc09ad83e	-4.8388968
38	0x4098726e	4.7639685
39	0xc0ac11c4	-5.3771687
40	0xc011d11b	-2.2783878
41	0x408cdbe0	4.40184
42	0xc0b1ebfe	-5.5600576
43	0x407f5f0a	3.9901757
44	0xc00f858e	-2.2425265

lstm.weight_ih_l0 f4 [180, 45]
0	0x406ff2e8	3.7492008
1	0xc08481c2	-4.1408396
2	0xc085df46	-4.183505
3	0x40802e92	4.005685
4	0xc084925a	-4.142865
5	0x4080542a	4.010274
6	0x4078a4a7	3.8850496
7	0x4084ddfe	4.1520987
8	0xc0755fc0	-3.833969
9	0x40852caa	4.161702
10	0x407c860c	3.9456816
11	0x4082b7c7	4.0849338
12	0x40806673	4.012506
13	0x407f5d5c	3.9900732
14	0xc0818efc	-4.048704
15	0x40854f4d	4.1659303
16	0xc07c795f	-3.944908
17	0xc085878d	-4.1727967
18	0xc07f6b50	-3.9909248
19	0x4086fbd6	4.2182417
20	0xc087864e	-4.2351446
21	0x408ce9de	4.4035482
22	0x4086537e	4.197692
23	0xc080bdcc	-4.0231686
24	0x4059040d	3.3908722
25	0xc0883e10	-4.257576
26	0x40874770	4.2274704
27	0xc080d3cd	-4.0258546
28	0xc0898f86	-4.29877
29	0x40849384	4.1430073
30	0xc07f0c28	-3.985117
31	0xc0843d4b	-4.132482
32	0xc07e7aff	-3.976257
33	0x408317e3	4.096666
34	0x408450bc	4.1348553
35	0xc0846f00	-4.13855
36	0xc080e6aa	-4.028157
37	0x407ecb40	3.9811554
38	0x40805f1e	4.011611
39	0xc083d86a	-4.1201677
40	0xc0810ec9	-4.033055
41	0x40872408	4.2231483
42	0xc087f842	-4.249055
43	0xc083cab3	-4.1184936
44	0x4088d070	4.275444
45	0x408541be	4.164275
46	0xc08acce4	-4.337511
47	0xc0856118	-4.1681023
48	0x40845624	4.135515
49	0x40828fbb	4.080045
50	0x40820181	4.0626836
51	0x408223af	4.066856
52	0x40828e92	4.0799036
53	0xc07cee86	-3.9520583
54	0x407e22d6	3.9708762
55	0x407d97e1	3.962395
56	0xc07b1613	-3.9232223
57	0x4080ed85	4.028994
58	0xc079fa9c	-3.905921
59	0xc07cef28	-3.952097
60	0x407a0f66	3.9071898
61	0xc080ef57	-4.0292163
62	0xc0794918	-3.8950863
63	0xc07bdcee	-3.9353595
64	0x4086ecec	4.216421
65	0xc087cc1a	-4.2436647
66	0x4082001f	4.062515
67	0x408b4d06	4.3531523
68	0xc0842f23	-4.130754
69	0xc01e3102	-2.4717412
70	0xc08677ba	-4.202115
71	0x40865f32	4.1991205
72	0xc078844c	-3.8830748
73	0xc088ad26	-4.2711363
74	0x40853e16	4.163829
75	0xc07ef2c3	-3.983567
76	0xc083db8d	-4.1205506
77	0xc0855e30	-4.1677475
78	0x407e7e74	3.976468
79	0x407bb32a	3.9328103
80	0xc080dda0	-4.027054
81	0xc081112f	-4.0333476
82	0x4081f556	4.061198
83	0x408354c0	4.1040955
84	0xc07812b6	-3.876142
85	0xc0811ea3	-4.03499
86	0x4086a786	4.2079496
87	0xc08167a4	-4.0439014
88	0xc06fbdc9	-3.7459586
89	0x4087cda8	4.2438545
90	0xc07a5037	-3.911146
91	0xc0882099	-4.253979
92	0xc087f278	-4.248348
93	0x407c8274	3.9454622
94	0xc0812fe6	-4.037097
95	0x407fea08	3.9986591
96	0xc0811509	-4.033818
97	0x4087aa6c	4.2395535
98	0xc084b344	-4.146883
99	0xc082f906	-4.0928984
100	0x407f7141	3.9912875
101	0xc02e1664	-2.7201166
102	0xc082a001	-4.0820317
103	0x40837951	4.108559
104	0x407b55da	3.927115
105	0x407a6b96	3.9128165
106	0x4082d610	4.0886307
107	0x407bb2e1	3.932793
108	0xc07ce2f1	-3.9513514
109	0x40872d14	4.2242527
110	0xc0869f5d	-4.2069535
111	0x4082dda2	4.089555
112	0x4081ca9d	4.055983
113	0xc083bbbb	-4.1166663
114	0xbfc21d56	-1.5165203
115	0xc0829fd3	-4.08201
116	0x408af318	4.3421745
117	0xc07fdeff	-3.9979856
118	0xc086e92d	-4.215964
119	0x4085ca06	4.180911
120	0x408501b7	4.1564593
121	0x40793afc	3.8942251
122	0xc081605d	-4.043013
123	0x4084ee68	4.1541023
124	0x407e0816	3.9692435
125	0x4081c502	4.055299
126	0x40850d74	4.157892
127	0x408412d6	4.1272993
128	0xc07874e8	-3.8821354
129	0xc0819db4	-4.050501
130	0x407f91e4	3.9932795
131	0x4084c912	4.1495447
132	0xc0888ad3	-4.2669463
133	0x407e0d0c	3.9695463
134	0x40822be1	4.0678563
135	0x40860c8f	4.189033
136	0xc089b1bb	-4.3029456
137	0xc087dc36	-4.245631
138	0x40842a5c	4.130171
139	0xc07d5e44	-3.9588785
140	0x407b081e	3.9223704
141	0x40852221	4.160416
142	0x408ab9cf	4.3351817
143	0xc07c47ba	-3.9418778
144	0xc07c24da	-3.9397492
145	0x4084a374	4.144953
146	0xc0748692	-3.8207135
147	0x4077ed0a	3.8738427
148	0x4082ed6b	4.0914817
149	0x408353be	4.1039724
150	0x4082cac9	4.087254
151	0x40807531	4.0143056
152	0xc078e8a2	-3.8891988
153	0xc080d8c4	-4.0264606
154	0x408dbeea	4.429555
155	0xc0853dfc	-4.1638165
156	0x4083c450	4.117714
157	0x408a8226	4.3283873
158	0xc08d05be	-4.406951
159	0x4022d633	2.5443237
160	0xc088bde0	-4.273178
161	0x408865a8	4.262409
162	0xc07be149	-3.9356253
163	0xc08cb272	-4.396783
164	0x408978a4	4.2959766
165	0xc07c98c9	-3.9468253
166	0x4085c7a7	4.1806216
167	0xc07b20c8	-3.9238758
168	0x407ad2c8	3.919115
169	0x40822426	4.0669127
170	0xc082eb75	-4.0912423
171	0xc079ac1b	-3.9011295
172	0x407761bc	3.8653402
173	0xc07c5aa0	-3.9430313
174	0xc07d4166	-3.9571166
175	0x40823e1b	4.070081
176	0x4085760c	4.17066
177	0xc0844db8	-4.134487
178	0x407e126c	3.9698744
179	0x40852b80	4.16156
180	0x407f58a7	3.989786
181	0xc088a4e2	-4.2701273
182	0xc08f474c	-4.477453
183	0x407c52ab	3.9425457
184	0x40754568	3.8323612
185	0x4082d7fa	4.0888643
186	0x40805481	4.0103154
187	0x408735b8	4.2253075
188	0xc084c2cc	-4.148779
189	0xc08498d0	-4.143654
190	0x407e03b4	3.968976
191	0xc081afa6	-4.0526915
192	0x407a730f	3.9132726
193	0xc070eeda	-3.7645783
194	0x4085d530	4.182274
195	0x4083660e	4.106208
196	0x407fdaa6	3.9977202
197	0xc07dfee2	-3.9686818
198	0xc07883a4	-3.8830347
199	0x408bd949	4.370274
200	0xc08e003d	-4.437529
201	0x4084e982	4.1535044
202	0x40886e51	4.2634664
203	0xc08ccf8c	-4.4003353
204	0x40673d33	3.6131103
205	0xc08e196f	-4.4406047
206	0x408ab4d4	4.3345737
207	0xc07bf8a1	-3.93705
208	0xc086082a	-4.1884966
209	0x408800d7	4.2501025
210	0xc08054b3	-4.0103393
211	0x4080877c	4.0165386
212	0xc0819d31	-4.0504384
213	0x4083d7e0	4.120102
214	0x40842d44	4.1305256
215	0xc07c3a9c	-3.9410772
216	0xc07ba99e	-3.9322276
217	0x4082cca9	4.087483
218	0xc0774dde	-3.8641276
219	0xc08280df	-4.0782313
220	0xc08434d8	-4.1314507
221	0x408bba94	4.3665257
222	0xc0872280	-4.2229614
223	0x4084ec6f	4.1538615
224	0x4086379e	4.194289
225	0x40848434	4.141138
226	0xc086881c	-4.204115
227	0xc08b2988	-4.3488197
228	0x407d4231	3.957165
229	0xc0840528	-4.1256294
230	0x407fa276	3.9942908
231	0x407888d8	3.8833523
232	0x408501f7	4.15649
233	0xc08294e0	-4.080673
234	0xc0856b4e	-4.1693487
235	0x408044e8	4.0084114
236	0xc056d1cf	-3.3565557
237	0x407fd742	3.9975133
238	0x4080a714	4.0203953
239	0x4081af2e	4.0526342
240	0x40824bf4	4.0717716
241	0x407cd18e	3.9502902
242	0xc083eb42	-4.122468
243	0xc0826093	-4.074289
244	0x40844a32	4.134057
245	0xc08755e6	-4.2292356
246	0x40826257	4.0745044
247	0x40840ff5	4.126948
248	0xc088755c	-4.264326
249	0xc00a4068	-2.160181
250	0xc08998ee	-4.299918
251	0x40829ab5	4.081385
252	0xc0848916	-4.141734
253	0xc08887f6	-4.266597
254	0x408b386a	4.3506365
255	0xc081dc38	-4.058132

lstm.weight_hh_l0 f4 [180, 45]
0	0xbc739610	-0.014867321
1	0x3e101e4b	0.14074056
2	0xbe15b537	-0.14619909
3	0x3b82efe0	0.0039958805
4	0xbe14f784	-0.14547545
5	0xbdb9a031	-0.09063757
6	0x3d1de308	0.038546592
7	0x3dcc2c22	0.09969355
8	0xbcc2ef40	-0.023795724
9	0x3e07e295	0.13270028
10	0x3d8a7f0e	0.06762515
11	0xbe09ecaa	-0.13469186
12	0xbd182430	-0.037143886
13	0xbcb958e0	-0.022625387
14	0xbcc28d18	-0.02374892
15	0x3d805fcc	0.06268272
16	0x3dfbc56a	0.12293513
17	0xbdcfea46	-0.10152106
18	0xbda95f5a	-0.0827014
19	0xbdb5f194	-0.08883968
20	0x3ce38378	0.02777265
21	0x3d75356c	0.0598654
22	0xbdc884e2	-0.097909704
23	0x3da52818	0.08064288
24	0x3d867d2a	0.06566842
25	0xbd34a602	-0.04410363
26	0xbd383aa4	-0.0449778
27	0xbe0ea7e1	-0.13931228
28	0xbdc2e586	-0.09516434
29	0x3d2eb7cc	0.04265575
30	0x3d6f0760	0.058356643
31	0x3e0691a9	0.13141502
32	0xbd0d5746	-0.03450706
33	0x3dce9d14	0.10088554
34	0xbda9781c	-0.08274862
35	0xbdf3f949	-0.11912782
36	0xbe02aa2e	-0.12760231
37	0x3dc95124	0.098299295
38	0xbcc05b38	-0.023480996
39	0x3df6cdc2	0.12050964
40	0xbd5ef2fc	-0.054430947
41	0x3e18136d	0.1485116
42	0x3d811e80	0.063046455
43	0xbd8d4fdd	-0.06899998
44	0x3da58272	0.08081521
45	0xbd172990	-0.03690487
46	0x3dcbbaac	0.09947714
47	0xbcb5e5e8	-0.022204354
48	0x3e175801	0.14779665
49	0x3de3d3ee	0.11124407
50	0xbe0c1b02	-0.13682178
51	0x3d0a6060	0.033783317
52	0xbc46ead0	-0.012140945
53	0xbd61f170	-0.055161893
54	0x3d9c3564	0.07627371
55	0xbcdddd48	-0.027083054
56	0xbd5f27a0	-0.05448115
57	0xbdcc2718	-0.09968394
58	0xbdf0c336	-0.117559835
59	0x3db7076a	0.08936961
60	0x3dc38586	0.09546952
61	0xbc9fea18	-0.019520804
62	0x3dbf42fc	0.09338948
63	0xbd8287ea	-0.0637358
64	0x3df8c556	0.12147014
65	0xbd0d929e	-0.034563653
66	0x3d8bcd26	0.06826238
67	0x3cbd13c0	0.023080707
68	0x3e1151cf	0.14191364
69	0xbc93dff8	-0.018051133
70	0xbdf38eea	-0.11892493
71	0xbdc5ea76	-0.096638605
72	0xbbbe33c0	-0.005804509
73	0xbd0d0ca8	-0.034435898
74	0xbdc2da0c	-0.095142454
75	0xbdde19d6	-0.108447716
76	0xbe09b8f1	-0.13449456
77	0xbd1dc3a4	-0.038516656
78	0x3dc6ded6	0.09710471
79	0x3cb22428	0.021745756
80	0x3b4d9b00	0.0031372905
81	0xbe17574d	-0.14779396
82	0x3bf233c0	0.007391423
83	0xbe10fd2c	-0.14159077
84	0xbdcab682	-0.09898092
85	0xbd926954	-0.07148996
86	0xbe0704ff	-0.131855
87	0xbc8601c0	-0.016358256
88	0x3d9ea7c6	0.07746844
89	0xbdd1a5b2	-0.10236682
90	0xbe16bd67	-0.14720689
91	0xbde8b422	-0.113624826
92	0x3c5a2710	0.013314977
93	0x3e176b8d	0.14787121
94	0x3df1c4da	0.118051246
95	0x3e0c5ac5	0.13706501
96	0x3b54d840	0.0032477528
97	0x3d5d75fc	0.054067597
98	0xbd2b8280	-0.0418725
99	0xbdeeef88	-0.11666781
100	0x3d1537a8	0.03643003
101	0x3d999184	0.07498458
102	0x3de9294e	0.11384831
103	0xbdb184e0	-0.08667922
104	0x3cc5bb48	0.024137154
105	0xbdf4bafe	-0.119497284
106	0xbe087822	-0.13327077
107	0xbd8afd16	-0.067865536
108	0xbdd8ef74	-0.10592547
109	0xbde7a5e5	-0.11310939
110	0xbc392cd0	-0.011302188
111	0xbe01f795	-0.12692101
112	0xbdf04de0	-0.117336035
113	0xbdd356d2	-0.10319294
114	0xbdbafed3	-0.09130635
115	0x3c1f8ab0	0.0097376555
116	0xbc8ee128	-0.017441347
117	0x3d801d2a	0.062555626
118	0xbcc02f58	-0.023460075
119	0x3d71b46c	0.059009954
120	0xbd0eaaba	-0.034830786
121	0x3d99b6b6	0.075055525
122	0x3d8458b0	0.06462228
123	0x3df5781a	0.11985798
124	0x3ce67ca8	0.028135613
125	0xbde8f82a	-0.113754585
126	0x3d4ad164	0.049516097
127	0x3c43db80	0.011954188
128	0xbdbccb68	-0.09218484
129	0x3d82d80e	0.063888654
130	0x3d0f519c	0.03498994
131	0xbcb35778	-0.021892294
132	0xbddd2fc6	-0.10800128
133	0xbd2140da	-0.039368488
134	0xbdafc6ae	-0.08582817
135	0x3c9807a8	0.018558338
136	0xbd8b49ea	-0.06801207
137	0xbbe68080	-0.0070343614
138	0xbd034cd6	-0.0320557
139	0x3d306cd8	0.04307255
140	0x3d8c2680	0.06843281
141	0xbcee63f8	-0.029100403
142	0x3db5a514	0.08869377
143	0xbe042f08	-0.12908566
144	0x3e11970b	0.14217775
145	0x3e116883	0.14200024
146	0x3e02bcd1	0.1276734
147	0xbdafa28a	-0.08575924
148	0xbd1f9966	-0.03896465
149	0x3d12db50	0.035853684
150	0xbdfbd0b4	-0.12295666
151	0x3ddcf1fa	0.10788341
152	0x3bc8b780	0.0061253905
153	0x3e00acfd	0.1256599
154	0xbdfffde6	-0.12499599
155	0xbd259216	-0.04042252
156	0xbe082ff2	-0.1329954
157	0xbd5dfb48	-0.05419472
158	0x3ccd2118	0.025040194
159	0xbb647600	-0.0034860373
160	0x3d7a4f68	0.061110884
161	0xbd47092c	-0.04859273
162	0xbd343130	-0.04399222
163	0xbde86939	-0.11348195
164	0xbe13aaea	-0.14420667
165	0x3e017515	0.1264232
166	0xbdd36b81	-0.10323239
167	0xbdf8dbf9	-0.121513315
168	0xbd0ef488	-0.034901172
169	0xbc5a3200	-0.013317585
170	0x3cea4788	0.028598562
171	0xbddb432e	-0.10706173
172	0xbde1071d	-0.10987685
173	0xbe0207ef	-0.12698339
174	0x3da1027e	0.078618035
175	0x3d8db894	0.06919971
176	0xbd887c40	-0.06664324
177	0x3b158800	0.0022816658
178	0xbce460b0	-0.027878135
179	0x3d15db54	0.03658612
180	0xbdc0a68c	-0.09406766
181	0xbd9e37cd	-0.07725487
182	0xbcf4e400	-0.029893875
183	0xbd174862	-0.036934264
184	0xbda452aa	-0.080235794
185	0xbde3d994	-0.11125484
186	0xbc9cf108	-0.019157901
187	0xbdf1d5fa	-0.11808391
188	0xbcfa3c54	-0.030546345
189	0x3e015729	0.12630905
190	0x3d3a8740	0.04553914
191	0x3c597e70	0.013274774
192	0xbd1c8c60	-0.03821981
193	0x3d91090e	0.07081805
194	0x3d549350	0.0518983
195	0x3da6ef4e	0.081511125
196	0x3d9e31c4	0.07724336
197	0x3c8a56d8	0.016887113
198	0xbcbd7940	-0.023129106
199	0xbdfd8976	-0.12379734
200	0xbddf2c1e	-0.108970866
201	0x3dafa046	0.085754916
202	0xbce81e78	-0.028334841
203	0x3c0785f0	0.008271679
204	0xbe06ddec	-0.13170594
205	0xbdcbc818	-0.09950274
206	0xbda86cfb	-0.082239114
207	0x3dde30ce	0.108491525
208	0x3de623ba	0.11237283
209	0xbd2d8aee	-0.04236882
210	0xbd8abdc7	-0.067744784
211	0x3dd60f5a	0.10452147
212	0x3db0e79c	0.08637926
213	0xbdb06b6a	-0.086142376
214	0x3de935ee	0.113872394
215	0x3d6ecbcc	0.058299825
216	0x3c6404b0	0.013917133
217	0xbd8b799e	-0.06810306
218	0x3dc748bc	0.0973067
219	0xbdaee8c7	-0.085404925
220	0xbbed23c0	-0.0072369277
221	0xbdd93051	-0.10604919
222	0xbe14e089	-0.14538778
223	0xbd8eb2bf	-0.06967687
224	0xbd5902f6	-0.05298134
225	0x3d76a680	0.06021738
226	0x3db5dfb8	0.088805616
227	0xbe01b6cb	-0.12667386
228	0x3dae31ae	0.085055694
229	0xbddb8e0e	-0.10720454
230	0x3e0e97af	0.1392505
231	0xbdc1d97f	-0.09465312
232	0x3d0b17c4	0.03395821
233	0x3d3fd2b0	0.046831787
234	0xbd079d9e	-0.0331093
235	0xbda8937d	-0.08231256
236	0x3e0de50d	0.13856907
237	0x3e1748f1	0.14773919
238	0x3e04c951	0.12967421
239	0xbd58c7a2	-0.05292476
240	0x3c505d80	0.012717605
241	0xbdb81bf2	-0.08989705
242	0xba0fc300	-0.00054840744
243	0xbdec37af	-0.11534058
244	0xbd48bfb8	-0.049010962
245	0x3d65d318	0.056109518
246	0xbdbc4628	-0.09193069
247	0xbdb35e16	-0.0875818
248	0x3de08b1a	0.109640315
249	0xbd57f3b0	-0.052722633
250	0xbd8ec314	-0.06970802
251	0x3d8fa7f6	0.07014458
252	0xbde3ee4a	-0.111294344
253	0xbd04e60a	-0.032445945
254	0x3b02d180	0.0019961298
255	0x3df49d9a	0.119441226
