Ni_prediction/savemodel/bst_mod_720.pth (torch_old, 533443 bytes, 44 tensors)

price_encoder.attention.weight f4 [1, 121]
00000000: b617 3141 8aa8 3141 aa41 3041 51a0 31c1
00000010: e32a 2fc1 4a15 2f41 3603 3141 38fa 2cc1
00000020: 33aa 3041 f2d1 2f41 011d 3041 f353 3141
00000030: 904a 2fc1 754c 30c1 e674 30c1 4a9a 2f41
00000040: 782b 2f41 79a9 2fc1 932d 2d41 a443 3041
00000050: e580 2d41 4771 3041 543f 3141 5cfb 30c1
00000060: bc02 31c1 dc1e 3041 2847 2fc1 5d41 31c1
00000070: c2e9 30c1 91bb 2fc1 1465 3041 1015 30c1
00000080: 5655 3041 04c0 3141 593a 2f41 c923 3041
00000090: ce03 31c1 103d 3141 409c 3041 81ed 30c1
000000a0: 2c5a 3041 a0cb 3141 3b95 2f41 232c 3141
000000b0: 7a0d 2f41 3d40 3141 d032 3141 9630 3141
000000c0: 7fba 3141 8f30 3041 128a 2f41 c6e9 2f41
000000d0: 7798 3041 69bc 2f41 dabf 2e41 4486 3041
000000e0: 74e4 3041 d09d 31c1 f484 30c1 faeb 3141
000000f0: a278 2f41 8863 31c1 c2d4 30c1 0b97 2ec1
00000100: 9e98 31c1 2560 3141 2e6c 3041 6acc 2f41
00000110: 1e5f 2f41 be47 30c1 e41a 30c1 737f 3041
00000120: edca 3041 2f67 2f41 3283 2fc1 ee14 2f41
00000130: 8681 2fc1 c4ee 1e41 cd6e 3141 fdde 3041
00000140: 234e 2fc1 0672 2fc1 938d 3041 8701 3041
00000150: f19b 3141 71ba 31c1 e302 2fc1 b4ca 31c1
00000160: d43c 3141 003f 3141 2dcc 3141 8fb0 3141
00000170: 0ff8 2f41 8b6f 3141 6dbe 2fc1 a2d8 31c1
00000180: 22c2 2fc1 8fd4 3041 181b 31c1 c5cd 2e41
00000190: 3ed5 2f41 880a 3041 017f 3041 aa91 3141
000001a0: d830 3141 6daf 2f41 562c 2f41 5b3c 3141
000001b0: 6d56 3141 877b 3041 b722 2f41 a78d 3041
000001c0: 3708 2f41 e1dc 3041 69a2 3141 1528 2f41
000001d0: d606 3041 4fe9 2f41 b662 3141 d5bf 3041
000001e0: 5d3e 3141
11.068289 11.103647 11.016031 -11.10164 -10.94797 10.942698 11.063284 -10.811089
11.041553 10.988756 11.007081 11.082995 -10.955704 -11.018666 -11.02854 10.975168
10.9481125 -10.978875 10.8236265 11.016514 10.843968 11.027656 11.077961 -11.061367
-11.063168 11.007534 -10.954872 -11.078458 -11.05707 -10.983293 11.024677 -11.005142
11.020834 11.109379 10.951745 11.008737 -11.063429 11.077408 11.038147 -11.057984
11.022015 11.112213 10.973933 11.073276 10.94079 11.078183 11.074905 11.074362
11.108031 11.011855 10.971209 10.994574 11.037223 10.983499 10.921839 11.03278
11.055775 -11.101028 -11.032459 11.120111 10.966951 -11.0868 -11.051943 -10.911876
-11.09976 11.085973 11.026411 10.987406 10.960722 -11.017515 -11.006565 11.031116
11.049542 10.962691 -10.96953 10.94261 -10.969122 9.933292 11.089551 11.0544405
-10.956576 -10.965338 11.034564 11.000373 11.100572 -11.108018 -10.938205 -11.111988
11.077351 11.077881 11.112348 11.105605 10.998061 11.089732 -10.983991 -11.115389
-10.984896 11.051894 -11.069115 10.925237 10.989561 11.002571 11.031007 11.0980625
11.074425 10.980329 10.948324 11.077235 11.0836 11.030158 10.945975 11.034583
10.939506 11.0539255 11.102151 10.947286 11.001669 10.99446 11.086599 11.046834
11.077725

price_encoder.encoder.weight_ih_l0 f4 [180, 45]
00000000: 1c78 cebd 3286 f1bd 1832 033d 2005 a93d
00000010: e67b 63bd a2b0 d53d 8009 a13d 0aef f9bd
00000020: b740 d4bd 4015 43bc 73f8 e1bd ceef 6cbd
00000030: bcda d9bc d840 fb3c beb2 f7bd 70ab 763c
00000040: fc9a 503d 0840 aabd 6861 b93d e6b1 eb3d
00000050: 355f e43d 2582 8c3d f450 dabd 6ebb 2ec1
00000060: d778 14be a5f2 17be 6b3d f9bd 5ba3 033e
00000070: 534b 083e 389a 143d 0b55 07be e0f9 fcbb
00000080: b6f8 ef3d 48b6 2a41 3abd 2f41 5f04 3041
00000090: 2b48 3041 f05a 3041 7214 41bf 7f82 2f41
000000a0: a5da 3241 7db6 3141 ec78 2f41 88ba c63c
000000b0: d6bd febd ae67 ffbd 8a59 8f3d b56d e23d
000000c0: f2a2 383d f629 bc3d 5df3 003e acf9 8cbd
000000d0: ff65 b13d d1fa 7e3d 706e 003d 88ee bb3d
000000e0: 50f7 a8bc fafc 8a3d 1fb8 043e 60dc 453c
000000f0: a325 11be c737 09be 60f9 9e3b 288a 06bd
00000100: 698e e43d e90b 8a40 a1b8 be3d 4e30 9f3c
00000110: 1a3d 2e41 77e7 f6bd cb93 13be 7a37 f73d
00000120: 3eaf 3abd 6482 11be 403b 4cbb 8aa9 32bd
00000130: 5754 0e3e 21bb c0bd 9718 2f41 6577 2e41
00000140: 3f16 3041 3c58 2f41 6c9c 3241 035a 07be
00000150: df81 2f41 80f7 2e41 2232 2f41 fac4 3141
00000160: 103a 243d 707b 343d 8da4 d83d e5ef dcbb
00000170: dc68 f0bd 010f e0bd 2898 e73c 173d 533d
00000180: 20da 853d 36ec 883d a41e dabc 8e92 abbd
00000190: c61e 06be 302e a13c 9e79 4bbd a006 cfbd
000001a0: 60f5 ba3b 58c1 883c 421f c23d 84a8 c7bd
000001b0: 1061 6c3c 93ca 96bd ba2d 7140 f241 083d
000001c0: ccf8 18bc f7cd 2f41 2495 5cbd 00d2 263d
000001d0: 7e00 35bd f577 403c b7c4 cebd 336e 103e
000001e0: 424c dfbd df28 103e bc1f 0ebe cc2a 3241
000001f0: d572 2e41 fb05 3041 1413 3141 a5e8 3141
00000200: a9b6 2dc1 0cd1 2f41 59b8 3141 6b89 2e41
00000210: c8a6 2f41 94d1 6f3d 1dbc 80bd c24b c73d
00000220: 46b9 5ebd 8e17 05be 4011 afbc 3076 20bd
00000230: b049 ed3d fa74 f73d bce1 c13d 0a7c 8fbb
00000240: 18b5 a13d 02a1 e63d b6fa ec3d f0ba c93d
00000250: 9958 2ec1 5cea 113d 4c36 7c3d b6da 15bd
00000260: a05c 17bc aac3 9140 5edb 303d c270 fdbe
00000270: b6cf 9ebc 1696 5c3d 686d 30c1 8cda 463d
00000280: 0de6 143e 40b8 83bd 3230 b6bd a1de 30c1
00000290: 7823 af3d aa78 c73d e9d2 13c1 3432 b9bd
000002a0: a69c 31c1 01bf 31c1 ea12 2fc1 5755 2fc1
000002b0: 4ca5 31c1 7ae8 c6bd 1571 2fc1 548a 30c1
000002c0: 0414 2fc1 8e35 2fc1 f22d a13d e86d 173d
000002d0: da51 b0bd b862 acbc 6659 ac3d 210c 0d3e
000002e0: 3c14 b13d bc0b 133e 9e4c 0dbe acfe 12be
000002f0: 1ea4 b4bd 6497 55bd 98df 593d 23d6 14be
00000300: 329c d8bd cff1 a6bd 805a edbb 6684 b23d
00000310: 24b1 08bd fcdc b8bd 6832 1d3d ca14 b4bd
00000320: 1e95 90be 62a5 aa3d 9a56 1a3d da0b 30c1
00000330: b249 cd3d 81c7 103e 6cf5 993d 50da df3c
00000340: 7d28 033e ca30 fa3d 4842 5d3d 0028 8cbc
00000350: 7bd8 d6bd 2bc0 2dc1 1a13 32c1 df94 32c1
00000360: 708f 2fc1 c598 30c1 e049 b1bb 8f35 30c1
00000370: 32bc 2ec1 2928 2ec1 848d 31c1 2427 a3bd
00000380: 70ee 3abc f6b3 8abc 7c26 863d d0b9 743c
00000390: f8c4 1cbd 59b5 013e 6f38 163e 0e5e cbba
000003a0: df5d 183e 7ced 813d beaf e73d 70b8 06be
000003b0: 60d3 bb3d 731d bbbd 4b28 2f41 705b 0f3c
000003c0: 00ab f83a 7459 1f3d e81f d23c fab1 d3bd
000003d0: 2cb5 9e3d c762 25be 5d0e a0bd 1e99 c3ba
000003e0: 13e9 32c1 6029 de3c 952b babd 967b f23d
000003f0: d66e 1fbd c39b 3041 927d 833d a1a5 0a3e
-0.10081503 -0.11793174 0.032030195 0.08252931 -0.05553808 0.10434081 0.0786314 -0.12203796
-0.10363906 -0.011906922 -0.11033716 -0.057845883 -0.026593558 0.030670568 -0.12094639 0.015055522
0.050929055 -0.08312994 0.09051782 0.11508541 0.11150972 0.068607606 -0.10659972 -10.920759
-0.14499222 -0.14838655 -0.12169918 0.12855284 0.13309984 0.036279887 -0.13216035 -0.007720217
0.1171736 10.669502 10.983698 11.001067 11.017619 11.022202 -0.7542182 10.969359
11.17838 11.107053 10.967022 0.024258867 -0.12438552 -0.12470947 0.069995 0.11056081
0.04507727 0.09187691 0.12592836 -0.06883559 0.08662032 0.062250916 0.03135532 0.091763556
-0.02062574 0.06786533 0.12960862 0.012076467 -0.14174514 -0.13400184 0.004851505 -0.0328466
0.11159975 4.313954 0.09312559 0.019432213 10.889917 -0.12055867 -0.14411847 0.12071128
-0.04557728 -0.14209896 -0.0031163245 -0.043618716 0.1389936 -0.09410692 10.943503 10.904149
11.005431 10.959042 11.163189 -0.1321793 10.969207 10.935425 10.949739 11.11059
0.040094435 0.04406303 0.105782606 -0.006742465 -0.1173875 -0.10940362 0.028270796 0.05157193
0.06535745 0.06685679 -0.026625939 -0.083775625 -0.13097677 0.019675344 -0.04967653 -0.101086855
0.0057055205 0.016693756 0.09478618 -0.09748939 0.014427438 -0.07362857 3.768416 0.033266015
-0.009336662 10.987784 -0.05385317 0.040727615 -0.044189923 0.01174735 -0.10096114 0.14104538
-0.10903217 0.14078091 -0.13879293 11.135448 10.903035 11.00146 11.067158 11.119298
-10.857095 10.988537 11.107507 10.908549 10.978218 0.05854948 -0.0628588 0.097312465
-0.05437591 -0.12997267 -0.02137053 -0.039175212 0.115863204 0.120828584 0.094668835 -0.0043788003
0.07895869 0.112611786 0.11571257 0.098501086 -10.89663 0.035623893 0.06157522 -0.036585532
-0.009238392 4.555135 0.043177955 -0.4950009 -0.019386154 0.05385407 -11.0267105 0.048548266
0.14540882 -0.06431627 -0.08895911 -11.054353 0.08551687 0.09739812 -9.238992 -0.090427786
-11.100744 -11.109132 -10.942118 -10.958335 -11.102856 -0.0971231 -10.965108 -11.0337715
-10.942387 -10.950575 0.078700915 0.03697005 -0.08609362 -0.021043167 0.08415489 0.13774158
0.086464375 0.14359945 -0.13798758 -0.14354962 -0.08820365 -0.05214633 0.05319175 -0.14534812
-0.10576667 -0.0815159 -0.0072434545 0.08716659 -0.03337206 -0.090265244 0.03837815 -0.08793028
-0.28238767 0.083323255 0.037680246 -11.002893 0.10023822 0.14138605 0.07517514 0.02732578
0.12808414 0.12216337 0.05401829 -0.017108917 -0.10490509 -10.859416 -11.129663 -11.1613455
-10.972519 -11.037297 -0.005410418 -11.013076 -10.920946 -10.884805 -11.09705 -0.0796645
-0.011409387 -0.016931515 0.06550309 0.014936879 -0.03827378 0.12666835 0.14669965 -0.0015515701
0.14879559 0.06344125 0.11312817 -0.13156295 0.09171176 -0.09136476 10.947337 0.008749828
0.001897186 0.03890367 0.02564998 -0.10336681 0.077493995 -0.16150962 -0.078152396 -0.0014922952
-11.181903 0.027119339 -0.09090344 0.118399784 -0.03892406 11.038028 0.06420435 0.13539745

price_encoder.encoder.weight_hh_l0 f4 [180, 45]
00000000: 3859 3241 16e8 3041 14b6 2e41 a3ba 2ec1
00000010: 5863 3041 a180 2f41 7337 3041 0966 32c1
00000020: 8343 30c1 8b61 2fc1 2ef7 31c1 3293 3141
00000030: 468b 2fc1 ae8b 30c1 4642 2f41 9ea7 32c1
00000040: f30a 2f41 b10e 31c1 a548 2e41 ea85 32c1
00000050: 3a53 2e41 1f31 3041 b294 2e41 af30 2f41
00000060: f512 30c1 1f2f 2ec1 65bc 2ec1 e79a 2f41
00000070: f746 2ec1 0ba2 2fc1 34fc 2e41 0eb8 30c1
00000080: 383c 3041 8ab2 3041 ab48 3041 fa3d 2ec1
00000090: f2d3 2fc1 8326 3141 0f33 2f41 fce8 3241
000000a0: 4915 3241 817c 2f41 e72d 31c1 a29d 3241
000000b0: 0d03 32c1 7366 32c1 576c 31c1 a480 30c1
000000c0: a445 3141 f71e 2fc1 77fa 31c1 86cd 2ec1
000000d0: 8dcb 31c1 e2a8 2f41 3582 31c1 9a43 2f41
000000e0: fcd3 32c1 f56f 2e41 c894 2f41 abac 30c1
000000f0: 4e6b 3241 33b0 2fc1 3a62 2e41 bc23 2fc1
00000100: 7a85 3041 ad0d 2f41 3fe7 31c1 790b 2fc1
00000110: 1ad8 30c1 857d 3241 2095 3141 df26 2f41
00000120: 5bcd 2fc1 9e47 2e41 c636 3141 c79c 32c1
00000130: f05d 3141 eccd 30c1 a35d 31c1 4f01 2fc1
00000140: 9a9c 2e41 5d35 3041 c9ec 31c1 c39f 2ec1
00000150: 58c6 31c1 ce87 30c1 70e8 2fc1 be66 3141
00000160: 791d 2fc1 df37 2f41 cc76 2fc1 6481 31c1
00000170: 9a88 32c1 2dcd 3041 b0b0 2ec1 7cd2 30c1
00000180: 075f 2ec1 7cc2 2fc1 a90c 3141 4c05 30c1
00000190: 17c0 3241 eadf 2fc1 2561 3241 4c5d 3141
000001a0: 9fd2 2ec1 b496 2e41 34e1 31c1 f652 3241
000001b0: ccd3 32c1 4053 31c1 a7f2 2e41 c186 2fc1
000001c0: 188f 31c1 6c19 31c1 939a 2f41 d7aa 3041
000001d0: 54da 2f41 192a 32c1 0db8 2e41 48cd 3241
000001e0: 9e8d 2fc1 0835 2f41 a477 2ec1 b709 31c1
000001f0: 6186 31c1 26ab 3141 fb06 2f41 2f44 2ec1
00000200: 9efe 2ec1 e8c9 2ec1 9a60 2ec1 2d1b 30c1
00000210: f072 3041 b5e5 2fc1 832f 3141 1517 3241
00000220: 2de1 2f41 699f 3141 fb11 31c1 7646 3141
00000230: 4cc6 2e41 5e5e 2f41 59dc 2e41 efb2 2fc1
00000240: a7d0 3141 bc12 2fc1 b2f3 2e41 ff34 3141
00000250: 49b4 2fc1 7ac8 3141 91a6 30c1 12cc 2e41
00000260: 638f 30c1 c7f5 3041 7726 3141 586a 30c1
00000270: 196d 2f41 e000 3241 2ff9 3041 d75c 2ec1
00000280: f9ea 2fc1 cc23 3041 0415 2f41 439f 32c1
00000290: 4b7c 32c1 8ec2 3141 8db3 2fc1 5246 2f41
000002a0: 1ca3 3241 ded8 3241 2b45 32c1 0c16 2fc1
000002b0: 3ecf 3041 bd66 2f41 b47d 2f41 4ed9 3141
000002c0: b8c8 2e41 5eba 32c1 b2f7 2e41 5888 30c1
000002d0: e96b 2e41 2273 2f41 e991 3241 27aa 31c1
000002e0: ad3f 2e41 8b3e 2f41 29e0 3241 3041 3241
000002f0: 1420 32c1 61aa 3141 1c01 31c1 9977 3041
00000300: 810b 31c1 3b01 2fc1 0291 2e41 a3db 2ec1
00000310: 0911 3041 61b7 2ec1 e6ce 2e41 e6df 3141
00000320: 4d6d 2ec1 f263 2e41 9b03 3041 d6a6 3241
00000330: ae29 30c1 99a3 2fc1 ad25 3141 f186 3141
00000340: fbed 2fc1 4f71 2ec1 7e2e 2f41 105b 32c1
00000350: 29d8 3041 92d3 3241 4c3a 3241 82f3 2ec1
00000360: d52f 30c1 e5d4 2e41 ade4 3141 4b3e 3141
00000370: 97b6 2f41 0c8e 3141 af29 30c1 1bbf 2e41
00000380: c692 2ec1 d2ba 2f41 5127 3141 f1da 3141
00000390: 9874 32c1 0ffd 3141 6e9f 2e41 8597 2f41
000003a0: a960 3241 4dc9 2fc1 fdd6 3241 a203 30c1
000003b0: 24ed 2e41 b353 2ec1 7af5 2fc1 f9b8 2f41
000003c0: e831 31c1 9362 3241 3239 32c1 23f4 3041
000003d0: 9271 3241 36fd 2ec1 76c0 2f41 1f76 2e41
000003e0: be51 2e41 c0a8 30c1 49f1 30c1 3b29 2e41
000003f0: f45d 3241 144a 2fc1 c194 32c1 a640 3041
11.146782 11.056662 10.919453 -10.920566 11.024254 10.968904 11.013537 -11.149911
-11.016482 -10.961314 -11.122847 11.098436 -10.971502 -11.0341015 10.95368 -11.165922
10.940173 -11.066087 10.8927355 -11.157694 10.895319 11.011992 10.911303 10.949386
-11.004628 -10.886504 -10.920995 10.975318 -10.892325 -10.977061 10.936573 -11.044935
11.014702 11.043589 11.017741 -10.890131 -10.989244 11.071902 10.9499655 11.181881
11.130197 10.967896 -11.073707 11.163485 -11.125745 -11.150012 -11.08895 -11.031406
11.079502 -10.94506 -11.123649 -10.925177 -11.112195 10.978731 -11.094289 10.954004
-11.176754 10.902333 10.973824 -11.042155 11.151197 -10.980517 10.898981 -10.946224
11.032587 10.940839 -11.118957 -10.940301 -11.052759 11.155644 11.098907 10.94699
-10.987636 10.892485 11.075872 -11.163276 11.085434 -11.050274 -11.085361 -10.9378195
10.913233 11.013028 -11.120309 -10.914004 -11.110924 -11.033155 -10.994247 11.087584
-10.944695 10.95114 -10.966503 -11.0940895 -11.15835 11.050092 -10.918137 -11.051388
-10.8982 -10.984982 11.065591 -11.001293 11.171897 -10.9921665 11.148717 11.085278
-10.926421 10.911793 -11.117481 11.145254 -11.176708 -11.082825 10.934241 -10.970399
-11.097435 -11.0687065 10.975238 11.041709 10.990803 -11.135278 10.919934 11.1751175
-10.9720745 10.950447 -10.904209 -11.064872 -11.095307 11.104284 10.939204 -10.891646
-10.937162 -10.9242935 -10.898584 -11.006635 11.028061 -10.993581 11.0741 11.130635
10.992475 11.1014185 -11.06689 11.079702 10.923412 10.960539 10.928796 -10.981185
11.1134405 -10.942074 10.934496 11.0754385 -10.981515 11.111444 -11.040666 10.924822
-11.0350065 11.060004 11.071891 -11.025963 10.964135 11.125214 11.060836 -10.897666
-10.994866 11.008739 10.942631 -11.163882 -11.155345 11.109999 -10.981336 10.954668
11.164822 11.177946 -11.141887 -10.942883 11.050596 10.962583 10.968189 11.115553
10.924004 -11.1705 10.9354725 -11.033287 10.901345 10.965609 11.160623 -11.104041
10.890546 10.952769 11.179727 11.140915 -11.132832 11.104096 -11.062771 11.029199
-11.065309 -10.9378 10.910402 -10.928622 11.004159 -10.91977 10.925512 11.117163
-10.901685 10.899401 11.00088 11.165731 -11.010176 -10.977441 11.071698 11.095445
-10.995601 -10.902663 10.948851 -11.147232 11.052773 11.176653 11.139233 -10.93445
-11.011678 10.926976 11.118329 11.077708 10.982078 11.097179 -11.010177 10.921657
-10.910833 10.98311 11.072099 11.1159525 -11.153465 11.124282 10.913923 10.974492
11.148599 -10.986646 11.177487 -11.000887 10.932896 -10.895434 -10.997431 10.982659
-11.074684 11.149066 -11.138964 11.059604 11.152727 -10.936819 10.984488 10.903838
10.894957 -11.041199 -11.0589075 10.885066 11.147938 -10.9555855 -11.161317 11.015783

price_encoder.encoder.bias_ih_l0 f4 [180]
00000000: de67 31c1 3c83 3241 d2ea 2f41 d355 2fc1
00000010: c83d 32c1 e3cc 2fc1 c6dd 3141 980a 30c1
00000020: d212 3241 05a7 31c1 d78b 2fc1 6ee9 30c1
00000030: 10ac 32c1 0bad 3041 f35c 2f41 ea8b 3241
00000040: d9a3 31c1 2806 2f41 dbe5 31c1 cdcc 32c1
00000050: 7413 31c1 5c37 2ec1 0e9f 30c1 1914 3041
00000060: e0ae 31c1 f8b4 30c1 c6fa 2ec1 b91b 3041
00000070: e848 31c1 c3fe 2f41 de01 2f41 66bd 32c1
00000080: ca6d 3241 66a9 31c1 9539 2fc1 24e2 2f41
00000090: c1cf 2fc1 04ed 32c1 ee5e 2ec1 d75e 3141
000000a0: 7f20 2f41 635d 2d41 026b 32c1 70dc 2f41
000000b0: 7023 3041 8dc4 2ec1 7da6 3241 70ed 2f41
000000c0: 0cdc 31c1 566f 2fc1 e27b 32c1 2533 3241
000000d0: 7bc5 30c1 1107 3141 b0f7 2e41 a062 32c1
000000e0: 1908 2fc1 a687 2fc1 e9e1 3041 8d6d 2f41
000000f0: 1163 3041 e886 30c1 b9cb 3141 f043 3041
00000100: 68fa 31c1 2d42 31c1 af5e 30c1 84d0 2ec1
00000110: b05c 2f41 587d 31c1 3447 2ec1 4881 2ec1
00000120: b7ea 3041 8af8 31c1 b912 3041 2554 2e41
00000130: 82cc 30c1 16fd 2e41 84d0 30c1 298b 31c1
00000140: 38d3 2f41 8c0d 32c1 0ad4 31c1 e691 2fc1
00000150: 2e7a 3141 bbf5 3041 0d21 30c1 70c1 2fc1
00000160: 8afe 3041 9ff2 3041 744d 2e41 baf5 31c1
00000170: cc60 2fc1 f4e6 32c1 6068 2e41 26c9 3041
00000180: 3b69 31c1 ed2b 3041 9b65 2f41 27c2 2ec1
00000190: 293e 2ec1 8f24 3141 1d2e 3041 4f3b 2f41
000001a0: ef89 31c1 3730 2f41 4989 3141 2251 3241
000001b0: 4871 2f41 9cdc 3141 2b5c 32c1 abf0 2e41
000001c0: 8619 3141 8ee4 2ec1 8954 2ec1 8996 2fc1
000001d0: b3db 3241 683a 2ec1 cca8 2ec1 faf7 3141
000001e0: 2b5f 30c1 9988 31c1 23c8 31c1 f781 2f41
000001f0: 412e 3241 d8eb 2f41 0e3d 32c1 633b 3141
00000200: 28be 2f41 9625 30c1 d295 31c1 1c43 3241
00000210: a778 30c1 7e85 30c1 d8b5 3141 6723 2fc1
00000220: 3bdd 3041 067f 2e41 12ac 31c1 34bd 32c1
00000230: 3aba 32c1 0eb7 2e41 3859 30c1 4274 3241
00000240: e4e3 2ec1 c1c7 32c1 d7a5 2ec1 1022 30c1
00000250: cada 3141 1739 3141 31c8 2e41 dc67 2ec1
00000260: 7a8c 3241 0db8 31c1 07b9 31c1 bcf6 31c1
00000270: e64b 2fc1 4238 32c1 93b2 2f41 d649 31c1
00000280: 29e7 2fc1 18f8 2ec1 cc32 3041 2585 2ec1
00000290: 37ef 2e41 ddcd 2f41 b26a 30c1 cfbe 2e41
000002a0: 3851 2ec1 8f7d 2ec1 3476 3241 acf1 31c1
000002b0: 0c15 2fc1 c593 30c1 f25d 2f41 2d3c 2f41
000002c0: b0c6 31c1 18f1 30c1 c132 3041 2cd4 3241
-11.087858 11.15704 10.994829 -10.958453 -11.140083 -10.987521 11.116644 -11.002586
11.129595 -11.103276 -10.971641 -11.05699 -11.167007 11.042247 10.960193 11.159159
-11.102502 10.939003 -11.118617 -11.175 -11.067249 -10.888515 -11.038832 11.004907
-11.105194 -11.044182 -10.936224 11.006768 -11.080299 10.999698 10.937956 -11.17124
11.151804 -11.103857 -10.951558 10.99271 -10.988221 -11.182865 -10.898176 11.085654
10.945434 10.8352995 -11.151125 10.991318 11.008652 -10.922986 11.165647 10.995468
-11.116222 -10.964682 -11.155245 11.137486 -11.048213 11.064225 10.935471 -11.149078
-10.939477 -10.970617 11.055154 10.964246 11.024186 -11.032936 11.112237 11.016586
-11.123634 -11.078656 -11.023116 -10.925907 10.960129 -11.0931015 -10.892384 -10.906563
11.057303 -11.1231785 11.004571 10.895543 -11.049929 10.936789 -11.050907 -11.096475
10.989067 -11.128307 -11.114267 -10.97312 11.092329 11.059993 -11.008069 -10.984726
11.062143 11.059234 10.893909 -11.122492 -10.961132 -11.181385 10.900482 11.0491085
-11.088191 11.010724 10.962306 -10.9224 -10.890176 11.071425 11.011258 10.95198
-11.096175 10.949271 11.096017 11.144808 10.965157 11.11636 -11.147502 10.933757
11.068731 -10.9307995 -10.895638 -10.974252 11.1786375 -10.889259 -10.91621 11.123041
-11.023234 -11.095849 -11.1113615 10.96923 11.136292 10.995079 -11.139906 11.076999
10.983925 -11.009176 -11.099077 11.141384 -11.029456 -11.032591 11.106895 -10.946143
11.054011 10.906012 -11.104509 -11.171192 -11.170465 10.919691 -11.021782 11.153383
-10.930637 -11.173768 -10.915488 -11.008316 11.115915 11.076438 10.923875 -10.900356
11.159296 -11.107434 -11.107673 -11.122738 -10.95603 -11.138735 10.981097 -11.080526
-10.993936 -10.93557 11.012402 -10.907506 10.933402 10.98776 -11.026049 10.921584
-10.894829 -10.905654 11.153858 -11.121502 -10.942638 -11.036077 10.960436 10.952191
-11.111008 -11.058861 11.012391 11.1768

price_encoder.encoder.bias_hh_l0 f4 [180]
00000000: 320f 2fc1 e4cf 3241 3868 3241 5e91 2ec1
00000010: d4ae 31c1 af30 30c1 f15b 2e41 eb7f 32c1
00000020: 5712 3041 5381 2fc1 43c7 2fc1 b6a9 2ec1
00000030: e405 30c1 edb6 2f41 c3d0 3141 20b7 2e41
00000040: bf1d 32c1 3256 2f41 3774 31c1 1e86 2ec1
00000050: 65f3 31c1 3203 31c1 3f15 30c1 4345 3041
00000060: a82c 31c1 20cd 30c1 db77 30c1 0371 2e41
00000070: 2c20 30c1 deed 3041 3d66 2f41 617b 32c1
00000080: ac40 3241 7e59 30c1 a9e6 31c1 2ddf 3041
00000090: 152e 2ec1 923a 30c1 5ca1 2fc1 eb84 3141
000000a0: b8cf 2e41 b017 2e41 0efc 30c1 ee77 2e41
000000b0: 6343 2e41 9ece 31c1 503b 2e41 187d 2e41
000000c0: d4b7 30c1 1e32 31c1 19da 30c1 b206 3141
000000d0: 4b0d 30c1 aec6 2f41 93c1 2e41 c688 30c1
000000e0: 1312 31c1 70d0 30c1 74cf 3041 a138 3241
000000f0: 1d09 2f41 3ef7 2fc1 0677 3041 cd04 3241
00000100: 770f 30c1 146e 32c1 c157 31c1 fc12 31c1
00000110: de58 2f41 4739 31c1 8c5a 2fc1 19dd 32c1
00000120: ca4c 2e41 3a41 2fc1 622f 3141 8af6 3141
00000130: fc22 30c1 ba9a 2e41 abe2 2fc1 0865 2ec1
00000140: 9eca 2e41 0bbb 31c1 aee1 30c1 f43b 30c1
00000150: 457c 3241 516c 3141 c7d1 31c1 0dd5 31c1
00000160: 35b8 2f41 1d34 3241 60fe 3041 6976 32c1
00000170: edb7 31c1 1eb0 2ec1 c5f2 3041 686d 3241
00000180: 8237 30c1 ab57 3141 47b2 3141 2cc4 31c1
00000190: 0ffc 31c1 a200 2f41 ee3c 3041 28cd 3041
000001a0: 8c4f 30c1 e7d4 2e41 2ac9 2e41 0921 3241
000001b0: 6b41 2e41 4033 3141 1114 30c1 a966 3041
000001c0: b287 2f41 5565 2fc1 c9cd 31c1 6f3e 2fc1
000001d0: c9bc 2e41 9b06 31c1 6653 30c1 46a9 3141
000001e0: b0b2 2ec1 a978 2ec1 71e2 2fc1 538a 2f41
000001f0: b7ef 2e41 59a8 3041 26b9 30c1 2a84 2e41
00000200: 5d5d 2e41 78e9 30c1 2af3 2fc1 95c3 3141
00000210: 77ac 30c1 2b33 32c1 7fd7 3141 5ebc 32c1
00000220: 4dcf 3141 3257 3241 eecf 32c1 a25c 2fc1
00000230: e478 2fc1 a02c 2f41 ea81 2ec1 e2ca 3141
00000240: 52b8 32c1 5726 31c1 14bf 2fc1 0593 32c1
00000250: f77b 2e41 8426 3041 4daf 2e41 e115 30c1
00000260: 0e47 2f41 6041 31c1 32b0 2ec1 b496 2ec1
00000270: dab3 2ec1 becf 2fc1 3ab5 3241 147b 2ec1
00000280: 89eb 31c1 b5e1 2fc1 1d33 3041 9e0d 32c1
00000290: 2a8c 2f41 e513 3041 d23a 32c1 5f92 3041
000002a0: 52ad 31c1 677b 32c1 f2bb 2f41 a7ec 2ec1
000002b0: e09f 32c1 4d98 32c1 1d81 3141 cb51 2f41
000002c0: c846 31c1 28cc 31c1 59bb 3141 49c8 3041
-10.94121 11.175755 11.150444 -10.91049 -11.105183 -11.011886 10.897447 -11.15623
11.0044775 -10.969073 -10.986148 -10.916433 -11.001438 10.98216 11.113467 10.919708
-11.132262 10.958544 -11.090873 -10.907743 -11.1219225 -11.06328 -11.005187 11.01691
-11.073402 -11.050079 -11.029262 10.902591 -11.007854 11.058073 10.9624605 -11.155122
11.140789 -11.021849 -11.1188135 11.054486 -10.8862505 -11.014299 -10.976894 11.094951
10.925713 10.880783 -11.061537 10.90428 10.891452 -11.112944 10.889481 10.90554
-11.04488 -11.074736 -11.0532465 11.064135 -11.003245 10.986006 10.922259 -11.033392
-11.066913 -11.050888 11.050648 11.138825 10.939725 -10.997862 11.029058 11.126172
-11.003776 -11.151875 -11.083924 -11.067135 10.959196 -11.076484 -10.959606 -11.178979
10.893747 -10.953424 11.074068 11.12269 -11.008541 10.912775 -10.992839 -10.899666
10.924467 -11.108165 -11.055098 -11.014637 11.155339 11.088944 -11.113715 -11.114514
10.982472 11.137723 11.062103 -11.153909 -11.107404 -10.917997 11.05927 11.1517105
-11.013552 11.083903 11.106025 -11.110394 -11.124038 10.9376545 11.014875 11.050087
-11.019421 10.926978 10.924112 11.133065 10.890971 11.075012 -11.004899 11.0250635
10.970629 -10.962239 -11.1127405 -10.952743 10.92109 -11.064113 -11.020361 11.1038265
-10.918625 -10.904458 -10.992784 10.971271 10.933524 11.0411005 -11.045202 10.907267
10.897794 -11.056999 -10.996866 11.1102495 -11.042106 -11.137492 11.115111 -11.170988
11.113111 11.146288 -11.175764 -10.960115 -10.967014 10.948395 -10.906717 11.112032
-11.17 -11.07186 -10.98415 -11.160893 10.905265 11.009403 10.917798 -11.005342
10.954847 -11.078461 -10.918016 -10.911793 -10.918909 -10.988218 11.169245 -10.905048
-11.120004 -10.992604 11.012479 -11.1283245 10.97172 11.004857 -11.13936 11.035735
-11.104815 -11.155128 10.983385 -10.932776 -11.164032 -11.162183 11.094022 10.957469
-11.079781 -11.112343 11.108239 11.048898

atten_layer.0.weight f4 [45, 135]
00000000: c052 bcbb 40cb d33b 10c0 bfbc 5849 8dbc
00000010: 6717 ab3d 3622 4b3d d9b8 42bd 3d6c 05bd
00000020: f650 523d 2b99 a33d 5ccd c83c 1d5d 973d
00000030: 3ca7 90bc 4e36 5b3d 80fe 68ba 8dca 01bd
00000040: 14e6 bfbc c45c dd3c 8e32 373d c081 323b
00000050: 58d2 8dbc fa02 fcbc 8087 31bb 39f2 af3d
00000060: f800 dc3c ca41 a9bd f04b 9fbc 801b 053d
00000070: 0782 a8bd 12a7 633d 647b 6abd 89eb 90bd
00000080: 6c25 2fbd 20a2 403b de57 81bd d087 d5bb
00000090: b81c 79bd 50e5 3fbc 30cc a8bd 237b 07bd
000000a0: 6033 80bb 19d4 a53d b146 afbd 6066 03bc
000000b0: 00c0 77b8 2339 9cbd 1f54 3bbd de2a 283d
000000c0: a243 6a3d 770b 853d 0bb3 9d3d bdf9 a33d
000000d0: f054 96bc 864a 8abd 39e6 97bd eaf6 2cbd
000000e0: e049 4fbd 2c1a e93c 590e 35bd 6f67 883d
000000f0: 9b5c 38bd 7bd2 8c3d 12c1 513d ef27 963d
00000100: 3f0c 94bd a935 a53d 4089 c3ba eb93 973d
00000110: 325d 423d 8806 81bd eae3 91bd 0b99 ae3d
00000120: 78ae b2bc a0fc 7bbc 809d eaba 3135 7ebd
00000130: 2055 65bc fed8 283d e0a0 6cbb 4642 a3bd
00000140: 0885 1e3d 6981 843d ff6e 0dbd 6b21 90bd
00000150: 6f9a 9b3d f279 343d 791f 9a3d 00b4 103b
00000160: 1d00 32bd 5d1f 9b3d 8e66 31c1 c4ad 36c1
00000170: 501c 3dc1 067d 31c1 0598 3041 df66 31c1
00000180: b8f0 31c1 c841 3d41 5c68 3041 44da 2f41
00000190: 6378 30c1 1dc0 2ec1 73fa 2fc1 3375 3141
000001a0: 01f4 30c1 a217 2fc1 fa07 30c1 2486 3041
000001b0: 3602 3141 cd60 26c1 657e 39c1 08db 3d41
000001c0: 8692 3b41 49f1 2641 1c06 32c1 7fe0 2341
000001d0: e02b 3841 417a 3041 bff0 3cc1 821a 3d41
000001e0: 3077 3041 de8b 31c1 dfd6 2f41 aefc 30c1
000001f0: 7e41 2fc1 d05b 2fc1 9428 3041 2a23 30c1
00000200: dc16 3241 4e51 3041 3e7f 26c1 c707 3941
00000210: fc21 3fc1 bcb1 32c1 4c5b 3b41 cac1 8abd
00000220: c594 993d f8e9 51bd b92b 8ebd 4c7a ee3c
00000230: c08e 3e3b 0e6a 353d 80f2 513c 4c23 c9bc
00000240: 7a9d 043d eacb a2bd d335 12bd 7e44 713d
00000250: 16db 3f3d fb86 2bbd 1de2 a83d 62f4 5f3d
00000260: 8e12 2b3d 3815 7cbd 81a6 51bd faf9 92bd
00000270: a0f9 4dbd 1e36 013d 99b2 873d fd37 943d
00000280: 6026 42bb f0bb 113c aed4 f3bc e8f6 82bd
00000290: 6041 f83c 58aa ccbc ccdb 18bd 48b0 f5bc
000002a0: 44ae 8abd 1c96 54bd 1eb9 05bd 508c afbc
000002b0: 9cb1 a7bc 1f3c a33d 2859 abbc 7aeb 2f3d
000002c0: 6cd8 87bc 7785 9f3d e0bf bbbc e679 543d
000002d0: eaed 7b3d 5039 c6bc 245c f13c a424 45bd
000002e0: b2de 12bd 9e89 473d ea1f 3b3d b48a 913c
000002f0: c125 933d 797c 42bd a8c9 4e3c 7513 8dbd
00000300: 52da adbd 10d1 5bbd 3f69 af3d 4e3f 513d
00000310: 6968 803d 3a40 7a3d 10c7 33bc 200d 793c
00000320: ea2c c5bc 375f 49bd a2c8 10bd 431c 4dbd
00000330: ce6e 273d f015 24bd bcd8 9ebc 3502 a93d
00000340: 9aa9 143d f80e 7c3c dc5c 84bc 0d30 873d
00000350: 3052 af3b 605a 3f3b 60fe 3abd e99e 8fbd
00000360: 42aa 7e3d f392 43bd a98c 9bbd 92cc 9fbd
00000370: 2cd2 9e3c d83d aabd 2618 91bd 107c ae3c
00000380: dae3 263d 67c9 34c1 d8cf 3741 ca64 3a41
00000390: 02c8 2fc1 9ea7 2f41 eb32 3041 4a6f 2f41
000003a0: 8c9a 33c1 96d0 3241 f27b 3141 a3fa 2fc1
000003b0: 3521 2dc1 cc37 31c1 5d71 2f41 276b 31c1
000003c0: c353 2dc1 d2b5 3041 895f 3041 17fd 2f41
000003d0: 3862 36c1 dedc 3441 3eda 33c1 eca9 38c1
000003e0: 232b 3841 8d83 30c1 51e3 3641 822b 34c1
000003f0: d7bc 3141 cd32 3741 b5e3 34c1 4baf 3041
-0.0057471693 0.0064634383 -0.023407012 -0.017246887 0.08354073 0.049593173 -0.047539566 -0.032573927
0.05134674 0.07988199 0.024511985 0.07390807 -0.017657869 0.053518586 -0.0008888021 -0.031687308
-0.02342514 0.027021773 0.044725947 0.0027237982 -0.017312214 -0.030763138 -0.002708882 0.08591122
0.02685593 -0.082645014 -0.01944539 0.03249693 -0.08227926 0.055579253 -0.05724658 -0.07076175
-0.042760298 0.002939351 -0.063155875 -0.0065164343 -0.060818404 -0.011712387 -0.08242071 -0.033076417
-0.0039123744 0.08097095 -0.08558405 -0.008020014 -5.9068203e-05 -0.076280855 -0.04573452 0.041056506
0.057193406 0.06496327 0.07700165 0.08006618 -0.018351048 -0.067524955 -0.07416958 -0.042227663
-0.050607562 0.028454863 -0.044203136 0.066603534 -0.04501019 0.068760835 0.051209517 0.073318355
-0.07228898 0.080668755 -0.0014918223 0.0740126 0.04745216 -0.06300074 -0.07123549 0.085252844
-0.021811709 -0.015380055 -0.0017899722 -0.062062446 -0.013997346 0.041222565 -0.003610663 -0.07971625
0.038701087 0.064699955 -0.034529682 -0.07037624 0.07597815 0.04406161 0.07525534 0.0022079945
-0.04345714 0.075743414 -11.087538 -11.417423 -11.819412 -11.093023 11.037114 -11.087615
-11.121269 11.82856 11.025478 10.9907875 -11.029391 -10.921903 -10.998645 11.091113
-11.059571 -10.94327 -11.001947 11.032749 11.06304 -10.398633 -11.593358 11.865974
11.723272 10.4339075 -11.126492 10.242309 11.510712 11.029847 -11.808776 11.818972
11.0290985 -11.096647 10.989959 -11.061689 -10.953489 -10.959915 11.009907 -11.008585
11.130581 11.01985 -10.406065 11.564399 -11.945797 -11.168392 11.709789 -0.067752436
0.07499079 -0.05124852 -0.06941933 0.02911105 0.0029076785 0.044290595 0.012814164 -0.024552964
0.032376744 -0.0794905 -0.035695862 0.05890321 0.046839796 -0.041876774 0.08246253 0.05467642
0.041765742 -0.061543673 -0.05118418 -0.071765855 -0.05028689 0.03154575 0.06625862 0.072372414
-0.0029624924 0.008894905 -0.0297645 -0.0639475 0.03030461 -0.02498357 -0.03731899 -0.029991284
-0.0677152 -0.051900968 -0.032647245 -0.02142921 -0.020470433 0.079704516 -0.020916536 0.042949177
-0.01658269 0.07789128 -0.022918642 0.051874064 0.06150619 -0.02419725 0.029462881 -0.048130646
-0.03585691 0.048715226 0.045684732 0.017766334 0.07184935 -0.047481988 0.012621321 -0.06888477
-0.08488907 -0.053666174 0.08564996 0.051085763 0.06269915 0.061096407 -0.010972753 0.015200883
-0.024069268 -0.04916307 -0.03534759 -0.05007578 0.040877156 -0.040059984 -0.019390456 0.08252374
0.036294557 0.015384428 -0.01615756 0.06600962 0.0053503737 0.0029198155 -0.045652747 -0.070127316
0.06217409 -0.047747564 -0.07595188 -0.078026906 0.019387327 -0.08312577 -0.07084684 0.021299392
0.04074464 -11.2991705 11.488243 11.649607 -10.98633 10.978422 11.012431 10.96467
-11.225231 11.175924 11.09276 -10.998691 -10.820607 -11.076122 10.965177 -11.08866
-10.83295 11.04439 11.023324 10.9992895 -11.398979 11.303923 -11.240782 -11.541485
11.510531 -11.032117 11.430497 -11.260622 11.1086035 11.449903 -11.305593 11.042796

atten_layer.0.bias f4 [45]
00000000: 1f4a 2b41 3bc2 3141 bdf9 2d41 9975 30c1
00000010: 7eb8 2fc1 4c13 31c1 4838 32c1 3fc9 2f41
00000020: a1be 30c1 e240 3041 23b9 2ec1 a45e 31c1
00000030: 7615 3141 8430 2fc1 5ff7 2dc1 7985 3141
00000040: c6e8 2ec1 b9b6 31c1 ec32 2ec1 6107 2fc1
00000050: b91e 31c1 657b 3241 145e 2f41 6725 3141
00000060: c070 32c1 1151 31c1 457d 30c1 3194 30c1
00000070: 34b4 2ec1 2dd6 32c1 807d 2f41 6bf2 3041
00000080: 03ee 3041 adfa 3041 7695 2fc1 c315 32c1
00000090: 4d5b 3141 f393 2f41 8285 32c1 a397 2f41
000000a0: 6e49 2ec1 c909 31c1 d404 3141 804a 3141
000000b0: fe67 2ec1
10.705596 11.10992 10.873471 -11.02871 -10.982542 -11.067211 -11.138741 10.986632
-11.04654 11.015841 -10.920199 -11.085606 11.0677395 -10.949345 -10.872893 11.095086
-10.931829 -11.10711 -10.887432 -10.9393015 -11.070001 11.155126 10.960468 11.071631
-11.152527 -11.082292 -11.030583 -11.03618 -10.918995 -11.177289 10.96814 11.059184
11.058108 11.0612 -10.9739895 -11.130313 11.08479 10.97362 -11.157595 10.974521
-10.892927 -11.064889 11.063679 11.080688 -10.900389

atten_layer.2.weight f4 [1, 45]
00000000: b66e 1341 eeed 4fc1 a9a5 2541 c0e9 16c1
00000010: fafe 1cc1 9447 16c1 0b61 22c1 04f2 3dc1
00000020: 27b3 19c1 0f27 1b41 f1a9 0cc1 a1d4 3c41
00000030: f069 41c1 243c 1cc1 7d52 5b41 9193 2441
00000040: ae33 4b41 592e 4141 cf08 12c1 72b7 13c1
00000050: fcc1 3941 fcc1 2f41 0fe1 2d41 9df7 2d41
00000060: 45d7 3541 a9df 4741 eaab 2ac1 59b9 24c1
00000070: 493d 5341 d300 3541 82f7 2c41 7b9c 45c1
00000080: 681e 2441 84c4 33c1 6647 4341 a23d 27c1
00000090: a7cf 39c1 09cb 3dc1 f697 3c41 d968 46c1
000000a0: 1ece 14c1 15cc 3641 6756 49c1 1a35 3041
000000b0: 3b3b 14c1
9.214529 -12.995588 10.352944 -9.432068 -9.81225 -9.392475 -10.148692 -11.871586
-9.606238 9.697036 -8.79149 11.801911 -12.088364 -9.764683 13.707639 10.286027
12.700117 12.073815 -9.127151 -9.232286 11.609859 10.984859 10.867446 10.872952
11.365056 12.492105 -10.666971 -10.295251 13.202462 11.312701 10.810427 -12.350703
10.257423 -11.235477 12.204931 -10.452547 -11.613196 -11.862069 11.7871 -12.400598
-9.300322 11.424825 -12.583594 11.012964 -9.264461

lstm.weight_ih_l0 f4 [180, 45]
00000000: 3559 2c41 729e 32c1 5c4d 33c1 9474 3041
00000010: d2a6 32c1 7487 3041 3186 2e41 a6cc 3241
00000020: efb4 2dc1 e7f3 3241 af7e 2f41 e9b9 3141
00000030: 8b90 3041 a334 3041 df24 31c1 5805 3341
00000040: 837b 2fc1 7021 33c1 1e38 30c1 b3db 3341
00000050: 0321 34c1 0fd3 3641 7587 3341 4bbc 30c1
00000060: 468e 2641 d57c 34c1 8d01 3441 3ac7 30c1
00000070: bb25 35c1 58a7 3241 3d20 30c1 277c 32c1
00000080: 0ffc 2fc1 53e9 3141 0286 3241 1d95 32c1
00000090: a8d0 30c1 1910 3041 bf8c 3041 af49 32c1
000000a0: bae4 30c1 c7ef 3341 fa59 34c1 f242 32c1
000000b0: 0bc6 3441 5afe 3241 6bc4 35c1 3d0e 33c1
000000c0: ae88 3241 41a5 3141 3c5e 3141 456f 3141
000000d0: bca4 3141 d798 2fc1 ebe5 2f41 1cc3 2f41
000000e0: 5d21 2fc1 24d4 3041 3bd9 2ec1 a199 2fc1
000000f0: 65e1 2e41 edd4 30c1 54af 2ec1 5b54 2fc1
00000100: 2fd4 3341 dc43 34c1 8c5d 3141 8a04 3641
00000110: 3875 32c1 8ae8 17c1 9099 33c1 658d 3341
00000120: 2b7e 2ec1 7db4 34c1 c9fc 3241 e719 30c1
00000130: f14b 32c1 c30c 33c1 e3fc 2f41 ff49 2f41
00000140: 24cc 30c1 e6e5 30c1 2758 3141 e907 3241
00000150: c561 2ec1 b8ec 30c1 7eb1 3341 5311 31c1
00000160: 5a4c 2cc1 a044 3441 b5f1 2ec1 256e 34c1
00000170: 1e57 34c1 bd7d 2f41 5bf5 30c1 be57 3041
00000180: e6e7 30c1 fc32 3441 3bb7 32c1 ecd9 31c1
00000190: 9439 3041 fd69 1bc1 74ad 31c1 631a 3241
000001a0: a332 2f41 10f8 2e41 83c8 3141 dd49 2f41
000001b0: d595 2fc1 4af4 3341 6aad 33c1 5bcc 3141
000001c0: ca42 3141 883b 32c1 eb98 08c1 7aad 31c1
000001d0: 8bd7 3541 1655 30c1 62d2 33c1 c142 3341
000001e0: 6fde 3241 d0ab 2e41 930d 31c1 c8d4 3241
000001f0: 47df 2f41 e53f 3141 43e4 3241 f766 3241
00000200: 437a 2ec1 402c 31c1 c141 3041 1dc2 3241
00000210: 3ea3 34c1 66e0 2f41 6573 3141 c263 3341
00000220: e436 35c1 e14b 34c1 c872 3241 b9b4 2fc1
00000230: 251f 2f41 a2ee 3241 deba 3541 2e6f 2fc1
00000240: 5b66 2fc1 4daf 3241 b97d 2dc1 4158 2e41
00000250: 5ed4 3141 5407 3241 dbc2 3141 dd97 3041
00000260: 2497 2ec1 cac9 30c1 9c3d 3741 9bfc 32c1
00000270: c43f 3241 109f 3541 14e1 36c1 c53e 1841
00000280: c2bc 34c1 aa90 3441 7a55 2fc1 5bb7 36c1
00000290: 311a 3541 6983 2fc1 6141 3341 5f25 2fc1
000002a0: c811 2f41 816f 3141 27d3 31c1 14c8 2ec1
000002b0: 6035 2e41 cb73 2fc1 96ad 2fc1 827c 3141
000002c0: ac18 3341 6884 32c1 dfe1 2f41 63f3 3241
000002d0: 6833 3041 45b0 34c1 ee01 38c1 f071 2f41
000002e0: 3dae 2d41 65c9 3141 8287 3041 a4f8 3341
000002f0: f8be 32c1 f7a9 32c1 30de 2f41 6134 31c1
00000300: d9f9 2e41 1598 2cc1 1448 3341 a010 3241
00000310: ea53 3041 d5dc 2fc1 f27d 2ec1 ae4a 3641
00000320: 4f5e 37c1 6ed2 3241 f494 3441 dac5 36c1
00000330: e220 2a41 e26a 37c1 72b8 3541 595b 2fc1
00000340: be61 33c1 405e 3441 b487 30c1 f6a0 3041
00000350: 072c 31c1 7d49 3241 4074 3241 db6b 2fc1
00000360: 8247 2fc1 c4c3 3141 7930 2ec1 d59d 31c1
00000370: 0178 32c1 6b3b 3641 09ef 33c1 ced3 3241
00000380: 8679 3341 4a9f 3241 c7a1 33c1 ddf2 35c1
00000390: b2ad 2f41 2660 32c1 cc45 3041 3a7f 2e41
000003a0: abde 3241 e4a7 31c1 4b13 33c1 c37f 3041
000003b0: 87fc 25c1 1253 3041 3eb1 3041 7f34 3141
000003c0: 9383 3141 9a91 2f41 2853 32c1 bb8d 31c1
000003d0: a782 3241 bb08 34c1 ae8e 3141 a365 3241
000003e0: 8298 34c1 b7ea 12c1 6d2a 35c1 e7aa 3141
000003f0: 12a2 32c1 e4a1 34c1 2efa 3541 664b 31c1
10.771779 -11.163683 -11.206387 11.028461 -11.165728 11.03307 10.907762 11.174963
-10.856673 11.184546 10.968429 11.107888 11.035289 11.012851 -11.071502 11.188805
-10.967654 -11.195663 -11.0137005 11.2411375 -11.2580595 11.426528 11.220571 -11.04597
10.409735 -11.280477 11.250379 -11.048639 -11.321712 11.165855 -11.007871 -11.155311
-10.999038 11.119464 11.157717 -11.161405 -11.050941 11.00393 11.034362 -11.142989
-11.055841 11.246039 -11.271967 -11.141344 11.29835 11.187098 -11.360454 -11.190976
11.158369 11.102845 11.085506 11.089665 11.102718 -10.974814 10.993632 10.985134
-10.945645 11.051792 -10.928035 -10.975007 10.930028 -11.051984 -10.917805 -10.958095
11.239303 -11.266567 11.085339 11.376108 -11.153618 -9.494272 -11.224991 11.22202
-10.905803 -11.2940645 11.186715 -11.006324 -11.14354 -11.190616 10.99924 10.955565
-11.049839 -11.056128 11.084022 11.126931 -10.8988695 -11.057793 11.230833 -11.06673
-10.7686405 11.266754 -10.9340105 -11.276891 -11.271269 10.968198 -11.059901 11.021421
-11.056616 11.262447 -11.169734 -11.115704 11.014057 -9.713376 -11.104847 11.131442
10.9498625 10.935562 11.111453 10.955533 -10.97408 11.247141 -11.229837 11.112391
11.078806 -11.139534 -8.5373335 -11.104853 11.365123 -11.020773 -11.238863 11.203797
11.179305 10.916946 -11.065814 11.176949 10.992011 11.078099 11.180728 11.150138
-10.904849 -11.073303 11.016053 11.172391 -11.289854 10.992285 11.0906725 11.211855
-11.325901 -11.268525 11.153023 -10.981622 10.945104 11.18326 11.358122 -10.9646435
-10.962489 11.167798 -10.843194 10.896546 11.114347 11.126789 11.110072 11.037076
-10.9119 -11.049265 11.452541 -11.186671 11.140568 11.351334 -11.429951 9.515325
-11.296083 11.285318 -10.958368 -11.4197645 11.318894 -10.969583 11.203462 -10.946624
10.941841 11.089723 -11.114051 -10.923847 10.888031 -10.96577 -10.979879 11.092897
11.193523 -11.157326 10.992644 11.184421 11.01255 -11.293035 -11.500471 10.965317
10.855039 11.111669 11.033083 11.248203 -11.171623 -11.166495 10.991745 -11.075288
10.935998 -10.787129 11.205097 11.129059 11.020487 -10.991414 -10.905748 11.393232
-11.460525 11.176374 11.2863655 -11.423304 10.633028 -11.463594 11.357531 -10.959802
-11.211363 11.27301 -11.033131 11.039297 -11.073249 11.142941 11.153381 -10.963832
-10.954958 11.110294 -10.886834 -11.101033 -11.154298 11.389506 -11.245858 11.17671
11.217169 11.163889 -11.226996 -11.371793 10.979906 -11.148474 11.01704 10.906061
11.179362 -11.103489 -11.19221 11.031192 -10.374152 11.020281 11.043272 11.075316
11.094623 10.973047 -11.145302 -11.097102 11.156898 -11.252131 11.097334 11.149814
-11.287233 -9.182303 -11.322858 11.104224 -11.164568 -11.289524 11.373579 -11.080908

lstm.weight_hh_l0 f4 [180, 45]
00000000: 1096 73bc 4b1e 103e 37b5 15be e0ef 823b
00000010: 84f7 14be 31a0 b9bd 08e3 1d3d 222c cc3d
00000020: 40ef c2bc 95e2 073e 0e7f 8a3d aaec 09be
00000030: 3024 18bd e058 b9bc 188d c2bc cc5f 803d
00000040: 6ac5 fb3d 46ea cfbd 5a5f a9bd 94f1 b5bd
00000050: 7883 e33c 6c35 753d e284 c8bd 1828 a53d
00000060: 2a7d 863d 02a6 34bd a43a 38bd e1a7 0ebe
00000070: 86e5 c2bd ccb7 2e3d 6007 6f3d a991 063e
00000080: 4657 0dbd 149d ce3d 1c78 a9bd 49f9 f3bd
00000090: 2eaa 02be 2451 c93d 385b c0bc c2cd f63d
000000a0: fcf2 5ebd 6d13 183e 801e 813d dd4f 8dbd
000000b0: 7282 a53d 9029 17bd acba cb3d e8e5 b5bc
000000c0: 0158 173e eed3 e33d 021b 0cbe 6060 0a3d
000000d0: d0ea 46bc 70f1 61bd 6435 9c3d 48dd ddbc
000000e0: a027 5fbd 1827 ccbd 36c3 f0bd 6a07 b73d
000000f0: 8685 c33d 18ea 9fbc fc42 bf3d ea87 82bd
00000100: 56c5 f83d 9e92 0dbd 26cd 8b3d c013 bd3c
00000110: cf51 113e f8df 93bc ea8e f3bd 76ea c5bd
00000120: c033 bebb a80c 0dbd 0cda c2bd d619 debd
00000130: f1b8 09be a4c3 1dbd d6de c63d 2824 b23c
00000140: 009b 4d3b 4d57 17be c033 f23b 2cfd 10be
00000150: 82b6 cabd 5469 92bd ff04 07be c001 86bc
00000160: c6a7 9e3d b2a5 d1bd 67bd 16be 22b4 e8bd
00000170: 1027 5a3c 8d6b 173e dac4 f13d c55a 0c3e
00000180: 40d8 543b fc75 5d3d 8082 2bbd 88ef eebd
00000190: a837 153d 8491 993d 4e29 e93d e084 b1bd
000001a0: 48bb c53c feba f4bd 2278 08be 16fd 8abd
000001b0: 74ef d8bd e5a5 e7bd d02c 39bc 95f7 01be
000001c0: e04d f0bd d256 d3bd d3fe babd b08a 1f3c
000001d0: 28e1 8ebc 2a1d 803d 582f c0bc 6cb4 713d
000001e0: baaa 0ebd b6b6 993d b058 843d 1a78 f53d
000001f0: a87c e63c 2af8 e8bd 64d1 4a3d 80db 433c
00000200: 68cb bcbd 0ed8 823d 9c51 0f3d 7857 b3bc
00000210: c62f ddbd da40 21bd aec6 afbd a807 983c
00000220: ea49 8bbd 8080 e6bb d64c 03bd d86c 303d
00000230: 8026 8c3d f863 eebc 14a5 b53d 082f 04be
00000240: 0b97 113e 8368 113e d1bc 023e 8aa2 afbd
00000250: 6699 1fbd 50db 123d b4d0 fbbd faf1 dc3d
00000260: 80b7 c83b fdac 003e e6fd ffbd 1692 25bd
00000270: f22f 08be 48fb 5dbd 1821 cd3c 0076 64bb
00000280: 684f 7a3d 2c09 47bd 3031 34bd 3969 e8bd
00000290: eaaa 13be 1575 013e 816b d3bd f9db f8bd
000002a0: 88f4 0ebd 0032 5abc 8847 ea3c 2e43 dbbd
000002b0: 1d07 e1bd ef07 02be 7e02 a13d 94b8 8d3d
000002c0: 407c 88bd 0088 153b b060 e4bc 54db 153d
000002d0: 8ca6 c0bd cd37 9ebd 00e4 f4bc 6248 17bd
000002e0: aa52 a4bd 94d9 e3bd 08f1 9cbc fad5 f1bd
000002f0: 543c fabc 2957 013e 4087 3a3d 707e 593c
00000300: 608c 1cbd 0e09 913d 5093 543d 4eef a63d
00000310: c431 9e3d d856 8a3c 4079 bdbc 7689 fdbd
00000320: 1e2c dfbd 46a0 af3d 781e e8bc f085 073c
00000330: ecdd 06be 18c8 cbbd fb6c a8bd ce30 de3d
00000340: ba23 e63d ee8a 2dbd c7bd 8abd 5a0f d63d
00000350: 9ce7 b03d 6a6b b0bd ee35 e93d cccb 6e3d
00000360: b004 643c 9e79 8bbd bc48 c73d c7e8 aebd
00000370: c023 edbb 5130 d9bd 89e0 14be bfb2 8ebd
00000380: f602 59bd 80a6 763d b8df b53d cbb6 01be
00000390: ae31 ae3d 0e8e dbbd af97 0e3e 7fd9 c1bd
000003a0: c417 0b3d b0d2 3f3d 9e9d 07bd 7d93 a8bd
000003b0: 0de5 0d3e f148 173e 51c9 043e a2c7 58bd
000003c0: 805d 503c f21b b8bd 00c3 0fba af37 ecbd
000003d0: b8bf 48bd 18d3 653d 2846 bcbd 165e b3bd
000003e0: 1a8b e03d b0f3 57bd 14c3 8ebd f6a7 8f3d
000003f0: 4aee e3bd 0ae6 04bd 80d1 023b 9a9d f43d
-0.014867321 0.14074056 -0.14619909 0.0039958805 -0.14547545 -0.09063757 0.038546592 0.09969355
-0.023795724 0.13270028 0.06762515 -0.13469186 -0.037143886 -0.022625387 -0.02374892 0.06268272
0.12293513 -0.10152106 -0.0827014 -0.08883968 0.02777265 0.0598654 -0.097909704 0.08064288
0.06566842 -0.04410363 -0.0449778 -0.13931228 -0.09516434 0.04265575 0.058356643 0.13141502
-0.03450706 0.10088554 -0.08274862 -0.11912782 -0.12760231 0.098299295 -0.023480996 0.12050964
-0.054430947 0.1485116 0.063046455 -0.06899998 0.08081521 -0.03690487 0.09947714 -0.022204354
0.14779665 0.11124407 -0.13682178 0.033783317 -0.012140945 -0.055161893 0.07627371 -0.027083054
-0.05448115 -0.09968394 -0.117559835 0.08936961 0.09546952 -0.019520804 0.09338948 -0.0637358
0.12147014 -0.034563653 0.06826238 0.023080707 0.14191364 -0.018051133 -0.11892493 -0.096638605
-0.005804509 -0.034435898 -0.095142454 -0.108447716 -0.13449456 -0.038516656 0.09710471 0.021745756
0.0031372905 -0.14779396 0.007391423 -0.14159077 -0.09898092 -0.07148996 -0.131855 -0.016358256
0.07746844 -0.10236682 -0.14720689 -0.113624826 0.013314977 0.14787121 0.118051246 0.13706501
0.0032477528 0.054067597 -0.0418725 -0.11666781 0.03643003 0.07498458 0.11384831 -0.08667922
0.024137154 -0.119497284 -0.13327077 -0.067865536 -0.10592547 -0.11310939 -0.011302188 -0.12692101
-0.117336035 -0.10319294 -0.09130635 0.0097376555 -0.017441347 0.062555626 -0.023460075 0.059009954
-0.034830786 0.075055525 0.06462228 0.11985798 0.028135613 -0.113754585 0.049516097 0.011954188
-0.09218484 0.063888654 0.03498994 -0.021892294 -0.10800128 -0.039368488 -0.08582817 0.018558338
-0.06801207 -0.0070343614 -0.0320557 0.04307255 0.06843281 -0.029100403 0.08869377 -0.12908566
0.14217775 0.14200024 0.1276734 -0.08575924 -0.03896465 0.035853684 -0.12295666 0.10788341
0.0061253905 0.1256599 -0.12499599 -0.04042252 -0.1329954 -0.05419472 0.025040194 -0.0034860373
0.061110884 -0.04859273 -0.04399222 -0.11348195 -0.14420667 0.1264232 -0.10323239 -0.121513315
-0.034901172 -0.013317585 0.028598562 -0.10706173 -0.10987685 -0.12698339 0.078618035 0.06919971
-0.06664324 0.0022816658 -0.027878135 0.03658612 -0.09406766 -0.07725487 -0.029893875 -0.036934264
-0.080235794 -0.11125484 -0.019157901 -0.11808391 -0.030546345 0.12630905 0.04553914 0.013274774
-0.03821981 0.07081805 0.0518983 0.081511125 0.07724336 0.016887113 -0.023129106 -0.12379734
-0.108970866 0.085754916 -0.028334841 0.008271679 -0.13170594 -0.09950274 -0.082239114 0.108491525
0.11237283 -0.04236882 -0.067744784 0.10452147 0.08637926 -0.086142376 0.113872394 0.058299825
0.013917133 -0.06810306 0.0973067 -0.085404925 -0.0072369277 -0.10604919 -0.14538778 -0.06967687
-0.05298134 0.06021738 0.088805616 -0.12667386 0.085055694 -0.10720454 0.1392505 -0.09465312
0.03395821 0.046831787 -0.0331093 -0.08231256 0.13856907 0.14773919 0.12967421 -0.05292476
0.012717605 -0.08989705 -0.00054840744 -0.11534058 -0.049010962 0.056109518 -0.09193069 -0.0875818
0.109640315 -0.052722633 -0.06970802 0.07014458 -0.111294344 -0.032445945 0.0019961298 0.119441226

lstm.bias_ih_l0 f4 [180]
00000000: a5ee 3b41 0ab6 3c41 b661 3b41 6f75 3c41
00000010: 9327 3d41 1a2a 3b41 738b 3d41 0f4f 3d41
00000020: 89db 3a41 5fe2 3c41 f80c 3c41 f8b3 3c41
00000030: 895d 3c41 7d70 3d41 3f8a 3d41 400f 3941
00000040: d234 3a41 dc68 3d41 9d10 3f41 98f5 3b41
00000050: 4fd9 3c41 3e7b 3d41 1b2f 3c41 e716 3c41
00000060: d3f1 3a41 1da0 3b41 0928 3c41 4f0d 3b41
00000070: e561 3c41 d219 3f41 efe7 3e41 01f4 3c41
00000080: 3c55 3c41 c6d3 3b41 067b 4041 33bb 3b41
00000090: ceda 3d41 2774 3a41 9488 3e41 4824 4041
000000a0: c510 3d41 c6a5 3e41 a3e1 4041 7727 3d41
000000b0: b08f 3e41 8c08 9ebd 001a de3b a0bd efbb
000000c0: 8cae 0d3d 7809 1dbd 18b0 be3d a23b cf3d
000000d0: c424 b63d 12a1 25bd d601 14bd 86e2 e53d
000000e0: 1652 d63d b821 2f3d 32b4 6cbd d4c3 f0bd
000000f0: 2045 adbb 20d5 97bb 302d c0bd 8ca9 913d
00000100: 34c6 ae3d 9c77 893d 509e bcbc ae25 b3bd
00000110: 8485 0ebe 5e0a b6bd 0062 aebd 3785 a7bd
00000120: 619f d2bd 127a 93bd 7773 143e 6431 a3bd
00000130: 98f6 623d 3ed0 c1bd 9640 c33d 4723 0abe
00000140: 4cb7 343d a709 153e a2b3 9ebd 781e 9c3c
00000150: 04c8 12be 867a 78bd ca2c e53d 84e3 c03d
00000160: 64ef 513d 76ee a83d d8df 42c1 d732 3ec1
00000170: 9b95 3e41 57bc 41c1 0d71 42c1 6426 3cc1
00000180: ee7a 42c1 1b3e 3dc1 20a1 3c41 2fc4 3a41
00000190: c3b3 39c1 0ebe 4741 595c 46c1 64b4 3fc1
000001a0: 7235 4241 bc0a 3c41 dea5 38c1 40f3 3941
000001b0: 099b 4541 330f 4141 1af1 3941 a8b2 3ac1
000001c0: 1ee9 41c1 c942 3a41 be37 3f41 15f3 3cc1
000001d0: 6e85 3ec1 126d 4141 0e00 3e41 6e80 3a41
000001e0: 561a 3ac1 172d 3ec1 ef04 4041 db80 3b41
000001f0: 6cbd 39c1 4a65 3d41 11ec 3841 36e9 3e41
00000200: 1876 41c1 a18f 3f41 7af4 3d41 0cf8 3ec1
00000210: c55e 44c1 1ddf 3bc1 41f8 3cc1 0016 3e41
00000220: c3f8 3c41 621f 3f41 d58e 3c41 ba51 3c41
00000230: 55f4 3c41 8a6c 3c41 c835 3d41 aa5d 3e41
00000240: d079 4041 e57b 3e41 7fb1 4041 f998 3e41
00000250: 018b 3d41 f6e1 3f41 941f 3e41 7d3e 3d41
00000260: c8c6 3d41 8257 4041 3ffd 3d41 b01c 3d41
00000270: fdd6 3f41 aef6 3d41 de0f 3e41 3b75 3c41
00000280: 5252 3f41 1ce1 3d41 4c33 3a41 e2ec 3941
00000290: fbcb 4041 ed43 3f41 cb13 3c41 cbe5 3b41
000002a0: 3d05 3d41 d1c8 4041 8a9d 3c41 4101 3e41
000002b0: a508 3e41 17e2 3e41 2104 3e41 db40 3c41
000002c0: fcd0 3e41 ac64 4141 86d5 3a41 27b3 3b41
11.745763 11.794443 11.711355 11.77867 11.822162 11.697779 11.846545 11.831801
11.678597 11.805266 11.753166 11.793938 11.772836 11.839963 11.8462515 11.566223
11.637896 11.8381 11.941556 11.747459 11.803054 11.842588 11.7615 11.755591
11.684039 11.72659 11.759774 11.690749 11.7739 11.943804 11.931624 11.809571
11.770809 11.7392025 12.030035 11.733203 11.865919 11.6533575 11.908344 12.008858
11.816594 11.915472 12.055087 11.822135 11.91008 -0.07716474 0.006778002 -0.0073163062
0.03459029 -0.03833911 0.09310931 0.10118796 0.08893731 -0.04043681 -0.036134563 0.112248465
0.104648754 0.042756766 -0.057789035 -0.11756101 -0.0052877814 -0.004633561 -0.09383619 0.071124166
0.08533898 0.06712267 -0.023024708 -0.08747421 -0.1391812 -0.08888696 -0.08514786 -0.081797056
-0.10284305 -0.072010174 0.14497171 -0.07968405 0.05541095 -0.09463547 0.09533803 -0.1349002
0.044120118 0.14554463 -0.07749106 0.019057497 -0.14334112 -0.060663722 0.111901835 0.09418395
0.05125369 0.08248608 -12.179649 -11.887412 11.911525 -12.108481 -12.1526 -11.759373
-12.155012 -11.827662 11.789337 11.672896 -11.606387 12.4839 -12.397546 -11.981541
12.138048 11.752621 -11.540495 11.621887 12.35035 12.066211 11.621363 -11.668617
-12.119413 11.641305 11.951109 -11.809346 -11.907576 12.0891285 11.875013 11.656355
-11.63143 -11.886008 12.0012045 11.718959 -11.608746 11.837229 11.557633 11.931936
-12.0913315 11.972566 11.872187 -11.935558 -12.273137 -11.741971 -11.810609 11.880371
11.810733 11.945162 11.784871 11.769953 11.809651 11.776499 11.82563 11.897867
12.029739 11.905248 12.043334 11.912347 11.8464365 11.992666 11.8827095 11.827756
11.861031 12.021364 11.874328 11.819504 11.989987 11.872725 11.878874 11.778621
11.957598 11.867458 11.637524 11.620333 12.0498 11.954083 11.754832 11.743602
11.813779 12.049027 11.788462 11.875306 11.8771105 11.930198 11.876008 11.765834
11.926022 12.087078 11.67713 11.731238
