Ni_prediction/savemodel/bst_mod_4.pth (torch_old, 533425 bytes, 44 tensors)

price_encoder.attention.weight f4 [1, 121]
0.026337158 0.08780934 0.06934105 0.053134624 -0.087313615 0.045366734 0.063767515 0.08400082
0.09099824 -0.06600879 -0.032647945 0.028526213 -0.08130016 0.053760067 -0.037538953 0.07934958
-0.048226964 0.06961729 -0.02198004 0.058420636 0.034348696 0.03796607 0.04249555 -0.081224
-0.019799288 -0.05234376 -0.08977851 -0.08586568 -0.07499617 -0.0228085 0.06903647 -0.05671924
-0.007878512 -0.051657174 0.039235078 -0.028832562 0.06958753 0.029855482 -0.03965031 -0.06766222
0.034109246 0.041943286 0.017828539 -0.043510694 0.019919137 -0.05617021 0.06734508 -0.023199985
0.011781314 0.07247705 -0.05171338 0.071691476 0.044676036 0.005112148 -0.006694559 -0.011532154
-0.021202175 0.0574463 -0.022211485 -0.048552163 -0.061205737 0.08173664 -0.083824866 -0.068659686
-0.053072155 -0.029437978 -0.08666618 -0.064878404 -0.07586832 -0.005273134 -0.021164242 -0.068465054
-0.05833318 -0.04600881 -0.06124468 -0.089312725 0.054221153 -0.013088704 0.023358755 -0.058300085
0.016180333 -0.03719628 -0.08787394 0.04250717 -0.04542236 0.003705624 0.08531894 0.04296691
0.020048045 -0.079892814 0.046865787 -0.054819513 0.058859106 0.06786746 0.089267254 0.051223565
0.06948556 -0.06911215 -6.762713e-05 -0.025195286 0.004670718 0.044157144 0.03160674 -0.03008521
-0.043117944 -0.023502428 0.057317946 -0.04048099 0.0857137 0.09318744 0.069939286 -0.06730589
0.032223497 -0.028824937 0.090170234 0.09111531 0.09988956 -0.008424225 -0.06762892 -0.030509835
0.031285778
00000000: 06c1 d73c 62d5 b33d ae02 8e3d b1a3 593d
00000010: 7bd1 b2bd 78d2 393d 8b98 823d 9f08 ac3d
00000020: 495d ba3d 9e2f 87bd dab9 05bd ceaf e93c
00000030: b380 a6bd 8433 5c3d 72c2 19bd 0882 a23d
00000040: a389 45bd 8293 8e3d 7c0f b4bc 7a4a 6f3d
00000050: 38b1 0c3d 4f82 1b3d d00f 2e3d c558 a6bd
00000060: 1e32 a2bc 6966 56bd ccdd b7bd 58da afbd
00000070: 9897 99bd e4d8 babc fe62 8d3d 6f52 68bd
00000080: e014 01bc 7996 53bd f6b4 203d 4432 ecbc
00000090: e883 8e3d 7c93 f43c 5d68 22bd 7d92 8abd
000000a0: 23b6 0b3d b9cc 2b3d 280d 923c 4538 32bd
000000b0: 752d a33c bc12 66bd 38ec 893d e50d bebc
000000c0: 6a06 413c d96e 943d 69d1 53bd fbd2 923d
000000d0: 38fe 363d ce83 a73b 085e dbbb 5cf1 3cbc
000000e0: 2fb0 adbc d04c 6b3d dcf4 b5bc a2de 46bd
000000f0: deb2 7abd 8a65 a73d 5fac abbd 739d 8cbd
00000100: 3062 59bd ea27 f1bc 0a7e b1bd f8de 84bd
00000110: da60 9bbd 41ca acbb a260 adbc 6837 8cbd
00000120: c6ee 6ebd bc73 3cbd b4db 7abd 97e9 b6bd
00000130: 0017 5e3d 0172 56bc dc5a bf3c 12cc 6ebd
00000140: 9e8c 843c 205b 18bd 41f7 b3bd 001c 2e3d
00000150: cc0c 3abd 0eda 723b b2bb ae3d 12fe 2f3d
00000160: cc3b a43c d89e a3bd 57f6 3f3d 6d8a 60bd
00000170: 3f16 713d 18fe 8a3d c0d1 b63d cdcf 513d
00000180: 724e 8e3d ac8a 8dbd 0ad3 8db8 5866 cebc
00000190: d30c 993b 1fde 343d 1276 013d 4275 f6bc
000001a0: 719c 30bd 2a88 c0bc 39c6 6a3d 65cf 25bd
000001b0: aa8a af3d 0ed9 be3d 543c 8f3d acd7 89bd
000001c0: c9fc 033d 4622 ecbc 2cab b83d aa9a ba3d
000001d0: e692 cc3d c305 0abc 0881 8abd c3ef f9bc
000001e0: 8425 003d

price_encoder.encoder.weight_ih_l0 f4 [180, 45]
0.07231295 0.08096315 0.12958379 -0.023809925 0.037699774 0.06964257 0.12200655 -0.0043014586
-0.11790823 -0.024252363 0.051292375 -0.078082465 -0.04507353 0.0011299998 0.100274354 -0.022198915
0.052623495 0.07502581 -0.03149674 -0.031127624 0.13596211 -0.082966775 0.06632736 0.014634386
0.08907424 0.050401524 -0.015929118 0.041386202 -0.111540765 0.043701798 0.12731723 0.018300325
0.0340306 0.09684771 0.05683388 0.04953088 -0.115165785 -0.13831577 -0.08149047 0.009429246
-0.081511 -0.057304375 -0.090849556 0.04077719 -0.09309199 -0.00083710253 -0.01989606 -0.053592756
-0.09704249 0.006533098 0.10594632 0.0028445572 -0.034593277 0.12701295 -0.08565338 -0.12639958
0.14230902 0.102442876 0.017032996 0.062036544 -0.050704807 -0.0011100769 -0.03636294 0.01407124
0.09100805 0.04416038 0.14497094 0.02180782 0.05997555 -0.14619835 0.078054175 0.025489137
0.02276282 -0.12862863 -0.12934202 -0.103142954 -0.002093283 0.032397993 0.008532062 -0.1430954
-0.012632191 0.06830871 -0.014549598 0.12679513 -0.06297524 0.019242615 -0.046303034 0.104241446
-0.053655684 -0.059565216 0.045360163 0.10427229 0.0101708025 0.111607775 0.13614185 -0.0324021
0.10317542 0.032880083 -0.03877484 0.009521157 0.00843963 0.12377961 -0.025084369 0.013529956
0.03827858 0.027770653 0.0026545972 0.06527297 0.06473148 -0.09687419 0.13370551 -0.012259886
-0.07066899 -0.053588524 -0.07194727 -0.11298915 -0.11390878 -0.042438745 0.09628253 0.12914307
0.11884035 0.023964271 0.13988315 0.063247815 -0.10679443 0.07018632 0.10433148 -0.105024055
0.10736604 -0.059404604 -0.028585017 -0.09673309 0.06470746 -0.110871404 -0.036823288 -0.042613573
-0.11220202 0.13597612 0.04005684 -0.14192441 -0.14087047 0.048738286 0.028788894 0.05935049
0.02502264 -0.062090248 -0.08269655 -0.121062115 -0.041845582 -0.06491378 -0.009242639 0.121422485
0.05603957 0.11170347 0.008769006 -0.032259405 -0.07868875 0.023507103 0.107510194 0.04025528
-0.1408406 -0.01113309 -0.059124663 -0.0763889 -0.10661352 0.1092848 -0.037743486 -0.033767387
-0.06330564 0.059501365 0.048130557 0.02001904 -0.047467776 -0.08458577 0.06994794 -0.03097476
-0.11867308 -0.005690098 0.010095179 -0.13816719 -0.107926324 0.0037852079 0.10159965 0.12795542
-0.12942776 -0.043098733 -0.05757962 0.10438688 -0.09937562 -0.079719126 -0.12968886 -0.11485297
0.05125621 -0.05741191 0.05956079 0.012752488 -0.09722004 -0.12819032 0.11795296 -0.079778925
0.007281512 -0.10214753 -0.14497516 -0.06281286 0.12013112 0.028560907 0.005605653 0.0060877055
0.010039002 0.14341177 -0.060948893 -0.061666526 -0.07026188 -0.14588262 0.10701494 0.105205014
-0.056816265 -0.10274233 -0.060354993 0.06525211 0.116965994 -0.10895567 0.087455094 -0.016857415
0.08723508 0.0031873435 -0.06951281 0.065525055 -0.12031873 -0.044390127 0.10896234 0.02888164
-0.04493618 -0.13602291 -0.05722809 0.12707977 0.14010896 0.08812675 0.08525626 0.05392565
0.048889086 0.085907996 -0.10293527 -0.052849747 0.10526322 0.1106201 0.05516824 0.078724295
0.07444067 -0.13196456 0.081590995 0.08545047 -0.13428745 0.042722896 -0.007718846 -0.021984413
00000000: d018 943d 02d0 a53d 9db1 043e 080d c3bc
00000010: 146b 1a3d c4a0 8e3d 92de f93d 40f3 8cbb
00000020: df79 f1bd e4ac c6bc f417 523d b3e9 9fbd
00000030: 069f 38bd 801c 943a a45c cd3d 80da b5bc
00000040: bc8b 573d 22a7 993d ba02 01bd 5cff febc
00000050: a739 0b3e 7cea a9bd a4d6 873d 10c5 6f3c
00000060: 8e6c b63d d471 4e3d c87d 82bc 9484 293d
00000070: 7c6f e4bd a800 333d 735f 023e 90ea 953c
00000080: ac63 0b3d 1858 c63d a4ca 683d e4e0 4a3d
00000090: 0adc ebbd a6a2 0dbe 7ae4 a6bd 207d 1a3c
000000a0: 3def a6bd feb7 6abd 550f babd fc05 273d
000000b0: 03a7 bebd 0071 5bba 10fd a2bc 1484 5bbd
000000c0: 37be c6bd 9913 d63b 62fa d83d c06b 3a3b
000000d0: aeb1 0dbd af0f 023e 0a6b afbd e46e 01be
000000e0: 75b9 113e 92cd d13d c888 8b3c 081a 7e3d
000000f0: d8af 4fbd 0080 91ba 4ef1 14bd 0f8b 663c
00000100: 6e62 ba3d 84e1 343d 4373 143e 50a6 b23c
00000110: eca8 753d 05b5 15be deda 9f3d 98ce d03c
00000120: 1879 ba3c 39b7 03be 3c72 04be 9d3c d3bd
00000130: 762f 09bb c2b3 043d 10ca 0b3c 9a87 12be
00000140: 40f7 4ebc 70e5 8b3d 7061 6ebc 95d6 013e
00000150: 2af9 80bd b0a2 9d3c 40a8 3dbd 8a7c d53d
00000160: 10c6 5bbd a8fa 73bd 94cb 393d b68c d53d
00000170: 70a3 263c 9e92 e43d c568 0b3e 10b8 04bd
00000180: a24d d33d 44ad 063d 5ed2 1ebd a0fe 1b3c
00000190: 6046 0a3c 2a80 fd3d bc7d cdbc c0ac 5d3c
000001a0: 00ca 1c3d 487f e33c c0f8 2d3b d6ad 853d
000001b0: f091 843d fa65 c6bd 19ea 083e b0dd 48bc
000001c0: e7ba 90bd a47f 5bbd 1759 93bd db66 e7bd
000001d0: 0249 e9bd 40d4 2dbd c62f c53d 153e 043e
000001e0: 9262 f33d b850 c43c 873d 0f3e 1288 813d
000001f0: 0ab7 dabd d8bd 8f3d beab d53d da16 d7bd
00000200: bae2 db3d 3e52 73bd 202b eabc 001c c6bd
00000210: 5885 843d 8c10 e3bd 04d4 16bd 928b 2ebd
00000220: 2cca e5bd 533d 0b3e a412 243d a254 11be
00000230: 5940 10be cca1 473d b0d6 eb3c 8019 733d
00000240: 48fc cc3c 5852 7ebd cf5c a9bd 6aef f7bd
00000250: 4666 2bbd 84f1 84bd 706e 17bc 5aac f83d
00000260: c089 653d cac4 e43d e0ab 0f3c 7022 04bd
00000270: 9127 a1bd f891 c03c 4e2e dc3d b8e2 243d
00000280: 8538 10be 9067 36bc b42c 72bd c971 9cbd
00000290: 3058 dabd b6d0 df3d ea98 1abd ac4f 0abd
000002a0: 63a6 81bd b4b7 733d 8c24 453d f8fe a33c
000002b0: 926d 42bd 4e3b adbd de40 8f3d c8be fdbc
000002c0: df0a f3bd 0074 babb 4066 253c b37b 0dbe
000002d0: 7a08 ddbd 4011 783b 7a13 d03d bf06 033e
000002e0: b688 04be 4c88 30bd 9cd8 6bbd cac8 d53d
000002f0: 7285 cbbd c843 a3bd 28cd 04be 0938 ebbd
00000300: 08f2 513d c028 6bbd 04f6 733d d0ef 503c
00000310: 4d1b c7bd 5344 03be 5291 f13d 2263 a3bd
00000320: c099 ee3b b932 d1bd 5e74 14be 07a4 80bd
00000330: 4e07 f63d 90f8 e93c a0af b73b 607b c73b
00000340: a07a 243c 89da 123e 8ca5 79bd 0a96 7cbd
00000350: 76e5 8fbd 4162 15be a62a db3d ba75 d73d
00000360: 2cb8 68bd 926a d2bd cc36 77bd e6a2 853d
00000370: de8b ef3d 2624 dfbd a81b b33d 9018 8abc
00000380: 4ea8 b23d c0e2 503b bb5c 8ebd 0032 863d
00000390: ab69 f6bd 6cd2 35bd a627 df3d 3099 ec3c
000003a0: 000f 38bd 9749 0bbe 0068 6abd 3321 023e
000003b0: b978 0f3e cc7b b43d d69a ae3d 24e1 5c3d
000003c0: ec3f 483d 88f0 af3d bacf d2bd fa78 58bd
000003d0: 3e94 d73d ca8c e23d 18f8 613d 343a a13d
000003e0: 5a74 983d b821 07be 2e19 a73d a800 af3d
000003f0: a682 09be 34fe 2e3d 60ee fcbb a818 b4bc

price_encoder.encoder.weight_hh_l0 f4 [180, 45]
-0.07125609 0.076234445 -0.03943316 -0.0047573447 -0.0635014 -0.13355875 0.07411188 -0.0063224137
-0.03206654 -0.023893863 -0.006959334 -0.12576108 -0.008086175 0.07493298 0.09520009 -0.14571676
-0.052979738 -0.11243828 -0.09786162 0.13185726 -0.09977184 -0.07028802 -0.049416594 -0.12268438
-0.07723264 -0.00745368 0.11065222 -0.0672647 -0.004591033 -0.12995845 -0.11695188 -0.030273512
0.07613203 -0.12436208 -0.14632335 -0.1245945 0.06474516 -0.13582884 -0.087650746 -0.00907436
0.010830209 0.07178801 -0.12284484 0.099678084 -0.038493693 0.043293495 0.063026935 -0.1459876
0.049623318 0.11610709 0.022983283 -0.019480396 0.079031855 0.023979057 -0.11063832 -0.034458656
0.14110126 -0.014078766 0.040339425 0.050860837 0.10724831 0.0719254 0.13765064 0.12204628
-0.11063219 -0.14025444 -0.027457908 -0.13389833 -0.05359602 0.11099829 -0.13673155 -0.014611259
-0.08441378 -0.033744372 0.055468753 -0.103119515 -0.092442185 -0.11634362 -0.087262005 0.07792754
-0.053489543 0.008757492 -0.020206004 -0.0016939044 -0.12845674 -0.10751726 -0.0706107 0.13370438
-0.062252123 -0.05928701 0.008369952 0.080583856 0.111662045 -0.084818155 -0.010027364 -0.11802136
0.020159572 0.056450963 -0.11937234 -0.008653626 0.08492845 -0.07125163 -0.0044991076 0.14544494
0.0026265383 0.10200004 0.032919332 -0.09315343 -0.13721079 -0.12653294 0.07590504 -0.0818641
-0.0828148 0.13284643 0.14779367 0.036514163 -0.051105753 0.06815788 -0.09715955 0.098942995
-0.025399178 0.06480007 -0.064145036 -0.06408071 -0.021561861 -0.14683518 -0.06129931 -0.06373411
-0.065893956 -0.011857316 0.12930588 0.04505807 -0.07811405 -0.08350389 -0.05764278 0.0042980313
0.118753925 0.104108825 -0.057661675 0.102405325 -0.06972476 -0.07333295 0.07220535 0.024736226
-0.07017813 0.12065916 0.10903303 0.044540256 -0.13506986 0.10608663 -0.037172444 -0.08236916
0.13689686 -0.10288252 0.08439721 0.08585736 0.11526014 -0.1214737 -0.084488794 -0.023422211
-0.052833416 -0.13443376 -0.14822249 -0.1035483 0.06188871 -0.08151873 -0.09742942 -0.022488281
-0.012889087 -0.1489681 0.0054278523 0.004654154 0.13768868 0.031221792 -0.043939427 -0.037829943
0.0024861991 0.11587311 -0.021056324 0.14082302 0.0444068 0.031505495 0.14326407 0.0005340278
-0.061382353 -0.1391117 -0.13468309 -0.045166403 0.14632742 0.11540474 0.07764219 0.046481907
0.0071773976 -0.13251148 -0.1467543 -0.08320262 -0.106141314 -0.12930018 0.059559897 -0.022601172
-0.08264969 -0.14354685 -0.031640097 0.090721264 0.09233078 -0.07045096 0.095191374 -0.11582254
-0.08923715 -0.062106363 -0.10550427 0.10795377 0.017471254 0.02280809 0.07126048 -0.032462485
-0.06444403 -0.0099720955 -0.007376954 -0.13769367 -0.095886245 -0.11890101 -0.0392308 0.1172822
-0.005296156 0.13911413 -0.13871902 -0.015807748 -0.077109896 0.11675729 -0.09692277 -0.13963306
-0.07771179 -0.13217853 0.06493577 0.10965298 0.012731776 -0.041108288 -0.056179367 0.01286304
-0.04287324 -0.08822538 -0.0482231 -0.006878808 0.124713436 0.039739296 0.07816939 -0.032160193
0.1377853 -0.13264032 -0.0012105852 0.08548333 0.008961111 0.07069518 0.0031888634 0.13509844
00000000: b7ee 91bd ce20 9c3d aa84 21bd 80e3 9bbb
00000010: 060d 82bd a0c3 08be f8c7 973d 402c cfbb
00000020: 3458 03bd 10bd c3bc 200b e4bb 83c7 00be
00000030: e07b 04bc 7676 993d 44f8 c23d c636 15be
00000040: 4801 59bd 0a46 e6bd ac6b c8bd 9705 073e
00000050: 2e55 ccbd 2af3 8fbd 0e69 4abd f341 fbbd
00000060: 252c 9ebd 003e f4bb a29d e23d 13c2 89bd
00000070: 6070 96bb d413 05be 7884 efbd 2800 f8bc
00000080: 1ceb 9b3d 8cb1 febd cad5 15be 672b ffbd
00000090: 1c99 843d b716 0bbe 3c82 b3bd a0ac 14bc
000000a0: 3071 313c 9805 933d 1396 fbbd 0624 cc3d
000000b0: 90ab 1dbd 8554 313d 4414 813d c67d 15be
000000c0: d241 4b3d 8ec9 ed3d 7047 bc3c 5a95 9fbc
000000d0: 74db a13d ba6f c43c 5896 e2bd 8524 0dbd
000000e0: d97c 103e a0aa 66bc f43a 253d 7453 503d
000000f0: 01a5 db3d a04d 933d 4af4 0c3e 66f3 f93d
00000100: 2193 e2bd dc9e 0fbe 68ef e0bc a51c 09be
00000110: 8087 5bbd 1253 e33d 5b03 0cbe 1064 6fbc
00000120: 22e1 acbd 8a37 0abd 3433 633d 5330 d3bd
00000130: 5452 bdbd 9045 eebd 6cb6 b2bd 7998 9f3d
00000140: da17 5bbd 957b 0f3c 1087 a5bc 0006 deba
00000150: 2a8a 03be 0232 dcbd 589c 90bd cde9 083e
00000160: 15fc 7ebd f0d6 72bd 2022 093c 2609 a53d
00000170: 12af e43d 24b5 adbd d049 24bc 2fb5 f1bd
00000180: b025 a53c 2039 673d 7c79 f4bd f0c7 0dbc
00000190: f8ee ad3d 60ec 91bd 406d 93bb 85ef 143e
000001a0: 0022 2c3b 66e5 d03d 6cd6 063d 3ac7 bebd
000001b0: fc80 0cbe da91 01be 1a74 9b3d 5ea8 a7bd
000001c0: ce9a a9bd e508 083e 3957 173e e08f 153d
000001d0: 4454 51bd 5c96 8b3d 96fb c6bd a0a2 ca3d
000001e0: f011 d0bc e6b5 843d 795e 83bd bf3c 83bd
000001f0: 80a2 b0bc f65b 16be fc14 7bbd 0787 82bd
00000200: 69f3 86bd 3045 42bc c368 043e d08e 383d
00000210: 42fa 9fbd 1604 abbd d61a 6cbd 80d6 8c3b
00000220: 4235 f33d 0237 d53d a62e 6cbd e2b9 d13d
00000230: dbcb 8ebd 962f 96bd 66e0 933d a0a3 ca3c
00000240: 8db9 8fbd 261c f73d b64c df3d d86f 363d
00000250: c14f 0abe f243 d93d 2242 18bd 2ab1 a8bd
00000260: b12e 0c3e 12b4 d2bd 72d8 ac3d fcd5 af3d
00000270: 820d ec3d 34c7 f8bd 7608 adbd f0df bfbc
00000280: da67 58bd 01a9 09be a3c7 17be 2211 d4bd
00000290: 047f 7d3d 4bf3 a6bd 1389 c7bd 5839 b8bc
000002a0: c02c 53bc 188b 18be 20dc b13b e081 983b
000002b0: 43fe 0c3e d8c4 ff3c d4f9 33bd 92f3 1abd
000002c0: 80ef 223b e24e ed3d 507e acbc e933 103e
000002d0: e8e3 353d e80b 013d d1b3 123e 00fe 0b3a
000002e0: 106c 7bbd 4c73 0ebe 5dea 09be 6800 39bd
000002f0: dbd6 153e 5259 ec3d de02 9f3d d063 3e3d
00000300: 6030 eb3b 17b1 07be c246 16be 2366 aabd
00000310: 9e60 d9bd 4467 04be 14f5 733d 1826 b9bc
00000320: 3e44 a9bd f2fd 12be 0c99 01bd 12cc b93d
00000330: ec17 bd3d 9848 90bd b2f3 c23d 5e34 edbd
00000340: f8c1 b6bd 3e63 7ebd 9f12 d8bd de16 dd3d
00000350: e01f 8f3c 08d8 ba3c 04f1 913d 62f7 04bd
00000360: 3bfb 83bd 0062 23bc 60ba f1bb 92ff 0cbe
00000370: 0260 c4bd 5f82 f3bd 7ab0 20bd a631 f03d
00000380: 608b adbb ef73 0e3e 5c0c 0ebe 407f 81bc
00000390: cbeb 9dbd 721e ef3d 727f c6bd f8fb 0ebe
000003a0: 5c27 9fbd cf59 07be 0cfd 843d be91 e03d
000003b0: f098 503c 2a61 28bd 561c 66bd 80bf 523c
000003c0: da9b 2fbd 82af b4bd 9685 45bd a067 e1bb
000003d0: c269 ff3d acc5 223d 4617 a03d 68ba 03bd
000003e0: 9717 0d3e ddd2 07be 80ac 9eba e211 af3d
000003f0: a0d1 123c a2c8 903d 40fc 503b 3f57 0a3e

price_encoder.encoder.bias_ih_l0 f4 [180]
-0.08302854 0.058677558 -0.006927848 0.029203624 0.02549155 0.056487143 -0.026623756 0.046296954
0.061778814 0.13817362 -0.07845993 -0.0574397 -0.1053931 0.14682649 -0.030619152 0.109700665
-0.0034310967 -0.027696766 0.07069455 -0.10530333 0.06370701 -0.07060439 0.118467644 -0.116618775
-0.12333816 0.12266557 -0.016591653 -0.08255232 -0.0439851 0.04328385 -0.027008258 -0.03827014
-0.11659729 -0.14670047 -0.03235645 -0.08644686 0.0033400357 -0.14401618 -0.07631853 0.056486025
0.13471873 0.056581587 0.0147435665 0.030675128 -0.102264956 0.063072875 -0.009679422 0.059634686
0.016252652 -0.12882741 0.12771 -0.060064673 0.08685601 0.046201095 0.095440954 -0.071651615
-0.106486216 -0.14285095 -0.048890114 0.07906367 0.092640355 0.05341594 0.13579251 0.048316613
0.09170191 -0.1164864 0.1276855 -0.066339165 0.025122346 -0.14170912 -0.026448093 -0.13124183
-0.109746195 -0.09145298 0.058476403 0.02356729 -0.03801913 0.14073415 0.027417496 0.040302515
0.07395595 -0.038889065 0.12116127 0.09514254 0.11605595 0.07356633 -0.062953725 -0.08350968
-0.12330664 -0.010277614 0.00031766295 0.1345685 -0.103522 0.07623567 -0.014952362 -0.056020714
-0.083153136 -0.030146256 0.12919952 -0.0031832606 -0.08784093 -0.11102408 -0.07055511 -0.07671475
-0.003551215 -0.104859844 0.012523666 -0.083657146 -0.022633437 0.14565234 -0.09503493 0.08771266
0.1354598 0.066926375 -0.11793496 -0.06521234 0.1323588 0.12933703 -0.03268057 -0.04305315
0.058390677 -0.018264353 -0.035750203 -0.13719068 -0.10266714 -0.106743805 0.04061085 -0.0034380257
-0.14404424 -0.040299 -0.0115079135 0.020600349 -0.13835308 -0.092802 -0.02366604 0.12334077
-0.09237918 -0.048134513 0.14202826 -0.07597682 -0.07142978 0.055408284 -0.11847527 -0.006189719
0.13551904 0.0513622 -0.1364047 0.031784236 -0.113048725 0.07520202 -0.100587815 -0.092209816
0.1060649 0.07894936 -0.06518419 -0.11287186 -0.09984754 -0.10179913 -0.07563626 -0.025110103
0.14780013 0.121603206 0.14835368 0.09728056 -0.008912578 -0.10738261 -0.10049048 -0.025386363
-0.116976306 -0.008887291 -0.06437168 0.12862952 -0.055820473 -0.03478028 0.030458525 0.108161665
0.12025337 -0.07137614 0.03469701 0.12291829
00000000: de0a aabd e157 703d 0003 e3bb 703c ef3c
00000010: a8d3 d03c 105f 673d 101a dabc e0a1 3d3d
00000020: c80b 7d3d 637d 0d3e 9aaf a0bd e445 6bbd
00000030: 56d8 d7bd af59 163e 04d5 fabc beaa e03d
00000040: 40dc 60bb 54e4 e2bc 4ec8 903d 46a9 d7bd
00000050: d278 823d 0999 90bd 2a9f f23d d3d5 eebd
00000060: b898 fcbd 1638 fb3d 38eb 87bc 3111 a9bd
00000070: b829 34bd 684a 313d 6c40 ddbc 26c1 1cbd
00000080: 8fca eebd a638 16be 3288 04bd 0d0b b1bd
00000090: 80e4 5a3b fa78 13be e44c 9cbd e45d 673d
000000a0: b5f3 093e 18c2 673d 008f 713c 684a fb3c
000000b0: 4a70 d1bd 5a2c 813d 7096 1ebc 8043 743d
000000c0: 4824 853c 55eb 03be 69c6 023e 6006 76bd
000000d0: 90e1 b13d 5c3d 3d3d 8c76 c33d 15be 92bd
000000e0: 7215 dabd 8547 12be 0041 48bd 22ec a13d
000000f0: 3aba bd3d acca 5a3d 310d 0b3e a4e7 453d
00000100: 36ce bb3d 6c90 eebd fdbf 023e d4dc 87bd
00000110: 61cd cd3c 321c 11be aca9 d8bc 4264 06be
00000120: 9dc2 e0bd b34b bbbd f484 6f3d 3010 c13c
00000130: f2b9 1bbd 9d1c 103e a89a e03c 4014 253d
00000140: 3876 973d 244a 1fbd 6623 f83d 18da c23d
00000150: beae ed3d f2a9 963d e2ed 80bd 2007 abbd
00000160: 3188 fcbd 7063 28bc 008c a639 53cc 093e
00000170: 5803 d4bd 7221 9c3d c0fa 74bc fa75 65bd
00000180: 314c aabd 48f5 f6bc e14c 043e 409e 50bb
00000190: f2e5 b3bd 9860 e3bd 337f 90bd 9f1c 9dbd
000001a0: 80bb 68bb c2c0 d6bd 1030 4d3c 7054 abbd
000001b0: c269 b9bc e325 153e aca1 c2bd b2a2 b33d
000001c0: f9b5 0a3e b210 893d e287 f1bd 0c8e 85bd
000001d0: 1189 073e ed70 043e 10dc 05bd 8058 30bd
000001e0: 102b 6f3d 209f 95bc ce6e 12bd b77b 0cbe
000001f0: 2643 d2bd 7f9c dabd 9057 263d 8050 61bb
00000200: 5580 13be 9010 25bd b08b 3cbc 10c2 a83c
00000210: 6eac 0dbe fa0e bebd 48df c1bc 169a fc3d
00000220: 4c31 bdbd b228 45bd db6f 113e bc99 9bbd
00000230: c749 92bd ccf3 623d 2aa3 f2bd 20d3 cabb
00000240: 81c5 0a3e 2c61 523d acad 0bbe 3030 023d
00000250: 1786 e7bd 8403 9a3d fc00 cebd 80d8 bcbd
00000260: 8e38 d93d 34b0 a13d 4a7f 85bd 5d29 e7bd
00000270: de7c ccbd 107c d0bd 2fe7 9abd b4b3 cdbc
00000280: eb58 173e 1a0b f93d 07ea 173e 083b c73d
00000290: 1006 12bc 6aeb dbbd f4cd cdbd 10f7 cfbc
000002a0: 4691 efbd 009c 11bc 4dd5 83bd 75b7 033e
000002b0: 02a4 64bd c475 0ebd 2884 f93c dd83 dd3d
000002c0: 6647 f63d a72d 92bd 741e 0e3d 96bc fb3d

price_encoder.encoder.bias_hh_l0 f4 [180]
-0.03071165 -0.043817837 -0.06984364 -0.026595123 0.1068372 -0.11014998 -0.08888026 0.14472504
0.10956098 0.08760324 0.044875175 -0.082260296 0.13478632 0.063983664 0.024610087 0.11453323
0.0010171384 -0.14872305 -0.08322023 0.029833138 0.0673088 0.008263007 -0.13420418 -0.04783895
0.046368197 -0.14640954 -0.098859794 -0.06223417 0.041979373 0.066632286 0.09265007 -0.014505997
0.13182713 -0.11886451 -0.14831124 -0.071903944 -0.052128136 0.1134132 0.06631875 0.04664339
0.0081439465 -0.050730735 0.13331042 0.07293284 0.029003337 0.10257281 -0.080470614 -0.039692126
0.07122755 0.08838521 0.13444419 -0.011682317 0.039779022 -0.13988659 0.12901466 0.09894666
-0.14615594 0.14665975 -0.06054072 0.12346983 -0.09466798 -0.12682982 -0.11959547 0.10597341
-0.10535289 -0.118758895 0.11741041 -0.03813556 0.06264816 -0.03806732 -0.062128954 0.10132684
-0.09211965 0.11952807 0.043956786 -0.0131958425 0.1197492 0.12905838 -0.08784836 -0.013194025
0.13552107 -0.039669663 0.07278758 -0.054908536 -0.042767487 -0.08469214 -0.09966926 0.13537283
0.0143340975 0.008067057 0.027167663 -0.07288611 0.114593014 0.031471327 0.0152768195 0.037388742
-0.14426371 0.13388155 0.13709565 -0.01345484 -0.13486505 -0.08982894 0.10172312 0.07083069
-0.011415318 -0.053889222 -0.10693514 -0.0473193 -0.1391713 0.024410814 -0.11090021 -0.10425991
-0.054864302 0.08851695 -0.027425988 -0.12638155 0.05239041 -0.12734711 -0.08133812 0.008582696
0.0054695457 -0.13876913 0.025448918 -0.11455379 -0.053066924 0.029051661 -0.14809105 -0.13346127
0.028806522 0.00070001185 0.05123119 0.03912644 -0.0418059 -0.14022921 0.082524866 0.0771009
0.052522123 0.08133517 -0.06610727 0.10791652 -0.021569565 -0.072431035 0.013904408 -0.050897956
0.008589581 0.14302741 -0.14002585 0.048640385 0.08275362 -0.12876478 -0.13250682 0.09844756
-0.14308108 0.13856976 0.09247044 0.12986557 -0.116534434 0.043778703 -0.12063336 -0.14040886
-0.04480148 -0.02242519 0.056284815 0.061464787 -0.107645154 -0.12780991 0.008018479 -0.099929094
-0.06805345 0.12858994 -0.02912473 -0.12994191 -0.12727463 -0.011338174 -0.14618641 0.021210805
-0.05231636 -0.11107717 -0.051985115 0.07009585
00000000: 0097 fbbc 557a 33bd 2f0a 8fbd 04de d9bc
00000010: 76cd da3d 5096 e1bd db06 b6bd cd32 143e
00000020: 8261 e03d 5469 b33d 08cf 373d 1678 a8bd
00000030: 6d05 0a3e de09 833d 189b c93c 6690 ea3d
00000040: 8051 853a db4a 18be 5e6f aabd a064 f43c
00000050: 32d9 893d 9061 073c d26c 09be c6f2 43bd
00000060: 94ec 3d3d 62ec 15be 0177 cabd 42e9 7ebd
00000070: 90f2 2b3d 8276 883d 52bf bd3d 90aa 6dbc
00000080: b1fd 063e 3c6f f3bd e7de 17be 6042 93bd
00000090: 5084 55bd 2e45 e83d 20d2 873d 240d 3f3d
000000a0: 306e 053c 08cb 4fbd 8782 083e d05d 953d
000000b0: 6898 ed3c b211 d23d c7cd a4bd 3694 22bd
000000c0: c0df 913d 4e03 b53d bdab 093e 3067 3fbc
000000d0: 54ef 223d 6e3e 0fbe 6b1c 043e 8ca4 ca3d
000000e0: e7a9 15be f92d 163e 8cf9 77bd c0dd fc3d
000000f0: 49e1 c1bd addf 01be 78ee f4bd 9608 d93d
00000100: 42c3 d7bd dd37 f3bd de74 f03d 0834 1cbd
00000110: ae4d 803d 7aec 1bbd ee7a 7ebd 7284 cf3d
00000120: 3aa9 bcbd 22cb f43d 080c 343d 6033 58bc
00000130: 123f f53d e127 043e d7e9 b3bd c02b 58bc
00000140: 09c6 0a3e a87c 22bd a811 953d c6e7 60bd
00000150: f62c 2fbd 1373 adbd 661f ccbd 2d9f 0a3e
00000160: 90d9 6a3c b02b 043c b88e de3c 5045 95bd
00000170: beaf ea3d 14e8 003d a04b 7a3c f024 193d
00000180: deb9 13be 3f18 093e cd62 0c3e b071 5cbc
00000190: 101a 0abe 3cf8 b7bd 3654 d03d ae0f 913d
000001a0: 5007 3bbc f2ba 5cbd d000 dbbd e2d1 41bd
000001b0: ec82 0ebe 30f9 c73c a61f e3bd 3886 d5bd
000001c0: 64b9 60bd 6048 b53d 77ac e0bc 2a6a 01be
000001d0: 5497 563d 4867 02be 9a94 a6bd 709e 0c3c
000001e0: e039 b33b 7f19 0ebe 407a d03c 2d9b eabd
000001f0: b45c 59bd c0fd ed3c 2ea5 17be 12aa 08be
00000200: a8fb eb3c 0081 373a ccd7 513d 0c43 203d
00000210: aa3c 2bbd 3f98 0fbe cc02 a93d 14e7 9d3d
00000220: 7021 573d 0e93 a63d 4063 87bd 5603 dd3d
00000230: a8b2 b0bc b956 94bd 50cf 633c 607a 50bd
00000240: 50bb 0c3c c775 123e f062 0fbe 243b 473d
00000250: bb7a a93d eada 03be deaf 07be e09e c93d
00000260: d983 12be 3be5 0d3e 2461 bd3d 7bfb 043e
00000270: 9ba9 eebd 4c51 333d a00e f7bd 57c7 0fbe
00000280: c281 37bd 08b5 b7bc e88a 663d 80c2 7b3d
00000290: 1075 dcbd 9ae0 02be f05f 033c a0a7 ccbd
000002a0: 9b5f 8bbd 15ad 033e fc96 eebc 7e0f 05be
000002b0: 4854 02be c0c3 39bc e4b1 15be 48c2 ad3c
000002c0: ae49 56bd 6d7c e3bd 58ee 54bd 6a8e 8f3d

atten_layer.0.weight f4 [45, 135]
0.043523334 -0.057527825 0.064046495 -0.05431929 0.010249458 0.047915198 -0.02647698 0.08268116
-0.050616797 0.013955265 -0.00017409772 0.07011714 0.0638802 0.04782971 -0.084165305 -0.07592688
0.06552947 0.04300847 0.071187176 0.05408994 -0.055513203 -0.032267794 -0.06864958 -0.055862427
0.021634132 -0.07577692 -0.008883074 -0.06294754 0.012905672 -0.036633167 0.047496654 0.005422905
-0.06912641 0.08095316 0.03377986 -0.027014066 -0.017602913 -0.03142248 -0.035023727 0.049071886
-0.029359542 0.07586279 0.07156672 0.052905627 -0.07218787 0.036335632 -0.06495698 0.07942774
0.06817045 0.06397491 -0.0034912527 -0.08242512 -0.073351435 -0.030205265 -0.020022064 0.0033995286
0.043594442 -0.027559645 0.07944877 -0.085885435 0.025684722 0.015385851 0.0642511 -0.035106737
-0.015262306 -0.057760675 -0.033379957 -0.0050453097 -0.054180738 -0.063851796 0.05086743 0.04567904
0.06467103 0.029852435 -0.005164407 -0.038324255 -0.037584905 0.010891013 -0.025205873 -0.080068074
0.067516185 -0.012693562 0.0058788955 -0.07367806 -0.050439935 -0.013259321 0.07556953 0.061696284
0.083218105 -0.0852999 -0.025596516 -0.07515331 0.07548093 -0.11331284 -0.068648614 -0.028544176
0.048714783 0.089637354 -0.057240833 -0.032878064 -0.02402778 -0.029549742 0.051212184 0.024748808
-0.042505093 -0.012683077 0.0053764433 -0.055278238 -0.14841194 0.060140096 -0.084155306 -0.058984727
0.16478439 -0.12261512 0.053271636 -0.029711641 0.0312349 0.053387392 0.060676225 -0.09582028
0.0743493 -0.06193393 -0.070212305 0.022682257 -0.023945255 0.095896035 0.09814031 0.08344493
0.012978099 -0.023320854 -0.05907797 -0.06481782 -0.068643056 0.03948347 -0.085559234 0.06466464
0.04881268 0.03894172 0.010934986 -0.027413208 0.0027773753 -0.021941982 -0.07678468 0.021095939
0.004974544 0.010454819 -0.05887885 -0.034358524 -0.07896353 0.061256878 -0.026691679 0.08328869
0.05776783 0.084586896 -0.03144114 0.07782399 -0.0133406 0.025435694 -0.028608423 0.062982254
0.043247543 -0.017423026 0.039404072 -0.018671192 -0.059899412 0.08243326 -0.0065088645 -0.011651307
0.040818103 0.08035091 0.03557623 0.06820475 0.06953285 0.060259603 0.08498552 0.044799544
-0.053360704 0.07031279 0.014771886 0.032140695 -0.051462695 0.04562726 0.0008275211 -0.078334704
0.06515054 0.040471695 -0.017709412 -0.009636253 -0.041445337 0.05932776 0.069736056 0.059141807
-0.08448934 -0.008858837 -0.06993905 -0.06194731 -0.022842653 0.00533551 -0.010343164 -0.067520775
-0.044747703 -0.018259719 -0.035602354 -0.00088528544 0.06817915 0.014471889 0.025522895 -0.0061872825
-0.0110588595 -0.025079459 0.04273031 0.047600262 0.042714678 -0.014410727 0.08482542 0.08011054
-0.05990728 0.043652393 0.025634393 0.059582286 -0.058121607 0.0024366528 -0.07317868 -0.06350765
0.01848185 0.22881374 0.057682224 -0.09603322 0.05346853 -0.016267605 0.050951697 -0.06405072
0.016173141 0.0564818 -0.090798125 -0.024427313 -0.016719645 -0.032170806 0.024416246 0.25210655
-0.017014451 0.01586669 -0.021405825 0.19965349 -0.12983388 0.1680901 0.005669922 -0.24064468
0.14504302 -0.05033665 -0.08209075 -0.060806215 -0.22494443 -0.047286242 0.059071444 0.045266837
00000000: 8645 323d 4ca2 6bbd cf2a 833d e77d 5ebd
00000010: 58ed 273c ba42 443d 40e6 d8bc bd54 a93d
00000020: 8f53 4fbd a0a4 643c 008e 36b9 9399 8f3d
00000030: 9fd3 823d 16e9 433d dc5e acbd 8d7f 9bbd
00000040: 5134 863d a629 303d 95ca 913d 6a8d 5d3d
00000050: d061 63bd 3c2b 04bd 2798 8cbd 00d0 64bd
00000060: 103a b13c ee30 9bbd 508a 11bc a4ea 80bd
00000070: 5072 533c a90c 16bd da8b 423d a0b2 b13b
00000080: 2692 8dbd c5ca a53d c05c 0a3d 9a4c ddbc
00000090: fc33 90bc dcb4 00bd 0a75 0fbd 9aff 483d
000000a0: 6c83 f0bc f35d 9b3d 9391 923d 92b3 583d
000000b0: 3cd7 93bd acd4 143d 2a08 85bd 03ab a23d
000000c0: f39c 8b3d 4705 833d 80cd 64bb 80ce a8bd
000000d0: 4739 96bd 0871 f7bc 5005 a4bc a0ca 5e3b
000000e0: 1690 323d c4c4 e1bc 09b6 a23d b4e4 afbd
000000f0: c468 d23c f014 7c3c 1596 833d 15cc 0fbd
00000100: c00e 7abc 7596 6cbd 6cb9 08bd 2053 a5bb
00000110: 9fec 5dbd bbc4 82bd 5e5a 503d f219 3b3d
00000120: 3f72 843d 188d f43c 303a a9bb e5f9 1cbd
00000130: a1f2 19bd 3870 323c 8c7c cebc bbfa a3bd
00000140: ed45 8a3d a8f8 4fbc c0a3 c03b 86e4 96bd
00000150: 1b9a 4ebd a03d 59bc 33c4 9a3d 3eb5 7c3d
00000160: 416e aa3d b7b1 aebd c9af d1bc fbe9 99bd
00000170: bf95 9a3d 9010 e8bd a597 8cbd 7ad5 e9bc
00000180: 2789 473d ca93 b73d 5d75 6abd 26ab 06bd
00000190: e8d5 c4bc 4d12 f2bc dec3 513d 03be ca3c
000001a0: d219 2ebd aecc 4fbc e02c b03b 6f6b 62bd
000001b0: 4df9 17be 7655 763d 9e59 acbd f899 71bd
000001c0: 3dbd 283e a31d fbbd 5c33 5a3d d465 f3bc
000001d0: 55e0 ff3c bdac 5a3d a287 783d 6c3d c4bd
000001e0: 7244 983d 6fae 7dbd 78cb 8fbd 24d0 b93c
000001f0: d728 c4bc 2465 c43d c9fd c83d 2de5 aa3d
00000200: 18a2 543c 600b bfbc befb 71bd 35bf 84bd
00000210: bb94 8cbd 6bb9 213d ae39 afbd e56e 843d
00000220: ceef 473d 5a81 1f3d a828 333c aa91 e0bc
00000230: a004 363b acbf b3bc 4941 9dbd 64d1 ac3c
00000240: 8001 a33b b04a 2b3c f32a 71bd 86bb 0cbd
00000250: a2b7 a1bd 7ee8 7a3d 82a8 dabc 4393 aa3d
00000260: f69d 6c3d e53b ad3d 6dc8 00bd 2f62 9f3d
00000270: 8892 5abc 845e d03c 365c eabc d7fc 803d
00000280: 5624 313d bcba 8ebc 2a66 213d 54f4 98bc
00000290: 1659 75bd c5d2 a83d 5048 d5bb 20e5 3ebc
000002a0: e230 273d 058f a43d 62b8 113d efae 8b3d
000002b0: 3d67 8e3d c6d2 763d e30c ae3d ba7f 373d
000002c0: c190 5abd 2700 903d c805 723c f6a5 033d
000002d0: 8cca 52bd a6e3 3a3d 00ee 583a f26d a0bd
000002e0: a56d 853d a6c5 253d 5413 91bc 60e1 1dbc
000002f0: 96c2 29bd aa01 733d c7d1 8e3d ae3e 723d
00000300: bf08 adbd a824 11bc 343c 8fbd 76bc 7dbd
00000310: 8420 bbbc 80d5 ae3b 6076 29bc 5548 8abd
00000320: 5e49 37bd 6895 95bc c6d3 11bd 8012 68ba
00000330: 83a1 8b3d 801b 6d3c 6415 d13c b0be cabb
00000340: 3830 35bc 7073 cdbc fa05 2f3d 7ef8 423d
00000350: 96f5 2e3d f81a 6cbc f3b8 ad3d ff10 a43d
00000360: 5661 75bd dacc 323d 38ff d13c 8e0c 743d
00000370: ec10 6ebd 40b0 1f3b b4de 95bd 4c10 82bd
00000380: 4067 973c 264e 6a3e 3244 6c3d 11ad c4bd
00000390: d101 5b3d a443 85bc bab2 503d 062d 83bd
000003a0: 897d 843c 7659 673d 5ef4 b9bd ca1b c8bc
000003b0: a3f7 88bc 89c5 03bd 9404 c83c 1c14 813e
000003c0: e461 8bbc dcfa 813c 455b afbc f771 4c3e
000003d0: 2cf3 04be d01f 2c3e c1ca b93b 8f6b 76be
000003e0: 2886 143e ce2d 4ebd 321f a8bd f00f 79bd
000003f0: d557 66be 38af 41bd e6f4 713d b869 393d

atten_layer.0.bias f4 [45]
-0.008553106 0.0051249475 -0.07480041 -0.015025503 0.067166395 0.09655505 0.07526128 -0.033218514
0.032306585 -0.025350275 0.061264776 0.051878605 0.08608673 -0.03889067 -0.090788834 0.109709576
0.05069978 -0.03266594 0.10621516 -0.03497629 -0.0009768042 0.011456195 -0.043869097 0.08923123
-0.016061537 0.0596151 -0.071158126 0.13814107 -0.076831706 0.06427446 0.06176275 -0.13672456
0.16344838 0.12429984 0.016889362 0.056224227 0.10761022 0.029298415 0.010423621 -0.021842523
0.079098076 0.049130835 0.04781353 0.049236547 0.032033194
00000000: 5422 0cbc 2def a73b f530 99bd 872d 76bc
00000010: 898e 893d a7be c53d 9622 9a3d 2310 08bd
00000020: e953 043d 61ab cfbc c6f0 7a3d a97e 543d
00000030: 3d4e b03d d34b 1fbd 7fef b9bd 6aaf e03d
00000040: 93aa 4f3d b8cc 05bd 5587 d93d 4c43 0fbd
00000050: 1c08 80ba c4b2 3b3c 15b0 33bd ddbe b63d
00000060: 7c93 83bc f72e 743d 5abb 91bd da74 0d3e
00000070: f159 9dbd 54a2 833d f0fa 7c3d 8601 0cbe
00000080: 035f 273e ea90 fe3d 8f5b 8a3c 604b 663d
00000090: bf62 dc3d 3b03 f03c d6c7 2a3c 17ef b2bc
000000a0: 2cfe a13d 6a3d 493d 1fd8 433d 43ac 493d
000000b0: 3d35 033d

atten_layer.2.weight f4 [1, 45]
0.29836366 -0.545515 -0.32162988 0.5049179 0.083375625 0.36553743 -0.36404327 -0.49933693
0.51967484 -0.1870102 -0.07619543 -0.24237831 0.49313703 -0.51566076 -0.15026683 0.6120374
0.21244457 -0.3047244 0.8743804 -0.46292838 -0.12433107 0.5713493 0.414562 0.62895566
0.2784991 -0.30483282 0.16941144 0.8723613 -0.17551264 -0.24827498 -0.14853199 -0.7039096
1.0014372 0.752712 0.38909546 0.43698642 0.3304542 -0.44494104 -0.17646614 0.4695442
0.68025446 -0.36256045 0.3081196 0.735997 0.3563654
00000000: 1fc3 983e dfa6 0bbf acac a4be 4d42 013f
00000010: d7c0 aa3d b927 bb3e e163 babe 17a9 ffbe
00000020: 6909 053f 9a7f 3fbe 590c 9cbd 0532 78be
00000030: 757c fc3e 5802 04bf 8cdf 19be 7cae 1c3f
00000040: 128b 593e d604 9cbe 65d7 5f3f f304 edbe
00000050: 4aa1 febd f343 123f 7841 d43e 3d03 213f
00000060: 6f97 8e3e 0c13 9cbe 317a 2d3e 1253 5f3f
00000070: 96b9 33be cc3b 7ebe c518 18be 6b33 34bf
00000080: 182f 803f bcb1 403f 8537 c73e afbc df3e
00000090: 4b31 a93e 50cf e3be 8ab3 34be 1968 f03e
000000a0: 2825 2e3f 86a1 b9be dac1 9d3e 4d6a 3c3f
000000b0: 8775 b63e

lstm.weight_ih_l0 f4 [180, 45]
0.21205373 -0.04539294 0.075787246 0.065304324 -0.06582379 0.0813238 -0.15959154 -0.20318998
-0.13866596 0.0057002506 -0.07091231 0.021899113 0.113029584 -0.14551444 0.1979889 -0.08698634
-0.09495775 -0.0128711155 0.28116778 -0.034183893 0.34895155 -0.09055209 -0.2233833 0.25009188
-0.11582661 -0.0063185543 -0.06866554 -0.20928796 0.11217345 0.026819872 0.088794574 -0.027682886
0.1209047 0.15678169 -0.09468907 -0.06833607 -0.22204186 -0.13342287 -0.098185614 0.19665812
-0.13566321 0.036297254 -0.12818202 -0.06494485 0.15098707 -0.016528396 0.11992045 -0.001675036
0.029893294 -0.050324023 -0.053946912 0.09806144 -0.13220228 0.11002579 -0.04721219 -0.0007309312
0.06298065 0.039158285 -0.11533353 0.005220307 0.1462234 -0.09029731 0.1430905 -0.045085974
0.01431886 -0.09173286 -0.12886956 -0.008002379 -0.08276888 0.11843929 0.049422413 0.1135655
-0.075254045 0.019169921 -0.089951836 -0.0474647 0.14049079 -0.08305299 0.13873176 -0.01282714
0.051144414 0.13343328 0.05038406 0.038782462 -0.14569323 -0.023294369 -0.0070854193 0.036304325
0.0753287 0.13156356 -0.095471844 -0.08736702 0.030903844 0.10154067 -0.08473122 0.0028443485
-0.10353024 -0.15090643 0.094514154 -0.10813974 0.0616134 0.1685965 0.07347156 0.009664002
-0.023882668 0.1326717 -0.12331194 -0.009538774 0.0014489866 0.00034593328 -0.12564658 0.019768944
-0.063278794 -0.053755205 0.10914698 0.09878628 -0.13626619 0.16003695 0.110593304 -0.1286341
-0.08652611 0.01195471 -0.016909614 -0.041171193 0.062404804 -0.11543603 -0.03923225 -0.07787388
0.06713955 -0.030909756 -0.03491099 -0.00924221 -0.032621905 -0.08549657 0.0500742 -0.02632494
0.11489428 0.068921365 -0.090763345 0.083384305 -0.09366417 -0.018047608 0.08585949 0.047986206
0.016799172 -0.05678287 -0.1348995 0.07113533 0.12318512 0.13477348 0.008296422 -0.114446044
-0.10353964 0.10881417 0.07986939 0.13220686 -0.030199012 -0.009506786 -0.016495323 -0.019651985
0.09424448 0.022256445 -0.026454642 0.08344713 -0.10508723 -0.05846733 0.14108862 0.013785049
-0.11903076 0.0150151765 0.05422657 0.047058415 0.10167788 0.1116053 0.11303594 -0.12056254
-0.084431045 0.13429944 -0.028245537 -0.07729684 -0.06875085 -0.053563666 0.08807284 0.032500688
0.045100644 0.025376692 -0.076851115 -0.097573355 0.04429039 -0.0907007 -0.11721492 0.0055259233
-0.10919972 0.08351755 -0.015295728 0.04238993 0.12729026 -0.04353747 -0.092798024 0.04028715
-0.07249573 0.05641315 0.015826331 -0.12915835 -0.13378978 -0.0487355 0.03555258 -0.056096517
0.10161342 0.15656433 -0.026684554 0.011003867 0.022833452 -0.11093204 0.14097469 -0.107032605
-0.052693784 -0.03313329 0.050104693 -0.010341166 -0.034425747 -0.1151226 -0.046506718 0.05917913
-0.16478993 -0.02304752 -0.09156175 -0.049582288 -0.06145477 -0.12652315 -0.14293712 0.06082439
-0.005700846 -0.08188011 -0.107115485 0.15282694 -0.15630251 0.0058988333 -0.06491508 0.08519039
-0.00010485795 -0.021912813 0.07054027 0.048386607 -0.1737988 -0.09456807 0.037910134 0.06619595
0.00498326 0.08982628 3.8549304e-05 -0.03612036 0.10807115 -0.02698564 -0.055858236 -0.063720934
00000000: 9d24 593e f3ed 39bd 5836 9b3d 46be 853d
00000010: a0ce 86bd 188d a63d f76b 23be 0911 50be
00000020: 73fe 0dbe 2bc9 ba3b 793a 91bd c565 b33c
00000030: 0e7c e73d bd01 15be 9abd 4a3e e525 b2bd
00000040: 3579 c2bd 5fe1 52bc 39f5 8f3e 6904 0cbd
00000050: c7a9 b23e 6073 b9bd 97be 64be 0b0c 803e
00000060: 8036 edbd e00b cfbb 85a0 8cbd 954f 56be
00000070: 32bb e53d 59b5 db3c eed9 b53d 38c7 e2bc
00000080: e29c f73d 618b 203e 58ec c1bd c8f3 8bbd
00000090: f15e 63be 01a0 08be 8a15 c9bd bf60 493e
000000a0: 4ceb 0abe 6eac 143d 2642 03be ce01 85bd
000000b0: 5b9c 1a3e 8f66 87bc da98 f53d e28c dbba
000000c0: c8e2 f43c 9020 4ebd 70f7 5cbd 70d4 c83d
000000d0: 0960 07be 3455 e13d 9261 41bd f69b 3fba
000000e0: 00fc 803d 7064 203d fc33 ecbd 1c0f ab3b
000000f0: 96bb 153e cced b8bd 5186 123e 12ac 38bd
00000100: a799 6a3c 70de bbbd 62f6 03be 691c 03bc
00000110: bb82 a9bd 4c90 f23d 286f 4a3d 0795 e83d
00000120: cb1e 9abd 3d0a 9d3c ab38 b8bd 586a 42bd
00000130: d1dc 0f3e b017 aabd b30f 0e3e ed28 52bc
00000140: ce7c 513d bca2 083e 845f 4e3d 5cda 1e3d
00000150: 9b30 15be d5d3 bebc ce2c e8bb d8b3 143d
00000160: ef45 9a3d 99b8 063e be86 c3bd 7bed b2bd
00000170: 0f2a fd3c 8ef4 cf3d 9087 adbd 4068 3a3b
00000180: aa07 d4bd 3787 1abe a390 c13d 5e78 ddbd
00000190: 555e 7c3d 90a4 2c3e 4278 963d c355 1e3c
000001a0: 96a5 c3bc 17db 073e f88a fcbd 8548 1cbc
000001b0: eceb bd3a 615e b539 7fa9 00be 7bf2 a13c
000001c0: 5098 81bd 6b2e 5cbd 7488 df3d 7650 ca3d
000001d0: 5d89 0bbe bae0 233e be7e e23d a8b8 03be
000001e0: 9a34 b1bd b0dd 433c 0886 8abc 20a3 28bd
000001f0: 2e9c 7f3d ba69 ecbd ffb1 20bd 577c 9fbd
00000200: 7680 893d 7536 fdbc d4fe 0ebd a36c 17bc
00000210: 8c9e 05bd d318 afbd 9b1a 4d3d 67a7 d7bc
00000220: b14d eb3d a526 8d3d 22e2 b9bd 64c5 aa3d
00000230: 00d3 bfbd 94d8 93bc 1ad7 af3d 2f8d 443d
00000240: 6b9e 893c 2895 68bd 1823 0abe 66af 913d
00000250: 7b48 fc3d 0f02 0a3e b7ed 073c b062 eabd
00000260: 970c d4bd f7d9 de3d 9092 a33d 3c61 073e
00000270: eb63 f7bc 5ac2 1bbc 3321 87bc 33fd a0bc
00000280: 4003 c13d 2653 b63c 68b7 d8bc 54e6 aa3d
00000290: f937 d7bd 707b 6fbd 8979 103e b0da 613c
000002a0: 66c6 f3bd 3702 763c ae1c 5e3d 53c0 403d
000002b0: 7e3c d03d 5291 e43d 637f e73d 7ee9 f6bd
000002c0: 2fea acbd cb85 093e 2f63 e7bc ce4d 9ebd
000002d0: 3fcd 8cbd 9365 5bbd 885f b43d 711f 053d
000002e0: 74bb 383d c8e2 cf3c 1e64 9dbd 8ad4 c7bd
000002f0: d769 353d 4ac1 b9bd 600e f0bd ce12 b53b
00000300: 1aa4 dfbd 400b ab3d ef9a 7abc 10a1 2d3d
00000310: 6158 023e 5954 32bd e40c bebd 2304 253d
00000320: a478 94bd 7a11 673d 39a6 813c 1642 04be
00000330: 3000 09be e09e 47bd 959f 113d 76c5 65bd
00000340: b21a d03d 6652 203e 9199 dabc 9049 343c
00000350: 380d bb3c 5630 e3bd ab5b 103e e933 dbbd
00000360: 70d5 57bd c6b6 07bd 943a 4d3d fe6d 29bc
00000370: 0302 0dbd 66c5 ebbd d47d 3ebd d165 723d
00000380: b1be 28be 27ce bcbc ba84 bbbd cc16 4bbd
00000390: ffb7 7bbd 498f 01be 1c5e 12be ff22 793d
000003a0: 2ace babb c2b0 a7bd 5d5f dbbd aa7e 1c3e
000003b0: c40d 20be 004b c13b 33f2 84bd 4d78 ae3d
000003c0: 2fe7 dbb8 8082 b3bc 6b77 903d 0931 463d
000003d0: 50f8 31be e7ac c1bd a847 1b3d be91 873d
000003e0: 9d4a a33b d7f6 b73d 00b0 2138 f1f2 13bd
000003f0: 6854 dd3d fd10 ddbc 9bcb 64bd 1f80 82bd

lstm.weight_hh_l0 f4 [180, 45]
0.12663011 -0.11399385 -0.045209125 -0.053591907 -0.08016545 0.05760412 0.12200414 -0.14705196
0.081757054 0.11628263 -0.05914613 0.10927497 0.11092724 0.037527114 -0.091318294 -0.07431599
0.010124117 -0.08677908 -0.022340223 -0.055282146 0.09234762 -0.09312865 0.13818555 0.02072455
0.12773235 -0.018511817 0.08406623 -0.09892404 -0.07710648 -0.0053123236 -0.052105673 0.09127815
0.030052036 -0.08420512 -0.016599312 -0.052857652 -0.024176985 0.07963209 -0.10132764 -0.006191656
-0.03216774 0.13794713 0.1425985 -0.024643317 -0.02431991 0.017847463 -0.106628954 0.060824543
0.012062624 0.008245736 -0.08082679 0.08723578 -0.08607673 0.13155128 -0.076281 0.045587137
0.06665881 0.10100116 -0.05871012 0.04630874 -0.1241532 0.007385686 -0.12970352 0.137791
-0.00010444224 0.052437857 0.13870595 -0.13954175 -0.07908967 0.1025127 -0.12538525 0.092330724
0.14788054 -0.1431089 0.0021614283 0.08306289 -0.0026662052 -0.010620967 -0.06528074 0.14281054
0.029512107 -0.06286374 -0.0074932575 -0.14841081 0.03984712 -0.088362 -0.065791436 0.015506953
0.13965268 -0.12032525 -0.0889914 -0.07267613 0.09256254 0.0038577616 0.106748804 -0.0811607
0.1119272 0.04252912 0.017985597 0.08412258 0.14090864 0.11681117 -0.13490926 0.14115532
-0.038860284 -0.06960529 0.041956693 0.063053936 -0.09684039 -0.01506798 -0.008347437 -0.060895808
-0.015864328 -0.087537855 0.07511039 -0.13879739 -0.017908365 0.07063612 -0.10726772 0.095520616
-0.13050644 0.03782998 -0.094757706 -0.13116366 -0.054965615 -0.14216457 0.007347539 -0.042973734
-0.10901518 -0.027316153 0.021067187 -0.03150081 -0.030794747 0.09505689 -0.07801878 -0.11716531
0.024119958 -0.023342773 0.068156466 0.030146122 -0.12001222 -0.033840887 0.13835521 0.14138015
0.021552786 0.027123362 0.09317309 0.08278191 -0.05737503 0.052798823 -0.017368376 -0.057096742
-0.053248487 -0.1096437 -0.013759509 0.12907217 -0.022360966 -0.106950626 -0.09024046 0.09293723
0.032917634 0.07718448 -0.07115953 -0.0028849393 -0.10090718 -0.050754376 -0.0012855232 -0.14897539
-0.12328464 -0.12567917 -0.11467694 0.058542028 0.031425744 -0.124269865 0.035395354 -0.10216124
0.06300211 -0.1481812 0.12921695 0.05957535 0.100105524 -0.14183153 -0.03589619 -0.02870065
-0.07047573 0.080124125 -0.0018082857 -0.02912999 -0.031502247 -0.05904171 -0.14392449 0.060826525
-0.048010953 0.13817947 0.0774031 -0.08362039 -0.007320285 0.088284105 0.062331393 -0.11417838
0.0110434 -0.14869267 0.021444112 0.03654118 0.09800701 -0.05768726 0.12861373 0.08405256
-0.011207923 0.09772451 0.070851356 0.026227057 -0.0805079 -0.10542725 -0.014024988 0.1484641
0.1073377 0.051672563 -0.0026474893 -0.05718986 -0.015253663 -0.029814586 -0.060034394 -0.14427388
-0.061609335 0.06369384 0.056023166 0.062803775 -0.010539696 0.059430808 -0.10508649 -0.0034439862
-0.0046676397 -0.0016478598 0.10554241 0.068877146 -0.07996527 0.01430577 -0.11880734 0.013756841
-0.016562834 -0.14155269 0.04922828 0.110371545 -0.031828307 -0.10413102 -0.09849863 -0.097369
0.013958916 -0.029938728 0.0736773 0.010186732 0.1369069 0.060341418 0.105411276 -0.04773984
00000000: 53ab 013e 9c75 e9bd 342d 39bd 3083 5bbd
00000010: c92d a4bd 4cf2 6b3d 4edd f93d ca94 16be
00000020: 3e70 a73d 9625 ee3d 3643 72bd 8ecb df3d
00000030: d22d e33d 08b6 193d 1605 bbbd fb32 98bd
00000040: a0df 253c 3bb9 b1bd d802 b7bc 886f 62bd
00000050: c020 bd3d 3cba bebd 8380 0d3e 88c6 a93c
00000060: 45cc 023e 18a6 97bc ea2a ac3d b098 cabd
00000070: 01ea 9dbd 0013 aebb c26c 55bd 0af0 ba3d
00000080: b02f f63c bc73 acbd 48fb 87bc 4481 58bd
00000090: d00e c6bc 2616 a33d de84 cfbd 60e3 cabb
000000a0: 52c2 03bd 0342 0d3e 5705 123e c8e0 c9bc
000000b0: 8c3a c7bc d834 923c 4860 dabd 2823 793d
000000c0: 50a2 453c 2019 073c 8488 a5bd aca8 b23d
000000d0: ff48 b0bd 61b5 063e 3739 9cbd 94b9 3a3d
000000e0: 6a84 883d b2d9 ce3d 067a 70bd 3cae 3d3d
000000f0: 0844 febd a003 f23b 00d1 04be 1519 0d3e
00000100: 0008 dbb8 14c9 563d ef08 0e3e 08e4 0ebe
00000110: c4f9 a1bd 2ef2 d13d fe64 00be e417 bd3d
00000120: ff6d 173e 248b 12be c0a6 0d3b e01c aa3d
00000130: 80bb 2ebb 9003 2ebc e9b1 85bd ed3c 123e
00000140: 60c3 f13c b4be 80bd 008a f5bb 01f9 17be
00000150: bc36 233d 23f7 b4bd a9bd 86bd e010 7e3c
00000160: 1d01 0f3e 166d f6bd 2041 b6bd 39d7 94bd
00000170: 6e91 bd3d 80d2 7c3b 1e9f da3d 9537 a6bd
00000180: 163a e53d 0433 2e3d 8856 933c 7648 ac3d
00000190: 5b4a 103e b23a ef3d a725 0abe 058b 103e
000001a0: f62b 1fbd 388d 8ebd c8da 2b3d 6c22 813d
000001b0: 4154 c6bd b0df 76bc b0c3 08bc e26d 79bd
000001c0: e8f5 81bc 0c47 b3bd 7ad3 993d e720 0ebe
000001d0: 90b4 92bc aca9 903d 2eaf dbbd 50a0 c33d
000001e0: 7ba3 05be 9cf3 1a3d 5410 c2bd c44f 06be
000001f0: a023 61bd 9793 11be a0c3 f03b 3a05 30bd
00000200: 5a43 dfbd 20c6 dfbc 1895 ac3c fe06 01bd
00000210: 4445 fcbc 30ad c23d 4fc8 9fbd 5ef4 efbd
00000220: 3897 c53c 5839 bfbc 9e95 8b3d 00f5 f63c
00000230: f8c8 f5bd be9c 0abd fdac 0d3e f5c5 103e
00000240: 788f b03c d031 de3c 88d1 be3d 9089 a93d
00000250: 1402 6bbd 9443 583d 2048 8ebc 46de 69bd
00000260: 161b 5abd e08c e0bd 906f 61bc 7f2b 043e
00000270: 582e b7bc ee08 dbbd fecf b8bd e055 be3d
00000280: a4d4 063d e612 9e3d 16bc 91bd 4011 3dbb
00000290: 6ca8 cebd d2e3 4fbd 007f a8ba 018d 18be
000002a0: a87c fcbd 0ab2 00be bedb eabd c4c9 6f3d
000002b0: 48b8 003d 3381 febd b8fa 103d ea39 d1bd
000002c0: 4007 813d d0bc 17be 7351 043e 4805 743d
000002d0: 2004 cd3d 493c 11be e207 13bd a01d ebbc
000002e0: 9455 90bd 1e18 a43d 0004 edba 04a2 eebc
000002f0: 8008 01bd b8d5 71bd f160 13be 3c25 793d
00000300: 22a7 44bd eb7e 0d3e 8485 9e3d 2b41 abbd
00000310: 00df efbb 4cce b43d 344f 7f3d 5bd6 e9bd
00000320: 60ef 343c e442 18be 90ab af3c 34ac 153d
00000330: e6b7 c83d 7a49 6cbd 51b3 033e c023 ac3d
00000340: 70a1 37bc ca23 c83d 841a 913d 20da d63c
00000350: 53e1 a4bd 3eea d7bd 10c9 65bc f906 183e
00000360: ded3 db3d 9ca6 533d 8081 2dbb ea3f 6abd
00000370: 80ea 79bc b83d f4bc a0e6 75bd 88bc 13be
00000380: 125a 7cbd ea71 823d 8c78 653d 449f 803d
00000390: b0ae 2cbc b86d 733d 9637 d7bd 80b4 61bb
000003a0: 00f3 98bb 00fd d7ba 9e26 d83d 760f 8d3d
000003b0: d5c4 a3bd c062 6a3c 4351 f3bd 6064 613c
000003c0: c8ae 87bc 30f3 10be 98a3 493d 7a0a e23d
000003d0: 665e 02bd a542 d5bd a6b9 c9bd 6669 c7bd
000003e0: f0b3 643c 1042 f5bc 20e4 963d 40e6 263c
000003f0: 5331 0c3e 9028 773d dee1 d73d da8a 43bd

lstm.bias_ih_l0 f4 [180]
0.44641227 0.13598493 0.03271787 0.09643627 -0.092268825 0.017109951 0.12610844 -0.03656266
0.244782 0.045790393 -0.04099261 -0.048345923 -0.05259484 -0.15033457 0.09888853 0.037035584
0.10653127 -0.021590253 0.13180986 -0.10213819 0.141922 -0.051140748 -0.096087664 0.021462966
0.13742208 0.18623854 0.13874644 -0.15271898 -0.08478424 0.121721 0.10041159 -0.034545384
0.5037672 0.36175758 -0.015861137 -0.0005409367 0.14648436 -0.09425956 0.22071353 0.20712964
0.08527531 -0.03922279 0.0013253866 -0.07052456 0.034880362 0.04293236 -0.09687109 -0.10421401
-0.08650784 0.12505509 -0.0833265 -0.018344313 0.083561525 0.11863716 0.062187985 -0.113074854
-0.08016158 -0.028661057 -0.028602965 0.11185564 -0.06837982 -0.08393113 -0.018981174 0.14512946
-0.0046153963 -0.113044634 0.019214526 -0.033432484 -0.0054285675 -0.08207465 -0.008227453 0.09015192
-0.050128296 0.060024947 -0.122424684 0.104520276 0.007519096 -0.14298487 -0.035183713 -0.027953073
-0.13738753 0.107467905 0.011692181 -0.13300593 0.0125635415 0.086484045 -0.016320959 -0.14285222
0.00931038 0.096174955 -1.2982699 -0.26964873 0.3877049 0.24471368 0.32031578 0.3813376
0.2610497 -0.24515682 1.142456 0.04098737 -0.31641036 0.5850174 -0.32434833 0.008453006
0.74116135 0.19498916 0.045832984 -0.4184028 0.17646612 -0.25038373 -0.4563539 0.49625635
0.21071504 0.106032625 0.8106091 -0.22352852 0.48836267 -0.076488465 -0.6883709 -0.6972289
0.14906092 -0.21216795 -1.670312 1.6657196 0.52968735 0.37600932 0.40640232 0.05442521
-1.1356395 -0.6690094 0.7215805 -0.11391038 -0.13445179 0.3543389 0.11039702 0.5712388
-0.118356705 -0.1268196 0.13781343 0.06929198 -0.016526071 0.09266561 -0.09655539 0.46083304
0.06349036 -0.050538976 -0.05247368 0.18332113 -0.16035238 0.0052128388 0.0101743415 -0.0962646
-0.044158094 0.14667362 -0.14223118 -0.0749927 0.18870835 -0.13131219 -0.1370912 0.12646127
0.14341801 0.07720914 -0.11681262 -0.07235051 0.13672665 0.110894956 0.04442304 0.5935377
0.42147455 0.3083593 -0.025767071 0.0709235 -0.057248317 0.3994404 0.06682194 0.33144778
-0.084313296 -0.11889067 0.09122223 0.09387164
00000000: 2690 e43e a23f 0b3e 2c03 063d 6180 c53d
00000010: 70f7 bcbd 2b2a 8c3c 9222 013e bac2 15bd
00000020: 22a8 7a3e b58e 3b3d dee7 27bd 6006 46bd
00000030: b06d 57bd 4ef1 19be 1286 ca3d a0b2 173d
00000040: 112d da3d 0bde b0bc 2af9 063e d42d d1bd
00000050: 0054 113e f678 51bd 9cc9 c4bd 1ad3 af3c
00000060: 60b8 0c3e 51b5 3e3e 8c13 0e3e 5d62 1cbe
00000070: 5ca3 adbd dc48 f93d 97a4 cd3d 767f 0dbd
00000080: e3f6 003f 4a38 b93e 37ef 81bc a6cd 0dba
00000090: ffff 153e 280b c1bd ba02 623e cb19 543e
000000a0: d2a4 ae3d 14a8 20bd 98b8 ad3a 2e6f 90bd
000000b0: b6de 0e3d d8d9 2f3d 5a64 c6bd 286e d5bd
000000c0: 062b b1bd 710e 003e 16a7 aabd d046 96bc
000000d0: 4e22 ab3d 0af8 f23d d4b8 7e3d ca93 e7bd
000000e0: c12b a4bd 98ca eabc c450 eabc 9214 e53d
000000f0: b80a 8cbd 16e4 abbd 687e 9bbc d19c 143e
00000100: c03c 97bb f283 e7bd c867 9d3c 80f0 08bd
00000110: 20e2 b1bb c116 a8bd 70cc 06bc 92a1 b83d
00000120: 5453 4dbd b8dc 753d cbb9 fabd ba0e d63d
00000130: c062 f63b a06a 12be cc1c 10bd d8fd e4bc
00000140: 51af 0cbe 2218 dc3d 9090 3f3c b532 08be
00000150: 50d7 4d3c 8c1e b13d 88b3 85bc da47 12be
00000160: 908a 183c 60f7 c43d b52d a6bf 660f 8abe
00000170: 4281 c63e 3996 7a3e 6e00 a43e af3e c33e
00000180: 4ea8 853e 640a 7bbe 003c 923f 5fe2 273d
00000190: 8a00 a2be b3c3 153f fc10 a6be 7a7e 0a3c
000001a0: c0bc 3d3f 3dab 473e 5ebb 3b3d e438 d6be
000001b0: 89b3 343e 4c32 80be 38a7 e9be 5015 fe3e
000001c0: afc5 573e a227 d93d 1484 4f3f a9e4 64be
000001d0: ac0a fa3e fca5 9cbd 1339 30bf 987d 32bf
000001e0: 6da3 183e 8e42 59be c9cc d5bf 4d36 d53f
000001f0: 9799 073f 4b84 c03e f713 d03e f8ec 5e3d
00000200: a35c 91bf 3344 2bbf 80b9 383f d849 e9bd
00000210: bbad 09be e96b b53e d517 e23d b53c 123f
00000220: 0065 f2bd ffdc 01be f71e 0d3e f4e8 8d3d
00000230: af61 87bc 78c7 bd3d d5be c5bd 4ff2 eb3e
00000240: 3c07 823d f501 4fbd a4ee 56bd 89b8 3b3e
00000250: 6a33 24be 76d0 aa3b 48b2 263c 6026 c5bd
00000260: 1edf 34bd 9c31 163e 0da5 11be c695 99bd
00000270: c33c 413e b476 06be a361 0cbe 107f 013e
00000280: 2cdc 123e d31f 9e3d 743b efbd 812c 94bd
00000290: 1202 0c3e e51c e33d eff4 353d 16f2 173f
000002a0: 83cb d73e 45e1 9d3e 7715 d3bc 5740 913d
000002b0: 367d 6abd 7483 cc3e f1d9 883d 86b3 a93e
000002c0: 73ac acbd f47c f3bd b8d2 ba3d c63f c03d
