Ni_prediction/savemodel/bst_mod_657.pth (torch_old, 533443 bytes, 44 tensors)

price_encoder.attention.weight f4 [1, 121]
000000 36 f9 20 41 0a 8a 21 41 2a 23 20 41 c1 85 21 c1
       10.0608425 10.096201 10.008585 -10.095155
000010 63 0c 1f c1 ba fa 1e 41 b6 e4 20 41 68 2e 1d c1
       -9.940524 9.936213 10.055838 -9.82383
000020 a3 8f 20 41 32 c3 1f 41 81 fe 1f 41 73 35 21 41
       10.035068 9.985155 9.999635 10.075549
000030 00 30 1f c1 e5 31 20 c1 66 56 20 c1 ca 7b 1f 41
       -9.949219 -10.012181 -10.021093 9.967722
000040 f8 0c 1f 41 f9 8a 1f c1 53 3e 1d 41 e4 34 20 41
       9.940666 -9.971429 9.827716 10.012913
000050 d5 85 1d 41 c7 52 20 41 d4 20 21 41 cc e0 20 c1
       9.845174 10.020209 10.070515 -10.054882
000060 2c e8 20 c1 5c 00 20 41 88 30 1f c1 dd 22 21 c1
       -10.056683 10.000088 -9.949348 -10.071012
000070 42 cb 20 c1 11 9d 1f c1 34 5e 20 41 90 f6 1f c1
       -10.0496235 -9.975846 10.022999 -9.997696
000080 d6 36 20 41 84 a1 21 41 c9 1f 1f 41 39 09 20 41
       10.013388 10.101933 9.94526 10.002252
000090 3e e9 20 c1 90 1e 21 41 c0 7d 20 41 e1 d6 20 c1
       -10.056944 10.069962 10.030701 -10.052461
0000a0 9c 3f 20 41 20 ad 21 41 9b 7e 1f 41 a3 0d 21 41
       10.01553 10.104767 9.96841 10.065829
0000b0 5a 16 1f 41 cd 1d 21 41 50 14 21 41 16 12 21 41
       9.942957 10.069776 10.067459 10.0669155
0000c0 ff 9b 21 41 1f 0e 20 41 92 6b 1f 41 46 cb 1f 41
       10.100585 10.003448 9.963762 9.987127
0000d0 a7 8d 20 41 b9 a9 1f 41 3a a9 1e 41 c4 67 20 41
       10.034583 9.978936 9.916315 10.025333
0000e0 f4 c5 20 41 50 7f 21 c1 74 66 20 c1 7a cd 21 41
       10.048328 -10.093582 -10.025013 10.112665
0000f0 22 5a 1f 41 08 45 21 c1 42 b6 20 c1 4b 88 1e c1
       9.959505 -10.079353 -10.044497 -9.908275
000100 0e 7e 21 c1 95 45 21 41 ae 4d 20 41 ea ad 1f 41
       -10.093275 10.079488 10.018965 9.9799595
000110 8e 44 1f 41 3e 29 20 c1 74 f8 1f c1 e3 64 20 41
       9.954237 -10.010069 -9.9981575 10.024631
000120 6d ac 20 41 af 48 1f 41 b2 64 1f c1 5e fa 1e 41
       10.042096 9.955245 -9.962084 9.936125
000130 06 63 1f c1 e4 26 0f 41 4d 50 21 41 7d c0 20 41
       -9.961676 8.946995 10.082105 10.046994
000140 a3 2f 1f c1 86 53 1f c1 13 6f 20 41 17 df 1f 41
       -9.94913 -9.957891 10.027118 9.991965
000150 81 79 21 41 f1 9b 21 c1 53 e8 1e c1 34 ac 21 c1
       10.092164 -10.100572 -9.93172 -10.104542
000160 44 22 21 41 80 20 21 41 bd a9 21 41 1f 8e 21 41
       10.070866 10.070435 10.10394 10.097198
000170 9f d5 1f 41 1b 4d 21 41 fd 9b 1f c1 32 b6 21 c1
       9.989654 10.081325 -9.975583 -10.106981
000180 b2 9f 1f c1 1f b2 20 41 a8 f8 20 c1 55 ab 1e 41
       -9.976488 10.043487 -10.060707 9.916829
000190 ce b2 1f 41 18 e8 1f 41 91 5c 20 41 3a 6f 21 41
       9.9811535 9.9941635 10.022599 10.089655
0001a0 68 0e 21 41 fd 8c 1f 41 e6 09 1f 41 eb 19 21 41
       10.066017 9.971921 9.939917 10.068828
0001b0 fd 33 21 41 17 59 20 41 47 00 1f 41 37 6b 20 41
       10.075192 10.02175 9.937568 10.0261755
0001c0 c7 e5 1e 41 71 ba 20 41 f9 7f 21 41 a5 05 1f 41
       9.931098 10.045518 10.093743 9.938878
0001d0 66 e4 1f 41 df c6 1f 41 46 40 21 41 65 9d 20 41
       9.993261 9.9860525 10.078192 10.038426
0001e0 ed 1b 21 41
       10.069318

price_encoder.encoder.weight_ih_l0 f4 [180, 45]
000000 1c 78 ce bd 32 86 f1 bd 18 32 03 3d 20 05 a9 3d
       -0.10081503 -0.11793174 0.032030195 0.08252931
000010 e6 7b 63 bd a2 b0 d5 3d 80 09 a1 3d 0a ef f9 bd
       -0.05553808 0.10434081 0.0786314 -0.12203796
000020 b7 40 d4 bd 40 15 43 bc 73 f8 e1 bd ce ef 6c bd
       -0.10363906 -0.011906922 -0.11033716 -0.057845883
000030 bc da d9 bc d8 40 fb 3c be b2 f7 bd 70 ab 76 3c
       -0.026593558 0.030670568 -0.12094639 0.015055522
000040 fc 9a 50 3d 08 40 aa bd 68 61 b9 3d e6 b1 eb 3d
       0.050929055 -0.08312994 0.09051782 0.11508541
000050 f5 b5 e2 3d 35 7e 8c 3d d4 58 da bd ee 9c 1e c1
       0.11069862 0.068600096 -0.10661474 -9.913313
000060 d7 78 14 be a5 f2 17 be 6b 3d f9 bd 5b a3 03 3e
       -0.14499222 -0.14838655 -0.12169918 0.12855284
000070 53 4b 08 3e 38 9a 14 3d 0b 55 07 be e0 f9 fc bb
       0.13309984 0.036279887 -0.13216035 -0.007720217
000080 b6 f8 ef 3d 08 06 1b 41 ca 9a 1f 41 ef e1 1f 41
       0.1171736 9.688972 9.97529 9.99266
000090 bb 25 20 41 80 38 20 41 72 58 30 bf 0f 60 1f 41
       10.009212 10.013794 -0.68884957 9.960952
0000a0 35 b8 22 41 0d 94 21 41 7c 56 1f 41 88 ba c6 3c
       10.169972 10.098645 9.958614 0.024258867
0000b0 d6 bd fe bd 1e 8b ff bd 9a 55 8f 3d e5 61 e2 3d
       -0.12438552 -0.124777064 0.06998749 0.11053828
0000c0 e2 67 38 3d f6 29 bc 3d dd 94 00 3e 5c 0d 8d bd
       0.045020945 0.09187691 0.12556787 -0.06887314
0000d0 bf 36 b1 3d 71 16 7e 3d 70 6e 00 3d 88 ee bb 3d
       0.0865302 0.06203312 0.03135532 0.091763556
0000e0 50 f7 a8 bc fa fc 8a 3d 1f b8 04 3e 60 dc 45 3c
       -0.02062574 0.06786533 0.12960862 0.012076467
0000f0 a3 25 11 be c7 37 09 be 60 f9 9e 3b 28 8a 06 bd
       -0.14174514 -0.13400184 0.004851505 -0.0328466
000100 b9 08 e1 3d 0c 69 7a 40 31 24 ab 3d 15 57 b6 3b
       0.10987992 3.9126616 0.08356512 0.00556458
000110 aa 1a 1e 41 77 e7 f6 bd cb 93 13 be 7a 37 f7 3d
       9.88151 -0.12055867 -0.14411847 0.12071128
000120 3e af 3a bd 44 8a 11 be 40 3b 4c bb 8a a9 32 bd
       -0.04557728 -0.142129 -0.0031163245 -0.043618716
000130 57 54 0e 3e 21 bb c0 bd 17 fa 1e 41 f5 54 1e 41
       0.1389936 -0.09410692 9.936057 9.895741
000140 cf f3 1f 41 cc 35 1f 41 fc 79 22 41 03 5a 07 be
       9.997024 9.950634 10.154781 -0.1321793
000150 6f 5f 1f 41 10 d5 1e 41 b2 0f 1f 41 8a a2 21 41
       9.960799 9.927017 9.941332 10.102182
000160 10 3a 24 3d 70 7b 34 3d fd 88 d8 3d d5 32 dd bb
       0.040094435 0.04406303 0.105730034 -0.0067504444
000170 bc 70 f0 bd a1 26 e0 bd 28 98 e7 3c 87 25 52 3d
       -0.117402524 -0.10944868 0.028270796 0.05130532
000180 60 ca 85 3d c6 c8 88 3d 24 79 db bc 8e 92 ab bd
       0.065327406 0.066789195 -0.026791163 -0.083775625
000190 c6 1e 06 be 30 2e a1 3c 9e 79 4b bd a0 06 cf bd
       -0.13097677 0.019675344 -0.04967653 -0.101086855
0001a0 60 f5 ba 3b 58 c1 88 3c 42 1f c2 3d 84 a8 c7 bd
       0.0057055205 0.016693756 0.09478618 -0.09748939
0001b0 10 61 6c 3c a3 7b 99 bd 6a 99 5b 40 ac cb d4 3c
       0.014427438 -0.07494285 3.4312387 0.025976025
0001c0 16 30 a3 bc 87 ab 1f 41 24 95 5c bd 00 d2 26 3d
       -0.01992039 9.979377 -0.05385317 0.040727615
0001d0 7e 00 35 bd 05 74 40 3c 87 d0 ce bd 33 6e 10 3e
       -0.044189923 0.011746411 -0.10098367 0.14104538
0001e0 42 4c df bd df 28 10 3e bc 1f 0e be 4c 0c 22 41
       -0.10903217 0.14078091 -0.13879293 10.128002
0001f0 65 50 1e 41 8b e3 1f 41 a4 f0 20 41 35 c6 21 41
       9.894628 9.9930525 10.05875 10.11089
000200 f9 e2 1d c1 9c ae 1f 41 e9 95 21 41 fb 66 1e 41
       -9.867913 9.980129 10.099099 9.900142
000210 58 84 1f 41 94 d1 6f 3d 1d bc 80 bd c2 4b c7 3d
       9.9698105 0.05854948 -0.0628588 0.097312465
000220 46 b9 5e bd 8e 17 05 be 60 09 af bc 30 76 20 bd
       -0.05437591 -0.12997267 -0.021366775 -0.039175212
000230 90 51 ed 3d fa 74 f7 3d ac e5 c1 3d 7a 21 8f bb
       0.115878224 0.120828584 0.094676346 -0.0043680044
000240 18 b5 a1 3d 02 a1 e6 3d b6 fa ec 3d f0 ba c9 3d
       0.07895869 0.112611786 0.11571257 0.098501086
000250 29 36 1e c1 5c ea 11 3d 4c 36 7c 3d b6 da 15 bd
       -9.888223 0.035623893 0.06157522 -0.036585532
000260 a0 5c 17 bc 6a 4a 84 40 de 39 31 3d 92 42 ec be
       -0.009238392 4.1340837 0.043268077 -0.4614454
000270 76 b0 9a bc e6 95 5f 3d f8 4a 20 c1 8c da 46 3d
       -0.018882971 0.054586314 -10.018303 0.048548266
000280 0d e6 14 3e 40 b8 83 bd 32 30 b6 bd 31 bc 20 c1
       0.14540882 -0.06431627 -0.08895911 -10.045945
000290 78 23 af 3d aa 78 c7 3d 79 26 06 c1 34 32 b9 bd
       0.08551687 0.09739812 -8.384393 -0.090427786
0002a0 b6 99 21 c1 91 9c 21 c1 7a f0 1e c1 e7 32 1f c1
       -10.100027 -10.100724 -9.93371 -9.949927
0002b0 dc 82 21 c1 7a e8 c6 bd a5 4e 1f c1 e4 67 20 c1
       -10.094448 -0.0971231 -9.9567 -10.025364
0002c0 94 f1 1e c1 1e 13 1f c1 f2 2d a1 3d e8 6d 17 3d
       -9.933979 -9.942167 0.078700915 0.03697005
0002d0 ea 4d b0 bd b8 62 ac bc 66 59 ac 3d 21 0c 0d 3e
       -0.08608611 -0.021043167 0.08415489 0.13774158
0002e0 3c 14 b1 3d ac 0f 13 3e 9e 4c 0d be ac fe 12 be
       0.086464375 0.14361447 -0.13798758 -0.14354962
0002f0 3e 9c b4 bd 64 97 55 bd 98 df 59 3d 23 d6 14 be
       -0.08818863 -0.05214633 0.05319175 -0.14534812
000300 32 9c d8 bd cf f1 a6 bd 80 5a ed bb 66 84 b2 3d
       -0.10576667 -0.0815159 -0.0072434545 0.08716659
000310 24 b1 08 bd fc dc b8 bd 68 32 1d 3d aa dd b3 bd
       -0.03337206 -0.090265244 0.03837815 -0.087825134
000320 b3 11 7a be a2 d0 ab 3d aa c4 1d 3d 6a e9 1f c1
       -0.24420814 0.08389403 0.03851763 -9.994486
000330 b2 49 cd 3d 81 c7 10 3e 6c f5 99 3d 50 da df 3c
       0.10023822 0.14138605 0.07517514 0.02732578
000340 7d 28 03 3e ca 30 fa 3d 48 42 5d 3d 00 28 8c bc
       0.12808414 0.12216337 0.05401829 -0.017108917
000350 7b d8 d6 bd 4b b9 1d c1 aa f0 21 c1 6f 72 22 c1
       -0.10490509 -9.857738 -10.121256 -10.152938
000360 00 6d 1f c1 55 76 20 c1 e0 49 b1 bb 1f 13 20 c1
       -9.964111 -10.02889 -0.005410418 -10.004668
000370 c2 99 1e c1 b9 05 1e c1 14 6b 21 c1 24 27 a3 bd
       -9.912539 -9.876397 -10.088642 -0.0796645
000380 70 ee 3a bc 06 b0 8a bc 7c 26 86 3d d0 b9 74 3c
       -0.011409387 -0.016929638 0.06550309 0.014936879
000390 f8 c4 1c bd 59 b5 01 3e 6f 38 16 3e 5e 4a cb ba
       -0.03827378 0.12666835 0.14669965 -0.0015509834
0003a0 df 5d 18 3e 7c ed 81 3d be af e7 3d 70 b8 06 be
       0.14879559 0.06344125 0.11312817 -0.13156295
0003b0 60 d3 bb 3d 73 1d bb bd db 05 1f 41 70 5b 0f 3c
       0.09171176 -0.09136476 9.93893 0.008749828
0003c0 00 ab f8 3a 74 59 1f 3d e8 1f d2 3c fa b1 d3 bd
       0.001897186 0.03890367 0.02564998 -0.10336681
0003d0 ec c4 9e 3d f7 c5 19 be bd b7 9f bd fe e1 a3 ba
       0.077524036 -0.15016924 -0.07798717 -0.0012503264
0003e0 a3 c6 22 c1 60 29 de 3c 95 2b ba bd 96 7b f2 3d
       -10.173495 0.027119339 -0.09090344 0.118399784
0003f0 d6 6e 1f bd 53 79 20 41 c2 71 83 3d a1 a5 0a 3e
       -0.03892406 10.02962 0.06418182 0.13539745

price_encoder.encoder.weight_hh_l0 f4 [180, 45]
000000 c8 36 22 41 a6 c5 20 41 a4 93 1e 41 33 98 1e c1
       10.138374 10.048254 9.911045 -9.912158
000010 e8 40 20 41 31 5e 1f 41 03 15 20 41 99 43 22 c1
       10.015846 9.960496 10.00513 -10.141503
000020 13 21 20 c1 1b 3f 1f c1 be d4 21 c1 c2 70 21 41
       -10.008075 -9.952907 -10.114439 10.090029
000030 d6 68 1f c1 3e 69 20 c1 d6 1f 1f 41 2e 85 22 c1
       -9.963095 -10.025694 9.945272 -10.157515
000040 83 e8 1e 41 41 ec 20 c1 35 26 1e 41 7a 63 22 c1
       9.931766 -10.057679 9.884328 -10.149286
000050 ca 30 1e 41 af 0e 20 41 42 72 1e 41 3f 0e 1f 41
       9.886911 10.003585 9.902895 9.940978
000060 85 f0 1f c1 af 0c 1e c1 f5 99 1e c1 77 78 1f 41
       -9.996221 -9.878097 -9.912587 9.96691
000070 87 24 1e c1 9b 7f 1f c1 c4 d9 1e 41 9e 95 20 c1
       -9.883918 -9.968654 9.928165 -10.036528
000080 c8 19 20 41 1a 90 20 41 3b 26 20 41 8a 1b 1e c1
       10.006294 10.035181 10.009334 -9.881723
000090 82 b1 1f c1 13 04 21 41 9f 10 1f 41 8c c6 22 41
       -9.980837 10.063495 9.941558 10.173473
0000a0 d9 f2 21 41 11 5a 1f 41 77 0b 21 c1 32 7b 22 41
       10.121789 9.959489 -10.065299 10.155077
0000b0 9d e0 21 c1 03 44 22 c1 e7 49 21 c1 34 5e 20 c1
       -10.117337 -10.141604 -10.080543 -10.022999
0000c0 34 23 21 41 87 fc 1e c1 07 d8 21 c1 16 ab 1e c1
       10.0710945 -9.936652 -10.115241 -9.916769
0000d0 1d a9 21 c1 72 86 1f 41 c5 5f 21 c1 2a 21 1f 41
       -10.103787 9.970324 -10.085881 9.945597
0000e0 8c b1 22 c1 85 4d 1e 41 58 72 1f 41 3b 8a 20 c1
       -10.168346 9.893926 9.965416 -10.033748
0000f0 de 48 22 41 c3 8d 1f c1 ca 3f 1e 41 4c 01 1f c1
       10.14279 -9.97211 9.8905735 -9.937817
000100 0a 63 20 41 3d eb 1e 41 cf c4 21 c1 09 e9 1e c1
       10.024179 9.932431 -10.110549 -9.931893
000110 aa b5 20 c1 15 5b 22 41 b0 72 21 41 6f 04 1f 41
       -10.044352 10.147237 10.0905 9.938582
000120 eb aa 1f c1 2e 25 1e 41 56 14 21 41 57 7a 22 c1
       -9.979228 9.884077 10.067465 -10.154868
000130 80 3b 21 41 7c ab 20 c1 33 3b 21 c1 df de 1e c1
       10.077026 -10.041866 -10.076953 -9.929412
000140 2a 7a 1e 41 ed 12 20 41 59 ca 21 c1 53 7d 1e c1
       9.904825 10.004621 -10.111901 -9.905597
000150 e8 a3 21 c1 5e 65 20 c1 00 c6 1f c1 4e 44 21 41
       -10.102516 -10.024748 -9.98584 10.079176
000160 09 fb 1e c1 6f 15 1f 41 5c 54 1f c1 f4 5e 21 c1
       -9.936288 9.942733 -9.958096 -10.085682
000170 2a 66 22 c1 bd aa 20 41 40 8e 1e c1 0c b0 20 c1
       -10.149942 10.041684 -9.909729 -10.04298
000180 97 3c 1e c1 0c a0 1f c1 39 ea 20 41 dc e2 1f c1
       -9.889792 -9.976574 10.057183 -9.992886
000190 a7 9d 22 41 7a bd 1f c1 b5 3e 22 41 dc 3a 21 41
       10.163489 -9.983759 10.140309 10.07687
0001a0 2f b0 1e c1 44 74 1e 41 c4 be 21 c1 86 30 22 41
       -9.918014 9.903385 -10.109074 10.136847
0001b0 5c b1 22 c1 d0 30 21 c1 37 d0 1e 41 51 64 1f c1
       -10.168301 -10.074417 9.925834 -9.961991
0001c0 a8 6c 21 c1 fc f6 20 c1 23 78 1f 41 67 88 20 41
       -10.089027 -10.060299 9.96683 10.033301
0001d0 e4 b7 1f 41 a9 07 22 c1 9d 95 1e 41 d8 aa 22 41
       9.982395 -10.12687 9.911527 10.16671
0001e0 2e 6b 1f c1 98 12 1f 41 34 55 1e c1 47 e7 20 c1
       -9.963667 9.9420395 -9.895802 -10.056464
0001f0 f1 63 21 c1 b6 88 21 41 8b e4 1e 41 bf 21 1e c1
       -10.0869 10.095877 9.930797 -9.883239
000200 2e dc 1e c1 78 a7 1e c1 2a 3e 1e c1 bd f8 1f c1
       -9.928755 -9.915886 -9.890177 -9.998227
000210 80 50 20 41 45 c3 1f c1 13 0d 21 41 a5 f4 21 41
       10.019653 -9.985173 10.065692 10.122228
000220 bd be 1f 41 f9 7c 21 41 8b ef 20 c1 06 24 21 41
       9.984067 10.093011 -10.058482 10.071295
000230 dc a3 1e 41 ee 3b 1f 41 e9 b9 1e 41 7f 90 1f c1
       9.915005 9.952131 9.920388 -9.972777
000240 37 ae 21 41 4c f0 1e c1 42 d1 1e 41 8f 12 21 41
       10.105033 -9.933666 9.926088 10.067031
000250 d9 91 1f c1 0a a6 21 41 21 84 20 c1 a2 a9 1e 41
       -9.973107 10.103037 -10.032258 9.916414
000260 f3 6c 20 c1 57 d3 20 41 07 04 21 41 e8 47 20 c1
       -10.026599 10.051597 10.063483 -10.017555
000270 a9 4a 1f 41 70 de 21 41 bf d6 20 41 67 3a 1e c1
       9.955728 10.116806 10.052428 -9.889258
000280 89 c8 1f c1 5c 01 20 41 94 f2 1e 41 d3 7c 22 c1
       -9.986459 10.000332 9.934223 -10.155475
000290 db 59 22 c1 1e a0 21 41 1d 91 1f c1 e2 23 1f 41
       -10.146937 10.101591 -9.972928 9.94626
0002a0 ac 80 22 41 6e b6 22 41 bb 22 22 c1 9c f3 1e c1
       10.156414 10.1695385 -10.133479 -9.934475
0002b0 ce ac 20 41 4d 44 1f 41 44 5b 1f 41 de b6 21 41
       10.042189 9.954175 9.959782 10.107145
0002c0 48 a6 1e 41 ee 97 22 c1 42 d5 1e 41 e8 65 20 c1
       9.915596 -10.162092 9.927065 -10.024879
0002d0 79 49 1e 41 b2 50 1f 41 79 6f 22 41 b7 87 21 c1
       9.892938 9.957201 10.152215 -10.0956335
0002e0 3d 1d 1e 41 1b 1c 1f 41 b9 bd 22 41 c0 1e 22 41
       9.882138 9.944362 10.171319 10.132507
0002f0 a4 fd 21 c1 f1 87 21 41 ac de 20 c1 29 55 20 41
       -10.124424 10.095689 -10.054363 10.020791
000300 11 e9 20 c1 cb de 1e c1 92 6e 1e 41 33 b9 1e c1
       -10.056901 -9.929393 9.901995 -9.920215
000310 99 ee 1f 41 f1 94 1e c1 76 ac 1e 41 76 bd 21 41
       9.995751 -9.911363 9.917105 10.108755
000320 dd 4a 1e c1 82 41 1e 41 2b e1 1f 41 66 84 22 41
       -9.893277 9.890993 9.992473 10.157324
000330 3e 07 20 c1 29 81 1f c1 3d 03 21 41 81 64 21 41
       -10.001768 -9.969033 10.063291 10.087037
000340 8b cb 1f c1 df 4e 1e c1 0e 0c 1f 41 a0 38 22 c1
       -9.987193 -9.894256 9.940443 -10.138824
000350 b9 b5 20 41 22 b1 22 41 dc 17 22 41 12 d1 1e c1
       10.044366 10.168245 10.130825 -9.926043
000360 65 0d 20 c1 75 b2 1e 41 3d c2 21 41 db 1b 21 41
       -10.00327 9.918569 10.109921 10.069301
000370 27 94 1f 41 9c 6b 21 41 3f 07 20 c1 ab 9c 1e 41
       9.97367 10.088772 -10.001769 9.913249
000380 56 70 1e c1 62 98 1f 41 e1 04 21 41 81 b8 21 41
       -9.902426 9.974703 10.063691 10.107545
000390 28 52 22 c1 9f da 21 41 fe 7c 1e 41 15 75 1f 41
       -10.145058 10.115874 9.905516 9.9660845
0003a0 39 3e 22 41 dd a6 1f c1 8d b4 22 41 32 e1 1f c1
       10.140191 -9.978238 10.16908 -9.992479
0003b0 b4 ca 1e 41 43 31 1e c1 0a d3 1f c1 89 96 1f 41
       9.924488 -9.887027 -9.989023 9.974252
0003c0 78 0f 21 c1 23 40 22 41 c2 16 22 c1 b3 d1 20 41
       -10.066277 10.140658 -10.130556 10.051196
0003d0 22 4f 22 41 c6 da 1e c1 06 9e 1f 41 af 53 1e 41
       10.14432 -9.9284115 9.97608 9.895431
0003e0 4e 2f 1e 41 50 86 20 c1 d9 ce 20 c1 cb 06 1e 41
       9.886549 -10.032791 -10.0505 9.876658
0003f0 84 3b 22 41 a4 27 1f c1 51 72 22 c1 36 1e 20 41
       10.13953 -9.947178 -10.152909 10.007376

price_encoder.encoder.bias_ih_l0 f4 [180]
000000 6e 45 21 c1 cc 60 22 41 62 c8 1f 41 63 33 1f c1
       -10.079451 10.148632 9.986422 -9.950046
000010 58 1b 22 c1 73 aa 1f c1 56 bb 21 41 28 e8 1f c1
       -10.131676 -9.979114 10.108236 -9.994179
000020 62 f0 21 41 95 84 21 c1 67 69 1f c1 fe c6 20 c1
       10.121187 -10.094869 -9.963233 -10.048582
000030 a0 89 22 c1 9b 8a 20 41 83 3a 1f 41 7a 69 22 41
       -10.1586 10.033839 9.951785 10.150751
000040 69 81 21 c1 b8 e3 1e 41 6b c3 21 c1 5d aa 22 c1
       -10.094094 9.930595 -10.110209 -10.166593
000050 04 f1 20 c1 ec 14 1e c1 9e 7c 20 c1 a9 f1 1f 41
       -10.058842 -9.880108 -10.030424 9.996499
000060 70 8c 21 c1 88 92 20 c1 56 d8 1e c1 49 f9 1f 41
       -10.0967865 -10.035774 -9.927816 9.998361
000070 78 26 21 c1 53 dc 1f 41 6e df 1e 41 f6 9a 22 c1
       -10.071892 9.99129 9.929548 -10.162832
000080 5a 4b 22 41 f6 86 21 c1 25 17 1f c1 b4 bf 1f 41
       10.143396 -10.095449 -9.9431505 9.9843025
000090 51 ad 1f c1 94 ca 22 c1 7e 3c 1e c1 67 3c 21 41
       -9.979814 -10.174458 -9.889769 10.077247
0000a0 0f fe 1e 41 f3 3a 1d 41 92 48 22 c1 00 ba 1f 41
       9.937026 9.826892 -10.142717 9.98291
0000b0 00 01 20 41 1d a2 1e c1 0d 84 22 41 00 cb 1f 41
       10.000244 -9.914578 10.157239 9.987061
0000c0 9c b9 21 c1 e6 4c 1f c1 72 59 22 c1 b5 10 22 41
       -10.107815 -9.956274 -10.146837 10.129079
0000d0 0b a3 20 c1 a1 e4 20 41 40 d5 1e 41 30 40 22 c1
       -10.039805 10.055818 9.927063 -10.140671
0000e0 a9 e5 1e c1 36 65 1f c1 79 bf 20 41 1d 4b 1f 41
       -9.931069 -9.96221 10.046746 9.955838
0000f0 a1 40 20 41 78 64 20 c1 49 a9 21 41 80 21 20 41
       10.015779 -10.0245285 10.103829 10.008179
000100 f8 d7 21 c1 bd 1f 21 c1 3f 3c 20 c1 14 ae 1e c1
       -10.115227 -10.070249 -10.0147085 -9.9175
000110 40 3a 1f 41 e8 5a 21 c1 c4 24 1e c1 d8 5e 1e c1
       9.951721 -10.084694 -9.883976 -9.898155
000120 47 c8 20 41 1a d6 21 c1 49 f0 1f 41 b5 31 1e 41
       10.048896 -10.114771 9.996163 9.8871355
000130 12 aa 20 c1 a6 da 1e 41 14 ae 20 c1 b9 68 21 c1
       -10.041521 9.928381 -10.0425 -10.088067
000140 c8 b0 1f 41 1c eb 21 c1 9a b1 21 c1 76 6f 1f c1
       9.9806595 -10.1199 -10.10586 -9.964712
000150 be 57 21 41 4b d3 20 41 9d fe 1f c1 00 9f 1f c1
       10.083921 10.051585 -9.999661 -9.976318
000160 1a dc 20 41 2f d0 20 41 04 2b 1e 41 4a d3 21 c1
       10.053736 10.050826 9.885502 -10.114084
000170 5c 3e 1f c1 84 c4 22 c1 f0 45 1e 41 b6 a6 20 41
       -9.952724 -10.172977 9.892075 10.040701
000180 cb 46 21 c1 7d 09 20 41 2b 43 1f 41 b7 9f 1e c1
       -10.079783 10.002316 9.953898 -9.913993
000190 b9 1b 1e c1 1f 02 21 41 ad 0b 20 41 df 18 1f 41
       -9.881768 10.063018 10.002851 9.943572
0001a0 7f 67 21 c1 c7 0d 1f 41 d9 66 21 41 b2 2e 22 41
       -10.087768 9.940864 10.087609 10.1364
0001b0 d8 4e 1f 41 2c ba 21 41 bb 39 22 c1 3b ce 1e 41
       9.956749 10.107952 -10.139094 9.925349
0001c0 16 f7 20 41 1e c2 1e c1 19 32 1e c1 19 74 1f c1
       10.060324 -9.922392 -9.887231 -9.965844
0001d0 43 b9 22 41 f8 17 1e c1 5c 86 1e c1 8a d5 21 41
       10.17023 -9.880852 -9.907803 10.114634
0001e0 bb 3c 20 c1 29 66 21 c1 b3 a5 21 c1 87 5f 1f 41
       -10.014827 -10.087441 -10.102954 9.960822
0001f0 d1 0b 22 41 68 c9 1f 41 9e 1a 22 c1 f3 18 21 41
       10.127885 9.986671 -10.131498 10.068591
000200 b8 9b 1f 41 26 03 20 c1 62 73 21 c1 ac 20 22 41
       9.975517 -10.000769 -10.09067 10.132977
000210 37 56 20 c1 0e 63 20 c1 68 93 21 41 f7 00 1f c1
       -10.021049 -10.024183 10.098488 -9.937736
000220 cb ba 20 41 96 5c 1e 41 a2 89 21 c1 c4 9a 22 c1
       10.045604 9.897604 -10.096102 -10.162785
000230 ca 97 22 c1 9e 94 1e 41 c8 36 20 c1 d2 51 22 41
       -10.162058 9.9112835 -10.013374 10.144976
000240 74 c1 1e c1 51 a5 22 c1 67 83 1e c1 a0 ff 1f c1
       -9.92223 -10.16536 -9.907081 -9.999908
000250 5a b8 21 41 a7 16 21 41 c1 a5 1e 41 6c 45 1e c1
       10.107508 10.06803 9.915467 -9.891949
000260 0a 6a 22 41 9d 95 21 c1 97 96 21 c1 4c d4 21 c1
       10.150888 -10.099027 -10.099265 -10.11433
000270 76 29 1f c1 d2 15 22 c1 23 90 1f 41 66 27 21 c1
       -9.947622 -10.130327 9.97269 -10.072119
000280 b9 c4 1f c1 a8 d5 1e c1 5c 10 20 41 b5 62 1e c1
       -9.985528 -9.927162 10.003994 -9.899098
000290 c7 cc 1e 41 6d ab 1f 41 42 48 20 c1 5f 9c 1e 41
       9.924994 9.979352 -10.017641 9.913177
0002a0 c8 2e 1e c1 1f 5b 1e c1 c4 53 22 41 3c cf 21 c1
       -9.886421 -9.897246 10.145451 -10.113094
0002b0 9c f2 1e c1 55 71 20 c1 82 3b 1f 41 bd 19 1f 41
       -9.934231 -10.027669 9.952028 9.943784
0002c0 40 a4 21 c1 a8 ce 20 c1 51 10 20 41 bc b1 22 41
       -10.1026 -10.050453 10.0039835 10.168392

price_encoder.encoder.bias_hh_l0 f4 [180]
000000 c2 ec 1e c1 74 ad 22 41 c8 45 22 41 ee 6e 1e c1
       -9.932802 10.167347 10.142036 -9.902082
000010 64 8c 21 c1 3f 0e 20 c1 81 39 1e 41 7b 5d 22 c1
       -10.096775 -10.003478 9.889039 -10.147822
000020 e7 ef 1f 41 e3 5e 1f c1 d3 a4 1f c1 46 87 1e c1
       9.99607 -9.960666 -9.97774 -9.908026
000030 74 e3 1f c1 7d 94 1f 41 53 ae 21 41 b0 94 1e 41
       -9.993031 9.973752 10.10506 9.911301
000040 4f fb 21 c1 c2 33 1f 41 c7 51 21 c1 ae 63 1e c1
       -10.123855 9.950136 -10.082465 -9.899336
000050 f5 d0 21 c1 c2 e0 20 c1 cf f2 1f c1 d3 22 20 41
       -10.113515 -10.0548725 -9.996779 10.008502
000060 38 0a 21 c1 b0 aa 20 c1 6b 55 20 c1 93 4e 1e 41
       -10.064995 -10.041672 -10.020854 9.894183
000070 bc fd 1f c1 6e cb 20 41 cd 43 1f 41 f1 58 22 c1
       -9.999447 10.049665 9.954053 -10.146714
000080 3c 1e 22 41 0e 37 20 c1 39 c4 21 c1 bd bc 20 41
       10.132381 -10.013441 -10.110406 10.046079
000090 a5 0b 1e c1 22 18 20 c1 ec 7e 1f c1 7b 62 21 41
       -9.877843 -10.005892 -9.968487 10.086543
0000a0 48 ad 1e 41 40 f5 1d 41 9e d9 20 c1 7e 55 1e 41
       9.917305 9.8723755 -10.053129 9.895872
0000b0 f3 20 1e 41 2e ac 21 c1 e0 18 1e 41 a8 5a 1e 41
       9.883044 -10.104536 9.881073 9.897133
0000c0 64 95 20 c1 ae 0f 21 c1 a9 b7 20 c1 42 e4 20 41
       -10.036472 -10.066328 -10.044839 10.055727
0000d0 db ea 1f c1 3e a4 1f 41 23 9f 1e 41 56 66 20 c1
       -9.994838 9.977598 9.913852 -10.024984
0000e0 a3 ef 20 c1 00 ae 20 c1 04 ad 20 41 31 16 22 41
       -10.058505 -10.04248 10.04224 10.130418
0000f0 ad e6 1e 41 ce d4 1f c1 96 54 20 41 5d e2 21 41
       9.931317 -9.989454 10.020651 10.117764
000100 07 ed 1f c1 a4 4b 22 c1 51 35 21 c1 8c f0 20 c1
       -9.995368 -10.143467 -10.075517 -10.058727
000110 6e 36 1f 41 d7 16 21 c1 1c 38 1f c1 a9 ba 22 c1
       9.9507885 -10.068076 -9.951199 -10.170571
000120 5a 2a 1e 41 ca 1e 1f c1 f2 0c 21 41 1a d4 21 41
       9.88534 -9.945017 10.06566 10.114283
000130 8c 00 20 c1 4a 78 1e 41 3b c0 1f c1 98 42 1e c1
       -10.0001335 9.904367 -9.984431 -9.891258
000140 2e a8 1e 41 9b 98 21 c1 3e bf 20 c1 84 19 20 c1
       9.9160595 -10.099757 -10.04669 -10.006229
000150 d5 59 22 41 e1 49 21 41 57 af 21 c1 9d b2 21 c1
       10.146932 10.080537 -10.105308 -10.106107
000160 c5 95 1f 41 ad 11 22 41 f0 db 20 41 f9 53 22 c1
       9.974065 10.129315 10.053696 -10.145501
000170 7d 95 21 c1 ae 8d 1e c1 55 d0 20 41 f8 4a 22 41
       -10.098996 -9.90959 10.050862 10.143303
000180 12 15 20 c1 3b 35 21 41 d7 8f 21 41 bc a1 21 c1
       -10.005144 10.075496 10.097617 -10.101986
000190 9f d9 21 c1 32 de 1e 41 7e 1a 20 41 b8 aa 20 41
       -10.11563 9.929247 10.006468 10.041679
0001a0 1c 2d 20 c1 77 b2 1e 41 ba a6 1e 41 99 fe 21 41
       -10.011013 9.9185705 9.915705 10.124658
0001b0 fb 1e 1e 41 d0 10 21 41 a1 f1 1f c1 39 44 20 41
       9.882564 10.066605 -9.996491 10.016656
0001c0 42 65 1f 41 e5 42 1f c1 59 ab 21 c1 ff 1b 1f c1
       9.962221 -9.953832 -10.104333 -9.944335
0001d0 59 9a 1e 41 2b e4 20 c1 f6 30 20 c1 d6 86 21 41
       9.912683 -10.055705 -10.011953 10.095419
0001e0 40 90 1e c1 39 56 1e c1 01 c0 1f c1 e3 67 1f 41
       -9.910217 -9.89605 -9.984376 9.962863
0001f0 47 cd 1e 41 e9 85 20 41 b6 96 20 c1 ba 61 1e 41
       9.925117 10.032693 -10.036795 9.898859
000200 ed 3a 1e 41 08 c7 20 c1 ba d0 1f c1 25 a1 21 41
       9.889386 -10.048592 -9.988459 10.101842
000210 07 8a 20 c1 bb 10 22 c1 0f b5 21 41 ee 99 22 c1
       -10.033698 -10.129085 10.106704 -10.1625805
000220 dd ac 21 41 c2 34 22 41 7e ad 22 c1 32 3a 1f c1
       10.104703 10.13788 -10.1673565 -9.951708
000230 74 56 1f c1 30 0a 1f 41 7a 5f 1e c1 72 a8 21 41
       -9.958607 9.939987 -9.89831 10.103624
000240 e2 95 22 c1 e7 03 21 c1 a4 9c 1f c1 95 70 22 c1
       -10.1615925 -10.063453 -9.975742 -10.152486
000250 87 59 1e 41 14 04 20 41 dd 8c 1e 41 71 f3 1f c1
       9.896857 10.000996 9.90939 -9.996934
000260 9e 24 1f 41 f0 1e 21 c1 c2 8d 1e c1 44 74 1e c1
       9.94644 -10.070053 -9.909609 -9.903385
000270 6a 91 1e c1 4e ad 1f c1 ca 92 22 41 a4 58 1e c1
       -9.9105015 -9.979811 10.160837 -9.896641
000280 19 c9 21 c1 45 bf 1f c1 ad 10 20 41 2e eb 21 c1
       -10.111596 -9.984197 10.004071 -10.119917
000290 ba 69 1f 41 75 f1 1f 41 62 18 22 c1 ef 6f 20 41
       9.963312 9.996449 -10.130953 10.027328
0002a0 e2 8a 21 c1 f7 58 22 c1 82 99 1f 41 37 ca 1e c1
       -10.096407 -10.14672 9.9749775 -9.924369
0002b0 70 7d 22 c1 dd 75 22 c1 ad 5e 21 41 5b 2f 1f 41
       -10.155624 -10.153775 10.085614 9.949061
0002c0 58 24 21 c1 b8 a9 21 c1 e9 98 21 41 d9 a5 20 41
       -10.071373 -10.103935 10.099832 10.04049

atten_layer.0.weight f4 [45, 135]
000000 c0 52 bc bb 40 cb d3 3b 10 c0 bf bc 58 49 8d bc
       -0.0057471693 0.0064634383 -0.023407012 -0.017246887
000010 67 17 ab 3d 36 22 4b 3d d9 b8 42 bd 3d 6c 05 bd
       0.08354073 0.049593173 -0.047539566 -0.032573927
000020 f6 50 52 3d 2b 99 a3 3d 5c cd c8 3c 1d 5d 97 3d
       0.05134674 0.07988199 0.024511985 0.07390807
000030 3c a7 90 bc 4e 36 5b 3d 80 fe 68 ba 8d ca 01 bd
       -0.017657869 0.053518586 -0.0008888021 -0.031687308
000040 14 e6 bf bc c4 5c dd 3c 8e 32 37 3d c0 81 32 3b
       -0.02342514 0.027021773 0.044725947 0.0027237982
000050 58 d2 8d bc fa 02 fc bc 80 87 31 bb 39 f2 af 3d
       -0.017312214 -0.030763138 -0.002708882 0.08591122
000060 f8 00 dc 3c ca 41 a9 bd f0 4b 9f bc 80 1b 05 3d
       0.02685593 -0.082645014 -0.01944539 0.03249693
000070 07 82 a8 bd 12 a7 63 3d 64 7b 6a bd 89 eb 90 bd
       -0.08227926 0.055579253 -0.05724658 -0.07076175
000080 6c 25 2f bd 20 a2 40 3b de 57 81 bd d0 87 d5 bb
       -0.042760298 0.002939351 -0.063155875 -0.0065164343
000090 b8 1c 79 bd 50 e5 3f bc 30 cc a8 bd 23 7b 07 bd
       -0.060818404 -0.011712387 -0.08242071 -0.033076417
0000a0 60 33 80 bb 19 d4 a5 3d b1 46 af bd 60 66 03 bc
       -0.0039123744 0.08097095 -0.08558405 -0.008020014
0000b0 00 c0 77 b8 23 39 9c bd 1f 54 3b bd de 2a 28 3d
       -5.9068203e-05 -0.076280855 -0.04573452 0.041056506
0000c0 a2 43 6a 3d 77 0b 85 3d 0b b3 9d 3d bd f9 a3 3d
       0.057193406 0.06496327 0.07700165 0.08006618
0000d0 f0 54 96 bc 86 4a 8a bd 39 e6 97 bd ea f6 2c bd
       -0.018351048 -0.067524955 -0.07416958 -0.042227663
0000e0 e0 49 4f bd 2c 1a e9 3c 59 0e 35 bd 6f 67 88 3d
       -0.050607562 0.028454863 -0.044203136 0.066603534
0000f0 9b 5c 38 bd 7b d2 8c 3d 12 c1 51 3d ef 27 96 3d
       -0.04501019 0.068760835 0.051209517 0.073318355
000100 3f 0c 94 bd a9 35 a5 3d 40 89 c3 ba eb 93 97 3d
       -0.07228898 0.080668755 -0.0014918223 0.0740126
000110 32 5d 42 3d 88 06 81 bd ea e3 91 bd 0b 99 ae 3d
       0.04745216 -0.06300074 -0.07123549 0.085252844
000120 78 ae b2 bc a0 fc 7b bc 80 9d ea ba 31 35 7e bd
       -0.021811709 -0.015380055 -0.0017899722 -0.062062446
000130 20 55 65 bc fe d8 28 3d e0 a0 6c bb 46 42 a3 bd
       -0.013997346 0.041222565 -0.003610663 -0.07971625
000140 08 85 1e 3d 69 81 84 3d ff 6e 0d bd 6b 21 90 bd
       0.038701087 0.064699955 -0.034529682 -0.07037624
000150 6f 9a 9b 3d f2 79 34 3d 79 1f 9a 3d 00 b4 10 3b
       0.07597815 0.04406161 0.07525534 0.0022079945
000160 1d 00 32 bd 5d 1f 9b 3d 1e 44 21 c1 54 8b 26 c1
       -0.04345714 0.075743414 -10.07913 -10.409016
000170 e0 f9 2c c1 96 5a 21 c1 95 75 20 41 6f 44 21 c1
       -10.811005 -10.084616 10.028707 -10.079207
000180 48 ce 21 c1 58 1f 2d 41 ec 45 20 41 d4 b7 1f 41
       -10.112862 10.820152 10.017071 9.98238
000190 f3 55 20 c1 ad 9d 1e c1 03 d8 1f c1 c3 52 21 41
       -10.020984 -9.913495 -9.990237 10.0827055
0001a0 91 d1 20 c1 32 f5 1e c1 8a e5 1f c1 b4 63 20 41
       -10.051164 -9.934862 -9.99354 10.024342
0001b0 c6 df 20 41 5d 3e 16 c1 f5 5b 29 c1 98 b8 2d 41
       10.054632 -9.390225 -10.58495 10.857567
0001c0 16 70 2b 41 d9 ce 16 41 ac e3 21 c1 0f be 13 41
       10.714865 9.4255 -10.118084 9.233901
0001d0 70 09 28 41 d1 57 20 41 4f ce 2c c1 12 f8 2c 41
       10.502304 10.02144 -10.800368 10.810564
0001e0 c0 54 20 41 6e 69 21 c1 6f b4 1f 41 3e da 20 c1
       10.020691 -10.08824 9.981551 -10.053282
0001f0 0e 1f 1f c1 60 39 1f c1 24 06 20 41 ba 00 20 c1
       -9.945082 -9.951508 10.001499 -10.000177
000200 6c f4 21 41 de 2e 20 41 ce 5c 16 c1 57 e5 28 41
       10.122173 10.011442 -9.397657 10.555991
000210 8c ff 2e c1 4c 8f 22 c1 dc 38 2b 41 ca c1 8a bd
       -10.937389 -10.159985 10.701382 -0.067752436
000220 c5 94 99 3d f8 e9 51 bd b9 2b 8e bd 4c 7a ee 3c
       0.07499079 -0.05124852 -0.06941933 0.02911105
000230 c0 8e 3e 3b 0e 6a 35 3d 80 f2 51 3c 4c 23 c9 bc
       0.0029076785 0.044290595 0.012814164 -0.024552964
000240 7a 9d 04 3d ea cb a2 bd d3 35 12 bd 7e 44 71 3d
       0.032376744 -0.0794905 -0.035695862 0.05890321
000250 16 db 3f 3d fb 86 2b bd 1d e2 a8 3d 62 f4 5f 3d
       0.046839796 -0.041876774 0.08246253 0.05467642
000260 8e 12 2b 3d 38 15 7c bd 81 a6 51 bd fa f9 92 bd
       0.041765742 -0.061543673 -0.05118418 -0.071765855
000270 a0 f9 4d bd 1e 36 01 3d 99 b2 87 3d fd 37 94 3d
       -0.05028689 0.03154575 0.06625862 0.072372414
000280 60 26 42 bb f0 bb 11 3c ae d4 f3 bc e8 f6 82 bd
       -0.0029624924 0.008894905 -0.0297645 -0.0639475
000290 60 41 f8 3c 58 aa cc bc cc db 18 bd 48 b0 f5 bc
       0.03030461 -0.02498357 -0.03731899 -0.029991284
0002a0 44 ae 8a bd 1c 96 54 bd 1e b9 05 bd 50 8c af bc
       -0.0677152 -0.051900968 -0.032647245 -0.02142921
0002b0 9c b1 a7 bc 1f 3c a3 3d 28 59 ab bc 7a eb 2f 3d
       -0.020470433 0.079704516 -0.020916536 0.042949177
0002c0 6c d8 87 bc 77 85 9f 3d e0 bf bb bc e6 79 54 3d
       -0.01658269 0.07789128 -0.022918642 0.051874064
0002d0 ea ed 7b 3d 50 39 c6 bc 24 5c f1 3c a4 24 45 bd
       0.06150619 -0.02419725 0.029462881 -0.048130646
0002e0 b2 de 12 bd 9e 89 47 3d ea 1f 3b 3d b4 8a 91 3c
       -0.03585691 0.048715226 0.045684732 0.017766334
0002f0 c1 25 93 3d 79 7c 42 bd a8 c9 4e 3c 75 13 8d bd
       0.07184935 -0.047481988 0.012621321 -0.06888477
000300 52 da ad bd 10 d1 5b bd 3f 69 af 3d 4e 3f 51 3d
       -0.08488907 -0.053666174 0.08564996 0.051085763
000310 69 68 80 3d 3a 40 7a 3d 10 c7 33 bc 20 0d 79 3c
       0.06269915 0.061096407 -0.010972753 0.015200883
000320 ea 2c c5 bc 37 5f 49 bd a2 c8 10 bd 43 1c 4d bd
       -0.024069268 -0.04916307 -0.03534759 -0.05007578
000330 ce 6e 27 3d f0 15 24 bd bc d8 9e bc 35 02 a9 3d
       0.040877156 -0.040059984 -0.019390456 0.08252374
000340 9a a9 14 3d f8 0e 7c 3c dc 5c 84 bc 0d 30 87 3d
       0.036294557 0.015384428 -0.01615756 0.06600962
000350 30 52 af 3b 60 5a 3f 3b 60 fe 3a bd e9 9e 8f bd
       0.0053503737 0.0029198155 -0.045652747 -0.070127316
000360 42 aa 7e 3d f3 92 43 bd a9 8c 9b bd 92 cc 9f bd
       0.06217409 -0.047747564 -0.07595188 -0.078026906
000370 2c d2 9e 3c d8 3d aa bd 26 18 91 bd 10 7c ae 3c
       0.019387327 -0.08312577 -0.07084684 0.021299392
000380 da e3 26 3d f7 a6 24 c1 68 ad 27 41 5a 42 2a 41
       0.04074464 -10.290763 10.4798355 10.641199
000390 92 a5 1f c1 2e 85 1f 41 7b 10 20 41 da 4c 1f 41
       -9.977922 9.970015 10.004024 9.956263
0003a0 1c 78 23 c1 26 ae 22 41 82 59 21 41 33 d8 1f c1
       -10.216824 10.167517 10.0843525 -9.990283
0003b0 c5 fe 1c c1 5c 15 21 c1 ed 4e 1f 41 b7 48 21 c1
       -9.8122 -10.067715 9.956769 -10.080253
0003c0 53 31 1d c1 62 93 20 41 19 3d 20 41 a7 da 1f 41
       -9.824542 10.035982 10.014916 9.990882
0003d0 c8 3f 26 c1 6e ba 24 41 ce b7 23 c1 7c 87 28 c1
       -10.390572 10.295515 -10.232374 -10.533077
0003e0 b3 08 28 41 1d 61 20 c1 e1 c0 26 41 12 09 24 c1
       10.502124 -10.023709 10.42209 -10.252214
0003f0 67 9a 21 41 5d 10 27 41 45 c1 24 c1 db 8c 20 41
       10.100196 10.441495 -10.297185 10.034389

atten_layer.0.bias f4 [45]
000000 af 27 1b 41 cb 9f 21 41 4d d7 1d 41 29 53 20 c1
       9.697188 10.101512 9.865064 -10.020303
000010 0e 96 1f c1 dc f0 20 c1 d8 15 22 c1 cf a6 1f 41
       -9.974134 -10.058804 -10.130333 9.978225
000020 31 9c 20 c1 72 1e 20 41 b3 96 1e c1 34 3c 21 c1
       -10.038133 10.007433 -9.911792 -10.077198
000030 06 f3 20 41 14 0e 1f c1 ef d4 1d c1 09 63 21 41
       10.059332 -9.940937 -9.864486 10.0866785
000040 56 c6 1e c1 49 94 21 c1 7c 10 1e c1 f1 e4 1e c1
       -9.923422 -10.098702 -9.8790245 -9.930894
000050 49 fc 20 c1 f5 58 22 41 a4 3b 1f 41 f7 02 21 41
       -10.061593 10.146718 9.952061 10.063224
000060 50 4e 22 c1 a1 2e 21 c1 d5 5a 20 c1 c1 71 20 c1
       -10.144119 -10.073884 -10.022176 -10.027772
000070 c4 91 1e c1 bd b3 22 c1 10 5b 1f 41 fb cf 20 41
       -9.910587 -10.168881 9.959732 10.0507765
000080 93 cb 20 41 3d d8 20 41 06 73 1f c1 53 f3 21 c1
       10.049701 10.052793 -9.965582 -10.121905
000090 dd 38 21 41 83 71 1f 41 12 63 22 c1 33 75 1f 41
       10.076383 9.965213 -10.149187 9.966113
0000a0 fe 26 1e c1 59 e7 20 c1 64 e2 20 41 10 28 21 41
       -9.88452 -10.056481 10.055271 10.072281
0000b0 8e 45 1e c1
       -9.891981

atten_layer.2.weight f4 [1, 45]
000000 46 4c 03 41 7e cb 3f c1 39 83 15 41 50 c7 06 c1
       8.206121 -11.987181 9.344537 -8.42366
000010 8a dc 0c c1 24 25 06 c1 9b 3e 12 c1 94 cf 2d c1
       -8.803843 -8.384068 -9.140285 -10.863178
000020 b7 90 09 c1 9f 04 0b 41 d8 0f f9 c0 31 b2 2c 41
       -8.597831 8.688628 -7.783184 10.793504
000030 80 47 31 c1 b4 19 0c c1 0d 30 4b 41 21 71 14 41
       -11.079956 -8.756275 12.699231 9.277619
000040 3e 11 3b 41 e9 0b 31 41 5f e6 01 c1 02 95 03 c1
       11.6917095 11.065408 -8.118743 -8.223879
000050 8c 9f 29 41 8c 9f 1f 41 9f be 1d 41 2d d5 1d 41
       10.601452 9.976452 9.859038 9.864545
000060 d5 b4 25 41 39 bd 37 41 7a 89 1a c1 e9 96 14 c1
       10.356648 11.483697 -9.658564 -9.286843
000070 d9 1a 43 41 63 de 24 41 12 d5 1c 41 0b 7a 35 c1
       12.194055 10.304294 9.802019 -11.342296
000080 f8 fb 13 41 14 a2 23 c1 f6 24 33 41 32 1b 17 c1
       9.249016 -10.22707 11.196524 -9.4441395
000090 37 ad 29 c1 99 a8 2d c1 86 75 2c 41 69 46 36 c1
       -10.604789 -10.853662 10.778692 -11.39219
0000a0 ae ab 04 c1 a5 a9 26 41 f7 33 39 c1 aa 12 20 41
       -8.291914 10.416417 -11.575187 10.004557
0000b0 cb 18 04 c1
       -8.256053

lstm.weight_ih_l0 f4 [180, 45]
000000 c5 36 1c 41 02 7c 22 c1 ec 2a 23 c1 24 52 20 41
       9.763371 -10.155275 -10.197979 10.020054
000010 62 84 22 c1 04 65 20 41 c1 63 1e 41 36 aa 22 41
       -10.15732 10.024662 9.899354 10.166555
000020 7f 92 1d c1 77 d1 22 41 3f 5c 1f 41 79 97 21 41
       -9.848266 10.176139 9.960021 10.099481
000030 1b 6e 20 41 33 12 20 41 6f 02 21 c1 e8 e2 22 41
       10.026881 10.004443 -10.063094 10.180397
000040 13 59 1f c1 00 ff 22 c1 ae 15 20 c1 43 b9 23 41
       -9.959247 -10.187256 -10.005293 10.23273
000050 93 fe 23 c1 9f b0 26 41 05 65 23 41 db 99 20 c1
       -10.249652 10.41812 10.212163 -10.037562
000060 d6 6b 16 41 65 5a 24 c1 1d df 23 41 ca a4 20 c1
       9.401327 -10.272069 10.241971 -10.040232
000070 4b 03 25 c1 e8 84 22 41 cd fd 1f c1 b7 59 22 c1
       -10.313304 10.157448 -9.999463 -10.146903
000080 9f d9 1f c1 e3 c6 21 41 92 63 22 41 ad 72 22 c1
       -9.99063 10.111056 10.149309 -10.152997
000090 38 ae 20 c1 a9 ed 1f 41 4f 6a 20 41 3f 27 22 c1
       -10.042534 9.9955225 10.025954 -10.134582
0000a0 4a c2 20 c1 57 cd 23 41 8a 37 24 c1 82 20 22 c1
       -10.047434 10.237632 -10.263559 -10.1329365
0000b0 9b a3 24 41 ea db 22 41 fb a1 25 c1 cd eb 22 c1
       10.289943 10.17869 -10.352046 -10.182569
0000c0 3e 66 22 41 d1 82 21 41 cc 3b 21 41 d5 4c 21 41
       10.149961 10.094438 10.077099 10.081258
0000d0 4c 82 21 41 67 76 1f c1 7b c3 1f 41 ac a0 1f 41
       10.094311 -9.966407 9.985225 9.976727
0000e0 ed fe 1e c1 b4 b1 20 41 cb b6 1e c1 31 77 1f c1
       -9.937238 10.043385 -9.919627 -9.966599
0000f0 f5 be 1e 41 7d b2 20 c1 e4 8c 1e c1 eb 31 1f c1
       9.92162 -10.043576 -9.909397 -9.949687
000100 bf b1 23 41 6c 21 24 c1 1c 3b 21 41 1a e2 25 41
       10.230895 -10.25816 10.076931 10.367701
000110 c8 52 22 c1 1a c6 07 c1 20 77 23 c1 f5 6a 23 41
       -10.14521 -8.485865 -10.216583 10.213613
000120 bb 5b 1e c1 0d 92 24 c1 59 da 22 41 77 f7 1f c1
       -9.897395 -10.285657 10.178308 -9.997916
000130 81 29 22 c1 53 ea 22 c1 73 da 1f 41 8f 27 1f 41
       -10.135133 -10.182208 9.990832 9.947158
000140 b4 a9 20 c1 76 c3 20 c1 b7 35 21 41 79 e5 21 41
       -10.041431 -10.04772 10.075614 10.118524
000150 55 3f 1e c1 48 ca 20 c1 0e 8f 23 41 e3 ee 20 c1
       -9.890462 -10.049385 10.222425 -10.058322
000160 ea 29 1c c1 30 22 24 41 45 cf 1e c1 b5 4b 24 c1
       -9.760233 10.258347 -9.925603 -10.268483
000170 ae 34 24 c1 4d 5b 1f 41 eb d2 20 c1 4e 35 20 41
       -10.262861 9.95979 -10.051494 10.013014
000180 76 c5 20 c1 8c 10 24 41 cb 94 22 c1 7c b7 21 c1
       -10.048208 10.25404 -10.161326 -10.107296
000190 24 17 20 41 8d 47 0b c1 04 8b 21 c1 f3 f7 21 41
       10.00565 -8.704968 -10.096439 10.1230345
0001a0 33 10 1f 41 a0 d5 1e 41 13 a6 21 41 6d 27 1f 41
       9.941455 9.927155 10.103045 9.947125
0001b0 65 73 1f c1 da d1 23 41 fa 8a 23 c1 eb a9 21 41
       -9.9656725 10.238733 -10.22143 10.103984
0001c0 5a 20 21 41 18 19 22 c1 ca ee f0 c0 0a 8b 21 c1
       10.070398 -10.131126 -7.529149 -10.096445
0001d0 1b b5 25 41 a6 32 20 c1 f2 af 23 c1 51 20 23 41
       10.356715 -10.012365 -10.230455 10.19539
0001e0 ff bb 22 41 60 89 1e 41 23 eb 20 c1 58 b2 22 41
       10.1708975 9.908539 -10.057406 10.168541
0001f0 d7 bc 1f 41 75 1d 21 41 d3 c1 22 41 87 44 22 41
       9.9836035 10.069692 10.17232 10.14173
000200 d3 57 1e c1 d0 09 21 c1 51 1f 20 41 ad 9f 22 41
       -9.896441 -10.064896 10.007646 10.163983
000210 ce 80 24 c1 f6 bd 1f 41 f5 50 21 41 52 41 23 41
       -10.281446 9.983877 10.082265 10.203447
000220 74 14 25 c1 71 29 24 c1 58 50 22 41 49 92 1f c1
       -10.317493 -10.260118 10.144615 -9.973214
000230 b5 fc 1e 41 32 cc 22 41 6e 98 25 41 be 4c 1f c1
       9.936696 10.174852 10.349714 -9.956236
000240 eb 43 1f c1 dd 8c 22 41 49 5b 1d c1 d1 35 1e 41
       -9.954082 10.15939 -9.834786 9.888139
000250 ee b1 21 41 e4 e4 21 41 6b a0 21 41 6d 75 20 41
       10.10594 10.1183815 10.101665 10.028668
000260 b4 74 1e c1 5a a7 20 c1 2c 1b 27 41 2b da 22 c1
       -9.903492 -10.040857 10.444134 -10.178264
000270 54 1d 22 41 a0 7c 25 41 a4 be 26 c1 55 1c 08 41
       10.13216 10.342926 -10.421543 8.506917
000280 52 9a 24 c1 3a 6e 24 41 0a 33 1f c1 eb 94 26 c1
       -10.287676 10.276911 -9.949961 -10.411357
000290 c1 f7 24 41 f9 60 1f c1 f1 1e 23 41 ef 02 1f c1
       10.310487 -9.961175 10.195054 -9.938216
0002a0 58 ef 1e 41 11 4d 21 41 b7 b0 21 c1 a4 a5 1e c1
       9.933434 10.081315 -10.105643 -9.91544
0002b0 f0 12 1e 41 5b 51 1f c1 26 8b 1f c1 12 5a 21 41
       9.879623 -9.957362 -9.971472 10.08449
0002c0 3c f6 22 41 f8 61 22 c1 6f bf 1f 41 f3 d0 22 41
       10.185116 -10.148918 9.984237 10.176013
0002d0 f8 10 20 41 d5 8d 24 c1 7e df 27 c1 80 4f 1f 41
       10.004143 -10.284627 -10.4920635 9.956909
0002e0 cd 8b 1d 41 f5 a6 21 41 12 65 20 41 34 d6 23 41
       9.846631 10.103261 10.024675 10.239796
0002f0 88 9c 22 c1 87 87 22 c1 c0 bb 1f 41 f1 11 21 c1
       -10.163216 -10.158088 9.983337 -10.06688
000300 69 d7 1e 41 a5 75 1c c1 a4 25 23 41 30 ee 21 41
       9.92759 -9.778722 10.19669 10.120651
000310 7a 31 20 41 65 ba 1f c1 82 5b 1e c1 3e 28 26 41
       10.012079 -9.9830065 -9.897341 10.384825
000320 df 3b 27 c1 fe af 22 41 84 72 24 41 6a a3 26 c1
       -10.452117 10.167967 10.277958 -10.414896
000330 72 fe 19 41 72 48 27 c1 02 96 25 41 e9 38 1f c1
       9.62462 -10.455187 10.349123 -9.951394
000340 4e 3f 23 c1 d0 3b 24 41 44 65 20 c1 86 7e 20 41
       -10.202955 10.264603 -10.024723 10.0308895
000350 97 09 21 c1 0d 27 22 41 d0 51 22 41 6b 49 1f c1
       -10.064841 10.134534 10.144974 -9.955424
000360 12 25 1f c1 54 a1 21 41 09 0e 1e c1 65 7b 21 c1
       -9.94655 10.101887 -9.878427 -10.092626
000370 91 55 22 c1 fb 18 26 41 99 cc 23 c1 5e b1 22 41
       -10.14589 10.381099 -10.237451 10.168303
000380 16 57 23 41 da 7c 22 41 57 7f 23 c1 6d d0 25 c1
       10.208761 10.155481 -10.218589 -10.363385
000390 42 8b 1f 41 b6 3d 22 c1 5c 23 20 41 ca 5c 1e 41
       9.9714985 -10.140066 10.008633 9.897654
0003a0 3b bc 22 41 74 85 21 c1 db f0 22 c1 53 5d 20 41
       10.170955 -10.095081 -10.183803 10.022784
0003b0 17 da 15 c1 a2 30 20 41 ce 8e 20 41 0f 12 21 41
       -9.365745 10.011873 10.034864 10.066909
0003c0 23 61 21 41 2a 6f 1f 41 b8 30 22 c1 4b 6b 21 c1
       10.086215 9.96464 -10.136894 -10.088695
0003d0 37 60 22 41 4b e6 23 c1 3e 6c 21 41 33 43 22 41
       10.14849 -10.243724 10.088926 10.141406
0003e0 12 76 24 c1 47 c8 02 c1 fd 07 25 c1 77 88 21 41
       -10.278826 -8.173896 -10.31445 10.095817
0003f0 a2 7f 22 c1 74 7f 24 c1 be d7 25 41 f6 28 21 c1
       -10.15616 -10.2811165 10.365171 -10.0725

lstm.weight_hh_l0 f4 [180, 45]
000000 10 96 73 bc 4b 1e 10 3e 37 b5 15 be e0 ef 82 3b
       -0.014867321 0.14074056 -0.14619909 0.0039958805
000010 84 f7 14 be 31 a0 b9 bd 08 e3 1d 3d 22 2c cc 3d
       -0.14547545 -0.09063757 0.038546592 0.09969355
000020 40 ef c2 bc 95 e2 07 3e 0e 7f 8a 3d aa ec 09 be
       -0.023795724 0.13270028 0.06762515 -0.13469186
000030 30 24 18 bd e0 58 b9 bc 18 8d c2 bc cc 5f 80 3d
       -0.037143886 -0.022625387 -0.02374892 0.06268272
000040 6a c5 fb 3d 46 ea cf bd 5a 5f a9 bd 94 f1 b5 bd
       0.12293513 -0.10152106 -0.0827014 -0.08883968
000050 78 83 e3 3c 6c 35 75 3d e2 84 c8 bd 18 28 a5 3d
       0.02777265 0.0598654 -0.097909704 0.08064288
000060 2a 7d 86 3d 02 a6 34 bd a4 3a 38 bd e1 a7 0e be
       0.06566842 -0.04410363 -0.0449778 -0.13931228
000070 86 e5 c2 bd cc b7 2e 3d 60 07 6f 3d a9 91 06 3e
       -0.09516434 0.04265575 0.058356643 0.13141502
000080 46 57 0d bd 14 9d ce 3d 1c 78 a9 bd 49 f9 f3 bd
       -0.03450706 0.10088554 -0.08274862 -0.11912782
000090 2e aa 02 be 24 51 c9 3d 38 5b c0 bc c2 cd f6 3d
       -0.12760231 0.098299295 -0.023480996 0.12050964
0000a0 fc f2 5e bd 6d 13 18 3e 80 1e 81 3d dd 4f 8d bd
       -0.054430947 0.1485116 0.063046455 -0.06899998
0000b0 72 82 a5 3d 90 29 17 bd ac ba cb 3d e8 e5 b5 bc
       0.08081521 -0.03690487 0.09947714 -0.022204354
0000c0 01 58 17 3e ee d3 e3 3d 02 1b 0c be 60 60 0a 3d
       0.14779665 0.11124407 -0.13682178 0.033783317
0000d0 d0 ea 46 bc 70 f1 61 bd 64 35 9c 3d 48 dd dd bc
       -0.012140945 -0.055161893 0.07627371 -0.027083054
0000e0 a0 27 5f bd 18 27 cc bd 36 c3 f0 bd 6a 07 b7 3d
       -0.05448115 -0.09968394 -0.117559835 0.08936961
0000f0 86 85 c3 3d 18 ea 9f bc fc 42 bf 3d ea 87 82 bd
       0.09546952 -0.019520804 0.09338948 -0.0637358
000100 56 c5 f8 3d 9e 92 0d bd 26 cd 8b 3d c0 13 bd 3c
       0.12147014 -0.034563653 0.06826238 0.023080707
000110 cf 51 11 3e f8 df 93 bc ea 8e f3 bd 76 ea c5 bd
       0.14191364 -0.018051133 -0.11892493 -0.096638605
000120 c0 33 be bb a8 0c 0d bd 0c da c2 bd d6 19 de bd
       -0.005804509 -0.034435898 -0.095142454 -0.108447716
000130 f1 b8 09 be a4 c3 1d bd d6 de c6 3d 28 24 b2 3c
       -0.13449456 -0.038516656 0.09710471 0.021745756
000140 00 9b 4d 3b 4d 57 17 be c0 33 f2 3b 2c fd 10 be
       0.0031372905 -0.14779396 0.007391423 -0.14159077
000150 82 b6 ca bd 54 69 92 bd ff 04 07 be c0 01 86 bc
       -0.09898092 -0.07148996 -0.131855 -0.016358256
000160 c6 a7 9e 3d b2 a5 d1 bd 67 bd 16 be 22 b4 e8 bd
       0.07746844 -0.10236682 -0.14720689 -0.113624826
000170 10 27 5a 3c 8d 6b 17 3e da c4 f1 3d c5 5a 0c 3e
       0.013314977 0.14787121 0.118051246 0.13706501
000180 40 d8 54 3b fc 75 5d 3d 80 82 2b bd 88 ef ee bd
       0.0032477528 0.054067597 -0.0418725 -0.11666781
000190 a8 37 15 3d 84 91 99 3d 4e 29 e9 3d e0 84 b1 bd
       0.03643003 0.07498458 0.11384831 -0.08667922
0001a0 48 bb c5 3c fe ba f4 bd 22 78 08 be 16 fd 8a bd
       0.024137154 -0.119497284 -0.13327077 -0.067865536
0001b0 74 ef d8 bd e5 a5 e7 bd d0 2c 39 bc 95 f7 01 be
       -0.10592547 -0.11310939 -0.011302188 -0.12692101
0001c0 e0 4d f0 bd d2 56 d3 bd d3 fe ba bd b0 8a 1f 3c
       -0.117336035 -0.10319294 -0.09130635 0.0097376555
0001d0 28 e1 8e bc 2a 1d 80 3d 58 2f c0 bc 6c b4 71 3d
       -0.017441347 0.062555626 -0.023460075 0.059009954
0001e0 ba aa 0e bd b6 b6 99 3d b0 58 84 3d 1a 78 f5 3d
       -0.034830786 0.075055525 0.06462228 0.11985798
0001f0 a8 7c e6 3c 2a f8 e8 bd 64 d1 4a 3d 80 db 43 3c
       0.028135613 -0.113754585 0.049516097 0.011954188
000200 68 cb bc bd 0e d8 82 3d 9c 51 0f 3d 78 57 b3 bc
       -0.09218484 0.063888654 0.03498994 -0.021892294
000210 c6 2f dd bd da 40 21 bd ae c6 af bd a8 07 98 3c
       -0.10800128 -0.039368488 -0.08582817 0.018558338
000220 ea 49 8b bd 80 80 e6 bb d6 4c 03 bd d8 6c 30 3d
       -0.06801207 -0.0070343614 -0.0320557 0.04307255
000230 80 26 8c 3d f8 63 ee bc 14 a5 b5 3d 08 2f 04 be
       0.06843281 -0.029100403 0.08869377 -0.12908566
000240 0b 97 11 3e 83 68 11 3e d1 bc 02 3e 8a a2 af bd
       0.14217775 0.14200024 0.1276734 -0.08575924
000250 66 99 1f bd 50 db 12 3d b4 d0 fb bd fa f1 dc 3d
       -0.03896465 0.035853684 -0.12295666 0.10788341
000260 80 b7 c8 3b fd ac 00 3e e6 fd ff bd 16 92 25 bd
       0.0061253905 0.1256599 -0.12499599 -0.04042252
000270 f2 2f 08 be 48 fb 5d bd 18 21 cd 3c 00 76 64 bb
       -0.1329954 -0.05419472 0.025040194 -0.0034860373
000280 68 4f 7a 3d 2c 09 47 bd 30 31 34 bd 39 69 e8 bd
       0.061110884 -0.04859273 -0.04399222 -0.11348195
000290 ea aa 13 be 15 75 01 3e 81 6b d3 bd f9 db f8 bd
       -0.14420667 0.1264232 -0.10323239 -0.121513315
0002a0 88 f4 0e bd 00 32 5a bc 88 47 ea 3c 2e 43 db bd
       -0.034901172 -0.013317585 0.028598562 -0.10706173
0002b0 1d 07 e1 bd ef 07 02 be 7e 02 a1 3d 94 b8 8d 3d
       -0.10987685 -0.12698339 0.078618035 0.06919971
0002c0 40 7c 88 bd 00 88 15 3b b0 60 e4 bc 54 db 15 3d
       -0.06664324 0.0022816658 -0.027878135 0.03658612
0002d0 8c a6 c0 bd cd 37 9e bd 00 e4 f4 bc 62 48 17 bd
       -0.09406766 -0.07725487 -0.029893875 -0.036934264
0002e0 aa 52 a4 bd 94 d9 e3 bd 08 f1 9c bc fa d5 f1 bd
       -0.080235794 -0.11125484 -0.019157901 -0.11808391
0002f0 54 3c fa bc 29 57 01 3e 40 87 3a 3d 70 7e 59 3c
       -0.030546345 0.12630905 0.04553914 0.013274774
000300 60 8c 1c bd 0e 09 91 3d 50 93 54 3d 4e ef a6 3d
       -0.03821981 0.07081805 0.0518983 0.081511125
000310 c4 31 9e 3d d8 56 8a 3c 40 79 bd bc 76 89 fd bd
       0.07724336 0.016887113 -0.023129106 -0.12379734
000320 1e 2c df bd 46 a0 af 3d 78 1e e8 bc f0 85 07 3c
       -0.108970866 0.085754916 -0.028334841 0.008271679
000330 ec dd 06 be 18 c8 cb bd fb 6c a8 bd ce 30 de 3d
       -0.13170594 -0.09950274 -0.082239114 0.108491525
000340 ba 23 e6 3d ee 8a 2d bd c7 bd 8a bd 5a 0f d6 3d
       0.11237283 -0.04236882 -0.067744784 0.10452147
000350 9c e7 b0 3d 6a 6b b0 bd ee 35 e9 3d cc cb 6e 3d
       0.08637926 -0.086142376 0.113872394 0.058299825
000360 b0 04 64 3c 9e 79 8b bd bc 48 c7 3d c7 e8 ae bd
       0.013917133 -0.06810306 0.0973067 -0.085404925
000370 c0 23 ed bb 51 30 d9 bd 89 e0 14 be bf b2 8e bd
       -0.0072369277 -0.10604919 -0.14538778 -0.06967687
000380 f6 02 59 bd 80 a6 76 3d b8 df b5 3d cb b6 01 be
       -0.05298134 0.06021738 0.088805616 -0.12667386
000390 ae 31 ae 3d 0e 8e db bd af 97 0e 3e 7f d9 c1 bd
       0.085055694 -0.10720454 0.1392505 -0.09465312
0003a0 c4 17 0b 3d b0 d2 3f 3d 9e 9d 07 bd 7d 93 a8 bd
       0.03395821 0.046831787 -0.0331093 -0.08231256
0003b0 0d e5 0d 3e f1 48 17 3e 51 c9 04 3e a2 c7 58 bd
       0.13856907 0.14773919 0.12967421 -0.05292476
0003c0 80 5d 50 3c f2 1b b8 bd 00 c3 0f ba af 37 ec bd
       0.012717605 -0.08989705 -0.00054840744 -0.11534058
0003d0 b8 bf 48 bd 18 d3 65 3d 28 46 bc bd 16 5e b3 bd
       -0.049010962 0.056109518 -0.09193069 -0.0875818
0003e0 1a 8b e0 3d b0 f3 57 bd 14 c3 8e bd f6 a7 8f 3d
       0.109640315 -0.052722633 -0.06970802 0.07014458
0003f0 4a ee e3 bd 0a e6 04 bd 80 d1 02 3b 9a 9d f4 3d
       -0.111294344 -0.032445945 0.0019961298 0.119441226
