Ni_prediction/savemodel/bst_mod_343.pth (torch_old, 533443 bytes, 44 tensors)

price_encoder.attention.weight f4 [1, 121]
00000000: 9c4c a140 d962 a240 84a0 9f40 ef8c a2c0
00000010: ee66 9dc0 e276 9d40 9c23 a140 16ef 9cc0
00000020: 0d95 a040 2a73 9f40 3257 9f40 95b9 a140
00000030: 6bed 9dc0 38e5 9fc0 b212 a0c0 c351 9e40
00000040: b569 9d40 2270 9ec0 bead 9b40 a86c a040
00000050: 5fd3 9b40 beff 9f40 d79b a140 0643 a1c0
00000060: 3546 a1c0 e85a 9f40 d0fd 9dc0 d79a a1c0
00000070: b4f0 a0c0 37a0 9ec0 10f7 a040 5047 9fc0
00000080: 1dbc 9f40 389d a240 feb4 9d40 e093 9f40
00000090: ea53 a1c0 c88b a140 e04a a040 9456 a1c0
000000a0: a600 a040 70b4 a240 e2a5 9e40 c86a a140
000000b0: 421b 9f40 167a a140 4777 a140 5b7e a140
000000c0: 2e92 a240 fc5a 9f40 042a 9e40 94fc 9e40
000000d0: b439 a140 8117 9f40 3e07 9d40 b829 a040
000000e0: 7bda a040 614d a2c0 051c a0c0 c7e9 a240
000000f0: 6b1a 9e40 40e4 a1c0 b3c6 a0c0 be07 9dc0
00000100: fc74 a2c0 980c a240 d1e9 9f40 04b6 9e40
00000110: 6011 9e40 adac 9fc0 aa2f 9fc0 344b a040
00000120: 0ab3 a040 8eeb 9d40 a117 9ec0 1f6a 9d40
00000130: 2015 9ec0 2317 8140 cafa a140 c7e6 a040
00000140: 77ad 9dc0 3d01 9ec0 a52c a040 f5fc 9e40
00000150: 6531 a240 1292 a2c0 1452 9dc0 99b2 a2c0
00000160: f6c5 a140 aa8f a140 d291 a240 9c5a a240
00000170: 09ea 9e40 a7d8 a140 d376 9ec0 b8aa a2c0
00000180: 3e7e 9ec0 d3a2 a040 d52f a1c0 bc95 9c40
00000190: 6ea4 9e40 f60e 9f40 ccf7 9f40 da1c a240
000001a0: 4f5b a140 d758 9e40 c852 9d40 5272 a140
000001b0: 6fa6 a140 d9f0 9f40 8d3f 9d40 1515 a040
000001c0: 930a 9d40 75b3 a040 563e a240 474a 9d40
000001d0: 9307 9f40 8bcc 9e40 fdbe a140 6579 a040
000001e0: 5476 a140
5.0406017 5.0745664 4.988344 -5.079704 -4.9188147 4.920762 5.035597 -4.9041853
5.0181947 4.982808 4.979394 5.053904 -4.9352317 -4.996731 -5.002282 4.9474807
4.9191537 -4.951188 4.864959 5.0132637 4.869552 4.9999685 5.0502734 -5.0394316
-5.03982 4.979847 -4.937233 -5.0501513 -5.0293827 -4.9570575 5.030159 -4.977455
4.991713 5.0816917 4.928344 4.986801 -5.0414934 5.048313 5.00914 -5.0418186
5.000079 5.084526 4.9577494 5.044285 4.9720774 5.046153 5.04581 5.0466743
5.080344 4.9798565 4.942629 4.9683323 5.038294 4.971619 4.907134 5.0050926
5.02667 -5.0719457 -5.0034204 5.0910373 4.940725 -5.0591125 -5.0242553 -4.907195
-5.0767803 5.0640373 4.997292 4.9597187 4.939621 -4.9898286 -4.9745684 5.00918
5.0218554 4.935004 -4.9403844 4.919204 -4.9400787 4.0340743 5.061864 5.028171
-4.927425 -4.937651 5.00545 4.9683785 5.0685296 -5.080331 -4.9162693 -5.0843015
5.055415 5.048787 5.0803003 5.0735607 4.9660687 5.057697 -4.952005 -5.0833397
-4.9529104 5.019876 -5.037089 4.893278 4.957572 4.9705763 4.9989986 5.066022
5.042396 4.9483447 4.916355 5.045205 5.0515666 4.9981503 4.9140077 5.0025735
4.907541 5.0219064 5.0701094 4.915317 4.9696746 4.9624686 5.054564 5.0148187
5.0456944

price_encoder.encoder.weight_ih_l0 f4 [180, 45]
00000000: 1c78 cebd 3286 f1bd 1832 033d 2005 a93d
00000010: e67b 63bd a2b0 d53d 8009 a13d 0aef f9bd
00000020: b740 d4bd 4015 43bc 73f8 e1bd ceef 6cbd
00000030: bcda d9bc d840 fb3c beb2 f7bd 70ab 763c
00000040: fc9a 503d 0840 aabd 6861 b93d e6b1 eb3d
00000050: e16e da3d 966a 8c3d 1280 dabd e887 9cc0
00000060: d778 14be a5f2 17be 6b3d f9bd 5ba3 033e
00000070: 534b 083e 389a 143d 0b55 07be e0f9 fcbb
00000080: b6f8 ef3d 07b1 9940 6c74 9e40 a602 9f40
00000090: 2d8a 9f40 b2af 9f40 32eb b9be 06ff 9d40
000000a0: 7fae a440 7966 a240 e1eb 9d40 88ba c63c
000000b0: d6bd febd 2b21 00be fb41 8f3d 0827 e23d
000000c0: 9141 373d f629 bc3d 5489 fd3d 776f 8dbd
000000d0: 4b4b b03d 6ba4 793d 706e 003d 88ee bb3d
000000e0: 50f7 a8bc fafc 8a3d 1fb8 043e 60dc 453c
000000f0: a325 11be c737 09be 60f9 9e3b 288a 06bd
00000100: 7e7b cf3d e3fa f43f 231a 133d 0021 82bd
00000110: 8b74 9b40 77e7 f6bd cb93 13be 7a37 f73d
00000120: 3eaf 3abd 82b1 11be 403b 4cbb 8aa9 32bd
00000130: 5754 0e3e 21bb c0bd 5e4e 9d40 14e9 9b40
00000140: 6226 9f40 89aa 9d40 1d32 a440 035a 07be
00000150: c4fd 9d40 28e9 9c40 5e5e 9d40 6e83 a240
00000160: 103a 243d 707b 343d a4ff d73d 6480 debb
00000170: fa97 f0bd 5b9c e0bd 2898 e73c 6eb4 4c3d
00000180: e47b 853d 2f18 883d cc37 e2bc 8e92 abbd
00000190: c61e 06be 302e a13c 9e79 4bbd a006 cfbd
000001a0: 60f5 ba3b 58c1 883c 421f c23d 84a8 c7bd
000001b0: 1061 6c3c 00e1 a6bd 0a22 e03f 7e9f 29bc
000001c0: 33cb 94bd e495 9e40 2495 5cbd 00d2 263d
000001d0: 7e00 35bd 6660 403c 640b cfbd 336e 103e
000001e0: 424c dfbd df28 103e bc1f 0ebe c872 a340
000001f0: f4df 9b40 dd05 9f40 ce1f a140 bdca a240
00000200: a923 9ec0 0c9c 9e40 316a a240 190d 9c40
00000210: 8e47 9e40 94d1 6f3d 1dbc 80bd c24b c73d
00000220: 46b9 5ebd 8e17 05be 22e2 aebc 3076 20bd
00000230: ce78 ed3d fa74 f73d 4bf9 c13d 315e 8dbb
00000240: 18b5 a13d 02a1 e63d b6fa ec3d f0ba c93d
00000250: 82ab 9bc0 5cea 113d 4c36 7c3d b6da 15bd
00000260: a05c 17bc e43b 0240 c610 333d cfa5 96be
00000270: 0226 86bc 0388 6e3d 9ed4 9fc0 8cda 463d
00000280: 0de6 143e 40b8 83bd 3230 b6bd f3b6 a0c0
00000290: 7823 af3d aa78 c73d 2b09 84c0 3432 b9bd
000002a0: 829b a3c0 7d77 a2c0 f61f 9dc0 c0a4 9dc0
000002b0: 1944 a2c0 7ae8 c6bd 36dc 9dc0 6e0e a0c0
000002c0: 2a22 9dc0 3665 9dc0 f22d a13d e86d 173d
000002d0: 4b3a b0bd b862 acbc 6659 ac3d 210c 0d3e
000002e0: 3c14 b13d 4b23 133e 9e4c 0dbe acfe 12be
000002f0: 0075 b4bd 6497 55bd 98df 593d 23d6 14be
00000300: 329c d8bd cff1 a6bd 805a edbb 6684 b23d
00000310: 24b1 08bd fcdc b8bd 6832 1d3d f8ca b2bd
00000320: b136 5dbd d6a3 b13d 2bdc 2e3d 9c11 9fc0
00000330: b249 cd3d 81c7 103e 6cf5 993d 50da df3c
00000340: 7d28 033e ca30 fa3d 4842 5d3d 0028 8cbc
00000350: 7bd8 d6bd 3ab8 9bc0 9a1f a3c0 0523 a4c0
00000360: e318 9ec0 4d2b a0c0 e049 b1bb f964 9fc0
00000370: 9c72 9cc0 ae4a 9bc0 9014 a2c0 2427 a3bd
00000380: 70ee 3abc 679c 8abc 7c26 863d d0b9 743c
00000390: f8c4 1cbd 59b5 013e 6f38 163e 43e8 caba
000003a0: df5d 183e 7ced 813d beaf e73d 70b8 06be
000003b0: 60d3 bb3d 731d bbbd b34a 9d40 705b 0f3c
000003c0: 00ab f83a 7459 1f3d e81f d23c fab1 d3bd
000003d0: 6813 9f3d 14d0 bfbd 1308 9ebd c233 3ab8
000003e0: 59cb a4c0 6029 de3c 952b babd 967b f23d
000003f0: d66e 1fbd 4931 a040 e536 833d a1a5 0a3e
-0.10081503 -0.11793174 0.032030195 0.08252931 -0.05553808 0.10434081 0.0786314 -0.12203796
-0.10363906 -0.011906922 -0.11033716 -0.057845883 -0.026593558 0.030670568 -0.12094639 0.015055522
0.050929055 -0.08312994 0.09051782 0.11508541 0.1066568 0.06856267 -0.10668959 -4.89159
-0.14499222 -0.14838655 -0.12169918 0.12855284 0.13309984 0.036279887 -0.13216035 -0.007720217
0.1171736 4.80286 4.9517117 4.9690733 4.985617 4.990197 -0.36312252 4.937381
5.146301 5.075009 4.935044 0.024258867 -0.12438552 -0.12512653 0.06995007 0.11042601
0.044740263 0.09187691 0.12379709 -0.06906026 0.08608111 0.060947817 0.03135532 0.091763556
-0.02062574 0.06786533 0.12960862 0.012076467 -0.14174514 -0.13400184 0.004851505 -0.0328466
0.10130976 1.9139065 0.035913598 -0.063539505 4.8579764 -0.12055867 -0.14411847 0.12071128
-0.04557728 -0.1422787 -0.0031163245 -0.043618716 0.1389936 -0.09410692 4.9158163 4.872202
4.9734354 4.9270673 5.1311173 -0.1321793 4.9372272 4.9034615 4.9177694 5.0785437
0.040094435 0.04406303 0.105468065 -0.0067902077 -0.11747737 -0.109673224 0.028270796 0.04997676
0.06517771 0.06645238 -0.027614497 -0.083775625 -0.13097677 0.019675344 -0.04967653 -0.101086855
0.0057055205 0.016693756 0.09478618 -0.09748939 0.014427438 -0.08148384 1.7510388 -0.010352967
-0.0726532 4.955797 -0.05385317 0.040727615 -0.044189923 0.011741733 -0.101095945 0.14104538
-0.10903217 0.14078091 -0.13879293 5.1077614 4.871088 4.9694657 5.0351324 5.0872483
-4.941853 4.9565487 5.075463 4.876599 4.9462347 0.05854948 -0.0628588 0.097312465
-0.05437591 -0.12997267 -0.021348063 -0.039175212 0.11595307 0.120828584 0.09471377 -0.004314207
0.07895869 0.112611786 0.11571257 0.098501086 -4.864686 0.035623893 0.06157522 -0.036585532
-0.009238392 2.0349054 0.04371717 -0.29423377 -0.016375545 0.05823518 -4.9947042 0.048548266
0.14540882 -0.06431627 -0.08895911 -5.0223327 0.08551687 0.09739812 -4.126119 -0.090427786
-5.112733 -5.077086 -4.9101515 -4.926361 -5.0708127 -0.0971231 -4.933131 -5.0017614
-4.9104204 -4.918605 0.078700915 0.03697005 -0.086048685 -0.021043167 0.08415489 0.13774158
0.086464375 0.14368932 -0.13798758 -0.14354962 -0.088113785 -0.05214633 0.05319175 -0.14534812
-0.10576667 -0.0815159 -0.0072434545 0.08716659 -0.03337206 -0.090265244 0.03837815 -0.087301195
-0.054007236 0.08673827 0.042690437 -4.9708996 0.10023822 0.14138605 0.07517514 0.02732578
0.12808414 0.12216337 0.05401829 -0.017108917 -0.10490509 -4.8662386 -5.0976076 -5.129275
-4.940538 -5.0052857 -0.005410418 -4.981076 -4.8889904 -4.852866 -5.06501 -0.0796645
-0.011409387 -0.016920282 0.06550309 0.014936879 -0.03827378 0.12666835 0.14669965 -0.0015480596
0.14879559 0.06344125 0.11312817 -0.13156295 0.09171176 -0.09136476 4.9153686 0.008749828
0.001897186 0.03890367 0.02564998 -0.10336681 0.07767373 -0.0936586 -0.07716384 -4.439406e-05
-5.1498227 0.027119339 -0.09090344 0.118399784 -0.03892406 5.0060163 0.06406955 0.13539745

price_encoder.encoder.weight_hh_l0 f4 [180, 45]
00000000: c7ab a340 dec9 a040 6166 9c40 7d6f 9cc0
00000010: 7fc0 9f40 4bfb 9d40 c168 9f40 67c5 a3c0
00000020: dd80 9fc0 25bd 9dc0 cce7 a2c0 ea1f a240
00000030: 9010 9ec0 2211 a0c0 a37e 9d40 7f48 a4c0
00000040: 0a10 9d40 0a17 a1c0 9d8b 9b40 1e05 a4c0
00000050: c4a0 9b40 1c5c 9f40 a523 9c40 795b 9d40
00000060: ce1f 9fc0 9758 9bc0 0173 9cc0 ce2f 9e40
00000070: 4288 9bc0 153e 9ec0 91f2 9c40 da69 a0c0
00000080: 4b72 9f40 d05e a040 2c8b 9f40 4b76 9bc0
00000090: d7a1 9ec0 a946 a140 3860 9d40 2acb a440
000000a0: f923 a340 0bf3 9d40 6d55 a1c0 8834 a440
000000b0: 84ff a2c0 3bc6 a3c0 3dd2 a1c0 10fb 9fc0
000000c0: e084 a140 0f38 9dc0 5bee a2c0 4295 9cc0
000000d0: 9290 a2c0 c44b 9e40 f3fd a1c0 4c81 9d40
000000e0: 32a1 a4c0 34da 9b40 9223 9e40 1553 a0c0
000000f0: eecf a340 625a 9ec0 c1be 9b40 9541 9dc0
00000100: bb04 a040 7e15 9d40 f0c7 a2c0 1611 9dc0
00000110: e8a9 a0c0 57f4 a340 c723 a240 dc47 9d40
00000120: ad94 9ec0 9089 9b40 2967 a140 d332 a4c0
00000130: 72b5 a140 8e95 a0c0 d9b4 a1c0 c5fc 9cc0
00000140: 7333 9c40 9664 9f40 02d3 a2c0 c539 9cc0
00000150: 2986 a2c0 6509 a0c0 ceca 9ec0 0dc7 a140
00000160: 1235 9dc0 d769 9d40 a2e7 9dc0 53fc a1c0
00000170: 7f0a a4c0 1194 a040 9a5b 9cc0 ac9e a0c0
00000180: 5cb8 9bc0 f17e 9ec0 f912 a140 8004 9fc0
00000190: 6b79 a440 c4b9 9ec0 9ebb a340 2cb4 a140
000001a0: 709f 9cc0 aa27 9c40 dbbb a2c0 439f a340
000001b0: d1a0 a4c0 16a0 a1c0 78df 9c40 8707 9ec0
000001c0: b717 a2c0 7c2c a1c0 292f 9e40 6c4f a040
000001d0: 9aae 9e40 924d a3c0 526a 9c40 c993 a440
000001e0: 4215 9ec0 2a64 9d40 8fe9 9bc0 160d a1c0
000001f0: 4d06 a2c0 cc4f a240 1a08 9d40 b282 9bc0
00000200: 64f7 9cc0 058e 9cc0 82bb 9bc0 3c30 9fc0
00000210: addf 9f40 59c5 9ec0 a558 a140 9127 a340
00000220: 4bbc 9e40 5538 a240 9b1d a1c0 8686 a140
00000230: ce86 9c40 ccb6 9d40 e1b2 9c40 d95f 9ec0
00000240: c69a a240 9c1f 9dc0 8de1 9c40 9a63 a140
00000250: 8e62 9ec0 6c8a a240 e146 a0c0 5792 9c40
00000260: 8b18 a0c0 3ce5 a040 8e46 a140 7ece 9fc0
00000270: 3fd4 9d40 2cfb a240 0aec a040 fdb3 9bc0
00000280: dfcf 9ec0 7941 9f40 2b24 9d40 cb37 a4c0
00000290: e5f1 a3c0 987e a240 1661 9ec0 ba86 9d40
000002a0: 7b3f a440 f3aa a440 b083 a3c0 3a26 9dc0
000002b0: 3398 a040 88c7 9d40 70f5 9d40 10ac a240
000002c0: a58b 9c40 fc6d a4c0 8ee9 9c40 770a a0c0
000002d0: 1cd2 9b40 4ee0 9d40 1b1d a440 cf4d a2c0
000002e0: b179 9b40 2d77 9d40 86b9 a440 bd7b a340
000002f0: 8c39 a3c0 434e a240 e3fb a0c0 fee8 9f40
00000300: a910 a1c0 9cfc 9cc0 451c 9c40 76b1 9cc0
00000310: f71b 9f40 fa68 9cc0 fe97 9c40 40b9 a240
00000320: e5d4 9bc0 32c2 9b40 1e01 9f40 ef46 a440
00000330: 3b4d 9fc0 3141 9ec0 fb44 a140 6d07 a240
00000340: e3d5 9ec0 e8dc 9bc0 1a57 9d40 77af a3c0
00000350: 05aa a040 5ba0 a440 f56d a340 2de1 9cc0
00000360: 8859 9fc0 fba3 9c40 cdc2 a240 3276 a140
00000370: 2967 9e40 a015 a240 3c4d 9fc0 6e78 9c40
00000380: cd1f 9cc0 9e6f 9e40 4348 a140 57af a240
00000390: 7fe2 a3c0 8af3 a240 1b39 9c40 0d29 9e40
000003a0: a6ba a340 918c 9ec0 30a7 a440 2b01 9fc0
000003b0: 74d4 9c40 b6a1 9bc0 dfe4 9ec0 eb6b 9e40
000003c0: 6f5d a1c0 7abe a340 c26b a3c0 f3e1 a040
000003d0: 74dc a340 96f4 9cc0 e47a 9e40 88e6 9b40
000003e0: cd9d 9b40 404b a0c0 40dc a0c0 d14c 9b40
000003f0: 3cb5 a340 3d8e 9dc0 c922 a4c0 247b 9f40
5.114719 5.024642 4.8874974 -4.8886094 4.992248 4.9369254 4.9815373 -5.117847
-4.9844804 -4.929339 -5.0907955 5.0663958 -4.939522 -5.0020914 4.9217086 -5.1338496
4.908208 -5.0340624 4.8607926 -5.1256247 4.8633747 4.979994 4.879351 4.917416
-4.9726324 -4.854564 -4.8890386 4.9433355 -4.860383 -4.9450784 4.90461 -5.0129213
4.982702 5.011574 4.9857388 -4.85819 -4.957256 5.0398755 4.9179955 5.1498003
5.098141 4.9359183 -5.041678 5.1314125 -5.093691 -5.117948 -5.056914 -4.9993973
5.04747 -4.913093 -5.091596 -4.89322 -5.0801477 4.9467487 -5.0622497 4.9220333
-5.144677 4.870386 4.941842 -5.010142 5.119132 -4.948533 4.8670354 -4.9142556
5.0005774 4.9088736 -5.0869064 -4.9083357 -5.0207405 5.1235766 5.0668674 4.915022
-4.955649 4.8605423 5.043843 -5.131204 5.053399 -5.018256 -5.053326 -4.9058557
4.8812804 4.9810286 -5.088258 -4.882052 -5.078877 -5.001147 -4.9622564 5.055548
-4.9127283 4.91917 -4.9345255 -5.0620513 -5.1262813 5.0180745 -4.886182 -5.019369
-4.866255 -4.952996 5.033566 -4.9692993 5.1398215 -4.9601765 5.1166525 5.0532436
-4.8944626 4.879842 -5.0854316 5.113191 -5.144631 -5.0507917 4.902279 -4.938419
-5.065395 -5.03668 4.943257 5.009695 4.9588137 -5.103219 4.8879786 5.14304
-4.940095 4.918477 -4.8722606 -5.0328474 -5.063269 5.072241 4.907239 -4.859704
-4.905199 -4.8923364 -4.866639 -4.974638 4.996054 -4.9615903 5.042071 5.09858
4.960485 5.0693765 -5.034864 5.0476713 4.8914557 4.928564 4.896836 -4.9492
5.0813932 -4.9101086 4.902533 5.0434084 -4.9495306 5.079397 -5.008652 4.8928638
-5.002996 5.0279827 5.0398626 -4.9939566 4.932159 5.0931606 5.0288134 -4.865721
-4.962875 4.9767423 4.910665 -5.1318107 -5.123278 5.0779533 -4.9493513 4.922696
5.132749 5.145868 -5.109825 -4.9109163 5.018579 4.930607 4.9362106 5.0835037
4.8920465 -5.138426 4.90351 -5.0012774 4.869398 4.933631 5.128553 -5.071998
4.858605 4.920798 5.147647 5.108855 -5.100775 5.0720534 -5.030748 4.9971914
-5.0332837 -4.905836 4.878451 -4.8966627 4.9721637 -4.8878145 4.8935537 5.0851135
-4.869738 4.8674555 4.9688864 5.133659 -4.9781775 -4.945458 5.0396705 5.0634065
-4.963609 -4.870716 4.9168825 -5.115169 5.0207543 5.1445746 5.1071725 -4.9024873
-4.979679 4.895017 5.0862794 5.045678 4.950093 5.06514 -4.978178 4.889701
-4.878882 4.951125 5.040071 5.083904 -5.1213984 5.092229 4.881971 4.942511
5.116534 -4.954659 5.1454086 -4.9688926 4.900934 -4.86349 -4.9654384 4.9506736
-5.0426555 5.1170015 -5.106904 5.0275817 5.120661 -4.9048567 4.9525013 4.871891
4.863013 -5.009186 -5.026886 4.853127 5.1158733 -4.923613 -5.129246 4.983782

price_encoder.encoder.bias_ih_l0 f4 [180]
00000000: 4cc9 a1c0 c4ff a340 91cf 9e40 b8a5 9dc0
00000010: ec74 a3c0 bb93 9ec0 ffb4 a240 180f 9fc0
00000020: 0a1f a340 8b47 a2c0 b311 9ec0 8ecc a0c0
00000030: 6251 a4c0 d353 a040 f7b3 9d40 2011 a440
00000040: 3341 a2c0 7606 9d40 27c5 a2c0 d492 a4c0
00000050: 8d20 a1c0 1269 9bc0 e037 a0c0 1522 9f40
00000060: 4157 a2c0 ad63 a0c0 b6ef 9cc0 5431 9f40
00000070: 688b a1c0 70f7 9e40 e3fd 9c40 0c74 a4c0
00000080: e6d4 a340 4e4c a2c0 446d 9dc0 38be 9e40
00000090: 7599 9ec0 3ad3 a4c0 2ab8 9bc0 41b7 a140
000000a0: 1c3b 9d40 53b5 9940 56cf a3c0 d0b2 9e40
000000b0: bf40 9f40 5083 9cc0 3d46 a440 ced4 9e40
000000c0: 8cb1 a2c0 b7d8 9dc0 12f1 a3c0 a95f a340
000000d0: ae84 a0c0 cb07 a140 88e9 9c40 94be a3c0
000000e0: 580a 9dc0 5109 9ec0 83bd a040 25d5 9d40
000000f0: f5bf 9f40 9907 a0c0 ea90 a240 b881 9f40
00000100: 3cee a2c0 f47d a1c0 30b7 9fc0 3b9b 9cc0
00000110: 72b3 9d40 3ef4 a1c0 bb88 9bc0 d8fc 9bc0
00000120: 1ccf a040 82ea a2c0 551f 9f40 9ba2 9b40
00000130: bb92 a0c0 54f4 9c40 bf9a a0c0 da0f a2c0
00000140: 64a0 9e40 8114 a3c0 89a1 a2c0 d11d 9ec0
00000150: e7ed a140 25e5 a040 fb3b 9fc0 d77c 9ec0
00000160: bff6 a040 ebde a040 3c95 9b40 e1e4 a2c0
00000170: a7bb 9dc0 1cc7 a4c0 0ccb 9b40 048c a040
00000180: 06cc a1c0 b951 9f40 44c5 9d40 837e 9cc0
00000190: a976 9bc0 c142 a140 1956 9f40 b670 9d40
000001a0: 660d a2c0 885a 9d40 1b0c a240 9c9b a340
000001b0: 9bdc 9d40 abb2 a240 abb1 a3c0 81db 9c40
000001c0: b12c a140 4cc3 9cc0 63a3 9bc0 1427 9ec0
000001d0: 9db0 a440 276f 9bc0 d34b 9cc0 62e9 a240
000001e0: 27b8 9fc0 bb0a a2c0 bf89 a2c0 f7fd 9d40
000001f0: e255 a340 9dd1 9e40 7973 a3c0 6370 a140
00000200: 4976 9e40 0b45 9fc0 2925 a2c0 937f a340
00000210: 1aeb 9fc0 c404 a0c0 2e65 a240 ec40 9dc0
00000220: 2bb4 a040 54f8 9b40 a651 a2c0 a773 a4c0
00000230: 5972 a4c0 5568 9c40 42ac 9fc0 d2e1 a340
00000240: f6c1 9cc0 bd88 a4c0 eb45 9cc0 013e 9fc0
00000250: 09af a240 cb6b a140 978a 9c40 06ca 9bc0
00000260: 3d12 a440 9969 a2c0 8a6b a2c0 e6e6 a2c0
00000270: e191 9dc0 e169 a3c0 235f 9e40 438d a1c0
00000280: 43c8 9ec0 5aea 9cc0 735f 9f40 8f04 9cc0
00000290: 99d8 9c40 b195 9e40 34cf 9fc0 d477 9c40
000002a0: c39c 9bc0 65f5 9bc0 b7e5 a340 c8dc a2c0
000002b0: 3a24 9dc0 5121 a0c0 f5b5 9d40 7372 9d40
000002c0: d986 a2c0 dedb a0c0 5e5f 9f40 90a1 a440
-5.0558224 5.1249714 4.9628377 -4.9264793 -5.1080227 -4.9555335 5.0845942 -4.9705925
5.097539 -5.0712333 -4.9396605 -5.02497 -5.1349344 5.0102324 4.9282184 5.1270905
-5.070459 4.9070387 -5.0865664 -5.1429234 -5.0352235 -4.856576 -5.0068207 4.9729104
-5.073151 -5.0121675 -4.9042616 4.9747715 -5.0482674 4.967705 4.905992 -5.139166
5.1197386 -5.0718145 -4.919588 4.96072 -4.9562325 -5.1507845 -4.866231 5.05362
4.9134655 4.8033843 -5.1190596 4.9593277 4.9766536 -4.8910294 5.133574 4.963477
-5.084173 -4.9327044 -5.1231775 5.1054273 -5.0161963 5.0322013 4.903507 -5.117014
-4.9075127 -4.9386373 5.0231338 4.9322686 4.9921823 -5.0009274 5.0801897 4.984585
-5.0915813 -5.046625 -4.9911118 -4.893949 4.928155 -5.0610647 -4.8604407 -4.8746147
5.025282 -5.0911264 4.9725747 4.8635993 -5.0179114 4.904825 -5.01889 -5.064435
4.957079 -5.096253 -5.0822186 -4.9411397 5.060291 5.0279717 -4.976072 -4.9527392
5.0301204 5.0272117 4.861967 -5.0904393 -4.929157 -5.1493053 4.868536 5.0170918
-5.056155 4.978726 4.9303303 -4.8904433 -4.858235 5.0393987 4.97926 4.9200087
-5.0641356 4.917301 5.0639777 5.1127453 4.9331794 5.08431 -5.115438 4.901795
5.0367055 -4.89884 -4.8636947 -4.9422703 5.1465592 -4.8573184 -4.884256 5.090989
-4.9912295 -5.06381 -5.0793147 4.9372516 5.1042337 4.9630876 -5.107846 5.044969
4.951939 -4.977178 -5.067036 5.109323 -4.997449 -5.0005817 5.074851 -4.914175
5.021993 4.8740635 -5.072467 -5.1391177 -5.1389585 4.887736 -4.9897776 5.121316
-4.898677 -5.1416917 -4.883535 -4.976319 5.0838666 5.0444083 4.8919177 -4.868411
5.1272264 -5.0753903 -5.0756273 -5.090686 -4.9240575 -5.1066747 4.9491134 -5.048494
-4.961946 -4.9036074 4.9804015 -4.8755565 4.90144 4.955773 -4.9940434 4.8896275
-4.862886 -4.8737054 5.1217914 -5.089451 -4.910672 -5.004067 4.9284616 4.920221
-5.078961 -5.0268393 4.9803915 5.144722

price_encoder.encoder.bias_hh_l0 f4 [180]
00000000: 8818 9dc0 0099 a440 c1c9 a340 fd1c 9cc0
00000010: 2857 a2c0 3d5b 9fc0 33b2 9b40 22f9 a3c0
00000020: 921e 9f40 adfc 9dc0 7d88 9ec0 a74d 9cc0
00000030: b005 9fc0 d767 9e40 fd9a a240 7868 9c40
00000040: e334 a3c0 75a6 9d40 fbe1 a1c0 8006 9cc0
00000050: 39e0 a2c0 0c00 a1c0 6124 9fc0 5e84 9f40
00000060: f052 a1c0 f793 a0c0 80e9 9fc0 50dc 9b40
00000070: 3a3a 9fc0 6ad5 a040 88c6 9d40 10f0 a3c0
00000080: b67a a340 ceac 9fc0 c4c6 a2c0 0bb8 a040
00000090: 8456 9bc0 fe6e 9fc0 b83c 9ec0 6003 a240
000000a0: a299 9c40 bf29 9b40 c8f1 a0c0 24ea 9b40
000000b0: 1d81 9b40 b496 a2c0 f770 9b40 78f4 9b40
000000c0: 6569 a0c0 db5d a1c0 e7ad a0c0 0d07 a140
000000d0: 7b14 9fc0 5387 9e40 5c7d 9c40 520b a0c0
000000e0: cc1d a1c0 989a a0c0 9d98 a040 9f6a a340
000000f0: 5e0c 9d40 66e8 9ec0 d8e7 9f40 0703 a340
00000100: d218 9fc0 79d5 a3c0 16a9 a1c0 9d1f a1c0
00000110: ceab 9d40 296c a1c0 29af 9dc0 68b3 a4c0
00000120: e693 9b40 8c7c 9dc0 6358 a140 83e6 a240
00000130: d73f 9fc0 b42f 9c40 47bf 9ec0 5ec4 9bc0
00000140: 728f 9c40 946f a2c0 0dbd a0c0 c171 9fc0
00000150: d7f1 a340 33d2 a140 069d a2c0 90a3 a2c0
00000160: 646a 9e40 9961 a340 6af6 a040 21e6 a3c0
00000170: 5969 a2c0 765a 9cc0 36df a040 20d4 a340
00000180: de68 9fc0 eaa8 a140 0c5e a240 d181 a2c0
00000190: 8bf1 a2c0 6bfb 9c40 b773 9f40 0894 a040
000001a0: ec98 9fc0 01a4 9c40 8a8c 9c40 763b a340
000001b0: 2b7d 9b40 1d60 a140 0622 9fc0 21c7 9f40
000001c0: 6909 9e40 b8c4 9dc0 0995 a2c0 f676 9dc0
000001d0: cb73 9c40 de06 a1c0 9fa0 9fc0 0e4c a240
000001e0: 9b5f 9cc0 99eb 9bc0 d3be 9ec0 ab0e 9e40
000001f0: 9ad9 9c40 714a a040 086c a0c0 9902 9c40
00000200: 0bb5 9b40 9fcc a0c0 41e0 9ec0 a580 a240
00000210: ac52 a0c0 b75f a3c0 74a8 a240 fc71 a4c0
00000220: 1198 a240 bca7 a340 1499 a4c0 55b3 9dc0
00000230: 7bf0 9dc0 5d53 9d40 1afe 9bc0 3d8f a240
00000240: e269 a4c0 4f46 a1c0 2178 9ec0 531f a4c0
00000250: 35f2 9b40 e646 9f40 d558 9c40 a525 9fc0
00000260: 3388 9d40 597c a1c0 9e5a 9cc0 a827 9cc0
00000270: ef61 9cc0 6f99 9ec0 b463 a440 6ff0 9bc0
00000280: 85d0 a2c0 5bbd 9ec0 1560 9f40 a514 a3c0
00000290: 5912 9e40 ad21 9f40 026f a3c0 841e a040
000002a0: 2654 a2c0 1cf0 a3c0 dd71 9e40 7ad3 9cc0
000002b0: 0639 a4c0 e229 a4c0 c5fb a140 a99d 9d40
000002c0: 2987 a1c0 c891 a2c0 3170 a240 4a8a a040
-4.9092445 5.1436768 5.118378 -4.8785386 -5.073139 -4.9798875 4.865503 -5.1241617
4.9724817 -4.937094 -4.954161 -4.884479 -4.9694443 4.950176 5.0814195 4.8877525
-5.100206 4.9265695 -5.0588355 -4.8757935 -5.089871 -5.0312557 -4.973191 4.984908
-5.041374 -5.018062 -4.9972534 4.8706436 -4.9758577 5.0260515 4.930485 -5.1230545
5.1087294 -4.9898443 -5.0867634 5.022466 -4.854311 -4.982299 -4.944912 5.062912
4.893754 4.848846 -5.0295143 4.8723316 4.859511 -5.0808964 4.8575397 4.8735924
-5.0128655 -5.042707 -5.0212283 5.0321107 -4.97125 4.954019 4.8903027 -5.001382
-5.0348873 -5.0188713 5.0186296 5.1067653 4.9077597 -4.965869 4.9970512 5.0941195
-4.97178 -5.1198087 -5.0518904 -5.035109 4.9272223 -5.044453 -4.927632 -5.1469
4.861804 -4.9214535 5.0420394 5.0906386 -4.976543 4.880823 -4.9608493 -4.8677206
4.8925104 -5.0761204 -5.0230775 -4.982636 5.1232715 5.056909 -5.081668 -5.082466
4.950487 5.105664 5.03008 -5.121842 -5.07536 -4.8860426 5.0272474 5.119644
-4.981551 5.0518694 5.0739803 -5.0783467 -5.091985 4.9056907 4.9828753 5.01807
-4.987417 4.89502 4.8921556 5.1010084 4.8590293 5.0429826 -4.9729033 4.9930577
4.9386487 -4.9302635 -5.080693 -4.9207716 4.889135 -5.0320883 -4.988357 5.071784
-4.8866706 -4.8725095 -4.960794 4.9392905 4.9015627 5.009087 -5.0131874 4.875317
4.86585 -5.024978 -4.9648747 5.0782037 -5.010092 -5.105434 5.083063 -5.138914
5.081063 5.1142254 -5.1436863 -4.928141 -4.9356055 4.916426 -4.8747683 5.079985
-5.137925 -5.0398326 -4.952164 -5.1288238 4.8733163 4.9774046 4.8858438 -4.9733453
4.922876 -5.046429 -4.8860617 -4.879841 -4.886955 -4.9562297 5.137171 -4.8731
-5.087954 -4.9606147 4.980479 -5.09627 4.9397397 4.972861 -5.1073008 5.003725
-5.072772 -5.12306 4.9513993 -4.900815 -5.131961 -5.1301126 5.0619836 4.9254956
-5.047749 -5.0802956 5.0761952 5.016881

atten_layer.0.weight f4 [45, 135]
00000000: c052 bcbb 40cb d33b 10c0 bfbc 5849 8dbc
00000010: 6717 ab3d 3622 4b3d d9b8 42bd 3d6c 05bd
00000020: f650 523d 2b99 a33d 5ccd c83c 1d5d 973d
00000030: 3ca7 90bc 4e36 5b3d 80fe 68ba 8dca 01bd
00000040: 14e6 bfbc c45c dd3c 8e32 373d c081 323b
00000050: 58d2 8dbc fa02 fcbc 8087 31bb 39f2 af3d
00000060: f800 dc3c ca41 a9bd f04b 9fbc 801b 053d
00000070: 0782 a8bd 12a7 633d 647b 6abd 89eb 90bd
00000080: 6c25 2fbd 20a2 403b de57 81bd d087 d5bb
00000090: b81c 79bd 50e5 3fbc 30cc a8bd 237b 07bd
000000a0: 6033 80bb 19d4 a53d b146 afbd 6066 03bc
000000b0: 00c0 77b8 2339 9cbd 1f54 3bbd de2a 283d
000000c0: a243 6a3d 770b 853d 0bb3 9d3d bdf9 a33d
000000d0: f054 96bc 864a 8abd 39e6 97bd eaf6 2cbd
000000e0: e049 4fbd 2c1a e93c 590e 35bd 6f67 883d
000000f0: 9b5c 38bd 7bd2 8c3d 12c1 513d ef27 963d
00000100: 3f0c 94bd a935 a53d 4089 c3ba eb93 973d
00000110: 325d 423d 8806 81bd eae3 91bd 0b99 ae3d
00000120: 78ae b2bc a0fc 7bbc 809d eaba 3135 7ebd
00000130: 2055 65bc fed8 283d e0a0 6cbb 4642 a3bd
00000140: 0885 1e3d 6981 843d ff6e 0dbd 6b21 90bd
00000150: 6f9a 9b3d f279 343d 791f 9a3d 00b4 103b
00000160: 1d00 32bd 5d1f 9b3d adc6 a1c0 cf53 acc0
00000170: 562f b9c0 98f3 a1c0 ce29 a040 4fc7 a1c0
00000180: dfda a2c0 3c7a b940 88ca 9f40 7aae 9e40
00000190: 91ea 9fc0 717a 9cc0 cfee 9ec0 f4e3 a140
000001a0: b1e1 a0c0 6529 9dc0 da09 9fc0 1106 a040
000001b0: 18fe a040 ddbd 8bc0 62f4 b1c0 98ac ba40
000001c0: 211c b640 b0de 8c40 a205 a3c0 dbbd 8640
000001d0: aa4f af40 4dee 9f40 3dd8 b8c0 ba2b b940
000001e0: 2ce8 9f40 4411 a2c0 b1a7 9e40 06f3 a0c0
000001f0: 137d 9dc0 b1b1 9dc0 074b 9f40 3440 9fc0
00000200: 1e27 a340 719c 9f40 b5fa 8bc0 4507 b140
00000210: 2e3a bdc0 b75c a4c0 bbad b540 cac1 8abd
00000220: c594 993d f8e9 51bd b92b 8ebd 4c7a ee3c
00000230: c08e 3e3b 0e6a 353d 80f2 513c 4c23 c9bc
00000240: 7a9d 043d eacb a2bd d335 12bd 7e44 713d
00000250: 16db 3f3d fb86 2bbd 1de2 a83d 62f4 5f3d
00000260: 8e12 2b3d 3815 7cbd 81a6 51bd faf9 92bd
00000270: a0f9 4dbd 1e36 013d 99b2 873d fd37 943d
00000280: 6026 42bb f0bb 113c aed4 f3bc e8f6 82bd
00000290: 6041 f83c 58aa ccbc ccdb 18bd 48b0 f5bc
000002a0: 44ae 8abd 1c96 54bd 1eb9 05bd 508c afbc
000002b0: 9cb1 a7bc 1f3c a33d 2859 abbc 7aeb 2f3d
000002c0: 6cd8 87bc 7785 9f3d e0bf bbbc e679 543d
000002d0: eaed 7b3d 5039 c6bc 245c f13c a424 45bd
000002e0: b2de 12bd 9e89 473d ea1f 3b3d b48a 913c
000002f0: c125 933d 797c 42bd a8c9 4e3c 7513 8dbd
00000300: 52da adbd 10d1 5bbd 3f69 af3d 4e3f 513d
00000310: 6968 803d 3a40 7a3d 10c7 33bc 200d 793c
00000320: ea2c c5bc 375f 49bd a2c8 10bd 431c 4dbd
00000330: ce6e 273d f015 24bd bcd8 9ebc 3502 a93d
00000340: 9aa9 143d f80e 7c3c dc5c 84bc 0d30 873d
00000350: 3052 af3b 605a 3f3b 60fe 3abd e99e 8fbd
00000360: 42aa 7e3d f392 43bd a98c 9bbd 92cc 9fbd
00000370: 2cd2 9e3c d83d aabd 2618 91bd 107c ae3c
00000380: dae3 263d 8b8b a8c0 b097 ae40 f4c0 b340
00000390: fa89 9ec0 3949 9e40 b25f 9f40 a0d8 9d40
000003a0: 1f2e a6c0 669a a440 70f1 a140 31ef 9ec0
000003b0: 053d 99c0 3569 a1c0 c5dc 9d40 dfcf a1c0
000003c0: 15a2 99c0 6265 a040 e5b8 9f40 19f4 9e40
000003d0: c9bc abc0 75b2 a840 74ad a6c0 a44b b0c0
000003e0: 2f4e af40 e300 a0c0 dcbe ac40 ea4f a7c0
000003f0: 2a73 a240 c15d ad40 22c0 a8c0 5358 a040
-0.0057471693 0.0064634383 -0.023407012 -0.017246887 0.08354073 0.049593173 -0.047539566 -0.032573927
0.05134674 0.07988199 0.024511985 0.07390807 -0.017657869 0.053518586 -0.0008888021 -0.031687308
-0.02342514 0.027021773 0.044725947 0.0027237982 -0.017312214 -0.030763138 -0.002708882 0.08591122
0.02685593 -0.082645014 -0.01944539 0.03249693 -0.08227926 0.055579253 -0.05724658 -0.07076175
-0.042760298 0.002939351 -0.063155875 -0.0065164343 -0.060818404 -0.011712387 -0.08242071 -0.033076417
-0.0039123744 0.08097095 -0.08558405 -0.008020014 -5.9068203e-05 -0.076280855 -0.04573452 0.041056506
0.057193406 0.06496327 0.07700165 0.08006618 -0.018351048 -0.067524955 -0.07416958 -0.042227663
-0.050607562 0.028454863 -0.044203136 0.066603534 -0.04501019 0.068760835 0.051209517 0.073318355
-0.07228898 0.080668755 -0.0014918223 0.0740126 0.04745216 -0.06300074 -0.07123549 0.085252844
-0.021811709 -0.015380055 -0.0017899722 -0.062062446 -0.013997346 0.041222565 -0.003610663 -0.07971625
0.038701087 0.064699955 -0.034529682 -0.07037624 0.07597815 0.04406161 0.07525534 0.0022079945
-0.04345714 0.075743414 -5.0555024 -5.3852305 -5.7870283 -5.0609856 5.005103 -5.0555797
-5.0892177 5.796171 4.993473 4.9587984 -4.9973836 -4.8899465 -4.9666514 5.0590763
-5.02755 -4.911303 -4.9699526 5.0007405 5.0310173 -4.3669267 -5.561082 5.8335686
5.6909337 4.4021835 -5.0944376 4.2106757 5.4784746 4.9978395 -5.7763963 5.7865877
4.9970913 -5.0646076 4.95797 -5.029666 -4.921518 -4.927941 4.9779086 -4.9765873
5.098525 4.987847 -4.374354 5.5321374 -5.913352 -5.1363177 5.6774573 -0.067752436
0.07499079 -0.05124852 -0.06941933 0.02911105 0.0029076785 0.044290595 0.012814164 -0.024552964
0.032376744 -0.0794905 -0.035695862 0.05890321 0.046839796 -0.041876774 0.08246253 0.05467642
0.041765742 -0.061543673 -0.05118418 -0.071765855 -0.05028689 0.03154575 0.06625862 0.072372414
-0.0029624924 0.008894905 -0.0297645 -0.0639475 0.03030461 -0.02498357 -0.03731899 -0.029991284
-0.0677152 -0.051900968 -0.032647245 -0.02142921 -0.020470433 0.079704516 -0.020916536 0.042949177
-0.01658269 0.07789128 -0.022918642 0.051874064 0.06150619 -0.02419725 0.029462881 -0.048130646
-0.03585691 0.048715226 0.045684732 0.017766334 0.07184935 -0.047481988 0.012621321 -0.06888477
-0.08488907 -0.053666174 0.08564996 0.051085763 0.06269915 0.061096407 -0.010972753 0.015200883
-0.024069268 -0.04916307 -0.03534759 -0.05007578 0.040877156 -0.040059984 -0.019390456 0.08252374
0.036294557 0.015384428 -0.01615756 0.06600962 0.0053503737 0.0029198155 -0.045652747 -0.070127316
0.06217409 -0.047747564 -0.07595188 -0.078026906 0.019387327 -0.08312577 -0.07084684 0.021299392
0.04074464 -5.267034 5.4560165 5.617304 -4.954343 4.9464383 4.9804316 4.9326935
-5.19313 5.1438475 5.0607224 -4.966698 -4.7886987 -5.0440927 4.9331994 -5.056625
-4.8010354 5.012376 4.99132 4.967297 -5.366795 5.2717843 -5.2086735 -5.5092335
5.478294 -5.0001082 5.3982983 -5.228505 5.076558 5.4176946 -5.2734537 5.010782

atten_layer.0.bias f4 [45]
00000000: 4f8f 9540 f17d a240 e0ed 9a40 fee4 9fc0
00000010: f56a 9ec0 3e20 a1c0 ed69 a3c0 758c 9e40
00000020: fd76 a0c0 9c7b 9f40 7e6c 9cc0 dbb6 a1c0
00000030: 9224 a140 225b 9dc0 27e9 9ac0 7d04 a240
00000040: b8cb 9cc0 f166 a2c0 3260 9bc0 e608 9dc0
00000050: 1537 a1c0 18f0 a340 39b6 9d40 7044 a140
00000060: d2da a3c0 b89b a1c0 54f4 9fc0 2722 a0c0
00000070: a162 9cc0 91a5 a4c0 09f5 9d40 84de a040
00000080: b4d5 a040 06ef a040 ee24 9ec0 eb24 a3c0
00000090: 2db0 a140 e821 9e40 5004 a4c0 4829 9e40
000000a0: 308d 9bc0 3b0d a1c0 5003 a140 988e a140
000000b0: 49ca 9bc0
4.6737437 5.0778737 4.8415375 -4.996703 -4.9505563 -5.035186 -5.1066804 4.9546456
-5.014525 4.983839 -4.8882437 -5.053571 5.035714 -4.9173746 -4.840961 5.063048
-4.899868 -5.075066 -4.8554926 -4.907336 -5.037974 5.1230583 4.928494 5.039604
-5.1204615 -5.0502586 -4.998575 -5.004169 -4.8870397 -5.1452107 4.9361615 5.0271626
5.026087 5.0291777 -4.942008 -5.0982566 5.052756 4.941639 -5.1255264 4.942539
-4.860985 -5.032865 5.0316544 5.0486565 -4.868443

atten_layer.2.weight f4 [1, 45]
00000000: 9abc 4b40 facd dec0 c247 8a40 10a7 59c0
00000010: 00f9 71c0 b01e 57c0 52bf 83c0 88da bac0
00000020: 4fcb 64c0 3e9a 6a40 d2ac 30c0 09a0 b840
00000030: 89c9 c1c0 07ee 6ec0 4f94 f540 d423 8840
00000040: a15a d540 6a52 c140 b125 46c0 66df 4cc0
00000050: 7f7b b240 f27d 9e40 8abc 9a40 a1e9 9a40
00000060: 06a7 aa40 67b3 ce40 0953 94c0 5b6f 88c0
00000070: e16b e540 56fa a840 abe9 9840 992d cac0
00000080: 9e39 8740 0482 a6c0 0084 c540 5077 8dc0
00000090: d196 b2c0 9d8c bac0 c126 b840 23c6 cbc0
000000a0: 8f39 51c0 6a90 ac40 87a0 d1c0 0f64 9f40
000000b0: 4dee 4ec0
3.1833863 -6.9626436 4.3212595 -3.4008217 -3.7808228 -3.361248 -4.1171045 -5.839176
-3.574909 3.6656642 -2.760548 5.7695355 -6.0558515 -3.733278 7.674354 4.2543736
6.667313 6.0413103 -3.0960505 -3.2011352 5.577575 4.952874 4.835515 4.841019
5.3328886 6.4593997 -4.635136 -4.263593 7.169419 5.2805586 4.778524 -6.318066
4.2257833 -5.203371 6.1723633 -4.4208145 -5.58091 -5.8296647 5.7547307 -6.3679366
-3.269138 5.3926287 -6.5508456 4.980964 -3.2332947

lstm.weight_ih_l0 f4 [180, 45]
00000000: 39ad 9740 2936 a4c0 d293 a5c0 f4e2 9f40
00000010: e646 a4c0 b008 a040 a706 9c40 8592 a440
00000020: 5564 9ac0 fde0 a440 66f7 9d40 506d a240
00000030: da1a a040 2263 9f40 6143 a1c0 db03 a540
00000040: 0ef1 9dc0 043c a5c0 186a 9fc0 5db0 a640
00000050: ed3a a7c0 5b9e ac40 f507 a640 5172 a0c0
00000060: 031c 8c40 7bf2 a7c0 09fc a640 2c88 a0c0
00000070: 1d44 a9c0 f247 a440 5b3a 9fc0 9bf1 a3c0
00000080: 07f2 9ec0 17cc a240 4e05 a440 8023 a4c0
00000090: 069b a0c0 171a 9f40 4513 a040 b78c a3c0
000000a0: 26c3 a0c0 82d8 a640 ccac a7c0 3e7f a3c0
000000b0: d384 a840 e2f5 a440 5581 aac0 a515 a5c0
000000c0: a70a a440 0444 a240 0cb6 a140 19d8 a140
000000d0: f942 a240 b02b 9ec0 c7c5 9e40 3080 9e40
000000e0: db3c 9dc0 fda1 a040 a9ac 9cc0 432d 9ec0
000000f0: f9bc 9c40 8ea3 a0c0 e258 9cc0 cba2 9dc0
00000100: 59a1 a640 9580 a7c0 acb4 a140 8401 ab40
00000110: bfe3 a3c0 a2a1 5dc0 2a2c a6c0 d613 a640
00000120: 9df6 9bc0 be61 a8c0 c0f2 a440 af2d 9fc0
00000130: 3c91 a3c0 b012 a5c0 b1f3 9e40 138e 9d40
00000140: fe91 a0c0 7dc5 a0c0 e5a9 a140 3b09 a340
00000150: d7bd 9bc0 1ed3 a0c0 005c a640 4b1c a1c0
00000160: 8593 97c0 2082 a740 96dd 9cc0 1dd5 a7c0
00000170: 16a7 a7c0 83f5 9d40 63e4 a0c0 4ea9 9f40
00000180: 7bc9 a0c0 da5e a740 b567 a4c0 4dad a2c0
00000190: 026d 9f40 30e7 6bc0 6854 a2c0 2d2e a340
000001a0: 605f 9d40 4aea 9c40 7e8a a240 ce8d 9d40
000001b0: ad25 9ec0 85e1 a640 d853 a6c0 2e92 a240
000001c0: 2e7f a140 6e70 a3c0 ab6b 20c0 7654 a2c0
000001d0: 92a7 aa40 01a4 9fc0 be9d a6c0 a17e a540
000001e0: 15b6 a440 db51 9c40 cc14 a1c0 caa2 a440
000001f0: 7eb8 9e40 6779 a140 bac1 a440 43c7 a340
00000200: ceee 9bc0 1e52 a1c0 5a7d 9f40 757d a440
00000210: 433f a8c0 bcba 9e40 57e0 a140 99c0 a540
00000220: 6a66 a9c0 9e90 a7c0 e0de a340 6c63 9ec0
00000230: 6938 9d40 76d6 a440 3f6e aa40 68d8 9dc0
00000240: c5c6 9dc0 dc57 a440 f9f5 99c0 d1aa 9b40
00000250: 31a2 a240 1108 a340 317f a240 7d29 a040
00000260: 8828 9cc0 4a8d a0c0 5d73 ad40 64f2 a4c0
00000270: e678 a340 a936 aa40 63ba acc0 e772 5f40
00000280: 4572 a8c0 221a a840 06a5 9dc0 fc66 acc0
00000290: 0c2d a940 db00 9ec0 df7b a540 db44 9dc0
000002a0: b21d 9d40 93d8 a140 c59f a2c0 5e8a 9cc0
000002b0: 1a65 9b40 a1e1 9dc0 2955 9ec0 91f2 a140
000002c0: 802a a540 1a02 a4c0 adbd 9e40 f7df a440
000002d0: ab60 9f40 4f59 a8c0 cffb aec0 eadd 9d40
000002e0: f456 9a40 428c a240 cd08 a040 3aea a640
000002f0: 2c77 a4c0 304d a4c0 51b6 9e40 5f62 a1c0
00000300: dbed 9c40 e62a 98c0 4489 a540 a91a a340
00000310: aaa1 9f40 9bb3 9ec0 2bf6 9bc0 bb8d ab40
00000320: b9b4 adc0 149e a440 b222 a840 f583 acc0
00000330: 6a3f 9340 decd adc0 6669 aa40 c3b0 9dc0
00000340: 90bc a5c0 57b5 a740 2f09 a0c0 ac3b a040
00000350: ad51 a1c0 558c a340 cee1 a340 c5d1 9dc0
00000360: 1989 9dc0 0481 a240 4c5b 9bc0 2e35 a2c0
00000370: 4fe9 a3c0 3a6f ab40 06d7 a6c0 d3a0 a440
00000380: 1bec a540 da37 a440 943c a6c0 30de aac0
00000390: 6055 9e40 a0b9 a3c0 7085 9f40 bbf8 9b40
000003a0: 8cb6 a440 4849 a2c0 c01f a5c0 4ff9 9f40
000003b0: 06fa 8ac0 f99f 9f40 395c a040 9a62 a140
000003c0: b000 a240 371d 9e40 a79f a3c0 fd14 a2c0
000003d0: 9afe a340 630a a7c0 e216 a240 9bc4 a340
000003e0: ce29 a8c0 deac 49c0 814d a9c0 4f4f a240
000003f0: 693d a4c0 8e3c a8c0 ceec aa40 6690 a1c0
4.7398953 -5.1316113 -5.1742945 4.9964542 -5.1336546 5.0010605 4.875812 5.1428857
-4.8247476 5.1524644 4.93645 5.075844 5.003278 4.980851 -5.039475 5.1567206
-4.9356756 -5.163576 -4.981701 5.2090287 -5.225943 5.3943305 5.1884713 -5.0139546
4.3784194 -5.2483497 5.218266 -5.0166225 -5.2895646 5.1337824 -4.9758735 -5.123243
-4.9670444 5.0874133 5.1256475 -5.1293335 -5.0189238 4.971935 5.002352 -5.110927
-5.023822 5.213929 -5.2398434 -5.1092825 5.266214 5.155015 -5.3282876 -5.158892
5.1263003 5.0708027 5.0534725 5.057629 5.0706754 -4.942833 4.9616427 4.953148
-4.9136786 5.019774 -4.8960767 -4.943025 4.898068 -5.019965 -4.88585 -4.926122
5.2071958 -5.234446 5.0533047 5.343935 -5.121551 -3.4629903 -5.192891 5.1899214
-4.873854 -5.2619314 5.1546326 -4.9743266 -5.111479 -5.158531 4.9672475 4.923593
-5.0178213 -5.0241075 5.051989 5.094877 -4.866924 -5.025771 5.1987305 -5.0347037
-4.7367578 5.2346344 -4.902049 -5.244765 -5.239146 4.9362197 -5.027879 4.989417
-5.024595 5.2303286 -5.1376595 -5.083655 4.9820566 -3.6859856 -5.0728035 5.0993867
4.9178925 4.9035997 5.079406 4.92356 -4.942099 5.2150292 -5.197735 5.080344
5.046775 -5.1074743 -2.5065715 -5.07281 5.3329554 -4.98877 -5.2067556 5.1717076
5.147227 4.884992 -5.0337887 5.1448717 4.960021 5.0460696 5.1486483 5.118074
-4.872901 -5.041274 4.9840517 5.1403146 -5.2577224 4.9602947 5.058635 5.1797605
-5.2937517 -5.2364035 5.1209564 -4.9496365 4.913136 5.1511793 5.325958 -4.932667
-4.930514 5.135725 -4.811276 4.8646016 5.0822988 5.0947347 5.0780263 5.0050645
-4.8799477 -5.017247 5.4203324 -5.1545887 5.108508 5.3191724 -5.3977523 3.491388
-5.263949 5.25319 -4.9263945 -5.3875713 5.286749 -4.9376044 5.171371 -4.914655
4.909875 5.0576873 -5.082003 -4.8918905 4.8560915 -4.9337926 -4.9478955 5.06086
5.161438 -5.1252565 4.960654 5.1523395 4.9805503 -5.260902 -5.4682384 4.933339
4.8231144 5.0796213 5.0010743 5.216092 -5.1395473 -5.1344223 4.9597554 -5.043258
4.904035 -4.7552366 5.173006 5.0970044 4.9884844 -4.9594245 -4.8738 5.361051
-5.428311 5.1442966 5.2542353 -5.391108 4.601491 -5.4313803 5.325366 -4.9278274
-5.179268 5.240886 -5.001121 5.007284 -5.04122 5.1108804 5.121314 -4.9318566
-4.9229856 5.078249 -4.8548946 -5.0689917 -5.12223 5.3573275 -5.213748 5.144632
5.1850715 5.131818 -5.194895 -5.3396225 4.9479218 -5.1164093 4.9850388 4.8741126
5.1472836 -5.0714455 -5.1601257 4.999183 -4.3430204 4.988278 5.0112576 5.0432863
5.062584 4.9410663 -5.113239 -5.065062 5.1248293 -5.220018 5.0652933 5.1177497
-5.255103 -3.151176 -5.290711 5.072181 -5.1324964 -5.257392 5.341407 -5.048877

lstm.weight_hh_l0 f4 [180, 45]
00000000: 1096 73bc 4b1e 103e 37b5 15be e0ef 823b
00000010: 84f7 14be 31a0 b9bd 08e3 1d3d 222c cc3d
00000020: 40ef c2bc 95e2 073e 0e7f 8a3d aaec 09be
00000030: 3024 18bd e058 b9bc 188d c2bc cc5f 803d
00000040: 6ac5 fb3d 46ea cfbd 5a5f a9bd 94f1 b5bd
00000050: 7883 e33c 6c35 753d e284 c8bd 1828 a53d
00000060: 2a7d 863d 02a6 34bd a43a 38bd e1a7 0ebe
00000070: 86e5 c2bd ccb7 2e3d 6007 6f3d a991 063e
00000080: 4657 0dbd 149d ce3d 1c78 a9bd 49f9 f3bd
00000090: 2eaa 02be 2451 c93d 385b c0bc c2cd f63d
000000a0: fcf2 5ebd 6d13 183e 801e 813d dd4f 8dbd
000000b0: 7282 a53d 9029 17bd acba cb3d e8e5 b5bc
000000c0: 0158 173e eed3 e33d 021b 0cbe 6060 0a3d
000000d0: d0ea 46bc 70f1 61bd 6435 9c3d 48dd ddbc
000000e0: a027 5fbd 1827 ccbd 36c3 f0bd 6a07 b73d
000000f0: 8685 c33d 18ea 9fbc fc42 bf3d ea87 82bd
00000100: 56c5 f83d 9e92 0dbd 26cd 8b3d c013 bd3c
00000110: cf51 113e f8df 93bc ea8e f3bd 76ea c5bd
00000120: c033 bebb a80c 0dbd 0cda c2bd d619 debd
00000130: f1b8 09be a4c3 1dbd d6de c63d 2824 b23c
00000140: 009b 4d3b 4d57 17be c033 f23b 2cfd 10be
00000150: 82b6 cabd 5469 92bd ff04 07be c001 86bc
00000160: c6a7 9e3d b2a5 d1bd 67bd 16be 22b4 e8bd
00000170: 1027 5a3c 8d6b 173e dac4 f13d c55a 0c3e
00000180: 40d8 543b fc75 5d3d 8082 2bbd 88ef eebd
00000190: a837 153d 8491 993d 4e29 e93d e084 b1bd
000001a0: 48bb c53c feba f4bd 2278 08be 16fd 8abd
000001b0: 74ef d8bd e5a5 e7bd d02c 39bc 95f7 01be
000001c0: e04d f0bd d256 d3bd d3fe babd b08a 1f3c
000001d0: 28e1 8ebc 2a1d 803d 582f c0bc 6cb4 713d
000001e0: baaa 0ebd b6b6 993d b058 843d 1a78 f53d
000001f0: a87c e63c 2af8 e8bd 64d1 4a3d 80db 433c
00000200: 68cb bcbd 0ed8 823d 9c51 0f3d 7857 b3bc
00000210: c62f ddbd da40 21bd aec6 afbd a807 983c
00000220: ea49 8bbd 8080 e6bb d64c 03bd d86c 303d
00000230: 8026 8c3d f863 eebc 14a5 b53d 082f 04be
00000240: 0b97 113e 8368 113e d1bc 023e 8aa2 afbd
00000250: 6699 1fbd 50db 123d b4d0 fbbd faf1 dc3d
00000260: 80b7 c83b fdac 003e e6fd ffbd 1692 25bd
00000270: f22f 08be 48fb 5dbd 1821 cd3c 0076 64bb
00000280: 684f 7a3d 2c09 47bd 3031 34bd 3969 e8bd
00000290: eaaa 13be 1575 013e 816b d3bd f9db f8bd
000002a0: 88f4 0ebd 0032 5abc 8847 ea3c 2e43 dbbd
000002b0: 1d07 e1bd ef07 02be 7e02 a13d 94b8 8d3d
000002c0: 407c 88bd 0088 153b b060 e4bc 54db 153d
000002d0: 8ca6 c0bd cd37 9ebd 00e4 f4bc 6248 17bd
000002e0: aa52 a4bd 94d9 e3bd 08f1 9cbc fad5 f1bd
000002f0: 543c fabc 2957 013e 4087 3a3d 707e 593c
00000300: 608c 1cbd 0e09 913d 5093 543d 4eef a63d
00000310: c431 9e3d d856 8a3c 4079 bdbc 7689 fdbd
00000320: 1e2c dfbd 46a0 af3d 781e e8bc f085 073c
00000330: ecdd 06be 18c8 cbbd fb6c a8bd ce30 de3d
00000340: ba23 e63d ee8a 2dbd c7bd 8abd 5a0f d63d
00000350: 9ce7 b03d 6a6b b0bd ee35 e93d cccb 6e3d
00000360: b004 643c 9e79 8bbd bc48 c73d c7e8 aebd
00000370: c023 edbb 5130 d9bd 89e0 14be bfb2 8ebd
00000380: f602 59bd 80a6 763d b8df b53d cbb6 01be
00000390: ae31 ae3d 0e8e dbbd af97 0e3e 7fd9 c1bd
000003a0: c417 0b3d b0d2 3f3d 9e9d 07bd 7d93 a8bd
000003b0: 0de5 0d3e f148 173e 51c9 043e a2c7 58bd
000003c0: 805d 503c f21b b8bd 00c3 0fba af37 ecbd
000003d0: b8bf 48bd 18d3 653d 2846 bcbd 165e b3bd
000003e0: 1a8b e03d b0f3 57bd 14c3 8ebd f6a7 8f3d
000003f0: 4aee e3bd 0ae6 04bd 80d1 023b 9a9d f43d
-0.014867321 0.14074056 -0.14619909 0.0039958805 -0.14547545 -0.09063757 0.038546592 0.09969355
-0.023795724 0.13270028 0.06762515 -0.13469186 -0.037143886 -0.022625387 -0.02374892 0.06268272
0.12293513 -0.10152106 -0.0827014 -0.08883968 0.02777265 0.0598654 -0.097909704 0.08064288
0.06566842 -0.04410363 -0.0449778 -0.13931228 -0.09516434 0.04265575 0.058356643 0.13141502
-0.03450706 0.10088554 -0.08274862 -0.11912782 -0.12760231 0.098299295 -0.023480996 0.12050964
-0.054430947 0.1485116 0.063046455 -0.06899998 0.08081521 -0.03690487 0.09947714 -0.022204354
0.14779665 0.11124407 -0.13682178 0.033783317 -0.012140945 -0.055161893 0.07627371 -0.027083054
-0.05448115 -0.09968394 -0.117559835 0.08936961 0.09546952 -0.019520804 0.09338948 -0.0637358
0.12147014 -0.034563653 0.06826238 0.023080707 0.14191364 -0.018051133 -0.11892493 -0.096638605
-0.005804509 -0.034435898 -0.095142454 -0.108447716 -0.13449456 -0.038516656 0.09710471 0.021745756
0.0031372905 -0.14779396 0.007391423 -0.14159077 -0.09898092 -0.07148996 -0.131855 -0.016358256
0.07746844 -0.10236682 -0.14720689 -0.113624826 0.013314977 0.14787121 0.118051246 0.13706501
0.0032477528 0.054067597 -0.0418725 -0.11666781 0.03643003 0.07498458 0.11384831 -0.08667922
0.024137154 -0.119497284 -0.13327077 -0.067865536 -0.10592547 -0.11310939 -0.011302188 -0.12692101
-0.117336035 -0.10319294 -0.09130635 0.0097376555 -0.017441347 0.062555626 -0.023460075 0.059009954
-0.034830786 0.075055525 0.06462228 0.11985798 0.028135613 -0.113754585 0.049516097 0.011954188
-0.09218484 0.063888654 0.03498994 -0.021892294 -0.10800128 -0.039368488 -0.08582817 0.018558338
-0.06801207 -0.0070343614 -0.0320557 0.04307255 0.06843281 -0.029100403 0.08869377 -0.12908566
0.14217775 0.14200024 0.1276734 -0.08575924 -0.03896465 0.035853684 -0.12295666 0.10788341
0.0061253905 0.1256599 -0.12499599 -0.04042252 -0.1329954 -0.05419472 0.025040194 -0.0034860373
0.061110884 -0.04859273 -0.04399222 -0.11348195 -0.14420667 0.1264232 -0.10323239 -0.121513315
-0.034901172 -0.013317585 0.028598562 -0.10706173 -0.10987685 -0.12698339 0.078618035 0.06919971
-0.06664324 0.0022816658 -0.027878135 0.03658612 -0.09406766 -0.07725487 -0.029893875 -0.036934264
-0.080235794 -0.11125484 -0.019157901 -0.11808391 -0.030546345 0.12630905 0.04553914 0.013274774
-0.03821981 0.07081805 0.0518983 0.081511125 0.07724336 0.016887113 -0.023129106 -0.12379734
-0.108970866 0.085754916 -0.028334841 0.008271679 -0.13170594 -0.09950274 -0.082239114 0.108491525
0.11237283 -0.04236882 -0.067744784 0.10452147 0.08637926 -0.086142376 0.113872394 0.058299825
0.013917133 -0.06810306 0.0973067 -0.085404925 -0.0072369277 -0.10604919 -0.14538778 -0.06967687
-0.05298134 0.06021738 0.088805616 -0.12667386 0.085055694 -0.10720454 0.1392505 -0.09465312
0.03395821 0.046831787 -0.0331093 -0.08231256 0.13856907 0.14773919 0.12967421 -0.05292476
0.012717605 -0.08989705 -0.00054840744 -0.11534058 -0.049010962 0.056109518 -0.09193069 -0.0875818
0.109640315 -0.052722633 -0.06970802 0.07014458 -0.111294344 -0.032445945 0.0019961298 0.119441226

lstm.bias_ih_l0 f4 [180]
00000000: 5cd1 b640 c85e b840 f0b6 b540 a7de b740
00000010: 0043 b940 8447 b540 2b0a ba40 a990 b940
00000020: 60aa b440 90b7 b840 130d b740 225c b840
00000030: faae b740 80d4 b940 3a08 ba40 e111 b140
00000040: a55b b340 35c4 b940 0415 bd40 4bdf b640
00000050: 37a5 b840 e4e8 b940 7251 b740 cf20 b740
00000060: e7d7 b440 2033 b640 2643 b740 1c0e b540
00000070: 00b7 b740 c125 bd40 43c2 bc40 24db b840
00000080: 979d b740 ae9a b640 9be7 bf40 b069 b640
00000090: 0aa8 ba40 31dc b340 aa04 bc40 a63b bf40
000000a0: f614 b940 273e bc40 a0b6 c040 8140 b940
000000b0: cb11 bc40 8c08 9ebd 001a de3b a0bd efbb
000000c0: 8cae 0d3d 7809 1dbd 18b0 be3d a23b cf3d
000000d0: c424 b63d 12a1 25bd d601 14bd 86e2 e53d
000000e0: 1652 d63d b821 2f3d 32b4 6cbd d4c3 f0bd
000000f0: 2045 adbb 20d5 97bb 302d c0bd 8ca9 913d
00000100: 34c6 ae3d 9c77 893d 509e bcbc ae25 b3bd
00000110: 8485 0ebe 5e0a b6bd 0062 aebd 3785 a7bd
00000120: 619f d2bd 127a 93bd 7773 143e 6431 a3bd
00000130: 98f6 623d 3ed0 c1bd 9640 c33d 4723 0abe
00000140: 4cb7 343d a709 153e a2b3 9ebd 781e 9c3c
00000150: 04c8 12be 867a 78bd ca2c e53d 84e3 c03d
00000160: 64ef 513d 76ee a83d fdb4 c4c0 1f5c bbc0
00000170: 9021 bc40 426e c2c0 84d7 c3c0 bc43 b7c0
00000180: 42eb c3c0 e572 b9c0 1339 b840 a67f b440
00000190: 105f b2c0 3870 ce40 26ad cbc0 dd5e bec0
000001a0: 5b60 c340 6f0c b740 8743 b0c0 fbdd b240
000001b0: b62a ca40 2414 c140 b1d9 b240 9d5c b4c0
000001c0: c6c7 c2c0 fa7c b340 ae65 bd40 eadc b8c0
000001d0: 3a01 bcc0 cccf c140 9af6 ba40 35f8 b340
000001e0: 1e2c b3c0 a050 bbc0 ddff be40 d0f8 b540
000001f0: 6172 b2c0 39c1 b940 dfcf b040 b2c8 bc40
00000200: d6e1 c1c0 6115 be40 76df ba40 5ae6 bcc0
00000210: 79b2 c7c0 3db5 b6c0 3fe7 b8c0 5a1f bb40
00000220: c4e3 b840 d330 bd40 f210 b840 4197 b740
00000230: 1bdb b840 21cc b740 b75d b940 5ead bb40
00000240: 25e5 bf40 e5e9 bb40 1456 c040 0325 bc40
00000250: 0909 ba40 f6b6 be40 0431 bb40 ba6d b940
00000260: 677f ba40 69a2 bf40 e8ed ba40 5c2b b940
00000270: 319f be40 95df ba40 c111 bb40 9bdd b740
00000280: 3796 bd40 7eb4 ba40 7e59 b340 0acd b240
00000290: 4289 c040 8579 bd40 701a b740 83be b640
000002a0: dbfc b840 be82 c040 bc2d b840 4df4 ba40
000002b0: 0304 bb40 56b7 bc40 96fb ba40 e574 b740
000002c0: 1194 bc40 56bc c140 b49c b440 f958 b640
5.7130566 5.76157 5.678581 5.7459292 5.7894287 5.66498 5.813741 5.7989087
5.6457977 5.7724075 5.720346 5.7612467 5.7401094 5.80719 5.813504 5.5334325
5.604937 5.805201 5.9088154 5.7147574 5.770168 5.809679 5.728692 5.722755
5.6513553 5.693741 5.726947 5.6579723 5.741089 5.9108586 5.8987136 5.7767506
5.737987 5.706382 5.997022 5.7004013 5.8330126 5.620629 5.8755693 5.9760313
5.7838087 5.882587 6.022293 5.789124 5.877172 -0.07716474 0.006778002 -0.0073163062
0.03459029 -0.03833911 0.09310931 0.10118796 0.08893731 -0.04043681 -0.036134563 0.112248465
0.104648754 0.042756766 -0.057789035 -0.11756101 -0.0052877814 -0.004633561 -0.09383619 0.071124166
0.08533898 0.06712267 -0.023024708 -0.08747421 -0.1391812 -0.08888696 -0.08514786 -0.081797056
-0.10284305 -0.072010174 0.14497171 -0.07968405 0.05541095 -0.09463547 0.09533803 -0.1349002
0.044120118 0.14554463 -0.07749106 0.019057497 -0.14334112 -0.060663722 0.111901835 0.09418395
0.05125369 0.08248608 -6.1470933 -5.8549953 5.879097 -6.075959 -6.120058 -5.7270184
-6.122468 -5.795275 5.756967 5.640582 -5.5741043 6.4511986 -6.3648863 -5.94908
6.105512 5.720268 -5.508243 5.589597 6.3177137 6.0337086 5.5890737 -5.6363053
-6.0868864 5.609006 5.918662 -5.776967 -5.8751497 6.056616 5.8426027 5.6240487
-5.5991354 -5.853592 5.9687333 5.6866226 -5.5764623 5.8048368 5.525375 5.899499
-6.058818 5.9401097 5.839778 -5.903119 -6.240536 -5.709624 -5.7782283 5.847577
5.7778034 5.91221 5.7520685 5.7372136 5.7767463 5.743668 5.79269 5.864913
5.9967217 5.8723016 6.0105076 5.879518 5.813603 5.959834 5.8497334 5.7946444
5.828052 5.9885755 5.8415413 5.786543 5.9569325 5.8397927 5.845917 5.7458014
5.924587 5.8345327 5.6046743 5.587529 6.016755 5.921084 5.721977 5.710756
5.780866 6.0159597 5.755583 5.842322 5.8442397 5.89738 5.843211 5.7330194
5.8930745 6.05424 5.644129 5.698361
