Ni_prediction/savemodel/bst_mod_460.pth (torch_old, 533443 bytes, 44 tensors)

price_encoder.attention.weight f4 [1, 121]
6.9115734 6.9464307 6.859316 -6.94889 -6.790679 6.7899485 6.9065685 -6.737666
6.8882737 6.847355 6.8503656 6.9257684 -6.8035254 -6.865917 -6.872361 6.8184524
6.7908216 -6.82216 6.714507 6.8762016 6.7235637 6.87094 6.921245 -6.908618
-6.909899 6.8508186 -6.8055186 -6.921229 -6.9003544 -6.8271365 6.8912287 -6.848427
6.8635774 6.9526634 6.798423 6.8559875 -6.91068 6.9201775 6.880899 -6.9092016
6.8692656 6.9554977 6.8251505 6.9160438 6.8243036 6.9180174 6.9176745 6.917646
6.951316 6.851721 6.8139286 6.8384113 6.900339 6.8381276 6.7736425 6.8760643
6.8985343 -6.94381 -6.8752074 6.9629016 6.810804 -6.930084 -6.895227 -6.7710257
-6.9465094 6.9332237 6.8691564 6.8306904 6.807973 -6.8608003 -6.8464327 6.8783665
6.892827 6.805976 -6.8122487 6.7892833 -6.8118405 5.864877 6.9328356 6.89825
-6.799289 -6.808623 6.877314 6.840243 6.940394 -6.9513025 -6.7854557 -6.955273
6.9246016 6.9206514 6.9521646 6.945425 6.837933 6.929561 -6.823869 -6.955204
-6.8247747 6.8917403 -6.908953 6.7651424 6.8294363 6.8424406 6.870863 6.937886
6.9142604 6.820209 6.7882195 6.9170694 6.923431 6.8700147 6.785872 6.874438
6.779405 6.8937707 6.9419737 6.7871814 6.841539 6.834333 6.9264283 6.886683
6.9175587
00000000: 9c2b dd40 2949 de40 847f db40 4f5d dec0
00000010: 3e4d d9c0 4247 d940 9c02 dd40 f69a d7c0
00000020: bd6c dc40 881d db40 3236 db40 e59f dd40
00000030: 7bb6 d9c0 98b5 dbc0 62ea dbc0 c330 da40
00000040: 694e d940 224f dac0 3edd d640 d809 dc40
00000050: 6f27 d740 bede db40 d77a dd40 6613 ddc0
00000060: e51d ddc0 e839 db40 cfc6 d9c0 b57a ddc0
00000070: b4cf dcc0 e777 dac0 f284 dc40 5026 dbc0
00000080: 6da2 db40 387c de40 ae8c d940 4064 db40
00000090: 4a24 ddc0 1872 dd40 5330 dc40 2e18 ddc0
000000a0: 06d1 db40 7093 de40 a267 da40 3b50 dd40
000000b0: b260 da40 6660 dd40 975d dd40 5b5d dd40
000000c0: 2e71 de40 4c41 db40 b40b da40 44d4 da40
000000d0: 94cf dc40 f1d1 da40 aec1 d840 b808 dc40
000000e0: cbc0 dc40 b133 dec0 b301 dcc0 17d0 de40
000000f0: 1bf2 d940 40c3 ddc0 b3a5 dcc0 3eac d8c0
00000100: ce49 dec0 f8dc dd40 21d0 db40 0495 da40
00000110: eada d940 ad8b dbc0 fa15 dbc0 941b dc40
00000120: 0a92 dc40 8eca d940 f1fd d9c0 cf41 d940
00000130: 99fa d9c0 13ad bb40 cad9 dd40 77be dc40
00000140: c793 d9c0 3de0 d9c0 f512 dc40 45e3 da40
00000150: b517 de40 1271 dec0 7422 d9c0 9991 dec0
00000160: 5696 dd40 fa75 dd40 2278 de40 ec40 de40
00000170: 59d0 da40 f7be dd40 235d dac0 0891 dec0
00000180: 8e64 dac0 2389 dc40 2516 ddc0 0c7c d840
00000190: be8a da40 46f5 da40 1cde db40 2a03 de40
000001a0: 9f41 dd40 273f da40 1839 d940 a258 dd40
000001b0: bf8c dd40 29d7 db40 dd25 d940 65fb db40
000001c0: e3f0 d840 c599 dc40 a624 de40 9730 d940
000001d0: e3ed da40 dbb2 da40 4da5 dd40 b55f dc40
000001e0: a45c dd40

price_encoder.encoder.weight_ih_l0 f4 [180, 45]
-0.10081503 -0.11793174 0.032030195 0.08252931 -0.05553808 0.10434081 0.0786314 -0.12203796
-0.10363906 -0.011906922 -0.11033716 -0.057845883 -0.026593558 0.030670568 -0.12094639 0.015055522
0.050929055 -0.08312994 0.09051782 0.11508541 0.108163126 0.06857662 -0.10666169 -6.7634544
-0.14499222 -0.14838655 -0.12169918 0.12855284 0.13309984 0.036279887 -0.13216035 -0.007720217
0.1171736 6.6238437 6.823576 6.8409376 6.8574815 6.8620615 -0.48450768 6.809245
7.018165 6.946873 6.806908 0.024258867 -0.12438552 -0.124988355 0.069964014 0.11046785
0.04484487 0.09187691 0.12445262 -0.06899052 0.08624848 0.061352294 0.03135532 0.091763556
-0.02062574 0.06786533 0.12960862 0.012076467 -0.14174514 -0.13400184 0.004851505 -0.0328466
0.104503736 2.6588137 0.053675722 -0.037785746 6.7298408 -0.12055867 -0.14411847 0.12071128
-0.04557728 -0.14222291 -0.0031163245 -0.043618716 0.1389936 -0.09410692 6.786788 6.744066
6.8452997 6.7989316 7.0029817 -0.1321793 6.8090916 6.775326 6.7896338 6.950408
0.040094435 0.04406303 0.1055657 -0.0067753885 -0.11744948 -0.10958954 0.028270796 0.050471894
0.0652335 0.066577904 -0.027307652 -0.083775625 -0.13097677 0.019675344 -0.04967653 -0.101086855
0.0057055205 0.016693756 0.09478618 -0.09748939 0.014427438 -0.079051286 2.3772252 0.0031859423
-0.053001188 6.8276615 -0.05385317 0.040727615 -0.044189923 0.011743477 -0.1010541 0.14104538
-0.10903217 0.14078091 -0.13879293 6.978733 6.7429523 6.84133 6.9069967 6.9591126
-6.778012 6.828413 6.947327 6.748463 6.818099 0.05854948 -0.0628588 0.097312465
-0.05437591 -0.12997267 -0.021355037 -0.039175212 0.11592518 0.120828584 0.09469982 -0.0043342565
0.07895869 0.112611786 0.11571257 0.098501086 -6.7365503 0.035623893 0.06157522 -0.036585532
-0.009238392 2.8172073 0.0435498 -0.35655114 -0.017310027 0.0568753 -6.8665686 0.048548266
0.14540882 -0.06431627 -0.08895911 -6.894197 0.08551687 0.09739812 -5.712923 -0.090427786
-6.9713 -6.9489503 -6.782016 -6.7982254 -6.942677 -0.0971231 -6.8049955 -6.8736258
-6.7822847 -6.790469 0.078700915 0.03697005 -0.08606263 -0.021043167 0.08415489 0.13774158
0.086464375 0.14366142 -0.13798758 -0.14354962 -0.08814168 -0.05214633 0.05319175 -0.14534812
-0.10576667 -0.0815159 -0.0072434545 0.08716659 -0.03337206 -0.090265244 0.03837815 -0.08749646
-0.12489915 0.085678264 0.041135293 -6.842764 0.10023822 0.14138605 0.07517514 0.02732578
0.12808414 0.12216337 0.05401829 -0.017108917 -0.10490509 -6.7264986 -6.969472 -7.001139
-6.8124022 -6.87715 -0.005410418 -6.85294 -6.7608547 -6.7247305 -6.9368744 -0.0796645
-0.011409387 -0.016923768 0.06550309 0.014936879 -0.03827378 0.12666835 0.14669965 -0.0015491493
0.14879559 0.06344125 0.11312817 -0.13156295 0.09171176 -0.09136476 6.787233 0.008749828
0.001897186 0.03890367 0.02564998 -0.10336681 0.07761794 -0.1147193 -0.07747068 -0.0004938169
-7.021687 0.027119339 -0.09090344 0.118399784 -0.03892406 6.8778806 0.06411139 0.13539745
00000000: 1c78 cebd 3286 f1bd 1832 033d 2005 a93d
00000010: e67b 63bd a2b0 d53d 8009 a13d 0aef f9bd
00000020: b740 d4bd 4015 43bc 73f8 e1bd ceef 6cbd
00000030: bcda d9bc d840 fb3c beb2 f7bd 70ab 763c
00000040: fc9a 503d 0840 aabd 6861 b93d e6b1 eb3d
00000050: a184 dd3d e671 8c3d 7271 dabd 386e d8c0
00000060: d778 14be a5f2 17be 6b3d f9bd 5ba3 033e
00000070: 534b 083e 389a 143d 0b55 07be e0f9 fcbb
00000080: b6f8 ef3d 87f6 d340 bc5a da40 f6e8 da40
00000090: 7d70 db40 0296 db40 6411 f8be 56e5 d940
000000a0: cf94 e040 c94c de40 31d2 d940 88ba c63c
000000b0: d6bd febd e5f9 ffbd 4b49 8f3d f83c e23d
000000c0: 41af 373d f629 bc3d 04e1 fe3d e74a 8dbd
000000d0: 0ba3 b03d 8b4c 7b3d 706e 003d 88ee bb3d
000000e0: 50f7 a8bc fafc 8a3d 1fb8 043e 60dc 453c
000000f0: a325 11be c737 09be 60f9 9e3b 288a 06bd
00000100: 0e06 d63d 012a 2a40 13db 5b3d 3ac5 1abd
00000110: db5a d740 77e7 f6bd cb93 13be 7a37 f73d
00000120: 3eaf 3abd e2a2 11be 403b 4cbb 8aa9 32bd
00000130: 5754 0e3e 21bb c0bd 5e2d d940 64cf d740
00000140: b20c db40 d990 d940 6d18 e040 035a 07be
00000150: 14e4 d940 78cf d840 ae44 d940 be69 de40
00000160: 103a 243d 707b 343d d432 d83d 1404 debb
00000170: 5a89 f0bd 7b70 e0bd 2898 e73c 9ebb 4e3d
00000180: 2499 853d ff59 883d 4cb4 dfbc 8e92 abbd
00000190: c61e 06be 302e a13c 9e79 4bbd a006 cfbd
000001a0: 60f5 ba3b 58c1 883c 421f c23d 84a8 c7bd
000001b0: 1061 6c3c a4e5 a1bd 7524 1840 3ecb 503b
000001c0: c617 59bd 347c da40 2495 5cbd 00d2 263d
000001d0: 7e00 35bd b667 403c 74f5 cebd 336e 103e
000001e0: 424c dfbd df28 103e bc1f 0ebe c851 df40
000001f0: 44c6 d740 2dec da40 1e06 dd40 0db1 de40
00000200: 79e5 d8c0 5c82 da40 8150 de40 69f3 d740
00000210: de2d da40 94d1 6f3d 1dbc 80bd c24b c73d
00000220: 46b9 5ebd 8e17 05be c2f0 aebc 3076 20bd
00000230: 2e6a ed3d fa74 f73d fbf1 c13d 6106 8ebb
00000240: 18b5 a13d 02a1 e63d b6fa ec3d f0ba c93d
00000250: d291 d7c0 5cea 113d 4c36 7c3d b6da 15bd
00000260: a05c 17bc 204d 3440 4661 323d df8d b6be
00000270: c2cd 8dbc 13f6 683d eeba dbc0 8cda 463d
00000280: 0de6 143e 40b8 83bd 3230 b6bd 439d dcc0
00000290: 7823 af3d aa78 c73d 44d0 b6c0 3432 b9bd
000002a0: e414 dfc0 cd5d dec0 4606 d9c0 108b d9c0
000002b0: 692a dec0 7ae8 c6bd 86c2 d9c0 bef4 dbc0
000002c0: 7a08 d9c0 864b d9c0 f22d a13d e86d 173d
000002d0: 9b41 b0bd b862 acbc 6659 ac3d 210c 0d3e
000002e0: 3c14 b13d fb1b 133e 9e4c 0dbe acfe 12be
000002f0: a083 b4bd 6497 55bd 98df 593d 23d6 14be
00000300: 329c d8bd cff1 a6bd 805a edbb 6684 b23d
00000310: 24b1 08bd fcdc b8bd 6832 1d3d 5831 b3bd
00000320: 20cb ffbd 1678 af3d 7b7d 283d ecf7 dac0
00000330: b249 cd3d 81c7 103e 6cf5 993d 50da df3c
00000340: 7d28 033e ca30 fa3d 4842 5d3d 0028 8cbc
00000350: 7bd8 d6bd 7a3f d7c0 ea05 dfc0 5509 e0c0
00000360: 33ff d9c0 9d11 dcc0 e049 b1bb 494b dbc0
00000370: ec58 d8c0 fe30 d7c0 e0fa ddc0 2427 a3bd
00000380: 70ee 3abc b7a3 8abc 7c26 863d d0b9 743c
00000390: f8c4 1cbd 59b5 013e 6f38 163e d30c cbba
000003a0: df5d 183e 7ced 813d beaf e73d 70b8 06be
000003b0: 60d3 bb3d 731d bbbd 0331 d940 705b 0f3c
000003c0: 00ab f83a 7459 1f3d e81f d23c fab1 d3bd
000003d0: 28f6 9e3d f4f1 eabd f3a8 9ebd 7e73 01ba
000003e0: a9b1 e0c0 6029 de3c 952b babd 967b f23d
000003f0: d66e 1fbd 9917 dc40 d54c 833d a1a5 0a3e

price_encoder.encoder.weight_hh_l0 f4 [180, 45]
6.986583 6.8965063 6.7593617 -6.7604737 6.8641124 6.8087897 6.8534017 -6.9897113
-6.8563447 -6.8012033 -6.96266 6.93826 -6.811386 -6.8739557 6.793573 -7.005714
6.780072 -6.9059267 6.732657 -6.997489 6.735239 6.851858 6.7512155 6.7892804
-6.8444967 -6.7264285 -6.760903 6.8152 -6.7322474 -6.8169427 6.7764745 -6.8847857
6.854566 6.883438 6.857603 -6.7300544 -6.82912 6.91174 6.78986 7.0216646
6.9700055 6.8077826 -6.9135423 7.003277 -6.965555 -6.9898124 -6.928778 -6.8712616
6.9193344 -6.7849574 -6.9634604 -6.7650843 -6.952012 6.818613 -6.934114 6.7938976
-7.0165415 6.7422504 6.8137064 -6.882006 6.9909964 -6.8203974 6.7388997 -6.78612
6.872442 6.780738 -6.9587708 -6.7802 -6.892605 6.995441 6.9387317 6.786886
-6.827513 6.7324066 6.915707 -7.0030684 6.9252634 -6.8901205 -6.9251904 -6.77772
6.7531447 6.852893 -6.960122 -6.7539163 -6.9507413 -6.873011 -6.8341208 6.9274125
-6.7845926 6.791034 -6.80639 -6.9339156 -6.9981456 6.889939 -6.758046 -6.8912334
-6.738119 -6.82486 6.9054303 -6.8411636 7.011686 -6.832041 6.988517 6.925108
-6.766327 6.751706 -6.957296 6.9850554 -7.016495 -6.922656 6.774143 -6.810283
-6.937259 -6.9085445 6.815121 6.8815594 6.830678 -6.9750834 6.759843 7.0149045
-6.8119593 6.7903414 -6.744125 -6.9047117 -6.9351335 6.944105 6.7791033 -6.7315683
-6.7770634 -6.7642007 -6.7385035 -6.8465023 6.8679185 -6.8334546 6.913935 6.970444
6.8323493 6.941241 -6.9067283 6.9195356 6.76332 6.8004284 6.7687 -6.8210645
6.9532576 -6.781973 6.7743974 6.9152727 -6.821395 6.9512615 -6.8805165 6.764728
-6.8748603 6.899847 6.911727 -6.865821 6.8040233 6.965025 6.9006777 -6.7375855
-6.834739 6.8486066 6.7825294 -7.003675 -6.9951425 6.9498177 -6.8212156 6.7945604
7.0046134 7.017732 -6.9816895 -6.7827806 6.8904433 6.802471 6.808075 6.955368
6.763911 -7.01029 6.7753744 -6.873142 6.7412624 6.8054953 7.000417 -6.9438624
6.730469 6.792662 7.019511 6.980719 -6.972639 6.9439178 -6.902612 6.8690557
-6.905148 -6.7777004 6.750315 -6.768527 6.844028 -6.759679 6.765418 6.956978
-6.7416024 6.73932 6.8407507 7.005523 -6.850042 -6.8173223 6.911535 6.935271
-6.8354735 -6.7425804 6.788747 -6.9870334 6.8926187 7.016439 6.979037 -6.7743516
-6.8515434 6.7668815 6.9581437 6.9175425 6.821957 6.937004 -6.8500423 6.761565
-6.7507463 6.8229895 6.9119353 6.955768 -6.993263 6.964093 6.753835 6.8143754
6.9883986 -6.8265233 7.017273 -6.840757 6.7727985 -6.7353544 -6.8373027 6.822538
-6.91452 6.988866 -6.9787683 6.899446 6.992525 -6.776721 6.8243656 6.7437553
6.734877 -6.88105 -6.8987503 6.7249913 6.9877377 -6.7954774 -7.0011106 6.855646
00000000: 1792 df40 2eb0 dc40 b14c d840 cd55 d8c0
00000010: cfa6 db40 9be1 d940 114f db40 b7ab dfc0
00000020: 2d67 dbc0 75a3 d9c0 1cce dec0 3a06 de40
00000030: e0f6 d9c0 72f7 dbc0 f364 d940 cf2e e0c0
00000040: 5af6 d840 5afd dcc0 ed71 d740 6eeb dfc0
00000050: 1487 d740 6c42 db40 f509 d840 c941 d940
00000060: 1e06 dbc0 e73e d7c0 5159 d8c0 1e16 da40
00000070: 926e d7c0 6524 dac0 e1d8 d840 2a50 dcc0
00000080: 9b58 db40 2045 dc40 7c71 db40 9b5c d7c0
00000090: 2788 dac0 f92c dd40 8846 d940 7ab1 e040
000000a0: 490a df40 5bd9 d940 bd3b ddc0 d81a e040
000000b0: d4e5 dec0 8bac dfc0 8db8 ddc0 60e1 dbc0
000000c0: 306b dd40 5f1e d9c0 abd4 dec0 927b d8c0
000000d0: e276 dec0 1432 da40 43e4 ddc0 9c67 d940
000000e0: 8287 e0c0 84c0 d740 e209 da40 6539 dcc0
000000f0: 3eb6 df40 b240 dac0 11a5 d740 e527 d9c0
00000100: 0beb db40 cefb d840 40ae dec0 66f7 d8c0
00000110: 3890 dcc0 a7da df40 170a de40 2c2e d940
00000120: fd7a dac0 e06f d740 794d dd40 2319 e0c0
00000130: c29b dd40 de7b dcc0 299b ddc0 15e3 d8c0
00000140: c319 d840 e64a db40 52b9 dec0 1520 d8c0
00000150: 796c dec0 b5ef dbc0 1eb1 dac0 5dad dd40
00000160: 621b d9c0 2750 d940 f2cd d9c0 a3e2 ddc0
00000170: cff0 dfc0 617a dc40 ea41 d8c0 fc84 dcc0
00000180: ac9e d7c0 4165 dac0 49f9 dc40 d0ea dac0
00000190: bb5f e040 14a0 dac0 eea1 df40 7c9a dd40
000001a0: c085 d8c0 fa0d d840 2ba2 dec0 9385 df40
000001b0: 2187 e0c0 6686 ddc0 c8c5 d840 d7ed d9c0
000001c0: 07fe ddc0 cc12 ddc0 7915 da40 bc35 dc40
000001d0: ea94 da40 e233 dfc0 a250 d840 197a e040
000001e0: 92fb d9c0 7a4a d940 dfcf d7c0 66f3 dcc0
000001f0: 9dec ddc0 1c36 de40 6aee d840 0269 d7c0
00000200: b4dd d8c0 5574 d8c0 d2a1 d7c0 8c16 dbc0
00000210: fdc5 db40 a9ab dac0 f53e dd40 e10d df40
00000220: 9ba2 da40 a51e de40 eb03 ddc0 d66c dd40
00000230: 1e6d d840 1c9d d940 3199 d840 2946 dac0
00000240: 1681 de40 ec05 d9c0 ddc7 d840 ea49 dd40
00000250: de48 dac0 bc70 de40 312d dcc0 a778 d840
00000260: dbfe dbc0 8ccb dc40 de2c dd40 ceb4 dbc0
00000270: 8fba d940 7ce1 de40 5ad2 dc40 4d9a d7c0
00000280: 2fb6 dac0 c927 db40 7b0a d940 1b1e e0c0
00000290: 35d8 dfc0 e864 de40 6647 dac0 0a6d d940
000002a0: cb25 e040 4391 e040 006a dfc0 8a0c d9c0
000002b0: 837e dc40 d8ad d940 c0db d940 6092 de40
000002c0: f571 d840 4c54 e0c0 decf d840 c7f0 dbc0
000002d0: 6cb8 d740 9ec6 d940 6b03 e040 1f34 dec0
000002e0: 0160 d740 7d5d d940 d69f e040 0d62 df40
000002f0: dc1f dfc0 9334 de40 33e2 dcc0 4ecf db40
00000300: f9f6 dcc0 ece2 d8c0 9502 d840 c697 d8c0
00000310: 4702 db40 4a4f d8c0 4e7e d840 909f de40
00000320: 35bb d7c0 82a8 d740 6ee7 da40 3f2d e040
00000330: 8b33 dbc0 8127 dac0 4b2b dd40 bded dd40
00000340: 33bc dac0 38c3 d7c0 6a3d d940 c795 dfc0
00000350: 5590 dc40 ab86 e040 4554 df40 7dc7 d8c0
00000360: d83f dbc0 4b8a d840 1da9 de40 825c dd40
00000370: 794d da40 f0fb dd40 8c33 dbc0 be5e d840
00000380: 1d06 d8c0 ee55 da40 932e dd40 a795 de40
00000390: cfc8 dfc0 dad9 de40 6b1f d840 5d0f da40
000003a0: f6a0 df40 e172 dac0 808d e040 7be7 dac0
000003b0: c4ba d840 0688 d7c0 2fcb dac0 3b52 da40
000003c0: bf43 ddc0 caa4 df40 1252 dfc0 43c8 dc40
000003d0: c4c2 df40 e6da d8c0 3461 da40 d8cc d740
000003e0: 1d84 d740 9031 dcc0 90c2 dcc0 2133 d740
000003f0: 8c9b df40 8d74 d9c0 1909 e0c0 7461 db40

price_encoder.encoder.bias_ih_l0 f4 [180]
-6.9276867 6.9968357 6.834702 -6.7983437 -6.979887 -6.827398 6.9564586 -6.842457
6.9694033 -6.9430976 -6.811525 -6.8968344 -7.0067987 6.882097 6.8000827 6.998955
-6.942323 6.778903 -6.958431 -7.0147877 -6.907088 -6.7284403 -6.878685 6.8447747
-6.9450154 -6.884032 -6.776126 6.846636 -6.9201317 6.839569 6.7778563 -7.01103
6.991603 -6.943679 -6.7914524 6.8325844 -6.828097 -7.022649 -6.7380953 6.925484
6.78533 6.6752486 -6.990924 6.831192 6.848518 -6.7628937 7.0054383 6.8353415
-6.9560375 -6.804569 -6.995042 6.9772916 -6.8880606 6.9040656 6.7753716 -6.9888783
-6.779377 -6.8105016 6.894998 6.804133 6.8640466 -6.872792 6.952054 6.856449
-6.9634457 -6.9184895 -6.862976 -6.7658134 6.8000193 -6.932929 -6.732305 -6.746479
6.897146 -6.9629908 6.844439 6.7354636 -6.8897758 6.7766895 -6.890754 -6.9362993
6.8289433 -6.968117 -6.954083 -6.813004 6.932155 6.899836 -6.847936 -6.8246036
6.9019847 6.899076 6.7338314 -6.9623036 -6.801021 -7.0211697 6.7404003 6.888956
-6.9280195 6.85059 6.8021946 -6.7623076 -6.730099 6.911263 6.8511243 6.791873
-6.936 6.7891655 6.935842 6.9846096 6.8050437 6.9561744 -6.9873023 6.773659
6.90857 -6.7707043 -6.735559 -6.8141346 7.0184236 -6.7291827 -6.75612 6.9628534
-6.863094 -6.935674 -6.951179 6.809116 6.976098 6.834952 -6.97971 6.9168334
6.8238034 -6.8490424 -6.9389005 6.9811873 -6.8693132 -6.872446 6.9467154 -6.7860394
6.8938575 6.745928 -6.944331 -7.010982 -7.010255 6.7596 -6.861642 6.9931803
-6.770541 -7.013556 -6.755399 -6.848183 6.955731 6.9162726 6.763782 -6.7402754
6.9990907 -6.9472547 -6.9474916 -6.96255 -6.795922 -6.978539 6.8209777 -6.920358
-6.8338103 -6.7754717 6.852266 -6.747421 6.7733045 6.827637 -6.8659077 6.761492
-6.7347503 -6.7455697 6.9936557 -6.961315 -6.7825365 -6.8759313 6.800326 6.792085
-6.950825 -6.8987036 6.852256 7.0165863
00000000: 9caf ddc0 14e6 df40 e1b5 da40 088c d9c0
00000010: 3c5b dfc0 0b7a dac0 4f9b de40 68f5 dac0
00000020: 5a05 df40 db2d dec0 03f8 d9c0 deb2 dcc0
00000030: b237 e0c0 233a dc40 479a d940 70f7 df40
00000040: 8327 dec0 c6ec d840 77ab dec0 2479 e0c0
00000050: dd06 ddc0 624f d7c0 301e dcc0 6508 db40
00000060: 913d dec0 fd49 dcc0 06d6 d8c0 a417 db40
00000070: b871 ddc0 c0dd da40 33e4 d840 5c5a e0c0
00000080: 36bb df40 9e32 dec0 9453 d9c0 88a4 da40
00000090: c57f dac0 8ab9 e0c0 7a9e d7c0 919d dd40
000000a0: 6c21 d940 a39b d540 a6b5 dfc0 2099 da40
000000b0: 0f27 db40 a069 d8c0 8d2c e040 1ebb da40
000000c0: dc97 dec0 07bf d9c0 62d7 dfc0 f945 df40
000000d0: fe6a dcc0 1bee dc40 d8cf d840 e4a4 dfc0
000000e0: a8f0 d8c0 a1ef d9c0 d3a3 dc40 75bb d940
000000f0: 45a6 db40 e9ed dbc0 3a77 de40 0868 db40
00000100: 8cd4 dec0 4464 ddc0 809d dbc0 8b81 d8c0
00000110: c299 d940 8eda ddc0 0b6f d7c0 28e3 d7c0
00000120: 6cb5 dc40 d2d0 dec0 a505 db40 eb88 d740
00000130: 0b79 dcc0 a4da d840 0f81 dcc0 2af6 ddc0
00000140: b486 da40 d1fa dec0 d987 dec0 2104 dac0
00000150: 37d4 dd40 75cb dc40 4b22 dbc0 2763 dac0
00000160: 0fdd dc40 3bc5 dc40 8c7b d740 31cb dec0
00000170: f7a1 d9c0 6cad e0c0 5cb1 d740 5472 dc40
00000180: 56b2 ddc0 0938 db40 94ab d940 d364 d8c0
00000190: f95c d7c0 1129 dd40 693c db40 0657 d940
000001a0: b6f3 ddc0 d840 d940 6bf2 dd40 ec81 df40
000001b0: ebc2 d940 fb98 de40 fb97 dfc0 d1c1 d840
000001c0: 0113 dd40 9ca9 d8c0 b389 d7c0 640d dac0
000001d0: ed96 e040 7755 d7c0 2332 d8c0 b2cf de40
000001e0: 779e dbc0 0bf1 ddc0 0f70 dec0 47e4 d940
000001f0: 323c df40 edb7 da40 c959 dfc0 b356 dd40
00000200: 995c da40 5b2b dbc0 790b dec0 e365 df40
00000210: 6ad1 dbc0 14eb dbc0 7e4b de40 3c27 d9c0
00000220: 7b9a dc40 a4de d740 f637 dec0 f759 e0c0
00000230: 0254 e0c0 a54e d840 9292 dbc0 22c8 df40
00000240: 46a8 d8c0 0d6f e0c0 3b2c d8c0 5124 dbc0
00000250: 5995 de40 1b52 dd40 e770 d840 56b0 d7c0
00000260: 8df8 df40 e94f dec0 da51 dec0 36cd dec0
00000270: 3178 d9c0 3150 dfc0 7345 da40 9373 ddc0
00000280: 93ae dac0 aad0 d8c0 c345 db40 dfea d7c0
00000290: e9be d840 017c da40 84b5 dbc0 245e d840
000002a0: 1383 d7c0 b5db d7c0 07cc df40 18c3 dec0
000002b0: 8a0a d9c0 a107 dcc0 459c d940 c358 d940
000002c0: 296d dec0 2ec2 dcc0 ae45 db40 e087 e040

price_encoder.encoder.bias_hh_l0 f4 [180]
-6.781109 7.015541 6.9902425 -6.750403 -6.9450035 -6.851752 6.737367 -6.996026
6.844346 -6.8089585 -6.8260255 -6.7563434 -6.8413086 6.82204 6.953284 6.759617
-6.97207 6.798434 -6.9307 -6.747658 -6.9617352 -6.90312 -6.845055 6.8567724
-6.9132385 -6.8899264 -6.8691177 6.742508 -6.847722 6.897916 6.802349 -6.994919
6.9805937 -6.8617086 -6.9586277 6.8943305 -6.7261753 -6.854163 -6.8167763 6.9347763
6.7656183 6.7207103 -6.9013786 6.744196 6.731375 -6.9527607 6.729404 6.7454567
-6.88473 -6.9145713 -6.8930926 6.903975 -6.8431144 6.8258834 6.762167 -6.873246
-6.9067516 -6.8907356 6.890494 6.9786296 6.779624 -6.8377333 6.8689156 6.965984
-6.843644 -6.991673 -6.9237547 -6.9069734 6.7990866 -6.9163175 -6.799496 -7.0187645
6.7336683 -6.793318 6.9139037 6.962503 -6.8484073 6.7526875 -6.8327136 -6.739585
6.7643747 -6.9479847 -6.894942 -6.8545003 6.995136 6.9287734 -6.953532 -6.9543304
6.8223515 6.977528 6.901944 -6.993706 -6.947224 -6.757907 6.8991117 6.9915085
-6.8534155 6.9237337 6.9458447 -6.950211 -6.9638495 6.777555 6.8547397 6.8899345
-6.8592815 6.7668843 6.76402 6.9728727 6.7308936 6.914847 -6.8447676 6.864922
6.810513 -6.802128 -6.952557 -6.792636 6.760999 -6.9039526 -6.8602214 6.9436483
-6.758535 -6.744374 -6.8326583 6.811155 6.773427 6.8809514 -6.8850517 6.7471814
6.7377143 -6.8968425 -6.836739 6.950068 -6.881956 -6.9772983 6.9549274 -7.0107784
6.952927 6.9860897 -7.0155506 -6.8000054 -6.806902 6.7882905 -6.7466326 6.9518495
-7.0097895 -6.911697 -6.8240285 -7.000688 6.7451806 6.849269 6.757708 -6.8452096
6.79474 -6.9182935 -6.757926 -6.751705 -6.758819 -6.828094 7.009035 -6.744964
-6.9598184 -6.832479 6.852343 -6.9681344 6.811604 6.844725 -6.979165 6.8755894
-6.9446363 -6.9949245 6.8232636 -6.7726793 -7.003825 -7.001977 6.933848 6.79736
-6.9196134 -6.95216 6.9480596 6.8887453
00000000: d8fe d8c0 507f e040 11b0 df40 4d03 d8c0
00000010: 783d dec0 8d41 dbc0 8398 d740 72df dfc0
00000020: e204 db40 fde2 d9c0 cd6e dac0 f733 d8c0
00000030: 00ec dac0 274e da40 4d81 de40 c84e d840
00000040: 331b dfc0 c58c d940 4bc8 ddc0 d0ec d7c0
00000050: 89c6 dec0 5ce6 dcc0 b10a dbc0 ae6a db40
00000060: 4039 ddc0 477a dcc0 d0cf dbc0 a0c2 d740
00000070: 8a20 dbc0 babb dc40 d8ac d940 60d6 dfc0
00000080: 0661 df40 1e93 dbc0 14ad dec0 5b9e dc40
00000090: d43c d7c0 4e55 dbc0 0823 dac0 b0e9 dd40
000000a0: f27f d840 0f10 d740 18d8 dcc0 74d0 d740
000000b0: 6d67 d740 047d dec0 4757 d740 c8da d740
000000c0: b54f dcc0 2b44 ddc0 3794 dcc0 5ded dc40
000000d0: cbfa dac0 a36d da40 ac63 d840 a2f1 dbc0
000000e0: 1c04 ddc0 e880 dcc0 ed7e dc40 ef50 df40
000000f0: aef2 d840 b6ce dac0 28ce db40 57e9 de40
00000100: 22ff dac0 c9bb dfc0 668f ddc0 ed05 ddc0
00000110: 1e92 d940 7952 ddc0 7995 d9c0 b899 e0c0
00000120: 367a d740 dc62 d9c0 b33e dd40 d3cc de40
00000130: 2726 dbc0 0416 d840 97a5 dac0 aeaa d7c0
00000140: c275 d840 e455 dec0 5da3 dcc0 1158 dbc0
00000150: 27d8 df40 83b8 dd40 5683 dec0 e089 dec0
00000160: b450 da40 e947 df40 badc dc40 71cc dfc0
00000170: a94f dec0 c640 d8c0 86c5 dc40 70ba df40
00000180: 2e4f dbc0 3a8f dd40 5c44 de40 2168 dec0
00000190: dbd7 dec0 bbe1 d840 075a db40 587a dc40
000001a0: 3c7f dbc0 518a d840 da72 d840 c621 df40
000001b0: 7b63 d740 6d46 dd40 5608 dbc0 71ad db40
000001c0: b9ef d940 08ab d9c0 597b dec0 465d d9c0
000001d0: 1b5a d840 2eed dcc0 ef86 dbc0 5e32 de40
000001e0: eb45 d8c0 e9d1 d7c0 23a5 dac0 fbf4 d940
000001f0: eabf d840 c130 dc40 5852 dcc0 e9e8 d740
00000200: 5b9b d740 efb2 dcc0 91c6 dac0 f566 de40
00000210: fc38 dcc0 0746 dfc0 c48e de40 4c58 e0c0
00000220: 617e de40 0c8e df40 647f e0c0 a599 d9c0
00000230: 24d2 d9c0 ad39 d940 6ae4 d7c0 8d75 de40
00000240: 3250 e0c0 9f2c ddc0 715e dac0 a305 e0c0
00000250: 85d8 d740 362d db40 253f d840 f50b dbc0
00000260: 836e d940 a962 ddc0 ee40 d8c0 f80d d8c0
00000270: 3f48 d8c0 bf7f dac0 044a e040 bfd6 d7c0
00000280: d5b6 dec0 aba3 dac0 6546 db40 f5fa dec0
00000290: a9f8 d940 fd07 db40 5255 dfc0 d404 dc40
000002a0: 763a dec0 6cd6 dfc0 2d58 da40 cab9 d8c0
000002b0: 561f e0c0 3210 e0c0 15e2 dd40 f983 d940
000002c0: 796d ddc0 1878 dec0 8156 de40 9a70 dc40

atten_layer.0.weight f4 [45, 135]
-0.0057471693 0.0064634383 -0.023407012 -0.017246887 0.08354073 0.049593173 -0.047539566 -0.032573927
0.05134674 0.07988199 0.024511985 0.07390807 -0.017657869 0.053518586 -0.0008888021 -0.031687308
-0.02342514 0.027021773 0.044725947 0.0027237982 -0.017312214 -0.030763138 -0.002708882 0.08591122
0.02685593 -0.082645014 -0.01944539 0.03249693 -0.08227926 0.055579253 -0.05724658 -0.07076175
-0.042760298 0.002939351 -0.063155875 -0.0065164343 -0.060818404 -0.011712387 -0.08242071 -0.033076417
-0.0039123744 0.08097095 -0.08558405 -0.008020014 -5.9068203e-05 -0.076280855 -0.04573452 0.041056506
0.057193406 0.06496327 0.07700165 0.08006618 -0.018351048 -0.067524955 -0.07416958 -0.042227663
-0.050607562 0.028454863 -0.044203136 0.066603534 -0.04501019 0.068760835 0.051209517 0.073318355
-0.07228898 0.080668755 -0.0014918223 0.0740126 0.04745216 -0.06300074 -0.07123549 0.085252844
-0.021811709 -0.015380055 -0.0017899722 -0.062062446 -0.013997346 0.041222565 -0.003610663 -0.07971625
0.038701087 0.064699955 -0.034529682 -0.07037624 0.07597815 0.04406161 0.07525534 0.0022079945
-0.04345714 0.075743414 -6.9273667 -7.257095 -7.6588926 -6.93285 6.8769674 -6.927444
-6.961082 7.6680355 6.8653374 6.8306627 -6.869248 -6.761811 -6.8385158 6.9309406
-6.8994145 -6.7831674 -6.841817 6.872605 6.9028816 -6.238791 -7.432946 7.705433
7.562798 6.274048 -6.966302 6.08254 7.350339 6.869704 -7.6482606 7.658452
6.8689556 -6.936472 6.8298345 -6.9015303 -6.793382 -6.799805 6.849773 -6.8484516
6.9703894 6.859711 -6.246218 7.4040017 -7.7852163 -7.008182 7.5493217 -0.067752436
0.07499079 -0.05124852 -0.06941933 0.02911105 0.0029076785 0.044290595 0.012814164 -0.024552964
0.032376744 -0.0794905 -0.035695862 0.05890321 0.046839796 -0.041876774 0.08246253 0.05467642
0.041765742 -0.061543673 -0.05118418 -0.071765855 -0.05028689 0.03154575 0.06625862 0.072372414
-0.0029624924 0.008894905 -0.0297645 -0.0639475 0.03030461 -0.02498357 -0.03731899 -0.029991284
-0.0677152 -0.051900968 -0.032647245 -0.02142921 -0.020470433 0.079704516 -0.020916536 0.042949177
-0.01658269 0.07789128 -0.022918642 0.051874064 0.06150619 -0.02419725 0.029462881 -0.048130646
-0.03585691 0.048715226 0.045684732 0.017766334 0.07184935 -0.047481988 0.012621321 -0.06888477
-0.08488907 -0.053666174 0.08564996 0.051085763 0.06269915 0.061096407 -0.010972753 0.015200883
-0.024069268 -0.04916307 -0.03534759 -0.05007578 0.040877156 -0.040059984 -0.019390456 0.08252374
0.036294557 0.015384428 -0.01615756 0.06600962 0.0053503737 0.0029198155 -0.045652747 -0.070127316
0.06217409 -0.047747564 -0.07595188 -0.078026906 0.019387327 -0.08312577 -0.07084684 0.021299392
0.04074464 -7.1388984 7.327881 7.489168 -6.826207 6.8183026 6.852296 6.804558
-7.0649943 7.015712 6.9325867 -6.8385625 -6.660563 -6.915957 6.8050637 -6.928489
-6.6728997 6.88424 6.8631845 6.8391614 -7.2386594 7.1436486 -7.080538 -7.381098
7.350158 -6.8719726 7.2701626 -7.1003695 6.9484224 7.289559 -7.145318 6.882646
00000000: c052 bcbb 40cb d33b 10c0 bfbc 5849 8dbc
00000010: 6717 ab3d 3622 4b3d d9b8 42bd 3d6c 05bd
00000020: f650 523d 2b99 a33d 5ccd c83c 1d5d 973d
00000030: 3ca7 90bc 4e36 5b3d 80fe 68ba 8dca 01bd
00000040: 14e6 bfbc c45c dd3c 8e32 373d c081 323b
00000050: 58d2 8dbc fa02 fcbc 8087 31bb 39f2 af3d
00000060: f800 dc3c ca41 a9bd f04b 9fbc 801b 053d
00000070: 0782 a8bd 12a7 633d 647b 6abd 89eb 90bd
00000080: 6c25 2fbd 20a2 403b de57 81bd d087 d5bb
00000090: b81c 79bd 50e5 3fbc 30cc a8bd 237b 07bd
000000a0: 6033 80bb 19d4 a53d b146 afbd 6066 03bc
000000b0: 00c0 77b8 2339 9cbd 1f54 3bbd de2a 283d
000000c0: a243 6a3d 770b 853d 0bb3 9d3d bdf9 a33d
000000d0: f054 96bc 864a 8abd 39e6 97bd eaf6 2cbd
000000e0: e049 4fbd 2c1a e93c 590e 35bd 6f67 883d
000000f0: 9b5c 38bd 7bd2 8c3d 12c1 513d ef27 963d
00000100: 3f0c 94bd a935 a53d 4089 c3ba eb93 973d
00000110: 325d 423d 8806 81bd eae3 91bd 0b99 ae3d
00000120: 78ae b2bc a0fc 7bbc 809d eaba 3135 7ebd
00000130: 2055 65bc fed8 283d e0a0 6cbb 4642 a3bd
00000140: 0885 1e3d 6981 843d ff6e 0dbd 6b21 90bd
00000150: 6f9a 9b3d f279 343d 791f 9a3d 00b4 103b
00000160: 1d00 32bd 5d1f 9b3d fdac ddc0 1f3a e8c0
00000170: a615 f5c0 e8d9 ddc0 1e10 dc40 9fad ddc0
00000180: 2fc1 dec0 8c60 f540 d8b0 db40 ca94 da40
00000190: e1d0 dbc0 c160 d8c0 1fd5 dac0 44ca dd40
000001a0: 01c8 dcc0 b50f d9c0 2af0 dac0 61ec db40
000001b0: 68e4 dc40 2da4 c7c0 b2da edc0 e892 f640
000001c0: 7102 f240 00c5 c840 f2eb dec0 2ba4 c240
000001d0: fa35 eb40 9dd4 db40 8dbe f4c0 0a12 f540
000001e0: 7cce db40 94f7 ddc0 018e da40 56d9 dcc0
000001f0: 6363 d9c0 0198 d9c0 5731 db40 8426 dbc0
00000200: 6e0d df40 c182 db40 05e1 c7c0 95ed ec40
00000210: 7e20 f9c0 0743 e0c0 0b94 f140 cac1 8abd
00000220: c594 993d f8e9 51bd b92b 8ebd 4c7a ee3c
00000230: c08e 3e3b 0e6a 353d 80f2 513c 4c23 c9bc
00000240: 7a9d 043d eacb a2bd d335 12bd 7e44 713d
00000250: 16db 3f3d fb86 2bbd 1de2 a83d 62f4 5f3d
00000260: 8e12 2b3d 3815 7cbd 81a6 51bd faf9 92bd
00000270: a0f9 4dbd 1e36 013d 99b2 873d fd37 943d
00000280: 6026 42bb f0bb 113c aed4 f3bc e8f6 82bd
00000290: 6041 f83c 58aa ccbc ccdb 18bd 48b0 f5bc
000002a0: 44ae 8abd 1c96 54bd 1eb9 05bd 508c afbc
000002b0: 9cb1 a7bc 1f3c a33d 2859 abbc 7aeb 2f3d
000002c0: 6cd8 87bc 7785 9f3d e0bf bbbc e679 543d
000002d0: eaed 7b3d 5039 c6bc 245c f13c a424 45bd
000002e0: b2de 12bd 9e89 473d ea1f 3b3d b48a 913c
000002f0: c125 933d 797c 42bd a8c9 4e3c 7513 8dbd
00000300: 52da adbd 10d1 5bbd 3f69 af3d 4e3f 513d
00000310: 6968 803d 3a40 7a3d 10c7 33bc 200d 793c
00000320: ea2c c5bc 375f 49bd a2c8 10bd 431c 4dbd
00000330: ce6e 273d f015 24bd bcd8 9ebc 3502 a93d
00000340: 9aa9 143d f80e 7c3c dc5c 84bc 0d30 873d
00000350: 3052 af3b 605a 3f3b 60fe 3abd e99e 8fbd
00000360: 42aa 7e3d f392 43bd a98c 9bbd 92cc 9fbd
00000370: 2cd2 9e3c d83d aabd 2618 91bd 107c ae3c
00000380: dae3 263d db71 e4c0 007e ea40 44a7 ef40
00000390: 4a70 dac0 892f da40 0246 db40 f0be d940
000003a0: 6f14 e2c0 b680 e040 c0d7 dd40 81d5 dac0
000003b0: 5523 d5c0 854f ddc0 15c3 d940 2fb6 ddc0
000003c0: 6588 d5c0 b24b dc40 359f db40 69da da40
000003d0: 19a3 e7c0 c598 e440 c493 e2c0 f431 ecc0
000003e0: 7f34 eb40 33e7 dbc0 2ca5 e840 3a36 e3c0
000003f0: 7a59 de40 1144 e940 72a6 e4c0 a33e dc40

atten_layer.0.bias f4 [45]
6.545608 6.949738 6.713402 -6.8685675 -6.8224206 -6.90705 -6.9785447 6.82651
-6.8863893 6.8557034 -6.760108 -6.9254355 6.9075785 -6.789239 -6.7128253 6.934912
-6.7717323 -6.9469304 -6.727357 -6.7792006 -6.909838 6.9949226 6.8003583 6.9114685
-6.992326 -6.922123 -6.8704395 -6.8760333 -6.758904 -7.017075 6.808026 6.899027
6.897951 6.901042 -6.8138723 -6.970121 6.92462 6.8135033 -6.9973907 6.8144035
-6.732849 -6.9047294 6.9035187 6.920521 -6.7403073
00000000: 9f75 d140 4164 de40 30d4 d640 4ecb dbc0
00000010: 4551 dac0 8e06 ddc0 3d50 dfc0 c572 da40
00000020: 4d5d dcc0 ec61 db40 ce52 d8c0 2b9d ddc0
00000030: e20a dd40 7241 d9c0 77cf d6c0 cdea dd40
00000040: 08b2 d8c0 414d dec0 8246 d7c0 36ef d8c0
00000050: 651d ddc0 68d6 df40 899c d940 c02a dd40
00000060: 22c1 dfc0 0882 ddc0 a4da dbc0 7708 dcc0
00000070: f148 d8c0 e18b e0c0 59db d940 d4c4 dc40
00000080: 04bc dc40 56d5 dc40 3e0b dac0 3b0b dfc0
00000090: 7d96 dd40 3808 da40 a0ea dfc0 980f da40
000000a0: 8073 d7c0 8bf3 dcc0 a0e9 dc40 e874 dd40
000000b0: 99b0 d7c0

atten_layer.2.weight f4 [1, 45]
5.0552506 -8.834907 6.193124 -5.272686 -5.652687 -5.2331123 -5.988969 -7.7110405
-5.446773 5.5375285 -4.6324124 7.6414 -7.927716 -5.6051426 9.546957 6.126238
8.539435 7.9131746 -4.967915 -5.0729995 7.4494395 6.8247385 6.7073793 6.7128835
7.204753 8.331423 -6.5070004 -6.1354575 9.04178 7.152423 6.6503882 -8.1900215
6.0976477 -7.0752354 8.04425 -6.292679 -7.4527745 -7.701529 7.626595 -8.239916
-5.1410027 7.264493 -8.422913 6.8528285 -5.1051593
00000000: 9dc4 a140 c75b 0dc1 122e c640 d8b9 a8c0
00000010: d0e2 b4c0 a875 a7c0 a2a5 bfc0 d8c0 f6c0
00000020: f74b aec0 6f33 b140 b93c 94c0 5986 f440
00000030: d9af fdc0 545d b3c0 56c0 1841 240a c440
00000040: 87a1 0841 ba38 fd40 29f9 9ec0 0356 a2c0
00000050: cf61 ee40 4264 da40 daa2 d640 f1cf d640
00000060: 568d e640 824d 0541 5939 d0c0 ab55 c4c0
00000070: 22ab 1041 a6e0 e440 fbcf d440 540a 03c1
00000080: ee1f c340 5468 e2c0 3fb5 0041 a05d c9c0
00000090: 217d eec0 ed72 f6c0 110d f440 b2d6 03c1
000000a0: 1883 a4c0 ba76 e840 40c4 06c1 5f4a db40
000000b0: 775d a3c0

lstm.weight_ih_l0 f4 [180, 45]
6.6117597 -7.0034757 -7.046159 6.8683186 -7.005519 6.872925 6.7476764 7.01475
-6.696612 7.0243287 6.8083143 6.947708 6.875142 6.8527155 -6.9113393 7.028585
-6.80754 -7.0354404 -6.853565 7.080893 -7.0978074 7.266195 7.0603356 -6.885819
6.249887 -7.120214 7.0901303 -6.888487 -7.161429 7.0056467 -6.847738 -6.995107
-6.8389087 6.9592776 6.997512 -7.001198 -6.890788 6.843799 6.8742166 -6.9827914
-6.895686 7.0857935 -7.1117077 -6.981147 7.138078 7.0268793 -7.200152 -7.0307565
6.9981647 6.942667 6.925337 6.9294934 6.9425397 -6.8146973 6.833507 6.825012
-6.785543 6.8916383 -6.767941 -6.8148894 6.7699323 -6.8918295 -6.7577143 -6.7979865
7.07906 -7.1063104 6.925169 7.2157993 -6.9934154 -5.334861 -7.0647554 7.0617857
-6.7457185 -7.1337957 7.026497 -6.846191 -6.983343 -7.0303955 6.839112 6.7954574
-6.8896856 -6.895972 6.9238534 6.966741 -6.738788 -6.8976355 7.070595 -6.906568
-6.608622 7.1064987 -6.7739134 -7.116629 -7.1110106 6.808084 -6.8997436 6.8612814
-6.896459 7.102193 -7.009524 -6.955519 6.853921 -5.5538597 -6.944668 6.971251
6.789757 6.775464 6.95127 6.7954245 -6.8139634 7.0868936 -7.069599 6.9522085
6.918639 -6.9793386 -4.3783774 -6.9446745 7.2048197 -6.8606343 -7.07862 7.043572
7.019091 6.7568564 -6.905653 7.016736 6.8318853 6.917934 7.0205126 6.9899383
-6.7447653 -6.9131384 6.855916 7.012179 -7.1295867 6.832159 6.9304996 7.051625
-7.165616 -7.108268 6.9928207 -6.821501 6.7850003 7.0230436 7.197822 -6.804531
-6.802378 7.0075893 -6.6831403 6.736466 6.954163 6.966599 6.9498906 6.876929
-6.751812 -6.8891115 7.2921968 -7.026453 6.9803724 7.1910367 -7.2696166 5.355954
-7.135813 7.1250544 -6.798259 -7.2594357 7.158613 -6.8094687 7.0432353 -6.7865195
6.781739 6.9295516 -6.9538674 -6.763755 6.727956 -6.805657 -6.81976 6.9327245
7.0333023 -6.997121 6.832518 7.024204 6.8524146 -7.1327662 -7.3401027 6.8052034
6.6949787 6.9514856 6.8729386 7.0879564 -7.0114117 -7.0062866 6.8316197 -6.9151225
6.7758994 -6.627101 7.0448704 6.9688687 6.8603487 -6.831289 -6.745664 7.2329154
-7.300175 7.016161 7.1260996 -7.2629724 6.473074 -7.3032446 7.1972303 -6.7996917
-7.051132 7.1127505 -6.8729854 6.8791485 -6.9130845 6.9827447 6.9931784 -6.803721
-6.79485 6.9501133 -6.726759 -6.940856 -6.9940944 7.229192 -7.0856123 7.016496
7.056936 7.003682 -7.066759 -7.211487 6.819786 -6.9882736 6.856903 6.745977
7.019148 -6.94331 -7.03199 6.8710475 -6.214321 6.860142 6.883122 6.9151506
6.9344482 6.8129306 -6.985103 -6.9369264 6.9966936 -7.091882 6.9371576 6.989614
-7.1269674 -5.0230403 -7.1625752 6.9440455 -7.0043607 -7.1292562 7.213271 -6.920741
00000000: 8993 d340 791c e0c0 227a e1c0 44c9 db40
00000010: 362d e0c0 00ef db40 f7ec d740 d578 e040
00000020: a54a d6c0 4dc7 e040 b6dd d940 a053 de40
00000030: 2a01 dc40 7249 db40 b129 ddc0 2bea e040
00000040: 5ed7 d9c0 5422 e1c0 6850 dbc0 ad96 e240
00000050: 3d21 e3c0 ab84 e840 45ee e140 a158 dcc0
00000060: 13ff c740 cbd8 e3c0 59e2 e240 7c6e dcc0
00000070: 6d2a e5c0 422e e040 ab20 dbc0 ebd7 dfc0
00000080: 57d8 dac0 67b2 de40 9eeb df40 d009 e0c0
00000090: 5681 dcc0 6700 db40 95f9 db40 0773 dfc0
000000a0: 76a9 dcc0 d2be e240 1c93 e3c0 8e65 dfc0
000000b0: 236b e440 32dc e040 a567 e6c0 f5fb e0c0
000000c0: f7f0 df40 542a de40 5c9c dd40 69be dd40
000000d0: 4929 de40 0012 dac0 17ac da40 8066 da40
000000e0: 2b23 d9c0 4d88 dc40 f992 d8c0 9313 dac0
000000f0: 49a3 d840 de89 dcc0 323f d8c0 1b89 d9c0
00000100: a987 e240 e566 e3c0 fc9a dd40 d4e7 e640
00000110: 0fca dfc0 2eb7 aac0 7a12 e2c0 26fa e140
00000120: eddc d7c0 0e48 e4c0 10d9 e040 ff13 dbc0
00000130: 8c77 dfc0 00f9 e0c0 01da da40 6374 d940
00000140: 4e78 dcc0 cdab dcc0 3590 dd40 8bef de40
00000150: 27a4 d7c0 6eb9 dcc0 5042 e240 9b02 ddc0
00000160: d579 d3c0 7068 e340 e6c3 d8c0 6dbb e3c0
00000170: 668d e3c0 d3db d940 b3ca dcc0 9e8f db40
00000180: cbaf dcc0 2a45 e340 054e e0c0 9d93 dec0
00000190: 5253 db40 38b9 b1c0 b83a dec0 7d14 df40
000001a0: b045 d940 9ad0 d840 ce70 de40 1e74 d940
000001b0: fd0b dac0 d5c7 e240 283a e2c0 7e78 de40
000001c0: 7e65 dd40 be56 dfc0 ab1b 8cc0 c63a dec0
000001d0: e28d e640 518a dbc0 0e84 e2c0 f164 e140
000001e0: 659c e040 2b38 d840 1cfb dcc0 1a89 e040
000001f0: ce9e da40 b75f dd40 0aa8 e040 93ad df40
00000200: 1ed5 d7c0 6e38 ddc0 aa63 db40 c563 e040
00000210: 9325 e4c0 0ca1 da40 a7c6 dd40 e9a6 e140
00000220: ba4c e5c0 ee76 e3c0 30c5 df40 bc49 dac0
00000230: b91e d940 c6bc e040 8f54 e640 b8be d9c0
00000240: 15ad d9c0 2c3e e040 49dc d5c0 2191 d740
00000250: 8188 de40 61ee de40 8165 de40 cd0f dc40
00000260: d80e d8c0 9a73 dcc0 ad59 e940 b4d8 e0c0
00000270: 365f df40 f91c e640 b3a0 e8c0 fa63 ab40
00000280: 9558 e4c0 7200 e440 568b d9c0 4c4d e8c0
00000290: 5c13 e540 2be7 d9c0 2f62 e140 2b2b d9c0
000002a0: 0204 d940 e3be dd40 1586 dec0 ae70 d8c0
000002b0: 6a4b d740 f1c7 d9c0 793b dac0 e1d8 dd40
000002c0: d010 e140 6ae8 dfc0 fda3 da40 47c6 e040
000002d0: fb46 db40 9f3f e4c0 1fe2 eac0 3ac4 d940
000002e0: 443d d640 9272 de40 1def db40 8ad0 e240
000002f0: 7c5d e0c0 8033 e0c0 a19c da40 af48 ddc0
00000300: 2bd4 d840 3611 d4c0 946f e140 f900 df40
00000310: fa87 db40 eb99 dac0 7bdc d7c0 0b74 e740
00000320: 099b e9c0 6484 e040 0209 e440 456a e8c0
00000330: 6c23 cf40 2eb4 e9c0 b64f e640 1397 d9c0
00000340: e0a2 e1c0 a79b e340 7fef dbc0 fc21 dc40
00000350: fd37 ddc0 a572 df40 1ec8 df40 15b8 d9c0
00000360: 696f d9c0 5467 de40 9c41 d7c0 7e1b dec0
00000370: 9fcf dfc0 8a55 e740 56bd e2c0 2387 e040
00000380: 6bd2 e140 2a1e e040 e422 e2c0 80c4 e6c0
00000390: b03b da40 f09f dfc0 c06b db40 0bdf d740
000003a0: dc9c e040 982f dec0 1006 e1c0 9fdf db40
000003b0: b8db c6c0 4986 db40 8942 dc40 ea48 dd40
000003c0: 00e7 dd40 8703 da40 f785 dfc0 4dfb ddc0
000003d0: eae4 df40 b3f0 e2c0 32fd dd40 ebaa df40
000003e0: 1e10 e4c0 bfbc a0c0 d133 e5c0 9f35 de40
000003f0: b923 e0c0 de22 e4c0 1ed3 e640 b676 ddc0

lstm.weight_hh_l0 f4 [180, 45]
-0.014867321 0.14074056 -0.14619909 0.0039958805 -0.14547545 -0.09063757 0.038546592 0.09969355
-0.023795724 0.13270028 0.06762515 -0.13469186 -0.037143886 -0.022625387 -0.02374892 0.06268272
0.12293513 -0.10152106 -0.0827014 -0.08883968 0.02777265 0.0598654 -0.097909704 0.08064288
0.06566842 -0.04410363 -0.0449778 -0.13931228 -0.09516434 0.04265575 0.058356643 0.13141502
-0.03450706 0.10088554 -0.08274862 -0.11912782 -0.12760231 0.098299295 -0.023480996 0.12050964
-0.054430947 0.1485116 0.063046455 -0.06899998 0.08081521 -0.03690487 0.09947714 -0.022204354
0.14779665 0.11124407 -0.13682178 0.033783317 -0.012140945 -0.055161893 0.07627371 -0.027083054
-0.05448115 -0.09968394 -0.117559835 0.08936961 0.09546952 -0.019520804 0.09338948 -0.0637358
0.12147014 -0.034563653 0.06826238 0.023080707 0.14191364 -0.018051133 -0.11892493 -0.096638605
-0.005804509 -0.034435898 -0.095142454 -0.108447716 -0.13449456 -0.038516656 0.09710471 0.021745756
0.0031372905 -0.14779396 0.007391423 -0.14159077 -0.09898092 -0.07148996 -0.131855 -0.016358256
0.07746844 -0.10236682 -0.14720689 -0.113624826 0.013314977 0.14787121 0.118051246 0.13706501
0.0032477528 0.054067597 -0.0418725 -0.11666781 0.03643003 0.07498458 0.11384831 -0.08667922
0.024137154 -0.119497284 -0.13327077 -0.067865536 -0.10592547 -0.11310939 -0.011302188 -0.12692101
-0.117336035 -0.10319294 -0.09130635 0.0097376555 -0.017441347 0.062555626 -0.023460075 0.059009954
-0.034830786 0.075055525 0.06462228 0.11985798 0.028135613 -0.113754585 0.049516097 0.011954188
-0.09218484 0.063888654 0.03498994 -0.021892294 -0.10800128 -0.039368488 -0.08582817 0.018558338
-0.06801207 -0.0070343614 -0.0320557 0.04307255 0.06843281 -0.029100403 0.08869377 -0.12908566
0.14217775 0.14200024 0.1276734 -0.08575924 -0.03896465 0.035853684 -0.12295666 0.10788341
0.0061253905 0.1256599 -0.12499599 -0.04042252 -0.1329954 -0.05419472 0.025040194 -0.0034860373
0.061110884 -0.04859273 -0.04399222 -0.11348195 -0.14420667 0.1264232 -0.10323239 -0.121513315
-0.034901172 -0.013317585 0.028598562 -0.10706173 -0.10987685 -0.12698339 0.078618035 0.06919971
-0.06664324 0.0022816658 -0.027878135 0.03658612 -0.09406766 -0.07725487 -0.029893875 -0.036934264
-0.080235794 -0.11125484 -0.019157901 -0.11808391 -0.030546345 0.12630905 0.04553914 0.013274774
-0.03821981 0.07081805 0.0518983 0.081511125 0.07724336 0.016887113 -0.023129106 -0.12379734
-0.108970866 0.085754916 -0.028334841 0.008271679 -0.13170594 -0.09950274 -0.082239114 0.108491525
0.11237283 -0.04236882 -0.067744784 0.10452147 0.08637926 -0.086142376 0.113872394 0.058299825
0.013917133 -0.06810306 0.0973067 -0.085404925 -0.0072369277 -0.10604919 -0.14538778 -0.06967687
-0.05298134 0.06021738 0.088805616 -0.12667386 0.085055694 -0.10720454 0.1392505 -0.09465312
0.03395821 0.046831787 -0.0331093 -0.08231256 0.13856907 0.14773919 0.12967421 -0.05292476
0.012717605 -0.08989705 -0.00054840744 -0.11534058 -0.049010962 0.056109518 -0.09193069 -0.0875818
0.109640315 -0.052722633 -0.06970802 0.07014458 -0.111294344 -0.032445945 0.0019961298 0.119441226
00000000: 1096 73bc 4b1e 103e 37b5 15be e0ef 823b
00000010: 84f7 14be 31a0 b9bd 08e3 1d3d 222c cc3d
00000020: 40ef c2bc 95e2 073e 0e7f 8a3d aaec 09be
00000030: 3024 18bd e058 b9bc 188d c2bc cc5f 803d
00000040: 6ac5 fb3d 46ea cfbd 5a5f a9bd 94f1 b5bd
00000050: 7883 e33c 6c35 753d e284 c8bd 1828 a53d
00000060: 2a7d 863d 02a6 34bd a43a 38bd e1a7 0ebe
00000070: 86e5 c2bd ccb7 2e3d 6007 6f3d a991 063e
00000080: 4657 0dbd 149d ce3d 1c78 a9bd 49f9 f3bd
00000090: 2eaa 02be 2451 c93d 385b c0bc c2cd f63d
000000a0: fcf2 5ebd 6d13 183e 801e 813d dd4f 8dbd
000000b0: 7282 a53d 9029 17bd acba cb3d e8e5 b5bc
000000c0: 0158 173e eed3 e33d 021b 0cbe 6060 0a3d
000000d0: d0ea 46bc 70f1 61bd 6435 9c3d 48dd ddbc
000000e0: a027 5fbd 1827 ccbd 36c3 f0bd 6a07 b73d
000000f0: 8685 c33d 18ea 9fbc fc42 bf3d ea87 82bd
00000100: 56c5 f83d 9e92 0dbd 26cd 8b3d c013 bd3c
00000110: cf51 113e f8df 93bc ea8e f3bd 76ea c5bd
00000120: c033 bebb a80c 0dbd 0cda c2bd d619 debd
00000130: f1b8 09be a4c3 1dbd d6de c63d 2824 b23c
00000140: 009b 4d3b 4d57 17be c033 f23b 2cfd 10be
00000150: 82b6 cabd 5469 92bd ff04 07be c001 86bc
00000160: c6a7 9e3d b2a5 d1bd 67bd 16be 22b4 e8bd
00000170: 1027 5a3c 8d6b 173e dac4 f13d c55a 0c3e
00000180: 40d8 543b fc75 5d3d 8082 2bbd 88ef eebd
00000190: a837 153d 8491 993d 4e29 e93d e084 b1bd
000001a0: 48bb c53c feba f4bd 2278 08be 16fd 8abd
000001b0: 74ef d8bd e5a5 e7bd d02c 39bc 95f7 01be
000001c0: e04d f0bd d256 d3bd d3fe babd b08a 1f3c
000001d0: 28e1 8ebc 2a1d 803d 582f c0bc 6cb4 713d
000001e0: baaa 0ebd b6b6 993d b058 843d 1a78 f53d
000001f0: a87c e63c 2af8 e8bd 64d1 4a3d 80db 433c
00000200: 68cb bcbd 0ed8 823d 9c51 0f3d 7857 b3bc
00000210: c62f ddbd da40 21bd aec6 afbd a807 983c
00000220: ea49 8bbd 8080 e6bb d64c 03bd d86c 303d
00000230: 8026 8c3d f863 eebc 14a5 b53d 082f 04be
00000240: 0b97 113e 8368 113e d1bc 023e 8aa2 afbd
00000250: 6699 1fbd 50db 123d b4d0 fbbd faf1 dc3d
00000260: 80b7 c83b fdac 003e e6fd ffbd 1692 25bd
00000270: f22f 08be 48fb 5dbd 1821 cd3c 0076 64bb
00000280: 684f 7a3d 2c09 47bd 3031 34bd 3969 e8bd
00000290: eaaa 13be 1575 013e 816b d3bd f9db f8bd
000002a0: 88f4 0ebd 0032 5abc 8847 ea3c 2e43 dbbd
000002b0: 1d07 e1bd ef07 02be 7e02 a13d 94b8 8d3d
000002c0: 407c 88bd 0088 153b b060 e4bc 54db 153d
000002d0: 8ca6 c0bd cd37 9ebd 00e4 f4bc 6248 17bd
000002e0: aa52 a4bd 94d9 e3bd 08f1 9cbc fad5 f1bd
000002f0: 543c fabc 2957 013e 4087 3a3d 707e 593c
00000300: 608c 1cbd 0e09 913d 5093 543d 4eef a63d
00000310: c431 9e3d d856 8a3c 4079 bdbc 7689 fdbd
00000320: 1e2c dfbd 46a0 af3d 781e e8bc f085 073c
00000330: ecdd 06be 18c8 cbbd fb6c a8bd ce30 de3d
00000340: ba23 e63d ee8a 2dbd c7bd 8abd 5a0f d63d
00000350: 9ce7 b03d 6a6b b0bd ee35 e93d cccb 6e3d
00000360: b004 643c 9e79 8bbd bc48 c73d c7e8 aebd
00000370: c023 edbb 5130 d9bd 89e0 14be bfb2 8ebd
00000380: f602 59bd 80a6 763d b8df b53d cbb6 01be
00000390: ae31 ae3d 0e8e dbbd af97 0e3e 7fd9 c1bd
000003a0: c417 0b3d b0d2 3f3d 9e9d 07bd 7d93 a8bd
000003b0: 0de5 0d3e f148 173e 51c9 043e a2c7 58bd
000003c0: 805d 503c f21b b8bd 00c3 0fba af37 ecbd
000003d0: b8bf 48bd 18d3 653d 2846 bcbd 165e b3bd
000003e0: 1a8b e03d b0f3 57bd 14c3 8ebd f6a7 8f3d
000003f0: 4aee e3bd 0ae6 04bd 80d1 023b 9a9d f43d

lstm.bias_ih_l0 f4 [180]
7.585278 7.633935 7.550887 7.6181703 7.6616416 7.5373173 7.6860123 7.671275
7.5181446 7.644753 7.5926785 7.6334295 7.612338 7.6794343 7.685719 7.4058247
7.477463 7.6775713 7.780978 7.5869737 7.6425424 7.6820583 7.6010084 7.595102
7.523585 7.5661144 7.5992827 7.5302906 7.6134024 7.783224 7.771051 7.649057
7.610312 7.578721 7.8694143 7.572724 7.7053776 7.4929166 7.747782 7.848247
7.6560755 7.7549076 7.8944554 7.6616135 7.7495165 -0.07716474 0.006778002 -0.0073163062
0.03459029 -0.03833911 0.09310931 0.10118796 0.08893731 -0.04043681 -0.036134563 0.112248465
0.104648754 0.042756766 -0.057789035 -0.11756101 -0.0052877814 -0.004633561 -0.09383619 0.071124166
0.08533898 0.06712267 -0.023024708 -0.08747421 -0.1391812 -0.08888696 -0.08514786 -0.081797056
-0.10284305 -0.072010174 0.14497171 -0.07968405 0.05541095 -0.09463547 0.09533803 -0.1349002
0.044120118 0.14554463 -0.07749106 0.019057497 -0.14334112 -0.060663722 0.111901835 0.09418395
0.05125369 0.08248608 -8.018968 -7.7268596 7.7509613 -7.9478235 -7.9919224 -7.5988827
-7.9943323 -7.6671395 7.6288314 7.5124464 -7.4459686 8.323218 -8.236864 -7.8209443
7.9773765 7.592132 -7.3801074 7.4614615 8.189669 7.905573 7.460938 -7.5081697
-7.9587507 7.4808702 7.7905264 -7.6488314 -7.747014 7.92848 7.714467 7.495913
-7.4709997 -7.725456 7.8405976 7.558487 -7.4483266 7.676701 7.397239 7.7713633
-7.930682 7.811974 7.7116423 -7.7749834 -8.112455 -7.581488 -7.6500926 7.7198224
7.6502166 7.784583 7.6243677 7.609456 7.649137 7.616 7.6651073 7.73731
7.869119 7.7446876 7.882707 7.7517834 7.6859045 7.832064 7.7221594 7.6672325
7.700492 7.860748 7.713782 7.6589837 7.8293858 7.7121787 7.7183266 7.61812
7.797012 7.706917 7.47709 7.4599075 7.8891706 7.7935004 7.5943427 7.583118
7.6532617 7.888398 7.6279573 7.7147603 7.7165627 7.7696257 7.7154617 7.605339
7.7654505 7.92643 7.516678 7.5707607
00000000: 99ba f240 3249 f440 dea0 f140 0dc8 f340
00000010: 2b2c f540 b431 f140 d0f3 f540 167b f540
00000020: a494 f040 d1a1 f440 39f7 f240 0e45 f440
00000030: 4698 f340 edbd f540 69f1 f540 84fc ec40
00000040: 6047 ef40 aaae f540 c6fd f840 7dc8 f240
00000050: b58f f440 6cd3 f540 763b f340 130b f340
00000060: 35c1 f040 9c1d f240 532d f340 24f8 f040
00000070: fea0 f340 2c10 f940 73ac f840 13c5 f440
00000080: ad87 f340 e284 f240 3ed2 fb40 c153 f240
00000090: 7492 f640 f9c5 ef40 d5ed f740 d724 fb40
000000a0: 92fe f440 3428 f840 619f fc40 f02b f540
000000b0: 0afc f740 8c08 9ebd 001a de3b a0bd efbb
000000c0: 8cae 0d3d 7809 1dbd 18b0 be3d a23b cf3d
000000d0: c424 b63d 12a1 25bd d601 14bd 86e2 e53d
000000e0: 1652 d63d b821 2f3d 32b4 6cbd d4c3 f0bd
000000f0: 2045 adbb 20d5 97bb 302d c0bd 8ca9 913d
00000100: 34c6 ae3d 9c77 893d 509e bcbc ae25 b3bd
00000110: 8485 0ebe 5e0a b6bd 0062 aebd 3785 a7bd
00000120: 619f d2bd 127a 93bd 7773 143e 6431 a3bd
00000130: 98f6 623d 3ed0 c1bd 9640 c33d 4723 0abe
00000140: 4cb7 343d a709 153e a2b3 9ebd 781e 9c3c
00000150: 04c8 12be 867a 78bd ca2c e53d 84e3 c03d
00000160: 64ef 513d 76ee a83d b14d 00c1 6f42 f7c0
00000170: e007 f840 9254 fec0 d4bd ffc0 0c2a f3c0
00000180: 92d1 ffc0 3559 f5c0 631f f440 f665 f040
00000190: 6045 eec0 e72b 0541 32ca 03c1 2d45 fac0
000001a0: ab46 ff40 bff2 f240 d729 ecc0 4bc4 ee40
000001b0: e208 0341 74fa fc40 01c0 ee40 ed42 f0c0
000001c0: 16ae fec0 4a63 ef40 fe4b f940 3ac3 f4c0
000001d0: 8ae7 f7c0 1cb6 fd40 eadc f640 85de ef40
000001e0: 6e12 efc0 f036 f7c0 2de6 fa40 20df f140
000001f0: b158 eec0 89a7 f540 2fb6 ec40 02af f840
00000200: 26c8 fdc0 b1fb f940 c6c5 f640 aacc f8c0
00000210: 9ecc 01c1 8d9b f2c0 8fcd f4c0 c908 f740
00000220: 93ce f440 4e1b f940 d2fa f340 aa80 f340
00000230: bbc5 f440 46b6 f340 8f48 f540 0b98 f740
00000240: d3cf fb40 7bd4 f740 233f fc40 9c0e f840
00000250: eef2 f540 45a0 fa40 ee1b f740 f859 f540
00000260: 6e6a f640 3f8b fb40 4dd7 f640 6516 f540
00000270: 548a fa40 2bca f640 88fc f640 a4c7 f340
00000280: 1f81 f940 109f f640 5244 ef40 90b7 ee40
00000290: 1674 fc40 5b64 f940 db04 f340 e7a8 f240
000002a0: 85e7 f440 c26d fc40 3a18 f440 51df f640
000002b0: 15ee f640 c6a0 f840 10e5 f640 f05e f340
000002c0: 927e f840 51a5 fd40 a088 f040 ac43 f240
