Ni_prediction/savemodel/bst_mod_585.pth (torch_old, 533443 bytes, 44 tensors)

price_encoder.attention.weight f4 [1, 121]
00000000: 368d 0e41 0a1e 0f41 2ab7 0d41 411e 0fc1
00000010: 63a0 0cc1 3a93 0c41 b678 0e41 e820 0bc1
00000020: 2328 0e41 3269 0d41 8192 0d41 73c9 0e41
00000030: 80c8 0cc1 65ca 0dc1 66ea 0dc1 ca0f 0d41
00000040: f8a0 0c41 f91e 0dc1 5308 0b41 e4da 0d41
00000050: 5542 0b41 c7e6 0d41 d4b4 0e41 4c79 0ec1
00000060: ac80 0ec1 5c94 0d41 88cd 0cc1 ddb6 0ec1
00000070: 425f 0ec1 1131 0dc1 340d 0e41 908a 0dc1
00000080: d6ca 0d41 8435 0f41 49b8 0c41 b9a1 0d41
00000090: be81 0ec1 90b2 0e41 c011 0e41 e173 0ec1
000000a0: 1cd8 0d41 2041 0f41 9b1b 0d41 a3a1 0e41
000000b0: 5ad7 0c41 4dad 0e41 50a8 0e41 16a6 0e41
000000c0: ff2f 0f41 9f9d 0d41 92ff 0c41 465f 0d41
000000d0: 2738 0e41 394b 0d41 3a46 0c41 c4fb 0d41
000000e0: f459 0e41 5013 0fc1 74fa 0dc1 7a61 0f41
000000f0: 22ee 0c41 08d9 0ec1 424a 0ec1 4b2e 0cc1
00000100: 8e16 0fc1 15de 0e41 aee1 0d41 ea41 0d41
00000110: 0edd 0c41 3ebd 0dc1 f487 0dc1 63fd 0d41
00000120: 6d40 0e41 afdc 0c41 b2f8 0cc1 de92 0c41
00000130: 06f7 0cc1 803c fa40 4de4 0e41 7d54 0e41
00000140: a3c3 0cc1 86e7 0cc1 1303 0e41 976e 0d41
00000150: 0109 0f41 f12f 0fc1 d380 0cc1 3440 0fc1
00000160: c4ba 0e41 80b4 0e41 3d39 0f41 9f1d 0f41
00000170: 1f65 0d41 9bdc 0e41 7d2b 0dc1 b245 0fc1
00000180: 322f 0dc1 9f41 0e41 2888 0ec1 d53a 0c41
00000190: 4e42 0d41 9877 0d41 11ec 0d41 bafe 0e41
000001a0: e89d 0e41 7d1c 0d41 6699 0c41 6ba9 0e41
000001b0: 7dc3 0e41 97e8 0d41 c78f 0c41 b7fa 0d41
000001c0: 4775 0c41 f149 0e41 790f 0f41 2595 0c41
000001d0: e673 0d41 5f56 0d41 c6cf 0e41 e52c 0e41
000001e0: 6dab 0e41
8.909475 8.944834 8.857218 -8.944886 -8.789157 8.785944 8.90447 -8.695534
8.884799 8.838182 8.848268 8.924182 -8.79895 -8.861913 -8.869726 8.816355
8.789299 -8.820062 8.689532 8.86594 8.703694 8.868842 8.9191475 -8.9046135
-8.906414 8.848721 -8.800179 -8.919644 -8.898256 -8.824479 8.878223 -8.846329
8.8620205 8.950565 8.7949915 8.851983 -8.906675 8.918594 8.8793335 -8.903291
8.865261 8.9534 8.81924 8.914462 8.802576 8.91731 8.916092 8.915548
8.949218 8.850982 8.812395 8.83576 8.888709 8.830865 8.767145 8.873966
8.896961 -8.942215 -8.873646 8.961298 8.808138 -8.927986 -8.893129 -8.761302
-8.9430065 8.929219 8.867598 8.828592 8.803968 -8.858702 -8.845692 8.874362
8.890729 8.803878 -8.810717 8.785856 -8.810308 7.8198853 8.9307375 8.895627
-8.797763 -8.806524 8.875751 8.839499 8.939698 -8.949204 -8.781451 -8.953175
8.920597 8.919067 8.951474 8.944732 8.837188 8.928859 -8.823117 -8.954515
-8.824022 8.891021 -8.908241 8.764363 8.828688 8.841698 8.870133 8.937189
8.913551 8.819455 8.787451 8.916362 8.922727 8.869285 8.785102 8.87371
8.778632 8.893052 8.9412775 8.786412 8.8407955 8.833587 8.925726 8.885961
8.916852

price_encoder.encoder.weight_ih_l0 f4 [180, 45]
00000000: 1c78 cebd 3286 f1bd 1832 033d 2005 a93d
00000010: e67b 63bd a2b0 d53d 8009 a13d 0aef f9bd
00000020: b740 d4bd 4015 43bc 73f8 e1bd ceef 6cbd
00000030: bcda d9bc d840 fb3c beb2 f7bd 70ab 763c
00000040: fc9a 503d 0840 aabd 6861 b93d e6b1 eb3d
00000050: f5cf e03d b579 8c3d d461 dabd ee30 0cc1
00000060: d778 14be a5f2 17be 6b3d f9bd 5ba3 033e
00000070: 534b 083e 389a 143d 0b55 07be e0f9 fcbb
00000080: b6f8 ef3d 0818 0941 4a2a 0d41 6f71 0d41
00000090: 3bb5 0d41 00c8 0d41 7238 1dbf 8fef 0c41
000000a0: b547 1041 8d23 0f41 fce5 0c41 88ba c63c
000000b0: d6bd febd 9eb3 ffbd 1a51 8f3d 6554 e23d
000000c0: 6224 383d f629 bc3d dd28 003e dc23 8dbd
000000d0: bf00 b13d 7111 7d3d 706e 003d 88ee bb3d
000000e0: 50f7 a8bc fafc 8a3d 1fb8 043e 60dc 453c
000000f0: a325 11be c737 09be 60f9 9e3b 288a 06bd
00000100: 3902 dd3d 8c12 5d40 b1c3 943d 5c80 28bc
00000110: 2aaa 0b41 77e7 f6bd cb93 13be 7a37 f73d
00000120: 3eaf 3abd 4493 11be 403b 4cbb 8aa9 32bd
00000130: 5754 0e3e 21bb c0bd 178e 0c41 75e4 0b41
00000140: 4f83 0d41 4cc5 0c41 7c09 1041 035a 07be
00000150: efee 0c41 9064 0c41 329f 0c41 0a32 0f41
00000160: 103a 243d 707b 343d 7d69 d83d 557f ddbb
00000170: bc79 f0bd a141 e0bd 2898 e73c 07e6 503d
00000180: 60b8 853d 46a0 883d 2405 ddbc 8e92 abbd
00000190: c61e 06be 302e a13c 9e79 4bbd a006 cfbd
000001a0: 60f5 ba3b 58c1 883c 421f c23d 84a8 c7bd
000001b0: 1061 6c3c 238f 9cbd eaef 4240 2c8a 903c
000001c0: 2823 03bd 073b 0d41 2495 5cbd 00d2 263d
000001d0: 7e00 35bd 856f 403c 07de cebd 336e 103e
000001e0: 424c dfbd df28 103e bc1f 0ebe 4ca0 0f41
000001f0: e5df 0b41 0b73 0d41 2480 0e41 b555 0f41
00000200: 66d0 0bc1 1c3e 0d41 6925 0f41 7bf6 0b41
00000210: d813 0d41 94d1 6f3d 1dbc 80bd c24b c73d
00000220: 46b9 5ebd 8e17 05be 6000 afbc 3076 20bd
00000230: 905a ed3d fa74 f73d 2cea c13d fab9 8ebb
00000240: 18b5 a13d 02a1 e63d b6fa ec3d f0ba c93d
00000250: a9c5 0bc1 5cea 113d 4c36 7c3d b6da 15bd
00000260: a05c 17bc 97c5 6940 dea5 313d 12a0 d8be
00000270: 76fa 95bc 6603 633d 78da 0dc1 8cda 463d
00000280: 0de6 143e 40b8 83bd 3230 b6bd b14b 0ec1
00000290: 7823 af3d aa78 c73d f20b edc0 3432 b9bd
000002a0: 364d 0fc1 112c 0fc1 fa7f 0cc1 67c2 0cc1
000002b0: 5c12 0fc1 7ae8 c6bd 25de 0cc1 64f7 0dc1
000002c0: 1481 0cc1 9ea2 0cc1 f22d a13d e86d 173d
000002d0: 6a49 b0bd b862 acbc 6659 ac3d 210c 0d3e
000002e0: 3c14 b13d 2c14 133e 9e4c 0dbe acfe 12be
000002f0: 3e93 b4bd 6497 55bd 98df 593d 23d6 14be
00000300: 329c d8bd cff1 a6bd 805a edbb 6684 b23d
00000310: 24b1 08bd fcdc b8bd 6832 1d3d aa9e b3bd
00000320: 3367 4dbe a226 ad3d 2ab0 213d ea78 0dc1
00000330: b249 cd3d 81c7 103e 6cf5 993d 50da df3c
00000340: 7d28 033e ca30 fa3d 4842 5d3d 0028 8cbc
00000350: 7bd8 d6bd 4b68 0bc1 2a80 0fc1 ef01 10c1
00000360: 80fc 0cc1 d505 0ec1 e049 b1bb 9fa2 0dc1
00000370: 4229 0cc1 3995 0bc1 94fa 0ec1 2427 a3bd
00000380: 70ee 3abc 86ab 8abc 7c26 863d d0b9 743c
00000390: f8c4 1cbd 59b5 013e 6f38 163e de33 cbba
000003a0: df5d 183e 7ced 813d beaf e73d 70b8 06be
000003b0: 60d3 bb3d 731d bbbd 5b95 0c41 705b 0f3c
000003c0: 00ab f83a 7459 1f3d e81f d23c fab1 d3bd
000003d0: ecd6 9e3d 7780 0cbe bd54 9fbd f145 7fba
000003e0: 2356 10c1 6029 de3c 952b babd 967b f23d
000003f0: d66e 1fbd d308 0e41 4264 833d a1a5 0a3e
-0.10081503 -0.11793174 0.032030195 0.08252931 -0.05553808 0.10434081 0.0786314 -0.12203796
-0.10363906 -0.011906922 -0.11033716 -0.057845883 -0.026593558 0.030670568 -0.12094639 0.015055522
0.050929055 -0.08312994 0.09051782 0.11508541 0.10977165 0.06859151 -0.106631905 -8.761946
-0.14499222 -0.14838655 -0.12169918 0.12855284 0.13309984 0.036279887 -0.13216035 -0.007720217
0.1171736 8.568367 8.8228245 8.840194 8.856746 8.861328 -0.61414254 8.808486
9.017507 8.946179 8.806149 0.024258867 -0.12438552 -0.12485431 0.06997891 0.11051253
0.044956572 0.09187691 0.12515588 -0.06891605 0.086427204 0.06178421 0.03135532 0.091763556
-0.02062574 0.06786533 0.12960862 0.012076467 -0.14174514 -0.13400184 0.004851505 -0.0328466
0.107914396 3.454257 0.07263888 -0.0102845095 8.729044 -0.12055867 -0.14411847 0.12071128
-0.04557728 -0.14216334 -0.0031163245 -0.043618716 0.1389936 -0.09410692 8.78469 8.743276
8.844558 8.798168 9.0023155 -0.1321793 8.808333 8.774551 8.788866 8.949717
0.040094435 0.04406303 0.10566995 -0.006759564 -0.11741969 -0.10950018 0.028270796 0.05100062
0.06529307 0.06671195 -0.02697999 -0.083775625 -0.13097677 0.019675344 -0.04967653 -0.101086855
0.0057055205 0.016693756 0.09478618 -0.09748939 0.014427438 -0.07644489 3.0458932 0.01764401
-0.03201595 8.826911 -0.05385317 0.040727615 -0.044189923 0.011745338 -0.10100942 0.14104538
-0.10903217 0.14078091 -0.13879293 8.976635 8.742162 8.840587 8.906284 8.958425
-8.738379 8.827663 8.946633 8.747676 8.817345 0.05854948 -0.0628588 0.097312465
-0.05437591 -0.12997267 -0.021362484 -0.039175212 0.11589539 0.120828584 0.09468493 -0.004355666
0.07895869 0.112611786 0.11571257 0.098501086 -8.735757 0.035623893 0.06157522 -0.036585532
-0.009238392 3.652685 0.043371074 -0.42309624 -0.018307906 0.055423163 -8.865837 0.048548266
0.14540882 -0.06431627 -0.08895911 -8.893479 0.08551687 0.09739812 -7.407708 -0.090427786
-8.95635 -8.948258 -8.781244 -8.7974615 -8.941982 -0.0971231 -8.8042345 -8.872898
-8.781513 -8.789701 0.078700915 0.03697005 -0.086077526 -0.021043167 0.08415489 0.13774158
0.086464375 0.14363164 -0.13798758 -0.14354962 -0.08817147 -0.05214633 0.05319175 -0.14534812
-0.10576667 -0.0815159 -0.0072434545 0.08716659 -0.03337206 -0.090265244 0.03837815 -0.08770497
-0.20058899 0.08454634 0.039474644 -8.84202 0.10023822 0.14138605 0.07517514 0.02732578
0.12808414 0.12216337 0.05401829 -0.017108917 -0.10490509 -8.712962 -8.96879 -9.000472
-8.8116455 -8.876424 -0.005410418 -8.852202 -8.760073 -8.723931 -8.936176 -0.0796645
-0.011409387 -0.016927492 0.06550309 0.014936879 -0.03827378 0.12666835 0.14669965 -0.0015503129
0.14879559 0.06344125 0.11312817 -0.13156295 0.09171176 -0.09136476 8.786464 0.008749828
0.001897186 0.03890367 0.02564998 -0.10336681 0.07755837 -0.1372088 -0.077798344 -0.00097379
-9.021029 0.027119339 -0.09090344 0.118399784 -0.03892406 8.877154 0.06415607 0.13539745

price_encoder.encoder.weight_hh_l0 f4 [180, 45]
00000000: 48c6 0f41 2655 0e41 2423 0c41 b327 0cc1
00000010: 68d0 0d41 b1ed 0c41 83a4 0d41 19d3 0fc1
00000020: 93b0 0dc1 9bce 0cc1 3e64 0fc1 4200 0f41
00000030: 56f8 0cc1 bef8 0dc1 56af 0c41 ae14 10c1
00000040: 0378 0c41 c17b 0ec1 b5b5 0b41 faf2 0fc1
00000050: 4ac0 0b41 2f9e 0d41 c201 0c41 bf9d 0c41
00000060: 0580 0dc1 2f9c 0bc1 7529 0cc1 f707 0d41
00000070: 07b4 0bc1 1b0f 0dc1 4469 0c41 1e25 0ec1
00000080: 48a9 0d41 9a1f 0e41 bbb5 0d41 0aab 0bc1
00000090: 0241 0dc1 9393 0e41 1fa0 0c41 0c56 1041
000000a0: 5982 0f41 91e9 0c41 f79a 0ec1 b20a 1041
000000b0: 1d70 0fc1 83d3 0fc1 67d9 0ec1 b4ed 0dc1
000000c0: b4b2 0e41 078c 0cc1 8767 0fc1 963a 0cc1
000000d0: 9d38 0fc1 f215 0d41 45ef 0ec1 aab0 0c41
000000e0: 0c41 10c1 05dd 0b41 d801 0d41 bb19 0ec1
000000f0: 5ed8 0f41 431d 0dc1 4acf 0b41 cc90 0cc1
00000100: 8af2 0d41 bd7a 0c41 4f54 0fc1 8978 0cc1
00000110: 2a45 0ec1 95ea 0f41 3002 0f41 ef93 0c41
00000120: 6b3a 0dc1 aeb4 0b41 d6a3 0e41 d709 10c1
00000130: 00cb 0e41 fc3a 0ec1 b3ca 0ec1 5f6e 0cc1
00000140: aa09 0c41 6da2 0d41 d959 0fc1 d30c 0cc1
00000150: 6833 0fc1 def4 0dc1 8055 0dc1 ced3 0e41
00000160: 898a 0cc1 efa4 0c41 dce3 0cc1 74ee 0ec1
00000170: aaf5 0fc1 3d3a 0e41 c01d 0cc1 8c3f 0ec1
00000180: 17cc 0bc1 8c2f 0dc1 b979 0e41 5c72 0dc1
00000190: 272d 1041 fa4c 0dc1 35ce 0f41 5cca 0e41
000001a0: af3f 0cc1 c403 0c41 444e 0fc1 06c0 0f41
000001b0: dc40 10c1 50c0 0ec1 b75f 0c41 d1f3 0cc1
000001c0: 28fc 0ec1 7c86 0ec1 a307 0d41 e717 0e41
000001d0: 6447 0d41 2997 0fc1 1d25 0c41 583a 1041
000001e0: aefa 0cc1 18a2 0c41 b4e4 0bc1 c776 0ec1
000001f0: 71f3 0ec1 3618 0f41 0b74 0c41 3fb1 0bc1
00000200: ae6b 0cc1 f836 0cc1 aacd 0bc1 3d88 0dc1
00000210: 00e0 0d41 c552 0dc1 939c 0e41 2584 0f41
00000220: 3d4e 0d41 790c 0f41 0b7f 0ec1 86b3 0e41
00000230: 5c33 0c41 6ecb 0c41 6949 0c41 ff1f 0dc1
00000240: b73d 0f41 cc7f 0cc1 c260 0c41 0fa2 0e41
00000250: 5921 0dc1 8a35 0f41 a113 0ec1 2239 0c41
00000260: 73fc 0dc1 d762 0e41 8793 0e41 68d7 0dc1
00000270: 29da 0c41 f06d 0f41 3f66 0e41 e7c9 0bc1
00000280: 0958 0dc1 dc90 0d41 1482 0c41 530c 10c1
00000290: 5be9 0fc1 9e2f 0f41 9d20 0dc1 62b3 0c41
000002a0: 2c10 1041 ee45 1041 3bb2 0fc1 1c83 0cc1
000002b0: 4e3c 0e41 cdd3 0c41 c4ea 0c41 5e46 0f41
000002c0: c835 0c41 6e27 10c1 c264 0c41 68f5 0dc1
000002d0: f9d8 0b41 32e0 0c41 f9fe 0f41 3717 0fc1
000002e0: bdac 0b41 9bab 0c41 394d 1041 40ae 0f41
000002f0: 248d 0fc1 7117 0f41 2c6e 0ec1 a9e4 0d41
00000300: 9178 0ec1 4b6e 0cc1 12fe 0b41 b348 0cc1
00000310: 197e 0d41 7124 0cc1 f63b 0c41 f64c 0f41
00000320: 5dda 0bc1 02d1 0b41 ab70 0d41 e613 1041
00000330: be96 0dc1 a910 0dc1 bd92 0e41 01f4 0e41
00000340: 0b5b 0dc1 5fde 0bc1 8e9b 0c41 20c8 0fc1
00000350: 3945 0e41 a240 1041 5ca7 0f41 9260 0cc1
00000360: e59c 0dc1 f541 0c41 bd51 0f41 5bab 0e41
00000370: a723 0d41 1cfb 0e41 bf96 0dc1 2b2c 0c41
00000380: d6ff 0bc1 e227 0d41 6194 0e41 0148 0f41
00000390: a8e1 0fc1 1f6a 0f41 7e0c 0c41 9504 0d41
000003a0: b9cd 0f41 5d36 0dc1 0d44 1041 b270 0dc1
000003b0: 345a 0c41 c3c0 0bc1 8a62 0dc1 0926 0d41
000003c0: f89e 0ec1 a3cf 0f41 42a6 0fc1 3361 0e41
000003d0: a2de 0f41 466a 0cc1 862d 0d41 2fe3 0b41
000003e0: cebe 0b41 d015 0ec1 595e 0ec1 4b96 0b41
000003f0: 04cb 0f41 24b7 0cc1 d101 10c1 b6ad 0d41
8.9859085 8.895788 8.758579 -8.759692 8.86338 8.80803 8.852664 -8.9890375
-8.855609 -8.800441 -8.961973 8.937563 -8.810629 -8.873228 8.792807 -9.005049
8.7793 -8.905213 8.731862 -8.99682 8.734446 8.851119 8.750429 8.788512
-8.843755 -8.725631 -8.760121 8.814445 -8.731452 -8.816188 8.7757 -8.884062
8.853828 8.882715 8.856868 -8.729258 -8.828371 8.911029 8.789092 9.021008
8.969323 8.807023 -8.912833 9.002611 -8.964871 -8.989139 -8.928077 -8.870533
8.918629 -8.784186 -8.962775 -8.764303 -8.951322 8.817858 -8.933415 8.793131
-9.015881 8.74146 8.81295 -8.881282 8.990324 -8.819644 8.738108 -8.785351
8.871714 8.779965 -8.958083 -8.779428 -8.891886 8.994771 8.938034 8.786117
-8.826762 8.731611 8.914999 -9.002402 8.924561 -8.8894005 -8.924487 -8.776946
8.752359 8.852155 -8.959435 -8.753131 -8.95005 -8.872282 -8.833374 8.92671
-8.783822 8.790267 -8.80563 -8.933216 -8.997477 8.889218 -8.757263 -8.890514
-8.737327 -8.824108 8.904717 -8.84042 9.0110235 -8.831293 8.9878435 8.924404
-8.765548 8.750919 -8.956608 8.984381 -9.015835 -8.921951 8.773368 -8.8095255
-8.936562 -8.907833 8.814364 8.880836 8.829929 -8.974404 8.759061 9.014244
-8.811201 8.789574 -8.743336 -8.903998 -8.934434 8.943411 8.778331 -8.730773
-8.776289 -8.76342 -8.737711 -8.845761 8.8671875 -8.832707 8.913226 8.969762
8.831601 8.940545 -8.906016 8.918829 8.762539 8.799665 8.767922 -8.820312
8.952567 -8.7812 8.7736225 8.914565 -8.8206415 8.950571 -8.879792 8.763948
-8.874133 8.899131 8.911017 -8.865089 8.803262 8.96434 8.899962 -8.736793
-8.833993 8.847866 8.781757 -9.003009 -8.994472 8.949125 -8.820462 8.793795
9.003948 9.017073 -8.981013 -8.782009 8.889723 8.801709 8.807316 8.9546795
8.76313 -9.009626 8.774599 -8.872414 8.740472 8.804735 8.999749 -8.943168
8.729672 8.791896 9.018853 8.9800415 -8.971958 8.943223 -8.901897 8.868325
-8.904435 -8.776927 8.749529 -8.767749 8.843286 -8.758897 8.764639 8.956289
-8.740811 8.738527 8.840007 9.004858 -8.849302 -8.816567 8.910825 8.934571
-8.834727 -8.74179 8.787977 -8.986359 8.8919 9.0157795 8.978359 -8.773577
-8.850804 8.766103 8.957456 8.916835 8.821204 8.936306 -8.849303 8.760783
-8.74996 8.822237 8.911225 8.955079 -8.992592 8.963408 8.75305 8.813619
8.987725 -8.825772 9.016614 -8.8400135 8.772022 -8.734561 -8.836557 8.821786
-8.913811 8.988193 -8.97809 8.89873 8.991854 -8.775946 8.823614 8.742965
8.734083 -8.880325 -8.898034 8.724193 8.987064 -8.794712 -9.000443 8.85491

price_encoder.encoder.bias_ih_l0 f4 [180]
00000000: eed4 0ec1 4cf0 0f41 e257 0d41 e3c2 0cc1
00000010: d8aa 0fc1 f339 0dc1 d64a 0f41 a877 0dc1
00000020: e27f 0f41 1514 0fc1 e7f8 0cc1 7e56 0ec1
00000030: 2019 10c1 1b1a 0e41 03ca 0c41 faf8 0f41
00000040: e910 0fc1 3873 0c41 eb52 0fc1 dd39 10c1
00000050: 8480 0ec1 6ca4 0bc1 1e0c 0ec1 2981 0d41
00000060: f01b 0fc1 0822 0ec1 d667 0cc1 c988 0d41
00000070: f8b5 0ec1 d36b 0d41 ee6e 0c41 762a 10c1
00000080: dada 0f41 7616 0fc1 a5a6 0cc1 344f 0d41
00000090: d13c 0dc1 145a 10c1 fecb 0bc1 e7cb 0e41
000000a0: 8f8d 0c41 73ca 0a41 12d8 0fc1 8049 0d41
000000b0: 8090 0d41 9d31 0cc1 8d13 1041 805a 0d41
000000c0: 1c49 0fc1 66dc 0cc1 f2e8 0fc1 35a0 0f41
000000d0: 8b32 0ec1 2174 0e41 c064 0c41 b0cf 0fc1
000000e0: 2975 0cc1 b6f4 0cc1 f94e 0e41 9dda 0c41
000000f0: 21d0 0d41 f8f3 0dc1 c938 0f41 00b1 0d41
00000100: 7867 0fc1 3daf 0ec1 bfcb 0dc1 943d 0cc1
00000110: c0c9 0c41 68ea 0ec1 44b4 0bc1 58ee 0bc1
00000120: c757 0e41 9a65 0fc1 c97f 0d41 35c1 0b41
00000130: 9239 0ec1 266a 0c41 943d 0ec1 39f8 0ec1
00000140: 4840 0d41 9c7a 0fc1 1a41 0fc1 f6fe 0cc1
00000150: 3ee7 0e41 cb62 0e41 1d8e 0dc1 802e 0dc1
00000160: 9a6b 0e41 af5f 0e41 84ba 0b41 ca62 0fc1
00000170: dccd 0cc1 0454 10c1 70d5 0b41 3636 0e41
00000180: 4bd6 0ec1 fd98 0d41 abd2 0c41 372f 0cc1
00000190: 39ab 0bc1 9f91 0e41 2d9b 0d41 5fa8 0c41
000001a0: fff6 0ec1 479d 0c41 59f6 0e41 32be 0f41
000001b0: 58de 0c41 ac49 0f41 3bc9 0fc1 bb5d 0c41
000001c0: 9686 0e41 9e51 0cc1 99c1 0bc1 9903 0dc1
000001d0: c348 1041 78a7 0bc1 dc15 0cc1 0a65 0f41
000001e0: 3bcc 0dc1 a9f5 0ec1 3335 0fc1 07ef 0c41
000001f0: 519b 0f41 e858 0d41 1eaa 0fc1 73a8 0e41
00000200: 382b 0d41 a692 0dc1 e202 0fc1 2cb0 0f41
00000210: b7e5 0dc1 8ef2 0dc1 e822 0f41 7790 0cc1
00000220: 4b4a 0e41 16ec 0b41 2219 0fc1 442a 10c1
00000230: 4a27 10c1 1e24 0c41 48c6 0dc1 52e1 0f41
00000240: f450 0cc1 d134 10c1 e712 0cc1 208f 0dc1
00000250: da47 0f41 27a6 0e41 4135 0c41 ecd4 0bc1
00000260: 8af9 0f41 1d25 0fc1 1726 0fc1 cc63 0fc1
00000270: f6b8 0cc1 52a5 0fc1 a31f 0d41 e6b6 0ec1
00000280: 3954 0dc1 2865 0cc1 dc9f 0d41 35f2 0bc1
00000290: 475c 0c41 ed3a 0d41 c2d7 0dc1 df2b 0c41
000002a0: 48be 0bc1 9fea 0bc1 44e3 0f41 bc5e 0fc1
000002b0: 1c82 0cc1 d500 0ec1 02cb 0c41 3da9 0c41
000002c0: c033 0fc1 285e 0ec1 d19f 0d41 3c41 1041
-8.926985 8.996166 8.833956 -8.79758 -8.97921 -8.826648 8.9557705 -8.841713
8.968721 -8.942403 -8.810767 -8.896116 -9.006134 8.881373 8.799319 8.998285
-8.941628 8.77813 -8.957744 -9.014127 -8.906376 -8.727642 -8.877958 8.844033
-8.944321 -8.883308 -8.775351 8.845895 -8.919426 8.838824 8.777082 -9.010366
8.990931 -8.942984 -8.790685 8.831837 -8.827348 -9.021992 -8.737303 8.924781
8.78456 8.674426 -8.990252 8.830444 8.847778 -8.762113 9.004773 8.834595
-8.955349 -8.803808 -8.994371 8.976613 -8.88734 8.903352 8.774597 -8.988205
-8.778604 -8.809744 8.89428 8.803372 8.863313 -8.872063 8.951364 8.855713
-8.962761 -8.917783 -8.862243 -8.765034 8.799255 -8.932228 -8.73151 -8.745689
8.89643 -8.962305 8.843698 8.73467 -8.889055 8.775915 -8.890034 -8.935601
8.828194 -8.967434 -8.953394 -8.812246 8.931456 8.899119 -8.847196 -8.823853
8.90127 8.89836 8.733036 -8.961618 -8.800259 -9.020512 8.739609 8.888235
-8.927318 8.849851 8.801433 -8.761527 -8.729302 8.910552 8.850385 8.791106
-8.935302 8.788398 8.935143 8.983934 8.804283 8.955486 -8.986629 8.772883
8.907858 -8.769926 -8.734765 -8.813378 9.017764 -8.728386 -8.755337 8.962168
-8.862361 -8.934976 -8.950488 8.808356 8.975419 8.834206 -8.9790325 8.916125
8.823051 -8.848303 -8.938204 8.980511 -8.868583 -8.871717 8.946022 -8.78527
8.893138 8.745138 -8.943636 -9.010319 -9.009592 8.758818 -8.8609085 8.99251
-8.769764 -9.012895 -8.754615 -8.847443 8.955042 8.915565 8.763001 -8.739483
8.998423 -8.946561 -8.946799 -8.961864 -8.7951565 -8.977861 8.820224 -8.919653
-8.833062 -8.774696 8.851528 -8.746633 8.772529 8.826886 -8.865175 8.760711
-8.733955 -8.744781 8.992985 -8.9606285 -8.781765 -8.875203 8.799562 8.791318
-8.950134 -8.897987 8.851518 9.015926

price_encoder.encoder.bias_hh_l0 f4 [180]
00000000: 427c 0cc1 f43c 1041 48d5 0f41 6efe 0bc1
00000010: e41b 0fc1 bf9d 0dc1 01c9 0b41 fbec 0fc1
00000020: 677f 0d41 63ee 0cc1 5334 0dc1 c616 0cc1
00000030: f472 0dc1 fd23 0d41 d33d 0f41 3024 0c41
00000040: cf8a 0fc1 42c3 0c41 47e1 0ec1 2ef3 0bc1
00000050: 7560 0fc1 4270 0ec1 4f82 0dc1 53b2 0d41
00000060: b899 0ec1 303a 0ec1 ebe4 0dc1 13de 0b41
00000070: 3c8d 0dc1 ee5a 0e41 4dd3 0c41 71e8 0fc1
00000080: bcad 0f41 8ec6 0dc1 b953 0fc1 3d4c 0e41
00000090: 259b 0bc1 a2a7 0dc1 6c0e 0dc1 fbf1 0e41
000000a0: c83c 0c41 c084 0b41 1e69 0ec1 fee4 0b41
000000b0: 73b0 0b41 ae3b 0fc1 60a8 0b41 28ea 0b41
000000c0: e424 0ec1 2e9f 0ec1 2947 0ec1 c273 0e41
000000d0: 5b7a 0dc1 be33 0d41 a32e 0c41 d6f5 0dc1
000000e0: 237f 0ec1 803d 0ec1 843c 0e41 b1a5 0f41
000000f0: 2d76 0c41 4e64 0dc1 16e4 0d41 dd71 0f41
00000100: 877c 0dc1 24db 0fc1 d1c4 0ec1 0c80 0ec1
00000110: eec5 0c41 57a6 0ec1 9cc7 0cc1 294a 10c1
00000120: dab9 0b41 4aae 0cc1 729c 0e41 9a63 0f41
00000130: 0c90 0dc1 ca07 0c41 bb4f 0dc1 18d2 0bc1
00000140: ae37 0c41 1b28 0fc1 be4e 0ec1 04a9 0dc1
00000150: 55e9 0f41 61d9 0e41 d73e 0fc1 1d42 0fc1
00000160: 4525 0d41 2da1 0f41 706b 0e41 79e3 0fc1
00000170: fd24 0fc1 2e1d 0cc1 d55f 0e41 78da 0f41
00000180: 92a4 0dc1 bbc4 0e41 571f 0f41 3c31 0fc1
00000190: 1f69 0fc1 b26d 0c41 fea9 0d41 383a 0e41
000001a0: 9cbc 0dc1 f741 0c41 3a36 0c41 198e 0f41
000001b0: 7bae 0b41 50a0 0e41 2181 0dc1 b9d3 0d41
000001c0: c2f4 0c41 65d2 0cc1 d93a 0fc1 7fab 0cc1
000001d0: d929 0c41 ab73 0ec1 76c0 0dc1 5616 0f41
000001e0: c01f 0cc1 b9e5 0bc1 814f 0dc1 63f7 0c41
000001f0: c75c 0c41 6915 0e41 3626 0ec1 3af1 0b41
00000200: 6dca 0b41 8856 0ec1 3a60 0dc1 a530 0f41
00000210: 8719 0ec1 3ba0 0fc1 8f44 0f41 6e29 10c1
00000220: 5d3c 0f41 42c4 0f41 fe3c 10c1 b2c9 0cc1
00000230: f4e5 0cc1 b099 0c41 faee 0bc1 f237 0f41
00000240: 6225 10c1 6793 0ec1 242c 0dc1 1500 10c1
00000250: 07e9 0b41 9493 0d41 5d1c 0c41 f182 0dc1
00000260: 1eb4 0c41 70ae 0ec1 421d 0cc1 c403 0cc1
00000270: ea20 0cc1 ce3c 0dc1 4a22 1041 24e8 0bc1
00000280: 9958 0fc1 c54e 0dc1 2da0 0d41 ae7a 0fc1
00000290: 3af9 0c41 f580 0d41 e2a7 0fc1 6fff 0d41
000002a0: 621a 0fc1 77e8 0fc1 0229 0d41 b759 0cc1
000002b0: f00c 10c1 5d05 10c1 2dee 0e41 dbbe 0c41
000002c0: d8b3 0ec1 3839 0fc1 6928 0f41 5935 0e41
-8.780336 9.014881 8.989571 -8.749617 -8.944309 -8.851012 8.736573 -8.995357
8.843604 -8.8082 -8.825274 -8.75556 -8.840565 8.821286 8.952594 8.758835
-8.971389 8.79767 -8.929999 -8.74687 -8.961049 -8.902407 -8.844314 8.856036
-8.912529 -8.889206 -8.868388 8.741717 -8.846981 8.8972 8.801587 -8.994248
8.979916 -8.860975 -8.95794 8.893613 -8.725377 -8.853426 -8.816021 8.934077
8.764839 8.71991 -8.900663 8.743406 8.730578 -8.95207 8.728607 8.744667
-8.8840065 -8.913862 -8.892373 8.903261 -8.842372 8.825132 8.761386 -8.872519
-8.906039 -8.890015 8.889774 8.977952 8.7788515 -8.836988 8.868185 8.965299
-8.842902 -8.991001 -8.923051 -8.906261 8.798323 -8.91561 -8.798733 -9.0181055
8.732874 -8.792551 8.913195 8.961817 -8.847668 8.751902 -8.831965 -8.738792
8.763594 -8.947291 -8.894224 -8.853764 8.994466 8.928071 -8.952842 -8.953641
8.821599 8.97685 8.90123 -8.993035 -8.94653 -8.757124 8.8983965 8.990837
-8.852678 8.92303 8.945151 -8.94952 -8.963164 8.776781 8.854002 8.889214
-8.858547 8.766105 8.763239 8.972192 8.730098 8.914139 -8.844026 8.86419
8.809755 -8.801366 -8.951867 -8.791869 8.760217 -8.903239 -8.859488 8.942953
-8.757751 -8.743585 -8.83191 8.810397 8.772651 8.880227 -8.884329 8.746393
8.73692 -8.896126 -8.835993 8.949376 -8.881232 -8.976619 8.954238 -9.010115
8.952237 8.9854145 -9.014891 -8.799242 -8.806141 8.787521 -8.745844 8.951159
-9.009127 -8.910987 -8.8232765 -9.00002 8.744391 8.84853 8.756925 -8.844468
8.793974 -8.917587 -8.757143 -8.750919 -8.758036 -8.827345 9.008371 -8.744175
-8.95913 -8.831731 8.851605 -8.967451 8.810846 8.843984 -8.978487 8.874862
-8.943941 -8.994254 8.822512 -8.771903 -9.003159 -9.001309 8.933148 8.796596
-8.918907 -8.951469 8.947366 8.888024

atten_layer.0.weight f4 [45, 135]
00000000: c052 bcbb 40cb d33b 10c0 bfbc 5849 8dbc
00000010: 6717 ab3d 3622 4b3d d9b8 42bd 3d6c 05bd
00000020: f650 523d 2b99 a33d 5ccd c83c 1d5d 973d
00000030: 3ca7 90bc 4e36 5b3d 80fe 68ba 8dca 01bd
00000040: 14e6 bfbc c45c dd3c 8e32 373d c081 323b
00000050: 58d2 8dbc fa02 fcbc 8087 31bb 39f2 af3d
00000060: f800 dc3c ca41 a9bd f04b 9fbc 801b 053d
00000070: 0782 a8bd 12a7 633d 647b 6abd 89eb 90bd
00000080: 6c25 2fbd 20a2 403b de57 81bd d087 d5bb
00000090: b81c 79bd 50e5 3fbc 30cc a8bd 237b 07bd
000000a0: 6033 80bb 19d4 a53d b146 afbd 6066 03bc
000000b0: 00c0 77b8 2339 9cbd 1f54 3bbd de2a 283d
000000c0: a243 6a3d 770b 853d 0bb3 9d3d bdf9 a33d
000000d0: f054 96bc 864a 8abd 39e6 97bd eaf6 2cbd
000000e0: e049 4fbd 2c1a e93c 590e 35bd 6f67 883d
000000f0: 9b5c 38bd 7bd2 8c3d 12c1 513d ef27 963d
00000100: 3f0c 94bd a935 a53d 4089 c3ba eb93 973d
00000110: 325d 423d 8806 81bd eae3 91bd 0b99 ae3d
00000120: 78ae b2bc a0fc 7bbc 809d eaba 3135 7ebd
00000130: 2055 65bc fed8 283d e0a0 6cbb 4642 a3bd
00000140: 0885 1e3d 6981 843d ff6e 0dbd 6b21 90bd
00000150: 6f9a 9b3d f279 343d 791f 9a3d 00b4 103b
00000160: 1d00 32bd 5d1f 9b3d 9ed3 0ec1 d41a 14c1
00000170: 6089 1ac1 16ea 0ec1 1505 0e41 efd3 0ec1
00000180: c85d 0fc1 d8ae 1a41 6cd5 0d41 5447 0d41
00000190: 73e5 0dc1 2d2d 0cc1 8367 0dc1 43e2 0e41
000001a0: 1161 0ec1 b284 0cc1 0a75 0dc1 34f3 0d41
000001b0: 466f 0e41 ddcd 03c1 75eb 16c1 1848 1b41
000001c0: 96ff 1841 595e 0441 2c73 0fc1 8f4d 0141
000001d0: f098 1541 51e7 0d41 cf5d 1ac1 9287 1a41
000001e0: 40e4 0d41 eef8 0ec1 ef43 0d41 be69 0ec1
000001f0: 8eae 0cc1 e0c8 0cc1 a495 0d41 3a90 0dc1
00000200: ec83 0f41 5ebe 0d41 4eec 03c1 d774 1641
00000210: 0c8f 1cc1 cc1e 10c1 5cc8 1841 cac1 8abd
00000220: c594 993d f8e9 51bd b92b 8ebd 4c7a ee3c
00000230: c08e 3e3b 0e6a 353d 80f2 513c 4c23 c9bc
00000240: 7a9d 043d eacb a2bd d335 12bd 7e44 713d
00000250: 16db 3f3d fb86 2bbd 1de2 a83d 62f4 5f3d
00000260: 8e12 2b3d 3815 7cbd 81a6 51bd faf9 92bd
00000270: a0f9 4dbd 1e36 013d 99b2 873d fd37 943d
00000280: 6026 42bb f0bb 113c aed4 f3bc e8f6 82bd
00000290: 6041 f83c 58aa ccbc ccdb 18bd 48b0 f5bc
000002a0: 44ae 8abd 1c96 54bd 1eb9 05bd 508c afbc
000002b0: 9cb1 a7bc 1f3c a33d 2859 abbc 7aeb 2f3d
000002c0: 6cd8 87bc 7785 9f3d e0bf bbbc e679 543d
000002d0: eaed 7b3d 5039 c6bc 245c f13c a424 45bd
000002e0: b2de 12bd 9e89 473d ea1f 3b3d b48a 913c
000002f0: c125 933d 797c 42bd a8c9 4e3c 7513 8dbd
00000300: 52da adbd 10d1 5bbd 3f69 af3d 4e3f 513d
00000310: 6968 803d 3a40 7a3d 10c7 33bc 200d 793c
00000320: ea2c c5bc 375f 49bd a2c8 10bd 431c 4dbd
00000330: ce6e 273d f015 24bd bcd8 9ebc 3502 a93d
00000340: 9aa9 143d f80e 7c3c dc5c 84bc 0d30 873d
00000350: 3052 af3b 605a 3f3b 60fe 3abd e99e 8fbd
00000360: 42aa 7e3d f392 43bd a98c 9bbd 92cc 9fbd
00000370: 2cd2 9e3c d83d aabd 2618 91bd 107c ae3c
00000380: dae3 263d 7736 12c1 e83c 1541 dad1 1741
00000390: 1235 0dc1 ae14 0d41 fb9f 0d41 5adc 0c41
000003a0: 9c07 11c1 a63d 1041 02e9 0e41 b367 0dc1
000003b0: 458e 0ac1 dca4 0ec1 6dde 0c41 37d8 0ec1
000003c0: d3c0 0ac1 e222 0e41 99cc 0d41 276a 0d41
000003d0: 48cf 13c1 ee49 1241 4e47 11c1 fc16 16c1
000003e0: 3398 1541 9df0 0dc1 6150 1441 9298 11c1
000003f0: e729 0f41 dd9f 1441 c550 12c1 5b1c 0e41
-0.0057471693 0.0064634383 -0.023407012 -0.017246887 0.08354073 0.049593173 -0.047539566 -0.032573927
0.05134674 0.07988199 0.024511985 0.07390807 -0.017657869 0.053518586 -0.0008888021 -0.031687308
-0.02342514 0.027021773 0.044725947 0.0027237982 -0.017312214 -0.030763138 -0.002708882 0.08591122
0.02685593 -0.082645014 -0.01944539 0.03249693 -0.08227926 0.055579253 -0.05724658 -0.07076175
-0.042760298 0.002939351 -0.063155875 -0.0065164343 -0.060818404 -0.011712387 -0.08242071 -0.033076417
-0.0039123744 0.08097095 -0.08558405 -0.008020014 -5.9068203e-05 -0.076280855 -0.04573452 0.041056506
0.057193406 0.06496327 0.07700165 0.08006618 -0.018351048 -0.067524955 -0.07416958 -0.042227663
-0.050607562 0.028454863 -0.044203136 0.066603534 -0.04501019 0.068760835 0.051209517 0.073318355
-0.07228898 0.080668755 -0.0014918223 0.0740126 0.04745216 -0.06300074 -0.07123549 0.085252844
-0.021811709 -0.015380055 -0.0017899722 -0.062062446 -0.013997346 0.041222565 -0.003610663 -0.07971625
0.038701087 0.064699955 -0.034529682 -0.07037624 0.07597815 0.04406161 0.07525534 0.0022079945
-0.04345714 0.075743414 -8.926664 -9.25655 -9.658539 -8.93215 8.876241 -8.926742
-8.960396 9.667686 8.864605 8.829914 -8.868518 -8.761029 -8.837771 8.93024
-8.898698 -8.782396 -8.841074 8.871876 8.902166 -8.23776 -9.432485 9.705101
9.562399 8.273034 -8.965618 8.081435 9.349838 8.868974 -9.6479025 9.658098
8.868225 -8.935774 8.829085 -8.900816 -8.792616 -8.799042 8.849033 -8.847712
8.9697075 8.858976 -8.245192 9.403525 -9.784924 -9.007519 9.548916 -0.067752436
0.07499079 -0.05124852 -0.06941933 0.02911105 0.0029076785 0.044290595 0.012814164 -0.024552964
0.032376744 -0.0794905 -0.035695862 0.05890321 0.046839796 -0.041876774 0.08246253 0.05467642
0.041765742 -0.061543673 -0.05118418 -0.071765855 -0.05028689 0.03154575 0.06625862 0.072372414
-0.0029624924 0.008894905 -0.0297645 -0.0639475 0.03030461 -0.02498357 -0.03731899 -0.029991284
-0.0677152 -0.051900968 -0.032647245 -0.02142921 -0.020470433 0.079704516 -0.020916536 0.042949177
-0.01658269 0.07789128 -0.022918642 0.051874064 0.06150619 -0.02419725 0.029462881 -0.048130646
-0.03585691 0.048715226 0.045684732 0.017766334 0.07184935 -0.047481988 0.012621321 -0.06888477
-0.08488907 -0.053666174 0.08564996 0.051085763 0.06269915 0.061096407 -0.010972753 0.015200883
-0.024069268 -0.04916307 -0.03534759 -0.05007578 0.040877156 -0.040059984 -0.019390456 0.08252374
0.036294557 0.015384428 -0.01615756 0.06600962 0.0053503737 0.0029198155 -0.045652747 -0.070127316
0.06217409 -0.047747564 -0.07595188 -0.078026906 0.019387327 -0.08312577 -0.07084684 0.021299392
0.04074464 -9.138297 9.32737 9.488733 -8.825457 8.817549 8.851558 8.803797
-9.064358 9.015051 8.931887 -8.837817 -8.659734 -8.915249 8.804303 -8.927787
-8.672076 8.883516 8.862451 8.838416 -9.238106 9.143049 -9.079908 -9.380611
9.349658 -8.8712435 9.269624 -9.099749 8.94773 9.289029 -9.144719 8.881923

atten_layer.0.bias f4 [45]
00000000: 2fb7 0841 4b2f 0f41 cd66 0b41 a9e2 0dc1
00000010: 8e25 0dc1 5c80 0ec1 58a5 0fc1 4f36 0d41
00000020: b12b 0ec1 f2ad 0d41 3326 0cc1 b4cb 0ec1
00000030: 8682 0e41 949d 0cc1 6f64 0bc1 89f2 0e41
00000040: d655 0cc1 c923 0fc1 fc9f 0bc1 7174 0cc1
00000050: c98b 0ec1 75e8 0f41 24cb 0c41 7792 0e41
00000060: d0dd 0fc1 21be 0ec1 55ea 0dc1 4101 0ec1
00000070: 4421 0cc1 3d43 10c1 90ea 0c41 7b5f 0e41
00000080: 135b 0e41 bd67 0e41 8602 0dc1 d382 0fc1
00000090: 5dc8 0e41 0301 0d41 92f2 0fc1 b304 0d41
000000a0: 7eb6 0bc1 d976 0ec1 e471 0e41 90b7 0e41
000000b0: 0ed5 0bc1
8.544723 8.949046 8.712598 -8.867837 -8.821669 -8.906338 -8.977867 8.825759
-8.885667 8.854967 -8.759326 -8.924732 8.906866 -8.788471 -8.71202 8.934213
-8.770956 -8.946237 -8.726559 -8.778428 -8.909127 8.994252 8.799595 8.910758
-8.991653 -8.921418 -8.86971 -8.875306 -8.7581215 -9.016416 8.807266 8.898311
8.897235 8.900327 -8.813116 -8.9694395 8.923917 8.812747 -8.996721 8.813647
-8.732054 -8.904016 8.902805 8.919815 -8.739515

atten_layer.2.weight f4 [1, 45]
00000000: 3cbb e140 fe5a 2dc1 b912 0341 77b0 e8c0
00000010: 6fd9 f4c0 476c e7c0 419c ffc0 145f 1bc1
00000020: 9642 eec0 0e2a f140 5833 d4c0 b141 1a41
00000030: 00d7 1ec1 f353 f3c0 8dbf 3841 a100 0241
00000040: bea0 2841 699b 1e41 c8ef dec0 a24c e2c0
00000050: 0c2f 1741 0c2f 0d41 1f4e 0b41 ad64 0b41
00000060: 5544 1341 b94c 2541 fa18 08c1 6926 02c1
00000070: 59aa 3041 e36d 1241 9264 0a41 8b09 23c1
00000080: 788b 0141 9431 11c1 76b4 2041 b2aa 04c1
00000090: b73c 17c1 1938 1bc1 0605 1a41 e9d5 23c1
000000a0: b779 e4c0 2539 1441 77c3 26c1 2aa2 0d41
000000b0: 1654 e3c0
7.0541058 -10.834715 8.192071 -7.271541 -7.651542 -7.2319674 -7.987824 -9.710712
-7.445628 7.5363836 -6.6312675 9.641038 -9.92749 -7.6039977 11.546765 8.125154
10.539244 9.912942 -6.96677 -7.0718546 9.448986 8.823986 8.706573 8.712079
9.204183 10.331231 -8.506098 -8.1343775 11.041589 9.151828 8.649553 -10.18983
8.09655 -9.074604 10.044058 -8.291674 -9.452323 -9.701196 9.626226 -10.239724
-7.139858 9.263951 -10.422721 8.852091 -7.1040144

lstm.weight_ih_l0 f4 [180, 45]
00000000: 45c6 0941 820b 10c1 6cba 10c1 a4e1 0d41
00000010: e213 10c1 84f4 0d41 41f3 0b41 b639 1041
00000020: ff21 0bc1 f760 1041 bfeb 0c41 f926 0f41
00000030: 9bfd 0d41 b3a1 0d41 ef91 0ec1 6872 1041
00000040: 93e8 0cc1 808e 10c1 2ea5 0dc1 c348 1141
00000050: 138e 11c1 1f40 1441 85f4 1041 5b29 0ec1
00000060: 56fb 0341 e5e9 11c1 9d6e 1141 4a34 0ec1
00000070: cb92 12c1 6814 1041 4d8d 0dc1 37e9 0fc1
00000080: 1f69 0dc1 6356 0f41 12f3 0f41 2d02 10c1
00000090: b83d 0ec1 297d 0d41 cff9 0d41 bfb6 0fc1
000000a0: ca51 0ec1 d75c 1141 0ac7 11c1 02b0 0fc1
000000b0: 1b33 1241 6a6b 1041 7b31 13c1 4d7b 10c1
000000c0: bef5 0f41 5112 0f41 4ccb 0e41 55dc 0e41
000000d0: cc11 0f41 e705 0dc1 fb52 0d41 2c30 0d41
000000e0: 6d8e 0cc1 3441 0e41 4b46 0cc1 b106 0dc1
000000f0: 754e 0c41 fd41 0ec1 641c 0cc1 6bc1 0cc1
00000100: 3f41 1141 ecb0 11c1 9cca 0e41 9a71 1341
00000110: 48e2 0fc1 cdad eac0 a006 11c1 75fa 1041
00000120: 3beb 0bc1 8d21 12c1 d969 1041 f786 0dc1
00000130: 01b9 0fc1 d379 10c1 f369 0d41 0fb7 0c41
00000140: 3439 0ec1 f652 0ec1 37c5 0e41 f974 0f41
00000150: d5ce 0bc1 c859 0ec1 8e1e 1141 637e 0ec1
00000160: 6ab9 09c1 b0b1 1141 c55e 0cc1 35db 11c1
00000170: 2ec4 11c1 cdea 0c41 6b62 0ec1 cec4 0d41
00000180: f654 0ec1 0ca0 1141 4b24 10c1 fc46 0fc1
00000190: a4a6 0d41 d7af f1c0 841a 0fc1 7387 0f41
000001a0: b39f 0c41 2065 0c41 9335 0f41 edb6 0c41
000001b0: e502 0dc1 5a61 1141 7a1a 11c1 6b39 0f41
000001c0: daaf 0e41 98a8 0fc1 4a12 ccc0 8a1a 0fc1
000001d0: 9b44 1341 26c2 0dc1 723f 11c1 d1af 1041
000001e0: 7f4b 1041 e018 0c41 a37a 0ec1 d841 1041
000001f0: 574c 0d41 f5ac 0e41 5351 1041 07d4 0f41
00000200: 53e7 0bc1 5099 0ec1 d1ae 0d41 2d2f 1041
00000210: 4e10 12c1 764d 0d41 75e0 0e41 d2d0 1041
00000220: f4a3 12c1 f1b8 11c1 d8df 0f41 c921 0dc1
00000230: 358c 0c41 b25b 1041 ee27 1341 3edc 0cc1
00000240: 6bd3 0cc1 5d1c 1041 c9ea 0ac1 51c5 0b41
00000250: 6e41 0f41 6474 0f41 eb2f 0f41 ed04 0e41
00000260: 3404 0cc1 da36 0ec1 acaa 1441 ab69 10c1
00000270: d4ac 0f41 200c 1341 244e 14c1 2e5a eb40
00000280: d229 12c1 bafd 1141 8ac2 0cc1 6b24 14c1
00000290: 4187 1241 79f0 0cc1 71ae 1041 6f92 0cc1
000002a0: d87e 0c41 91dc 0e41 3740 0fc1 2435 0cc1
000002b0: 70a2 0b41 dbe0 0cc1 a61a 0dc1 92e9 0e41
000002c0: bc85 1041 78f1 0fc1 ef4e 0d41 7360 1041
000002d0: 78a0 0d41 551d 12c1 fe6e 15c1 00df 0c41
000002e0: 4d1b 0b41 7536 0f41 92f4 0d41 b465 1141
000002f0: 082c 10c1 0717 10c1 404b 0d41 71a1 0ec1
00000300: e966 0c41 2505 0ac1 24b5 1041 b07d 0f41
00000310: fac0 0d41 e549 0dc1 02eb 0bc1 beb7 1341
00000320: 5fcb 14c1 7e3f 1041 0402 1241 ea32 14c1
00000330: f28d 0741 f2d7 14c1 8225 1341 69c8 0cc1
00000340: cece 10c1 50cb 1141 c4f4 0dc1 060e 0e41
00000350: 1799 0ec1 8db6 0f41 50e1 0f41 ebd8 0cc1
00000360: 92b4 0cc1 d430 0f41 899d 0bc1 e50a 0fc1
00000370: 11e5 0fc1 7ba8 1341 195c 11c1 de40 1041
00000380: 96e6 1041 5a0c 1041 d70e 11c1 ed5f 13c1
00000390: c21a 0d41 36cd 0fc1 dcb2 0d41 4aec 0b41
000003a0: bb4b 1041 f414 0fc1 5b80 10c1 d3ec 0d41
000003b0: 9769 03c1 22c0 0d41 4e1e 0e41 8fa1 0e41
000003c0: a3f0 0e41 aafe 0c41 38c0 0fc1 cbfa 0ec1
000003d0: b7ef 0f41 cb75 11c1 befb 0e41 b3d2 0f41
000003e0: 9205 12c1 5eb3 e0c0 7d97 12c1 f717 0f41
000003f0: 220f 10c1 f40e 12c1 3e67 1341 76b8 0ec1
8.610906 -9.00281 -9.045513 8.867588 -9.004854 8.872196 8.746888 9.01409
-8.6958 9.023673 8.807555 8.947015 8.874415 8.851977 -8.910628 9.027931
-8.806781 -9.03479 -8.852827 9.080264 -9.097186 9.265655 9.059697 -8.885097
8.248861 -9.119603 9.089505 -8.887766 -9.160838 9.004982 -8.846997 -8.994437
-8.838164 8.9585905 8.996843 -9.000531 -8.890068 8.843057 8.873488 -8.982116
-8.894968 9.085166 -9.1110935 -8.980471 9.137477 9.026224 -9.19958 -9.030103
8.997496 8.941972 8.924633 8.928792 8.941845 -8.813941 8.832759 8.824261
-8.784772 8.890919 -8.767161 -8.814134 8.769155 -8.89111 -8.756931 -8.797221
9.078429 -9.105694 8.924465 9.215235 -8.992744 -7.333716 -9.064117 9.061147
-8.744929 -9.133191 9.025842 -8.84545 -8.982667 -9.029742 8.8383665 8.794692
-8.888966 -8.895254 8.923148 8.966058 -8.737996 -8.896919 9.06996 -8.905856
-8.607767 9.105881 -8.773137 -9.116017 -9.110395 8.807324 -8.899028 8.860548
-8.895742 9.101574 -9.008861 -8.95483 8.853184 -7.552715 -8.943974 8.970569
8.788989 8.774689 8.95058 8.79466 -8.813207 9.086267 -9.068964 8.951518
8.9179325 -8.978661 -6.3772326 -8.943979 9.204249 -8.8598995 -9.07799 9.042924
9.018432 8.756073 -8.904941 9.016075 8.831138 8.917226 9.019855 8.9892645
-8.743976 -8.91243 8.85518 9.011518 -9.128981 8.831411 8.929799 9.0509815
-9.165028 -9.107652 8.992149 -8.820748 8.78423 9.022387 9.197248 -8.80377
-8.801616 9.006925 -8.682321 8.735673 8.953474 8.965916 8.949199 8.876203
-8.751026 -8.8883915 9.291668 -9.025798 8.979694 9.19046 -9.269077 7.3547583
-9.13521 9.124445 -8.797495 -9.258891 9.158021 -8.808709 9.042588 -8.78575
8.780968 8.928849 -8.953177 -8.762974 8.727158 -8.804896 -8.819006 8.932024
9.03265 -8.996452 8.831771 9.023547 8.851677 -9.132161 -9.339598 8.804443
8.694165 8.950795 8.87221 9.08733 -9.01075 -9.005622 8.830872 -8.914414
8.775125 -8.626256 9.044224 8.968185 8.859613 -8.830541 -8.744875 9.232359
-9.299651 9.015501 9.125492 -9.26243 8.472155 -9.302721 9.196657 -8.798928
-9.050489 9.112137 -8.872257 8.878424 -8.912375 8.982068 8.992508 -8.8029585
-8.794085 8.949421 -8.725961 -8.94016 -8.993424 9.228633 -9.084985 9.015837
9.056295 9.0030155 -9.066123 -9.210919 8.819033 -8.9876 8.856167 8.745188
9.018489 -8.9426155 -9.031337 8.870318 -8.213279 8.859407 8.882399 8.914443
8.933749 8.812174 -8.984428 -8.936229 8.996024 -9.091258 8.9364605 8.98894
-9.12636 -7.0218954 -9.161984 8.943351 -9.003695 -9.128651 9.212706 -8.920034

lstm.weight_hh_l0 f4 [180, 45]
00000000: 1096 73bc 4b1e 103e 37b5 15be e0ef 823b
00000010: 84f7 14be 31a0 b9bd 08e3 1d3d 222c cc3d
00000020: 40ef c2bc 95e2 073e 0e7f 8a3d aaec 09be
00000030: 3024 18bd e058 b9bc 188d c2bc cc5f 803d
00000040: 6ac5 fb3d 46ea cfbd 5a5f a9bd 94f1 b5bd
00000050: 7883 e33c 6c35 753d e284 c8bd 1828 a53d
00000060: 2a7d 863d 02a6 34bd a43a 38bd e1a7 0ebe
00000070: 86e5 c2bd ccb7 2e3d 6007 6f3d a991 063e
00000080: 4657 0dbd 149d ce3d 1c78 a9bd 49f9 f3bd
00000090: 2eaa 02be 2451 c93d 385b c0bc c2cd f63d
000000a0: fcf2 5ebd 6d13 183e 801e 813d dd4f 8dbd
000000b0: 7282 a53d 9029 17bd acba cb3d e8e5 b5bc
000000c0: 0158 173e eed3 e33d 021b 0cbe 6060 0a3d
000000d0: d0ea 46bc 70f1 61bd 6435 9c3d 48dd ddbc
000000e0: a027 5fbd 1827 ccbd 36c3 f0bd 6a07 b73d
000000f0: 8685 c33d 18ea 9fbc fc42 bf3d ea87 82bd
00000100: 56c5 f83d 9e92 0dbd 26cd 8b3d c013 bd3c
00000110: cf51 113e f8df 93bc ea8e f3bd 76ea c5bd
00000120: c033 bebb a80c 0dbd 0cda c2bd d619 debd
00000130: f1b8 09be a4c3 1dbd d6de c63d 2824 b23c
00000140: 009b 4d3b 4d57 17be c033 f23b 2cfd 10be
00000150: 82b6 cabd 5469 92bd ff04 07be c001 86bc
00000160: c6a7 9e3d b2a5 d1bd 67bd 16be 22b4 e8bd
00000170: 1027 5a3c 8d6b 173e dac4 f13d c55a 0c3e
00000180: 40d8 543b fc75 5d3d 8082 2bbd 88ef eebd
00000190: a837 153d 8491 993d 4e29 e93d e084 b1bd
000001a0: 48bb c53c feba f4bd 2278 08be 16fd 8abd
000001b0: 74ef d8bd e5a5 e7bd d02c 39bc 95f7 01be
000001c0: e04d f0bd d256 d3bd d3fe babd b08a 1f3c
000001d0: 28e1 8ebc 2a1d 803d 582f c0bc 6cb4 713d
000001e0: baaa 0ebd b6b6 993d b058 843d 1a78 f53d
000001f0: a87c e63c 2af8 e8bd 64d1 4a3d 80db 433c
00000200: 68cb bcbd 0ed8 823d 9c51 0f3d 7857 b3bc
00000210: c62f ddbd da40 21bd aec6 afbd a807 983c
00000220: ea49 8bbd 8080 e6bb d64c 03bd d86c 303d
00000230: 8026 8c3d f863 eebc 14a5 b53d 082f 04be
00000240: 0b97 113e 8368 113e d1bc 023e 8aa2 afbd
00000250: 6699 1fbd 50db 123d b4d0 fbbd faf1 dc3d
00000260: 80b7 c83b fdac 003e e6fd ffbd 1692 25bd
00000270: f22f 08be 48fb 5dbd 1821 cd3c 0076 64bb
00000280: 684f 7a3d 2c09 47bd 3031 34bd 3969 e8bd
00000290: eaaa 13be 1575 013e 816b d3bd f9db f8bd
000002a0: 88f4 0ebd 0032 5abc 8847 ea3c 2e43 dbbd
000002b0: 1d07 e1bd ef07 02be 7e02 a13d 94b8 8d3d
000002c0: 407c 88bd 0088 153b b060 e4bc 54db 153d
000002d0: 8ca6 c0bd cd37 9ebd 00e4 f4bc 6248 17bd
000002e0: aa52 a4bd 94d9 e3bd 08f1 9cbc fad5 f1bd
000002f0: 543c fabc 2957 013e 4087 3a3d 707e 593c
00000300: 608c 1cbd 0e09 913d 5093 543d 4eef a63d
00000310: c431 9e3d d856 8a3c 4079 bdbc 7689 fdbd
00000320: 1e2c dfbd 46a0 af3d 781e e8bc f085 073c
00000330: ecdd 06be 18c8 cbbd fb6c a8bd ce30 de3d
00000340: ba23 e63d ee8a 2dbd c7bd 8abd 5a0f d63d
00000350: 9ce7 b03d 6a6b b0bd ee35 e93d cccb 6e3d
00000360: b004 643c 9e79 8bbd bc48 c73d c7e8 aebd
00000370: c023 edbb 5130 d9bd 89e0 14be bfb2 8ebd
00000380: f602 59bd 80a6 763d b8df b53d cbb6 01be
00000390: ae31 ae3d 0e8e dbbd af97 0e3e 7fd9 c1bd
000003a0: c417 0b3d b0d2 3f3d 9e9d 07bd 7d93 a8bd
000003b0: 0de5 0d3e f148 173e 51c9 043e a2c7 58bd
000003c0: 805d 503c f21b b8bd 00c3 0fba af37 ecbd
000003d0: b8bf 48bd 18d3 653d 2846 bcbd 165e b3bd
000003e0: 1a8b e03d b0f3 57bd 14c3 8ebd f6a7 8f3d
000003f0: 4aee e3bd 0ae6 04bd 80d1 023b 9a9d f43d
-0.014867321 0.14074056 -0.14619909 0.0039958805 -0.14547545 -0.09063757 0.038546592 0.09969355
-0.023795724 0.13270028 0.06762515 -0.13469186 -0.037143886 -0.022625387 -0.02374892 0.06268272
0.12293513 -0.10152106 -0.0827014 -0.08883968 0.02777265 0.0598654 -0.097909704 0.08064288
0.06566842 -0.04410363 -0.0449778 -0.13931228 -0.09516434 0.04265575 0.058356643 0.13141502
-0.03450706 0.10088554 -0.08274862 -0.11912782 -0.12760231 0.098299295 -0.023480996 0.12050964
-0.054430947 0.1485116 0.063046455 -0.06899998 0.08081521 -0.03690487 0.09947714 -0.022204354
0.14779665 0.11124407 -0.13682178 0.033783317 -0.012140945 -0.055161893 0.07627371 -0.027083054
-0.05448115 -0.09968394 -0.117559835 0.08936961 0.09546952 -0.019520804 0.09338948 -0.0637358
0.12147014 -0.034563653 0.06826238 0.023080707 0.14191364 -0.018051133 -0.11892493 -0.096638605
-0.005804509 -0.034435898 -0.095142454 -0.108447716 -0.13449456 -0.038516656 0.09710471 0.021745756
0.0031372905 -0.14779396 0.007391423 -0.14159077 -0.09898092 -0.07148996 -0.131855 -0.016358256
0.07746844 -0.10236682 -0.14720689 -0.113624826 0.013314977 0.14787121 0.118051246 0.13706501
0.0032477528 0.054067597 -0.0418725 -0.11666781 0.03643003 0.07498458 0.11384831 -0.08667922
0.024137154 -0.119497284 -0.13327077 -0.067865536 -0.10592547 -0.11310939 -0.011302188 -0.12692101
-0.117336035 -0.10319294 -0.09130635 0.0097376555 -0.017441347 0.062555626 -0.023460075 0.059009954
-0.034830786 0.075055525 0.06462228 0.11985798 0.028135613 -0.113754585 0.049516097 0.011954188
-0.09218484 0.063888654 0.03498994 -0.021892294 -0.10800128 -0.039368488 -0.08582817 0.018558338
-0.06801207 -0.0070343614 -0.0320557 0.04307255 0.06843281 -0.029100403 0.08869377 -0.12908566
0.14217775 0.14200024 0.1276734 -0.08575924 -0.03896465 0.035853684 -0.12295666 0.10788341
0.0061253905 0.1256599 -0.12499599 -0.04042252 -0.1329954 -0.05419472 0.025040194 -0.0034860373
0.061110884 -0.04859273 -0.04399222 -0.11348195 -0.14420667 0.1264232 -0.10323239 -0.121513315
-0.034901172 -0.013317585 0.028598562 -0.10706173 -0.10987685 -0.12698339 0.078618035 0.06919971
-0.06664324 0.0022816658 -0.027878135 0.03658612 -0.09406766 -0.07725487 -0.029893875 -0.036934264
-0.080235794 -0.11125484 -0.019157901 -0.11808391 -0.030546345 0.12630905 0.04553914 0.013274774
-0.03821981 0.07081805 0.0518983 0.081511125 0.07724336 0.016887113 -0.023129106 -0.12379734
-0.108970866 0.085754916 -0.028334841 0.008271679 -0.13170594 -0.09950274 -0.082239114 0.108491525
0.11237283 -0.04236882 -0.067744784 0.10452147 0.08637926 -0.086142376 0.113872394 0.058299825
0.013917133 -0.06810306 0.0973067 -0.085404925 -0.0072369277 -0.10604919 -0.14538778 -0.06967687
-0.05298134 0.06021738 0.088805616 -0.12667386 0.085055694 -0.10720454 0.1392505 -0.09465312
0.03395821 0.046831787 -0.0331093 -0.08231256 0.13856907 0.14773919 0.12967421 -0.05292476
0.012717605 -0.08989705 -0.00054840744 -0.11534058 -0.049010962 0.056109518 -0.09193069 -0.0875818
0.109640315 -0.052722633 -0.06970802 0.07014458 -0.111294344 -0.032445945 0.0019961298 0.119441226

lstm.bias_ih_l0 f4 [180]
00000000: b55b 1941 1a23 1a41 c6ce 1841 7fe2 1941
00000010: a394 1a41 2a97 1841 83f8 1a41 1fbc 1a41
00000020: 9948 1841 6f4f 1a41 087a 1941 0821 1a41
00000030: 99ca 1941 8ddd 1a41 4ff7 1a41 507c 1641
00000040: e2a1 1741 ecd5 1a41 ad7d 1c41 a862 1941
00000050: 5f46 1a41 4ee8 1a41 2b9c 1941 f783 1941
00000060: e35e 1841 2d0d 1941 1995 1941 5f7a 1841
00000070: f5ce 1941 e286 1c41 ff54 1c41 1161 1a41
00000080: 4cc2 1941 d640 1941 16e8 1d41 4328 1941
00000090: de47 1b41 37e1 1741 a4f5 1b41 5891 1d41
000000a0: d57d 1a41 d612 1c41 b34e 1e41 8794 1a41
000000b0: c0fc 1b41 8c08 9ebd 001a de3b a0bd efbb
000000c0: 8cae 0d3d 7809 1dbd 18b0 be3d a23b cf3d
000000d0: c424 b63d 12a1 25bd d601 14bd 86e2 e53d
000000e0: 1652 d63d b821 2f3d 32b4 6cbd d4c3 f0bd
000000f0: 2045 adbb 20d5 97bb 302d c0bd 8ca9 913d
00000100: 34c6 ae3d 9c77 893d 509e bcbc ae25 b3bd
00000110: 8485 0ebe 5e0a b6bd 0062 aebd 3785 a7bd
00000120: 619f d2bd 127a 93bd 7773 143e 6431 a3bd
00000130: 98f6 623d 3ed0 c1bd 9640 c33d 4723 0abe
00000140: 4cb7 343d a709 153e a2b3 9ebd 781e 9c3c
00000150: 04c8 12be 867a 78bd ca2c e53d 84e3 c03d
00000160: 64ef 513d 76ee a83d e84c 20c1 e79f 1bc1
00000170: ab02 1c41 6729 1fc1 1dde 1fc1 7493 19c1
00000180: fee7 1fc1 2bab 1ac1 300e 1a41 3f31 1841
00000190: d320 17c1 1e2b 2541 69c9 23c1 7421 1dc1
000001a0: 82a2 1f41 cc77 1941 ee12 16c1 5060 1741
000001b0: 1908 2341 437c 1e41 2a5e 1741 b81f 18c1
000001c0: 2e56 1fc1 d9af 1741 cea4 1c41 2560 1ac1
000001d0: 7ef2 1bc1 22da 1e41 1e6d 1b41 7eed 1741
000001e0: 6687 17c1 279a 1bc1 ff71 1d41 ebed 1841
000001f0: 7c2a 17c1 5ad2 1a41 2159 1641 4656 1c41
00000200: 28e3 1ec1 b1fc 1c41 8a61 1b41 1c65 1cc1
00000210: d5cb 21c1 2d4c 19c1 5165 1ac1 1083 1b41
00000220: d365 1a41 728c 1c41 e5fb 1941 cabe 1941
00000230: 6561 1a41 9ad9 1941 d8a2 1a41 baca 1b41
00000240: e0e6 1d41 f5e8 1b41 8f1e 1e41 0906 1c41
00000250: 11f8 1a41 064f 1d41 a48c 1b41 8dab 1a41
00000260: d833 1b41 92c4 1d41 4f6a 1b41 c089 1a41
00000270: 0d44 1d41 be63 1b41 ee7c 1b41 4be2 1941
00000280: 62bf 1c41 2c4e 1b41 5ca0 1741 f259 1741
00000290: 0b39 1e41 fdb0 1c41 db80 1941 db52 1941
000002a0: 4d72 1a41 e135 1e41 9a0a 1a41 516e 1b41
000002b0: b575 1b41 274f 1c41 3171 1b41 ebad 1941
000002c0: 0c3e 1c41 bcd1 1e41 9642 1841 3720 1941
9.584889 9.63357 9.550482 9.617797 9.661288 9.536905 9.685672 9.670928
9.517724 9.644393 9.592293 9.633064 9.611962 9.67909 9.685378 9.40535
9.477022 9.677227 9.780683 9.586586 9.64218 9.681715 9.600627 9.594718
9.523166 9.565717 9.598901 9.529876 9.613027 9.78293 9.770751 9.648698
9.609936 9.578329 9.869162 9.5723295 9.705046 9.492484 9.747471 9.847984
9.655721 9.754599 9.894214 9.661262 9.749207 -0.07716474 0.006778002 -0.0073163062
0.03459029 -0.03833911 0.09310931 0.10118796 0.08893731 -0.04043681 -0.036134563 0.112248465
0.104648754 0.042756766 -0.057789035 -0.11756101 -0.0052877814 -0.004633561 -0.09383619 0.071124166
0.08533898 0.06712267 -0.023024708 -0.08747421 -0.1391812 -0.08888696 -0.08514786 -0.081797056
-0.10284305 -0.072010174 0.14497171 -0.07968405 0.05541095 -0.09463547 0.09533803 -0.1349002
0.044120118 0.14554463 -0.07749106 0.019057497 -0.14334112 -0.060663722 0.111901835 0.09418395
0.05125369 0.08248608 -10.018776 -9.726539 9.750651 -9.947608 -9.991727 -9.598499
-9.994139 -9.666789 9.628464 9.512023 -9.445514 10.323027 -10.236672 -9.820667
9.977175 9.591747 -9.3796215 9.461014 10.189477 9.905337 9.460489 -9.507744
-9.95854 9.480432 9.7902355 -9.648473 -9.746702 9.928255 9.71414 9.4954815
-9.470556 -9.725135 9.840331 9.558085 -9.447872 9.676355 9.39676 9.771063
-9.930458 9.811692 9.711313 -9.774685 -10.112264 -9.581098 -9.649735 9.719498
9.649859 9.784288 9.623998 9.609079 9.648778 9.615625 9.664757 9.736994
9.868866 9.744374 9.882461 9.751473 9.685563 9.831793 9.721836 9.6668825
9.700157 9.860491 9.713454 9.65863 9.829114 9.711851 9.718 9.617747
9.796724 9.706585 9.47665 9.459459 9.8889265 9.79321 9.593959 9.582728
9.652905 9.888154 9.627588 9.714433 9.716237 9.769324 9.715135 9.60496
9.765148 9.926205 9.516256 9.570365
