Ni_prediction/savemodel/bst_mod_310.pth (torch_old, 533443 bytes, 44 tensors)

price_encoder.attention.weight f4 [1, 121]
4.513125 4.546702 4.460634 -4.5524974 -4.3910427 4.3935556 4.507887 -4.3870497
4.490859 4.4571123 4.451684 4.5260196 -4.408277 -4.4695244 -4.474824 4.4197707
4.3914437 -4.423478 4.3432913 4.4878197 4.346626 4.4722586 4.5225635 -4.512225
-4.5125732 4.4521623 -4.41053 -4.5224414 -4.5016727 -4.4295993 4.5054703 -4.449805
4.463978 4.5541377 4.401121 4.4595947 -4.5144825 4.5204587 4.48143 -4.5153675
4.4728727 4.556816 4.4310465 4.516575 4.4496546 4.5181913 4.5178833 4.5189643
4.5526342 4.4518948 4.414919 4.440874 4.5131016 4.445203 4.380683 4.4773827
4.498729 -4.544078 -4.4757104 4.5632057 4.4132667 -4.5314026 -4.4965453 -4.3814993
-4.549574 4.536831 4.469413 4.4320087 4.4126663 -4.4622626 -4.446628 4.4819736
4.4941454 4.4072943 -4.4125896 4.391773 -4.412369 3.517817 4.534154 4.500713
-4.3995605 -4.409973 4.477602 4.440417 4.5405903 -4.5528126 -4.389063 -4.5566926
4.5282087 4.5209084 4.5523386 4.545599 4.438107 4.529735 -4.424043 -4.555378
-4.4249487 4.4919143 -4.509127 4.3653164 4.4296103 4.4426146 4.471037 4.53806
4.5144343 4.420383 4.3883934 4.5172434 4.523605 4.4701886 4.386046 4.4746118
4.379579 4.4939446 4.5421476 4.3873553 4.441713 4.434507 4.5266023 4.486857
4.5177326
00000000: 856b 9040 957e 9140 84bd 8e40 0fae 91c0
00000010: 6c83 8cc0 0298 8c40 9c40 9040 b662 8cc0
00000020: 1eb5 8f40 aaa0 8e40 3274 8e40 27d5 9040
00000030: 9b10 8dc0 5806 8fc0 c231 8fc0 c36e 8d40
00000040: b586 8c40 228d 8dc0 3efc 8a40 389c 8f40
00000050: 8f17 8b40 be1c 8f40 d7b8 9040 2664 90c0
00000060: 0067 90c0 1d78 8e40 1023 8dc0 d7b7 90c0
00000070: b40d 90c0 47bf 8dc0 d02c 9040 cd64 8ec0
00000080: e8d8 8e40 7fbb 9140 fcd5 8c40 00b5 8e40
00000090: a476 90c0 99a7 9040 e067 8f40 e47d 90c0
000000a0: c621 8f40 70d1 9140 22cb 8d40 c887 9040
000000b0: 9263 8e40 0695 9040 8092 9040 5b9b 9040
000000c0: 2eaf 9140 ec75 8e40 0447 8d40 a41b 8e40
000000d0: 546b 9040 1a3f 8e40 8e2e 8c40 b846 8f40
000000e0: 97f5 8f40 1669 91c0 0539 8fc0 c805 9240
000000f0: 7b39 8d40 4001 91c0 b3e3 8fc0 3e35 8cc0
00000100: 1c96 91c0 b82d 9140 6e05 8f40 04d3 8d40
00000110: 9034 8d40 dbca 8ec0 c74a 8ec0 546c 8f40
00000120: 0ad0 8f40 8e08 8d40 ef33 8dc0 6889 8c40
00000130: 2032 8dc0 ea23 6140 ca17 9140 d705 9040
00000140: 33c9 8cc0 801e 8dc0 8448 8f40 e517 8e40
00000150: 844c 9140 a4b0 91c0 3473 8cc0 6dd0 91c0
00000160: 16e7 9040 48ab 9040 c2ac 9140 8c75 9140
00000170: f904 8e40 97f3 9040 c391 8dc0 a8c5 91c0
00000180: 2e99 8dc0 c3bd 8f40 c54a 90c0 acb0 8b40
00000190: 5ebf 8d40 e629 8e40 bc12 8f40 ca37 9140
000001a0: 3f76 9040 c773 8d40 b86d 8c40 428d 9040
000001b0: 5fc1 9040 c90b 8f40 7d5a 8c40 0530 8f40
000001c0: 8325 8c40 65ce 8f40 4659 9140 3765 8c40
000001d0: 8322 8e40 7be7 8d40 edd9 9040 5594 8f40
000001e0: 4491 9040

price_encoder.encoder.weight_ih_l0 f4 [180, 45]
-0.10081503 -0.11793174 0.032030195 0.08252931 -0.05553808 0.10434081 0.0786314 -0.12203796
-0.10363906 -0.011906922 -0.11033716 -0.057845883 -0.026593558 0.030670568 -0.12094639 0.015055522
0.050929055 -0.08312994 0.09051782 0.11508541 0.106231935 0.06855874 -0.106697455 -4.363698
-0.14499222 -0.14838655 -0.12169918 0.12855284 0.13309984 0.036279887 -0.13216035 -0.007720217
0.1171736 4.289249 4.42375 4.4411116 4.4576554 4.4622355 -0.32889754 4.409419
4.618339 4.547047 4.407082 0.024258867 -0.12438552 -0.12516586 0.06994613 0.11041421
0.04471076 0.09187691 0.123612195 -0.06907993 0.0860339 0.060833734 0.03135532 0.091763556
-0.02062574 0.06786533 0.12960862 0.012076467 -0.14174514 -0.13400184 0.004851505 -0.0328466
0.1004089 1.703825 0.030905377 -0.0708015 4.3300147 -0.12055867 -0.14411847 0.12071128
-0.04557728 -0.14229444 -0.0031163245 -0.043618716 0.1389936 -0.09410692 4.3881063 4.34424
4.4454737 4.3991055 4.6031556 -0.1321793 4.4092655 4.3754997 4.3898077 4.550582
0.040094435 0.04406303 0.10544053 -0.0067943875 -0.11748524 -0.10969683 0.028270796 0.049837105
0.06516197 0.06641697 -0.027701043 -0.083775625 -0.13097677 0.019675344 -0.04967653 -0.101086855
0.0057055205 0.016693756 0.09478618 -0.09748939 0.014427438 -0.08216834 1.5744221 -0.014171129
-0.07819607 4.4278355 -0.05385317 0.040727615 -0.044189923 0.011741241 -0.10110775 0.14104538
-0.10903217 0.14078091 -0.13879293 4.5800514 4.3431263 4.441504 4.5071707 4.5592866
-4.4239874 4.428587 4.547501 4.348637 4.418273 0.05854948 -0.0628588 0.097312465
-0.05437591 -0.12997267 -0.021346096 -0.039175212 0.11596094 0.120828584 0.094717704 -0.004308552
0.07895869 0.112611786 0.11571257 0.098501086 -4.3367243 0.035623893 0.06157522 -0.036585532
-0.009238392 1.8143239 0.043764375 -0.27665707 -0.016111974 0.058618736 -4.4667425 0.048548266
0.14540882 -0.06431627 -0.08895911 -4.494371 0.08551687 0.09739812 -3.6786916 -0.090427786
-4.5885477 -4.5491242 -4.3821898 -4.3983994 -4.542851 -0.0971231 -4.4051695 -4.4737997
-4.3824587 -4.390643 0.078700915 0.03697005 -0.08604475 -0.021043167 0.08415489 0.13774158
0.086464375 0.14369719 -0.13798758 -0.14354962 -0.08810592 -0.05214633 0.05319175 -0.14534812
-0.10576667 -0.0815159 -0.0072434545 0.08716659 -0.03337206 -0.090265244 0.03837815 -0.08724612
-0.03401584 0.08703725 0.043129068 -4.442938 0.10023822 0.14138605 0.07517514 0.02732578
0.12808414 0.12216337 0.05401829 -0.017108917 -0.10490509 -4.34155 -4.569646 -4.601313
-4.412576 -4.477324 -0.005410418 -4.453114 -4.3610287 -4.3249044 -4.5370483 -0.0796645
-0.011409387 -0.016919298 0.06550309 0.014936879 -0.03827378 0.12666835 0.14669965 -0.0015477523
0.14879559 0.06344125 0.11312817 -0.13156295 0.09171176 -0.09136476 4.387407 0.008749828
0.001897186 0.03890367 0.02564998 -0.10336681 0.07768947 -0.0877184 -0.07707729 8.235029e-05
-4.621861 0.027119339 -0.09090344 0.118399784 -0.03892406 4.4780545 0.064057745 0.13539745
00000000: 1c78 cebd 3286 f1bd 1832 033d 2005 a93d
00000010: e67b 63bd a2b0 d53d 8009 a13d 0aef f9bd
00000020: b740 d4bd 4015 43bc 73f8 e1bd ceef 6cbd
00000030: bcda d9bc d840 fb3c beb2 f7bd 70ab 763c
00000040: fc9a 503d 0840 aabd 6861 b93d e6b1 eb3d
00000050: 2190 d93d 8668 8c3d 3284 dabd 6aa3 8bc0
00000060: d778 14be a5f2 17be 6b3d f9bd 5ba3 033e
00000070: 534b 083e 389a 143d 0b55 07be e0f9 fcbb
00000080: b6f8 ef3d 8741 8940 5c8f 8d40 961d 8e40
00000090: 1da5 8e40 a2ca 8e40 4265 a8be f619 8d40
000000a0: 6fc9 9340 6981 9140 d106 8d40 88ba c63c
000000b0: d6bd febd 7b2b 00be eb3f 8f3d d820 e23d
000000c0: a122 373d f629 bc3d 6428 fd3d c779 8dbd
000000d0: 8b32 b03d cb2c 793d 706e 003d 88ee bb3d
000000e0: 50f7 a8bc fafc 8a3d 1fb8 043e 60dc 453c
000000f0: a325 11be c737 09be 60f9 9e3b 288a 06bd
00000100: 2ea3 cd3d f016 da3f 462d fd3c 6000 91bd
00000110: 7b8f 8a40 77e7 f6bd cb93 13be 7a37 f73d
00000120: 3eaf 3abd a2b5 11be 403b 4cbb 8aa9 32bd
00000130: 5754 0e3e 21bb c0bd 5e6b 8c40 0404 8b40
00000140: 5241 8e40 79c5 8c40 0d4d 9340 035a 07be
00000150: b418 8d40 1804 8c40 4e79 8c40 5e9e 9140
00000160: 103a 243d 707b 343d 34f1 d73d 74a3 debb
00000170: 1a9c f0bd bba8 e0bd 2898 e73c fe21 4c3d
00000180: a473 853d 9f05 883d 4ced e2bc 8e92 abbd
00000190: c61e 06be 302e a13c 9e79 4bbd a006 cfbd
000001a0: 60f5 ba3b 58c1 883c 421f c23d 84a8 c7bd
000001b0: 1061 6c3c e047 a8bd aa86 c93f 062e 68bc
000001c0: 4325 a0bd d4b0 8d40 2495 5cbd 00d2 263d
000001d0: 7e00 35bd 565e 403c 9411 cfbd 336e 103e
000001e0: 424c dfbd df28 103e bc1f 0ebe c88f 9240
000001f0: e4fa 8a40 cd20 8e40 be3a 9040 ade5 9140
00000200: 4e91 8dc0 fcb6 8d40 2185 9140 0928 8b40
00000210: 7e62 8d40 94d1 6f3d 1dbc 80bd c24b c73d
00000220: 46b9 5ebd 8e17 05be 02de aebc 3076 20bd
00000230: ee7c ed3d fa74 f73d 5bfb c13d c12e 8dbb
00000240: 18b5 a13d 02a1 e63d b6fa ec3d f0ba c93d
00000250: 72c6 8ac0 5cea 113d 4c36 7c3d b6da 15bd
00000260: a05c 17bc c43b e83f 4642 333d ffa5 8dbe
00000270: 42fd 83bc 331a 703d 8eef 8ec0 8cda 463d
00000280: 0de6 143e 40b8 83bd 3230 b6bd e3d1 8fc0
00000290: 7823 af3d aa78 c73d af6f 6bc0 3432 b9bd
000002a0: 62d5 92c0 6d92 91c0 e63a 8cc0 b0bf 8cc0
000002b0: 095f 91c0 7ae8 c6bd 26f7 8cc0 5e29 8fc0
000002c0: 1a3d 8cc0 2680 8cc0 f22d a13d e86d 173d
000002d0: 3b38 b0bd b862 acbc 6659 ac3d 210c 0d3e
000002e0: 3c14 b13d 5b25 133e 9e4c 0dbe acfe 12be
000002f0: e070 b4bd 6497 55bd 98df 593d 23d6 14be
00000300: 329c d8bd cff1 a6bd 805a edbb 6684 b23d
00000310: 24b1 08bd fcdc b8bd 6832 1d3d 18ae b2bd
00000320: 3254 0bbd 9640 b23d 1ba8 303d 8c2c 8ec0
00000330: b249 cd3d 81c7 103e 6cf5 993d 50da df3c
00000340: 7d28 033e ca30 fa3d 4842 5d3d 0028 8cbc
00000350: 7bd8 d6bd faed 8ac0 8a3a 92c0 f53d 93c0
00000360: d333 8dc0 3d46 8fc0 e049 b1bb e97f 8ec0
00000370: 8c8d 8bc0 9e65 8ac0 802f 91c0 2427 a3bd
00000380: 70ee 3abc 579a 8abc 7c26 863d d0b9 743c
00000390: f8c4 1cbd 59b5 013e 6f38 163e f3dd caba
000003a0: df5d 183e 7ced 813d beaf e73d 70b8 06be
000003b0: 60d3 bb3d 731d bbbd a365 8c40 705b 0f3c
000003c0: 00ab f83a 7459 1f3d e81f d23c fab1 d3bd
000003d0: a81b 9f3d b4a5 b3bd b3da 9dbd 7ab3 ac38
000003e0: 49e6 93c0 6029 de3c 952b babd 967b f23d
000003f0: d66e 1fbd 394c 8f40 b530 833d a1a5 0a3e

price_encoder.encoder.weight_hh_l0 f4 [180, 45]
4.586757 4.4966803 4.3595357 -4.3606477 4.4642863 4.4089637 4.4535756 -4.589885
-4.4565187 -4.401377 -4.562834 4.538434 -4.41156 -4.4741297 4.393747 -4.605888
4.380246 -4.5061007 4.332831 -4.597663 4.335413 4.452032 4.3513894 4.3894544
-4.4446707 -4.3266025 -4.361077 4.415374 -4.3324213 -4.4171166 4.3766484 -4.4849596
4.45474 4.483612 4.457777 -4.3302283 -4.429294 4.511914 4.3900337 4.6218386
4.5701795 4.4079566 -4.513716 4.603451 -4.565729 -4.5899863 -4.528952 -4.4714355
4.5195084 -4.3851314 -4.5636344 -4.365258 -4.552186 4.418787 -4.534288 4.3940716
-4.6167154 4.3424244 4.4138803 -4.48218 4.5911703 -4.4205713 4.3390737 -4.386294
4.4726157 4.380912 -4.5589447 -4.380374 -4.492779 4.595615 4.5389056 4.38706
-4.427687 4.3325806 4.515881 -4.6032424 4.5254374 -4.4902945 -4.5253644 -4.377894
4.3533187 4.453067 -4.560296 -4.35409 -4.5509152 -4.473185 -4.4342947 4.5275865
-4.3847666 4.391208 -4.4065638 -4.5340896 -4.5983195 4.490113 -4.35822 -4.4914074
-4.338293 -4.425034 4.5056043 -4.4413376 4.61186 -4.4322147 4.5886908 4.525282
-4.366501 4.35188 -4.55747 4.5852294 -4.616669 -4.52283 4.374317 -4.410457
-4.537433 -4.5087185 4.415295 4.4817333 4.430852 -4.5752573 4.360017 4.6150784
-4.412133 4.3905153 -4.344299 -4.5048857 -4.5353074 4.544279 4.379277 -4.3317423
-4.3772373 -4.3643746 -4.3386774 -4.4466763 4.4680924 -4.4336286 4.514109 4.570618
4.4325233 4.5414147 -4.506902 4.5197096 4.363494 4.4006023 4.368874 -4.4212384
4.5534315 -4.382147 4.3745713 4.5154467 -4.421569 4.5514355 -4.4806905 4.364902
-4.475034 4.500021 4.511901 -4.465995 4.404197 4.565199 4.5008516 -4.3377595
-4.434913 4.4487805 4.3827033 -4.603849 -4.5953164 4.5499916 -4.4213896 4.3947344
4.6047873 4.617906 -4.5818634 -4.3829546 4.4906173 4.402645 4.408249 4.555542
4.3640847 -4.610464 4.3755484 -4.4733157 4.3414364 4.405669 4.600591 -4.5440364
4.330643 4.392836 4.619685 4.580893 -4.572813 4.5440917 -4.502786 4.4692297
-4.505322 -4.3778744 4.350489 -4.368701 4.444202 -4.359853 4.365592 4.557152
-4.3417764 4.3394938 4.4409246 4.605697 -4.450216 -4.417496 4.5117087 4.5354447
-4.4356475 -4.3427544 4.388921 -4.5872073 4.4927926 4.616613 4.5792108 -4.3745255
-4.4517174 4.3670554 4.5583177 4.5177164 4.422131 4.537178 -4.4502163 4.361739
-4.35092 4.4231634 4.5121093 4.555942 -4.5934367 4.564267 4.354009 4.4145494
4.5885725 -4.4266973 4.617447 -4.440931 4.3729725 -4.3355284 -4.4374766 4.422712
-4.5146937 4.58904 -4.5789423 4.49962 4.592699 -4.376895 4.4245396 4.3439293
4.335051 -4.481224 -4.4989243 4.3251653 4.5879116 -4.3956513 -4.6012845 4.45582
00000000: b7c6 9240 cee4 8f40 5181 8b40 6d8a 8bc0
00000010: 6fdb 8e40 3b16 8d40 b183 8e40 57e0 92c0
00000020: cd9b 8ec0 15d8 8cc0 bc02 92c0 da3a 9140
00000030: 802b 8dc0 122c 8fc0 9399 8c40 6f63 93c0
00000040: fa2a 8c40 fa31 90c0 8da6 8a40 0e20 93c0
00000050: b4bb 8a40 0c77 8e40 953e 8b40 6976 8c40
00000060: be3a 8ec0 8773 8ac0 f18d 8bc0 be4a 8d40
00000070: 32a3 8ac0 0559 8dc0 810d 8c40 ca84 8fc0
00000080: 3b8d 8e40 c079 8f40 1ca6 8e40 3b91 8ac0
00000090: c7bc 8dc0 9961 9040 287b 8c40 1ae6 9340
000000a0: e93e 9240 fb0d 8d40 5d70 90c0 784f 9340
000000b0: 741a 92c0 2be1 92c0 2ded 90c0 0016 8fc0
000000c0: d09f 9040 ff52 8cc0 4b09 92c0 32b0 8bc0
000000d0: 82ab 91c0 b466 8d40 e318 91c0 3c9c 8c40
000000e0: 22bc 93c0 24f5 8a40 823e 8d40 056e 8fc0
000000f0: deea 9240 5275 8dc0 b1d9 8a40 855c 8cc0
00000100: ab1f 8f40 6e30 8c40 e0e2 91c0 062c 8cc0
00000110: d8c4 8fc0 470f 9340 b73e 9140 cc62 8c40
00000120: 9daf 8dc0 80a4 8a40 1982 9040 c34d 93c0
00000130: 62d0 9040 7eb0 8fc0 c9cf 90c0 b517 8cc0
00000140: 634e 8b40 867f 8e40 f2ed 91c0 b554 8bc0
00000150: 19a1 91c0 5524 8fc0 bee5 8dc0 fde1 9040
00000160: 0250 8cc0 c784 8c40 9202 8dc0 4317 91c0
00000170: 6f25 93c0 01af 8f40 8a76 8bc0 9cb9 8fc0
00000180: 4cd3 8ac0 e199 8dc0 e92d 9040 701f 8ec0
00000190: 5b94 9340 b4d4 8dc0 8ed6 9240 1ccf 9040
000001a0: 60ba 8bc0 9a42 8b40 cbd6 91c0 33ba 9240
000001b0: c1bb 93c0 06bb 90c0 68fa 8b40 7722 8dc0
000001c0: a732 91c0 6c47 90c0 194a 8d40 5c6a 8f40
000001d0: 8ac9 8d40 8268 92c0 4285 8b40 b9ae 9340
000001e0: 3230 8dc0 1a7f 8c40 7f04 8bc0 0628 90c0
000001f0: 3d21 91c0 bc6a 9140 0a23 8c40 a29d 8ac0
00000200: 5412 8cc0 f5a8 8bc0 72d6 8ac0 2c4b 8ec0
00000210: 9dfa 8e40 49e0 8dc0 9573 9040 8142 9240
00000220: 3bd7 8d40 4553 9140 8b38 90c0 76a1 9040
00000230: bea1 8b40 bcd1 8c40 d1cd 8b40 c97a 8dc0
00000240: b6b5 9140 8c3a 8cc0 7dfc 8b40 8a7e 9040
00000250: 7e7d 8dc0 5ca5 9140 d161 8fc0 47ad 8b40
00000260: 7b33 8fc0 2c00 9040 7e61 9040 6ee9 8ec0
00000270: 2fef 8c40 1c16 9240 fa06 9040 edce 8ac0
00000280: cfea 8dc0 695c 8e40 1b3f 8c40 bb52 93c0
00000290: d50c 93c0 8899 9140 067c 8dc0 aaa1 8c40
000002a0: 6b5a 9340 e3c5 9340 a09e 92c0 2a41 8cc0
000002b0: 23b3 8f40 78e2 8c40 6010 8d40 00c7 9140
000002c0: 95a6 8b40 ec88 93c0 7e04 8c40 6725 8fc0
000002d0: 0ced 8a40 3efb 8c40 0b38 9340 bf68 91c0
000002e0: a194 8a40 1d92 8c40 76d4 9340 ad96 9240
000002f0: 7c54 92c0 3369 9140 d316 90c0 ee03 8f40
00000300: 992b 90c0 8c17 8cc0 3537 8b40 66cc 8bc0
00000310: e736 8e40 ea83 8bc0 eeb2 8b40 30d4 9140
00000320: d5ef 8ac0 22dd 8a40 0e1c 8e40 df61 9340
00000330: 2b68 8ec0 215c 8dc0 eb5f 9040 5d22 9140
00000340: d3f0 8dc0 d8f7 8ac0 0a72 8c40 67ca 92c0
00000350: f5c4 8f40 4bbb 9340 e588 9240 1dfc 8bc0
00000360: 7874 8ec0 ebbe 8b40 bddd 9140 2291 9040
00000370: 1982 8d40 9030 9140 2c68 8ec0 5e93 8b40
00000380: bd3a 8bc0 8e8a 8d40 3363 9040 47ca 9140
00000390: 6ffd 92c0 7a0e 9240 0b54 8b40 fd43 8d40
000003a0: 96d5 9240 81a7 8dc0 20c2 9340 1b1c 8ec0
000003b0: 64ef 8b40 a6bc 8ac0 cfff 8dc0 db86 8d40
000003c0: 5f78 90c0 6ad9 9240 b286 92c0 e3fc 8f40
000003d0: 64f7 9240 860f 8cc0 d495 8d40 7801 8b40
000003e0: bdb8 8a40 3066 8fc0 30f7 8fc0 c167 8a40
000003f0: 2cd0 9240 2da9 8cc0 b93d 93c0 1496 8e40

price_encoder.encoder.bias_ih_l0 f4 [180]
-4.5278606 4.5970097 4.434876 -4.3985176 -4.580061 -4.427572 4.5566325 -4.442631
4.569577 -4.5432715 -4.411699 -4.4970083 -4.6069727 4.4822707 4.4002566 4.5991287
-4.542497 4.379077 -4.5586047 -4.6149616 -4.5072618 -4.328614 -4.478859 4.4449487
-4.5451894 -4.4842057 -4.3763 4.44681 -4.5203056 4.439743 4.3780303 -4.611204
4.591777 -4.543853 -4.3916264 4.4327583 -4.428271 -4.6228228 -4.338269 4.525658
4.385504 4.2754226 -4.591098 4.431366 4.448692 -4.3630676 4.6056123 4.4355154
-4.5562115 -4.4047427 -4.595216 4.5774655 -4.4882345 4.5042396 4.3755455 -4.589052
-4.379551 -4.4106755 4.495172 4.404307 4.4642205 -4.4729657 4.552228 4.456623
-4.5636196 -4.5186634 -4.46315 -4.3659873 4.400193 -4.533103 -4.332479 -4.346653
4.49732 -4.5631647 4.444613 4.3356376 -4.4899497 4.3768635 -4.490928 -4.5364733
4.429117 -4.568291 -4.554257 -4.413178 4.532329 4.50001 -4.44811 -4.4247775
4.5021586 4.49925 4.3340054 -4.5624776 -4.401195 -4.6213436 4.3405743 4.48913
-4.5281935 4.450764 4.4023685 -4.3624816 -4.330273 4.511437 4.451298 4.392047
-4.536174 4.3893394 4.536016 4.5847836 4.4052176 4.5563483 -4.5874763 4.373833
4.508744 -4.370878 -4.335733 -4.4143085 4.6185975 -4.3293567 -4.356294 4.5630274
-4.463268 -4.535848 -4.551353 4.40929 4.576272 4.435126 -4.579884 4.5170074
4.4239774 -4.4492164 -4.5390744 4.5813613 -4.469487 -4.47262 4.5468893 -4.3862133
4.4940314 4.3461018 -4.544505 -4.611156 -4.6109967 4.359774 -4.461816 4.593354
-4.370715 -4.61373 -4.355573 -4.448357 4.555905 4.5164466 4.363956 -4.3404493
4.5992646 -4.5474286 -4.5476656 -4.562724 -4.3960958 -4.578713 4.4211516 -4.520532
-4.4339843 -4.3756456 4.45244 -4.3475947 4.3734784 4.427811 -4.4660816 4.3616657
-4.334924 -4.3457437 4.5938296 -4.561489 -4.3827105 -4.476105 4.4005 4.392259
-4.550999 -4.4988775 4.45243 4.6167603
00000000: 3ce4 90c0 b41a 9340 81ea 8d40 a8c0 8cc0
00000010: dc8f 92c0 abae 8dc0 efcf 9140 082a 8ec0
00000020: fa39 9240 7b62 91c0 a32c 8dc0 7ee7 8fc0
00000030: 526c 93c0 c36e 8f40 e7ce 8c40 102c 9340
00000040: 235c 91c0 6621 8c40 17e0 91c0 c4ad 93c0
00000050: 7d3b 90c0 0284 8ac0 d052 8fc0 053d 8e40
00000060: 3172 91c0 9d7e 8fc0 a60a 8cc0 444c 8e40
00000070: 58a6 90c0 6012 8e40 d318 8c40 fc8e 93c0
00000080: d6ef 9240 3e67 91c0 3488 8cc0 28d9 8d40
00000090: 65b4 8dc0 2aee 93c0 1ad3 8ac0 31d2 9040
000000a0: 0c56 8c40 43d0 8840 46ea 92c0 c0cd 8d40
000000b0: af5b 8e40 409e 8bc0 2d61 9340 beef 8d40
000000c0: 7ccc 91c0 a7f3 8cc0 020c 93c0 997a 9240
000000d0: 9e9f 8fc0 bb22 9040 7804 8c40 84d9 92c0
000000e0: 4825 8cc0 4124 8dc0 73d8 8f40 15f0 8c40
000000f0: e5da 8e40 8922 8fc0 daab 9140 a89c 8e40
00000100: 2c09 92c0 e498 90c0 20d2 8ec0 2bb6 8bc0
00000110: 62ce 8c40 2e0f 91c0 aba3 8ac0 c817 8bc0
00000120: 0cea 8f40 7205 92c0 453a 8e40 8bbd 8a40
00000130: abad 8fc0 440f 8c40 afb5 8fc0 ca2a 91c0
00000140: 54bb 8d40 712f 92c0 79bc 91c0 c138 8dc0
00000150: d708 9140 1500 9040 eb56 8ec0 c797 8dc0
00000160: af11 9040 dbf9 8f40 2cb0 8a40 d1ff 91c0
00000170: 97d6 8cc0 0ce2 93c0 fce5 8a40 f4a6 8f40
00000180: f6e6 90c0 a96c 8e40 34e0 8c40 7399 8bc0
00000190: 9991 8ac0 b15d 9040 0971 8e40 a68b 8c40
000001a0: 5628 91c0 7875 8c40 0b27 9140 8cb6 9240
000001b0: 8bf7 8c40 9bcd 9140 9bcc 92c0 71f6 8b40
000001c0: a147 9040 3cde 8bc0 53be 8ac0 0442 8dc0
000001d0: 8dcb 9340 178a 8ac0 c366 8bc0 5204 9240
000001e0: 17d3 8ec0 ab25 91c0 afa4 91c0 e718 8d40
000001f0: d270 9240 8dec 8d40 698e 92c0 538b 9040
00000200: 3991 8d40 fb5f 8ec0 1940 91c0 839a 9240
00000210: 0a06 8fc0 b41f 8fc0 1e80 9140 dc5b 8cc0
00000220: 1bcf 8f40 4413 8b40 966c 91c0 978e 93c0
00000230: 498d 93c0 4583 8b40 32c7 8ec0 c2fc 9240
00000240: e6dc 8bc0 ada3 93c0 db60 8bc0 f158 8ec0
00000250: f9c9 9140 bb86 9040 87a5 8b40 f6e4 8ac0
00000260: 2d2d 9340 8984 91c0 7a86 91c0 d601 92c0
00000270: d1ac 8cc0 d184 92c0 137a 8d40 33a8 90c0
00000280: 33e3 8dc0 4a05 8cc0 637a 8e40 7f1f 8bc0
00000290: 89f3 8b40 a1b0 8d40 24ea 8ec0 c492 8b40
000002a0: b3b7 8ac0 5510 8bc0 a700 9340 b8f7 91c0
000002b0: 2a3f 8cc0 413c 8fc0 e5d0 8c40 638d 8c40
000002c0: c9a1 91c0 cef6 8fc0 4e7a 8e40 80bc 9340

price_encoder.encoder.bias_hh_l0 f4 [180]
-4.381283 4.615715 4.5904164 -4.350577 -4.5451775 -4.4519258 4.337541 -4.5962
4.44452 -4.4091325 -4.4261994 -4.3565173 -4.4414825 4.422214 4.5534577 4.359791
-4.572244 4.3986077 -4.530874 -4.3478317 -4.561909 -4.503294 -4.445229 4.4569464
-4.5134125 -4.4901004 -4.4692917 4.342682 -4.447896 4.49809 4.402523 -4.595093
4.5807676 -4.4618826 -4.5588017 4.4945045 -4.3263493 -4.454337 -4.41695 4.5349503
4.3657923 4.320884 -4.5015526 4.34437 4.331549 -4.5529346 4.329578 4.3456306
-4.484904 -4.514745 -4.4932666 4.504149 -4.4432883 4.4260573 4.362341 -4.47342
-4.5069256 -4.4909096 4.490668 4.5788035 4.379798 -4.437907 4.4690895 4.566158
-4.443818 -4.591847 -4.5239286 -4.5071473 4.3992605 -4.5164914 -4.39967 -4.6189384
4.3338423 -4.3934917 4.5140777 4.562677 -4.448581 4.3528614 -4.4328876 -4.339759
4.3645487 -4.5481586 -4.4951158 -4.4546742 4.5953097 4.5289474 -4.553706 -4.5545044
4.4225254 4.577702 4.502118 -4.59388 -4.547398 -4.358081 4.4992857 4.5916824
-4.4535894 4.5239077 4.5460186 -4.550385 -4.5640235 4.377729 4.4549136 4.4901085
-4.4594555 4.3670583 4.364194 4.5730467 4.3310676 4.515021 -4.4449415 4.465096
4.410687 -4.402302 -4.552731 -4.39281 4.361173 -4.5041265 -4.4603953 4.5438223
-4.358709 -4.3445477 -4.4328322 4.411329 4.373601 4.4811254 -4.4852257 4.3473554
4.3378882 -4.4970164 -4.436913 4.550242 -4.48213 -4.577472 4.5551014 -4.6109524
4.553101 4.5862637 -4.6157246 -4.4001794 -4.407644 4.3884645 -4.3468065 4.5520234
-4.6099634 -4.511871 -4.4242024 -4.600862 4.3453546 4.449443 4.357882 -4.4453835
4.394914 -4.5184674 -4.3581 -4.351879 -4.358993 -4.428268 4.609209 -4.345138
-4.5599923 -4.432653 4.452517 -4.5683084 4.411778 4.444899 -4.579339 4.4757633
-4.5448103 -4.5950985 4.4234376 -4.3728533 -4.603999 -4.602151 4.534022 4.397534
-4.5197873 -4.552334 4.5482335 4.4889193
00000000: 7833 8cc0 f0b3 9340 b1e4 9240 ed37 8bc0
00000010: 1872 91c0 2d76 8ec0 23cd 8a40 1214 93c0
00000020: 8239 8e40 9d17 8dc0 6da3 8dc0 9768 8bc0
00000030: a020 8ec0 c782 8d40 edb5 9140 6883 8b40
00000040: d34f 92c0 65c1 8c40 ebfc 90c0 7021 8bc0
00000050: 29fb 91c0 fc1a 90c0 513f 8ec0 4e9f 8e40
00000060: e06d 90c0 e7ae 8fc0 7004 8fc0 40f7 8a40
00000070: 2a55 8ec0 5af0 8f40 78e1 8c40 000b 93c0
00000080: a695 9240 bec7 8ec0 b4e1 91c0 fbd2 8f40
00000090: 7471 8ac0 ee89 8ec0 a857 8dc0 501e 9140
000000a0: 92b4 8b40 af44 8a40 b80c 90c0 1405 8b40
000000b0: 0d9c 8a40 a4b1 91c0 e78b 8a40 680f 8b40
000000c0: 5584 8fc0 cb78 90c0 d7c8 8fc0 fd21 9040
000000d0: 6b2f 8ec0 43a2 8d40 4c98 8b40 4226 8fc0
000000e0: bc38 90c0 88b5 8fc0 8db3 8f40 8f85 9240
000000f0: 4e27 8c40 5603 8ec0 c802 8f40 f71d 9240
00000100: c233 8ec0 69f0 92c0 06c4 90c0 8d3a 90c0
00000110: bec6 8c40 1987 90c0 19ca 8cc0 58ce 93c0
00000120: d6ae 8a40 7c97 8cc0 5373 9040 7301 9240
00000130: c75a 8ec0 a44a 8b40 37da 8dc0 4edf 8ac0
00000140: 62aa 8b40 848a 91c0 fdd7 8fc0 b18c 8ec0
00000150: c70c 9340 23ed 9040 f6b7 91c0 80be 91c0
00000160: 5485 8d40 897c 9240 5a11 9040 1101 93c0
00000170: 4984 91c0 6675 8bc0 26fa 8f40 10ef 9240
00000180: ce83 8ec0 dac3 9040 fc78 9140 c19c 91c0
00000190: 7b0c 92c0 5b16 8c40 a78e 8e40 f8ae 8f40
000001a0: dcb3 8ec0 f1be 8b40 7aa7 8b40 6656 9240
000001b0: 1b98 8a40 0d7b 9040 f63c 8ec0 11e2 8e40
000001c0: 5924 8d40 a8df 8cc0 f9af 91c0 e691 8cc0
000001d0: bb8e 8b40 ce21 90c0 8fbb 8ec0 fe66 9140
000001e0: 8b7a 8bc0 8906 8bc0 c3d9 8dc0 9b29 8d40
000001f0: 8af4 8b40 6165 8f40 f886 8fc0 891d 8b40
00000200: fbcf 8a40 8fe7 8fc0 31fb 8dc0 959b 9140
00000210: 9c6d 8fc0 a77a 92c0 64c3 9140 ec8c 93c0
00000220: 01b3 9140 acc2 9240 04b4 93c0 45ce 8cc0
00000230: 6b0b 8dc0 4d6e 8c40 0a19 8bc0 2daa 9140
00000240: d284 93c0 3f61 90c0 1193 8dc0 433a 93c0
00000250: 250d 8b40 d661 8e40 c573 8b40 9540 8ec0
00000260: 23a3 8c40 4997 90c0 8e75 8bc0 9842 8bc0
00000270: df7c 8bc0 5fb4 8dc0 a47e 9340 5f0b 8bc0
00000280: 75eb 91c0 4bd8 8dc0 057b 8e40 952f 92c0
00000290: 492d 8d40 9d3c 8e40 f289 92c0 7439 8f40
000002a0: 166f 91c0 0c0b 93c0 cd8c 8d40 6aee 8bc0
000002b0: f653 93c0 d244 93c0 b516 9140 99b8 8c40
000002c0: 19a2 90c0 b8ac 91c0 218b 9140 3aa5 8f40

atten_layer.0.weight f4 [45, 135]
-0.0057471693 0.0064634383 -0.023407012 -0.017246887 0.08354073 0.049593173 -0.047539566 -0.032573927
0.05134674 0.07988199 0.024511985 0.07390807 -0.017657869 0.053518586 -0.0008888021 -0.031687308
-0.02342514 0.027021773 0.044725947 0.0027237982 -0.017312214 -0.030763138 -0.002708882 0.08591122
0.02685593 -0.082645014 -0.01944539 0.03249693 -0.08227926 0.055579253 -0.05724658 -0.07076175
-0.042760298 0.002939351 -0.063155875 -0.0065164343 -0.060818404 -0.011712387 -0.08242071 -0.033076417
-0.0039123744 0.08097095 -0.08558405 -0.008020014 -5.9068203e-05 -0.076280855 -0.04573452 0.041056506
0.057193406 0.06496327 0.07700165 0.08006618 -0.018351048 -0.067524955 -0.07416958 -0.042227663
-0.050607562 0.028454863 -0.044203136 0.066603534 -0.04501019 0.068760835 0.051209517 0.073318355
-0.07228898 0.080668755 -0.0014918223 0.0740126 0.04745216 -0.06300074 -0.07123549 0.085252844
-0.021811709 -0.015380055 -0.0017899722 -0.062062446 -0.013997346 0.041222565 -0.003610663 -0.07971625
0.038701087 0.064699955 -0.034529682 -0.07037624 0.07597815 0.04406161 0.07525534 0.0022079945
-0.04345714 0.075743414 -4.5275407 -4.857269 -5.2590666 -4.533024 4.4771414 -4.527618
-4.561256 5.2682095 4.4655113 4.4308367 -4.469422 -4.3619847 -4.4386897 4.5311146
-4.4995885 -4.3833413 -4.441991 4.472779 4.5030556 -3.8390036 -5.03312 5.305607
5.162972 3.874246 -4.566476 3.6827435 4.950513 4.4698777 -5.2484345 5.258626
4.4691296 -4.536646 4.4300084 -4.501704 -4.393556 -4.399979 4.449947 -4.4486256
4.5705633 4.459885 -3.8465111 5.0041757 -5.3853903 -4.608356 5.1494956 -0.067752436
0.07499079 -0.05124852 -0.06941933 0.02911105 0.0029076785 0.044290595 0.012814164 -0.024552964
0.032376744 -0.0794905 -0.035695862 0.05890321 0.046839796 -0.041876774 0.08246253 0.05467642
0.041765742 -0.061543673 -0.05118418 -0.071765855 -0.05028689 0.03154575 0.06625862 0.072372414
-0.0029624924 0.008894905 -0.0297645 -0.0639475 0.03030461 -0.02498357 -0.03731899 -0.029991284
-0.0677152 -0.051900968 -0.032647245 -0.02142921 -0.020470433 0.079704516 -0.020916536 0.042949177
-0.01658269 0.07789128 -0.022918642 0.051874064 0.06150619 -0.02419725 0.029462881 -0.048130646
-0.03585691 0.048715226 0.045684732 0.017766334 0.07184935 -0.047481988 0.012621321 -0.06888477
-0.08488907 -0.053666174 0.08564996 0.051085763 0.06269915 0.061096407 -0.010972753 0.015200883
-0.024069268 -0.04916307 -0.03534759 -0.05007578 0.040877156 -0.040059984 -0.019390456 0.08252374
0.036294557 0.015384428 -0.01615756 0.06600962 0.0053503737 0.0029198155 -0.045652747 -0.070127316
0.06217409 -0.047747564 -0.07595188 -0.078026906 0.019387327 -0.08312577 -0.07084684 0.021299392
0.04074464 -4.7390723 4.928055 5.089342 -4.426381 4.4184766 4.45247 4.4047318
-4.6651683 4.6158857 4.5327606 -4.4387364 -4.260737 -4.516131 4.4052377 -4.528663
-4.2730737 4.484414 4.4633584 4.4393353 -4.8388333 4.7438226 -4.6807117 -4.9812717
4.950332 -4.4721465 4.8703365 -4.7005434 4.5485964 4.889733 -4.745492 4.48282
00000000: c052 bcbb 40cb d33b 10c0 bfbc 5849 8dbc
00000010: 6717 ab3d 3622 4b3d d9b8 42bd 3d6c 05bd
00000020: f650 523d 2b99 a33d 5ccd c83c 1d5d 973d
00000030: 3ca7 90bc 4e36 5b3d 80fe 68ba 8dca 01bd
00000040: 14e6 bfbc c45c dd3c 8e32 373d c081 323b
00000050: 58d2 8dbc fa02 fcbc 8087 31bb 39f2 af3d
00000060: f800 dc3c ca41 a9bd f04b 9fbc 801b 053d
00000070: 0782 a8bd 12a7 633d 647b 6abd 89eb 90bd
00000080: 6c25 2fbd 20a2 403b de57 81bd d087 d5bb
00000090: b81c 79bd 50e5 3fbc 30cc a8bd 237b 07bd
000000a0: 6033 80bb 19d4 a53d b146 afbd 6066 03bc
000000b0: 00c0 77b8 2339 9cbd 1f54 3bbd de2a 283d
000000c0: a243 6a3d 770b 853d 0bb3 9d3d bdf9 a33d
000000d0: f054 96bc 864a 8abd 39e6 97bd eaf6 2cbd
000000e0: e049 4fbd 2c1a e93c 590e 35bd 6f67 883d
000000f0: 9b5c 38bd 7bd2 8c3d 12c1 513d ef27 963d
00000100: 3f0c 94bd a935 a53d 4089 c3ba eb93 973d
00000110: 325d 423d 8806 81bd eae3 91bd 0b99 ae3d
00000120: 78ae b2bc a0fc 7bbc 809d eaba 3135 7ebd
00000130: 2055 65bc fed8 283d e0a0 6cbb 4642 a3bd
00000140: 0885 1e3d 6981 843d ff6e 0dbd 6b21 90bd
00000150: 6f9a 9b3d f279 343d 791f 9a3d 00b4 103b
00000160: 1d00 32bd 5d1f 9b3d 9de1 90c0 bf6e 9bc0
00000170: 464a a8c0 880e 91c0 be44 8f40 3fe2 90c0
00000180: cff5 91c0 2c95 a840 78e5 8e40 6ac9 8d40
00000190: 8105 8fc0 6195 8bc0 bf09 8ec0 e4fe 9040
000001a0: a1fc 8fc0 5544 8cc0 ca24 8ec0 0121 8f40
000001b0: 0819 9040 3cb2 75c0 520f a1c0 88c7 a940
000001c0: 1137 a540 a5f3 7740 9220 92c0 12b2 6b40
000001d0: 9a6a 9e40 3d09 8f40 2df3 a7c0 aa46 a840
000001e0: 1c03 8f40 342c 91c0 a1c2 8d40 f60d 90c0
000001f0: 0398 8cc0 a1cc 8cc0 f765 8e40 245b 8ec0
00000200: 0e42 9240 61b7 8e40 3d2d 76c0 3522 a040
00000210: 1e55 acc0 a777 93c0 abc8 a440 cac1 8abd
00000220: c594 993d f8e9 51bd b92b 8ebd 4c7a ee3c
00000230: c08e 3e3b 0e6a 353d 80f2 513c 4c23 c9bc
00000240: 7a9d 043d eacb a2bd d335 12bd 7e44 713d
00000250: 16db 3f3d fb86 2bbd 1de2 a83d 62f4 5f3d
00000260: 8e12 2b3d 3815 7cbd 81a6 51bd faf9 92bd
00000270: a0f9 4dbd 1e36 013d 99b2 873d fd37 943d
00000280: 6026 42bb f0bb 113c aed4 f3bc e8f6 82bd
00000290: 6041 f83c 58aa ccbc ccdb 18bd 48b0 f5bc
000002a0: 44ae 8abd 1c96 54bd 1eb9 05bd 508c afbc
000002b0: 9cb1 a7bc 1f3c a33d 2859 abbc 7aeb 2f3d
000002c0: 6cd8 87bc 7785 9f3d e0bf bbbc e679 543d
000002d0: eaed 7b3d 5039 c6bc 245c f13c a424 45bd
000002e0: b2de 12bd 9e89 473d ea1f 3b3d b48a 913c
000002f0: c125 933d 797c 42bd a8c9 4e3c 7513 8dbd
00000300: 52da adbd 10d1 5bbd 3f69 af3d 4e3f 513d
00000310: 6968 803d 3a40 7a3d 10c7 33bc 200d 793c
00000320: ea2c c5bc 375f 49bd a2c8 10bd 431c 4dbd
00000330: ce6e 273d f015 24bd bcd8 9ebc 3502 a93d
00000340: 9aa9 143d f80e 7c3c dc5c 84bc 0d30 873d
00000350: 3052 af3b 605a 3f3b 60fe 3abd e99e 8fbd
00000360: 42aa 7e3d f392 43bd a98c 9bbd 92cc 9fbd
00000370: 2cd2 9e3c d83d aabd 2618 91bd 107c ae3c
00000380: dae3 263d 7ba6 97c0 a0b2 9d40 e4db a240
00000390: eaa4 8dc0 2964 8d40 a27a 8e40 90f3 8c40
000003a0: 0f49 95c0 56b5 9340 600c 9140 210a 8ec0
000003b0: f557 88c0 2584 90c0 b5f7 8c40 cfea 90c0
000003c0: 05bd 88c0 5280 8f40 d5d3 8e40 090f 8e40
000003d0: b9d7 9ac0 65cd 9740 64c8 95c0 9466 9fc0
000003e0: 1f69 9e40 d31b 8fc0 ccd9 9b40 da6a 96c0
000003f0: 1a8e 9140 b178 9c40 12db 97c0 4373 8f40

atten_layer.0.bias f4 [45]
4.145782 4.549912 4.3135757 -4.4687414 -4.4225945 -4.507224 -4.5787187 4.426684
-4.486563 4.4558773 -4.360282 -4.5256095 4.5077524 -4.389413 -4.3129992 4.535086
-4.3719063 -4.5471044 -4.327531 -4.3793745 -4.510012 4.5950966 4.4005322 4.5116425
-4.5924997 -4.522297 -4.4706135 -4.4762073 -4.359078 -4.617249 4.4082 4.499201
4.498125 4.501216 -4.4140463 -4.570295 4.524794 4.413677 -4.5975647 4.4145775
-4.333023 -4.5049033 4.5036926 4.5206947 -4.3404813
00000000: 3faa 8440 e198 9140 d008 8a40 eeff 8ec0
00000010: e585 8dc0 2e3b 90c0 dd84 92c0 65a7 8d40
00000020: ed91 8fc0 8c96 8e40 6e87 8bc0 cbd1 90c0
00000030: 823f 9040 1276 8cc0 1704 8ac0 6d1f 9140
00000040: a8e6 8bc0 e181 91c0 227b 8ac0 d623 8cc0
00000050: 0552 90c0 080b 9340 29d1 8c40 605f 9040
00000060: c2f5 92c0 a8b6 90c0 440f 8fc0 173d 8fc0
00000070: 917d 8bc0 81c0 93c0 f90f 8d40 74f9 8f40
00000080: a4f0 8f40 f609 9040 de3f 8dc0 db3f 92c0
00000090: 1dcb 9040 d83c 8d40 401f 93c0 3844 8d40
000000a0: 20a8 8ac0 2b28 90c0 401e 9040 88a9 9040
000000b0: 39e5 8ac0

atten_layer.2.weight f4 [1, 45]
2.6554465 -6.434682 3.7933364 -2.8728938 -3.252883 -2.833334 -3.5892293 -5.3112144
-3.0470092 3.1377227 -2.2326076 5.241574 -5.5278897 -3.2053437 7.1463923 3.7264476
6.1393514 5.5133486 -2.568128 -2.6731915 5.0496135 4.4249125 4.3075533 4.3130574
4.804927 5.931438 -4.1071744 -3.735662 6.641457 4.752597 4.250562 -5.7901044
3.6978755 -4.6754093 5.6444016 -3.8928764 -5.0529485 -5.301703 5.226769 -5.839975
-2.7412107 4.864667 -6.022884 4.4530025 -2.7053554
00000000: d6f2 2940 eae8 cdc0 06c6 7240 7edd 37c0
00000010: 3c2f 50c0 5855 35c0 efb5 65c0 78f5 a9c0
00000020: 3302 43c0 73d0 4840 0be3 0ec0 f9ba a740
00000030: 79e4 b0c0 5a24 4dc0 3faf e440 1e7e 6e40
00000040: 9175 c440 5a6d b040 365c 24c0 9215 2bc0
00000050: 6f96 a140 e298 8d40 7ad7 8940 9104 8a40
00000060: f6c1 9940 57ce bd40 f96d 83c0 1615 6fc0
00000070: d186 d440 4615 9840 9b04 8840 8948 b9c0
00000080: fea9 6c40 f49c 95c0 f09e b440 e324 79c0
00000090: c1b1 a1c0 8da7 a9c0 b141 a740 13e1 bac0
000000a0: ff6f 2fc0 5aab 9b40 77bb c0c0 ff7e 8e40
000000b0: 8b24 2dc0

lstm.weight_ih_l0 f4 [180, 45]
4.2119355 -4.6036496 -4.6463327 4.4684925 -4.605693 4.4730988 4.3478503 4.614924
-4.296786 4.6245027 4.4084883 4.547882 4.475316 4.4528894 -4.511513 4.628759
-4.407714 -4.6356144 -4.453739 4.681067 -4.6979814 4.866369 4.6605096 -4.485993
3.8514628 -4.720388 4.6903043 -4.488661 -4.761603 4.6058207 -4.4479117 -4.595281
-4.4390826 4.5594516 4.597686 -4.601372 -4.490962 4.443973 4.4743905 -4.5829654
-4.49586 4.6859674 -4.7118816 -4.581321 4.738252 4.6270533 -4.800326 -4.6309304
4.5983386 4.542841 4.525511 4.5296674 4.5427136 -4.414871 4.433681 4.425186
-4.3858514 4.491812 -4.368346 -4.4150634 4.370106 -4.4920034 -4.357888 -4.3981605
4.679234 -4.7064843 4.525343 4.8159733 -4.5935893 -2.9349027 -4.6649294 4.6619596
-4.3458924 -4.7339697 4.626671 -4.446365 -4.583517 -4.6305695 4.4392858 4.3956313
-4.4898596 -4.4961457 4.5240273 4.566915 -4.338962 -4.4978094 4.6707687 -4.506742
-4.208796 4.7066727 -4.3740873 -4.716803 -4.7111845 4.408258 -4.4999175 4.4614553
-4.496633 4.702367 -4.609698 -4.555693 4.454095 -3.1657193 -4.544842 4.571425
4.3899307 4.375638 4.551444 4.3955984 -4.4141374 4.6870675 -4.669773 4.5523825
4.518813 -4.5795126 -1.9788587 -4.5448484 4.8049936 -4.4608083 -4.678794 4.643746
4.619265 4.3570304 -4.505827 4.61691 4.4320593 4.518108 4.6206865 4.590112
-4.344939 -4.5133123 4.45609 4.612353 -4.7297606 4.432333 4.5306735 4.6517987
-4.76579 -4.7084417 4.5929947 -4.4216747 4.3851743 4.6232176 4.797996 -4.404705
-4.402552 4.6077633 -4.2834024 4.33664 4.554337 4.566773 4.5500646 4.4771028
-4.351986 -4.4892855 4.8923707 -4.626627 4.5805464 4.7912107 -4.8697906 2.9771538
-4.735987 4.7252283 -4.3984327 -4.8596096 4.758787 -4.4096427 4.6434093 -4.3866935
4.381913 4.5297256 -4.5540414 -4.363929 4.32813 -4.405831 -4.419934 4.5328984
4.6334763 -4.597295 4.432692 4.6243777 4.4525886 -4.73294 -4.9402766 4.4053774
4.2951527 4.5516596 4.4731126 4.6881304 -4.6115856 -4.6064606 4.4317937 -4.5153747
4.3760734 -4.2272987 4.6450443 4.5690427 4.4605227 -4.431463 -4.345838 4.8330894
-4.900349 4.616335 4.7262735 -4.8631463 4.074291 -4.9034185 4.7974043 -4.3998656
-4.651306 4.7129245 -4.4731593 4.4793224 -4.5132585 4.5829186 4.5933523 -4.403895
-4.395024 4.5502872 -4.326933 -4.54103 -4.5942683 4.8293657 -4.6857862 4.61667
4.6571097 4.6038837 -4.666933 -4.811661 4.41996 -4.5884476 4.457077 4.346151
4.619322 -4.5434837 -4.632164 4.4712214 -3.8163898 4.460316 4.483296 4.5153656
4.534622 4.4131045 -4.585277 -4.5371003 4.5968676 -4.692056 4.5373316 4.589788
-4.7271414 -2.6232142 -4.762749 4.5442195 -4.6045346 -4.72943 4.813445 -4.520915
00000000: 2dc8 8640 1951 93c0 c2ae 94c0 e4fd 8e40
00000010: d661 93c0 a023 8f40 9721 8b40 75ad 9340
00000020: 457f 89c0 edfb 9340 5612 8d40 4088 9140
00000030: ca35 8f40 127e 8e40 515e 90c0 cb1e 9440
00000040: fe0b 8dc0 f456 94c0 0885 8ec0 4dcb 9540
00000050: dd55 96c0 4bb9 9b40 e522 9540 418d 8fc0
00000060: 5e7e 7640 6b0d 97c0 f916 9640 1ca3 8fc0
00000070: 0d5f 98c0 e262 9340 4b55 8ec0 8b0c 93c0
00000080: f70c 8ec0 07e7 9140 3e20 9340 703e 93c0
00000090: f6b5 8fc0 0735 8e40 352e 8f40 a7a7 92c0
000000a0: 16de 8fc0 72f3 9540 bcc7 96c0 2e9a 92c0
000000b0: c39f 9740 d210 9440 459c 99c0 9530 94c0
000000c0: 9725 9340 f45e 9140 fcd0 9040 09f3 9040
000000d0: e95d 9140 a046 8dc0 b7e0 8d40 209b 8d40
000000e0: e558 8cc0 edbc 8f40 7ec9 8bc0 3348 8dc0
000000f0: e9d7 8b40 7ebe 8fc0 d273 8bc0 bbbd 8cc0
00000100: 49bc 9540 859b 96c0 9ccf 9040 741c 9a40
00000110: affe 92c0 72d5 3bc0 1a47 95c0 c62e 9540
00000120: 8d11 8bc0 ae7c 97c0 b00d 9440 9f48 8ec0
00000130: 2cac 92c0 a02d 94c0 a10e 8e40 03a9 8c40
00000140: eeac 8fc0 6de0 8fc0 d5c4 9040 2b24 9240
00000150: c7d8 8ac0 0eee 8fc0 f076 9540 3b37 90c0
00000160: 75ae 86c0 109d 9640 86f8 8bc0 0df0 96c0
00000170: 06c2 96c0 7310 8d40 53ff 8fc0 3ec4 8e40
00000180: 6be4 8fc0 ca79 9640 a582 93c0 3dc8 91c0
00000190: f287 8e40 259b 4ac0 586f 91c0 1d49 9240
000001a0: 507a 8c40 3a05 8c40 6ea5 9140 bea8 8c40
000001b0: 9d40 8dc0 75fc 9540 c86e 95c0 1ead 9140
000001c0: 1e9a 9040 5e8b 92c0 3e4b fdbf 666f 91c0
000001d0: 82c2 9940 f1be 8ec0 aeb8 95c0 9199 9440
000001e0: 05d1 9340 cb6c 8b40 bc2f 90c0 babd 9340
000001f0: 6ed3 8d40 5794 9040 aadc 9340 33e2 9240
00000200: be09 8bc0 0e6d 90c0 4a98 8e40 6598 9340
00000210: 335a 97c0 acd5 8d40 47fb 9040 89db 9440
00000220: 5a81 98c0 8eab 96c0 d0f9 9240 5c7e 8dc0
00000230: 5953 8c40 66f1 9340 2f89 9940 58f3 8cc0
00000240: b5e1 8cc0 cc72 9340 a211 89c0 c1c5 8a40
00000250: 21bd 9140 0123 9240 219a 9140 6d44 8f40
00000260: 7843 8bc0 3aa8 8fc0 4d8e 9c40 540d 94c0
00000270: d693 9240 9951 9940 53d5 9bc0 b089 3e40
00000280: 358d 97c0 1235 9740 f6bf 8cc0 ec81 9bc0
00000290: fc47 9840 cb1b 8dc0 cf96 9440 cb5f 8cc0
000002a0: a238 8c40 83f3 9040 b5ba 91c0 4ea5 8bc0
000002b0: 0a80 8a40 91fc 8cc0 1970 8dc0 810d 9140
000002c0: 7045 9440 0a1d 93c0 9dd8 8d40 e7fa 9340
000002d0: 9b7b 8e40 3f74 97c0 bf16 9ec0 daf8 8c40
000002e0: e471 8940 32a7 9140 bd23 8f40 2a05 9640
000002f0: 1c92 93c0 2068 93c0 41d1 8d40 f37d 90c0
00000300: cb08 8c40 0846 87c0 34a4 9440 9935 9240
00000310: 9abc 8e40 8bce 8dc0 1b11 8bc0 aba8 9a40
00000320: a9cf 9cc0 04b9 9340 a23d 9740 e59e 9bc0
00000330: 9860 8240 cee8 9cc0 5684 9940 b3cb 8cc0
00000340: 80d7 94c0 47d0 9640 1f24 8fc0 9c56 8f40
00000350: 9d6c 90c0 45a7 9240 befc 9240 b5ec 8cc0
00000360: 09a4 8cc0 f49b 9140 3c76 8ac0 1e50 91c0
00000370: 3f04 93c0 2a8a 9a40 f6f1 95c0 c3bb 9340
00000380: 0b07 9540 0453 9340 8457 95c0 20f9 99c0
00000390: 5070 8d40 90d4 92c0 60a0 8e40 ab13 8b40
000003a0: 7cd1 9340 3864 91c0 b03a 94c0 3f14 8f40
000003b0: bb3f 74c0 e9ba 8e40 2977 8f40 e07d 9040
000003c0: a01b 9140 2738 8d40 97ba 92c0 ed2f 91c0
000003d0: 8a19 9340 5325 96c0 d231 9140 8bdf 9240
000003e0: be44 97c0 bee2 27c0 7168 98c0 3f6a 9140
000003f0: 5958 93c0 7e57 97c0 be07 9a40 56ab 90c0

lstm.weight_hh_l0 f4 [180, 45]
-0.014867321 0.14074056 -0.14619909 0.0039958805 -0.14547545 -0.09063757 0.038546592 0.09969355
-0.023795724 0.13270028 0.06762515 -0.13469186 -0.037143886 -0.022625387 -0.02374892 0.06268272
0.12293513 -0.10152106 -0.0827014 -0.08883968 0.02777265 0.0598654 -0.097909704 0.08064288
0.06566842 -0.04410363 -0.0449778 -0.13931228 -0.09516434 0.04265575 0.058356643 0.13141502
-0.03450706 0.10088554 -0.08274862 -0.11912782 -0.12760231 0.098299295 -0.023480996 0.12050964
-0.054430947 0.1485116 0.063046455 -0.06899998 0.08081521 -0.03690487 0.09947714 -0.022204354
0.14779665 0.11124407 -0.13682178 0.033783317 -0.012140945 -0.055161893 0.07627371 -0.027083054
-0.05448115 -0.09968394 -0.117559835 0.08936961 0.09546952 -0.019520804 0.09338948 -0.0637358
0.12147014 -0.034563653 0.06826238 0.023080707 0.14191364 -0.018051133 -0.11892493 -0.096638605
-0.005804509 -0.034435898 -0.095142454 -0.108447716 -0.13449456 -0.038516656 0.09710471 0.021745756
0.0031372905 -0.14779396 0.007391423 -0.14159077 -0.09898092 -0.07148996 -0.131855 -0.016358256
0.07746844 -0.10236682 -0.14720689 -0.113624826 0.013314977 0.14787121 0.118051246 0.13706501
0.0032477528 0.054067597 -0.0418725 -0.11666781 0.03643003 0.07498458 0.11384831 -0.08667922
0.024137154 -0.119497284 -0.13327077 -0.067865536 -0.10592547 -0.11310939 -0.011302188 -0.12692101
-0.117336035 -0.10319294 -0.09130635 0.0097376555 -0.017441347 0.062555626 -0.023460075 0.059009954
-0.034830786 0.075055525 0.06462228 0.11985798 0.028135613 -0.113754585 0.049516097 0.011954188
-0.09218484 0.063888654 0.03498994 -0.021892294 -0.10800128 -0.039368488 -0.08582817 0.018558338
-0.06801207 -0.0070343614 -0.0320557 0.04307255 0.06843281 -0.029100403 0.08869377 -0.12908566
0.14217775 0.14200024 0.1276734 -0.08575924 -0.03896465 0.035853684 -0.12295666 0.10788341
0.0061253905 0.1256599 -0.12499599 -0.04042252 -0.1329954 -0.05419472 0.025040194 -0.0034860373
0.061110884 -0.04859273 -0.04399222 -0.11348195 -0.14420667 0.1264232 -0.10323239 -0.121513315
-0.034901172 -0.013317585 0.028598562 -0.10706173 -0.10987685 -0.12698339 0.078618035 0.06919971
-0.06664324 0.0022816658 -0.027878135 0.03658612 -0.09406766 -0.07725487 -0.029893875 -0.036934264
-0.080235794 -0.11125484 -0.019157901 -0.11808391 -0.030546345 0.12630905 0.04553914 0.013274774
-0.03821981 0.07081805 0.0518983 0.081511125 0.07724336 0.016887113 -0.023129106 -0.12379734
-0.108970866 0.085754916 -0.028334841 0.008271679 -0.13170594 -0.09950274 -0.082239114 0.108491525
0.11237283 -0.04236882 -0.067744784 0.10452147 0.08637926 -0.086142376 0.113872394 0.058299825
0.013917133 -0.06810306 0.0973067 -0.085404925 -0.0072369277 -0.10604919 -0.14538778 -0.06967687
-0.05298134 0.06021738 0.088805616 -0.12667386 0.085055694 -0.10720454 0.1392505 -0.09465312
0.03395821 0.046831787 -0.0331093 -0.08231256 0.13856907 0.14773919 0.12967421 -0.05292476
0.012717605 -0.08989705 -0.00054840744 -0.11534058 -0.049010962 0.056109518 -0.09193069 -0.0875818
0.109640315 -0.052722633 -0.06970802 0.07014458 -0.111294344 -0.032445945 0.0019961298 0.119441226
00000000: 1096 73bc 4b1e 103e 37b5 15be e0ef 823b
00000010: 84f7 14be 31a0 b9bd 08e3 1d3d 222c cc3d
00000020: 40ef c2bc 95e2 073e 0e7f 8a3d aaec 09be
00000030: 3024 18bd e058 b9bc 188d c2bc cc5f 803d
00000040: 6ac5 fb3d 46ea cfbd 5a5f a9bd 94f1 b5bd
00000050: 7883 e33c 6c35 753d e284 c8bd 1828 a53d
00000060: 2a7d 863d 02a6 34bd a43a 38bd e1a7 0ebe
00000070: 86e5 c2bd ccb7 2e3d 6007 6f3d a991 063e
00000080: 4657 0dbd 149d ce3d 1c78 a9bd 49f9 f3bd
00000090: 2eaa 02be 2451 c93d 385b c0bc c2cd f63d
000000a0: fcf2 5ebd 6d13 183e 801e 813d dd4f 8dbd
000000b0: 7282 a53d 9029 17bd acba cb3d e8e5 b5bc
000000c0: 0158 173e eed3 e33d 021b 0cbe 6060 0a3d
000000d0: d0ea 46bc 70f1 61bd 6435 9c3d 48dd ddbc
000000e0: a027 5fbd 1827 ccbd 36c3 f0bd 6a07 b73d
000000f0: 8685 c33d 18ea 9fbc fc42 bf3d ea87 82bd
00000100: 56c5 f83d 9e92 0dbd 26cd 8b3d c013 bd3c
00000110: cf51 113e f8df 93bc ea8e f3bd 76ea c5bd
00000120: c033 bebb a80c 0dbd 0cda c2bd d619 debd
00000130: f1b8 09be a4c3 1dbd d6de c63d 2824 b23c
00000140: 009b 4d3b 4d57 17be c033 f23b 2cfd 10be
00000150: 82b6 cabd 5469 92bd ff04 07be c001 86bc
00000160: c6a7 9e3d b2a5 d1bd 67bd 16be 22b4 e8bd
00000170: 1027 5a3c 8d6b 173e dac4 f13d c55a 0c3e
00000180: 40d8 543b fc75 5d3d 8082 2bbd 88ef eebd
00000190: a837 153d 8491 993d 4e29 e93d e084 b1bd
000001a0: 48bb c53c feba f4bd 2278 08be 16fd 8abd
000001b0: 74ef d8bd e5a5 e7bd d02c 39bc 95f7 01be
000001c0: e04d f0bd d256 d3bd d3fe babd b08a 1f3c
000001d0: 28e1 8ebc 2a1d 803d 582f c0bc 6cb4 713d
000001e0: baaa 0ebd b6b6 993d b058 843d 1a78 f53d
000001f0: a87c e63c 2af8 e8bd 64d1 4a3d 80db 433c
00000200: 68cb bcbd 0ed8 823d 9c51 0f3d 7857 b3bc
00000210: c62f ddbd da40 21bd aec6 afbd a807 983c
00000220: ea49 8bbd 8080 e6bb d64c 03bd d86c 303d
00000230: 8026 8c3d f863 eebc 14a5 b53d 082f 04be
00000240: 0b97 113e 8368 113e d1bc 023e 8aa2 afbd
00000250: 6699 1fbd 50db 123d b4d0 fbbd faf1 dc3d
00000260: 80b7 c83b fdac 003e e6fd ffbd 1692 25bd
00000270: f22f 08be 48fb 5dbd 1821 cd3c 0076 64bb
00000280: 684f 7a3d 2c09 47bd 3031 34bd 3969 e8bd
00000290: eaaa 13be 1575 013e 816b d3bd f9db f8bd
000002a0: 88f4 0ebd 0032 5abc 8847 ea3c 2e43 dbbd
000002b0: 1d07 e1bd ef07 02be 7e02 a13d 94b8 8d3d
000002c0: 407c 88bd 0088 153b b060 e4bc 54db 153d
000002d0: 8ca6 c0bd cd37 9ebd 00e4 f4bc 6248 17bd
000002e0: aa52 a4bd 94d9 e3bd 08f1 9cbc fad5 f1bd
000002f0: 543c fabc 2957 013e 4087 3a3d 707e 593c
00000300: 608c 1cbd 0e09 913d 5093 543d 4eef a63d
00000310: c431 9e3d d856 8a3c 4079 bdbc 7689 fdbd
00000320: 1e2c dfbd 46a0 af3d 781e e8bc f085 073c
00000330: ecdd 06be 18c8 cbbd fb6c a8bd ce30 de3d
00000340: ba23 e63d ee8a 2dbd c7bd 8abd 5a0f d63d
00000350: 9ce7 b03d 6a6b b0bd ee35 e93d cccb 6e3d
00000360: b004 643c 9e79 8bbd bc48 c73d c7e8 aebd
00000370: c023 edbb 5130 d9bd 89e0 14be bfb2 8ebd
00000380: f602 59bd 80a6 763d b8df b53d cbb6 01be
00000390: ae31 ae3d 0e8e dbbd af97 0e3e 7fd9 c1bd
000003a0: c417 0b3d b0d2 3f3d 9e9d 07bd 7d93 a8bd
000003b0: 0de5 0d3e f148 173e 51c9 043e a2c7 58bd
000003c0: 805d 503c f21b b8bd 00c3 0fba af37 ecbd
000003d0: b8bf 48bd 18d3 653d 2846 bcbd 165e b3bd
000003e0: 1a8b e03d b0f3 57bd 14c3 8ebd f6a7 8f3d
000003f0: 4aee e3bd 0ae6 04bd 80d1 023b 9a9d f43d

lstm.bias_ih_l0 f4 [180]
5.184578 5.232916 5.149985 5.217391 5.260958 5.136356 5.285178 5.270258
5.1171656 5.2437773 5.191726 5.2328324 5.211608 5.278651 5.285036 5.0047536
5.0760665 5.276534 5.380444 5.186278 5.241498 5.2809963 5.200088 5.1941214
5.122812 5.165082 5.198324 5.1293507 5.212491 5.3822083 5.3700666 5.2481637
5.209387 5.177759 5.4683485 5.171792 5.304353 5.092058 5.347093 5.4475565
5.2552485 5.3539805 5.493921 5.2603006 5.348539 -0.07716474 0.006778002 -0.0073163062
0.03459029 -0.03833911 0.09310931 0.10118796 0.08893731 -0.04043681 -0.036134563 0.112248465
0.104648754 0.042756766 -0.057789035 -0.11756101 -0.0052877814 -0.004633561 -0.09383619 0.071124166
0.08533898 0.06712267 -0.023024708 -0.08747421 -0.1391812 -0.08888696 -0.08514786 -0.081797056
-0.10284305 -0.072010174 0.14497171 -0.07968405 0.05541095 -0.09463547 0.09533803 -0.1349002
0.044120118 0.14554463 -0.07749106 0.019057497 -0.14334112 -0.060663722 0.111901835 0.09418395
0.05125369 0.08248608 -5.6191316 -5.3270335 5.3511353 -5.5479975 -5.5920963 -5.1990566
-5.5945063 -5.2673135 5.2290053 5.1126204 -5.0461426 5.923237 -5.8369246 -5.4211183
5.5775504 5.192306 -4.9802814 5.0616355 5.789752 5.505747 5.061112 -5.1083436
-5.5589247 5.081044 5.3907003 -5.2490053 -5.347188 5.528654 5.314641 5.096087
-5.0711737 -5.32563 5.4407716 5.158661 -5.0485005 5.276875 4.997413 5.371537
-5.530856 5.412148 5.311816 -5.3751574 -5.7125745 -5.181662 -5.2502666 5.3190393
5.249081 5.383548 5.2234774 5.2086725 5.2480655 5.2150426 5.2639694 5.3362184
5.468036 5.3436265 5.4820423 5.3509555 5.2850084 5.4313035 5.3209915 5.2656856
5.299321 5.4601574 5.312994 5.257806 5.4281864 5.3111134 5.31722 5.217194
5.3958707 5.305845 5.0759664 5.058857 5.4880476 5.3923745 5.193318 5.182091
5.2521734 5.4872255 5.2269106 5.3136 5.315612 5.368846 5.314656 5.204401
5.3643956 5.5258083 5.1152077 5.169658
00000000: 10e8 a540 0c74 a740 adcc a440 def4 a640
00000010: c559 a840 075d a440 2e20 a940 f4a5 a840
00000020: d2bf a340 06cd a740 9f22 a640 5d73 a740
00000030: 7ec5 a640 b6ea a840 041f a940 f126 a040
00000040: 236f a240 5ed9 a840 992c ac40 fdf5 a540
00000050: 5aba a740 ecfd a840 1f67 a640 3e36 a640
00000060: 13ee a340 5a48 a540 ac58 a640 a423 a440
00000070: bacc a640 0d3b ac40 96d7 ab40 f5f0 a740
00000080: 4cb3 a640 34b0 a540 b6fc ae40 527f a540
00000090: 43bd a940 24f2 a240 631b ab40 6252 ae40
000000a0: ff2a a840 cf53 ab40 33ce af40 6254 a840
000000b0: 3b27 ab40 8c08 9ebd 001a de3b a0bd efbb
000000c0: 8cae 0d3d 7809 1dbd 18b0 be3d a23b cf3d
000000d0: c424 b63d 12a1 25bd d601 14bd 86e2 e53d
000000e0: 1652 d63d b821 2f3d 32b4 6cbd d4c3 f0bd
000000f0: 2045 adbb 20d5 97bb 302d c0bd 8ca9 913d
00000100: 34c6 ae3d 9c77 893d 509e bcbc ae25 b3bd
00000110: 8485 0ebe 5e0a b6bd 0062 aebd 3785 a7bd
00000120: 619f d2bd 127a 93bd 7773 143e 6431 a3bd
00000130: 98f6 623d 3ed0 c1bd 9640 c33d 4723 0abe
00000140: 4cb7 343d a709 153e a2b3 9ebd 781e 9c3c
00000150: 04c8 12be 867a 78bd ca2c e53d 84e3 c03d
00000160: 64ef 513d 76ee a83d edcf b3c0 0f77 aac0
00000170: 803c ab40 3289 b1c0 74f2 b2c0 ac5e a6c0
00000180: 3206 b3c0 d58d a8c0 0354 a740 969a a340
00000190: 007a a1c0 288b bd40 16c8 bac0 cd79 adc0
000001a0: 4b7b b240 5f27 a640 775e 9fc0 ebf8 a140
000001b0: a645 b940 142f b040 a1f4 a140 8d77 a3c0
000001c0: b6e2 b1c0 ea97 a240 9e80 ac40 daf7 a7c0
000001d0: 2a1c abc0 bcea b040 8a11 aa40 2513 a340
000001e0: 0e47 a2c0 906b aac0 cd1a ae40 c013 a540
000001f0: 518d a1c0 29dc a840 cfea 9f40 a2e3 ab40
00000200: c6fc b0c0 5130 ad40 66fa a940 4a01 acc0
00000210: 69cd b6c0 2dd0 a5c0 2f02 a8c0 9235 aa40
00000220: 79f8 a740 0646 ac40 ba26 a740 72ad a640
00000230: 27f0 a740 a1e1 a640 7072 a840 4dc2 aa40
00000240: 27fa ae40 fdfe aa40 e46c af40 073b ab40
00000250: ca1e a940 3dcd ad40 9045 aa40 7f80 a840
00000260: 0a94 a940 9cb9 ae40 0c04 aa40 f23f a840
00000270: b4b3 ad40 a4f4 a940 ab26 aa40 41f3 a640
00000280: f9aa ac40 7bc9 a940 516e a240 28e2 a140
00000290: 169e af40 558e ac40 a92f a640 b1d3 a540
000002a0: ce11 a840 5a97 af40 da42 a740 0309 aa40
000002b0: 7e19 aa40 96cd ab40 a911 aa40 748a a640
000002c0: 21a9 ab40 6cd3 b040 c8af a340 d76d a540
