Ni_prediction/savemodel/bst_mod_368.pth (torch_old, 533443 bytes, 44 tensors)

price_encoder.attention.weight f4 [1, 121]
5.4413815 5.4755373 5.389124 -5.480101 -5.3197856 5.3211594 5.4363766 -5.296934
5.418783 5.382073 5.3801737 5.454875 -5.335438 -5.397128 -5.4028707 5.3482604
5.3199334 -5.351968 5.2611494 5.4123225 5.266699 5.4007483 5.451053 -5.439829
-5.4404087 5.3806267 -5.337431 -5.450931 -5.4301624 -5.357646 5.4287524 -5.378235
5.392684 5.4824715 5.3289323 5.3871984 -5.4418907 5.449284 5.4100056 -5.4418154
5.4004765 5.485306 5.3577642 5.4451504 5.3688416 5.447124 5.446781 5.447454
5.481124 5.3808274 5.3434086 5.368921 5.4371614 5.371443 5.3069577 5.4058723
5.427641 -5.4729166 -5.404314 5.492008 5.3413134 -5.4598923 -5.425035 -5.306445
-5.4771776 5.4644346 5.398263 5.3604984 5.339827 -5.3906083 -5.3755393 5.4095774
5.422635 5.335784 -5.3413553 5.3197927 -5.340947 4.4262495 5.4626436 5.4287596
-5.328396 -5.338431 5.4064207 5.3693495 5.4695005 -5.4811106 -5.3166666 -5.485081
5.4558125 5.449758 5.4812713 5.4745317 5.3670397 5.4586678 -5.352976 -5.4843106
-5.3538814 5.420847 -5.43806 5.294249 5.358543 5.371547 5.3999696 5.466993
5.443367 5.3493156 5.317326 5.446176 5.4525375 5.3991213 5.3149786 5.4035444
5.3085117 5.4228773 5.4710803 5.316288 5.3706455 5.3634396 5.455535 5.4157896
5.4466653
00000000: cc1f ae40 9a37 af40 b473 ac40 fd5c afc0
00000010: af3b aac0 f046 aa40 ccf6 ad40 7c80 a9c0
00000020: ac66 ad40 f139 ac40 622a ac40 568e ae40
00000030: e8bb aac0 46b5 acc0 51e4 acc0 f324 ab40
00000040: e53c aa40 5243 abc0 565b a840 bf31 ad40
00000050: cc88 a840 eed2 ac40 076f ae40 1413 aec0
00000060: d417 aec0 182e ac40 3ccc aac0 076e aec0
00000070: e4c3 adc0 d671 abc0 57b8 ad40 801a acc0
00000080: de90 ac40 6870 af40 9d86 aa40 ee63 ac40
00000090: f823 aec0 8960 ae40 c41e ad40 5a23 aec0
000000a0: b4d0 ac40 a087 af40 ce72 ab40 ac3e ae40
000000b0: 8dcd ab40 d74e ae40 084c ae40 8b51 ae40
000000c0: 5e65 af40 bd2f ac40 34fd aa40 33ce ab40
000000d0: 3afd ad40 dce2 ab40 99d2 a940 e8fc ac40
000000e0: 3caf ad40 2222 afc0 24f0 acc0 88be af40
000000f0: 0aec aa40 70b7 aec0 e399 adc0 66ce a9c0
00000100: 0a45 afc0 a6dc ae40 92be ac40 3489 ab40
00000110: dddf aa40 dd7f acc0 6b04 acc0 421b ad40
00000120: 3a86 ad40 bebe aa40 62ec aac0 be3b aa40
00000130: 0ae9 aac0 d6a3 8d40 facd ae40 66b8 ad40
00000140: 3882 aac0 6dd4 aac0 6601 ad40 b6d1 ab40
00000150: 2606 af40 4265 afc0 2222 aac0 c985 afc0
00000160: 0496 ae40 6b64 ae40 9366 af40 5d2f af40
00000170: cabe ab40 68ad ae40 944b abc0 797f afc0
00000180: ff52 abc0 9477 ad40 9604 aec0 7d6a a940
00000190: 2f79 ab40 b7e3 ab40 8dcc ac40 9bf1 ae40
000001a0: 1030 ae40 982d ab40 8927 aa40 1347 ae40
000001b0: 307b ae40 9ac5 ac40 4e14 aa40 d6e9 ac40
000001c0: 54df a940 3688 ad40 1713 af40 081f aa40
000001d0: 54dc ab40 4ca1 ab40 be93 ae40 264e ad40
000001e0: 154b ae40

price_encoder.encoder.weight_ih_l0 f4 [180, 45]
-0.10081503 -0.11793174 0.032030195 0.08252931 -0.05553808 0.10434081 0.0786314 -0.12203796
-0.10363906 -0.011906922 -0.11033716 -0.057845883 -0.026593558 0.030670568 -0.12094639 0.015055522
0.050929055 -0.08312994 0.09051782 0.11508541 0.10697947 0.06856566 -0.10668361 -5.292561
-0.14499222 -0.14838655 -0.12169918 0.12855284 0.13309984 0.036279887 -0.13216035 -0.007720217
0.1171736 5.1929317 5.3526826 5.370044 5.386588 5.391168 -0.38911536 5.3383517
5.5472717 5.47598 5.3360147 0.024258867 -0.12438552 -0.12509665 0.069953054 0.11043497
0.04476267 0.09187691 0.12393751 -0.06904532 0.08611696 0.06103446 0.03135532 0.091763556
-0.02062574 0.06786533 0.12960862 0.012076467 -0.14174514 -0.13400184 0.004851505 -0.0328466
0.10199394 2.0734725 0.039718412 -0.058023024 5.2589474 -0.12055867 -0.14411847 0.12071128
-0.04557728 -0.14226675 -0.0031163245 -0.043618716 0.1389936 -0.09410692 5.316596 5.273173
5.3744063 5.328038 5.5320883 -0.1321793 5.338198 5.3044324 5.3187404 5.4795146
0.040094435 0.04406303 0.10548898 -0.0067870333 -0.1174714 -0.1096553 0.028270796 0.05008282
0.06518966 0.066479266 -0.027548768 -0.083775625 -0.13097677 0.019675344 -0.04967653 -0.101086855
0.0057055205 0.016693756 0.09478618 -0.09748939 0.014427438 -0.080963984 1.8851738 -0.007452993
-0.06844355 5.356768 -0.05385317 0.040727615 -0.044189923 0.011742107 -0.10108698 0.14104538
-0.10903217 0.14078091 -0.13879293 5.508541 5.272059 5.3704367 5.4361033 5.4882193
-5.3351755 5.3575196 5.4764338 5.27757 5.3472056 0.05854948 -0.0628588 0.097312465
-0.05437591 -0.12997267 -0.021349557 -0.039175212 0.1159471 0.120828584 0.09471078 -0.004318502
0.07895869 0.112611786 0.11571257 0.098501086 -5.265657 0.035623893 0.06157522 -0.036585532
-0.009238392 2.202407 0.043681316 -0.30758274 -0.01657572 0.05794388 -5.395675 0.048548266
0.14540882 -0.06431627 -0.08895911 -5.4233036 0.08551687 0.09739812 -4.4659023 -0.090427786
-5.5108356 -5.478057 -5.3111224 -5.327332 -5.4717836 -0.0971231 -5.334102 -5.4027324
-5.3113914 -5.319576 0.078700915 0.03697005 -0.08605167 -0.021043167 0.08415489 0.13774158
0.086464375 0.14368334 -0.13798758 -0.14354962 -0.08811976 -0.05214633 0.05319175 -0.14534812
-0.10576667 -0.0815159 -0.0072434545 0.08716659 -0.03337206 -0.090265244 0.03837815 -0.08734302
-0.06919122 0.08651121 0.04235731 -5.3718705 0.10023822 0.14138605 0.07517514 0.02732578
0.12808414 0.12216337 0.05401829 -0.017108917 -0.10490509 -5.264724 -5.4985785 -5.530246
-5.341509 -5.4062567 -0.005410418 -5.3820467 -5.2899613 -5.253837 -5.465981 -0.0796645
-0.011409387 -0.016921028 0.06550309 0.014936879 -0.03827378 0.12666835 0.14669965 -0.001548293
0.14879559 0.06344125 0.11312817 -0.13156295 0.09171176 -0.09136476 5.3163395 0.008749828
0.001897186 0.03890367 0.02564998 -0.10336681 0.07766178 -0.09817 -0.07722957 -0.00014066219
-5.5507936 0.027119339 -0.09090344 0.118399784 -0.03892406 5.406987 0.06407851 0.13539745
00000000: 1c78 cebd 3286 f1bd 1832 033d 2005 a93d
00000010: e67b 63bd a2b0 d53d 8009 a13d 0aef f9bd
00000020: b740 d4bd 4015 43bc 73f8 e1bd ceef 6cbd
00000030: bcda d9bc d840 fb3c beb2 f7bd 70ab 763c
00000040: fc9a 503d 0840 aabd 6861 b93d e6b1 eb3d
00000050: 0d18 db3d 276c 8c3d f07c dabd a95c a9c0
00000060: d778 14be a5f2 17be 6b3d f9bd 5ba3 033e
00000070: 534b 083e 389a 143d 0b55 07be e0f9 fcbb
00000080: b6f8 ef3d 7f2c a640 2d49 ab40 67d7 ab40
00000090: ee5e ac40 7384 ac40 213a c7be c7d3 aa40
000000a0: 4083 b140 3a3b af40 a2c0 aa40 88ba c63c
000000b0: d6bd febd 5619 00be 8c43 8f3d bb2b e23d
000000c0: 1059 373d f629 bc3d f3d2 fd3d a267 8dbd
000000d0: 175e b03d 45ff 793d 706e 003d 88ee bb3d
000000e0: 50f7 a8bc fafc 8a3d 1fb8 043e 60dc 453c
000000f0: a325 11be c737 09be 60f9 9e3b 288a 06bd
00000100: 33e2 d03d c6b3 0440 c6af 223d 8da9 6dbd
00000110: 4c49 a840 77e7 f6bd cb93 13be 7a37 f73d
00000120: 3eaf 3abd 60ae 11be 403b 4cbb 8aa9 32bd
00000130: 5754 0e3e 21bb c0bd 8e21 aa40 d5bd a840
00000140: 23fb ab40 4a7f aa40 de06 b140 035a 07be
00000150: 85d2 aa40 e9bd a940 1f33 aa40 2f58 af40
00000160: 103a 243d 707b 343d 9b0a d83d c365 debb
00000170: d894 f0bd f592 e0bd 2898 e73c a523 4d3d
00000180: 2882 853d 4826 883d f4ad e1bc 8e92 abbd
00000190: c61e 06be 302e a13c 9e79 4bbd a006 cfbd
000001a0: 60f5 ba3b 58c1 883c 421f c23d 84a8 c7bd
000001b0: 1061 6c3c 72d0 a5bd 604d f13f 3d38 f4bb
000001c0: 222c 8cbd a56a ab40 2495 5cbd 00d2 263d
000001d0: 7e00 35bd f761 403c b106 cfbd 336e 103e
000001e0: 424c dfbd df28 103e bc1f 0ebe f845 b040
000001f0: b5b4 a840 9eda ab40 8ff4 ad40 7e9f af40
00000200: c2b9 aac0 cd70 ab40 f23e af40 dae1 a840
00000210: 4f1c ab40 94d1 6f3d 1dbc 80bd c24b c73d
00000220: 46b9 5ebd 8e17 05be 44e5 aebc 3076 20bd
00000230: ac75 ed3d fa74 f73d baf7 c13d 3882 8dbb
00000240: 18b5 a13d 02a1 e63d b6fa ec3d f0ba c93d
00000250: 4380 a8c0 5cea 113d 4c36 7c3d b6da 15bd
00000260: a05c 17bc 3cf4 0c40 2eeb 323d 7c7b 9dbe
00000270: cec9 87bc 9056 6d3d 5fa9 acc0 8cda 463d
00000280: 0de6 143e 40b8 83bd 3230 b6bd b48b adc0
00000290: 7823 af3d aa78 c73d ace8 8ec0 3432 b9bd
000002a0: c458 b0c0 3e4c afc0 b7f4 a9c0 8179 aac0
000002b0: da18 afc0 7ae8 c6bd f7b0 aac0 2fe3 acc0
000002c0: ebf6 a9c0 f739 aac0 f22d a13d e86d 173d
000002d0: dc3b b0bd b862 acbc 6659 ac3d 210c 0d3e
000002e0: 3c14 b13d ba21 133e 9e4c 0dbe acfe 12be
000002f0: 2278 b4bd 6497 55bd 98df 593d 23d6 14be
00000300: 329c d8bd cff1 a6bd 805a edbb 6684 b23d
00000310: 24b1 08bd fcdc b8bd 6832 1d3d e6e0 b2bd
00000320: 20b4 8dbd ca2c b13d dc7e 2d3d 5de6 abc0
00000330: b249 cd3d 81c7 103e 6cf5 993d 50da df3c
00000340: 7d28 033e ca30 fa3d 4842 5d3d 0028 8cbc
00000350: 7bd8 d6bd 9e78 a8c0 5bf4 afc0 c6f7 b0c0
00000360: a4ed aac0 0e00 adc0 e049 b1bb ba39 acc0
00000370: 5d47 a9c0 6f1f a8c0 51e9 aec0 2427 a3bd
00000380: 70ee 3abc f89d 8abc 7c26 863d d0b9 743c
00000390: f8c4 1cbd 59b5 013e 6f38 163e 18f0 caba
000003a0: df5d 183e 7ced 813d beaf e73d 70b8 06be
000003b0: 60d3 bb3d 731d bbbd 741f aa40 705b 0f3c
000003c0: 00ab f83a 7459 1f3d e81f d23c fab1 d3bd
000003d0: 240d 9f3d 5a0d c9bd 892a 9ebd b87e 13b9
000003e0: 1aa0 b1c0 6029 de3c 952b babd 967b f23d
000003f0: d66e 1fbd 0a06 ad40 983b 833d a1a5 0a3e

price_encoder.encoder.weight_hh_l0 f4 [180, 45]
5.51569 5.425613 5.2884684 -5.2895803 5.393219 5.3378963 5.3825083 -5.518818
-5.3854513 -5.33031 -5.4917665 5.4673667 -5.3404927 -5.4030623 5.3226795 -5.5348206
5.309179 -5.4350333 5.2617636 -5.5265956 5.2643456 5.3809648 5.280322 5.318387
-5.3736033 -5.255535 -5.2900095 5.3443065 -5.261354 -5.3460493 5.305581 -5.4138923
5.3836727 5.4125447 5.3867097 -5.259161 -5.358227 5.4408464 5.3189664 5.550771
5.499112 5.3368893 -5.442649 5.5323834 -5.494662 -5.518919 -5.457885 -5.400368
5.448441 -5.314064 -5.492567 -5.294191 -5.4811187 5.3477197 -5.4632206 5.3230042
-5.545648 5.271357 5.342813 -5.411113 5.520103 -5.349504 5.2680063 -5.3152266
5.4015484 5.3098445 -5.4878774 -5.3093066 -5.4217114 5.5245476 5.4678383 5.315993
-5.35662 5.261513 5.4448137 -5.532175 5.45437 -5.419227 -5.454297 -5.3068266
5.2822514 5.3819995 -5.4892287 -5.283023 -5.479848 -5.4021177 -5.3632274 5.456519
-5.3136992 5.320141 -5.3354964 -5.463022 -5.527252 5.4190454 -5.287153 -5.42034
-5.2672257 -5.3539667 5.434537 -5.3702703 5.5407925 -5.3611474 5.5176234 5.4542146
-5.2954335 5.2808127 -5.4864025 5.514162 -5.545602 -5.4517627 5.30325 -5.33939
-5.466366 -5.437651 5.344228 5.410666 5.3597846 -5.50419 5.2889495 5.544011
-5.341066 5.319448 -5.2732315 -5.4338183 -5.46424 5.473212 5.30821 -5.260675
-5.30617 -5.2933073 -5.26761 -5.375609 5.397025 -5.362561 5.443042 5.499551
5.361456 5.4703474 -5.435835 5.4486423 5.2924266 5.329535 5.2978067 -5.350171
5.482364 -5.3110795 5.303504 5.4443793 -5.3505015 5.480368 -5.409623 5.2938347
-5.403967 5.4289536 5.4408336 -5.3949275 5.33313 5.4941316 5.4297843 -5.266692
-5.363846 5.377713 5.311636 -5.5327816 -5.524249 5.4789243 -5.3503222 5.323667
5.53372 5.5468388 -5.510796 -5.3118873 5.41955 5.331578 5.3371816 5.4844747
5.2930174 -5.539397 5.304481 -5.4022484 5.270369 5.334602 5.529524 -5.472969
5.259576 5.3217688 5.548618 5.5098257 -5.5017457 5.4730244 -5.431719 5.3981624
-5.4342546 -5.306807 5.279422 -5.2976336 5.3731346 -5.2887855 5.2945247 5.4860845
-5.270709 5.2684264 5.3698573 5.53463 -5.3791485 -5.346429 5.4406414 5.4643774
-5.36458 -5.271687 5.3178535 -5.51614 5.4217253 5.5455456 5.5081434 -5.303458
-5.38065 5.295988 5.4872503 5.446649 5.3510637 5.4661107 -5.379149 5.290672
-5.279853 5.352096 5.441042 5.4848747 -5.5223694 5.4932 5.282942 5.343482
5.517505 -5.35563 5.5463796 -5.3698635 5.301905 -5.264461 -5.3664093 5.3516445
-5.4436264 5.5179725 -5.507875 5.4285526 5.5216317 -5.3058276 5.353472 5.272862
5.2639837 -5.4101567 -5.427857 5.254098 5.5168443 -5.324584 -5.530217 5.3847528
00000000: 8880 b040 9f9e ad40 223b a940 3e44 a9c0
00000010: 4095 ac40 0cd0 aa40 823d ac40 289a b0c0
00000020: 9e55 acc0 e691 aac0 8dbc afc0 abf4 ae40
00000030: 51e5 aac0 e3e5 acc0 6453 aa40 401d b1c0
00000040: cbe4 a940 cbeb adc0 5e60 a840 dfd9 b0c0
00000050: 8575 a840 dd30 ac40 66f8 a840 3a30 aa40
00000060: 8ff4 abc0 582d a8c0 c247 a9c0 8f04 ab40
00000070: 035d a8c0 d612 abc0 52c7 a940 9b3e adc0
00000080: 0c47 ac40 9133 ad40 ed5f ac40 0c4b a8c0
00000090: 9876 abc0 6a1b ae40 f934 aa40 eb9f b140
000000a0: baf8 af40 ccc7 aa40 2e2a aec0 4909 b140
000000b0: 45d4 afc0 fc9a b0c0 fea6 aec0 d1cf acc0
000000c0: a159 ae40 d00c aac0 1cc3 afc0 036a a9c0
000000d0: 5365 afc0 8520 ab40 b4d2 aec0 0d56 aa40
000000e0: f375 b1c0 f5ae a840 53f8 aa40 d627 adc0
000000f0: afa4 b040 232f abc0 8293 a840 5616 aac0
00000100: 7cd9 ac40 3fea a940 b19c afc0 d7e5 a9c0
00000110: a97e adc0 18c9 b040 88f8 ae40 9d1c aa40
00000120: 6e69 abc0 515e a840 ea3b ae40 9407 b1c0
00000130: 338a ae40 4f6a adc0 9a89 aec0 86d1 a9c0
00000140: 3408 a940 5739 ac40 c3a7 afc0 860e a9c0
00000150: ea5a afc0 26de acc0 8f9f abc0 ce9b ae40
00000160: d309 aac0 983e aa40 63bc aac0 14d1 aec0
00000170: 40df b0c0 d268 ad40 5b30 a9c0 6d73 adc0
00000180: 1d8d a8c0 b253 abc0 bae7 ad40 41d9 abc0
00000190: 2c4e b140 858e abc0 5f90 b040 ed88 ae40
000001a0: 3174 a9c0 6bfc a840 9c90 afc0 0474 b040
000001b0: 9275 b1c0 d774 aec0 39b4 a940 48dc aac0
000001c0: 78ec aec0 3d01 aec0 ea03 ab40 2d24 ad40
000001d0: 5b83 ab40 5322 b0c0 133f a940 8a68 b140
000001e0: 03ea aac0 eb38 aa40 50be a8c0 d7e1 adc0
000001f0: 0edb aec0 8d24 af40 dbdc a940 7357 a8c0
00000200: 25cc a9c0 c662 a9c0 4390 a8c0 fd04 acc0
00000210: 6eb4 ac40 1a9a abc0 662d ae40 52fc af40
00000220: 0c91 ab40 160d af40 5cf2 adc0 475b ae40
00000230: 8f5b a940 8d8b aa40 a287 a940 9a34 abc0
00000240: 876f af40 5df4 a9c0 4eb6 a940 5b38 ae40
00000250: 4f37 abc0 2d5f af40 a21b adc0 1867 a940
00000260: 4ced acc0 fdb9 ad40 4f1b ae40 3fa3 acc0
00000270: 00a9 aa40 edcf af40 cbc0 ad40 be88 a8c0
00000280: a0a4 abc0 3a16 ac40 ecf8 a940 8c0c b1c0
00000290: a6c6 b0c0 5953 af40 d735 abc0 7b5b aa40
000002a0: 3c14 b140 b47f b140 7158 b0c0 fbfa a9c0
000002b0: f46c ad40 499c aa40 31ca aa40 d180 af40
000002c0: 6660 a940 bd42 b1c0 4fbe a940 38df acc0
000002d0: dda6 a840 0fb5 aa40 dcf1 b040 9022 afc0
000002e0: 724e a840 ee4b aa40 478e b140 7e50 b040
000002f0: 4d0e b0c0 0423 af40 a4d0 adc0 bfbd ac40
00000300: 6ae5 adc0 5dd1 a9c0 06f1 a840 3786 a9c0
00000310: b8f0 ab40 bb3d a9c0 bf6c a940 018e af40
00000320: a6a9 a8c0 f396 a840 dfd5 ab40 b01b b140
00000330: fc21 acc0 f215 abc0 bc19 ae40 2edc ae40
00000340: a4aa abc0 a9b1 a8c0 db2b aa40 3884 b0c0
00000350: c67e ad40 1c75 b140 b642 b040 eeb5 a9c0
00000360: 492e acc0 bc78 a940 8e97 af40 f34a ae40
00000370: ea3b ab40 61ea ae40 fd21 acc0 2f4d a940
00000380: 8ef4 a8c0 5f44 ab40 041d ae40 1884 af40
00000390: 40b7 b0c0 4bc8 af40 dc0d a940 cefd aa40
000003a0: 678f b040 5261 abc0 f17b b140 ecd5 abc0
000003b0: 35a9 a940 7776 a8c0 a0b9 abc0 ac40 ab40
000003c0: 3032 aec0 3b93 b040 8340 b0c0 b4b6 ad40
000003d0: 35b1 b040 57c9 a9c0 a54f ab40 49bb a840
000003e0: 8e72 a840 0120 adc0 01b1 adc0 9221 a840
000003f0: fd89 b040 fe62 aac0 8af7 b0c0 e54f ac40

price_encoder.encoder.bias_ih_l0 f4 [180]
-5.4567933 5.5259423 5.3638086 -5.3274503 -5.5089936 -5.3565044 5.485565 -5.3715634
5.49851 -5.472204 -5.3406315 -5.425941 -5.5359054 5.4112034 5.3291893 5.5280614
-5.47143 5.3080096 -5.4875374 -5.5438943 -5.4361944 -5.257547 -5.4077916 5.3738813
-5.474122 -5.4131384 -5.3052325 5.3757424 -5.4492383 5.3686757 5.306963 -5.540137
5.5207095 -5.4727855 -5.320559 5.361691 -5.3572035 -5.5517554 -5.267202 5.454591
5.3144364 5.2043552 -5.5200305 5.3602986 5.3776245 -5.2920003 5.534545 5.364448
-5.485144 -5.3336754 -5.5241485 5.506398 -5.417167 5.433172 5.304478 -5.517985
-5.3084836 -5.339608 5.4241047 5.3332396 5.393153 -5.4018984 5.4811606 5.3855557
-5.4925523 -5.447596 -5.3920827 -5.29492 5.329126 -5.4620357 -5.2614117 -5.2755857
5.426253 -5.4920974 5.3735456 5.26457 -5.4188824 5.305796 -5.419861 -5.465406
5.35805 -5.497224 -5.4831896 -5.3421106 5.4612617 5.4289427 -5.377043 -5.35371
5.4310913 5.4281826 5.262938 -5.4914103 -5.3301277 -5.5502763 5.269507 5.4180627
-5.457126 5.379697 5.331301 -5.2914143 -5.259206 5.4403696 5.380231 5.3209796
-5.4651065 5.318272 5.4649487 5.513716 5.3341503 5.485281 -5.516409 5.302766
5.4376764 -5.299811 -5.2646656 -5.343241 5.54753 -5.2582893 -5.285227 5.49196
-5.3922005 -5.464781 -5.4802856 5.3382225 5.5052047 5.3640585 -5.5088167 5.44594
5.35291 -5.378149 -5.468007 5.510294 -5.39842 -5.4015527 5.475822 -5.315146
5.422964 5.2750344 -5.473438 -5.5400887 -5.5399294 5.288707 -5.3907485 5.522287
-5.299648 -5.5426626 -5.284506 -5.37729 5.4848375 5.4453793 5.2928886 -5.269382
5.5281973 -5.4763613 -5.4765983 -5.491657 -5.3250284 -5.5076456 5.3500843 -5.449465
-5.362917 -5.3045783 5.3813725 -5.2765274 5.302411 5.356744 -5.3950143 5.2905984
-5.263857 -5.2746763 5.5227623 -5.490422 -5.311643 -5.405038 5.3294325 5.321192
-5.479932 -5.42781 5.3813624 5.545693
00000000: 0d9e aec0 85d4 b040 52a4 ab40 797a aac0
00000010: ad49 b0c0 7c68 abc0 c089 af40 d9e3 abc0
00000020: cbf3 af40 4c1c afc0 74e6 aac0 4fa1 adc0
00000030: 2326 b1c0 9428 ad40 b888 aa40 e1e5 b040
00000040: f415 afc0 37db a940 e899 afc0 9567 b1c0
00000050: 4ef5 adc0 d33d a8c0 a10c adc0 d6f6 ab40
00000060: 022c afc0 6e38 adc0 77c4 a9c0 1506 ac40
00000070: 2960 aec0 31cc ab40 a4d2 a940 cd48 b1c0
00000080: a7a9 b040 0f21 afc0 0542 aac0 f992 ab40
00000090: 366e abc0 fba7 b1c0 eb8c a8c0 028c ae40
000000a0: dd0f aa40 148a a640 17a4 b0c0 9187 ab40
000000b0: 8015 ac40 1158 a9c0 fe1a b140 8fa9 ab40
000000c0: 4d86 afc0 78ad aac0 d3c5 b0c0 6a34 b040
000000d0: 6f59 adc0 8cdc ad40 49be a940 5593 b0c0
000000e0: 19df a9c0 12de aac0 4492 ad40 e6a9 aa40
000000f0: b694 ac40 5adc acc0 ab65 af40 7956 ac40
00000100: fdc2 afc0 b552 aec0 f18b acc0 fc6f a9c0
00000110: 3388 aa40 ffc8 aec0 7c5d a8c0 99d1 a8c0
00000120: dda3 ad40 43bf afc0 16f4 ab40 5c77 a840
00000130: 7c67 adc0 15c9 a940 806f adc0 9be4 aec0
00000140: 2575 ab40 42e9 afc0 4a76 afc0 92f2 aac0
00000150: a8c2 ae40 e6b9 ad40 bc10 acc0 9851 abc0
00000160: 80cb ad40 acb3 ad40 fd69 a840 a2b9 afc0
00000170: 6890 aac0 dd9b b1c0 cd9f a840 c560 ad40
00000180: c7a0 aec0 7a26 ac40 059a aa40 4453 a9c0
00000190: 6a4b a8c0 8217 ae40 da2a ac40 7745 aa40
000001a0: 27e2 aec0 492f aa40 dce0 ae40 5d70 b040
000001b0: 5cb1 aa40 6c87 af40 6c86 b0c0 42b0 a940
000001c0: 7201 ae40 0d98 a9c0 2478 a8c0 d5fb aac0
000001d0: 5e85 b140 e843 a8c0 9420 a9c0 23be af40
000001e0: e88c acc0 7cdf aec0 805e afc0 b8d2 aa40
000001f0: a32a b040 5ea6 ab40 3a48 b0c0 2445 ae40
00000200: 0a4b ab40 cc19 acc0 eaf9 aec0 5454 b040
00000210: dbbf acc0 85d9 acc0 ef39 af40 ad15 aac0
00000220: ec88 ad40 15cd a840 6726 afc0 6848 b1c0
00000230: 1a47 b1c0 163d a940 0381 acc0 93b6 b040
00000240: b796 a9c0 7e5d b1c0 ac1a a9c0 c212 acc0
00000250: ca83 af40 8c40 ae40 585f a940 c79e a8c0
00000260: fee6 b040 5a3e afc0 4b40 afc0 a7bb afc0
00000270: a266 aac0 a23e b0c0 e433 ab40 0462 aec0
00000280: 049d abc0 1bbf a9c0 3434 ac40 50d9 a8c0
00000290: 5aad a940 726a ab40 f5a3 acc0 954c a940
000002a0: 8471 a8c0 26ca a8c0 78ba b040 89b1 afc0
000002b0: fbf8 a9c0 12f6 acc0 b68a aa40 3447 aa40
000002c0: 9a5b afc0 9fb0 adc0 1f34 ac40 5176 b140

price_encoder.encoder.bias_hh_l0 f4 [180]
-5.3102155 5.5446477 5.519349 -5.2795095 -5.47411 -5.3808584 5.266474 -5.5251327
5.3734527 -5.338065 -5.355132 -5.28545 -5.370415 5.3511467 5.4823904 5.2887235
-5.501177 5.3275404 -5.4598064 -5.2767644 -5.490842 -5.4322267 -5.3741617 5.385879
-5.442345 -5.419033 -5.3982244 5.2716146 -5.3768287 5.4270225 5.3314557 -5.5240254
5.5097003 -5.3908153 -5.4877343 5.423437 -5.255282 -5.38327 -5.345883 5.463883
5.294725 5.249817 -5.4304852 5.2733026 5.260482 -5.4818673 5.2585106 5.2745633
-5.4138365 -5.443678 -5.4221992 5.4330816 -5.372221 5.35499 5.2912736 -5.402353
-5.4358582 -5.4198422 5.4196005 5.507736 5.3087306 -5.36684 5.398022 5.4950905
-5.3727508 -5.5207796 -5.4528613 -5.43608 5.328193 -5.445424 -5.328603 -5.547871
5.262775 -5.3224244 5.4430103 5.4916096 -5.377514 5.281794 -5.36182 -5.2686915
5.2934813 -5.4770913 -5.4240484 -5.383607 5.5242424 5.45788 -5.482639 -5.483437
5.351458 5.5066347 5.431051 -5.522813 -5.4763308 -5.2870135 5.4282184 5.520615
-5.382522 5.4528403 5.4749513 -5.4793177 -5.492956 5.3066616 5.3838463 5.419041
-5.388388 5.295991 5.2931266 5.5019794 5.26 5.4439535 -5.373874 5.3940287
5.3396196 -5.3312345 -5.4816637 -5.3217425 5.290106 -5.433059 -5.389328 5.472755
-5.2876415 -5.2734804 -5.361765 5.3402615 5.3025336 5.410058 -5.4141583 5.276288
5.266821 -5.425949 -5.3658457 5.4791746 -5.4110627 -5.506405 5.484034 -5.539885
5.4820337 5.5151963 -5.544657 -5.329112 -5.3365765 5.317397 -5.275739 5.480956
-5.538896 -5.4408035 -5.353135 -5.5297947 5.274287 5.3783755 5.2868147 -5.374316
5.323847 -5.4474 -5.2870326 -5.280812 -5.2879257 -5.3572006 5.5381417 -5.2740707
-5.488925 -5.3615856 5.3814497 -5.497241 5.3407106 5.3738317 -5.5082717 5.404696
-5.473743 -5.524031 5.3523703 -5.301786 -5.532932 -5.5310836 5.4629545 5.3264666
-5.44872 -5.4812665 5.477166 5.417852
00000000: 49ed a9c0 c16d b140 829e b040 bef1 a8c0
00000010: e92b afc0 fe2f acc0 f486 a840 e3cd b0c0
00000020: 53f3 ab40 6ed1 aac0 3e5d abc0 6822 a9c0
00000030: 71da abc0 983c ab40 be6f af40 393d a940
00000040: a409 b0c0 367b aa40 bcb6 aec0 41db a8c0
00000050: fab4 afc0 cdd4 adc0 22f9 abc0 1f59 ac40
00000060: b127 aec0 b868 adc0 41be acc0 11b1 a840
00000070: fb0e acc0 2baa ad40 499b aa40 d1c4 b0c0
00000080: 774f b040 8f81 acc0 859b afc0 cc8c ad40
00000090: 452b a8c0 bf43 acc0 7911 abc0 21d8 ae40
000000a0: 636e a940 80fe a740 89c6 adc0 e5be a840
000000b0: de55 a840 756b afc0 b845 a840 39c9 a840
000000c0: 263e adc0 9c32 aec0 a882 adc0 cedb ad40
000000d0: 3ce9 abc0 145c ab40 1d52 a940 13e0 acc0
000000e0: 8df2 adc0 596f adc0 5e6d ad40 603f b040
000000f0: 1fe1 a940 27bd abc0 99bc ac40 c8d7 af40
00000100: 93ed abc0 3aaa b0c0 d77d aec0 5ef4 adc0
00000110: 8f80 aa40 ea40 aec0 ea83 aac0 2988 b1c0
00000120: a768 a840 4d51 aac0 242d ae40 44bb af40
00000130: 9814 acc0 7504 a940 0894 abc0 1f99 a8c0
00000140: 3364 a940 5544 afc0 ce91 adc0 8246 acc0
00000150: 98c6 b040 f4a6 ae40 c771 afc0 5178 afc0
00000160: 253f ab40 5a36 b040 2bcb ad40 e2ba b0c0
00000170: 1a3e afc0 372f a9c0 f7b3 ad40 e1a8 b040
00000180: 9f3d acc0 ab7d ae40 cd32 af40 9256 afc0
00000190: 4cc6 afc0 2cd0 a940 7848 ac40 c968 ad40
000001a0: ad6d acc0 c278 a940 4b61 a940 3710 b040
000001b0: ec51 a840 de34 ae40 c7f6 abc0 e29b ac40
000001c0: 2ade aa40 7999 aac0 ca69 afc0 b74b aac0
000001d0: 8c48 a940 9fdb adc0 6075 acc0 cf20 af40
000001e0: 5c34 a9c0 5ac0 a8c0 9493 abc0 6ce3 aa40
000001f0: 5bae a940 321f ad40 c940 adc0 5ad7 a840
00000200: cc89 a840 60a1 adc0 02b5 abc0 6655 af40
00000210: 6d27 adc0 7834 b0c0 357d af40 bd46 b1c0
00000220: d26c af40 7d7c b040 d56d b1c0 1688 aac0
00000230: 3cc5 aac0 1e28 aa40 dbd2 a8c0 fe63 af40
00000240: a33e b1c0 101b aec0 e24c abc0 14f4 b0c0
00000250: f6c6 a840 a71b ac40 962d a940 66fa abc0
00000260: f45c aa40 1a51 aec0 5f2f a9c0 69fc a8c0
00000270: b036 a9c0 306e abc0 7538 b140 30c5 a8c0
00000280: 46a5 afc0 1c92 abc0 d634 ac40 66e9 afc0
00000290: 1ae7 aa40 6ef6 ab40 c343 b0c0 45f3 ac40
000002a0: e728 afc0 ddc4 b0c0 9e46 ab40 3ba8 a9c0
000002b0: c70d b1c0 a3fe b0c0 86d0 ae40 6a72 aa40
000002c0: ea5b aec0 8966 afc0 f244 af40 0b5f ad40

atten_layer.0.weight f4 [45, 135]
-0.0057471693 0.0064634383 -0.023407012 -0.017246887 0.08354073 0.049593173 -0.047539566 -0.032573927
0.05134674 0.07988199 0.024511985 0.07390807 -0.017657869 0.053518586 -0.0008888021 -0.031687308
-0.02342514 0.027021773 0.044725947 0.0027237982 -0.017312214 -0.030763138 -0.002708882 0.08591122
0.02685593 -0.082645014 -0.01944539 0.03249693 -0.08227926 0.055579253 -0.05724658 -0.07076175
-0.042760298 0.002939351 -0.063155875 -0.0065164343 -0.060818404 -0.011712387 -0.08242071 -0.033076417
-0.0039123744 0.08097095 -0.08558405 -0.008020014 -5.9068203e-05 -0.076280855 -0.04573452 0.041056506
0.057193406 0.06496327 0.07700165 0.08006618 -0.018351048 -0.067524955 -0.07416958 -0.042227663
-0.050607562 0.028454863 -0.044203136 0.066603534 -0.04501019 0.068760835 0.051209517 0.073318355
-0.07228898 0.080668755 -0.0014918223 0.0740126 0.04745216 -0.06300074 -0.07123549 0.085252844
-0.021811709 -0.015380055 -0.0017899722 -0.062062446 -0.013997346 0.041222565 -0.003610663 -0.07971625
0.038701087 0.064699955 -0.034529682 -0.07037624 0.07597815 0.04406161 0.07525534 0.0022079945
-0.04345714 0.075743414 -5.4564734 -5.7862015 -6.1879992 -5.4619565 5.406074 -5.4565506
-5.4901886 6.197142 5.394444 5.3597693 -5.3983545 -5.2909174 -5.3676224 5.4600472
-5.428521 -5.312274 -5.3709235 5.4017115 5.4319882 -4.7678976 -5.962053 6.2345395
6.0919046 4.8031545 -5.4954085 4.6116467 5.8794456 5.3988104 -6.177367 6.1875587
5.398062 -5.4655786 5.358941 -5.430637 -5.322489 -5.328912 5.3788795 -5.377558
5.499496 5.388818 -4.775325 5.9331083 -6.314323 -5.5372887 6.0784283 -0.067752436
0.07499079 -0.05124852 -0.06941933 0.02911105 0.0029076785 0.044290595 0.012814164 -0.024552964
0.032376744 -0.0794905 -0.035695862 0.05890321 0.046839796 -0.041876774 0.08246253 0.05467642
0.041765742 -0.061543673 -0.05118418 -0.071765855 -0.05028689 0.03154575 0.06625862 0.072372414
-0.0029624924 0.008894905 -0.0297645 -0.0639475 0.03030461 -0.02498357 -0.03731899 -0.029991284
-0.0677152 -0.051900968 -0.032647245 -0.02142921 -0.020470433 0.079704516 -0.020916536 0.042949177
-0.01658269 0.07789128 -0.022918642 0.051874064 0.06150619 -0.02419725 0.029462881 -0.048130646
-0.03585691 0.048715226 0.045684732 0.017766334 0.07184935 -0.047481988 0.012621321 -0.06888477
-0.08488907 -0.053666174 0.08564996 0.051085763 0.06269915 0.061096407 -0.010972753 0.015200883
-0.024069268 -0.04916307 -0.03534759 -0.05007578 0.040877156 -0.040059984 -0.019390456 0.08252374
0.036294557 0.015384428 -0.01615756 0.06600962 0.0053503737 0.0029198155 -0.045652747 -0.070127316
0.06217409 -0.047747564 -0.07595188 -0.078026906 0.019387327 -0.08312577 -0.07084684 0.021299392
0.04074464 -5.668005 5.8569875 6.018275 -5.355314 5.3474092 5.3814025 5.3336644
-5.594101 5.5448184 5.4616933 -5.367669 -5.1896696 -5.4450636 5.3341703 -5.457596
-5.2020063 5.413347 5.392291 5.368268 -5.767766 5.6727552 -5.6096444 -5.9102044
5.879265 -5.401079 5.799269 -5.629476 5.477529 5.8186655 -5.6744246 5.4117527
00000000: c052 bcbb 40cb d33b 10c0 bfbc 5849 8dbc
00000010: 6717 ab3d 3622 4b3d d9b8 42bd 3d6c 05bd
00000020: f650 523d 2b99 a33d 5ccd c83c 1d5d 973d
00000030: 3ca7 90bc 4e36 5b3d 80fe 68ba 8dca 01bd
00000040: 14e6 bfbc c45c dd3c 8e32 373d c081 323b
00000050: 58d2 8dbc fa02 fcbc 8087 31bb 39f2 af3d
00000060: f800 dc3c ca41 a9bd f04b 9fbc 801b 053d
00000070: 0782 a8bd 12a7 633d 647b 6abd 89eb 90bd
00000080: 6c25 2fbd 20a2 403b de57 81bd d087 d5bb
00000090: b81c 79bd 50e5 3fbc 30cc a8bd 237b 07bd
000000a0: 6033 80bb 19d4 a53d b146 afbd 6066 03bc
000000b0: 00c0 77b8 2339 9cbd 1f54 3bbd de2a 283d
000000c0: a243 6a3d 770b 853d 0bb3 9d3d bdf9 a33d
000000d0: f054 96bc 864a 8abd 39e6 97bd eaf6 2cbd
000000e0: e049 4fbd 2c1a e93c 590e 35bd 6f67 883d
000000f0: 9b5c 38bd 7bd2 8c3d 12c1 513d ef27 963d
00000100: 3f0c 94bd a935 a53d 4089 c3ba eb93 973d
00000110: 325d 423d 8806 81bd eae3 91bd 0b99 ae3d
00000120: 78ae b2bc a0fc 7bbc 809d eaba 3135 7ebd
00000130: 2055 65bc fed8 283d e0a0 6cbb 4642 a3bd
00000140: 0885 1e3d 6981 843d ff6e 0dbd 6b21 90bd
00000150: 6f9a 9b3d f279 343d 791f 9a3d 00b4 103b
00000160: 1d00 32bd 5d1f 9b3d 6e9b aec0 9028 b9c0
00000170: 1704 c6c0 59c8 aec0 8ffe ac40 109c aec0
00000180: a0af afc0 fd4e c640 499f ac40 3b83 ab40
00000190: 52bf acc0 324f a9c0 90c3 abc0 b5b8 ae40
000001a0: 72b6 adc0 26fe a9c0 9bde abc0 d2da ac40
000001b0: d9d2 ad40 9e92 98c0 23c9 bec0 5981 c740
000001c0: e2f0 c240 71b3 9940 63da afc0 9c92 9340
000001d0: 6b24 bc40 0ec3 ac40 feac c5c0 7b00 c640
000001e0: edbc ac40 05e6 aec0 727c ab40 c7c7 adc0
000001f0: d451 aac0 7286 aac0 c81f ac40 f514 acc0
00000200: dffb af40 3271 ac40 76cf 98c0 06dc bd40
00000210: ef0e cac0 7831 b1c0 7c82 c240 cac1 8abd
00000220: c594 993d f8e9 51bd b92b 8ebd 4c7a ee3c
00000230: c08e 3e3b 0e6a 353d 80f2 513c 4c23 c9bc
00000240: 7a9d 043d eacb a2bd d335 12bd 7e44 713d
00000250: 16db 3f3d fb86 2bbd 1de2 a83d 62f4 5f3d
00000260: 8e12 2b3d 3815 7cbd 81a6 51bd faf9 92bd
00000270: a0f9 4dbd 1e36 013d 99b2 873d fd37 943d
00000280: 6026 42bb f0bb 113c aed4 f3bc e8f6 82bd
00000290: 6041 f83c 58aa ccbc ccdb 18bd 48b0 f5bc
000002a0: 44ae 8abd 1c96 54bd 1eb9 05bd 508c afbc
000002b0: 9cb1 a7bc 1f3c a33d 2859 abbc 7aeb 2f3d
000002c0: 6cd8 87bc 7785 9f3d e0bf bbbc e679 543d
000002d0: eaed 7b3d 5039 c6bc 245c f13c a424 45bd
000002e0: b2de 12bd 9e89 473d ea1f 3b3d b48a 913c
000002f0: c125 933d 797c 42bd a8c9 4e3c 7513 8dbd
00000300: 52da adbd 10d1 5bbd 3f69 af3d 4e3f 513d
00000310: 6968 803d 3a40 7a3d 10c7 33bc 200d 793c
00000320: ea2c c5bc 375f 49bd a2c8 10bd 431c 4dbd
00000330: ce6e 273d f015 24bd bcd8 9ebc 3502 a93d
00000340: 9aa9 143d f80e 7c3c dc5c 84bc 0d30 873d
00000350: 3052 af3b 605a 3f3b 60fe 3abd e99e 8fbd
00000360: 42aa 7e3d f392 43bd a98c 9bbd 92cc 9fbd
00000370: 2cd2 9e3c d83d aabd 2618 91bd 107c ae3c
00000380: dae3 263d 4c60 b5c0 716c bb40 b595 c040
00000390: bb5e abc0 fa1d ab40 7334 ac40 61ad aa40
000003a0: e002 b3c0 276f b140 31c6 ae40 f2c3 abc0
000003b0: c611 a6c0 f63d aec0 86b1 aa40 a0a4 aec0
000003c0: d676 a6c0 233a ad40 a68d ac40 dac8 ab40
000003d0: 8a91 b8c0 3687 b540 3582 b3c0 6520 bdc0
000003e0: f022 bc40 a4d5 acc0 9d93 b940 ab24 b4c0
000003f0: eb47 af40 8232 ba40 e394 b5c0 142d ad40

atten_layer.0.bias f4 [45]
5.0747147 5.4788446 5.2425084 -5.397674 -5.351527 -5.4361567 -5.5076513 5.3556166
-5.415496 5.38481 -5.2892146 -5.454542 5.436685 -5.3183455 -5.241932 5.464019
-5.300839 -5.476037 -5.2564635 -5.308307 -5.438945 5.5240293 5.329465 5.440575
-5.5214324 -5.4512296 -5.399546 -5.40514 -5.2880106 -5.5461817 5.3371325 5.4281335
5.4270577 5.4301486 -5.342979 -5.4992275 5.453727 5.34261 -5.5264974 5.34351
-5.2619557 -5.433836 5.4326253 5.4496274 -5.269414
00000000: 1064 a240 b252 af40 a1c2 a740 bfb9 acc0
00000010: b63f abc0 fff4 adc0 ae3e b0c0 3661 ab40
00000020: be4b adc0 5d50 ac40 3f41 a9c0 9c8b aec0
00000030: 53f9 ad40 e32f aac0 e8bd a7c0 3ed9 ae40
00000040: 79a0 a9c0 b23b afc0 f334 a8c0 a7dd a9c0
00000050: d60b aec0 d9c4 b040 fa8a aa40 3119 ae40
00000060: 93af b0c0 7970 aec0 15c9 acc0 e8f6 acc0
00000070: 6237 a9c0 527a b1c0 cac9 aa40 45b3 ad40
00000080: 75aa ad40 c7c3 ad40 aff9 aac0 acf9 afc0
00000090: ee84 ae40 a9f6 aa40 11d9 b0c0 09fe aa40
000000a0: f161 a8c0 fce1 adc0 11d8 ad40 5963 ae40
000000b0: 0a9f a8c0

atten_layer.2.weight f4 [1, 45]
3.5843573 -7.3636146 4.7222304 -3.8017926 -4.1817937 -3.762219 -4.5180755 -6.240147
-3.97588 4.066635 -3.161519 6.1705065 -6.4568224 -4.134249 8.075362 4.6553445
7.068284 6.4422812 -3.4970214 -3.602106 5.978546 5.353845 5.236486 5.24199
5.7338595 6.8603706 -5.036107 -4.664564 7.5703897 5.6815295 5.179495 -6.719037
4.6267543 -5.604342 6.573334 -4.8217854 -5.981881 -6.2306356 6.1557016 -6.7689075
-3.670109 5.7935996 -6.9518166 5.381935 -3.6342657
00000000: 1c66 6540 bba2 ebc0 831c 9740 9250 73c0
00000010: 41d1 85c0 32c8 70c0 1394 90c0 49af c7c0
00000020: d174 7ec0 e021 8240 5456 4ac0 ca74 c540
00000030: 4a9e cec0 c54b 84c0 af34 0141 95f8 9440
00000040: 622f e240 2b27 ce40 33cf 5fc0 e888 66c0
00000050: 4050 bf40 b352 ab40 4b91 a740 62be a740
00000060: c77b b740 2888 db40 ca27 a1c0 1c44 95c0
00000070: a240 f240 17cf b540 6cbe a540 5a02 d7c0
00000080: 5f0e 9440 c556 b3c0 c158 d240 114c 9ac0
00000090: 926b bfc0 5e61 c7c0 82fb c440 e49a d8c0
000000a0: 11e3 6ac0 2b65 b940 4875 dec0 d038 ac40
000000b0: cf97 68c0

lstm.weight_ih_l0 f4 [180, 45]
5.1408663 -5.5325823 -5.5752654 5.397425 -5.5346255 5.4020314 5.276783 5.5438566
-5.2257185 5.5534353 5.337421 5.4768147 5.4042487 5.381822 -5.440446 5.5576916
-5.3366466 -5.564547 -5.382672 5.6099997 -5.626914 5.7953014 5.5894423 -5.4149256
4.779114 -5.6493206 5.619237 -5.4175935 -5.6905355 5.5347533 -5.3768444 -5.524214
-5.3680153 5.4883842 5.5266185 -5.5303044 -5.4198947 5.3729057 5.403323 -5.511898
-5.424793 5.6149 -5.6408143 -5.5102534 5.667185 5.555986 -5.7292585 -5.559863
5.5272713 5.4717736 5.4544435 5.4586 5.4716463 -5.343804 5.3626137 5.354119
-5.3146496 5.420745 -5.2970476 -5.343996 5.299039 -5.420936 -5.286821 -5.327093
5.6081667 -5.635417 5.4542756 5.744906 -5.522522 -3.8639674 -5.593862 5.5908923
-5.274825 -5.6629024 5.5556035 -5.3752975 -5.5124497 -5.559502 5.3682184 5.324564
-5.4187922 -5.4250784 5.45296 5.4958477 -5.2678947 -5.426742 5.5997014 -5.4356747
-5.1377287 5.6356053 -5.30302 -5.6457357 -5.640117 5.3371906 -5.42885 5.390388
-5.4255657 5.6312995 -5.5386305 -5.484626 5.3830276 -4.0846705 -5.4737744 5.5003576
5.3188634 5.3045707 5.4803767 5.324531 -5.34307 5.616 -5.598706 5.481315
5.447746 -5.5084453 -2.9074838 -5.473781 5.7339263 -5.389741 -5.6077266 5.5726786
5.5481977 5.285963 -5.4347596 5.5458426 5.360992 5.4470406 5.549619 5.519045
-5.273872 -5.442245 5.3850226 5.5412855 -5.6586933 5.3612657 5.459606 5.5807314
-5.6947227 -5.6373744 5.5219274 -5.3506074 5.314107 5.5521502 5.7269287 -5.3336377
-5.331485 5.536696 -5.212247 5.2655725 5.4832697 5.4957056 5.478997 5.4060354
-5.2809186 -5.418218 5.8213034 -5.5555596 5.509479 5.7201433 -5.798723 3.8882253
-5.66492 5.654161 -5.3273654 -5.7885423 5.68772 -5.3385754 5.572342 -5.315626
5.310846 5.458658 -5.482974 -5.2928615 5.2570624 -5.3347635 -5.3488665 5.461831
5.562409 -5.5262275 5.3616247 5.5533104 5.381521 -5.661873 -5.8692093 5.33431
5.2240853 5.4805923 5.4020452 5.617063 -5.5405183 -5.535393 5.3607264 -5.444229
5.305006 -5.1562076 5.573977 5.4979753 5.3894553 -5.3603954 -5.2747707 5.762022
-5.829282 5.5452676 5.655206 -5.792079 5.002248 -5.832351 5.726337 -5.3287983
-5.580239 5.641857 -5.402092 5.408255 -5.442191 5.5118513 5.522285 -5.3328276
-5.3239565 5.47922 -5.2558656 -5.4699626 -5.523201 5.7582984 -5.614719 5.545603
5.5860424 5.5327888 -5.5958657 -5.7405934 5.3488927 -5.51738 5.3860097 5.2750835
5.5482545 -5.4724164 -5.5610967 5.400154 -4.743613 5.389249 5.4122286 5.4442573
5.463555 5.342037 -5.5142097 -5.466033 5.5258 -5.620989 5.4662642 5.5187206
-5.656074 -3.552147 -5.691682 5.473152 -5.5334673 -5.658363 5.7423778 -5.4498477
00000000: fa81 a440 ea0a b1c0 9368 b2c0 b5b7 ac40
00000010: a71b b1c0 71dd ac40 68db a840 4667 b140
00000020: 1639 a7c0 beb5 b140 27cc aa40 1142 af40
00000030: 9bef ac40 e337 ac40 2218 aec0 9cd8 b140
00000040: cfc5 aac0 c510 b2c0 d93e acc0 1e85 b340
00000050: ae0f b4c0 1c73 b940 b6dc b240 1247 adc0
00000060: 80ee 9840 3cc7 b4c0 cad0 b340 ed5c adc0
00000070: de18 b6c0 b31c b140 1c0f acc0 5cc6 b0c0
00000080: c8c6 abc0 d8a0 af40 0fda b040 41f8 b0c0
00000090: c76f adc0 d8ee ab40 06e8 ac40 7861 b0c0
000000a0: e797 adc0 43ad b340 8d81 b4c0 ff53 b0c0
000000b0: 9459 b540 a3ca b140 1656 b7c0 66ea b1c0
000000c0: 68df b040 c518 af40 cd8a ae40 daac ae40
000000d0: ba17 af40 7100 abc0 889a ab40 f154 ab40
000000e0: 9c11 aac0 be76 ad40 6a81 a9c0 0402 abc0
000000f0: ba91 a940 4f78 adc0 a32d a9c0 8c77 aac0
00000100: 1a76 b340 5655 b4c0 6d89 ae40 45d6 b740
00000110: 80b8 b0c0 3e4b 77c0 eb00 b3c0 97e8 b240
00000120: 5ecb a8c0 7f36 b5c0 81c7 b140 7002 acc0
00000130: fd65 b0c0 71e7 b1c0 72c8 ab40 d462 aa40
00000140: bf66 adc0 3e9a adc0 a67e ae40 fcdd af40
00000150: 9892 a8c0 dfa7 adc0 c130 b340 0cf1 adc0
00000160: 4668 a4c0 e156 b440 57b2 a9c0 dea9 b4c0
00000170: d77b b4c0 44ca aa40 24b9 adc0 0f7e ac40
00000180: 3c9e adc0 9b33 b440 763c b1c0 0e82 afc0
00000190: c341 ac40 9fb5 82c0 2929 afc0 ee02 b040
000001a0: 2134 aa40 0bbf a940 3f5f af40 8f62 aa40
000001b0: 6efa aac0 46b6 b340 9928 b3c0 ef66 af40
000001c0: ef53 ae40 2f45 b0c0 3714 3ac0 3729 afc0
000001d0: 537c b740 c278 acc0 7f72 b3c0 6253 b240
000001e0: d68a b140 9c26 a940 8de9 adc0 8b77 b140
000001f0: 3f8d ab40 284e ae40 7b96 b140 049c b040
00000200: 8fc3 a8c0 df26 aec0 1b52 ac40 3652 b140
00000210: 0414 b5c0 7d8f ab40 18b5 ae40 5a95 b240
00000220: 2b3b b6c0 5f65 b4c0 a1b3 b040 2d38 abc0
00000230: 2a0d aa40 37ab b140 0043 b740 29ad aac0
00000240: 869b aac0 9d2c b140 baca a6c0 927f a840
00000250: f276 af40 d2dc af40 f253 af40 3efe ac40
00000260: 49fd a8c0 0b62 adc0 1e48 ba40 25c7 b1c0
00000270: a74d b040 6a0b b740 248f b9c0 afd8 7840
00000280: 0647 b5c0 e3ee b440 c779 aac0 bd3b b9c0
00000290: cd01 b640 9cd5 aac0 a050 b240 9c19 aac0
000002a0: 73f2 a940 54ad ae40 8674 afc0 1f5f a9c0
000002b0: db39 a840 62b6 aac0 ea29 abc0 52c7 ae40
000002c0: 41ff b140 dbd6 b0c0 6e92 ab40 b8b4 b140
000002d0: 6c35 ac40 102e b5c0 90d0 bbc0 abb2 aa40
000002e0: b52b a740 0361 af40 8edd ac40 fbbe b340
000002f0: ed4b b1c0 f121 b1c0 128b ab40 2037 aec0
00000300: 9cc2 a940 a7ff a4c0 055e b240 6aef af40
00000310: 6b76 ac40 5c88 abc0 ecca a8c0 7c62 b840
00000320: 7a89 bac0 d572 b140 73f7 b440 b658 b9c0
00000330: 6a12 a040 9fa2 bac0 273e b740 8485 aac0
00000340: 5191 b2c0 188a b440 f0dd acc0 6d10 ad40
00000350: 6e26 aec0 1661 b040 8fb6 b040 86a6 aac0
00000360: da5d aac0 c555 af40 0d30 a8c0 ef09 afc0
00000370: 10be b0c0 fb43 b840 c7ab b3c0 9475 b140
00000380: dcc0 b240 9b0c b140 5511 b3c0 f1b2 b7c0
00000390: 212a ab40 618e b0c0 315a ac40 7ccd a840
000003a0: 4d8b b140 091e afc0 81f4 b1c0 10ce ac40
000003b0: adcb 97c0 ba74 ac40 fa30 ad40 5b37 ae40
000003c0: 71d5 ae40 f8f1 aa40 6874 b0c0 bee9 aec0
000003d0: 5bd3 b040 24df b3c0 a3eb ae40 5c99 b040
000003e0: 8ffe b4c0 6056 63c0 4222 b6c0 1024 af40
000003f0: 2a12 b1c0 4f11 b5c0 8fc1 b740 2765 aec0

lstm.weight_hh_l0 f4 [180, 45]
-0.014867321 0.14074056 -0.14619909 0.0039958805 -0.14547545 -0.09063757 0.038546592 0.09969355
-0.023795724 0.13270028 0.06762515 -0.13469186 -0.037143886 -0.022625387 -0.02374892 0.06268272
0.12293513 -0.10152106 -0.0827014 -0.08883968 0.02777265 0.0598654 -0.097909704 0.08064288
0.06566842 -0.04410363 -0.0449778 -0.13931228 -0.09516434 0.04265575 0.058356643 0.13141502
-0.03450706 0.10088554 -0.08274862 -0.11912782 -0.12760231 0.098299295 -0.023480996 0.12050964
-0.054430947 0.1485116 0.063046455 -0.06899998 0.08081521 -0.03690487 0.09947714 -0.022204354
0.14779665 0.11124407 -0.13682178 0.033783317 -0.012140945 -0.055161893 0.07627371 -0.027083054
-0.05448115 -0.09968394 -0.117559835 0.08936961 0.09546952 -0.019520804 0.09338948 -0.0637358
0.12147014 -0.034563653 0.06826238 0.023080707 0.14191364 -0.018051133 -0.11892493 -0.096638605
-0.005804509 -0.034435898 -0.095142454 -0.108447716 -0.13449456 -0.038516656 0.09710471 0.021745756
0.0031372905 -0.14779396 0.007391423 -0.14159077 -0.09898092 -0.07148996 -0.131855 -0.016358256
0.07746844 -0.10236682 -0.14720689 -0.113624826 0.013314977 0.14787121 0.118051246 0.13706501
0.0032477528 0.054067597 -0.0418725 -0.11666781 0.03643003 0.07498458 0.11384831 -0.08667922
0.024137154 -0.119497284 -0.13327077 -0.067865536 -0.10592547 -0.11310939 -0.011302188 -0.12692101
-0.117336035 -0.10319294 -0.09130635 0.0097376555 -0.017441347 0.062555626 -0.023460075 0.059009954
-0.034830786 0.075055525 0.06462228 0.11985798 0.028135613 -0.113754585 0.049516097 0.011954188
-0.09218484 0.063888654 0.03498994 -0.021892294 -0.10800128 -0.039368488 -0.08582817 0.018558338
-0.06801207 -0.0070343614 -0.0320557 0.04307255 0.06843281 -0.029100403 0.08869377 -0.12908566
0.14217775 0.14200024 0.1276734 -0.08575924 -0.03896465 0.035853684 -0.12295666 0.10788341
0.0061253905 0.1256599 -0.12499599 -0.04042252 -0.1329954 -0.05419472 0.025040194 -0.0034860373
0.061110884 -0.04859273 -0.04399222 -0.11348195 -0.14420667 0.1264232 -0.10323239 -0.121513315
-0.034901172 -0.013317585 0.028598562 -0.10706173 -0.10987685 -0.12698339 0.078618035 0.06919971
-0.06664324 0.0022816658 -0.027878135 0.03658612 -0.09406766 -0.07725487 -0.029893875 -0.036934264
-0.080235794 -0.11125484 -0.019157901 -0.11808391 -0.030546345 0.12630905 0.04553914 0.013274774
-0.03821981 0.07081805 0.0518983 0.081511125 0.07724336 0.016887113 -0.023129106 -0.12379734
-0.108970866 0.085754916 -0.028334841 0.008271679 -0.13170594 -0.09950274 -0.082239114 0.108491525
0.11237283 -0.04236882 -0.067744784 0.10452147 0.08637926 -0.086142376 0.113872394 0.058299825
0.013917133 -0.06810306 0.0973067 -0.085404925 -0.0072369277 -0.10604919 -0.14538778 -0.06967687
-0.05298134 0.06021738 0.088805616 -0.12667386 0.085055694 -0.10720454 0.1392505 -0.09465312
0.03395821 0.046831787 -0.0331093 -0.08231256 0.13856907 0.14773919 0.12967421 -0.05292476
0.012717605 -0.08989705 -0.00054840744 -0.11534058 -0.049010962 0.056109518 -0.09193069 -0.0875818
0.109640315 -0.052722633 -0.06970802 0.07014458 -0.111294344 -0.032445945 0.0019961298 0.119441226
00000000: 1096 73bc 4b1e 103e 37b5 15be e0ef 823b
00000010: 84f7 14be 31a0 b9bd 08e3 1d3d 222c cc3d
00000020: 40ef c2bc 95e2 073e 0e7f 8a3d aaec 09be
00000030: 3024 18bd e058 b9bc 188d c2bc cc5f 803d
00000040: 6ac5 fb3d 46ea cfbd 5a5f a9bd 94f1 b5bd
00000050: 7883 e33c 6c35 753d e284 c8bd 1828 a53d
00000060: 2a7d 863d 02a6 34bd a43a 38bd e1a7 0ebe
00000070: 86e5 c2bd ccb7 2e3d 6007 6f3d a991 063e
00000080: 4657 0dbd 149d ce3d 1c78 a9bd 49f9 f3bd
00000090: 2eaa 02be 2451 c93d 385b c0bc c2cd f63d
000000a0: fcf2 5ebd 6d13 183e 801e 813d dd4f 8dbd
000000b0: 7282 a53d 9029 17bd acba cb3d e8e5 b5bc
000000c0: 0158 173e eed3 e33d 021b 0cbe 6060 0a3d
000000d0: d0ea 46bc 70f1 61bd 6435 9c3d 48dd ddbc
000000e0: a027 5fbd 1827 ccbd 36c3 f0bd 6a07 b73d
000000f0: 8685 c33d 18ea 9fbc fc42 bf3d ea87 82bd
00000100: 56c5 f83d 9e92 0dbd 26cd 8b3d c013 bd3c
00000110: cf51 113e f8df 93bc ea8e f3bd 76ea c5bd
00000120: c033 bebb a80c 0dbd 0cda c2bd d619 debd
00000130: f1b8 09be a4c3 1dbd d6de c63d 2824 b23c
00000140: 009b 4d3b 4d57 17be c033 f23b 2cfd 10be
00000150: 82b6 cabd 5469 92bd ff04 07be c001 86bc
00000160: c6a7 9e3d b2a5 d1bd 67bd 16be 22b4 e8bd
00000170: 1027 5a3c 8d6b 173e dac4 f13d c55a 0c3e
00000180: 40d8 543b fc75 5d3d 8082 2bbd 88ef eebd
00000190: a837 153d 8491 993d 4e29 e93d e084 b1bd
000001a0: 48bb c53c feba f4bd 2278 08be 16fd 8abd
000001b0: 74ef d8bd e5a5 e7bd d02c 39bc 95f7 01be
000001c0: e04d f0bd d256 d3bd d3fe babd b08a 1f3c
000001d0: 28e1 8ebc 2a1d 803d 582f c0bc 6cb4 713d
000001e0: baaa 0ebd b6b6 993d b058 843d 1a78 f53d
000001f0: a87c e63c 2af8 e8bd 64d1 4a3d 80db 433c
00000200: 68cb bcbd 0ed8 823d 9c51 0f3d 7857 b3bc
00000210: c62f ddbd da40 21bd aec6 afbd a807 983c
00000220: ea49 8bbd 8080 e6bb d64c 03bd d86c 303d
00000230: 8026 8c3d f863 eebc 14a5 b53d 082f 04be
00000240: 0b97 113e 8368 113e d1bc 023e 8aa2 afbd
00000250: 6699 1fbd 50db 123d b4d0 fbbd faf1 dc3d
00000260: 80b7 c83b fdac 003e e6fd ffbd 1692 25bd
00000270: f22f 08be 48fb 5dbd 1821 cd3c 0076 64bb
00000280: 684f 7a3d 2c09 47bd 3031 34bd 3969 e8bd
00000290: eaaa 13be 1575 013e 816b d3bd f9db f8bd
000002a0: 88f4 0ebd 0032 5abc 8847 ea3c 2e43 dbbd
000002b0: 1d07 e1bd ef07 02be 7e02 a13d 94b8 8d3d
000002c0: 407c 88bd 0088 153b b060 e4bc 54db 153d
000002d0: 8ca6 c0bd cd37 9ebd 00e4 f4bc 6248 17bd
000002e0: aa52 a4bd 94d9 e3bd 08f1 9cbc fad5 f1bd
000002f0: 543c fabc 2957 013e 4087 3a3d 707e 593c
00000300: 608c 1cbd 0e09 913d 5093 543d 4eef a63d
00000310: c431 9e3d d856 8a3c 4079 bdbc 7689 fdbd
00000320: 1e2c dfbd 46a0 af3d 781e e8bc f085 073c
00000330: ecdd 06be 18c8 cbbd fb6c a8bd ce30 de3d
00000340: ba23 e63d ee8a 2dbd c7bd 8abd 5a0f d63d
00000350: 9ce7 b03d 6a6b b0bd ee35 e93d cccb 6e3d
00000360: b004 643c 9e79 8bbd bc48 c73d c7e8 aebd
00000370: c023 edbb 5130 d9bd 89e0 14be bfb2 8ebd
00000380: f602 59bd 80a6 763d b8df b53d cbb6 01be
00000390: ae31 ae3d 0e8e dbbd af97 0e3e 7fd9 c1bd
000003a0: c417 0b3d b0d2 3f3d 9e9d 07bd 7d93 a8bd
000003b0: 0de5 0d3e f148 173e 51c9 043e a2c7 58bd
000003c0: 805d 503c f21b b8bd 00c3 0fba af37 ecbd
000003d0: b8bf 48bd 18d3 653d 2846 bcbd 165e b3bd
000003e0: 1a8b e03d b0f3 57bd 14c3 8ebd f6a7 8f3d
000003f0: 4aee e3bd 0ae6 04bd 80d1 023b 9a9d f43d

lstm.bias_ih_l0 f4 [180]
6.1142187 6.16279 6.079772 6.1470914 6.190591 6.066185 6.214912 6.2001276
6.0470066 6.1736155 6.1215487 6.162409 6.1412716 6.208352 6.2146664 5.934664
6.006238 6.2064276 6.3099775 6.1159196 6.1713953 6.2109118 6.1298876 6.1239643
6.0525174 6.0949626 6.128152 6.0591755 6.1422815 6.3120775 6.2999287 6.177937
6.13918 6.107586 6.3982525 6.101599 6.234236 6.0218077 6.2767315 6.3771935
6.1849766 6.283784 6.423455 6.1904097 6.2783813 -0.07716474 0.006778002 -0.0073163062
0.03459029 -0.03833911 0.09310931 0.10118796 0.08893731 -0.04043681 -0.036134563 0.112248465
0.104648754 0.042756766 -0.057789035 -0.11756101 -0.0052877814 -0.004633561 -0.09383619 0.071124166
0.08533898 0.06712267 -0.023024708 -0.08747421 -0.1391812 -0.08888696 -0.08514786 -0.081797056
-0.10284305 -0.072010174 0.14497171 -0.07968405 0.05541095 -0.09463547 0.09533803 -0.1349002
0.044120118 0.14554463 -0.07749106 0.019057497 -0.14334112 -0.060663722 0.111901835 0.09418395
0.05125369 0.08248608 -6.548064 -6.255966 6.280068 -6.47693 -6.521029 -6.1279893
-6.523439 -6.196246 6.157938 6.041553 -5.9750752 6.8521695 -6.765857 -6.350051
6.506483 6.1212387 -5.909214 5.990568 6.7186847 6.4346795 5.9900446 -6.0372763
-6.4878573 6.009977 6.319633 -6.177938 -6.2761207 6.457587 6.2435737 6.0250196
-6.0001063 -6.254563 6.3697042 6.0875936 -5.977433 6.2058077 5.926346 6.30047
-6.459789 6.3410807 6.240749 -6.30409 -6.641507 -6.1105947 -6.179199 6.2487392
6.179056 6.3134346 6.1532564 6.1383758 6.1779795 6.1448736 6.1939416 6.2661533
6.397957 6.2735314 6.4116697 6.280688 6.214793 6.3609962 6.2509923 6.195976
6.2293086 6.3897376 6.2427034 6.1878014 6.3581934 6.2410245 6.2471576 6.146997
6.3258367 6.2357697 6.0059195 5.9887576 6.418001 6.3223295 6.1231995 6.1119814
6.1821046 6.4172173 6.156811 6.243574 6.2454467 6.298542 6.244374 6.134222
6.294307 6.4554024 6.0454454 6.099605
00000000: aea7 c340 9335 c540 7e8d c240 f9b4 c440
00000010: 5219 c640 301e c240 8fe0 c640 7267 c640
00000020: 1481 c140 428e c540 bae3 c340 7432 c540
00000030: 4c85 c440 d2aa c640 8cde c640 c4e8 bd40
00000040: 1a33 c040 0e9b c640 56eb c940 9db5 c340
00000050: 127c c540 cabf c640 0a28 c440 84f7 c340
00000060: 39ae c140 ef09 c340 d219 c440 c4e4 c140
00000070: 928d c440 8afc c940 0499 c940 a9b1 c540
00000080: 2a74 c440 5871 c340 7cbe cc40 4d40 c340
00000090: dc7e c740 a6b2 c040 fcda c840 f811 cc40
000000a0: 54eb c540 c214 c940 f28c cd40 d617 c640
000000b0: 80e8 c840 8c08 9ebd 001a de3b a0bd efbb
000000c0: 8cae 0d3d 7809 1dbd 18b0 be3d a23b cf3d
000000d0: c424 b63d 12a1 25bd d601 14bd 86e2 e53d
000000e0: 1652 d63d b821 2f3d 32b4 6cbd d4c3 f0bd
000000f0: 2045 adbb 20d5 97bb 302d c0bd 8ca9 913d
00000100: 34c6 ae3d 9c77 893d 509e bcbc ae25 b3bd
00000110: 8485 0ebe 5e0a b6bd 0062 aebd 3785 a7bd
00000120: 619f d2bd 127a 93bd 7773 143e 6431 a3bd
00000130: 98f6 623d 3ed0 c1bd 9640 c33d 4723 0abe
00000140: 4cb7 343d a709 153e a2b3 9ebd 781e 9c3c
00000150: 04c8 12be 867a 78bd ca2c e53d 84e3 c03d
00000160: 64ef 513d 76ee a83d be89 d1c0 e030 c8c0
00000170: 51f6 c840 0343 cfc0 45ac d0c0 7d18 c4c0
00000180: 03c0 d0c0 a647 c6c0 d40d c540 6754 c140
00000190: d133 bfc0 f944 db40 e781 d8c0 9e33 cbc0
000001a0: 1c35 d040 30e1 c340 4818 bdc0 bcb2 bf40
000001b0: 77ff d640 e5e8 cd40 72ae bf40 5e31 c1c0
000001c0: 879c cfc0 bb51 c040 6f3a ca40 abb1 c5c0
000001d0: fbd5 c8c0 8da4 ce40 5bcb c740 f6cc c040
000001e0: df00 c0c0 6125 c8c0 9ed4 cb40 91cd c240
000001f0: 2247 bfc0 fa95 c640 a0a4 bd40 739d c940
00000200: 97b6 cec0 22ea ca40 37b4 c740 1bbb c9c0
00000210: 3a87 d4c0 fe89 c3c0 00bc c5c0 acf5 c740
00000220: d4ba c540 a807 ca40 7ae7 c440 936d c440
00000230: 02b2 c540 cea2 c440 c534 c640 5484 c840
00000240: 10bc cc40 c5c0 c840 662c cd40 65fb c840
00000250: 96df c640 488d cb40 2108 c840 6f45 c640
00000260: 7f56 c740 bb78 cc40 3ac4 c740 7802 c640
00000270: 5276 cb40 79b6 c740 b7e8 c740 33b4 c440
00000280: 416d ca40 6d8b c740 7e30 c040 e7a3 bf40
00000290: 4460 cd40 8650 ca40 40f1 c340 5a95 c340
000002a0: cdd3 c540 d859 cd40 9904 c540 5ccb c740
000002b0: b3da c740 a88d c940 e9d1 c740 8c4b c440
000002c0: f76a c940 a892 ce40 4a74 c140 f72f c340
