Ni_prediction/savemodel/bst_mod_66.pth (torch_old, 533442 bytes, 44 tensors)

price_encoder.attention.weight f4 [1, 121]
0	0x3f35f68e	0.7107934
1	0x3f3e037c	0.74224067
2	0x3f28332a	0.6570307
3	0xbf40a7fa	-0.7525631
4	0xbf1638f6	-0.58680665
5	0x3f17ee3e	0.59347904
6	0x3f34782c	0.7049587
7	0xbf292f30	-0.6608763
8	0x3f30ab9c	0.69011855
9	0x3f2af348	0.6677747
10	0x3f25ebb7	0.648128
11	0x3f38b5b4	0.72152257
12	0xbf1c478d	-0.6104668
13	0xbf2b661a	-0.6695267
14	0xbf2c5314	-0.6731427
15	0x3f1decaf	0.61689276
16	0x3f1665c1	0.58749014
17	0xbf1eac7b	-0.61981934
18	0x3f156e4a	0.5837141
19	0x3f335ece	0.70066535
20	0x3f13e98b	0.57778233
21	0x3f2b3260	0.6687374
22	0x3f3835c8	0.71957064
23	0xbf365486	-0.7122272
24	0xbf36479e	-0.7120303
25	0x3f263c5d	0.6493586
26	0xbf1d1c8e	-0.61371696
27	0xbf37f994	-0.718652
28	0xbf32c570	-0.69832516
29	0xbf20dbdf	-0.62835497
30	0x3f392f6e	0.72337997
31	0xbf25a9e0	-0.64712334
32	0x3f28e8e4	0.6598036
33	0x3f406b70	0.75163937
34	0x3f19c2d8	0.6006293
35	0x3f28db42	0.6595956
36	0xbf373fc4	-0.71581674
37	0x3f374fba	0.7160603
38	0x3f2d6a30	0.67740154
39	0xbf386a90	-0.720376
40	0x3f2c4e1f	0.67306703
41	0x3f40dce2	0.7533704
42	0x3f227a35	0.63467723
43	0x3f3669f2	0.7125541
44	0x3f2f3a7a	0.68448603
45	0x3f36a84e	0.7135056
46	0x3f3699c2	0.71328366
47	0x3f374a2e	0.71597564
48	0x3f3fd694	0.74936795
49	0x3f25a8ba	0.6471058
50	0x3f1c7004	0.6110842
51	0x3f23a40e	0.639222
52	0x3f3a657f	0.7281112
53	0x3f298494	0.66217923
54	0x3f162122	0.58644307
55	0x3f2c8768	0.67394114
56	0x3f31b0e8	0.6941056
57	0xbf3d5634	-0.7395966
58	0xbf2bf047	-0.6716351
59	0x3f4241f0	0.7588186
60	0x3f1cd25f	0.612585
61	0xbf3a6342	-0.72807705
62	0xbf316fb2	-0.6931106
63	0xbf17b386	-0.59258306
64	0xbf3fd72f	-0.7493772
65	0x3f3cadef	0.737029
66	0x3f2a3936	0.66493547
67	0x3f20ee55	0.62863666
68	0x3f1d48ae	0.61439025
69	0xbf28e4ee	-0.6597432
70	0xbf245b70	-0.6420202
71	0x3f2eb432	0.68243706
72	0x3f30f6e4	0.69126725
73	0x3f1a9df8	0.6039729
74	0xbf1bbb82	-0.6083299
75	0x3f17433c	0.59086967
76	0xbf1bbad0	-0.6083193
77	0x3e1c4a94	0.15262824
78	0x3f3b1567	0.7307953
79	0x3f32e99c	0.6988771
80	0xbf185a14	-0.5951245
81	0xbf1b72e8	-0.6072221
82	0x3f2c584a	0.6732222
83	0x3f22bcde	0.6356944
84	0x3f3c6746	0.7359508
85	0xbf402f76	-0.7507242
86	0xbf176bc2	-0.591488
87	0xbf4111bf	-0.75417703
88	0x3f3a6c0a	0.72821105
89	0x3f37677c	0.7164228
90	0x3f3f4fdc	0.7473123
91	0x3f3d9745	0.74058944
92	0x3f221a82	0.633217
93	0x3f3993b2	0.7249099
94	0xbf1e970a	-0.6194922
95	0xbf401fd9	-0.75048596
96	0xbf1eb0bc	-0.61988425
97	0x3f30e6d2	0.69102204
98	0xbf3453dc	-0.7044046
99	0x3f0fa1be	0.56106174
100	0x3f1fe615	0.6246045
101	0x3f233eba	0.6376759
102	0x3f2a876d	0.66612893
103	0x3f3bae98	0.73313284
104	0x3f359d0e	0.7094277
105	0x3f1d8fa4	0.61547303
106	0x3f15592c	0.5833919
107	0x3f365268	0.7121949
108	0x3f37f9c4	0.7186549
109	0x3f2a4dbc	0.66524863
110	0x3f14c008	0.58105516
111	0x3f2b6d17	0.6696333
112	0x3f131d1d	0.574663
113	0x3f30764f	0.68930525
114	0x3f3cdce8	0.73774576
115	0x3f1515de	0.5823649
116	0x3f23074a	0.63683
117	0x3f21295a	0.6295372
118	0x3f38c152	0.72169983
119	0x3f2eae80	0.68235016
120	0x3f367094	0.7126553

price_encoder.encoder.weight_ih_l0 f4 [180, 45]
0	0xbdce781c	-0.10081503
1	0xbdf18632	-0.11793174
2	0x3d033218	0.032030195
3	0x3da90520	0.08252931
4	0xbd637be6	-0.05553808
5	0x3dd5b0a2	0.10434081
6	0x3da10980	0.0786314
7	0xbdf9ef0a	-0.12203796
8	0xbdd440b7	-0.10363906
9	0xbc431540	-0.011906922
10	0xbde1f873	-0.11033716
11	0xbd6cefce	-0.057845883
12	0xbcd9dabc	-0.026593558
13	0x3cfb40d8	0.030670568
14	0xbdf7b2be	-0.12094639
15	0x3c76ab70	0.015055522
16	0x3d509afc	0.050929055
17	0xbdaa4008	-0.08312994
18	0x3db96168	0.09051782
19	0x3debb1e6	0.11508541
20	0x3dd35461	0.103188284
21	0x3d8c5945	0.06852964
22	0xbddaa2b4	-0.106755644
23	0xbf0f285c	-0.5592096
24	0xbe1478d7	-0.14499222
25	0xbe17f2a5	-0.14838655
26	0xbdf93d6b	-0.12169918
27	0x3e03a35b	0.12855284
28	0x3e084b53	0.13309984
29	0x3d149a38	0.036279887
30	0xbe07550b	-0.13216035
31	0xbbfcf9e0	-0.007720217
32	0x3deff8b6	0.1171736
33	0x3f16be2c	0.5888393
34	0x3f1e674a	0.61876357
35	0x3f22da3c	0.6361425
36	0x3f271b42	0.6527597
37	0x3f283ffc	0.6572263
38	0xbdac3970	-0.08409393
39	0x3f1abc24	0.6044333
40	0x3f50354e	0.81331336
41	0x3f3df754	0.7420552
42	0x3f1a2932	0.6021911
43	0x3cc6ba88	0.024258867
44	0xbdfebdd6	-0.12438552
45	0xbe007226	-0.12543544
46	0x3d8f30aa	0.06991704
47	0x3de1f41c	0.11032888
48	0x3d364252	0.04449684
49	0x3dbc29f6	0.09187691
50	0x3dfa6ffb	0.1222839
51	0xbd8dc1b6	-0.06921713
52	0x3daf80e4	0.08569506
53	0x3d75d2ba	0.060015418
54	0x3d006e70	0.03135532
55	0x3dbbee88	0.091763556
56	0xbca8f750	-0.02062574
57	0x3d8afcfa	0.06786533
58	0x3e04b81f	0.12960862
59	0x3c45dc60	0.012076467
60	0xbe1125a3	-0.14174514
61	0xbe0937c7	-0.13400184
62	0x3b9ef960	0.004851505
63	0xbd068a28	-0.0328466
64	0x3dc06f15	0.09396187
65	0x3e4a07e3	0.19729571
66	0xbba09154	-0.004900137
67	0xbdfb5742	-0.122725025
68	0x3f066e7b	0.5251233
69	0xbdf6e777	-0.12055867
70	0xbe1393cb	-0.14411847
71	0x3df7377a	0.12071128
72	0xbd3aaf3e	-0.04557728
73	0xbe11d2ba	-0.14240542
74	0xbb4c3b40	-0.0031163245
75	0xbd32a98a	-0.043618716
76	0x3e0e5457	0.1389936
77	0xbdc0bb21	-0.09410692
78	0x3f15ab96	0.58464944
79	0x3f0a10ec	0.5393207
80	0x3f23f6f6	0.6404871
81	0x3f181c10	0.5941782
82	0x3f4c5972	0.7982398
83	0xbe075a03	-0.1321793
84	0x3f1ab09c	0.60425735
85	0x3f120d5a	0.5705162
86	0x3f15b54e	0.58479774
87	0x3f3ee1c2	0.7456323
88	0x3d243a10	0.040094435
89	0x3d347b70	0.04406303
90	0x3dd789a8	0.10524303
91	0xbbdf96f1	-0.0068234135
92	0xbdf0ba9c	-0.11754343
93	0xbde100e0	-0.10986495
94	0x3ce79828	0.028270796
95	0x3d4808e0	0.04883659
96	0x3d8540fd	0.06506536
97	0x3d878020	0.06616235
98	0xbce7f973	-0.028317189
99	0xbdab928e	-0.083775625
100	0xbe061ec6	-0.13097677
101	0x3ca12e30	0.019675344
102	0xbd4b799e	-0.04967653
103	0xbdcf06a0	-0.101086855
104	0x3bbaf560	0.0057055205
105	0x3c88c158	0.016693756
106	0x3dc21f42	0.09478618
107	0xbdc7a884	-0.09748939
108	0x3c6c6110	0.014427438
109	0xbdb252c2	-0.08707191
110	0x3e9df59f	0.30851457
111	0xbd29d80c	-0.041465804
112	0xbdf14bae	-0.11782013
113	0x3f1f776c	0.622916
114	0xbd5c9524	-0.05385317
115	0x3d26d200	0.040727615
116	0xbd35007e	-0.044189923
117	0x3c4050c0	0.011738002
118	0xbdcf3bea	-0.101188496
119	0x3e106e33	0.14104538
120	0xbddf4c42	-0.10903217
121	0x3e1028df	0.14078091
122	0xbe0e1fbc	-0.13879293
123	0x3f46e9b9	0.7770038
124	0x3f09c06e	0.5380925
125	0x3f22f580	0.63655853
126	0x3f33c81a	0.70227206
127	0x3f411b48	0.7543225
128	0xbf314934	-0.69252324
129	0x3f1fa894	0.62366605
130	0x3f3e18cc	0.7425659
131	0x3f0b30c4	0.54371285
132	0x3f1d005a	0.6132866
133	0x3d6fd194	0.05854948
134	0xbd80bc1d	-0.0628588
135	0x3dc74bc2	0.097312465
136	0xbd5eb946	-0.05437591
137	0xbe05178e	-0.12997267
138	0xbcaec456	-0.021333855
139	0xbd207630	-0.039175212
140	0x3ded9b70	0.11601913
141	0x3df774fa	0.120828584
142	0x3dc20a08	0.094745696
143	0xbb8bd8ba	-0.004267779
144	0x3da1b518	0.07895869
145	0x3de6a102	0.112611786
146	0x3decfab6	0.11571257
147	0x3dc9baf0	0.098501086
148	0xbf082ad2	-0.5319034
149	0x3d11ea5c	0.035623893
150	0x3d7c364c	0.06157522
151	0xbd15dab6	-0.036585532
152	0xbc175ca0	-0.009238392
153	0x3e6db84a	0.23214832
154	0x3d34a44c	0.044102
155	0xbe1aa07e	-0.15100285
156	0xbc69259b	-0.014230157
157	0x3d7b54f6	0.061360322
158	0xbf2971ae	-0.66189086
159	0x3d46da8c	0.048548266
160	0x3e14e60d	0.14540882
161	0xbd83b840	-0.06431627
162	0xbdb63032	-0.08895911
163	0xbf307dd0	-0.68941975
164	0x3daf2378	0.08551687
165	0x3dc778aa	0.09739812
166	0xbeea5d76	-0.4577443
167	0xbdb93234	-0.090427786
168	0xbf4f7720	-0.81041145
169	0xbf3e7cdc	-0.7440927
170	0xbf13c3ac	-0.57720447
171	0xbf17e7a0	-0.59337807
172	0xbf3ce684	-0.7378924
173	0xbdc6e87a	-0.0971231
174	0xbf19a838	-0.60022306
175	0xbf2b3b5e	-0.6688746
176	0xbf13d406	-0.577454
177	0xbf15e950	-0.5855913
178	0x3da12df2	0.078700915
179	0x3d176de8	0.03697005
180	0xbdb02c03	-0.086021446
181	0xbcac62b8	-0.021043167
182	0x3dac5966	0.08415489
183	0x3e0d0c21	0.13774158
184	0x3db1143c	0.086464375
185	0x3e13349c	0.14375538
186	0xbe0d4c9e	-0.13798758
187	0xbe12feac	-0.14354962
188	0xbdb453ef	-0.088050716
189	0xbd559764	-0.05214633
190	0x3d59df98	0.05319175
191	0xbe14d623	-0.14534812
192	0xbdd89c32	-0.10576667
193	0xbda6f1cf	-0.0815159
194	0xbbed5a80	-0.0072434545
195	0x3db28466	0.08716659
196	0xbd08b124	-0.03337206
197	0xbdb8dcfc	-0.090265244
198	0x3d1d3268	0.03837815
199	0xbdb1e21f	-0.08685707
200	0x3ddf17b1	0.10893191
201	0x3db6a5f3	0.08918371
202	0x3d3d7d26	0.04626193
203	0xbf234e5c	-0.6379144
204	0x3dcd49b2	0.10023822
205	0x3e10c781	0.14138605
206	0x3d99f56c	0.07517514
207	0x3cdfda50	0.02732578
208	0x3e03287d	0.12808414
209	0x3dfa30ca	0.12216337
210	0x3d5d4248	0.05401829
211	0xbc8c2800	-0.017108917
212	0xbdd6d87b	-0.10490509
213	0xbf0f8140	-0.56056595
214	0xbf43c24a	-0.76468337
215	0xbf4bdfea	-0.7963854
216	0xbf1b8bb4	-0.60760045
217	0xbf2c21ea	-0.6723925
218	0xbbb149e0	-0.005410418
219	0xbf25f18e	-0.6482171
220	0xbf0e55ae	-0.55599487
221	0xbf05183a	-0.5199009
222	0xbf3b6a1c	-0.73208785
223	0xbda32724	-0.0796645
224	0xbc3aee70	-0.011409387
225	0xbc8a8b68	-0.016912177
226	0x3d86267c	0.06550309
227	0x3c74b9d0	0.014936879
228	0xbd1cc4f8	-0.03827378
229	0x3e01b559	0.12666835
230	0x3e16386f	0.14669965
231	0xbaca9394	-0.0015455359
232	0x3e185ddf	0.14879559
233	0x3d81ed7c	0.06344125
234	0x3de7afbe	0.11312817
235	0xbe06b870	-0.13156295
236	0x3dbbd360	0.09171176
237	0xbdbb1d73	-0.09136476
238	0x3f151aa1	0.5824376
239	0x3c0f5b70	0.008749828
240	0x3af8ab00	0.001897186
241	0x3d1f5974	0.03890367
242	0x3cd21fe8	0.02564998
243	0xbdd3b1fa	-0.10336681
244	0x3d9f5728	0.077802956
245	0xbd3965a2	-0.04526294
246	0xbd9c94b8	-0.07645553
247	0x3a818baa	0.0009883542
248	0xbf5123a9	-0.8169504
249	0x3cde2960	0.027119339
250	0xbdba2b95	-0.09090344
251	0x3df27b96	0.118399784
252	0xbd1f6ed6	-0.03892406
253	0x3f2c4c16	0.673036
254	0x3d83078e	0.06397925
255	0x3e0aa5a1	0.13539745

price_encoder.encoder.weight_hh_l0 f4 [180, 45]
0	0x3f482354	0.78178906
1	0x3f311726	0.69175947
2	0x3f0df3d2	0.55450165
3	0xbf0e4464	-0.55573106
4	0x3f28c51c	0.65925765
5	0x3f1aa3ba	0.60406077
6	0x3f260c48	0.6486249
7	0xbf48f226	-0.7849449
8	0xbf26c682	-0.6514665
9	0xbf18a9fc	-0.59634376
10	0xbf42036c	-0.7578647
11	0x3f3bbf24	0.7333853
12	0xbf1b4e26	-0.6066612
13	0xbf2b4cd0	-0.6691408
14	0x3f16b980	0.588768
15	0xbf4d0672	-0.8008796
16	0x3f1344ce	0.5752686
17	0xbf3379bc	-0.70107627
18	0x3f0723d0	0.5278902
19	0xbf4af004	-0.79272485
20	0x3f07ccd8	0.5304694
21	0x3f25a9a2	0.64711964
22	0x3f0be7d8	0.5465064
23	0x3f15a00c	0.5844734
24	0xbf23c044	-0.6396525
25	0xbf058a34	-0.52164006
26	0xbf0e5c38	-0.55609465
27	0x3f1c472e	0.6104611
28	0xbf0705c4	-0.5274317
29	0xbf1cb194	-0.6120846
30	0x3f1256ce	0.57163703
31	0xbf2e13c6	-0.6799892
32	0x3f26529c	0.649698
33	0x3f2db732	0.6785766
34	0x3f2722f0	0.65287685
35	0xbf067584	-0.52523065
36	0xbf1fd376	-0.6243204
37	0x3f34fb16	0.70695627
38	0x3f15cd70	0.585166
39	0x3f51212a	0.8169123
40	0x3f43e27a	0.7651745
41	0x3f1a5e76	0.60300386
42	0xbf35744e	-0.7088059
43	0x3f4c6bca	0.79851973
44	0xbf42bb66	-0.760672
45	0xbf48f104	-0.7849276
46	0xbf3952b6	-0.7239183
47	0xbf2aa0da	-0.6665169
48	0x3f36eefc	0.7145841
49	0xbf1482b4	-0.5801194
50	0xbf4233d0	-0.7586031
51	0xbf0f6e12	-0.5602733
52	0xbf3f484c	-0.7471969
53	0x3f1d22d2	0.61381257
54	0xbf3ab4a4	-0.72931886
55	0x3f16cb7e	0.58904254
56	0xbf4fcfac	-0.8117626
57	0x3f09937a	0.53740656
58	0x3f1be216	0.60891855
59	0xbf2d6182	-0.6772691
60	0x3f4947c8	0.78625154
61	0xbf1d9c64	-0.6156676
62	0x3f08b52a	0.53401434
63	0xbf14ce40	-0.5812721
64	0x3f2ae4be	0.6675528
65	0x3f136c2a	0.5758692
66	0xbf4100e8	-0.7539201
67	0xbf134d7a	-0.57540095
68	0xbf301424	-0.6878073
69	0x3f4a64bc	0.7905996
70	0x3f3be100	0.733902
71	0x3f150272	0.58206856
72	0xbf1f695e	-0.6227015
73	0x3f0714fa	0.5276638
74	0x3f35fff4	0.7109368
75	0xbf4c584c	-0.7982223
76	0x3f386e90	0.72043705
77	0xbf2f74a4	-0.68537354
78	0xbf386fee	-0.7204579
79	0xbf12aafe	-0.57292163
80	0x3f0c5b50	0.5482683
81	0x3f25e452	0.64801514
82	0xbf415a1c	-0.7552812
83	0xbf0c8d70	-0.54903316
84	0xbf3ef4e0	-0.745924
85	0xbf2b13dc	-0.6682718
86	0xbf21176c	-0.62926364
87	0x3f38f82c	0.7225368
88	0xbf14686c	-0.57971835
89	0x3f1614e6	0.5862564
90	0xbf1a059a	-0.601648
91	0xbf3aa64e	-0.7291001
92	0xbf4b1448	-0.7932782
93	0x3f2f6426	0.6851219
94	0xbf0da0dc	-0.55323577
95	0xbf2fbe04	-0.68649316
96	0xbf088c82	-0.533394
97	0xbf1eba44	-0.6200297
98	0x3f335a5c	0.7005975
99	0xbf22ec1a	-0.6364151
100	0x3f4e9244	0.80691934
101	0xbf2097ac	-0.6273143
102	0x3f489e68	0.7836671
103	0x3f3863c8	0.72027254
104	0xbf0fbd92	-0.56148636
105	0x3f0bfe56	0.5468496
106	0xbf40a1a4	-0.75246644
107	0x3f47c144	0.78029275
108	0xbf4fced6	-0.8117498
109	0xbf37bfb4	-0.7177689
110	0x3f11c1a8	0.5693612
111	0xbf1b032c	-0.60551715
112	0xbf3b833e	-0.73247135
113	0xbf342906	-0.70375097
114	0x3f1c4038	0.6103549
115	0x3f2d4176	0.6767801
116	0x3f203e14	0.62594724
117	0xbf452eaa	-0.7702433
118	0x3f0e15c2	0.5550195
119	0x3f4f65ce	0.81014717
120	0xbf1b7392	-0.6072322
121	0x3f15e478	0.5855174
122	0xbf0a1106	-0.53932226
123	0xbf33311c	-0.6999681
124	0xbf3af898	-0.73035574
125	0x3f3d4a0c	0.7394111
126	0x3f13073c	0.57432914
127	0xbf06ddd8	-0.52682257
128	0xbf128286	-0.5723041
129	0xbf0f3a47	-0.559483
130	0xbf08a1c2	-0.5337182
131	0xbf2443d6	-0.6416601
132	0x3f29bd88	0.66304827
133	0xbf20f464	-0.6287291
134	0x3f3587b6	0.70910203
135	0x3f43fd64	0.7655852
136	0x3f20a5ec	0.62753177
137	0x3f3c8acc	0.7364929
138	0xbf33b2fe	-0.70194995
139	0x3f36fd58	0.7148032
140	0x3f0eff92	0.5585872
141	0x3f187eaa	0.59568274
142	0x3f105aaa	0.5638834
143	0xbf1dc0ba	-0.616222
144	0x3f3f966c	0.748389
145	0xbf13c016	-0.57714975
146	0x3f11d3f6	0.5696405
147	0x3f35e4ae	0.7105206
148	0xbf1dde7e	-0.6166762
149	0x3f3f1a30	0.74649334
150	0xbf2cf81a	-0.6756607
151	0x3f0f5a8c	0.5599754
152	0xbf2b87c4	-0.67004037
153	0x3f31f00c	0.6950691
154	0x3f34fb1e	0.70695674
155	0xbf2934a0	-0.66095924
156	0x3f196af4	0.5992882
157	0x3f42a060	0.7602596
158	0x3f322802	0.695923
159	0xbf08660c	-0.5328071
160	0xbf214942	-0.6300241
161	0x3f24d3c0	0.64385605
162	0x3f13e334	0.5776856
163	0xbf4c8046	-0.7988323
164	0xbf4a599c	-0.79042983
165	0x3f3ebb48	0.7450452
166	0xbf1dd01a	-0.6164566
167	0x3f16f748	0.5897107
168	0x3f4cc448	0.79987
169	0x3f501ebc	0.81296897
170	0xbf46e17a	-0.776878
171	0xbf13f93a	-0.57802165
172	0x3f2f8480	0.68561554
173	0x3f1904b0	0.5977278
174	0x3f1a6c60	0.6032162
175	0x3f40236c	0.7505405
176	0x3f0f26d2	0.5591861
177	0xbf4e305e	-0.8054255
178	0x3f1217a4	0.5706732
179	0xbf2b1496	-0.66828287
180	0x3f0957ac	0.536494
181	0x3f19c7f2	0.6007072
182	0x3f4bb008	0.7956548
183	0xbf3d2f66	-0.7390045
184	0x3f069040	0.5256386
185	0x3f167eb4	0.58787084
186	0x3f508fc8	0.8146939
187	0x3f46a654	0.77597547
188	0xbf449340	-0.76787186
189	0x3f3d39de	0.73916423
190	0xbf32a2a6	-0.6977943
191	0x3f2a06b6	0.6641649
192	0xbf33487c	-0.7003248
193	0xbf12ac62	-0.57294285
194	0x3f0ba9f4	0.545562
195	0xbf104e80	-0.5636978
196	0x3f23a62c	0.63925433
197	0xbf0e1136	-0.5549501
198	0x3f0f8986	0.5606922
199	0x3f4088b6	0.75208604
200	0xbf096a7c	-0.5367811
201	0x3f08d3ee	0.5344838
202	0x3f22d296	0.6360258
203	0x3f4cfa94	0.8006985
204	0xbf252a30	-0.645175
205	0xbf1cce08	-0.6125188
206	0x3f34ec8a	0.7067343
207	0x3f3afb98	0.7304015
208	0xbf2176b2	-0.6307174
209	0xbf09a866	-0.5377258
210	0x3f15805e	0.58399
211	0xbf484358	-0.7822776
212	0x3f3010b0	0.68775463
213	0x3f4fcc28	0.8117089
214	0x3f4638b2	0.7743026
215	0xbf11d02c	-0.5695827
216	0xbf259406	-0.6467899
217	0x3f0fe370	0.5620642
218	0x3f40d82a	0.7532984
219	0x3f367c0c	0.7128303
220	0x3f1dfd80	0.61714935
221	0x3f3b6f18	0.7321639
222	0xbf253098	-0.64527273
223	0x3f0e86a0	0.5567417
224	0xbf0bc264	-0.5459349
225	0x3f1e43e2	0.6182233
226	0x3f350390	0.7070856
227	0x3f404048	0.75098085
228	0xbf49dd23	-0.7885305
229	0x3f42670c	0.7593849
230	0x3f0c8fc6	0.5490688
231	0x3f1c0cc2	0.60956967
232	0x3f489912	0.78358567
233	0xbf1f260a	-0.6216742
234	0x3f4fffe2	0.8124982
235	0xbf22cfb2	-0.6359817
236	0x3f1167a0	0.56798744
237	0xbf07cadc	-0.53043914
238	0xbf21f0ee	-0.63258255
239	0x3f1e22f8	0.6177211
240	0xbf35b104	-0.7097323
241	0x3f48b966	0.78407896
242	0xbf461fb2	-0.77392113
243	0x3f31d618	0.69467306
244	0x3f49a8dc	0.78773284
245	0xbf126a34	-0.57193303
246	0x3f1e9980	0.6195297
247	0x3f09face	0.5389832
248	0x3f07b162	0.5300504
249	0xbf2d1ff2	-0.6762687
250	0xbf31ac62	-0.6940366
251	0x3f052bc0	0.5201988
252	0x3f487198	0.7829833
253	0xbf173b9c	-0.5907533
254	0xbf4bdb4c	-0.79631495
255	0x3f269b76	0.65080965

price_encoder.encoder.bias_ih_l0 f4 [180]
0	0xbf390d78	-0.72286177
1	0x3f4ac1c2	0.792019
2	0x3f213fb2	0.62987816
3	0xbf17f3ba	-0.5935627
4	0xbf466b4a	-0.7750746
5	0xbf1f62bc	-0.6226003
6	0x3f407888	0.75183916
7	0xbf233808	-0.6375737
8	0x3f43b91a	0.7645432
9	0xbf3d00a6	-0.73829114
10	0xbf1b55b8	-0.6067767
11	0xbf31233a	-0.69194376
12	0xbf4d4f9a	-0.8019959
13	0x3f2d672c	0.6773555
14	0x3f1864aa	0.595286
15	0x3f4b52f3	0.79423445
16	0xbf3ccee8	-0.73753214
17	0x3f12fe1b	0.57418984
18	0xbf40f2e9	-0.7537065
19	0xbf4f56c0	-0.80991745
20	0xbf33cc72	-0.70233834
21	0xbf060a18	-0.5235915
22	0xbf2c82e0	-0.673872
23	0x3f23d90c	0.6400306
24	0xbf3d82c6	-0.7402767
25	0xbf2de248	-0.679234
26	0xbf12451e	-0.57136714
27	0x3f244e48	0.6418195
28	0xbf3724be	-0.7154044
29	0x3f228546	0.6348461
30	0x3f12b119	0.5730148
31	0xbf4e6362	-0.80620396
32	0x3f4967fc	0.7867429
33	0xbf3d2c62	-0.7389585
34	0xbf162df8	-0.5866389
35	0x3f20b5e2	0.6277753
36	0xbf1f8e68	-0.6232667
37	0xbf516110	-0.8178873
38	0xbf08858e	-0.5332879
39	0x3f3881f4	0.7207329
40	0x3f14a432	0.5806304
41	0x3f026834	0.5094025
42	0xbf49400c	-0.7861335
43	0x3f20572c	0.62633014
44	0x3f24cd90	0.64376163
45	0xbf0edd20	-0.5580616
46	0x3f4cfa0c	0.8006904
47	0x3f216956	0.63051355
48	0xbf404e9e	-0.7511996
49	0xbf198b9e	-0.59978664
50	0xbf4a4a84	-0.7901995
51	0x3f45bea8	0.77244043
52	0xbf2ee54a	-0.6831862
53	0x3f3301ca	0.69924605
54	0x3f12160c	0.5706489
55	0xbf48bd80	-0.78414154
56	0xbf131872	-0.57459176
57	0xbf1b0218	-0.6055007
58	0x3f30b424	0.6902487
59	0x3f196cde	0.59931743
60	0x3f28c882	0.6593095
61	0xbf2b035c	-0.66802
62	0x3f3f49b0	0.74721813
63	0x3f26d3f4	0.65167165
64	0xbf423882	-0.75867474
65	0xbf36ba52	-0.7137805
66	0xbf287e5c	-0.6581781
67	0xbf0f9d6c	-0.5609958
68	0x3f185fd6	0.59521234
69	0xbf3a6408	-0.72808886
70	0xbf0710e0	-0.52760124
71	0xbf0aac96	-0.54169595
72	0x3f314282	0.6924211
73	0xbf4219b0	-0.75820446
74	0x3f23c034	0.63965154
75	0x3f07db52	0.5306903
76	0xbf2f58b6	-0.6849474
77	0x3f12698e	0.57192314
78	0xbf2fa07c	-0.68604255
79	0xbf3b4382	-0.73149884
80	0x3f1fc9e2	0.62417424
81	0xbf436a12	-0.76333725
82	0xbf3fd0b0	-0.74927807
83	0xbf1bb4bc	-0.60822654
84	0x3f3a321a	0.727327
85	0x3f31eed2	0.69505036
86	0xbf24a6c6	-0.64316976
87	0xbf1eb212	-0.61990464
88	0x3f3278d0	0.69715595
89	0x3f31b770	0.6942053
90	0x3f07693c	0.5289495
91	0xbf41ec6e	-0.7575139
92	0xbf18a132	-0.59620965
93	0xbf50f9cc	-0.8163116
94	0x3f091c90	0.5355921
95	0x3f2f244c	0.6841476
96	0xbf392170	-0.72316647
97	0x3f2550cc	0.6457641
98	0x3f18ec54	0.5973561
99	0xbf0ebbf2	-0.5575553
100	0xbf067b3e	-0.525318
101	0x3f34d61a	0.70639193
102	0x3f2579f4	0.6463921
103	0x3f164990	0.58706
104	0xbf3b3648	-0.731297
105	0x3f1598ea	0.58436453
106	0x3f3b26d2	0.7310611
107	0x3f47a502	0.77986157
108	0x3f19a5a2	0.6001836
109	0x3f405bba	0.75139964
110	0xbf4853b8	-0.78252745
111	0x3f11a730	0.5689573
112	0x3f342906	0.70375097
113	0xbf10e4da	-0.565992
114	0xbf07e012	-0.5307628
115	0xbf1c0148	-0.60939455
116	0x3f504b26	0.8136467
117	0xbf0641ca	-0.52444136
118	0xbf0d1fa2	-0.5512639
119	0x3f42119c	0.7580812
120	0xbf2884c4	-0.65827584
121	0xbf3b1acc	-0.73087764
122	0xbf3f0de8	-0.74630594
123	0x3f1ab6f6	0.60435426
124	0x3f457142	0.7712594
125	0x3f214fd6	0.63012445
126	0xbf46622f	-0.77493566
127	0x3f364866	0.7120422
128	0x3f1e7aa6	0.61905897
129	0xbf24f08e	-0.6442956
130	0xbf3beda6	-0.734095
131	0x3f46be56	0.7763418
132	0xbf2a1c82	-0.6644975
133	0xbf2aee32	-0.6676971
134	0x3f3deeb0	0.74192333
135	0xbf14d0df	-0.5813121
136	0x3f306316	0.68901193
137	0x3f0a884a	0.5411421
138	0xbf3d5020	-0.73950386
139	0xbf4e5d82	-0.8061143
140	0xbf4e5b18	-0.8060775
141	0x3f0e0ce3	0.55488414
142	0xbf2822d0	-0.6567812
143	0x3f49d34e	0.7883805
144	0xbf10d39e	-0.565729
145	0xbf4f0c50	-0.8087816
146	0xbf0cf39e	-0.5505923
147	0xbf24b508	-0.6433873
148	0x3f40415a	0.7509972
149	0x3f362366	0.71147764
150	0x3f0f19e4	0.5589888
151	0xbf0913d8	-0.53545904
152	0x3f4b5964	0.79433274
153	0xbf3e149a	-0.74250185
154	0xbf3e1e5e	-0.74265087
155	0xbf41fe9c	-0.7577913
156	0xbf17514a	-0.5910841
157	0xbf4610ac	-0.7736919
158	0x3f1dbfaa	0.6162058
159	0xbf372c08	-0.7155156
160	0xbf2106c6	-0.6290096
161	0xbf121a1e	-0.570711
162	0x3f25c2ce	0.64750373
163	0xbf0ae912	-0.5426189
164	0x3f118842	0.5684854
165	0x3f1f7792	0.62291825
166	0xbf293db0	-0.6610975
167	0x3f0e80be	0.55665195
168	0xbf07b008	-0.5300298
169	0xbf0a7306	-0.5408176
170	0x3f49f61c	0.7889116
171	0xbf41a7ce	-0.75646675
172	0xbf13e564	-0.577719
173	0xbf2bcdfc	-0.6711118
174	0x3f187562	0.5955411
175	0x3f16591a	0.5872971
176	0xbf3f0028	-0.74609613
177	0xbf31a3ce	-0.6939057
178	0x3f25c1cc	0.64748836
179	0x3f4fd2a8	0.8118081

price_encoder.encoder.bias_hh_l0 f4 [180]
0	0xbf13875a	-0.57628405
1	0x3f4f8b54	0.8107197
2	0x3f4910f4	0.78541493
3	0xbf0baddc	-0.54562163
4	0xbf3d7d70	-0.7401953
5	0xbf259ed0	-0.64695454
6	0x3f08621c	0.53274703
7	0xbf4a8838	-0.79114103
8	0x3f23b55c	0.6394861
9	0xbf1aa9bc	-0.60415244
10	0xbf1f0c12	-0.6212779
11	0xbf0d2c14	-0.5514538
12	0xbf22f2c6	-0.6365169
13	0x3f1e0740	0.6172981
14	0x3f3f9ce6	0.74848783
15	0x3f0e0e79	0.55490834
16	0xbf446c48	-0.76727724
17	0x3f17fe0d	0.59372026
18	0xbf39d9a3	-0.7259771
19	0xbf0af4bc	-0.54279685
20	0xbf41c9c4	-0.75698495
21	0xbf32c1f6	-0.6982721
22	0xbf23e6e0	-0.6402416
23	0x3f26eb50	0.6520281
24	0xbf35603e	-0.7084998
25	0xbf2f6496	-0.68512857
26	0xbf2a137c	-0.6643598
27	0x3f09a624	0.53769135
28	0xbf249b54	-0.6429951
29	0x3f31751a	0.6931931
30	0x3f18f641	0.59750754
31	0xbf4a43bc	-0.79009604
32	0x3f4696ae	0.7757367
33	0xbf283066	-0.6569885
34	0xbf40f9e0	-0.7538128
35	0x3f30847c	0.68952155
36	0xbf0576ee	-0.521346
37	0xbf264050	-0.64941883
38	0xbf1caa04	-0.61196923
39	0x3f3ae2e4	0.7300246
40	0x3f0f9862	0.5609189
41	0x3f0e0b90	0.5548639
42	0xbf325410	-0.6965952
43	0x3f0a11da	0.5393349
44	0x3f06d07a	0.5266186
45	0xbf3f7854	-0.7479298
46	0x3f0650b2	0.5246688
47	0x3f0a66a4	0.5406287
48	0xbf2e0d5a	-0.6798912
49	0xbf35b4c4	-0.7097895
50	0xbf30317c	-0.6882551
51	0x3f32f9c4	0.6991236
52	0xbf2363ae	-0.63823974
53	0x3f1efe12	0.6210643
54	0x3f0eb4ae	0.55744445
55	0xbf2b2404	-0.6685183
56	0xbf33b41a	-0.7019669
57	0xbf2f8c4e	-0.6857346
58	0x3f2f8cf8	0.68574476
59	0x3f46187c	0.7738111
60	0x3f132bba	0.57488596
61	0xbf2209c4	-0.6329615
62	0x3f2a011a	0.6640793
63	0x3f42de5c	0.76120543
64	0xbf238d2e	-0.638873
65	0xbf4975ba	-0.7869526
66	0xbf380d8c	-0.7189567
67	0xbf33c07a	-0.7021557
68	0x3f1822b8	0.59427977
69	0xbf362362	-0.7114774
70	0xbf184454	-0.5947926
71	0xbf50602c	-0.81396747
72	0x3f0768d0	0.52894306
73	0xbf16a9ea	-0.5885302
74	0x3f3588a2	0.7091161
75	0x3f41fabe	0.7577323
76	0xbf24c196	-0.6435789
77	0x3f0c4486	0.5479206
78	0xbf20c4c0	-0.62800217
79	0xbf08e79e	-0.5347842
80	0x3f0f4246	0.559605
81	0xbf3e42be	-0.7432059
82	0xbf30acdc	-0.6901376
83	0xbf265446	-0.6497234
84	0x3f4a5136	0.7903017
85	0x3f395744	0.7239878
86	0xbf3faf1c	-0.7487657
87	0xbf3fe7b4	-0.74962926
88	0x3f1e15f8	0.6175227
89	0x3f45ccda	0.77265704
90	0x3f3272c2	0.69706357
91	0xbf49f5f8	-0.78890944
92	0xbf3e0eac	-0.7424114
93	0xbf0d9552	-0.5530597
94	0x3f31bddc	0.6943033
95	0x3f4964d8	0.786695
96	0xbf260828	-0.64856195
97	0x3f380a5a	0.71890795
98	0x3f3db294	0.74100614
99	0xbf3ed674	-0.7454598
100	0xbf425254	-0.7590687
101	0x3f129b82	0.57268536
102	0x3f2666de	0.6500071
103	0x3f2f6422	0.68512166
104	0xbf27927c	-0.6545789
105	0x3f0fe4a8	0.56208277
106	0x3f0f2a3c	0.5592382
107	0x3f44a3fa	0.7681271
108	0x3f06aa1c	0.52603316
109	0x3f35c73e	0.71007144
110	0xbf23d6fa	-0.63999903
111	0x3f290438	0.6602206
112	0x3f1b0ec2	0.60569394
113	0xbf18f034	-0.5974152
114	0xbf3f6d58	-0.7477622
115	0xbf16804e	-0.5878953
116	0x3f0e656c	0.5562351
117	0xbf32ff7c	-0.6992109
118	0xbf27c60a	-0.6553656
119	0x3f3d26f8	0.73887587
120	0xbf0dc068	-0.55371714
121	0xbf0a21b4	-0.53957677
122	0xbf20b694	-0.6277859
123	0x3f1b3c9c	0.6063936
124	0x3f118f12	0.5685893
125	0x3f2d1668	0.67612314
126	0xbf2e26f3	-0.6802818
127	0x3f0ada08	0.5423894
128	0x3f0870ba	0.5329701
129	0xbf312d26	-0.69209516
130	0xbf21c66a	-0.6319338
131	0x3f3ec712	0.7452251
132	0xbf2d590a	-0.6771399
133	0xbf45c55c	-0.7725427
134	0x3f4008ea	0.750136
135	0xbf4e587f	-0.80603784
136	0x3f3f823c	0.74808097
137	0x3f480334	0.7812989
138	0xbf4f8ae2	-0.81071293
139	0xbf185b88	-0.59514666
140	0xbf1a4d10	-0.6027384
141	0x3f156527	0.5835747
142	0xbf0ab198	-0.54177237
143	0x3f3f3f20	0.74705696
144	0xbf4e1268	-0.80496836
145	0xbf34f9b6	-0.7069353
146	0xbf1e854c	-0.61922145
147	0xbf4bbefa	-0.7958828
148	0x3f0a5abe	0.5404471
149	0x3f24fc4a	0.6444746
150	0x3f0d8bdc	0.55291533
151	0xbf23f0c6	-0.64039266
152	0x3f1709bc	0.5899923
153	0xbf36aa94	-0.7135403
154	0xbf0d9702	-0.55308545
155	0xbf0c04ac	-0.5469463
156	0xbf0dd1b4	-0.55398107
157	0xbf1f8d26	-0.6232475
158	0x3f4de37a	0.80425227
159	0xbf0a4556	-0.5401205
160	0xbf4148ce	-0.75501716
161	0xbf20b234	-0.62771916
162	0x3f25c7e2	0.6475812
163	0xbf4369b8	-0.7633319
164	0x3f1b563c	0.6067846
165	0x3f23d780	0.640007
166	0xbf463bf2	-0.7743522
167	0x3f2bb62e	0.6707486
168	0xbf3d6b30	-0.7399168
169	0xbf4a4824	-0.7901633
170	0x3f1e57f4	0.61852956
171	0xbf115d5c	-0.5678308
172	0xbf4c8b32	-0.79899895
173	0xbf4c11fe	-0.79714954
174	0x3f3aa3f2	0.7290641
175	0x3f17b2cc	0.592572
176	0xbf3702ac	-0.7148845
177	0xbf3f5322	-0.74736226
178	0x3f3e4864	0.7432921
179	0x3f2f195a	0.6839806

atten_layer.0.weight f4 [45, 135]
0	0xbbbc52c0	-0.0057471693
1	0x3bd3cb40	0.0064634383
2	0xbcbfc010	-0.023407012
3	0xbc8d4958	-0.017246887
4	0x3dab1767	0.08354073
5	0x3d4b2236	0.049593173
6	0xbd42b8d9	-0.047539566
7	0xbd056c3d	-0.032573927
8	0x3d5250f6	0.05134674
9	0x3da3992b	0.07988199
10	0x3cc8cd5c	0.024511985
11	0x3d975d1d	0.07390807
12	0xbc90a73c	-0.017657869
13	0x3d5b364e	0.053518586
14	0xba68fe80	-0.0008888021
15	0xbd01ca8d	-0.031687308
16	0xbcbfe614	-0.02342514
17	0x3cdd5cc4	0.027021773
18	0x3d37328e	0.044725947
19	0x3b3281c0	0.0027237982
20	0xbc8dd258	-0.017312214
21	0xbcfc02fa	-0.030763138
22	0xbb318780	-0.002708882
23	0x3daff239	0.08591122
24	0x3cdc00f8	0.02685593
25	0xbda941ca	-0.082645014
26	0xbc9f4bf0	-0.01944539
27	0x3d051b80	0.03249693
28	0xbda88207	-0.08227926
29	0x3d63a712	0.055579253
30	0xbd6a7b64	-0.05724658
31	0xbd90eb89	-0.07076175
32	0xbd2f256c	-0.042760298
33	0x3b40a220	0.002939351
34	0xbd8157de	-0.063155875
35	0xbbd587d0	-0.0065164343
36	0xbd791cb8	-0.060818404
37	0xbc3fe550	-0.011712387
38	0xbda8cc30	-0.08242071
39	0xbd077b23	-0.033076417
40	0xbb803360	-0.0039123744
41	0x3da5d419	0.08097095
42	0xbdaf46b1	-0.08558405
43	0xbc036660	-0.008020014
44	0xb877c000	-5.9068203e-05
45	0xbd9c3923	-0.076280855
46	0xbd3b541f	-0.04573452
47	0x3d282ade	0.041056506
48	0x3d6a43a2	0.057193406
49	0x3d850b77	0.06496327
50	0x3d9db30b	0.07700165
51	0x3da3f9bd	0.08006618
52	0xbc9654f0	-0.018351048
53	0xbd8a4a86	-0.067524955
54	0xbd97e639	-0.07416958
55	0xbd2cf6ea	-0.042227663
56	0xbd4f49e0	-0.050607562
57	0x3ce91a2c	0.028454863
58	0xbd350e59	-0.044203136
59	0x3d88676f	0.066603534
60	0xbd385c9b	-0.04501019
61	0x3d8cd27b	0.068760835
62	0x3d51c112	0.051209517
63	0x3d9627ef	0.073318355
64	0xbd940c3f	-0.07228898
65	0x3da535a9	0.080668755
66	0xbac38940	-0.0014918223
67	0x3d9793eb	0.0740126
68	0x3d425d32	0.04745216
69	0xbd810688	-0.06300074
70	0xbd91e3ea	-0.07123549
71	0x3dae990b	0.085252844
72	0xbcb2ae78	-0.021811709
73	0xbc7bfca0	-0.015380055
74	0xbaea9d80	-0.0017899722
75	0xbd7e3531	-0.062062446
76	0xbc655520	-0.013997346
77	0x3d28d8fe	0.041222565
78	0xbb6ca0e0	-0.003610663
79	0xbda34246	-0.07971625
80	0x3d1e8508	0.038701087
81	0x3d848169	0.064699955
82	0xbd0d6eff	-0.034529682
83	0xbd90216b	-0.07037624
84	0x3d9b9a6f	0.07597815
85	0x3d3479f2	0.04406161
86	0x3d9a1f79	0.07525534
87	0x3b10b400	0.0022079945
88	0xbd32001d	-0.04345714
89	0x3d9b1f5d	0.075743414
90	0xbf386a2a	-0.72036994
91	0xbf88fd72	-1.0702345
92	0xbfbad54c	-1.4596343
93	0xbf3aad80	-0.7292099
94	0x3f2c28ec	0.6724994
95	0xbf395566	-0.7239593
96	0xbf415eac	-0.7553508
97	0x3fbbe188	1.4678202
98	0x3f2940db	0.66114587
99	0x3f202032	0.62549126
100	0xbf2a3421	-0.6648579
101	0xbf0e8df2	-0.5568534
102	0xbf222b5d	-0.6334742
103	0x3f39bca5	0.72553474
104	0xbf30c33f	-0.6904792
105	0xbf140353	-0.5781757
106	0xbf22f706	-0.6365818
107	0x3f2ade8b	0.66745824
108	0x3f32b5e4	0.69808793
109	0xbd09a27f	-0.033602234
110	0xbf9df50e	-1.234041
111	0x3fc1a7c5	1.5129324
112	0x3fae0df6	1.359801
113	0x3d95a1b4	0.07306233
114	0xbf40d1a4	-0.75319886
115	0xbdfafe32	-0.12255515
116	0x3f94e0a5	1.1631056
117	0x3f2a3570	0.6648779
118	0xbfb9fc38	-1.4530096
119	0x3fbaefc4	1.4604421
120	0x3f29efbc	0.6638143
121	0xbf3a5d22	-0.7279836
122	0x3f2039ea	0.6258837
123	0xbf3244b0	-0.6963606
124	0xbf169d30	-0.588336
125	0xbf186f78	-0.5954509
126	0x3f25149a	0.6448456
127	0xbf24b312	-0.6433574
128	0x3f43e5c6	0.7652248
129	0x3f27a638	0.65488005
130	0xbe8a5dba	-0.27024633
131	0x3f9a219c	1.2041507
132	0xbfca7114	-1.5815759
133	0xbf4deb98	-0.8043761
134	0x3fac4be1	1.3460656
135	0xbd8ac1ca	-0.067752436
136	0x3d9994c5	0.07499079
137	0xbd51e9f8	-0.05124852
138	0xbd8e2bb9	-0.06941933
139	0x3cee7a4c	0.02911105
140	0x3b3e8ec0	0.0029076785
141	0x3d356a0e	0.044290595
142	0x3c51f280	0.012814164
143	0xbcc9234c	-0.024552964
144	0x3d049d7a	0.032376744
145	0xbda2cbea	-0.0794905
146	0xbd1235d3	-0.035695862
147	0x3d71447e	0.05890321
148	0x3d3fdb16	0.046839796
149	0xbd2b86fb	-0.041876774
150	0x3da8e21d	0.08246253
151	0x3d5ff462	0.05467642
152	0x3d2b128e	0.041765742
153	0xbd7c1538	-0.061543673
154	0xbd51a681	-0.05118418
155	0xbd92f9fa	-0.071765855
156	0xbd4df9a0	-0.05028689
157	0x3d01361e	0.03154575
158	0x3d87b299	0.06625862
159	0x3d9437fd	0.072372414
160	0xbb422660	-0.0029624924
161	0x3c11bbf0	0.008894905
162	0xbcf3d4ae	-0.0297645
163	0xbd82f6e8	-0.0639475
164	0x3cf84160	0.03030461
165	0xbcccaa58	-0.02498357
166	0xbd18dbcc	-0.03731899
167	0xbcf5b048	-0.029991284
168	0xbd8aae44	-0.0677152
169	0xbd54961c	-0.051900968
170	0xbd05b91e	-0.032647245
171	0xbcaf8c50	-0.02142921
172	0xbca7b19c	-0.020470433
173	0x3da33c1f	0.079704516
174	0xbcab5928	-0.020916536
175	0x3d2feb7a	0.042949177
176	0xbc87d86c	-0.01658269
177	0x3d9f8577	0.07789128
178	0xbcbbbfe0	-0.022918642
179	0x3d5479e6	0.051874064
180	0x3d7bedea	0.06150619
181	0xbcc63950	-0.02419725
182	0x3cf15c24	0.029462881
183	0xbd4524a4	-0.048130646
184	0xbd12deb2	-0.03585691
185	0x3d47899e	0.048715226
186	0x3d3b1fea	0.045684732
187	0x3c918ab4	0.017766334
188	0x3d9325c1	0.07184935
189	0xbd427c79	-0.047481988
190	0x3c4ec9a8	0.012621321
191	0xbd8d1375	-0.06888477
192	0xbdadda52	-0.08488907
193	0xbd5bd110	-0.053666174
194	0x3daf693f	0.08564996
195	0x3d513f4e	0.051085763
196	0x3d806869	0.06269915
197	0x3d7a403a	0.061096407
198	0xbc33c710	-0.010972753
199	0x3c790d20	0.015200883
200	0xbcc52cea	-0.024069268
201	0xbd495f37	-0.04916307
202	0xbd10c8a2	-0.03534759
203	0xbd4d1c43	-0.05007578
204	0x3d276ece	0.040877156
205	0xbd2415f0	-0.040059984
206	0xbc9ed8bc	-0.019390456
207	0x3da90235	0.08252374
208	0x3d14a99a	0.036294557
209	0x3c7c0ef8	0.015384428
210	0xbc845cdc	-0.01615756
211	0x3d87300d	0.06600962
212	0x3baf5230	0.0053503737
213	0x3b3f5a60	0.0029198155
214	0xbd3afe60	-0.045652747
215	0xbd8f9ee9	-0.070127316
216	0x3d7eaa42	0.06217409
217	0xbd4392f3	-0.047747564
218	0xbd9b8ca9	-0.07595188
219	0xbd9fcc92	-0.078026906
220	0x3c9ed22c	0.019387327
221	0xbdaa3dd8	-0.08312577
222	0xbd911826	-0.07084684
223	0x3cae7c10	0.021299392
224	0x3d26e3da	0.04074464
225	0xbf6f250e	-0.93415916
226	0x3f90e406	1.1319587
227	0x3fa43864	1.2829709
228	0xbf1f5792	-0.62242997
229	0x3f1d0d9a	0.6134888
230	0x3f25c914	0.64759946
231	0x3f19909c	0.5998628
232	0xbf5e6f03	-0.8688814
233	0x3f4f937f	0.81084436
234	0x3f3a3b94	0.7274716
235	0xbf225afe	-0.63420093
236	0xbee92b93	-0.45541057
237	0xbf35fd53	-0.7108967
238	0x3f1993f4	0.59991384
239	0xbf3f66ca	-0.7476622
240	0xbeef8c00	-0.467865
241	0x3f2dca64	0.6788695
242	0x3f2877b5	0.6580766
243	0x3f226930	0.63441753
244	0xbf844742	-1.0334246
245	0x3f7022e4	0.9380324
246	0xbf5fcfa9	-0.8742624
247	0xbf965b1c	-1.1746554
248	0x3f92d772	1.1471999
249	0xbf2a3ce4	-0.6649916
250	0x3f884cb0	1.0648403
251	0xbf64f8ac	-0.89441943
252	0x3f3e59af	0.74355596
253	0x3f8aa9b8	1.0833044
254	0xbf7077d2	-0.9393283
255	0x3f2d74ed	0.6775654

atten_layer.0.bias f4 [45]
0	0x3eac83d4	0.33694327
1	0x3f3dc438	0.7412753
2	0x3f013094	0.5046475
3	0xbf28e008	-0.65966845
4	0xbf1d20c8	-0.61378145
5	0xbf32b806	-0.6981205
6	0xbf4201f9	-0.7578426
7	0x3f1e4562	0.6182462
8	0xbf2c245a	-0.6724297
9	0x3f25a160	0.64699364
10	0xbf0d2f50	-0.5515032
11	0xbf37973a	-0.7171513
12	0x3f330348	0.6992688
13	0xbf1481bc	-0.5801046
14	0xbf0129be	-0.5045432
15	0x3f39de46	0.7260479
16	0xbf103c30	-0.5634184
17	0xbf3d1292	-0.7385646
18	0xbf04c844	-0.5186808
19	0xbf121454	-0.5706227
20	0xbf339fee	-0.7016591
21	0x3f48f430	0.784976
22	0x3f176b8e	0.5914849
23	0x3f33eed2	0.70286286
24	0xbf48cd96	-0.784387
25	0xbf36b5ba	-0.7137104
26	0xbf293808	-0.6610112
27	0xbf2ad1ee	-0.6672658
28	0xbf0cf232	-0.5505706
29	0xbf5123e9	-0.8169542
30	0x3f19437e	0.5986861
31	0x3f30cd4c	0.6906326
32	0x3f2e245e	0.6802424
33	0x3f31a152	0.6938678
34	0xbf1b0752	-0.60558045
35	0xbf42e3ae	-0.7612866
36	0x3f376afa	0.7164761
37	0x3f1afce8	0.60542154
38	0xbf49f97c	-0.7889631
39	0x3f1b29a6	0.60610425
40	0xbf0636be	-0.5242728
41	0xbf3261e2	-0.6968061
42	0x3f31f10c	0.69508433
43	0x3f3551a2	0.70827687
44	0xbf07d164	-0.5305388

atten_layer.2.weight f4 [1, 45]
0	0xbf93a0b8	-1.1533422
1	0xc02809b4	-2.6255922
2	0xbc84c4a4	-0.016207047
3	0x3f6f7a03	0.9354555
4	0x3f0e51ce	0.55593574
5	0x3f796114	0.97413754
6	0x3dea813d	0.114504315
7	0xbfc04644	-1.5021443
8	0x3f40f5aa	0.75374854
9	0xbf2bcd58	-0.67110205
10	0x3fc9c176	1.5762165
11	0x3fb75d96	1.4325435
12	0xbfdc0158	-1.718791
13	0x3f1a899c	0.60366225
14	0x4055957e	3.3372493
15	0xbda89a05	-0.08232502
16	0x40152342	2.330277
17	0x3fda26ee	1.704313
18	0x3f9ecd1e	1.2406347
19	0x3f915cce	1.1356447
20	0x3f9eca14	1.2405419
21	0x3f1db580	0.6160507
22	0x3eff3352	0.49843842
23	0x3f00fca0	0.50385475
24	0x3f7ef5e4	0.9959395
25	0x4007d44e	2.122333
26	0xbe98cc26	-0.29843253
27	0x3d95cdb6	0.07314627
28	0x403543de	2.8322673
29	0x3f7115d5	0.9417394
30	0x3ee22d78	0.44175315
31	0xbffd914a	-1.9809964
32	0xbdd62eab	-0.1045812
33	0xbf5dc6ec	-0.86631656
34	0x3feae96a	1.8352482
35	0xbdac1cdc	-0.08403942
36	0xbf9f38ba	-1.2439187
37	0xbfbf0e74	-1.4926286
38	0x3fb57424	1.4176068
39	0xc001fa46	-2.0309005
40	0x3f88a62d	1.0675713
41	0x3f871ca2	1.0555613
42	0xc00dae70	-2.2137718
43	0x3f25119c	0.64479995
44	0x3f8d47f2	1.1037581

lstm.weight_ih_l0 f4 [180, 45]
0	0x3ee1c158	0.44092822
1	0xbf488d68	-0.7834077
2	0xbf53d4c0	-0.82746506
3	0x3f29cb26	0.66325605
4	0xbf4ce83a	-0.8004185
5	0x3f2af373	0.66777724
6	0x3f0af614	0.54281735
7	0x3f4b5ca2	0.7943822
8	0xbefb9fe0	-0.49145412
9	0x3f51b522	0.8191701
10	0x3f1a704e	0.60327613
11	0x3f31f648	0.6951642
12	0x3f2b90d3	0.6701786
13	0x3f2318c9	0.63709694
14	0xbf33e7ab	-0.7027537
15	0x3f51baa2	0.81925404
16	0xbf1a346a	-0.6023623
17	0xbf5493a5	-0.8303779
18	0xbf26145c	-0.64874816
19	0x3f5c8b00	0.861496
20	0xbf60c64c	-0.87802577
21	0x3f8608c6	1.0471427
22	0x3f57513a	0.84108317
23	0xbf2a8124	-0.666033
24	0x3f23611e	0.63820064
25	0xbf666b90	-0.9000788
26	0x3f5f154d	0.8714188
27	0xbf2f079a	-0.68370974
28	0xbf715828	-0.9427514
29	0x3f493770	0.78600216
30	0xbf249210	-0.64285374
31	0xbf49791b	-0.7870042
32	0xbf223e35	-0.6337617
33	0x3f41166e	0.7542485
34	0x3f4ad5da	0.7923256
35	0xbf4bd5fb	-0.79623383
36	0xbf2f97b6	-0.6859087
37	0x3f23a588	0.63924456
38	0x3f2b4bb0	0.66912365
39	0xbf472e1a	-0.7780472
40	0xbf30c9a0	-0.69057655
41	0x3f5db5c8	0.866055
42	0xbf64265a	-0.8912102
43	0xbf46a55e	-0.7759608
44	0x3f6b2d7a	0.91866267
45	0x3f58396d	0.84462625
46	0xbf7a17ee	-0.97692764
47	0xbf4ebe98	-0.80759573
48	0x3f4b0020	0.79297066
49	0x3f3ea4de	0.7447032
50	0x3f385978	0.7201152
51	0x3f397f3a	0.7245976
52	0x3f3807b0	0.7188673
53	0xbf1c3271	-0.6101447
54	0x3f20f049	0.62866646
55	0x3f2178d6	0.63075006
56	0xbf313241	-0.69217306
57	0x3f2fca64	0.686682
58	0xbf416602	-0.75546277
59	0xbefe8b3d	-0.49715605
60	0x3f074544	0.52840066
61	0xbf2fd7b0	-0.6868849
62	0xbf0d85a6	-0.55282056
63	0xbf17ddfe	-0.5932311
64	0x3f5b153e	0.8557929
65	0xbf61f450	-0.88263416
66	0x3f338182	0.7011949
67	0x3f7e0210	0.992219
68	0xbf4525e8	-0.77010965
69	0x3f09a6bb	0.53770036
70	0xbf575096	-0.8410734
71	0x3f568b79	0.8380657
72	0xbf0a77a8	-0.5408883
73	0xbf69038c	-0.9102104
74	0x3f4d806a	0.8027407
75	0xbf242e3c	-0.6413305
76	0xbf2a233e	-0.66460025
77	0xbf534028	-0.8251977
78	0x3f224a12	0.6339427
79	0x3f171cf0	0.5902853
80	0xbf2f5024	-0.6848166
81	0xbf30ee16	-0.6911329
82	0x3f380360	0.7188015
83	0x3f42ff24	0.76170564
84	0xbf08b0d8	-0.5339484
85	0xbf31514c	-0.69264674
86	0x3f58cfd6	0.8469213
87	0xbf2eaed2	-0.68235505
88	0xbed3f1f4	-0.41395533
89	0x3f61fdcd	0.88277894
90	0xbf078614	-0.5293896
91	0xbf651c62	-0.89496434
92	0xbf636dcc	-0.8883941
93	0x3f1a60b9	0.6030384
94	0xbf31d14f	-0.69460005
95	0x3f27fcc0	0.6562004
96	0xbf3109ec	-0.69155765
97	0x3f614e02	0.88009655
98	0xbf4defa0	-0.80443764
99	0xbf4015ea	-0.7503344
100	0x3f261a17	0.6488356
101	0xbf3a62fe	-0.728073
102	0xbf3d6d30	-0.7399473
103	0x3f3ffdb3	0.7499649
104	0x3f17c166	0.5927948
105	0x3f0e6dbe	0.55636203
106	0x3f3ef7dc	0.74596953
107	0x3f173c12	0.59076035
108	0xbf1bf8d4	-0.60926557
109	0x3f5d6198	0.8647704
110	0xbf58e02a	-0.8471705
111	0x3f3ab854	0.7293751
112	0x3f3227f8	0.6959224
113	0xbf41f60e	-0.75766075
114	0x3f550490	0.83210087
115	0xbf38f12b	-0.72242993
116	0x3f7b7c2a	0.98236334
117	0xbf27e108	-0.65577745
118	0xbf5b1f72	-0.85594857
119	0x3f523206	0.8210758
120	0x3f507bd2	0.81438935
121	0x3f0eb85c	0.5575006
122	0xbf3354c2	-0.70051205
123	0x3f4fc578	0.8116069
124	0x3f20723c	0.6267431
125	0x3f368b84	0.71306634
126	0x3f50d1a3	0.8156988
127	0x3f48fe46	0.7851299
128	0xbf0a1fe2	-0.539549
129	0xbf355582	-0.708336
130	0x3f269409	0.65069634
131	0x3f4a2f22	0.7897817
132	0xbf681f46	-0.9067272
133	0x3f208318	0.62700033
134	0x3f351cba	0.7074696
135	0x3f5db2f8	0.8660121
136	0xbf72991f	-0.94764894
137	0xbf63c15c	-0.8896692
138	0x3f49a5d2	0.78768647
139	0xbf1dd742	-0.6165658
140	0x3f1477be	0.5799521
141	0x3f51737e	0.8181685
142	0x3f7aa30e	0.9790505
143	0xbf197bba	-0.59954417
144	0xbf18dc7a	-0.5971142
145	0x3f4d7278	0.8025279
146	0xbf0fda0f	-0.56192106
147	0x3f0813e3	0.53155345
148	0x3f3bc706	0.7335056
149	0x3f4668d7	0.7750372
150	0x3f3ce16d	0.7378147
151	0x3f2bf02c	0.6716335
152	0xbf0c00db	-0.54688805
153	0xbf2f2afa	-0.6842495
154	0x3f897188	1.0737772
155	0xbf4eaeaa	-0.80735266
156	0x3f42b94f	0.7606401
157	0x3f78c2be	0.97172153
158	0xbf86a7ac	-1.0519919
159	0x3f48d2d8	0.7844672
160	0xbf6ac19d	-0.9170168
161	0x3f67f7ca	0.9061247
162	0xbf17ed14	-0.5934613
163	0xbf853028	-1.0405321
164	0x3f708536	0.93953264
165	0xbf1abf6e	-0.6044835
166	0x3f58ce65	0.84689933
167	0xbf14d72c	-0.58140826
168	0x3f13a008	0.57666063
169	0x3f39738e	0.7244195
170	0xbf3fbf78	-0.74901533
171	0xbf0f1420	-0.55890083
172	0x3f05eea3	0.52317256
173	0xbf19b571	-0.6004248
174	0xbf1d6c0a	-0.6149298
175	0x3f3a2f84	0.72728753
176	0x3f506c54	0.81415296
177	0xbf46d9de	-0.7767619
178	0x3f209bf2	0.62737954
179	0x3f4dc9fe	0.8038634
180	0x3f275813	0.65368766
181	0xbf6abaa7	-0.9169106
182	0xbf8fe09a	-1.1240418
183	0x3f199d62	0.6000577
184	0x3f0214e6	0.5081314
185	0x3f3f1978	0.7464824
186	0x3f2b08b6	0.66810167
187	0x3f5eea13	0.8707592
188	0xbf4e7775	-0.80651027
189	0xbf4d086d	-0.8009098
190	0x3f2161f0	0.63040066
191	0xbf4b8e80	-0.7951431
192	0x3f122e51	0.57101923
193	0xbef4106c	-0.4766878
194	0x3f5c145e	0.8596858
195	0x3f41e63a	0.7574192
196	0x3f27a70c	0.6548927
197	0xbf205cf8	-0.6264186
198	0xbf0a783c	-0.54089713
199	0x3f821aa6	1.0164382
200	0xbf8a943b	-1.0826486
201	0x3f4c0ebe	0.79709995
202	0x3f68901a	0.9084488
203	0xbf86143d	-1.0474926
204	0x3f452eb6	0.770244
205	0xbf8b050d	-1.0860916
206	0x3f7aa8a0	0.9791355
207	0xbf1849a4	-0.59487367
208	0xbf558790	-0.83409977
209	0x3f652dba	0.895229
210	0xbf2b03e0	-0.6680279
211	0x3f2f349e	0.6843966
212	0xbf353db0	-0.7079725
213	0x3f470fe6	0.77758634
214	0x3f49b948	0.7879834
215	0xbf194a4e	-0.59879005
216	0xbf170b40	-0.5900154
217	0x3f3ed39c	0.7454164
218	0xbf057bc8	-0.52142
219	0xbf3c71ce	-0.7361115
220	0xbf4a2530	-0.78962994
221	0x3f817a02	1.0115359
222	0xbf5dbe1a	-0.86618197
223	0x3f4fae88	0.8112569
224	0x3f5678b8	0.8377795
225	0x3f5587db	0.83410424
226	0xbf5861ef	-0.84524435
227	0xbf7d5b23	-0.9896719
228	0x3f1d5f54	0.61473584
229	0xbf4881d6	-0.78323114
230	0x3f26df6a	0.6518465
231	0x3f0a87c6	0.54113424
232	0x3f4c0a40	0.7970314
233	0xbf3cfda0	-0.738245
234	0xbf539df2	-0.8266288
235	0x3f2a7cf1	0.66596895
236	0xbf32f7bf	-0.6990928
237	0x3f27bde9	0.65524155
238	0x3f23e2e5	0.6401809
239	0x3f42a2e2	0.7602979
240	0x3f3720a5	0.71534187
241	0x3f1b85f4	0.6075127
242	0xbf47b794	-0.78014493
243	0xbf3b6c78	-0.73212385
244	0x3f466622	0.7749959
245	0xbf5ea51e	-0.869707
246	0x3f36f2aa	0.71464026
247	0x3f446eaa	0.7673136
248	0xbf67d2d6	-0.90556085
249	0x3f19c090	0.6005945
250	0xbf70c117	-0.9404463
251	0x3f38cf68	0.72191477
252	0xbf4cb266	-0.79959714
253	0xbf683c22	-0.90716755
254	0x3f7dbcd8	0.9911628
255	0xbf37439e	-0.7158755

lstm.weight_hh_l0 f4 [180, 45]
0	0xbc739610	-0.014867321
1	0x3e101e4b	0.14074056
2	0xbe15b537	-0.14619909
3	0x3b82efe0	0.0039958805
4	0xbe14f784	-0.14547545
5	0xbdb9a031	-0.09063757
6	0x3d1de308	0.038546592
7	0x3dcc2c22	0.09969355
8	0xbcc2ef40	-0.023795724
9	0x3e07e295	0.13270028
10	0x3d8a7f0e	0.06762515
11	0xbe09ecaa	-0.13469186
12	0xbd182430	-0.037143886
13	0xbcb958e0	-0.022625387
14	0xbcc28d18	-0.02374892
15	0x3d805fcc	0.06268272
16	0x3dfbc56a	0.12293513
17	0xbdcfea46	-0.10152106
18	0xbda95f5a	-0.0827014
19	0xbdb5f194	-0.08883968
20	0x3ce38378	0.02777265
21	0x3d75356c	0.0598654
22	0xbdc884e2	-0.097909704
23	0x3da52818	0.08064288
24	0x3d867d2a	0.06566842
25	0xbd34a602	-0.04410363
26	0xbd383aa4	-0.0449778
27	0xbe0ea7e1	-0.13931228
28	0xbdc2e586	-0.09516434
29	0x3d2eb7cc	0.04265575
30	0x3d6f0760	0.058356643
31	0x3e0691a9	0.13141502
32	0xbd0d5746	-0.03450706
33	0x3dce9d14	0.10088554
34	0xbda9781c	-0.08274862
35	0xbdf3f949	-0.11912782
36	0xbe02aa2e	-0.12760231
37	0x3dc95124	0.098299295
38	0xbcc05b38	-0.023480996
39	0x3df6cdc2	0.12050964
40	0xbd5ef2fc	-0.054430947
41	0x3e18136d	0.1485116
42	0x3d811e80	0.063046455
43	0xbd8d4fdd	-0.06899998
44	0x3da58272	0.08081521
45	0xbd172990	-0.03690487
46	0x3dcbbaac	0.09947714
47	0xbcb5e5e8	-0.022204354
48	0x3e175801	0.14779665
49	0x3de3d3ee	0.11124407
50	0xbe0c1b02	-0.13682178
51	0x3d0a6060	0.033783317
52	0xbc46ead0	-0.012140945
53	0xbd61f170	-0.055161893
54	0x3d9c3564	0.07627371
55	0xbcdddd48	-0.027083054
56	0xbd5f27a0	-0.05448115
57	0xbdcc2718	-0.09968394
58	0xbdf0c336	-0.117559835
59	0x3db7076a	0.08936961
60	0x3dc38586	0.09546952
61	0xbc9fea18	-0.019520804
62	0x3dbf42fc	0.09338948
63	0xbd8287ea	-0.0637358
64	0x3df8c556	0.12147014
65	0xbd0d929e	-0.034563653
66	0x3d8bcd26	0.06826238
67	0x3cbd13c0	0.023080707
68	0x3e1151cf	0.14191364
69	0xbc93dff8	-0.018051133
70	0xbdf38eea	-0.11892493
71	0xbdc5ea76	-0.096638605
72	0xbbbe33c0	-0.005804509
73	0xbd0d0ca8	-0.034435898
74	0xbdc2da0c	-0.095142454
75	0xbdde19d6	-0.108447716
76	0xbe09b8f1	-0.13449456
77	0xbd1dc3a4	-0.038516656
78	0x3dc6ded6	0.09710471
79	0x3cb22428	0.021745756
80	0x3b4d9b00	0.0031372905
81	0xbe17574d	-0.14779396
82	0x3bf233c0	0.007391423
83	0xbe10fd2c	-0.14159077
84	0xbdcab682	-0.09898092
85	0xbd926954	-0.07148996
86	0xbe0704ff	-0.131855
87	0xbc8601c0	-0.016358256
88	0x3d9ea7c6	0.07746844
89	0xbdd1a5b2	-0.10236682
90	0xbe16bd67	-0.14720689
91	0xbde8b422	-0.113624826
92	0x3c5a2710	0.013314977
93	0x3e176b8d	0.14787121
94	0x3df1c4da	0.118051246
95	0x3e0c5ac5	0.13706501
96	0x3b54d840	0.0032477528
97	0x3d5d75fc	0.054067597
98	0xbd2b8280	-0.0418725
99	0xbdeeef88	-0.11666781
100	0x3d1537a8	0.03643003
101	0x3d999184	0.07498458
102	0x3de9294e	0.11384831
103	0xbdb184e0	-0.08667922
104	0x3cc5bb48	0.024137154
105	0xbdf4bafe	-0.119497284
106	0xbe087822	-0.13327077
107	0xbd8afd16	-0.067865536
108	0xbdd8ef74	-0.10592547
109	0xbde7a5e5	-0.11310939
110	0xbc392cd0	-0.011302188
111	0xbe01f795	-0.12692101
112	0xbdf04de0	-0.117336035
113	0xbdd356d2	-0.10319294
114	0xbdbafed3	-0.09130635
115	0x3c1f8ab0	0.0097376555
116	0xbc8ee128	-0.017441347
117	0x3d801d2a	0.062555626
118	0xbcc02f58	-0.023460075
119	0x3d71b46c	0.059009954
120	0xbd0eaaba	-0.034830786
121	0x3d99b6b6	0.075055525
122	0x3d8458b0	0.06462228
123	0x3df5781a	0.11985798
124	0x3ce67ca8	0.028135613
125	0xbde8f82a	-0.113754585
126	0x3d4ad164	0.049516097
127	0x3c43db80	0.011954188
128	0xbdbccb68	-0.09218484
129	0x3d82d80e	0.063888654
130	0x3d0f519c	0.03498994
131	0xbcb35778	-0.021892294
132	0xbddd2fc6	-0.10800128
133	0xbd2140da	-0.039368488
134	0xbdafc6ae	-0.08582817
135	0x3c9807a8	0.018558338
136	0xbd8b49ea	-0.06801207
137	0xbbe68080	-0.0070343614
138	0xbd034cd6	-0.0320557
139	0x3d306cd8	0.04307255
140	0x3d8c2680	0.06843281
141	0xbcee63f8	-0.029100403
142	0x3db5a514	0.08869377
143	0xbe042f08	-0.12908566
144	0x3e11970b	0.14217775
145	0x3e116883	0.14200024
146	0x3e02bcd1	0.1276734
147	0xbdafa28a	-0.08575924
148	0xbd1f9966	-0.03896465
149	0x3d12db50	0.035853684
150	0xbdfbd0b4	-0.12295666
151	0x3ddcf1fa	0.10788341
152	0x3bc8b780	0.0061253905
153	0x3e00acfd	0.1256599
154	0xbdfffde6	-0.12499599
155	0xbd259216	-0.04042252
156	0xbe082ff2	-0.1329954
157	0xbd5dfb48	-0.05419472
158	0x3ccd2118	0.025040194
159	0xbb647600	-0.0034860373
160	0x3d7a4f68	0.061110884
161	0xbd47092c	-0.04859273
162	0xbd343130	-0.04399222
163	0xbde86939	-0.11348195
164	0xbe13aaea	-0.14420667
165	0x3e017515	0.1264232
166	0xbdd36b81	-0.10323239
167	0xbdf8dbf9	-0.121513315
168	0xbd0ef488	-0.034901172
169	0xbc5a3200	-0.013317585
170	0x3cea4788	0.028598562
171	0xbddb432e	-0.10706173
172	0xbde1071d	-0.10987685
173	0xbe0207ef	-0.12698339
174	0x3da1027e	0.078618035
175	0x3d8db894	0.06919971
176	0xbd887c40	-0.06664324
177	0x3b158800	0.0022816658
178	0xbce460b0	-0.027878135
179	0x3d15db54	0.03658612
180	0xbdc0a68c	-0.09406766
181	0xbd9e37cd	-0.07725487
182	0xbcf4e400	-0.029893875
183	0xbd174862	-0.036934264
184	0xbda452aa	-0.080235794
185	0xbde3d994	-0.11125484
186	0xbc9cf108	-0.019157901
187	0xbdf1d5fa	-0.11808391
188	0xbcfa3c54	-0.030546345
189	0x3e015729	0.12630905
190	0x3d3a8740	0.04553914
191	0x3c597e70	0.013274774
192	0xbd1c8c60	-0.03821981
193	0x3d91090e	0.07081805
194	0x3d549350	0.0518983
195	0x3da6ef4e	0.081511125
196	0x3d9e31c4	0.07724336
197	0x3c8a56d8	0.016887113
198	0xbcbd7940	-0.023129106
199	0xbdfd8976	-0.12379734
200	0xbddf2c1e	-0.108970866
201	0x3dafa046	0.085754916
202	0xbce81e78	-0.028334841
203	0x3c0785f0	0.008271679
204	0xbe06ddec	-0.13170594
205	0xbdcbc818	-0.09950274
206	0xbda86cfb	-0.082239114
207	0x3dde30ce	0.108491525
208	0x3de623ba	0.11237283
209	0xbd2d8aee	-0.04236882
210	0xbd8abdc7	-0.067744784
211	0x3dd60f5a	0.10452147
212	0x3db0e79c	0.08637926
213	0xbdb06b6a	-0.086142376
214	0x3de935ee	0.113872394
215	0x3d6ecbcc	0.058299825
216	0x3c6404b0	0.013917133
217	0xbd8b799e	-0.06810306
218	0x3dc748bc	0.0973067
219	0xbdaee8c7	-0.085404925
220	0xbbed23c0	-0.0072369277
221	0xbdd93051	-0.10604919
222	0xbe14e089	-0.14538778
223	0xbd8eb2bf	-0.06967687
224	0xbd5902f6	-0.05298134
225	0x3d76a680	0.06021738
226	0x3db5dfb8	0.088805616
227	0xbe01b6cb	-0.12667386
228	0x3dae31ae	0.085055694
229	0xbddb8e0e	-0.10720454
230	0x3e0e97af	0.1392505
231	0xbdc1d97f	-0.09465312
232	0x3d0b17c4	0.03395821
233	0x3d3fd2b0	0.046831787
234	0xbd079d9e	-0.0331093
235	0xbda8937d	-0.08231256
236	0x3e0de50d	0.13856907
237	0x3e1748f1	0.14773919
238	0x3e04c951	0.12967421
239	0xbd58c7a2	-0.05292476
240	0x3c505d80	0.012717605
241	0xbdb81bf2	-0.08989705
242	0xba0fc300	-0.00054840744
243	0xbdec37af	-0.11534058
244	0xbd48bfb8	-0.049010962
245	0x3d65d318	0.056109518
246	0xbdbc4628	-0.09193069
247	0xbdb35e16	-0.0875818
248	0x3de08b1a	0.109640315
249	0xbd57f3b0	-0.052722633
250	0xbd8ec314	-0.06970802
251	0x3d8fa7f6	0.07014458
252	0xbde3ee4a	-0.111294344
253	0xbd04e60a	-0.032445945
254	0x3b02d180	0.0019961298
255	0x3df49d9a	0.119441226
