Ni_prediction/savemodel/bst_mod_299.pth (torch_old, 533443 bytes, 44 tensors)

price_encoder.attention.weight f4 [1, 121]
000000 64 d3 8a 40 c5 e5 8b 40 b4 24 89 40 9d 16 8c c0
       4.3383045 4.371798 4.2857304 -4.3777604
000010 9c ea 86 c0 90 00 87 40 58 a8 8a 40 f4 e6 86 c0
       -4.216139 4.2188187 4.33305 -4.2156925
000020 ac 1d 8a 40 52 0d 89 40 62 db 88 40 57 3c 8b 40
       4.316122 4.282876 4.27678 4.3511157
000030 d8 79 87 c0 e6 6e 89 c0 a1 99 89 c0 a0 d6 87 40
       -4.2336235 -4.2947874 -4.3000035 4.2449493
000040 e5 ed 86 40 52 f4 87 c0 d6 73 85 40 8f 09 8a 40
       4.21654 -4.2485743 4.17039 4.313667
000050 bc 8b 85 40 ee 83 89 40 70 20 8b 40 b4 cc 8a c0
       4.1733074 4.2973547 4.3477097 -4.337488
000060 8e cf 8a c0 fc df 88 40 fc 8c 87 c0 07 1f 8b c0
       -4.3378363 4.277342 -4.23596 -4.3475375
000070 e4 74 8a c0 72 27 88 c0 34 9c 8a 40 ac cc 88 c0
       -4.326769 -4.254815 4.331568 -4.2749844
000080 18 40 89 40 5e 23 8c 40 8a 3e 87 40 8e 1d 89 40
       4.289074 4.3793173 4.226384 4.2848577
000090 e1 df 8a c0 c9 0e 8b 40 10 cf 89 40 7f e8 8a c0
       -4.339829 4.345555 4.306526 -4.340881
0000a0 54 8a 89 40 a0 38 8c 40 0e 35 88 40 f8 ee 8a 40
       4.2981358 4.381912 4.2564764 4.341671
0000b0 1d d9 88 40 22 fc 8a 40 b0 f9 8a 40 f5 02 8b 40
       4.276503 4.343278 4.3429794 4.344111
0000c0 5e 16 8c 40 f7 dc 88 40 34 ae 87 40 83 83 88 40
       4.3777304 4.2769732 4.240015 4.2660537
0000d0 5a d9 8a 40 64 aa 88 40 29 99 86 40 e8 ad 89 40
       4.339032 4.2707996 4.2061963 4.302479
0000e0 c7 5c 8a 40 46 d0 8b c0 35 a0 89 c0 f8 6c 8c 40
       4.3238254 -4.369174 -4.3008065 4.388302
0000f0 62 a1 87 40 70 68 8b c0 e3 4a 8a c0 e6 a1 86 c0
       4.23845 -4.3564987 -4.3216414 -4.207263
000100 aa fe 8b c0 46 96 8b 40 9e 6c 89 40 34 3a 88 40
       -4.374837 4.362094 4.294509 4.257105
000110 cd 9d 87 40 ba 32 89 c0 f7 b1 88 c0 e2 d4 89 40
       4.238013 -4.287442 -4.271724 4.3072367
000120 de 37 8a 40 be 6f 87 40 1f 9b 87 c0 f6 f1 86 40
       4.3193197 4.2323904 -4.2376857 4.2170362
000130 50 99 87 c0 b8 31 56 40 fa 7e 8b 40 b6 6d 8a 40
       -4.237465 3.3467846 4.35925 4.3258924
000140 63 30 87 c0 5f 86 87 c0 b4 af 89 40 04 7f 88 40
       -4.2246566 -4.2351527 4.302698 4.265505
000150 b4 b3 8b 40 83 18 8c c0 c2 db 86 c0 4c 38 8c c0
       4.3656864 -4.377992 -4.214326 -4.381872
000160 a4 4f 8b 40 78 12 8b 40 53 13 8c 40 2b dc 8b 40
       4.3534718 4.3460045 4.377359 4.370626
000170 b3 6b 88 40 31 5a 8b 40 87 f8 87 c0 64 2c 8c c0
       4.263147 4.3547597 -4.249088 -4.380419
000180 b2 ff 87 c0 9e 24 8a 40 78 b1 8a c0 6c 17 86 40
       -4.249963 4.31697 -4.3341637 4.190359
000190 fc 25 88 40 ad 90 88 40 8e 79 89 40 a3 9e 8b 40
       4.254637 4.2676606 4.296088 4.363115
0001a0 e3 dc 8a 40 5d da 87 40 5f d4 86 40 d0 f3 8a 40
       4.3394637 4.2454057 4.213424 4.3422623
0001b0 10 28 8b 40 92 72 89 40 17 c1 86 40 ae 96 89 40
       4.3486404 4.2952356 4.2110705 4.2996435
0001c0 13 8c 86 40 3c 35 8a 40 db bf 8b 40 d6 cb 86 40
       4.204599 4.3189983 4.36717 4.2123823
0001d0 1d 89 88 40 0f 4e 88 40 8c 40 8b 40 18 fb 89 40
       4.2667375 4.2595286 4.3516293 4.311901
0001e0 c5 f7 8a 40
       4.3427453

price_encoder.encoder.weight_ih_l0 f4 [180, 45]
000000 1c 78 ce bd 32 86 f1 bd 18 32 03 3d 20 05 a9 3d
       -0.10081503 -0.11793174 0.032030195 0.08252931
000010 e6 7b 63 bd a2 b0 d5 3d 80 09 a1 3d 0a ef f9 bd
       -0.05553808 0.10434081 0.0786314 -0.12203796
000020 b7 40 d4 bd 40 15 43 bc 73 f8 e1 bd ce ef 6c bd
       -0.10363906 -0.011906922 -0.11033716 -0.057845883
000030 bc da d9 bc d8 40 fb 3c be b2 f7 bd 70 ab 76 3c
       -0.026593558 0.030670568 -0.12094639 0.015055522
000040 fc 9a 50 3d 08 40 aa bd 68 61 b9 3d e6 b1 eb 3d
       0.050929055 -0.08312994 0.09051782 0.11508541
000050 4d 46 d9 3d d7 67 8c 3d 90 85 da bd 9a 0a 86 c0
       0.10609112 0.068557434 -0.10670006 -4.188794
000060 d7 78 14 be a5 f2 17 be 6b 3d f9 bd 5b a3 03 3e
       -0.14499222 -0.14838655 -0.12169918 0.12855284
000070 53 4b 08 3e 38 9a 14 3d 0b 55 07 be e0 f9 fc bb
       0.13309984 0.036279887 -0.13216035 -0.007720217
000080 b6 f8 ef 3d 9f cf 83 40 fe f5 87 40 3f 84 88 40
       0.1171736 4.1190944 4.2487783 4.2661433
000090 e8 0b 89 40 3a 31 89 40 71 96 a2 be 97 80 87 40
       4.2827034 4.287259 -0.31755403 4.234447
0000a0 02 30 8e 40 09 e8 8b 40 9f 6d 87 40 88 ba c6 3c
       4.4433603 4.3720746 4.2321315 0.024258867
0000b0 d6 bd fe bd e6 2e 00 be 3c 3f 8f 3d cb 1e e2 3d
       -0.12438552 -0.1251789 0.06994483 0.110410295
0000c0 60 18 37 3d f6 29 bc 3d 43 08 fd 3d 32 7d 8d bd
       0.04470098 0.09187691 0.123550914 -0.06908645
0000d0 57 2a b0 3d 25 05 79 3d 70 6e 00 3d 88 ee bb 3d
       0.08601826 0.06079592 0.03135532 0.091763556
0000e0 50 f7 a8 bc fa fc 8a 3d 1f b8 04 3e 60 dc 45 3c
       -0.02062574 0.06786533 0.12960862 0.012076467
0000f0 a3 25 11 be c7 37 09 be 60 f9 9e 3b 28 8a 06 bd
       -0.14174514 -0.13400184 0.004851505 -0.0328466
000100 a3 06 cd 3d c9 2d d1 3f 6a 94 ef 3c 4a ee 95 bd
       0.100110315 1.6342098 0.029245574 -0.07320841
000110 46 f6 84 40 77 e7 f6 bd cb 93 13 be 7a 37 f7 3d
       4.1550627 -0.12055867 -0.14411847 0.12071128
000120 3e af 3a bd 00 b7 11 be 40 3b 4c bb 8a a9 32 bd
       -0.04557728 -0.14229965 -0.0031163245 -0.043618716
000130 57 54 0e 3e 21 bb c0 bd 8e d2 86 40 c6 6a 85 40
       0.1389936 -0.09410692 4.2132025 4.169284
000140 f4 a7 88 40 36 2c 87 40 d6 b3 8d 40 03 5a 07 be
       4.270502 4.224147 4.4282026 -0.1321793
000150 4b 7f 87 40 bb 6a 86 40 e7 df 86 40 0f 05 8c 40
       4.2342887 4.2005286 4.214832 4.3756175
000160 10 3a 24 3d 70 7b 34 3d 6b ec d7 3d 13 af de bb
       0.040094435 0.04406303 0.1054314 -0.006795773
000170 78 9d f0 bd d5 ac e0 bd 28 98 e7 3c 75 f1 4b 3d
       -0.11748785 -0.10970465 0.028270796 0.04979082
000180 e8 70 85 3d 78 ff 87 3d 74 29 e3 bc 8e 92 ab bd
       0.06515676 0.06640524 -0.027729727 -0.083775625
000190 c6 1e 06 be 30 2e a1 3c 9e 79 4b bd a0 06 cf bd
       -0.13097677 0.019675344 -0.04967653 -0.101086855
0001a0 60 f5 ba 3b 58 c1 88 3c 42 1f c2 3d 84 a8 c7 bd
       0.0057055205 0.016693756 0.09478618 -0.09748939
0001b0 10 61 6c 3c d2 be a8 bd aa 08 c2 3f 1d e9 7c bc
       0.014427438 -0.08239521 1.5158894 -0.015436438
0001c0 72 e8 a3 bd 94 17 88 40 24 95 5c bd 00 d2 26 3d
       -0.0800332 4.252878 -0.05385317 0.040727615
0001d0 7e 00 35 bd a7 5d 40 3c a1 13 cf bd 33 6e 10 3e
       -0.044189923 0.011741078 -0.10111166 0.14104538
0001e0 42 4c df bd df 28 10 3e bc 1f 0e be 4c f7 8c 40
       -0.10903217 0.14078091 -0.13879293 4.4051876
0001f0 70 61 85 40 80 87 88 40 85 a1 8a 40 58 4c 8c 40
       4.168144 4.2665405 4.3322167 4.3843193
000200 d6 13 88 c0 c2 1d 88 40 d9 eb 8b 40 c8 8e 85 40
       -4.2524214 4.2536325 4.37254 4.1736794
000210 21 c9 87 40 94 d1 6f 3d 1d bc 80 bd c2 4b c7 3d
       4.243302 0.05854948 -0.0628588 0.097312465
000220 46 b9 5e bd 8e 17 05 be a4 dc ae bc 30 76 20 bd
       -0.05437591 -0.12997267 -0.021345444 -0.039175212
000230 4c 7e ed 3d fa 74 f7 3d 0a fc c1 3d 08 1f 8d bb
       0.11596355 0.120828584 0.09471901 -0.0043066777
000240 18 b5 a1 3d 02 a1 e6 3d b6 fa ec 3d f0 ba c9 3d
       0.07895869 0.112611786 0.11571257 0.098501086
000250 75 2d 85 c0 5c ea 11 3d 4c 36 7c 3d b6 da 15 bd
       -4.161799 0.035623893 0.06157522 -0.036585532
000260 a0 5c 17 bc 74 e0 de 3f ae 52 33 3d 6c aa 8a be
       -0.009238392 1.7412248 0.04378002 -0.27083147
000270 0e 46 83 bc 80 9f 70 3d 7a 56 89 c0 8c da 46 3d
       -0.016024616 0.05874586 -4.291806 0.048548266
000280 0d e6 14 3e 40 b8 83 bd 32 30 b6 bd a4 38 8a c0
       0.14540882 -0.06431627 -0.08895911 -4.319414
000290 78 23 af 3d aa 78 c7 3d 31 f2 61 c0 34 32 b9 bd
       0.08551687 0.09739812 -3.5304072 -0.090427786
0002a0 24 46 8d c0 fc f8 8b c0 89 a1 86 c0 44 26 87 c0
       -4.414812 -4.3741436 -4.2072186 -4.223421
0002b0 b7 c5 8b c0 7a e8 c6 bd db 5d 87 c0 1f 90 89 c0
       -4.367885 -0.0971231 -4.230207 -4.298843
0002c0 b2 a3 86 c0 a9 e6 86 c0 f2 2d a1 3d e8 6d 17 3d
       -4.2074823 -4.2156568 0.078700915 0.03697005
0002d0 8c 37 b0 bd b8 62 ac bc 66 59 ac 3d 21 0c 0d 3e
       -0.08604345 -0.021043167 0.08415489 0.13774158
0002e0 3c 14 b1 3d 0a 26 13 3e 9e 4c 0d be ac fe 12 be
       0.086464375 0.1436998 -0.13798758 -0.14354962
0002f0 82 6f b4 bd 64 97 55 bd 98 df 59 3d 23 d6 14 be
       -0.08810331 -0.05214633 0.05319175 -0.14534812
000300 32 9c d8 bd cf f1 a6 bd 80 5a ed bb 66 84 b2 3d
       -0.10576667 -0.0815159 -0.0072434545 0.08716659
000310 24 b1 08 bd fc dc b8 bd 68 32 1d 3d 86 a4 b2 bd
       -0.03337206 -0.090265244 0.03837815 -0.087227866
000320 bd 62 e0 bc 8a 74 b2 3d 8c 40 31 3d 1d 93 88 c0
       -0.027390832 0.08713634 0.043274447 -4.267958
000330 b2 49 cd 3d 81 c7 10 3e 6c f5 99 3d 50 da df 3c
       0.10023822 0.14138605 0.07517514 0.02732578
000340 7d 28 03 3e ca 30 fa 3d 48 42 5d 3d 00 28 8c bc
       0.12808414 0.12216337 0.05401829 -0.017108917
000350 7b d8 d6 bd e3 5d 85 c0 38 a1 8c c0 b8 a4 8d c0
       -0.10490509 -4.167711 -4.39468 -4.4263573
000360 7a 9a 87 c0 f9 ac 89 c0 e0 49 b1 bb b2 e6 88 c0
       -4.237607 -4.302365 -0.005410418 -4.278161
000370 18 f4 85 c0 3d cc 84 c0 2d 96 8b c0 24 27 a3 bd
       -4.1860466 -4.1499314 -4.362082 -0.0796645
000380 70 ee 3a bc a8 99 8a bc 7c 26 86 3d d0 b9 74 3c
       -0.011409387 -0.016918972 0.06550309 0.014936879
000390 f8 c4 1c bd 59 b5 01 3e 6f 38 16 3e 88 da ca ba
       -0.03827378 0.12666835 0.14669965 -0.0015476504
0003a0 df 5d 18 3e 7c ed 81 3d be af e7 3d 70 b8 06 be
       0.14879559 0.06344125 0.11312817 -0.13156295
0003b0 60 d3 bb 3d 73 1d bb bd 5b cc 86 40 70 5b 0f 3c
       0.09171176 -0.09136476 4.2124457 0.008749828
0003c0 00 ab f8 3a 74 59 1f 3d e8 1f d2 3c fa b1 d3 bd
       0.001897186 0.03890367 0.02564998 -0.10336681
0003d0 64 1e 9f 3d 1f 9e af bd a9 cb 9d bd 93 64 02 39
       0.077694684 -0.08575081 -0.07704861 0.00012435233
0003e0 13 4d 8e c0 60 29 de 3c 95 2b ba bd 96 7b f2 3d
       -4.4469085 0.027119339 -0.09090344 0.118399784
0003f0 d6 6e 1f bd cb b2 89 40 a8 2e 83 3d a1 a5 0a 3e
       -0.03892406 4.3030753 0.06405383 0.13539745

price_encoder.encoder.weight_hh_l0 f4 [180, 45]
000000 63 2d 8d 40 8c 4b 8a 40 dd e7 85 40 32 f1 85 c0
       4.4117904 4.321722 4.1845536 -4.185693
000010 fe 41 89 40 01 7d 87 40 62 ea 88 40 10 47 8d c0
       4.2893057 4.2340093 4.278611 -4.4149246
000020 4e 02 89 c0 a1 3e 87 c0 65 69 8c c0 60 a1 8b 40
       -4.2815313 -4.226395 -4.3878655 4.363449
000030 47 92 87 c0 b2 92 89 c0 38 00 87 40 0e ca 8d c0
       -4.236606 -4.299157 4.2187767 -4.430915
000040 a0 91 86 40 8b 98 8a c0 43 0d 85 40 ca 86 8d c0
       4.2052765 -4.331121 4.157869 -4.4227037
000050 69 22 85 40 df dd 88 40 74 a5 85 40 0d dd 86 40
       4.1604505 4.277084 4.176447 4.2144837
000060 4f a1 88 c0 33 da 84 c0 95 f4 85 c0 84 b1 87 40
       -4.269691 -4.1516356 -4.186106 4.2404194
000070 d6 09 85 c0 92 bf 87 c0 16 74 86 40 72 eb 89 c0
       -4.1574507 -4.242135 4.2016706 -4.309991
000080 c0 f3 88 40 4d e0 89 40 e5 0c 89 40 d7 f7 84 c0
       4.2797546 4.3086305 4.282824 -4.155254
000090 6e 23 88 c0 48 c8 8a 40 0e e2 86 40 e0 4c 8e 40
       -4.254325 4.3369484 4.2150946 4.446884
0000a0 81 a5 8c 40 ac 74 87 40 22 d7 8a c0 38 b6 8d 40
       4.395203 4.232992 -4.3387613 4.4284935
0000b0 f6 80 8c c0 ac 47 8d c0 bb 53 8b c0 d7 7c 89 c0
       -4.3907423 -4.414999 -4.353971 -4.2964892
0000c0 8e 06 8b 40 93 b9 86 c0 d9 6f 8c c0 d4 16 86 c0
       4.34455 -4.210153 -4.3886533 -4.1902866
0000d0 24 12 8c c0 5a cd 87 40 90 7f 8b c0 cc 02 87 40
       -4.3772144 4.2438173 -4.3593216 4.2190914
0000e0 d8 22 8e c0 b8 5b 85 40 30 a5 87 40 c8 d4 89 c0
       -4.4417534 4.167446 4.2389145 -4.3072243
0000f0 b2 51 8d 40 17 dc 87 c0 32 40 85 40 0b c3 86 c0
       4.4162226 -4.2456164 4.1640863 -4.211309
000100 2b 86 89 40 f6 96 86 40 71 49 8c c0 ad 92 86 c0
       4.297628 4.205928 -4.383965 -4.2054048
000110 80 2b 8a c0 df 75 8d 40 51 a5 8b 40 6e c9 86 40
       -4.31781 4.4206386 4.36393 4.2120886
000120 40 16 88 c0 42 0b 85 40 d1 e8 8a 40 58 b4 8d c0
       -4.252716 4.1576242 4.34092 -4.4282646
000130 fd 36 8b 40 3c 17 8a c0 8d 36 8b c0 60 7e 86 c0
       4.3504624 -4.315336 -4.350409 -4.2029266
000140 e4 b4 85 40 0a e6 88 40 88 54 8c c0 36 bb 85 c0
       4.1783314 4.278081 -4.3853188 -4.179103
000150 b8 07 8c c0 18 8b 89 c0 4b 4c 88 c0 82 48 8b 40
       -4.375942 -4.298229 -4.259313 4.352601
000160 88 b6 86 c0 79 eb 86 40 5a 69 87 c0 e4 7d 8b c0
       -4.2097816 4.216244 -4.2316103 -4.3591175
000170 f0 8b 8d c0 a1 15 8a 40 2d dd 85 c0 5e 20 8a c0
       -4.423332 4.3151402 -4.183249 -4.316451
000180 13 3a 85 c0 7c 00 88 c0 80 94 8a 40 2e 86 88 c0
       -4.163339 -4.250059 4.3306274 -4.2663794
000190 18 fb 8d 40 7b 3b 88 c0 22 3d 8d 40 b1 35 8b 40
       4.436901 -4.257261 4.4137125 4.350304
0001a0 f9 20 86 c0 1f a9 85 40 64 3d 8c c0 f0 20 8d 40
       -4.191525 4.1768947 -4.382494 4.4102707
0001b0 86 22 8e c0 86 21 8b c0 19 61 86 40 2d 89 87 c0
       -4.4417143 -4.347842 4.1993527 -4.235495
0001c0 53 99 8b c0 15 ae 8a c0 ee b0 87 40 0b d1 89 40
       -4.3624663 -4.3337502 4.240348 4.306768
0001d0 57 30 88 40 18 cf 8c c0 de eb 85 40 7c 15 8e 40
       4.255901 -4.40028 4.1850424 4.4401226
0001e0 fa 96 87 c0 b6 e5 86 40 25 6b 85 c0 c7 8e 8a c0
       -4.2371798 4.215541 -4.169329 -4.329929
0001f0 f2 87 8b c0 a1 d1 8b 40 bd 89 86 40 65 04 85 c0
       -4.360345 4.3693395 4.2043138 -4.1567864
000200 0e 79 86 c0 c0 0f 86 c0 20 3d 85 c0 c0 b1 88 c0
       -4.202277 -4.1894226 -4.1637115 -4.271698
000210 24 61 89 40 11 47 88 c0 2d da 8a 40 0f a9 8c 40
       4.293108 -4.258675 4.339133 4.395637
000220 da 3d 88 40 03 ba 8b 40 3b 9f 8a c0 47 08 8b 40
       4.2575502 4.3664565 -4.3319373 4.3447604
000230 83 08 86 40 7d 38 87 40 71 34 86 40 5e e1 87 c0
       4.188539 4.2256455 4.1939015 -4.2462606
000240 39 1c 8c 40 28 a1 86 c0 37 63 86 40 46 e5 8a 40
       4.378445 -4.2071724 4.199611 4.3404875
000250 58 e4 87 c0 11 0c 8c 40 5f c8 89 c0 03 14 86 40
       -4.246624 4.376473 -4.3057094 4.189943
000260 19 9a 89 c0 de 66 8a 40 34 c8 8a 40 f6 4f 89 c0
       -4.3000607 4.325057 4.336939 -4.291011
000270 f3 55 87 40 d5 7c 8c 40 b5 6d 8a 40 9e 35 85 c0
       4.229242 4.3902383 4.325892 -4.162795
000280 9f 51 88 c0 27 c3 88 40 ad a5 86 40 52 b9 8d c0
       -4.2599635 4.2738223 4.207724 -4.428872
000290 b5 73 8d c0 41 00 8c 40 bf e2 87 c0 3a 08 87 40
       -4.4203744 4.375031 -4.246429 4.219754
0002a0 35 c1 8d 40 a2 2c 8e 40 44 05 8d c0 e3 a7 86 c0
       4.429835 4.4429483 -4.406893 -4.207994
0002b0 bf 19 8a 40 40 49 87 40 eb 76 87 40 9e 2d 8c 40
       4.315643 4.2276917 4.2332664 4.3805685
0002c0 66 0d 86 40 7b ef 8d c0 5f 6b 86 40 f0 8b 89 c0
       4.1891356 -4.4354835 4.200607 -4.298332
0002d0 c2 53 85 40 eb 61 87 40 c8 9e 8d 40 4b cf 8b c0
       4.1664743 4.230703 4.4256325 -4.3690543
0002e0 3a fb 84 40 c9 f8 86 40 1e 3b 8e 40 6f fd 8c 40
       4.1556673 4.2178693 4.4447165 4.4059367
0002f0 3a bb 8c c0 f1 cf 8b 40 72 7d 8a c0 6d 6a 89 40
       -4.397855 4.3691335 -4.327813 4.2942414
000300 35 92 8a c0 45 7e 86 c0 f1 9d 85 40 00 33 86 c0
       -4.3303475 -4.2029138 4.17553 -4.1937256
000310 9b 9d 88 40 b0 ea 85 c0 b5 19 86 40 af 3a 8c 40
       4.269239 -4.1848984 4.190638 4.3821635
000320 75 56 85 c0 b9 43 85 40 d6 82 88 40 80 c8 8d 40
       -4.166804 4.164517 4.265971 4.430725
000330 b4 ce 88 c0 cd c2 87 c0 96 c6 8a 40 e3 88 8b 40
       -4.2752323 -4.2425294 4.3367414 4.36046
000340 93 57 88 c0 67 5e 85 c0 c5 d8 86 40 26 31 8d c0
       -4.26069 -4.1677737 4.213961 -4.4122496
000350 7d 2b 8a 40 2e 22 8e 40 ac ef 8c 40 d2 62 86 c0
       4.3178086 4.4416723 4.404257 -4.199563
000360 39 db 88 c0 8a 25 86 40 50 44 8c 40 00 f8 8a 40
       -4.2767606 4.1920824 4.383339 4.3427734
000370 be e8 87 40 27 97 8b 40 e0 ce 88 c0 fb f9 85 40
       4.247161 4.362201 -4.2752533 4.186765
000380 64 a1 85 c0 44 f1 87 40 c4 c9 8a 40 f3 30 8c 40
       -4.175951 4.2482014 4.3371296 4.3809752
000390 38 64 8d c0 58 75 8c 40 c1 ba 85 40 a1 aa 87 40
       -4.4184837 4.389324 4.179047 4.2395787
0003a0 3c 3c 8d 40 11 0e 88 c0 d8 28 8e 40 cc 82 88 c0
       4.413603 -4.251717 4.442486 -4.2659664
0003b0 06 56 86 40 27 23 85 c0 a7 66 88 c0 7b ed 87 40
       4.198001 -4.160541 -4.262531 4.2477393
0003c0 0b df 8a c0 19 40 8d 40 46 ed 8c c0 97 63 8a 40
       -4.339727 4.4140744 -4.403964 4.324657
0003d0 11 5e 8d 40 31 76 86 c0 6b fc 87 40 2c 68 85 40
       4.4177327 -4.2019277 4.2495627 4.1689663
0003e0 58 1f 85 40 df cc 89 c0 01 5e 8a c0 72 ce 84 40
       4.160076 -4.3062587 -4.323975 4.150201
0003f0 ec 36 8d 40 f8 0f 87 c0 6a a4 8d c0 a8 fc 88 40
       4.4129543 -4.2206993 -4.42632 4.280842

price_encoder.encoder.bias_ih_l0 f4 [180]
000000 d7 4a 8b c0 58 81 8d 40 20 51 88 40 58 27 87 c0
       -4.3528857 4.422039 4.259903 -4.2235527
000010 7f f6 8c c0 56 15 88 c0 a3 36 8c 40 88 90 88 c0
       -4.40509 -4.2526045 4.3816695 -4.267643
000020 7b a0 8c 40 1f c9 8b c0 61 93 87 c0 fe 4d 8a c0
       4.39459 -4.368301 -4.2367406 -4.3220205
000030 00 d3 8d c0 85 d5 89 40 91 35 87 40 e2 92 8d 40
       -4.432007 4.3073144 4.225289 4.42418
000040 ce c2 8b c0 33 88 86 40 e0 46 8c c0 50 14 8e c0
       -4.36753 4.204126 -4.3836517 -4.4399796
000050 3c a2 8a c0 98 ea 84 c0 73 b9 89 c0 c5 a3 88 40
       -4.332304 -4.153637 -4.303888 4.2699914
000060 f0 d8 8b c0 48 e5 89 c0 5f 71 86 c0 e1 b2 88 40
       -4.3702316 -4.3092384 -4.2013392 4.271836
000070 1f 0d 8b c0 2a 79 88 40 64 7f 86 40 9b f5 8d c0
       -4.3453517 4.2647905 4.2030506 -4.436231
000080 61 56 8d 40 0c ce 8b c0 d6 ee 86 c0 cc 3f 88 40
       4.4167943 -4.368902 -4.216655 4.2577877
000090 fe 1a 88 c0 ea 54 8e c0 c3 39 85 c0 ef 38 8b 40
       -4.253295 -4.4478655 -4.163301 4.3507
0000a0 f1 bc 86 40 5f 37 83 40 f4 50 8d c0 4b 34 88 40
       4.210564 4.100509 -4.416132 4.2563834
0000b0 7f c2 88 40 d1 04 86 c0 f1 c7 8d 40 5a 56 88 40
       4.273742 -4.188088 4.430657 4.260541
0000c0 13 33 8c c0 56 5a 87 c0 9a 72 8d c0 26 e1 8c 40
       -4.3812346 -4.2297773 -4.4202394 4.402484
0000d0 24 06 8a c0 59 89 8a 40 42 6b 86 40 4b 40 8d c0
       -4.3132496 4.329266 4.200593 -4.4140983
0000e0 f6 8b 86 c0 0e 8b 87 c0 31 3f 8a 40 b4 56 87 40
       -4.204585 -4.2357244 4.320214 4.229334
0000f0 aa 41 89 40 40 89 89 c0 70 12 8c 40 59 03 89 40
       4.2892656 -4.298004 4.3772507 4.2816586
000100 e2 6f 8c c0 bf ff 8a c0 c9 38 89 c0 ca 1c 86 c0
       -4.3886576 -4.343719 -4.288182 -4.1910143
000110 0b 35 87 40 ba 75 8b c0 83 0a 85 c0 7b 7e 85 c0
       4.225225 -4.358121 -4.157533 -4.1716895
000120 da 50 8a 40 20 6c 8c c0 f1 a0 88 40 37 24 85 40
       4.3223696 -4.388199 4.269646 4.1606708
000130 45 14 8a c0 fa 75 86 40 86 1c 8a c0 67 91 8b c0
       -4.3149743 4.2019014 -4.315982 -4.3614993
000140 09 22 88 40 21 96 8c c0 1d 23 8c c0 71 9f 87 c0
       4.2541547 -4.3933263 -4.3792863 -4.238213
000150 72 6f 8b 40 c2 66 8a 40 a1 bd 88 c0 a7 fe 87 c0
       4.357354 4.3250437 -4.273148 -4.2498355
000160 49 78 8a 40 5d 60 8a 40 b0 16 85 40 80 66 8c c0
       4.3271832 4.324263 4.1590195 -4.387512
000170 3e 3d 87 c0 a0 48 8e c0 a4 4c 85 40 98 0d 8a 40
       -4.226226 -4.4463654 4.1656055 4.3141594
000180 88 4d 8b c0 44 d3 88 40 c9 46 87 40 2f 00 86 c0
       -4.3532143 4.2757893 4.227391 -4.1875224
000190 48 f8 84 c0 38 c4 8a 40 cc d7 88 40 47 f2 86 40
       -4.155308 4.3364525 4.2763424 4.217075
0001a0 2e 8f 8b c0 1f dc 86 40 ba 8d 8b 40 64 1d 8d 40
       -4.361228 4.2143703 4.3610506 4.4098377
0001b0 17 5e 87 40 4d 34 8c 40 50 33 8d c0 4a 5d 86 40
       4.2302356 4.3813844 -4.4125137 4.198888
0001c0 40 ae 8a 40 0e 45 86 c0 fc 24 85 c0 ca a8 87 c0
       4.3337708 -4.1959295 -4.1607647 -4.239354
0001d0 44 32 8e 40 df f0 84 c0 51 cd 85 c0 06 6b 8c 40
       4.443636 -4.154403 -4.181313 4.3880644
0001e0 ba 39 89 c0 59 8c 8b c0 35 0b 8c c0 9e 7f 87 40
       -4.2882967 -4.3608823 -4.376368 4.2343283
0001f0 68 d7 8c 40 28 53 88 40 1c f5 8c c0 fd f1 8a 40
       4.4012947 4.260151 -4.4049206 4.3420396
000200 09 f8 87 40 dc c6 88 c0 bd a6 8b c0 1a 01 8d 40
       4.2490277 -4.274275 -4.364104 4.4063845
000210 ac 6c 89 c0 86 86 89 c0 c7 e6 8b 40 a2 c2 86 c0
       -4.2945156 -4.2976713 4.371921 -4.211259
000220 ae 35 8a 40 f8 79 85 40 33 d3 8b c0 25 f5 8d c0
       4.3190527 4.171139 -4.369531 -4.436175
000230 0d f4 8d c0 1d ea 85 40 bc 2d 89 c0 72 63 8d 40
       -4.4360414 4.1848283 -4.286833 4.4183893
000240 87 43 86 c0 64 0a 8e c0 80 c7 85 c0 99 bf 88 c0
       -4.195743 -4.4387684 -4.180603 -4.2733884
000250 c3 30 8c 40 64 ed 8a 40 31 0c 86 40 95 4b 85 c0
       4.3809524 4.3414783 4.188988 -4.1654763
000260 ec 93 8d 40 4d eb 8b c0 0e ed 8b c0 91 68 8c c0
       4.424307 -4.3724732 -4.3726873 -4.3877645
000270 6c 13 87 c0 65 eb 8c c0 c7 e0 87 40 c6 0e 8b c0
       -4.221121 -4.4037347 4.2461886 -4.3455534
000280 e0 49 88 c0 03 6c 86 c0 1d e1 88 40 2b 86 85 c0
       -4.259018 -4.200685 4.2774796 -4.172628
000290 28 5a 86 40 7d 17 88 40 c7 50 89 c0 5b f9 85 40
       4.1985054 4.252867 -4.2911105 4.186689
0002a0 7f 1e 85 c0 15 77 85 c0 6c 67 8d 40 4a 5e 8c c0
       -4.1599727 -4.1707864 4.4188747 -4.38651
0002b0 c9 a5 86 c0 df a2 89 c0 93 37 87 40 0f f4 86 40
       -4.2077374 -4.3011317 4.225534 4.2172923
0002c0 9e 08 8c c0 76 5d 8a c0 03 e1 88 40 3f 23 8e 40
       -4.376052 -4.323909 4.2774673 4.4418025

price_encoder.encoder.bias_hh_l0 f4 [180]
000000 13 9a 86 c0 94 1a 8e 40 50 4b 8d 40 9d 9e 85 c0
       -4.206308 4.4407444 4.4154434 -4.175612
000010 bc d8 8b c0 d8 dc 88 c0 d7 33 85 40 92 7a 8d c0
       -4.370207 -4.2769585 4.162578 -4.421212
000020 03 a0 88 40 42 7e 87 c0 2b 0a 88 c0 17 cf 85 c0
       4.2695327 -4.2341623 -4.251241 -4.1815295
000030 4e 87 88 c0 89 e9 87 40 98 1c 8c 40 39 ea 85 40
       -4.2665167 4.2472577 4.3784904 4.1848416
000040 7e b6 8c c0 32 28 87 40 b3 63 8b c0 fc 87 85 c0
       -4.397277 4.2236567 -4.3559203 -4.1728497
000050 e8 61 8c c0 92 81 8a c0 f4 a5 88 c0 0e 06 89 40
       -4.3869514 -4.3283167 -4.270258 4.281989
000060 9f d4 8a c0 92 15 8a c0 29 6b 89 c0 dc 5d 85 40
       -4.3384547 -4.315133 -4.294331 4.1677074
000070 f2 bb 88 c0 24 57 8a 40 09 48 87 40 9f 71 8d c0
       -4.2729425 4.3231373 4.2275434 -4.42012
000080 32 fc 8c 40 8c 2e 89 c0 55 48 8c c0 9f 39 8a 40
       4.4057856 -4.286932 -4.3838296 4.319534
000090 0d d8 84 c0 af f0 88 c0 51 be 87 c0 0e 85 8b 40
       -4.1513734 -4.2793803 -4.241982 4.359992
0000a0 77 1b 86 40 cc ab 84 40 66 73 8a c0 9f 6b 85 40
       4.1908526 4.1459713 -4.3265867 4.1693873
0000b0 de 02 85 40 35 18 8c c0 ab f2 84 40 03 76 85 40
       4.1566 -4.377955 4.1546226 4.1706557
0000c0 ec ea 89 c0 7a df 8a c0 6f 2f 8a c0 8a 88 8a 40
       -4.309927 -4.33978 -4.31829 4.3291674
0000d0 f1 95 88 c0 e2 08 88 40 16 ff 85 40 09 8d 89 c0
       -4.2683034 4.2510843 4.1873884 -4.298466
0000e0 6b 9f 8a c0 55 1c 8a c0 4b 1a 8a 40 2e ec 8c 40
       -4.33196 -4.3159585 4.3157096 4.4038305
0000f0 13 8e 86 40 0d 6a 88 c0 5e 69 89 40 a8 84 8c 40
       4.204843 -4.2629457 4.294112 4.3911934
000100 78 9a 88 c0 44 57 8d c0 af 2a 8b c0 2c a1 8a c0
       -4.268856 -4.4169025 -4.3489604 -4.3321743
000110 67 2d 87 40 a5 ed 8a c0 f1 30 87 c0 0b 35 8e c0
       4.2242923 -4.3415093 -4.2247243 -4.443975
000120 a4 15 85 40 29 fe 86 c0 00 da 8a 40 1f 68 8c 40
       4.1588917 -4.2185254 4.3391113 4.38771
000130 61 c1 88 c0 59 b1 85 40 0e 41 88 c0 eb 45 85 c0
       -4.273606 4.177899 -4.2579412 -4.164785
000140 17 11 86 40 34 f1 8b c0 a2 3e 8a c0 61 f3 88 c0
       4.189586 -4.3731937 -4.3201456 -4.2797093
000150 62 73 8d 40 d0 53 8b 40 ac 1e 8c c0 60 25 8c c0
       4.420335 4.353981 -4.378744 -4.3795624
000160 ee eb 87 40 0b e3 8c 40 dd 77 8a 40 c0 67 8d c0
       4.24755 4.402715 4.3271317 -4.418915
000170 ef ea 8b c0 fa db 85 c0 cd 60 8a 40 b4 55 8d 40
       -4.3724284 -4.1831026 4.3243165 4.416712
000180 5f ea 88 c0 75 2a 8b 40 92 df 8b 40 7e 03 8c c0
       -4.2786098 4.3489327 4.3710413 -4.3754263
000190 2a 73 8c c0 e2 7c 86 40 6a f5 88 40 9a 15 8a 40
       -4.389058 4.2027445 4.279958 4.315137
0001a0 b5 1a 89 c0 98 25 86 40 29 0e 86 40 3e bd 8c 40
       -4.28451 4.192089 4.1892285 4.398101
0001b0 a7 fe 84 40 bf e1 8a 40 ab a3 88 c0 ea 48 89 40
       4.1560855 4.340057 -4.269979 4.2901506
0001c0 f8 8a 87 40 79 46 87 c0 a2 16 8c c0 ac f8 86 c0
       4.235714 -4.2273526 -4.377763 -4.2178555
0001d0 71 f5 85 40 96 88 8a c0 1d 22 89 c0 b1 cd 8b 40
       4.186211 -4.329173 -4.285414 4.368859
0001e0 2e e1 85 c0 37 6d 85 c0 4a 40 88 c0 53 90 87 40
       -4.1837378 -4.169582 -4.257848 4.2363677
0001f0 20 5b 86 40 fb cb 89 40 ab ed 89 c0 34 84 85 40
       4.1986237 4.30615 -4.310262 4.172388
000200 cb 36 85 40 70 4e 8a c0 d6 61 88 c0 2c 02 8c 40
       4.1629386 -4.322075 -4.261943 4.375265
000210 3d d4 89 c0 79 e1 8c c0 0e 2a 8c 40 b2 f3 8d c0
       -4.307158 -4.4025235 4.3801336 -4.435998
000220 94 19 8c 40 5f 29 8d 40 a0 1a 8e c0 d3 34 87 c0
       4.3781223 4.4113 -4.44075 -4.2251983
000230 30 72 87 c0 25 d5 86 40 95 7f 85 c0 dd 10 8c 40
       -4.232689 4.2135186 -4.171824 4.3770585
000240 74 eb 8d c0 f7 c7 8a c0 b5 f9 87 c0 eb a0 8d c0
       -4.434992 -4.33691 -4.249232 -4.4258933
000250 ef 73 85 40 7f c8 88 40 6f da 85 40 34 a7 88 c0
       4.170402 4.2744746 4.1829143 -4.2704105
000260 e2 09 87 40 0d fe 8a c0 22 dc 85 c0 54 a9 85 c0
       4.2199564 -4.343512 -4.1831217 -4.17692
000270 79 e3 85 c0 f3 1a 88 c0 58 e5 8d 40 f1 71 85 c0
       -4.1840177 -4.2532897 4.434246 -4.170159
000280 22 52 8c c0 04 3f 88 c0 bf e1 88 40 41 96 8c c0
       -4.385026 -4.2576923 4.277557 -4.3933415
000290 e7 93 87 40 7a a3 88 40 96 f0 8c c0 0b a0 89 40
       4.2368045 4.2699556 -4.4043684 4.3007865
0002a0 e2 d5 8b c0 cc 71 8d c0 91 f3 87 40 fb 54 86 c0
       -4.3698587 -4.420141 4.248482 -4.1978736
0002b0 95 ba 8d c0 70 ab 8d c0 63 7d 8b 40 44 1f 87 40
       -4.429026 -4.4271774 4.359056 4.2225666
0002c0 ee 08 8b c0 60 13 8c c0 d6 f1 8b 40 f9 0b 8a 40
       -4.34484 -4.377365 4.373271 4.3139615

atten_layer.0.weight f4 [45, 135]
000000 c0 52 bc bb 40 cb d3 3b 10 c0 bf bc 58 49 8d bc
       -0.0057471693 0.0064634383 -0.023407012 -0.017246887
000010 67 17 ab 3d 36 22 4b 3d d9 b8 42 bd 3d 6c 05 bd
       0.08354073 0.049593173 -0.047539566 -0.032573927
000020 f6 50 52 3d 2b 99 a3 3d 5c cd c8 3c 1d 5d 97 3d
       0.05134674 0.07988199 0.024511985 0.07390807
000030 3c a7 90 bc 4e 36 5b 3d 80 fe 68 ba 8d ca 01 bd
       -0.017657869 0.053518586 -0.0008888021 -0.031687308
000040 14 e6 bf bc c4 5c dd 3c 8e 32 37 3d c0 81 32 3b
       -0.02342514 0.027021773 0.044725947 0.0027237982
000050 58 d2 8d bc fa 02 fc bc 80 87 31 bb 39 f2 af 3d
       -0.017312214 -0.030763138 -0.002708882 0.08591122
000060 f8 00 dc 3c ca 41 a9 bd f0 4b 9f bc 80 1b 05 3d
       0.02685593 -0.082645014 -0.01944539 0.03249693
000070 07 82 a8 bd 12 a7 63 3d 64 7b 6a bd 89 eb 90 bd
       -0.08227926 0.055579253 -0.05724658 -0.07076175
000080 6c 25 2f bd 20 a2 40 3b de 57 81 bd d0 87 d5 bb
       -0.042760298 0.002939351 -0.063155875 -0.0065164343
000090 b8 1c 79 bd 50 e5 3f bc 30 cc a8 bd 23 7b 07 bd
       -0.060818404 -0.011712387 -0.08242071 -0.033076417
0000a0 60 33 80 bb 19 d4 a5 3d b1 46 af bd 60 66 03 bc
       -0.0039123744 0.08097095 -0.08558405 -0.008020014
0000b0 00 c0 77 b8 23 39 9c bd 1f 54 3b bd de 2a 28 3d
       -5.9068203e-05 -0.076280855 -0.04573452 0.041056506
0000c0 a2 43 6a 3d 77 0b 85 3d 0b b3 9d 3d bd f9 a3 3d
       0.057193406 0.06496327 0.07700165 0.08006618
0000d0 f0 54 96 bc 86 4a 8a bd 39 e6 97 bd ea f6 2c bd
       -0.018351048 -0.067524955 -0.07416958 -0.042227663
0000e0 e0 49 4f bd 2c 1a e9 3c 59 0e 35 bd 6f 67 88 3d
       -0.050607562 0.028454863 -0.044203136 0.066603534
0000f0 9b 5c 38 bd 7b d2 8c 3d 12 c1 51 3d ef 27 96 3d
       -0.04501019 0.068760835 0.051209517 0.073318355
000100 3f 0c 94 bd a9 35 a5 3d 40 89 c3 ba eb 93 97 3d
       -0.07228898 0.080668755 -0.0014918223 0.0740126
000110 32 5d 42 3d 88 06 81 bd ea e3 91 bd 0b 99 ae 3d
       0.04745216 -0.06300074 -0.07123549 0.085252844
000120 78 ae b2 bc a0 fc 7b bc 80 9d ea ba 31 35 7e bd
       -0.021811709 -0.015380055 -0.0017899722 -0.062062446
000130 20 55 65 bc fe d8 28 3d e0 a0 6c bb 46 42 a3 bd
       -0.013997346 0.041222565 -0.003610663 -0.07971625
000140 08 85 1e 3d 69 81 84 3d ff 6e 0d bd 6b 21 90 bd
       0.038701087 0.064699955 -0.034529682 -0.07037624
000150 6f 9a 9b 3d f2 79 34 3d 79 1f 9a 3d 00 b4 10 3b
       0.07597815 0.04406161 0.07525534 0.0022079945
000160 1d 00 32 bd 5d 1f 9b 3d 1e 48 8b c0 71 d5 95 c0
       -0.04345714 0.075743414 -4.3525534 -4.682305
000170 1a b1 a2 c0 57 75 8b c0 65 ab 89 40 f7 48 8b c0
       -5.084119 -4.3580737 4.302172 -4.352657
000180 90 5c 8c c0 eb fb a2 40 57 4c 89 40 f8 2f 88 40
       -4.386299 5.0932517 4.290569 4.2558556
000190 5b 6c 89 c0 18 fc 85 c0 83 70 88 c0 64 65 8b 40
       -4.294477 -4.187023 -4.2637343 4.356127
0001a0 4d 63 8a c0 e5 aa 86 c0 5f 8b 88 c0 a0 87 89 40
       -4.3246217 -4.208361 -4.267013 4.297806
0001b0 b3 7f 8a 40 ed 7f 6a c0 20 76 9b c0 6b 2e a4 40
       4.3280883 -3.664058 -4.8581696 5.1306663
0001c0 bd 9d 9f 40 56 c1 6c 40 47 87 8c c0 c3 7f 60 40
       4.988005 3.6993003 -4.3915133 3.507798
0001d0 6e d1 98 40 d8 6f 89 40 ce 59 a2 c0 5a ad a2 40
       4.775565 4.294903 -5.0734625 5.083661
0001e0 ad 69 89 40 d5 92 8b c0 52 29 88 40 8b 74 8a c0
       4.29415 -4.361674 4.255044 -4.3267264
0001f0 c8 fe 86 c0 43 33 87 c0 7f cc 88 40 d4 c1 88 c0
       -4.218601 -4.2250075 4.274963 -4.2736607
000200 b0 a8 8c 40 fa 1d 89 40 c9 fb 6a c0 f2 88 9a 40
       4.3955917 4.2849092 -3.6716177 4.829217
000210 c0 bb a6 c0 30 de 8d c0 5a 2f 9f 40 ca c1 8a bd
       -5.2104187 -4.4333725 4.97453 -0.067752436
000220 c5 94 99 3d f8 e9 51 bd b9 2b 8e bd 4c 7a ee 3c
       0.07499079 -0.05124852 -0.06941933 0.02911105
000230 c0 8e 3e 3b 0e 6a 35 3d 80 f2 51 3c 4c 23 c9 bc
       0.0029076785 0.044290595 0.012814164 -0.024552964
000240 7a 9d 04 3d ea cb a2 bd d3 35 12 bd 7e 44 71 3d
       0.032376744 -0.0794905 -0.035695862 0.05890321
000250 16 db 3f 3d fb 86 2b bd 1d e2 a8 3d 62 f4 5f 3d
       0.046839796 -0.041876774 0.08246253 0.05467642
000260 8e 12 2b 3d 38 15 7c bd 81 a6 51 bd fa f9 92 bd
       0.041765742 -0.061543673 -0.05118418 -0.071765855
000270 a0 f9 4d bd 1e 36 01 3d 99 b2 87 3d fd 37 94 3d
       -0.05028689 0.03154575 0.06625862 0.072372414
000280 60 26 42 bb f0 bb 11 3c ae d4 f3 bc e8 f6 82 bd
       -0.0029624924 0.008894905 -0.0297645 -0.0639475
000290 60 41 f8 3c 58 aa cc bc cc db 18 bd 48 b0 f5 bc
       0.03030461 -0.02498357 -0.03731899 -0.029991284
0002a0 44 ae 8a bd 1c 96 54 bd 1e b9 05 bd 50 8c af bc
       -0.0677152 -0.051900968 -0.032647245 -0.02142921
0002b0 9c b1 a7 bc 1f 3c a3 3d 28 59 ab bc 7a eb 2f 3d
       -0.020470433 0.079704516 -0.020916536 0.042949177
0002c0 6c d8 87 bc 77 85 9f 3d e0 bf bb bc e6 79 54 3d
       -0.01658269 0.07789128 -0.022918642 0.051874064
0002d0 ea ed 7b 3d 50 39 c6 bc 24 5c f1 3c a4 24 45 bd
       0.06150619 -0.02419725 0.029462881 -0.048130646
0002e0 b2 de 12 bd 9e 89 47 3d ea 1f 3b 3d b4 8a 91 3c
       -0.03585691 0.048715226 0.045684732 0.017766334
0002f0 c1 25 93 3d 79 7c 42 bd a8 c9 4e 3c 75 13 8d bd
       0.07184935 -0.047481988 0.012621321 -0.06888477
000300 52 da ad bd 10 d1 5b bd 3f 69 af 3d 4e 3f 51 3d
       -0.08488907 -0.053666174 0.08564996 0.051085763
000310 69 68 80 3d 3a 40 7a 3d 10 c7 33 bc 20 0d 79 3c
       0.06269915 0.061096407 -0.010972753 0.015200883
000320 ea 2c c5 bc 37 5f 49 bd a2 c8 10 bd 43 1c 4d bd
       -0.024069268 -0.04916307 -0.03534759 -0.05007578
000330 ce 6e 27 3d f0 15 24 bd bc d8 9e bc 35 02 a9 3d
       0.040877156 -0.040059984 -0.019390456 0.08252374
000340 9a a9 14 3d f8 0e 7c 3c dc 5c 84 bc 0d 30 87 3d
       0.036294557 0.015384428 -0.01615756 0.06600962
000350 30 52 af 3b 60 5a 3f 3b 60 fe 3a bd e9 9e 8f bd
       0.0053503737 0.0029198155 -0.045652747 -0.070127316
000360 42 aa 7e 3d f3 92 43 bd a9 8c 9b bd 92 cc 9f bd
       0.06217409 -0.047747564 -0.07595188 -0.078026906
000370 2c d2 9e 3c d8 3d aa bd 26 18 91 bd 10 7c ae 3c
       0.019387327 -0.08312577 -0.07084684 0.021299392
000380 da e3 26 3d 60 0d 92 c0 73 19 98 40 8c 42 9d 40
       0.04074464 -4.5641327 4.7531066 4.9143734
000390 8a 0b 88 c0 db ca 87 40 83 e1 88 40 59 5a 87 40
       -4.2514086 4.2435126 4.2775283 4.229779
0003a0 cb af 8f c0 ed 1b 8e 40 06 73 8b 40 d8 70 88 c0
       -4.490209 4.440909 4.357791 -4.263775
0003b0 87 be 82 c0 d7 ea 8a c0 4a 5e 87 40 aa 51 8b c0
       -4.0857577 -4.341167 4.23026 -4.3537188
0003c0 da 23 83 c0 e1 e6 89 40 7a 3a 89 40 d2 75 88 40
       -4.0981264 4.3094335 4.2883883 4.2643824
0003d0 64 3e 95 c0 00 34 92 40 0c 2f 90 c0 15 cd 99 c0
       -4.663866 4.5688477 -4.505743 -4.8062844
0003e0 e2 cf 98 40 54 82 89 c0 70 40 96 40 6a d1 90 c0
       4.7753763 -4.297159 4.695366 -4.5255632
0003f0 a5 f4 8b 40 40 df 96 40 ad 41 92 c0 f7 d9 89 40
       4.373614 4.714752 -4.570517 4.307857

atten_layer.0.bias f4 [45]
000000 9b 21 7e 40 74 ff 8b 40 74 6f 84 40 7e 66 89 c0
       3.970801 4.3749332 4.138605 -4.2937613
000010 a9 ec 87 c0 d7 a1 8a c0 5e eb 8c c0 e6 0d 88 40
       -4.247639 -4.332256 -4.4037313 4.2516966
000020 6e f8 89 c0 21 fd 88 40 1d ee 85 c0 5c 38 8b c0
       -4.311576 4.2808995 -4.1853166 -4.35063
000030 2a a6 8a 40 98 dc 86 c0 db 6a 84 c0 ec 85 8b 40
       4.3327837 -4.214428 -4.138044 4.360098
000040 63 4d 86 c0 76 e8 8b c0 b9 e1 84 c0 98 8a 86 c0
       -4.1969466 -4.3721266 -4.152554 -4.204418
000050 86 b8 8a c0 9f 71 8d 40 c9 37 87 40 09 c6 8a 40
       -4.335025 4.42012 4.2255597 4.336674
000060 5a 5c 8d c0 3f 1d 8b c0 e0 75 89 c0 d9 a3 89 c0
       -4.4175234 -4.34732 -4.295639 -4.301251
000070 37 e4 85 c0 5c 27 8e c0 ab 76 87 40 05 60 8a 40
       -4.1841083 -4.4423046 4.233236 4.324221
000080 3a 57 8a 40 b2 70 8a 40 73 a6 87 c0 98 a6 8c c0
       4.323148 4.3262568 -4.2390685 -4.395336
000090 c3 31 8b 40 b0 a3 87 40 dc 85 8d c0 d9 aa 87 40
       4.3498244 4.2387314 -4.4225903 4.2396054
0000a0 e6 0e 85 c0 cc 8e 8a c0 ca 84 8a 40 09 10 8b 40
       -4.1580687 -4.3299313 4.3287096 4.3457074
0000b0 bc 4b 85 c0
       -4.165495

atten_layer.2.weight f4 [1, 45]
000000 87 c0 1e 40 8e 4f c8 c0 b7 93 67 40 2f ab 2c c0
       2.480501 -6.2597113 3.6183908 -2.6979482
000010 ed fc 44 c0 09 23 2a c0 23 84 5a c0 38 5c a4 c0
       -3.0779374 -2.6583884 -3.414315 -5.136257
000020 e4 cf 37 c0 24 9e 3d 40 bc b0 03 c0 ae 21 a2 40
       -2.8720636 2.9627771 -2.057662 5.0666113
000030 04 4b ab c0 0b f2 41 c0 e6 15 df 40 cf 4b 63 40
       -5.352907 -3.0303981 6.971423 3.551502
000040 44 dc be 40 04 d4 aa 40 e7 29 19 c0 43 e3 1f c0
       5.964388 5.338381 -2.3931825 -2.498246
000050 0f fd 9b 40 83 ff 87 40 11 3e 84 40 17 6b 84 40
       4.874641 4.2499404 4.1325765 4.1380725
000060 b2 28 94 40 de 34 b8 40 37 a9 7b c0 c7 e2 63 c0
       4.6299677 5.7564535 -3.932203 -3.5607164
000070 52 ed ce 40 e2 7b 92 40 40 6b 82 40 16 af b3 c0
       6.46647 4.5776224 4.075592 -5.615123
000080 af 77 61 40 92 03 90 c0 73 05 af 40 94 f2 6d c0
       3.52293 -4.500436 5.469415 -3.7179308
000090 74 18 9c c0 3e 0e a4 c0 6e a8 a1 40 c4 47 b5 c0
       -4.877985 -5.1267385 5.0518103 -5.6650105
0000a0 b0 3d 24 c0 e0 11 96 40 fe 21 bb c0 85 e5 88 40
       -2.566265 4.689682 -5.8478994 4.2780175
0000b0 3c f2 21 c0
       -2.5304098

lstm.weight_ih_l0 f4 [180, 45]
000000 5d 2f 81 40 c2 b7 8d c0 46 15 8f c0 92 64 89 40
       4.0370317 -4.4286814 -4.471347 4.2935266
000010 5a c8 8d c0 2a 8a 89 40 54 88 85 40 fe 13 8e 40
       -4.430707 4.2981157 4.1728916 4.4399405
000020 ea e5 83 c0 aa 62 8e 40 06 79 87 40 c1 ee 8b 40
       -4.1218157 4.449544 4.2335234 4.372895
000030 73 9c 89 40 ae e4 88 40 fc c4 8a c0 4d 85 8e 40
       4.300348 4.277915 -4.336546 4.453772
000040 b0 72 87 c0 8d bd 8e c0 a8 eb 88 c0 d6 31 90 40
       -4.23275 -4.4606385 -4.2787666 4.5060835
000050 5e bc 90 c0 de 1f 96 40 7e 89 8f 40 cc f3 89 c0
       -4.522994 4.69139 4.4855337 -4.3110104
000060 10 56 6b 40 10 74 91 c0 7a 7d 90 40 cd 09 8a c0
       3.6771278 -4.545418 4.515317 -4.3136964
000070 8e c5 92 c0 84 c9 8d 40 14 bc 88 c0 4b 73 8d c0
       -4.5866156 4.430849 -4.2729588 -4.420324
000080 80 73 88 c0 e3 4d 8c 40 bd 86 8d 40 00 a5 8d c0
       -4.264099 4.3845077 4.4226975 -4.4263916
000090 aa 1c 8a c0 a0 9b 88 40 1e 95 89 40 6a 0e 8d c0
       -4.315999 4.268997 4.299453 -4.4080095
0000a0 c9 44 8a c0 08 5a 90 40 42 2e 91 c0 b3 00 8d c0
       -4.3208966 4.51099 -4.5368967 -4.4063354
0000b0 70 06 92 40 be 77 8e 40 e4 02 94 c0 18 97 8e c0
       4.563286 4.452117 -4.625353 -4.455944
0000c0 24 8c 8d 40 bb c5 8b 40 81 37 8b 40 af 59 8b 40
       4.423357 4.367887 4.3505254 4.3546977
0000d0 92 c4 8b 40 43 ad 87 c0 6b 47 88 40 f0 01 88 40
       4.3677454 -4.2399 4.258718 4.2502365
0000e0 15 c0 86 c0 85 23 8a 40 4b 31 86 c0 b4 ae 87 c0
       -4.2109475 4.316836 -4.193517 -4.240076
0000f0 6a 3e 86 40 57 25 8a c0 8c da 85 c0 77 24 87 c0
       4.195119 -4.317058 -4.182928 -4.2232013
000100 ec 22 90 40 1a 02 91 c0 1f 36 8b 40 06 83 94 40
       4.504263 -4.5315065 4.3503566 4.640994
000110 30 65 8d c0 b0 a1 30 c0 ba ad 8f c0 47 95 8f 40
       -4.418602 -2.7598686 -4.489957 4.4869723
000120 26 78 85 c0 2f e3 91 c0 31 74 8e 40 61 af 88 c0
       -4.1709166 -4.5589824 4.4516835 -4.2714086
000130 ad 12 8d c0 30 94 8e c0 3a 75 88 40 95 0f 87 40
       -4.4085298 -4.4555893 4.26431 4.220652
000140 a0 13 8a c0 2f 47 8a c0 56 2b 8b 40 c0 8a 8c 40
       -4.3148956 -4.3211894 4.34904 4.3919373
000150 5b 3f 85 c0 a3 54 8a c0 86 dd 8f 40 bc 9d 8a c0
       -4.163984 -4.3228316 4.4957914 -4.3317547
000160 1a 15 81 c0 a8 03 91 40 07 5f 86 c0 99 56 91 c0
       -4.033826 4.5316963 -4.1991 -4.541821
000170 87 28 91 c0 3a 77 87 40 e6 65 8a c0 04 2b 89 40
       -4.536197 4.233304 -4.324939 4.286501
000180 09 4b 8a c0 6c e0 90 40 44 e9 8d c0 06 2f 8c c0
       -4.3216596 4.5273952 -4.434725 -4.38074
000190 a0 ee 88 40 c7 b7 3f c0 01 d6 8b c0 9e af 8c 40
       4.279129 -2.9955919 -4.3698735 4.3964376
0001a0 ed e0 86 40 cb 6b 86 40 10 0c 8c 40 71 0f 87 40
       4.2149568 4.2006583 4.3764725 4.220635
0001b0 79 a7 87 c0 14 63 90 40 5d d5 8f c0 a2 13 8c 40
       -4.2391934 4.5120945 -4.4947953 4.3773966
0001c0 9d 00 8b 40 df f1 8c c0 dc ea e6 bf e7 d5 8b c0
       4.343825 -4.4045253 -1.8040423 -4.369861
0001d0 18 29 94 40 80 25 89 c0 2e 1f 90 c0 12 00 8f 40
       4.6300163 -4.2858276 -4.503806 4.4687586
0001e0 b7 37 8e 40 7e d3 85 40 5d 96 8a c0 68 24 8e 40
       4.444301 4.182067 -4.330855 4.441944
0001f0 0b 3a 88 40 02 fb 8a 40 74 43 8e 40 d6 48 8d 40
       4.2570853 4.3431406 4.445734 4.415141
000200 74 70 85 c0 b4 d3 8a c0 f2 fe 88 40 12 ff 8d 40
       -4.169977 -4.3383427 4.2811213 4.4373865
000210 d3 c0 91 c0 86 3c 88 40 e1 61 8b 40 8f 42 8f 40
       -4.554788 4.257388 4.355698 4.476875
000220 db e7 92 c0 36 12 91 c0 5c 60 8d 40 22 e5 87 c0
       -4.5908027 -4.533473 4.4180126 -4.2467203
000230 0f ba 86 40 21 58 8e 40 cf ef 93 40 dd 59 87 c0
       4.210212 4.448258 4.6230235 -4.2297196
000240 6d 48 87 c0 74 d9 8d 40 d2 78 83 c0 85 2c 85 40
       -4.227591 4.4327946 -4.1084986 4.1616845
000250 a2 23 8c 40 be 89 8c 40 c9 00 8c 40 31 ab 89 40
       4.3793497 4.391814 4.375096 4.3021474
000260 51 aa 85 c0 c4 0e 8a c0 ea f4 96 40 fc 73 8e c0
       -4.1770406 -4.3143024 4.7173967 -4.4516582
000270 57 fa 8c 40 26 b8 93 40 d4 3b 96 c0 bb e2 33 40
       4.405559 4.616229 -4.694803 2.8107135
000280 e0 f3 91 c0 a8 9b 91 40 a5 26 87 c0 72 e8 95 c0
       -4.56102 4.550251 -4.2234674 -4.6846247
000290 a4 ae 92 40 65 82 87 c0 a7 fd 8e 40 64 c6 86 c0
       4.5838184 -4.2346673 4.4684634 -4.2117176
0002a0 64 9f 86 40 26 5a 8b 40 75 21 8c c0 0e 0c 86 c0
       4.206957 4.3547544 -4.379084 -4.1889715
0002b0 de e6 84 40 50 63 87 c0 b3 d6 87 c0 1b 74 8b 40
       4.153182 -4.230873 -4.2449584 4.357923
0002c0 0c ac 8e 40 b8 83 8d c0 36 3f 88 40 80 61 8e 40
       4.458502 -4.422329 4.257716 4.449402
0002d0 53 e2 88 40 e2 da 91 c0 4c 7d 98 c0 5b 5f 87 40
       4.2776275 -4.557969 -4.765295 4.23039
0002e0 b4 d8 83 40 fa 0d 8c 40 81 8a 89 40 b8 6b 90 40
       4.120203 4.376706 4.298157 4.5131493
0002f0 cc f8 8d c0 d0 ce 8d c0 da 37 88 40 23 e5 8a c0
       -4.4366207 -4.4314957 4.256818 -4.340471
000300 88 6f 86 40 38 ad 81 c0 30 0b 8f 40 1a 9c 8c 40
       4.2011147 -4.052395 4.4701157 4.3940554
000310 53 23 89 40 71 35 88 c0 d2 77 85 c0 49 0f 95 40
       4.285562 -4.2565236 -4.1708765 4.658116
000320 3d 36 97 c0 85 1f 8e 40 51 a4 91 40 8c 05 96 c0
       -4.725371 4.4413476 4.551308 -4.688177
000330 3b 96 79 40 6f 4f 97 c0 d6 ea 93 40 51 32 87 c0
       3.8997943 -4.7284465 4.6224165 -4.224892
000340 2a 3e 8f c0 d7 36 91 40 b3 8a 89 c0 7c bd 89 40
       -4.4763384 4.5379443 -4.298181 4.3043804
000350 31 d3 8a c0 e0 0d 8d 40 44 63 8d 40 4e 53 87 c0
       -4.33828 4.4079437 4.4183674 -4.228919
000360 cf 0a 87 c0 a9 02 8c 40 ef dc 84 c0 df b6 8b c0
       -4.2200694 4.3753247 -4.1519694 -4.366073
000370 d8 6a 8d c0 ab f0 94 40 80 58 90 c0 6f 22 8e 40
       -4.4192924 4.6543784 -4.510803 4.4417033
000380 9e 6d 8f 40 34 ba 8d 40 1c be 8f c0 a1 5f 94 c0
       4.482131 4.42898 -4.4919567 -4.6366735
000390 19 d7 87 40 28 3b 8d c0 3b 07 89 40 6c 7a 85 40
       4.245007 -4.413471 4.2821326 4.171194
0003a0 fd 37 8e 40 e0 ca 8b c0 4e a1 8e c0 e8 7a 89 40
       4.4443345 -4.368515 -4.4571905 4.296253
0003b0 db 1a 69 c0 a1 21 89 40 aa dd 89 40 10 e5 8a 40
       -3.6422641 4.285355 4.3083086 4.3404617
0003c0 21 82 8b 40 c7 9e 87 40 42 21 8d c0 93 96 8b c0
       4.359635 4.238132 -4.41031 -4.3621306
0003d0 32 80 8d 40 e6 8b 90 c0 57 98 8b 40 0c 46 8d 40
       4.421899 -4.5170774 4.362346 4.4148006
0003e0 5c ab 91 c0 c0 af 1c c0 f2 ce 92 c0 c0 d0 8b 40
       -4.552168 -2.448227 -4.587762 4.369232
0003f0 16 bf 8d c0 ff bd 91 c0 6a 6e 94 40 38 12 8b c0
       -4.429576 -4.554443 4.6384783 -4.345974

lstm.weight_hh_l0 f4 [180, 45]
000000 10 96 73 bc 4b 1e 10 3e 37 b5 15 be e0 ef 82 3b
       -0.014867321 0.14074056 -0.14619909 0.0039958805
000010 84 f7 14 be 31 a0 b9 bd 08 e3 1d 3d 22 2c cc 3d
       -0.14547545 -0.09063757 0.038546592 0.09969355
000020 40 ef c2 bc 95 e2 07 3e 0e 7f 8a 3d aa ec 09 be
       -0.023795724 0.13270028 0.06762515 -0.13469186
000030 30 24 18 bd e0 58 b9 bc 18 8d c2 bc cc 5f 80 3d
       -0.037143886 -0.022625387 -0.02374892 0.06268272
000040 6a c5 fb 3d 46 ea cf bd 5a 5f a9 bd 94 f1 b5 bd
       0.12293513 -0.10152106 -0.0827014 -0.08883968
000050 78 83 e3 3c 6c 35 75 3d e2 84 c8 bd 18 28 a5 3d
       0.02777265 0.0598654 -0.097909704 0.08064288
000060 2a 7d 86 3d 02 a6 34 bd a4 3a 38 bd e1 a7 0e be
       0.06566842 -0.04410363 -0.0449778 -0.13931228
000070 86 e5 c2 bd cc b7 2e 3d 60 07 6f 3d a9 91 06 3e
       -0.09516434 0.04265575 0.058356643 0.13141502
000080 46 57 0d bd 14 9d ce 3d 1c 78 a9 bd 49 f9 f3 bd
       -0.03450706 0.10088554 -0.08274862 -0.11912782
000090 2e aa 02 be 24 51 c9 3d 38 5b c0 bc c2 cd f6 3d
       -0.12760231 0.098299295 -0.023480996 0.12050964
0000a0 fc f2 5e bd 6d 13 18 3e 80 1e 81 3d dd 4f 8d bd
       -0.054430947 0.1485116 0.063046455 -0.06899998
0000b0 72 82 a5 3d 90 29 17 bd ac ba cb 3d e8 e5 b5 bc
       0.08081521 -0.03690487 0.09947714 -0.022204354
0000c0 01 58 17 3e ee d3 e3 3d 02 1b 0c be 60 60 0a 3d
       0.14779665 0.11124407 -0.13682178 0.033783317
0000d0 d0 ea 46 bc 70 f1 61 bd 64 35 9c 3d 48 dd dd bc
       -0.012140945 -0.055161893 0.07627371 -0.027083054
0000e0 a0 27 5f bd 18 27 cc bd 36 c3 f0 bd 6a 07 b7 3d
       -0.05448115 -0.09968394 -0.117559835 0.08936961
0000f0 86 85 c3 3d 18 ea 9f bc fc 42 bf 3d ea 87 82 bd
       0.09546952 -0.019520804 0.09338948 -0.0637358
000100 56 c5 f8 3d 9e 92 0d bd 26 cd 8b 3d c0 13 bd 3c
       0.12147014 -0.034563653 0.06826238 0.023080707
000110 cf 51 11 3e f8 df 93 bc ea 8e f3 bd 76 ea c5 bd
       0.14191364 -0.018051133 -0.11892493 -0.096638605
000120 c0 33 be bb a8 0c 0d bd 0c da c2 bd d6 19 de bd
       -0.005804509 -0.034435898 -0.095142454 -0.108447716
000130 f1 b8 09 be a4 c3 1d bd d6 de c6 3d 28 24 b2 3c
       -0.13449456 -0.038516656 0.09710471 0.021745756
000140 00 9b 4d 3b 4d 57 17 be c0 33 f2 3b 2c fd 10 be
       0.0031372905 -0.14779396 0.007391423 -0.14159077
000150 82 b6 ca bd 54 69 92 bd ff 04 07 be c0 01 86 bc
       -0.09898092 -0.07148996 -0.131855 -0.016358256
000160 c6 a7 9e 3d b2 a5 d1 bd 67 bd 16 be 22 b4 e8 bd
       0.07746844 -0.10236682 -0.14720689 -0.113624826
000170 10 27 5a 3c 8d 6b 17 3e da c4 f1 3d c5 5a 0c 3e
       0.013314977 0.14787121 0.118051246 0.13706501
000180 40 d8 54 3b fc 75 5d 3d 80 82 2b bd 88 ef ee bd
       0.0032477528 0.054067597 -0.0418725 -0.11666781
000190 a8 37 15 3d 84 91 99 3d 4e 29 e9 3d e0 84 b1 bd
       0.03643003 0.07498458 0.11384831 -0.08667922
0001a0 48 bb c5 3c fe ba f4 bd 22 78 08 be 16 fd 8a bd
       0.024137154 -0.119497284 -0.13327077 -0.067865536
0001b0 74 ef d8 bd e5 a5 e7 bd d0 2c 39 bc 95 f7 01 be
       -0.10592547 -0.11310939 -0.011302188 -0.12692101
0001c0 e0 4d f0 bd d2 56 d3 bd d3 fe ba bd b0 8a 1f 3c
       -0.117336035 -0.10319294 -0.09130635 0.0097376555
0001d0 28 e1 8e bc 2a 1d 80 3d 58 2f c0 bc 6c b4 71 3d
       -0.017441347 0.062555626 -0.023460075 0.059009954
0001e0 ba aa 0e bd b6 b6 99 3d b0 58 84 3d 1a 78 f5 3d
       -0.034830786 0.075055525 0.06462228 0.11985798
0001f0 a8 7c e6 3c 2a f8 e8 bd 64 d1 4a 3d 80 db 43 3c
       0.028135613 -0.113754585 0.049516097 0.011954188
000200 68 cb bc bd 0e d8 82 3d 9c 51 0f 3d 78 57 b3 bc
       -0.09218484 0.063888654 0.03498994 -0.021892294
000210 c6 2f dd bd da 40 21 bd ae c6 af bd a8 07 98 3c
       -0.10800128 -0.039368488 -0.08582817 0.018558338
000220 ea 49 8b bd 80 80 e6 bb d6 4c 03 bd d8 6c 30 3d
       -0.06801207 -0.0070343614 -0.0320557 0.04307255
000230 80 26 8c 3d f8 63 ee bc 14 a5 b5 3d 08 2f 04 be
       0.06843281 -0.029100403 0.08869377 -0.12908566
000240 0b 97 11 3e 83 68 11 3e d1 bc 02 3e 8a a2 af bd
       0.14217775 0.14200024 0.1276734 -0.08575924
000250 66 99 1f bd 50 db 12 3d b4 d0 fb bd fa f1 dc 3d
       -0.03896465 0.035853684 -0.12295666 0.10788341
000260 80 b7 c8 3b fd ac 00 3e e6 fd ff bd 16 92 25 bd
       0.0061253905 0.1256599 -0.12499599 -0.04042252
000270 f2 2f 08 be 48 fb 5d bd 18 21 cd 3c 00 76 64 bb
       -0.1329954 -0.05419472 0.025040194 -0.0034860373
000280 68 4f 7a 3d 2c 09 47 bd 30 31 34 bd 39 69 e8 bd
       0.061110884 -0.04859273 -0.04399222 -0.11348195
000290 ea aa 13 be 15 75 01 3e 81 6b d3 bd f9 db f8 bd
       -0.14420667 0.1264232 -0.10323239 -0.121513315
0002a0 88 f4 0e bd 00 32 5a bc 88 47 ea 3c 2e 43 db bd
       -0.034901172 -0.013317585 0.028598562 -0.10706173
0002b0 1d 07 e1 bd ef 07 02 be 7e 02 a1 3d 94 b8 8d 3d
       -0.10987685 -0.12698339 0.078618035 0.06919971
0002c0 40 7c 88 bd 00 88 15 3b b0 60 e4 bc 54 db 15 3d
       -0.06664324 0.0022816658 -0.027878135 0.03658612
0002d0 8c a6 c0 bd cd 37 9e bd 00 e4 f4 bc 62 48 17 bd
       -0.09406766 -0.07725487 -0.029893875 -0.036934264
0002e0 aa 52 a4 bd 94 d9 e3 bd 08 f1 9c bc fa d5 f1 bd
       -0.080235794 -0.11125484 -0.019157901 -0.11808391
0002f0 54 3c fa bc 29 57 01 3e 40 87 3a 3d 70 7e 59 3c
       -0.030546345 0.12630905 0.04553914 0.013274774
000300 60 8c 1c bd 0e 09 91 3d 50 93 54 3d 4e ef a6 3d
       -0.03821981 0.07081805 0.0518983 0.081511125
000310 c4 31 9e 3d d8 56 8a 3c 40 79 bd bc 76 89 fd bd
       0.07724336 0.016887113 -0.023129106 -0.12379734
000320 1e 2c df bd 46 a0 af 3d 78 1e e8 bc f0 85 07 3c
       -0.108970866 0.085754916 -0.028334841 0.008271679
000330 ec dd 06 be 18 c8 cb bd fb 6c a8 bd ce 30 de 3d
       -0.13170594 -0.09950274 -0.082239114 0.108491525
000340 ba 23 e6 3d ee 8a 2d bd c7 bd 8a bd 5a 0f d6 3d
       0.11237283 -0.04236882 -0.067744784 0.10452147
000350 9c e7 b0 3d 6a 6b b0 bd ee 35 e9 3d cc cb 6e 3d
       0.08637926 -0.086142376 0.113872394 0.058299825
000360 b0 04 64 3c 9e 79 8b bd bc 48 c7 3d c7 e8 ae bd
       0.013917133 -0.06810306 0.0973067 -0.085404925
000370 c0 23 ed bb 51 30 d9 bd 89 e0 14 be bf b2 8e bd
       -0.0072369277 -0.10604919 -0.14538778 -0.06967687
000380 f6 02 59 bd 80 a6 76 3d b8 df b5 3d cb b6 01 be
       -0.05298134 0.06021738 0.088805616 -0.12667386
000390 ae 31 ae 3d 0e 8e db bd af 97 0e 3e 7f d9 c1 bd
       0.085055694 -0.10720454 0.1392505 -0.09465312
0003a0 c4 17 0b 3d b0 d2 3f 3d 9e 9d 07 bd 7d 93 a8 bd
       0.03395821 0.046831787 -0.0331093 -0.08231256
0003b0 0d e5 0d 3e f1 48 17 3e 51 c9 04 3e a2 c7 58 bd
       0.13856907 0.14773919 0.12967421 -0.05292476
0003c0 80 5d 50 3c f2 1b b8 bd 00 c3 0f ba af 37 ec bd
       0.012717605 -0.08989705 -0.00054840744 -0.11534058
0003d0 b8 bf 48 bd 18 d3 65 3d 28 46 bc bd 16 5e b3 bd
       -0.049010962 0.056109518 -0.09193069 -0.0875818
0003e0 1a 8b e0 3d b0 f3 57 bd 14 c3 8e bd f6 a7 8f 3d
       0.109640315 -0.052722633 -0.06970802 0.07014458
0003f0 4a ee e3 bd 0a e6 04 bd 80 d1 02 3b 9a 9d f4 3d
       -0.111294344 -0.032445945 0.0019961298 0.119441226
