Ni_prediction/savemodel/bst_mod_472.pth (torch_old, 533443 bytes, 44 tensors)

price_encoder.attention.weight f4 [1, 121]
7.103468 7.138417 7.0512104 -7.1406016 -6.982665 6.98166 7.098463 -6.9257154
7.0800767 7.0386086 7.04226 7.1177545 -6.9951453 -7.0576286 -7.064164 7.010347
6.9828076 -7.0140543 6.9042044 7.067272 6.9137187 7.0628347 7.1131396 -7.1003294
-7.101702 7.042713 -6.9971385 -7.113215 -7.092249 -7.0189395 7.082116 -7.0403214
7.0555634 7.144558 6.990226 7.047699 -7.1023912 7.1121635 7.072885 -7.10073
7.060977 7.1473923 7.016679 7.10803 7.0142756 7.1100035 7.1096606 7.1095405
7.1432104 7.043707 7.0059147 7.0302143 7.091318 7.0295644 6.9650793 7.067959
7.0905204 -7.135796 -7.0671935 7.1548877 7.002607 -7.1219788 -7.0871215 -6.962188
-7.1383123 7.124935 7.0611424 7.022585 6.9996843 -7.052695 -7.038419 7.070078
7.0847216 6.9978704 -7.004235 6.9810863 -7.0038266 6.052652 7.12473 7.090053
-6.9912753 -7.0005174 7.0693 7.032229 7.13238 -7.143197 -6.977167 -7.1471677
7.116313 7.1126375 7.1441507 7.137411 7.029919 7.121547 -7.0158553 -7.14719
-7.016761 7.0837264 -7.1009393 6.9571285 7.0214224 7.0344267 7.062849 7.1298723
7.1062465 7.012195 6.9802055 7.1090555 7.115417 7.0620008 6.977858 7.066424
6.971391 7.085757 7.13396 6.9791675 7.033525 7.026319 7.1184144 7.078669
7.1095448
00000000: 9c4f e340 e96d e440 84a3 e140 cf7f e4c0
00000010: fe71 dfc0 c269 df40 9c26 e340 769f ddc0
00000020: fd8f e240 483c e140 325a e140 a5c4 e340
00000030: 3bd8 dfc0 18d8 e1c0 a20d e2c0 c354 e040
00000040: 2973 df40 2273 e0c0 3eef dc40 1827 e240
00000050: 2f3d dd40 be02 e240 d79e e340 e635 e3c0
00000060: 2541 e3c0 e85d e140 8fe8 dfc0 759f e3c0
00000070: b4f3 e2c0 279b e0c0 b2a0 e240 504a e1c0
00000080: 2dc7 e140 38a0 e440 eeaf df40 c086 e140
00000090: ca46 e3c0 d896 e340 1355 e240 2e39 e3c0
000000a0: 86f3 e140 70b7 e440 a288 e040 fb74 e340
000000b0: f274 e040 2685 e340 5782 e340 5b81 e340
000000c0: 2e95 e440 0c66 e140 7430 e040 84f7 e040
000000d0: 14ec e240 31f2 e040 eee1 de40 b82c e240
000000e0: 8be5 e240 7158 e4c0 7326 e2c0 d7f4 e440
000000f0: 5b15 e040 40e7 e3c0 b3c9 e2c0 3eca dec0
00000100: 0e6d e4c0 78ff e340 e1f4 e140 04b9 e040
00000110: 6afd df40 adaf e1c0 ba3a e1c0 143e e240
00000120: 0ab6 e240 8eee df40 b122 e0c0 0f65 df40
00000130: 591f e0c0 53af c140 cafd e340 b7e1 e240
00000140: 87b8 dfc0 3d04 e0c0 b537 e240 0508 e140
00000150: 753c e440 1295 e4c0 f444 dfc0 99b5 e4c0
00000160: d6b8 e340 ba9a e340 e29c e440 ac65 e440
00000170: 19f5 e040 b7e3 e340 e381 e0c0 c8b5 e4c0
00000180: 4e89 e0c0 e3ad e240 e53a e3c0 cca0 de40
00000190: 7eaf e040 061a e140 dc02 e240 ea27 e440
000001a0: 5f66 e340 e763 e040 d85d df40 627d e340
000001b0: 7fb1 e340 e9fb e140 9d4a df40 2520 e240
000001c0: a315 df40 85be e240 6649 e440 5755 df40
000001d0: a312 e140 9bd7 e040 0dca e340 7584 e240
000001e0: 6481 e340

price_encoder.encoder.weight_ih_l0 f4 [180, 45]
-0.10081503 -0.11793174 0.032030195 0.08252931 -0.05553808 0.10434081 0.0786314 -0.12203796
-0.10363906 -0.011906922 -0.11033716 -0.057845883 -0.026593558 0.030670568 -0.12094639 0.015055522
0.050929055 -0.08312994 0.09051782 0.11508541 0.10831762 0.06857805 -0.10665883 -6.9554405
-0.14499222 -0.14838655 -0.12169918 0.12855284 0.13309984 0.036279887 -0.13216035 -0.007720217
0.1171736 6.8106112 7.015562 7.0329237 7.0494676 7.0540476 -0.49695885 7.001231
7.210151 7.1388593 6.998894 0.024258867 -0.12438552 -0.12497548 0.069965445 0.11047214
0.0448556 0.09187691 0.124519855 -0.06898337 0.086265646 0.06139378 0.03135532 0.091763556
-0.02062574 0.06786533 0.12960862 0.012076467 -0.14174514 -0.13400184 0.004851505 -0.0328466
0.10483132 2.7352145 0.05549748 -0.035144307 6.921827 -0.12055867 -0.14411847 0.12071128
-0.04557728 -0.14221719 -0.0031163245 -0.043618716 0.1389936 -0.09410692 6.9786825 6.9360523
7.037286 6.9909177 7.1949677 -0.1321793 7.0010777 6.967312 6.98162 7.142394
0.040094435 0.04406303 0.10557571 -0.0067738686 -0.11744662 -0.10958096 0.028270796 0.050522678
0.06523922 0.06659078 -0.02727618 -0.083775625 -0.13097677 0.019675344 -0.04967653 -0.101086855
0.0057055205 0.016693756 0.09478618 -0.09748939 0.014427438 -0.07880095 2.4414494 0.0045746113
-0.050985597 7.0196476 -0.05385317 0.040727615 -0.044189923 0.011743655 -0.10104981 0.14104538
-0.10903217 0.14078091 -0.13879293 7.1706276 6.9349384 7.033316 7.098983 7.1510987
-6.966336 7.020399 7.139313 6.940449 7.010085 0.05854948 -0.0628588 0.097312465
-0.05437591 -0.12997267 -0.021355752 -0.039175212 0.11592232 0.120828584 0.09469839 -0.004336313
0.07895869 0.112611786 0.11571257 0.098501086 -6.9285364 0.035623893 0.06157522 -0.036585532
-0.009238392 2.8974533 0.043532632 -0.36294267 -0.017405871 0.056735825 -7.0585546 0.048548266
0.14540882 -0.06431627 -0.08895911 -7.086183 0.08551687 0.09739812 -5.875704 -0.090427786
-7.1620045 -7.1409364 -6.974002 -6.9902115 -7.134663 -0.0971231 -6.9969816 -7.065612
-6.974271 -6.9824553 0.078700915 0.03697005 -0.08606406 -0.021043167 0.08415489 0.13774158
0.086464375 0.14365856 -0.13798758 -0.14354962 -0.08814454 -0.05214633 0.05319175 -0.14534812
-0.10576667 -0.0815159 -0.0072434545 0.08716659 -0.03337206 -0.090265244 0.03837815 -0.08751649
-0.13216901 0.085569546 0.04097579 -7.03475 0.10023822 0.14138605 0.07517514 0.02732578
0.12808414 0.12216337 0.05401829 -0.017108917 -0.10490509 -6.9172945 -7.161458 -7.1931252
-7.0043883 -7.069136 -0.005410418 -7.044926 -6.952841 -6.9167166 -7.1288605 -0.0796645
-0.011409387 -0.016924126 0.06550309 0.014936879 -0.03827378 0.12666835 0.14669965 -0.001549261
0.14879559 0.06344125 0.11312817 -0.13156295 0.09171176 -0.09136476 6.979219 0.008749828
0.001897186 0.03890367 0.02564998 -0.10336681 0.07761222 -0.116879374 -0.077502154 -0.0005399174
-7.213673 0.027119339 -0.09090344 0.118399784 -0.03892406 7.0698667 0.06411568 0.13539745
00000000: 1c78 cebd 3286 f1bd 1832 033d 2005 a93d
00000010: e67b 63bd a2b0 d53d 8009 a13d 0aef f9bd
00000020: b740 d4bd 4015 43bc 73f8 e1bd ceef 6cbd
00000030: bcda d9bc d840 fb3c beb2 f7bd 70ab 763c
00000040: fc9a 503d 0840 aabd 6861 b93d e6b1 eb3d
00000050: a1d5 dd3d a672 8c3d f26f dabd f892 dec0
00000060: d778 14be a5f2 17be 6b3d f9bd 5ba3 033e
00000070: 534b 083e 389a 143d 0b55 07be e0f9 fcbb
00000080: b6f8 ef3d 87f0 d940 7c7f e040 b60d e140
00000090: 3d95 e140 c2ba e140 6471 febe 160a e040
000000a0: 8fb9 e640 8971 e440 f1f6 df40 88ba c63c
000000b0: d6bd febd 25f3 ffbd 0b4a 8f3d 383f e23d
000000c0: 81ba 373d f629 bc3d 4404 ff3d 2747 8dbd
000000d0: 0bac b03d 0b78 7b3d 706e 003d 88ee bb3d
000000e0: 50f7 a8bc fafc 8a3d 1fb8 043e 60dc 453c
000000f0: a325 11be c737 09be 60f9 9e3b 288a 06bd
00000100: ceb1 d63d c10d 2f40 5351 633d 7af3 0fbd
00000110: 9b7f dd40 77e7 f6bd cb93 13be 7a37 f73d
00000120: 3eaf 3abd 62a1 11be 403b 4cbb 8aa9 32bd
00000130: 5754 0e3e 21bb c0bd 5e51 df40 24f4 dd40
00000140: 7231 e140 99b5 df40 2d3d e640 035a 07be
00000150: d408 e040 38f4 de40 6e69 df40 7e8e e440
00000160: 103a 243d 707b 343d 1438 d83d 54f7 ddbb
00000170: da87 f0bd fb6b e0bd 2898 e73c def0 4e3d
00000180: 249c 853d bf60 883d 4c72 dfbc 8e92 abbd
00000190: c61e 06be 302e a13c 9e79 4bbd a006 cfbd
000001a0: 60f5 ba3b 58c1 883c 421f c23d 84a8 c7bd
000001b0: 1061 6c3c 6462 a1bd b540 1c40 9fe6 953b
000001c0: 46d6 50bd f4a0 e040 2495 5cbd 00d2 263d
000001d0: 7e00 35bd 7668 403c 34f3 cebd 336e 103e
000001e0: 424c dfbd df28 103e bc1f 0ebe c875 e540
000001f0: 04eb dd40 ed10 e140 de2a e340 cdd5 e440
00000200: 39ec dec0 1ca7 e040 4175 e440 2918 de40
00000210: 9e52 e040 94d1 6f3d 1dbc 80bd c24b c73d
00000220: 46b9 5ebd 8e17 05be 42f2 aebc 3076 20bd
00000230: ae68 ed3d fa74 f73d 3bf1 c13d a117 8ebb
00000240: 18b5 a13d 02a1 e63d b6fa ec3d f0ba c93d
00000250: 92b6 ddc0 5cea 113d 4c36 7c3d b6da 15bd
00000260: a05c 17bc e06f 3940 464f 323d 9fd3 b9be
00000270: c296 8ebc d363 683d aedf e1c0 8cda 463d
00000280: 0de6 143e 40b8 83bd 3230 b6bd 03c2 e2c0
00000290: 7823 af3d aa78 c73d c405 bcc0 3432 b9bd
000002a0: 242f e5c0 8d82 e4c0 062b dfc0 d0af dfc0
000002b0: 294f e4c0 7ae8 c6bd 46e7 dfc0 7e19 e2c0
000002c0: 3a2d dfc0 4670 dfc0 f22d a13d e86d 173d
000002d0: 5b42 b0bd b862 acbc 6659 ac3d 210c 0d3e
000002e0: 3c14 b13d 3b1b 133e 9e4c 0dbe acfe 12be
000002f0: 2085 b4bd 6497 55bd 98df 593d 23d6 14be
00000300: 329c d8bd cff1 a6bd 805a edbb 6684 b23d
00000310: 24b1 08bd fcdc b8bd 6832 1d3d d83b b3bd
00000320: 5057 07be 163f af3d 3bd6 273d ac1c e1c0
00000330: b249 cd3d 81c7 103e 6cf5 993d 50da df3c
00000340: 7d28 033e ca30 fa3d 4842 5d3d 0028 8cbc
00000350: 7bd8 d6bd 7a5a ddc0 aa2a e5c0 152e e6c0
00000360: f323 e0c0 5d36 e2c0 e049 b1bb 0970 e1c0
00000370: ac7d dec0 be55 ddc0 a01f e4c0 2427 a3bd
00000380: 70ee 3abc 77a4 8abc 7c26 863d d0b9 743c
00000390: f8c4 1cbd 59b5 013e 6f38 163e 9310 cbba
000003a0: df5d 183e 7ced 813d beaf e73d 70b8 06be
000003b0: 60d3 bb3d 731d bbbd c355 df40 705b 0f3c
000003c0: 00ab f83a 7459 1f3d e81f d23c fab1 d3bd
000003d0: 28f3 9e3d 745e efbd 73b9 9ebd 3e89 0dba
000003e0: 69d6 e6c0 6029 de3c 952b babd 967b f23d
000003f0: d66e 1fbd 593c e240 154f 833d a1a5 0a3e

price_encoder.encoder.weight_hh_l0 f4 [180, 45]
7.1785693 7.0884924 6.951348 -6.95246 7.0560985 7.000776 7.0453877 -7.1816974
-7.048331 -6.9931893 -7.154646 7.130246 -7.003372 -7.065942 6.985559 -7.1977
6.9720583 -7.097913 6.924643 -7.189475 6.927225 7.043844 6.9432015 6.9812665
-7.036483 -6.9184146 -6.952889 7.007186 -6.9242334 -7.008929 6.9684606 -7.0767717
7.046552 7.075424 7.049589 -6.9220405 -7.0211062 7.103726 6.981846 7.2136507
7.1619916 6.9997687 -7.1055284 7.195263 -7.1575413 -7.1817985 -7.1207643 -7.0632477
7.1113205 -6.9769435 -7.1554465 -6.9570704 -7.143998 7.010599 -7.1261 6.9858837
-7.2085276 6.9342365 7.0056925 -7.0739923 7.1829824 -7.0123835 6.930886 -6.978106
7.064428 6.972724 -7.150757 -6.972186 -7.084591 7.187427 7.1307178 6.9788723
-7.0194993 6.9243927 7.107693 -7.1950545 7.1172495 -7.0821066 -7.1171765 -6.969706
6.945131 7.044879 -7.152108 -6.9459023 -7.1427274 -7.064997 -7.026107 7.1193986
-6.9765787 6.9830203 -6.998376 -7.1259017 -7.1901317 7.081925 -6.950032 -7.0832195
-6.930105 -7.016846 7.0974164 -7.0331497 7.203672 -7.024027 7.180503 7.117094
-6.958313 6.943692 -7.149282 7.1770415 -7.2084813 -7.114642 6.9661293 -7.0022693
-7.1292453 -7.1005306 7.0071073 7.0735455 7.022664 -7.1670694 6.951829 7.2068906
-7.0039454 6.9823275 -6.936111 -7.096698 -7.1271195 7.136091 6.9710894 -6.9235544
-6.9690495 -6.956187 -6.9304895 -7.0384884 7.0599046 -7.0254407 7.1059213 7.1624303
7.0243354 7.133227 -7.0987144 7.1115217 6.955306 6.9924145 6.960686 -7.0130506
7.1452436 -6.973959 6.9663835 7.107259 -7.013381 7.1432476 -7.0725026 6.956714
-7.0668464 7.091833 7.103713 -7.057807 6.9960093 7.157011 7.092664 -6.9295716
-7.0267253 7.0405927 6.9745154 -7.195661 -7.1871285 7.1418037 -7.0132017 6.9865465
7.1965995 7.209718 -7.1736755 -6.9747667 7.0824294 6.9944572 7.000061 7.147354
6.955897 -7.202276 6.9673605 -7.065128 6.9332485 6.9974813 7.1924033 -7.1358485
6.9224553 6.984648 7.2114973 7.172705 -7.164625 7.135904 -7.0945983 7.061042
-7.097134 -6.9696865 6.9423013 -6.960513 7.036014 -6.951665 6.957404 7.148964
-6.9335885 6.931306 7.032737 7.1975093 -7.042028 -7.0093083 7.103521 7.127257
-7.0274596 -6.9345665 6.980733 -7.1790195 7.0846047 7.208425 7.171023 -6.9663377
-7.0435295 6.9588675 7.15013 7.1095285 7.013943 7.12899 -7.0420284 6.9535513
-6.9427323 7.0149755 7.1039214 7.147754 -7.185249 7.1560793 6.9458213 7.0063615
7.1803846 -7.0185094 7.209259 -7.032743 6.9647846 -6.9273405 -7.029289 7.014524
-7.106506 7.180852 -7.1707544 7.091432 7.184511 -6.968707 7.0163517 6.9357414
6.926863 -7.073036 -7.0907364 6.9169774 7.1797237 -6.9874635 -7.1930966 7.047632
00000000: d7b6 e540 eed4 e240 7171 de40 8d7a dec0
00000010: 8fcb e140 5b06 e040 d173 e140 77d0 e5c0
00000020: ed8b e1c0 35c8 dfc0 dcf2 e4c0 fa2a e440
00000030: a01b e0c0 321c e2c0 b389 df40 8f53 e6c0
00000040: 1a1b df40 1a22 e3c0 ad96 dd40 2e10 e6c0
00000050: d4ab dd40 2c67 e140 b52e de40 8966 df40
00000060: de2a e1c0 a763 ddc0 117e dec0 de3a e040
00000070: 5293 ddc0 2549 e0c0 a1fd de40 ea74 e2c0
00000080: 5b7d e140 e069 e240 3c96 e140 5b81 ddc0
00000090: e7ac e0c0 b951 e340 486b df40 3ad6 e640
000000a0: 092f e540 1bfe df40 7d60 e3c0 983f e640
000000b0: 940a e5c0 4bd1 e5c0 4ddd e3c0 2006 e2c0
000000c0: f08f e340 1f43 dfc0 6bf9 e4c0 52a0 dec0
000000d0: a29b e4c0 d456 e040 0309 e4c0 5c8c df40
000000e0: 42ac e6c0 44e5 dd40 a22e e040 255e e2c0
000000f0: feda e540 7265 e0c0 d1c9 dd40 a54c dfc0
00000100: cb0f e240 8e20 df40 00d3 e4c0 261c dfc0
00000110: f8b4 e2c0 67ff e540 d72e e440 ec52 df40
00000120: bd9f e0c0 a094 dd40 3972 e340 e33d e6c0
00000130: 82c0 e340 9ea0 e2c0 e9bf e3c0 d507 dfc0
00000140: 833e de40 a66f e140 12de e4c0 d544 dec0
00000150: 3991 e4c0 7514 e2c0 ded5 e0c0 1dd2 e340
00000160: 2240 dfc0 e774 df40 b2f2 dfc0 6307 e4c0
00000170: 8f15 e6c0 219f e240 aa66 dec0 bca9 e2c0
00000180: 6cc3 ddc0 018a e0c0 091e e340 900f e1c0
00000190: 7b84 e640 d4c4 e0c0 aec6 e540 3cbf e340
000001a0: 80aa dec0 ba32 de40 ebc6 e4c0 53aa e540
000001b0: e1ab e6c0 26ab e3c0 88ea de40 9712 e0c0
000001c0: c722 e4c0 8c37 e3c0 393a e040 7c5a e240
000001d0: aab9 e040 a258 e5c0 6275 de40 d99e e640
000001e0: 5220 e0c0 3a6f df40 9ff4 ddc0 2618 e3c0
000001f0: 5d11 e4c0 dc5a e440 2a13 df40 c28d ddc0
00000200: 7402 dfc0 1599 dec0 92c6 ddc0 4c3b e1c0
00000210: bdea e140 69d0 e0c0 b563 e340 a132 e540
00000220: 5bc7 e040 6543 e440 ab28 e3c0 9691 e340
00000230: de91 de40 dcc1 df40 f1bd de40 e96a e0c0
00000240: d6a5 e440 ac2a dfc0 9dec de40 aa6e e340
00000250: 9e6d e0c0 7c95 e440 f151 e2c0 679d de40
00000260: 9b23 e2c0 4cf0 e240 9e51 e340 8ed9 e1c0
00000270: 4fdf df40 3c06 e540 1af7 e240 0dbf ddc0
00000280: efda e0c0 894c e140 3b2f df40 db42 e6c0
00000290: f5fc e5c0 a889 e440 266c e0c0 ca91 df40
000002a0: 8b4a e640 03b6 e640 c08e e5c0 4a31 dfc0
000002b0: 43a3 e240 98d2 df40 8000 e040 20b7 e440
000002c0: b596 de40 0c79 e6c0 9ef4 de40 8715 e2c0
000002d0: 2cdd dd40 5eeb df40 2b28 e640 df58 e4c0
000002e0: c184 dd40 3d82 df40 96c4 e640 cd86 e540
000002f0: 9c44 e5c0 5359 e440 f306 e3c0 0ef4 e140
00000300: b91b e3c0 ac07 dfc0 5527 de40 86bc dec0
00000310: 0727 e140 0a74 dec0 0ea3 de40 50c4 e440
00000320: f5df ddc0 42cd dd40 2e0c e140 ff51 e640
00000330: 4b58 e1c0 414c e0c0 0b50 e340 7d12 e440
00000340: f3e0 e0c0 f8e7 ddc0 2a62 df40 87ba e5c0
00000350: 15b5 e240 6bab e640 0579 e540 3dec dec0
00000360: 9864 e1c0 0baf de40 ddcd e440 4281 e340
00000370: 3972 e040 b020 e440 4c58 e1c0 7e83 de40
00000380: dd2a dec0 ae7a e040 5353 e340 67ba e440
00000390: 8fed e5c0 9afe e440 2b44 de40 1d34 e040
000003a0: b6c5 e540 a197 e0c0 40b2 e640 3b0c e1c0
000003b0: 84df de40 c6ac ddc0 efef e0c0 fb76 e040
000003c0: 7f68 e3c0 8ac9 e540 d276 e5c0 03ed e240
000003d0: 84e7 e540 a6ff dec0 f485 e040 98f1 dd40
000003e0: dda8 dd40 5056 e2c0 50e7 e2c0 e157 dd40
000003f0: 4cc0 e540 4d99 dfc0 d92d e6c0 3486 e140

price_encoder.encoder.bias_ih_l0 f4 [180]
-7.119673 7.188822 7.026688 -6.9903297 -7.171873 -7.019384 7.1484447 -7.034443
7.1613894 -7.1350837 -7.003511 -7.0888205 -7.198785 7.074083 6.992069 7.190941
-7.1343093 6.970889 -7.150417 -7.2067738 -7.099074 -6.9204264 -7.070671 7.036761
-7.1370015 -7.076018 -6.968112 7.038622 -7.112118 7.031555 6.9698424 -7.2030163
7.183589 -7.135665 -6.9834385 7.0245705 -7.020083 -7.214635 -6.9300814 7.1174703
6.977316 6.8672347 -7.18291 7.023178 7.040504 -6.9548798 7.1974244 7.0273275
-7.1480236 -6.996555 -7.187028 7.1692777 -7.0800467 7.0960517 6.9673576 -7.1808643
-6.971363 -7.0024877 7.086984 6.996119 7.0560327 -7.064778 7.14404 7.048435
-7.1554317 -7.1104755 -7.054962 -6.9577994 6.9920053 -7.124915 -6.924291 -6.938465
7.0891323 -7.154977 7.036425 6.9274497 -7.081762 6.9686756 -7.0827403 -7.1282854
7.0209293 -7.1601033 -7.146069 -7.00499 7.124141 7.091822 -7.039922 -7.0165896
7.093971 7.091062 6.9258175 -7.1542897 -6.993007 -7.2131557 6.9323864 7.080942
-7.1200056 7.0425763 6.9941807 -6.9542937 -6.9220853 7.103249 7.0431104 6.983859
-7.127986 6.9811516 7.127828 7.1765957 6.99703 7.1481605 -7.1792884 6.9656453
7.100556 -6.9626904 -6.927545 -7.0061207 7.2104096 -6.921169 -6.9481063 7.1548395
-7.05508 -7.1276603 -7.143165 7.001102 7.168084 7.026938 -7.171696 7.1088195
7.0157895 -7.0410285 -7.1308866 7.1731734 -7.0612993 -7.064432 7.1387014 -6.9780254
7.0858436 6.937914 -7.1363173 -7.202968 -7.202241 6.9515862 -7.053628 7.1851664
-6.9625273 -7.205542 -6.9473853 -7.0401692 7.147717 7.1082587 6.955768 -6.9322615
7.1910768 -7.1392407 -7.1394777 -7.1545362 -6.987908 -7.170525 7.012964 -7.1123443
-7.0257964 -6.967458 7.044252 -6.939407 6.9652905 7.0196233 -7.0578938 6.953478
-6.9267364 -6.937556 7.185642 -7.1533012 -6.9745226 -7.0679173 6.992312 6.9840713
-7.1428113 -7.0906897 7.044242 7.2085724
00000000: 5cd4 e3c0 d40a e640 a1da e040 c8b0 dfc0
00000010: fc7f e5c0 cb9e e0c0 0fc0 e440 281a e1c0
00000020: 1a2a e540 9b52 e4c0 c31c e0c0 9ed7 e2c0
00000030: 725c e6c0 e35e e240 07bf df40 301c e640
00000040: 434c e4c0 8611 df40 37d0 e4c0 e49d e6c0
00000050: 9d2b e3c0 2274 ddc0 f042 e2c0 252d e140
00000060: 5162 e4c0 bd6e e2c0 c6fa dec0 643c e140
00000070: 7896 e3c0 8002 e140 f308 df40 1c7f e6c0
00000080: f6df e540 5e57 e4c0 5478 dfc0 48c9 e040
00000090: 85a4 e0c0 4ade e6c0 3ac3 ddc0 51c2 e340
000000a0: 2c46 df40 63c0 db40 66da e5c0 e0bd e040
000000b0: cf4b e140 608e dec0 4d51 e640 dedf e040
000000c0: 9cbc e4c0 c7e3 dfc0 22fc e5c0 b96a e540
000000d0: be8f e2c0 db12 e340 98f4 de40 a4c9 e5c0
000000e0: 6815 dfc0 6114 e0c0 93c8 e240 35e0 df40
000000f0: 05cb e140 a912 e2c0 fa9b e440 c88c e140
00000100: 4cf9 e4c0 0489 e3c0 40c2 e1c0 4ba6 dec0
00000110: 82be df40 4eff e3c0 cb93 ddc0 e807 dec0
00000120: 2cda e240 92f5 e4c0 652a e140 abad dd40
00000130: cb9d e2c0 64ff de40 cfa5 e2c0 ea1a e4c0
00000140: 74ab e040 911f e5c0 99ac e4c0 e128 e0c0
00000150: f7f8 e340 35f0 e240 0b47 e1c0 e787 e0c0
00000160: cf01 e340 fbe9 e240 4ca0 dd40 f1ef e4c0
00000170: b7c6 dfc0 2cd2 e6c0 1cd6 dd40 1497 e240
00000180: 16d7 e3c0 c95c e140 54d0 df40 9389 dec0
00000190: b981 ddc0 d14d e340 2961 e140 c67b df40
000001a0: 7618 e4c0 9865 df40 2b17 e440 aca6 e540
000001b0: abe7 df40 bbbd e440 bbbc e5c0 91e6 de40
000001c0: c137 e340 5cce dec0 73ae ddc0 2432 e0c0
000001d0: adbb e640 377a ddc0 e356 dec0 72f4 e440
000001e0: 37c3 e1c0 cb15 e4c0 cf94 e4c0 0709 e040
000001f0: f260 e540 addc e040 897e e5c0 737b e340
00000200: 5981 e040 1b50 e1c0 3930 e4c0 a38a e540
00000210: 2af6 e1c0 d40f e2c0 3e70 e440 fc4b dfc0
00000220: 3bbf e240 6403 de40 b65c e4c0 b77e e6c0
00000230: c278 e6c0 6573 de40 52b7 e1c0 e2ec e540
00000240: 06cd dec0 cd93 e6c0 fb50 dec0 1149 e1c0
00000250: 19ba e440 db76 e340 a795 de40 16d5 ddc0
00000260: 4d1d e640 a974 e4c0 9a76 e4c0 f6f1 e4c0
00000270: f19c dfc0 f174 e5c0 336a e040 5398 e3c0
00000280: 53d3 e0c0 6af5 dec0 836a e140 9f0f dec0
00000290: a9e3 de40 c1a0 e040 44da e1c0 e482 de40
000002a0: d3a7 ddc0 7500 dec0 c7f0 e540 d8e7 e4c0
000002b0: 4a2f dfc0 612c e2c0 05c1 df40 837d df40
000002c0: e991 e4c0 eee6 e2c0 6e6a e140 a0ac e640

price_encoder.encoder.bias_hh_l0 f4 [180]
-6.973095 7.207527 7.1822286 -6.942389 -7.1369896 -7.043738 6.929353 -7.188012
7.036332 -7.0009446 -7.0180116 -6.9483294 -7.0332947 7.014026 7.14527 6.951603
-7.1640563 6.99042 -7.122686 -6.939644 -7.1537213 -7.095106 -7.037041 7.0487585
-7.1052246 -7.0819125 -7.061104 6.934494 -7.039708 7.089902 6.994335 -7.186905
7.17258 -7.0536947 -7.150614 7.0863166 -6.9181614 -7.0461493 -7.0087624 7.1267624
6.9576044 6.9126964 -7.0933647 6.936182 6.9233613 -7.144747 6.92139 6.937443
-7.076716 -7.1065574 -7.0850787 7.095961 -7.0351005 7.0178695 6.954153 -7.0652323
-7.0987377 -7.0827217 7.08248 7.1706157 6.97161 -7.0297194 7.0609016 7.15797
-7.03563 -7.183659 -7.115741 -7.0989594 6.9910727 -7.1083035 -6.9914823 -7.2107506
6.9256544 -6.985304 7.10589 7.154489 -7.0403934 6.9446735 -7.0246997 -6.931571
6.956361 -7.139971 -7.086928 -7.0464864 7.187122 7.1207595 -7.1455183 -7.1463165
7.0143375 7.169514 7.0939302 -7.1856923 -7.13921 -6.949893 7.091098 7.1834946
-7.0454016 7.11572 7.1378307 -7.142197 -7.1558356 6.969541 7.0467257 7.0819206
-7.0512676 6.9588704 6.956006 7.164859 6.9228797 7.106833 -7.0367537 7.056908
7.002499 -6.994114 -7.144543 -6.984622 6.9529853 -7.0959387 -7.0522075 7.1356344
-6.950521 -6.93636 -7.0246444 7.003141 6.965413 7.0729375 -7.077038 6.9391675
6.9297004 -7.0888286 -7.028725 7.142054 -7.073942 -7.1692843 7.1469135 -7.2027645
7.144913 7.178076 -7.2075367 -6.9919915 -6.998888 6.9802766 -6.9386187 7.1438355
-7.2017756 -7.103683 -7.0160146 -7.192674 6.9371667 7.041255 6.949694 -7.0371957
6.9867263 -7.1102796 -6.949912 -6.9436913 -6.950805 -7.02008 7.201021 -6.93695
-7.1518044 -7.024465 7.044329 -7.1601205 7.00359 7.036711 -7.171151 7.0675755
-7.1366224 -7.1869106 7.0152497 -6.9646654 -7.1958113 -7.193963 7.125834 6.989346
-7.1115994 -7.144146 7.1400456 7.0807314
00000000: 9823 dfc0 10a4 e640 d1d4 e540 0d28 dec0
00000010: 3862 e4c0 4d66 e1c0 43bd dd40 3204 e6c0
00000020: a229 e140 bd07 e0c0 8d93 e0c0 b758 dec0
00000030: c010 e1c0 e772 e040 0da6 e440 8873 de40
00000040: f33f e5c0 85b1 df40 0bed e3c0 9011 dec0
00000050: 49eb e4c0 1c0b e3c0 712f e1c0 6e8f e140
00000060: 005e e3c0 079f e2c0 90f4 e1c0 60e7 dd40
00000070: 4a45 e1c0 7ae0 e240 98d1 df40 20fb e5c0
00000080: c685 e540 deb7 e1c0 d4d1 e4c0 1bc3 e240
00000090: 9461 ddc0 0e7a e1c0 c847 e0c0 700e e440
000000a0: b2a4 de40 cf34 dd40 d8fc e2c0 34f5 dd40
000000b0: 2d8c dd40 c4a1 e4c0 077c dd40 88ff dd40
000000c0: 7574 e2c0 eb68 e3c0 f7b8 e2c0 1d12 e340
000000d0: 8b1f e1c0 6392 e040 6c88 de40 6216 e2c0
000000e0: dc28 e3c0 a8a5 e2c0 ada3 e240 af75 e540
000000f0: 6e17 df40 76f3 e0c0 e8f2 e140 170e e540
00000100: e223 e1c0 89e0 e5c0 26b4 e3c0 ad2a e3c0
00000110: deb6 df40 3977 e3c0 39ba dfc0 78be e6c0
00000120: f69e dd40 9c87 dfc0 7363 e340 93f1 e440
00000130: e74a e1c0 c43a de40 57ca e0c0 6ecf ddc0
00000140: 829a de40 a47a e4c0 1dc8 e2c0 d17c e1c0
00000150: e7fc e540 43dd e340 16a8 e4c0 a0ae e4c0
00000160: 7475 e040 a96c e540 7a01 e340 31f1 e5c0
00000170: 6974 e4c0 8665 dec0 46ea e240 30df e540
00000180: ee73 e1c0 fab3 e340 1c69 e440 e18c e4c0
00000190: 9bfc e4c0 7b06 df40 c77e e140 189f e240
000001a0: fca3 e1c0 11af de40 9a97 de40 8646 e540
000001b0: 3b88 dd40 2d6b e340 162d e1c0 31d2 e140
000001c0: 7914 e040 c8cf dfc0 19a0 e4c0 0682 dfc0
000001d0: db7e de40 ee11 e3c0 afab e1c0 1e57 e440
000001e0: ab6a dec0 a9f6 ddc0 e3c9 e0c0 bb19 e040
000001f0: aae4 de40 8155 e240 1877 e2c0 a90d de40
00000200: 1bc0 dd40 afd7 e2c0 51eb e0c0 b58b e440
00000210: bc5d e2c0 c76a e5c0 84b3 e440 0c7d e6c0
00000220: 21a3 e440 ccb2 e540 24a4 e6c0 65be dfc0
00000230: e4f6 dfc0 6d5e df40 2a09 dec0 4d9a e440
00000240: f274 e6c0 5f51 e3c0 3183 e0c0 632a e6c0
00000250: 45fd dd40 f651 e140 e563 de40 b530 e1c0
00000260: 4393 df40 6987 e3c0 ae65 dec0 b832 dec0
00000270: ff6c dec0 7fa4 e0c0 c46e e640 7ffb ddc0
00000280: 95db e4c0 6bc8 e0c0 256b e140 b51f e5c0
00000290: 691d e040 bd2c e140 127a e5c0 9429 e240
000002a0: 365f e4c0 2cfb e5c0 ed7c e040 8ade dec0
000002b0: 1644 e6c0 f234 e6c0 d506 e440 b9a8 df40
000002c0: 3992 e3c0 d89c e4c0 417b e440 5a95 e240

atten_layer.0.weight f4 [45, 135]
-0.0057471693 0.0064634383 -0.023407012 -0.017246887 0.08354073 0.049593173 -0.047539566 -0.032573927
0.05134674 0.07988199 0.024511985 0.07390807 -0.017657869 0.053518586 -0.0008888021 -0.031687308
-0.02342514 0.027021773 0.044725947 0.0027237982 -0.017312214 -0.030763138 -0.002708882 0.08591122
0.02685593 -0.082645014 -0.01944539 0.03249693 -0.08227926 0.055579253 -0.05724658 -0.07076175
-0.042760298 0.002939351 -0.063155875 -0.0065164343 -0.060818404 -0.011712387 -0.08242071 -0.033076417
-0.0039123744 0.08097095 -0.08558405 -0.008020014 -5.9068203e-05 -0.076280855 -0.04573452 0.041056506
0.057193406 0.06496327 0.07700165 0.08006618 -0.018351048 -0.067524955 -0.07416958 -0.042227663
-0.050607562 0.028454863 -0.044203136 0.066603534 -0.04501019 0.068760835 0.051209517 0.073318355
-0.07228898 0.080668755 -0.0014918223 0.0740126 0.04745216 -0.06300074 -0.07123549 0.085252844
-0.021811709 -0.015380055 -0.0017899722 -0.062062446 -0.013997346 0.041222565 -0.003610663 -0.07971625
0.038701087 0.064699955 -0.034529682 -0.07037624 0.07597815 0.04406161 0.07525534 0.0022079945
-0.04345714 0.075743414 -7.119353 -7.449081 -7.8508787 -7.124836 7.0689535 -7.11943
-7.153068 7.8600216 7.0573235 7.022649 -7.061234 -6.953797 -7.030502 7.1229267
-7.0914006 -6.9751534 -7.033803 7.064591 7.0948677 -6.430777 -7.6249323 7.897419
7.754784 6.466034 -7.158288 6.274526 7.542325 7.06169 -7.8402467 7.850438
7.0609417 -7.128458 7.0218205 -7.0935163 -6.9853683 -6.9917912 7.041759 -7.0404377
7.1623755 7.0516973 -6.4382043 7.595988 -7.9772024 -7.200168 7.7413077 -0.067752436
0.07499079 -0.05124852 -0.06941933 0.02911105 0.0029076785 0.044290595 0.012814164 -0.024552964
0.032376744 -0.0794905 -0.035695862 0.05890321 0.046839796 -0.041876774 0.08246253 0.05467642
0.041765742 -0.061543673 -0.05118418 -0.071765855 -0.05028689 0.03154575 0.06625862 0.072372414
-0.0029624924 0.008894905 -0.0297645 -0.0639475 0.03030461 -0.02498357 -0.03731899 -0.029991284
-0.0677152 -0.051900968 -0.032647245 -0.02142921 -0.020470433 0.079704516 -0.020916536 0.042949177
-0.01658269 0.07789128 -0.022918642 0.051874064 0.06150619 -0.02419725 0.029462881 -0.048130646
-0.03585691 0.048715226 0.045684732 0.017766334 0.07184935 -0.047481988 0.012621321 -0.06888477
-0.08488907 -0.053666174 0.08564996 0.051085763 0.06269915 0.061096407 -0.010972753 0.015200883
-0.024069268 -0.04916307 -0.03534759 -0.05007578 0.040877156 -0.040059984 -0.019390456 0.08252374
0.036294557 0.015384428 -0.01615756 0.06600962 0.0053503737 0.0029198155 -0.045652747 -0.070127316
0.06217409 -0.047747564 -0.07595188 -0.078026906 0.019387327 -0.08312577 -0.07084684 0.021299392
0.04074464 -7.3308845 7.519867 7.6811543 -7.0181932 7.0102887 7.044282 6.996544
-7.2569804 7.207698 7.1245728 -7.0305486 -6.852549 -7.107943 6.99705 -7.1204753
-6.864886 7.076226 7.0551705 7.0311475 -7.4306455 7.3356347 -7.272524 -7.573084
7.5421443 -7.0639586 7.4621487 -7.2923555 7.1404085 7.481545 -7.337304 7.074632
00000000: c052 bcbb 40cb d33b 10c0 bfbc 5849 8dbc
00000010: 6717 ab3d 3622 4b3d d9b8 42bd 3d6c 05bd
00000020: f650 523d 2b99 a33d 5ccd c83c 1d5d 973d
00000030: 3ca7 90bc 4e36 5b3d 80fe 68ba 8dca 01bd
00000040: 14e6 bfbc c45c dd3c 8e32 373d c081 323b
00000050: 58d2 8dbc fa02 fcbc 8087 31bb 39f2 af3d
00000060: f800 dc3c ca41 a9bd f04b 9fbc 801b 053d
00000070: 0782 a8bd 12a7 633d 647b 6abd 89eb 90bd
00000080: 6c25 2fbd 20a2 403b de57 81bd d087 d5bb
00000090: b81c 79bd 50e5 3fbc 30cc a8bd 237b 07bd
000000a0: 6033 80bb 19d4 a53d b146 afbd 6066 03bc
000000b0: 00c0 77b8 2339 9cbd 1f54 3bbd de2a 283d
000000c0: a243 6a3d 770b 853d 0bb3 9d3d bdf9 a33d
000000d0: f054 96bc 864a 8abd 39e6 97bd eaf6 2cbd
000000e0: e049 4fbd 2c1a e93c 590e 35bd 6f67 883d
000000f0: 9b5c 38bd 7bd2 8c3d 12c1 513d ef27 963d
00000100: 3f0c 94bd a935 a53d 4089 c3ba eb93 973d
00000110: 325d 423d 8806 81bd eae3 91bd 0b99 ae3d
00000120: 78ae b2bc a0fc 7bbc 809d eaba 3135 7ebd
00000130: 2055 65bc fed8 283d e0a0 6cbb 4642 a3bd
00000140: 0885 1e3d 6981 843d ff6e 0dbd 6b21 90bd
00000150: 6f9a 9b3d f279 343d 791f 9a3d 00b4 103b
00000160: 1d00 32bd 5d1f 9b3d bdd1 e3c0 df5e eec0
00000170: 663a fbc0 a8fe e3c0 de34 e240 5fd2 e3c0
00000180: efe5 e4c0 4c85 fb40 98d5 e140 8ab9 e040
00000190: a1f5 e1c0 8185 dec0 dff9 e0c0 04ef e340
000001a0: c1ec e2c0 7534 dfc0 ea14 e1c0 2111 e240
000001b0: 2809 e340 edc8 cdc0 72ff f3c0 a8b7 fc40
000001c0: 3127 f840 c0e9 ce40 b210 e5c0 ebc8 c840
000001d0: ba5a f140 5df9 e140 4de3 fac0 ca36 fb40
000001e0: 3cf3 e140 541c e4c0 c1b2 e040 16fe e2c0
000001f0: 2388 dfc0 c1bc dfc0 1756 e140 444b e1c0
00000200: 2e32 e540 81a7 e140 c505 cec0 5512 f340
00000210: 3e45 ffc0 c767 e6c0 cbb8 f740 cac1 8abd
00000220: c594 993d f8e9 51bd b92b 8ebd 4c7a ee3c
00000230: c08e 3e3b 0e6a 353d 80f2 513c 4c23 c9bc
00000240: 7a9d 043d eacb a2bd d335 12bd 7e44 713d
00000250: 16db 3f3d fb86 2bbd 1de2 a83d 62f4 5f3d
00000260: 8e12 2b3d 3815 7cbd 81a6 51bd faf9 92bd
00000270: a0f9 4dbd 1e36 013d 99b2 873d fd37 943d
00000280: 6026 42bb f0bb 113c aed4 f3bc e8f6 82bd
00000290: 6041 f83c 58aa ccbc ccdb 18bd 48b0 f5bc
000002a0: 44ae 8abd 1c96 54bd 1eb9 05bd 508c afbc
000002b0: 9cb1 a7bc 1f3c a33d 2859 abbc 7aeb 2f3d
000002c0: 6cd8 87bc 7785 9f3d e0bf bbbc e679 543d
000002d0: eaed 7b3d 5039 c6bc 245c f13c a424 45bd
000002e0: b2de 12bd 9e89 473d ea1f 3b3d b48a 913c
000002f0: c125 933d 797c 42bd a8c9 4e3c 7513 8dbd
00000300: 52da adbd 10d1 5bbd 3f69 af3d 4e3f 513d
00000310: 6968 803d 3a40 7a3d 10c7 33bc 200d 793c
00000320: ea2c c5bc 375f 49bd a2c8 10bd 431c 4dbd
00000330: ce6e 273d f015 24bd bcd8 9ebc 3502 a93d
00000340: 9aa9 143d f80e 7c3c dc5c 84bc 0d30 873d
00000350: 3052 af3b 605a 3f3b 60fe 3abd e99e 8fbd
00000360: 42aa 7e3d f392 43bd a98c 9bbd 92cc 9fbd
00000370: 2cd2 9e3c d83d aabd 2618 91bd 107c ae3c
00000380: dae3 263d 9b96 eac0 c0a2 f040 04cc f540
00000390: 0a95 e0c0 4954 e040 c26a e140 b0e3 df40
000003a0: 2f39 e8c0 76a5 e640 80fc e340 41fa e0c0
000003b0: 1548 dbc0 4574 e3c0 d5e7 df40 efda e3c0
000003c0: 25ad dbc0 7270 e240 f5c3 e140 29ff e040
000003d0: d9c7 edc0 85bd ea40 84b8 e8c0 b456 f2c0
000003e0: 3f59 f140 f30b e2c0 ecc9 ee40 fa5a e9c0
000003f0: 3a7e e440 d168 ef40 32cb eac0 6363 e240

atten_layer.0.bias f4 [45]
6.737594 7.141724 6.905388 -7.0605536 -7.0144067 -7.099036 -7.170531 7.018496
-7.0783753 7.0476894 -6.952094 -7.1174216 7.0995646 -6.981225 -6.9048114 7.1268983
-6.9637184 -7.1389165 -6.919343 -6.9711866 -7.1018243 7.1869087 6.9923444 7.1034546
-7.184312 -7.114109 -7.0624256 -7.0680194 -6.95089 -7.209061 7.000012 7.091013
7.089937 7.093028 -7.0058584 -7.162107 7.116606 7.0054893 -7.189377 7.0063896
-6.924835 -7.0967155 7.0955048 7.112507 -6.9322934
00000000: 5f9a d740 0189 e440 f0f8 dc40 0ef0 e1c0
00000010: 0576 e0c0 4e2b e3c0 fd74 e5c0 8597 e040
00000020: 0d82 e2c0 ac86 e140 8e77 dec0 ebc1 e3c0
00000030: a22f e340 3266 dfc0 37f4 dcc0 8d0f e440
00000040: c8d6 dec0 0172 e4c0 426b ddc0 f613 dfc0
00000050: 2542 e3c0 28fb e540 49c1 df40 804f e340
00000060: e2e5 e5c0 c8a6 e3c0 64ff e1c0 372d e2c0
00000070: b16d dec0 a1b0 e6c0 1900 e040 94e9 e240
00000080: c4e0 e240 16fa e240 fe2f e0c0 fb2f e5c0
00000090: 3dbb e340 f82c e040 600f e6c0 5834 e040
000000a0: 4098 ddc0 4b18 e3c0 600e e340 a899 e340
000000b0: 59d5 ddc0

atten_layer.2.weight f4 [1, 45]
5.2472367 -9.026984 6.38511 -5.464672 -5.844673 -5.4250984 -6.180955 -7.9030266
-5.638759 5.7295146 -4.8243985 7.833386 -8.11976 -5.7971287 9.739035 6.318224
8.731513 8.105211 -5.159901 -5.2649856 7.6414256 7.0167246 6.8993654 6.9048696
7.396739 8.5235 -6.6989865 -6.3274436 9.233858 7.344409 6.8423743 -8.382099
6.2896338 -7.2672215 8.236327 -6.484665 -7.6447606 -7.893515 7.818581 -8.4319935
-5.3329887 7.456479 -8.61499 7.0448146 -5.2971454
00000000: 5de9 a740 876e 10c1 d252 cc40 98de aec0
00000010: 9007 bbc0 689a adc0 62ca c5c0 98e5 fcc0
00000020: b770 b4c0 2f58 b740 7961 9ac0 19ab fa40
00000030: 89ea 01c1 1482 b9c0 16d3 1b41 e42e ca40
00000040: 47b4 0b41 f2ae 0141 e91d a5c0 c37a a8c0
00000050: 8f86 f440 0289 e040 9ac7 dc40 b1f4 dc40
00000060: 16b2 ec40 4260 0841 195e d6c0 6b7a cac0
00000070: e2bd 1341 6605 eb40 bbf4 da40 141d 06c1
00000080: ae44 c940 148d e8c0 ffc7 0341 6082 cfc0
00000090: e1a1 f4c0 ad97 fcc0 d131 fa40 72e9 06c1
000000a0: d8a7 aac0 7a9b ee40 00d7 09c1 1f6f e140
000000b0: 3782 a9c0

lstm.weight_ih_l0 f4 [180, 45]
6.8037457 -7.1954618 -7.238145 7.0603046 -7.197505 7.064911 6.9396625 7.206736
-6.888598 7.216315 7.0003004 7.139694 7.067128 7.0447016 -7.1033254 7.220571
-6.999526 -7.2274265 -7.0455513 7.272879 -7.2897935 7.458181 7.2523217 -7.077805
6.441873 -7.3122 7.2821164 -7.080473 -7.353415 7.197633 -7.039724 -7.1870933
-7.0308948 7.1512637 7.189498 -7.193184 -7.082774 7.035785 7.0662026 -7.1747775
-7.087672 7.2777796 -7.303694 -7.173133 7.3300643 7.2188654 -7.392138 -7.2227426
7.1901507 7.134653 7.117323 7.1214795 7.134526 -7.0066833 7.025493 7.0169983
-6.977529 7.0836244 -6.959927 -7.0068755 6.9619184 -7.0838156 -6.9497004 -6.9899726
7.271046 -7.2982965 7.117155 7.4077854 -7.1854014 -5.526847 -7.2567415 7.253772
-6.9377046 -7.325782 7.218483 -7.038177 -7.175329 -7.2223816 7.031098 6.9874434
-7.0816717 -7.087958 7.1158395 7.158727 -6.930774 -7.0896215 7.262581 -7.098554
-6.800608 7.298485 -6.9658995 -7.308615 -7.3029966 7.00007 -7.0917296 7.0532675
-7.088445 7.294179 -7.20151 -7.1475053 7.045907 -5.745846 -7.136654 7.163237
6.981743 6.96745 7.143256 6.9874105 -7.0059495 7.2788796 -7.261585 7.1441946
7.1106253 -7.1713247 -4.5703635 -7.1366606 7.396806 -7.0526204 -7.270606 7.235558
7.211077 6.9488425 -7.097639 7.208722 7.0238714 7.10992 7.2124987 7.1819243
-6.9367514 -7.1051245 7.047902 7.204165 -7.321573 7.024145 7.1224856 7.243611
-7.357602 -7.300254 7.184807 -7.013487 6.9769864 7.2150297 7.389808 -6.996517
-6.9943643 7.1995754 -6.8751264 6.928452 7.146149 7.158585 7.1418767 7.068915
-6.943798 -7.0810976 7.484183 -7.218439 7.1723585 7.383023 -7.4616027 5.547889
-7.3277993 7.3170404 -6.990245 -7.4514217 7.3505993 -7.001455 7.2352214 -6.9785056
6.9737253 7.1215377 -7.1458535 -6.955741 6.919942 -6.997643 -7.011746 7.1247106
7.2252884 -7.189107 7.024504 7.21619 7.0444007 -7.3247523 -7.5320888 6.9971895
6.886965 7.1434717 7.0649247 7.2799425 -7.2033978 -7.1982727 7.023606 -7.1071086
6.9678855 -6.819087 7.2368565 7.160855 7.052335 -7.023275 -6.93765 7.4249015
-7.4921613 7.208147 7.3180857 -7.4549584 6.66506 -7.4952307 7.3892164 -6.9916778
-7.2431183 7.3047366 -7.0649714 7.0711346 -7.1050706 7.174731 7.1851645 -6.995707
-6.986836 7.1420994 -6.918745 -7.132842 -7.1860805 7.421178 -7.2775984 7.2084823
7.248922 7.195668 -7.258745 -7.403473 7.011772 -7.1802597 7.048889 6.937963
7.211134 -7.135296 -7.223976 7.0630336 -6.406307 7.0521283 7.075108 7.1071367
7.1264343 7.0049167 -7.177089 -7.1289124 7.1886797 -7.2838683 7.1291437 7.1816
-7.3189535 -5.2150264 -7.3545613 7.1360316 -7.1963468 -7.3212423 7.405257 -7.112727
00000000: 49b8 d940 3941 e6c0 e29e e7c0 04ee e140
00000010: f651 e6c0 c013 e240 b711 de40 959d e640
00000020: 656f dcc0 0dec e640 7602 e040 6078 e440
00000030: ea25 e240 326e e140 714e e3c0 eb0e e740
00000040: 1efc dfc0 1447 e7c0 2875 e1c0 6dbb e840
00000050: fd45 e9c0 6ba9 ee40 0513 e840 617d e2c0
00000060: d323 ce40 8bfd e9c0 1907 e940 3c93 e2c0
00000070: 2d4f ebc0 0253 e640 6b45 e1c0 abfc e5c0
00000080: 17fd e0c0 27d7 e440 5e10 e640 902e e6c0
00000090: 16a6 e2c0 2725 e140 551e e240 c797 e5c0
000000a0: 36ce e2c0 92e3 e840 dcb7 e9c0 4e8a e5c0
000000b0: e38f ea40 f200 e740 658c ecc0 b520 e7c0
000000c0: b715 e640 144f e440 1cc1 e340 29e3 e340
000000d0: 094e e440 c036 e0c0 d7d0 e040 408b e040
000000e0: eb47 dfc0 0dad e240 b9b7 dec0 5338 e0c0
000000f0: 09c8 de40 9eae e2c0 f263 dec0 dbad dfc0
00000100: 69ac e840 a58b e9c0 bcbf e340 940c ed40
00000110: cfee e5c0 eedb b0c0 3a37 e8c0 e61e e840
00000120: ad01 dec0 ce6c eac0 d0fd e640 bf38 e1c0
00000130: 4c9c e5c0 c01d e7c0 c1fe e040 2399 df40
00000140: 0e9d e2c0 8dd0 e2c0 f5b4 e340 4b14 e540
00000150: e7c8 ddc0 2ede e2c0 1067 e840 5b27 e3c0
00000160: 959e d9c0 308d e940 a6e8 dec0 2de0 e9c0
00000170: 26b2 e9c0 9300 e040 73ef e2c0 5eb4 e140
00000180: 8bd4 e2c0 ea69 e940 c572 e6c0 5db8 e4c0
00000190: 1278 e140 f8dd b7c0 785f e4c0 3d39 e540
000001a0: 706a df40 5af5 de40 8e95 e440 de98 df40
000001b0: bd30 e0c0 95ec e840 e85e e8c0 3e9d e440
000001c0: 3e8a e340 7e7b e5c0 6b40 92c0 865f e4c0
000001d0: a2b2 ec40 11af e1c0 cea8 e8c0 b189 e740
000001e0: 25c1 e640 eb5c de40 dc1f e3c0 daad e640
000001f0: 8ec3 e040 7784 e340 cacc e640 53d2 e540
00000200: def9 ddc0 2e5d e3c0 6a88 e140 8588 e640
00000210: 534a eac0 ccc5 e040 67eb e340 a9cb e740
00000220: 7a71 ebc0 ae9b e9c0 f0e9 e540 7c6e e0c0
00000230: 7943 df40 86e1 e640 4f79 ec40 78e3 dfc0
00000240: d5d1 dfc0 ec62 e640 0901 dcc0 e1b5 dd40
00000250: 41ad e440 2113 e540 418a e440 8d34 e240
00000260: 9833 dec0 5a98 e2c0 6d7e ef40 74fd e6c0
00000270: f683 e540 b941 ec40 73c5 eec0 4f88 b140
00000280: 557d eac0 3225 ea40 16b0 dfc0 0c72 eec0
00000290: 1c38 eb40 eb0b e0c0 ef86 e740 eb4f dfc0
000002a0: c228 df40 a3e3 e340 d5aa e4c0 6e95 dec0
000002b0: 2a70 dd40 b1ec dfc0 3960 e0c0 a1fd e340
000002c0: 9035 e740 2a0d e6c0 bdc8 e040 07eb e640
000002d0: bb6b e140 5f64 eac0 df06 f1c0 fae8 df40
000002e0: 0462 dc40 5297 e440 dd13 e240 4af5 e840
000002f0: 3c82 e6c0 4058 e6c0 61c1 e040 6f6d e3c0
00000300: ebf8 de40 f635 dac0 5494 e740 b925 e540
00000310: baac e140 abbe e0c0 3b01 dec0 cb98 ed40
00000320: c9bf efc0 24a9 e640 c22d ea40 058f eec0
00000330: 2c48 d540 eed8 efc0 7674 ec40 d3bb dfc0
00000340: a0c7 e7c0 67c0 e940 3f14 e2c0 bc46 e240
00000350: bd5c e3c0 6597 e540 deec e540 d5dc dfc0
00000360: 2994 dfc0 148c e440 5c66 ddc0 3e40 e4c0
00000370: 5ff4 e5c0 4a7a ed40 16e2 e8c0 e3ab e640
00000380: 2bf7 e740 ea42 e640 a447 e8c0 40e9 ecc0
00000390: 7060 e040 b0c4 e5c0 8090 e140 cb03 de40
000003a0: 9cc1 e640 5854 e4c0 d02a e7c0 5f04 e240
000003b0: 7800 cdc0 09ab e140 4967 e240 aa6d e340
000003c0: c00b e440 4728 e040 b7aa e5c0 0d20 e4c0
000003d0: aa09 e640 7315 e9c0 f221 e440 abcf e540
000003e0: de34 eac0 7fe1 a6c0 9158 ebc0 5f5a e440
000003f0: 7948 e6c0 9e47 eac0 def7 ec40 769b e3c0

lstm.weight_hh_l0 f4 [180, 45]
-0.014867321 0.14074056 -0.14619909 0.0039958805 -0.14547545 -0.09063757 0.038546592 0.09969355
-0.023795724 0.13270028 0.06762515 -0.13469186 -0.037143886 -0.022625387 -0.02374892 0.06268272
0.12293513 -0.10152106 -0.0827014 -0.08883968 0.02777265 0.0598654 -0.097909704 0.08064288
0.06566842 -0.04410363 -0.0449778 -0.13931228 -0.09516434 0.04265575 0.058356643 0.13141502
-0.03450706 0.10088554 -0.08274862 -0.11912782 -0.12760231 0.098299295 -0.023480996 0.12050964
-0.054430947 0.1485116 0.063046455 -0.06899998 0.08081521 -0.03690487 0.09947714 -0.022204354
0.14779665 0.11124407 -0.13682178 0.033783317 -0.012140945 -0.055161893 0.07627371 -0.027083054
-0.05448115 -0.09968394 -0.117559835 0.08936961 0.09546952 -0.019520804 0.09338948 -0.0637358
0.12147014 -0.034563653 0.06826238 0.023080707 0.14191364 -0.018051133 -0.11892493 -0.096638605
-0.005804509 -0.034435898 -0.095142454 -0.108447716 -0.13449456 -0.038516656 0.09710471 0.021745756
0.0031372905 -0.14779396 0.007391423 -0.14159077 -0.09898092 -0.07148996 -0.131855 -0.016358256
0.07746844 -0.10236682 -0.14720689 -0.113624826 0.013314977 0.14787121 0.118051246 0.13706501
0.0032477528 0.054067597 -0.0418725 -0.11666781 0.03643003 0.07498458 0.11384831 -0.08667922
0.024137154 -0.119497284 -0.13327077 -0.067865536 -0.10592547 -0.11310939 -0.011302188 -0.12692101
-0.117336035 -0.10319294 -0.09130635 0.0097376555 -0.017441347 0.062555626 -0.023460075 0.059009954
-0.034830786 0.075055525 0.06462228 0.11985798 0.028135613 -0.113754585 0.049516097 0.011954188
-0.09218484 0.063888654 0.03498994 -0.021892294 -0.10800128 -0.039368488 -0.08582817 0.018558338
-0.06801207 -0.0070343614 -0.0320557 0.04307255 0.06843281 -0.029100403 0.08869377 -0.12908566
0.14217775 0.14200024 0.1276734 -0.08575924 -0.03896465 0.035853684 -0.12295666 0.10788341
0.0061253905 0.1256599 -0.12499599 -0.04042252 -0.1329954 -0.05419472 0.025040194 -0.0034860373
0.061110884 -0.04859273 -0.04399222 -0.11348195 -0.14420667 0.1264232 -0.10323239 -0.121513315
-0.034901172 -0.013317585 0.028598562 -0.10706173 -0.10987685 -0.12698339 0.078618035 0.06919971
-0.06664324 0.0022816658 -0.027878135 0.03658612 -0.09406766 -0.07725487 -0.029893875 -0.036934264
-0.080235794 -0.11125484 -0.019157901 -0.11808391 -0.030546345 0.12630905 0.04553914 0.013274774
-0.03821981 0.07081805 0.0518983 0.081511125 0.07724336 0.016887113 -0.023129106 -0.12379734
-0.108970866 0.085754916 -0.028334841 0.008271679 -0.13170594 -0.09950274 -0.082239114 0.108491525
0.11237283 -0.04236882 -0.067744784 0.10452147 0.08637926 -0.086142376 0.113872394 0.058299825
0.013917133 -0.06810306 0.0973067 -0.085404925 -0.0072369277 -0.10604919 -0.14538778 -0.06967687
-0.05298134 0.06021738 0.088805616 -0.12667386 0.085055694 -0.10720454 0.1392505 -0.09465312
0.03395821 0.046831787 -0.0331093 -0.08231256 0.13856907 0.14773919 0.12967421 -0.05292476
0.012717605 -0.08989705 -0.00054840744 -0.11534058 -0.049010962 0.056109518 -0.09193069 -0.0875818
0.109640315 -0.052722633 -0.06970802 0.07014458 -0.111294344 -0.032445945 0.0019961298 0.119441226
00000000: 1096 73bc 4b1e 103e 37b5 15be e0ef 823b
00000010: 84f7 14be 31a0 b9bd 08e3 1d3d 222c cc3d
00000020: 40ef c2bc 95e2 073e 0e7f 8a3d aaec 09be
00000030: 3024 18bd e058 b9bc 188d c2bc cc5f 803d
00000040: 6ac5 fb3d 46ea cfbd 5a5f a9bd 94f1 b5bd
00000050: 7883 e33c 6c35 753d e284 c8bd 1828 a53d
00000060: 2a7d 863d 02a6 34bd a43a 38bd e1a7 0ebe
00000070: 86e5 c2bd ccb7 2e3d 6007 6f3d a991 063e
00000080: 4657 0dbd 149d ce3d 1c78 a9bd 49f9 f3bd
00000090: 2eaa 02be 2451 c93d 385b c0bc c2cd f63d
000000a0: fcf2 5ebd 6d13 183e 801e 813d dd4f 8dbd
000000b0: 7282 a53d 9029 17bd acba cb3d e8e5 b5bc
000000c0: 0158 173e eed3 e33d 021b 0cbe 6060 0a3d
000000d0: d0ea 46bc 70f1 61bd 6435 9c3d 48dd ddbc
000000e0: a027 5fbd 1827 ccbd 36c3 f0bd 6a07 b73d
000000f0: 8685 c33d 18ea 9fbc fc42 bf3d ea87 82bd
00000100: 56c5 f83d 9e92 0dbd 26cd 8b3d c013 bd3c
00000110: cf51 113e f8df 93bc ea8e f3bd 76ea c5bd
00000120: c033 bebb a80c 0dbd 0cda c2bd d619 debd
00000130: f1b8 09be a4c3 1dbd d6de c63d 2824 b23c
00000140: 009b 4d3b 4d57 17be c033 f23b 2cfd 10be
00000150: 82b6 cabd 5469 92bd ff04 07be c001 86bc
00000160: c6a7 9e3d b2a5 d1bd 67bd 16be 22b4 e8bd
00000170: 1027 5a3c 8d6b 173e dac4 f13d c55a 0c3e
00000180: 40d8 543b fc75 5d3d 8082 2bbd 88ef eebd
00000190: a837 153d 8491 993d 4e29 e93d e084 b1bd
000001a0: 48bb c53c feba f4bd 2278 08be 16fd 8abd
000001b0: 74ef d8bd e5a5 e7bd d02c 39bc 95f7 01be
000001c0: e04d f0bd d256 d3bd d3fe babd b08a 1f3c
000001d0: 28e1 8ebc 2a1d 803d 582f c0bc 6cb4 713d
000001e0: baaa 0ebd b6b6 993d b058 843d 1a78 f53d
000001f0: a87c e63c 2af8 e8bd 64d1 4a3d 80db 433c
00000200: 68cb bcbd 0ed8 823d 9c51 0f3d 7857 b3bc
00000210: c62f ddbd da40 21bd aec6 afbd a807 983c
00000220: ea49 8bbd 8080 e6bb d64c 03bd d86c 303d
00000230: 8026 8c3d f863 eebc 14a5 b53d 082f 04be
00000240: 0b97 113e 8368 113e d1bc 023e 8aa2 afbd
00000250: 6699 1fbd 50db 123d b4d0 fbbd faf1 dc3d
00000260: 80b7 c83b fdac 003e e6fd ffbd 1692 25bd
00000270: f22f 08be 48fb 5dbd 1821 cd3c 0076 64bb
00000280: 684f 7a3d 2c09 47bd 3031 34bd 3969 e8bd
00000290: eaaa 13be 1575 013e 816b d3bd f9db f8bd
000002a0: 88f4 0ebd 0032 5abc 8847 ea3c 2e43 dbbd
000002b0: 1d07 e1bd ef07 02be 7e02 a13d 94b8 8d3d
000002c0: 407c 88bd 0088 153b b060 e4bc 54db 153d
000002d0: 8ca6 c0bd cd37 9ebd 00e4 f4bc 6248 17bd
000002e0: aa52 a4bd 94d9 e3bd 08f1 9cbc fad5 f1bd
000002f0: 543c fabc 2957 013e 4087 3a3d 707e 593c
00000300: 608c 1cbd 0e09 913d 5093 543d 4eef a63d
00000310: c431 9e3d d856 8a3c 4079 bdbc 7689 fdbd
00000320: 1e2c dfbd 46a0 af3d 781e e8bc f085 073c
00000330: ecdd 06be 18c8 cbbd fb6c a8bd ce30 de3d
00000340: ba23 e63d ee8a 2dbd c7bd 8abd 5a0f d63d
00000350: 9ce7 b03d 6a6b b0bd ee35 e93d cccb 6e3d
00000360: b004 643c 9e79 8bbd bc48 c73d c7e8 aebd
00000370: c023 edbb 5130 d9bd 89e0 14be bfb2 8ebd
00000380: f602 59bd 80a6 763d b8df b53d cbb6 01be
00000390: ae31 ae3d 0e8e dbbd af97 0e3e 7fd9 c1bd
000003a0: c417 0b3d b0d2 3f3d 9e9d 07bd 7d93 a8bd
000003b0: 0de5 0d3e f148 173e 51c9 043e a2c7 58bd
000003c0: 805d 503c f21b b8bd 00c3 0fba af37 ecbd
000003d0: b8bf 48bd 18d3 653d 2846 bcbd 165e b3bd
000003e0: 1a8b e03d b0f3 57bd 14c3 8ebd f6a7 8f3d
000003f0: 4aee e3bd 0ae6 04bd 80d1 023b 9a9d f43d

lstm.bias_ih_l0 f4 [180]
7.777264 7.825921 7.742873 7.8101563 7.8536277 7.7293034 7.8779984 7.863261
7.7101307 7.836739 7.7846646 7.8254156 7.804324 7.8714204 7.877705 7.5978107
7.669449 7.8695574 7.9729643 7.7789598 7.8345284 7.8740444 7.7929945 7.787088
7.715571 7.7581005 7.791269 7.7222767 7.8053885 7.97521 7.963037 7.841043
7.802298 7.770707 8.061431 7.76471 7.8973637 7.6849027 7.9397683 8.040254
7.8480616 7.9468937 8.086483 7.8535995 7.9415026 -0.07716474 0.006778002 -0.0073163062
0.03459029 -0.03833911 0.09310931 0.10118796 0.08893731 -0.04043681 -0.036134563 0.112248465
0.104648754 0.042756766 -0.057789035 -0.11756101 -0.0052877814 -0.004633561 -0.09383619 0.071124166
0.08533898 0.06712267 -0.023024708 -0.08747421 -0.1391812 -0.08888696 -0.08514786 -0.081797056
-0.10284305 -0.072010174 0.14497171 -0.07968405 0.05541095 -0.09463547 0.09533803 -0.1349002
0.044120118 0.14554463 -0.07749106 0.019057497 -0.14334112 -0.060663722 0.111901835 0.09418395
0.05125369 0.08248608 -8.211045 -7.9188457 7.9429474 -8.139877 -8.183996 -7.7908688
-8.186408 -7.8591256 7.8208175 7.7044325 -7.6379547 8.515296 -8.428942 -8.012937
8.169444 7.784118 -7.5720935 7.6534476 8.381746 8.097607 7.652924 -7.7001557
-8.150809 7.6728563 7.9825125 -7.8408175 -7.939 8.120524 7.906453 7.687899
-7.662986 -7.9174423 8.0326 7.750473 -7.6403127 7.868687 7.5892253 7.9633493
-8.122727 8.003962 7.9036283 -7.9669695 -8.304533 -7.773474 -7.8420787 7.9118085
7.8422027 7.976569 7.816354 7.801442 7.841123 7.8079863 7.8570933 7.929296
8.061135 7.9366736 8.07473 7.9437695 7.8778906 8.024062 7.9141455 7.8592186
7.892478 8.05276 7.905768 7.85097 8.021383 7.904165 7.9103127 7.8101063
7.988998 7.898903 7.669076 7.6518936 8.081196 7.9854865 7.786329 7.775104
7.8452477 8.080423 7.8199434 7.9067464 7.908549 7.9616117 7.907448 7.797325
7.9574366 8.118474 7.708664 7.762747
00000000: 59df f840 f26d fa40 9ec5 f740 cdec f940
00000010: eb50 fb40 7456 f740 9018 fc40 d69f fb40
00000020: 64b9 f640 91c6 fa40 f91b f940 ce69 fa40
00000030: 06bd f940 ade2 fb40 2916 fc40 4421 f340
00000040: 206c f540 6ad3 fb40 8622 ff40 3ded f840
00000050: 75b4 fa40 2cf8 fb40 3660 f940 d32f f940
00000060: f5e5 f640 5c42 f840 1352 f940 e41c f740
00000070: bec5 f940 ec34 ff40 33d1 fe40 d3e9 fa40
00000080: 6dac f940 a2a9 f840 9ffb 0041 8178 f840
00000090: 34b7 fc40 b9ea f540 9512 fe40 e1a4 0041
000000a0: 5223 fb40 f44c fe40 3c62 0141 b050 fb40
000000b0: ca20 fe40 8c08 9ebd 001a de3b a0bd efbb
000000c0: 8cae 0d3d 7809 1dbd 18b0 be3d a23b cf3d
000000d0: c424 b63d 12a1 25bd d601 14bd 86e2 e53d
000000e0: 1652 d63d b821 2f3d 32b4 6cbd d4c3 f0bd
000000f0: 2045 adbb 20d5 97bb 302d c0bd 8ca9 913d
00000100: 34c6 ae3d 9c77 893d 509e bcbc ae25 b3bd
00000110: 8485 0ebe 5e0a b6bd 0062 aebd 3785 a7bd
00000120: 619f d2bd 127a 93bd 7773 143e 6431 a3bd
00000130: 98f6 623d 3ed0 c1bd 9640 c33d 4723 0abe
00000140: 4cb7 343d a709 153e a2b3 9ebd 781e 9c3c
00000150: 04c8 12be 867a 78bd ca2c e53d 84e3 c03d
00000160: 64ef 513d 76ee a83d 7160 03c1 2f67 fdc0
00000170: a02c fe40 f03c 02c1 a6f1 02c1 cc4e f9c0
00000180: 87fb 02c1 f57d fbc0 2344 fa40 b68a f640
00000190: 206a f4c0 a73e 0841 f2dc 06c1 fd34 00c1
000001a0: 0bb6 0241 7f17 f940 974e f2c0 0be9 f440
000001b0: a21b 0641 cc8f 0141 c1e4 f440 ad67 f6c0
000001c0: b769 02c1 0a88 f540 be70 ff40 fae7 fac0
000001d0: 4a0c fec0 abed 0141 aa01 fd40 4503 f640
000001e0: 2e37 f5c0 b05b fdc0 8885 0041 e003 f840
000001f0: 717d f4c0 49cc fb40 efda f240 c2d3 fe40
00000200: b1f6 01c1 3a10 0041 86ea fc40 6af1 fec0
00000210: 5edf 04c1 4dc0 f8c0 4ff2 fac0 892d fd40
00000220: 53f3 fa40 0e40 ff40 921f fa40 6aa5 f940
00000230: 7bea fa40 06db f940 4f6d fb40 cbbc fd40
00000240: 69fa 0041 3bf9 fd40 1832 0141 5c33 fe40
00000250: ae17 fc40 8f62 0041 ae40 fd40 b87e fb40
00000260: 2e8f fc40 1bd8 0041 0dfc fc40 253b fb40
00000270: 9657 0041 ebee fc40 4821 fd40 64ec f940
00000280: dfa5 ff40 d0c3 fc40 1269 f540 50dc f440
00000290: 944c 0141 1b89 ff40 9b29 f940 a7cd f840
000002a0: 450c fb40 6a49 0141 fa3c fa40 1104 fd40
000002b0: d512 fd40 86c5 fe40 d009 fd40 b083 f940
000002c0: 52a3 fe40 45e5 0141 60ad f640 6c68 f840
