Ni_prediction/savemodel/bst_mod_443.pth (torch_old, 533443 bytes, 44 tensors)

price_encoder.attention.weight f4 [1, 121]
00000000: cc80 d440 4a9d d540 b4d4 d240 9db4 d5c0
00000010: 5fa1 d0c0 909e d040 cc57 d440 9c1c cfc0
00000020: fcc2 d340 217a d240 628b d240 06f4 d440
00000030: d80e d1c0 e60c d3c0 a140 d3c0 f385 d140
00000040: 8aa2 d040 52a4 d1c0 d64b ce40 8f68 d340
00000050: bc90 ce40 ee33 d340 07d0 d440 b46a d4c0
00000060: 2474 d4c0 188f d240 2c1f d1c0 07cf d4c0
00000070: e424 d4c0 26ce d1c0 c7e5 d340 807b d2c0
00000080: 8ef6 d240 68d1 d540 ede2 d040 8ebb d240
00000090: 987b d4c0 39c6 d440 7484 d340 9a71 d4c0
000000a0: 5428 d340 a0e8 d540 0ec1 d140 5ca4 d440
000000b0: 1dcc d140 87b4 d440 b8b1 d440 8bb2 d440
000000c0: 5ec6 d540 6d95 d240 d55f d140 832a d240
000000d0: 5a2f d440 6c2c d240 291c d040 e85d d340
000000e0: ec14 d440 d287 d5c0 d455 d3c0 3824 d640
000000f0: 5a48 d140 7018 d5c0 e3fa d3c0 e609 d0c0
00000100: 0da0 d5c0 4634 d540 4224 d340 34ea d140
00000110: cd32 d140 dde0 d2c0 1b6a d2c0 e272 d340
00000120: 3ae7 d340 be1f d140 1252 d1c0 0e98 d040
00000130: ba4e d1c0 e631 b340 fa2e d540 b614 d440
00000140: e8e7 d0c0 6d35 d1c0 1667 d340 6637 d240
00000150: d66b d540 42c6 d5c0 c279 d0c0 c9e6 d5c0
00000160: a4ed d440 1bca d440 43cc d540 0d95 d540
00000170: 7a24 d240 1813 d540 44b1 d1c0 29e5 d5c0
00000180: afb8 d1c0 44dd d340 466a d4c0 2dd0 cf40
00000190: dfde d140 6749 d240 3d32 d340 4b57 d540
000001a0: c095 d440 4893 d140 398d d040 c3ac d440
000001b0: e0e0 d440 4a2b d340 fe79 d040 864f d340
000001c0: 0445 d040 e6ed d340 c778 d540 b884 d040
000001d0: 0442 d240 fc06 d240 6ef9 d440 d6b3 d340
000001e0: c5b0 d440
6.6407223 6.6754503 6.5884647 -6.6782975 -6.5196986 6.519356 6.6357174 -6.4722424
6.617552 6.5774083 6.5795145 6.654788 -6.533062 -6.5953245 -6.6016393 6.547601
6.519841 -6.5513086 6.4467573 6.6065135 6.455168 6.600089 6.650394 -6.6380253
-6.6391773 6.5799675 -6.535055 -6.650272 -6.6295033 -6.5564146 6.621799 -6.5775757
6.592597 6.6818123 6.527701 6.585395 -6.640087 6.649197 6.6099186 -6.6388674
6.598673 6.6846466 6.5548162 6.6450634 6.556166 6.647037 6.646694 6.646795
6.6804647 6.5807405 6.5429482 6.5676894 6.63078 6.5679226 6.5034375 6.605213
6.627554 -6.6728296 -6.604227 6.691921 6.540082 -6.659233 -6.624376 -6.5012083
-6.6757874 6.662631 6.598176 6.5598392 6.5374513 -6.589949 -6.5754523 6.607774
6.621976 6.535125 -6.5412683 6.5185614 -6.54086 5.599841 6.6619844 6.627528
-6.528309 -6.5377717 6.6063337 6.5692625 6.6694136 -6.6804514 -6.514863 -6.684422
6.654009 6.649671 6.6811843 6.6744447 6.5669527 6.658581 -6.552889 -6.6842237
-6.5537944 6.62076 -6.637973 6.494162 6.558456 6.5714602 6.5998826 6.666906
6.64328 6.5492287 6.517239 6.646089 6.6524506 6.5990343 6.5148916 6.6034575
6.5084248 6.6227903 6.6709933 6.516201 6.5705585 6.5633526 6.655448 6.6157026
6.6465783

price_encoder.encoder.weight_ih_l0 f4 [180, 45]
00000000: 1c78 cebd 3286 f1bd 1832 033d 2005 a93d
00000010: e67b 63bd a2b0 d53d 8009 a13d 0aef f9bd
00000020: b740 d4bd 4015 43bc 73f8 e1bd ceef 6cbd
00000030: bcda d9bc d840 fb3c beb2 f7bd 70ab 763c
00000040: fc9a 503d 0840 aabd 6861 b93d e6b1 eb3d
00000050: 4d12 dd3d d770 8c3d 9073 dabd 59c2 cfc0
00000060: d778 14be a5f2 17be 6b3d f9bd 5ba3 033e
00000070: 534b 083e 389a 143d 0b55 07be e0f9 fcbb
00000080: b6f8 ef3d ff86 cb40 ddae d140 173d d240
00000090: 9ec4 d240 23ea d240 e411 efbe 7739 d140
000000a0: f0e8 d740 eaa0 d540 5226 d140 88ba c63c
000000b0: d6bd febd e601 00be 3c48 8f3d cb39 e23d
000000c0: 609f 373d f629 bc3d 43af fe3d 3250 8dbd
000000d0: 5796 b03d 250f 7b3d 706e 003d 88ee bb3d
000000e0: 50f7 a8bc fafc 8a3d 1fb8 043e 60dc 453c
000000f0: a325 11be c737 09be 60f9 9e3b 288a 06bd
00000100: a313 d53d 3643 2340 d652 513d 9d0a 2abd
00000110: fcae ce40 77e7 f6bd cb93 13be 7a37 f73d
00000120: 3eaf 3abd 00a5 11be 403b 4cbb 8aa9 32bd
00000130: 5754 0e3e 21bb c0bd 8e82 d040 8523 cf40
00000140: d360 d240 fae4 d040 8e6c d740 035a 07be
00000150: 3538 d140 9923 d040 cf98 d040 dfbd d540
00000160: 103a 243d 707b 343d 6b2b d83d 1316 debb
00000170: 788b f0bd d576 e0bd 2898 e73c 7570 4e3d
00000180: e894 853d 7850 883d 7411 e0bc 8e92 abbd
00000190: c61e 06be 302e a13c 9e79 4bbd a006 cfbd
000001a0: 60f5 ba3b 58c1 883c 421f c23d 84a8 c7bd
000001b0: 1061 6c3c e59e a2bd 4057 1240 90ae a03a
000001c0: e4be 64bd 55d0 d140 2495 5cbd 00d2 263d
000001d0: 7e00 35bd a766 403c a1f8 cebd 336e 103e
000001e0: 424c dfbd df28 103e bc1f 0ebe f8a6 d640
000001f0: 651a cf40 4e40 d240 3f5a d440 2e05 d640
00000200: f263 d0c0 7dd6 d140 a2a4 d540 8a47 cf40
00000210: ff81 d140 94d1 6f3d 1dbc 80bd c24b c73d
00000220: 46b9 5ebd 8e17 05be a4ee aebc 3076 20bd
00000230: 4c6c ed3d fa74 f73d 0af3 c13d 08ee 8dbb
00000240: 18b5 a13d 02a1 e63d b6fa ec3d f0ba c93d
00000250: f3e5 cec0 5cea 113d 4c36 7c3d b6da 15bd
00000260: a05c 17bc 690d 2d40 ae7a 323d 6cef b1be
00000270: 0eb2 8cbc 80c4 693d 0f0f d3c0 8cda 463d
00000280: 0de6 143e 40b8 83bd 3230 b6bd 64f1 d3c0
00000290: 7823 af3d aa78 c73d 1676 afc0 3432 b9bd
000002a0: 2478 d6c0 eeb1 d5c0 675a d0c0 31df d0c0
000002b0: 8a7e d5c0 7ae8 c6bd a716 d1c0 df48 d3c0
000002c0: 9b5c d0c0 a79f d0c0 f22d a13d e86d 173d
000002d0: 8c40 b0bd b862 acbc 6659 ac3d 210c 0d3e
000002e0: 3c14 b13d 0a1d 133e 9e4c 0dbe acfe 12be
000002f0: 8281 b4bd 6497 55bd 98df 593d 23d6 14be
00000300: 329c d8bd cff1 a6bd 805a edbb 6684 b23d
00000310: 24b1 08bd fcdc b8bd 6832 1d3d 8622 b3bd
00000320: 4bc6 eabd 8ac8 af3d 8c69 293d 0d4c d2c0
00000330: b249 cd3d 81c7 103e 6cf5 993d 50da df3c
00000340: 7d28 033e ca30 fa3d 4842 5d3d 0028 8cbc
00000350: 7bd8 d6bd 5ea1 cec0 0b5a d6c0 765d d7c0
00000360: 5453 d1c0 be65 d3c0 e049 b1bb 6a9f d2c0
00000370: 0dad cfc0 1f85 cec0 014f d5c0 2427 a3bd
00000380: 70ee 3abc a8a2 8abc 7c26 863d d0b9 743c
00000390: f8c4 1cbd 59b5 013e 6f38 163e 8807 cbba
000003a0: df5d 183e 7ced 813d beaf e73d 70b8 06be
000003b0: 60d3 bb3d 731d bbbd 2485 d040 705b 0f3c
000003c0: 00ab f83a 7459 1f3d e81f d23c fab1 d3bd
000003d0: 64fa 9e3d 7ab3 e4bd a991 9ebd 8cca e0b9
000003e0: ca05 d8c0 6029 de3c 952b babd 967b f23d
000003f0: d66e 1fbd ba6b d340 a849 833d a1a5 0a3e
-0.10081503 -0.11793174 0.032030195 0.08252931 -0.05553808 0.10434081 0.0786314 -0.12203796
-0.10363906 -0.011906922 -0.11033716 -0.057845883 -0.026593558 0.030670568 -0.12094639 0.015055522
0.050929055 -0.08312994 0.09051782 0.11508541 0.10794506 0.0685746 -0.10666573 -6.492474
-0.14499222 -0.14838655 -0.12169918 0.12855284 0.13309984 0.036279887 -0.13216035 -0.007720217
0.1171736 6.360229 6.5525956 6.5699573 6.586501 6.591081 -0.46693337 6.5382648
6.7471848 6.675893 6.535928 0.024258867 -0.12438552 -0.12500724 0.069961995 0.110461794
0.044829726 0.09187691 0.12435772 -0.06900062 0.08622425 0.06129374 0.03135532 0.091763556
-0.02062574 0.06786533 0.12960862 0.012076467 -0.14174514 -0.13400184 0.004851505 -0.0328466
0.10404136 2.5509772 0.05110439 -0.041514028 6.4588604 -0.12055867 -0.14411847 0.12071128
-0.04557728 -0.14223099 -0.0031163245 -0.043618716 0.1389936 -0.09410692 6.515937 6.473086
6.5743194 6.5279512 6.7320013 -0.1321793 6.538111 6.5043454 6.5186534 6.6794276
0.040094435 0.04406303 0.10555156 -0.006777534 -0.117453516 -0.109601654 0.028270796 0.050400216
0.06522542 0.06655973 -0.027352072 -0.083775625 -0.13097677 0.019675344 -0.04967653 -0.101086855
0.0057055205 0.016693756 0.09478618 -0.09748939 0.014427438 -0.07940463 2.2865753 0.0012259055
-0.05584611 6.556681 -0.05385317 0.040727615 -0.044189923 0.011743224 -0.10106016 0.14104538
-0.10903217 0.14078091 -0.13879293 6.707882 6.471972 6.5703497 6.6360164 6.6881323
-6.5122004 6.5574327 6.676347 6.477483 6.5471187 0.05854948 -0.0628588 0.097312465
-0.05437591 -0.12997267 -0.021354027 -0.039175212 0.115929216 0.120828584 0.09470184 -0.004331354
0.07895869 0.112611786 0.11571257 0.098501086 -6.46557 0.035623893 0.06157522 -0.036585532
-0.009238392 2.7039435 0.043574028 -0.34752977 -0.017174747 0.057072163 -6.595588 0.048548266
0.14540882 -0.06431627 -0.08895911 -6.6232166 0.08551687 0.09739812 -5.483165 -0.090427786
-6.7021656 -6.67797 -6.5110354 -6.527245 -6.6716967 -0.0971231 -6.534015 -6.6026454
-6.5113044 -6.519489 0.078700915 0.03697005 -0.08606061 -0.021043167 0.08415489 0.13774158
0.086464375 0.14366546 -0.13798758 -0.14354962 -0.08813764 -0.05214633 0.05319175 -0.14534812
-0.10576667 -0.0815159 -0.0072434545 0.08716659 -0.03337206 -0.090265244 0.03837815 -0.08746819
-0.11463603 0.08583172 0.041360423 -6.5717835 0.10023822 0.14138605 0.07517514 0.02732578
0.12808414 0.12216337 0.05401829 -0.017108917 -0.10490509 -6.457198 -6.6984916 -6.730159
-6.541422 -6.6061697 -0.005410418 -6.5819597 -6.4898744 -6.45375 -6.665894 -0.0796645
-0.011409387 -0.016923264 0.06550309 0.014936879 -0.03827378 0.12666835 0.14669965 -0.0015489915
0.14879559 0.06344125 0.11312817 -0.13156295 0.09171176 -0.09136476 6.5162525 0.008749828
0.001897186 0.03890367 0.02564998 -0.10336681 0.07762602 -0.11167045 -0.07742626 -0.0004287552
-6.7507067 0.027119339 -0.09090344 0.118399784 -0.03892406 6.6069 0.06410533 0.13539745

price_encoder.encoder.weight_hh_l0 f4 [180, 45]
00000000: 38e6 d640 4f04 d440 d2a0 cf40 eea9 cfc0
00000010: f0fa d240 bc35 d140 32a3 d240 d8ff d6c0
00000020: 4ebb d2c0 96f7 d0c0 3d22 d6c0 5b5a d540
00000030: 014b d1c0 934b d3c0 14b9 d040 f082 d7c0
00000040: 7b4a d040 7b51 d4c0 0ec6 ce40 8f3f d7c0
00000050: 35db ce40 8d96 d240 165e cf40 ea95 d040
00000060: 3f5a d2c0 0893 cec0 72ad cfc0 3f6a d140
00000070: b3c2 cec0 8678 d1c0 022d d040 4ba4 d3c0
00000080: bcac d240 4199 d340 9dc5 d240 bcb0 cec0
00000090: 48dc d1c0 1a81 d440 a99a d040 9b05 d840
000000a0: 6a5e d640 7c2d d140 de8f d4c0 f96e d740
000000b0: f539 d6c0 ac00 d7c0 ae0c d5c0 8135 d3c0
000000c0: 51bf d440 8072 d0c0 cc28 d6c0 b3cf cfc0
000000d0: 03cb d5c0 3586 d140 6438 d5c0 bdbb d040
000000e0: a3db d7c0 a514 cf40 035e d140 868d d3c0
000000f0: 5f0a d740 d394 d1c0 32f9 ce40 067c d0c0
00000100: 2c3f d340 ef4f d040 6102 d6c0 874b d0c0
00000110: 59e4 d3c0 c82e d740 385e d540 4d82 d040
00000120: 1ecf d1c0 01c4 ce40 9aa1 d440 446d d7c0
00000130: e3ef d440 ffcf d3c0 4aef d4c0 3637 d0c0
00000140: e46d cf40 079f d240 730d d6c0 3674 cfc0
00000150: 9ac0 d5c0 d643 d3c0 3f05 d2c0 7e01 d540
00000160: 836f d0c0 48a4 d040 1322 d1c0 c436 d5c0
00000170: f044 d7c0 82ce d340 0b96 cfc0 1dd9 d3c0
00000180: cdf2 cec0 62b9 d1c0 6a4d d440 f13e d2c0
00000190: dcb3 d740 35f4 d1c0 0ff6 d640 9dee d440
000001a0: e1d9 cfc0 1b62 cf40 4cf6 d5c0 b4d9 d640
000001b0: 42db d7c0 87da d4c0 e919 d040 f841 d1c0
000001c0: 2852 d5c0 ed66 d4c0 9a69 d140 dd89 d340
000001d0: 0be9 d140 0388 d6c0 c3a4 cf40 3ace d740
000001e0: b34f d1c0 9b9e d040 0024 cfc0 8747 d4c0
000001f0: be40 d5c0 3d8a d540 8b42 d040 23bd cec0
00000200: d531 d0c0 76c8 cfc0 f3f5 cec0 ad6a d2c0
00000210: 1e1a d340 caff d1c0 1693 d440 0262 d640
00000220: bcf6 d140 c672 d540 0c58 d4c0 f7c0 d440
00000230: 3fc1 cf40 3df1 d040 52ed cf40 4a9a d1c0
00000240: 37d5 d540 0d5a d0c0 fe1b d040 0b9e d440
00000250: ff9c d1c0 ddc4 d540 5281 d3c0 c8cc cf40
00000260: fc52 d3c0 ad1f d440 ff80 d440 ef08 d3c0
00000270: b00e d140 9d35 d640 7b26 d440 6eee cec0
00000280: 500a d2c0 ea7b d240 9c5e d040 3c72 d7c0
00000290: 562c d7c0 09b9 d540 879b d1c0 2bc1 d040
000002a0: ec79 d740 64e5 d740 21be d6c0 ab60 d0c0
000002b0: a4d2 d340 f901 d140 e12f d140 81e6 d540
000002c0: 16c6 cf40 6da8 d7c0 ff23 d040 e844 d3c0
000002d0: 8d0c cf40 bf1a d140 8c57 d740 4088 d5c0
000002e0: 22b4 ce40 9eb1 d040 f7f3 d740 2eb6 d640
000002f0: fd73 d6c0 b488 d540 5436 d4c0 6f23 d340
00000300: 1a4b d4c0 0d37 d0c0 b656 cf40 e7eb cfc0
00000310: 6856 d240 6ba3 cfc0 6fd2 cf40 b1f3 d540
00000320: 560f cfc0 a3fc ce40 8f3b d240 6081 d740
00000330: ac87 d2c0 a27b d1c0 6c7f d440 de41 d540
00000340: 5410 d2c0 5917 cfc0 8b91 d040 e8e9 d6c0
00000350: 76e4 d340 ccda d740 66a8 d640 9e1b d0c0
00000360: f993 d2c0 6cde cf40 3efd d540 a3b0 d440
00000370: 9aa1 d140 1150 d540 ad87 d2c0 dfb2 cf40
00000380: 3e5a cfc0 0faa d140 b482 d440 c8e9 d540
00000390: f01c d7c0 fb2d d640 8c73 cf40 7e63 d140
000003a0: 17f5 d640 02c7 d1c0 a1e1 d740 9c3b d2c0
000003b0: e50e d040 27dc cec0 501f d2c0 5ca6 d140
000003c0: e097 d4c0 ebf8 d640 33a6 d6c0 641c d440
000003d0: e516 d740 072f d0c0 55b5 d140 f920 cf40
000003e0: 3ed8 ce40 b185 d3c0 b116 d4c0 4287 ce40
000003f0: adef d640 aec8 d0c0 3a5d d7c0 95b5 d240
6.715603 6.625526 6.4883814 -6.4894934 6.593132 6.5378094 6.5824213 -6.718731
-6.5853643 -6.530223 -6.6916795 6.6672797 -6.5404058 -6.6029754 6.5225925 -6.7347336
6.509092 -6.6349463 6.4616766 -6.7265086 6.4642587 6.580878 6.480235 6.5183
-6.5735164 -6.455448 -6.4899225 6.5442195 -6.461267 -6.5459623 6.505494 -6.6138053
6.5835857 6.6124578 6.5866227 -6.459074 -6.55814 6.6407595 6.5188794 6.7506843
6.699025 6.5368023 -6.642562 6.7322965 -6.694575 -6.718832 -6.657798 -6.6002812
6.648354 -6.513977 -6.69248 -6.494104 -6.6810317 6.5476327 -6.6631336 6.5229173
-6.745561 6.47127 6.542726 -6.611026 6.720016 -6.549417 6.4679193 -6.5151396
6.6014614 6.5097575 -6.6877904 -6.5092196 -6.6216245 6.7244606 6.6677513 6.515906
-6.556533 6.4614263 6.6447268 -6.732088 6.654283 -6.61914 -6.65421 -6.5067396
6.4821644 6.5819125 -6.6891418 -6.482936 -6.679761 -6.6020308 -6.5631404 6.656432
-6.5136123 6.520054 -6.5354095 -6.6629353 -6.727165 6.6189585 -6.487066 -6.620253
-6.467139 -6.5538797 6.63445 -6.5701833 6.7407055 -6.5610604 6.7175364 6.6541276
-6.4953465 6.480726 -6.6863155 6.714075 -6.745515 -6.6516757 6.503163 -6.539303
-6.666279 -6.637564 6.544141 6.610579 6.5596976 -6.704103 6.4888625 6.743924
-6.540979 6.519361 -6.4731445 -6.6337314 -6.664153 6.673125 6.508123 -6.460588
-6.506083 -6.4932203 -6.467523 -6.575522 6.596938 -6.5624743 6.642955 6.699464
6.561369 6.6702604 -6.635748 6.6485553 6.4923396 6.529448 6.49772 -6.550084
6.682277 -6.5109925 6.503417 6.6442924 -6.5504146 6.680281 -6.609536 6.4937477
-6.60388 6.6288667 6.6407466 -6.5948405 6.533043 6.6940446 6.6296973 -6.466605
-6.563759 6.577626 6.511549 -6.7326946 -6.724162 6.6788373 -6.5502353 6.52358
6.733633 6.746752 -6.710709 -6.5118003 6.619463 6.531491 6.5370946 6.6843877
6.4929304 -6.73931 6.504394 -6.6021614 6.470282 6.534515 6.729437 -6.672882
6.459489 6.521682 6.748531 6.7097387 -6.7016587 6.6729374 -6.631632 6.5980754
-6.6341677 -6.50672 6.479335 -6.4975467 6.5730476 -6.4886985 6.4944377 6.6859975
-6.470622 6.4683394 6.5697703 6.734543 -6.5790615 -6.546342 6.6405544 6.6642904
-6.564493 -6.4716 6.5177665 -6.716053 6.6216383 6.7454586 6.7080564 -6.5033712
-6.580563 6.495901 6.6871634 6.646562 6.5509768 6.6660237 -6.579062 6.490585
-6.479766 6.552009 6.640955 6.6847878 -6.7222824 6.693113 6.482855 6.543395
6.717418 -6.555543 6.7462926 -6.5697765 6.501818 -6.464374 -6.5663223 6.5515575
-6.6435394 6.7178855 -6.707788 6.6284657 6.7215447 -6.5057406 6.5533853 6.472775
6.4638968 -6.6100698 -6.62777 6.454011 6.7167573 -6.524497 -6.73013 6.584666

price_encoder.encoder.bias_ih_l0 f4 [180]
00000000: bd03 d5c0 353a d740 020a d240 29e0 d0c0
00000010: 5daf d6c0 2cce d1c0 70ef d540 8949 d2c0
00000020: 7b59 d640 fc81 d5c0 244c d1c0 ff06 d4c0
00000030: d38b d7c0 448e d340 68ee d040 914b d740
00000040: a47b d5c0 e740 d040 98ff d5c0 45cd d7c0
00000050: fe5a d4c0 83a3 cec0 5172 d3c0 865c d240
00000060: b291 d5c0 1e9e d3c0 272a d0c0 c56b d240
00000070: d9c5 d4c0 e131 d240 5438 d040 7dae d7c0
00000080: 570f d740 bf86 d5c0 b5a7 d0c0 a9f8 d140
00000090: e6d3 d1c0 ab0d d8c0 9bf2 cec0 b2f1 d440
000000a0: 8d75 d040 c4ef cc40 c709 d7c0 41ed d140
000000b0: 307b d240 c1bd cfc0 ae80 d740 3f0f d240
000000c0: fdeb d5c0 2813 d1c0 832b d7c0 1a9a d640
000000d0: 1fbf d3c0 3c42 d440 f923 d040 05f9 d6c0
000000e0: c944 d0c0 c243 d1c0 f4f7 d340 960f d140
000000f0: 66fa d240 0a42 d3c0 5bcb d540 29bc d240
00000100: ad28 d6c0 65b8 d4c0 a1f1 d2c0 acd5 cfc0
00000110: e3ed d040 af2e d5c0 2cc3 cec0 4937 cfc0
00000120: 8d09 d440 f324 d6c0 c659 d240 0cdd ce40
00000130: 2ccd d3c0 c52e d040 30d5 d3c0 4b4a d5c0
00000140: d5da d140 f24e d6c0 fadb d5c0 4258 d1c0
00000150: 5828 d540 961f d440 6c76 d2c0 48b7 d1c0
00000160: 3031 d440 5c19 d440 adcf ce40 521f d6c0
00000170: 18f6 d0c0 8d01 d8c0 7d05 cf40 75c6 d340
00000180: 7706 d5c0 2a8c d240 b5ff d040 f4b8 cfc0
00000190: 1ab1 cec0 327d d440 8a90 d240 27ab d040
000001a0: d747 d5c0 f994 d040 8c46 d540 0dd6 d640
000001b0: 0c17 d140 1ced d540 1cec d6c0 f215 d040
000001c0: 2267 d440 bdfd cfc0 d4dd cec0 8561 d1c0
000001d0: 0eeb d740 98a9 cec0 4486 cfc0 d323 d640
000001e0: 98f2 d2c0 2c45 d5c0 30c4 d5c0 6838 d140
000001f0: 5390 d640 0e0c d240 eaad d6c0 d4aa d440
00000200: bab0 d140 7c7f d2c0 9a5f d5c0 04ba d640
00000210: 8b25 d3c0 353f d3c0 9f9f d540 5d7b d0c0
00000220: 9cee d340 c532 cf40 178c d5c0 18ae d7c0
00000230: 23a8 d7c0 c6a2 cf40 b3e6 d2c0 431c d740
00000240: 67fc cfc0 2ec3 d7c0 5c80 cfc0 7278 d2c0
00000250: 7ae9 d540 3ca6 d440 08c5 cf40 7704 cfc0
00000260: ae4c d740 0aa4 d5c0 fba5 d5c0 5721 d6c0
00000270: 52cc d0c0 52a4 d6c0 9499 d140 b4c7 d4c0
00000280: b402 d2c0 cb24 d0c0 e499 d240 003f cfc0
00000290: 0a13 d040 22d0 d140 a509 d3c0 45b2 cf40
000002a0: 34d7 cec0 d62f cfc0 2820 d740 3917 d6c0
000002b0: ab5e d0c0 c25b d3c0 66f0 d040 e4ac d040
000002c0: 4ac1 d5c0 4f16 d4c0 cf99 d240 01dc d740
-6.6567063 6.7258554 6.5637217 -6.5273633 -6.7089067 -6.5564175 6.685478 -6.5714765
6.698423 -6.672117 -6.5405445 -6.625854 -6.7358184 6.6111164 6.5291023 6.7279744
-6.671343 6.5079226 -6.6874504 -6.7438073 -6.6361074 -6.45746 -6.6077046 6.5737944
-6.674035 -6.6130514 -6.5051455 6.5756555 -6.6491513 6.5685887 6.506876 -6.74005
6.7206225 -6.6726985 -6.520472 6.561604 -6.5571165 -6.7516685 -6.467115 6.654504
6.5143495 6.4042683 -6.7199435 6.5602117 6.5775375 -6.4919133 6.734458 6.564361
-6.685057 -6.5335884 -6.7240615 6.706311 -6.61708 6.6330853 6.504391 -6.717898
-6.5083966 -6.539521 6.6240177 6.5331526 6.593066 -6.6018114 6.6810737 6.585469
-6.6924653 -6.647509 -6.5919957 -6.494833 6.529039 -6.6619487 -6.4613247 -6.4754987
6.626166 -6.6920104 6.5734587 6.4644833 -6.6187954 6.505709 -6.619774 -6.665319
6.557963 -6.697137 -6.6831026 -6.5420237 6.661175 6.6288557 -6.576956 -6.553623
6.6310043 6.6280956 6.462851 -6.6913233 -6.5300407 -6.7501893 6.46942 6.6179757
-6.657039 6.57961 6.531214 -6.4913273 -6.459119 6.6402826 6.580144 6.5208926
-6.6650195 6.518185 6.6648617 6.7136292 6.5340633 6.685194 -6.716322 6.502679
6.6375895 -6.499724 -6.4645786 -6.5431542 6.747443 -6.4582024 -6.48514 6.691873
-6.5921135 -6.664694 -6.6801987 6.5381355 6.7051177 6.5639715 -6.7087297 6.645853
6.552823 -6.578062 -6.66792 6.710207 -6.598333 -6.6014657 6.675735 -6.515059
6.622877 6.4749475 -6.673351 -6.7400017 -6.7392745 6.48862 -6.5906615 6.7222
-6.499561 -6.7425756 -6.484419 -6.577203 6.6847506 6.6452923 6.4928017 -6.469295
6.7281103 -6.6762743 -6.6765113 -6.69157 -6.5249414 -6.7075586 6.5499973 -6.649378
-6.56283 -6.5044913 6.5812855 -6.4764404 6.502324 6.556657 -6.5949273 6.4905114
-6.46377 -6.4745893 6.7226753 -6.690335 -6.511556 -6.604951 6.5293455 6.521105
-6.679845 -6.627723 6.5812755 6.745606

price_encoder.encoder.bias_hh_l0 f4 [180]
00000000: f952 d0c0 71d3 d740 3204 d740 6e57 cfc0
00000010: 9991 d5c0 ae95 d2c0 a4ec ce40 9333 d7c0
00000020: 0359 d240 1e37 d1c0 eec2 d1c0 1888 cfc0
00000030: 2140 d2c0 48a2 d140 6ed5 d540 e9a2 cf40
00000040: 546f d6c0 e6e0 d040 6c1c d5c0 f140 cfc0
00000050: aa1a d6c0 7d3a d4c0 d25e d2c0 cfbe d240
00000060: 618d d4c0 68ce d3c0 f123 d3c0 c116 cf40
00000070: ab74 d2c0 db0f d440 f900 d140 812a d7c0
00000080: 27b5 d640 3fe7 d2c0 3501 d6c0 7cf2 d340
00000090: f590 cec0 6fa9 d2c0 2977 d1c0 d13d d540
000000a0: 13d4 cf40 3064 ce40 392c d4c0 9524 cf40
000000b0: 8ebb ce40 25d1 d5c0 68ab ce40 e92e cf40
000000c0: d6a3 d3c0 4c98 d4c0 58e8 d3c0 7e41 d440
000000d0: ec4e d2c0 c4c1 d140 cdb7 cf40 c345 d3c0
000000e0: 3d58 d4c0 09d5 d3c0 0ed3 d340 10a5 d640
000000f0: cf46 d040 d722 d2c0 4922 d340 783d d640
00000100: 4353 d2c0 ea0f d7c0 87e3 d4c0 0e5a d4c0
00000110: 3fe6 d040 9aa6 d4c0 9ae9 d0c0 d9ed d7c0
00000120: 57ce ce40 fdb6 d0c0 d492 d440 f420 d640
00000130: 487a d2c0 256a cf40 b8f9 d1c0 cffe cec0
00000140: e3c9 cf40 05aa d5c0 7ef7 d3c0 32ac d2c0
00000150: 482c d740 a40c d540 77d7 d5c0 01de d5c0
00000160: d5a4 d140 0a9c d640 db30 d440 9220 d7c0
00000170: caa3 d5c0 e794 cfc0 a719 d440 910e d740
00000180: 4fa3 d2c0 5be3 d440 7d98 d540 42bc d5c0
00000190: fc2b d6c0 dc35 d040 28ae d240 79ce d340
000001a0: 5dd3 d2c0 72de cf40 fbc6 cf40 e775 d640
000001b0: 9cb7 ce40 8e9a d440 775c d2c0 9201 d340
000001c0: da43 d140 29ff d0c0 7acf d5c0 67b1 d0c0
000001d0: 3cae cf40 4f41 d4c0 10db d2c0 7f86 d540
000001e0: 0c9a cfc0 0a26 cfc0 44f9 d1c0 1c49 d140
000001f0: 0b14 d040 e284 d340 79a6 d3c0 0a3d cf40
00000200: 7cef ce40 1007 d4c0 b21a d2c0 16bb d540
00000210: 1d8d d3c0 289a d6c0 e5e2 d540 6dac d7c0
00000220: 82d2 d540 2de2 d640 85d3 d7c0 c6ed d0c0
00000230: 4526 d1c0 ce8d d040 8b38 cfc0 aec9 d540
00000240: 53a4 d7c0 c080 d4c0 92b2 d1c0 c459 d7c0
00000250: a62c cf40 5781 d240 4693 cf40 1660 d2c0
00000260: a4c2 d040 cab6 d4c0 0f95 cfc0 1962 cfc0
00000270: 609c cfc0 e0d3 d1c0 259e d740 e02a cfc0
00000280: f60a d6c0 ccf7 d1c0 869a d240 164f d6c0
00000290: ca4c d140 1e5c d240 73a9 d6c0 f558 d340
000002a0: 978e d5c0 8d2a d7c0 4eac d140 eb0d d0c0
000002b0: 7773 d7c0 5364 d7c0 3636 d540 1ad8 d040
000002c0: 9ac1 d4c0 39cc d5c0 a2aa d540 bbc4 d340
-6.5101285 6.7445607 6.719262 -6.4794226 -6.674023 -6.5807714 6.466387 -6.7250457
6.5733657 -6.537978 -6.555045 -6.485363 -6.570328 6.5510597 6.6823034 6.4886365
-6.70109 6.5274534 -6.6597195 -6.4766774 -6.690755 -6.6321397 -6.5740747 6.585792
-6.642258 -6.618946 -6.5981374 6.4715276 -6.5767417 6.6269355 6.5313687 -6.7239385
6.7096133 -6.5907283 -6.6876473 6.62335 -6.455195 -6.583183 -6.545796 6.663796
6.494638 6.44973 -6.6303983 6.4732156 6.460395 -6.6817803 6.4584236 6.4744763
-6.6137495 -6.643591 -6.6221123 6.6329947 -6.572134 6.554903 6.4911866 -6.602266
-6.6357713 -6.6197553 6.6195135 6.707649 6.5086436 -6.566753 6.597935 6.6950035
-6.572664 -6.7206926 -6.6527743 -6.635993 6.528106 -6.645337 -6.528516 -6.747784
6.462688 -6.5223374 6.6429234 6.6915226 -6.577427 6.481707 -6.5617332 -6.4686046
6.4933944 -6.6770043 -6.6239614 -6.58352 6.7241554 6.657793 -6.682552 -6.68335
6.551371 6.7065477 6.630964 -6.722726 -6.676244 -6.4869266 6.6281314 6.720528
-6.582435 6.6527534 6.6748643 -6.6792307 -6.692869 6.5065746 6.5837593 6.618954
-6.588301 6.495904 6.4930396 6.7018924 6.4599133 6.6438665 -6.573787 6.5939417
6.5395327 -6.5311475 -6.6815767 -6.5216556 6.490019 -6.6329722 -6.589241 6.672668
-6.4875546 -6.4733934 -6.561678 6.5401745 6.5024467 6.609971 -6.6140714 6.476201
6.466734 -6.625862 -6.5657587 6.6790876 -6.6109757 -6.706318 6.683947 -6.739798
6.6819468 6.7151093 -6.7445703 -6.529025 -6.5359216 6.51731 -6.475652 6.680869
-6.738809 -6.6407166 -6.553048 -6.7297077 6.4742002 6.5782886 6.4867277 -6.5742292
6.52376 -6.647313 -6.4869456 -6.480725 -6.4878387 -6.5571136 6.7380548 -6.473984
-6.688838 -6.5614986 6.5813627 -6.697154 6.5406237 6.573745 -6.7081847 6.604609
-6.673656 -6.723944 6.5522833 -6.501699 -6.732845 -6.7309966 6.6628675 6.5263796
-6.648633 -6.6811795 6.677079 6.617765

atten_layer.0.weight f4 [45, 135]
00000000: c052 bcbb 40cb d33b 10c0 bfbc 5849 8dbc
00000010: 6717 ab3d 3622 4b3d d9b8 42bd 3d6c 05bd
00000020: f650 523d 2b99 a33d 5ccd c83c 1d5d 973d
00000030: 3ca7 90bc 4e36 5b3d 80fe 68ba 8dca 01bd
00000040: 14e6 bfbc c45c dd3c 8e32 373d c081 323b
00000050: 58d2 8dbc fa02 fcbc 8087 31bb 39f2 af3d
00000060: f800 dc3c ca41 a9bd f04b 9fbc 801b 053d
00000070: 0782 a8bd 12a7 633d 647b 6abd 89eb 90bd
00000080: 6c25 2fbd 20a2 403b de57 81bd d087 d5bb
00000090: b81c 79bd 50e5 3fbc 30cc a8bd 237b 07bd
000000a0: 6033 80bb 19d4 a53d b146 afbd 6066 03bc
000000b0: 00c0 77b8 2339 9cbd 1f54 3bbd de2a 283d
000000c0: a243 6a3d 770b 853d 0bb3 9d3d bdf9 a33d
000000d0: f054 96bc 864a 8abd 39e6 97bd eaf6 2cbd
000000e0: e049 4fbd 2c1a e93c 590e 35bd 6f67 883d
000000f0: 9b5c 38bd 7bd2 8c3d 12c1 513d ef27 963d
00000100: 3f0c 94bd a935 a53d 4089 c3ba eb93 973d
00000110: 325d 423d 8806 81bd eae3 91bd 0b99 ae3d
00000120: 78ae b2bc a0fc 7bbc 809d eaba 3135 7ebd
00000130: 2055 65bc fed8 283d e0a0 6cbb 4642 a3bd
00000140: 0885 1e3d 6981 843d ff6e 0dbd 6b21 90bd
00000150: 6f9a 9b3d f279 343d 791f 9a3d 00b4 103b
00000160: 1d00 32bd 5d1f 9b3d 1e01 d5c0 408e dfc0
00000170: c769 ecc0 092e d5c0 3f64 d340 c001 d5c0
00000180: 5015 d6c0 adb4 ec40 f904 d340 ebe8 d140
00000190: 0225 d3c0 e2b4 cfc0 4029 d2c0 651e d540
000001a0: 221c d4c0 d663 d0c0 4b44 d2c0 8240 d340
000001b0: 8938 d440 4ef8 bec0 d32e e5c0 09e7 ed40
000001c0: 9256 e940 2119 c040 1340 d6c0 4cf8 b940
000001d0: 1b8a e240 be28 d340 ae12 ecc0 2b66 ec40
000001e0: 9d22 d340 b54b d5c0 22e2 d140 772d d4c0
000001f0: 84b7 d0c0 22ec d0c0 7885 d240 a57a d2c0
00000200: 8f61 d640 e2d6 d240 2635 bfc0 b641 e440
00000210: 9f74 f0c0 2897 d7c0 2ce8 e840 cac1 8abd
00000220: c594 993d f8e9 51bd b92b 8ebd 4c7a ee3c
00000230: c08e 3e3b 0e6a 353d 80f2 513c 4c23 c9bc
00000240: 7a9d 043d eacb a2bd d335 12bd 7e44 713d
00000250: 16db 3f3d fb86 2bbd 1de2 a83d 62f4 5f3d
00000260: 8e12 2b3d 3815 7cbd 81a6 51bd faf9 92bd
00000270: a0f9 4dbd 1e36 013d 99b2 873d fd37 943d
00000280: 6026 42bb f0bb 113c aed4 f3bc e8f6 82bd
00000290: 6041 f83c 58aa ccbc ccdb 18bd 48b0 f5bc
000002a0: 44ae 8abd 1c96 54bd 1eb9 05bd 508c afbc
000002b0: 9cb1 a7bc 1f3c a33d 2859 abbc 7aeb 2f3d
000002c0: 6cd8 87bc 7785 9f3d e0bf bbbc e679 543d
000002d0: eaed 7b3d 5039 c6bc 245c f13c a424 45bd
000002e0: b2de 12bd 9e89 473d ea1f 3b3d b48a 913c
000002f0: c125 933d 797c 42bd a8c9 4e3c 7513 8dbd
00000300: 52da adbd 10d1 5bbd 3f69 af3d 4e3f 513d
00000310: 6968 803d 3a40 7a3d 10c7 33bc 200d 793c
00000320: ea2c c5bc 375f 49bd a2c8 10bd 431c 4dbd
00000330: ce6e 273d f015 24bd bcd8 9ebc 3502 a93d
00000340: 9aa9 143d f80e 7c3c dc5c 84bc 0d30 873d
00000350: 3052 af3b 605a 3f3b 60fe 3abd e99e 8fbd
00000360: 42aa 7e3d f392 43bd a98c 9bbd 92cc 9fbd
00000370: 2cd2 9e3c d83d aabd 2618 91bd 107c ae3c
00000380: dae3 263d fcc5 dbc0 21d2 e140 65fb e640
00000390: 6bc4 d1c0 aa83 d140 239a d240 1113 d140
000003a0: 9068 d9c0 d7d4 d740 e12b d540 a229 d2c0
000003b0: 7677 ccc0 a6a3 d4c0 3617 d140 500a d5c0
000003c0: 86dc ccc0 d39f d340 56f3 d240 8a2e d240
000003d0: 3af7 dec0 e6ec db40 e5e7 d9c0 1586 e3c0
000003e0: a088 e240 543b d3c0 4df9 df40 5b8a dac0
000003f0: 9bad d540 3298 e040 93fa dbc0 c492 d340
-0.0057471693 0.0064634383 -0.023407012 -0.017246887 0.08354073 0.049593173 -0.047539566 -0.032573927
0.05134674 0.07988199 0.024511985 0.07390807 -0.017657869 0.053518586 -0.0008888021 -0.031687308
-0.02342514 0.027021773 0.044725947 0.0027237982 -0.017312214 -0.030763138 -0.002708882 0.08591122
0.02685593 -0.082645014 -0.01944539 0.03249693 -0.08227926 0.055579253 -0.05724658 -0.07076175
-0.042760298 0.002939351 -0.063155875 -0.0065164343 -0.060818404 -0.011712387 -0.08242071 -0.033076417
-0.0039123744 0.08097095 -0.08558405 -0.008020014 -5.9068203e-05 -0.076280855 -0.04573452 0.041056506
0.057193406 0.06496327 0.07700165 0.08006618 -0.018351048 -0.067524955 -0.07416958 -0.042227663
-0.050607562 0.028454863 -0.044203136 0.066603534 -0.04501019 0.068760835 0.051209517 0.073318355
-0.07228898 0.080668755 -0.0014918223 0.0740126 0.04745216 -0.06300074 -0.07123549 0.085252844
-0.021811709 -0.015380055 -0.0017899722 -0.062062446 -0.013997346 0.041222565 -0.003610663 -0.07971625
0.038701087 0.064699955 -0.034529682 -0.07037624 0.07597815 0.04406161 0.07525534 0.0022079945
-0.04345714 0.075743414 -6.6563864 -6.9861145 -7.3879123 -6.6618695 6.605987 -6.6564636
-6.6901016 7.397055 6.594357 6.5596824 -6.5982676 -6.4908304 -6.5675354 6.6599603
-6.628434 -6.512187 -6.5708365 6.6016245 6.6319013 -5.9678106 -7.161966 7.4344525
7.2918177 6.0030675 -6.6953216 5.8115597 7.0793586 6.5987234 -7.37728 7.3874717
6.5979753 -6.6654916 6.558854 -6.63055 -6.522402 -6.528825 6.5787926 -6.5774713
6.699409 6.588731 -5.975238 7.1330214 -7.514236 -6.7372017 7.2783413 -0.067752436
0.07499079 -0.05124852 -0.06941933 0.02911105 0.0029076785 0.044290595 0.012814164 -0.024552964
0.032376744 -0.0794905 -0.035695862 0.05890321 0.046839796 -0.041876774 0.08246253 0.05467642
0.041765742 -0.061543673 -0.05118418 -0.071765855 -0.05028689 0.03154575 0.06625862 0.072372414
-0.0029624924 0.008894905 -0.0297645 -0.0639475 0.03030461 -0.02498357 -0.03731899 -0.029991284
-0.0677152 -0.051900968 -0.032647245 -0.02142921 -0.020470433 0.079704516 -0.020916536 0.042949177
-0.01658269 0.07789128 -0.022918642 0.051874064 0.06150619 -0.02419725 0.029462881 -0.048130646
-0.03585691 0.048715226 0.045684732 0.017766334 0.07184935 -0.047481988 0.012621321 -0.06888477
-0.08488907 -0.053666174 0.08564996 0.051085763 0.06269915 0.061096407 -0.010972753 0.015200883
-0.024069268 -0.04916307 -0.03534759 -0.05007578 0.040877156 -0.040059984 -0.019390456 0.08252374
0.036294557 0.015384428 -0.01615756 0.06600962 0.0053503737 0.0029198155 -0.045652747 -0.070127316
0.06217409 -0.047747564 -0.07595188 -0.078026906 0.019387327 -0.08312577 -0.07084684 0.021299392
0.04074464 -6.867918 7.0569005 7.218188 -6.555227 6.5473223 6.5813155 6.5335774
-6.794014 6.7447314 6.6616063 -6.567582 -6.3895826 -6.6449766 6.5340834 -6.657509
-6.4019194 6.61326 6.592204 6.568181 -6.967679 6.8726683 -6.8095574 -7.1101174
7.079178 -6.600992 6.999182 -6.829389 6.677442 7.0185785 -6.8743377 6.6116657

atten_layer.0.bias f4 [45]
00000000: c0c9 c840 62b8 d540 5128 ce40 6f1f d3c0
00000010: 66a5 d1c0 af5a d4c0 5ea4 d6c0 e6c6 d140
00000020: 6eb1 d3c0 0db6 d240 efa6 cfc0 4cf1 d4c0
00000030: 035f d440 9395 d0c0 9823 cec0 ee3e d540
00000040: 2906 d0c0 62a1 d5c0 a39a cec0 5743 d0c0
00000050: 8671 d4c0 892a d740 aaf0 d040 e17e d440
00000060: 4315 d7c0 29d6 d4c0 c52e d3c0 985c d3c0
00000070: 129d cfc0 02e0 d7c0 7a2f d140 f518 d440
00000080: 2510 d440 7729 d440 5f5f d1c0 5c5f d6c0
00000090: 9eea d440 595c d140 c13e d7c0 b963 d140
000000a0: a1c7 cec0 ac47 d4c0 c13d d440 09c9 d440
000000b0: ba04 cfc0
6.2746277 6.6787577 6.4424214 -6.597587 -6.5514402 -6.63607 -6.7075644 6.5555296
-6.615409 6.584723 -6.4891276 -6.654455 6.636598 -6.5182586 -6.441845 6.663932
-6.500752 -6.67595 -6.4563766 -6.50822 -6.638858 6.7239423 6.529378 6.640488
-6.7213454 -6.6511426 -6.599459 -6.605053 -6.4879236 -6.7460947 6.5370455 6.6280465
6.626971 6.6300616 -6.542892 -6.6991405 6.65364 6.542523 -6.7264104 6.543423
-6.461869 -6.633749 6.6325383 6.6495404 -6.469327

atten_layer.2.weight f4 [1, 45]
00000000: be18 9940 5005 09c1 3382 bd40 f90d a0c0
00000010: f136 acc0 c9c9 9ec0 c3f9 b6c0 f914 eec0
00000020: 18a0 a5c0 9087 a840 da90 8bc0 7ada eb40
00000030: fa03 f5c0 75b1 aac0 df69 1441 455e bb40
00000040: 104b 0441 db8c f440 4a4d 96c0 24aa 99c0
00000050: f0b5 e540 63b8 d140 fbf6 cd40 1224 ce40
00000060: 77e1 dd40 0bf7 0041 7a8d c7c0 cca9 bbc0
00000070: ab54 0c41 c734 dc40 1c24 cc40 0a68 fdc0
00000080: 0f74 ba40 75bc d9c0 71be f840 c1b1 c0c0
00000090: 42d1 e5c0 0ec7 edc0 3261 eb40 9400 ffc0
000000a0: 39d7 9bc0 dbca df40 c96d 02c1 809e d240
000000b0: 98b1 9ac0
4.7842703 -8.563797 5.9221435 -5.0017056 -5.3817067 -4.962132 -5.7179885 -7.44006
-5.1757927 5.266548 -4.361432 7.3704195 -7.6567354 -5.334162 9.275847 5.8552575
8.268326 7.6421943 -4.6969347 -4.802019 7.178459 6.553758 6.436399 6.441903
6.9337726 8.060313 -6.23602 -5.864477 8.770671 6.8814425 6.379408 -7.91895
5.8266673 -6.804255 7.7732472 -6.0216985 -7.181794 -7.4305487 7.3556147 -7.9688206
-4.8700223 6.9935126 -8.151803 6.581848 -4.834179

lstm.weight_ih_l0 f4 [180, 45]
00000000: aae7 ca40 9a70 d7c0 43ce d8c0 651d d340
00000010: 5781 d7c0 2143 d340 1841 cf40 f6cc d740
00000020: c69e cdc0 6e1b d840 d731 d140 c1a7 d540
00000030: 4b55 d340 939d d240 d27d d4c0 4c3e d840
00000040: 7f2b d1c0 7576 d8c0 89a4 d2c0 ceea d940
00000050: 5e75 dac0 ccd8 df40 6642 d940 c2ac d3c0
00000060: 3453 bf40 ec2c dbc0 7a36 da40 9dc2 d3c0
00000070: 8e7e dcc0 6382 d740 cc74 d2c0 0c2c d7c0
00000080: 782c d2c0 8806 d640 bf3f d740 f15d d7c0
00000090: 77d5 d3c0 8854 d240 b64d d340 28c7 d6c0
000000a0: 97fd d3c0 f312 da40 3de7 dac0 afb9 d6c0
000000b0: 44bf db40 5330 d840 c6bb ddc0 1650 d8c0
000000c0: 1845 d740 757e d540 7df0 d440 8a12 d540
000000d0: 6a7d d540 2166 d1c0 3800 d240 a1ba d140
000000e0: 4c77 d0c0 6edc d340 1ae7 cfc0 b467 d1c0
000000f0: 6af7 cf40 ffdd d3c0 5393 cfc0 3cdd d0c0
00000100: cadb d940 06bb dac0 1def d440 f53b de40
00000110: 301e d7c0 4f0b a2c0 9b66 d9c0 474e d940
00000120: 0e31 cfc0 2f9c dbc0 312d d840 2068 d2c0
00000130: adcb d6c0 214d d8c0 222e d240 84c8 d040
00000140: 6fcc d3c0 eeff d3c0 56e4 d440 ac43 d640
00000150: 48f8 cec0 8f0d d4c0 7196 d940 bc56 d4c0
00000160: f6cd cac0 91bc da40 0718 d0c0 8e0f dbc0
00000170: 87e1 dac0 f42f d140 d41e d4c0 bfe3 d240
00000180: ec03 d4c0 4b99 da40 26a2 d7c0 bee7 d5c0
00000190: 73a7 d240 aa0d a9c0 d98e d5c0 9e68 d640
000001a0: d199 d040 bb24 d040 efc4 d540 3fc8 d040
000001b0: 1e60 d1c0 f61b da40 498e d9c0 9fcc d540
000001c0: 9fb9 d440 dfaa d6c0 cc6f 83c0 e78e d5c0
000001d0: 03e2 dd40 72de d2c0 2fd8 d9c0 12b9 d840
000001e0: 86f0 d740 4c8c cf40 3d4f d4c0 3bdd d740
000001f0: eff2 d140 d8b3 d440 2bfc d740 b401 d740
00000200: 3f29 cfc0 8f8c d4c0 cbb7 d240 e6b7 d740
00000210: b479 dbc0 2df5 d140 c81a d540 0afb d840
00000220: dba0 dcc0 0fcb dac0 5119 d740 dd9d d1c0
00000230: da72 d040 e710 d840 b0a8 dd40 d912 d1c0
00000240: 3601 d1c0 4d92 d740 6a30 cdc0 42e5 ce40
00000250: a2dc d540 8242 d640 a2b9 d540 ee63 d340
00000260: f962 cfc0 bbc7 d3c0 cead e040 d52c d8c0
00000270: 57b3 d640 1a71 dd40 d4f4 dfc0 2ab9 a240
00000280: b6ac dbc0 9354 db40 77df d0c0 6da1 dfc0
00000290: 7d67 dc40 4c3b d1c0 50b6 d840 4c7f d0c0
000002a0: 2358 d040 0413 d540 36da d5c0 cfc4 cfc0
000002b0: 8b9f ce40 121c d1c0 9a8f d1c0 022d d540
000002c0: f164 d840 8b3c d7c0 1ef8 d140 681a d840
000002d0: 1c9b d240 c093 dbc0 4036 e2c0 5b18 d140
000002e0: 6591 cd40 b3c6 d540 3e43 d340 ab24 da40
000002f0: 9db1 d7c0 a187 d7c0 c2f0 d140 d09c d4c0
00000300: 4c28 d040 5765 cbc0 b5c3 d840 1a55 d640
00000310: 1bdc d240 0cee d1c0 9c30 cfc0 2cc8 de40
00000320: 2aef e0c0 85d8 d740 235d db40 66be dfc0
00000330: 8d77 c640 4f08 e1c0 d7a3 dd40 34eb d0c0
00000340: 01f7 d8c0 c8ef da40 a043 d3c0 1d76 d340
00000350: 1e8c d4c0 c6c6 d640 3f1c d740 360c d1c0
00000360: 8ac3 d0c0 75bb d540 bd95 cec0 9f6f d5c0
00000370: c023 d7c0 aba9 de40 7711 dac0 44db d740
00000380: 8c26 d940 4b72 d740 0577 d9c0 a118 dec0
00000390: d18f d140 11f4 d6c0 e1bf d240 2c33 cf40
000003a0: fdf0 d740 b983 d5c0 315a d8c0 c033 d340
000003b0: d92f bec0 6ada d240 aa96 d340 0b9d d440
000003c0: 213b d540 a857 d140 18da d6c0 6e4f d5c0
000003d0: 0b39 d740 d444 dac0 5351 d540 0cff d640
000003e0: 3f64 dbc0 e010 98c0 f287 dcc0 c089 d540
000003f0: da77 d7c0 ff76 dbc0 3f27 de40 d7ca d4c0
6.3407793 -6.7324953 -6.7751784 6.597338 -6.7345386 6.6019444 6.476696 6.7437696
-6.4256315 6.7533484 6.537334 6.676728 6.6041617 6.581735 -6.640359 6.7576046
-6.5365596 -6.76446 -6.582585 6.8099127 -6.826827 6.9952145 6.7893553 -6.6148386
5.9789066 -6.8492336 6.81915 -6.6175065 -6.8904486 6.7346663 -6.5767574 -6.724127
-6.5679283 6.6882973 6.7265315 -6.7302175 -6.6198077 6.5728188 6.603236 -6.711811
-6.624706 6.814813 -6.8407273 -6.7101665 6.867098 6.755899 -6.9291716 -6.759776
6.7271843 6.6716866 6.6543565 6.658513 6.6715593 -6.543717 6.5625267 6.554032
-6.5145626 6.620658 -6.4969606 -6.543909 6.498952 -6.620849 -6.486734 -6.527006
6.8080797 -6.83533 6.6541886 6.944819 -6.722435 -5.0638804 -6.793775 6.7908053
-6.474738 -6.8628154 6.7555165 -6.5752106 -6.712363 -6.759415 6.5681314 6.524477
-6.6187053 -6.6249914 6.652873 6.6957607 -6.467808 -6.626655 6.7996144 -6.6355877
-6.3376417 6.8355184 -6.502933 -6.845649 -6.84003 6.5371037 -6.628763 6.590301
-6.6254787 6.8312125 -6.7385435 -6.684539 6.5829406 -5.282918 -6.6736875 6.7002707
6.5187764 6.5044837 6.6802897 6.524444 -6.542983 6.815913 -6.798619 6.681228
6.647659 -6.7083583 -4.107397 -6.673694 6.9338393 -6.589654 -6.8076396 6.7725916
6.748111 6.485876 -6.6346726 6.7457557 6.560905 6.6469536 6.749532 6.718958
-6.473785 -6.642158 6.5849357 6.7411985 -6.8586063 6.5611787 6.659519 6.7806444
-6.8946357 -6.8372874 6.7218404 -6.5505204 6.51402 6.7520633 6.9268417 -6.5335507
-6.531398 6.736609 -6.41216 6.4654856 6.6831827 6.6956186 6.6789103 6.6059484
-6.4808316 -6.618131 7.0212164 -6.7554727 6.709392 6.9200563 -6.9986362 5.085103
-6.864833 6.854074 -6.5272784 -6.9884553 6.887633 -6.5384884 6.772255 -6.515539
6.510759 6.6585712 -6.682887 -6.4927745 6.4569755 -6.5346766 -6.5487795 6.661744
6.762322 -6.7261405 6.5615377 6.7532234 6.5814342 -6.861786 -7.0691223 6.534223
6.4239984 6.6805053 6.6019583 6.816976 -6.7404313 -6.7353063 6.5606394 -6.644142
6.504919 -6.3561206 6.77389 6.6978884 6.5893683 -6.5603085 -6.474684 6.961935
-7.029195 6.7451806 6.855119 -6.991992 6.2020936 -7.032264 6.92625 -6.5287113
-6.780152 6.84177 -6.602005 6.608168 -6.642104 6.7117643 6.722198 -6.5327406
-6.5238695 6.679133 -6.4557786 -6.6698756 -6.723114 6.9582114 -6.814632 6.745516
6.7859554 6.732702 -6.7957788 -6.9405065 6.5488057 -6.7172933 6.5859227 6.4749966
6.7481675 -6.6723294 -6.7610097 6.600067 -5.943341 6.589162 6.6121416 6.6441703
6.663468 6.54195 -6.714123 -6.665946 6.7257133 -6.820902 6.6661773 6.7186337
-6.855987 -4.75206 -6.891595 6.673065 -6.7333803 -6.858276 6.942291 -6.6497607

lstm.weight_hh_l0 f4 [180, 45]
00000000: 1096 73bc 4b1e 103e 37b5 15be e0ef 823b
00000010: 84f7 14be 31a0 b9bd 08e3 1d3d 222c cc3d
00000020: 40ef c2bc 95e2 073e 0e7f 8a3d aaec 09be
00000030: 3024 18bd e058 b9bc 188d c2bc cc5f 803d
00000040: 6ac5 fb3d 46ea cfbd 5a5f a9bd 94f1 b5bd
00000050: 7883 e33c 6c35 753d e284 c8bd 1828 a53d
00000060: 2a7d 863d 02a6 34bd a43a 38bd e1a7 0ebe
00000070: 86e5 c2bd ccb7 2e3d 6007 6f3d a991 063e
00000080: 4657 0dbd 149d ce3d 1c78 a9bd 49f9 f3bd
00000090: 2eaa 02be 2451 c93d 385b c0bc c2cd f63d
000000a0: fcf2 5ebd 6d13 183e 801e 813d dd4f 8dbd
000000b0: 7282 a53d 9029 17bd acba cb3d e8e5 b5bc
000000c0: 0158 173e eed3 e33d 021b 0cbe 6060 0a3d
000000d0: d0ea 46bc 70f1 61bd 6435 9c3d 48dd ddbc
000000e0: a027 5fbd 1827 ccbd 36c3 f0bd 6a07 b73d
000000f0: 8685 c33d 18ea 9fbc fc42 bf3d ea87 82bd
00000100: 56c5 f83d 9e92 0dbd 26cd 8b3d c013 bd3c
00000110: cf51 113e f8df 93bc ea8e f3bd 76ea c5bd
00000120: c033 bebb a80c 0dbd 0cda c2bd d619 debd
00000130: f1b8 09be a4c3 1dbd d6de c63d 2824 b23c
00000140: 009b 4d3b 4d57 17be c033 f23b 2cfd 10be
00000150: 82b6 cabd 5469 92bd ff04 07be c001 86bc
00000160: c6a7 9e3d b2a5 d1bd 67bd 16be 22b4 e8bd
00000170: 1027 5a3c 8d6b 173e dac4 f13d c55a 0c3e
00000180: 40d8 543b fc75 5d3d 8082 2bbd 88ef eebd
00000190: a837 153d 8491 993d 4e29 e93d e084 b1bd
000001a0: 48bb c53c feba f4bd 2278 08be 16fd 8abd
000001b0: 74ef d8bd e5a5 e7bd d02c 39bc 95f7 01be
000001c0: e04d f0bd d256 d3bd d3fe babd b08a 1f3c
000001d0: 28e1 8ebc 2a1d 803d 582f c0bc 6cb4 713d
000001e0: baaa 0ebd b6b6 993d b058 843d 1a78 f53d
000001f0: a87c e63c 2af8 e8bd 64d1 4a3d 80db 433c
00000200: 68cb bcbd 0ed8 823d 9c51 0f3d 7857 b3bc
00000210: c62f ddbd da40 21bd aec6 afbd a807 983c
00000220: ea49 8bbd 8080 e6bb d64c 03bd d86c 303d
00000230: 8026 8c3d f863 eebc 14a5 b53d 082f 04be
00000240: 0b97 113e 8368 113e d1bc 023e 8aa2 afbd
00000250: 6699 1fbd 50db 123d b4d0 fbbd faf1 dc3d
00000260: 80b7 c83b fdac 003e e6fd ffbd 1692 25bd
00000270: f22f 08be 48fb 5dbd 1821 cd3c 0076 64bb
00000280: 684f 7a3d 2c09 47bd 3031 34bd 3969 e8bd
00000290: eaaa 13be 1575 013e 816b d3bd f9db f8bd
000002a0: 88f4 0ebd 0032 5abc 8847 ea3c 2e43 dbbd
000002b0: 1d07 e1bd ef07 02be 7e02 a13d 94b8 8d3d
000002c0: 407c 88bd 0088 153b b060 e4bc 54db 153d
000002d0: 8ca6 c0bd cd37 9ebd 00e4 f4bc 6248 17bd
000002e0: aa52 a4bd 94d9 e3bd 08f1 9cbc fad5 f1bd
000002f0: 543c fabc 2957 013e 4087 3a3d 707e 593c
00000300: 608c 1cbd 0e09 913d 5093 543d 4eef a63d
00000310: c431 9e3d d856 8a3c 4079 bdbc 7689 fdbd
00000320: 1e2c dfbd 46a0 af3d 781e e8bc f085 073c
00000330: ecdd 06be 18c8 cbbd fb6c a8bd ce30 de3d
00000340: ba23 e63d ee8a 2dbd c7bd 8abd 5a0f d63d
00000350: 9ce7 b03d 6a6b b0bd ee35 e93d cccb 6e3d
00000360: b004 643c 9e79 8bbd bc48 c73d c7e8 aebd
00000370: c023 edbb 5130 d9bd 89e0 14be bfb2 8ebd
00000380: f602 59bd 80a6 763d b8df b53d cbb6 01be
00000390: ae31 ae3d 0e8e dbbd af97 0e3e 7fd9 c1bd
000003a0: c417 0b3d b0d2 3f3d 9e9d 07bd 7d93 a8bd
000003b0: 0de5 0d3e f148 173e 51c9 043e a2c7 58bd
000003c0: 805d 503c f21b b8bd 00c3 0fba af37 ecbd
000003d0: b8bf 48bd 18d3 653d 2846 bcbd 165e b3bd
000003e0: 1a8b e03d b0f3 57bd 14c3 8ebd f6a7 8f3d
000003f0: 4aee e3bd 0ae6 04bd 80d1 023b 9a9d f43d
-0.014867321 0.14074056 -0.14619909 0.0039958805 -0.14547545 -0.09063757 0.038546592 0.09969355
-0.023795724 0.13270028 0.06762515 -0.13469186 -0.037143886 -0.022625387 -0.02374892 0.06268272
0.12293513 -0.10152106 -0.0827014 -0.08883968 0.02777265 0.0598654 -0.097909704 0.08064288
0.06566842 -0.04410363 -0.0449778 -0.13931228 -0.09516434 0.04265575 0.058356643 0.13141502
-0.03450706 0.10088554 -0.08274862 -0.11912782 -0.12760231 0.098299295 -0.023480996 0.12050964
-0.054430947 0.1485116 0.063046455 -0.06899998 0.08081521 -0.03690487 0.09947714 -0.022204354
0.14779665 0.11124407 -0.13682178 0.033783317 -0.012140945 -0.055161893 0.07627371 -0.027083054
-0.05448115 -0.09968394 -0.117559835 0.08936961 0.09546952 -0.019520804 0.09338948 -0.0637358
0.12147014 -0.034563653 0.06826238 0.023080707 0.14191364 -0.018051133 -0.11892493 -0.096638605
-0.005804509 -0.034435898 -0.095142454 -0.108447716 -0.13449456 -0.038516656 0.09710471 0.021745756
0.0031372905 -0.14779396 0.007391423 -0.14159077 -0.09898092 -0.07148996 -0.131855 -0.016358256
0.07746844 -0.10236682 -0.14720689 -0.113624826 0.013314977 0.14787121 0.118051246 0.13706501
0.0032477528 0.054067597 -0.0418725 -0.11666781 0.03643003 0.07498458 0.11384831 -0.08667922
0.024137154 -0.119497284 -0.13327077 -0.067865536 -0.10592547 -0.11310939 -0.011302188 -0.12692101
-0.117336035 -0.10319294 -0.09130635 0.0097376555 -0.017441347 0.062555626 -0.023460075 0.059009954
-0.034830786 0.075055525 0.06462228 0.11985798 0.028135613 -0.113754585 0.049516097 0.011954188
-0.09218484 0.063888654 0.03498994 -0.021892294 -0.10800128 -0.039368488 -0.08582817 0.018558338
-0.06801207 -0.0070343614 -0.0320557 0.04307255 0.06843281 -0.029100403 0.08869377 -0.12908566
0.14217775 0.14200024 0.1276734 -0.08575924 -0.03896465 0.035853684 -0.12295666 0.10788341
0.0061253905 0.1256599 -0.12499599 -0.04042252 -0.1329954 -0.05419472 0.025040194 -0.0034860373
0.061110884 -0.04859273 -0.04399222 -0.11348195 -0.14420667 0.1264232 -0.10323239 -0.121513315
-0.034901172 -0.013317585 0.028598562 -0.10706173 -0.10987685 -0.12698339 0.078618035 0.06919971
-0.06664324 0.0022816658 -0.027878135 0.03658612 -0.09406766 -0.07725487 -0.029893875 -0.036934264
-0.080235794 -0.11125484 -0.019157901 -0.11808391 -0.030546345 0.12630905 0.04553914 0.013274774
-0.03821981 0.07081805 0.0518983 0.081511125 0.07724336 0.016887113 -0.023129106 -0.12379734
-0.108970866 0.085754916 -0.028334841 0.008271679 -0.13170594 -0.09950274 -0.082239114 0.108491525
0.11237283 -0.04236882 -0.067744784 0.10452147 0.08637926 -0.086142376 0.113872394 0.058299825
0.013917133 -0.06810306 0.0973067 -0.085404925 -0.0072369277 -0.10604919 -0.14538778 -0.06967687
-0.05298134 0.06021738 0.088805616 -0.12667386 0.085055694 -0.10720454 0.1392505 -0.09465312
0.03395821 0.046831787 -0.0331093 -0.08231256 0.13856907 0.14773919 0.12967421 -0.05292476
0.012717605 -0.08989705 -0.00054840744 -0.11534058 -0.049010962 0.056109518 -0.09193069 -0.0875818
0.109640315 -0.052722633 -0.06970802 0.07014458 -0.111294344 -0.032445945 0.0019961298 0.119441226

lstm.bias_ih_l0 f4 [180]
00000000: ba0e ea40 539d eb40 fff4 e840 2e1c eb40
00000010: 4c80 ec40 d585 e840 f147 ed40 37cf ec40
00000020: c5e8 e740 f2f5 eb40 5a4b ea40 2f99 eb40
00000030: 67ec ea40 0e12 ed40 8a45 ed40 a550 e440
00000040: 819b e640 cb02 ed40 e751 f040 9e1c ea40
00000050: d6e3 eb40 8d27 ed40 978f ea40 345f ea40
00000060: 5615 e840 bd71 e940 7481 ea40 454c e840
00000070: 1ff5 ea40 4d64 f040 9400 f040 3419 ec40
00000080: cedb ea40 03d9 e940 5f26 f340 e2a7 e940
00000090: 95e6 ed40 1a1a e740 f641 ef40 f878 f240
000000a0: b352 ec40 557c ef40 82f3 f340 1180 ec40
000000b0: 2b50 ef40 8c08 9ebd 001a de3b a0bd efbb
000000c0: 8cae 0d3d 7809 1dbd 18b0 be3d a23b cf3d
000000d0: c424 b63d 12a1 25bd d601 14bd 86e2 e53d
000000e0: 1652 d63d b821 2f3d 32b4 6cbd d4c3 f0bd
000000f0: 2045 adbb 20d5 97bb 302d c0bd 8ca9 913d
00000100: 34c6 ae3d 9c77 893d 509e bcbc ae25 b3bd
00000110: 8485 0ebe 5e0a b6bd 0062 aebd 3785 a7bd
00000120: 619f d2bd 127a 93bd 7773 143e 6431 a3bd
00000130: 98f6 623d 3ed0 c1bd 9640 c33d 4723 0abe
00000140: 4cb7 343d a709 153e a2b3 9ebd 781e 9c3c
00000150: 04c8 12be 867a 78bd ca2c e53d 84e3 c03d
00000160: 64ef 513d 76ee a83d 6eef f7c0 9096 eec0
00000170: 015c ef40 b3a8 f5c0 f511 f7c0 2d7e eac0
00000180: b325 f7c0 56ad ecc0 8473 eb40 17ba e740
00000190: 8199 e5c0 70d5 0041 97e7 fec0 4e99 f1c0
000001a0: cc9a f640 e046 ea40 f87d e3c0 6c18 e640
000001b0: 2765 fd40 954e f440 2214 e640 0e97 e7c0
000001c0: 3702 f6c0 6bb7 e640 1fa0 f040 5b17 ecc0
000001d0: ab3b efc0 3d0a f540 0b31 ee40 a632 e740
000001e0: 8f66 e6c0 118b eec0 4e3a f240 4133 e940
000001f0: d2ac e5c0 aafb ec40 500a e440 2303 f040
00000200: 471c f5c0 d24f f140 e719 ee40 cb20 f0c0
00000210: eaec fac0 aeef e9c0 b021 ecc0 ea5c ee40
00000220: b422 ec40 6f6f f040 f34e eb40 cbd4 ea40
00000230: dc19 ec40 670a eb40 b09c ec40 2cec ee40
00000240: f423 f340 9c28 ef40 4493 f340 bd62 ef40
00000250: 0f47 ed40 66f4 f140 0f70 ee40 19ae ec40
00000260: 8fbe ed40 60df f240 6e2b ee40 866a ec40
00000270: 75de f140 4c1e ee40 a950 ee40 c51b eb40
00000280: 40d5 f040 31f3 ed40 7398 e640 b10b e640
00000290: 37c8 f340 7cb8 f040 fc58 ea40 08fd e940
000002a0: a63b ec40 e3c1 f340 5b6c eb40 7233 ee40
000002b0: 3642 ee40 e7f4 ef40 3139 ee40 11b3 ea40
000002c0: b3d2 ef40 72f9 f440 c1dc e740 cd97 e940
7.3142977 7.3629546 7.2799067 7.34719 7.3906612 7.266337 7.415032 7.400295
7.2471642 7.3737726 7.321698 7.362449 7.3413577 7.408454 7.4147387 7.1348443
7.2064824 7.406591 7.509998 7.3159933 7.371562 7.411078 7.330028 7.3241215
7.2526045 7.295134 7.3283024 7.2593102 7.342422 7.5122437 7.5000706 7.3780766
7.3393316 7.3077407 7.598434 7.3017435 7.434397 7.221936 7.476802 7.5772667
7.385095 7.4839272 7.623475 7.390633 7.478536 -0.07716474 0.006778002 -0.0073163062
0.03459029 -0.03833911 0.09310931 0.10118796 0.08893731 -0.04043681 -0.036134563 0.112248465
0.104648754 0.042756766 -0.057789035 -0.11756101 -0.0052877814 -0.004633561 -0.09383619 0.071124166
0.08533898 0.06712267 -0.023024708 -0.08747421 -0.1391812 -0.08888696 -0.08514786 -0.081797056
-0.10284305 -0.072010174 0.14497171 -0.07968405 0.05541095 -0.09463547 0.09533803 -0.1349002
0.044120118 0.14554463 -0.07749106 0.019057497 -0.14334112 -0.060663722 0.111901835 0.09418395
0.05125369 0.08248608 -7.7479773 -7.455879 7.479981 -7.676843 -7.720942 -7.3279023
-7.723352 -7.396159 7.357851 7.241466 -7.1749883 8.052109 -7.9657702 -7.549964
7.706396 7.3211517 -7.109127 7.190481 7.9185977 7.6345925 7.1899576 -7.2371893
-7.6877704 7.20989 7.519546 -7.377851 -7.4760337 7.6575 7.4434867 7.2249327
-7.2000194 -7.454476 7.5696173 7.2875066 -7.177346 7.4057207 7.126259 7.500383
-7.659702 7.5409937 7.440662 -7.504003 -7.84142 -7.310508 -7.3791122 7.448842
7.379236 7.5136027 7.3533874 7.3384757 7.3781567 7.34502 7.394127 7.4663296
7.598139 7.473707 7.6117268 7.480803 7.414924 7.561084 7.451179 7.396252
7.4295115 7.5897675 7.4428015 7.3880033 7.5584054 7.4411983 7.447346 7.34714
7.5260315 7.4359365 7.2061095 7.188927 7.6181903 7.52252 7.3233624 7.3121376
7.3822813 7.617418 7.356977 7.44378 7.4455824 7.4986453 7.4444814 7.3343587
7.49447 7.65545 7.2456975 7.2997804
