Ni_prediction/savemodel/bst_mod_626.pth (torch_old, 533443 bytes, 44 tensors)

price_encoder.attention.weight f4 [1, 121]
0	0x411912e6	9.567114
1	0x4119a3ba	9.602472
2	0x41183cda	9.514856
3	0xc119a15f	-9.601897
4	0xc1172613	-9.446795
5	0x41171658	9.442955
6	0x4118fe66	9.562109
7	0xc115709e	-9.339994
8	0x4118ab41	9.54181
9	0x4117e49a	9.493311
10	0x41181831	9.505906
11	0x41194f23	9.5818205
12	0xc1174b9e	-9.455961
13	0xc1184d83	-9.518924
14	0xc1187016	-9.527365
15	0x4117957a	9.473993
16	0x411726a8	9.446938
17	0xc117a4a9	-9.4777
18	0x41156f2b	9.339641
19	0x4118564c	9.521069
20	0x4115b0e3	9.355685
21	0x41186c77	9.526481
22	0x41193a84	9.576786
23	0xc118fc6a	-9.561625
24	0xc11903ca	-9.563425
25	0x41181a0c	9.506359
26	0xc1174e14	-9.456562
27	0xc1193c8d	-9.577283
28	0xc118e4f2	-9.555895
29	0xc117b6c1	-9.482118
30	0x41188378	9.532097
31	0xc1181040	-9.503967
32	0x41185086	9.519659
33	0x4119bb34	9.608204
34	0x41173b67	9.452003
35	0x411824d7	9.508994
36	0xc11904dc	-9.563686
37	0x41193840	9.576233
38	0x41189770	9.536972
39	0xc118f46d	-9.559674
40	0x41185b3a	9.522272
41	0x4119c6d0	9.611038
42	0x41179c27	9.475623
43	0x41192753	9.572101
44	0x41174356	9.453939
45	0x4119358f	9.575576
46	0x41192e00	9.57373
47	0x41192bc6	9.573187
48	0x4119b5af	9.606856
49	0x411825e1	9.509248
50	0x41178542	9.470034
51	0x4117e4f6	9.493399
52	0x4118b0fd	9.54321
53	0x4117c933	9.486621
54	0x4116c6c6	9.423529
55	0x41188174	9.531605
56	0x4118dfa4	9.5546
57	0xc1199900	-9.5998535
58	0xc1188024	-9.531284
59	0x4119e72a	9.618937
60	0x411773d2	9.465776
61	0xc1195eb8	-9.585625
62	0xc118cff2	-9.550768
63	0xc116a9b3	-9.41643
64	0xc11999ac	-9.600018
65	0x41196133	9.58623
66	0x4118675e	9.525236
67	0x4117c79a	9.486231
68	0x4117602c	9.460979
69	0xc11842ee	-9.51634
70	0xc1181036	-9.503958
71	0x41188081	9.531373
72	0x4118c61d	9.5483675
73	0x4117625f	9.461516
74	0xc1177e62	-9.468355
75	0x411715fc	9.442867
76	0xc1177cb6	-9.467947
77	0x41076b08	8.463631
78	0x411969fd	9.588376
79	0x4118da2d	9.553266
80	0xc1174953	-9.455401
81	0xc1176d36	-9.464163
82	0x411888c3	9.533389
83	0x4117f6d9	9.497766
84	0x41199143	9.597964
85	0xc119b5a1	-9.606843
86	0xc11703f1	-9.438462
87	0xc119c5e4	-9.610813
88	0x41193de2	9.577608
89	0x41193a30	9.576706
90	0x4119c17f	9.60974
91	0x4119a5e1	9.602998
92	0x4117ed61	9.495454
93	0x411964dd	9.587125
94	0xc117b3bf	-9.481383
95	0xc119cdf4	-9.612782
96	0xc117b774	-9.482288
97	0x4118c9e1	9.549287
98	0xc119106a	-9.566507
99	0x4116c317	9.422629
100	0x4117ca90	9.486954
101	0x4117ffda	9.499964
102	0x41187453	9.528399
103	0x411986fc	9.595455
104	0x4119262a	9.571817
105	0x4117a4bf	9.477721
106	0x411721a8	9.445717
107	0x411931ad	9.574628
108	0x41194bbf	9.580993
109	0x411870d9	9.527551
110	0x41171809	9.443368
111	0x411882f9	9.531976
112	0x4116fd89	9.436898
113	0x4118d233	9.551318
114	0x411997bb	9.599544
115	0x41171d67	9.444678
116	0x4117fc28	9.499062
117	0x4117dea1	9.491853
118	0x41195808	9.583992
119	0x4118b527	9.544227
120	0x411933af	9.575118

price_encoder.encoder.weight_ih_l0 f4 [180, 45]
0	0xbdce781c	-0.10081503
1	0xbdf18632	-0.11793174
2	0x3d033218	0.032030195
3	0x3da90520	0.08252931
4	0xbd637be6	-0.05553808
5	0x3dd5b0a2	0.10434081
6	0x3da10980	0.0786314
7	0xbdf9ef0a	-0.12203796
8	0xbdd440b7	-0.10363906
9	0xbc431540	-0.011906922
10	0xbde1f873	-0.11033716
11	0xbd6cefce	-0.057845883
12	0xbcd9dabc	-0.026593558
13	0x3cfb40d8	0.030670568
14	0xbdf7b2be	-0.12094639
15	0x3c76ab70	0.015055522
16	0x3d509afc	0.050929055
17	0xbdaa4008	-0.08312994
18	0x3db96168	0.09051782
19	0x3debb1e6	0.11508541
20	0x3de1e58d	0.110301115
21	0x3d8c7c47	0.068596415
22	0xbdda5cb0	-0.1066221
23	0xc116b69e	-9.419584
24	0xbe1478d7	-0.14499222
25	0xbe17f2a5	-0.14838655
26	0xbdf93d6b	-0.12169918
27	0x3e03a35b	0.12855284
28	0x3e084b53	0.13309984
29	0x3d149a38	0.036279887
30	0xbe07550b	-0.13216035
31	0xbbfcf9e0	-0.007720217
32	0x3deff8b6	0.1171736
33	0x411355c0	9.208435
34	0x4117b28c	9.481091
35	0x4117f9b1	9.49846
36	0x41183d7d	9.515012
37	0x41185042	9.519594
38	0xbf2824f2	-0.65681374
39	0x411777d1	9.466752
40	0x411acff7	9.675773
41	0x4119abcf	9.604445
42	0x41176e3e	9.464415
43	0x3cc6ba88	0.024258867
44	0xbdfebdd6	-0.12438552
45	0xbdff9c7c	-0.12481019
46	0x3d8f53ac	0.06998381
47	0x3de25c1b	0.11052724
48	0x3d384af0	0.04499334
49	0x3dbc29f6	0.09187691
50	0x3e00668d	0.1253912
51	0xbd8d1702	-0.06889154
52	0x3db11f97	0.086486034
53	0x3d7da685	0.061926384
54	0x3d006e70	0.03135532
55	0x3dbbee88	0.091763556
56	0xbca8f750	-0.02062574
57	0x3d8afcfa	0.06786533
58	0x3e04b81f	0.12960862
59	0x3c45dc60	0.012076467
60	0xbe1125a3	-0.14174514
61	0xbe0937c7	-0.13400184
62	0x3b9ef960	0.004851505
63	0xbd068a28	-0.0328466
64	0x3ddf4ed3	0.109037064
65	0x406dd466	3.7160888
66	0x3da18bb3	0.07887974
67	0xbaa17620	-0.0012318529
68	0x4116326c	9.38731
69	0xbdf6e777	-0.12055867
70	0xbe1393cb	-0.14411847
71	0x3df7377a	0.12071128
72	0xbd3aaf3e	-0.04557728
73	0xbe118e20	-0.14214373
74	0xbb4c3b40	-0.0031163245
75	0xbd32a98a	-0.043618716
76	0x3e0e5457	0.1389936
77	0xbdc0bb21	-0.09410692
78	0x411713c7	9.442328
79	0x41166cb7	9.401542
80	0x41180b91	9.502824
81	0x41174d8e	9.456434
82	0x411a91be	9.660582
83	0xbe075a03	-0.1321793
84	0x41177731	9.466599
85	0x4116ecd2	9.432817
86	0x41172774	9.447132
87	0x4119ba4c	9.607983
88	0x3d243a10	0.040094435
89	0x3d347b70	0.04406303
90	0x3dd87b7b	0.10570427
91	0xbbdd53a3	-0.006754355
92	0xbdf07498	-0.117409885
93	0xbde03235	-0.10947076
94	0x3ce79828	0.028270796
95	0x3d519c85	0.05117466
96	0x3d85c2a8	0.06531268
97	0x3d88b768	0.06675607
98	0xbcdc22f4	-0.026872136
99	0xbdab928e	-0.083775625
100	0xbe061ec6	-0.13097677
101	0x3ca12e30	0.019675344
102	0xbd4b799e	-0.04967653
103	0xbdcf06a0	-0.101086855
104	0x3bbaf560	0.0057055205
105	0x3c88c158	0.016693756
106	0x3dc21f42	0.09478618
107	0xbdc7a884	-0.09748939
108	0x3c6c6110	0.014427438
109	0xbd9acd55	-0.07558695
110	0x40510610	3.265995
111	0x3cb786b2	0.022403095
112	0xbccdadbc	-0.025107257
113	0x4117c349	9.485177
114	0xbd5c9524	-0.05385317
115	0x3d26d200	0.040727615
116	0xbd35007e	-0.044189923
117	0x3c407217	0.011745951
118	0xbdced651	-0.10099471
119	0x3e106e33	0.14104538
120	0xbddf4c42	-0.10903217
121	0x3e1028df	0.14078091
122	0xbe0e1fbc	-0.13879293
123	0x411a25fc	9.634274
124	0x41166827	9.400428
125	0x4117fb4d	9.498853
126	0x41190866	9.56455
127	0x4119ddf7	9.616691
128	0xc11622ae	-9.383467
129	0x4117c65e	9.4859295
130	0x4119adab	9.604899
131	0x41167ebd	9.405942
132	0x41179c1a	9.475611
133	0x3d6fd194	0.05854948
134	0xbd80bc1d	-0.0628588
135	0x3dc74bc2	0.097312465
136	0xbd5eb946	-0.05437591
137	0xbe05178e	-0.12997267
138	0xbcaf0584	-0.021364935
139	0xbd207630	-0.039175212
140	0x3ded556c	0.115885586
141	0x3df774fa	0.120828584
142	0x3dc1e79a	0.094680026
143	0xbb8ef518	-0.0043627135
144	0x3da1b518	0.07895869
145	0x3de6a102	0.112611786
146	0x3decfab6	0.11571257
147	0x3dc9baf0	0.098501086
148	0xc1164deb	-9.394023
149	0x3d11ea5c	0.035623893
150	0x3d7c364c	0.06157522
151	0xbd15dab6	-0.036585532
152	0xbc175ca0	-0.009238392
153	0x407b5f59	3.9276946
154	0x3d31682e	0.043312244
155	0xbee3d71c	-0.44500053
156	0xbc98ab4e	-0.018636372
157	0x3d610e30	0.05494517
158	0xc11862ba	-9.524103
159	0x3d46da8c	0.048548266
160	0x3e14e60d	0.14540882
161	0xbd83b840	-0.06431627
162	0xbdb63032	-0.08895911
163	0xc118d3f3	-9.551745
164	0x3daf2378	0.08551687
165	0x3dc778aa	0.09739812
166	0xc0fee5f6	-7.9655714
167	0xbdb93234	-0.090427786
168	0xc119c0e8	-9.609596
169	0xc119b453	-9.606524
170	0xc117083c	-9.43951
171	0xc1174aa9	-9.455728
172	0xc1199a9e	-9.600248
173	0xbdc6e87a	-0.0971231
174	0xc1176667	-9.462501
175	0xc1187fa6	-9.531164
176	0xc1170956	-9.439779
177	0xc1172ae0	-9.447968
178	0x3da12df2	0.078700915
179	0x3d176de8	0.03697005
180	0xbdb04bfc	-0.08608243
181	0xbcac62b8	-0.021043167
182	0x3dac5966	0.08415489
183	0x3e0d0c21	0.13774158
184	0x3db1143c	0.086464375
185	0x3e13119a	0.14362183
186	0xbe0d4c9e	-0.13798758
187	0xbe12feac	-0.14354962
188	0xbdb49862	-0.08818127
189	0xbd559764	-0.05214633
190	0x3d59df98	0.05319175
191	0xbe14d623	-0.14534812
192	0xbdd89c32	-0.10576667
193	0xbda6f1cf	-0.0815159
194	0xbbed5a80	-0.0072434545
195	0x3db28466	0.08716659
196	0xbd08b124	-0.03337206
197	0xbdb8dcfc	-0.090265244
198	0x3d1d3268	0.03837815
199	0xbdb3c2a6	-0.087773606
200	0xbe66ea5d	-0.2255034
201	0x3dac634a	0.084173754
202	0x3d1f72fc	0.038928017
203	0xc118012c	-9.500286
204	0x3dcd49b2	0.10023822
205	0x3e10c781	0.14138605
206	0x3d99f56c	0.07517514
207	0x3cdfda50	0.02732578
208	0x3e03287d	0.12808414
209	0x3dfa30ca	0.12216337
210	0x3d5d4248	0.05401829
211	0xbc8c2800	-0.017108917
212	0xbdd6d87b	-0.10490509
213	0xc115de8f	-9.366836
214	0xc11a086c	-9.627056
215	0xc11a8a31	-9.658738
216	0xc11784c2	-9.469912
217	0xc1188e17	-9.53469
218	0xbbb149e0	-0.005410418
219	0xc1182ae1	-9.5104685
220	0xc116b184	-9.418339
221	0xc1161d7b	-9.382197
222	0xc11982d6	-9.594442
223	0xbda32724	-0.0796645
224	0xbc3aee70	-0.011409387
225	0xbc8aae18	-0.016928717
226	0x3d86267c	0.06550309
227	0x3c74b9d0	0.014936879
228	0xbd1cc4f8	-0.03827378
229	0x3e01b559	0.12666835
230	0x3e16386f	0.14669965
231	0xbacb40b8	-0.0015506959
232	0x3e185ddf	0.14879559
233	0x3d81ed7c	0.06344125
234	0x3de7afbe	0.11312817
235	0xbe06b870	-0.13156295
236	0x3dbbd360	0.09171176
237	0xbdbb1d73	-0.09136476
238	0x41171d9d	9.44473
239	0x3c0f5b70	0.008749828
240	0x3af8ab00	0.001897186
241	0x3d1f5974	0.03890367
242	0x3cd21fe8	0.02564998
243	0xbdd3b1fa	-0.10336681
244	0x3d9ecca4	0.07753876
245	0xbe14150d	-0.14461155
246	0xbd9f8d49	-0.0779062
247	0xba9456fa	-0.0011317425
248	0xc11ade65	-9.679296
249	0x3cde2960	0.027119339
250	0xbdba2b95	-0.09090344
251	0x3df27b96	0.118399784
252	0xbd1f6ed6	-0.03892406
253	0x41189115	9.53542
254	0x3d836bf8	0.06417078
255	0x3e0aa5a1	0.13539745

price_encoder.encoder.weight_hh_l0 f4 [180, 45]
0	0x411a4e8a	9.644175
1	0x4118dd68	9.554054
2	0x4116ab66	9.416845
3	0xc116aff5	-9.417958
4	0x411858aa	9.5216465
5	0x411775f3	9.466296
6	0x41182cc5	9.51093
7	0xc11a5b5b	-9.647304
8	0xc11838d5	-9.513875
9	0xc11756dd	-9.458707
10	0xc119ec80	-9.620239
11	0x41198884	9.595829
12	0xc1178098	-9.468895
13	0xc1188100	-9.531494
14	0x41173798	9.451073
15	0xc11a9cf0	-9.663315
16	0x41170045	9.437566
17	0xc1190403	-9.563479
18	0x41163df7	9.390128
19	0xc11a7b3c	-9.6550865
20	0x4116488c	9.392712
21	0x41182671	9.509385
22	0x41168a04	9.408695
23	0x41172601	9.446778
24	0xc1180847	-9.502021
25	0xc1162471	-9.383897
26	0xc116b1b7	-9.418387
27	0x41179039	9.472711
28	0xc1163c49	-9.389718
29	0xc117975d	-9.474454
30	0x4116f186	9.433966
31	0xc118ad60	-9.542328
32	0x4118318a	9.5120945
33	0x4118a7dc	9.540981
34	0x41183dfd	9.515134
35	0xc116334c	-9.387524
36	0xc117c944	-9.486637
37	0x41191bd5	9.569295
38	0x41172861	9.447358
39	0x411ade4e	9.679274
40	0x411a0a9b	9.627589
41	0x411771d3	9.465289
42	0xc1192339	-9.571099
43	0x411a92f4	9.660877
44	0xc119f85f	-9.623137
45	0xc11a5bc5	-9.647405
46	0xc11961a9	-9.586343
47	0xc11875f6	-9.528799
48	0x41193af6	9.576895
49	0xc1171449	-9.442452
50	0xc119efc9	-9.621041
51	0xc116c2d8	-9.422569
52	0xc119c0df	-9.609588
53	0x41179e34	9.476124
54	0xc1197787	-9.5916815
55	0x411738ec	9.451397
56	0xc11ac94e	-9.674147
57	0x41166547	9.399726
58	0x41178a1a	9.471216
59	0xc118a1fd	-9.539548
60	0x411a60a0	9.64859
61	0xc117a585	-9.47791
62	0x4116578c	9.396374
63	0xc117190e	-9.443617
64	0x41187acc	9.52998
65	0x411702ff	9.438231
66	0xc119dc91	-9.616349
67	0xc11700cb	-9.437694
68	0xc118cd6c	-9.550152
69	0x411a72d7	9.653037
70	0x41198a72	9.5963
71	0x41171c31	9.444383
72	0xc117c2ad	-9.485028
73	0x41163cf0	9.389877
74	0x41192c18	9.573265
75	0xc11a9219	-9.660668
76	0x41195342	9.582827
77	0xc118c33e	-9.547667
78	0xc11952f5	-9.582753
79	0xc116f6a1	-9.435212
80	0x411691ec	9.410625
81	0x41182aaf	9.510421
82	0xc119e21b	-9.617702
83	0xc1169515	-9.411397
84	0xc119bbaa	-9.608316
85	0xc1187d20	-9.530548
86	0xc117ddc2	-9.49164
87	0x41195c10	9.584976
88	0xc11712cb	-9.442088
89	0x41172d31	9.448533
90	0xc1176c1e	-9.463896
91	0xc11976b6	-9.591482
92	0xc11a7dec	-9.655743
93	0x4118c27f	9.547484
94	0xc116a602	-9.415529
95	0xc118c7ce	-9.54878
96	0xc1165459	-9.395593
97	0xc117b7ce	-9.482374
98	0x411901fb	9.5629835
99	0xc117fa9e	-9.498686
100	0x411ab569	9.66929
101	0xc117d53c	-9.489559
102	0x411a5677	9.64611
103	0x4119529e	9.58267
104	0xc116c7f1	-9.423814
105	0x41168c06	9.409185
106	0xc119d686	-9.614874
107	0x411a4848	9.642647
108	0xc11ac91e	-9.674101
109	0xc1194892	-9.580217
110	0x4116e7f9	9.431634
111	0xc1177c13	-9.467792
112	0xc119846a	-9.594828
113	0xc1190ebe	-9.566099
114	0x41178fe5	9.4726305
115	0x4118a029	9.539102
116	0x4117cfa6	9.488195
117	0xc11a1f6b	-9.63267
118	0x4116ad5f	9.417327
119	0x411ac29a	9.67251
120	0xc11782f0	-9.469467
121	0x41172a5a	9.44784
122	0xc1166cf6	-9.401602
123	0xc118ff09	-9.562264
124	0xc1197bb3	-9.5927
125	0x4119a078	9.601677
126	0x4116fc4d	9.436597
127	0xc1163981	-9.389039
128	0xc116f3f0	-9.434555
129	0xc116bf3a	-9.421686
130	0xc11655ec	-9.395977
131	0xc118107f	-9.504027
132	0x41186842	9.525454
133	0xc117db07	-9.490973
134	0x411924d5	9.571492
135	0x411a0c67	9.628028
136	0x4117d67f	9.489867
137	0x411994bb	9.598811
138	0xc119074d	-9.564282
139	0x41193bc8	9.577095
140	0x4116bb9e	9.420805
141	0x411753b0	9.4579315
142	0x4116d1ab	9.426188
143	0xc117a841	-9.478578
144	0x4119c5f9	9.610833
145	0xc117080e	-9.439466
146	0x4116e904	9.431889
147	0x41192a51	9.572831
148	0xc117a99b	-9.478908
149	0x4119bdcc	9.608837
150	0xc1189be3	-9.538058
151	0x4116c164	9.4222145
152	0xc11884b5	-9.532399
153	0x4118eb19	9.557397
154	0x41191bc9	9.5692835
155	0xc1185faa	-9.5233555
156	0x4117626b	9.461528
157	0x4119f632	9.622606
158	0x4118ee81	9.5582285
159	0xc1165229	-9.395059
160	0xc117e04b	-9.492259
161	0x4118191e	9.506132
162	0x41170a56	9.440023
163	0xc11a9495	-9.661275
164	0xc11a719d	-9.652738
165	0x4119b7e0	9.607391
166	0xc117a8df	-9.478728
167	0x41173ba4	9.452061
168	0x411a986e	9.662214
169	0x411ace30	9.675339
170	0xc11a3a7d	-9.639279
171	0xc1170b5e	-9.440275
172	0x4118c490	9.547989
173	0x41175c0f	9.459975
174	0x41177306	9.465582
175	0x4119cea0	9.612946
176	0x4116be0a	9.421396
177	0xc11aafb0	-9.667892
178	0x4116ed04	9.432865
179	0xc1187daa	-9.53068
180	0x4116613b	9.398738
181	0x41176874	9.463001
182	0x411a873b	9.658015
183	0xc1199f79	-9.601434
184	0x411634ff	9.3879385
185	0x411733dd	9.450162
186	0x411ad57b	9.677119
187	0x411a3682	9.638308
188	0xc11a1566	-9.630224
189	0x41199fb3	9.601489
190	0xc118f66e	-9.5601635
191	0x41186ceb	9.526591
192	0xc11900d3	-9.562701
193	0xc116f68d	-9.435193
194	0x41168654	9.407795
195	0xc116d0f5	-9.426015
196	0x4118065b	9.501552
197	0xc116acb3	-9.417163
198	0x4116c438	9.422905
199	0x4119d538	9.614555
200	0xc116629f	-9.399077
201	0x41165944	9.396793
202	0x4117f8ed	9.498273
203	0x411a9c28	9.663124
204	0xc1181f00	-9.507568
205	0xc11798eb	-9.4748335
206	0x41191aff	9.569091
207	0x41197c43	9.592837
208	0xc117e34d	-9.492993
209	0xc11666a1	-9.400056
210	0x411723d0	9.446243
211	0xc11a5062	-9.644625
212	0x4118cd7b	9.550166
213	0x411ac8e4	9.674046
214	0x411a2f9e	9.636625
215	0xc116e8d4	-9.431843
216	0xc1182527	-9.50907
217	0x4116ca37	9.424369
218	0x4119d9ff	9.615722
219	0x4119339d	9.575101
220	0x4117abe9	9.47947
221	0x4119835e	9.594572
222	0xc1181f01	-9.507569
223	0x4116b46d	9.419049
224	0xc1168818	-9.408226
225	0x4117b024	9.480503
226	0x41191ca3	9.569491
227	0x4119d043	9.613345
228	0xc11a69ea	-9.650858
229	0x4119f261	9.621675
230	0x411694c0	9.411316
231	0x41178cd7	9.471885
232	0x411a55fb	9.645991
233	0xc117be9f	-9.484038
234	0x411acc4f	9.67488
235	0xc117f8f4	-9.49828
236	0x4116e276	9.430288
237	0xc1164905	-9.392827
238	0xc117eacc	-9.494823
239	0x4117ae4b	9.480052
240	0xc119273a	-9.572077
241	0x411a57e5	9.646459
242	0xc11a2e84	-9.636356
243	0x4118e975	9.556996
244	0x411a66e4	9.65012
245	0xc116f288	-9.434212
246	0x4117b5c8	9.48188
247	0x41166b71	9.401231
248	0x41164710	9.392349
249	0xc1189e12	-9.538591
250	0xc118e69b	-9.5563
251	0x41161e8d	9.382459
252	0x411a5346	9.64533
253	0xc1173f66	-9.452978
254	0xc11a8a13	-9.65871
255	0x411835f8	9.513176

price_encoder.encoder.bias_ih_l0 f4 [180]
0	0xc1195d30	-9.585251
1	0x411a788e	9.654432
2	0x4117e024	9.492222
3	0xc1174b25	-9.455846
4	0xc11a331a	-9.637476
5	0xc117c235	-9.484914
6	0x4119d318	9.614037
7	0xc117ffea	-9.499979
8	0x411a0824	9.626987
9	0xc1199c57	-9.600669
10	0xc1178129	-9.469033
11	0xc118dec0	-9.554382
12	0xc11aa162	-9.6644
13	0x4118a25d	9.539639
14	0x41175245	9.457585
15	0x411a813c	9.656551
16	0xc119992b	-9.599895
17	0x4116fb7a	9.436396
18	0xc119db2d	-9.61601
19	0xc11ac21f	-9.672393
20	0xc11908c6	-9.564642
21	0xc1162cae	-9.385908
22	0xc1189460	-9.536224
23	0x4118096b	9.502299
24	0xc119a432	-9.602587
25	0xc118aa4a	-9.5415745
26	0xc116f018	-9.433617
27	0x4118110b	9.504161
28	0xc1193e3a	-9.577692
29	0x4117f415	9.49709
30	0x4116f730	9.4353485
31	0xc11ab2b8	-9.6686325
32	0x411a631c	9.649197
33	0xc1199eb8	-9.60125
34	0xc1172ee7	-9.448951
35	0x4117d776	9.490103
36	0xc117c513	-9.485614
37	0xc11ae256	-9.680258
38	0xc1165440	-9.395569
39	0x41195429	9.583047
40	0x411715d1	9.442826
41	0x411552b5	9.332692
42	0xc11a6054	-9.648518
43	0x4117d1c2	9.48871
44	0x411818c2	9.506044
45	0xc116b9df	-9.420379
46	0x411a9bcf	9.663039
47	0x4117e2c2	9.492861
48	0xc119d15e	-9.613615
49	0xc11764a8	-9.462074
50	0xc11a7134	-9.6526375
51	0x411a2877	9.634879
52	0xc118bacd	-9.545606
53	0x4118fc63	9.561618
54	0x4116ed02	9.432863
55	0xc11a57f2	-9.646471
56	0xc116fd6b	-9.43687
57	0xc1177cf8	-9.46801
58	0x4118d73b	9.5525465
59	0x411762df	9.461638
60	0x41185863	9.521579
61	0xc1187c3a	-9.530329
62	0x4119c10b	9.60963
63	0x41183942	9.513979
64	0xc119efba	-9.621027
65	0xc119377f	-9.576049
66	0xc1185401	-9.520509
67	0xc116c5d6	-9.4233
68	0x41175202	9.457521
69	0xc11972aa	-9.590494
70	0xc1163c86	-9.389776
71	0xc116769a	-9.403955
72	0x4118e009	9.554696
73	0xc119eddc	-9.620571
74	0x4118080b	9.501964
75	0x41164977	9.392936
76	0xc118c1d4	-9.547321
77	0x4116f268	9.434181
78	0xc118c5d6	-9.5483
79	0xc119807b	-9.593867
80	0x4117c88a	9.48646
81	0xc11a02de	-9.6257
82	0xc119c95c	-9.61166
83	0xc1178738	-9.470512
84	0x41196f80	9.589722
85	0x4118eb0d	9.557385
86	0xc118165f	-9.505462
87	0xc117b6c2	-9.482119
88	0x4118f3dc	9.559536
89	0x4118e7f1	9.556626
90	0x411642c6	9.391302
91	0xc119eb0c	-9.6198845
92	0xc117561e	-9.458525
93	0xc11adc46	-9.678778
94	0x41165db2	9.397875
95	0x4118be78	9.546501
96	0xc1195e8d	-9.585584
97	0x4118213f	9.508117
98	0x41175aed	9.459699
99	0xc116b779	-9.419793
100	0xc116337b	-9.387568
101	0x411919e1	9.568818
102	0x4118236f	9.508651
103	0x411730a1	9.449372
104	0xc1197f41	-9.593568
105	0x41172589	9.446664
106	0x41197e9b	9.59341
107	0x411a4674	9.6422
108	0x4117669a	9.462549
109	0x4119d1ee	9.613752
110	0xc11a517d	-9.644895
111	0x4116e5fd	9.4311495
112	0x41190ed8	9.566124
113	0xc116d9e0	-9.428192
114	0xc11649db	-9.393031
115	0xc1178bdb	-9.471644
116	0x411ad105	9.67603
117	0xc1162fba	-9.386652
118	0xc1169e1e	-9.413603
119	0x4119ed4c	9.620434
120	0xc118547d	-9.520627
121	0xc1197deb	-9.593242
122	0xc119bd75	-9.608754
123	0x41177749	9.466622
124	0x411a2393	9.633685
125	0x4117e12a	9.492472
126	0xc11a3260	-9.637299
127	0x411930b5	9.574391
128	0x4117b37a	9.4813175
129	0xc1181ae8	-9.506569
130	0xc1198b24	-9.59647
131	0x411a386e	9.638777
132	0xc1186df9	-9.526849
133	0xc1187ad0	-9.5299835
134	0x4119ab2a	9.604288
135	0xc11718b9	-9.443536
136	0x4118d28d	9.551404
137	0x41167458	9.403404
138	0xc119a164	-9.601902
139	0xc11ab286	-9.668585
140	0xc11aaf8c	-9.667858
141	0x4116ac60	9.417084
142	0xc1184e8a	-9.519175
143	0x411a6994	9.650776
144	0xc116d936	-9.42803
145	0xc11abd13	-9.671161
146	0xc1169b29	-9.412881
147	0xc1181762	-9.505709
148	0x4119d01c	9.613308
149	0x41192e69	9.573831
150	0x4116bd83	9.4212675
151	0xc1165d2e	-9.397749
152	0x411a81cc	9.656689
153	0xc119ad5f	-9.604827
154	0xc119ae59	-9.605065
155	0xc119ec0e	-9.620131
156	0xc1174138	-9.453423
157	0xc11a2d94	-9.636127
158	0x4117a7e5	9.47849
159	0xc1193f28	-9.577919
160	0xc117dc7b	-9.491328
161	0xc116ed6a	-9.432962
162	0x4118281e	9.509794
163	0xc1167a77	-9.404899
164	0x4116e489	9.430795
165	0x4117c32f	9.485152
166	0xc1186004	-9.523441
167	0x4116b421	9.418977
168	0xc116468a	-9.392221
169	0xc11672e1	-9.403047
170	0x411a6b86	9.651251
171	0xc119e6fe	-9.618895
172	0xc1170a5e	-9.440031
173	0xc1188917	-9.533469
174	0x41175344	9.4578285
175	0x4117317f	9.449584
176	0xc119bc02	-9.6084
177	0xc118e66a	-9.556253
178	0x41182813	9.509784
179	0x411ac97e	9.674192

price_encoder.encoder.bias_hh_l0 f4 [180]
0	0xc1170484	-9.438602
1	0x411ac536	9.673147
2	0x411a5d8a	9.647837
3	0xc11686b0	-9.407883
4	0xc119a426	-9.602575
5	0xc1182601	-9.509278
6	0x41165143	9.394839
7	0xc11a753d	-9.653623
8	0x411807a9	9.50187
9	0xc11776a5	-9.466466
10	0xc117bc95	-9.483541
11	0xc1169f08	-9.413826
12	0xc117fb36	-9.498831
13	0x4117ac3f	9.479552
14	0x4119c615	9.61086
15	0x4116ac72	9.417101
16	0xc11a1311	-9.629655
17	0x41174b84	9.455936
18	0xc1196989	-9.588265
19	0xc1167b70	-9.405136
20	0xc119e8b7	-9.619315
21	0xc118f884	-9.560673
22	0xc1180a91	-9.50258
23	0x41183a95	9.514302
24	0xc11921fa	-9.570795
25	0xc118c272	-9.547472
26	0xc1186d2d	-9.526654
27	0x41166655	9.399983
28	0xc118157e	-9.505247
29	0x4118e330	9.555466
30	0x41175b8f	9.459853
31	0xc11a70b3	-9.652514
32	0x411a35fe	9.638182
33	0xc1184ed0	-9.519241
34	0xc119dbfb	-9.616206
35	0x4118d47f	9.551879
36	0xc1162367	-9.383643
37	0xc1182fe4	-9.511692
38	0xc11796ae	-9.474287
39	0x41197a3d	9.592343
40	0x4116c50a	9.423105
41	0x41160d02	9.378176
42	0xc118f160	-9.558929
43	0x41166d40	9.401672
44	0x411638b5	9.3888445
45	0xc119c3f0	-9.610336
46	0x411630a2	9.386873
47	0x4116726a	9.402933
48	0xc118ad26	-9.542273
49	0xc1192770	-9.572128
50	0xc118cf6b	-9.550639
51	0x4118fc04	9.561527
52	0xc118029d	-9.500638
53	0x4117bc00	9.483398
54	0x4116b6e5	9.419652
55	0xc1187e18	-9.530785
56	0xc1190765	-9.564305
57	0xc118c5c2	-9.548281
58	0x4118c4c6	9.54804
59	0x411a2df3	9.636218
60	0x4116fe6f	9.437118
61	0xc117ec90	-9.4952545
62	0x41186c58	9.526451
63	0x4119fa1f	9.623565
64	0xc11804c9	-9.501168
65	0xc11a6366	-9.649267
66	0xc1194d13	-9.581317
67	0xc119084e	-9.5645275
68	0x41174e30	9.456589
69	0xc1192e99	-9.573876
70	0xc1174fde	-9.456999
71	0xc11ad26b	-9.676372
72	0x4116421c	9.39114
73	0xc117368c	-9.450817
74	0x411924b4	9.571461
75	0x4119ebdc	9.620083
76	0xc118184e	-9.505934
77	0x4116900c	9.410168
78	0xc117d7fd	-9.4902315
79	0xc1165a5a	-9.3970585
80	0x4116bff0	9.42186
81	0xc119b05d	-9.605557
82	0xc118d700	-9.55249
83	0xc1183146	-9.51203
84	0x411a7197	9.652732
85	0x411961a3	9.586337
86	0xc119c719	-9.611108
87	0xc119ca5f	-9.611907
88	0x4117ad87	9.479865
89	0x411a296f	9.635116
90	0x4118f3b2	9.559496
91	0xc11a6bbb	-9.651301
92	0xc119ad3f	-9.604796
93	0xc116a570	-9.41539
94	0x4118e817	9.556663
95	0x411a62ba	9.649103
96	0xc1182cd4	-9.510944
97	0x41194cfd	9.581296
98	0x4119a799	9.603417
99	0xc119b97e	-9.607786
100	0xc119f161	-9.62143
101	0x4116f5f4	9.435047
102	0x41183240	9.512268
103	0x4118c27a	9.54748
104	0xc11844de	-9.516813
105	0x4116ca39	9.424371
106	0x4116be7c	9.421505
107	0x411a165b	9.630458
108	0x411636bd	9.388364
109	0x41192892	9.572405
110	0xc1180963	-9.502292
111	0x41185bfb	9.522456
112	0x41177d04	9.468021
113	0xc1175aa7	-9.459632
114	0xc119c31b	-9.610133
115	0xc11733c1	-9.450135
116	0x4116b21b	9.418483
117	0xc118fbed	-9.561505
118	0xc11848b8	-9.517754
119	0x41199e98	9.601219
120	0xc116a802	-9.416018
121	0xc1166dfb	-9.401851
122	0xc117d7c3	-9.490176
123	0x41177fa5	9.468663
124	0x4116e509	9.430917
125	0x41189dab	9.538493
126	0xc118ae78	-9.542595
127	0x4116797c	9.404659
128	0x411652af	9.395186
129	0xc118deca	-9.554392
130	0xc117e87c	-9.494259
131	0x4119b8e7	9.607642
132	0xc118a1c9	-9.539498
133	0xc11a287d	-9.634885
134	0x4119ccd1	9.612504
135	0xc11ab1b0	-9.668381
136	0x4119c49f	9.610503
137	0x411a4c84	9.643681
138	0xc11ac540	-9.673157
139	0xc11751f4	-9.457508
140	0xc1176e36	-9.464407
141	0x411721f2	9.445787
142	0xc116773c	-9.40411
143	0x4119c034	9.609425
144	0xc11aada4	-9.667393
145	0xc1191ba9	-9.569253
146	0xc117b466	-9.481543
147	0xc11a8857	-9.658286
148	0x41167149	9.4026575
149	0x41181bd6	9.506796
150	0x4116a49f	9.415191
151	0xc1180b33	-9.502734
152	0x41173c60	9.45224
153	0xc11936b2	-9.575853
154	0xc116a584	-9.415409
155	0xc1168c06	-9.409185
156	0xc116a92c	-9.416302
157	0xc117c510	-9.485611
158	0x411aaa8c	9.666637
159	0xc1167066	-9.402441
160	0xc119e0db	-9.617396
161	0xc117d707	-9.489997
162	0x4118286f	9.5098715
163	0xc11a02f0	-9.625717
164	0x4117817c	9.469112
165	0x41180937	9.50225
166	0xc11a3024	-9.636753
167	0x411887b1	9.533128
168	0xc119a2a4	-9.602207
169	0xc11a70b9	-9.65252
170	0x4117b144	9.480778
171	0xc116e1f9	-9.430169
172	0xc11a9532	-9.661425
173	0xc11a8d9f	-9.659575
174	0x4119766f	9.591414
175	0x4117471d	9.454862
176	0xc1193c1a	-9.577173
177	0xc119c17a	-9.6097355
178	0x4119b0ab	9.605632
179	0x4118bd9b	9.54629

atten_layer.0.weight f4 [45, 135]
0	0xbbbc52c0	-0.0057471693
1	0x3bd3cb40	0.0064634383
2	0xbcbfc010	-0.023407012
3	0xbc8d4958	-0.017246887
4	0x3dab1767	0.08354073
5	0x3d4b2236	0.049593173
6	0xbd42b8d9	-0.047539566
7	0xbd056c3d	-0.032573927
8	0x3d5250f6	0.05134674
9	0x3da3992b	0.07988199
10	0x3cc8cd5c	0.024511985
11	0x3d975d1d	0.07390807
12	0xbc90a73c	-0.017657869
13	0x3d5b364e	0.053518586
14	0xba68fe80	-0.0008888021
15	0xbd01ca8d	-0.031687308
16	0xbcbfe614	-0.02342514
17	0x3cdd5cc4	0.027021773
18	0x3d37328e	0.044725947
19	0x3b3281c0	0.0027237982
20	0xbc8dd258	-0.017312214
21	0xbcfc02fa	-0.030763138
22	0xbb318780	-0.002708882
23	0x3daff239	0.08591122
24	0x3cdc00f8	0.02685593
25	0xbda941ca	-0.082645014
26	0xbc9f4bf0	-0.01944539
27	0x3d051b80	0.03249693
28	0xbda88207	-0.08227926
29	0x3d63a712	0.055579253
30	0xbd6a7b64	-0.05724658
31	0xbd90eb89	-0.07076175
32	0xbd2f256c	-0.042760298
33	0x3b40a220	0.002939351
34	0xbd8157de	-0.063155875
35	0xbbd587d0	-0.0065164343
36	0xbd791cb8	-0.060818404
37	0xbc3fe550	-0.011712387
38	0xbda8cc30	-0.08242071
39	0xbd077b23	-0.033076417
40	0xbb803360	-0.0039123744
41	0x3da5d419	0.08097095
42	0xbdaf46b1	-0.08558405
43	0xbc036660	-0.008020014
44	0xb877c000	-5.9068203e-05
45	0xbd9c3923	-0.076280855
46	0xbd3b541f	-0.04573452
47	0x3d282ade	0.041056506
48	0x3d6a43a2	0.057193406
49	0x3d850b77	0.06496327
50	0x3d9db30b	0.07700165
51	0x3da3f9bd	0.08006618
52	0xbc9654f0	-0.018351048
53	0xbd8a4a86	-0.067524955
54	0xbd97e639	-0.07416958
55	0xbd2cf6ea	-0.042227663
56	0xbd4f49e0	-0.050607562
57	0x3ce91a2c	0.028454863
58	0xbd350e59	-0.044203136
59	0x3d88676f	0.066603534
60	0xbd385c9b	-0.04501019
61	0x3d8cd27b	0.068760835
62	0x3d51c112	0.051209517
63	0x3d9627ef	0.073318355
64	0xbd940c3f	-0.07228898
65	0x3da535a9	0.080668755
66	0xbac38940	-0.0014918223
67	0x3d9793eb	0.0740126
68	0x3d425d32	0.04745216
69	0xbd810688	-0.06300074
70	0xbd91e3ea	-0.07123549
71	0x3dae990b	0.085252844
72	0xbcb2ae78	-0.021811709
73	0xbc7bfca0	-0.015380055
74	0xbaea9d80	-0.0017899722
75	0xbd7e3531	-0.062062446
76	0xbc655520	-0.013997346
77	0x3d28d8fe	0.041222565
78	0xbb6ca0e0	-0.003610663
79	0xbda34246	-0.07971625
80	0x3d1e8508	0.038701087
81	0x3d848169	0.064699955
82	0xbd0d6eff	-0.034529682
83	0xbd90216b	-0.07037624
84	0x3d9b9a6f	0.07597815
85	0x3d3479f2	0.04406161
86	0x3d9a1f79	0.07525534
87	0x3b10b400	0.0022079945
88	0xbd32001d	-0.04345714
89	0x3d9b1f5d	0.075743414
90	0xc1195be0	-9.58493
91	0xc11ea316	-9.914816
92	0xc12511a2	-10.316805
93	0xc1197258	-9.590416
94	0x41188d57	9.534507
95	0xc1195c31	-9.585008
96	0xc119e60a	-9.618662
97	0x4125371a	10.325953
98	0x41185dae	9.522871
99	0x4117cf96	9.48818
100	0xc1186db5	-9.526784
101	0xc116b56f	-9.419295
102	0xc117efc5	-9.4960375
103	0x41196a85	9.588506
104	0xc118e953	-9.556964
105	0xc1170cf4	-9.440662
106	0xc117fd4c	-9.49934
107	0x41187b76	9.530142
108	0x4118f788	9.560432
109	0xc10e561f	-8.896026
110	0xc12173b7	-10.090751
111	0x4125d05a	10.363367
112	0x412387d8	10.220665
113	0x410ee69b	8.9313
114	0xc119fb6e	-9.623884
115	0x410bd5d1	8.739701
116	0x41202132	10.008104
117	0x41186f93	9.52724
118	0xc124e611	-10.306169
119	0x41250fd4	10.316364
120	0x41186c82	9.526491
121	0xc1198130	-9.59404
122	0x4117cc31	9.487351
123	0xc118f200	-9.559082
124	0xc11736d0	-9.450882
125	0xc1175122	-9.457308
126	0x41181de6	9.507299
127	0xc118187c	-9.505978
128	0x411a0c2e	9.627974
129	0x411846a0	9.517242
130	0xc10e7490	-8.903458
131	0x4120fd19	10.061791
132	0xc127174e	-10.44319
133	0xc11aa70e	-9.665785
134	0x4123509e	10.207182
135	0xbd8ac1ca	-0.067752436
136	0x3d9994c5	0.07499079
137	0xbd51e9f8	-0.05124852
138	0xbd8e2bb9	-0.06941933
139	0x3cee7a4c	0.02911105
140	0x3b3e8ec0	0.0029076785
141	0x3d356a0e	0.044290595
142	0x3c51f280	0.012814164
143	0xbcc9234c	-0.024552964
144	0x3d049d7a	0.032376744
145	0xbda2cbea	-0.0794905
146	0xbd1235d3	-0.035695862
147	0x3d71447e	0.05890321
148	0x3d3fdb16	0.046839796
149	0xbd2b86fb	-0.041876774
150	0x3da8e21d	0.08246253
151	0x3d5ff462	0.05467642
152	0x3d2b128e	0.041765742
153	0xbd7c1538	-0.061543673
154	0xbd51a681	-0.05118418
155	0xbd92f9fa	-0.071765855
156	0xbd4df9a0	-0.05028689
157	0x3d01361e	0.03154575
158	0x3d87b299	0.06625862
159	0x3d9437fd	0.072372414
160	0xbb422660	-0.0029624924
161	0x3c11bbf0	0.008894905
162	0xbcf3d4ae	-0.0297645
163	0xbd82f6e8	-0.0639475
164	0x3cf84160	0.03030461
165	0xbcccaa58	-0.02498357
166	0xbd18dbcc	-0.03731899
167	0xbcf5b048	-0.029991284
168	0xbd8aae44	-0.0677152
169	0xbd54961c	-0.051900968
170	0xbd05b91e	-0.032647245
171	0xbcaf8c50	-0.02142921
172	0xbca7b19c	-0.020470433
173	0x3da33c1f	0.079704516
174	0xbcab5928	-0.020916536
175	0x3d2feb7a	0.042949177
176	0xbc87d86c	-0.01658269
177	0x3d9f8577	0.07789128
178	0xbcbbbfe0	-0.022918642
179	0x3d5479e6	0.051874064
180	0x3d7bedea	0.06150619
181	0xbcc63950	-0.02419725
182	0x3cf15c24	0.029462881
183	0xbd4524a4	-0.048130646
184	0xbd12deb2	-0.03585691
185	0x3d47899e	0.048715226
186	0x3d3b1fea	0.045684732
187	0x3c918ab4	0.017766334
188	0x3d9325c1	0.07184935
189	0xbd427c79	-0.047481988
190	0x3c4ec9a8	0.012621321
191	0xbd8d1375	-0.06888477
192	0xbdadda52	-0.08488907
193	0xbd5bd110	-0.053666174
194	0x3daf693f	0.08564996
195	0x3d513f4e	0.051085763
196	0x3d806869	0.06269915
197	0x3d7a403a	0.061096407
198	0xbc33c710	-0.010972753
199	0x3c790d20	0.015200883
200	0xbcc52cea	-0.024069268
201	0xbd495f37	-0.04916307
202	0xbd10c8a2	-0.03534759
203	0xbd4d1c43	-0.05007578
204	0x3d276ece	0.040877156
205	0xbd2415f0	-0.040059984
206	0xbc9ed8bc	-0.019390456
207	0x3da90235	0.08252374
208	0x3d14a99a	0.036294557
209	0x3c7c0ef8	0.015384428
210	0xbc845cdc	-0.01615756
211	0x3d87300d	0.06600962
212	0x3baf5230	0.0053503737
213	0x3b3f5a60	0.0029198155
214	0xbd3afe60	-0.045652747
215	0xbd8f9ee9	-0.070127316
216	0x3d7eaa42	0.06217409
217	0xbd4392f3	-0.047747564
218	0xbd9b8ca9	-0.07595188
219	0xbd9fcc92	-0.078026906
220	0x3c9ed22c	0.019387327
221	0xbdaa3dd8	-0.08312577
222	0xbd911826	-0.07084684
223	0x3cae7c10	0.021299392
224	0x3d26e3da	0.04074464
225	0xc11cbeb9	-9.796563
226	0x411fc52a	9.985636
227	0x41225a1c	10.146999
228	0xc117bd54	-9.483723
229	0x41179cf0	9.475815
230	0x4118283d	9.509824
231	0x4117649c	9.462063
232	0xc11b8fde	-9.722624
233	0x411ac5e8	9.673317
234	0x41197144	9.590153
235	0xc117eff5	-9.496083
236	0xc1151687	-9.318
237	0xc1192d1e	-9.573515
238	0x411766af	9.462569
239	0xc1196079	-9.586053
240	0xc1154915	-9.330342
241	0x4118ab24	9.541782
242	0x411854db	9.520717
243	0x4117f269	9.496682
244	0xc11e578a	-9.896372
245	0x411cd230	9.801315
246	0xc11bcf90	-9.738174
247	0xc1209f3e	-10.0388775
248	0x41202075	10.007924
249	0xc11878df	-9.52951
250	0x411ed8a3	9.92789
251	0xc11c20d4	-9.758015
252	0x4119b229	9.605996
253	0x411f281f	9.947295
254	0xc11cd907	-9.802985
255	0x4118a49d	9.540189

atten_layer.0.bias f4 [45]
0	0x41133f71	9.202989
1	0x4119b78d	9.607312
2	0x4115ef0f	9.370864
3	0xc1186aeb	-9.526103
4	0xc117add0	-9.479935
5	0xc119089e	-9.564604
6	0xc11a2d9a	-9.636133
7	0x4117be91	9.484025
8	0xc118b3f3	-9.543933
9	0x41183634	9.513233
10	0xc116ae75	-9.417592
11	0xc11953f6	-9.582998
12	0x41190ac8	9.565132
13	0xc11725d6	-9.446737
14	0xc115ecb1	-9.370286
15	0x41197acb	9.592479
16	0xc116de18	-9.429222
17	0xc119ac0b	-9.604503
18	0xc116283e	-9.384825
19	0xc116fcb3	-9.436694
20	0xc119140b	-9.567393
21	0x411a70b7	9.652518
22	0x41175366	9.457861
23	0x41191ab9	9.569024
24	0xc11a6612	-9.6499195
25	0xc1194663	-9.579684
26	0xc1187297	-9.527976
27	0xc1188983	-9.533572
28	0xc116a986	-9.416388
29	0xc11acb7f	-9.674682
30	0x411772d2	9.465532
31	0x4118e7bd	9.556577
32	0x4118e355	9.555501
33	0x4118efff	9.558593
34	0xc1178ac8	-9.471382
35	0xc11a0b15	-9.627706
36	0x4119509f	9.582183
37	0x41178945	9.471013
38	0xc11a7ad4	-9.654987
39	0x41178cf5	9.471913
40	0xc1163ec0	-9.39032
41	0xc118ff1b	-9.562282
42	0x4118fa26	9.561071
43	0x41193fd2	9.578081
44	0xc1165d50	-9.397781

atten_layer.2.weight f4 [1, 45]
0	0x40f6c92e	7.712058
1	0xc137e340	-11.492981
2	0x410d9afb	8.850337
3	0xc0fdbe69	-7.9294934
4	0xc104f44c	-8.309643
5	0xc0fc7a39	-7.8899198
6	0xc10a565d	-8.646085
7	0xc125e756	-10.3689785
8	0xc101a879	-8.103631
9	0x41031c61	8.194428
10	0xc0e9414a	-7.28922
11	0x4124c9f3	10.299304
12	0xc1295f42	-10.585756
13	0xc1043176	-8.262075
14	0x414347cf	12.205031
15	0x410c88e3	8.78342
16	0x41332900	11.19751
17	0x412923ab	10.571208
18	0xc0f3fdba	-7.6247225
19	0xc0f75a94	-7.729807
20	0x4121b74e	10.107252
21	0x4117b74e	9.482252
22	0x4115d661	9.364839
23	0x4115ecef	9.370345
24	0x411dcc97	9.862449
25	0x412fd4fb	10.989497
26	0xc112a13c	-9.164364
27	0xc10caeab	-8.792644
28	0x413b329b	11.699855
29	0x411cf625	9.810094
30	0x4114ecd4	9.307819
31	0xc12d91cd	-10.848096
32	0x410c13ba	8.754816
33	0xc11bb9d6	-9.73287
34	0x412b3cb8	10.702324
35	0xc10f32f4	-8.94994
36	0xc121c4f9	-10.110589
37	0xc125c05b	-10.359462
38	0x41248d48	10.2844925
39	0xc12e5e2b	-10.89799
40	0xc0f987a9	-7.79781
41	0x411ec167	9.922217
42	0xc1314bb9	-11.080987
43	0x41182a6c	9.510357
44	0xc0f86208	-7.7619667

lstm.weight_ih_l0 f4 [180, 45]
0	0x41144e87	9.269172
1	0xc11a93c4	-9.661076
2	0xc11b42ae	-9.703779
3	0x411869e6	9.525854
4	0xc11a9c24	-9.66312
5	0x41187cc6	9.530462
6	0x41167b83	9.405154
7	0x411ac1f8	9.672356
8	0xc115aa41	-9.354066
9	0x411ae939	9.681939
10	0x41177401	9.465821
11	0x4119af3b	9.605281
12	0x411885dd	9.532681
13	0x411829f5	9.510243
14	0xc1191a31	-9.568894
15	0x411afaaa	9.686197
16	0xc11770d5	-9.465047
17	0xc11b16c2	-9.693056
18	0xc1182d70	-9.511093
19	0x411bd105	9.73853
20	0xc11c1655	-9.755452
21	0x411ec861	9.923921
22	0x411b7cc7	9.717963
23	0xc118b19d	-9.543363
24	0x410e8398	8.907127
25	0xc11c7227	-9.777869
26	0x411bf6df	9.747771
27	0xc118bc8c	-9.546032
28	0xc11d1b0d	-9.819104
29	0x411a9caa	9.663248
30	0xc118158f	-9.505263
31	0xc11a7179	-9.652703
32	0xc117f161	-9.49643
33	0x4119dea5	9.616857
34	0x411a7b54	9.655109
35	0xc11a8a6f	-9.658797
36	0xc118c5fa	-9.548334
37	0x4118056b	9.501323
38	0x41188211	9.5317545
39	0xc11a3f01	-9.640382
40	0xc118da0c	-9.553234
41	0x411be519	9.743432
42	0xc11c4f4c	-9.76936
43	0xc11a3844	-9.638737
44	0x411cbb5d	9.795743
45	0x411af3ac	9.68449
46	0xc11db9bd	-9.857846
47	0xc11b038f	-9.688369
48	0x411a7e00	9.655762
49	0x41199a93	9.600238
50	0x4119538e	9.582899
51	0x41196497	9.587058
52	0x41199a0e	9.600111
53	0xc1178e29	-9.472207
54	0x4117db3d	9.491025
55	0x4117b86e	9.482527
56	0xc11716af	-9.443038
57	0x4118c976	9.549185
58	0xc116ce8d	-9.425427
59	0xc1178ef3	-9.4724
60	0x4116d6b7	9.427421
61	0xc118ca3f	-9.5493765
62	0xc116a4a6	-9.415197
63	0xc11749ad	-9.455487
64	0x411bc981	9.736695
65	0xc11c392e	-9.76396
66	0x411952de	9.582731
67	0x411df9dc	9.873501
68	0xc11a6a8a	-9.6510105
69	0xc0ffbbbf	-7.991668
70	0xc11b8ee2	-9.7223835
71	0x411b82b7	9.719413
72	0xc116737d	-9.403195
73	0xc11ca9cf	-9.791457
74	0x411af21b	9.684108
75	0xc1180f39	-9.503716
76	0xc11a4143	-9.640933
77	0xc11b0215	-9.688008
78	0x4117f235	9.496633
79	0x41173f51	9.452958
80	0xc118c176	-9.547232
81	0xc118db38	-9.55352
82	0x41194d79	9.581414
83	0x4119fd3b	9.624324
84	0xc1165717	-9.396262
85	0xc118e20a	-9.555185
86	0x411ba6d0	9.728226
87	0xc11906a5	-9.564122
88	0xc11441ac	-9.266033
89	0x411c39f2	9.764147
90	0xc116e707	-9.431403
91	0xc11c6377	-9.774283
92	0xc11c4c70	-9.7686615
93	0x4117730f	9.4655905
94	0xc118eaad	-9.557294
95	0x41184d10	9.518814
96	0xc118dd38	-9.5540085
97	0x411c284e	9.75984
98	0xc11aac8d	-9.667127
99	0xc119cf3e	-9.613096
100	0x41182ee6	9.51145
101	0xc1035f4f	-8.210769
102	0xc119a2c6	-9.60224
103	0x411a0fb5	9.628835
104	0x411727f5	9.447255
105	0x4116ed62	9.432955
106	0x4119bdd5	9.608846
107	0x41173f2f	9.452926
108	0xc1178b27	-9.471473
109	0x411be99c	9.744534
110	0xc11ba2bc	-9.72723
111	0x4119c1ad	9.609784
112	0x4119381c	9.576199
113	0xc11a30da	-9.636927
114	0xc0e1203c	-7.035185
115	0xc119a2cc	-9.602245
116	0x411dccdd	9.862515
117	0xc1184a68	-9.518166
118	0xc11bc7b4	-9.736256
119	0x411b3813	9.70119
120	0x411ad3c1	9.676698
121	0x4116a122	9.414339
122	0xc11902e5	-9.563207
123	0x411aca1a	9.674341
124	0x4117d499	9.489404
125	0x41193537	9.575492
126	0x411ad995	9.678121
127	0x411a5c49	9.647531
128	0xc1166f95	-9.402242
129	0xc1192192	-9.570696
130	0x41183713	9.513446
131	0x411ab76f	9.669784
132	0xc11c9890	-9.787247
133	0x4117d5b8	9.489677
134	0x411968b7	9.588065
135	0x411b5914	9.709248
136	0xc11d2c36	-9.823294
137	0xc11c4133	-9.765918
138	0x411a681a	9.650415
139	0xc117aa0b	-9.479014
140	0x41171477	9.442496
141	0x411ae3f4	9.680653
142	0x411db030	9.855515
143	0xc1176480	-9.462036
144	0xc1175bad	-9.459882
145	0x411aa49f	9.665191
146	0xc115730b	-9.340587
147	0x41164d93	9.393939
148	0x4119c9b0	9.61174
149	0x4119fca6	9.624182
150	0x4119b82d	9.607465
151	0x41188d2f	9.534469
152	0xc1168c76	-9.409292
153	0xc118bf1c	-9.546658
154	0x411f32ee	9.949934
155	0xc11af1ed	-9.684064
156	0x411a3516	9.63796
157	0x411d9462	9.848726
158	0xc11ed666	-9.927343
159	0x41003417	8.012717
160	0xc11cb214	-9.793476
161	0x411c85fc	9.782711
162	0xc1174acc	-9.455761
163	0xc11eacad	-9.917157
164	0x411d0f83	9.816287
165	0xc11778bb	-9.466975
166	0x411b36b3	9.700854
167	0xc1171ab1	-9.444016
168	0x4117071a	9.439234
169	0x411964d3	9.587115
170	0xc119c879	-9.6114435
171	0xc116bd66	-9.42124
172	0x41162ab2	9.385424
173	0xc117691d	-9.463162
174	0xc117a2e8	-9.477272
175	0x411971d4	9.59029
176	0x411b0dfe	9.690916
177	0xc11a79ba	-9.654718
178	0x4117d731	9.490037
179	0x411ae8b5	9.681813
180	0x411828ba	9.509943
181	0xc11ca597	-9.790427
182	0xc11ff740	-9.997864
183	0x41176742	9.462709
184	0x4115a38f	9.352431
185	0x4119beb7	9.609061
186	0x41187cd4	9.530476
187	0x411bedf6	9.745596
188	0xc11ab44a	-9.669016
189	0xc11a9f49	-9.663888
190	0x4117d382	9.489138
191	0xc11929b3	-9.57268
192	0x4116ef2b	9.433391
193	0xc1148d67	-9.284522
194	0x411b3d66	9.70249
195	0x411a05f2	9.6264515
196	0x4118493c	9.5178795
197	0xc117d227	-9.488807
198	0xc1167344	-9.403141
199	0x411e4000	9.890625
200	0xc11f53a1	-9.957917
201	0x411ac7c0	9.673767
202	0x411c8a46	9.783758
203	0xc11ebb2c	-9.920696
204	0x41121634	9.130421
205	0xc11f6034	-9.960987
206	0x411dadc4	9.854923
207	0xc11750ab	-9.457194
208	0xc11b5710	-9.7087555
209	0x411c5392	9.770403
210	0xc1187d06	-9.530523
211	0x41189648	9.53669
212	0xc1192159	-9.5706415
213	0x411a3ecf	9.640334
214	0x411a6992	9.650774
215	0xc117612d	-9.461225
216	0xc1173cd4	-9.452351
217	0x4119b916	9.607687
218	0xc11625cb	-9.384227
219	0xc1199327	-9.598426
220	0xc11a6d53	-9.6516905
221	0x411e30bd	9.886899
222	0xc11be45b	-9.743251
223	0x411ac920	9.674103
224	0x411b6ed8	9.714561
225	0x411a949c	9.661282
226	0xc11b9719	-9.724389
227	0xc11de82f	-9.869185
228	0x4117a304	9.477299
229	0xc11a5578	-9.645866
230	0x41183b1e	9.514433
231	0x4116748c	9.403454
232	0x411ad3fd	9.676755
233	0xc1199d36	-9.600882
234	0xc11b089d	-9.689603
235	0x41187515	9.5285845
236	0xc10df1d9	-8.871545
237	0x41184864	9.5176735
238	0x4118a690	9.540665
239	0x411929d1	9.572709
240	0x411978e5	9.592015
241	0x411786ec	9.47044
242	0xc11a487a	-9.642694
243	0xc119830d	-9.594495
244	0x411a77f9	9.65429
245	0xc11bfe0d	-9.749524
246	0x41198400	9.594727
247	0x411a5af5	9.647206
248	0xc11c8dd4	-9.784626
249	0xc0f5c150	-7.6798477
250	0xc11d1fbf	-9.8202505
251	0x4119a039	9.601617
252	0xc11a9764	-9.661961
253	0xc11c9736	-9.786917
254	0x411def80	9.870972
255	0xc11940b8	-9.5783

lstm.weight_hh_l0 f4 [180, 45]
0	0xbc739610	-0.014867321
1	0x3e101e4b	0.14074056
2	0xbe15b537	-0.14619909
3	0x3b82efe0	0.0039958805
4	0xbe14f784	-0.14547545
5	0xbdb9a031	-0.09063757
6	0x3d1de308	0.038546592
7	0x3dcc2c22	0.09969355
8	0xbcc2ef40	-0.023795724
9	0x3e07e295	0.13270028
10	0x3d8a7f0e	0.06762515
11	0xbe09ecaa	-0.13469186
12	0xbd182430	-0.037143886
13	0xbcb958e0	-0.022625387
14	0xbcc28d18	-0.02374892
15	0x3d805fcc	0.06268272
16	0x3dfbc56a	0.12293513
17	0xbdcfea46	-0.10152106
18	0xbda95f5a	-0.0827014
19	0xbdb5f194	-0.08883968
20	0x3ce38378	0.02777265
21	0x3d75356c	0.0598654
22	0xbdc884e2	-0.097909704
23	0x3da52818	0.08064288
24	0x3d867d2a	0.06566842
25	0xbd34a602	-0.04410363
26	0xbd383aa4	-0.0449778
27	0xbe0ea7e1	-0.13931228
28	0xbdc2e586	-0.09516434
29	0x3d2eb7cc	0.04265575
30	0x3d6f0760	0.058356643
31	0x3e0691a9	0.13141502
32	0xbd0d5746	-0.03450706
33	0x3dce9d14	0.10088554
34	0xbda9781c	-0.08274862
35	0xbdf3f949	-0.11912782
36	0xbe02aa2e	-0.12760231
37	0x3dc95124	0.098299295
38	0xbcc05b38	-0.023480996
39	0x3df6cdc2	0.12050964
40	0xbd5ef2fc	-0.054430947
41	0x3e18136d	0.1485116
42	0x3d811e80	0.063046455
43	0xbd8d4fdd	-0.06899998
44	0x3da58272	0.08081521
45	0xbd172990	-0.03690487
46	0x3dcbbaac	0.09947714
47	0xbcb5e5e8	-0.022204354
48	0x3e175801	0.14779665
49	0x3de3d3ee	0.11124407
50	0xbe0c1b02	-0.13682178
51	0x3d0a6060	0.033783317
52	0xbc46ead0	-0.012140945
53	0xbd61f170	-0.055161893
54	0x3d9c3564	0.07627371
55	0xbcdddd48	-0.027083054
56	0xbd5f27a0	-0.05448115
57	0xbdcc2718	-0.09968394
58	0xbdf0c336	-0.117559835
59	0x3db7076a	0.08936961
60	0x3dc38586	0.09546952
61	0xbc9fea18	-0.019520804
62	0x3dbf42fc	0.09338948
63	0xbd8287ea	-0.0637358
64	0x3df8c556	0.12147014
65	0xbd0d929e	-0.034563653
66	0x3d8bcd26	0.06826238
67	0x3cbd13c0	0.023080707
68	0x3e1151cf	0.14191364
69	0xbc93dff8	-0.018051133
70	0xbdf38eea	-0.11892493
71	0xbdc5ea76	-0.096638605
72	0xbbbe33c0	-0.005804509
73	0xbd0d0ca8	-0.034435898
74	0xbdc2da0c	-0.095142454
75	0xbdde19d6	-0.108447716
76	0xbe09b8f1	-0.13449456
77	0xbd1dc3a4	-0.038516656
78	0x3dc6ded6	0.09710471
79	0x3cb22428	0.021745756
80	0x3b4d9b00	0.0031372905
81	0xbe17574d	-0.14779396
82	0x3bf233c0	0.007391423
83	0xbe10fd2c	-0.14159077
84	0xbdcab682	-0.09898092
85	0xbd926954	-0.07148996
86	0xbe0704ff	-0.131855
87	0xbc8601c0	-0.016358256
88	0x3d9ea7c6	0.07746844
89	0xbdd1a5b2	-0.10236682
90	0xbe16bd67	-0.14720689
91	0xbde8b422	-0.113624826
92	0x3c5a2710	0.013314977
93	0x3e176b8d	0.14787121
94	0x3df1c4da	0.118051246
95	0x3e0c5ac5	0.13706501
96	0x3b54d840	0.0032477528
97	0x3d5d75fc	0.054067597
98	0xbd2b8280	-0.0418725
99	0xbdeeef88	-0.11666781
100	0x3d1537a8	0.03643003
101	0x3d999184	0.07498458
102	0x3de9294e	0.11384831
103	0xbdb184e0	-0.08667922
104	0x3cc5bb48	0.024137154
105	0xbdf4bafe	-0.119497284
106	0xbe087822	-0.13327077
107	0xbd8afd16	-0.067865536
108	0xbdd8ef74	-0.10592547
109	0xbde7a5e5	-0.11310939
110	0xbc392cd0	-0.011302188
111	0xbe01f795	-0.12692101
112	0xbdf04de0	-0.117336035
113	0xbdd356d2	-0.10319294
114	0xbdbafed3	-0.09130635
115	0x3c1f8ab0	0.0097376555
116	0xbc8ee128	-0.017441347
117	0x3d801d2a	0.062555626
118	0xbcc02f58	-0.023460075
119	0x3d71b46c	0.059009954
120	0xbd0eaaba	-0.034830786
121	0x3d99b6b6	0.075055525
122	0x3d8458b0	0.06462228
123	0x3df5781a	0.11985798
124	0x3ce67ca8	0.028135613
125	0xbde8f82a	-0.113754585
126	0x3d4ad164	0.049516097
127	0x3c43db80	0.011954188
128	0xbdbccb68	-0.09218484
129	0x3d82d80e	0.063888654
130	0x3d0f519c	0.03498994
131	0xbcb35778	-0.021892294
132	0xbddd2fc6	-0.10800128
133	0xbd2140da	-0.039368488
134	0xbdafc6ae	-0.08582817
135	0x3c9807a8	0.018558338
136	0xbd8b49ea	-0.06801207
137	0xbbe68080	-0.0070343614
138	0xbd034cd6	-0.0320557
139	0x3d306cd8	0.04307255
140	0x3d8c2680	0.06843281
141	0xbcee63f8	-0.029100403
142	0x3db5a514	0.08869377
143	0xbe042f08	-0.12908566
144	0x3e11970b	0.14217775
145	0x3e116883	0.14200024
146	0x3e02bcd1	0.1276734
147	0xbdafa28a	-0.08575924
148	0xbd1f9966	-0.03896465
149	0x3d12db50	0.035853684
150	0xbdfbd0b4	-0.12295666
151	0x3ddcf1fa	0.10788341
152	0x3bc8b780	0.0061253905
153	0x3e00acfd	0.1256599
154	0xbdfffde6	-0.12499599
155	0xbd259216	-0.04042252
156	0xbe082ff2	-0.1329954
157	0xbd5dfb48	-0.05419472
158	0x3ccd2118	0.025040194
159	0xbb647600	-0.0034860373
160	0x3d7a4f68	0.061110884
161	0xbd47092c	-0.04859273
162	0xbd343130	-0.04399222
163	0xbde86939	-0.11348195
164	0xbe13aaea	-0.14420667
165	0x3e017515	0.1264232
166	0xbdd36b81	-0.10323239
167	0xbdf8dbf9	-0.121513315
168	0xbd0ef488	-0.034901172
169	0xbc5a3200	-0.013317585
170	0x3cea4788	0.028598562
171	0xbddb432e	-0.10706173
172	0xbde1071d	-0.10987685
173	0xbe0207ef	-0.12698339
174	0x3da1027e	0.078618035
175	0x3d8db894	0.06919971
176	0xbd887c40	-0.06664324
177	0x3b158800	0.0022816658
178	0xbce460b0	-0.027878135
179	0x3d15db54	0.03658612
180	0xbdc0a68c	-0.09406766
181	0xbd9e37cd	-0.07725487
182	0xbcf4e400	-0.029893875
183	0xbd174862	-0.036934264
184	0xbda452aa	-0.080235794
185	0xbde3d994	-0.11125484
186	0xbc9cf108	-0.019157901
187	0xbdf1d5fa	-0.11808391
188	0xbcfa3c54	-0.030546345
189	0x3e015729	0.12630905
190	0x3d3a8740	0.04553914
191	0x3c597e70	0.013274774
192	0xbd1c8c60	-0.03821981
193	0x3d91090e	0.07081805
194	0x3d549350	0.0518983
195	0x3da6ef4e	0.081511125
196	0x3d9e31c4	0.07724336
197	0x3c8a56d8	0.016887113
198	0xbcbd7940	-0.023129106
199	0xbdfd8976	-0.12379734
200	0xbddf2c1e	-0.108970866
201	0x3dafa046	0.085754916
202	0xbce81e78	-0.028334841
203	0x3c0785f0	0.008271679
204	0xbe06ddec	-0.13170594
205	0xbdcbc818	-0.09950274
206	0xbda86cfb	-0.082239114
207	0x3dde30ce	0.108491525
208	0x3de623ba	0.11237283
209	0xbd2d8aee	-0.04236882
210	0xbd8abdc7	-0.067744784
211	0x3dd60f5a	0.10452147
212	0x3db0e79c	0.08637926
213	0xbdb06b6a	-0.086142376
214	0x3de935ee	0.113872394
215	0x3d6ecbcc	0.058299825
216	0x3c6404b0	0.013917133
217	0xbd8b799e	-0.06810306
218	0x3dc748bc	0.0973067
219	0xbdaee8c7	-0.085404925
220	0xbbed23c0	-0.0072369277
221	0xbdd93051	-0.10604919
222	0xbe14e089	-0.14538778
223	0xbd8eb2bf	-0.06967687
224	0xbd5902f6	-0.05298134
225	0x3d76a680	0.06021738
226	0x3db5dfb8	0.088805616
227	0xbe01b6cb	-0.12667386
228	0x3dae31ae	0.085055694
229	0xbddb8e0e	-0.10720454
230	0x3e0e97af	0.1392505
231	0xbdc1d97f	-0.09465312
232	0x3d0b17c4	0.03395821
233	0x3d3fd2b0	0.046831787
234	0xbd079d9e	-0.0331093
235	0xbda8937d	-0.08231256
236	0x3e0de50d	0.13856907
237	0x3e1748f1	0.14773919
238	0x3e04c951	0.12967421
239	0xbd58c7a2	-0.05292476
240	0x3c505d80	0.012717605
241	0xbdb81bf2	-0.08989705
242	0xba0fc300	-0.00054840744
243	0xbdec37af	-0.11534058
244	0xbd48bfb8	-0.049010962
245	0x3d65d318	0.056109518
246	0xbdbc4628	-0.09193069
247	0xbdb35e16	-0.0875818
248	0x3de08b1a	0.109640315
249	0xbd57f3b0	-0.052722633
250	0xbd8ec314	-0.06970802
251	0x3d8fa7f6	0.07014458
252	0xbde3ee4a	-0.111294344
253	0xbd04e60a	-0.032445945
254	0x3b02d180	0.0019961298
255	0x3df49d9a	0.119441226
